CQ/result/P7_Resullt/HOURS/data8/2/best_model.pth (torch_old, 603202 bytes, 11 tensors)

node_embeddings f4 [228, 2]
000000 bb c0 8b 3d 60 e6 03 bd d7 46 96 3e d9 e7 86 3e
       0.0682387 -0.032202125 0.29350922 0.2634876
000010 d9 5c 8a 3d 37 f4 b4 3b 62 b4 00 be ec 4c 87 3e
       0.067559905 0.0055222767 -0.1256881 0.26425874
000020 dc a0 92 3e 83 91 50 3e e3 10 86 3e ff 19 2a 3c
       0.2863835 0.20368008 0.2618476 0.0103821745
000030 a7 b6 21 3e cc 9b c3 3d 18 d2 0e 3e b0 51 90 3e
       0.15792333 0.095512 0.13947332 0.28187323
000040 9e 42 b1 be a9 53 2c 3d 87 7e 1b be 7b 08 83 3e
       -0.34621137 0.042071972 -0.15184985 0.25592408
000050 75 87 95 3e aa 84 2c 3e bc b0 96 3e c7 a5 80 3e
       0.29204908 0.16847482 0.29431713 0.25126478
000060 3b 85 a0 bd 9d 52 43 3e 91 3f 88 3e 4e 28 0d 3e
       -0.07837912 0.19074483 0.26610997 0.13784906
000070 a1 03 14 3e eb e4 08 3e 21 a9 85 be d6 ec 18 3e
       0.1445451 0.13368575 -0.26105598 0.14934096
000080 b0 ab bd 3b de 58 9a 3e 3b 3b 52 3e 67 22 91 3e
       0.005788289 0.30145925 0.20530407 0.2834656
000090 04 2d 9e 3d c8 3d 6d bc 80 28 02 3e 19 a0 7e 3e
       0.0772343 -0.014480062 0.12710762 0.2486576
0000a0 b7 1d f8 bd 35 f1 41 3e 2b 47 1d 3e a4 e4 f1 3d
       -0.12115043 0.1893967 0.1535918 0.11811188
0000b0 ae f9 80 3e 7d 16 25 3e 43 78 92 3e c0 80 d9 3d
       0.2519049 0.1612186 0.28607377 0.1062026
0000c0 2d 03 59 3e 2d 05 cf 3a 11 d6 aa 3d 5b b2 21 3e
       0.21192618 0.0015794389 0.08341611 0.15790693
0000d0 d8 28 eb 3d 10 21 63 3e a2 c0 e8 3d a2 f6 3d 3e
       0.114824 0.22180581 0.11364867 0.18551114
0000e0 a8 77 12 3d da 13 4c 3e 4b d2 bf bb ea 17 21 3d
       0.035758644 0.19929448 -0.0058539263 0.039329447
0000f0 35 02 05 be 7f eb 97 3e 5a c3 43 3e 0d 3c 65 3e
       -0.12989123 0.29671857 0.1911749 0.22386189
000100 21 43 7f 3e 35 f3 e6 bc 12 ce 8e 3e 57 7f ef 3d
       0.24927951 -0.028192142 0.27891594 0.1169421
000110 af fd 9d 3d db 37 a2 bc 81 04 a1 3d 01 7d 8c 3e
       0.07714402 -0.019802025 0.07862187 0.2743912
000120 80 b1 9e 3d 02 9a 7f 3e e8 d8 e7 bd d6 7c 87 3e
       0.07748699 0.24961093 -0.113206685 0.2646243
000130 a6 9a 0e 3e 71 3b 6d 3e 44 b2 cd bd c5 ec 97 3e
       0.13926181 0.23167206 -0.10043767 0.29672828
000140 c8 3b 67 3e 79 f0 91 3e 83 8f 1e 3e f2 06 4c 3e
       0.22581398 0.2850378 0.15484433 0.19924524
000150 07 4c 06 3e a7 2e 5d 3e 15 42 86 3e da ca 26 3d
       0.1311494 0.21599828 0.26222292 0.040720798
000160 ec 10 33 3e 14 41 5e 3e dc 6d 8b 3d 72 90 1f 3e
       0.17486924 0.21704513 0.068080634 0.15582445
000170 16 c6 93 3d 91 da 8d 3e 4d 05 8a 3e 7a 49 83 3d
       0.07215516 0.27705815 0.2695717 0.06410499
000180 0d c4 f9 3d 64 12 1c 3e 03 6c 4f 3e b8 15 a7 3d
       0.12195597 0.1524139 0.20256047 0.081584394
000190 de 6d 0e 3e 23 c3 e7 3d 4d c2 c6 3d 7b d4 58 3e
       0.13909099 0.11316516 0.09705029 0.21174805
0001a0 00 30 3f 3e 86 09 93 3e 63 e5 68 3e 53 a8 64 3e
       0.18670654 0.28718203 0.22743754 0.22329836
0001b0 ba e6 b8 3d 30 ab 34 3e 56 6e 3c bd 89 35 94 3e
       0.090283826 0.17643428 -0.046003662 0.28947094
0001c0 cd 5b 88 3e 61 d1 93 3e a1 7f 8b 3e 11 4b 63 3d
       0.26632538 0.2887068 0.2724581 0.05549151
0001d0 68 e5 34 3e 71 47 df 3d 03 72 70 3e 26 2b b2 3d
       0.17665637 0.10902298 0.23480992 0.08699636
0001e0 73 4b 06 3e d9 89 0d 3e 94 3b 00 3e 02 0d 0f 3e
       0.13114719 0.13822116 0.12522727 0.13969806
0001f0 d0 ff 91 3e f4 c5 01 3e 09 d4 8f 3e 33 05 ac 3d
       0.28515482 0.1267317 0.28091457 0.08399429
000200 a1 98 fe 3d 0d f3 08 3e 2b 80 fc 3d 93 2e 26 bd
       0.124314554 0.13373967 0.123291336 -0.04057176
000210 47 2a 78 3e e0 32 39 3e 53 04 01 3d 49 d4 9d 3e
       0.24234878 0.18085814 0.031498265 0.30826023
000220 26 62 a0 3d c1 e5 c0 3c 76 fb 8a 3e 06 6d 97 3e
       0.0783122 0.023547055 0.27144974 0.29575366
000230 3b 26 9c 3e 56 d1 79 3d 91 33 08 3e 79 95 05 3e
       0.30497918 0.060990654 0.13300921 0.130453
000240 23 c2 6f 3e 01 01 63 3d 22 d5 0b 3e f5 14 fe 3d
       0.23413901 0.05542088 0.13655522 0.12406341
000250 4b b6 98 3e 35 08 8b 3e 01 18 2f 3e 82 6d 06 3e
       0.29826578 0.271547 0.17099 0.13127711
000260 f8 02 78 3d 7b 33 84 3e de 45 51 3e 26 a4 6d 3e
       0.060549706 0.25820526 0.20436808 0.23207149
000270 ee 12 90 3e 02 46 54 bd 0d 9d 34 3e 10 5f 92 3e
       0.28139442 -0.051824577 0.17638035 0.28588152
000280 e6 48 4d 3e d1 f3 19 3d 66 56 8a 3e fc bd 30 3d
       0.2004734 0.037586037 0.27019042 0.043149933
000290 ab 67 80 3e a3 f5 fe 3d 21 d3 8c 3d a8 d1 d6 3d
       0.25079092 0.12449195 0.06876207 0.104892075
0002a0 25 7d 99 3e 12 27 9a 3e d4 f9 44 3e 5f df 28 3e
       0.2997829 0.30107933 0.19235927 0.1649146
0002b0 28 a3 9f 3e 66 cd 1e 3d 73 ce d3 bd 0f 0c 76 3e
       0.31179166 0.038770102 -0.103421114 0.24028037
0002c0 a4 5e eb 3d e9 d9 c7 bc 66 22 79 be 28 0c 16 3e
       0.11492661 -0.0243959 -0.24329528 0.14653075
0002d0 0f db ca bd f6 38 1a 3e 2d e6 b3 3d d6 34 d3 bc
       -0.09905063 0.15060791 0.08784137 -0.02578203
0002e0 96 f8 44 3e 3a a4 d6 3d 24 1f 62 be aa 1e c1 3d
       0.19235453 0.104805425 -0.22082192 0.09429677
0002f0 88 76 6e 3e 46 87 bc 3d c4 b9 3f 3e 0c 8f 5f 3e
       0.23287404 0.09205489 0.18723208 0.21831912
000300 48 ca 3d 3e 4a ed f0 3d b8 62 49 3e 93 18 b2 3d
       0.18534195 0.11764009 0.19666564 0.086960934
000310 a0 31 84 3e 72 75 41 3e bb 9c b3 3d 6e 04 90 3e
       0.2581911 0.18892458 0.08770128 0.2812838
000320 d7 2a 30 bc 55 ed a2 3d 19 a5 a7 3d cc 7a 87 3e
       -0.010752401 0.07955424 0.08185787 0.26460874
000330 38 04 f3 3d 0e e6 99 3e da f6 49 3e 36 7e 04 3e
       0.11866039 0.3005833 0.19723073 0.1293877
000340 89 fa 81 3d 8a 12 67 3e 9d 27 36 3e 37 8f 40 3e
       0.06346614 0.22565666 0.17788549 0.18804632
000350 1c 53 a2 3c 59 c0 e7 3c 0f 84 6c 3d c3 23 80 3e
       0.01981502 0.02828996 0.05774313 0.25027284
000360 18 32 0c 3e 9a 55 08 3e 89 13 96 3e ac 65 91 3e
       0.13690984 0.13313904 0.2931178 0.28397882
000370 d0 9c 5e 3e 4b ad b7 bd c2 e0 b0 bd 85 97 57 3e
       0.21739507 -0.089686 -0.08636619 0.21053894
000380 db df b5 bd e4 7b ff 3d 93 be 92 3e e3 3b 63 3e
       -0.08880588 0.12474802 0.28661022 0.22190814
000390 15 3f 35 3e 01 b2 81 3d 8f fb 41 bd a1 d8 4b 3e
       0.17699845 0.0633278 -0.047359046 0.19906856
0003a0 0f 3f 8d 3e e3 1e 6c 3e ae 68 91 3e af 3d 11 3e
       0.27587172 0.23058657 0.28400177 0.14183687
0003b0 50 57 91 3e 5f 25 ca 3d 92 b6 ac be 2e 68 b1 3c
       0.28386927 0.09870409 -0.3373304 0.021656122
0003c0 2f 13 85 3e 30 65 1d 3e 55 6e 3b 3e 7d f1 31 3e
       0.25991198 0.15370631 0.18303807 0.17377277
0003d0 8f 67 76 3e 72 63 7f 3e 5f f9 bc 3c d7 be 5a 3e
       0.24062942 0.24940279 0.023068128 0.21361862
0003e0 16 0c c4 bc 27 68 2b 3e 1b 41 80 be f3 1c f4 3d
       -0.023931544 0.1673895 -0.25049672 0.11919584
0003f0 d9 68 71 3d 28 c6 29 3e 94 29 47 3e 01 2b 56 3e
       0.05893788 0.16579497 0.19449455 0.20914842

encoder.dcrnn_cells.0.gate.weights_pool f4 [2, 2, 65, 128]
000000 63 f9 e4 3d 71 81 b4 3c a7 67 52 3d b7 9a 9a 3d
       0.11180379 0.022034379 0.05136838 0.07549041
000010 9e 56 46 3d 63 26 c5 3d 44 72 ca 3d ee 19 43 3d
       0.04842245 0.09626462 0.09885076 0.04763215
000020 ac f6 a4 3c ed a9 5a be 96 b6 8c 3d 66 2d ac 3d
       0.020137154 -0.21353884 0.06870763 0.084070966
000030 95 dd 98 3d fe 1e 82 3d c8 35 e2 3d 92 14 b0 bd
       0.074641384 0.063535675 0.11045414 -0.085976735
000040 d9 09 ab 3d df fd b0 3d d7 b2 f9 3c 0e cc 3c 3c
       0.08351488 0.08642172 0.030480785 0.01152326
000050 b0 27 cb 3d 8f b8 1f bb 00 16 a8 3d 26 49 70 be
       0.09919679 -0.002437148 0.08207321 -0.23465404
000060 38 97 28 bd c5 53 e6 3d 2e 44 c4 3d 78 b2 89 bc
       -0.04115984 0.112464465 0.09583317 -0.016808733
000070 95 5a 7e 3d 0d b5 65 3d 1c 34 1c 3d a8 c5 bf 3d
       0.062098105 0.056080867 0.038135633 0.09363872
000080 3f dd e9 3b 6e d3 b3 3d 8f 47 fa 3c d0 65 bb 3d
       0.0071369703 0.087805614 0.0305517 0.091502786
000090 de d1 74 3d d9 e9 85 3d f2 e3 bf 3d e1 47 82 bd
       0.059770457 0.065387435 0.09369649 -0.06361366
0000a0 50 3a 4d be 35 e5 e8 3d c6 6e 25 3d 19 c6 8f 3d
       -0.20041776 0.11371843 0.040388845 0.07020206
0000b0 01 cf 0f bc 2d f9 b0 3d f7 41 17 be 2b 5c cd 3d
       -0.008777381 0.086412765 -0.14771257 0.10027345
0000c0 4c c7 33 be e1 a1 90 3c 08 a1 a8 3d 8d 35 c3 3d
       -0.17556494 0.017655315 0.08233839 0.095316984
0000d0 0e ff 8f 3c 00 70 a8 3c 88 d3 ac 3d 45 2d b8 3d
       0.017577674 0.020561218 0.08438784 0.089930095
0000e0 36 37 0b 3d 9b 7d 93 3d b5 87 a8 3c 19 0e 06 bd
       0.0339882 0.07201692 0.020572523 -0.03272829
0000f0 df f8 84 3d 4a cb 8e 3d 34 8c 84 ba 65 5d 98 3d
       0.06492781 0.06972368 -0.0010112585 0.074396886
000100 12 48 2a be a2 c5 1a be 1e 5c 12 be 3e c8 1e be
       -0.16629055 -0.15114453 -0.14292952 -0.15506074
000110 4d 60 00 be 20 c3 17 be c3 43 f9 bd 38 47 04 be
       -0.12536736 -0.14820528 -0.12171128 -0.12917793
000120 a6 53 14 be 77 5d 97 bd 28 37 f4 bd 4f 15 0c be
       -0.14485034 -0.07390874 -0.11924583 -0.13680004
000130 a4 3a 0f be 4c 3d 05 be c3 a0 08 be 1c 2b 0e be
       -0.13987213 -0.13011664 -0.13342576 -0.13883632
000140 6a af 1c be 4e eb 1c be 54 dc 16 be 26 b4 04 be
       -0.1530129 -0.15324137 -0.14732486 -0.12959346
000150 6a d9 15 be fc 46 07 be 56 67 0f be 14 95 cf bd
       -0.14633718 -0.13210672 -0.14004263 -0.10135856
000160 67 2d 03 be c4 d5 19 be 75 f5 16 be c9 b8 16 be
       -0.12810288 -0.15022951 -0.14742072 -0.14718927
000170 94 28 10 be 15 69 0b be 4c d4 2f be 5b 1e 09 be
       -0.1407798 -0.13614304 -0.17170829 -0.13390486
000180 c0 91 04 be 65 53 0b be ca c7 0a be f1 41 2b be
       -0.12946224 -0.13606031 -0.13552776 -0.16724373
000190 14 fa 0d be 12 e0 1d be 00 61 2e be 78 fc 1d be
       -0.13864928 -0.15417507 -0.1702919 -0.1542834
0001a0 86 92 4c bd c1 2b 10 be db e7 08 be 7a d1 11 be
       -0.049944423 -0.14079191 -0.13369696 -0.14240065
0001b0 64 3e 22 be 1a aa 24 be 71 a0 89 bd fa 60 25 be
       -0.15844113 -0.16080514 -0.06720055 -0.16150275
0001c0 49 01 9b bd 62 c4 17 be db 52 0a be ef 76 14 be
       -0.075686045 -0.14821008 -0.1350817 -0.14498495
0001d0 db e6 05 be 09 10 36 be 0a 8d 06 be c9 50 1b be
       -0.13076346 -0.17779554 -0.1313974 -0.15167536
0001e0 1f 08 fd bd f5 8b 2a be 60 8e 20 be 89 16 ef bd
       -0.123550646 -0.16654952 -0.15679312 -0.1167422
0001f0 96 51 05 be 1e a7 25 be c2 58 0d be 18 0d 1d be
       -0.13019404 -0.16177031 -0.1380339 -0.15337026
000200 c1 81 f6 bd 0d fb 2c be 20 89 08 be 33 49 0f be
       -0.12036467 -0.16892643 -0.13333559 -0.13992767
000210 8f 8a 0b be eb 24 e6 bd 26 41 0c be b0 ef fd bd
       -0.13627075 -0.1123751 -0.13696727 -0.123992324
000220 4e 8f ff bd b5 0a f1 bd 3d 1e 0c be 10 a3 fe bd
       -0.12478505 -0.1176962 -0.1368341 -0.124334455
000230 f1 a1 e7 bd 9c e1 02 be 46 fd 08 be 1b e6 f3 bd
       -0.11310185 -0.12781376 -0.13377866 -0.119091235
000240 4b 08 09 be 76 30 f7 bd 9c cb 02 be 41 29 28 be
       -0.1338207 -0.1206979 -0.12772983 -0.16421987
000250 c5 cc fd bd 39 01 cf bd bf 92 e8 bd ba 61 d7 3c
       -0.12392572 -0.10107655 -0.113561146 0.026291717
000260 85 d1 05 be 5d 20 08 be 3a 9e 21 be 71 15 bf bd
       -0.13068207 -0.13293596 -0.15783015 -0.093302615
000270 d5 75 02 be f1 ab 0d be 75 32 01 be 05 d5 0c be
       -0.12740262 -0.13835122 -0.12616904 -0.13753136
000280 f7 6b 0b be 9c d1 21 be 75 44 0d be 66 9c 06 be
       -0.13615404 -0.15802616 -0.13795646 -0.13145599
000290 4b 3a fc bd c7 d9 eb bd 3d dc fc bd 81 03 f2 bd
       -0.12315806 -0.11516147 -0.123466946 -0.118170746
0002a0 2c 24 e5 bd 97 2e 07 be bd 63 02 be 50 17 fe bd
       -0.1118854 -0.13201366 -0.1273336 -0.1240679
0002b0 d1 f0 f2 bd 8d 82 09 be 77 a5 02 be bb 98 10 be
       -0.11862338 -0.13428707 -0.12758432 -0.14120762
0002c0 07 db 05 be 92 66 12 be de a1 0b be b5 12 f0 bd
       -0.13071834 -0.1429694 -0.13635966 -0.11722318
0002d0 d5 20 16 be a3 15 0f be 4f a0 04 be 89 ed 01 be
       -0.14660962 -0.13973098 -0.12951778 -0.12688269
0002e0 32 a9 f1 bd 5d ed f9 bd 9b 19 06 be 97 ff 1c be
       -0.117998496 -0.122034766 -0.13095705 -0.15331875
0002f0 67 d6 0e be 07 e2 09 be 57 87 04 be 1e c7 0e be
       -0.13948976 -0.13465129 -0.12942253 -0.13943145
000300 a8 7d 21 3e 07 5d 17 3e cd 2b 12 3e 28 0e 08 3e
       0.1577059 0.14781581 0.14274521 0.1328665
000310 3f c4 13 3e 2f 36 17 3e 7f 3f 07 3e 79 37 10 3e
       0.1443033 0.14766763 0.13207816 0.14083661
000320 9c a5 06 3e ca 9c 17 3e d7 49 1c 3e 09 4f 10 3e
       0.13149112 0.14805904 0.15262543 0.1409265
000330 71 82 10 3e e0 9e 17 3e 87 df 06 3e 8e 66 0c 3e
       0.1411226 0.148067 0.13171206 0.13710997
000340 01 c5 0b 3e bd b7 20 3e a5 46 16 3e 40 ac 0a 3e
       0.1364937 0.1569509 0.14675386 0.1354227
000350 07 5d 17 3e a5 09 15 3e dc 47 20 3e da cf 35 3e
       0.14781581 0.1455446 0.15652412 0.1775507
000360 54 23 14 3e 23 dd 0a 3e fc 16 1b 3e c6 d7 1b 3e
       0.14466602 0.1356092 0.15145487 0.1521903
000370 c1 d7 1e 3e 48 e0 17 3e 13 c7 11 3e 9a e0 10 3e
       0.15511991 0.1483165 0.14236097 0.14148179
000380 3c 9e 1a 3e 6d 15 1b 3e 1d c1 0c 3e 00 20 16 3e
       0.15099424 0.15144892 0.13745542 0.14660645
000390 8c ef 17 3e ef ba 11 3e b8 9f 1d 3e a0 c6 01 3e
       0.14837474 0.14231466 0.15392959 0.12673426
0003a0 61 51 23 3e 94 7e ff 3d c2 3b 0a 3e 1b cf 1f 3e
       0.15949012 0.12475315 0.13499358 0.15606348
0003b0 37 40 10 3e 17 79 0e 3e c9 b1 17 3e be 28 17 3e
       0.14086996 0.1391338 0.14813913 0.14761636
0003c0 79 45 13 3e f0 6a 1a 3e 02 07 07 3e 2d b8 19 3e
       0.1438197 0.15079856 0.13186267 0.15011664
0003d0 a0 78 14 3e 7c 97 15 3e f0 51 09 3e ac 2b 0f 3e
       0.1449914 0.14608568 0.13410163 0.13981503
0003e0 a7 90 16 3e aa ff 09 3e a5 de 0b 3e 1a f3 08 3e
       0.14703618 0.13476434 0.13659151 0.13373986
0003f0 22 3e 0d 3e 44 0d 0a 3e cf 2d 1d 3e 5c fe 14 3e
       0.13793233 0.13481623 0.15349506 0.14550155

encoder.dcrnn_cells.0.gate.bias_pool f4 [2, 128]
000000 cf 80 49 3e fe 30 42 be 78 1f 20 3e 1d f7 89 3d
       0.19678043 -0.18964002 0.15637004 0.06736586
000010 b1 47 a9 3e 90 22 b6 3e b4 93 aa bd 76 90 df 3d
       0.3306251 0.35573244 -0.083289534 0.109162256
000020 e5 ab f8 bd b7 ea 55 3e 66 27 52 3e da 7f 54 bd
       -0.12142161 0.20890318 0.20522842 -0.05187974
000030 5a fa f4 3d 67 af 52 3e e6 e8 8f 3e 02 bd a9 3e
       0.11961813 0.20574723 0.28107375 0.33152014
000040 5a 94 15 3e 08 80 9c 3e 07 61 9e be d0 72 49 bb
       0.14607373 0.3056643 -0.309334 -0.00307386
000050 f8 be 6c 3e 2d 55 ce bd eb 5d a4 3e 88 95 26 3e
       0.23119724 -0.1007484 0.32102904 0.16267979
000060 8e aa 2d 3e b7 8f 81 3e 66 62 9b 3d 59 cf 99 be
       0.16959593 0.25304958 0.075871274 -0.30041006
000070 88 2e 69 3e 3a ea 5c 3e 43 eb 30 3e 7c 97 26 3e
       0.22771657 0.21573725 0.17277245 0.16268724
000080 ae bc 83 bc 97 f9 8d 3d f0 4f 72 bd 0f 27 77 bd
       -0.01608118 0.06932371 -0.059158266 -0.060339984
000090 fe 37 1b 3e 63 d6 99 3d 55 a5 7a 3e 43 88 90 3e
       0.15158078 0.07511594 0.24477132 0.2822896
0000a0 9f c3 17 3e d0 8e e3 3d 95 50 af 3d 1c cc 1e 3e
       0.14820717 0.11111224 0.08560292 0.15507549
0000b0 a6 c7 42 bc 73 a6 5e 3c 0f ef a8 3e 06 34 24 3d
       -0.01188842 0.013589489 0.32994887 0.040088676
0000c0 34 bb 69 bd 09 16 34 be a9 cd b1 3e bd 9f 05 3e
       -0.057063296 -0.1758653 0.3472722 0.13049217
0000d0 2b 14 6b 3c 4d 16 28 bd 73 96 ce 3b 38 b1 46 3e
       0.01434807 -0.041036893 0.006304556 0.19403541
0000e0 f6 1e bf 3d 2e 52 9a 3e 4a 13 a2 bd 09 8f 11 bc
       0.09332077 0.30140823 -0.07913835 -0.0088842
0000f0 71 e4 22 3e aa 91 3a 3e 6c 10 0b be c8 38 b1 3d
       0.15907456 0.18219629 -0.13580483 0.08653408
000100 4e ea 7e be 18 18 62 3e a8 fa 31 3d 83 e9 ae be
       -0.24894068 0.22079504 0.043451935 -0.3416253
000110 04 6e 86 be 14 f3 7c be ec e6 35 be 94 f0 8c 3d
       -0.2625581 -0.24702102 -0.17763871 0.06881824
000120 5f b3 e1 bc 5d f8 81 be 3f 6f f7 3c 32 69 e4 3c
       -0.027551351 -0.253848 0.030204413 0.027882192
000130 81 47 4e 3b 8d ae 8b bd b7 ae 90 be 4a 47 51 be
       0.0031475725 -0.06820402 -0.28258297 -0.20437351
000140 90 ca 54 be a3 ee 9a be 57 15 39 3e af 96 72 bd
       -0.20780396 -0.3026019 0.18074547 -0.059225734
000150 5e 07 29 ba 65 23 41 bd cb 70 72 bd bf 5c 81 bd
       -0.0006447936 -0.047152895 -0.0591896 -0.06316518
000160 8f 14 1c 3b 8e db 99 bd 70 d2 63 be 93 7f 1b bd
       0.0023815965 -0.0751258 -0.22248244 -0.03796346
000170 3d 68 56 be d2 43 7c be b2 08 73 be db 5a 30 3d
       -0.20938201 -0.24635246 -0.23733786 0.043055397
000180 c1 54 30 3e ba 7a 1e be 87 2e 88 bc 35 11 8a be
       0.17219831 -0.15476504 -0.016623748 -0.26966253
000190 7f 4e df bc 14 f1 9e bd e8 3c 65 be 19 fd fe bd
       -0.02725911 -0.07760826 -0.22386515 -0.12450618
0001a0 c7 67 ae be f2 da 8b bd 09 19 21 3d 3b c4 3a be
       -0.3406355 -0.0682887 0.039330516 -0.18238918
0001b0 49 dd 87 bd a9 f0 5f 3d aa a1 8e bd ac ca 92 be
       -0.06634004 0.05467287 -0.06964429 -0.2867025
0001c0 be 82 94 3d 27 0d f6 3d d8 2d 2e be cc 6d 81 3c
       0.072514996 0.12014227 -0.17009676 0.015799426
0001d0 99 52 06 bd 7a 0e 14 be 7c 31 a2 be 87 69 da bc
       -0.032793615 -0.14458647 -0.3167838 -0.026661647
0001e0 e5 11 ca bd 2f 07 de bd 67 bd 33 3d b0 9c cb bd
       -0.09866694 -0.10841214 0.0438818 -0.09941995
0001f0 f8 c1 89 be db 2f dd bd a3 5a c5 3c 75 81 10 be
       -0.269058 -0.10800143 0.02409107 -0.14111884
000200 36 9e ab 39 9b 53 76 3e 5b 2d 3a 3e 3e 24 6a 3e
       0.00032733538 0.2405533 0.18181364 0.22865388
000210 21 1f ad 3d 8f 77 a2 3b d9 11 95 3e a1 ed 01 3e
       0.08453203 0.0049581 0.2911518 0.12688304
000220 5f ca 04 3e 2b 83 89 bd e2 46 7c 3d 25 25 30 3e
       0.12967823 -0.067144714 0.061591037 0.1720167
000230 6f c2 08 3e 7f fe 99 3e e3 2e d1 3c 47 fc a6 3e
       0.1335542 0.30076978 0.025535053 0.32614347
000240 e6 e6 1d bd 72 20 49 3e eb 89 ca 3d d7 8f b9 3e
       -0.03855028 0.19641283 0.09889587 0.36242554
000250 9f a4 52 3d 28 79 1d 3e 9f 66 37 3e 97 bd 71 3e
       0.051426526 0.15378249 0.1791024 0.23607479
000260 fc 35 83 3e 7f 5a 6d 3d 6f c9 0f 3e 44 a6 35 3e
       0.25627124 0.057947632 0.14041685 0.17739207
000270 55 17 8a 3d b6 3d 50 3d 61 e3 ad 3e 9a 97 50 bc
       0.067427315 0.050840102 0.3396254 -0.012731457
000280 ac 68 46 3e d0 e8 bd bc 7b 00 a9 3e 3a 23 8d 3e
       0.19375867 -0.023182303 0.3300818 0.27565938
000290 aa 2a 74 3e c4 8e 3d 3e 11 fa af 3e 8e 5b 15 3e
       0.238444 0.18511492 0.34370473 0.14585707
0002a0 03 52 36 bc b8 d7 26 3e 45 49 5b 3e a3 8b 08 3e
       -0.011127952 0.16293228 0.21414669 0.13334517
0002b0 8b a1 6f 3d 0e 52 eb 3d 3c 76 ea 3d cf af ae 3e
       0.05850367 0.1149026 0.11448333 0.34118506
0002c0 58 cb 91 3e 85 29 29 3e da 14 6e 3d 6d 01 b5 3c
       0.2847545 0.16519745 0.058125354 0.022095406
0002d0 a4 60 b6 3d 94 43 96 3e 6e bd bb bc 8a a8 0e 3d
       0.089051515 0.29348433 -0.022917476 0.0348287
0002e0 df ed 44 3e 22 7d a7 3e ca 20 0a 3e b1 e0 89 3e
       0.19231366 0.32712656 0.1348907 0.26929238
0002f0 08 b6 d8 3d f4 a3 6e 3e 40 c6 8a bd f9 26 4d 3e
       0.10581595 0.2330473 -0.067760944 0.20034398
000300 3f db aa be 80 7c d4 3b ad e2 29 3b 31 a4 be bd
       -0.33370396 0.006484568 0.0025922463 -0.09308661
000310 ed 0b 1e be ab 2d 9b be 54 4c 93 3d 0a 47 7e be
       -0.15434237 -0.3030828 0.07192293 -0.24831787
000320 07 b7 8b 3d aa 5b 56 be bd e8 95 be 52 e0 1c 3d
       0.06822019 -0.20933405 -0.29279128 0.038299866
000330 de f5 28 bc 8f d5 4f bc 41 27 18 be 51 e6 8d be
       -0.010312526 -0.012685194 -0.14858724 -0.2771478
000340 d6 7f 98 be 77 e5 1c bd ec 8f 91 3a ba 46 1e be
       -0.2978503 -0.038304772 0.0011105514 -0.15456668
000350 af dc 89 be 05 a8 57 be 44 9b 91 be 45 c8 a0 be
       -0.2692618 -0.21060188 -0.2843877 -0.31402794
000360 d7 03 32 bd 01 1f d4 bd c9 20 a7 be 5e 8e 53 bd
       -0.043460693 -0.10357476 -0.326422 -0.051649444
000370 5d af 8e be c4 5d 3b bd 04 68 03 be 31 62 95 be
       -0.27868167 -0.04574372 -0.12832648 -0.29176477
000380 4f d7 a3 bc 5f c1 ab be be 1a 88 bd a9 86 e9 bc
       -0.020000128 -0.33545968 -0.06645726 -0.028506594
000390 32 d4 8f be c0 f7 91 3d 94 74 6e be e7 49 4d be
       -0.2809158 0.07127333 -0.23286659 -0.20047723
0003a0 3b 80 92 3d a4 4f 08 be 3a 6e 9c be 45 09 93 be
       0.07153364 -0.1331163 -0.30552846 -0.2871801
0003b0 6a d6 95 be c6 e3 da 3c b7 35 3d 3c 2c 59 96 bc
       -0.29265147 0.026719939 0.011548451 -0.018353067
0003c0 a5 1f 82 be 19 ea 9c be 46 e8 5e be f4 05 3e be
       -0.25414768 -0.30647352 -0.21768293 -0.18556958
0003d0 e1 24 10 bd 52 a1 ff bd 5b e2 95 bb d6 07 aa be
       -0.03519142 -0.12481941 -0.004574103 -0.33209103
0003e0 99 b3 84 be 21 52 bc 3c 43 ac 5c be 14 c0 ad 3c
       -0.25918272 0.02298838 -0.21550088 0.021209754
0003f0 a2 5e 89 3d b4 c7 a0 be d4 17 19 be 4d ab a7 be
       0.06707503 -0.3140236 -0.14950496 -0.3274788

encoder.dcrnn_cells.0.update.weights_pool f4 [2, 2, 65, 64]
000000 5b 67 bb bd 4f c8 cc 3c b1 c4 2b 3d 76 5c 97 bd
       -0.09150573 0.024997858 0.041935626 -0.073906824
000010 a9 2d 4e 3d 7b e4 91 bd 10 f2 b8 3c 1c 71 3f 3d
       0.050336514 -0.07123657 0.022576362 0.04673873
000020 fb ba 4a 3d 01 b2 f5 ba c3 a0 24 3d 99 33 8e bd
       0.049494725 -0.0018745066 0.040192377 -0.06943435
000030 92 70 6d bd 1c 1b 2c bd 2d c0 43 bb e8 80 87 bd
       -0.057968684 -0.04201804 -0.0029869184 -0.06616384
000040 a2 7c a5 bd d3 15 8b 3d 0a 7a 2d 3d f8 0c 02 bd
       -0.080804124 0.06791272 0.042352714 -0.03175065
000050 e2 f2 a7 3d cf 57 81 3c 50 c0 b7 bd e6 d2 ee bb
       0.08200623 0.01578894 -0.089722276 -0.0072883246
000060 17 11 a0 bd 14 13 e0 3d a1 65 58 3d 1c 24 6b 3c
       -0.0781576 0.10941139 0.052831296 0.014351871
000070 1b f4 54 3d 2f ba 6f 3d 2b e4 ef 3d b7 a1 08 3d
       0.05199061 0.058527168 0.117134415 0.03335735
000080 62 11 d6 3c 50 c1 58 bc 7e cc 2b 3d 08 97 ab 3d
       0.026131336 -0.013229683 0.041943066 0.08378416
000090 5d cd 30 3d a9 eb 46 3d aa 24 8c 3d d0 16 9b bd
       0.0431646 0.048564587 0.068429306 -0.075727105
0000a0 6e 9e 5f bd 3f 38 d0 bc a8 6f 81 bd 58 da 90 bd
       -0.05459445 -0.025417445 -0.06320125 -0.07072896
0000b0 00 79 0d 3d eb 24 a8 bd d8 28 1e 3c a1 dd 9b bd
       0.034539223 -0.082101665 0.009653293 -0.07610632
0000c0 1d ce 3c bc cc a1 32 3d 73 98 a1 3d 21 69 b8 bd
       -0.011523751 0.043611333 0.078904055 -0.09004427
0000d0 ef 96 2f 3d 1b b8 f4 bd 05 60 80 3d 10 a7 6c bd
       0.04286855 -0.11949178 0.06268314 -0.05777651
0000e0 b0 7c 44 3d 62 52 ad bd c8 33 76 bd ac 4b 94 bc
       0.047970474 -0.08462979 -0.060107976 -0.01810249
0000f0 08 0c 74 3d 74 d0 8e 3d 10 f8 29 bd 61 9d 96 bd
       0.059581786 0.06973353 -0.041496336 -0.073542364
000100 65 7d 10 3e d0 f3 16 be b0 8e 00 be 1a 52 07 3e
       0.14110334 -0.14741445 -0.12554431 0.13214913
000110 1f 1f f8 bd 1c ce 15 3e 70 2e 1d be dd 2c 10 be
       -0.12115311 0.14629406 -0.15349746 -0.14079614
000120 33 b4 1b be a9 39 f9 bd cf 97 16 be 99 4b f2 3d
       -0.1520546 -0.12169201 -0.14706348 0.11830825
000130 3c 26 13 3e c2 a4 f9 3d b6 12 13 3e c3 49 0a 3e
       0.14370054 0.12189628 0.14362606 0.135047
000140 ed 3c 04 3e 80 63 0b be 44 70 07 be f2 a5 f9 3d
       0.12913866 -0.13612175 -0.1322642 0.12189855
000150 0b 91 08 be f3 07 1c be 28 7d 13 3e 43 eb 4d 3b
       -0.1333658 -0.15237407 0.14403212 0.0031420744
000160 26 4a 05 3e 45 76 02 be df 7d 03 be 48 d3 04 be
       0.13016567 -0.12740429 -0.12840985 -0.12971222
000170 b1 6a 00 be e7 1d f9 bd 3d c8 fc bd 62 60 09 be
       -0.125407 -0.121639065 -0.1234288 -0.13415673
000180 cb 27 16 be 9e 3b 18 3e fd 44 28 be 76 48 0a be
       -0.14663617 0.14866492 -0.16432567 -0.13504204
000190 9a 75 01 be 48 67 09 be 78 f3 12 be 41 8e fe 3d
       -0.12642518 -0.13418305 -0.14350688 0.124294765
0001a0 30 21 17 be 28 35 01 3e 28 1b f0 3d e9 2b 01 3e
       -0.14758754 0.12617934 0.1172393 0.12614407
0001b0 9e 2e 11 be 87 d9 17 3e d4 6e 0a 3e fa 6f 0a 3e
       -0.1417794 0.14829074 0.1351884 0.13519278
0001c0 ca 07 11 be 06 a3 1d be 01 ce 0d be 93 0e 07 3e
       -0.14163128 -0.1539422 -0.13848116 0.13189153
0001d0 1e 09 10 be 07 f6 07 3e 5e f3 02 be 8d 33 13 3e
       -0.14065978 0.13277446 -0.1278815 0.14375134
0001e0 d8 c2 02 be 8b 6d 02 3e 3d 30 f5 3d a9 4a 0c 3e
       -0.1276964 0.127371 0.11972091 0.13700356
0001f0 ed 58 0c be 8f 65 09 be e9 4a fe 3d 54 b0 12 3e
       -0.13705797 -0.13417648 0.12416632 0.14325076
000200 9e 10 0f be 33 2f 42 be 42 ab 22 3e 2a 6d 16 be
       -0.13971183 -0.18963318 0.15885642 -0.1469008
000210 e3 10 25 3e 22 98 13 be 3e 77 64 be b3 27 4c 3e
       0.16119723 -0.14413503 -0.22311112 0.19937019
000220 e7 48 41 be ca fb f0 3d b3 02 17 3e 3c 7d 1e be
       -0.18875466 0.11766775 0.14747123 -0.1547746
000230 89 55 54 be 0e 74 31 be 24 15 61 3e ca 04 fc bd
       -0.20735754 -0.17329428 0.21980721 -0.12305601
000240 de 44 16 be cf 31 2e 3e 08 aa 39 be 91 f5 49 3e
       -0.14674708 0.17011188 -0.18131268 0.19722582
000250 7b c9 1f 3e 58 80 34 be 9b f3 31 be 96 ce 0e 3e
       0.15604202 -0.17627084 -0.17378084 0.13945994
000260 d6 2d e8 bd e4 1b 10 3e b4 de 64 be 6d 60 2a be
       -0.113368675 0.1407314 -0.2235058 -0.16638346
000270 dd 59 3c 3e 96 dd 22 3e 5f 31 05 3e cb 86 48 be
       0.18393655 0.15904841 0.13007115 -0.1958267
000280 d8 ad 43 be dc ee 47 3e 6a 21 39 be b5 07 3d 3e
       -0.19109285 0.19524711 -0.18079153 0.18459971
000290 be f6 4b 3e 9a 94 2f 3e 45 3d 48 3e fb be f4 bd
       0.19918343 0.17146531 0.19554622 -0.11950489
0002a0 f8 7a 2d 3e ab ee 5b 3e b1 f7 51 be 39 e7 25 be
       0.1694144 0.21477763 -0.20504643 -0.16201486
0002b0 67 bc 1a 3e a4 ad 23 be 0b d8 28 be e0 ec 15 be
       0.15110932 -0.15984207 -0.16488664 -0.14641142
0002c0 06 12 19 3e e9 a5 38 be 58 d7 1f 3e c6 a9 21 be
       0.14948282 -0.1803204 0.15609491 -0.1578742
0002d0 f4 68 3f be e6 e5 05 be 54 85 1b 3e b3 e5 48 be
       -0.1869238 -0.1307598 0.1518758 -0.19618873
0002e0 bd c2 24 3e 45 2d 5d be 30 82 2b 3e ca 97 3a 3e
       0.16089912 -0.215993 0.16748881 0.18221965
0002f0 2a 3b 24 3e 24 f8 42 3e e9 dc 3e 3e f0 f7 24 be
       0.16038194 0.1903997 0.18638958 -0.16110206
000300 c9 cb 11 be de b0 13 3e 5d 71 16 3e 2a ac 17 be
       -0.14237894 0.14422938 0.14691682 -0.14811769
000310 b5 06 0b 3e b0 1c 02 be 87 00 17 3e 33 fe 16 3e
       0.13576777 -0.12706256 0.14746295 0.14745407
000320 c1 5b 1c 3e e2 07 0b 3e 03 98 f0 3d 89 b0 01 be
       0.15269376 0.13577226 0.11747744 -0.12664999
000330 70 a2 16 be a4 ff 17 be 5d da 07 be 29 8f 17 be
       -0.14710402 -0.14843613 -0.13266893 -0.14800705
000340 26 53 0e be 31 5f f9 3d 0f 74 15 3e 1d 91 15 be
       -0.13898906 0.121763594 0.14595054 -0.14606138
000350 f2 90 13 3e 71 bc 19 3e ae 45 10 be 72 1e 58 3c
       0.14410761 0.15013291 -0.1408908 0.0131908525
000360 87 69 0f be 60 ad 06 3e 48 b9 0c 3e 38 eb 17 3e
       -0.14005099 0.13152075 0.13742554 0.14835823
000370 12 b9 17 3e cc ea f8 3d eb 22 08 3e 6d 8a 2c 3e
       0.14816692 0.12154159 0.1329457 0.1684968
000380 55 fb 1e 3e 32 e6 2a be 87 79 39 3e bd 4f 16 3e
       0.15525563 -0.16689375 0.18112765 0.14678855
000390 01 b1 05 3e b1 94 ea 3d e3 31 04 3e 83 5d 08 be
       0.13055803 0.11454142 0.12909655 -0.13316922
0003a0 e9 de e8 3d 0c 02 07 be dc 52 0f be 60 4e f3 bd
       0.11370642 -0.13184375 -0.13996452 -0.11880183
0003b0 c5 f8 ed 3d c7 4f fe bd 47 c8 10 be 51 39 ff bd
       0.11619715 -0.1241756 -0.141389 -0.12462104
0003c0 d3 c5 0c 3e b8 d2 30 3e fa 68 fa 3d 6e e9 ea bd
       0.13747339 0.17267883 0.12227054 -0.114703044
0003d0 5a 5d 24 3e f5 1c 11 be 38 77 05 3e 8f d9 0b be
       0.16051236 -0.14171202 0.1303376 -0.13657211
0003e0 eb b9 0a 3e 74 85 ff bd f2 89 1a be ed 47 07 be
       0.13547485 -0.12476626 -0.15091684 -0.13211031
0003f0 a3 1d 18 3e d8 35 f2 3d 21 74 19 be 45 f9 14 be
       0.14855056 0.11826676 -0.14985706 -0.14548214

encoder.dcrnn_cells.0.update.bias_pool f4 [2, 64]
000000 e9 f7 99 be 0e 21 37 be e1 df ea 3e 3b 1c e6 be
       -0.30071953 -0.17883703 0.4587393 -0.44943413
000010 24 56 85 3e 1f 0c b0 be 94 10 a2 bc a7 de 79 3e
       0.26042283 -0.34384248 -0.019783296 0.24401341
000020 94 d8 be be 57 32 a2 3e d2 64 e5 3e 51 df 73 be
       -0.3727461 0.3167903 0.44803482 -0.23815657
000030 59 dc 84 be 31 15 b2 be 77 d3 54 bc c3 9b b0 be
       -0.25949362 -0.34781793 -0.01298987 -0.34493837
000040 cd e4 86 be 83 71 b0 3e fd f8 c1 be d5 ac 8c 3e
       -0.26346436 0.34461603 -0.37885275 0.2747561
000050 7a 6d 7a 3e d3 a5 8c be b2 7d 1d be e9 79 c5 3e
       0.24455824 -0.27470264 -0.1537998 0.38569573
000060 63 77 dc be 37 8a 08 3e 78 73 00 be 40 66 a1 be
       -0.43059835 0.13333975 -0.12544048 -0.31523323
000070 c2 45 9f 3e 75 27 98 3e 7f ea e4 3e 77 36 ec bb
       0.31107908 0.29717603 0.44710156 -0.007208641
000080 bd 94 ad be d3 91 63 3d ab f3 b6 be a9 68 78 3e
       -0.3390254 0.05555899 -0.3573278 0.24258675
000090 fd 0f be 3e b9 93 cf 3e 69 f5 7b 3e 6d c3 a1 be
       0.37121573 0.4054239 0.24605335 -0.3159441
0000a0 6a 00 de 3e 95 9e 40 bc 79 bf 24 be 96 b7 98 be
       0.4335969 -0.011756559 -0.16088666 -0.29827565
0000b0 fc b5 ad 3e ab f3 83 be 48 39 ca be 5d b9 e7 be
       0.33927906 -0.2577184 -0.39496827 -0.45258608
0000c0 b7 3b b8 3e 77 a6 a9 be 13 03 36 3e d2 2b 27 be
       0.3598306 -0.33134815 0.1777461 -0.1632531
0000d0 43 85 b6 be e5 a6 e4 be 03 b3 8b 3e ab 70 97 be
       -0.35648546 -0.4465858 0.27285013 -0.29578146
0000e0 76 67 9c 3e f8 1a 29 be 4c d7 97 3e 9b 3c 2e 3e
       0.30547684 -0.16514194 0.29656446 0.17015307
0000f0 68 93 cf 3e 6b 96 43 3e 5f 3b 91 3e 65 c0 c8 be
       0.4054215 0.19100349 0.2836561 -0.39209285
000100 9b 2e ce be 09 45 e2 3e e6 36 43 3e 3f 3e c4 be
       -0.40269932 0.44193295 0.19063911 -0.3832874
000110 dc 7d b6 3e 62 ec 80 be 6d e3 cf 3e 4f 07 5d 3e
       0.35642898 -0.25180346 0.406032 0.2158482
000120 db 8c b1 3e 69 c4 c8 bd 1e 3c d6 3e df d7 e2 be
       0.34677777 -0.09803087 0.4184274 -0.44305322
000130 85 c0 4e be 98 42 9d be d6 1d cb be 69 bd 20 3c
       -0.20190628 -0.3071487 -0.396712 0.009810784
000140 2f c9 bd be ff 2b d8 3e b1 47 d0 3e b1 16 cf be
       -0.37067553 0.42221066 0.40679696 -0.40447
000150 c3 59 db 3e 27 1e 73 3e 95 a2 a9 be c6 3d 8f be
       0.4284192 0.23741971 -0.33131853 -0.27976817
000160 e8 b5 6b 3c fa 35 e4 3e 10 d6 dd 3e 67 68 87 3e
       0.014386632 0.4457243 0.4332738 0.2644684
000170 18 68 67 3e 13 50 aa 3e eb 2c 64 bb e0 c3 8d 3e
       0.22598302 0.33264217 -0.0034816812 0.27688503
000180 5e c6 b6 3e 86 92 a7 be 35 fc ae 3e 3e c2 86 3e
       0.35698217 -0.32728976 0.34176794 0.2632007
000190 65 1a 3a 3e ec d5 30 3e 7d 04 62 3e 92 23 86 bc
       0.18174131 0.17269105 0.22072025 -0.016374383
0001a0 bc 6b 82 be 33 1b bb be 05 ee 1b be fc 3c aa be
       -0.2547282 -0.3654419 -0.15227516 -0.33249652
0001b0 a0 48 ce bd 7c 71 78 be 5e 55 3a 3e 58 a8 ce be
       -0.10072446 -0.24262041 0.18196627 -0.4036281
0001c0 59 dd 12 be d5 d6 a6 3e 1a ae df 3e 16 c9 56 be
       -0.1434225 0.3258578 0.43687516 -0.20975146
0001d0 d1 1a d7 3e 5c 28 e9 3c 3a 6c ad 3e db 66 80 be
       0.42012647 0.028461628 0.33871633 -0.25078472
0001e0 71 58 97 3e 3a 65 1a be 7f 12 96 be 84 0b 33 be
       0.29559663 -0.15077677 -0.29310986 -0.17484862
0001f0 1d 28 dd 3e 6c cb 39 3e 0c 92 87 be 8e 4e 8e be
       0.43194667 0.18144006 -0.26478612 -0.27794307

encoder.dcrnn_cells.1.gate.weights_pool f4 [2, 2, 128, 128]
000000 32 e9 a5 3c 68 bb d1 bd 13 84 81 bc 30 ba d9 bd
       0.020252798 -0.10240823 -0.015810048 -0.106312156
000010 43 af cd bd cf cd cc bd 4a 30 db bd 72 35 06 be
       -0.10043194 -0.100001924 -0.1070257 -0.13106325
000020 60 c4 ca 3c 73 8e eb bd 1e aa ef bd fb 9f 31 bc
       0.024751842 -0.115017794 -0.11702369 -0.010841365
000030 04 fa 74 3d 16 9a 98 bd bc 9f f6 3c 91 03 db bd
       0.059808746 -0.074512646 0.030105464 -0.106940396
000040 65 e5 d2 bd 12 e3 ea bd 28 1c 24 be 15 3f 64 bb
       -0.1029766 -0.114690915 -0.16026366 -0.003482764
000050 a6 c3 ca bd 14 b0 f7 bd 21 ba d3 bd 76 29 eb bd
       -0.09900598 -0.12094131 -0.10338236 -0.114825174
000060 28 00 6a bc 87 e5 ba bd 34 3e 01 3d f1 93 e9 3d
       -0.014282264 -0.0912581 0.031553462 0.11405171
000070 7b 9e b3 bd ba f7 45 be bd 2a 74 3d 6c 07 d1 bd
       -0.08770462 -0.19332781 0.05961107 -0.10206494
000080 bd d9 de bd 49 cc 40 bc 49 d6 cc bd 2a 7e c1 bc
       -0.10881374 -0.011767455 -0.10001809 -0.02361973
000090 e3 18 0e be 21 40 16 bc 4d 39 cc bd 9b 6a 30 b9
       -0.13876681 -0.009170563 -0.09971867 -0.00016824382
0000a0 4e 90 db bd a5 bd 90 bc 7d 16 02 bd 71 17 ef bd
       -0.10720883 -0.017668555 -0.031759728 -0.11674393
0000b0 cf 9e d7 bd b9 65 46 bc 95 bc e3 bd 79 97 e7 bd
       -0.10528337 -0.0121092135 -0.111199535 -0.11308188
0000c0 2d b9 16 be ac 66 cb 3d d0 7a c6 bd 6d 63 df bd
       -0.14719076 0.099316925 -0.096913934 -0.10907636
0000d0 80 4a 72 3c fa 3b d8 bd 10 eb d4 bd 60 cd d3 bd
       0.01478827 -0.105583146 -0.10396397 -0.103419065
0000e0 a7 7e 6b bd 75 fb 53 bd a9 5c bb bd 71 fc f8 3d
       -0.057493832 -0.05175348 -0.09148533 0.121575244
0000f0 5c 8f ba bd d6 b3 e1 bd 9c 04 99 3c a8 89 8c 3c
       -0.09109375 -0.11020629 0.018678956 0.017155483
000100 41 69 16 3e 89 4d 14 3e 71 a5 09 3e 62 07 21 3e
       0.14688589 0.14482702 0.13442017 0.15725473
000110 e3 d7 1a 3e 03 4e 1f 3e 92 09 28 3e e5 5d 15 3e
       0.15121417 0.15557103 0.16409901 0.14586599
000120 05 ac 00 3e b7 8e 22 3e 9f 07 2c 3e e4 10 0f 3e
       0.1256562 0.15874754 0.16799782 0.13971287
000130 c0 57 0d 3e b8 56 3b 3e 4c 44 2b 3e 8a 86 29 3e
       0.13803005 0.182948 0.16725272 0.16555229
000140 67 d7 27 3e 2f 63 20 3e 88 b7 dd 3d 13 24 05 3e
       0.16390763 0.15662836 0.108260214 0.13002042
000150 d9 0d 21 3e 5a f3 13 3e 19 be 2b 3e 78 87 2c 3e
       0.15727939 0.144483 0.16771735 0.16848552
000160 26 06 10 3e dc 77 2d 3e 0d ca 04 3e e2 12 27 3e
       0.14064845 0.16940254 0.12967701 0.16315797
000170 82 55 39 3e d4 d4 41 3d 1e ad 35 3e fe b2 3a 3e
       0.18099025 0.04732211 0.1774182 0.18232343
000180 09 d3 23 3e fb df 0d 3e 30 a6 1c 3e 66 fd 16 3e
       0.15998472 0.13854973 0.1529777 0.14745101
000190 f7 14 0c 3e c7 8c 0e 3e 2b 39 29 3e 1e 87 0d 3e
       0.13679872 0.1392089 0.16525714 0.13821074
0001a0 0a 10 27 3e dc f2 07 3e 17 03 0d 3e 00 96 20 3e
       0.16314712 0.13276237 0.1377071 0.1568222
0001b0 db ce 1c 3e d9 d6 04 3e 46 15 1d 3e 60 83 16 3e
       0.15313284 0.12972583 0.15340146 0.14698553
0001c0 76 7f d9 3d f8 22 22 3e b5 2a 2d 3e 4d 4b 19 3e
       0.10620014 0.15833652 0.16910823 0.14970131
0001d0 4c 4e 13 3e 03 d4 1c 3e 74 1f 2b 3e 0e 61 29 3e
       0.14385337 0.15315251 0.16711217 0.1654093
0001e0 81 6f 2c 3e 14 b3 10 3e fb 60 26 3e 28 f5 18 3e
       0.1683941 0.14130813 0.16247933 0.1493727
0001f0 e8 16 1b 3e f2 39 1c 3e 97 15 1b 3e ac c7 1b 3e
       0.15145457 0.1525648 0.15144955 0.15212888
000200 ef 50 2a be 70 f8 1b 3d d1 68 28 3d 77 da a5 3d
       -0.16632436 0.038078725 0.041115586 0.080983095
000210 6b a0 c1 3d 5b 18 89 3d ab dc 95 bd 6b cf 6e bb
       0.094544254 0.066940986 -0.0731748 -0.0036439549
000220 94 3f df bd cc 6a 97 3d a7 71 b9 3d 27 1b 87 3d
       -0.109007984 0.07393417 0.090548806 0.06596976
000230 35 41 83 bd 12 55 78 bb fb 87 15 3e 3a 16 7d 3d
       -0.06408922 -0.0037892503 0.14602654 0.061788775
000240 e6 63 9a 3d d9 ff b1 3d ff e0 90 bd 52 51 7a 3c
       0.07538585 0.08691377 -0.070741646 0.015278177
000250 61 22 96 3d 9c 49 e2 ba de b7 9c 3d 2c 32 88 3d
       0.07330776 -0.0017264369 0.076522574 0.066501945
000260 4a 89 5f 3b e2 7c 33 bc 0a 68 ec bd 80 9c e3 3d
       0.003410893 -0.010955067 -0.115432814 0.111138344
000270 78 2a 16 bc 9a 3b 33 be d6 a9 b9 3d 6f f9 0d bd
       -0.009165399 -0.17503205 0.09065597 -0.034661707
000280 cb 93 9b 3d 38 0f f7 3b 78 cb 92 3d b3 74 f1 3d
       0.07596549 0.007539656 0.07167715 0.11789837
000290 28 43 bb bc 1b 4b 77 bd 2c 39 d6 bb 5f 59 b4 bd
       -0.022859171 -0.06037436 -0.006537577 -0.08806109
0002a0 a6 67 9c 3d 56 41 d2 bb d6 5a d9 3d dc e2 84 3d
       0.07636957 -0.00641648 0.10613029 0.064885825
0002b0 80 cd 8b 3d 72 4a 5a 3d 0c e2 9f 3d 30 0c 19 3c
       0.068263054 0.053293653 0.07806787 0.009341285
0002c0 b6 b8 4f bd 7a 5f 3e 3d 8d f2 90 3b 86 d1 98 3d
       -0.050713263 0.046477772 0.0044234456 0.074618384
0002d0 da 8e 23 be a2 6d a3 3d 81 ce 86 3d fd d5 ba 3d
       -0.15972462 0.07979895 0.06582356 0.09122846
0002e0 8e 87 0f 3e fd dc 07 3e 1c 47 4f bc d2 e7 ab 3d
       0.14016554 0.13267894 -0.012651231 0.083938256
0002f0 65 cd cd 3d aa a5 ab 3d f8 9a 62 be bf 3e 6c be
       0.100489415 0.08381207 -0.22129428 -0.2307081
000300 c5 5d ad 3d f3 38 0a 3e 1b 73 99 3d ae 55 02 3e
       0.08465151 0.13498287 0.07492658 0.12727997
000310 49 86 e0 3d 87 21 e2 3d 8e d7 18 3e 21 6b 04 3e
       0.10963113 0.11041551 0.14925978 0.12931491
000320 69 bd c3 3d 63 39 f1 3d 93 f8 f4 3d ab 28 9a 3d
       0.095576115 0.11778524 0.11961474 0.07527288
000330 2f e2 cd 3d 48 55 19 3e 5b 21 e1 3d 39 2a ea 3d
       0.10052907 0.14973938 0.1099269 0.114338346
000340 a6 89 e6 3d 95 7c fc 3d 1e 02 c0 3d 82 7b a3 3d
       0.11256723 0.1232845 0.09375404 0.079825416
000350 64 ac f8 3d ad e0 00 3e 5d 8a ef 3d b8 3a fa 3d
       0.12142256 0.12585707 0.116963126 0.12218231
000360 f3 04 a3 3d 05 f9 14 3e 7a a7 ca 3d 4c 3d ea 3d
       0.07959928 0.14548118 0.09895225 0.11437473
000370 de ea 0c 3e 16 37 17 3d 98 ad 02 3e 0b 6a 06 3e
       0.1376147 0.03691777 0.12761533 0.1312639
000380 e3 6f f1 3d e0 87 95 3d c6 ea fc 3d 67 bf a5 3d
       0.11788919 0.07301307 0.12349467 0.08093148
000390 00 82 63 3d 2b c1 a5 3d 74 72 09 3e 57 60 96 3d
       0.0555439 0.080934845 0.13422567 0.07342594
0003a0 f8 e3 01 3e 2a c8 b6 3d ed e4 ad 3d 88 3c 00 3e
       0.1268462 0.08924897 0.0849093 0.12523091
0003b0 d9 ca 01 3e f1 67 af 3d 67 0c ec 3d 9f 7b 08 3e
       0.12675036 0.08564747 0.11525803 0.13328408
0003c0 f2 f2 24 bd ba 5f b4 3d 7b 83 13 3e 48 9f ee 3d
       -0.040270753 0.08807321 0.14405625 0.11651474
0003d0 48 0c b0 3d b4 b6 ed 3d d1 d7 f8 3d 28 2e f1 3d
       0.085960925 0.116071135 0.12150539 0.11776382
0003e0 96 1d e1 3d 61 66 cd 3d f9 e9 0a 3e 3f 88 e7 3d
       0.10991971 0.10029293 0.13565816 0.11305284
0003f0 04 03 00 3e ad 11 e8 3d f6 f3 ae 3d 54 5e bb 3d
       0.1250115 0.113314964 0.085426256 0.09148851

encoder.dcrnn_cells.1.gate.bias_pool f4 [2, 128]
000000 e0 fb 7f be 54 92 1c 3e 2e 05 68 3d 4d ae 8f 3e
       -0.24998426 0.15290195 0.056645565 0.28062668
000010 32 63 02 3e d3 4e 6c 3e 46 9d a0 3e b5 6f 6d 3e
       0.12733153 0.23076944 0.3136999 0.23187144
000020 8d e9 9c 3d 96 0c c2 bd 72 e4 15 3e aa 8d ad bd
       0.07661734 -0.09475057 0.14637926 -0.08474286
000030 6c a1 03 3e 8f e8 3f 3c 02 e3 1d be c1 6e 3a 3e
       0.12854546 0.011713161 -0.15418628 0.18206312
000040 0b cf 4f 3e 77 30 01 3e 1c 42 cf bd 76 12 b2 3d
       0.20293824 0.12616144 -0.10120031 0.086949274
000050 40 f4 89 3e ef 5c 8a 3e ed 7d 07 3e e4 4c fe 3c
       0.2694416 0.27024028 0.1323163 0.031042524
000060 ed 88 bc bd 5d 9c a2 3e ff bc 2a 3d d0 32 6b bc
       -0.09205804 0.3175992 0.041684147 -0.014355376
000070 1e cc aa 3d 00 52 7a be 18 73 c3 3d ad c0 94 3d
       0.083397135 -0.24445343 0.09543437 0.072633125
000080 ef 2b 02 3e 89 73 0a 3e 6a 9f 81 3e 21 cc 95 bd
       0.12712072 0.13520636 0.25316936 -0.07314325
000090 f5 a4 cf 3c 6e 6a 1d 3e 75 92 cb 3d 42 a8 6c 3d
       0.025347212 0.15372631 0.09940044 0.05777765
0000a0 dc 8d a6 3c e9 da 21 be da 1b 3f 3e 32 7c 5e 3e
       0.020331316 -0.15806164 0.18662968 0.21727064
0000b0 43 c9 d4 3d 1a b7 f4 bc 7e dd 89 3e 3c d1 de bd
       0.1038995 -0.029872466 0.26926798 -0.10879752
0000c0 fe da ee 3d eb 1f 30 be 90 b2 46 3e 67 44 1e 3b
       0.11662863 -0.17199676 0.19404054 0.0024149658
0000d0 35 8c 9a bb cb ed 72 3e 13 b5 a3 3d f4 e9 05 3d
       -0.004716421 0.23723523 0.079935215 0.03269382
0000e0 c1 d1 b5 bd af 4e 80 3e b4 1d 25 ba 31 b4 f3 bd
       -0.08877898 0.2506003 -0.00062986766 -0.11899603
0000f0 b9 99 0f bd 74 d0 e9 ba 0c 0c 1b bb 8e 3a 0f 3d
       -0.03505871 -0.0017838613 -0.0023658304 0.03496795
000100 3a 98 15 be 80 ba 8a be 7d b7 de bc 47 66 a4 bd
       -0.14608851 -0.27095413 -0.027187103 -0.0802732
000110 93 07 61 bd 65 ec b3 3d da 9a ac 3d 8f 4b f1 bd
       -0.054938864 0.08785323 0.08427973 -0.1178199
000120 62 8f 8d 3c 72 7e 07 be 32 49 9d be 56 f4 9e bc
       0.017280284 -0.13231829 -0.30719906 -0.019403618
000130 be 58 1c be 9a 66 84 bc 47 09 e7 3d 6c 4f 13 be
       -0.15268227 -0.016162205 0.112810664 -0.14385766
000140 1b 26 16 be 7b fa a2 bd 5e 72 48 3d 52 25 29 3b
       -0.14662974 -0.079579316 0.048937194 0.0025809598
000150 94 81 4b be 13 f4 a7 3c f0 e9 39 be da b6 42 bc
       -0.19873649 0.020502126 -0.18155646 -0.0118844155
000160 d5 35 3b be dd 0c 63 be 03 f9 1c 3e 3e d6 f7 bc
       -0.18282254 -0.22172876 0.15329365 -0.030253526
000170 77 8a d6 3c cf 7e 4e 3e 01 52 64 3d 28 e3 67 3d
       0.026189072 0.20165561 0.055742268 0.056613117
000180 d1 a4 ea 3d 9b dd 01 bd ba b0 9b bd ba 56 12 be
       0.114572175 -0.03170548 -0.07602067 -0.14290896
000190 6e 67 83 be fb be 85 bd d8 26 ac 3d 14 25 8f bc
       -0.25664848 -0.06530567 0.08405846 -0.017473735
0001a0 1d 97 a9 3d e5 17 89 bb b0 a6 50 be ab 88 5e be
       0.08280776 -0.0041837567 -0.20376086 -0.21731822
0001b0 45 ae 84 3d 23 b6 d8 3d f6 e3 20 be 9a c6 27 bd
       0.06478552 0.10581615 -0.1571196 -0.040960886
0001c0 ef da 44 be 06 cb d1 3d 87 b9 83 bd 00 11 46 be
       -0.19224142 0.10243802 -0.06431871 -0.19342422
0001d0 ab 70 9c bd 30 50 2e 3d f0 3c cc bd 10 4f 06 be
       -0.07638677 0.04255694 -0.099725604 -0.13116097
0001e0 cb b8 3b 3d 8a 7d 0d bd 3e ab 36 be d4 70 1e be
       0.04583053 -0.03454355 -0.17838761 -0.15472728
0001f0 0f 7e 0d be 76 df 76 be 88 b0 cd 3d 5e de 2c be
       -0.13817619 -0.24108681 0.10043436 -0.16881701
000200 7a f6 85 3d 57 8b 92 3e c0 fd b7 bd b0 b0 f0 3c
       0.06541152 0.28621933 -0.08983946 0.029381126
000210 0f 4a ca bd ba a6 01 3d 46 d1 28 3d b1 d1 0f 3e
       -0.09877407 0.031653143 0.041215204 0.14044835
000220 da 25 d3 3d 2f 1f 8d 3e 74 7e 4c 3c 1c 77 7c 3e
       0.10309954 0.27562854 0.012481321 0.24654812
000230 2d 75 de bc 98 44 52 3d d9 3a d4 3d 9f e7 ec 3d
       -0.027155483 0.051334947 0.10362787 0.11567616
000240 a2 79 09 3b 06 02 45 bd 3a 56 19 3e 94 e2 9f 3e
       0.002097704 -0.048097633 0.14974299 0.31227553
000250 41 34 83 3e ea e9 2f bd cb 4e 3d bd ce 67 02 3d
       0.25625804 -0.042947687 -0.04621772 0.031837277
000260 e0 a7 48 3e 5e 77 81 3d 06 f8 07 3e 1c 09 7d be
       0.19595289 0.063215956 0.13278207 -0.24710506
000270 ce a6 11 3e 93 80 05 be 73 4d 34 bd 85 98 0f 3e
       0.14223787 -0.13037328 -0.044019174 0.14023025
000280 66 9f 63 3e d2 ce 94 3e 1e 0c 66 3e f2 d3 8f 3e
       0.22228774 0.2906404 0.2246556 0.2809139
000290 38 b5 b8 3d eb 2b 22 3e 9d de 4f bc 0b 8e 6d 3e
       0.0901894 0.15837066 -0.0126873525 0.23198716
0002a0 27 6e 22 3e 59 d2 01 bc 1e 25 a9 3e d2 06 e9 3d
       0.15862332 -0.007923686 0.3303613 0.11378254
0002b0 0c 5d 49 3d de d6 92 3e 8d 4e f7 3d 6b f9 7c 3e
       0.049161002 0.28679556 0.12075529 0.2470452
0002c0 e1 a4 16 bd 1a b0 fa 3d 29 51 a6 bd 2e 6a 09 3e
       -0.036778335 0.1224062 -0.08120949 0.1341941
0002d0 0e e2 12 3e 13 77 89 3d fe 41 22 3c 15 31 28 3e
       0.14344046 0.06712165 0.009903429 0.16424973
0002e0 e4 c5 39 3e ea 90 94 3e c2 ef 35 3e 27 1c e7 bd
       0.18141896 0.2901681 0.17767242 -0.112846665
0002f0 01 90 8c 3e ab 9a 31 3e 23 32 3f 3e 69 87 5e 3e
       0.27453616 0.17344157 0.1867147 0.21731342
000300 69 7b 90 be 82 c2 d7 3d ba d2 c5 3c 56 9c 49 be
       -0.28219154 0.10535146 0.024148334 -0.19688544
000310 e7 a2 61 3d 83 b8 27 3c c4 d2 14 bd 14 08 0a 3c
       0.055086996 0.010236862 -0.036333814 0.008424778
000320 05 a7 16 be c7 4f 29 be ce 87 9f be de 57 92 be
       -0.1471215 -0.16534339 -0.31158298 -0.28582662
000330 b0 58 87 be eb 92 76 be 65 12 a7 3d ea 38 ed 3b
       -0.2643485 -0.24079482 0.08157805 0.0072394507
000340 2f 6a 44 be aa ee 34 be 32 36 22 be 44 01 cb 3d
       -0.19181131 -0.17669168 -0.15840986 0.09912351
000350 6d 3a 4b be 5b 3f cf 3d d6 37 9d 3d 5b d3 b6 bb
       -0.19846506 0.10119506 0.076766655 -0.0055793948
000360 ed b7 85 be 2b 2d 8b 3d 7c 74 b2 3c 05 9d a9 3d
       -0.26116887 0.067957245 0.02178406 0.08281902
000370 1e 53 07 bd 3c cd 1c 3d 57 d4 23 be df 34 0b 3d
       -0.03303825 0.038281664 -0.1599897 0.03398597
000380 02 12 ec bd ca c8 05 be 99 64 2c be 29 8a 4d be
       -0.11526872 -0.13064876 -0.1683525 -0.20072235
000390 a9 15 b3 3d ab 63 26 be 4e 7b 57 3d e0 d6 3b be
       0.08744366 -0.16248958 0.052607827 -0.18343687
0003a0 00 23 5e be ec 72 ae 3d eb 34 00 3c 01 35 81 be
       -0.21693039 0.08518013 0.007825117 -0.2523575
0003b0 54 94 7a bd bc 62 2f be 94 6f 31 be 30 1c 15 bc
       -0.061176613 -0.17127508 -0.1732772 -0.009100959
0003c0 02 7d a0 be b4 d7 34 be da d4 f7 bb c2 b6 ba 3a
       -0.31345373 -0.17660409 -0.0075632157 0.001424514
0003d0 ab 5c b4 bd 6d 2b 8c be 5f fe c1 3c ff 78 8a be
       -0.088067375 -0.2737688 0.023680864 -0.27045438
0003e0 21 6d c6 bd a5 40 bc bd 3f b6 d6 bd 9b 1c 97 bd
       -0.096887834 -0.091920175 -0.104839794 -0.07378503
0003f0 3a 69 94 3d 78 8c 93 be 33 90 64 bd 53 0d 66 be
       0.07246633 -0.28818107 -0.05580158 -0.2246602
