CQ/result/P7_Resullt/HOURS/data10/2/best_model.pth (torch_old, 603202 bytes, 11 tensors)

node_embeddings f4 [228, 2]
0	0x3e255e15	0.1614917
1	0x3da8db45	0.08244947
2	0x3e95f53d	0.29288664
3	0x3e866120	0.26245975
4	0x3e0b7e25	0.13622339
5	0x3dbe2df3	0.09286108
6	0xbe887422	-0.26651102
7	0x3e5c3d09	0.21507658
8	0x3e923846	0.28558558
9	0x3e502edf	0.2033038
10	0x3e8873a1	0.26650718
11	0x3d1909b8	0.037362784
12	0x3e24c049	0.16088976
13	0x3dd4a921	0.10383821
14	0x3e0e9a85	0.13926132
15	0x3e8fa9bc	0.28059185
16	0xbeaf2b6f	-0.34212825
17	0x3ceef1ce	0.029168036
18	0xbe98eb22	-0.29866892
19	0x3e3f6a0f	0.18692802
20	0x3e94ba79	0.29048517
21	0x3e2c753f	0.16841601
22	0x3e96535c	0.29360473
23	0x3e801b77	0.25020954
24	0xbc035cd2	-0.008017736
25	0x3e48fdff	0.19628142
26	0x3e87ba04	0.26509106
27	0x3e0d4c65	0.13798673
28	0x3e18bda6	0.14916095
29	0x3e1380cc	0.14404601
30	0xbe7a2afd	-0.24430461
31	0x3e10eec6	0.14153585
32	0xbc8b52c1	-0.017007234
33	0x3e9ab5c0	0.3021679
34	0x3e51d034	0.2048958
35	0x3e909960	0.28242016
36	0x3e36674e	0.17812845
37	0x3d5e2fad	0.054244686
38	0x3e02c3db	0.12770025
39	0x3e7dc415	0.2478183
40	0xbe9ebf97	-0.31005546
41	0x3de2b2b0	0.11069238
42	0x3e205c46	0.156602
43	0x3dfff940	0.124987125
44	0x3e80b28e	0.25136226
45	0x3e2524ce	0.16127321
46	0x3e925bfd	0.28585806
47	0x3de33330	0.110937476
48	0x3e6e2893	0.23257665
49	0x3d51e3e6	0.05124273
50	0x3db126f3	0.08650007
51	0x3e24ad81	0.16081811
52	0x3ded0ca5	0.115746774
53	0x3e625f62	0.22106698
54	0x3de98d21	0.11403871
55	0x3e3c8c40	0.18412876
56	0x3d23c77d	0.03998517
57	0x3e4d2316	0.20032915
58	0xbbe95196	-0.0071203215
59	0x3d1a40b2	0.037659355
60	0xbe8160ef	-0.25269267
61	0x3e6e1d70	0.23253417
62	0x3e43cfc8	0.19122231
63	0x3e64a5cc	0.22328871
64	0x3e8877b9	0.2665384
65	0x3cf336c5	0.029689202
66	0x3e8e0c7f	0.2774391
67	0x3ded9c84	0.116021186
68	0x3e21a533	0.15785675
69	0x3d917ac2	0.07103492
70	0x3da615b3	0.081096075
71	0x3e8c1a8c	0.27364004
72	0x3da1a722	0.07893206
73	0x3e7ec835	0.2488106
74	0x3af82001	0.0018930436
75	0x3e91036e	0.2832293
76	0x3e0e7f1f	0.1391568
77	0x3e6c15aa	0.23055139
78	0xbdd6ab06	-0.10481839
79	0x3e96122c	0.2931074
80	0x3e669956	0.2251943
81	0x3e915b79	0.283901
82	0x3e1f96d7	0.15584885
83	0x3e4c3a29	0.19944061
84	0x3e06dd47	0.13170348
85	0x3e5c77fa	0.21530142
86	0x3e7fe333	0.24989013
87	0xb9f6c25b	-0.00047065582
88	0x3e32c3d3	0.17457514
89	0x3e5d6b13	0.21622877
90	0x3d8b276c	0.067946285
91	0x3e1d7f29	0.15380539
92	0x3d9724f5	0.07380096
93	0x3e8d62e5	0.27614513
94	0x3e841b0c	0.25801885
95	0x3cf90484	0.030397661
96	0x3df39d0a	0.11895187
97	0x3e14db8e	0.14536878
98	0x3e4b8a1e	0.19876906
99	0x3d972714	0.073805004
100	0x3e0e3c2b	0.1389014
101	0x3de49bf2	0.11162557
102	0x3dc9b668	0.09849244
103	0x3e581272	0.21100786
104	0x3e3f377e	0.18673512
105	0x3e92a1f2	0.2863918
106	0x3e692ece	0.22771761
107	0x3e6438c9	0.22287287
108	0x3dbd995f	0.09257769
109	0x3e366e49	0.17815508
110	0xbc982963	-0.018574422
111	0x3e971821	0.29510596
112	0x3e88617b	0.26636872
113	0x3e9378c4	0.28803074
114	0x3e831080	0.25598526
115	0x3c950866	0.018192481
116	0x3e2bfcf6	0.16795716
117	0x3dc1c9d6	0.09462325
118	0x3e666b93	0.22501974
119	0x3d8ca7bc	0.0686793
120	0x3e00eca3	0.1259027
121	0x3e0194ee	0.12654468
122	0x3df839b3	0.1212038
123	0x3e050642	0.12990668
124	0x3e91d3c7	0.28481886
125	0x3e0564c8	0.13026726
126	0x3e8ff4eb	0.28116545
127	0x3dbd91c6	0.0925632
128	0x3df6447b	0.1202478
129	0x3dfdd26c	0.123936504
130	0x3e555c97	0.20836101
131	0x3d73d39a	0.05952797
132	0x3e77e898	0.24209821
133	0x3e39651d	0.18104978
134	0x3d070cbb	0.032971125
135	0x3e9dc486	0.30813998
136	0x3e0a8bf8	0.13529956
137	0x3ddb616c	0.10711941
138	0x3e8b86ae	0.2725119
139	0x3e979de7	0.29612657
140	0x3e991c1d	0.2990426
141	0x3cfddd93	0.030989444
142	0x3e035e10	0.12828851
143	0x3df525c0	0.11970091
144	0x3e7756b9	0.24154176
145	0x3da3d09c	0.079987735
146	0x3e02f663	0.12789302
147	0x3ddc8427	0.107673936
148	0x3e98c9e4	0.2984153
149	0x3e8aca4b	0.27107462
150	0x3e31cb8b	0.17362802
151	0x3e0dcb80	0.1384716
152	0x3d801d25	0.06255559
153	0x3e83e38b	0.2575954
154	0x3e5143d9	0.20436038
155	0x3e6ce2f6	0.23133454
156	0x3e97fcc8	0.29685044
157	0x3bcc907b	0.0062428094
158	0x3e351b41	0.17686178
159	0x3e92131c	0.28530204
160	0x3e4131c2	0.18866637
161	0x3cea96a8	0.028636292
162	0x3e87bfd5	0.26513544
163	0x3d0810e0	0.03321922
164	0x3e8039ce	0.250441
165	0x3e0306b2	0.12795523
166	0x3daef572	0.08542909
167	0x3e0e537e	0.13899037
168	0x3e995f02	0.29955298
169	0x3e99b43c	0.3002032
170	0x3e448844	0.19192606
171	0x3e27d185	0.16388519
172	0x3e95b1a3	0.2923709
173	0xbd059925	-0.032616753
174	0xbd5e5f45	-0.054290075
175	0x3e7dbe45	0.24779613
176	0x3e443f66	0.1916481
177	0x3d94c762	0.07264592
178	0x3d16c541	0.03680921
179	0x3e332d84	0.17497832
180	0xbe83d570	-0.25748777
181	0x3df13671	0.11777962
182	0x3da1bc75	0.078972735
183	0xbcfce539	-0.03087102
184	0x3e3e807b	0.18603699
185	0x3dc8af98	0.09799117
186	0xbe5831b9	-0.21112718
187	0x3e00b45c	0.12568802
188	0x3e667ba8	0.22508109
189	0x3d9f49a3	0.07777717
190	0x3e3fc61e	0.1872792
191	0x3e5edcc5	0.21763904
192	0x3e33c272	0.17554644
193	0x3dd17bde	0.10228704
194	0x3e50e4f1	0.20399834
195	0x3dd769f4	0.10518256
196	0x3e842b44	0.2581426
197	0x3e4181d1	0.18897177
198	0x3db89fd4	0.0901486
199	0x3e8f9b18	0.28048015
200	0x3d139211	0.03602797
201	0x3e03675e	0.128324
202	0x3dac729c	0.084202975
203	0x3e871251	0.26381162
204	0x3df5d2d9	0.120031066
205	0x3e9961c0	0.2995739
206	0x3e4aca36	0.198037
207	0x3e07f033	0.13275222
208	0x3d864730	0.06556547
209	0x3e664e98	0.22490919
210	0x3e36085d	0.17776628
211	0x3e3fc1c5	0.18726261
212	0x3c01db4c	0.00792582
213	0x3dfae03a	0.12249799
214	0x3d75273f	0.05985188
215	0x3e7fcf62	0.24981454
216	0x3e029ca4	0.12755066
217	0x3dea9568	0.11454278
218	0x3e960227	0.29298517
219	0x3e90fbf0	0.28317213
220	0x3e82721e	0.2547769
221	0xbc941295	-0.018075267
222	0xbddacc8b	-0.10683545
223	0x3e52436c	0.20533532
224	0x3c84e7e1	0.01622385
225	0x3e4129a1	0.18863536
226	0x3e92ef91	0.286984
227	0x3e63848f	0.22218536
228	0x3e4924af	0.196429
229	0x3dd6600b	0.104675375
230	0xbd0a309c	-0.033737764
231	0x3e4bbcf4	0.19896299
232	0x3e8def30	0.27721548
233	0x3e6d8635	0.23195727
234	0x3e90b522	0.28263193
235	0x3e138a6a	0.1440827
236	0x3e91b7c7	0.28460523
237	0x3ddbf31b	0.10739728
238	0xbe816548	-0.25272584
239	0xbdd73a78	-0.10509199
240	0x3e84aa6d	0.25911275
241	0x3e1da85e	0.15396258
242	0x3e3beca3	0.18351988
243	0x3e320e57	0.17388283
244	0x3e77bc63	0.24192958
245	0x3e7fc1a9	0.24976219
246	0x3cac782a	0.021053392
247	0x3e59c231	0.21265484
248	0xbdd525f8	-0.104076326
249	0x3e172e6e	0.14763805
250	0xbd6477b5	-0.055778224
251	0x3e440a6f	0.19144605
252	0x3d84b973	0.06480684
253	0x3e33afdb	0.17547552
254	0x3e48b924	0.19601876
255	0x3e570b7f	0.21000479

encoder.dcrnn_cells.0.gate.weights_pool f4 [2, 2, 65, 128]
0	0x3dec5e7c	0.11541459
1	0x3cebfdec	0.028807603
2	0x3da4fdee	0.08056246
3	0x3dac88e2	0.08424546
4	0x3d8e1790	0.06938088
5	0x3dd4138f	0.10355293
6	0x3db679ff	0.08909988
7	0x3d99319f	0.074801676
8	0xbd1990ee	-0.03749173
9	0x3db28e24	0.087185174
10	0x3db029cf	0.08601724
11	0x3dacbb31	0.084341414
12	0x3db6f16a	0.08932765
13	0x3daf9067	0.085724644
14	0x3d9a7794	0.07542339
15	0x3db0b5f2	0.08628453
16	0x3dafb73f	0.08579873
17	0x3db24089	0.08703715
18	0xbc67468b	-0.01411594
19	0x3be1cfc3	0.006891222
20	0x3dc5df88	0.09661776
21	0xbe1d4af1	-0.15360619
22	0x3d9b563e	0.07584809
23	0x3daac811	0.08338941
24	0x3ddcb1a1	0.107760675
25	0x3dc4a858	0.096024215
26	0x3de1ec80	0.11031437
27	0xbe3815e8	-0.17977107
28	0x3da84b7a	0.08217521
29	0x3d969aa9	0.07353718
30	0x3dd74d6b	0.10512813
31	0x3ddd9f9f	0.10821461
32	0xbd29ebaf	-0.04148453
33	0x3db8fb39	0.09032292
34	0xbbd1d4f9	-0.006403562
35	0x3dcc441d	0.09973929
36	0x3db8bc04	0.09020236
37	0x3daad51f	0.08341431
38	0x3dd81340	0.10550547
39	0x3dcd5e47	0.100277476
40	0x3da7dff2	0.08197011
41	0x3db7c545	0.08973173
42	0x3d7ee960	0.062234282
43	0x3d9e92c0	0.07742834
44	0x3df11a38	0.11772579
45	0x3dbc0155	0.091799416
46	0x3dd2996b	0.102831684
47	0x3ddee61c	0.10883734
48	0x3db304ff	0.08741187
49	0xbc0f35c6	-0.008740848
50	0x3da240d7	0.079225235
51	0x3dccc325	0.09998158
52	0xba099ab8	-0.000524919
53	0x3dd239c9	0.10264928
54	0x3dbd5df9	0.092464395
55	0x3dce517b	0.10074135
56	0x3d804ae2	0.06264283
57	0x3da58883	0.08082678
58	0xbd16c692	-0.036810465
59	0xbdb80ea6	-0.08987169
60	0x3d98eec1	0.07467414
61	0x3db0cdb6	0.08632986
62	0xbd94d35a	-0.072668746
63	0x3db14d26	0.08657293
64	0xbe2ce2b7	-0.1688336
65	0xbdbc0e5e	-0.09182428
66	0xbe0def0c	-0.1386072
67	0xbe2130c7	-0.15741263
68	0xbdf50b7c	-0.11965081
69	0xbe15956f	-0.14607786
70	0xbda385c2	-0.07984497
71	0xbdf5e7d4	-0.12007108
72	0xbd93c489	-0.072152205
73	0xbe27babd	-0.16379829
74	0xbde818e0	-0.113328695
75	0xbe0798b2	-0.13241842
76	0xbe05b744	-0.13058192
77	0xbdfbff1f	-0.1230452
78	0xbdc3719f	-0.09543156
79	0xbe163695	-0.14669259
80	0xbe189b78	-0.14903057
81	0xbe1a8d98	-0.15093076
82	0xbda30cd5	-0.07961432
83	0xbd6c0c05	-0.05762865
84	0xbe10c965	-0.14139326
85	0xbd492474	-0.04910703
86	0xbe09d3c5	-0.1345969
87	0xbe2b4919	-0.16727103
88	0xbe08a51a	-0.13344231
89	0xbe1ac36f	-0.15113614
90	0xbde419f0	-0.1113776
91	0xbd513582	-0.05107642
92	0xbe0634b1	-0.13106038
93	0xbe082799	-0.13296355
94	0xbe22282c	-0.15835637
95	0xbdd48618	-0.10377139
96	0xbd717619	-0.058950517
97	0xbdaf62e5	-0.085637845
98	0xbd93a707	-0.07209592
99	0xbe2972d9	-0.16547717
100	0xbe05f9fc	-0.13083643
101	0xbe13c6a2	-0.14431241
102	0xbe22deca	-0.159053
103	0xbe24e640	-0.16103458
104	0xbe17bbbc	-0.14817709
105	0xbdd1f217	-0.10251253
106	0xbdfd5275	-0.12369243
107	0xbe0d68c6	-0.13809499
108	0xbe2296fc	-0.15877908
109	0xbe1c8e3f	-0.15288638
110	0xbe16913f	-0.14703844
111	0xbe27dcc2	-0.16392806
112	0xbe1c453a	-0.15260783
113	0xbdae5f3f	-0.085142605
114	0xbe06ebe2	-0.1317592
115	0xbe0ca98e	-0.13736555
116	0xbd859b20	-0.06523728
117	0xbe27af89	-0.16375555
118	0xbdfdd258	-0.123936355
119	0xbe116653	-0.1419919
120	0xbdf1f172	-0.1181363
121	0xbe1d3b4f	-0.15354656
122	0xbda9a041	-0.08282519
123	0xbcecc3ca	-0.028901953
124	0xbe02dc3f	-0.1277933
125	0xbe194803	-0.14968877
126	0xbd715634	-0.0589201
127	0xbe1abf62	-0.15112069
128	0xbdf2d2c7	-0.11856609
129	0xbe1fd4a6	-0.15608463
130	0xbe064fed	-0.13116427
131	0xbe0d6559	-0.13808192
132	0xbe095ac9	-0.13413538
133	0xbde204d6	-0.11036079
134	0xbe0da81b	-0.13833658
135	0xbdf8b645	-0.1214414
136	0xbdb09397	-0.086219005
137	0xbdea6717	-0.11445444
138	0xbe0a270a	-0.13491455
139	0xbdfb22c6	-0.12262492
140	0xbde23d6a	-0.1104687
141	0xbe00b414	-0.12568694
142	0xbe0ad73b	-0.13558666
143	0xbded829d	-0.11597178
144	0xbe071c37	-0.13194357
145	0xbdf36b2a	-0.11885674
146	0xbdbff9bf	-0.09373807
147	0xbe14b92e	-0.14523765
148	0xbdfa471d	-0.12220595
149	0xbcf484ec	-0.029848538
150	0xbde59088	-0.11209208
151	0xbdec0e63	-0.115261815
152	0xbe02d4bc	-0.12776464
153	0xbe070e31	-0.13189007
154	0xbe1d36be	-0.15352914
155	0xbca5545e	-0.020181831
156	0xbdffc240	-0.12488222
157	0xbe0b77f2	-0.13619974
158	0xbdfc4e24	-0.12319592
159	0xbe0d8879	-0.13821591
160	0xbdcd2a18	-0.10017794
161	0xbe1fd8da	-0.15610066
162	0xbdd6dc7b	-0.10491272
163	0xbe043036	-0.12909016
164	0xbdf70a75	-0.120625414
165	0xbde71a7a	-0.11284347
166	0xbdf73cf1	-0.120721705
167	0xbdebcc66	-0.11513595
168	0xbddc3dbd	-0.10753963
169	0xbe09159f	-0.13387154
170	0xbdff1fc2	-0.12457229
171	0xbdf9bf5f	-0.12194704
172	0xbdeb58ff	-0.11491584
173	0xbe0715ab	-0.1319186
174	0xbdfead78	-0.1243543
175	0xbe0e951c	-0.13924068
176	0xbe01cfd3	-0.12676935
177	0xbdeb392f	-0.11485516
178	0xbe09ffba	-0.13476458
179	0xbdec1a84	-0.11528495
180	0xbdf3f8ee	-0.11912714
181	0xbe0bcbbf	-0.13651942
182	0xbe028f6d	-0.12750025
183	0xbdfefcc1	-0.12450553
184	0xbdecc7e4	-0.115615636
185	0xbdf3a044	-0.118958026
186	0xbdb566b8	-0.08857483
187	0xbdd0001a	-0.10156269
188	0xbe0cf2c5	-0.13764484
189	0xbe0755dd	-0.13216348
190	0xbdac0d51	-0.084009774
191	0xbe0cc2d6	-0.13746199
192	0x3e204320	0.15650606
193	0x3e0f74a5	0.1400934
194	0x3e117e43	0.14208321
195	0x3e07187e	0.13192937
196	0x3e12f8e3	0.14352755
197	0x3e162133	0.14661102
198	0x3e0156ea	0.12630811
199	0x3e0f8c11	0.14018275
200	0x3df85f8f	0.12127601
201	0x3e112d18	0.14177358
202	0x3e1b797e	0.15183064
203	0x3e0f59ff	0.13999175
204	0x3e0fb706	0.14034662
205	0x3e16f06b	0.1474015
206	0x3e027895	0.12741311
207	0x3e08936a	0.13337484
208	0x3e0ae0ce	0.13562319
209	0x3e1fc423	0.15602164
210	0x3e0cf2d5	0.13764508
211	0x3e025ad4	0.1272996
212	0x3e166386	0.14686403
213	0x3e06fb27	0.13181745
214	0x3e1f68d6	0.15567335
215	0x3e0b7ca1	0.13621761
216	0x3e109e4f	0.1412289
217	0x3e0a0073	0.13476734
218	0x3e13858a	0.1440641
219	0x3e0b02e8	0.13575327
220	0x3e1dfe6a	0.15429083
221	0x3e17207e	0.14758489
222	0x3e0e5407	0.13899241
223	0x3e09caf1	0.13456322
224	0x3e10d84d	0.14145012
225	0x3e13503d	0.14386077
226	0x3e02ac4d	0.1276104
227	0x3e1502f0	0.14551902
228	0x3e17660f	0.14785026
229	0x3e110605	0.14162453
230	0x3e1cdac6	0.1531783
231	0x3dfc6da9	0.123256035
232	0x3e1b48e1	0.1516452
233	0x3df5fa23	0.120106004
234	0x3e099005	0.13433845
235	0x3e1ef2c3	0.15522294
236	0x3e0a0464	0.13478237
237	0x3e0d8784	0.13821226
238	0x3e118ea3	0.14214568
239	0x3e1624cd	0.14662476
240	0x3e0cda54	0.1375516
241	0x3e10fea7	0.14159642
242	0x3e0613e3	0.13093524
243	0x3e18be01	0.1491623
244	0x3e0b0056	0.13574347
245	0x3e119e62	0.14220574
246	0x3e087903	0.13327412
247	0x3e0e46ed	0.13894244
248	0x3e15eaa4	0.1464029
249	0x3e0947e5	0.13406332
250	0x3e016016	0.1263431
251	0x3df7dda6	0.12102823
252	0x3e0c4dbd	0.1370153
253	0x3e0934ff	0.13399123
254	0x3e11b1f6	0.14228043
255	0x3e1413a6	0.1446062

encoder.dcrnn_cells.0.gate.bias_pool f4 [2, 128]
0	0x3e48b964	0.19601971
1	0xbe5f2fa4	-0.21795517
2	0x3e1f3614	0.15547973
3	0x3d8838b7	0.066514425
4	0x3ea8d14d	0.32972184
5	0x3eb5b475	0.3548924
6	0xbdb1f719	-0.08689708
7	0x3ddd603a	0.108093694
8	0xbe04c6a4	-0.129664
9	0x3e540082	0.20703319
10	0x3e514cbb	0.20439427
11	0xbd574cd2	-0.052563496
12	0x3df2e690	0.118603826
13	0x3e51c91e	0.20486876
14	0x3e8fc5c7	0.2808058
15	0x3ea9255c	0.33036315
16	0x3e14b049	0.14520372
17	0x3e9c1678	0.30485892
18	0xbea274e0	-0.31729794
19	0xbbd8be61	-0.006614492
20	0x3e6c038a	0.23048225
21	0xbde954bd	-0.11393116
22	0x3ea40d07	0.3204119
23	0x3e3acb9a	0.1824173
24	0x3e2caaca	0.16862026
25	0x3e816a9e	0.25276655
26	0x3d60f7ed	0.05492394
27	0xbe9fa31c	-0.3117913
28	0x3e6829b1	0.22672154
29	0x3e5bec32	0.2147682
30	0x3e2fe9fd	0.17179103
31	0x3e1ac3ba	0.15113726
32	0xbcc8bfd4	-0.024505533
33	0x3d5077ae	0.050895385
34	0xbd8a92c3	-0.06766274
35	0xbd7b4369	-0.061343584
36	0x3e1a25b2	0.15053442
37	0x3d97fe68	0.07421571
38	0x3e79a737	0.24380194
39	0x3e8ff541	0.281168
40	0x3e1512d8	0.1455797
41	0x3de2bd7e	0.11071299
42	0x3dad1ee9	0.08453161
43	0x3e1ddf8b	0.15417306
44	0xbc5cf30e	-0.013485683
45	0x3c4fd289	0.012684473
46	0x3ea81150	0.32825708
47	0x3d20b85a	0.03923831
48	0xbd6f98a9	-0.058495197
49	0xbe3dd538	-0.18538368
50	0x3eb17960	0.34662914
51	0x3e04e7ec	0.12979096
52	0x3bd58c57	0.006516974
53	0xbd2bce31	-0.041944686
54	0x3bb274dc	0.0054460596
55	0x3e45c3ab	0.19312923
56	0x3dbcdd80	0.09221935
57	0x3e99c546	0.3003332
58	0xbdb45fe9	-0.08807356
59	0xbc9a6318	-0.01884608
60	0x3e2206d3	0.15822916
61	0x3e39997e	0.18124959
62	0xbe14bcff	-0.14525221
63	0x3daf6864	0.08564833
64	0xbe7ca222	-0.24671224
65	0x3e8e34a2	0.2777453
66	0x3d39c630	0.045355022
67	0xbeade276	-0.33961838
68	0xbe855551	-0.26041654
69	0xbe7ab5f4	-0.24483472
70	0xbe2b8464	-0.16749722
71	0x3d91009e	0.07080196
72	0xbc5a389a	-0.013319159
73	0xbe7819fd	-0.24228664
74	0x3d041e3c	0.032255396
75	0x3cf4c11e	0.029877242
76	0x3bab7209	0.0052321
77	0xbd87c1d5	-0.066287674
78	0xbe8c2136	-0.27369088
79	0xbe4bd2f2	-0.19904688
80	0xbe52acba	-0.20573702
81	0xbe99e285	-0.30055633
82	0x3e4999d6	0.1968759
83	0xbd01790e	-0.031609587
84	0x3abd5acb	0.0014446614
85	0xbd0075e7	-0.03136244
86	0xbd6a8329	-0.05725399
87	0xbe2f88b3	-0.1714199
88	0x3be38899	0.006943774
89	0xbd96530c	-0.07340059
90	0xbe461b7a	-0.19346419
91	0xbcc308dd	-0.023807937
92	0xbe542eb1	-0.20720936
93	0xbe7a36ad	-0.2443492
94	0xbe6e9114	-0.2329753
95	0x3d697e4a	0.057005204
96	0x3e43008d	0.19043179
97	0xbe05ee80	-0.13079262
98	0xb9f9c7f6	-0.00047641963
99	0xbe88f72a	-0.2675107
100	0xbccf0c4b	-0.025274416
101	0xbd9adff7	-0.07562249
102	0xbe63043f	-0.22169589
103	0xbdf49146	-0.11941771
104	0xbea6580f	-0.32489058
105	0xbd745252	-0.05964882
106	0x3d2a4c26	0.041576527
107	0xbe388ec5	-0.18023212
108	0xbd65bb4d	-0.056086827
109	0x3d687a7e	0.056757443
110	0xbd7438e9	-0.059624586
111	0xbe91bf87	-0.28466436
112	0x3daa892f	0.08326947
113	0x3e0e487b	0.13894837
114	0xbe2bed3a	-0.16789714
115	0x3c9326b7	0.017962797
116	0xbc79d925	-0.015249525
117	0xbe0ed65f	-0.13948964
118	0xbea11f29	-0.31469086
119	0xbcc9ab81	-0.024617912
120	0xbdc5cdd0	-0.09658396
121	0xbdd954f2	-0.10611905
122	0x3d734186	0.05938866
123	0xbda7bab7	-0.0818991
124	0xbe88b47e	-0.26700205
125	0xbdd898cf	-0.10576021
126	0x3d229f9d	0.039703
127	0xbe0e5f95	-0.13903649
128	0x3a082c79	0.0005194615
129	0x3e7684fb	0.24074166
130	0x3e3a6a08	0.1820451
131	0x3e6a3d45	0.22874935
132	0x3dad7805	0.084701575
133	0x3bad0a7e	0.005280792
134	0x3e94fff7	0.29101536
135	0x3e0233c9	0.12715067
136	0x3e059e3c	0.13048643
137	0xbd8cc02b	-0.06872591
138	0x3d7c850b	0.061650317
139	0x3e3056cc	0.1722061
140	0x3e092820	0.13394213
141	0x3e9a1590	0.30094576
142	0x3cd18605	0.0255766
143	0x3ea69724	0.32537186
144	0xbd1d4b59	-0.038401935
145	0x3e493f68	0.19653094
146	0x3dcb9f65	0.099425115
147	0x3eb9b6a8	0.36272168
148	0x3d532da7	0.05155721
149	0x3e1eafec	0.15496796
150	0x3e37a5d6	0.17934355
151	0x3e64588b	0.22299401
152	0x3e82e8ef	0.2556834
153	0x3d6dd44d	0.058063794
154	0x3e100d83	0.14067654
155	0x3e36cc76	0.17851433
156	0x3d8aae33	0.06771507
157	0x3d50c56b	0.050969522
158	0x3eadb08a	0.3392375
159	0xbc4fd9d2	-0.01268621
160	0x3e46e88f	0.19424652
161	0xbcbd611b	-0.023117593
162	0x3ea9573a	0.3307436
163	0x3e8d4b0f	0.27596328
164	0x3e746a95	0.23868783
165	0x3e3ddc54	0.1854108
166	0x3eb02b88	0.34408212
167	0x3e14c4bf	0.14528178
168	0xbc55c961	-0.013048501
169	0x3e26ca31	0.16288067
170	0x3e5be589	0.2147428
171	0x3e08be51	0.1335385
172	0x3d688b8f	0.05677372
173	0x3dec0f4f	0.115263574
174	0x3de6e51b	0.11274167
175	0x3eaebbcd	0.34127656
176	0x3e90ab0b	0.28255495
177	0x3e29d035	0.16583331
178	0x3d6ebe29	0.05828682
179	0x3cb92b73	0.022603726
180	0x3db70a8e	0.0893756
181	0x3e95e948	0.29279542
182	0xbcb9f6a1	-0.02270061
183	0x3d0fe9b9	0.035135005
184	0x3e44fbdc	0.19236702
185	0x3ea7c336	0.32766122
186	0x3e0af23c	0.13568968
187	0x3e8a309a	0.26990205
188	0x3dd8d737	0.10587924
189	0x3e6f28b1	0.23355366
190	0xbd892470	-0.06696403
191	0x3e4d5355	0.2005132
192	0xbeaa113c	-0.33216274
193	0x3bd5f5a9	0.006529529
194	0x3b8431b1	0.004034244
195	0xbdbb864b	-0.09156474
196	0xbe1c81a9	-0.15283836
197	0xbe9a6284	-0.30153286
198	0x3d9405e5	0.07227687
199	0xbe7cf23d	-0.24701782
200	0x3d8aaef7	0.06771653
201	0xbe59b64e	-0.2126095
202	0xbe951e4d	-0.2912468
203	0x3d229fca	0.039703168
204	0xbc11ba76	-0.008894553
205	0xbc395616	-0.011312028
206	0xbe178b68	-0.14799273
207	0xbe8e4d82	-0.2779351
208	0xbe97c409	-0.2964175
209	0xbd16afff	-0.036788937
210	0x3a52e47f	0.0008044913
211	0xbe1efa05	-0.15525062
212	0xbe891dbf	-0.26780507
213	0xbe5878da	-0.21139851
214	0xbe90f2bc	-0.28310192
215	0xbea46a5e	-0.32112402
216	0xbd329cfd	-0.043606747
217	0xbdd15591	-0.102213986
218	0xbea72d82	-0.32651907
219	0xbd559356	-0.052142464
220	0xbe8dea33	-0.27717742
221	0xbd359df3	-0.044340085
222	0xbe034cb9	-0.12822236
223	0xbe957f77	-0.2919881
224	0xbca75fc4	-0.020431407
225	0xbeabe8d2	-0.33576065
226	0xbd893631	-0.06699789
227	0xbcddb099	-0.027061747
228	0xbe8f2096	-0.2795455
229	0x3d950272	0.07275857
230	0xbe6ce7c8	-0.23135293
231	0xbe4dc89b	-0.20096056
232	0x3d8b4897	0.06800955
233	0xbe07d7cc	-0.13265914
234	0xbe9bbbe8	-0.304168
235	0xbe924248	-0.28566194
236	0xbe972a0d	-0.2952427
237	0x3ce65a24	0.028119154
238	0x3c13388e	0.008985652
239	0xbc89ede6	-0.016837072
240	0xbe83b5dd	-0.25724688
241	0xbe9d3226	-0.30702323
242	0xbe5d6016	-0.21618685
243	0xbe3cb0a4	-0.18426758
244	0xbd11e86b	-0.03562204
245	0xbe00198a	-0.12509742
246	0xbb4ddc69	-0.0031411892
247	0xbea94686	-0.33061618
248	0xbe83f0b8	-0.2576959
249	0x3cc81bdf	0.024427352
250	0xbe5d6234	-0.21619493
251	0x3ca3a837	0.019977672
252	0x3d8c7f98	0.06860274
253	0xbea00a7c	-0.31258
254	0xbe19c907	-0.15018092
255	0xbea6eccd	-0.3260254

encoder.dcrnn_cells.0.update.weights_pool f4 [2, 2, 65, 64]
0	0xbdc2e30b	-0.09515961
1	0x3d2a745e	0.041614883
2	0x3d6edc96	0.058315836
3	0xbdae3940	-0.08507013
4	0x3d758596	0.05994185
5	0xbda27c04	-0.0793381
6	0x3d8346e6	0.06410007
7	0x3d44fd48	0.04809311
8	0x3d3ce649	0.046118055
9	0x3e16cc6a	0.14726415
10	0x3d521689	0.051291022
11	0xbd8df81b	-0.06932088
12	0xbd81a3ef	-0.06330096
13	0xbd53a531	-0.05167121
14	0xbd52d000	-0.051467896
15	0xbe04489f	-0.12918328
16	0xbd9f460f	-0.077770345
17	0x3d9c00ea	0.07617362
18	0x3d2b162f	0.041769203
19	0xbd210b5d	-0.039317477
20	0x3d9d5d8c	0.07683858
21	0x3c5bc5f5	0.013413896
22	0xbd93323b	-0.07187315
23	0x3e17f7a4	0.14840561
24	0xbe061f85	-0.13097961
25	0x3daff9cc	0.08592567
26	0x3daa09ed	0.083026744
27	0x3b9b1bf8	0.0047335587
28	0x3d84b2c8	0.06479412
29	0x3d800b3f	0.06252145
30	0x3e1938e0	0.14963102
31	0x3da61446	0.081093356
32	0x3d08816a	0.033326544
33	0xbd4b0818	-0.049568266
34	0x3d41d980	0.047326565
35	0x3da00c31	0.07814825
36	0x3d5a1436	0.05324193
37	0x3d82bb27	0.06383353
38	0x3d9995d0	0.074992776
39	0xbe129e67	-0.14318238
40	0x3dfaba1b	0.12242528
41	0xbd8c9561	-0.06864429
42	0xbd65982f	-0.056053337
43	0xbd9e90ce	-0.07742463
44	0x3e1ffcdc	0.15623802
45	0xbdaecf9e	-0.085356936
46	0xbe104e89	-0.14092459
47	0xbdb52e3e	-0.088467106
48	0x3e0cd3d9	0.13752688
49	0x3d347c93	0.044064116
50	0x3d92e8bb	0.07173296
51	0xbd9da9ff	-0.0769844
52	0x3d3fffe5	0.0468749
53	0xbe292345	-0.1651736
54	0x3d875b87	0.06609254
55	0xbd79eac3	-0.0610149
56	0x3d6125d4	0.054967716
57	0xbda329b8	-0.079669416
58	0xbd43cd30	-0.047803104
59	0xbc5011f7	-0.012699596
60	0x3d912de7	0.07088833
61	0x3d862727	0.065504365
62	0xbd123402	-0.03569413
63	0xbdb33bb4	-0.08751622
64	0x3e127095	0.14300759
65	0xbe0b3ef5	-0.13598235
66	0xbe026ae7	-0.12736093
67	0x3e094379	0.13404645
68	0xbdfc5dee	-0.12322603
69	0x3e17cf5f	0.148252
70	0xbe0f8b96	-0.14018092
71	0xbe124554	-0.14284259
72	0xbdf8cc37	-0.12148326
73	0xbe002e91	-0.12517764
74	0xbe187d5f	-0.14891575
75	0x3df69798	0.12040633
76	0x3e1534ad	0.14570875
77	0x3dfd869a	0.12379189
78	0x3e06607d	0.13122745
79	0x3e0af628	0.13570464
80	0x3e067ca7	0.13133489
81	0xbe0d53e2	-0.1380153
82	0xbdde5379	-0.10855765
83	0x3ddf91a0	0.10916448
84	0xbe0ae471	-0.13563706
85	0xbdd2b3d9	-0.102882095
86	0x3e15ffbc	0.14648336
87	0xbdfb844d	-0.12281094
88	0x3e05c132	0.1306198
89	0xbe0566b8	-0.13027465
90	0xbde3de27	-0.111263566
91	0xbd9d5e98	-0.07684058
92	0xbe025a9e	-0.1272988
93	0xbdfd436a	-0.12366374
94	0xbdfd33e8	-0.12363416
95	0xbdf3b751	-0.11900199
96	0xbdf0e5d8	-0.11762589
97	0x3e05f521	0.1308179
98	0xbe0a6030	-0.13513255
99	0xbe0c81b6	-0.13721356
100	0xbe0376ee	-0.12838337
101	0xbe0b6652	-0.13613251
102	0xbe150c7c	-0.14555544
103	0x3dff9c50	0.12480986
104	0xbe19bc3c	-0.15013212
105	0x3de99551	0.11405433
106	0x3df495e9	0.119426556
107	0x3e034a5b	0.12821333
108	0xbe14b48b	-0.14521997
109	0x3e1a055a	0.15041104
110	0x3e0da50a	0.13832489
111	0x3e0c53e7	0.13703881
112	0xbe14da0d	-0.14536305
113	0xbe00eb67	-0.12589799
114	0xbe104563	-0.14088969
115	0x3e09896e	0.13431332
116	0xbdf86c06	-0.12129979
117	0x3e08d6ee	0.13363239
118	0xbe04f323	-0.12983374
119	0x3e1553c0	0.1458273
120	0xbe04efc3	-0.12982087
121	0x3e04e5e9	0.12978329
122	0x3db70c60	0.08937907
123	0x3dd30e9e	0.103055224
124	0xbe0e3c9e	-0.13890311
125	0xbe0ba048	-0.13635361
126	0x3db32de1	0.08748985
127	0x3e148ffb	0.14508049
128	0xbe0ffb69	-0.14060749
129	0xbe33509a	-0.17511216
130	0x3e222425	0.158341
131	0xbe17c792	-0.14822224
132	0x3e23f754	0.16012317
133	0xbe142163	-0.14465861
134	0xbe63e009	-0.22253431
135	0x3e49eb2d	0.19718619
136	0xbe387dcd	-0.18016739
137	0x3e0750d7	0.13214432
138	0x3e1632ee	0.14667866
139	0xbe20246d	-0.15638895
140	0xbe50bfb8	-0.20385635
141	0xbe2ffcf4	-0.17186338
142	0x3e648559	0.22316493
143	0xbe081126	-0.13287792
144	0xbe170707	-0.14748774
145	0x3e2e7560	0.17036963
146	0xbe2f21d1	-0.17102744
147	0x3e3a8432	0.18214491
148	0x3e2057dd	0.15658517
149	0xbe2ec0b3	-0.17065696
150	0xbe325874	-0.17416555
151	0x3e4699aa	0.19394556
152	0xbdfb16aa	-0.12260182
153	0x3e0c5d62	0.13707498
154	0xbe5f50bd	-0.21808143
155	0xbe247966	-0.16061935
156	0x3e3d21b7	0.18469892
157	0x3e240613	0.16017942
158	0x3e0cee4c	0.13762778
159	0xbe469f34	-0.19396669
160	0xbe39ae7a	-0.18132964
161	0x3e4364dd	0.19081445
162	0xbe301fd1	-0.17199637
163	0x3e3b7b26	0.18308696
164	0x3e4d2b8d	0.20036145
165	0x3e2c0c87	0.16801654
166	0x3e45bf7e	0.1931133
167	0xbe031c03	-0.12803654
168	0x3e3886c6	0.18020162
169	0x3e5cfde0	0.2158122
170	0xbe493dc1	-0.19652463
171	0xbe26a9fa	-0.16275778
172	0x3e23d74e	0.16000101
173	0xbe200bd6	-0.15629515
174	0xbe359da7	-0.17735921
175	0xbe1613e3	-0.14656024
176	0x3e250955	0.16116841
177	0xbe2eaadd	-0.17057367
178	0x3e1e59e6	0.15463981
179	0xbe1f7947	-0.15573607
180	0xbe335802	-0.17514041
181	0xbe0dfb2f	-0.1386535
182	0x3e1b8429	0.15187134
183	0xbe44ff42	-0.19237998
184	0x3e2400cf	0.16015933
185	0xbe65ed95	-0.22453912
186	0x3e22ca13	0.15897398
187	0x3e2fc5c7	0.1716529
188	0x3e23f39b	0.16010897
189	0x3e3eb3c2	0.1862326
190	0x3e367a43	0.17820077
191	0xbe255a31	-0.16147687
192	0xbe136782	-0.14394954
193	0x3e0a4dd8	0.13506258
194	0x3e17e9cd	0.14835282
195	0xbe19436e	-0.14967129
196	0x3e0cbacf	0.13743137
197	0xbe03b7c1	-0.12863065
198	0x3e0afe4e	0.13573572
199	0x3e18a0d2	0.14905098
200	0x3e0465d6	0.12929472
201	0x3e0ebe1f	0.13939713
202	0x3df39752	0.118940964
203	0xbe03731c	-0.1283688
204	0xbe183d5d	-0.14867158
205	0xbe1984b5	-0.1499203
206	0xbdf92cb5	-0.1216673
207	0xbe185faf	-0.1488025
208	0xbe10212d	-0.14075156
209	0x3dfc8722	0.12330462
210	0x3e0294ec	0.12752122
211	0xbe0c27f6	-0.13687119
212	0x3e156ebc	0.14593023
213	0x3de4a7a2	0.11164786
214	0xbe1244f7	-0.1428412
215	0x3e152489	0.14564718
216	0xbe10018a	-0.14063087
217	0x3e091051	0.1338513
218	0x3dfbac87	0.12288766
219	0x3ddba00a	0.107238844
220	0x3e193ed7	0.14965378
221	0x3dfc3bb6	0.123160765
222	0x3e087c9b	0.13328783
223	0x3e1ef703	0.15523915
224	0x3e08443b	0.13307278
225	0xbe1b8f7c	-0.15191454
226	0x3e22251a	0.15834466
227	0x3e1814a2	0.14851621
228	0x3e074b53	0.13212328
229	0x3dedc8ed	0.11610589
230	0x3e05dc49	0.13072313
231	0xbe090428	-0.13380492
232	0x3dee5cad	0.1163877
233	0xbdf7de56	-0.12102954
234	0xbe114ba7	-0.14189015
235	0xbdf6c0a0	-0.12048459
236	0x3df5e7a0	0.120070696
237	0xbe00e695	-0.1258796
238	0xbe14348b	-0.14473169
239	0xbe0125bb	-0.1261205
240	0x3e10e643	0.14150338
241	0x3e1aab4d	0.15104409
242	0x3dfe6712	0.12422003
243	0xbdeef9bf	-0.11668729
244	0x3e157a2a	0.14597383
245	0xbe12480c	-0.14285296
246	0x3e070c2a	0.13188234
247	0xbe0d8b70	-0.13822722
248	0x3e0c7216	0.13715395
249	0xbe01d0d6	-0.12677321
250	0xbe0312f6	-0.12800202
251	0xbdd98c7f	-0.10622501
252	0x3e199c89	0.1500112
253	0x3df5cdb3	0.12002125
254	0xbdf9aaf4	-0.1219081
255	0xbe1674cd	-0.14692993

encoder.dcrnn_cells.0.update.bias_pool f4 [2, 64]
0	0xbe99a26a	-0.30006725
1	0xbe515666	-0.20443115
2	0x3eea913b	0.45813927
3	0xbee5cc2b	-0.4488233
4	0x3e850001	0.25976565
5	0xbeafb671	-0.3431888
6	0xbccecfda	-0.025245596
7	0x3e793e85	0.24340256
8	0xbec0dd0e	-0.3766865
9	0x3ea1f91c	0.31635368
10	0x3ee51142	0.4473973
11	0xbe73388c	-0.2375204
12	0xbe848b67	-0.25887606
13	0xbeb1c35e	-0.34719366
14	0xbbf6b626	-0.007529038
15	0xbeb035a4	-0.34415925
16	0xbe869322	-0.26284128
17	0x3eb01dae	0.34397644
18	0xbec3db6c	-0.38253343
19	0x3e97b2f3	0.29628715
20	0x3e79c713	0.24392347
21	0xbe8eadbf	-0.27866933
22	0xbe1d0a7a	-0.15336028
23	0x3ec9b444	0.39395344
24	0xbedc1919	-0.42987898
25	0x3e0c8d1f	0.13725708
26	0xbe0aed8f	-0.13567184
27	0xbea34cf4	-0.31894648
28	0x3e9ef36e	0.31045097
29	0x3e97d617	0.29655525
30	0x3ee48a7e	0.4463691
31	0xbc5c838f	-0.0134591
32	0xbeafb276	-0.34315842
33	0x3d837afa	0.0641994
34	0xbeb94d00	-0.3619156
35	0x3e77c00c	0.24194354
36	0x3ebdc1bc	0.3706187
37	0x3ecf435d	0.40481082
38	0x3e7b4be1	0.24540664
39	0xbea158ca	-0.31513053
40	0x3edda4a8	0.43289685
41	0xbbdd2058	-0.0067482404
42	0xbe23b88f	-0.15988372
43	0xbe986444	-0.29763997
44	0x3ead7c8a	0.33884078
45	0xbe839f5b	-0.25707516
46	0xbeca0118	-0.3945396
47	0xbee766a4	-0.45195496
48	0x3eb80811	0.35943654
49	0xbeabe058	-0.33569598
50	0x3e355719	0.17709006
51	0xbe26896c	-0.1626336
52	0xbeb8ac47	-0.36068937
53	0xbee440a9	-0.44580582
54	0x3e8b5e97	0.27220604
55	0xbe971e26	-0.2951519
56	0x3e9c1723	0.30486402
57	0xbe28663e	-0.16445252
58	0x3e99cf05	0.30040756
59	0x3e3366a8	0.17519629
60	0x3ecf3e05	0.40477005
61	0x3e42ed80	0.19035912
62	0x3e93490a	0.28766662
63	0xbec86c47	-0.3914511
64	0xbece0774	-0.4024006
65	0x3ee1f4c3	0.4413205
66	0x3e42ea69	0.19034733
67	0xbec4169c	-0.382985
68	0x3eb65b72	0.35616642
69	0xbe80c5f0	-0.25151014
70	0x3ecf85c0	0.4053173
71	0x3e5cc18c	0.21558207
72	0x3eb1179d	0.34588328
73	0xbdbf5929	-0.09343178
74	0x3ed61729	0.41814545
75	0xbee2b359	-0.44277456
76	0xbe4e7570	-0.20161986
77	0xbe9d1fc4	-0.30688298
78	0xbecacd50	-0.39609766
79	0x3c2c0d71	0.010501252
80	0xbebda2e7	-0.37038347
81	0x3ed8057a	0.42191678
82	0x3ecfe89c	0.40607154
83	0xbececa9d	-0.40388957
84	0x3edb33f9	0.4281309
85	0x3e720617	0.23635136
86	0xbea97cc3	-0.33102998
87	0xbe792d5b	-0.24333708
88	0x3c785ce9	0.01515887
89	0x3ee40c4d	0.44540635
90	0x3edd6667	0.4324219
91	0x3e86e76e	0.26348442
92	0x3e6718fd	0.22568126
93	0x3eaa2942	0.33234602
94	0xbb8a6066	-0.0042229174
95	0x3e8d5f71	0.2761188
96	0x3eb65ee1	0.35619262
97	0xbea725b9	-0.32645968
98	0x3eae8e39	0.34092882
99	0x3e869c9c	0.26291358
100	0x3e39cdcf	0.18144916
101	0x3e308f9a	0.1724228
102	0x3e61b783	0.2204266
103	0xbc8458f6	-0.016155701
104	0xbe7c2cfd	-0.24626537
105	0xbebac4c4	-0.36478245
106	0xbe1bc290	-0.15210938
107	0xbeaa153b	-0.33219323
108	0xbdb8ea64	-0.090290815
109	0xbe782e2a	-0.2423636
110	0x3e36d621	0.17855121
111	0xbece8257	-0.40333816
112	0xbe0b7e7e	-0.13622472
113	0x3ea66c74	0.32504618
114	0x3edf8a6a	0.4366029
115	0xbe568449	-0.209489
116	0x3ed6ba01	0.41938785
117	0x3ced6145	0.028977046
118	0x3ead4aa2	0.33846003
119	0xbe8040fc	-0.2504958
120	0x3e973065	0.2952911
121	0xbe1a1930	-0.15048671
122	0xbe95a0e2	-0.29224306
123	0xbe321b31	-0.17393185
124	0x3edd0337	0.43166515
125	0x3e3981c2	0.18115905
126	0xbe87194b	-0.26386485
127	0xbe8e2888	-0.27765298

encoder.dcrnn_cells.1.gate.weights_pool f4 [2, 2, 128, 128]
0	0xbd10722d	-0.035265137
1	0xbe5549da	-0.20828953
2	0xbdc2466b	-0.094860874
3	0xbe0b6751	-0.13613631
4	0xbe063dc7	-0.13109504
5	0xbe0a4a83	-0.13504986
6	0xbe4a508e	-0.19757292
7	0xbe584dfa	-0.21123496
8	0x3d57eaae	0.052714042
9	0xbe245e8c	-0.16051692
10	0xbe18ad84	-0.14909941
11	0xbd926527	-0.071481995
12	0x3d6f5a88	0.058435947
13	0xbdd19969	-0.10234339
14	0xbca73401	-0.02041054
15	0xbe0eee56	-0.13958105
16	0xbe09e9a8	-0.13468039
17	0xbe149c93	-0.14512853
18	0xbe679af9	-0.22617711
19	0xbdc75160	-0.09732318
20	0xbe06e425	-0.13172968
21	0xbe602209	-0.21887983
22	0xbe08f032	-0.13372877
23	0xbe1b6715	-0.15176041
24	0xbdcd6be2	-0.10030343
25	0xbdf33e59	-0.11877126
26	0x3d7b867b	0.061407547
27	0xbacce606	-0.0015632517
28	0xbdf58f2e	-0.119902
29	0x3c512d08	0.012767084
30	0xbd0dcf5b	-0.034621578
31	0xbe0dcea6	-0.13848361
32	0xbe181849	-0.14853014
33	0xbdd5ba0e	-0.10435878
34	0xbe1c9b3f	-0.15293597
35	0xbd68d28a	-0.05684141
36	0xbe43acc2	-0.1910887
37	0xbd9f740e	-0.077858075
38	0xbe042825	-0.12905939
39	0xbd842ac0	-0.064534664
40	0xbe0cdc6f	-0.13755964
41	0xbdd6833b	-0.10474249
42	0xbd86d98f	-0.06584465
43	0xbe1f6268	-0.15564883
44	0xbe107b7f	-0.1410961
45	0xbd941931	-0.072313674
46	0xbe10ce5a	-0.14141217
47	0xbe5f2d3a	-0.21794596
48	0xbe4b14a5	-0.19832094
49	0xba50b475	-0.00079614605
50	0xbdf45038	-0.11929363
51	0xbe13c797	-0.14431606
52	0xbd38e64a	-0.045141496
53	0xbe0c66e2	-0.13711122
54	0xbe0dd8cd	-0.13852234
55	0xbe05c0b3	-0.1306179
56	0xbdaa9dfa	-0.08330913
57	0xbda0bb42	-0.078482166
58	0xbdfde71e	-0.12397598
59	0x3cf020c3	0.029312497
60	0xbdf7ade4	-0.12093714
61	0xbe15b370	-0.14619231
62	0xbd0c7b65	-0.034297366
63	0xbcfe2d41	-0.031027438
64	0x3d13db5c	0.03609787
65	0x3e16c44e	0.14723322
66	0x3d96a246	0.0735517
67	0x3e1d71d2	0.1537545
68	0x3e183f9a	0.14868012
69	0x3e1bb585	0.15205963
70	0x3e1d8f43	0.15386681
71	0x3e20d7bf	0.157073
72	0x3de59cf9	0.11211581
73	0x3e1f3cd7	0.15550552
74	0x3e27e931	0.16397549
75	0x3e0f4503	0.1399117
76	0x3df1b770	0.11802566
77	0x3e2e4e64	0.17022091
78	0x3e213d54	0.15746051
79	0x3e260f3a	0.16216746
80	0x3e2430bb	0.16034214
81	0x3e1cdd7a	0.15318862
82	0x3de77104	0.11300853
83	0x3de1ee61	0.11031795
84	0x3e1dfcef	0.15428518
85	0x3e1c0a2e	0.15238258
86	0x3e27bea2	0.16381314
87	0x3e293862	0.16525415
88	0x3dfb164b	0.122601114
89	0x3e2265c9	0.1585914
90	0x3de82211	0.11334623
91	0x3e186b42	0.14884666
92	0x3e2eac77	0.17057978
93	0x3dc6c674	0.09705821
94	0x3e2a0204	0.16602331
95	0x3e2f8da7	0.1714388
96	0x3e204c4c	0.15654105
97	0x3dfafce2	0.12255265
98	0x3e1b0168	0.15137255
99	0x3e12c65f	0.14333485
100	0x3e207f91	0.15673663
101	0x3e0120f3	0.12610225
102	0x3e1f6901	0.155674
103	0x3e0366b1	0.12832142
104	0x3e237c83	0.15965466
105	0x3de2e3ed	0.1107863
106	0x3e06db4f	0.13169597
107	0x3e1d250e	0.15346166
108	0x3e18e16f	0.14929746
109	0x3df9bc75	0.121941485
110	0x3e197368	0.1498543
111	0x3e1c7407	0.15278636
112	0x3e2abbe5	0.16673239
113	0x3e0cd5af	0.13753389
114	0x3e22b036	0.15887532
115	0x3e15ff6d	0.14648218
116	0x3dc194ec	0.09452233
117	0x3e194af3	0.14969997
118	0x3e275cbd	0.1634397
119	0x3e258bcc	0.1616661
120	0x3e24f582	0.16109279
121	0x3e0dc5fe	0.1384506
122	0x3e1ce136	0.15320286
123	0x3e09801c	0.13427776
124	0x3e17eda7	0.14836751
125	0x3e187206	0.14887246
126	0x3e1237bf	0.14279078
127	0x3e140840	0.14456272
128	0xbe0d7a5e	-0.1381621
129	0xbe0f98db	-0.14023153
130	0xbda9976b	-0.08280834
131	0x3c716a12	0.014734762
132	0x3cd2084b	0.02563872
133	0xbb6b78c1	-0.003593013
134	0xbe3f03a9	-0.1865374
135	0xbdc7f308	-0.097631514
136	0xbdf2f3b4	-0.11862889
137	0xbcadfa2d	-0.021237457
138	0x3c955404	0.018228538
139	0xbd3dc508	-0.04633048
140	0xbdcdfac6	-0.10057597
141	0xb888e7cd	-6.5281616e-05
142	0x3de1ffc4	0.110351115
143	0xbb520c94	-0.0032050954
144	0x3c3bc677	0.011460892
145	0x3cc65b30	0.024213403
146	0xbdccd2ce	-0.10001145
147	0xbe0c269a	-0.136866
148	0x3bd497e2	0.0064878324
149	0xbe0babd6	-0.13639769
150	0x3c27bf96	0.010238549
151	0xbc0f9666	-0.008763885
152	0xbe05e880	-0.13076973
153	0xbd14535d	-0.036212314
154	0xbdf8c092	-0.12146105
155	0x3dffcd45	0.12490324
156	0xbd109ac1	-0.035303835
157	0xbe17b2f8	-0.14814365
158	0x3de45718	0.11149424
159	0xbd9b1463	-0.07572248
160	0xbc1ab06a	-0.009441474
161	0xbe13b1d6	-0.14423308
162	0xbd068f0b	-0.03285126
163	0x3d46a521	0.048497323
164	0xbd788419	-0.060672853
165	0xbe013482	-0.12617686
166	0xbd3a66b1	-0.04550809
167	0xbdea57e0	-0.11442542
168	0x3c379e3d	0.011207161
169	0xbe172df5	-0.14763625
170	0x3d0c67b3	0.034278583
171	0xbc801198	-0.01563339
172	0xbbfd8e20	-0.00773789
173	0xbd7193bd	-0.058978785
174	0x3c8a570a	0.016887207
175	0xbe1c62c6	-0.15272054
176	0xbd97cd4c	-0.07412204
177	0x3cb75617	0.022379918
178	0xbc85af32	-0.016318891
179	0x38b75d92	8.743549e-05
180	0xbe0c4e31	-0.13701703
181	0x3c444fd5	0.011981924
182	0xbb75ce37	-0.0037506947
183	0x3d02a867	0.031898882
184	0x3dd50276	0.1040086
185	0x3d90dda7	0.07073527
186	0xbd5c3ad0	-0.053767025
187	0x3dc25427	0.09488707
188	0x3d183fda	0.03717027
189	0x3bc265ed	0.0059325607
190	0xbe0e6545	-0.13905819
191	0xbe21c30e	-0.15797064
192	0xbc7e7640	-0.015531123
193	0x3e097be2	0.13426164
194	0x3c970f4d	0.018439913
195	0x3dfa36f8	0.12217516
196	0x3dd77d70	0.10521972
197	0x3dd6a199	0.10480041
198	0x3e0c5191	0.1370299
199	0x3e0f00f9	0.13965215
200	0x3db49bf5	0.08818809
201	0x3de5ca22	0.112201944
202	0x3de9a15f	0.11407732
203	0x3d9c69a1	0.076373346
204	0x3db7b2fb	0.08969685
205	0x3e0dd633	0.13851242
206	0x3dd3e90f	0.10347187
207	0x3ddf86be	0.10914372
208	0x3ddaf11f	0.106905214
209	0x3df1fb08	0.118154585
210	0x3de52e15	0.1119043
211	0x3d8d82d5	0.0690972
212	0x3def6b5f	0.11690401
213	0x3e07a14e	0.13245127
214	0x3de42495	0.1113979
215	0x3def1d6f	0.11675536
216	0x3d93c745	0.07215742
217	0x3e09af08	0.13445675
218	0x3db7b7d0	0.08970606
219	0x3dd6c46f	0.104866855
220	0x3e018cc8	0.1265136
221	0x3de62d13	0.11239066
222	0x3df48fdc	0.119415015
223	0x3df5d35f	0.120032065
224	0x3de67c6a	0.11254199
225	0x3d86c005	0.065795936
226	0x3df48036	0.11938517
227	0x3d9f13d6	0.07767455
228	0x3d936d7d	0.071986176
229	0x3d9e57ba	0.07731576
230	0x3dfd989b	0.12382623
231	0x3d93d53c	0.072184056
232	0x3df9b2d9	0.121923156
233	0x3d9fad91	0.07796777
234	0x3da6d3a7	0.08145838
235	0x3df693c7	0.12039905
236	0x3df7f863	0.12107923
237	0x3dac6dab	0.08419355
238	0x3de2455d	0.11048386
239	0x3e0c3f09	0.13695921
240	0xbaad3ec3	-0.0013217557
241	0x3d9e166c	0.077191204
242	0x3e0955b4	0.134116
243	0x3de46d7e	0.111536965
244	0x3d4ae080	0.049530506
245	0x3de2dd4c	0.11077365
246	0x3dece3b0	0.115668654
247	0x3de7c879	0.11317534
248	0x3dd31ac9	0.10307843
249	0x3dc58509	0.09644515
250	0x3e001d10	0.12511086
251	0x3dd6933d	0.10477302
252	0x3df5e3f8	0.12006372
253	0x3ddd4b33	0.10805359
254	0x3da7ca53	0.08192887
255	0x3db84eb8	0.089993894

encoder.dcrnn_cells.1.gate.bias_pool f4 [2, 128]
0	0xbe75452f	-0.23952173
1	0x3e119beb	0.14219634
2	0x3d1ffb5a	0.039058067
3	0x3e905260	0.28187847
4	0x3e048304	0.12940603
5	0x3e6d777b	0.2319011
6	0x3e9d2cee	0.3069834
7	0x3e6a261c	0.228661
8	0x3d5d839a	0.054080583
9	0xbdc4c874	-0.09608546
10	0x3e16b6b6	0.14718136
11	0xbdc006df	-0.093763106
12	0x3ddaefff	0.10690307
13	0x3c984b26	0.018590521
14	0xbe1177b6	-0.14205822
15	0x3e3ba824	0.1832586
16	0x3e515378	0.20441997
17	0x3e02c443	0.1277018
18	0xbdabcfad	-0.083892204
19	0x3d868934	0.06569138
20	0x3e8ad5a3	0.27116117
21	0x3e863683	0.26213464
22	0x3e08b9ed	0.13352175
23	0x3d0152f1	0.03157324
24	0xbde1919c	-0.11014101
25	0x3ea47678	0.32121634
26	0x3c76137e	0.015019296
27	0x3ca9ca2c	0.020726286
28	0x3db41e1b	0.08794805
29	0xbe8e556e	-0.27799553
30	0x3df678d0	0.12034762
31	0x3d99729d	0.07492564
32	0x3e020e45	0.12700756
33	0x3deaf69e	0.1147282
34	0x3e80de28	0.25169492
35	0xbd94feb0	-0.0727514
36	0x3d086e10	0.03330809
37	0x3e16589c	0.1468224
38	0x3dd0c561	0.10193897
39	0x3d732a31	0.05936641
40	0x3cb187fb	0.021671286
41	0xbe34e3bb	-0.17664997
42	0x3e3ecef9	0.18633641
43	0x3e5ec216	0.21753725
44	0x3dd6595f	0.10466265
45	0xbd287ec8	-0.041136533
46	0x3e8abf4c	0.27099073
47	0xbdf3c70b	-0.11903199
48	0x3e0307cf	0.12795947
49	0xbe1acf3f	-0.1511812
50	0x3e4ab0d4	0.19794017
51	0x3b513be1	0.003192656
52	0x3bc373a2	0.0059647122
53	0x3e73f6d6	0.23824629
54	0x3da564be	0.08075856
55	0x3d0c52fb	0.034258824
56	0xbdac62ca	-0.0841728
57	0x3e818d01	0.2530289
58	0x3b075f8d	0.0020656318
59	0xbdaa6578	-0.08320135
60	0xbd07829a	-0.033083536
61	0xbad387f4	-0.001613854
62	0x3ca3939c	0.019967847
63	0x3d5fa7d2	0.054603405
64	0xbe510c14	-0.20414764
65	0xbe89df66	-0.26928252
66	0xbd724936	-0.05915185
67	0xbd9ef4d0	-0.07761538
68	0xbd56cafc	-0.052439675
69	0x3db91f28	0.09039146
70	0x3db66784	0.08906463
71	0xbdf05de5	-0.11736659
72	0x3c9195dc	0.017771654
73	0xbe04ed3b	-0.12981121
74	0xbe9bd4e6	-0.30435866
75	0xbc89a3b9	-0.016801702
76	0xbe1c966c	-0.15291756
77	0xbc2adf3c	-0.0104292
78	0x3ded6b0b	0.115926825
79	0xbe10ad42	-0.14128593
80	0xbe1346cc	-0.14382476
81	0xbd9d8507	-0.076913886
82	0x3d65a7ca	0.05606822
83	0x3b84ec3e	0.0040564826
84	0xbe48c68b	-0.19606988
85	0x3cb3260e	0.021868732
86	0xbe373d45	-0.17894466
87	0xbc19cafa	-0.009386772
88	0xbe37d588	-0.1795255
89	0xbe5de32f	-0.21668695
90	0x3e1ce6bc	0.15322393
91	0xbcd3c715	-0.025851766
92	0x3d000492	0.03125436
93	0x3e1d2636	0.15346608
94	0x3d7794e2	0.06044472
95	0x3d7bd398	0.06148109
96	0x3deff195	0.11716
97	0xbcf30531	-0.029665561
98	0xbd96c820	-0.073623896
99	0xbe116003	-0.14196782
100	0xbe8479cb	-0.2587417
101	0xbd7b72e9	-0.061388884
102	0x3db5546f	0.08853995
103	0xbc42b0a1	-0.011882932
104	0x3daf12be	0.08548497
105	0xbb4b720c	-0.003104332
106	0xbe4fc8ca	-0.20291439
107	0xbe5bbb7f	-0.21458243
108	0x3d8a0c2e	0.06740604
109	0x3deda075	0.116028704
110	0xbe1e16a3	-0.15438323
111	0xbd211adb	-0.039332252
112	0xbe4a45c1	-0.19753172
113	0x3dd31557	0.103068046
114	0xbd739752	-0.059470482
115	0xbe437db3	-0.19090919
116	0xbdb26ac4	-0.0871177
117	0x3d393ea7	0.045225766
118	0xbdc6bfa7	-0.097045235
119	0xbe03888f	-0.12845062
120	0x3d4c22a6	0.04983773
121	0xbd093c1d	-0.033504594
122	0xbe31ce34	-0.17363816
123	0xbe1b5bb7	-0.15171705
124	0xbe0acd8c	-0.13554972
125	0xbe7403e2	-0.23829606
126	0x3ddb0094	0.1069347
127	0xbe24154f	-0.16023754
128	0x3d9159f4	0.07097235
129	0x3e92a509	0.28641537
130	0xbdaf7bd9	-0.08568544
131	0x3d01ac70	0.03165859
132	0xbdc4baa0	-0.096059084
133	0x3d0d4fa9	0.034499798
134	0x3d4b239f	0.049594518
135	0x3e110772	0.14162996
136	0x3df3486c	0.11879048
137	0x3e8e5cc5	0.27805153
138	0x3c728940	0.014803231
139	0x3e80371f	0.25042054
140	0xbc36f435	-0.011166622
141	0x3d8cb432	0.06870307
142	0x3deab2f8	0.11459917
143	0x3df238a7	0.11827212
144	0x3b9ac9e0	0.0047237724
145	0xbd3b72f9	-0.045763943
146	0x3e1b3078	0.15155208
147	0x3ea19d03	0.31565103
148	0x3e847e3d	0.25877562
149	0xbd2d77b1	-0.042350475
150	0xbd330b1f	-0.043711778
151	0x3d0c092e	0.034188442
152	0x3e4c6c25	0.19963129
153	0x3d973e0a	0.0738488
154	0x3e1698d6	0.1470674
155	0xbe657834	-0.22409135
156	0x3e1e8d23	0.15483527
157	0xbde62b39	-0.11238713
158	0xbca51bb9	-0.02015482
159	0x3e1aa585	0.15102203
160	0x3e66174a	0.22469822
161	0x3e966e0d	0.29380837
162	0x3e68a107	0.22717677
163	0x3e9165b0	0.28397894
164	0x3dbabb4c	0.09117755
165	0x3e2660db	0.16247885
166	0xbba037d9	-0.00488947
167	0x3e725aad	0.23667403
168	0x3e24d403	0.16096501
169	0xbb93f524	-0.004515307
170	0x3eaaa2b4	0.33327258
171	0x3dee66d6	0.11640708
172	0x3d55f24d	0.05223303
173	0x3e94ba3e	0.29048342
174	0x3dfcbeee	0.123411044
175	0x3e7d3899	0.24728622
176	0xbd15ae89	-0.036543403
177	0x3e133cdf	0.14378689
178	0xbd9435d6	-0.07236831
179	0x3e0bf415	0.13667329
180	0x3e188705	0.14895256
181	0x3d8ee866	0.0697792
182	0x3c4c086e	0.012453182
183	0x3e2a7873	0.1664751
184	0x3e408ef8	0.18804538
185	0x3e961d5f	0.29319283
186	0x3e3e3522	0.18574956
187	0xbdbede84	-0.09319785
188	0x3e8dd29d	0.27699748
189	0x3e33d599	0.1756195
190	0x3e497638	0.19674003
191	0x3e679883	0.22616772
192	0xbe91f8d5	-0.28510156
193	0x3dd552dc	0.10416195
194	0x3c7c727c	0.015408155
195	0xbe4b234e	-0.19837686
196	0x3d5bea27	0.053690102
197	0x3c0f25ec	0.008737069
198	0xbd2597d8	-0.040428013
199	0x3c0a443f	0.008439123
200	0xbe17dbba	-0.14829913
201	0xbe2ace5e	-0.16680285
202	0xbea05063	-0.3131133
203	0xbe9209a7	-0.2852299
204	0xbe87ff5a	-0.26562005
205	0xbe7b5d07	-0.24547206
206	0x3da2d97c	0.07951638
207	0x3bbbd3f1	0.0057320525
208	0xbe4614af	-0.19343828
209	0xbe36743b	-0.17817776
210	0xbe214a98	-0.15751112
211	0x3dce5056	0.100739166
212	0xbe4cc33e	-0.19996354
213	0x3dce6cda	0.100793555
214	0x3d9a4f0a	0.07534607
215	0xbbe69bf8	-0.007037636
216	0xbe84a046	-0.2590353
217	0x3d838957	0.0642268
218	0x3cb0fa0d	0.021603609
219	0x3da30472	0.07959832
220	0xbd173b32	-0.036921687
221	0x3d623ca0	0.055233598
222	0xbe271338	-0.16315925
223	0x3cf77869	0.030208783
224	0xbdef1179	-0.116732545
225	0xbe03ee06	-0.12883767
226	0xbe2def5d	-0.16985841
227	0xbe4e483c	-0.20144743
228	0x3db6d95b	0.08928176
229	0xbe244548	-0.16042054
230	0x3d4a7dd8	0.04943642
231	0xbe396b27	-0.18107282
232	0xbe5fa20c	-0.2183916
233	0x3db197af	0.086715095
234	0x3be87193	0.007093617
235	0xbe82058c	-0.25394857
236	0xbd8062f3	-0.06268873
237	0xbe29fbab	-0.1659991
238	0xbe330dd9	-0.17485751
239	0xbc210744	-0.009828392
240	0xbe9dd322	-0.30825144
241	0xbe36b9d8	-0.17844331
242	0xbc340bfc	-0.010989185
243	0xb68169a7	-3.856799e-06
244	0xbdb8d27c	-0.09024522
245	0xbe8cf3fd	-0.27529898
246	0x3cb598a8	0.022167519
247	0xbe8b4110	-0.27198076
248	0xbdcb829e	-0.099370226
249	0xbdbe5ac6	-0.092946574
250	0xbddda9e2	-0.10823418
251	0xbd9b420a	-0.07580955
252	0x3d9179a7	0.071032815
253	0xbe945869	-0.28973702
254	0xbd6243cc	-0.055240437
255	0xbe651baa	-0.22373834

encoder.dcrnn_cells.1.update.weights_pool f4 [2, 2, 128, 64]
0	0xbe648eb1	-0.22320057
1	0xbe1e3990	-0.15451646
2	0xbe3fa0fe	-0.18713757
3	0xbe546e7d	-0.20745273
4	0x3e58ac20	0.2115941
5	0xbe5913d8	-0.21198976
6	0xbe4ff8d1	-0.2030976
7	0xbd9e2123	-0.07721164
8	0x3e6af801	0.22946168
9	0x3e5722eb	0.21009414
10	0x3e48d14e	0.19611093
11	0xbe64f769	-0.22360004
12	0x3e77a18b	0.24182718
13	0x3e600458	0.21876657
14	0x3e72ede1	0.23723556
15	0xbe50ca60	-0.203897
16	0xbe582fbc	-0.21111959
17	0xbe5cd2a0	-0.21564722
18	0x3db00694	0.08595005
19	0x3e63f02e	0.2225959
20	0x3e5a8bd6	0.21342406
21	0xbdbeb75a	-0.09312315
22	0xbe54f237	-0.20795523
23	0x3e5a6600	0.21327972
24	0x3e707c89	0.23485006
25	0x3e538f71	0.20660187
26	0xbe77362b	-0.24141757
27	0xbe7a8b2e	-0.24467155
28	0xbe56bdef	-0.20970891
29	0xbe58437f	-0.21119498
30	0x3e610bf5	0.21977217
31	0xbe64ba4f	-0.22336696
32	0xbe41e2c1	-0.18934156
33	0x3e614394	0.21998435
34	0x3e3f40fa	0.1867713
35	0x3e5abef4	0.21361905
36	0xbc8296a8	-0.01594098
37	0xbe5e04f3	-0.21681575
38	0x3e584a85	0.21122177
39	0xbe6e45c2	-0.23268798
40	0xbe5c64df	-0.21522854
41	0x3e6426bf	0.22280405
42	0xbe52fce3	-0.20604281
43	0x3e4fcdc0	0.20293331
44	0x3e47f45a	0.19526806
45	0x3e57196e	0.21005794
46	0x3e4cc2e0	0.19996214
47	0xbe05a669	-0.13051762
48	0xbd37bedd	-0.044859756
49	0xbe6a2dc7	-0.22869025
50	0xbe698713	-0.22805433
51	0xbe4c23df	-0.19935559
52	0xbe5ddf1a	-0.21667138
53	0x3e5867e5	0.21133383
54	0xbe43815f	-0.1909232
55	0x3e4fafaf	0.20281862
56	0x3e60ab02	0.21940234
57	0xbe58f153	-0.21185808
58	0x3e5b0e0b	0.21392076
59	0x3e6c85f8	0.2309798
60	0xbe52bd6c	-0.20580071
61	0x3e514b6d	0.20438929
62	0xbe681ebf	-0.22667979
63	0x3e701ef1	0.23449303
64	0xbe65da7d	-0.22446628
65	0xbe53984a	-0.20663562
66	0xbe5200d2	-0.20508125
67	0xbe7b2e6a	-0.24529424
68	0x3e8411a8	0.2579472
69	0xbe813204	-0.2523347
70	0xbe8274f6	-0.2547986
71	0xbdf730a9	-0.12069828
72	0x3e64e179	0.22351636
73	0x3e868f72	0.26281315
74	0x3e8271df	0.25477502
75	0xbe643ef5	-0.22289641
76	0x3e6a0ad0	0.22855687
77	0x3e849c05	0.25900283
78	0x3e78f04d	0.24310417
79	0xbe80769d	-0.25090495
80	0xbe7db276	-0.24775109
81	0xbe8625a5	-0.26200595
82	0x3d34c4d9	0.04413304
83	0x3e6c9ae7	0.23105966
84	0x3e7dec34	0.24797136
85	0xbe2d993d	-0.16952987
86	0xbe78a033	-0.24279861
87	0x3e873fc1	0.26415828
88	0x3e601539	0.21883096
89	0x3e82edd2	0.25572067
90	0xbe5747e2	-0.21023515
91	0xbe7d14e5	-0.24715002
92	0xbe85e0b2	-0.2614799
93	0xbe5eb6f8	-0.21749485
94	0x3e7b06b8	0.24514282
95	0xbe8028a9	-0.2503102
96	0xbe85e900	-0.26154327
97	0x3e659322	0.22419408
98	0x3e80f3c8	0.2518599
99	0x3e72166c	0.23641366
100	0x3cdac6cd	0.026706124
101	0xbe5ef52e	-0.21773216
102	0x3e8496cd	0.25896302
103	0xbe655966	-0.22397384
104	0xbe86db0f	-0.26339003
105	0x3e683930	0.22678065
106	0xbe6908d2	-0.22757271
107	0x3e7b15db	0.24520056
108	0x3e8624b0	0.26199865
109	0x3e739611	0.23787715
110	0x3e808ef5	0.25109068
111	0xbe42d859	-0.19027843
112	0x3da31788	0.079634726
113	0xbe74357a	-0.23848525
114	0xbe7e6052	-0.24841431
115	0xbe8124af	-0.252233
116	0xbe621324	-0.22077614
117	0x3e76cee5	0.24102362
118	0xbe880104	-0.26563275
119	0x3e7a233e	0.24427506
120	0x3e7df406	0.24800119
121	0xbe732719	-0.23745383
122	0x3e820d1b	0.25400624
123	0x3e66d38d	0.22541638
124	0xbe843bec	-0.25826967
125	0x3e7e553f	0.24837206
126	0xbe5676bf	-0.20943736
127	0x3e57588b	0.2102987
128	0x3e4ed22e	0.20197365
129	0x3e225c4d	0.15855522
130	0x3e3fb0f4	0.18719846
131	0x3e5d454b	0.21608464
132	0xbe47eec9	-0.19524683
133	0x3e5aecd7	0.2137941
134	0x3e44adfc	0.19206995
135	0x3d889181	0.06668378
136	0xbe7705e9	-0.24123348
137	0xbe403b5d	-0.18772645
138	0xbe4c880a	-0.1997377
139	0x3e5cf2d5	0.21577008
140	0xbe62ec51	-0.2216046
141	0xbe4e9693	-0.20174627
142	0xbe5fd9eb	-0.21860473
143	0x3e4be793	0.19912557
144	0x3e58b4f9	0.21162786
145	0x3e4c44d7	0.19948135
146	0xbdb067b4	-0.0861353
147	0xbe57b726	-0.2106596
148	0xbe4f1fee	-0.20227024
149	0x3dca01ed	0.098636486
150	0x3e4aa2d0	0.1978867
151	0xbe503afa	-0.20334998
152	0xbe51712c	-0.20453328
153	0xbe502b2d	-0.2032897
154	0x3e65edf9	0.2245406
155	0x3e5fd626	0.21859035
156	0x3e575eeb	0.21032302
157	0x3e4d5fc1	0.20056058
158	0xbe6f3bee	-0.23362705
159	0x3e4bee59	0.19915141
160	0x3e4bde7f	0.19909094
161	0xbe67d272	-0.22638872
162	0xbe4e8e20	-0.20171404
163	0xbe5e4d3b	-0.21709149
164	0x3ca7f523	0.020502632
165	0x3e67c519	0.2263378
166	0xbe59b153	-0.2125905
167	0x3e6293d7	0.22126709
168	0x3e47c404	0.19508368
169	0xbe68c9fa	-0.22733298
170	0x3e65de4b	0.2244808
171	0xbe422e4b	-0.18962972
172	0xbe52cb73	-0.20585422
173	0xbe6409a5	-0.22269304
174	0xbe4b770b	-0.1986963
175	0x3e101a02	0.14072421
176	0x3d0326da	0.032019474
177	0x3e63f242	0.22260383
178	0x3e5dd0d1	0.21661688
179	0x3e5acb4d	0.21366616
180	0x3e582879	0.21109189
181	0xbe47a508	-0.19496548
182	0x3e439d04	0.19102865
183	0xbe530e4e	-0.20610926
184	0xbe5a48ed	-0.21316881
185	0x3e53d179	0.20685376
186	0xbe4c151f	-0.19929932
187	0xbe629b76	-0.22129616
188	0x3e58f867	0.21188508
189	0xbe57e386	-0.21082887
190	0x3e6b15f0	0.22957587
191	0xbe6c08b4	-0.23050195
192	0xbe532158	-0.20618188
193	0xbe17acaa	-0.1481196
194	0xbe346b8d	-0.17619152
195	0xbe55eddb	-0.20891516
196	0x3e566f68	0.20940936
197	0xbe434f04	-0.19073111
198	0xbe36c1a4	-0.17847306
199	0xbd92de24	-0.07171276
200	0x3e61109b	0.2197899
201	0x3e3617bd	0.17782493
202	0x3e523335	0.20527346
203	0xbe4a61fd	-0.19763942
204	0x3e6fff69	0.23437275
205	0x3e536f75	0.20647986
206	0x3e654fe7	0.22393762
207	0xbe523568	-0.20528185
208	0xbe433ad6	-0.19065413
209	0xbe49e1d2	-0.1971505
210	0x3d96640e	0.07343303
211	0x3e64785c	0.22311538
212	0x3e3ec797	0.18630825
213	0xbdc214b3	-0.09476604
214	0xbe3eb44a	-0.18623462
215	0x3e41aae3	0.18912844
216	0x3e5fcc82	0.21855357
217	0x3e4a51af	0.19757722
218	0xbe6f3020	-0.23358202
219	0xbe564099	-0.2092308
220	0xbe5d38f2	-0.21603754
221	0xbe4d8c11	-0.20072962
222	0x3e641959	0.22275294
223	0xbe4e3132	-0.20135954
224	0xbe3c5263	-0.18390803
225	0x3e54893b	0.20755474
226	0x3e458952	0.19290665
227	0x3e5130d9	0.2042879
228	0xbc8e26d6	-0.017352503
229	0xbe5c4105	-0.21509178
230	0x3e4aac6d	0.19792338
231	0xbe67ae89	-0.22625174
232	0xbe48a89b	-0.19595568
233	0x3e527056	0.20550665
234	0xbe483777	-0.19552408
235	0x3e4d3b67	0.20042191
236	0x3e3ca112	0.18420818
237	0x3e4d3683	0.20040326
238	0x3e3d2edd	0.18474908
239	0xbe0bd6f7	-0.13656221
240	0xbcdafadf	-0.026730953
241	0xbe55ca5d	-0.20877977
242	0xbe4dba89	-0.20090689
243	0xbe515362	-0.20441964
244	0xbe63c4b1	-0.22243
245	0x3e3d509c	0.18487781
246	0xbe549a0f	-0.20761894
247	0x3e5293a7	0.20564137
248	0x3e4ed94d	0.20200081
249	0xbe586a65	-0.21134336
250	0x3e529ad8	0.2056688
251	0x3e5e82ed	0.21729632
252	0xbe48c452	-0.1960614
253	0x3e55b659	0.20870341
254	0xbe64e520	-0.22353029
255	0x3e533004	0.20623785
