CQ/result/P7_Resullt/HOURS/data21/2/best_model.pth (torch_old, 603202 bytes, 11 tensors)

node_embeddings f4 [228, 2]
00000000: 1022 303e aa79 c83d 65a1 953e 3fb0 863e
00000010: 9c02 173e c55f e33d 5021 e7bd a85a 873e
00000020: d255 923e 7f3d 523e 8f14 893e 06ec 213d
00000030: 7c8f 283e 7f6c e33d 6574 0e3e 2bdf 8f3e
00000040: 95ed a6be 63b5 403d 8eb9 04be f071 833e
00000050: 328c 943e d516 2e3e 9309 963e 617b 803e
00000060: 8528 9dbd df0d 3f3e e34f 873e 0b74 0e3e
00000070: 0681 193e 2681 163e 8000 6ebe 9e66 153e
00000080: c531 343c af32 9a3e a3ee 513e d2fd 903e
00000090: 8f29 413e 4fe3 333d b0bb 023e f23d 7e3e
000000a0: 1c1b e2bd cd1b 453e d147 213e d4b9 033e
000000b0: 7a3f 803e 1430 263e 09dc 913e 5f77 e43d
000000c0: 3771 6f3e 446b 5b3d 9a46 ad3d bf1c 223e
000000d0: b94f ec3d 229d 623e 52d7 e73d ba83 3c3e
000000e0: 4663 1f3d 0c48 4e3e b508 423c b6b0 173e
000000f0: c7aa fbbd d7b4 973e 4fd0 433e ef84 653e
00000100: 6cc5 873e 26e7 f33c 69be 8d3e 4628 f03d
00000110: bcd1 313e 0e3d bc3d c647 a53d c503 8c3e
00000120: b6a5 a43d b536 7f3e ebb9 dabd 07c7 873e
00000130: bd1c 0e3e d282 6c3e c7b2 cabd 9577 973e
00000140: 3857 673e 7e0a 923e 1b0f 1f3e b6a2 4c3e
00000150: 1e4b 063e 72b8 5c3e 9c20 713e be11 403c
00000160: 3d51 323e 25e2 5d3e 361a 913d 0869 233e
00000170: 0e0c 9a3d 1f82 8d3e dcbd 823e b258 ed3c
00000180: 058c f23d 5454 153e 1d22 473e 1fa4 8e3d
00000190: 46bd 0b3e 51e5 de3d 565f c83d bd22 583e
000001a0: 3db1 3a3e 624e 913e 263d 673e 37b8 633e
000001b0: 922d bc3d d436 363e 0c14 45bd 0e53 943e
000001c0: 7ccd 873e 057e 933e 480b 803e 10fa a73c
000001d0: 9d19 2b3e 4e3f c13d 03ed 633e 940c 8a3d
000001e0: 7800 fc3d db86 fc3d fe4b f03d a2ae ff3d
000001f0: e733 913e 57e5 053e 9593 8f3e fbe1 be3d
00000200: efb5 ed3d 7faa f23d c9d8 553e a5a7 793d
00000210: 14c7 763e 950a 3a3e 9dd4 0f3d 82c4 9d3e
00000220: 57bb 083e 94a0 d73d 2823 8b3e 1ec7 973e
00000230: 49b9 983e 570e ff3c 7251 ff3d 6ee1 eb3d
00000240: 9f35 763e 834c a43d e246 033e 2bec de3d
00000250: bf01 983e 06ab 8a3e 0f59 323e 1aac 103e
00000260: 599d 813d 2cee 833e 13a5 503e 285d 6d3e
00000270: e5eb 973e 0871 013c 7804 333e 43b9 913e
00000280: 571f 4b3e d2a7 023d 0027 883e 1649 0f3d
00000290: f74a 803e 915e 053e de16 b63d 73fd 143e
000002a0: 1dee 983e a7df 993e f8df 433e 86b6 283e
000002b0: 22b7 913e 3e71 e1bc e4f7 d4bd 2fd9 773e
000002c0: c821 453e 2ca4 983d d9fa 65be 75dc 0c3e
000002d0: 9bb3 89bd 848a 323e 69a3 343e 62e6 923d
000002e0: c464 403e 2e2a d13d 34ad 80be 2684 963d
000002f0: 6a24 643e 6f63 9d3d fd5d 3f3e 4d74 5f3e
00000300: 2c44 343e 8c7f d63d b399 503e f2ae da3d
00000310: 003f 833e dc65 413e 9ef7 b63d 097a 8f3e
00000320: ce53 4e3d b15e 0e3e 72a9 ab3d 6909 873e
00000330: 6e8e f63d dba7 993e eae1 493e 66fb 083e
00000340: 4fcc 873d be4f 663e 563d 353e 063c 403e
00000350: 384b 5d3d f6c0 0e3e 15b7 773d 66e9 7f3e
00000360: a05b 033e 9062 f03d 533f 953e 25d9 903e
00000370: 1552 823e 58e7 5dbc 65b6 b0bd 6aa2 563e
00000380: 66be 92bd 686a 363e 4946 923e 47b7 633e
00000390: 3b0e 493e 983f da3d b412 53bd 8375 493e
000003a0: 9333 8d3e 1d83 6d3e cf7c 913e 81b4 173e
000003b0: 5b7c 913e 87a5 de3d b39c b5be eb26 003d
000003c0: 0140 843e cbd4 1e3e 54fa 3a3e b18a 323e
000003d0: 8cca 763e 990d 803e 9898 c93c f6b5 593e
000003e0: 2953 cabc eaa0 253e 90d7 87be 1c06 fb3d
000003f0: c125 863d cdd7 343e b51d 483e 3c9c 573e
0.17200494 0.097888306 0.29224697 0.2630634 0.14747089 0.11102251 -0.11285651 0.26436353
0.285811 0.20531271 0.26773497 0.03953173 0.16460985 0.11104678 0.13911588 0.2809995
-0.32603136 0.047047984 -0.12961408 0.25672865 0.2901321 0.17000897 0.2930418 0.2509413
-0.07673744 0.18657635 0.26428136 0.13911454 0.14990625 0.14697704 -0.23242378 0.14589927
0.010998194 0.30116794 0.20501189 0.2831865 0.1886351 0.04391795 0.1276691 0.24828318
-0.11040327 0.19248886 0.15750052 0.12863857 0.2504843 0.16229278 0.28488186 0.11155581
0.23383032 0.053569093 0.08460732 0.15831278 0.115386434 0.22130254 0.11320366 0.18409625
0.038913034 0.20144671 0.011842896 0.14813504 -0.122884326 0.29630157 0.19122432 0.22413991
0.26517808 0.029773306 0.27684334 0.117264315 0.17365164 0.09191333 0.0807033 0.27346626
0.08039419 0.24923213 -0.10679992 0.26519033 0.1387815 0.23096779 -0.0989738 0.2958342
0.22591865 0.2852363 0.15533106 0.19983944 0.13114592 0.21554735 0.23547596 0.01172298
0.17413802 0.21668299 0.070850775 0.15958035 0.075218305 0.27638337 0.25535476 0.028972957
0.11843113 0.1458295 0.19446607 0.06964897 0.13646421 0.108835824 0.09783809 0.21107002
0.18231674 0.28380114 0.2258192 0.22238241 0.09188379 0.17794353 -0.04811482 0.28969616
0.2652396 0.28807083 0.25008607 0.020504981 0.1670899 0.094359025 0.22258382 0.0674068
0.12304777 0.12330409 0.11733244 0.124844804 0.2835991 0.13075767 0.28042284 0.09320446
0.11606967 0.11848926 0.20883478 0.060950894 0.2409938 0.18168099 0.035114873 0.30813986
0.13352714 0.10528675 0.2717526 0.29644102 0.2982886 0.031134767 0.12466706 0.11517607
0.24043892 0.08022406 0.12820008 0.10884889 0.29688832 0.27083606 0.17416786 0.14128152
0.0632884 0.25767648 0.20375471 0.23180068 0.2967216 0.007900484 0.17482173 0.28461656
0.19836174 0.031898327 0.26592255 0.03498181 0.25057194 0.13024355 0.0889108 0.14549808
0.29869166 0.30053446 0.19128406 0.16475877 0.28460032 -0.027519818 -0.10398844 0.24203943
0.19251168 0.07453188 -0.22458972 0.13755973 -0.0672371 0.17435652 0.17640461 0.07172848
0.18788439 0.10213123 -0.25132143 0.07349424 0.22279516 0.07684981 0.18688197 0.21821709
0.1760413 0.104735464 0.20371132 0.106778994 0.25634003 0.18886513 0.08933948 0.28022793
0.05037289 0.1390331 0.083819285 0.26374367 0.12038885 0.30010876 0.19715086 0.13377151
0.06630766 0.22491357 0.17699179 0.18772897 0.054026812 0.13940796 0.060477335 0.24991378
0.12827921 0.11737549 0.29149875 0.28290668 0.2545325 -0.013543926 -0.08628539 0.20960394
-0.07165222 0.17814028 0.28569248 0.22237884 0.19634335 0.10656661 -0.05153151 0.19673733
0.2757841 0.23194547 0.28415534 0.1481495 0.28415188 0.108714156 -0.35471115 0.031287115
0.2583008 0.15510862 0.18259555 0.17435719 0.24100703 0.25010374 0.024608895 0.21260819
-0.024697857 0.16174665 -0.2653165 0.12257025 0.0655017 0.17660446 0.19542582 0.21055692

encoder.dcrnn_cells.0.gate.weights_pool f4 [2, 2, 65, 128]
00000000: d3c5 083e 695d b4bd 5397 f93d 1aa0 e33d
00000010: 87b6 eb3d da8f 023e b8e4 bd3d 03c7 033e
00000020: bd8f d6bd 9680 063e 4e9a 063e 739d f93d
00000030: ed13 f43d 52cd 0a3e 1313 c03d f0f7 d13d
00000040: 6531 ef3d 0575 f33d a03d c6bd 806f ffbd
00000050: 7983 0a3e 01a3 9abd 9449 e93d 9917 9dbd
00000060: f8e1 043e d927 063e a95b cb3c 530d e2bd
00000070: 535f f33d 48b1 ea3d fab0 f43d ed9f c23d
00000080: d80a c5bd 8018 c93c 7d75 aabd 3e80 fb3d
00000090: b59b 083e 8250 f03d 74a8 0a3e b622 f23d
000000a0: 1a50 163e 8e72 9b3d dd76 d73d 90ea e03d
000000b0: 54a0 193e db79 f43d 7371 1d3e 9a69 093e
000000c0: 9d7d 0b3e 8464 c7bd fe88 f03d 7fc7 053e
000000d0: be85 c8bd 18b2 ef3d 7206 0b3e 5ab6 093e
000000e0: 60f2 dd3d 4b93 de3d 3c56 c1bd 2151 c3bd
000000f0: f459 e43d 9c3f 003e 97f2 d4bd 0207 ee3d
00000100: 58ab 0ebe ce88 8b3c 2537 0ebe 1747 0cbe
00000110: da1f f1bd c010 fbbd 18d2 3cbd df7c 00be
00000120: 322b b93d ebb5 f6bd c4e1 edbd bbfc f5bd
00000130: 3c7f f2bd 72ba 03be d44b 95bd 3b47 b4bd
00000140: 6235 09be 7b97 08be 4601 a93d 4b86 c13d
00000150: 4842 07be eaf9 c03d 8626 fcbd b042 803d
00000160: 9028 b7bd 86a8 0bbe 6f98 60bc af8d b13d
00000170: c28e ffbd 2845 03be 67f9 f9bd 5d15 8ebd
00000180: f9d7 b53d 74c2 a3bb 78d5 a93d 66d0 0fbe
00000190: bb1a 06be 9a2b 0bbe 962b 12be a6e7 f9bd
000001a0: b23d dabd f603 80bd 619d e9bd ee07 fdbd
000001b0: 6f7b fbbd 8b81 0bbe 688f dfbd b50c 10be
000001c0: ed0f e6bd 1886 9c3d 9272 efbd 75d1 f3bd
000001d0: 4f31 b83d 5859 01be ee9a f4bd e407 08be
000001e0: 8a7d f3bd d5de 07be 0744 a33d 3dc7 e83d
000001f0: 4d8b f5bd a15d 0dbe 7bd6 ca3d daee 0bbe
00000200: 01cd f0bd 2632 20be 499e 05be 7180 0cbe
00000210: 6295 08be a854 e0bd f3ee 0ebe ad87 f7bd
00000220: 035d 99bd 4dd2 e3bd 8665 09be b34c f9bd
00000230: 6098 e0bd 65e2 ffbd 15ce 0dbe e227 ecbd
00000240: 4f51 06be 179b f1bd b50b b9bd 36b8 14be
00000250: decf f8bd 0eea 28bd e21f e4bd 89ef c63d
00000260: dd49 02be f662 06be 73a2 1abe 54e5 04bd
00000270: eb54 febd ea9d 0abe 57a1 fabd 4aa4 0ebe
00000280: 65bc cebd 6ca6 1fbe 6264 cbbd 304f 03be
00000290: ec99 f5bd 7a99 e5bd 54a7 f5bd c16d eabd
000002a0: 5f4e cfbd edec 0bbe a1bc fdbd 081c f8bd
000002b0: 2265 dabd 0a4e 06be a912 f3bd bdb3 0dbe
000002c0: b5c2 f3bd a4fe d9bd 0e35 09be c0cc eabd
000002d0: 07f5 eebd 6ca8 0abe e1d0 01be 4c30 fdbd
000002e0: f95d ebbd 7359 f2bd f07b 9abd eb59 cabd
000002f0: 9b2b 0cbe 11c2 06be f297 a1bd 330c 0cbe
00000300: 9004 203e 6e7d 0e3e f774 113e 411e 073e
00000310: a4a4 123e 47c4 153e cfa2 003e 796e 0f3e
00000320: aee3 f33d 4116 103e 4e4d 1b3e fc3c 0f3e
00000330: 6571 0f3e 6acb 163e dbb4 013e 6755 083e
00000340: cea7 0a3e 4e95 1f3e 6f7e 0b3e a4f6 003e
00000350: 3220 163e df51 033e fb30 1f3e bb43 1e3e
00000360: c845 103e c793 093e c075 123e 1344 083e
00000370: 9aa9 1d3e ce09 173e 28c2 0d3e 090f 093e
00000380: a92c 0f3e ea27 123e 3698 003e b0d3 143e
00000390: 6159 173e 43ed 103e 6967 1c3e b56c fb3d
000003a0: 8090 1a3e b56e f53d 2664 093e 93b9 1e3e
000003b0: b787 0a3e 3d29 0d3e 00d7 103e 9b0d 163e
000003c0: 6701 0d3e 1dc9 0e3e 38bc 053e 5f87 183e
000003d0: 9b60 093e c3ca 103e fc12 083e d82b 0e3e
000003e0: 25d9 153e 4801 093e 098c fe3d c303 f03d
000003f0: d023 0c3e d9fc 083e 21d9 0f3e 07ca 133e
0.13356714 -0.08806879 0.12187066 0.11114521 0.11509424 0.12750188 0.0927214 0.12868886
-0.10476635 0.13134989 0.131448 0.12188234 0.11917863 0.13554886 0.09378638 0.102523685
0.11679343 0.11887554 -0.09679723 -0.12472439 0.13526715 -0.07550622 0.11390987 -0.076705165
0.12976825 0.13101138 0.02482398 -0.11037698 0.11883416 0.11459595 0.11947818 0.0950316
-0.09621209 0.024547815 -0.0832319 0.1228032 0.13340648 0.11734106 0.13540822 0.11823027
0.14678994 0.07590209 0.10520718 0.10982239 0.15002567 0.119373046 0.15375309 0.1341919
0.13622136 -0.09735969 0.11744879 0.13064383 -0.09791134 0.117038906 0.13576677 0.13448468
0.10837245 0.10867938 -0.09440276 -0.095369585 0.1114997 0.12524265 -0.10397833 0.116224304
-0.1393255 0.017033007 -0.13888223 -0.13698994 -0.11773653 -0.12259054 -0.0460988 -0.12547635
0.09041442 -0.12046417 -0.11615327 -0.12011095 -0.11840674 -0.12864092 -0.07289854 -0.08802649
-0.1339927 -0.13339035 0.08252196 0.094494425 -0.13208878 0.09422667 -0.12312035 0.0626272
-0.089432836 -0.13638505 -0.013708218 0.08669602 -0.12478401 -0.1281935 -0.12205773 -0.069376685
0.08879084 -0.004997546 0.08292669 -0.14044341 -0.13096134 -0.13590851 -0.14274439 -0.122023866
-0.10656299 -0.062507555 -0.11406971 -0.12355028 -0.122794025 -0.13623635 -0.109160244 -0.14067347
-0.11233506 0.07642764 -0.116917744 -0.11905185 0.0899378 -0.12631738 -0.11943613 -0.1328426
-0.11889179 -0.13268597 0.079719596 0.11366127 -0.1198946 -0.13805248 0.0990419 -0.13665333
-0.117578514 -0.1564413 -0.13048662 -0.13720872 -0.13338235 -0.10953647 -0.1395834 -0.12086425
-0.07488444 -0.11124096 -0.13417634 -0.12172832 -0.10966563 -0.12494353 -0.13848145 -0.115310445
-0.13116954 -0.11797159 -0.09035436 -0.14523396 -0.121490225 -0.041238837 -0.11138894 0.097136565
-0.12723489 -0.13123688 -0.15101032 -0.032445267 -0.124185406 -0.13536802 -0.122378044 -0.13929859
-0.10094527 -0.15590829 -0.09931256 -0.12823176 -0.11992249 -0.11210914 -0.11994806 -0.11446715
-0.1012237 -0.13664599 -0.12389494 -0.121147215 -0.10663821 -0.13115707 -0.118687935 -0.13838096
-0.11902372 -0.10644272 -0.13399145 -0.11464834 -0.11667829 -0.1354081 -0.12677337 -0.123627275
-0.11492533 -0.11833467 -0.075431705 -0.09880432 -0.13688509 -0.13159968 -0.078903094 -0.13676529
0.1562674 0.13915035 0.14204775 0.13195135 0.14320618 0.14625655 0.12562107 0.14006986
0.11908661 0.14070989 0.15166208 0.13988107 0.140081 0.14726034 0.12666647 0.13313828
0.13540575 0.15584299 0.1362245 0.12594086 0.14660719 0.128242 0.15546028 0.15455525
0.1408912 0.13435279 0.1430273 0.13307218 0.15396729 0.14749834 0.13843596 0.13384642
0.1398188 0.14273039 0.12558064 0.14533877 0.14780189 0.14153008 0.15273823 0.122765936
0.15094185 0.11984006 0.1341711 0.15500478 0.13528334 0.13785262 0.14144516 0.14653628
0.13770066 0.13943906 0.13060081 0.1489539 0.13415758 0.14139847 0.13288492 0.13883913
0.14633615 0.13379395 0.12429053 0.117194675 0.13685536 0.13377704 0.14047672 0.14432536

encoder.dcrnn_cells.0.gate.bias_pool f4 [2, 128]
00000000: 81d3 483e c6c0 57be b2a3 1f3e f097 883d
00000010: c515 a93e a3c8 b53e 6fd6 b4bd b6fa de3d
00000020: 596b 06be 6e67 513e 79a8 513e c325 56bd
00000030: d7b1 f33d cc2e 523e 05c2 8e3e 33e2 a93e
00000040: dffb 143e eb32 9c3e d94e a3be d9a9 19bc
00000050: 095a 6c3e 0182 ebbd 314a a43e df7e 43bd
00000060: 7bce 2d3e 9490 813e 970a a23c 9001 a0be
00000070: b698 683e c55a 5c3e e69d 303e e749 133e
00000080: feb3 d8bc 7ebf 123d ead6 8dbd ec6a 7abd
00000090: 30b7 1a3e 28e1 983d 57e9 793e 225f 903e
000000a0: bfcb 163e 07d6 dd3d c088 af3d f328 1e3e
000000b0: 0955 95bc f4e9 513c 85e2 a73e 1a5f 213d
000000c0: ffbf 7abd d357 3fbe 37ac b13e d760 053e
000000d0: 4b7d c03b 50fb 2bbd 0a16 be3b 3c29 463e
000000e0: 4647 be3d b7ec 993e 327c b5bd 4a61 cabc
000000f0: 174d 223e c238 3a3e 1cbd 15be aac1 af3d
00000100: 4ec3 7cbe d911 883e c5f4 383d 09f3 adbe
00000110: 008a 85be a7d6 7abe c50e 2abe 024c 903d
00000120: a855 2abc ffe0 74be 35d0 023d 6349 f23c
00000130: 2a0f a43b d647 88bd 7397 8bbe 624e 4bbe
00000140: e9ce 52be c5ff 99be e1c4 4d3e 23d1 ccbc
00000150: 2368 a23a 671e edbc a93e 6bbd 079f 633c
00000160: 9580 ed3b 3854 96bd 1cbb 25be 7db1 b1bc
00000170: ce77 54be 787d 7abe f3f0 6dbe 6cf7 7a3d
00000180: e2c3 463e 7798 f2bd 210b 333b 7ef6 88be
00000190: e241 d1bc 304b 9bbd 5311 63be 0fe6 f2bd
000001a0: 31cd a5be e400 6dbd 914e 283d c7ce 38be
000001b0: 2e8d 5ebd f8d2 683d e9d6 6bbd 58cc 91be
000001c0: 915a ad3d d820 133e 6645 2cbe f909 913c
000001d0: ac7e 41bc 0076 0dbe 3342 a1be 211d cbbc
000001e0: 67b9 c6bd 917d d9bd 9a1f 803d 6d1f 9cbd
000001f0: 62d5 88be cf34 d9bd c37e 2d3d e375 0ebe
00000200: f2c9 043a 3bce 763e 7387 3a3e 3f54 6a3e
00000210: 271c ae3d 318a ab3b 0348 953e 15ae 023e
00000220: 472d 063e 6a6a 7dbd 5f28 7d3d c878 303e
00000230: fb36 093e 3428 9a3e 35ca d63c f7bd a53e
00000240: c7ec 1cbd 2951 493e 286d cc3d c1d6 b93e
00000250: 7db7 533d 616e 1f3e 18c4 373e 75a7 7c3e
00000260: 2741 823e 86a4 6e3d 2c45 113e 1fc0 373e
00000270: 090d 8b3d 1db8 513d c02e ad3e 0aad 46bc
00000280: 9f4d 473e c7e4 b4bc 5f90 a93e 4c4c 8d3e
00000290: 0b87 743e 15c9 3d3e cc32 b03e a3b6 133e
000002a0: 045b 06bc d661 273e d035 5c3e 49de 083e
000002b0: 2e1c 733d 7313 ec3d 050b f13d 58c2 ae3e
000002c0: e53f 933e a042 2a3e 4652 6f3d 5473 ba3c
000002d0: ba54 b73d e26d 953e 7ae0 b8bc 3839 103d
000002e0: 5476 453e 6fd1 a73e a73f 0b3e 4c05 8b3e
000002f0: b520 d93d 3c7c 6f3e 987e 88bd 1c7c 4d3e
00000300: d334 aabe c6b1 bc3b 61b2 753b c011 bcbd
00000310: 7fe7 1cbe e38b 9abe 25b3 933d a54f 7dbe
00000320: 796d 8a3d cb92 5abe a248 95be dc6d 213d
00000330: 2083 17bc 7ad9 3dbc b5c4 17be 768b 8ebe
00000340: 4ae7 97be 6fea 17bd cf1b 383a 9338 1fbe
00000350: 3f47 89be 8442 59be 1413 91be 7647 a2be
00000360: f080 34bd e3c7 d1bd 6407 a7be b898 59bd
00000370: 4c1b 8ebe fed6 36bd 7e00 04be 4d8d 95be
00000380: 7b16 a9bc 9817 acbe 9b7d 89bd 0ee6 dfbc
00000390: c044 8fbe 5865 943d a244 6dbe c88b 4ebe
000003a0: 869a 8b3d 59ee 07be 73e2 9bbe d06f 92be
000003b0: fe1d 97be cd23 e43c d3c1 0f3c 02ea 8bbc
000003c0: 20a0 83be ec4c 9dbe e3c3 5dbe 1920 3dbe
000003d0: 5e3b 12bd f42d 01be 9228 64bb cb6e a9be
000003e0: c727 84be d7a9 c43c 985a 5dbe 351b 9c3c
000003f0: c2dd 8b3d f44a a0be 0808 1abe b217 a7be
0.19611932 -0.21069631 0.15589789 0.06669605 0.3302442 0.35504636 -0.088299625 0.10887663
-0.13126887 0.20449612 0.20474423 -0.052282106 0.11899155 0.20525664 0.278824 0.3318039
0.14549206 0.30507597 -0.31896093 -0.009378874 0.2308122 -0.11499406 0.32087854 -0.047728416
0.16973297 0.25305617 0.01978044 -0.31251192 0.22714505 0.21519001 0.17247733 0.1438366
-0.026453014 0.035827152 -0.06925757 -0.061137125 0.15108943 0.0746482 0.24405418 0.2819758
0.1472616 0.10831838 0.08571005 0.15445308 -0.018229024 0.012812126 0.32790008 0.039397337
-0.061218258 -0.18685846 0.34701702 0.13025223 0.005874311 -0.041987717 0.005800967 0.19351667
0.09290938 0.30063412 -0.08861579 -0.024704594 0.1584972 0.18185714 -0.14622921 0.0858186
-0.24683878 0.26576117 0.045155305 -0.33974484 -0.26081848 -0.24495946 -0.16607197 0.07045747
-0.010396399 -0.23913954 0.031936843 0.02957601 0.0050066905 -0.066543266 -0.27263984 -0.1985412
-0.20586742 -0.3007795 0.20094635 -0.025002068 0.0012390654 -0.028945161 -0.057432804 0.013892896
0.007247994 -0.07340282 -0.16184658 -0.021691078 -0.20748827 -0.24461925 -0.23236446 0.061271116
0.19410661 -0.118454866 0.0027319866 -0.2675056 -0.02554411 -0.075827 -0.22174577 -0.118602864
-0.3238311 -0.057862177 0.04109055 -0.1804763 -0.05433386 0.05684182 -0.057578 -0.28476214
0.0846454 0.14367998 -0.16823348 0.01770495 -0.011809986 -0.13814545 -0.31495818 -0.024794163
-0.097033314 -0.10619653 0.062560275 -0.076231815 -0.26725298 -0.106057756 0.042357218 -0.13912158
0.00050654926 0.24102108 0.18215732 0.228837 0.085014634 0.0052349796 0.29156503 0.1276172
0.1310321 -0.061869062 0.06180608 0.17233574 0.1339988 0.30108798 0.026219467 0.32371494
-0.038311746 0.19659866 0.099817574 0.36296657 0.05168866 0.1556945 0.17945898 0.24673255
0.25440332 0.05826237 0.14186543 0.17944382 0.06789596 0.051200975 0.3382473 -0.012126217
0.19463204 -0.022081746 0.3311796 0.27597272 0.2387964 0.18533738 0.34413755 0.14425139
-0.008200411 0.16345915 0.21504903 0.13366045 0.059353046 0.11527147 0.1176968 0.34132648
0.28759685 0.16626978 0.05842807 0.02276007 0.08951707 0.29185396 -0.022567976 0.035210818
0.1928342 0.32776973 0.135985 0.2715248 0.106019415 0.23387235 -0.06664771 0.20066875
-0.33243427 0.005758497 0.0037490355 -0.09183073 -0.15322684 -0.3018485 0.072119035 -0.24737413
0.067591615 -0.2134506 -0.29156977 0.03941141 -0.009247571 -0.011587495 -0.14821132 -0.27840775
-0.29668647 -0.037088808 0.0007023187 -0.15548925 -0.2681217 -0.2121678 -0.28334868 -0.31695145
-0.044068277 -0.102432035 -0.32622826 -0.05312416 -0.277552 -0.044638626 -0.12890813 -0.29209366
-0.020640602 -0.3361175 -0.067134105 -0.027331378 -0.2798214 0.07245892 -0.23170713 -0.2017051
0.068165824 -0.13274516 -0.30446205 -0.2860093 -0.2951507 0.027849102 0.008774239 -0.017079357
-0.25708103 -0.3072275 -0.21656756 -0.18469276 -0.03570115 -0.12615186 -0.003481422 -0.3309234
-0.25811598 0.024006767 -0.2161659 0.019055942 0.06829406 -0.31307185 -0.15042126 -0.32635266

encoder.dcrnn_cells.0.update.weights_pool f4 [2, 2, 65, 64]
00000000: 966b 1abe 9a69 c8bd f46e 0b3e dd3c 14be
00000010: 6c7d 043e 93e1 1cbe a81e 95bc e0f2 053e
00000020: 3970 14be fd8b 273e 96a9 033e 3016 00be
00000030: ddd6 15be cb7c 06be de8c 1a3b 43c1 02be
00000040: e984 1cbe e5a9 113e ab8b 19be 2059 0b3e
00000050: 5742 1a3e 145f 0fbe 65e5 18be 0ae3 1e3e
00000060: 60ef 06be 6db2 1b3e f2ef 78bd 7fcc 25be
00000070: d63a 0e3e acf3 083e a9b7 183e 81b7 85bc
00000080: 376a 0fbe 624a 7e3d 9cbc 05be defa 203e
00000090: 7dfe 063e 5655 0a3e 7e68 1b3e b890 17be
000000a0: bf7a 123e cd12 263c ed97 00be 26a9 0fbe
000000b0: dd62 223e 6a2f 26be 8368 21be aa7e 1bbe
000000c0: 2e37 153e 7f3a 14be 8271 183e 2f05 17be
000000d0: e266 05be 5695 22be 1b3b 143e a3d6 08be
000000e0: 0193 023e b5fc 16be 8e99 143e 11e7 313e
000000f0: 4956 143e b98a 103e 7c79 1a3e c7d7 23be
00000100: 765b 123e 441e 09be e4fb 01be 4706 093e
00000110: e3b1 fbbd 616a 173e 4d9b 0ebe 47f8 11be
00000120: cd17 f1bd a3a7 01be 3412 18be 2a3e f63d
00000130: 3fd4 143e 46ac fc3d 19fa 053e a837 0c3e
00000140: 8730 063e c30d 0dbe 7b86 d9bd 9bf6 e13d
00000150: 0f94 0abe 5173 e1bd 8bb6 153e 1d82 74bb
00000160: aed6 063e 3829 05be d02d debd 1c72 b2bd
00000170: 34fa 01be abd0 fcbd 821e ffbd 97a7 f0bd
00000180: 2243 efbd 5ed1 043e 086d 06be 2e32 0cbe
00000190: ca24 03be d802 0bbe d5ad 14be faba 003e
000001a0: 22e3 1bbe c1b4 e73d 03ab f43d b514 033e
000001b0: 4ad0 16be 12b4 193e 2994 0f3e 3902 0c3e
000001c0: 15b8 16be 601f f7bd ee07 10be 7c55 093e
000001d0: ae49 f1bd ee19 0a3e 0c8f 04be 29eb 143e
000001e0: 70ad 04be dee0 043e 963b b33d bb31 d93d
000001f0: e6dc 0dbe 3875 0bbe 4d7f b63d f52b 143e
00000200: 9f91 10be b42e 31be 0ece 273e 8cce 18be
00000210: eeb5 273e 9e66 17be 7405 5ebe 36a8 4f3e
00000220: cff4 30be 19df 353e 67a8 183e bb0d 1fbe
00000230: 2232 59be aed2 34be edea 603e ac2c 19be
00000240: ebbe 18be b91a 313e caf9 27be da77 333e
00000250: 1012 223e f796 28be 09c0 32be 88ea 163e
00000260: 1e8b 0ebe 9a1e 093e fff9 55be 13e4 1dbe
00000270: 5e61 413e 62b6 253e 223c 1d3e e027 40be
00000280: 4512 32be 8b20 3e3e ed61 28be 21f4 423e
00000290: 7b37 513e 60a0 343e 5ced 4d3e 6890 1dbe
000002a0: 164a 393e 1316 583e 9ba6 47be 66e1 29be
000002b0: 2a94 533e b209 2dbe 4d55 4dbe c137 19be
000002c0: 9c94 373e 6914 27be 97a1 223e 8296 28be
000002d0: 7292 2bbe b17d 2bbe 511e 1f3e 9a41 4bbe
000002e0: 0a9a 283e f3a7 63be 71fd 1a3e 6a64 283e
000002f0: 85dd 263e 0b50 483e 47cf 2e3e bfce 2bbe
00000300: ceef 13be 455f 073e 476d 183e 7cb5 19be
00000310: 3b6b 0d3e 5e40 04be 0310 0a3e ef67 193e
00000320: 015c fa3d 84d3 103e 93cb f43d 96fe 03be
00000330: a3f3 18be 632c 1abe 90e2 f7bd 99b9 19be
00000340: e2c3 10be e199 fd3d b230 fb3d e4ab 0abe
00000350: 881c 163e a768 e83d 85f6 12be a43d 613c
00000360: f34c 11be a88f 093e 4d65 f63d 21bd e33d
00000370: 18df 193e 378c fd3d c275 093e 0894 1d3e
00000380: c167 053e 00ea 19be 3ac4 1e3e f8c2 183e
00000390: 55ea 073e 28ec ee3d 79a0 063e a668 0abe
000003a0: d557 f53d 9bfe f5bd a911 12be 42ff f7bd
000003b0: 53f0 f83d 80a1 01be c397 16be 149f 01be
000003c0: 5de5 123e 190d 173e daea ff3d 6e45 f0bd
000003d0: 93e0 113e fc34 13be 7bb8 073e 602a 0ebe
000003e0: d133 0d3e a49d 02be 1550 fabd e8fc dabd
000003f0: 832f 1a3e fd53 f73d 3109 f4bd 1213 17be
-0.15080103 -0.09785767 0.13616544 -0.14476342 0.1293847 -0.15320425 -0.018203095 0.1308093
-0.14495935 0.16361995 0.1285766 -0.12508464 -0.14632745 -0.13133542 0.0023582499 -0.12769036
-0.15285076 0.14224966 -0.14994685 0.13608217 0.15064369 -0.14001113 -0.14931257 0.15516296
-0.13177252 0.15204783 -0.060775705 -0.1619129 0.13889632 0.13374203 0.14913811 -0.016322853
-0.14005361 0.062082656 -0.1306023 0.15720698 0.13183017 0.13509116 0.1517658 -0.148013
0.14304636 0.010136318 -0.12557955 -0.14029369 0.15858026 -0.16229025 -0.15762524 -0.15185037
0.1457183 -0.1447544 0.1488705 -0.14748071 -0.13027528 -0.1587728 0.14475672 -0.13363127
0.1275139 -0.14744838 0.14511701 0.17373301 0.1448604 0.14115418 0.15085405 -0.16000281
0.14292702 -0.13390452 -0.12693745 0.13381301 -0.122897886 0.14786674 -0.1392643 -0.14254867
-0.11772118 -0.12661605 -0.14850694 0.120235756 0.1453409 0.12337546 0.13083686 0.13693106
0.13104449 -0.13774781 -0.10621353 0.110333644 -0.13533042 -0.11008323 0.14620416 -0.0037309
0.13167831 -0.13004005 -0.10848582 -0.08713171 -0.12693101 -0.12344488 -0.12456991 -0.11750715
-0.116827264 0.12970492 -0.1312753 -0.13691017 -0.12807003 -0.13575304 -0.14519437 0.12571326
-0.15223363 0.11313773 0.119466804 0.12800868 -0.14727893 0.15010098 0.14021362 0.13672723
-0.14718659 -0.12066531 -0.14065525 0.13411516 -0.117816314 0.13486454 -0.12945193 0.14542831
-0.12956786 0.12976405 0.087515995 0.106051885 -0.13853797 -0.13618934 0.089109994 0.14469893
-0.1411805 -0.17302972 0.16387197 -0.14922541 0.16377994 -0.14785239 -0.21681768 0.20279011
-0.17280887 0.17760886 0.1490799 -0.15532582 -0.2121053 -0.17658493 0.21964617 -0.14958447
-0.1491658 0.1729535 -0.1640388 0.17526188 0.15827203 -0.16463839 -0.17456068 0.14737904
-0.13920256 0.1339058 -0.20896147 -0.15419035 0.18884799 0.16182855 0.1535497 -0.18765211
-0.17389782 0.18567102 -0.16443606 0.1903844 0.2043132 0.17639303 0.20110077 -0.15387118
0.18094668 0.2110217 -0.19497149 -0.16589889 0.20661989 -0.1689823 -0.20052071 -0.14962675
0.17927784 -0.1631638 0.15881954 -0.16463664 -0.16755083 -0.16747166 0.15538909 -0.19849244
0.16465011 -0.22232036 0.15135743 0.16444555 0.1629544 0.19561784 0.17071258 -0.16778086
-0.14446947 0.13219936 0.14885436 -0.15010637 0.13810436 -0.12915179 0.1348267 0.14981054
0.122245796 0.14143187 0.11952891 -0.12890086 -0.1493669 -0.15055995 -0.1210376 -0.15012206
-0.14137223 0.12382866 0.12265147 -0.13542134 0.14659321 0.11348086 -0.14351852 0.013747606
-0.1418951 0.13433707 0.1203104 0.11120058 0.1502651 0.123802595 0.13423827 0.153885
0.1302786 -0.1503067 0.15504542 0.14918125 0.13272984 0.11666137 0.13147153 -0.13516483
0.11979643 -0.12011453 -0.1426455 -0.121092334 0.12155213 -0.12659264 -0.1470633 -0.1265834
0.14345308 0.1475109 0.12495966 -0.11731993 0.14245825 -0.1437568 0.13253967 -0.13883352
0.13789298 -0.12755448 -0.12222306 -0.10692769 0.15057187 0.12076566 -0.119158156 -0.14753368

encoder.dcrnn_cells.0.update.bias_pool f4 [2, 64]
00000000: a896 99be 187a 3fbe 1d7b ea3e 45bb e5be
00000010: 61ef 843e aaa9 afbe 0853 cdbc 310b 793e
00000020: eaf1 c0be 24e3 a13e 2901 e53e 4b16 73be
00000030: 0d77 84be aeb0 b1be bef1 0ebc b538 b0be
00000040: 8b83 86be 1610 b03e 4818 c4be 2f5b 963e
00000050: d5a8 793e bd87 8ebe 0d7d 1cbe 337c c53e
00000060: 7b17 dcbe 4e9e 053e 6a32 11be 674d a3be
00000070: 82dd 9e3e d5c3 973e cc96 e43e 8763 6fbc
00000080: b6ce afbe e086 833d be59 b9be f8a4 773e
00000090: beab bd3e d830 cf3e d12c 7b3e 3756 a1be
000000a0: b995 dd3e 84ab c7bb 8bd1 23be 7455 98be
000000b0: b087 ad3e bc91 83be 43f1 c9be 3058 e7be
000000c0: 3efb b73e c914 acbe c53b 353e c263 26be
000000d0: c6f6 b8be 0b52 e4be 9c4d 8b3e 600c 97be
000000e0: 9e01 9c3e 734c 28be a3e4 993e 07b7 333e
000000f0: 152f cf3e edbf 423e 694c 933e b35b c8be
00000100: 250c cebe 88ed e13e 86eb 423e 8719 c4be
00000110: 495a b63e 58c9 80be a683 cf3e 0ebf 5c3e
00000120: ed2e b13e 625e 9dbd 8416 d63e 51b8 e2be
00000130: 8081 4ebe cf1d 9dbe 4fc2 cabe 78cb 2f3c
00000140: 03a7 bdbe b506 d83e 7cf0 cf3e 34c9 cebe
00000150: 7738 db3e 4816 723e 2b85 a9be c8da 8cbe
00000160: 5ea2 7a3c f319 e43e 7c68 dd3e 65dd 863e
00000170: f824 673e 472c aa3e f657 a1bb 8c69 8d3e
00000180: c966 b63e 4723 a7be 9da2 ae3e b0a2 863e
00000190: 8dce 393e 9890 303e 8bc0 613e 62f1 80bc
000001a0: 4b7a 7ebe 67c7 babe c14b 1bbe d71a aabe
000001b0: 67d7 11be 6736 78be 88f2 3e3e bc83 cebe
000001c0: 9e9f 1dbe d680 a63e 618d df3e 878f 56be
000001d0: 37c0 d63e cd04 f83c 104b ad3e 8245 80be
000001e0: 0b34 973e 9975 1abe 3abb 95be b92c 32be
000001f0: 3b04 dd3e a089 393e 552a 87be f029 8ebe
-0.29997754 -0.18698919 0.45797053 -0.44869438 0.25963882 -0.3430913 -0.025064006 0.24320675
-0.37684566 0.31618607 0.44727448 -0.23738973 -0.2587208 -0.34705108 -0.008724628 -0.34418264
-0.26272234 0.34387273 -0.38299775 0.29366443 0.2438081 -0.27837935 -0.15282078 0.3857132
-0.42986664 0.1304867 -0.14179388 -0.3189499 0.31028372 0.29641595 0.446463 -0.0146111315
-0.34337395 0.0642221 -0.3620128 0.24184024 0.3704509 0.40466952 0.24528815 -0.3151109
0.43278292 -0.0060934443 -0.15997903 -0.29752696 0.33892584 -0.25697124 -0.3944188 -0.4518447
0.3593387 -0.33609608 0.17698582 -0.16248992 -0.36125773 -0.44593844 0.2720765 -0.2950163
0.30469984 -0.16435413 0.30057248 0.17550288 0.40465608 0.19018526 0.28769234 -0.3913246
-0.4024364 0.44126534 0.19035158 -0.38300726 0.35615757 -0.25153613 0.40530127 0.21557257
0.34606114 -0.07684018 0.41814053 -0.44281247 -0.20166588 -0.30686805 -0.3960137 0.010729663
-0.37041482 0.42192617 0.40613163 -0.4038788 0.42816517 0.23641312 -0.33109412 -0.27510667
0.0152975 0.44551048 0.43243778 0.26340786 0.22572696 0.33236906 -0.004923816 0.27619588
0.35625294 -0.32644102 0.3410844 0.26295996 0.18145199 0.17242658 0.22046106 -0.0157401
-0.24851339 -0.36480257 -0.15165617 -0.33223602 -0.14242326 -0.24239503 0.18647206 -0.4033488
-0.1539292 0.3252017 0.4366255 -0.20953189 0.41943523 0.030275727 0.3384633 -0.2505303
0.29531893 -0.15083922 -0.29244405 -0.17399873 0.4316729 0.18118906 -0.26399484 -0.2776637

encoder.dcrnn_cells.1.gate.weights_pool f4 [2, 2, 128, 128]
00000000: 3d3d eebc 0db3 08be fc01 23bd 9302 04be
00000010: 9829 01be 3a05 ffbd 621d 0ebe 09ce 2dbe
00000020: c3d5 653d 781a 0ebe 980a 0fbe 8573 14bd
00000030: 83ad 823d d1e3 dfbd 7433 c3bc 2e02 05be
00000040: 8d4d 01be 1b42 0dbe e04f 76be 8deb ddbc
00000050: 64c0 fdbd c821 1fbe cb21 01be 52e8 0dbe
00000060: 466c 20bd b096 efbd 1fbd 843d a29b 3dbc
00000070: a768 f2bd cde9 253d d6e3 35bd ccc6 03be
00000080: c751 08be f743 0ebd 7d38 02be 7836 4ebd
00000090: 937d 43be 0f84 30bd 7613 fbbd 5663 30bd
000000a0: 555e 05be b848 2abd aca1 6cbd 7c6e 10be
000000b0: 7d14 05be 7c7c 0dbd 01c7 09be 98b8 14be
000000c0: 183c 5bbe c21a 833c e45f f7bd da20 08be
000000d0: 33e4 17bd d67c 03be 5638 02be 4035 00be
000000e0: c797 b0bd 3cd6 a0bd 173e eebd e352 db3c
000000f0: e7b3 ecbd 3e06 08be 6b1e 08bd ae9c f3bc
00000100: 03a6 143e c840 163e b9a2 0f3e 66c0 1c3e
00000110: 2bc0 173e 7039 1b3e b19b 1c3e 1565 203e
00000120: 25ba 013e 9706 1f3e ca6d 273e 2c12 103e
00000130: 5cf0 0c3e f1e7 2c3e d82d 263e fe99 253e
00000140: cd99 233e 3528 1c3e 4f39 ee3d 4080 063e
00000150: 7544 1d3e 95b2 193e 7e55 273e 07b8 283e
00000160: 8f4b 103e 6c19 213e 40ae 053e 129f 1d3e
00000170: f44a 2d3e f364 ce3d a8f0 2b3e 916c 2e3e
00000180: 1fa2 1f3e e4ba 0e3e 8b93 1a3e 43fe 183e
00000190: 7848 1f3e b428 0e3e 5d0c 1e3e 1cb9 0c3e
000001a0: 28c5 223e 5da6 083e 45d9 0d3e 28bc 1c3e
000001b0: a742 183e 4340 073e 33d3 183e 3063 1a3e
000001c0: 68b3 223e f909 1e3e 2a38 213e 3a98 153e
000001d0: 3298 113e ca95 183e b8d7 263e 27db 243e
000001e0: e8f9 243e bb25 133e 28b0 1b3e 98a2 133e
000001f0: 2f33 173e 94e4 173e e562 173e ec69 173e
00000200: 1e9c 08be 00f1 883b eb1c 08bb ab6c 453d
00000210: d4bf 623d 2606 113d d579 82bd bb3b 05bd
00000220: 155f f7bd c4f6 2e3d d05b 6c3d a462 863c
00000230: fa06 c7bd 64ce e43c 42cc df3d 5495 043d
00000240: e593 383d efaa 623d 3a78 d4bd c166 d6bc
00000250: 1429 1f3d c001 ffbc dd4d 383d 2e0f 0f3d
00000260: f7e1 08bd 9ef2 c1b7 3550 fabd aece fa3d
00000270: 6947 ff3a efda 19be e027 eb3d cdc4 b7bc
00000280: b49e 2d3d 8c3a 07bd d846 153d 8f15 883d
00000290: 47aa 5fbd 7098 99bd b025 b8bb fd32 b1bd
000002a0: c876 343d 2c1d 35bd 6964 623d 801c 063d
000002b0: 8c9b 143d 409b 9a3b c62d 423d 1df3 b1bc
000002c0: d045 aabd 3bc9 343d 4014 2f3c 7883 2c3d
000002d0: 2c81 05be 2f4f 483d cfd9 113d f823 793d
000002e0: 59f9 eb3d efca a53d c401 61bc 42ab c43d
000002f0: aceb 853d 8ae3 553d f4b7 12be bcd3 25be
00000300: fab0 a83d c462 033e 125d 993d d39b ee3d
00000310: aabd cc3d 15a7 cb3d 8726 043e 693c 063e
00000320: 63e0 c03d 8f17 db3d 7851 de3d e737 973d
00000330: 46ef c83d 272b 053e 19b8 d13d 4b4d d43d
00000340: 6567 cf3d dd62 e63d f6e6 d53d b1da a13d
00000350: 483d e33d dfed fc3d 879c d93d 9d1d e43d
00000360: 6db2 a03d 2697 013e b509 c93d 4285 d33d
00000370: edbb f23d 9abf ee3d 2411 ec3d 276d e53d
00000380: cee3 da3d eb95 933d 5fb6 e83d 7989 a13d
00000390: ede0 723d f80c a33d 7306 ee3d bfd1 923d
000003a0: 7008 ee3d 283f b53d 350c aa3d 025a ea3d
000003b0: 259c ec3d 0cab ad3d 2504 d63d 9027 043e
000003c0: fa05 03bc a73d ab3d 5c49 013e 303d d93d
000003d0: 7e54 ab3d f727 d73d 82e5 e13d 94a6 db3d
000003e0: 4d6f c83d ae03 c73d 69b6 f03d d928 da3d
000003f0: 4bcd ea3d 4f53 d13d 130a a73d b342 b43d
-0.029081935 -0.13349552 -0.039796814 -0.12891607 -0.12613523 -0.12452169 -0.13878396 -0.16973127
0.056112062 -0.13877285 -0.13968885 -0.03624298 0.06380751 -0.109321244 -0.023828246 -0.12989113
-0.1262724 -0.13794748 -0.24053907 -0.027089858 -0.12390211 -0.1554023 -0.12610547 -0.13858154
-0.039165758 -0.11698663 0.064813845 -0.01157275 -0.11836367 0.040506173 -0.044406734 -0.12868804
-0.13312446 -0.034732785 -0.12716861 -0.050344914 -0.19090872 -0.04309469 -0.12259571 -0.043063484
-0.13024266 -0.041573256 -0.05777137 -0.14104646 -0.12996097 -0.034542546 -0.1345482 -0.14523542
-0.21409643 0.01600397 -0.120788366 -0.13293782 -0.037082862 -0.1284059 -0.12716803 -0.12520313
-0.08622699 -0.07853362 -0.116329364 0.026772922 -0.11557751 -0.13283631 -0.033232134 -0.029737797
0.14516453 0.1467315 0.14026918 0.15307769 0.148194 0.1515863 0.15293767 0.1566356
0.12668665 0.15529858 0.16350475 0.14069432 0.13763565 0.16885354 0.16228426 0.16172025
0.15976639 0.15249713 0.116320245 0.13134861 0.15358146 0.1500953 0.16341206 0.16476451
0.14091323 0.15732354 0.13054752 0.15392712 0.16923124 0.10077848 0.16791022 0.17033602
0.15589188 0.1393848 0.15095346 0.14940743 0.15554988 0.13882715 0.15434404 0.13742489
0.15895522 0.13344713 0.13852413 0.15306151 0.14869176 0.13208108 0.14924316 0.150769
0.1588875 0.15433492 0.15744081 0.14608851 0.14218214 0.1490089 0.16293228 0.16099225
0.16110957 0.14369862 0.15203917 0.14417493 0.14765619 0.1483329 0.14783819 0.147865
-0.13340804 0.00417912 -0.002076919 0.048199337 0.055358723 0.035406254 -0.06370894 -0.032527667
-0.12078682 0.042715803 0.057704747 0.016404457 -0.097181275 0.027930446 0.10927631 0.032368973
0.04506292 0.055338796 -0.10374494 -0.026172044 0.038857535 -0.031128764 0.04499613 0.034926586
-0.033418622 -2.312037e-05 -0.122223295 0.12246452 0.0019476238 -0.15024923 0.11482215 -0.02243271
0.04238768 -0.03301482 0.036444515 0.06644737 -0.05460575 -0.07499778 -0.005619727 -0.08652303
0.04405859 -0.044217274 0.05527154 0.032742023 0.036281154 0.0047182143 0.047406934 -0.02172237
-0.08314097 0.04413722 0.01068598 0.042117566 -0.13037556 0.04890364 0.03560811 0.060825318
0.11522169 0.08095347 -0.013733331 0.09602977 0.065390915 0.05221895 -0.14327985 -0.16194052
0.082368806 0.12830645 0.07488455 0.11650815 0.09997113 0.09943978 0.12905322 0.13108982
0.09417798 0.10697853 0.10855383 0.073837094 0.09811263 0.13004743 0.10240192 0.10366305
0.10127143 0.112493254 0.10444443 0.0790304 0.11095673 0.12350058 0.10625558 0.11138461
0.07846532 0.12655315 0.098163046 0.10328151 0.1185225 0.11657639 0.11526707 0.1120246
0.106879815 0.07206329 0.113629095 0.07887549 0.059296537 0.07961458 0.11622324 0.07168912
0.11622703 0.08849937 0.083031096 0.11442949 0.1155322 0.0847989 0.10450009 0.12905717
-0.00799703 0.083613686 0.1262564 0.10607374 0.08365725 0.105056696 0.11030103 0.10725132
0.09786854 0.09717499 0.11753542 0.10652322 0.11464938 0.10220968 0.081562184 0.08801784

encoder.dcrnn_cells.1.gate.bias_pool f4 [2, 128]
00000000: 2e7f 74be 8631 233e c901 643d b6b3 913e
00000010: 3c2a 073e 0ef4 703e 2688 a43e a929 773e
00000020: 316f 4c3d fb61 b9bd 51ec 193e b095 aabd
00000030: b8f1 da3d 3297 a03c f3f3 0ebe 8ab1 3e3e
00000040: c52b 543e 3d77 053e 3e42 9dbd 0fb0 b03d
00000050: 5a4c 8c3e 518d 8e3e d7a3 0b3e 2ead 103d
00000060: da32 bdbd fb8c a53e a5ea 3d3c 010a c23c
00000070: a938 b93d 1299 8fbe 1a12 fc3d e844 a13d
00000080: 14a0 063e f4ed 093e 4d42 843e 4508 8ebd
00000090: e558 193d 4855 213e ec00 d63d 53a6 853d
000000a0: 90e8 c73c b54b 22be 0f96 423e 4b0b 633e
000000b0: 1c18 de3d 5f74 f3bc 9e0e 8c3e 0e1e d0bd
000000c0: 3b1a 043e fcfe 13be 0420 4c3e 0d69 dc3b
000000d0: e054 f53b d111 773e 282f ac3d e2b8 153d
000000e0: 8af6 a8bd 949e 823e 59f1 a33b 5d58 a3bd
000000f0: 1830 fbbc d7cc 0b3b bd5c 5b3c 1ecb 453d
00000100: 0221 10be 8424 8abe 5a0b ccbc 85ca 9ebd
00000110: ac6f 56bd e73f b93d bdce b63d 1899 f3bd
00000120: e739 ae3c 5ff7 04be 6dc7 9bbe 28b8 89bc
00000130: 20d3 17be ca12 21bc 97cb f03d e993 10be
00000140: dd45 13be ce77 9dbd 4e6a 5e3d f93d b03b
00000150: a1b9 48be 1a67 a83c ef15 37be 7931 19bc
00000160: 40ad 37be f371 5dbe 352c 213e f64f c2bc
00000170: 0c5c 013d 46ef 1c3e c2b3 7c3d e24d 7d3d
00000180: 6ae4 ef3d 7ffa ebbc 0423 97bd 83ee 0fbe
00000190: 41d1 84be 216d 7cbd d7f1 b53d 8a7f 5dbc
000001a0: 0918 af3d b062 9aba df07 4ebe 0ebc 5bbe
000001b0: 023a 8a3d aefe dd3d 3002 1ebe aebe 25bd
000001c0: 9b5b 51be d943 dc3d 3fec 71bd 2566 43be
000001d0: f63d 92bd 1426 393d 38a9 c6bd 4568 03be
000001e0: 9474 4e3d 7dce 04bd c393 31be a7ae 17be
000001f0: a5b7 0abe f8f8 73be a7b1 db3d 9a1b 25be
00000200: 46a7 913d 76d0 933e 8fd0 adbd c7a2 003d
00000210: 4e28 c5bd 7928 0c3d c8b3 5b3d af10 123e
00000220: 4be3 f93d 192b 8e3e 2281 6d3c 04e8 7f3e
00000230: b4e2 f7bb 6acb 853d a093 ed3d 92d1 f13d
00000240: 8f73 963b 01f2 3bbd 14fa 1c3e e0d0 a13e
00000250: 4978 843e 9fce 26bd c34c 34bd 3470 0b3d
00000260: b691 4c3e 6310 943d c4af 193e 4088 64be
00000270: 3391 1c3e 0810 dfbd 983e a2bc 7caf 193e
00000280: 9abd 653e aa90 963e 5aaf 683e 5886 913e
00000290: 8e4c bd3d 1d6c 263e 6c0b b1bb 2057 723e
000002a0: eb8e 243e 0096 8cbb 9ab6 aa3e 65ba ed3d
000002b0: 39da 533d 65b5 943e f868 fc3d f430 7f3e
000002c0: eb39 0abd 1975 163e d93b 96bd 659b 0b3e
000002d0: 85ac 183e 9a11 8e3d de4a 483c 6e40 2a3e
000002e0: 0b14 413e 9c46 963e 36cd 3d3e 5fc0 bbbd
000002f0: 5ac4 8d3e e39d 333e 2195 493e ccb2 673e
00000300: cc2e 91be dbf0 d43d 3d67 be3c d760 4bbe
00000310: e3e8 5a3d 0b04 0b3c 6ddb 28bd cfc4 053c
00000320: e9e5 18be 530c 2bbe 4274 a0be 2ec2 92be
00000330: e601 88be e752 7cbe 7ff2 a13d 35f4 b43b
00000340: de5b 46be e0b6 36be 3b73 23be 8f75 c93d
00000350: 8705 4dbe 3da2 cd3d 62d8 993d 5664 eebb
00000360: a72f 86be 9b13 823d 5b78 b33c 05cf a13d
00000370: 64a6 1abd fd7c 5e3d 8aee 27be b3ff f13c
00000380: f48a efbd d397 06be fd30 2ebe ac7d 4ebe
00000390: cbd6 b33d 226b 27be 97e7 473d aaf7 3cbe
000003a0: 95e1 5fbe ffdb ac3d ea63 e53b 6f22 82be
000003b0: b1e8 80bd 193a 30be a04f 33be bbe5 26bc
000003c0: a391 a0be 7de7 36be cab9 3ebc 785b 6cb9
000003d0: 64f8 b6bd 5817 8dbe 378b b33c 605f 8bbe
000003e0: 8ed3 ccbd 0289 bebd 2917 dfbd 9ae6 9bbd
000003f0: 7efe 903d 2577 94be 025c 6cbd dff9 67be
-0.2387664 0.1593686 0.055665765 0.2845742 0.13199705 0.235306 0.32135123 0.24136986
0.049910728 -0.090518914 0.15031554 -0.08329332 0.106906354 0.019603346 -0.13960247 0.18622413
0.20719822 0.13033767 -0.0767865 0.086273305 0.27402002 0.2784219 0.13636719 0.035321407
-0.09238215 0.32334122 0.011591588 0.02368641 0.0904401 -0.2804647 0.1230814 0.07874471
0.13147002 0.13469678 0.25831833 -0.06935171 0.037438292 0.15755188 0.104493946 0.065258645
0.024402887 -0.15849192 0.19002555 0.22172277 0.10844442 -0.029718576 0.27354902 -0.101619825
0.12900631 -0.14452738 0.19934088 0.00672639 0.0074869245 0.2412789 0.08407432 0.03655327
-0.082501486 0.2551161 0.005003136 -0.07975838 -0.030662581 0.002133181 0.01338881 0.04828941
-0.14075091 -0.26980984 -0.024907757 -0.07753471 -0.052352592 0.090453915 0.08926151 -0.11894435
0.021267844 -0.1298499 -0.30425587 -0.016811445 -0.14826632 -0.00983114 0.11757582 -0.14118923
-0.1438212 -0.076888666 0.0543006 0.0053784815 -0.19602062 0.020556975 -0.17879461 -0.009350174
-0.17937183 -0.216255 0.1573952 -0.023719769 0.031581923 0.1532565 0.061694868 0.061841853
0.117134884 -0.02880597 -0.073797256 -0.14055829 -0.25940898 -0.06162751 0.08884018 -0.013519177
0.08549506 -0.0011778679 -0.2012019 -0.21458456 0.06749345 0.10839592 -0.15430522 -0.04046505
-0.20445101 0.107551284 -0.059063192 -0.19081934 -0.07140724 0.04520233 -0.09700245 -0.12832744
0.050404146 -0.032423485 -0.17341523 -0.14812718 -0.13546617 -0.23825443 0.10727244 -0.1612381
0.07111983 0.2886998 -0.08487045 0.031405237 -0.09626828 0.034218285 0.05363825 0.14264177
0.12201556 0.27767256 0.01449612 0.2499085 -0.007564867 0.06532939 0.11600423 0.118075505
0.0045914124 -0.04588509 0.15329772 0.3160467 0.2587302 -0.040724393 -0.04401852 0.034042552
0.1997746 0.07229688 0.15008456 -0.223176 0.15289764 -0.108917296 -0.019805238 0.15008348
0.22435609 0.29407245 0.22723141 0.2842281 0.09243117 0.1625218 -0.005402973 0.23666048
0.16070144 -0.0042903423 0.3334244 0.116078176 0.051721785 0.29044643 0.12324709 0.24921018
-0.03374664 0.14693107 -0.07335634 0.13633497 0.14909561 0.06936951 0.012224881 0.1662614
0.18855302 0.29350746 0.18535313 -0.09167551 0.27688867 0.17540698 0.19685794 0.226268
-0.28356016 0.10397502 0.023242587 -0.1986116 0.053444754 0.008484851 -0.041224886 0.008164599
-0.14931454 -0.1670392 -0.31338698 -0.28663772 -0.26563948 -0.24641 0.079075806 0.005522276
-0.19370982 -0.17843199 -0.15961926 0.09836876 -0.2002164 0.1004071 0.07511975 -0.0072751446
-0.2620823 0.06351396 0.021907976 0.07900814 -0.03775634 0.054318417 -0.16399589 0.029540872
-0.11696425 -0.13143854 -0.17010875 -0.20165128 0.08781203 -0.16349462 0.048804846 -0.18453851
-0.21863396 0.084403984 0.007000436 -0.25416896 -0.06294382 -0.17209662 -0.17510843 -0.010186608
-0.31361112 -0.17861743 -0.011640975 -0.00022540789 -0.089340955 -0.27556872 0.021916969 -0.27221203
-0.10001288 -0.09303476 -0.10893089 -0.07612343 0.070797905 -0.2899715 -0.057704933 -0.22653912

encoder.dcrnn_cells.1.update.weights_pool f4 [2, 2, 128, 64]
00000000: ea47 71be 0118 53be 0786 5bbe a547 5ebe
00000010: c352 623e 2aed 64be 1a0a 6bbe 0f5d 4fbe
00000020: b92d 753e f49a 663e 4829 533e 4548 6ebe
00000030: f571 813e 4377 673e 9dc4 7b3e d637 5bbe
00000040: a760 63be 7479 67be 8a02 553e 161c 6f3e
00000050: cc32 653e 8433 43be 2df5 5ebe e529 673e
00000060: 990a 7b3e 810e 5c3e 0f8a 81be dcf4 81be
00000070: b4b1 60be 2acd 72be 17f8 693e 7b3e 6fbe
00000080: 9567 4fbe 89f7 6b3e e7ca 513e 784f 643e
00000090: 3aa6 3c3e b4b0 67be f0cf 613e 1a04 78be
000000a0: 9d2c 66be a2ca 6e3e 57a5 5bbe f1bb 5b3e
000000b0: 5fa3 533e aba9 623e 6559 563e 5e4b 50be
000000c0: 12a4 46be 4421 73be 7db0 70be 8d5d 57be
000000d0: 993b 69be 3749 633e e408 4fbe 833c 583e
000000e0: 33d0 683e e8a5 63be 695e 663e 6b0f 763e
000000f0: e53c 5cbe 767b 5c3e c643 73be 01c0 7c3e
00000100: d746 70be a1ea 7cbe 1c84 67be 4749 80be
00000110: d9ab 863e 38aa 84be 23e9 8abe a766 67be
00000120: 01c3 6c3e be65 8b3e 2459 853e 55f0 68be
00000130: 8fe1 713e bbf3 853e ebf9 7c3e bc44 83be
00000140: 6c10 82be 0c18 89be fefd 0b3e 6217 733e
00000150: 9df5 813e 6115 80be d710 7ebe 4823 8b3e
00000160: a8e9 653e 7aa6 843e e52a 62be 5da6 80be
00000170: 6804 88be 30a7 83be 038b 7e3e 7697 82be
00000180: fe0c 8abe 2484 6b3e 9c34 873e b7f7 763e
00000190: cc23 6a3e 8107 64be 71c0 863e f891 6abe
000001a0: 866c 89be da24 6e3e fb42 6dbe 7003 813e
000001b0: 4e94 893e 480a 7b3e 1912 833e 30dd 7dbe
000001c0: df69 1fbe a7c9 78be 4c88 80be 4658 84be
000001d0: 01b9 69be ede3 7c3e b946 8bbe 2c58 7e3e
000001e0: d8a3 803e 2a54 79be 8add 843e 6e9b 6b3e
000001f0: 97d0 86be 454d 823e c2bc 5fbe 178d 623e
00000200: 99a7 593e 381f 4f3e a8a8 563e a453 653e
00000210: 3de0 4fbe f7af 643e eb3a 5b3e ecf9 343e
00000220: 2e73 7fbe b5f9 4cbe 3501 55be 4458 643e
00000230: 541f 6cbe 08b9 54be 1505 67be 2e6f 543e
00000240: e4eb 613e 4401 553e 1abd 50be 5693 60be
00000250: 78e2 57be 7c38 3b3e a3d4 523e 51bd 5abe
00000260: 0cc4 59be 7b25 57be edcb 6f3e ef8d 673e
00000270: 2299 5f3e fd60 653e c790 76be bd92 543e
00000280: 7001 573e ef4b 70be 0c01 5ebe 1dfa 65be
00000290: 5659 2cbe b260 6f3e 7483 61be 3845 6a3e
000002a0: 74c0 4f3e ae2e 71be b2c7 6c3e 45f3 4bbe
000002b0: a168 5cbe 6d40 6dbe 3c4d 53be 899a 4f3e
000002c0: 498a 353e 841d 6b3e 8eae 633e 08ff 633e
000002d0: 7e38 613e 2291 50be 1615 4d3e b5fe 59be
000002e0: cdf6 60be 6c92 5c3e 0c6d 55be 635a 6abe
000002f0: daca 603e 8d07 61be 9137 743e 186d 76be
00000300: d8cf 5dbe 9a2e 43be b490 4bbe 05f4 5dbe
00000310: a655 5e3e 43f9 4cbe 9049 4dbe c20c 37be
00000320: d0b8 693e c3ab 423e 13a0 5a3e d1ec 51be
00000330: 147b 793e 21c7 593e 69b0 6c3e 2cb6 5abe
00000340: 5d5e 4cbe 9a90 52be 25a2 433e 127e 6d3e
00000350: 317a 473e 5ca8 34be 70de 46be b00e 4c3e
00000360: 264f 683e be75 513e c63f 79be 123a 5ebe
00000370: 049b 65be c5b7 65be d1af 6b3e 44ff 56be
00000380: bc54 47be fb2c 5d3e e9af 543e aaf6 583e
00000390: 0bce 243e 3712 64be c5a0 523e b593 6fbe
000003a0: 2fa2 50be 4604 5b3e 3e40 4fbe 21ef 563e
000003b0: 3a26 463e 9987 563e 6f02 453e f0a7 49be
000003c0: 9689 27be 8235 5dbe f9c0 53be cf77 5abe
000003d0: a2fc 6cbe 0b2e 463e 00fe 5dbe aa8c 593e
000003e0: 3aab 553e c82c 61be 040a 5c3e 9385 663e
000003f0: 4686 50be 92cd 5e3e 5b30 6ebe 40c0 5d3e
-0.2356259 -0.20614626 -0.21437846 -0.21707018 0.22101884 -0.22356096 -0.22953072 -0.20250343
0.23943223 0.22520047 0.20621216 -0.23269756 0.25282255 0.22604088 0.24586721 -0.21408018
-0.22204839 -0.22604924 0.2080175 0.23350558 0.22382659 -0.1906262 -0.21773215 0.22574575
0.24515761 0.21489908 -0.25300643 -0.25382125 -0.21942788 -0.23711076 0.22848545 -0.23363678
-0.20254357 0.23043646 0.20487557 0.2229594 0.18422785 -0.22626 0.22051978 -0.24220315
-0.22477956 0.23319486 -0.21449791 0.21458413 0.2066779 0.22135036 0.20932539 -0.2034125
-0.19398525 -0.23743159 -0.23504825 -0.2103178 -0.22776641 0.22195898 -0.20218235 0.21116833
0.22735672 -0.22231257 0.22496952 0.24029319 -0.21507604 0.21531472 -0.23756322 0.24682619
-0.23464523 -0.24698879 -0.2260899 -0.25055906 0.26302984 -0.25911117 -0.27130994 -0.22597753
0.23121263 0.2722606 0.2604457 -0.2274793 0.236212 0.26162514 0.24704711 -0.25638378
-0.25403154 -0.2677616 0.13671109 0.23739389 0.253827 -0.2501631 -0.24811111 0.27175355
0.22452414 0.25908262 -0.22086675 -0.25126925 -0.26565862 -0.2571349 0.24857716 -0.2550618
-0.26963037 0.22999626 0.26407325 0.24117933 0.22865218 -0.22268488 0.26318696 -0.22907245
-0.2684061 0.23256245 -0.23170082 0.25197935 0.2687096 0.2451564 0.25599745 -0.24791408
-0.1556773 -0.24295674 -0.25103986 -0.25848597 -0.2282448 0.24696322 -0.27202395 0.24838322
0.25125003 -0.24348512 0.2595027 0.2300851 -0.26331016 0.25449577 -0.21849349 0.22124134
0.2125534 0.20226753 0.20962775 0.22395188 -0.20300384 0.2233275 0.21409194 0.17673463
-0.24946281 -0.2001713 -0.20801242 0.22299296 -0.23058826 -0.20773709 -0.22560532 0.20745537
0.22062641 0.20801264 -0.20384637 -0.21931204 -0.21082485 0.18283266 0.20588927 -0.21361281
-0.21266192 -0.21010391 0.23417635 0.22612737 0.2183576 0.2240028 -0.24078666 0.20759101
0.20996642 -0.23466466 -0.21680087 -0.22458692 -0.16830954 0.2337673 -0.22022802 0.22877967
0.20288259 -0.23552963 0.23123053 -0.19917019 -0.21524288 -0.23169108 -0.20634931 0.20273794
0.17728533 0.22960478 0.22234556 0.22265255 0.21994206 -0.20367864 0.20027575 -0.2128857
-0.21969147 0.2154023 -0.2084238 -0.22886042 0.21952382 -0.21975537 0.23849322 -0.24065053
-0.21661317 -0.19060746 -0.19879419 -0.21675117 0.2171236 -0.20016961 -0.20047593 -0.1787596
0.22824407 0.19010834 0.21350126 -0.20500495 0.24363357 0.21267368 0.2311417 -0.21358556
-0.19957872 -0.20562974 0.19104822 0.23192623 0.19480206 -0.17642349 -0.1942079 0.19927478
0.22686443 0.20455071 -0.24340734 -0.2170184 -0.22422415 -0.22433384 0.23016287 -0.20995814
-0.19465917 0.2159919 0.2077023 0.21187845 0.16094224 -0.22272573 0.20569141 -0.2339619
-0.20374368 0.21388349 -0.2023935 0.20989658 0.1935052 0.20950164 0.1923921 -0.1969297
-0.16361079 -0.21602443 -0.20679082 -0.21334766 -0.23143247 0.19353501 -0.21678925 0.21245065
0.20866099 -0.21989739 0.21488196 0.22511892 -0.20363721 0.21758106 -0.23260634 0.21655369

encoder.dcrnn_cells.1.update.bias_pool f4 [2, 64]
00000000: c51d 63be 99f9 683e a2aa 923c e439 913e
00000010: d006 00be 6d8a 8d3e 9604 d43e 821b 6e3e
00000020: 892f 5a3e 5e9a d4be 5210 9ebe f21c 4cbd
00000030: 2ffe c03d 7004 2ebe e1ab 47bd be28 c53e
00000040: 8b83 a83e 89fa 933e cd4a 8abe 5f5a c43d
00000050: ba63 35be 3ae5 7e3e e3f0 a73e f502 a6be
00000060: a3d9 e23d e8f8 8cbe ac75 31be 736b 9c3d
00000070: 3b3b 3c3e 1806 41be 2bc2 a8bd 0e60 9b3e
00000080: 2729 8f3e 0f52 f83d a990 5dbe cd6b 7abc
00000090: 0ffb 5abe 3051 30be 19cc b5be 9117 5bbe
000000a0: c781 a33e 8049 db3d b6ba e73b a3af 8bbe
000000b0: 3e51 78be e88c f53c 0682 91be f724 833e
000000c0: 91f3 943e d652 30bd c371 6d3e 693f 893e
000000d0: ac87 61be ad3e d1be 4f4c bb3e afb5 b5be
000000e0: 1dd4 d5bd 31a7 7b3d 267e 77be 901e fcbb
000000f0: 1d9a 103e 58d1 cebe d91f 8cbe ac37 8b3e
00000100: 9b47 cb3e 8b57 6a3e 2372 613e 882a ce3e
00000110: 5397 67be 1ae8 293e 9a4c cdbd 899a bd3e
00000120: e05f 88bc f33c cabe 8940 ddbe df6a bc3e
00000130: 7c53 a6bc a471 2a3e 981b 14bd 90e5 1f3e
00000140: 3e7d 173e bcc3 9f3e e8ba c8be 1352 94be
00000150: 2e5d 61be 0ba8 c53e b864 9f3e 6bb1 9cbe
00000160: 3ac1 7cbe 6e19 8b3d 04f7 073d 7e9e 1abe
00000170: a7b5 93bd f954 b2bd e14c f03d a958 e3bd
00000180: c1b6 d83e 51ba dcbe cbdb 5bbe 0b8f 66be
00000190: d13d d5be 8020 7a3e bd4b 9d3c 2ccb 8c3e
000001a0: 82f8 bb3e fa47 bdbe 4f1e a03e 60bd 65be
000001b0: 2035 3fbe 7365 c1be a3ee 26be 30d0 b93e
000001c0: 14b3 bc3e 5e27 3d3d c569 09bd 8204 a63e
000001d0: 1082 a43e c8e0 8dbe c563 6a3e d9d1 c0be
000001e0: ed16 36bd b89d 3b3e 03db d0ba 94af c43c
000001f0: 88f9 963e dc35 d6be e7a6 123e 2470 2bbe
-0.22179325 0.22751464 0.01790363 0.2836448 -0.12502599 0.27644673 0.4140975 0.23252681
0.21307196 -0.41524023 -0.30871826 -0.049832292 0.09423482 -0.1699388 -0.0487479 0.38507646
0.3291286 0.2890208 -0.27010193 0.095875494 -0.17713824 0.2489213 0.3280097 -0.3242413
0.11076667 -0.2753365 -0.17330045 0.07637682 0.1838197 -0.18849981 -0.082401596 0.3034672
0.27961084 0.121250264 -0.21637215 -0.015284491 -0.21384834 -0.1721847 -0.35507277 -0.21395709
0.3193495 0.107073784 0.007071818 -0.27282438 -0.24249741 0.029974416 -0.28419513 0.2561414
0.29092076 -0.04304775 0.23187928 0.2680619 -0.22024411 -0.4086813 0.36581656 -0.35490176
-0.10440848 0.061438743 -0.24169216 -0.007694073 0.1412129 -0.40394092 -0.27368048 0.27190912
0.39703068 0.22884957 0.22016196 0.40266824 -0.2261632 0.16592446 -0.10024376 0.37031963
-0.01664728 -0.39499626 -0.432133 0.36800286 -0.02030348 0.16644913 -0.036159128 0.15614915
0.1479387 0.3120402 -0.39205098 -0.28968868 -0.22008201 0.3860477 0.3113153 -0.3060411
-0.24683085 0.0679196 0.033194557 -0.15099522 -0.07212382 -0.087076135 0.117334135 -0.11100895
0.4232693 -0.43110898 -0.21470563 -0.22515504 -0.41648725 0.2442646 0.019201154 0.27498758
0.36713034 -0.36968976 0.31273124 -0.22435522 -0.1867261 -0.37772712 -0.1630197 0.36291647
0.36855376 0.04618012 -0.033548135 0.32425314 0.3213048 -0.27710557 0.22889622 -0.376601
-0.044455457 0.18321884 -0.0015934411 0.024009503 0.29487252 -0.41837966 0.1432148 -0.16741997
