CQ/result/P7_Resullt/DAYS/2dim/4/best_model.pth (torch_old, 603202 bytes, 11 tensors)

node_embeddings f4 [228, 2]
0.45040074 0.07003431 0.52870196 0.11108592 0.33535138 0.18341225 -0.5720498 0.5044729
0.26953354 0.16383642 0.44366336 -0.118560955 0.5022876 -0.12135991 0.5035826 0.09930863
-0.36040908 0.061579738 -0.33350882 0.107761644 0.2314358 0.108949184 0.5065807 0.16919121
-0.37914708 0.07249168 0.23308772 0.39595637 0.3361678 0.018725077 -0.45829248 0.06027005
0.26887184 0.2131513 0.23717551 0.3101386 0.37824056 0.25679663 0.2768071 0.36760116
-0.38173747 0.16953631 0.36269084 0.16927195 0.27952993 0.35250157 0.30951717 0.17567548
0.35021657 0.20963441 -0.46921438 0.35927433 0.10537591 0.43034524 0.27322748 0.21694174
0.35519412 0.18023881 -0.34826145 0.074229784 -0.52417636 0.07094453 0.28204995 0.26658186
0.26920897 0.21962565 0.27045694 0.3522427 0.4600062 -0.09880217 0.27263048 0.21724798
0.3880289 0.14320111 -0.34255877 0.10458544 0.1081622 0.40530685 0.41530415 0.21168284
0.34301433 0.21324915 0.3743343 0.22832991 -0.21914253 0.19685975 0.2755002 0.21508485
0.20526981 0.27196062 0.34615782 0.23703378 0.23582493 0.3171146 0.2774513 0.35560566
0.25344804 0.3175442 0.29219785 0.2664981 0.29392347 0.1964092 0.3463037 0.15591766
0.5696004 -0.045327023 0.32733667 0.17166711 0.29072997 0.1782607 0.4679682 0.095973074
0.22253029 0.41264644 0.5155226 0.10322226 0.4186349 0.119153395 0.46804398 0.090037376
0.47489628 0.0920782 0.39656225 0.11945176 0.24449006 0.24226496 0.24676822 0.10917988
0.41517362 0.04205326 0.31201124 0.198051 0.23013173 0.24293251 0.10514243 0.41829145
0.27552345 0.21226338 0.3328387 0.26540682 0.31118745 0.19293158 0.49269074 0.10906607
0.30632535 0.18772617 0.40174484 0.040766086 0.31531468 0.17880943 0.39072433 0.18876386
0.16089725 0.3582519 0.43225542 0.1856238 0.29527968 0.19382782 0.2910597 0.20386219
0.3222963 0.23807351 0.38137338 0.117486455 0.3899516 0.20675664 0.33873203 0.23726472
0.4153838 0.13228485 0.5106787 0.20508568 0.2523036 0.33933067 -0.3777266 0.22585528
0.31632525 0.18567443 -0.35541162 0.16431497 -0.3660766 0.16413626 0.28143358 -0.06025493
0.36521015 0.1362267 -0.37586617 0.15419646 0.5695343 0.12119792 0.4294431 0.14314982
0.4641537 0.18944365 0.2948641 0.19545737 0.29239395 0.20387116 0.39504096 0.043045923
0.3044546 0.23608331 0.29103798 0.1974582 0.3971887 0.22721289 0.30422688 0.18888089
0.42901936 0.23927192 0.22824699 0.3185173 0.4027129 0.20174839 0.18110172 0.4456231
0.28599012 0.31407386 0.16722095 0.49181294 0.3531287 0.159142 -0.261689 0.1650537
-0.52719235 0.18857004 0.46195373 0.018535081 0.3955876 0.1731019 0.23497437 0.43254203
0.40591517 0.135169 0.48088285 -0.0040489784 0.38138896 0.19035037 -0.4188136 0.11323373
0.39542246 0.1394563 0.4505156 0.15847197 0.5092404 0.19210607 0.34088832 0.22796604
0.27671498 0.25779825 -0.5615682 0.07240686 0.49908245 0.16413443 0.37649873 0.23600073
00000000: ed9a e63e 266e 8f3d 0359 073f 0481 e33d
00000010: 2db3 ab3e 6cd0 3b3e db71 12bf 2325 013f
00000020: 4d00 8a3e bcc4 273e d827 e33e 16d0 f2bd
00000030: ec95 003f 8b8b f8bd caea 003f 5362 cb3d
00000040: 8a87 b8be 093b 7c3d abc1 aabe 23b2 dc3d
00000050: 82fd 6c3e c020 df3d 46af 013f 7640 2d3e
00000060: 911f c2be 8576 943d 8cae 6e3e cbba ca3e
00000070: 301e ac3e 5565 993c 50a5 eabe badd 763d
00000080: 92a9 893e 5644 5a3e 23de 723e 7dca 9e3e
00000090: bfa8 c13e d97a 833e a9b9 8d3e 3836 bc3e
000000a0: 1873 c3be ed9a 2d3e 9db2 b93e a055 2d3e
000000b0: 8c1e 8f3e 167b b43e 0979 9e3e 46e4 333e
000000c0: 964f b33e 67aa 563e de3c f0be cef2 b73e
000000d0: 53cf d73d 3656 dc3e 79e4 8b3e fa25 5e3e
000000e0: 01dc b53e 8690 383e 534f b2be c905 983d
000000f0: 6c30 06bf 5e4b 913d da68 903e 6b7d 883e
00000100: c2d5 893e 8ce5 603e 5579 8a3e 2859 b43e
00000110: ef85 eb3e cb58 cabd 3996 8b3e 4176 5e3e
00000120: b9ab c63e 50a3 123e dd63 afbe e430 d63d
00000130: 2584 dd3d 6184 cf3e bfa2 d43e 63c3 583e
00000140: 939f af3e fc5d 5a3e bfa8 bf3e 51cf 693e
00000150: e666 60be 9a95 493e 5d0e 8d3e 343f 5c3e
00000160: 4032 523e 6c3e 8b3e 993b b13e fcb8 723e
00000170: 177c 713e d85c a23e 190e 8e3e f211 b63e
00000180: f1c3 813e 2795 a23e f59a 953e 7072 883e
00000190: 237d 963e 7e1f 493e b84e b13e e1a8 1f3e
000001a0: 55d1 113f d4a8 39bd ac98 a73e 81c9 2f3e
000001b0: 8fda 943e f989 363e 8799 ef3e 888d c43d
000001c0: fbde 633e 6546 d33e 4af9 033f 3166 d33d
000001d0: 5057 d63e b206 f43d 76a3 ef3e 8465 b83d
000001e0: 9b25 f33e 7f93 bc3d 350a cb3e 20a3 f43d
000001f0: 9a5b 7a3e 4e14 783e cfb0 7c3e b399 df3d
00000200: a391 d43e 0a40 2c3d f0bf 9f3e e2cd 4a3e
00000210: a7a7 6b3e 4dc3 783e ea54 d73d 4c2a d63e
00000220: 6911 8d3e 925b 593e d669 aa3e 67e3 873e
00000230: f653 9f3e db8f 453e f641 fc3e 085e df3d
00000240: add6 9c3e 4a3b 403e 80b1 cd3e 57fa 263d
00000250: ed70 a13e d219 373e 050d c83e 504b 413e
00000260: 40c2 243e cb6c b73e 9550 dd3e 2a14 3e3e
00000270: e62e 973e cd7a 463e c705 953e 40c1 503e
00000280: 0504 a53e 8bc9 733e 5f43 c33e bd9c f03d
00000290: bca7 c73e 03b8 533e 496e ad3e 86f5 723e
000002a0: 2fad d43e ae75 073e d7bb 023f fb01 523e
000002b0: f02d 813e c0bc ad3e 6265 c1be 9b46 673e
000002c0: 62f5 a13e 7021 3e3e 83f8 b5be 2f42 283e
000002d0: 646e bbbe 5613 283e 1018 903e e0cd 76bd
000002e0: d3fc ba3e 037f 0b3e 8871 c0be ade5 1d3e
000002f0: 00cd 113f 9d36 f83d f7df db3e de95 123e
00000300: 8ea5 ed3e 84fd 413e 6df8 963e fa25 483e
00000310: a9b4 953e 9ac3 503e cf42 ca3e ec50 303d
00000320: 79e1 9b3e d3bf 713e ee02 953e 7b32 4a3e
00000330: 515c cb3e 7faa 683e a0c3 9b3e fe69 413e
00000340: 6da8 db3e b303 753e 94b9 693e b314 a33e
00000350: 6330 ce3e 2197 4e3e bb72 393e b628 e43e
00000360: 4c6d 923e 4ace a03e f83b 2b3e e8ce fb3e
00000370: 49cd b43e 1ff6 223e 1afc 85be d603 293e
00000380: 14f6 06bf 8118 413e 3385 ec3e e2d6 973c
00000390: 758a ca3e a041 313e 1f9d 703e 2676 dd3e
000003a0: 1dd4 cf3e be69 0a3e 4736 f63e 4bad 84bb
000003b0: 6a45 c33e 35eb 423e bc6e d6be 16e7 e73d
000003c0: d074 ca3e a2cd 0e3e fba9 e63e 7a46 223e
000003d0: 945d 023f 74b7 443e ea88 ae3e ee6f 693e
000003e0: 96ad 8d3e 22fe 833e efc2 0fbf 0c4a 943d
000003f0: bc87 ff3e db12 283e 71c4 c03e 2daa 713e

encoder.dcrnn_cells.0.gate.weights_pool f4 [2, 2, 65, 128]
0.12914398 -0.7160635 0.4243796 0.18548575 0.17974962 0.30068827 -0.35422862 0.35304862
-1.0578238 1.0433168 0.24035689 0.4063177 0.37101966 0.4247509 -0.45505345 0.5918045
0.15985978 0.23009494 -1.1518526 -0.49821374 0.15491733 -0.81429 0.17976482 1.3624797
0.8106365 0.13820118 -0.4759361 -0.5077896 0.32624492 0.27337527 0.8212595 -0.38041094
-1.2056516 -0.25862375 -1.2543744 0.24606161 0.412146 0.43945235 0.25025043 0.73758525
1.3309519 -0.38670847 0.27137443 0.27811417 1.1075479 0.36266914 1.3778602 0.076675735
1.392169 -1.0020337 0.16402479 0.25554556 -0.9583858 0.6047917 0.339033 0.42146152
0.24301352 0.3131345 -0.8999362 -0.23342869 0.20037937 0.2794383 -0.7554509 0.19660246
-0.62979317 -0.48977652 -0.43658966 -0.6600604 -0.5418919 -0.49599677 0.28041196 -0.35418367
-1.0746483 -1.5581111 -0.774414 -0.37343508 -0.3138023 -0.44197097 0.24073853 -0.47042072
-0.5680014 -0.6690551 -1.0504068 -0.8208374 -0.56523085 -1.1490105 -0.39003164 -1.5783436
-0.18391483 -0.40882674 0.0416635 -0.9737434 -0.44658202 -0.42824826 -0.23279314 0.12016836
-1.0624667 0.13702896 -1.03761 -0.36604413 -0.40932325 -0.44286188 -0.4221328 -0.31137842
-1.5229404 0.29669765 -0.24086465 -0.45834306 -1.4010094 -0.2972193 -1.4803814 -0.94039446
-1.5054936 -0.9382896 -0.45477897 -0.29554468 -0.9354417 -0.6367144 -0.4412744 -0.44558394
-0.4234235 -0.23434864 -1.0959115 -0.8323438 -0.7553572 -0.34628356 -0.96470803 -0.58007663
-0.0771107 0.1289494 -0.06535185 -0.09767146 -0.09181151 -0.06285092 0.056396272 -0.079316154
0.0031535008 -0.089157745 -0.09462937 -0.07776661 -0.071456745 -0.07740737 0.06944167 -0.03173739
-0.087809555 -0.068404146 -0.015015376 0.099327646 -0.08366553 0.1503131 -0.085989945 -0.06216077
-0.050370365 -0.10586972 0.16759878 0.29824165 -0.07926478 -0.083894394 -0.04176964 0.030930353
-0.026052093 0.1052865 -0.037774935 -0.089244634 -0.06452524 -0.05886306 -0.083343364 -0.046329923
0.037386127 0.0655663 -0.10211278 -0.07356806 -0.07647332 -0.09397344 -0.053630162 -0.09360651
-0.034323182 -0.0014224753 -0.09728759 -0.09211188 0.06671259 -0.071913965 -0.08442664 -0.07622567
-0.06677282 -0.090501375 0.054380815 0.17272556 -0.09035017 -0.10241927 0.13940088 -0.09013475
-0.024174916 0.26803088 -0.12850285 -0.1584236 -0.024898803 -0.04198463 0.38417363 -0.02330036
0.40821806 0.14759909 -0.16650672 -0.060168035 -0.025124589 -0.060911804 0.41221768 -0.18679729
-0.0410926 -0.07994649 0.44148794 0.49916464 -0.01844951 0.27447987 0.015286374 0.14535724
-0.15765731 -0.024549264 0.25666365 0.26899478 -0.01973949 -0.052857034 -0.15500762 0.4677659
0.43285683 0.4931752 0.46620503 -0.011769023 -0.07591531 -0.08458878 0.008134657 -0.097220294
-0.0050748433 0.23511615 0.0074514714 -0.02952629 0.09528583 -0.029894179 0.19571427 -0.0905502
0.19342992 0.42773396 -0.017786467 0.030159881 0.44192508 -0.17610162 -0.04169204 -0.048619207
-0.043543465 -0.0004136272 0.24424964 0.3314143 -0.116478756 0.01800843 0.32424116 -0.06454424
00000000: 523e 043e f04f 37bf 4848 d93e faef 3d3e
00000010: 4910 383e d0f3 993e 745d b5be cac2 b43e
00000020: c566 87bf 688b 853f 1e20 763e e008 d03e
00000030: 4af6 bd3e f378 d93e c4fc e8be 8080 173f
00000040: 48b2 233e 029e 6b3e e86f 93bf df15 ffbe
00000050: a6a2 1e3e 4f75 50bf 4514 383e bc65 ae3f
00000060: e085 4f3f 9c84 0d3e e6ad f3be 80fe 01bf
00000070: 9309 a73e d8f7 8b3e 103e 523f 39c5 c2be
00000080: cb52 9abf 556a 84be 578f a0bf 93f7 7b3e
00000090: cd04 d33e e6ff e03e d320 803e 63d2 3c3f
000000a0: a25c aa3f a7fe c5be 97f1 8a3e fb64 8e3e
000000b0: 21c4 8d3f c5af b93e b95d b03f 2b08 9d3d
000000c0: 9832 b23f a442 80bf 1df6 273e ded6 823e
000000d0: c658 75bf a1d3 1a3f bc95 ad3e cec9 d73e
000000e0: 89d8 783e 2a53 a03e 3862 66bf ee07 6fbe
000000f0: 4030 4d3e 8912 8f3e 3b65 41bf 2852 493e
00000100: 203a 21bf fdc3 fabe ae88 dfbe b8f9 28bf
00000110: 6db9 0abf 4af3 fdbe 2892 8f3e 9057 b5be
00000120: 138e 89bf 2f70 c7bf ff3f 46bf e232 bfbe
00000130: b2aa a0be 054a e2be 2984 763e fcda f0be
00000140: 8a68 11bf 3247 2bbf bb73 86bf 6622 52bf
00000150: f8b2 10bf c712 93bf 3ab2 c7be 2a07 cabf
00000160: 2b54 3cbe bd51 d1be 59a7 2a3d 3f47 79bf
00000170: 66a6 e4be 5b43 dbbe 5361 6ebe d41a f63d
00000180: e9fe 87bf 5251 0c3e 68d0 84bf 236a bbbe
00000190: d192 d1be cbbe e2be ca21 d8be fe6c 9fbe
000001a0: b6ef c2bf c1e8 973e 39a5 76be f1ab eabe
000001b0: 4754 b3bf 212d 98be 237d bdbf b1bd 70bf
000001c0: 04b4 c0bf bf33 70bf cad8 e8be a251 97be
000001d0: 1b79 6fbf b7ff 22bf b8ee e1be 9423 e4be
000001e0: f7ca d8be 17f9 6fbe d446 8cbf 7c14 55bf
000001f0: 175f 41bf 144c b1be 1bf7 76bf e77f 14bf
00000200: 37ec 9dbd 500b 043e 31d7 85bd f907 c8bd
00000210: ac07 bcbd fcb7 80bd c7ff 663d 8270 a2bd
00000220: f7aa 4e3b 5698 b6bd 0bcd c1bd 1a44 9fbd
00000230: ea57 92bd c187 9ebd 6f37 8e3d 11ff 01bd
00000240: 7fd5 b3bd 7917 8cbd 0d03 76bc 4b6c cb3d
00000250: d558 abbd adeb 193e 7f1b b0bd 4b9c 7ebd
00000260: 2851 4ebd 39d2 d8bd 049f 2b3e 21b3 983e
00000270: 9355 a2bd d3d0 abbd a416 2bbd a761 fd3c
00000280: 336b d5bc 73a0 d73d e4b9 1abd e4c5 b6bd
00000290: cf25 84bd 641a 71bd edaf aabd 72c4 3dbd
000002a0: 3222 193d a047 863d 8120 d1bd daaa 96bd
000002b0: 0b9e 9cbd 2675 c0bd 4dab 5bbd c5b4 bfbd
000002c0: 7796 0cbd 5a72 baba b73e c7bd 27a5 bcbd
000002d0: 9ca0 883d a147 93bd e0e7 acbd 341c 9cbd
000002e0: 30c0 88bd c958 b9bd 6bbe 5e3d f8de 303e
000002f0: 8309 b9bd 32c1 d1bd 1bbf 0e3e 9198 b8bd
00000300: 790a c6bc 583b 893e 4096 03be cc39 22be
00000310: 93f8 cbbc 13f8 2bbd 68b2 c43e 66e0 bebc
00000320: f501 d13e 3724 173e bd80 2abe c272 76bd
00000330: 15d2 cdbc a87e 79bd 320e d33e ca47 3fbe
00000340: b750 28bd fcba a3bd b50a e23e 8292 ff3e
00000350: 6d23 97bc a088 8c3e b373 7a3c 87d8 143e
00000360: eb70 21be 8a1b c9bc 6b69 833e afb9 893e
00000370: b6b4 a1bc 9e80 58bd 51ba 1ebe 037f ef3e
00000380: 699f dd3e 7681 fc3e 6db2 ee3e dcd2 40bc
00000390: 7c79 9bbd e23c adbd 3947 053c 6f1b c7bd
000003a0: df4a a6bb 4ac2 703e 792b f43b 1ee1 f1bc
000003b0: 3825 c33d a3e4 f4bc 5269 483e 6272 b9bd
000003c0: 7e12 463e f2ff da3e edb4 91bc db11 f73c
000003d0: 0144 e23e fc53 34be 46c5 2abd ef24 47bd
000003e0: a25a 32bd 1adc d8b9 941c 7a3e 23af a93e
000003f0: 6a8c eebd 6a86 933c f002 a63e c52f 84bd

encoder.dcrnn_cells.0.gate.bias_pool f4 [2, 128]
0.041956738 -0.411036 0.013235497 -0.060760956 0.17234161 0.19376959 -0.11918623 -0.058297284
-0.05185641 0.034374844 0.078436196 -0.22877315 -0.047403872 0.05573793 0.2804889 0.14341782
-0.014430886 0.1594973 -0.24170321 -0.16187656 0.074445635 -0.17512868 0.16051878 0.009470075
-0.03078687 0.08836089 -0.13883296 -0.4000658 0.06723203 0.057463877 -0.033200283 0.12232142
0.055895004 -0.068690516 0.017221922 -0.22702244 0.0042252536 -0.07908621 0.0854317 0.074282974
-0.038248945 0.10279543 -0.07230465 -0.010767728 -0.16264565 -0.1627688 0.12846376 -0.09678128
-0.25303462 -0.1649923 0.17857441 -0.026449539 -0.033249196 -0.24525075 -0.16376689 0.029336456
-0.063360386 0.1308657 -0.09647194 -0.2396752 0.018393597 0.017716145 -0.22556512 -0.061222572
0.1602166 -0.12646322 0.4582498 0.018377237 0.13152863 0.13708548 -0.3152523 0.42657945
-0.39696816 -0.18037802 0.43167728 0.43224207 0.3481354 0.31914482 -0.26476812 0.20117359
0.19216514 0.0804431 -0.2209478 -0.46520218 0.40585285 -0.35006195 0.30350503 -0.10762334
0.44674167 0.3346333 -0.7048302 -0.36515087 0.16230702 0.1454006 0.20996176 -0.20325166
-0.23229212 -0.5108023 -0.44247085 0.09313102 0.3655793 0.32305083 0.113725185 0.2199257
-0.17362083 -0.1219453 0.30460364 0.21530606 0.12758443 0.40729457 0.017818669 0.091869995
0.17625825 -0.23904833 0.2282039 0.31118247 -0.40041012 0.24071622 0.06373494 0.352876
0.2958206 0.1590803 -0.26356247 -0.4925717 0.113971 0.19040717 -0.3177422 0.25353363
-0.13494664 0.08913922 0.024425337 0.110213295 -0.05180814 -0.13697793 0.22955081 -0.025591798
0.10065534 -0.21381558 -0.044663597 0.021411845 -0.022274917 0.1510101 -0.007528258 0.01974241
-0.17649733 0.072626375 0.052922342 0.21824019 -0.08656028 0.08014645 0.036261227 0.13788535
0.018060617 -0.0833545 -0.0042922306 0.07285889 -0.08284131 -0.09621781 0.09527126 -0.07225075
0.16002107 -0.13051793 0.3104217 0.13258463 0.07667935 0.020327123 0.20335275 -0.1828518
-0.106238864 0.115626864 0.06834468 -0.014958273 -0.04199591 -0.037359122 0.01986231 0.24702774
0.17646693 0.11634421 -0.08757051 -0.122037075 0.014054684 -0.0002147829 -0.16882981 -0.12905999
0.04616496 0.17602584 0.08288334 0.12469626 -0.015326747 0.09040795 -0.13308366 0.065802224
0.042153914 0.015651673 0.43315116 0.27957556 0.2153033 0.07871403 0.12131533 0.11173317
-0.073547155 -0.14809191 0.120009534 0.42787626 0.34365922 0.38380814 -0.056972984 0.3072991
0.06817442 0.3361807 -0.11213039 -0.27576497 0.09141161 -0.45036158 0.041047834 -0.318035
0.5802984 0.2324975 -0.27962065 -0.27614847 0.10174664 0.3401535 0.49278638 -0.3224732
-0.14477657 -0.39377958 -0.23246804 0.31901148 0.13229097 0.48731276 0.104384355 0.31099278
0.21710642 -0.07668649 -0.043252945 0.10134059 -0.23782928 0.3843174 0.01931717 0.3485579
-0.28067666 -0.41241083 0.13300103 0.09497604 -0.135713 0.3188569 0.36788705 0.059614185
0.12617576 0.30743757 -0.37808874 -0.23504564 0.44771972 -0.020991758 -0.34475303 0.053743836
00000000: d4da 2b3d 5073 d2be b3d9 583c 7be0 78bd
00000010: 527a 303e 896b 463e e917 f4bd 22c9 6ebd
00000020: 6367 54bd a3cc 0c3d 28a3 a03d 8243 6abe
00000030: 902a 42bd 754d 643d 3e9c 8f3e 1fdc 123e
00000040: 866f 6cbc 4353 233e 0c81 77be f8c2 25be
00000050: f476 983d ef54 33be 095f 243e 6028 1b3c
00000060: bf34 fcbc 8ef6 b43d 3a2a 0ebe 6dd5 ccbe
00000070: f2b0 893d 3e5f 6b3d 05fd 07bd a783 fa3d
00000080: 29f2 643d 9dad 8cbd fd14 8d3c 9278 68be
00000090: ff73 8a3b f3f7 a1bd d1f6 ae3d ac21 983d
000000a0: edaa 1cbd 6986 d23d 7614 94bd 206b 30bc
000000b0: 958c 26be ddac 26be 018c 033e 4435 c6bd
000000c0: c18d 81be bef3 28be 36dc 363e b4ac d8bc
000000d0: 4f30 08bd 0323 7bbe 82b2 27be 0253 f03c
000000e0: 17c3 81bd a801 063e 1593 c5bd 6a6d 75be
000000f0: 2bae 963c 7321 913c 8bfa 66be 85c4 7abd
00000100: d20f 243e 937f 01be b89f ea3e dc8b 963c
00000110: 71af 063e 2360 0c3e c068 a1be 9f68 da3e
00000120: 693f cbbe 04b5 38be ce04 dd3e d54e dd3e
00000130: ce3e b23e f366 a33e b08f 87be 7300 4e3e
00000140: f0c6 443e 5abf a43d 2440 62be fb2e eebe
00000150: f2cb cf3e 523b b3be 0365 9b3e a069 dcbd
00000160: 53bb e43e 0e55 ab3e c16f 34bf 0ef5 babe
00000170: d033 263e e5e3 143e 3700 573e 3421 50be
00000180: fcdd 6dbe f1c3 02bf 8a8b e2be 7abb be3d
00000190: 362d bb3e eb66 a53e c0e8 e83d 3434 613e
000001a0: a9c9 31be 75be f9bd 02f5 9b3e 3179 5c3e
000001b0: 7ea5 023e ea88 d03e 75f8 913c 5626 bc3d
000001c0: 0b7d 343e 16c9 74be 48ae 693e 4f53 9f3e
000001d0: 8e02 cdbe 507e 763e 7787 823d 2aac b43e
000001e0: cc75 973e f2e5 223e a9f1 86be 5c32 fcbe
000001f0: a169 e93d 19fa 423e 1baf a2be 29cf 813e
00000200: 742f 0abe a08e b63d a517 c83c 82b7 e13d
00000210: c634 54bd f143 0cbe 5e0f 6b3e e4a5 d1bc
00000220: 6324 ce3d 79f2 5abe 2df1 36bd e567 af3c
00000230: e379 b6bc 64a2 1a3e 9baf f6bb d6ba a13c
00000240: b7bb 34be 23bd 943d 19c5 583d 5b7a 5f3e
00000250: 8446 b1bd d223 a43d a786 143d d131 0d3e
00000260: dcf3 933c c4b5 aabd d7a5 8cbb 0b37 953d
00000270: b4a8 a9bd d80d c5bd 941d c33d 34f8 93bd
00000280: 90dc 233e 7ea6 05be 98ef 9e3e 44c4 073e
00000290: 100a 9d3d 1185 a63c b43b 503e 813d 3bbe
000002a0: c393 d9bd c7cd ec3d 4cf8 8b3d 8b13 75bc
000002b0: e703 2cbd e105 19bd 48b6 a23c d7f4 7c3e
000002c0: bfb3 343e e045 ee3d 2b58 b3bd 93ee f9bd
000002d0: 9e45 663c 5837 61b9 b9e1 2cbe 4d28 04be
000002e0: 7817 3d3d 1e40 343e bebe a93d c160 ff3d
000002f0: 091d 7bbc ce27 b93d 1547 08be 51c3 863d
00000300: 95a9 2c3d f037 803c fdc5 dd3e 8724 8f3e
00000310: 7878 5c3e d234 a13d 2c74 f83d 5cd4 e43d
00000320: e49f 96bd 68a5 17be 8fc7 f53d 9912 db3e
00000330: 1af4 af3e 8082 c43e 815c 69bd 4f56 9d3e
00000340: 089f 8b3d e01f ac3e 9ea4 e5bd 1131 8dbe
00000350: 0336 bb3d cb95 e6be c621 283d 7cd5 a2be
00000360: 708e 143f d313 6e3e 702a 8fbe 5563 8dbe
00000370: 8b60 d03d 9928 ae3e 7f4e fc3e 351b a5be
00000380: 4f40 14be 7a9d c9be 1a0c 6ebe 7955 a33e
00000390: 4977 073e 0f81 f93e 77c7 d53d 723a 9f3e
000003a0: 2551 5e3e ce0d 9dbd 002a 31bd a88b cf3d
000003b0: 8589 73be 40c5 c43e 0b3f 9e3c 2e76 b23e
000003c0: dab4 8fbe 8327 d3be 6c31 083e cc82 c23d
000003d0: 59f8 0abe 3641 a33e b15b bc3e 012e 743d
000003e0: 3834 013e 7568 9d3e d994 c1be ceaf 70be
000003f0: 853b e53e e8f6 abbc 7883 b0be 7f22 5c3d

encoder.dcrnn_cells.0.update.weights_pool f4 [2, 2, 65, 64]
-0.6720872 -1.5562272 0.29576865 -0.34790105 0.58512765 -0.454834 -1.3412151 0.43207183
-1.69926 0.95420843 0.35501763 -0.4276899 -0.4249246 -0.33178872 1.3193194 -0.21789108
-0.60800624 0.42538407 -1.7658403 1.7120372 0.71972907 -1.3148247 -0.7510587 1.1524951
-0.2963846 0.91612005 -1.4534166 -1.3876572 0.40708977 0.39236706 0.31974465 -1.477725
-1.8760084 1.5599853 -2.2258573 0.5592254 0.3107031 0.3275427 0.54975986 -0.31772736
1.0699656 1.2456077 -0.6756474 -0.47145218 1.100488 -0.5050623 -0.82611936 -0.5902739
0.87630755 -1.4520081 0.7364839 -0.71779525 -1.4255586 -0.20362343 0.47293943 -0.36387852
0.42151168 -0.60560435 1.3220109 1.7425358 0.41988808 0.60294765 1.4130175 -0.52803916
0.009162172 -0.13337788 0.028483821 -0.03515143 -0.002902781 0.016040053 -0.11278037 -0.033908956
-0.105755776 -0.031309634 0.0003591173 0.005033229 0.036565933 -0.011782474 0.07590876 -0.018934986
0.003061877 0.014334153 -0.099147536 0.116680145 -0.024601739 -0.0773243 0.06061947 -0.0710611
-0.019737856 -0.056409616 -0.09931472 -0.069630854 -0.0014018343 0.009960737 0.02951569 -0.102953024
-0.105750956 0.12589356 -0.094933085 -0.03204922 0.011067139 0.002994181 -0.037260182 -0.017096708
-0.1047718 0.07563638 0.037032917 0.0012032959 -0.052047398 0.045452904 0.076854244 0.046683084
-0.09626234 -0.10827577 -0.046147235 0.05182437 -0.11039997 -0.01669617 -0.008251262 0.020622496
-0.0008516029 0.041323137 0.06566652 0.107570365 0.017687513 -0.04286541 0.07828268 0.0019443145
0.03248295 0.14271751 0.23263691 -0.09944205 0.0040687346 -0.0387894 0.045107163 0.08247024
-0.058140505 0.0051648007 0.08229265 -0.057617836 -0.09048451 -0.17693202 -0.22580783 -0.3448657
0.016959552 0.08117913 -0.03889315 0.008091878 -0.020106563 0.08987769 0.02133562 0.20801927
-0.2975783 -0.05726658 -0.09994095 0.08374204 0.08463934 0.075921506 0.31024367 -0.009579324
-0.046884757 0.012839296 0.022714823 0.023472145 0.23909555 0.20189966 0.03904027 -0.22986874
0.09928859 -0.19130293 0.023233054 -0.043011382 0.10308526 -0.024967363 -0.039270762 -0.020168884
0.012426429 0.08859199 -0.034158535 0.05334258 0.10418055 -0.38366017 0.029286524 -0.15806125
0.053139314 -0.031399164 -0.0675038 -0.10354418 0.07617961 0.0035831546 -0.030975934 -0.039761696
-0.09940046 0.11142862 0.10600449 -0.06530457 0.08082873 -0.070175335 0.090720795 0.099260524
0.07917475 0.08254253 0.036831487 -0.08321273 -0.101932034 -0.10451948 -0.045024462 -0.10739414
-0.08801887 0.061362524 0.101818524 -0.11983158 0.11139471 0.106265895 -0.10009582 0.11969541
-0.10811887 0.09540234 0.09193112 0.099282704 0.09813687 0.07555007 0.09791254 0.11805229
0.10513392 -0.1270088 0.12336314 0.08894729 0.08590238 0.06788364 0.06737254 -0.082616866
0.042666852 -0.058394622 -0.07179461 -0.06302559 0.05246963 -0.07378685 -0.063158825 -0.06386641
0.0794168 0.12452779 0.08162887 -0.059311677 0.13784751 -0.11078462 0.07807205 -0.08582506
0.08811376 -0.05721033 -0.11950204 -0.07676134 0.073049694 0.051600188 -0.11374934 -0.090194486
00000000: e80d 2cbf 7432 c7bf fd6e 973e 1620 b2be
00000010: edca 153f 01e0 e8be f0ac abbf 8538 dd3e
00000020: 5a81 d9bf 0147 743f dfc4 b53e 2cfa dabe
00000030: b88f d9be 36e0 a9be 75df a83f d71e 5fbe
00000040: 4ca6 1bbf f1cb d93e 0e07 e2bf 0924 db3f
00000050: 2a40 383f 2d4c a8bf 6245 40bf f684 933f
00000060: b9bf 97be d886 6a3f 8e09 babf c09e b1bf
00000070: 126e d03e 56e4 c83e 92b5 a33e 1826 bdbf
00000080: 0b21 f0bf 99ad c73f 7274 0ec0 6529 0f3f
00000090: 7a14 9f3e adb3 a73e 10bd 0c3f 29ad a2be
000000a0: a2f4 883f 1370 9f3f 3af7 2cbf 2e62 f1be
000000b0: cadc 8c3f c34b 01bf 8f7c 53bf 311c 17bf
000000c0: b155 603f 67db b9bf 358a 3c3f 6ec1 37bf
000000d0: b478 b6bf a982 50be 1e25 f23e 494e babe
000000e0: 61d0 d73e e308 1bbf a737 a93f 6a0b df3f
000000f0: 92fb d63e c75a 1a3f c2dd b43f 932d 07bf
00000100: ef1c 163c 3694 08be e756 e93c f2fa 0fbd
00000110: 953c 3ebb 6e66 833c 65f9 e6bd 1ee4 0abd
00000120: 7c96 d8bd 883e 00bd e847 bc39 c9ed a43b
00000130: 29c6 153d 470b 41bc 0d76 9b3d 8b1d 9bbc
00000140: c6a9 483b ccd9 6a3c dd0d cbbd 00f6 ee3d
00000150: 9689 c9bc 345c 9ebd 1f4c 783d 7b88 91bd
00000160: 49b1 a1bc c50d 67bd 8465 cbbd 9f9a 8ebd
00000170: c1bd b7ba 5c32 233c e3ca f13c 09d9 d2bd
00000180: f593 d8bd 3eea 003e 476c c2bd 0b46 03bd
00000190: f252 353c 053a 443b 229e 18bd 650e 8cbc
000001a0: 9992 d6bd 3fe7 9a3d d4af 173d e9b7 9d3a
000001b0: a72f 55bd d32c 3a3d c265 9d3d c336 3f3d
000001c0: 3125 c5bd b0bf ddbd e204 3dbd ca45 543d
000001d0: 6119 e2bd 68c6 88bc 4d30 07bc 82f0 a83c
000001e0: 1a3e 5fba 7342 293d 2b7c 863d da4d dc3d
000001f0: 67e5 903c a493 2fbd ab52 a03d 5ed8 fe3a
00000200: d70c 053d 8a24 123e 5f38 6e3e 46a8 cbbd
00000210: 0553 853b a2e1 1ebd 4ac2 383d 28e6 a83d
00000220: bd24 6ebd 7d3d a93b 0d89 a83d ae00 6cbd
00000230: f14f b9bd ab2d 35be 2b3a 67be 3d92 b0be
00000240: c2ee 8a3c 3e41 a63d 6c4e 1fbd cc93 043c
00000250: 85b6 a4bc cb11 b83d 0ac8 ae3c 0103 553e
00000260: 2f5c 98be 5d90 6abd d7ad ccbd f280 ab3d
00000270: 6457 ad3d bc7c 9b3d 42d8 9e3e 99f2 1cbc
00000280: 3b0a 40bd e95b 523c 7014 ba3c a848 c03c
00000290: 77d5 743e c9be 4e3e b1e8 1f3d b662 6bbe
000002a0: d157 cb3d eae4 43be 3f53 be3c b42c 30bd
000002b0: 5d1e d33d 5b88 ccbc 61da 20bd 3739 a5bc
000002c0: 3998 4b3c b86f b53d d2e9 0bbd c07d 5a3d
000002d0: 9d5c d53d 1b6f c4be 4bea ef3c cfda 21be
000002e0: 9ca8 593d 699c 00bd 6f3f 8abd f90e d4bd
000002f0: 0e04 9c3d 5cd3 6a3b 3ec1 fdbc 29dd 22bd
00000300: 7892 cbbd b034 e43d e218 d93d 67be 85bd
00000310: 8889 a53d 16b8 8fbd d3cb b93d 1a49 cb3d
00000320: 5f26 a23d 0f0c a93d 9ddc 163d 706b aabd
00000330: bec1 d0bd 4f0e d6bd 926b 38bd 75f1 dbbd
00000340: 3d43 b4bd 4557 7b3d 3b86 d03d 426a f5bd
00000350: e922 e43d efa1 d93d 0aff ccbd de22 f53d
00000360: 6d6d ddbd 4d62 c33d 6246 bc3d bb54 cb3d
00000370: fcfb c83d ffb9 9a3d 5f86 c83d 66c5 f13d
00000380: 7450 d73d 980e 02be d0a5 fc3d ff29 b63d
00000390: 96ed af3d 9406 8b3d 9dfa 893d 0833 a9bd
000003a0: 70c3 2e3d 332f 6fbd 0d09 93bd 8f13 81bd
000003b0: 65ea 563d 8f1d 97bd 6a59 81bd 64cc 82bd
000003c0: 46a5 a23d 6d08 ff3d 092d a73d cdf0 72bd
000003d0: e627 0d3e 0ce3 e2bd 3de4 9f3d 0dc5 afbd
000003e0: fd74 b43d 6155 6abd 7cbd f4bd 0d35 9dbd
000003f0: 149b 953d b85a 533d 6af5 e8bd e3b7 b8bd

encoder.dcrnn_cells.0.update.bias_pool f4 [2, 64]
-0.107994646 -0.09194607 0.2902956 -0.28548935 0.06710591 -0.15608305 0.0289208 0.045906458
-0.22243756 0.09728755 0.28736725 -0.04980908 -0.06325811 -0.17360851 0.014965289 -0.15715563
-0.0697149 0.17544438 -0.24997506 0.1375693 0.04815613 -0.018265175 0.0712576 0.15737401
-0.2531987 -0.090892345 0.026574843 0.027090417 0.11905324 0.11343335 0.26413712 0.069959946
-0.21313927 -0.08749997 -0.19552505 0.038654797 0.19452552 0.2268875 0.043456957 -0.1118284
0.21386607 -0.0058747674 0.09623668 -0.10968564 0.101562016 -0.06016655 -0.20408306 -0.30001214
0.15199888 -0.22697973 -0.038324058 0.07103603 -0.24161145 -0.26728308 0.08314108 -0.10499829
0.12008379 0.06620217 0.15735449 -0.2597387 0.23850079 -0.034894142 0.043789286 -0.21664898
-0.23079132 0.36330873 0.011753409 -0.21983422 0.18210249 -0.07450725 0.31823638 0.035739023
0.26935932 -0.4248094 0.25570688 -0.27523017 -0.023355776 -0.13399382 -0.2907349 0.28041855
-0.19612819 0.26082966 0.32483917 -0.33751965 0.2597077 0.19305979 -0.15448956 -0.5547509
0.26572734 0.27972898 0.3889453 0.23521061 0.04397364 0.15880507 -0.25484538 0.2041704
0.27443218 -0.29013014 0.27388403 0.08385397 -0.001411865 -0.010016682 0.037070125 0.24542503
-0.56236666 -0.24430929 0.04064053 -0.15581907 -0.5227563 -0.06612261 0.55009705 -0.25402218
-0.5304376 0.2253696 0.26291078 -0.023864647 0.33619785 0.27665806 0.16506068 -0.068917
0.12193004 0.04284211 -0.2062801 -0.16222726 0.27116254 -0.0097278515 -0.21239674 -0.10604106
00000000: 4c2c ddbd 394e bcbd a0a1 943e a92b 92be
00000010: d36e 893d 3cd4 1fbe 50eb ec3c 6908 3c3d
00000020: acc6 63be b23e c73d cd21 933e 9b04 4cbd
00000030: 788d 81bd 6ec6 31be f930 753c 68ed 20be
00000040: afc6 8ebd b1a7 333e 76f9 7fbe f7de 0c3e
00000050: 5d3f 453d d9a0 95bc 81ef 913d a726 213e
00000060: 43a3 81be c425 babd 7cb3 d93c b9ec dd3c
00000070: 2fd2 f33d bf4f e83d fb3c 873e 2947 8f3d
00000080: 2e41 5abe 2f33 b3bd b837 48be 7e54 1e3d
00000090: b331 473e 3255 683e ecff 313d 4a06 e5bd
000000a0: b5ff 5a3e 1f81 c0bb bd17 c53d dda2 e0bd
000000b0: bfff cf3d 3371 76bd 26fb 50be 319b 99be
000000c0: 98a5 1b3e 606d 68be b0f9 1cbd 577b 913d
000000d0: fe68 77be 54d9 88be df45 aa3d 5809 d7bd
000000e0: 7dee f53d 0195 873d 8921 213e 79fc 84be
000000f0: 8d39 743e 29ed 0ebd 655c 333d 3bd9 5dbe
00000100: 8f54 6cbe 9a03 ba3e 5f91 403c 391c 61be
00000110: 1379 3a3e 4297 98bd e1ef a23e 1563 123d
00000120: 77e9 893e 9e80 d9be 03ec 823e f8ea 8cbe
00000130: 9d54 bfbc ad35 09be 34db 94be 0593 8f3e
00000140: d4d5 48be 778b 853e 5251 a63e 60cf acbe
00000150: 68f8 843e 77b1 453e 8332 1ebe 2804 0ebf
00000160: 6a0d 883e a338 8f3e d723 c73e 0ddb 703e
00000170: b41d 343d cc9d 223e 187b 82be 0c12 513e
00000180: 6082 8c3e f08b 94be 873a 8c3e a1bb ab3d
00000190: 540e b9ba 021d 24bc d8d6 173d b350 7b3e
000001a0: 43f7 0fbf 372c 7abe af76 263d 098f 1fbe
000001b0: 5bd3 05bf 4a6b 87bd 29d3 0c3f 320f 82be
000001c0: c2ca 07bf 4ac7 663e 3e9c 863e cb7f c3bc
000001d0: 2022 ac3e 20a6 8d3e ab05 293e 5b24 8dbd
000001e0: 75b6 f93d 357b 2f3d 173b 53be e71e 26be
000001f0: d1d5 8a3e 9161 1fbc 887e 59be 0e2c d9bd

encoder.dcrnn_cells.1.gate.weights_pool f4 [2, 2, 128, 128]
0.15683798 -0.14614509 -0.10993576 -0.0126937 0.017027326 0.04266513 -0.012117487 -0.073059216
0.070043 -0.09196918 -0.06858407 0.061608184 0.16463025 0.096135214 -0.10397962 0.023920072
-0.01034493 -0.092490464 -0.2836061 0.06525668 0.014774111 -0.044183955 -0.00704349 -0.037051614
0.13731518 -0.1186592 0.101327986 0.18720579 -0.039848357 0.030134335 0.03449292 -0.036180735
-0.0019074926 0.053737815 -0.2514758 0.1953205 -0.1299963 0.16162841 -0.00573876 0.16735241
-0.04793356 0.12405 0.1316108 -0.009440074 0.008718955 0.07766555 -0.2993963 -0.009148976
-0.1107983 0.18058458 -0.023472551 -0.036394197 0.15156178 -0.022579962 -0.04438812 -0.05481941
-0.11735906 0.09420118 -0.11909424 0.1854177 -0.042185243 -0.16295713 0.23249727 0.1917458
0.25504988 0.16147797 0.08797729 0.19315244 0.21845238 0.11398917 0.11141059 0.19375212
0.35220376 0.2282915 0.2207701 0.23508254 0.22509424 0.22933184 0.1459342 0.08376991
0.18144532 0.20482717 0.19390747 0.37203437 0.1610202 0.36819205 0.2005203 0.023022177
0.26678914 0.24145986 0.37468973 0.05330513 0.22976655 0.15862325 0.1911546 0.43681872
0.17071958 0.3967365 0.112336144 0.24371397 0.17561893 0.17225415 0.2796509 0.29797253
0.22396997 0.31489012 0.29565722 0.19712457 0.12963015 0.39463118 0.3039309 0.20635675
0.3589397 0.34965736 0.23167104 0.13436233 0.16742197 0.11688395 0.09609433 0.27989888
0.22009654 0.16082542 0.21783292 0.7603832 0.09068796 0.22982556 0.19947706 0.3146499
0.024806116 -0.22025742 0.08096084 -0.14892772 -0.11536524 -0.22306758 -0.39029273 -0.4611636
0.083435036 -0.121954635 -0.102483496 -0.09771717 0.29091302 -0.43595427 -0.09906843 -0.11616393
-0.1436873 -0.22645889 -0.9313837 0.0063229743 -0.16959596 -0.37357083 -0.17014489 -0.15675515
0.042159867 -0.106127426 -0.15900813 -0.12786064 -0.14684515 0.6664635 -0.06523487 -0.49608824
-0.21081176 -0.0800958 -0.16866344 -0.024921909 -0.623696 0.06361086 -0.5317317 0.08151111
-0.27845016 0.01491411 -0.10455661 -0.3446453 -0.22384447 -0.09774681 -0.29974183 -0.38131157
-0.34169707 0.15455991 -0.46344537 -0.15892458 0.026793476 -0.15820745 -0.16383903 -0.46573332
0.013079874 0.012114517 -0.20357974 -0.028379405 -0.08596308 -0.14753833 -0.0312951 -0.10263966
0.42838657 0.3215902 0.67602694 0.5793407 0.56231165 0.5769986 0.4368895 0.5333359
0.2704505 0.5301091 0.54983455 0.1887963 0.2774689 0.42826745 0.6916664 0.6680927
0.5692059 0.41193056 0.39149293 0.4160194 0.44837713 0.3259174 0.6074356 0.68402964
0.34564078 0.30366296 0.30465135 0.51726633 0.62306976 0.70092726 0.41055432 0.7696873
0.45482793 0.38697705 0.6656218 0.38722295 0.51814073 0.44674134 0.6549865 0.4266881
0.8706456 0.3373247 0.29041117 0.5298355 0.32516778 0.33398095 0.54365546 0.44048208
0.2927001 0.26955903 0.6641952 0.5505275 0.38386273 0.62410307 0.8015503 0.56355596
0.44867674 0.46460143 0.5926627 0.11135296 0.7435602 0.55451196 0.40174407 0.3133965
00000000: 239a 203e 0fa7 15be 0026 e1bd 3df9 4fbc
00000010: e47c 8b3c a2c1 2e3d 6d88 46bc 12a0 95bd
00000020: b472 8f3d 565a bcbd ce75 8cbd dd58 7c3d
00000030: d594 283e 8ae2 c43d 44f3 d4bd 07f4 c33c
00000040: c87d 29bc a46b bdbd d234 91be 4ba5 853d
00000050: 1d0f 723c 3cfa 34bd 14cd e6bb 6fc3 17bd
00000060: 5a9c 0c3e 9803 f3bd 0c85 cf3d e0b2 3f3e
00000070: 0838 23bd 48dc f63c 7348 0d3d 4032 14bd
00000080: d504 faba 2f1c 5c3d 70c1 80be 1902 483e
00000090: c01d 05be eb81 253e 350c bcbb 6e5e 2b3e
000000a0: fb55 44bd ed0d fe3d fbc4 063e 8aaa 1abc
000000b0: f3d9 0e3c 1e0f 9f3d 794a 99be 96e5 15bc
000000c0: 38ea e2bd 2aeb 383e 8249 c0bc 1512 15bd
000000d0: 0333 1b3e 9df9 b8bc 51d0 35bd 518a 60bd
000000e0: f259 f0bd 8cec c03d aee7 f3bd 23de 3d3e
000000f0: 6fca 2cbd 3cde 26be c413 6e3e 0359 443e
00000100: e695 823e 7b5a 253e 702d b43d c1c9 453e
00000110: fbb1 5f3e 2773 e93d 3c2b e43d f566 463e
00000120: 0d54 b43e 3fc5 693e 8f11 623e 7ab9 703e
00000130: 1b7f 663e f7d5 6a3e c66f 153e 8f8f ab3d
00000140: cdcc 393e 37be 513e ae8f 463e 4a7b be3e
00000150: 7be2 243e ab83 bc3e 3255 4d3e 0199 bc3c
00000160: 9698 883e 4141 773e 55d7 bf3e 7b56 5a3d
00000170: ec47 6b3e 226e 223e 08be 433e b4a6 df3e
00000180: 1dd1 2e3e 0c21 cb3e 7e10 e63d 2890 793e
00000190: 73d5 333e 6463 303e 672e 8f3e db8f 983e
000001a0: 6258 653e 4739 a13e 6260 973e 06db 493e
000001b0: c4bd 043e 190d ca3e d59c 9b3e 2f4f 533e
000001c0: f2c6 b73e 4a06 b33e 2c3b 6d3e 4796 093e
000001d0: aa70 2b3e da60 ef3d 1bcd c43d e84e 8f3e
000001e0: fd60 613e 6baf 243e 980f 5f3e 79a8 423f
000001f0: 9cba b93d 6457 6b3e b743 4c3e cb19 a13e
00000200: 3236 cb3c 298b 61be ccce a53d 8280 18be
00000210: 9c44 ecbd d46b 64be 73d4 c7be a31d ecbe
00000220: fddf aa3d 5ac3 f9bd dee2 d1bd f11f c8bd
00000230: 8df2 943e 6635 dfbe 64e4 cabd 5be7 edbd
00000240: c322 13be d7e4 67be 2a6f 6ebf f430 cf3b
00000250: 90aa 2dbe ad44 bfbe 763a 2ebe 6c84 20be
00000260: d3af 2c3d 5659 d9bd 07d3 22be e6ed 02be
00000270: 935e 16be 5a9d 2a3f dc99 85bd 47ff fdbe
00000280: 0adf 57be 4409 a4bd 1cb6 2cbe 0829 ccbc
00000290: 8baa 1fbf 6946 823d 921f 08bf 4cef a63d
000002a0: 0591 8ebe 505a 743c c721 d6bd 5975 b0be
000002b0: 7c37 65be 7b2f c8bd c377 99be 453b c3be
000002c0: ebf2 aebe f444 1e3e b648 edbe 20bd 22be
000002d0: fe7d db3c 2201 22be 6bc5 27be 9974 eebe
000002e0: f84c 563c f87b 463c 3577 50be ed7b e8bc
000002f0: 690d b0bd 4a14 17be 4a2f 00bd be34 d2bd
00000300: 7c55 db3e 78a7 a43e 1a10 2d3f ac4f 143f
00000310: a8f3 0f3f 2eb6 133f fbaf df3e b488 083f
00000320: 7d78 8a3e 3bb5 073f f5c1 0c3f d153 413e
00000330: 6710 8e3e df45 db3e 0d11 313f 2008 2b3f
00000340: 7ab7 113f 90e8 d23e c371 c83e 7f00 d53e
00000350: b091 e53e a5de a63e e680 1b3f 911c 2f3f
00000360: d4f7 b03e b679 9b3e 43fb 9b3e 916b 043f
00000370: 8081 1f3f f86f 333f 2d34 d23e 3a0a 453f
00000380: 35df e83e db21 c63e 3166 2a3f 1642 c63e
00000390: dfa4 043f 48bb e43e 32ad 273f dd76 da3e
000003a0: a1e2 5e3f d3b5 ac3e c6b0 943e 4da3 073f
000003b0: 647c a63e 8dff aa3e 012d 0b3f de86 e13e
000003c0: cadc 953e a403 8a3e b208 2a3f 5fef 0c3f
000003d0: a889 c43e 38c5 1f3f 6732 4d3f 3445 103f
000003e0: f5b8 e53e 3de0 ed3e beb8 173f 050d e43d
000003f0: f659 3e3f 7ff4 0d3f 66b1 cd3e 8275 a03e

encoder.dcrnn_cells.1.gate.bias_pool f4 [2, 128]
-0.07432816 0.15069996 0.28164452 0.122277044 0.03563773 0.026130123 0.123574965 0.017178841
0.56168246 -0.15053639 0.082502894 -0.014470193 0.44467592 -0.10159574 0.096155256 0.035120245
0.10733184 -0.018540712 -0.2846803 0.17034678 0.09812611 0.089465074 -0.014085306 -0.05943911
-0.062340945 0.26231393 0.49655834 -0.041105274 -0.06103495 -0.20471205 0.037258904 -0.057455458
-0.04244627 0.20022276 0.18676066 -0.015194335 -0.2060028 0.2331189 -0.10973313 0.18322179
-0.07041692 -0.12872945 0.17937283 0.066347346 -0.09643555 0.06085011 0.23603573 -0.3076753
-0.07096145 -0.03786775 0.013372165 -0.09660244 0.17000663 0.15223354 0.004695921 -0.10215976
-0.106886566 0.22870699 -0.103728734 0.0017968182 -0.09245903 -0.07368142 0.22084567 0.30745098
-0.29336485 -0.27428418 -0.28615755 0.047651824 0.06593226 0.32532674 0.06478348 0.016678408
-0.3645573 -0.065931104 -0.23275533 -0.032042727 -0.42616683 -0.17407285 -0.04505849 0.17765754
0.035369005 -0.03658897 0.06657005 -0.06524434 -0.15399323 0.023756742 -0.05011773 0.39782718
-0.26263386 -0.2472756 0.103398316 -0.24843605 0.080710776 -0.23995778 -0.12448223 -0.2473502
0.21148993 -0.10317557 0.31924385 -0.25789693 -0.31285593 -0.2440551 -0.19079919 -0.20767622
0.057443466 -0.08135482 -0.24819078 -0.09808162 0.14446345 0.096404955 -0.48362994 -0.13728178
-0.27190638 0.003678829 -0.12178395 -0.009522094 -0.2159435 0.30531842 0.192654 -0.088711776
-0.1352539 -0.20598693 -0.12545997 -0.31595823 0.14115119 -0.13024648 0.088486336 -0.2003162
0.07827633 0.29736763 -0.046658807 -0.01990016 -0.09628538 -0.08369112 0.0056736236 0.025510399
0.24805269 0.27057278 -0.018114423 0.2680884 0.08041078 -0.08322074 0.09762124 -0.0007553708
-0.034973986 -0.12774307 -0.11166514 0.34860513 0.1945712 -0.092682764 -0.09166544 -0.08322042
0.36540055 0.049953878 0.34616965 -0.26805866 0.09366608 -0.018222447 -0.26701528 0.027476888
0.14955628 0.321204 0.17727001 0.40602016 -0.020838069 0.19475432 -0.033838 0.26607004
0.15591623 0.15887886 0.45256135 -0.012745739 -0.067400135 0.3265376 0.12726025 0.07303171
-0.11600083 0.18693756 -0.10398433 0.0666572 0.13754898 0.055093836 -0.0012281656 0.098685004
0.19120376 0.31521666 0.15597895 0.010713327 0.28043455 0.20234238 0.23264953 0.2556189
-0.5321895 0.21104436 -0.09189279 -0.08041256 0.25739953 0.22160861 0.0059578773 0.2448476
-0.59535336 -0.02532437 -0.16105592 -0.14073215 -0.7486834 -0.24231175 -0.05515509 0.24304548
0.040893592 -0.0036970745 0.036587615 0.18190327 -0.11933607 0.5589939 0.27425304 0.35501423
-0.40722647 0.16356392 -0.28178972 -0.049058978 0.09706669 -0.23343429 -0.23290843 0.12071779
-0.004740156 -0.031413343 0.1860078 -0.36794978 0.36687818 -0.6129925 0.0032805803 -0.50530034
-0.1515228 -0.038853236 0.0062847477 -0.084124655 0.0758716 -0.07390882 -0.33890033 0.002857108
-0.53562886 -0.40890062 0.31068784 0.21228535 -0.4516332 -0.0381272 0.27511984 -0.26764974
-0.20618343 -0.18597402 0.053491596 -0.003242056 0.33298543 -0.07257176 -0.29204655 -0.42966634
00000000: 5d39 98bd 1751 1a3e b633 903e 636c fa3d
00000010: def8 113d d70e d63c df14 fd3d a4ba 8c3c
00000020: 6cca 0f3f 3626 1abe 47f7 a83d 6314 6dbc
00000030: 90ac e33e 6d11 d0bd 0ced c43d 3fda 0f3d
00000040: ccd0 db3d b1e2 97bc 9ec1 91be 636f 2e3e
00000050: 58f6 c83d 7739 b73d 0ec6 66bc 6d76 73bd
00000060: 3859 7fbd 034e 863e e53c fe3e 015e 28bd
00000070: c9ff 79bd 09a0 51be cb9c 183d 6a56 6bbd
00000080: 24dc 2dbd 3207 4d3e 303e 3f3e a9f1 78bc
00000090: 66f2 52be b9b6 6e3e c3bb e0bd 7e9e 3b3e
000000a0: bf36 90bd a7d1 03be 83ad 373e 1ee1 873d
000000b0: 0080 c5bd f73d 793d 5ab3 713e 9e87 9dbe
000000c0: 3d54 91bd 371b 1bbd ed16 5b3c 80d7 c5bd
000000d0: 3816 2e3e 1ce3 1b3e 3ee0 993b 2339 d1bd
000000e0: 58e7 dabd 2a32 6a3e bb6f d4bd 3783 eb3a
000000f0: 295b bdbd 49e6 96bd 5e25 623e 376a 9d3e
00000100: eb33 96be fa6e 8cbe 3e83 92be 8f2e 433d
00000110: 7e07 873d 3a91 a63e 33ad 843d 28a1 883c
00000120: 41a7 babe e306 87bd 6a57 6ebe 3c3f 03bd
00000130: 8a32 dabe 2740 32be 408f 38bd dceb 353e
00000140: 17df 103d 51de 15bd e155 883d d39e 85bd
00000150: 67b0 1dbe 809d c23c 4048 4dbd 01b0 cb3e
00000160: f277 86be d135 7dbe 7fc2 d33d 0566 7ebe
00000170: b14b a53d 7eb7 75be 8af0 febd 5f49 7dbe
00000180: d190 583e b74d d3bd ee73 a33e 110b 84be
00000190: a72e a0be 95e9 79be dd60 43be 13a9 54be
000001a0: d749 6b3d 5b9d a6bd b925 7ebe 04df c8bd
000001b0: 3aee 133e f66f c53d 589e f7be 9893 0cbe
000001c0: 5037 8bbe 8218 713b dd69 f9bd 8f02 1cbc
000001d0: 4b20 5dbe b252 9c3e 1747 453e 85ae b5bd
000001e0: 0080 0abe 3dee 52be 9478 00be 47c5 a1be
000001f0: f089 103e 555f 05be 5338 b53d b11f 4dbe
00000200: 574f a03d 9240 983e 4e1d 3fbd a905 a3bc
00000210: 4531 c5bd 4066 abbd cee9 b93b 2ffb d03c
00000220: 8601 7e3e 8488 8a3e b364 94bc e242 893e
00000230: 68ae a43d a36f aabd a5ed c73d 1404 46ba
00000240: e240 0fbd 14cf 02be b1b0 e4bd 5f7c b23e
00000250: ac3d 473e 76d0 bdbd 17bb bbbd 786f aabd
00000260: c815 bb3e 709c 4c3d 263d b13e fc3e 89be
00000270: 00d4 bf3d 3e47 95bc 3ab6 88be 3617 e13c
00000280: 4825 193e da74 a43e 4586 353e e0e1 cf3e
00000290: 99b4 aabc ad6d 473e b799 0abd 553a 883e
000002a0: 81a8 1f3e 24b1 223e 1fb6 e73e 81d3 50bc
000002b0: 1509 8abd f02f a73e 8350 023e a691 953d
000002c0: d891 edbd 8f6c 3f3e bdf5 d4bd 9283 883d
000002d0: a4d9 0c3e 13aa 613d 66fa a0ba 5d1b ca3d
000002e0: ebca 433e 1464 a13e f2b8 1f3e f386 2f3c
000002f0: 1e95 8f3e d732 4f3e ae3b 6e3e 7be0 823e
00000300: 923d 08bf 031c 583e 4932 bcbd 57af a4bd
00000310: dfc9 833e 5eed 623e 4c3a c33b 54b9 7a3e
00000320: 1469 18bf 0e75 cfbc d8eb 24be 171c 10be
00000330: b7a9 3fbf 9220 78be 4eea 61bd eae0 783e
00000340: 0a80 273d 9e4a 72bb e5dc 153d da44 3a3e
00000350: 7866 f4bd 391a 0f3f e56a 8c3e 6dc4 b53e
00000360: fd7f d0be 4d7d 273e be46 90be 11f2 48bd
00000370: e7ca c63d 6609 6fbe 8c7f 6ebe e43a f73d
00000380: 4f53 9bbb 47ab 00bd d478 3e3e ea63 bcbe
00000390: 75d7 bb3e 14ed 1cbf 01ff 563b 5d5b 01bf
000003a0: cb28 1bbe 9224 1fbd 49f0 cd3b 8c49 acbd
000003b0: 9262 9b3d 825d 97bd 5884 adbe 513e 3b3b
000003c0: f91e 09bf 6c5b d1be 7a12 9f3e 5561 593e
000003d0: 773c e7be 442b 1cbd 82dc 8c3e 6309 89be
000003e0: c021 53be f96f 3ebe 011a 5b3d ac78 54bb
000003f0: 117d aa3e 81a0 94bd 2087 95be 3afd dbbe

encoder.dcrnn_cells.1.update.weights_pool f4 [2, 2, 128, 64]
-0.369537 -0.13983211 -0.15483 -0.16330345 0.116742566 -0.17308114 -0.21223046 -0.25706875
0.56834346 0.11276663 0.08978419 -0.24375702 0.45332313 0.4157219 0.18346155 -0.1402509
-0.13618618 -0.32598212 0.9073377 0.46525925 0.29200187 -0.19644822 -0.15166953 0.10098044
0.24017552 0.166226 -0.66386795 -0.23212098 -0.14923845 -0.23099029 0.24430193 -0.24729756
-0.26503298 0.3002391 0.106165946 0.12336884 0.5228584 -0.52209395 0.41220486 -0.4792879
-0.084472835 0.25895026 -0.27454054 0.14595897 0.23447151 0.17781003 0.128935 -0.14176577
-0.4287117 -0.33106053 -0.0756338 -0.12987123 -0.49754775 0.15754195 -0.061689 0.14882758
0.13748735 -0.21033427 0.11931388 0.5152795 -0.114336796 0.08176414 -0.43728882 0.4715867
-0.38213712 -0.78725594 -0.9301822 -0.3892783 0.46912277 -0.29551837 -0.58188486 -0.3122948
0.3350815 0.4772229 0.44647604 -0.5392849 0.3836703 0.30894685 0.7887226 -0.33929574
-0.45401525 -0.26532605 0.1907983 0.43792322 0.3705108 -0.6421752 -0.29778427 0.40147987
0.3914845 0.4049625 -0.38412276 -0.65728897 -0.51442486 -0.97245544 0.25208274 -0.41438758
-0.34033608 0.43248105 0.48426208 0.58186746 0.24716288 -0.3884248 0.36538643 -0.31773907
-0.39094487 0.38951445 -0.5441829 0.22147058 0.093364015 0.63033307 0.5830906 -0.69638664
-0.2620318 -0.38381308 -0.49105126 -0.42366204 -0.34799868 0.32302147 -0.4977601 0.52744174
0.6246392 -0.6251764 0.5410339 0.23328273 -0.43929493 0.22205521 -0.31739712 0.3466272
0.21272169 0.109874226 0.20537563 0.22312121 -0.15964837 0.1488007 0.10439736 0.09752445
-0.2385989 -0.060033955 -0.045452334 0.2996637 -0.23090841 -0.16851415 -0.11369073 0.089730725
0.1589334 0.3870148 -0.23779175 -0.18161987 -0.28416905 0.20796269 0.22942425 -0.03496799
-0.1659235 -0.17448793 0.21897581 0.13371989 0.22237034 0.17686072 -0.25147805 0.17133215
0.2767072 -0.19424592 -0.09498441 -0.4062285 -0.17863868 0.23553678 -0.18652973 0.22797912
-0.018495908 -0.19002399 0.27489156 -0.25402907 -0.22545397 -0.09509106 -0.12961465 0.10401526
0.19018903 0.19638963 0.13317956 0.17607658 0.2088706 -0.1278011 0.08374176 -0.2645887
-0.1425532 0.13320057 -0.18005139 -0.3672224 0.11376769 -0.099536754 0.2378944 -0.24975732
-0.2719523 -0.08113056 -0.10870964 -0.13741417 0.08359005 -0.11833686 -0.1244163 -0.10608295
0.29105026 0.07236122 0.083324865 -0.24487552 0.31639194 0.2051588 0.322734 -0.10677672
-0.07202452 -0.32023454 0.33740082 0.24575369 0.23023662 -0.14871413 -0.103881806 0.018220525
0.28992623 0.13612793 -0.29631278 -0.1665148 -0.12815602 -0.10364353 0.22754307 -0.2622288
-0.22539176 0.23430625 0.037669826 0.122768596 0.29492813 -0.29792273 0.29201517 -0.30936247
-0.08461242 0.25542492 -0.2331653 0.13819142 0.18415575 0.123693295 0.19688869 -0.14289224
-0.24119611 -0.2216516 -0.20708172 -0.095535904 -0.29109055 0.10565139 -0.040809553 0.21569951
0.16075712 -0.16212541 0.08308904 0.43389878 -0.060000718 0.082445584 -0.2882978 0.29369083
00000000: f433 bdbe 2630 0fbe c18b 1ebe 0539 27be
00000010: ba16 ef3d 2f3c 31be f152 59be 849e 83be
00000020: f57e 113f 31f2 e63d c6e0 b73d 719b 79be
00000030: f819 e83e 80d9 d43e 58dd 3b3e ef9d 0fbe
00000040: 6474 0bbe 21e7 a6be 4947 683f 7636 ee3e
00000050: 4581 953e b929 49be 424f 1bbe d5ce ce3d
00000060: 92f0 753e 2637 2a3e 40f3 29bf 1fb1 6dbe
00000070: f7d1 18be b888 6cbe 492a 7a3e 923b 7dbe
00000080: 67b2 87be f0b8 993e 886d d93d cda8 fc3d
00000090: 0cda 053f f3a7 05bf 840c d33e 3965 f5be
000000a0: 1800 adbd 2195 843e 9490 8cbe 4576 153e
000000b0: 4d19 703e d513 363e 8907 043e 0c2b 11be
000000c0: 1a80 dbbe c480 a9be e5e5 9abd f7fc 04be
000000d0: 94be febe ad52 213e 9bad 7cbd 4266 183e
000000e0: 7cc9 0c3e de61 57be d65a f43d 5be9 033f
000000f0: 6929 eabd f573 a73d 52e4 dfbe d073 f13e
00000100: 7aa7 c3be 9b89 49bf 6c20 6ebf 7c4f c7be
00000110: dc30 f03e 2f4e 97be 68f6 14bf 1be5 9fbe
00000120: cd8f ab3e 8f56 f43e 8298 e43e 930e 0abf
00000130: 6f70 c43e 482e 9e3e b9e9 493f 2cb8 adbe
00000140: b074 e8be d1d8 87be a160 433e 7937 e03e
00000150: 97b3 bd3e 9865 24bf 2e77 98be c58e cd3e
00000160: a870 c83e 3f57 cf3e bdab c4be 1744 28bf
00000170: 59b1 03bf d7f2 78bf fd10 813e 9c2a d4be
00000180: 8840 aebe 286e dd3e 33f1 f73e 44f5 143f
00000190: 4418 7d3e 9edf c6be ee13 bb3e b2ae a2be
000001a0: ed29 c8be 706e c73e 924f 0bbf 2fc9 623e
000001b0: a235 bf3d 825d 213f 6d45 153f 6546 32bf
000001c0: 0829 86be 2683 c4be 126b fbbe 3bea d8be
000001d0: e22c b2be 1263 a53e 69da febe 6c06 073f
000001e0: 5be8 1f3f 900b 20bf 3381 0a3f abe1 6e3e
000001f0: 44eb e0be 7162 633e e081 a2be 1f79 b13e
00000200: b7d3 593e bd05 e13d fd4d 523e e379 643e
00000210: dd7a 23be 365f 183e 48ce d53d e6ba c73d
00000220: 4553 74be 2ae6 75bd 3a2c 3abd 856d 993e
00000230: 4173 6cbe f98e 2cbe afd6 e8bd bec4 b73d
00000240: 70bf 223e ce26 c63e ae7f 73be 8ffa 39be
00000250: 9b7e 91be 2cf4 543e 31ee 6a3e 983a 0fbd
00000260: dae7 29be f7ac 32be 323b 603e deed 083e
00000270: 0db5 633e fa1a 353e bbc1 80be b271 2f3e
00000280: 91ac 8d3e 67e8 46be 3087 c2bd 2ffd cfbe
00000290: 0fed 36be 8e30 713e a601 3fbe 5c73 693e
000002a0: bb84 97bc a695 42be 96be 8c3e 1910 82be
000002b0: 68dd 66be 1abf c2bd b4b9 04be f405 d53d
000002c0: eac0 423e 5d1a 493e 3960 083e 6b4d 343e
000002d0: 2de2 553e 4bde 02be cd80 ab3d 2c78 87be
000002e0: 77f9 11be bb65 083e 645f 38be 9304 bcbe
000002f0: 09ff e83d edd9 cbbd 979a 733e 62c0 7fbe
00000300: 553d 8bbe c727 a6bd 29a3 debd 4db6 0cbe
00000310: 4331 ab3d 985a f2bd f9cd febd 0542 d9bd
00000320: 8a04 953e 1f32 943d 3aa6 aa3d a6c0 7abe
00000330: 20fe a13e 2615 523e 643d a53e c1ad dabd
00000340: 9781 93bd c8f5 a3be cdbf ac3e dba6 7b3e
00000350: 26c3 6b3e 8448 18be fcbf d4bd 3643 953c
00000360: 3671 943e 1f65 0b3e 4fb6 97be db82 2abe
00000370: 553b 03be 0f43 d4bd 0d01 693e da42 86be
00000380: 19cd 66be faed 6f3e ad4b 1a3d 1a6e fb3d
00000390: d200 973e 5489 98be 0383 953e c264 9ebe
000003a0: 4749 adbd 0ec7 823e e2c2 6ebe 0d82 0d3e
000003b0: 5393 3c3e e952 fd3d 309d 493e 5852 12be
000003c0: 1dfc 76be a3f8 62be 3b0d 54be 54a8 c3bd
000003d0: d209 95be c25f d83d eb27 27bd 55e0 5c3e
000003e0: 849d 243e 3404 26be 962a aa3d fb27 de3e
000003f0: 50c3 75bd 3bd9 a83d c59b 93be a55e 963e

encoder.dcrnn_cells.1.update.bias_pool f4 [2, 64]
-0.022827212 -0.058763094 0.2021032 -0.047007408 0.27378714 -0.14319052 0.20311043 0.017645897
-0.1037683 -0.035431247 0.09022195 0.080711745 -0.19439839 -0.12286739 -0.29743376 0.05087492
-0.051393576 0.13622826 -0.22174683 -0.16190389 0.030574061 0.14944069 -0.009783521 0.117909335
-0.1750426 0.02427873 0.12274596 -0.042703114 -0.15565073 -0.68623894 0.0062147123 0.28350607
0.051710755 -0.11677202 0.22774157 -0.21645474 -0.19003116 0.0050730202 -0.34934255 0.019382259
0.21392527 -0.1580991 0.16533129 0.12420525 0.034279704 -0.15260725 -0.21013486 0.08645793
0.27884066 0.23166423 0.22579081 -0.1335586 -0.015795222 -0.024958842 -0.08922004 -0.31974816
-0.19142032 -0.060579076 0.106891505 -0.39346993 -0.29105562 -0.013198485 -0.020465318 -0.04542198
0.45193323 0.057806637 0.30213368 0.2427887 -0.00014936806 -0.111437574 -0.2765939 0.23668413
-0.13221851 -0.21423526 -0.2442261 0.35008767 -0.103626296 0.109225385 -0.113254905 -0.031967085
-0.020324845 0.17966677 -0.20408693 -0.21913359 -0.123127 0.15674128 0.114700906 -0.030556588
-0.2550692 0.36840877 0.052583598 -0.23004378 -0.4146845 -0.5459725 0.18669076 -0.10064173
0.3143232 -0.3377129 0.04674826 -0.33784196 -0.35447356 0.2565433 0.0017120385 0.3250042
0.37739125 -0.37478915 0.30966327 -0.017588055 -0.1281234 -0.3375809 -0.09879987 0.31517273
0.43160418 0.15961605 -0.13228463 0.12085257 0.32849613 -0.06568599 -0.06190976 -0.3894409
-0.1226682 0.1218401 0.2525647 0.05772144 0.029553207 -0.21454655 0.16589317 -0.14452413
00000000: 2200 bbbc 92b1 70bd 24f4 4e3e d78a 40bd
00000010: d42d 8c3e 89a0 12be 2efc 4f3e 218e 903c
00000020: 7984 d4bd 5b20 11bd 49c6 b83d 334c a53d
00000030: 5f10 47be e6a1 fbbd 3d49 98be 3862 503d
00000040: 1282 52bd 6c7f 0b3e 9a11 63be 22ca 25be
00000050: 7476 fa3c fb06 193e 104b 20bc 737a f13d
00000060: 5e3e 33be 30e4 c63c 3c62 fb3d 76e9 2ebd
00000070: e862 1fbe 5bad 2fbf c9a4 cb3b b527 913e
00000080: a8ce 533d 2b26 efbd 1635 693e 50a6 5dbe
00000090: 8797 42be 943b a63b 07dd b2be 8bc7 9e3c
000000a0: 3a0f 5b3e bbe4 21be 9b4c 293e 525f fe3d
000000b0: e068 0c3d 1345 1cbe 982d 57be db10 b13d
000000c0: 34c4 8e3e 6339 6d3e b535 673e 96c3 08be
000000d0: fb64 81bc 7c76 ccbc ffb8 b6bd 08b6 a3be
000000e0: b003 44be c421 78bd efe9 da3d e474 c9be
000000f0: 3e05 95be 753e 58bc e2a6 a7bc 660c 3abd
00000100: cb63 e73e a7c6 6c3d 44b1 9a3e 9a9d 783e
00000110: af9f 1cb9 6239 e4bd b79d 8dbe 535d 723e
00000120: 4a64 07be 7d60 5bbe 6816 7abe b13e b33e
00000130: 063a d4bd 8fb1 df3d 30f2 e7bd ebef 02bd
00000140: 4a80 a6bc 91fa 373e 2afc 50be 8e64 60be
00000150: 022a fcbd c980 203e 4fe8 ea3d cf51 fabc
00000160: 6e98 82be 13a0 bc3e e661 573d 9990 6bbe
00000170: 8751 d4be dbc4 0bbf dd2b 3f3e 401d cebd
00000180: f8ee a03e b5e8 acbe 1a7b 3f3d 9ff9 acbe
00000190: 8f7d b5be a559 833e 7b66 e03a f366 a63e
000001a0: 6d39 c13e 5de4 bfbe 2f8c 9e3e d314 90bc
000001b0: c832 03be 67d7 acbe 9657 cabd 525e a13e
000001c0: 39fb dc3e 6472 233e 9f75 07be 8d81 f73d
000001d0: a530 a83e 6086 86bd 1795 7dbd cc64 c7be
000001e0: 7739 fbbd 4d87 f93d 2950 813e 516d 6c3d
000001f0: 9119 f23c 17b2 5bbe e6df 293e 22fe 13be
