CQ/result/P4_Result/DAYS/2/data5/best_model.pth (torch_old, 603835 bytes, 11 tensors)

node_embeddings f4 [307, 2]
000000 35 83 8b bd b6 58 89 3e f7 f0 86 be ae 4f b3 3e
       -0.06812135 0.26825494 -0.26355717 0.35021728
000010 98 ce 09 3f af b2 e5 3e c8 b1 48 3e 59 bd f4 bd
       0.5383086 0.44862887 0.19599068 -0.11950178
000020 c8 43 07 3e 22 86 51 be 4c 14 9a 3d fd ca 26 3e
       0.1320945 -0.20461324 0.075234026 0.16288371
000030 cd 46 b8 be ab 79 a0 3d ef 34 9c bd c3 0d 04 3f
       -0.35991517 0.07835706 -0.07627284 0.515835
000040 5a 83 bc be 66 0b 00 3e 8a 2d 47 3e 55 b8 eb bd
       -0.36818963 0.12504348 0.19450966 -0.11509768
000050 a1 b1 72 3e 85 c8 d5 bd 52 14 8a 3e 6d 79 ac bd
       0.23700573 -0.10438637 0.26968628 -0.08421598
000060 dd b7 cd bd 98 db 03 3e b1 db 47 be d9 ca 38 3e
       -0.10044835 0.12876737 -0.195174 0.1804613
000070 72 9a 86 3d 7e 3d 32 be 2d a1 15 3f 07 12 7a 3e
       0.06572427 -0.1740627 0.5844906 0.2442094
000080 fe 50 32 bd 0d 36 55 3e 18 dc 95 be a7 c1 8c 3d
       -0.04353427 0.208214 -0.2926948 0.06872874
000090 8e 27 c9 3d 9c 1a 3f 3e 93 67 48 3e 8b 01 da bd
       0.098219976 0.18662494 0.1957076 -0.106448255
0000a0 e5 c0 d4 bd cd 5b d0 3e e6 65 b7 be 01 ff af 3e
       -0.10388354 0.40695038 -0.3581993 0.3437424
0000b0 90 b8 c4 be 39 e9 04 3e 16 62 c3 be bf 1c 0a 3e
       -0.3842206 0.12979592 -0.3816077 0.13487528
0000c0 b6 dc 30 be 60 d2 4c 3e 82 c8 ac bd 25 36 90 3e
       -0.17271695 0.20002127 -0.08436681 0.2816631
0000d0 6a f6 9a 3a 2b 06 44 3e d9 e9 c5 be d7 17 01 3e
       0.0011822705 0.19142978 -0.38654974 0.1260675
0000e0 28 af ec bd 86 77 e1 3d 42 92 95 3e 89 4b 82 bc
       -0.11556846 0.110091254 0.29213148 -0.015905159
0000f0 02 17 66 3d f5 06 66 3e 3b 57 d8 be 3b 66 bd 3e
       0.056174286 0.22463591 -0.42254052 0.36992058
000100 23 b0 9f be 8f 4a 3e bd 9d a7 3c 3e c2 d7 f6 bd
       -0.3118907 -0.046457823 0.18423314 -0.12052871
000110 cb 96 1f 3f a4 38 74 3e 1f 7c a1 be dd c7 bd 3d
       0.62339467 0.23849732 -0.3154001 0.092666365
000120 d5 9d 53 3e ce 20 e7 bd 4e 90 39 3e ae 1a 6b 3e
       0.20665677 -0.11285554 0.18121454 0.22959396
000130 a4 00 b2 be b6 b4 e8 3d 17 1f 32 be 24 4c f0 3e
       -0.34766114 0.11362593 -0.17394672 0.4693309
000140 5d f7 83 3e 02 bb 9f bd 3c 07 aa bd 9d bb 05 3e
       0.2577466 -0.07799341 -0.08302161 0.1305985
000150 6e 2f 90 be 4c 2b 77 bc d7 a1 45 3e d1 8d d9 bd
       -0.28161186 -0.015086006 0.19300018 -0.106227525
000160 d3 85 c5 3d 03 ad 8d be 0e 3e 8c be 1e 5b bc 3d
       0.096446656 -0.2767106 -0.27391094 0.09197067
000170 e0 db ca 3c 30 42 c1 3e d0 5f 75 bd 1f 44 a7 3e
       0.024763048 0.3774581 -0.059905827 0.3266916
000180 1a b1 38 3f d6 0d ca 3e b8 18 9f 3e 96 eb 9d bd
       0.72145236 0.3946368 0.31073546 -0.0771095
000190 e2 d0 12 3d 67 5e 7a 3e bb 39 45 3e 2b 3f d8 bd
       0.035843737 0.24450074 0.19260304 -0.10558923
0001a0 fe bd 7c 3e ed ea 90 3e b3 4b 8c 3d db 6a 1a 3e
       0.24681851 0.28304234 0.06850376 0.15079825
0001b0 f5 80 b3 be 81 ea c6 3d 12 cd f8 bd 54 3c ea 3d
       -0.35059324 0.09712697 -0.12148489 0.11437288
0001c0 0d 19 41 3e f7 fc d7 bd 61 3e c6 bd 94 71 06 3e
       0.18857212 -0.10546296 -0.096798666 0.13129264
0001d0 27 cf 4a 3e 56 e0 04 3e 27 86 81 3e fa 0d ab bd
       0.19805585 0.12976202 0.25297663 -0.08352275
0001e0 7e cf 2b 3d c6 f7 6b be 06 f7 78 3e 4f f9 a7 bd
       0.041945927 -0.23043737 0.24312982 -0.08201849
0001f0 92 2c 50 3e 5b 57 0b be e4 e7 52 bd 3f e7 5a 3e
       0.20329502 -0.13607542 -0.05149068 0.21377276
000200 5a f5 8c 3e cb 5a 90 bd d8 f2 52 3e 06 a8 6d 3e
       0.27530938 -0.070485674 0.2060045 0.23208627
000210 66 ce 4c 3e 6a f6 f3 bd 2c b0 b3 3d d8 11 16 3e
       0.2000061 -0.11912234 0.087738365 0.14655244
000220 ed 3e c1 3e 35 fd 0b be 0b 0d 84 3e 23 2e 07 3e
       0.3774332 -0.1367081 0.257912 0.13201194
000230 ce 49 6e 3e 0f 3c 82 be c1 c4 17 3e 2b 30 4d 3e
       0.23270342 -0.25436446 0.1482115 0.20037906
000240 fe f0 15 3e 4e ea 20 3e 01 c6 85 bd 01 e2 87 3e
       0.14642712 0.1571438 -0.06531907 0.26539615
000250 b9 43 c9 be 4c 9d 04 3e 3d 54 f5 3e 6c 02 57 3e
       -0.3930948 0.12950629 0.4791583 0.20997018
000260 d2 9f 0e bd a3 10 58 3e 88 05 ed 3e 98 9a b3 3e
       -0.034820385 0.21100096 0.46293283 0.35078883
000270 67 71 50 3e 75 be d3 bd 8a f6 de bd 8c 24 4f 3e
       0.2035576 -0.10339061 -0.10886867 0.20228785
000280 c2 39 39 3e e1 95 e5 bd 16 d8 12 3f cb 82 a3 3e
       0.18088439 -0.11210228 0.5736097 0.31935725
000290 23 9a 70 3e f4 88 85 3d fd b4 74 bd 2b 16 19 3f
       0.23496298 0.06520262 -0.059742916 0.5979945
0002a0 3f 13 81 3e ac 3f 94 bd 2a 07 c9 3d 4c bc 35 3e
       0.25209996 -0.07238707 0.098158196 0.17747611
0002b0 ba 27 b6 be be d1 7c 3d cd 34 a5 3e 51 2b d2 bd
       -0.35577184 0.061723463 0.32266846 -0.10262168
0002c0 80 86 87 3e e7 38 89 bd f7 08 c7 3e 9e c6 b6 bc
       0.26469803 -0.067003064 0.38874027 -0.022311505
0002d0 93 77 fd 3e 13 47 c7 3e df cb c5 bd 8a 6a 85 3e
       0.4950529 0.38921413 -0.09658026 0.26057845
0002e0 b8 5c 09 be 61 2f 56 3e a6 68 b6 bd 62 d1 c2 3e
       -0.13414276 0.20916511 -0.08906679 0.3805037
0002f0 8e 1a 7c 3e 88 8f 98 bd d0 d8 5f 3e 28 33 2f 3e
       0.24619505 -0.074492514 0.21860051 0.17109358
000300 cc e7 9b 3d 4b 7a 20 3e c6 79 55 3e 04 7c ac bd
       0.07612571 0.15671651 0.20847234 -0.084220916
000310 17 5e d3 be dc bc 0c 3e 25 c1 92 3e 72 1b 86 3e
       -0.41282722 0.13743919 0.28662983 0.26192814
000320 c3 3d 41 3e f3 8d e2 bd cc 9b 65 3e d7 c0 26 3e
       0.18871216 -0.11062231 0.22422713 0.162845
000330 53 32 64 be ce a3 ad 3e b5 b9 7d 3e ab 8c 75 3e
       -0.22284822 0.33914036 0.24777873 0.23979442
000340 e2 da 4f 3e 2a d4 0a be d1 95 0d bd 69 7c 93 3e
       0.20298341 -0.13557497 -0.034566704 0.28805855
000350 0e ad 7a bd 8e 14 60 3e 0b 55 25 3d aa 46 42 be
       -0.061200194 0.21882841 0.040364306 -0.18972269
000360 55 0b ee 3e 84 59 89 3e e9 02 0a 3f 7a aa a9 3e
       0.4649302 0.26826108 0.5391069 0.33137876
000370 93 fa 8f be d7 2f e9 3c 57 87 5c be 03 e8 ad be
       -0.2812086 0.028465195 -0.21536003 -0.33966073
000380 91 ae 30 bc 15 91 8c 3e 13 d7 08 3d 0d 1d e1 bd
       -0.010783807 0.2745444 0.033408236 -0.10991869
000390 42 e7 10 be bf 9f b0 3e 56 a1 67 3e 0d a9 0f be
       -0.14150718 0.34496877 0.22620139 -0.14029332
0003a0 3a 53 bf be 63 3b db 3d b4 88 89 3e c1 b1 90 bd
       -0.37368184 0.107046865 0.2686211 -0.07065154
0003b0 ca 3b 1c 3e a3 46 6e 3e 63 1f 68 3e 0b b6 90 bd
       0.15257183 0.23269133 0.22668223 -0.07065972
0003c0 e9 48 69 3e 68 39 ab bd cc 2f 0f 3e 89 e6 27 3e
       0.2278172 -0.08360559 0.13983077 0.16396536
0003d0 7c 0e 78 3e 7b c2 87 bd 9e 33 9a be e6 52 a5 3d
       0.24224275 -0.06628891 -0.30117506 0.08072452
0003e0 e8 41 c2 bd fc 22 e7 3d f5 74 97 3e fd a0 c8 3c
       -0.09485227 0.112859696 0.2958142 0.024490828
0003f0 b2 45 83 bd b8 7f b2 3e 91 81 88 3e bb 74 22 bc
       -0.06409778 0.34863067 0.2666135 -0.009915526

encoder.dcrnn_cells.0.gate.weights_pool f4 [2, 2, 65, 128]
000000 47 98 95 bd b5 63 48 3e 80 d3 29 be ba 39 c8 3f
       -0.07304435 0.19569285 -0.16584587 1.5642617
000010 6e 13 20 3f 01 2a 54 3f 63 2c a9 3e 79 70 f9 3f
       0.6252965 0.8287659 0.33041677 1.9487449
000020 4b 76 01 3f db e0 94 3f 2d ba a1 3e 7d 89 fa bd
       0.50571126 1.163112 0.31587353 -0.12233255
000030 37 06 db bd b1 4e e1 3e 33 47 c6 3f 67 71 d4 3f
       -0.10694545 0.4400535 1.5490478 1.6597108
000040 93 30 49 be ab 61 d9 be d1 c5 fc 3f 78 a2 a8 bf
       -0.19647436 -0.42457327 1.9747869 -1.3174582
000050 e8 9b b7 be 5e a0 c2 3f 6c 02 c4 be 7b a9 f1 3f
       -0.35861135 1.520519 -0.38283098 1.8879846
000060 5a cd 3e 3e 4e 52 ba 3e 6e 20 96 bf b8 6f 55 bf
       0.18633023 0.36390918 -1.1728647 -0.83373594
000070 e2 7e fa 3e 29 58 b4 3f ba 18 dd 3e 5a 5b 58 3f
       0.4892493 1.4089404 0.43182927 0.8451439
000080 1d c1 fc bd d4 29 67 3f cc 5e 75 3f 3f ea 48 3f
       -0.12341521 0.902982 0.95847774 0.7848243
000090 7a 77 ee 3e 26 cd 0e be 2d d0 80 3f a3 40 90 3e
       0.46575528 -0.13945445 1.006353 0.28174314
0000a0 1d 93 72 be 4b 68 1d be 1b 5a e9 be 94 43 e9 3e
       -0.23688932 -0.15371816 -0.45576558 0.4555937
0000b0 c9 e1 e0 3f fb da 8d 3d bd 0b 19 3f 70 74 c7 be
       1.7568904 0.06926533 0.59783536 -0.38956022
0000c0 06 34 b3 be 7c 69 d7 3e ed 68 1a 3f f9 a1 a8 3e
       -0.35000628 0.42072666 0.60316354 0.32936075
0000d0 12 fc 9e 3f 78 5c 00 c0 7e fb 4b be fc 9a 6b be
       1.2420676 -2.0056438 -0.19920155 -0.2300834
0000e0 14 85 12 be a8 84 a4 3e 0e 14 c5 be 5a 70 3b 3f
       -0.14308578 0.3213246 -0.38491863 0.7321831
0000f0 db cf 40 3f cb 5e db be 2a 7b fc 3d ae 2b fa 3e
       0.7531716 -0.4284576 0.12328179 0.4886145
000100 49 30 c9 bf b1 66 7f bf 4a 3c cb bf a9 7f 4b 3d
       -1.571786 -0.9976607 -1.5877774 0.049682293
000110 e3 58 e5 3f 65 ae 06 40 b3 67 88 be 5a 24 8c 3e
       1.7917751 2.1043942 -0.26641616 0.27371484
000120 8d 7b a5 be 9b 18 a4 3f c8 3f 58 40 7a e1 56 3f
       -0.32320824 1.2820009 3.378893 0.839378
000130 a3 26 97 bf 52 de 2a 40 16 42 31 3f 1e 3b 31 40
       -1.1808666 2.6698194 0.69241464 2.7692332
000140 9d 72 39 be 8e e7 e6 be 8e ea 73 3f 3e 7e 98 3f
       -0.18110128 -0.45098537 0.9527978 1.1913526
000150 b1 58 8d bf a1 d3 08 40 47 e8 56 bf 07 bc cb 3e
       -1.1042691 2.1379168 -0.8394818 0.3979189
000160 d5 20 61 bf 03 1b f5 3f 43 d5 8b be 18 f7 a6 3f
       -0.8794072 1.9148868 -0.27311143 1.3044157
000170 3c 71 f3 ba c4 de 64 3f 18 06 8d 3f 0c 83 16 40
       -0.0018573175 0.89402413 1.1017485 2.3517485
000180 55 bc 91 3f 65 ab 06 40 d9 ab 70 be ae ef 18 40
       1.1385599 2.104211 -0.23503055 2.389629
000190 4d 91 09 40 90 97 28 bf 91 d1 5b 3e 9b d6 05 40
       2.1494935 -0.65856266 0.21466662 2.0912235
0001a0 ce d6 1b bf e0 6a 1f 3f a8 14 13 bf ec a8 23 40
       -0.6087464 0.62272453 -0.57453394 2.5571852
0001b0 41 82 98 be 63 8a cc 3f a1 e3 13 3f 67 ed 54 bf
       -0.29786876 1.5979732 0.5776921 -0.8317475
0001c0 0e 7a 62 bf 36 d8 8d 3f 8f 67 08 40 55 8b 4b 3f
       -0.8846749 1.1081607 2.1313207 0.7950948
0001d0 5e e5 04 40 b5 cb 87 3f 6d b1 2e bf fc b8 4d be
       2.0764995 1.0609041 -0.6823948 -0.20090097
0001e0 7b ab fc be b1 cf 3b 3f 90 99 8e bf c5 b7 53 bf
       -0.4934958 0.73363787 -1.1140614 -0.82702285
0001f0 59 ee e6 3f 0e 69 03 bf 79 8e 11 bf cd ec fc 3e
       1.8041488 -0.51332176 -0.5685802 0.49399415
000200 18 86 03 bd fd bf 75 bc 77 81 85 3c 43 64 5c 3d
       -0.032110304 -0.014999387 0.016297085 0.053806555
000210 44 b3 41 bd 75 39 05 be fd 10 00 bd 81 d6 71 3c
       -0.0472901 -0.130102 -0.0312662 0.014760614
000220 8f fd 31 3c 80 92 dd 3d 32 cf 6f bd 0a b2 e0 3d
       0.010863676 0.10818958 -0.058547206 0.10971458
000230 78 a5 20 be d5 d5 7e bd 0f 51 85 bc 61 b8 03 3d
       -0.15688121 -0.062215645 -0.016274003 0.03215826
000240 e0 e9 1c 3d 3b 72 ba bd ff 79 2e bc af bd 3d 3e
       0.038308978 -0.09103819 -0.010649203 0.1852939
000250 6f 89 c9 bd aa 0a 80 bd eb 07 25 bb 6f 20 19 3d
       -0.098406665 -0.06252034 -0.0025181721 0.037384447
000260 c5 15 c3 3d 07 b7 74 bd 49 f5 28 be b8 18 79 3e
       0.095256366 -0.05974486 -0.16499819 0.24325836
000270 15 41 04 bc 6b 7d 34 3c 65 d2 bf bd 26 4d 46 3d
       -0.008072157 0.01101623 -0.093663014 0.04841342
000280 6f a2 83 3e 36 62 4d 3b 30 61 31 bc 5d 3b c8 3d
       0.25709864 0.0031339056 -0.010826394 0.09776948
000290 c6 03 62 bc 33 39 78 bd 11 bb 09 be d7 f5 d4 bc
       -0.013794845 -0.060601424 -0.13450266 -0.025996132
0002a0 d1 c9 3c 3d 21 7e d2 bd 4a 04 72 bd 56 2f 92 bc
       0.046090905 -0.102779634 -0.05908612 -0.017844837
0002b0 29 fd 89 3d 59 8e 78 bc 56 3c 09 3d 68 b3 9e bd
       0.067377396 -0.015170657 0.033504806 -0.07749063
0002c0 91 36 ab bd 38 c7 8e bd 13 aa 1f be cf ec a0 3d
       -0.08360017 -0.06971592 -0.15592222 0.07857668
0002d0 bf eb 8c 3d ef 57 80 3e 30 bc 23 bd 54 24 6c 3d
       0.068809025 0.25067088 -0.03997439 0.057651833
0002e0 b3 f6 53 bd 7c f7 e5 bc a6 78 a4 bd fa 2b 52 3e
       -0.051748943 -0.028072111 -0.08030824 0.20524588
0002f0 84 21 3a bc 69 07 b3 bc 2b 45 60 3e 0d a2 1b bd
       -0.01136053 -0.02185412 0.21901385 -0.03799634
000300 8b 12 b4 be ef bf f6 be 1e 5a a7 be d8 bf dc 3b
       -0.35170397 -0.4819331 -0.3268594 0.0067367367
000310 5c b2 93 3a b2 e7 61 3c e4 c1 fa 3a ac 88 8f bb
       0.0011268365 0.013788151 0.001913127 -0.004380306
000320 92 3b 87 be e1 77 c3 3c f2 26 03 bc 13 6b a6 be
       -0.26412636 0.023860874 -0.008004891 -0.32503566
000330 45 4b 27 bf eb 1f 42 3d 0b 69 0f 3d 15 aa 19 bc
       -0.6534923 0.04739372 0.035012286 -0.00937893
000340 e9 c5 80 bc 79 5b b7 bc 9a 47 ac 3d 70 ab d0 be
       -0.01571937 -0.022382485 0.084120944 -0.40755796
000350 e2 ca 02 bf 06 17 90 3b 88 1d 49 3d bf 81 f2 bd
       -0.51090825 0.004397276 0.04910043 -0.11841153
000360 df de cf bd 62 c7 c5 3c 68 b2 36 be bd 07 64 be
       -0.10149931 0.024142925 -0.17841494 -0.22268577
000370 82 c1 bd bd e1 77 b5 3d a4 3f 5c 3c b9 36 c3 3d
       -0.09265424 0.08860756 0.0134429075 0.09531922
000380 90 e3 c6 be c8 df bb 3d 3f 5e 89 bc e7 1f b4 bc
       -0.3884549 0.09173542 -0.016768573 -0.021987868
000390 d4 0e 47 3b 76 a5 cf 3d 54 da 8c be f3 a8 ad 3c
       0.0030373828 0.10138981 -0.2751032 0.021198725
0003a0 bf 14 44 be d2 4e 82 bc 97 0d c0 39 f7 f2 61 bd
       -0.19148539 -0.015906725 0.0003663122 -0.05516335
0003b0 11 c9 15 be 6b 7e 33 be 96 ae 71 3a ad e6 c9 3d
       -0.14627482 -0.17528693 0.0009219436 0.09858451
0003c0 56 cc 2d bd 7a 93 ea bc 5d 69 fe bb f1 3c fe 3d
       -0.042431198 -0.028634775 -0.007764025 0.124139674
0003d0 fa 00 80 bd 04 85 d1 bc 30 3d cb 3b 34 6c 39 3d
       -0.06250186 -0.025576122 0.0062023625 0.045269206
0003e0 24 81 df bd 88 17 89 bd 98 0a fc bc a5 4c 07 be
       -0.109133035 -0.06693941 -0.03076677 -0.13212831
0003f0 15 51 8a bd 81 22 b1 bc 96 99 9a be e5 ca 9d 3c
       -0.067537464 -0.021622898 -0.30195302 0.019261787

encoder.dcrnn_cells.0.gate.bias_pool f4 [2, 128]
000000 8d f2 9a 3e e3 ea 9f 3d e3 d4 33 3d 22 dd b3 bb
       0.30263177 0.07808473 0.043904196 -0.0054890076
000010 93 4a 9c 3e 57 2c 8b 3e 5b a1 b3 3e 43 01 54 3e
       0.30525646 0.27182266 0.35084042 0.20703606
000020 b0 c3 bf 3e 15 6a f7 3c 8b 70 91 3e 27 4f 65 3e
       0.37453985 0.030201951 0.28406176 0.22393475
000030 d0 42 09 3e 26 99 90 3e bc f4 b6 3e ad 91 8d 3e
       0.13404393 0.28241843 0.35733593 0.27650204
000040 a3 33 1c 3e 7e 0e 2e bb bb 53 60 3e 90 a3 50 be
       0.15254073 -0.002655893 0.2190694 -0.20374894
000050 22 73 1f 3f 4a 01 81 3d 06 41 1e 3e fb e5 1c 3d
       0.62285054 0.06299074 0.15454492 0.038305264
000060 0e 64 1b bd 17 3e b9 3d 0c f2 b3 3e bb 8c 74 be
       -0.037937216 0.09045046 0.35145605 -0.2388181
000070 86 82 50 3e 56 2c 40 3e 7f ca b4 3d f6 41 e2 bb
       0.2036229 0.18766913 0.088276856 -0.006904836
000080 c8 dd 9b bd 4f 08 cd 3e c7 89 ca 3e d4 67 35 3e
       -0.07610661 0.400454 0.3955824 0.17715389
000090 69 3c 81 3e 3d 4d e8 3d 80 e6 c7 3d 94 42 43 3e
       0.25241402 0.11342857 0.09760761 0.19068366
0000a0 ae 6d 65 bd 60 a7 d8 3e 90 c9 ad bc cc fc a7 3e
       -0.0560128 0.42315197 -0.021214277 0.32810056
0000b0 ee f8 02 3e 11 9a 40 bd 92 fc ae 3e 1c 37 b4 3e
       0.12790272 -0.04702193 0.3417707 0.35198295
0000c0 8a 3a a4 3e d4 59 7f 3b 17 c2 68 3d 6e d2 72 3e
       0.32075912 0.0038963454 0.056825723 0.23713085
0000d0 b8 3e 6c 3e 4f 97 10 3d cf 7f 92 3e 83 a0 36 3e
       0.230708 0.03530055 0.28613135 0.17834668
0000e0 59 12 39 3c 11 7b 7c 3d fd 94 9e 3e f9 d5 98 3e
       0.011295878 0.061640803 0.30973044 0.29850748
0000f0 54 2f bd 3e 43 bc 81 bd 9c 6c 59 be 53 ae 9d 3e
       0.3695017 -0.06334736 -0.21232837 0.3079706
000100 33 6b 2a 3e b9 ea 54 be 29 d3 a4 be 1c bb a5 be
       0.16642456 -0.20792665 -0.32192352 -0.32369316
000110 a7 ff f8 be f1 f1 99 be f5 1a 95 be cd 7d 21 bf
       -0.48632547 -0.300674 -0.2912213 -0.6308258
000120 0e 31 6c be 39 4b 62 be 50 e8 96 be 31 14 1a be
       -0.23065588 -0.22099008 -0.29474115 -0.15046765
000130 95 e2 04 bd 5b da 56 be 4f 87 43 be da e4 a9 be
       -0.032442648 -0.20981734 -0.19094585 -0.33182412
000140 d4 31 54 3e a9 f2 27 3e 99 31 05 bd 0a 15 75 be
       0.20722133 0.16401161 -0.032518003 -0.23933807
000150 02 4c 51 be 70 67 12 bf 62 45 be 3e e1 ae d9 be
       -0.20439151 -0.57189083 0.3716231 -0.42516235
000160 0a 4e a9 3e 5f 81 50 be f0 a6 0c 3e 98 01 a7 bd
       0.33067352 -0.20361851 0.13735557 -0.08154601
000170 5f 9a 9a be e7 33 82 be 58 72 c5 be 67 72 06 bf
       -0.301959 -0.25430223 -0.385638 -0.52518314
000180 cd 01 3c be 35 0c 91 be 34 38 8d be b0 29 e0 be
       -0.18360062 -0.28329626 -0.27581942 -0.43781805
000190 4d e0 e8 bd 66 e6 ee 3d a5 5a ae 3b 59 88 e6 be
       -0.11370907 0.11665039 0.0053208643 -0.450259
0001a0 99 34 1f 3e 4e ae 26 bf b0 22 82 3d cf 60 6c be
       0.15547408 -0.6510972 0.06354272 -0.23083805
0001b0 4b 4c a4 be ee d2 0b bf 52 4b 99 be 8e fa 19 3e
       -0.32089457 -0.5461873 -0.29940277 0.15036985
0001c0 19 f1 84 bc 43 1d 5c be 21 85 8f be e3 f7 7a bd
       -0.016228246 -0.21495537 -0.28031257 -0.06127156
0001d0 23 bc e9 be fe 3d 02 3e 2c d1 45 3e 44 5e 34 3e
       -0.4565135 0.1271896 0.19318074 0.17614084
0001e0 d8 b7 80 3e a0 e7 cd be 20 ee 8f 3e 08 11 98 bd
       0.25140262 -0.40215778 0.28111362 -0.074251235
0001f0 12 4e 97 be 7e 7a 65 3e 60 16 2e 3e bc 8d 41 be
       -0.2955175 0.22410008 0.17000723 -0.18901724
000200 4e 16 55 3e cb a1 bb be 6c 8a 13 bd 46 2c 50 3d
       0.2080929 -0.36646876 -0.03602068 0.050823472
000210 66 31 03 be 17 ac 7c 3d ff 0a f9 3d 08 ab 21 be
       -0.12811813 0.061687555 0.121603005 -0.157879
000220 e2 9b b7 3d 4e 13 db bd 30 d6 6e 3d 2d 8a 4b 3d
       0.08965279 -0.106970415 0.058309734 0.04969232
000230 be 86 c9 be 3e 47 38 3e 6b bf bb 3c 4e 17 e8 bd
       -0.39360613 0.17995927 0.022918424 -0.1133257
000240 97 d0 8b bd b8 7a 7e 3e 78 b1 b7 bd d5 6e 3a 3e
       -0.06826895 0.24851501 -0.08969396 0.18206342
000250 0b 24 da be 08 ce 87 3d 0e 24 86 3d 52 1d 5f bd
       -0.42605624 0.06631094 0.06549846 -0.05447132
000260 4e 21 02 bc 7b d3 6f 3e 0a 0e 92 3e ea e2 1d be
       -0.007942511 0.23420517 0.28526336 -0.15418592
000270 63 07 49 bc e8 f8 5b be a3 25 20 be 33 4d 56 bd
       -0.012269828 -0.21481669 -0.15639357 -0.052319717
000280 75 1c bd bc fb 46 86 3d 80 85 97 3d c9 86 b6 bd
       -0.023084858 0.06556507 0.0739851 -0.08912427
000290 15 91 a1 3b 5c cf 50 be cd 86 f2 3d d0 c9 8c 3e
       0.004930625 -0.20391601 0.118421175 0.2749772
0002a0 c3 b0 37 3e b5 55 3b 3e 48 31 f5 3d fc 14 b0 bc
       0.17938523 0.18294413 0.1197229 -0.021494381
0002b0 c3 b9 2c be b1 9c 6a be ec 16 25 3e bc 42 62 3d
       -0.16867737 -0.22911336 0.16122025 0.055239424
0002c0 6c 1a 3f 3d d5 ab 60 3e ba 70 d6 bc 3c 54 4f bd
       0.046656057 0.21940549 -0.0261768 -0.05061744
0002d0 6b 68 d2 3d 46 0a 1a 3e 12 f5 83 3e c6 b2 bc bd
       0.102738224 0.15042982 0.2577291 -0.09213786
0002e0 42 7b 79 3e 3a ce a8 3c b1 fc f6 bd 7b 3f 03 3e
       0.24363425 0.020606149 -0.12059916 0.12817185
0002f0 f1 df c8 3d 69 62 f1 3d b8 a7 81 3c 6a 4e a5 3d
       0.098083384 0.117863484 0.015827045 0.08071597
000300 d1 ef 99 be 71 30 f2 be 62 35 68 bf c1 84 f5 be
       -0.30065778 -0.47302583 -0.90706456 -0.47952846
000310 ef 38 d3 be 2d 8f eb be 1e cd b3 be 44 2d 23 bf
       -0.41254374 -0.46007672 -0.3511743 -0.63740945
000320 71 34 f5 be bf 66 1d bf 59 52 1f bd 80 70 be be
       -0.47891572 -0.61484903 -0.038896892 -0.37195206
000330 33 f5 24 bf 27 f5 14 3e 7b 0a 17 bf 38 46 da be
       -0.64436644 0.14546643 -0.59000367 -0.42631698
000340 e8 04 ad 3e 81 3e 86 be 8b b4 1f bf f3 4f 3a be
       0.33792806 -0.26219562 -0.6238486 -0.1819456
000350 6b e3 87 be 3a a2 a4 be 1e eb 3c bc 4b 89 29 be
       -0.26540694 -0.3215502 -0.011530666 -0.1655628
000360 7f 3b 51 be 58 5f d4 bd ac dd 4a be d5 38 b9 be
       -0.20432852 -0.10369748 -0.19811124 -0.36176172
000370 03 4e a4 be 3b b7 74 be 5c 94 ee bc 30 b2 7a be
       -0.32090768 -0.23898022 -0.029123478 -0.24482036
000380 9c 24 3d be 31 64 ef bd 7c b2 31 be d1 aa 03 3e
       -0.18470997 -0.11689032 -0.17353243 0.1285813
000390 1b 73 28 3d ee 19 9d 3e 2b f2 aa be de 97 c6 bd
       0.041125398 0.30683845 -0.33387884 -0.09696935
0003a0 ce 1b ed 3e da ed 29 be 27 74 2b 3e 49 00 47 be
       0.46310276 -0.1659464 0.16743527 -0.19433703
0003b0 dc ac 94 be 60 a0 ac 3d ee f8 8b 3c e9 f2 d4 be
       -0.2903813 0.084290266 0.017086472 -0.41591576
0003c0 1f d3 0e bd 43 01 1b 3b ff e0 a2 be fe 0d 20 be
       -0.03486931 0.0023651875 -0.31812283 -0.15630338
0003d0 67 86 44 3d e3 af 80 be 0a 07 af 3e 45 73 1a 3f
       0.04797974 -0.2513419 0.34185058 0.6033214
0003e0 3d 50 7e be d3 f3 64 bd 52 d8 fd bd 29 7a 97 3d
       -0.24835296 -0.05589659 -0.123947755 0.07396347
0003f0 db fa 42 3d 23 fc 08 be 1e a5 b8 be 64 ec 2b be
       0.047602516 -0.13377433 -0.36063474 -0.16789395

encoder.dcrnn_cells.0.update.weights_pool f4 [2, 2, 65, 64]
000000 f4 6c c9 3f 7b ea ab 3f 5f fe 18 3f a1 5e 9f be
       1.5736375 1.3430933 0.5976314 -0.31126884
000010 d1 21 e1 3e 28 6b 09 3f 14 f9 3f bf a7 b1 04 bf
       0.43971112 0.5367913 -0.7498944 -0.51833576
000020 a2 ca 14 3f ca ed c3 be 16 c9 8c bf 2a d5 56 be
       0.58121693 -0.38267356 -1.0998867 -0.20979753
000030 10 76 b3 bf d6 1d 15 bf da 30 e1 be e7 a4 04 3f
       -1.4020405 -0.5824865 -0.43982583 0.5181412
000040 c8 3b db 3e 9e 26 df bf 11 66 08 bf c6 51 6d 3d
       0.42819047 -1.743366 -0.5328074 0.057939313
000050 fd 01 1c be 15 65 b7 be 8d 5c b8 3f f9 4b 18 3e
       -0.15235133 -0.35819307 1.4403244 0.14872731
000060 79 82 ac bf 9a b7 4e bf 72 4e 9b be 8f 32 55 be
       -1.3477317 -0.80748904 -0.30333287 -0.20820068
000070 69 a7 48 3f c5 44 15 bf e8 90 dc be 1c b1 f9 3e
       0.7838045 -0.5830806 -0.43079305 0.48767936
000080 91 9b 69 3e e0 d1 e6 be 7e d0 0a bf 1c 0e f2 be
       0.2281325 -0.45081997 -0.54224384 -0.4727639
000090 91 d6 02 3f 05 b8 37 bf 86 2f b4 3e c3 14 d7 be
       0.5110865 -0.71765167 0.35192508 -0.42008027
0000a0 2c f3 a7 be 6d 9c 02 3e 08 05 89 3f 89 63 f6 be
       -0.32802713 0.12754984 1.070466 -0.48122814
0000b0 c6 2c e3 be 7f 71 af bd 6f 6e 15 3f 14 51 ff 3f
       -0.44370097 -0.085665695 0.58371633 1.9946618
0000c0 fb f8 88 3f c1 09 1a 3f c5 3b 05 bf 01 c7 ee be
       1.0700983 0.60171133 -0.52044326 -0.46636203
0000d0 99 cc e8 be 38 1d db bc f8 54 2f bf 81 56 07 bf
       -0.45468596 -0.026747331 -0.6848903 -0.5286637
0000e0 d5 ec cc bf 80 21 a5 3e a2 1e 13 3f 18 cb 8e 3e
       -1.6009775 0.3225212 0.57468617 0.27889323
0000f0 1c bd f1 3e c0 7f bc 3f 55 bb 16 3f eb 47 33 3f
       0.47214592 1.4726486 0.58879596 0.70031613
000100 82 7e 47 3e c8 a0 cf 3d 08 5c dc be e8 80 05 be
       0.19481853 0.101380885 -0.43038964 -0.13037455
000110 ff 3a d3 3d 9b 65 14 3d e2 14 20 3c 2d 22 37 3e
       0.10313987 0.03622971 0.009770604 0.17884131
000120 4c 47 ea bc 01 75 12 be 5c a8 2e 3e d4 a6 36 3e
       -0.02859845 -0.14302446 0.17056412 0.17837077
000130 ed 93 cb bd a2 ec f0 3d cf 28 9b bd f9 52 cd bc
       -0.09940324 0.11763884 -0.07576143 -0.025063979
000140 a4 4c 54 3e 0a 9f ae 3d 61 bf 74 3e 60 bc 7d 3d
       0.20732361 0.08526428 0.2390113 0.061947227
000150 9d c4 c2 3e 34 cf 6d 3c ac f0 86 3c 0e 5d bf 3d
       0.3804063 0.014514733 0.016472183 0.09343921
000160 19 e4 9f bd 7a 6d 1a 3e 9c cf 2f be 32 a6 81 3d
       -0.07807178 0.15080824 -0.1716904 0.06330527
000170 bc 41 6a 3c 40 40 48 3e 76 f8 f9 bd d6 24 42 bc
       0.014297899 0.1955576 -0.12205593 -0.011849603
000180 53 f4 f3 bd 34 bc 1a bd 0c f3 22 3b ea f4 0b 3c
       -0.119118355 -0.03777714 0.0024864106 0.008542279
000190 e2 60 10 3e 90 45 ec bd 38 89 a6 3c 30 87 85 bd
       0.14099458 -0.115367055 0.020329103 -0.065199256
0001a0 dd b4 b7 3c 8f c5 05 3e 4e 80 4e 3e 65 b8 05 be
       0.02242511 0.13063644 0.20166132 -0.13058622
0001b0 71 84 6c bd 65 57 b8 3e 7c 15 5b 3d 59 77 5a 3e
       -0.057743493 0.36004177 0.053487286 0.2133459
0001c0 5f e3 a7 3d e6 a5 db 3d f6 18 7f bd ed d8 aa bb
       0.081976645 0.10725002 -0.062279664 -0.005213848
0001d0 94 b2 c3 bc 88 8e 7c 3e 64 4b 0c be b6 9a dd bd
       -0.023888864 0.24663746 -0.13700634 -0.108205244
0001e0 6f aa 59 3b 9a d6 5f 3d 92 48 4f 3e 25 33 59 3e
       0.0033213159 0.05464802 0.20242527 0.21210916
0001f0 92 ae 51 bc 63 b0 d5 bd 55 96 ce bc 1c 1c 8c 3d
       -0.012797968 -0.10434034 -0.025218168 0.06841299
000200 28 6a b2 3d cc 18 f2 3d de ed b1 3e c1 c8 b6 bd
       0.08711654 0.11821136 0.3475179 -0.089250095
000210 95 92 15 bd d9 78 7f bc 82 21 ca 3c 35 99 b4 bd
       -0.036516745 -0.015592777 0.02467418 -0.088182844
000220 fd df ce bd dd 18 8b bd db ea 05 3e 70 e0 24 be
       -0.10101316 -0.06791852 0.13077872 -0.16101241
000230 35 25 44 be ab 10 23 3d b7 26 6e 3b 05 95 bd 3c
       -0.19154818 0.039810818 0.0036338994 0.023142347
000240 be d1 7b 3e cc fc 47 be 84 c2 a1 bd bc 72 5f 3e
       0.24591729 -0.19530028 -0.07898429 0.21821111
000250 0b 11 c2 bd a1 fa c9 3d 72 16 4f 3e e5 80 40 3e
       -0.09475907 0.09862257 0.20223406 0.1879917
000260 74 b9 81 be 8c 4d 40 3d 21 43 8b be b0 e8 d1 bd
       -0.25336802 0.046948954 -0.27199653 -0.1024946
000270 cd d8 03 3d c0 6b 57 bd d4 56 1d bd 12 8d b4 bc
       0.03218918 -0.052592993 -0.038412884 -0.022039924
000280 fc ab 61 3e ba b9 cb 3d 96 94 53 bc 38 ff 24 3d
       0.22038263 0.09947534 -0.012913844 0.040282458
000290 67 c5 a8 bd 30 7e 98 be 2a bc 3b bd 94 3b 76 bc
       -0.082407765 -0.29783773 -0.045833744 -0.015028853
0002a0 b7 67 a6 be 08 7b 31 3e 12 1e 4f 3e 56 00 16 3e
       -0.32501003 0.17332089 0.20226315 0.14648566
0002b0 f0 b9 83 be a1 11 42 be 6d c0 b5 3d 71 5b a1 3e
       -0.25727797 -0.18952037 0.08874593 0.31515077
0002c0 9d 94 54 3e f1 13 5f 3d da b0 89 3d 76 96 5e bb
       0.20759816 0.054462377 0.06723185 -0.0033964193
0002d0 22 38 c5 3d cf cc 8b 3e 22 0b 10 be 24 09 5b be
       0.09629847 0.27304694 -0.14066747 -0.21390206
0002e0 c2 55 4d be 19 9e 8c 3d 35 23 58 3e e0 3d 84 bd
       -0.20052245 0.06866092 0.2110718 -0.06457114
0002f0 99 1f cf bd 39 20 48 3e a0 eb e2 3e 15 3d e0 3b
       -0.10113449 0.19543542 0.44320393 0.006843219
000300 38 e7 07 3e a4 7e 04 3e a4 0c bc 3d da f7 6b bd
       0.13271797 0.12938935 0.091820985 -0.057609417
000310 b5 d3 37 3c e7 2b 41 3d 96 18 ca 3a e7 7b d2 3d
       0.0112199085 0.04716101 0.0015418704 0.10277539
000320 07 d5 21 ba 85 c1 be bd a0 19 f5 3d 45 cc 02 3d
       -0.0006173406 -0.09314255 0.11967778 0.031933088
000330 50 db 10 be 65 b1 78 3d 90 cb b7 3d c3 ad bc 3c
       -0.14146161 0.06071605 0.08974373 0.023032075
000340 aa 2c 27 3e db c0 9d bc 94 0c 98 bb 81 21 7a 3c
       0.16325632 -0.019257 -0.0046401713 0.015266777
000350 57 3f ca 3c b4 e1 15 3d 66 57 8d 3d a2 ad a2 3d
       0.024688406 0.0365922 0.069014356 0.07943274
000360 d3 6b c5 bd c9 94 22 3e d2 57 02 be 4c d8 8e 3d
       -0.096397065 0.1587707 -0.12728813 0.06974849
000370 d9 8c 18 3b b7 ef 5b 3e 71 a3 d8 bd 8e 68 9e 3c
       0.002327731 0.21478163 -0.10578049 0.019336965
000380 c4 0f 40 3b 20 68 3a bd 58 f5 88 bc d6 69 2e 3d
       0.0029306272 -0.045509458 -0.016718552 0.0425814
000390 12 50 4a 3c af 33 ba bd c6 8c 9f 3d d5 e7 25 bc
       0.012348192 -0.09091889 0.07790522 -0.010126074
0003a0 45 b9 22 be 35 65 22 bd d2 49 39 3d e7 54 a8 3c
       -0.15890987 -0.0396473 0.045236416 0.020548297
0003b0 97 59 7b bc 24 59 5e 3d bf 1f 73 3d 7f 94 37 3d
       -0.015341184 0.05428423 0.059356447 0.04481935
0003c0 a0 09 8c 3d 94 6e 9f 3d 21 06 84 3d a7 f6 83 3d
       0.06837773 0.07784763 0.064464815 0.064435296
0003d0 4d 38 15 bb 89 7c 88 3e a9 a5 33 be d2 55 61 be
       -0.0022769154 0.26657513 -0.17543663 -0.22005394
0003e0 a2 a2 7a 3b 02 62 9d 3c ad 52 17 3e 60 55 2e 3e
       0.003824391 0.019211773 0.14777632 0.17024755
0003f0 99 6a 9e bc be 12 bd bc c5 66 c2 3d a2 b2 53 3d
       -0.01933794 -0.023080226 0.09492258 0.05168403

encoder.dcrnn_cells.0.update.bias_pool f4 [2, 64]
000000 8a a2 e8 be 1f 15 40 3e ce 72 63 3d 2a f4 f7 be
       -0.45436507 0.18758057 0.05552941 -0.4842847
000010 cf b1 af 3e a2 e9 8c 3e be 24 ba be 7d 6f 24 be
       0.34315345 0.27521998 -0.36356157 -0.16058154
000020 13 24 ad 3e 65 e4 7d be d4 9b 9d 3e 0f bc d5 be
       0.33816585 -0.24794157 0.3078295 -0.4174504
000030 79 c6 a3 3c 25 c9 20 bd 75 c3 3d be aa 21 8a 3d
       0.0199921 -0.039254326 -0.18531592 0.06744702
000040 35 da a0 3e 86 ee 6d 3d 99 a2 98 bd ac 51 0d 3f
       0.3141648 0.0580888 -0.07452888 0.55202746
000050 cc eb 04 3c ea cc 29 be ac 62 3d 3d ec e4 81 3d
       0.008112859 -0.16582075 0.04623668 0.063424915
000060 b9 b7 23 be 49 74 30 3e a5 44 aa bb 0a 46 ee be
       -0.15988053 0.1723186 -0.0051961713 -0.4653781
000070 a3 0d ef bb 2f 4d 6d be b1 4b 65 be a2 17 10 3e
       -0.007295327 -0.23173974 -0.22392155 0.14071515
000080 b4 d0 c5 3e 2f 97 32 be 44 52 a4 be 20 4a f1 bc
       0.3863579 -0.17440484 -0.32094014 -0.02945429
000090 d0 5c db 3d 0d a3 70 be 1f 9a 20 3e b3 a0 e8 be
       0.10711062 -0.23499699 0.15683793 -0.45435104
0000a0 49 42 ba be 6a 26 17 3f e7 c5 1a be 8f 60 05 bd
       -0.36378697 0.5904299 -0.15114556 -0.03256279
0000b0 df 13 ad be ec bb b3 be e6 8d 98 3d 37 6f a2 3d
       -0.33804223 -0.3510431 0.0744894 0.07931369
0000c0 59 db 71 3e bc 46 84 3e 76 a2 a1 be 41 b7 8e be
       0.2361883 0.25835216 -0.3156926 -0.27874187
0000d0 98 5a 38 be 9a f9 8a 3e 5e 21 46 be 58 ae 06 bd
       -0.18003309 0.27143556 -0.19348666 -0.03288111
0000e0 2e 5e e4 3d be 23 2f bc 2f 9c 91 be e5 9b aa 3e
       0.11150776 -0.010689674 -0.2843947 0.33322063
0000f0 2f 41 47 3e 6e 95 2a 3d 8c d2 9d 3e b1 d1 58 3e
       0.1945846 0.041646414 0.30824697 0.21173741
000100 c4 78 b4 3f 0f be 8a 3f 0d 0b 98 3f 59 d5 d6 3d
       1.4099355 1.0839251 1.1878372 0.104899116
000110 da be f1 3d 30 8d a7 bc c7 8b a8 be 1a b7 04 bf
       0.1180398 -0.020453066 -0.32919142 -0.5184189
000120 d4 22 8a 3e 00 ed 2a 3d c4 22 90 be 74 44 e6 bc
       0.26979697 0.041729927 -0.28151524 -0.028108813
000130 4e 76 85 bf 3f 12 f3 be d8 bc c1 be 38 8d df 3e
       -1.0426729 -0.47474858 -0.3783939 0.4366243
000140 02 05 b9 be ee 0c 72 3e 79 d2 04 bf 04 3c e0 3c
       -0.36136633 0.23637745 -0.51883656 0.027372368
000150 05 61 9a be 20 41 71 be ba bd 60 bd fa c9 1d 3f
       -0.30152145 -0.2356 -0.054868437 0.61636317
000160 2b 8c 2b bf 58 e0 da be fe 87 73 3e 7b bb 30 be
       -0.67010754 -0.42749286 0.23782346 -0.17259018
000170 68 b7 cf 3e 16 df b1 be 71 d9 9b 3d a1 4b 08 3e
       0.40569615 -0.34740514 0.07609833 0.133101
000180 c6 57 cf 3e d0 2f 3b be 5a d5 37 be 0c 67 36 be
       0.40496653 -0.18279958 -0.17952481 -0.17812747
000190 a0 48 0c be 2f f9 f2 3d d9 4c 39 bd fb 9d 06 3e
       -0.13699579 0.11863934 -0.045239303 0.13146202
0001a0 e2 6c 28 3e b9 17 42 bc 47 40 66 be 7b 6c 42 be
       0.16447785 -0.011846476 -0.22485457 -0.18986695
0001b0 15 9f a4 be a7 e7 b7 be d7 f6 ba 3c 6a 35 76 3c
       -0.3215262 -0.35918924 0.02282278 0.015027383
0001c0 5b 19 35 be 1e 14 8e bd 5f 28 91 3d 65 91 2b be
       -0.17685454 -0.06937431 0.07087778 -0.16754682
0001d0 4b f4 9a be 9a 50 5a 3e fb f3 24 3e 54 7e 92 bd
       -0.30264506 0.2131981 0.16108696 -0.071530014
0001e0 8b 62 4d 3d b8 f7 42 3e ce 16 cc 3e f5 c4 f4 3d
       0.050142806 0.1903981 0.3986115 0.11951629
0001f0 f0 58 2b 3e a9 6c d0 be b8 ec f7 3e 38 a1 de bd
       0.16733146 -0.407079 0.4842279 -0.10870594

encoder.dcrnn_cells.1.gate.weights_pool f4 [2, 2, 128, 128]
000000 b6 b2 9b 3e 56 29 94 bd b2 26 3f bd 62 ae 37 3f
       0.30409783 -0.07234447 -0.046667762 0.7175046
000010 71 8c 34 be 48 34 b8 be 4a 01 e7 bd d3 63 1a 3e
       -0.17631699 -0.35977387 -0.11279543 0.15077142
000020 15 20 8a 3e 65 59 99 bc fb 58 1b 3f 6f 66 d6 bc
       0.26977602 -0.018719384 0.6068265 -0.026171891
000030 5e 90 d9 3c 33 53 79 3d ab 92 09 3f 6e af d3 be
       0.026558097 0.06087036 0.5373942 -0.4134478
000040 79 d3 5e 3e e2 e6 4d 3d 26 f9 cd be d3 7d 00 be
       0.21760358 0.050269015 -0.40229148 -0.12547998
000050 a5 05 bd bd 65 41 6a 3e 78 8c b3 3e f1 26 cf 3e
       -0.09229592 0.22876509 0.35068107 0.40459397
000060 22 c6 86 be f1 83 6a 3e 9e 84 00 be 20 a8 b7 bb
       -0.26323038 0.22901894 -0.1255059 -0.005604759
000070 bc 4e 64 3e 16 74 cc 3d a1 e9 d3 bd 2d e3 f5 be
       0.2229566 0.09983079 -0.103472956 -0.48024884
000080 b2 4f 24 3d 99 78 16 3f 13 21 a4 be 6a 18 ae be
       0.040115066 0.5877777 -0.32056484 -0.34003
000090 5c 06 98 3e 74 30 bc 3d 5c 76 3e be b5 b6 40 3f
       0.29692352 0.09188929 -0.18599838 0.7527879
0000a0 f6 42 b9 be a0 9e cf 3f 5b 05 fe 3e ee ae 20 3e
       -0.361839 1.6220284 0.4961346 0.1569173
0000b0 0d 69 64 3e 72 36 70 3e 40 53 ed 3e fa 64 7d be
       0.22305699 0.23458269 0.46352577 -0.24745551
0000c0 d4 6f 81 be b7 90 a0 3e 9a dc 89 3e b8 40 4a 3d
       -0.2528063 0.3136041 0.26926118 0.049378127
0000d0 4f ec 75 be ae 28 59 3e da 16 2c 3d bb 4c 08 be
       -0.24015926 0.21206924 0.04201398 -0.1331052
0000e0 79 63 21 3f 7d 86 d0 3d c1 c0 9a bd f6 fb 1c bf
       0.6304241 0.101819016 -0.07556296 -0.6132196
0000f0 7e 55 1c bd 70 21 22 bf d1 4a 9b 3e b3 96 50 bd
       -0.03816747 -0.6333227 0.30330518 -0.050924968
000100 8a c0 10 bf e8 94 ff be 7f 0b 93 be a3 b7 b8 bf
       -0.5654379 -0.49918294 -0.28719708 -1.4431041
000110 d4 55 a8 be 66 b7 7b 3e 6f df 36 bf 1e 3e e8 3e
       -0.32877982 0.2458168 -0.7143468 0.45359892
000120 18 67 da bd fb eb a4 bd db 70 db be 53 b7 87 3e
       -0.10664195 -0.08052822 -0.4285954 0.26507053
000130 a9 43 8f bf 24 b7 ed 3d 58 05 f0 bd bf 6f f8 be
       -1.1192523 0.11607197 -0.11719769 -0.48522756
000140 8a c2 10 3f 32 33 d9 3e 2d 15 e1 be a3 48 f2 3e
       0.56546843 0.4242187 -0.43961468 0.47321042
000150 e9 60 02 3d 7b 46 14 be f4 82 8c be 8b 6c ba bc
       0.031830702 -0.14480011 -0.2744366 -0.022756835
000160 b8 6c c1 bd 20 be 97 bf 9f d7 e8 3c 2e 66 14 3f
       -0.094445646 -1.1854897 0.028423129 0.57968414
000170 0d 19 cd bd e8 56 19 3f 4b 10 cf be d7 89 44 3d
       -0.10014544 0.59898233 -0.40442118 0.047983017
000180 d7 83 6c 3d 67 94 09 bf a6 f7 37 be 54 89 f1 3e
       0.05774292 -0.5374207 -0.17965564 0.47175086
000190 17 dc 02 3f 3a a4 51 be f6 5e 3a bf 61 f7 76 be
       0.5111708 -0.20472804 -0.7280115 -0.24117805
0001a0 f7 cc 68 3d 55 f6 0c 3e 06 7d 4d 3f 74 d4 97 be
       0.056836095 0.13765843 0.80268896 -0.29654276
0001b0 12 34 d2 bf ec 0c 25 3d 0e 08 16 3f 07 1a 35 bf
       -1.6422141 0.040295526 0.5860604 -0.7074284
0001c0 b5 47 75 be 71 c3 35 3e ba 0d 44 bd ed f3 02 bd
       -0.23953135 0.17750336 -0.047864653 -0.031970907
0001d0 15 f0 88 bf c3 c0 66 3e ad da dc bf 60 03 d4 bf
       -1.0698267 0.2253447 -1.7254235 -1.656353
0001e0 68 09 90 be 7b 8f ab 3d a7 88 b1 bf 9a 3f 06 3d
       -0.28132176 0.08376976 -1.3869828 0.0327755
0001f0 c7 e5 82 bf 23 bb 93 be 69 37 20 3f fa b3 4d 3d
       -1.0226372 -0.2885371 0.6258455 0.050220467
000200 55 6e 0a bd 7f 53 ff 3d ff 15 f1 3d 4a 3f 7e 3e
       -0.033796627 0.124670975 0.117717735 0.2482883
000210 f9 eb d8 3c e8 0e 69 bc e9 d3 57 bd 20 36 61 3e
       0.026479708 -0.014224745 -0.052692328 0.21993303
000220 7d aa a2 3d 90 4d 20 bf 05 db fc 3e 09 7d 93 be
       0.07942674 -0.6261835 0.4938585 -0.28806332
000230 89 62 05 be 35 94 e4 bd 08 62 0f 3e 3d a1 3f be
       -0.1302587 -0.11161081 0.1400224 -0.18713851
000240 40 13 6b 3f 15 13 f0 3b 27 f3 bf be 68 a5 b5 3e
       0.9182625 0.0073264935 -0.37490198 0.35477757
000250 a8 af 77 3a 81 31 8c 3e 4e 8b b6 3d a5 7b 8a bd
       0.0009448477 0.27381518 0.08913289 -0.067618646
000260 c8 32 ae be 0d 9e 81 bf 32 79 20 bd f1 5b 83 3e
       -0.34023118 -1.0126358 -0.03917808 0.25656083
000270 4c 2d 95 3e 3c cb 34 3e 78 33 bf 3c c0 a1 24 bc
       0.2913612 0.17655653 0.023339972 -0.01004833
000280 95 19 92 bd 55 2a dc 3e 2d 0b 0a bf 71 02 54 be
       -0.07133786 0.43001047 -0.539233 -0.20704056
000290 cf 8a 9d 3d c0 89 53 bd 39 84 3a be d1 50 ed 3c
       0.07692491 -0.05164504 -0.18214501 0.0289692
0002a0 b2 a0 da bd b8 a2 c7 3e f6 58 86 be e6 26 d1 3e
       -0.106751814 0.38991332 -0.26239747 0.4084999
0002b0 7f d9 07 3d 8b 50 5d 3f fd 10 22 3e 02 00 c2 3f
       0.033166405 0.86451024 0.15826793 1.5156252
0002c0 cb a3 81 be 21 84 ef 3e b0 14 aa 3e 8f 42 5f 3d
       -0.25320277 0.46780494 0.33218908 0.054506835
0002d0 2f 1c b4 3c 2b 31 56 3e 31 5d be bd 1d c5 ff be
       0.021986095 0.20917194 -0.092951186 -0.49955073
0002e0 b2 fa a1 3e e9 1f 27 3e 26 89 2f be 52 cc ed bd
       0.31636578 0.16320767 -0.17142162 -0.11611237
0002f0 37 98 d5 3c e9 a3 7d 3d d4 8e 62 3c 7e 0b 1a 3d
       0.026073558 0.061923895 0.013827998 0.037608616
000300 d0 0c 78 bc 0f a1 36 be a1 e9 81 3f 0a e0 09 bf
       -0.0151397735 -0.17834876 1.0149423 -0.5385748
000310 6c 3f f0 be 4a 57 de 3c c7 40 29 bd 3a 5f 49 bf
       -0.46923387 0.027141232 -0.041321542 -0.7866093
000320 0f 9a f3 be 3e 13 ea bf b9 56 9e be e7 a7 13 bf
       -0.47578475 -1.8287122 -0.3092554 -0.57678074
000330 81 be 0e 3f d4 cd 10 3e 09 6b 4c 3d 4a 28 84 be
       0.55759436 0.14141017 0.049906764 -0.25811988
000340 72 45 de be 1c 49 72 bf 26 0a eb bd 42 d5 1c bf
       -0.43412358 -0.94642806 -0.11476545 -0.61262906
000350 7a 41 13 be fb dd 89 3d 63 6c aa be 7a 85 31 be
       -0.14380446 0.067317925 -0.33285818 -0.17336074
000360 81 92 12 bf 95 e3 e2 3d 29 9a f8 bc 6c 08 b6 be
       -0.572548 0.11078564 -0.030346947 -0.355533
000370 80 8a 2a bd 01 8d 83 bf 2e 22 e7 be 32 9a 94 bf
       -0.04163599 -1.0277406 -0.45143265 -1.1609557
000380 08 b6 c7 3e ce 94 1c be 97 50 b9 bf 3e 52 10 bf
       0.39006066 -0.1529114 -1.4477719 -0.5637549
000390 16 a8 68 bf 9b 68 87 bd 70 73 9b 3c 2b 00 2d bd
       -0.9088148 -0.06611749 0.018975943 -0.04223649
0003a0 e0 f1 99 bf 59 79 b3 3e a3 aa d9 3d 0d 21 82 bf
       -1.2026939 0.35053518 0.106282495 -1.0166336
0003b0 ec d8 86 be 19 99 2b 3d dd 29 b6 be 9c 7b d4 be
       -0.26337373 0.041894052 -0.35578814 -0.41500556
0003c0 0d 8f f2 3c 9e 2b 89 3d 98 2f a6 be cc cf 92 3e
       0.029609228 0.066977724 -0.32458186 0.2867416
0003d0 f8 f7 81 be 54 5c 35 3f 08 44 88 bf bf c3 36 3e
       -0.25384498 0.70844007 -1.0645761 0.17848109
0003e0 b9 18 76 3d 1d 7b 9d 3f c7 4f 23 bf 16 cb 8c bf
       0.06008217 1.2303196 -0.63793606 -1.0999477
0003f0 9a 17 44 be 23 35 ae bf 99 46 6e be 1c ae 72 bd
       -0.19149628 -1.3609966 -0.23269118 -0.059248075

encoder.dcrnn_cells.1.gate.bias_pool f4 [2, 128]
000000 c9 7a e1 bd 41 3b c7 3e 21 69 80 3e 0e cb 0b 3e
       -0.110097475 0.38912395 0.25080207 0.13651678
000010 3f 3c 36 3c 55 8c 8e 3e 51 e7 ae bd 8c 89 b8 bd
       0.011122762 0.2784144 -0.08540214 -0.0901061
000020 b3 10 bd bc bc 29 4c be b6 c3 e6 3e 12 46 47 3e
       -0.023079252 -0.19937795 0.4507119 0.19460323
000030 89 13 b1 3e 37 02 69 3e a9 64 ea ba 96 52 2c 3e
       0.34585217 0.22754751 -0.0017882782 0.16828379
000040 0b fe ef 3d 47 58 17 3d ed 7d 74 be 18 bd 75 3c
       0.11718377 0.036949422 -0.23876162 0.014998697
000050 4c 5b 03 3e e1 f1 3a be 2a 01 49 3e ee 7f 1a be
       0.12827796 -0.18256332 0.1962935 -0.15087864
000060 f3 d1 66 3d 01 8a 7c be 2c 2d 2e bd 7f a4 80 bd
       0.056352567 -0.2466202 -0.042523548 -0.06281375
000070 37 6d 03 be 72 11 e7 3e e8 46 ed bc 49 b4 84 3e
       -0.12834631 0.45130497 -0.028964475 0.25918797
000080 3f 4c 0d 3e 7c 93 16 3f 9e 0e 8e be 46 d7 ff 3e
       0.13798617 0.58818793 -0.27745527 0.49968928
000090 ea 11 81 3e d9 f6 a2 bd ee ae 2f 3e 0d 29 5d be
       0.2520898 -0.07957239 0.17156574 -0.21597691
0000a0 de b9 5a 3e a5 30 01 3f 24 6f 2b 3e ca ee 91 bd
       0.21359965 0.5046485 0.16741616 -0.071256235
0000b0 a4 81 c9 bd 7f ea d8 bc 5e d9 9c 3c eb 1c 30 3d
       -0.0983918 -0.026479004 0.019146618 0.04299633
0000c0 21 96 13 3e 3a 53 26 be 67 57 bc 3d 8d 1e 00 3e
       0.14412738 -0.16242686 0.09196358 0.12511654
0000d0 cb f8 11 3d 81 b3 9c 3d 18 ac a6 bd c8 25 85 3d
       0.035637658 0.07651425 -0.08138293 0.06501347
0000e0 53 c3 fe 3d 0e b6 4f 3e 80 37 1a be 18 9b 2b bd
       0.12439599 0.20284292 -0.15060234 -0.041895956
0000f0 aa 4e 66 3e c2 b6 8a 3d 89 2b ef 3d d8 a8 00 bd
       0.22490945 0.067731395 0.116782255 -0.031411022
000100 03 d3 a1 bf e3 59 c3 be d8 9a 80 be dd 9a 51 bf
       -1.2642521 -0.38154516 -0.25118136 -0.8187693
000110 0c 05 90 be 45 d1 b1 3a 6b 14 8b bc 33 ab 05 3f
       -0.2812885 0.0013566396 -0.01697751 0.52214354
000120 8e db 25 3f 3a a5 ac 3e 54 37 33 bc 31 33 ec 3e
       0.6478814 0.33719808 -0.010938484 0.46132806
000130 59 6b d5 be 70 5c 73 3e 99 92 6c 3d 60 d4 83 be
       -0.41683462 0.23765731 0.057756994 -0.25747967
000140 1a 76 7b 3f 2c 04 6e 3e 91 09 39 3e f5 b9 14 3e
       0.98227084 0.23243779 0.18070056 0.14524062
000150 fe 8d da 3d 94 e4 e8 3c aa 70 a9 bd 5f eb b6 bd
       0.10671614 0.028429307 -0.08273442 -0.08931612
000160 f8 ef 17 3f 00 df d1 3f 7e 96 55 3e c3 3b c4 3f
       0.5935054 1.6396179 0.2085819 1.5330738
000170 e3 8e b5 3e 22 89 75 3f 94 c1 8d be a9 87 82 be
       0.35460576 0.95912373 -0.2768675 -0.25494125
000180 da 4f ff 3e 2e e2 eb 3e 7d f5 e8 be a3 48 cd 3f
       0.4986561 0.46071 -0.45499793 1.6037792
000190 25 57 d2 3f 93 da 13 c0 7f 75 15 c0 f1 a3 1f bf
       1.6432844 -2.3102157 -2.3352964 -0.6235953
0001a0 3f 2d 45 be 6f ff 9c bf fc c5 20 40 f5 70 39 3f
       -0.19255541 -1.2265452 2.512084 0.72437984
0001b0 53 29 80 3e 0f 64 a4 3d e2 15 0b 40 16 b6 3c bf
       0.25031528 0.08026897 2.1732106 -0.7371534
0001c0 2c 51 5a 3e 2b 15 a7 3c ea 22 90 3d aa b2 15 3f
       0.21320027 0.020395836 0.07037909 0.58475745
0001d0 60 d1 5d be 21 3a 9a 3f 2a 6b aa bd df e7 ab bf
       -0.21661901 1.204899 -0.08321221 -1.3430136
0001e0 c5 2a c9 bf 1e 45 2f bf 97 74 88 3f 5b 33 e0 3d
       -1.5716177 -0.6846484 1.066058 0.10947295
0001f0 4a ff 00 bf 1b a2 e6 be 10 70 11 40 f0 9f bc bd
       -0.5038954 -0.45045552 2.2724648 -0.09210193
000200 19 54 0f be d6 ff b4 bc 18 2c e6 3d b5 01 31 3e
       -0.13996924 -0.022094648 0.11238879 0.17285807
000210 27 57 c4 bd 58 30 98 be b2 7f 9d be a2 e2 9a 3e
       -0.095869355 -0.29724383 -0.30761486 0.30251032
000220 31 bc d0 3e 47 fa 50 be 35 1c af be f9 ba 16 bd
       0.4076858 -0.20407973 -0.34201208 -0.036799405
000230 8a 91 20 3e 18 25 12 3e 00 89 66 be 4c 0c 2b 3e
       0.15680519 0.14271963 -0.22513199 0.1670391
000240 8b 2b c4 3e b1 ea cf bd 06 35 2d 3e 1a 01 69 bc
       0.3831447 -0.10152186 0.16914758 -0.014221454
000250 65 0b 75 3e e4 4c b5 be 73 49 f9 be 37 18 79 3e
       0.23930128 -0.35410225 -0.4868885 0.24325643
000260 f4 38 fd bc 12 fa 37 3e e9 d6 ee 3d b3 63 42 bf
       -0.030910946 0.17966488 0.116620846 -0.7593338
000270 4e 12 b4 be 20 a3 a5 bd 41 8d 2f be e1 9e c7 3c
       -0.35170215 -0.08087754 -0.17143728 0.024367752
000280 9b 5c 86 be eb b7 1b bf 2b c0 08 be b6 19 81 be
       -0.26242527 -0.6082751 -0.13354556 -0.25214928
000290 3c 40 09 bf ac 85 bb be f5 1f 77 bd f8 16 1f be
       -0.5361364 -0.3662542 -0.06033321 -0.15536106
0002a0 64 18 8a 3d 16 f6 fa be 69 80 07 bc 08 e5 f3 3d
       0.067429334 -0.49015874 -0.008270361 0.119089186
0002b0 3c 4c 9d 3e 07 5e 02 3f 92 85 87 bd 26 fd 0e 3f
       0.30722225 0.50924724 -0.066172734 0.55855024
0002c0 9b eb 48 be 88 52 fe be 69 13 f6 3e 6c a0 a7 be
       -0.19621126 -0.4967234 0.48061684 -0.3273958
0002d0 1d 75 a2 3d b7 bc 16 3f a5 b5 20 3f 41 57 86 bd
       0.07932494 0.58881706 0.6277717 -0.06559611
0002e0 95 b5 b5 bd 5f fc 0f bd 03 82 dc be 3a 90 f5 bd
       -0.08872525 -0.03515279 -0.4306794 -0.119904
0002f0 4c d3 bd be 36 21 51 be 38 7c d7 bd 72 9b 6d 3d
       -0.3707527 -0.20422825 -0.1052174 0.058009572
000300 59 43 08 bf e4 35 0f be 4a 49 90 bf 80 8c 9e 3e
       -0.53227764 -0.13985401 -1.1272366 0.30966568
000310 d8 a6 5e bd ca 1b 31 3e 71 65 44 bf bd 2a b8 bf
       -0.054358333 0.17295757 -0.7671729 -1.4388043
000320 4a 86 43 be f6 86 05 3d 5b cc ae be 54 1b ce 3e
       -0.19094196 0.032599412 -0.34140286 0.40255225
000330 50 04 da bc a8 65 28 3e 5c 99 21 3f 11 79 04 bf
       -0.026613384 0.16445029 0.6312463 -0.5174723
000340 68 84 5b bf 2c 2e c5 be 27 18 da 3d 68 fb 00 bf
       -0.8574891 -0.3851179 0.10649138 -0.50383615
000350 47 c8 6a bf 74 47 b7 3d e7 c0 9a be 27 76 9a 3e
       -0.9171185 0.089491755 -0.30225298 0.30168268
000360 85 bb 96 3f 4b f6 1c bf 08 07 23 3f 88 5e c3 bf
       1.1775976 -0.61313313 0.63682604 -1.5263224
000370 fa 14 ad 3e e9 93 99 bf 43 54 f4 3d 0c fd 3b bd
       0.33805066 -1.1998264 0.11930134 -0.04589562
000380 4d e2 ac bf d5 a7 bd be 74 31 da be ec 38 da bf
       -1.3506562 -0.37042108 -0.42615855 -1.7048621
000390 8b cb e9 bf 83 c0 06 40 d5 42 81 3f 1d d6 15 3f
       -1.8265241 2.1055 1.009852 0.58529836
0003a0 a1 f3 0a bf c9 12 a4 3f bd 28 3f c0 1e cd 2b 3e
       -0.54278 1.2818233 -2.9868615 0.16777465
0003b0 f8 e4 e4 be a1 7a 93 3d 48 f4 ae bf d5 e1 58 3e
       -0.4470594 0.07201124 -1.3668299 0.21179898
0003c0 3e c5 42 3e f1 95 ae 3d e9 35 83 bf 32 c5 88 bf
       0.19020554 0.08524693 -1.0250827 -1.0685179
0003d0 d2 9d 60 be f2 3b d6 bf 6f 12 72 be e8 96 09 be
       -0.21935204 -1.6737044 -0.23639844 -0.13436472
0003e0 0c 5e 0a 40 7c f5 a6 3f c2 fb ab 3d 27 26 fc 3d
       2.1619902 1.3043666 0.08397628 0.123119645
0003f0 ee fe be be 76 16 b5 3d 71 d4 17 c0 5d e0 14 3f
       -0.3730387 0.08842175 -2.3723414 0.5815485
