CQ/result/P7_Resullt/DAYS/2dim/1/best_model.pth (torch_old, 603202 bytes, 11 tensors)

node_embeddings f4 [228, 2]
0.36917955 0.13121425 0.43293548 0.12762024 0.34870294 0.24092507 0.27225024 0.1736791
0.24069853 0.1789563 0.30473828 0.13019465 0.33825088 0.1236772 0.400648 0.09307167
-0.40327936 0.102355525 0.27388966 0.07337881 0.26058882 0.17319185 0.4116777 0.17244765
0.3559224 0.15358467 0.2060379 0.2395914 0.30243504 0.1094631 -0.4140554 0.13417007
0.18155634 0.2114734 0.2533033 0.24040264 0.3989002 0.19301824 0.24961396 0.35953376
0.26836655 0.24071108 0.33480898 0.20415752 0.16043611 0.2979549 0.30509752 -0.09094094
0.31333622 0.31149465 0.27416524 0.25648478 0.15166533 0.39976844 0.30021077 0.3256958
0.285996 0.18390681 -0.37320465 0.17763385 0.38596785 0.1436715 0.25441805 0.27162
0.30499208 0.023752792 0.38964477 0.04321912 0.37798032 0.16817082 0.2281087 0.22217907
0.31311354 0.15886879 0.3650397 0.30602825 0.19608301 0.34682968 0.5028509 0.22348204
0.22603671 0.27998942 0.3745342 0.33006415 0.14594607 0.37629613 0.3139364 0.0066080405
0.25578848 0.21245122 0.22193688 0.27664164 0.25828892 0.25690445 0.1354803 0.3855403
0.17115483 0.41669086 0.1636304 0.38492003 0.24159124 0.21456592 0.3009552 0.043129012
0.45735708 0.10421899 0.37266365 0.2801706 0.35920405 0.28784803 0.37495878 0.055210225
0.2329187 0.33607572 0.2129857 0.29542345 0.36935914 0.16810209 0.42852274 -0.0022133107
0.4584184 -0.009567935 0.4295316 0.24574962 0.30787495 -0.049969006 0.24278097 0.10932126
0.41820452 0.12062082 0.31609705 -0.04325626 0.22199494 0.23748285 0.37880147 0.33283415
0.3128918 -0.058189265 0.4138142 0.19393612 0.3198304 0.29435238 0.3791686 0.07785824
0.31159943 0.01995866 0.2411161 0.15370488 0.34607938 0.29913503 0.34740925 0.1894412
0.23570281 0.26712438 0.3458668 0.20882961 0.31016523 -0.014982426 0.30688405 0.33295873
0.28475747 0.2529008 0.33620855 0.22077326 0.47916502 0.25033003 0.3446384 0.17158894
0.35472277 0.18154873 0.42437062 0.18392345 0.40614027 -0.1341847 0.36655635 0.2748469
0.31119338 -0.01520524 -0.43326712 0.093595125 0.3380283 0.15724227 0.23367654 0.12096615
0.264508 0.21017554 -0.45112708 0.18524402 0.31606212 0.3109326 0.41324225 0.22773184
0.43153462 0.19635502 0.30938452 -0.019413874 0.30972975 0.13964981 0.36214757 0.30868608
0.2777958 0.21191716 0.34299657 0.3157184 0.3374963 0.21753994 0.35628802 0.33158547
0.40704536 0.25223017 0.36607996 0.028499527 0.44239876 0.22463734 0.25918475 0.24489722
0.15649214 0.29608983 0.32887712 0.22318281 0.2983434 0.07936367 0.3265656 0.05907825
0.40649554 0.20124896 0.3724118 0.08732185 0.5180533 -0.08498531 0.28176096 0.22473182
0.3532262 0.1844594 0.47526178 -0.008280749 0.5378606 -0.08194189 -0.41192788 0.21517117
0.38490373 0.20278554 0.45049053 0.21859747 0.46891937 0.22694026 0.26786825 0.23487017
0.27881524 0.17492907 -0.44242027 0.20316361 0.46079528 0.20989579 0.40377146 0.19693159
00000000: 1a05 bd3e 075d 063e b8a9 dd3e e1ae 023e
00000010: 3189 b23e 10b5 763e 6264 8b3e efd8 313e
00000020: ad79 763e 5240 373e a806 9c3e bf51 053e
00000030: 382f ad3e 794a fd3d bc21 cd3e 5c9c be3d
00000040: a27a cebe c69f d13d 443b 8c3e a147 963d
00000050: e66b 853e 3459 313e 6bc7 d23e 1e96 303e
00000060: 763b b63e 4d45 1d3e 99fb 523e 7357 753e
00000070: c4d8 9a3e 312e e03d 12ff d3be e163 093e
00000080: e8e9 393e 7c8c 583e f8b0 813e 1c2c 763e
00000090: a63c cc3e 93a6 453e cd9a 7f3e cf14 b83e
000000a0: 5767 893e f77c 763e 156c ab3e ab0e 513e
000000b0: 5d49 243e 8b8d 983e be35 9c3e 3e3f babd
000000c0: 9b6d a03e 3a7c 9f3e 635f 8c3e f951 833e
000000d0: 284e 1b3e 73ae cc3e 3ab5 993e 9ac1 a63e
000000e0: 116e 923e 1152 3c3e ae14 bfbe a6e5 353e
000000f0: 949d c53e 9f1e 133e 1543 823e c711 8b3e
00000100: ec27 9c3e 3795 c23c 857f c73e 8806 313d
00000110: a386 c13e f934 2c3e 5495 693e e982 633e
00000120: 6b50 a03e 80ae 223e 7ce6 ba3e bcaf 9c3e
00000130: fcc9 483e a993 b13e d6ba 003f 7ad8 643e
00000140: 2b76 673e c65a 8f3e f2c2 bf3e 2bfe a83e
00000150: e372 153e e3a9 c03e 46bc a03e 4388 d83b
00000160: b5f6 823e d08c 593e 6c43 633e f9a3 8d3e
00000170: 723e 843e fb88 833e 59bb 0a3e 8a65 c53e
00000180: 3643 2f3e 8158 d53e ba8e 273e 3d14 c53e
00000190: b263 773e 2bb7 5b3e cd16 9a3e 0ca8 303d
000001a0: b52a ea3e c470 d53d c5cd be3e 8572 8f3e
000001b0: 98e9 b73e d160 933e 99fa bf3e 1e24 623d
000001c0: 3d82 6e3e 1e12 ac3e ec18 5a3e be41 973e
000001d0: a41c bd3e f422 2c3e 5567 db3e 310d 11bb
000001e0: d1b5 ea3e d4c2 1cbc 91eb db3e caa5 7b3e
000001f0: c9a1 9d3e 4dac 4cbd 939b 783e d3e3 df3d
00000200: e71e d63e 0c08 f73d 79d7 a13e 7a2d 31bd
00000210: a452 633e b42e 733e 44f2 c13e 3d69 aa3e
00000220: 5b33 a03e de57 6ebd 74df d33e 3197 463e
00000230: cfc0 a33e 5bb5 963e 6322 c23e 2474 9f3d
00000240: f689 9f3e 5880 a33c 24e7 763e d064 1d3e
00000250: 5131 b13e 3a28 993e a0df b13e e0fc 413e
00000260: 145c 713e 87c4 883e 7415 b13e 6ed7 553e
00000270: facd 9e3e d978 75bc e81f 9d3e 9179 aa3e
00000280: bbcb 913e 377c 813e 8723 ac3e 6312 623e
00000290: 1e55 f53e 422b 803e 7274 b03e 03b5 2f3e
000002a0: 399e b53e e9e7 393e 1b47 d93e 6e56 3c3e
000002b0: 9ef1 cf3e b767 09be 46ad bb3e bcb8 8c3e
000002c0: bd54 9f3e 661f 79bc 30d5 ddbe cdae bf3d
000002d0: 0c12 ad3e 1e04 213e e748 6f3e 1abd f73d
000002e0: 986d 873e 4238 573e 21fa e6be 9cb0 3d3e
000002f0: e5d2 a13e 8f32 9f3e 7d94 d33e 8932 693e
00000300: 1bf2 dc3e 4a11 493e a667 9e3e d809 9fbc
00000310: e694 9e3e 5c00 0f3e 686b b93e 1a0c 9e3e
00000320: 403b 8e3e d000 593e 3f9d af3e d8a5 a13e
00000330: 51cc ac3e cac2 5e3e 626b b63e 92c5 a93e
00000340: 4068 d03e 5024 813e d56e bb3e d777 e93c
00000350: 1782 e23e 5507 663e ddb3 843e 56c6 7a3e
00000360: 7a3f 203e 1699 973e 9562 a83e 098a 643e
00000370: 77c0 983e 6b89 a23d 9b33 a73e 09fc 713d
00000380: 2f20 d03e 3514 4e3e c2ac be3e ccd5 b23d
00000390: 249f 043f c70c aebd f942 903e 1920 663e
000003a0: 11da b43e ede2 3c3e 8355 f33e fbab 07bc
000003b0: 3bb1 093f 26d1 a7bd 36e8 d2be d555 5c3e
000003c0: 1a12 c53e 03a7 4f3e b2a6 e63e 04d8 5f3e
000003d0: 3316 f03e 0763 683e 0726 893e ce81 703e
000003e0: dfc0 8e3e 9b20 333e e984 e2be 1f0a 503e
000003f0: 5ced eb3e ecee 563e 22bb ce3e 6fa8 493e

encoder.dcrnn_cells.0.gate.weights_pool f4 [2, 2, 65, 128]
-0.1158575 -0.6704922 -0.24085413 -0.38426548 -0.18667093 -0.17761292 -0.21823041 0.18410437
-0.85752463 0.5401339 -0.4138675 0.18850559 0.00070037285 -0.16759835 -0.33340365 0.21056125
-0.12663823 -0.35222936 -0.9175108 -0.08814211 0.17620942 -0.54985756 0.29628712 -1.6607373
0.3314663 0.28052402 -0.5803694 -0.46694943 -0.3233047 -0.16415107 0.4250066 0.09180928
-0.8738146 -0.10774432 -0.78605413 -0.003171896 0.05700607 -0.29728135 -0.050664276 0.15621081
0.13985956 -0.32829842 0.38278368 -0.22017805 0.45385507 0.2109934 0.7435873 -0.4315382
0.3527366 -0.69995195 0.26929417 0.36100525 -0.6798007 0.2874746 -0.09764951 -0.1591933
-0.15446942 0.36142948 -0.621901 0.25921196 -0.39494085 0.31210852 -0.41816443 -0.2554177
-0.2979825 0.1391159 -0.42108923 -0.005334607 -0.30063725 -0.17815728 0.6029506 -0.22198145
0.21889666 0.015060738 0.24013533 -0.19408245 -0.21236128 -0.51729786 0.7328477 0.38512126
-0.3339478 0.17090927 0.25672692 0.15261419 -0.1753055 0.188487 -0.14345266 -0.9264414
0.04954897 -0.10924656 0.6850579 0.18893225 -0.32356748 -0.44935086 -0.04567009 0.36549088
0.22678727 0.3536424 0.18181348 -0.21559252 -0.3143982 -0.28522068 -0.24232817 -0.030518815
-0.4306347 0.7214394 -0.09245077 -0.33759156 -0.010484127 -0.20442472 -0.017585598 0.16451985
0.04139644 0.27555102 -0.13999915 -0.13027734 0.23584908 -0.06668458 -0.4182769 -0.3840301
-0.33785677 -0.14027128 0.18242201 0.08894691 0.17196007 -0.18947168 0.22770989 -0.17880659
-0.09250155 0.053355567 -0.118254535 -0.106010385 -0.11951218 -0.09606297 0.10907951 -0.12296499
0.10243172 -0.10348722 -0.102854036 -0.11794222 -0.09899692 -0.09757212 -0.01449854 -0.17583959
-0.10426308 -0.08477607 0.08090169 0.10708088 -0.10781246 0.19848835 -0.10958675 0.018626194
-0.1633252 -0.13690966 0.11713279 0.26263574 -0.1579676 -0.11745577 -0.17966847 0.17679831
0.07692574 0.16655628 0.08913162 -0.11521618 -0.12287705 -0.13286775 -0.10713691 -0.1398271
-0.08473869 0.049789466 -0.14507605 -0.11103129 -0.103720106 -0.12545042 -0.13925001 -0.10923255
-0.10613454 0.084318556 -0.1237571 -0.11531808 0.12451093 -0.1691896 -0.10187409 -0.10551369
-0.099735714 -0.13557836 0.1263343 0.17687115 -0.09072965 -0.13459253 0.19607462 -0.13285653
-0.07117691 0.5253482 0.0036313708 -0.016797222 -0.06765718 -0.039066546 0.38684615 -0.11070902
0.61873895 -0.034223087 -0.020534331 -0.1356709 -0.0951782 -0.042064812 0.2954635 0.06837396
-0.11453864 -0.029413152 0.72668475 0.19296105 -0.13900788 0.5080935 -0.11810416 -0.012453024
0.08718498 -0.1528447 0.39773256 0.5364306 0.0670008 -0.032051064 -0.22790612 0.39410907
0.59178156 0.4612225 0.56817436 -0.10489973 -0.14335711 0.07362801 -0.082923986 0.061000325
0.14355545 0.36813352 -0.15532085 -0.071980774 -0.04618612 -0.111117974 -0.06310088 -0.051147014
0.067122124 0.7339674 -0.14400896 -0.10797561 0.6947305 0.058518417 -0.071513064 -0.051310904
-0.090135686 -0.13572976 0.5210691 0.40465537 -0.052738797 -0.12206983 0.3540391 -0.062436465
00000000: b246 edbd 60a5 2bbf 77a2 76be 72be c4be
00000010: aa26 3fbe 29e0 35be cb77 5fbe db85 3c3e
00000020: bc86 5bbf 3746 0a3f 71e6 d3be 9c07 413e
00000030: 3a99 373a e79e 2bbe e2b3 aabe 5e9d 573e
00000040: 74ad 01be 6857 b4be fde1 6abf da83 b4bd
00000050: 3e70 343e 77c3 0cbf f2b2 973e 0a93 d4bf
00000060: f3b5 a93e d8a0 8f3e 1793 14bf ff13 efbe
00000070: 3288 a5be 3817 28be 779a d93e 8106 bc3d
00000080: 50b2 5fbf 0ea9 dcbd d83a 49bf 96df 4fbb
00000090: 327f 693d 4335 98be 5885 4fbd baf5 1f3e
000000a0: 5837 0f3e bb16 a8be 39fc c33e 5b76 61be
000000b0: b15f e83e a70e 583e bd5b 3e3f 93f2 dcbe
000000c0: e499 b43e 0d30 33bf ede0 893e aed5 b83e
000000d0: 6b07 2ebf df2f 933e 77fc c7bd 9203 23be
000000e0: 3b2d 1ebe 490d b93e e734 1fbf 6eb7 843e
000000f0: b035 cabe b0cc 9f3e a619 d6be 1cc6 82be
00000100: 2a91 98be 6674 0e3e 0299 d7be edcd aebb
00000110: 20ed 99be dd6e 36be f85a 1a3f 1b4f 63be
00000120: 7226 603e 50c1 763c 09e6 753e 8dbd 46be
00000130: 3c75 59be a26d 04bf e89b 3b3f 9d2e c53e
00000140: 35fb aabe d702 2f3e b671 833e e546 1c3e
00000150: 4983 33be bc02 413e 41e5 12be 432b 6dbf
00000160: dcf3 4a3d a9bc dfbd f45f 2f3f 7577 413e
00000170: a3aa a5be 5111 e6be 8f10 3bbd 9f21 bb3e
00000180: ec3a 683e 9e10 b53e 502d 3a3e 49c4 5cbe
00000190: cdf8 a0be 7208 92be e024 78be 9802 fabc
000001a0: 277c dcbe 41b0 383f d456 bdbd cdd8 acbe
000001b0: 9ec5 2bbc b754 51be ac0f 90bc e477 283e
000001c0: 508f 293d 0615 8d3e f05b 0fbe 6c67 05be
000001d0: 6c82 713e ed91 88bd 6428 d6be 989f c4be
000001e0: 90fb acbe 46a3 0fbe d6cc 3a3e cc29 b63d
000001f0: 4d16 303e dd04 42be c82c 693e 1319 37be
00000200: 7471 bdbd 5e8b 5a3d 6f2f f2bd f91b d9bd
00000210: cdc2 f4bd aabc c4bd 1465 df3d 12d5 fbbd
00000220: b9c7 d13d 1cf1 d3bd 23a5 d2bd b18b f1bd
00000230: e6be cabd e4d3 c7bd 498b 6dbc 4b0f 34be
00000240: e287 d5bd 149f adbd c9af a53d 384d db3d
00000250: c7cc dcbd 8840 4b3e 056f e0bd f695 983c
00000260: b93e 27be 0c32 0cbe 51e3 ef3d 3178 863e
00000270: 42c2 21be a78c f0bd 03fb 37be 9e0a 353e
00000280: 3e8b 9d3d bb8d 2a3e a48a b63d 76f6 ebbd
00000290: f6a6 fbbd 7c0e 08be 996a dbbd d62e 0fbe
000002a0: 7a8b adbd 0af0 4b3d d18e 14be 5f64 e3bd
000002b0: 356b d4bd 1376 00be 8e97 0ebe 51b5 dfbd
000002c0: 115d d9bd 35af ac3d 5d74 fdbd e32b ecbd
000002d0: 96ff fe3d 0a40 2dbe 5da3 d0bd 9017 d8bd
000002e0: 3d42 ccbd 0ed5 0abe c75d 013e b61d 353e
000002f0: 77d0 b9bd a0d2 09be c9c7 483e 8b0b 08be
00000300: 33c5 91bd 387d 063f 4bfc 6d3b 549a 89bc
00000310: d98f 8abd 3e04 20bd b310 c63e 69bb e2bd
00000320: ad65 1e3f 822d 0cbd 9d37 a8bc 50ed 0abe
00000330: caec c2bd 274c 2cbd fe46 973e a607 8c3d
00000340: 3c93 eabd daf3 f0bc 0308 3a3f 9597 453e
00000350: 1558 0ebe 6a12 023f 98e0 f1bd c507 4cbc
00000360: 0a8e b23d 5283 1cbe 9aa3 cb3e 8453 093f
00000370: b737 893d fa47 03bd 3960 69be aac8 c93e
00000380: ff7e 173f 5b25 ec3e e073 113f abd5 d6bd
00000390: 35cc 12be 48ca 963d 0dd4 a9bd 7adb 793d
000003a0: 3300 133e ff7b bc3e 6e0c 1fbe a86a 93bd
000003b0: a82d 3dbd d291 e3bd 093b 81bd 887f 51bd
000003c0: 5377 893d 4ae5 3b3f 1677 13be 5122 ddbd
000003d0: dcd9 313f 02b1 6f3d 7175 92bd 622b 52bd
000003e0: 0f99 b8bd befc 0abe c964 053f fd2e cf3e
000003f0: a304 58bd bfff f9bd 9d44 b53e 61bd 7fbd

encoder.dcrnn_cells.0.gate.bias_pool f4 [2, 128]
0.12281931 -0.20962565 0.106888026 0.020442143 0.25931048 0.289512 -0.18517938 0.0013314015
-0.078854434 0.009367941 0.20665762 -0.15350583 0.02257602 0.13744321 0.246326 0.18858625
0.058226433 0.2797402 -0.26777384 -0.10834813 0.13070442 -0.085516244 0.2046449 0.21841033
0.035386726 0.13808551 0.0025954635 -0.2932261 0.17842807 0.12947632 0.049869463 -0.025792742
0.025178907 -0.12899052 -0.033796243 -0.15818414 0.060667146 0.023773821 0.15347752 0.13982429
-0.03103682 0.03697669 -0.038958054 0.088800915 -0.19491291 -0.09421616 0.1407414 0.054046236
-0.24466474 -0.14558475 0.23523995 0.014531245 0.042071488 -0.18445782 -0.077842824 0.10714739
0.006753784 0.18511471 -0.060268577 -0.12559809 0.12897982 0.0675184 -0.16649516 0.03342654
0.059688695 0.07972196 0.50264764 -0.09038242 0.057048798 0.012222098 -0.34583786 0.49122888
-0.25713786 -0.019315016 0.32773688 0.41817835 0.42316356 0.3023854 -0.72805125 -0.22125062
0.17969775 0.04960069 -0.043799993 -0.23635983 0.3962027 -0.31110555 0.36157745 -0.25055143
0.077818714 0.3493995 -0.6311592 -0.3017379 0.065460876 0.10396768 0.012257021 0.024952294
-0.053142488 -0.20778377 -0.2113084 0.14884934 0.36757198 0.10339818 0.19017285 0.061114926
-0.19369018 -0.37979394 0.51709265 0.1658197 0.24891482 0.46949375 0.28685847 0.031371497
0.2079929 -0.08969414 0.24021365 0.429135 -0.35189414 -0.02638986 0.04759027 0.365713
0.26116106 0.3414396 -0.16918619 -0.17904903 0.056905497 0.3218899 -0.24383447 0.12051663
-0.06331439 0.15920563 0.155549 0.19709907 0.016503843 -0.063040465 0.22291084 0.04484778
0.055059455 -0.19955938 0.05766336 0.0992699 0.053962205 0.25672337 -0.11441979 0.22631632
-0.107236184 0.17213862 0.016933477 0.2524421 -0.021585654 0.115164414 0.08550832 0.28625444
0.14307855 -0.036296032 0.088792406 0.15800463 0.0058725984 -0.01439699 0.21091786 -0.11410353
0.1208717 -0.13912986 0.24165632 0.19573438 0.17065866 0.12921652 0.2638414 0.031076765
-0.16337904 0.00032845486 0.103733264 0.07217227 -0.08256434 0.032219507 -0.021278482 0.3447446
0.13324292 0.08883182 -0.027673667 -0.07328799 0.05317192 0.17580134 -0.09142219 -0.036933504
0.124868564 0.23159024 0.070922114 0.19106476 0.075619 0.14037123 -0.10211217 0.14784822
-0.026575465 0.035841014 0.3822422 0.15430796 0.1653596 0.0006085803 0.18687321 0.12042484
-0.035831377 -0.26669872 -0.039175496 0.3751393 0.33911625 0.33007234 -0.21038187 -0.5084984
0.039685648 0.25838405 -0.062056098 -0.16153108 0.07918604 -0.41610914 0.10572898 -0.37844685
-0.12625676 0.2791955 -0.2300949 -0.28078318 -0.036676977 0.27261606 0.019643486 -0.17821176
-0.102408625 -0.24213764 -0.13238838 0.3237864 0.071389124 0.28407934 0.11751557 -0.20405215
-0.05515997 -0.06879843 0.14617737 0.055242512 -0.29193768 0.38595885 0.02831404 0.25538507
-0.38491496 -0.38541505 0.1516621 0.20988539 -0.20317988 -0.19184276 0.32542545 0.009119137
0.065620154 0.44050848 -0.32475057 -0.030792264 0.35046488 0.08313182 -0.34340465 -0.01935463
00000000: b188 fb3d 1ba8 56be 1ce8 da3d 4876 a73c
00000010: 58c4 843e eb3a 943e aa9f 3dbe 6c82 ae3a
00000020: 6f7e a1bd fe7b 193c 0e9e 533e a230 1dbe
00000030: 58f1 b83c eabd 0c3e e23c 7c3e c11c 413e
00000040: d77e 6e3d 1c3a 8f3e a719 89be a0e5 ddbd
00000050: 61d7 053e 2423 afbd 6f8e 513e f5a6 5f3e
00000060: acf1 103d 4a66 0d3e a718 2a3b bb21 96be
00000070: d9b5 363e 7195 043e ec43 4c3d 4d4b d3bc
00000080: ff43 ce3c 1716 04be ee6d 0abd 06fb 21be
00000090: 1d7e 783d 51c1 c23c 3629 1d3e 192e 0f3e
000000a0: ee40 febc df74 173d 7b92 1fbd 41dd b53d
000000b0: 4097 47be 67f4 c0bd 831e 103e 965f 5d3d
000000c0: 6589 7abe 2b14 15be bee2 703e 7614 6e3c
000000d0: 2753 2c3d 83e2 3cbe 0f6c 9fbd 1770 db3d
000000e0: d94e dd3b b68e 3d3e 2fdc 76bd c99c 00be
000000f0: 4913 043e 1647 8a3d b57d 2abe 45ea 083d
00000100: 227c 743d 4445 a33d 84ad 003f 6b1a b9bd
00000110: 00ac 693d 323f 483c a911 b1be 5a82 fb3e
00000120: 93a7 83be 863a 9ebc 21cd a73e 791b d63e
00000130: e5a8 d83e 42d2 9a3e 9161 3abf 868f 62be
00000140: b002 383e 182a 4b3d 9f67 33bd 5008 72be
00000150: 15db ca3e 3a49 9fbe ae20 b93e 4748 80be
00000160: 6b5f 9f3d 7ee4 b23e a693 21bf 647d 9abe
00000170: 5a10 863d 02ed d43d acd1 483c c168 cc3c
00000180: f0ab 59bd 45c5 54be 3b61 58be f66b 183e
00000190: 6532 bc3e 6dc2 d33d acbc 423e a553 7a3d
000001a0: b856 46be 5a74 c2be 2f60 043f a4cc 293e
000001b0: 87e3 7e3e 7c61 f03e 1ddf 923e 667f 003d
000001c0: 17fc 543e 90b1 b7bd 91fa 753e 95b7 db3e
000001d0: 782b b4be 8c2f d8bc 04ee 423d bc3e bb3e
000001e0: e7b6 853e 2cd1 ae3e 253f 2dbe a158 37be
000001f0: bd15 693d c1ce a43e beaf 79be 6cd1 f63d
00000200: faaa 81bd cd06 233e 3d48 1f3e 57d4 493e
00000210: 1133 873c 5c1b 81bd bd42 643e 4eb2 373d
00000220: 0686 613d 4b59 4cbe 6a30 6c3d 044e cb3d
00000230: 7907 5d3d 3f71 833e ec54 eabd 77bf 673e
00000240: a59e dbbd 1b45 303e 13b8 8a3c 1740 813e
00000250: 66d4 b0bc 52db eb3d fc1e af3d f18f 923e
00000260: 2f83 123e 26ab 14bd cbd8 b53d f7cb 213e
00000270: ed6e c03b 5ae1 6bbc dafa 573e 1daf e9bd
00000280: 958b f73d 0f78 0ebe c174 773e 986e 483e
00000290: 25c1 2e3e 5651 043e 3816 873e b394 fe3c
000002a0: d64c 27be 7734 ac39 1b72 d43d 0ecf 933d
000002b0: 7e17 a9bd 9af8 033d 3650 aebc 5d82 b03e
000002c0: d570 083e 75ed b53d e3b3 e2bc 0418 96bd
000002d0: cdca 593d 4405 343e 8f3b bbbd 9647 17bd
000002e0: 17bb ff3d fe25 6d3e 9d3f 913d 7ba6 433e
000002f0: 22de 9a3d 7abd 0f3e 2f20 d1bd 8665 173e
00000300: cab4 d9bc 07ce 123d 40b5 c33e e802 1e3e
00000310: 0754 293e 2289 1f3a b15b 3f3e 4ca1 f63d
00000320: ecc3 12bd bc8c 88be 7c76 20bd 4212 c03e
00000330: a5a0 ad3e 3eff a83e 586e 57be f32c 02bf
00000340: 6b8d 223d ea4a 843e 892e 7ebd 6768 25be
00000350: 4a2c a23d 420c d5be 6f88 d83d c9c3 c1be
00000360: 7449 01be b6f2 8e3e ff9d 6bbe d0c2 8fbe
00000370: 993a 16bd 5594 8b3e 60eb a03c 257d 36be
00000380: 9dbb d1bd eef2 77be d290 07be 55c7 a53e
00000390: 7634 923d d972 913e 01ac f03d 0cf3 50be
000003a0: 6cef 61bd 31e6 8cbd 85af 153e f945 623d
000003b0: db78 95be 669c c53e d8f2 e73c d5c1 823e
000003c0: 9313 c5be 1f55 c5be 4f4d 1b3e 32ec 563e
000003d0: 630e 50be 6e72 44be 2a9e a63e 6f68 153c
000003e0: dc63 863d 548a e13e b545 a6be 0f40 fcbc
000003f0: 2270 b33e 0441 aa3d bcd2 afbe 9a8d 9ebc

encoder.dcrnn_cells.0.update.weights_pool f4 [2, 2, 65, 64]
-0.5163277 -1.2005683 0.45526737 -0.46076363 0.49644616 -0.5770024 -0.9948609 0.22355574
-1.4495187 0.13372742 0.499253 -0.21773458 -0.33442098 -0.3617724 0.8212664 0.09803852
-0.40821144 0.551757 -1.4518539 1.5542793 0.29706547 -1.2738037 -0.22710602 1.4036478
0.11748165 0.1677714 -1.1605166 -1.4544549 0.8035125 0.2756651 -0.021987723 -1.0290891
-1.3772359 1.1154306 -1.3474293 0.37025183 0.17904733 0.6639753 0.41455132 -0.002015246
0.30944037 0.9508485 -0.2191956 -0.5015315 0.21639085 -0.31065997 -0.09266226 -0.5389409
0.17042443 -1.3241557 0.2541815 -0.28153333 -1.3194773 0.028571226 0.42974502 -0.36008155
0.2999164 -0.26400012 1.2455978 1.5450302 0.5781619 0.27622432 1.3188003 -0.61219734
-0.054549698 -0.13095064 0.018743878 0.01978692 0.07428647 -0.03988804 -0.10180576 -0.020399569
-0.130418 -0.02527 -0.101294234 -0.016935453 0.01819675 -0.02634455 0.10452882 0.019522006
-0.039589133 -0.03189492 -0.112630025 0.12489416 0.0052024806 -0.13050595 0.015279182 -0.06348391
-0.081110686 0.0067392658 -0.09369555 -0.1134731 0.09334348 0.043795243 0.12601255 -0.101022065
-0.12665905 0.11520352 -0.13969043 -0.0027506351 0.012569312 0.05351974 -0.00858649 -0.052004233
-0.119756185 0.0904028 -0.033509746 -0.04922776 -0.06088275 0.02085933 0.033924717 0.10163204
-0.09312638 -0.13013978 -0.0055468786 -0.00031359392 -0.12800546 -0.075115964 0.04591607 -0.015386453
0.0397438 -0.0026762069 0.107230164 0.1365964 -0.070585065 -0.007298003 0.10647989 -0.073643915
0.010732594 -0.056722365 -0.020662725 0.008048902 0.02338021 -0.005417654 -0.13863377 0.17367971
-0.058571428 -0.032846503 -0.070008524 -0.13109146 -0.14237615 -0.0438566 0.034517642 -0.0024487935
-0.027226971 -0.02216432 -0.051002182 0.20492709 0.09216902 -0.028228337 -0.1624701 -0.22801216
-0.04452903 0.17613192 -0.101303376 0.15576127 0.034361716 0.06941341 0.042675234 -0.19168812
-0.0535198 0.15276988 -0.08907114 0.10696456 0.15722217 0.03295482 0.1000905 -0.008959057
-0.0198536 0.023917314 -0.16353539 -0.027193693 0.015755603 -0.113627315 -0.0633644 0.07445631
-0.0012090454 -0.089995176 0.12921494 -0.12523612 -0.053920887 -0.036158986 0.029672181 -0.08665313
0.059744466 -0.18961667 0.04460002 -0.0056576794 -0.039267093 0.15604284 0.07645504 -0.010249136
-0.028486887 0.14000951 0.28583643 -0.08981652 0.05457962 -0.083102964 0.1050213 0.041588534
0.12916003 0.039796762 0.13467863 -0.0040459605 -0.045565534 -0.12457296 -0.15297896 0.007645169
-0.030891122 0.1267813 0.12629056 -0.15500598 0.02177138 0.15521373 -0.025633113 0.12353678
-0.06206577 0.007780289 0.11773315 0.15182365 0.0741818 0.027036848 -0.11985741 0.13741797
0.13718386 -0.14165866 0.16675386 0.041734755 -0.0072138286 0.10807493 0.02791852 -0.03531427
0.10999985 -0.12544803 -0.004876648 -0.045396052 0.044068307 -0.014051917 -0.04773016 -0.15362817
0.09284565 0.16428238 0.0036174457 0.0022749736 0.16922098 -0.059217576 0.039155185 -0.05514714
0.02080914 -0.00892274 -0.15057081 -0.14578283 0.16074185 0.0067451983 -0.1576137 -0.05621454
00000000: 0d2e 04bf 39ac 99bf ce18 e93e 36e9 ebbe
00000010: 312e fe3e 6eb6 13bf 34af 7ebf cceb 643e
00000020: d489 b9bf d7ef 083e 179e ff3e d0f5 5ebe
00000030: 3a39 abbe 3b3a b9be 843e 523f 6bc8 c83d
00000040: 1701 d1be f23f 0d3f 59d6 b9bf a0f2 c63f
00000050: f718 983e 000c a3bf 7b8e 68be bbaa b33f
00000060: 389a f03d 44cc 2b3e cf8b 94bf 942b babf
00000070: ffb2 4d3f fa23 8d3e 991f b4bc 31b9 83bf
00000080: 4449 b0bf 6ec6 8e3f 9078 acbf a691 bd3e
00000090: 2f58 373e 49fa 293f 1240 d43e 3812 04bb
000000a0: f86e 9e3e cf6a 733f d074 60be 5e64 00bf
000000b0: 9095 5d3e d30e 9fbe b6c5 bdbd 08f8 09bf
000000c0: be83 2e3e ef7d a9bf 1424 823e 2325 90be
000000d0: a2e4 a8bf 340e ea3c 8a07 dc3e 9c5c b8be
000000e0: a48e 993e 062b 87be c06f 9f3f 8dc3 c53f
000000f0: 6b02 143f 466d 8d3e 73ce a83f f7b8 1cbf
00000100: 816f 5fbd ed17 06be c38c 993c 2e18 a23c
00000110: 8123 983d a461 23bd 8a7f d0bd ff1c a7bc
00000120: 4c8c 05be 0803 cfbc 5a73 cfbd 38bc 8abc
00000130: 5a11 953c 87d0 d7bc 3513 d63d 9dec 9f3c
00000140: 3728 22bd 3fa4 02bd 92aa e6bd 82c8 ff3d
00000150: 9279 aa3b 5aa3 05be 8955 7a3c da03 82bd
00000160: 5c1d a6bd 0fd5 dc3b 74e3 bfbd 9664 e8bd
00000170: de2a bf3d a462 333d 6f09 013e a8e4 cebd
00000180: e9b2 01be d3ef eb3d 020b 0fbe 0044 34bb
00000190: 84ef 4d3c 8437 5b3d 59ae 0cbc 6402 55bd
000001a0: bb42 f5bd 1a25 b93d 8441 09bd 0ca3 49bd
000001b0: 3160 79bd 30e1 aa3c a5f4 0a3d 7624 d03d
000001c0: 0bb9 bebd 5d43 05be 97c2 b5bb dd69 a4b9
000001d0: dd13 03be 66d6 99bd 7d12 3c3d 7617 7cbc
000001e0: 65ca 223d 4d63 2fbb 7d9b db3d eddf 0b3e
000001f0: e78e 90bd 1624 efbb 2112 da3d 9fd2 96bd
00000200: c3d7 2f3c b655 68bd e044 a9bc 8bdf 033c
00000210: db87 bf3c 9386 b1bb 03f6 0dbe 18d9 313e
00000220: 98e8 6fbd 0e8a 06bd a160 8fbd d73c 06be
00000230: 0ecb 11be faa2 33bd 5f62 0d3d f07b 20bb
00000240: 190b dfbc f391 b5bc aae7 50bd 68d8 513e
00000250: 1cc3 bc3d 1d3f e7bc 905e 26be 057c 69be
00000260: 1264 36bd ed5b 343e 2578 cfbd e27f 1f3e
00000270: dfbe 0c3d 9e28 8e3d 3acc 2e3d e449 44be
00000280: 9437 5bbd b56f 1c3e ee6a b6bd 3c10 db3d
00000290: d9fe 203e a2fb 063d 40fc cc3d 02c9 12bc
000002a0: 04a4 a2bc 3eee c33c d275 27be 4fc5 debc
000002b0: e511 813c 70b5 e8bd 32c5 81bd 8d7c 983d
000002c0: d578 9eba 644f b8bd ec50 043e e63d 00be
000002d0: 26dc 5cbd 721b 14bd 1313 f33c 3277 b1bd
000002e0: 9db6 743d df2a 42be 83ae 363d 0e64 b9bb
000002f0: 88d6 20bd b2c9 1f3e 7694 9c3d feeb 27bc
00000300: 555d e9bc a75e 0f3e 2759 923e b9f1 b7bd
00000310: e18e 5f3d e331 aabd 6815 d73d bd58 2a3d
00000320: 8742 043e ee01 233d 32e9 093e fa93 84bb
00000330: eda2 3abd 1c20 ffbd 84a6 1cbe 5384 fa3b
00000340: 610f fdbc f5d2 013e 5052 013e e3b9 1ebe
00000350: e559 b23c 59f0 1e3e 89fc d1bc da00 fd3d
00000360: ad38 7ebd cbf1 fe3b 141e f13d a977 1b3e
00000370: a1ec 973d 617c dd3c cd77 f5bd 4cb7 0c3e
00000380: ed79 0c3e f80e 11be 86c1 2a3e 10f2 2a3d
00000390: fb61 ecbb 6456 dd3d 61b5 e43c b2a5 10bd
000003a0: 9a47 e13d 7375 00be 4acc 9fbb 36f1 39bd
000003b0: f880 343d 033a 66bc b380 43bd b450 1dbe
000003c0: dc25 be3d a439 283e ab12 6d3b b917 153b
000003d0: 4448 2d3e 218e 72bd 3061 203d f8e1 61bd
000003e0: ee77 aa3c af30 12bc 3c2f 1abe 1848 15be
000003f0: 8399 243e d306 dd3b 7c65 21be 3841 66bd

encoder.dcrnn_cells.0.update.bias_pool f4 [2, 64]
-0.15203044 0.060600538 0.37749255 -0.42841598 0.10689201 -0.20044705 0.2560112 0.06777375
-0.09010962 0.28839865 0.4433806 -0.076902844 -0.07569165 -0.23506688 -0.29209524 -0.40343606
-0.11184235 0.30418804 -0.09798483 -0.006178649 0.07558254 0.02881978 0.06116077 0.08563468
-0.45229095 -0.06448232 0.13617162 0.010025731 0.19053586 0.17269309 0.39314285 0.28633162
-0.06375285 -0.23519811 -0.07720674 0.057741083 0.23979746 0.32529122 0.052177433 -0.2891175
0.42177945 -0.30151805 0.10317605 -0.1555408 0.28815514 -0.05721259 -0.3324311 -0.44768345
0.3613508 -0.055183265 -0.02551502 0.080215916 -0.09314017 -0.47884884 0.116232045 -0.1459574
0.1818767 0.074134864 0.013058196 -0.17326094 0.38384548 -0.03993475 -0.018145798 -0.2892275
-0.31688088 0.5797886 0.15020026 -0.3660244 0.26507938 -0.17567796 0.54730785 0.08706174
0.4436754 -0.13590215 0.42077827 -0.33159137 -0.07402126 -0.24168046 -0.57173496 -0.061099187
-0.270677 0.40687078 0.5060384 -0.5571143 0.31260118 0.3823748 -0.1818123 -0.4000256
-0.022845427 0.30686107 0.5821433 0.41297096 0.16325182 0.24045558 -0.025412066 0.437459
0.46340236 -0.49257424 0.44722638 0.13868457 0.08516698 0.13500385 0.09107715 0.0050802724
-0.18500963 -0.5247222 0.025464207 -0.248832 -0.20327297 -0.10307541 0.25855002 -0.40541646
-0.14962488 0.4375887 0.2974178 -0.04009663 0.54184 -0.029240655 0.2372873 -0.14696905
0.20561169 0.020304294 -0.4201189 -0.35346574 0.42395675 0.018250985 -0.40929216 -0.22920902
00000000: dead 1bbe 4538 783d b446 c13e 5759 dbbe
00000010: 33ea da3d fe41 4dbe e613 833e f7cc 8a3d
00000020: 648b b8bd fda8 933e c802 e33e 3d7f 9dbd
00000030: 3904 9bbd 5fb5 70be 828d 95be 2c8f cebe
00000040: 9a0d e5bd 89be 9b3e 45ac c8bd 4476 cabb
00000050: 05cb 9a3d 7617 ec3c b783 7a3d 3c61 af3d
00000060: ae92 e7be 4e0f 84bd 9370 0b3e f742 243c
00000070: d51b 433e 75d6 303e 054a c93e 0f9a 923e
00000080: db90 82bd c6d7 70be 911e 9ebd ea81 6c3d
00000090: 778d 753e 928c a63e 01b8 553d 3507 94be
000000a0: 7af3 d73e 9360 9abe f74d d33d 1646 1fbe
000000b0: 1289 933e c057 6abd 6934 aabe c436 e5be
000000c0: f902 b93e d907 62bd e004 d1bc 3e48 a43d
000000d0: 46c0 bebd ad2b f5be 110b ee3d db75 15be
000000e0: e33d 3a3e 05d4 973d 0bf2 553c 516b 31be
000000f0: 6587 c43e 9f92 23bd 7fa6 94bc a015 94be
00000100: 363e a2be 076d 143f 19ce 193e 8d67 bbbe
00000110: 7cb8 873e ece4 33be 5e1c 0c3f 6d4d b23d
00000120: 6c29 e33e ef29 0bbe 4070 d73e 58c6 a9be
00000130: 7598 97bd 157b 77be 395d 12bf 2443 7abd
00000140: 2d96 8abe 5e51 d03e bc8b 013f 0b9f 0ebf
00000150: 430d a03e a1c6 c33e 012d 3abe 28d0 ccbe
00000160: 5526 bbbc e51c 9d3e 5807 153f ee70 d33e
00000170: 7c2b 273e fd39 763e f72c d0bc a0fa df3e
00000180: 1343 ed3e b132 fcbe dbfa e43e 5403 0e3e
00000190: 076c ae3d 733e 0a3e a886 ba3d 6a78 a63b
000001a0: 2a73 3dbe 3254 06bf 509a d03c d1cd 7ebe
000001b0: ca26 50be 3319 d3bd ab60 843e bf92 cfbe
000001c0: 4437 19be a00b e03e 2547 983e 5d3c 24bd
000001d0: 07b6 0a3f 198a efbc 71fb 723e 0e7f 16be
000001e0: df8b 523e 3155 a63c d319 d7be 76f9 b4be
000001f0: dc10 d93e 1783 953c be8e d1be c5b5 6abe

encoder.dcrnn_cells.1.gate.weights_pool f4 [2, 2, 128, 128]
0.12960328 -0.052331924 -0.34480605 -0.007051526 0.020841165 0.03819056 -0.1112906 -0.024394944
0.14237225 0.012652302 0.01895379 0.08034048 0.16861229 0.009175886 0.09629869 0.037402917
0.026069669 0.00633647 -0.35006347 0.23868589 -0.0366937 -6.0940616e-05 0.040272947 0.013794073
0.14581564 0.024876498 0.16359311 0.16221106 0.016075999 -0.4388341 0.17682277 -0.009730702
0.032547735 0.27729115 -0.0062928703 -0.051477537 -0.08198017 0.3304818 0.015597942 0.33582136
-0.024165587 0.41355604 -0.010698756 0.00027013934 0.029278336 -0.14047258 0.01285624 0.011171152
-0.21629001 0.2349309 0.020899717 0.032017127 0.13810223 0.032306924 0.024822839 -0.0044801757
0.1550141 0.06643824 0.047585826 0.11529833 0.042719692 0.030411722 0.07688574 0.20943674
0.30696914 0.06230093 0.13694817 0.05904556 0.13099407 0.15656887 0.039409317 0.121046506
0.34405962 0.04269099 0.17942967 0.17272504 0.31862465 0.17069955 0.058335505 0.081464864
0.16160128 0.13858056 -0.12002242 0.19757034 0.06768762 0.1218102 0.15354708 0.09354926
0.4180976 0.13778265 0.4574076 0.12129609 0.15581155 -0.028736776 0.05707416 0.080569714
0.1393286 0.33114776 0.060230624 0.19055647 0.010433389 0.57324815 0.13823281 0.4085834
0.07472348 0.50050306 0.17996594 0.13255888 0.13368396 0.19253825 0.026535634 0.07331249
0.2956256 0.67440933 0.11045649 0.13808633 0.45670268 0.14798574 0.083432384 0.06678355
0.05901914 0.009933356 0.12536615 0.2082763 0.14342788 0.083430365 0.28888226 0.33550787
-0.24272679 -0.13101365 -0.30116916 -0.2657631 -0.17310895 -0.19383214 -0.17956367 -0.3354068
-0.19061503 -0.2289151 -0.22150703 -0.29150197 -0.18580115 -0.5314361 0.00069703726 -0.21189442
-0.24414062 -0.32273963 -0.38526174 0.081335664 -0.18857253 -0.31646588 -0.22599097 -0.28055447
-0.18421428 -0.35713086 -0.1713707 -0.36026025 -0.2584231 -0.33643547 -0.26818758 -0.29364362
-0.25279993 0.1913707 -0.23439197 -0.11129191 -0.56588924 0.4944033 -0.3836257 0.44280788
-0.25136018 0.16139954 -0.22828135 -0.3026762 -0.25725248 -0.24899389 -0.29532626 -0.13567069
-0.77853644 -0.1543942 -0.320476 -0.24779473 -0.26448193 -0.25279316 -0.1396976 -0.29805335
-0.1240981 0.094324194 -0.26088816 0.115590416 -0.20463477 -0.15905103 -0.30672887 -0.06993374
0.4030363 0.6895082 0.45280176 0.6664216 0.3510279 0.4582078 0.66857404 0.5655137
0.24465746 0.6763877 0.71596175 0.24490605 0.5427604 0.5165242 0.6040426 0.53742415
0.6247552 0.4083435 0.7825992 0.21833493 0.6972505 0.588523 0.55813366 0.797409
0.49268037 0.6161809 0.30191997 0.4922899 0.42544085 0.6497077 0.60292155 0.6830394
0.41353115 0.15412073 0.6779071 0.41734317 0.036062438 0.39296612 0.5499532 0.52250016
0.7073794 0.41019443 0.10855262 0.45334783 0.40630022 0.33229867 0.5131462 0.7763606
0.42773926 0.38315037 0.6553182 0.515842 0.44035476 0.60339004 0.8281724 0.63045174
0.59910166 0.62452614 0.39027712 0.42059463 0.42980543 0.8348518 0.63901186 0.30349308
00000000: b9b6 043e 005a 56bd 6b8a b0be 7d10 e7bb
00000010: 17bb aa3c b46d 1c3d 53ec e3bd e8d7 c7bc
00000020: 08ca 113e 9a4b 4f3c fb44 9b3c 8d89 a43d
00000030: b3a8 2c3e 7556 163c 3f38 c53d cd33 193d
00000040: 0f90 d53c 2aa2 cf3b 853b b3be 136a 743e
00000050: 224c 16bd 7d9a 7fb8 3ff5 243d 8900 623c
00000060: b250 153e ccc9 cb3c f484 273e a81a 263e
00000070: d0b1 833c ddae e0be 0711 353e 866d 1fbc
00000080: c650 053d 1bf9 8d3e 6c34 cebb 1cda 52bd
00000090: 38e5 a7bd e934 a93e 838e 7f3c c7f0 ab3e
000000a0: e9f6 c5bc 9ebd d33e d649 2fbc 7da1 8d39
000000b0: 1fd9 ef3c 0bd8 0fbe fba2 523c 3507 373c
000000c0: 217b 5dbe ba91 703e e235 ab3c 6424 033d
000000d0: ac6a 0d3e 4454 043d 4459 cb3c 70ce 92bb
000000e0: 04bc 1e3e c610 883d 5be9 423d 8821 ec3d
000000f0: d8fa 2e3d 0122 f93c 4576 9d3d 9676 563e
00000100: 0f2b 9d3e 432f 7f3d 243c 0c3e c2d9 713d
00000110: 4f23 063e 9753 203e aa6b 213d 3be7 f73d
00000120: 9528 b03e bfdc 2e3d 69bc 373e d5de 303e
00000130: c522 a33e ddcb 2e3e 36f1 6e3d 0dd7 a63d
00000140: ce7a 253e 10e8 0d3e 51ce f5bd e14f 4a3e
00000150: cf9f 8a3d a077 f93d 723b 1d3e c196 bf3d
00000160: e310 d63e e516 0d3e 5431 ea3e 166a f83d
00000170: 108d 1f3e 6369 ebbc 98c6 693d bc01 a53d
00000180: 28ac 0e3e 338c a93e 63b4 763d 3c21 433e
00000190: cef0 2a3c 64c0 123f e78c 0d3e d831 d13e
000001a0: a008 993d f820 003f fe48 383e 84bd 073e
000001b0: 73e4 083e bf28 453e 4261 d93c dc24 963d
000001c0: 3d5c 973e 17a6 2c3f 0337 e23d 8166 0d3e
000001d0: efd4 e93e 9389 173e 99de aa3d d0c5 883d
000001e0: 0ebe 713d 84bf 223c fc5f 003e 6246 553e
000001f0: c2de 123e 8add aa3d 60e8 933e b0c7 ab3e
00000200: 5f8d 78be 7128 06be d832 9abe 1a12 88be
00000210: 7943 31be ef7b 46be 8adf 37be 71ba abbe
00000220: 9630 43be b868 6abe bdd2 62be bf3f 95be
00000230: a842 3ebe 320c 08bf 61b9 363a dafa 58be
00000240: 0000 7abe 213e a5be 0741 c5be 5093 a63d
00000250: 2819 41be d107 a2be 2d6a 67be d6a4 8fbe
00000260: aba2 3cbe dbd9 b6be cd7b 2fbe 0874 b8be
00000270: 0850 84be 4541 acbe e24f 89be 7558 96be
00000280: fe6e 81be aef6 433e 7304 70be 03ed e3bd
00000290: 1ede 10bf 6e22 fd3e 966a c4be b7b7 e23e
000002a0: 48b2 80be ec45 253e 96c2 69be 60f8 9abe
000002b0: 99b6 83be 41f8 7ebe 0135 97be 42ed 0abe
000002c0: 2a4e 47bf 8319 1ebe 6e15 a4be e7bd 7dbe
000002d0: 2d6a 87be 1b6e 81be e30c 0fbe 739a 98be
000002e0: 2527 febd 0b2d c13d 2293 85be abba ec3d
000002f0: c78b 51be 46de 22be 910b 9dbe 6c39 8fbd
00000300: c65a ce3e 9c83 303f a2d5 e73e 9b9a 2a3f
00000310: eeb9 b33e 369a ea3e ab27 2b3f 81c5 103f
00000320: 7c87 7a3e bf27 2d3f 4549 373f a7c8 7a3e
00000330: 58f2 0a3f ee3a 043f 89a2 1a3f a194 093f
00000340: f5ef 1f3f 6612 d13e 6c58 483f 3193 5f3e
00000350: 027f 323f 71a9 163f d9e1 0e3f ff22 4c3f
00000360: 9a40 fc3e 08be 1d3f 4195 9a3e 6c0d fc3e
00000370: 62d3 d93e 3e53 263f 1159 1a3f acdb 2e3f
00000380: 5bba d33e d3d1 1d3e 528b 2d3f 01ae d53e
00000390: 35b6 133d db32 c93e bcc9 0c3f 92c2 053f
000003a0: d116 353f 0105 d23e d650 de3d 351d e83e
000003b0: 9506 d03e 0d23 aa3e 8d5d 033f 91bf 463f
000003c0: a400 db3e 492c c43e efc2 273f 390e 043f
000003d0: 2e76 e13e c577 1a3f 1b03 543f 4965 213f
000003e0: ba5e 193f f2e0 1f3f 67d2 c73e 2e58 d73e
000003f0: 750f dc3e d9b8 553f 4896 233f 7263 9b3e

encoder.dcrnn_cells.1.gate.bias_pool f4 [2, 128]
-0.4003883 0.081442215 0.061433595 0.13304146 -0.06504911 0.04769686 0.26413238 0.07825431
0.049748998 -0.20143148 0.113025166 -0.30050123 0.055198923 -0.15175118 -0.27125314 -4.0216096e-06
0.021863459 -0.05442762 -0.10377098 -0.16617532 0.17089777 0.10572395 -0.054012027 -0.066557586
-0.3220038 0.13878915 -0.0021142839 -0.14175794 -0.08889007 -0.15239933 -0.03841932 -0.090022825
-0.06160936 -0.13476121 0.12332795 -0.13482991 -0.11390022 -0.10108008 -0.07264857 -0.20125434
-0.10352299 -0.43504882 0.11896567 0.047356833 -0.09290266 -0.07347504 0.11355012 -0.25382644
0.056426555 -0.38832915 0.02733609 -0.18167067 -0.15964022 0.05762416 -0.06837179 -0.11170017
-0.20942245 0.18666074 -0.19911672 -0.358415 -0.23297843 -0.14765044 -0.035397694 -0.102354966
-0.15465969 -0.15818582 -0.13486063 0.13547614 -0.077042155 0.075144365 0.17834547 0.04648996
-0.28530973 0.050714657 -0.24156666 0.016975874 -0.34441084 0.13022953 0.32393456 -0.035464328
-0.16150376 -0.07360677 0.41349182 -0.08022889 0.027461514 0.12379315 -0.18243101 0.09824284
-0.1330091 -0.18903251 -0.18186541 -0.059013046 -0.0039162743 0.044626225 0.21481016 0.24818112
0.12554727 -0.04897155 0.05002748 -0.26180926 0.2690972 -0.14686908 0.22713923 -0.10256431
0.32215852 0.03412511 -0.30579504 -0.18222503 0.062096287 -0.13096735 0.012015444 0.04962333
-0.07078194 0.085449584 0.10143234 -0.17328374 -0.05785825 0.048263006 0.027100483 0.09371889
0.22649565 0.22002347 -0.16632786 -0.3828899 -0.15617795 -0.13487059 0.0024244518 -0.19635649
-0.027901068 0.3168491 -0.24550094 -0.034641623 -0.2046511 -0.074400306 0.2277442 0.033089653
0.046685997 0.2182462 -0.038824428 0.17475638 -0.087519355 -0.11607948 0.03984284 0.004812634
-0.09297176 -0.14318162 0.007417397 0.30037257 0.24530683 -0.13892402 -0.14478406 -0.02374013
0.08232688 -0.053871077 0.08331037 -0.4265753 0.058919486 0.31231487 -0.28425077 0.057444617
0.11411734 0.28201947 0.15285818 0.23380588 -0.065767616 0.18358451 -0.13309014 0.26444748
0.11473553 0.0010732213 0.3016974 0.04025097 -0.06981883 0.2552916 0.047062255 0.12392954
-0.16242364 0.03284277 -0.18858264 0.028877594 0.07680849 -0.026081042 -0.09021407 0.10106639
0.12276932 0.2665184 0.06383233 -0.29949662 0.15477464 0.06696959 0.12899682 0.21914548
-0.33002144 0.14104438 -0.2258636 -0.026323654 0.052712474 0.093830556 -0.026762232 0.22530133
-0.49938506 -0.047657337 -0.28152558 -0.14423902 -0.43034345 -0.065010734 0.24316335 0.18620175
-0.16037239 -0.1585253 -0.004153413 0.12531461 0.00034703317 0.24800406 0.12217743 0.049361955
-0.05654734 0.112439506 -0.26552948 0.037823204 -0.052469607 -0.23137975 -0.06505214 0.20255727
-0.07777942 -0.13736528 -0.114465475 -0.40826583 0.5158379 -0.12538312 0.117664196 0.15193321
-0.009387245 0.30767593 -0.054434758 -0.19072199 -0.069707565 -0.540432 0.0017356742 0.0052338
-0.2534094 -0.02491459 0.14177388 0.012201233 0.20835651 -0.22306678 0.07826505 -0.07222418
0.048356146 0.12954465 -0.044935137 -0.44242835 0.010062088 -0.25260332 0.11591556 -0.3733867
00000000: b2ff ccbe 2dcb a63d cba1 7b3d 053c 083e
00000010: 7838 85bd c85d 433d 5c3c 873e cc43 a03d
00000020: 9bc5 4b3d 0e44 4ebe bd79 e73d 4cdb 99be
00000030: 4418 623d a964 1bbe b1e1 8abe 5df1 86b6
00000040: ff1a b33c 7fef 5ebd e185 d4bd dd29 2abe
00000050: d3ff 2e3e cc85 d83d b73b 5dbd 584f 88bd
00000060: afdd a4be be1e 0e3e cc8f 0abb fe28 11be
00000070: ff0b b6bd 920e 1cbe 945d 1dbd e35d b8bd
00000080: 195a 7cbd d8fe 09be 5d93 fc3d da10 0abe
00000090: 8544 e9bd 1303 cfbd c6c8 94bd 9e15 4ebe
000000a0: dd03 d4bd b8be debe 46a4 f33d 3df9 413d
000000b0: c043 bebd 157a 96bd f78c e83d 8af5 81be
000000c0: 881f 673d 14d3 c6be f0ef df3c e007 3abe
000000d0: ba78 23be 5007 6c3d 8206 8cbd 0fc3 e4bd
000000e0: d772 56be fe23 3f3e 41e5 4bbe 2c82 b7be
000000f0: e691 6ebe ad31 17be 2cfd 10bd 7b9f d1bd
00000100: 1c5f 1ebe 77fb 21be e818 0abe 42ba 0a3e
00000110: 47c8 9dbd 4ae5 993d 32a0 363e 426c 3e3d
00000120: 1e14 92be 2cba 4f3d 405d 77be fd10 8b3c
00000130: 9e56 b0be e45a 053e c0da a53e 0b43 11bd
00000140: 3e61 25be 25bf 96bd 33b5 d33e 0b4f a4bd
00000150: f8f6 e03c 4387 fd3d 32cf 3abe 8b33 c93d
00000160: 8a33 08be bd91 41be ed3a 3abe aab7 71bd
00000170: 1754 80bb fdc9 363d 32f7 5b3e 3123 7e3e
00000180: 778f 003e 6496 48bd 9de9 4c3d dd0b 86be
00000190: 1cc7 893e d964 16be 3097 683e 3d0d d2bd
000001a0: f6f1 a43e c5c6 0b3d 2b91 9cbe 3399 3abe
000001b0: ad58 7e3d 4e1c 06be 6ddc 443c d541 4b3d
000001c0: 1ff6 90bd 3100 af3d c2bb cf3d 4b71 31be
000001d0: c6fc 6cbd 6eaf 453d d501 de3c b0ef bf3d
000001e0: 7aee 673e d54d 613e da51 2abe 250a c4be
000001f0: 1ded 1fbe 841b 0abe 8de3 1e3b ad11 49be
00000200: c890 e4bc 0c3a a23e 9964 7bbe 60e4 0dbd
00000210: 0f90 51be 305f 98bd c735 693e 0489 073d
00000220: d139 3f3d ef7b 5f3e 5d06 1fbd 56f3 323e
00000230: 593d b3bd 14bb edbd 3f32 233d 4db3 9d3b
00000240: fa67 bebd 349e 12be a30d f33b 6fca 993e
00000250: b731 7b3e 1942 0ebe 4642 14be a97a c2bc
00000260: ff9a a83d eba7 5cbd a19e aa3d 1468 dabe
00000270: 8f55 713d bce7 9f3e 5189 91be 0c4b 6b3d
00000280: 5ab6 e93d db64 903e db86 1c3e cf6a 6f3e
00000290: 2cb1 86bd 94fd 3b3e c848 08be a965 873e
000002a0: 76fa ea3d 55ab 8c3a 1578 9a3e 33de 243d
000002b0: 2dfd 8ebd 95b5 823e 5ac4 403d c5ce fd3d
000002c0: 6252 26be 2486 063d cf1b 41be b490 ec3c
000002d0: c54d 9d3d e9a7 d5bc 28c2 b8bd e5fb ce3d
000002e0: 7b6e fb3d 1a75 883e 86ba 823d 9f57 99be
000002f0: 3e7d 1e3e 5a27 893d be17 043e ac67 603e
00000300: 92f8 a8be f06d 103e ca48 67be b4a4 d7bc
00000310: 09e9 573d 3c2a c03d 783c dbbc 64b5 663e
00000320: 66af ffbe 5734 43bd 1f24 90be 65b3 13be
00000330: fa55 dcbe 5924 85bd d0ff 783e acab 3e3e
00000340: a938 24be 7554 22be 5b19 88bb 7952 003e
00000350: 01f2 b539 c7f4 7d3e 2938 fa3d c32f 4a3d
00000360: 2f9e 67bd af46 e63d 7bf3 87be 81ec 1a3d
00000370: 5fea 56bd d0ee 6cbe 0e3a 85bd 2c6b 4f3e
00000380: d14a 9fbd 7ca9 0cbe e06c eabd 3808 d1be
00000390: f40d 043f 6f64 00be edf9 f03d 6194 1b3e
000003a0: f6cc 19bc b387 9d3e fbf6 5ebd a04c 43be
000003b0: d7c2 8ebd c059 0abf 907f e33a 4c80 ab3b
000003c0: e0be 81be af19 ccbc 2c2d 113e aee7 473c
000003d0: 695b 553e 9e6b 64be 6d49 a03d 45ea 93bd
000003e0: 1811 463d 5aa7 043e e80d 38bd f885 e2be
000003f0: 75db 243c 3955 81be 2365 ed3d 8b2c bfbe

encoder.dcrnn_cells.1.update.weights_pool f4 [2, 2, 128, 64]
-0.4960845 -0.07584491 -0.11768428 -0.13963586 0.031908415 -0.040294357 -0.1540113 -0.046485517
0.3899939 0.13847426 0.029156718 -0.28659663 0.36071733 0.2785433 0.196666 -0.046919163
0.11079087 -0.063888 -0.17464064 0.28557378 0.1227667 -0.041664116 0.09886123 0.098518305
0.37775874 0.30028227 -0.53991514 -0.013537698 0.009131851 0.021014718 0.09436496 -0.1404458
-0.10373252 0.27969837 0.122573696 0.046764545 0.3945714 -0.30835232 0.26298076 -0.38892674
-0.13632435 0.31043 -0.0036222113 -0.15432169 0.033891622 0.07660447 0.20073882 -0.12509507
-0.02804363 -0.38153428 -0.15072295 -0.0133813135 -0.5112371 -0.07340518 -0.062459044 0.094325185
0.023098422 -0.10379421 0.1382636 0.04403508 -0.06074888 0.09432854 -0.40328163 0.43469068
-0.46343854 -0.63098776 -0.6370327 -0.22772625 0.49849594 -0.409158 -0.67186886 -0.06006264
0.21533574 0.62815243 0.5849063 -0.2346314 0.37097242 0.26309496 0.26326764 -0.48964664
-0.8057182 -0.5373454 0.47910646 0.25889137 0.18668649 -0.27655837 -0.7140685 0.6198851
0.249488 0.3057559 -0.26700947 -0.68578535 -0.51233274 -0.71225154 0.18310307 -0.11236945
-0.46645522 0.2361462 0.6448405 0.51794994 0.27277562 -0.33059198 0.2711014 -0.32881075
-0.23867072 0.26500466 -0.28417054 0.6956393 0.49703708 0.50647366 0.17313793 -0.5871554
-0.09790981 -0.31553346 -0.1426174 -0.43909383 -0.47540885 0.73282456 -0.5868441 0.17475581
0.1271723 -0.31213644 0.49299598 0.4525862 -0.4615844 0.5471828 -0.41017982 0.41951087
0.49097794 0.031663425 0.09723954 0.15570056 0.025696697 0.19025587 0.1271959 0.008475526
-0.27322516 -0.10482173 -0.0695964 0.2062229 -0.2078116 -0.22524676 -0.22137879 0.1225606
-0.24817799 -0.116057016 0.2264823 -0.16044325 -0.09229535 0.035380866 -0.18239084 -0.14030032
-0.22532272 -0.28666615 0.58903116 0.04875639 0.049301974 -0.10188702 -0.06906259 0.12835027
0.053752314 -0.21364793 -0.14141189 -0.068544745 -0.358108 0.21429385 -0.35083538 0.36317277
0.10097252 -0.18793721 0.27003708 0.13355891 -0.053667076 -0.15181205 -0.23338118 0.13302909
0.008162322 0.31496507 0.18038154 0.10651412 0.399404 0.18476522 0.12408924 -0.09034433
0.009477368 0.15135384 -0.023776177 -0.12226761 0.08257817 -0.14164898 0.22340453 -0.37605664
-0.5028258 0.034160722 -0.10348606 -0.14861134 0.032619894 -0.05363997 -0.055224136 -0.038355395
0.3408167 0.05484189 0.010270987 -0.21891837 0.22738646 0.2437072 0.20849898 -0.04021643
0.27937883 -0.0031865493 -0.27560773 0.18493724 0.08531915 -0.0230396 0.23486397 0.07857919
0.28798208 0.2903596 -0.45234805 0.10659482 -0.005212893 0.12767035 0.07798299 -0.12738585
-0.11765211 0.18169948 0.08119508 0.054333117 0.3471352 -0.23337896 0.29840574 -0.20468657
-0.108666465 0.20349278 -0.030137932 -0.28205702 0.062089704 0.11305747 0.2300288 -0.07820371
-0.053129274 -0.3451726 -0.1345364 -0.048157647 -0.51455885 -0.22502798 -0.07698621 0.08969165
0.019915719 -0.13659008 0.09913098 -0.31063038 -0.08148615 0.08487338 -0.21805042 0.18557505
00000000: cafe fdbe 9454 9bbd 7504 f1bd b4fc 0ebe
00000010: 66b2 023d b20b 25bd 23b5 1dbe 9967 3ebd
00000020: 48ad c73e 32cc 0d3e 12da ee3c cbbc 92be
00000030: f1af b83e 3a9d 8e3e d062 493e 4f2e 40bd
00000040: 53e6 e23d b6d7 82bd ffd4 32be ba36 923e
00000050: 1c6d fb3d fea7 2abd c277 ca3d f7c3 c93d
00000060: 9869 c13e 99be 993e e137 0abf 39cd 5dbc
00000070: c29d 153c 0f27 ac3c 6b42 c13d 06d1 0fbe
00000080: b771 d4bd a034 8f3e eb07 fb3d 2e8c 3f3d
00000090: 4305 ca3e 5be0 9dbe 6aa5 863e 6821 c7be
000000a0: 9c98 0bbe aef0 9e3e 9f62 6dbb 8106 1ebe
000000b0: f1d1 0a3d cee2 9c3d 7a8e 4d3e ec18 00be
000000c0: c1bb e5bc 7658 c3be 1e57 1abe 4c3d 5bbc
000000d0: 6fe0 02bf 7455 96bd 0ed5 7fbd 902d c13d
000000e0: e738 bd3c 0f92 d4bd f994 0d3e 215e 343d
000000f0: d1d3 78bd 522f c13d ee7a cebe c78f de3e
00000100: d147 edbe 6a88 21bf 9314 23bf 1231 69be
00000110: dc3a ff3e 287d d1be 99ff 2bbf 3e04 76bd
00000120: f980 5c3e 99ce 203f 6bbc 153f 3743 70be
00000130: 19f0 bd3e 62b4 863e 04cb 863e f7b2 fabe
00000140: 8c43 4ebf 788f 09bf 714d f53e 698d 843e
00000150: be2a 3f3e 0f99 8dbe 31cd 36bf cab0 1e3f
00000160: c879 7f3e 0a8c 9c3e 77b5 88be a18f 2fbf
00000170: 3d28 03bf 1e56 36bf 5f7f 3b3e f421 e6bd
00000180: 38d3 eebe 4fd0 713e 4414 253f 5e98 043f
00000190: 3fa9 8b3e 5a43 a9be cdcd 8a3e e259 a8be
000001a0: 1966 74be b1ae 873e cd7e 91be 6b15 323f
000001b0: a57b fe3e 42a8 013f 124b 313e d14f 16bf
000001c0: f084 c8bd 9a8d a1be 4c0a 12be e8d0 e0be
000001d0: ca68 f3be 649a 3b3f 6a3b 16bf 30f3 323e
000001e0: 7539 023e 59d0 9fbe f869 fc3e 61b9 e73e
000001f0: ca54 ecbe 2c14 0c3f 1703 d2be 21ca d63e
00000200: 7661 fb3e 82b1 013d 8625 c73d f86f 1f3e
00000210: e181 d23c 6fd2 423e a43f 023e efdc 0a3c
00000220: 2be4 8bbe c6ac d6bd 8f88 8ebd 192c 533e
00000230: 90cc 54be 16a7 66be 1fb1 62be 0d01 fb3d
00000240: 5f22 7ebe 4daf edbd faea 673e 3c4b 24be
00000250: 5805 bdbd 87eb 103d aac4 3abe e3aa 0fbe
00000260: 00bb 66be e8c5 92be bfca 163f c8b4 473d
00000270: def0 493d 24aa d0bd b070 8dbd 416e 033e
00000280: 632b 5c3d 86c6 5abe 47ce 10be 3061 8cbd
00000290: ef59 b7be d96f 5b3e b2a0 b3be c8f1 b93e
000002a0: aeca ce3d 9d72 40be 4d42 8a3e abc3 083e
000002b0: 02d2 5bbd 9e74 1bbe 7afb 6ebe c738 083e
000002c0: 43bb 053c 1a43 a13e f0b5 383e 1324 da3d
000002d0: ae7e cc3e 1833 3d3e 8022 fe3d 7306 b9bd
000002e0: f646 1b3c 80fc 1a3e 42c6 c2bc 7167 fabd
000002f0: be1e a93d 6e0c 11be 28c4 643e 7f8a c0be
00000300: 31b9 00bf 1dec 0b3d 80f0 d3bd 922d 18be
00000310: 709c 053d 96b5 5bbd b432 62bd 8c1a 1dbd
00000320: 877f ae3e e4a1 603d a447 283c 232c 60be
00000330: ffd7 683e 618e 793e c280 553e fcb9 24bd
00000340: be0a 8f3e 6dd5 50bb 751c 8dbe 3060 3d3e
00000350: cebb ae3d 8bbd bcbc 2e80 703e 20ee a03d
00000360: 6372 933e 03aa 943e 2a9a e7be 634e da3d
00000370: ead0 aabb 04bc 023e 8cb5 9f3d 7071 02be
00000380: 97f3 f0bd 6e0f 3a3e 9b49 a63d 678c 5e3d
00000390: b4bb b13e e5fa 6ebe a3c8 983e 5b99 51be
000003a0: 868c debd 6960 503e d3e3 f6bc c769 90be
000003b0: c651 7e3d ad8a e73d ab8c 6b3e 4429 a0bd
000003c0: 159e 59bd 77ba b0be e9c3 09be f440 45bd
000003d0: 21ba 03bf bc6d 66be f2aa 9dbd 41b0 b73d
000003e0: 4a26 a33c 45de 0bbe 2f05 cb3d f20a 9fbe
000003f0: 36e2 a6bd 18d2 ad3d 9c48 5fbe 6307 3e3e

encoder.dcrnn_cells.1.update.bias_pool f4 [2, 64]
-0.018806921 -0.14910087 -0.20713219 0.09086078 0.04052639 0.00921602 0.06240818 -0.04416592
-0.007738054 -0.08324763 0.015476639 -0.116971664 -0.14722738 -0.09257814 0.27560064 0.15832284
0.14459799 0.11565628 0.3508611 0.11140053 0.09783625 0.08210192 0.137131 -0.036713235
-0.021124192 -0.18769743 0.11488917 -0.08855698 -0.06220027 -0.83082056 0.20095238 0.073546566
0.08032897 0.14198703 0.13048683 0.17779258 -0.13178098 -0.07705338 -0.28078687 -0.10090043
0.07147844 0.0754387 -0.20843394 -0.12795776 -0.052948043 0.18243659 -0.19541661 -0.0298788
0.2985432 0.05896034 0.013390066 0.016488602 -0.04672507 -0.22570002 0.09431 -0.09301644
0.1836251 -0.29272774 0.021594146 0.04048305 -0.04181059 -0.16108729 0.011227477 -0.010865283
0.27892098 -0.025871048 0.12689127 0.28101137 -0.17023431 0.05136282 -0.38145 0.20712323
-0.062071208 -0.18500929 -0.2209729 0.3160184 0.0018513757 0.28671202 0.12670337 0.062122405
0.020404343 0.25932142 0.12964411 -0.23518535 -0.042066608 0.27313545 0.20531139 -0.13267043
-0.12463333 0.16103065 0.06800403 -0.12382037 -0.23372822 -0.6344937 0.25146756 -0.32441965
0.3395247 -0.3879166 0.010536063 -0.13795051 -0.34645092 0.18268919 0.081971996 0.20265643
0.20132113 -0.2519017 0.22742935 -0.15752771 -0.09850273 -0.31629902 -0.091894045 0.17638104
0.37119552 -0.11578193 -0.20014796 0.22276475 0.05595625 -0.16489787 0.089202754 -0.22511517
0.122582264 0.029197695 0.14340371 -0.028330876 0.18245925 -0.30529225 -0.0068914434 -0.14989008
00000000: f910 9abc e6ad 18be 761a 54be 3715 ba3d
00000010: 00ff 253d cafe 163c b89f 7f3d 53e7 34bd
00000020: 808f fdbb bc7d aabd bb91 7d3c d78e efbd
00000030: c6c2 16be 9c99 bdbd 871b 8d3e 621f 223e
00000040: 7f11 143e 33dd ec3d 11a4 b33e f625 e43d
00000050: 5f5e c83d 0d25 a83d 126c 0c3e 9e60 16bd
00000060: a40c adbc c133 40be 034b eb3d 5d5d b5bd
00000070: b6c5 7ebd a8b0 54bf 76c6 4d3e 959f 963d
00000080: 8483 a43d 0c65 113e 579e 053e 420f 363e
00000090: 98f1 06be 2ace 9dbd 4cc3 8fbe e2a4 cebd
000000a0: 4a63 923d 9b7f 9a3d b56f 55be 5c07 03be
000000b0: 0ce0 58bd a8d0 3a3e 4b1b 48be 63c4 f4bc
000000c0: a8da 983e 6680 713d 0262 5b3c 1b13 873c
000000d0: c962 3fbd e81d 67be 9a25 c13d 677f bebd
000000e0: 3808 3c3e 69e0 95be 35e6 b03c 8ed1 253d
000000f0: 9541 2bbd 11f4 24be 74f3 373c 4d04 32bc
00000100: bbce 8e3e 85ef d3bc c9ef 013e b9e0 8f3e
00000110: e751 2ebe d261 523d 6a4d c3be 1d18 543e
00000120: 613e 7ebd 1373 3dbe b846 62be 2acd a13e
00000130: dca9 f23a ebcb 923e 87be 013e 1074 7e3d
00000140: 0227 a73c c7c5 843e 6dc1 043e 6ed4 70be
00000150: 094e 2cbd 69d8 8b3e 263d 523e c2da 07be
00000160: c23f ffbd 38e5 243e b245 8b3d 8995 fdbd
00000170: 7356 6fbe 2e6e 22bf 5bc0 803e 551a a6be
00000180: 2ed6 ad3e 019d c6be 749f 2c3c e642 0dbe
00000190: 0462 b1be e012 3b3e efe0 a73d 2b85 4f3e
000001a0: 2027 4e3e 42f9 80be 3de3 683e f24e 21be
000001b0: cdbb c9bd f2f1 a1be f232 bcbd 3b9d 343e
000001c0: 570d be3e 141f edbd 96f3 4cbe 711c 643e
000001d0: 6132 653d fdda 28be efaf b63d 9784 66be
000001e0: 690c fb3d 0130 ef3c 6cd8 123e 2716 e8bc
000001f0: 99d6 3a3e 444f 9cbe 9ed1 e1bb c97c 19be
