CQ/result/P4_Result/DAYS/2/data1/best_model.pth (torch_old, 603835 bytes, 11 tensors)

node_embeddings f4 [307, 2]
0	0xbe2dec36	-0.16984639
1	0x3e6087da	0.21926823
2	0xbe610c55	-0.2197736
3	0x3e98bcfd	0.29831687
4	0x3ea01b71	0.31270936
5	0x3e5385a0	0.20656443
6	0x3e944bd9	0.28964117
7	0xbde1650b	-0.110056005
8	0x3d09e518	0.033665746
9	0x3ef58c54	0.47958624
10	0x3e3e1c33	0.18565445
11	0x3e1da1db	0.15393774
12	0xbe90e452	-0.28299195
13	0xbef832cd	-0.48476258
14	0x3c172f53	0.009227592
15	0x3f051270	0.5198126
16	0xbee97a77	-0.45601246
17	0x3d071983	0.032983314
18	0x3ea11196	0.3145873
19	0xbdeb2e15	-0.11483399
20	0x3e87945c	0.26480377
21	0xbbf2b2d8	-0.0074065737
22	0x3eb43b71	0.352016
23	0xbd94c7b1	-0.072646506
24	0xbe80e2ce	-0.25173038
25	0xbd15f430	-0.03660983
26	0x3d83ea1f	0.064411394
27	0x3e5e320d	0.2169878
28	0x3e73715b	0.2377371
29	0xbe199da2	-0.15001538
30	0x3e79ff9a	0.2441391
31	0x3e93001a	0.28711015
32	0xbe761f4b	-0.24035375
33	0xbdc09ed2	-0.094052926
34	0xbe9aeab8	-0.302572
35	0xbcf7bc94	-0.030241288
36	0x3e8bd590	0.27311373
37	0xbc009196	-0.00784721
38	0x3e6c1c44	0.23057657
39	0xbd02e0ba	-0.031952597
40	0x3e557940	0.20847034
41	0x3ea4bb18	0.3217399
42	0x3d5d8ae4	0.054087535
43	0x3eb1d288	0.34730935
44	0x3cddc364	0.027070709
45	0x3e6a6203	0.22888951
46	0xbea5fd97	-0.32420036
47	0xbdfc08b3	-0.12306347
48	0x3da22027	0.07916289
49	0x3e2ce8fc	0.16885751
50	0x3e7c69db	0.24649756
51	0x3e8ba2dc	0.2727269
52	0x3e1038ed	0.14084215
53	0x3e1c24ad	0.15248366
54	0xbe94f120	-0.29090214
55	0xbe8edb41	-0.27901652
56	0x3d871e90	0.06597626
57	0x3deacf8c	0.11465368
58	0x3de50fa4	0.11184624
59	0x3e2580ff	0.1616249
60	0x3ea612fa	0.32436353
61	0xbddb6d52	-0.107142106
62	0x3df9276f	0.121657245
63	0x3e84c9d2	0.25935227
64	0xbe38ffcc	-0.18066329
65	0xbe8399d5	-0.25703302
66	0x3e52bc24	0.20579582
67	0xbe1521ce	-0.14563677
68	0x3ea16bb0	0.31527472
69	0x3e610bb4	0.2197712
70	0xbea2ffaf	-0.31835696
71	0xbcb4cc01	-0.022069933
72	0x3e7f4034	0.24926835
73	0xbde3d66c	-0.11124882
74	0x3e67ea4b	0.2264797
75	0x3e896794	0.26836836
76	0x3e632ad4	0.22184306
77	0x3e977fff	0.2958984
78	0x3e08d53f	0.13362597
79	0x3e33dfa9	0.17565788
80	0x3e947506	0.28995532
81	0xbdc11d26	-0.09429388
82	0xbe7ed68a	-0.24886528
83	0xbbeaba1a	-0.0071632983
84	0xbe687548	-0.22700989
85	0xbdc882b7	-0.09790557
86	0x3e1de0ca	0.15417781
87	0x3e0b2412	0.13587978
88	0x3ec12d43	0.37729844
89	0xbe11a825	-0.14224298
90	0xbe882aa3	-0.2659503
91	0xbd37e8a7	-0.04489961
92	0x3c68291e	0.014169959
93	0x3e81f423	0.25381574
94	0x3e2f462e	0.17116615
95	0x3ea22898	0.31671596
96	0xbf1898c5	-0.5960811
97	0x3f13b338	0.5769534
98	0x3e49c341	0.1970339
99	0xbe3fcb51	-0.18729903
100	0x3dea4264	0.11438444
101	0x3e8f4f84	0.27990353
102	0x3e683aa1	0.22678615
103	0x3a33667d	0.000684358
104	0xbee8c697	-0.45464012
105	0x3ddbf317	0.10739725
106	0x3e46fa80	0.19431496
107	0x3e1d8f8f	0.15386795
108	0xbeb6d5d0	-0.3571
109	0xbeda0f61	-0.42589858
110	0x3dcd309b	0.100190364
111	0x3dfb5784	0.12272552
112	0x3e2a885a	0.16653576
113	0x3e038186	0.12842378
114	0x3e47df0a	0.19518676
115	0xbce08cfe	-0.02741098
116	0x3e2f2b30	0.17106318
117	0x3ddcbdc3	0.10778382
118	0x3e7c3ea7	0.24633275
119	0xbdfb9fb8	-0.12286323
120	0xbd4ed2cd	-0.050494004
121	0x3ee1e6e3	0.44121465
122	0x3e7c8f2e	0.24663994
123	0xbd20e83d	-0.03928398
124	0x3ee1312e	0.43982834
125	0xbe09cadf	-0.13456295
126	0xbe5bc0a3	-0.21460204
127	0x3e732f36	0.23748478
128	0x3e702c51	0.23454405
129	0xbe1be3b9	-0.15223588
130	0x3e69a779	0.22817792
131	0x3e7ee59a	0.24892274
132	0x3e86777b	0.2626303
133	0xbe0bcc4f	-0.13652156
134	0x3e1f92b6	0.1558331
135	0x3e019e72	0.12658098
136	0x3df84aa8	0.121236145
137	0xbe1971e1	-0.14984848
138	0x3e357dee	0.1772382
139	0x3dd127e8	0.1021269
140	0x3ea8fbfe	0.33004755
141	0xbe274eb7	-0.16338621
142	0x3e2ddc37	0.16978537
143	0x3e5075d8	0.20357454
144	0x3e33c572	0.17555788
145	0x3e07d71e	0.13265654
146	0x3e317506	0.17329797
147	0x3e617f6a	0.22021261
148	0xbef1f8c8	-0.47260118
149	0xbc70c590	-0.01469554
150	0x3e851816	0.2599494
151	0x3e38fb24	0.18064553
152	0x3e1f7603	0.15572362
153	0x3e1998ac	0.14999646
154	0x3e981d03	0.29709634
155	0x3e2dc481	0.16969492
156	0x3e71743d	0.23579498
157	0xbc868fb7	-0.01642595
158	0xbe83872f	-0.25689074
159	0x3c9ea92d	0.019367779
160	0x3e863ea1	0.26219657
161	0x3a210773	0.00061427726
162	0x3e7d2304	0.24720389
163	0x3e148e6c	0.14507455
164	0x3e20ab32	0.15690306
165	0x3dca9952	0.09892525
166	0x3d0cd870	0.0343861
167	0x3f16766c	0.5877445
168	0x3e67bed4	0.22631389
169	0x3e87f46c	0.26553667
170	0x3e245d4d	0.16051216
171	0x3e029b67	0.12754594
172	0xbeb3d583	-0.35123834
173	0xbdcc74d4	-0.09983221
174	0x3d874e8f	0.06606781
175	0x3ec490dd	0.38391772
176	0x3e8c4654	0.27397406
177	0xbdad9a59	-0.08476705
178	0x3cd8f03c	0.02648174
179	0x3de70552	0.11280312
180	0x3e91dd5f	0.28489205
181	0x3e3e827a	0.1860446
182	0xbe8b1aef	-0.27168986
183	0x3e845e95	0.2585341
184	0xbe3228dc	-0.17398399
185	0x3e3ddfc8	0.18542397
186	0x3e230905	0.1592141
187	0x3ee0045b	0.43753323
188	0x3e949fc5	0.29028144
189	0xbd42e90e	-0.04758554
190	0x3e3bb39a	0.18330231
191	0x3dfe2a6e	0.124104366
192	0x3e14f3d6	0.14546141
193	0x3e0ee936	0.1395615
194	0x3e474266	0.19458923
195	0xbc29b01e	-0.010356931
196	0xbea6721a	-0.32508928
197	0xbe2bc20e	-0.16773245
198	0x3e0bdecd	0.1365921
199	0x3e17d65b	0.14827864
200	0x3e4a0d57	0.19731651
201	0xbe09b1b2	-0.13446692
202	0x3e79f2ae	0.24408981
203	0x3da81e8e	0.08208953
204	0xbea49f4f	-0.32152793
205	0x3ec9dbbb	0.39425454
206	0x3e2f1567	0.17098008
207	0x3e2c31a4	0.16815811
208	0x3e95eefb	0.2928389
209	0xbe2c1289	-0.16803946
210	0x3db12533	0.08649673
211	0x3e685cfe	0.22691724
212	0xbe97ef3b	-0.29674706
213	0x3b6a3abf	0.0035740582
214	0xbcda8e58	-0.026679203
215	0x3da0d809	0.078537054
216	0x3e68bcc0	0.22728252
217	0x3e1573a2	0.14594892
218	0x3e83578e	0.25652736
219	0x3e25cfff	0.16192625
220	0xbe69336d	-0.22773524
221	0xbe32edbd	-0.17473502
222	0xbe4f15b4	-0.20223123
223	0xbe08d9ba	-0.13364306
224	0x3ca7291d	0.020405347
225	0x3e092999	0.13394774
226	0x3e066c7a	0.13127318
227	0xbe0f1080	-0.13971138
228	0xbf194aca	-0.59879744
229	0x3f1e5151	0.6184283
230	0x3e19af49	0.15008272
231	0x3e8cbb0b	0.27486452
232	0x3dc961f7	0.098331384
233	0x3e652ecc	0.22381133
234	0x3ec22fe0	0.3792715
235	0x3d65ce18	0.05610475
236	0x3eb5b951	0.35492948
237	0x3d01c0e5	0.0316781
238	0x3e7a3339	0.24433602
239	0x3d9291e9	0.071567364
240	0x3e6fe80e	0.23428366
241	0x3d6c9bde	0.057765834
242	0x3e87dd65	0.26536098
243	0xbd42c3c9	-0.047549997
244	0x3e7b506c	0.24542397
245	0x3d5b3d81	0.05352545
246	0xbe998454	-0.2998377
247	0xbb3a11ee	-0.0028392035
248	0xbe708a1c	-0.23490185
249	0xbd93bbe9	-0.072135754
250	0x3e47aa73	0.19498615
251	0x3e54fcbc	0.20799536
252	0x3ddae1ac	0.10687575
253	0x3ed1a47d	0.40945807
254	0x3e25f740	0.162076
255	0x3e13cbeb	0.14433257

encoder.dcrnn_cells.0.gate.weights_pool f4 [2, 2, 65, 128]
0	0x3e671aab	0.22568767
1	0xbeb50c6e	-0.35361046
2	0x3e655e0f	0.22399162
3	0x3f673922	0.9032155
4	0x3f50da8f	0.81583494
5	0x3e49b76c	0.19698876
6	0xbec89d55	-0.39182535
7	0xbea353d3	-0.3189989
8	0xbe805379	-0.25063685
9	0x3f3cffdd	0.73827916
10	0xbdfd9004	-0.123809844
11	0x3c4a2e7c	0.012340184
12	0xbeb1e912	-0.3474813
13	0x3e0ac202	0.1355057
14	0xbc2dd5ec	-0.010610085
15	0xbea9d62f	-0.33171222
16	0x3eabb481	0.3353615
17	0xbde5d340	-0.11221933
18	0xbe20662a	-0.15663972
19	0x3eadf291	0.33974126
20	0xbe854803	-0.26031503
21	0xbe0d4638	-0.13796318
22	0xbec4699b	-0.3836182
23	0xbc229e8e	-0.009925498
24	0xbcbcefc6	-0.023063552
25	0xbde3aa4f	-0.11116468
26	0x3f0f43ca	0.5596281
27	0xbe71dec8	-0.2362014
28	0xbebfa281	-0.37428668
29	0xbe85206b	-0.26001295
30	0xbf007d93	-0.5019161
31	0x3eab01c1	0.33399776
32	0x3e19d230	0.15021586
33	0xbdb1601c	-0.086609095
34	0xbf06b2b2	-0.5261642
35	0xbe4b6a04	-0.1986466
36	0xbf1c53be	-0.6106528
37	0x3e532d53	0.20622759
38	0x3eeaee9e	0.45885175
39	0x3f17be51	0.59274775
40	0x3ea5b139	0.32361773
41	0x3e7fcd2f	0.24980615
42	0xbc4baa2c	-0.012430709
43	0x3dcefd2a	0.10106881
44	0x3d7ba8b3	0.06144018
45	0xbe2af95d	-0.16696687
46	0xbe9b8152	-0.303721
47	0x3e5296a0	0.20565271
48	0x3d68399e	0.056695573
49	0xbf0e9c43	-0.55707186
50	0xbe34292d	-0.17593832
51	0xbe0800f1	-0.13281609
52	0x3d11e4c2	0.03561855
53	0x3d78cd73	0.060742807
54	0x3e386750	0.1800816
55	0x3ea3a785	0.31963745
56	0x3e485b16	0.19565997
57	0xbdeeb15d	-0.11654923
58	0xbcb7c28b	-0.022431633
59	0x3e8dad58	0.27671313
60	0xbefcb39b	-0.49355778
61	0x3d6c608c	0.05770926
62	0x3e7f5b48	0.24937165
63	0xbea3c070	-0.31982756
64	0xbdfe6a6a	-0.124226406
65	0xbe565707	-0.20931636
66	0xbec4ca39	-0.38435534
67	0xbe6d2769	-0.23159565
68	0x3f24d131	0.643817
69	0x3f302b68	0.6881623
70	0x3fad6c5b	1.3548692
71	0x3fc19d70	1.5126171
72	0xbeabc9f0	-0.33552504
73	0x3f5ff3e0	0.874815
74	0x3f6aae52	0.9167224
75	0xbf8b7cb2	-1.0897429
76	0xbe2a334e	-0.16621134
77	0x3e8da80e	0.27667278
78	0x3fafecf6	1.374419
79	0x40019f25	2.0253384
80	0x3df0f2ed	0.117650844
81	0x3e1d1e85	0.15343674
82	0x3f668222	0.90042317
83	0xbf412df8	-0.7546077
84	0xbd5a29a8	-0.053262383
85	0x3fa0d7fe	1.2565916
86	0x3e017851	0.12643553
87	0x3f9cf0f6	1.2261035
88	0xbf0665af	-0.52498907
89	0x3e049caa	0.12950388
90	0x3db3242a	0.08747132
91	0xbf745b3e	-0.95451725
92	0xbe077246	-0.13227186
93	0xbe98d221	-0.29847816
94	0x3fb783d0	1.4337101
95	0x3f6593f2	0.8967887
96	0xbf5e8834	-0.8692658
97	0x3fb1ab75	1.388045
98	0x3917b3b8	0.00014467433
99	0x3f1a8917	0.6036543
100	0x3fc0d16b	1.5063909
101	0x3d2af8b0	0.041741073
102	0x3e31b8f9	0.17355718
103	0x3f220b45	0.63298446
104	0xbdd02e47	-0.10165077
105	0x3eae017e	0.33985513
106	0x3eeb4ac5	0.45955482
107	0x3f8af296	1.0855281
108	0x3e621682	0.22078899
109	0xbe8aa58c	-0.27079427
110	0x4004cf8c	2.0751677
111	0x3f06a83c	0.52600455
112	0x3e6722a4	0.22571808
113	0x3f8e021d	1.1094395
114	0x3f942727	1.1574448
115	0x3bcadfc3	0.0061912253
116	0x3fa7067f	1.3048857
117	0xbf081bfb	-0.53167695
118	0x3ca0e49c	0.01964026
119	0xbde6a1d1	-0.11261333
120	0xbd81b758	-0.06333798
121	0x3f6079e0	0.87685966
122	0xbdd28488	-0.102791846
123	0xbc526557	-0.012841544
124	0x3fff971e	1.9967992
125	0xba92be38	-0.0011195606
126	0xbf20d528	-0.6282525
127	0x3fb0f328	1.3824205
128	0x3d12f624	0.03587927
129	0x3e0ea6e7	0.13930856
130	0xbd167558	-0.036733
131	0xbdccdf16	-0.10003488
132	0xbe52b566	-0.2057701
133	0xbea80938	-0.32819533
134	0xbd9e94d7	-0.07743233
135	0x3df54cc3	0.11977532
136	0xbdb2d8a3	-0.087327264
137	0x3c0f8ac3	0.008761111
138	0xbd4df6de	-0.05028426
139	0xbbc6a3d8	-0.006062012
140	0xbc16161d	-0.009160546
141	0x3e28bf6a	0.16479269
142	0xbeef84ac	-0.46780908
143	0xbe0713b8	-0.13191116
144	0xbd72b3a1	-0.05925334
145	0x3d77a90a	0.060463943
146	0xbe5cee8a	-0.2157537
147	0x3d2f4ff3	0.042800855
148	0x3e0314aa	0.12800851
149	0xbd600a4a	-0.054697312
150	0x3d3e30ff	0.046433445
151	0xbf333677	-0.7000498
152	0xbb766c3e	-0.0037601138
153	0xbee895e7	-0.45426866
154	0x3e2cf633	0.16890793
155	0x3e236c65	0.15959318
156	0x3dd8c8ee	0.10585199
157	0xbe481b1e	-0.19541594
158	0x3e9c1bac	0.30489862
159	0xbe522d4f	-0.20525096
160	0xbd830851	-0.063980706
161	0xbe069578	-0.13142955
162	0xbeb25285	-0.34828582
163	0x3dd2dd0d	0.10296068
164	0xbd6cccc1	-0.057812456
165	0x3d838d20	0.06423402
166	0x3e20041f	0.15626572
167	0xbe3a1b87	-0.18174563
168	0x3d14cfe5	0.036331076
169	0xbec69480	-0.38785172
170	0x3deca5d9	0.115550704
171	0xbdd6950a	-0.10477646
172	0xbedbdcce	-0.42941898
173	0x3dcbaaa2	0.09944655
174	0xbdf0a661	-0.11750484
175	0x3e2f219d	0.17102666
176	0xbd0c4c7d	-0.034252632
177	0xbe8be1ee	-0.27320808
178	0xbe7e298d	-0.24820538
179	0xbd48a4d7	-0.04898533
180	0xbee1fb1d	-0.44136897
181	0xbc98d6c8	-0.018657103
182	0x3db5dedc	0.08880398
183	0x3dbd042e	0.09229313
184	0x3e072f8a	0.13201728
185	0xbe221959	-0.15829982
186	0x3dcf089c	0.10109064
187	0x3e4f71e9	0.20258297
188	0xbe5cbd64	-0.21556622
189	0x3db1528c	0.08658323
190	0xbd85028f	-0.06494629
191	0xbe3eb34b	-0.18623082
192	0x3d676a1c	0.05649768
193	0xbe0b0f9b	-0.13580172
194	0xbefeffa8	-0.49804425
195	0xbecbd0a9	-0.39807633
196	0xbe62e47b	-0.22157471
197	0xbdd5a0c1	-0.10431052
198	0xbf2f583f	-0.6849403
199	0x3bd0a6a2	0.0063675204
200	0xbea32f51	-0.31872037
201	0xbe898af1	-0.26863816
202	0xbe6e3edd	-0.23266168
203	0x3e9ddff9	0.3083494
204	0xbe9c9c8b	-0.30588183
205	0xbec683ae	-0.3877234
206	0xbea7c1d7	-0.32765076
207	0xbf2a1121	-0.66432387
208	0x3eab1276	0.33412522
209	0x3e5de61a	0.21669808
210	0xbd8aca71	-0.06776894
211	0xbf0e848c	-0.55671
212	0xbac3dea8	-0.0014943676
213	0xbd3dfc48	-0.046383172
214	0xbd51a92c	-0.051186725
215	0xbf0ea7d2	-0.55724823
216	0xbecc63aa	-0.39919788
217	0x3da6586b	0.08122333
218	0xbd4a926e	-0.049456052
219	0xbf462da6	-0.77413404
220	0xbe93f823	-0.2890025
221	0xbdcbaa01	-0.09944535
222	0xbf0b5bf6	-0.54437196
223	0xbe95a101	-0.292244
224	0x3d238c33	0.039928626
225	0xbf366b35	-0.71257335
226	0xbefedeaa	-0.49779254
227	0xbe40aad7	-0.1881517
228	0xbeb80d42	-0.35947615
229	0xbe68bea9	-0.22728981
230	0xbea40607	-0.32035848
231	0xbe7ae73d	-0.24502273
232	0x3e56e670	0.20986342
233	0x3daa831c	0.083257884
234	0x3db8630f	0.09003269
235	0x3d4940c6	0.04913404
236	0xbf30ae20	-0.69015694
237	0xbe1b63b7	-0.15174757
238	0xbf05261a	-0.52011263
239	0xbc3ac3ae	-0.011399193
240	0xbc27bbe8	-0.010237671
241	0x3d432166	0.047639273
242	0xbe2a3ced	-0.16624804
243	0xbe45f2bf	-0.19330882
244	0xbea9b43f	-0.3314533
245	0xbe32866b	-0.17434089
246	0xbe2fa2fd	-0.17152019
247	0x3d6622ff	0.05618572
248	0x3e1054a9	0.14094795
249	0x3d96f751	0.073713906
250	0x3e8f3f28	0.27977872
251	0xbe579b27	-0.2105528
252	0xbf90333d	-1.1265637
253	0x3c2cd867	0.010549641
254	0xbf93449e	-1.1505315
255	0xbe28904f	-0.164613

encoder.dcrnn_cells.0.gate.bias_pool f4 [2, 128]
0	0x3e2fc686	0.17165574
1	0x3d664972	0.056222387
2	0xbe9b9a3a	-0.30391103
3	0xbca67897	-0.020321174
4	0xbe1c2055	-0.15246709
5	0xbe1cf4c0	-0.1532774
6	0x3e36faac	0.17869061
7	0x3ea3ca93	0.3199049
8	0x3ec48c88	0.38388467
9	0xbf059ad2	-0.5218936
10	0x3e917d60	0.28415966
11	0x3eba56ca	0.3639434
12	0x3e0d6538	0.13808143
13	0x3e261e49	0.1622249
14	0x3ea1abaf	0.31576297
15	0x3e7abd1f	0.24486206
16	0xbd4821bc	-0.048860297
17	0xbe3767a8	-0.17910635
18	0x3ebb9bfe	0.3664245
19	0xbc518842	-0.012788834
20	0x3e2b895d	0.16751619
21	0xbe7f45ca	-0.24928966
22	0xbda571ad	-0.080783226
23	0xbdc1b71d	-0.09458754
24	0x3eb0576e	0.34441704
25	0xbcd07f83	-0.025451427
26	0x3dce374c	0.10069141
27	0x3d873106	0.06601147
28	0x3dbd03f6	0.09229271
29	0x3de94997	0.11390989
30	0x3e7c7753	0.24654894
31	0xbdf3eceb	-0.11910423
32	0xbd243278	-0.040087193
33	0x3ddf74f0	0.10910976
34	0x3dad72f7	0.084691934
35	0x3de7b8da	0.113145545
36	0x3e52e81b	0.20596354
37	0xbe3e9e74	-0.18615133
38	0xbd2317d9	-0.039817665
39	0x3d3a5bd8	0.045497745
40	0xbe4050cb	-0.1878082
41	0xbd443981	-0.047906402
42	0xbaa772ee	-0.0012775341
43	0x3ea1614f	0.31519553
44	0x3e53e4ac	0.206927
45	0x3c57491f	0.013139992
46	0x3e4d1f02	0.2003136
47	0x3dafdbc7	0.08586841
48	0x3da40694	0.08009067
49	0xbc4525d2	-0.012032943
50	0xbde3908c	-0.111115545
51	0x3e48e47a	0.19618407
52	0x3cd27584	0.025690801
53	0x3da58982	0.08082868
54	0x3da67950	0.08128607
55	0x3cd6b57a	0.026209582
56	0xbd4fb22d	-0.05070703
57	0xbcc18b38	-0.023625955
58	0x3e0a8595	0.1352752
59	0x3ea24fdc	0.31701553
60	0x3e3e669d	0.18593831
61	0xbe04b115	-0.12958176
62	0x3dc3d70d	0.09562502
63	0x3dcfda9a	0.10149117
64	0x3eb4c6dd	0.3530797
65	0x3de4d1aa	0.11172803
66	0xbca007fb	-0.019535055
67	0xbe918d59	-0.28428152
68	0xbe64d317	-0.2234615
69	0xbce362bb	-0.02775704
70	0xbe0b384e	-0.13595697
71	0xbf1b9e4a	-0.60788405
72	0x3b3243d9	0.0027201085
73	0x3d8dd68a	0.06925686
74	0xbe946842	-0.28985792
75	0xbf2558d4	-0.64588666
76	0x3df9ae48	0.12191445
77	0xbee5f0c3	-0.4491025
78	0xbd0c48f8	-0.034249276
79	0xbca395c4	-0.019968875
80	0x3dd3cdf0	0.10342014
81	0x3d2fc1ba	0.04290936
82	0x3ceabf22	0.028655592
83	0xbe670984	-0.22562224
84	0x3d032db9	0.032026026
85	0xbe361c59	-0.17784251
86	0x3ec9f56a	0.3944505
87	0xbd9170de	-0.07101606
88	0xbca61f53	-0.020278608
89	0xbe56ed09	-0.20988859
90	0x3ee7f562	0.453044
91	0xbcb4bb9f	-0.022062121
92	0xbf051012	-0.51977646
93	0xbe7445fa	-0.23854819
94	0xbf01d1ec	-0.5071094
95	0xbe94a64d	-0.29033127
96	0xbee50246	-0.44728297
97	0xba1eed1e	-0.0006062555
98	0xbe82b518	-0.2552879
99	0xbcc383a3	-0.02386648
100	0xbd84f3c7	-0.06491809
101	0x3e264caf	0.1624019
102	0x3d0460f4	0.032319024
103	0xbef372fa	-0.47548658
104	0x3c8a5f2d	0.016891086
105	0xbea0ceff	-0.31407925
106	0x3e142063	0.1446548
107	0x3db4d7da	0.08830233
108	0xbeddfd76	-0.43357438
109	0x3d82b0af	0.06381356
110	0xbe07d998	-0.13266599
111	0x3ea52c7a	0.32260495
112	0xbc54bec3	-0.012984934
113	0xbd3fbc55	-0.046810467
114	0xbe2f7ffe	-0.17138669
115	0xbe21e2df	-0.158092
116	0xbd981999	-0.07426757
117	0x3da5a008	0.08087164
118	0x3cf37d62	0.029722873
119	0x3e740f92	0.23834065
120	0x3d476786	0.048682712
121	0xbef31b91	-0.4748197
122	0xbccfc387	-0.02536179
123	0xbdb085e4	-0.086192876
124	0xbb9a1c7b	-0.004703102
125	0x3e073bc5	0.13206394
126	0xbe4fd15d	-0.2029471
127	0xbe3eb7a0	-0.18624735
128	0x3e96f2e8	0.29482198
129	0xbe33f875	-0.17575248
130	0x3d55b65e	0.052175872
131	0x3e268cd7	0.16264664
132	0x3e22fb1a	0.159161
133	0x3ecd856b	0.40140852
134	0x3d1b4b02	0.03791333
135	0xbe807a0c	-0.25093114
136	0xbcc5787e	-0.024105307
137	0x3e714879	0.23562802
138	0x3e9ea5c7	0.30985853
139	0xbdc9b319	-0.09848613
140	0xbe0a2ddb	-0.13494055
141	0xbc38d770	-0.011281833
142	0xbdf0e55e	-0.11762498
143	0x3dda6539	0.10663838
144	0x3e6237ba	0.2209157
145	0x3e940e70	0.28917265
146	0xbe03bfd3	-0.12866144
147	0x3ea85e95	0.3288466
148	0xbe199cbe	-0.15001199
149	0x3d506f8b	0.050887626
150	0x3e57be0f	0.21068595
151	0xbc3d9e98	-0.011573456
152	0xbe8437f7	-0.25823948
153	0x3ef8bf6b	0.4858354
154	0x3ee7ff39	0.45311907
155	0xbdc1c7f8	-0.09461969
156	0xbdee3025	-0.116302766
157	0xbe95c3e3	-0.29251012
158	0x3df0ecb7	0.117639
159	0x3f0ad92e	0.5423764
160	0xbe01d073	-0.12677173
161	0xbc5fcbb4	-0.013659406
162	0xbd04cd43	-0.032422315
163	0x3e429197	0.1900085
164	0x3d2e1112	0.04249675
165	0xbe9c907d	-0.30578986
166	0x3dc50c4c	0.09621486
167	0x3f0df1e6	0.5544723
168	0x3ec54756	0.38530988
169	0xbdd6b421	-0.104835756
170	0x3e757a06	0.2397233
171	0x3e398435	0.18116839
172	0xbeb9476e	-0.3618731
173	0xbdbc5547	-0.09195953
174	0x3f18b08b	0.59644383
175	0x3e341131	0.17584683
176	0x3e354b5b	0.17704527
177	0x3eae5feb	0.34057555
178	0x3e6eee2e	0.23333046
179	0xbe206bc5	-0.15666111
180	0xbdb7e3cc	-0.08978996
181	0x3d17afa1	0.037032727
182	0x3e50830e	0.20362493
183	0x3c572ee0	0.013133734
184	0x3bb08795	0.0053872564
185	0x3e962ef8	0.2933271
186	0xbdd1523f	-0.10220765
187	0x3e0231be	0.12714288
188	0x3e34a01d	0.17639203
189	0x3e2c7cee	0.16844532
190	0xbe1f3bbd	-0.15550132
191	0x3e41f35e	0.18940493
192	0xbc87f2fe	-0.01659536
193	0xbafc7975	-0.0019262271
194	0xbe9f3218	-0.31092906
195	0xbe0f281d	-0.13980146
196	0xbed6e699	-0.41972807
197	0xbf31eeaa	-0.695048
198	0xbf46dacb	-0.776776
199	0xbef52bf5	-0.478851
200	0xbf080481	-0.5313187
201	0xbf33a750	-0.70177174
202	0xbf0e30e5	-0.5554336
203	0xbe9b7aff	-0.30367276
204	0xbe9a75ef	-0.301681
205	0xbe971d54	-0.29514563
206	0xbee66f8e	-0.45006984
207	0xbe3f471e	-0.18679473
208	0xbdeb232b	-0.11481317
209	0xbe92f3ad	-0.28701535
210	0xbe4ac71c	-0.19802517
211	0x3e2cb489	0.16865744
212	0xbe81d778	-0.25359702
213	0xbf0a038d	-0.5391167
214	0xbe29c78b	-0.16580026
215	0xbeb08235	-0.3447434
216	0x3eba56ff	0.36394498
217	0xbf107328	-0.56425714
218	0xbe88bb32	-0.2670532
219	0x3d865bd3	0.06560483
220	0xbf1bf01c	-0.6091325
221	0xbe842d1c	-0.25815666
222	0xbf05d2d4	-0.52274823
223	0xbf4354a7	-0.76301044
224	0xbdeaded9	-0.11468286
225	0xbe8bf27f	-0.27333447
226	0xbe783163	-0.2423759
227	0xbe738314	-0.23780471
228	0xbe748fd9	-0.23882999
229	0x3ebc19df	0.36738488
230	0xbea64fc6	-0.32482737
231	0xbeec8043	-0.46191606
232	0x3e235129	0.15948929
233	0xbe6f009d	-0.23340078
234	0x3d695ec3	0.056975137
235	0xbf1bb8cf	-0.6082887
236	0xbe151d1b	-0.14561884
237	0xbdd804f8	-0.10547823
238	0xbe9265e2	-0.28593355
239	0xbd299de7	-0.041410353
240	0xbdeeb223	-0.11655071
241	0xbe49800f	-0.19677757
242	0xbef6447d	-0.48099127
243	0xbe89e166	-0.26929778
244	0xbdcf7802	-0.101303115
245	0x3cb2e4cc	0.021837614
246	0x3e850e85	0.2598764
247	0xbdac6b8b	-0.0841895
248	0x3d5c87f1	0.05384058
249	0xbec9bc37	-0.3940141
250	0xbe830977	-0.2559316
251	0xbd76db7d	-0.060267914
252	0xbdfd9f64	-0.12383917
253	0xbdd0efc7	-0.10201984
254	0x3e4a399e	0.19748542
255	0xbee8c9aa	-0.45466357

encoder.dcrnn_cells.0.update.weights_pool f4 [2, 2, 65, 64]
0	0x4006f1c4	2.1085062
1	0x3e1aab4b	0.15104406
2	0x3f9eab8d	1.2396103
3	0xbebcae78	-0.3685186
4	0xbd3804fc	-0.04492663
5	0x3e12184a	0.14267078
6	0xbe911fc9	-0.28344563
7	0xbeba0d05	-0.36338058
8	0x3f256790	0.6461115
9	0xbeba73d4	-0.36416495
10	0xbe8db7d7	-0.2767932
11	0xbe95a049	-0.2922385
12	0xbe3cc6aa	-0.1843516
13	0xbf51eff2	-0.8200675
14	0x3cc40bb0	0.023931354
15	0x3ed722de	0.4201879
16	0x404f09db	3.2349765
17	0xbfb69e27	-1.4267014
18	0xbeb39bca	-0.35079795
19	0x3efdae8e	0.49547237
20	0xbe8410cc	-0.25794065
21	0xbeabd9b3	-0.3356453
22	0x400167ef	2.0219686
23	0x3e1f9686	0.15584764
24	0xbf686753	-0.9078266
25	0xbe7f79ed	-0.24948855
26	0xbfbe777d	-1.4880215
27	0xbf65dbb3	-0.8978836
28	0x3eb8534b	0.36001047
29	0xbf14ed8f	-0.58174986
30	0xbf4fbfc1	-0.8115197
31	0x3f47a551	0.7798663
32	0x3eea1578	0.45719504
33	0x3dd4ad69	0.10384638
34	0xbf132aed	-0.57487375
35	0xbebbc1a3	-0.3667117
36	0x3f8bee48	1.0932093
37	0xbfcef687	-1.6168984
38	0xbe9e5164	-0.3092147
39	0xbef35ad6	-0.4753024
40	0xc035b08b	-2.8389003
41	0xbd3d242d	-0.046177078
42	0x3ff91b38	1.9461432
43	0xbd9e8e4e	-0.07741986
44	0xbd82421e	-0.06360267
45	0xbdfce600	-0.123485565
46	0x3fc19d58	1.5126143
47	0x3ffb2c78	1.9622946
48	0x3fd9751b	1.6988863
49	0x3f6fb09a	0.9362885
50	0xbed32256	-0.41237134
51	0xbf0f8b37	-0.560718
52	0xbeca06cb	-0.39458308
53	0x3f8f95c4	1.121758
54	0xbf9f0c50	-1.2425632
55	0xbfef389e	-1.8689153
56	0xbefb59e9	-0.49092034
57	0xbdde2f0f	-0.108488195
58	0x3fc04bb3	1.5023102
59	0xbec71d7f	-0.3888969
60	0x3e26a8f5	0.1627539
61	0x3fa989dd	1.3245198
62	0x3f84d4dd	1.0377461
63	0x3f24a8b8	0.64319944
64	0x3e2ff773	0.17184238
65	0x3d5417fb	0.051780682
66	0xbea84f10	-0.3287282
67	0xbcb82a13	-0.022481
68	0xbc5bf037	-0.013423971
69	0xbe7d28c5	-0.24722584
70	0x3f5276e7	0.8221268
71	0x3e213f73	0.1574686
72	0xbe1aaed7	-0.15105759
73	0x3e50b6c4	0.2038222
74	0x3e1117a5	0.14169176
75	0x3eb57261	0.35438827
76	0x3dc81375	0.09769336
77	0x3e1ad81d	0.15121503
78	0x3f17490e	0.5909585
79	0xbf52c3bc	-0.82329917
80	0x3e85ab87	0.26107427
81	0xbd437e61	-0.047727946
82	0xbe0b518e	-0.1360533
83	0xbe8c87c2	-0.27447325
84	0xbd7df506	-0.06200125
85	0x3d6a3cd0	0.0571869
86	0x3e421494	0.18953162
87	0xbda24181	-0.0792265
88	0xbe948ffc	-0.290161
89	0x3d5dcf58	0.054152817
90	0xbe3f025e	-0.18653247
91	0xbe7a79c6	-0.24460515
92	0xbea0c8eb	-0.31403288
93	0x3df63cba	0.120233014
94	0xbeb3886c	-0.3506502
95	0x3ea768d3	0.32697162
96	0x3cbc2e45	0.022971282
97	0xbcd55b06	-0.02604438
98	0xbe79e26e	-0.24402782
99	0xbdebe26c	-0.11517796
100	0xbcd14f81	-0.025550606
101	0x3ddef467	0.1088646
102	0x3e1f2e16	0.15544924
103	0xbea54eb0	-0.32286596
104	0xbe5fd322	-0.21857885
105	0x3c6a75c6	0.014310306
106	0x3f009e19	0.5024124
107	0xbc211d52	-0.009833651
108	0x3dd89ba1	0.10576559
109	0xbd8fc49b	-0.070199214
110	0x3c91972a	0.017772276
111	0x3e6a333c	0.22871107
112	0x3e8dcd07	0.27695486
113	0x3caaf079	0.02086662
114	0xbf0bf43c	-0.5466955
115	0x3ce1ae48	0.027548924
116	0x3eb11dd4	0.3459307
117	0x3d82f71e	0.0639479
118	0xbd0cf39e	-0.03441202
119	0xbe3b116c	-0.18268365
120	0x3e1bd099	0.15216292
121	0xbe387f32	-0.18017271
122	0x3deb2e20	0.11483407
123	0x3eccac24	0.39975083
124	0x3c99e365	0.018785188
125	0x3e506bbf	0.20353602
126	0x3dd883a8	0.105719864
127	0x3c9c4f34	0.019080736
128	0x3e2893f0	0.16462684
129	0x3b84d1a1	0.00405331
130	0xbe0acb1c	-0.13554043
131	0xbe515170	-0.20441222
132	0x3ac05bc8	0.001467579
133	0x3c830a7b	0.015996208
134	0xbd79c91c	-0.06098281
135	0xbe882249	-0.26588657
136	0x3cfd59bf	0.030926583
137	0x3dfbacac	0.12288794
138	0xbe3abdf9	-0.18236531
139	0xbd00d515	-0.03145321
140	0x3b96faef	0.0046075503
141	0xbd755a2f	-0.05990046
142	0xbe4b274f	-0.19839214
143	0x3e998d3f	0.29990575
144	0x3e2bdb8d	0.1678297
145	0x3d4b79b3	0.04967661
146	0xbdf44a6c	-0.11928257
147	0x3df68441	0.12036944
148	0x3dba5fa0	0.0910027
149	0xbea5e6bb	-0.32402596
150	0x3cbbaabc	0.022908561
151	0x3ecb8c8a	0.3975566
152	0xbe2aff9a	-0.16699067
153	0x3ea1dc5f	0.31613442
154	0xbe0bc916	-0.13650927
155	0xbe625c79	-0.22105588
156	0xbd2e54a4	-0.04256119
157	0x3c6204b5	0.013795068
158	0x3dbf031a	0.093267635
159	0xbe14c014	-0.14526397
160	0x3d5701e2	0.05249203
161	0xbd459ea9	-0.048247013
162	0xbe676444	-0.22596842
163	0x3e11dda9	0.14244713
164	0xbe87190d	-0.263863
165	0xbeb19af1	-0.34688523
166	0x3e863fee	0.2622065
167	0x3e0654bd	0.13118263
168	0xbc9cfa74	-0.019162394
169	0xbe0c45e3	-0.13698535
170	0xbe116891	-0.14200045
171	0x3e831edd	0.25609484
172	0xbe8205ab	-0.2539495
173	0xbd7358a6	-0.059410714
174	0xbe0c9ef9	-0.13732518
175	0x3dce6f01	0.10079766
176	0x3c17b33b	0.0092590405
177	0xbc8a64af	-0.016893713
178	0x3dd7e055	0.10540835
179	0x3d48216d	0.048860002
180	0xbea3a822	-0.31964213
181	0x3d83e1f7	0.06439584
182	0xbe5cac0d	-0.21550007
183	0xbd746fdc	-0.05967699
184	0x3da223d0	0.07916987
185	0x39c1fc11	0.00036999633
186	0x3d513da9	0.051084194
187	0x3c8b572c	0.01700934
188	0x3e2fff3b	0.17187206
189	0xbdd2c362	-0.102911726
190	0x3ed93bc4	0.4242841
191	0xbe35a960	-0.17740393
192	0xbf0e7c28	-0.556582
193	0x3d7be113	0.061493944
194	0xbedcc402	-0.43118292
195	0x3e04f1a7	0.12982808
196	0x3de351e5	0.110996045
197	0xbe093947	-0.13400756
198	0x3e5aa32d	0.21351309
199	0x3ebb66d5	0.36601892
200	0xbdb3cd35	-0.087793745
201	0x3ef07333	0.4696289
202	0x3e612cdd	0.2198977
203	0x3c142f19	0.009044432
204	0xbd4f841f	-0.05066311
205	0x3eb69f0d	0.3566822
206	0x3ef01d4f	0.4689736
207	0xbdb4cfd2	-0.08828701
208	0x3d3cd517	0.046101656
209	0x3e84e958	0.25959277
210	0x3ece59d4	0.40302908
211	0xbea5db6c	-0.32393968
212	0xbd6b32c4	-0.05742146
213	0xbcf7a8cd	-0.030231858
214	0x3c1c3d7d	0.009536144
215	0xbd7facb2	-0.062420554
216	0xbe195648	-0.1497432
217	0x3d942860	0.072342634
218	0xbe3fffb4	-0.18749887
219	0x3d756f3d	0.05992054
220	0xbe9d4113	-0.3071371
221	0x3befeec3	0.007322164
222	0x3e17e1fa	0.14832297
223	0xbd328552	-0.043584175
224	0x3e11584b	0.14193837
225	0x3bc95fec	0.006145468
226	0xbe351e7a	-0.17687407
227	0xbe9708ed	-0.29498997
228	0xbefea87f	-0.49737927
229	0xbd1cf1f1	-0.03831667
230	0x3e19bd91	0.1501372
231	0x3ebfe4fc	0.3747939
232	0x3e6494b6	0.22322354
233	0x3e20f41a	0.15718117
234	0xbe912a6b	-0.28352675
235	0x3e637bc7	0.22215186
236	0x3e60106f	0.21881269
237	0xbdea068c	-0.1142703
238	0xbe1d81b2	-0.15381506
239	0x3eeaabdd	0.45834246
240	0xbea109c2	-0.31452757
241	0x3d79b2c0	0.060961485
242	0x3e9b55a2	0.3033877
243	0x3d8240d1	0.06360019
244	0x3e26cdf9	0.1628951
245	0xbea2e568	-0.31815648
246	0xbd99ec33	-0.075157546
247	0xbe3f293c	-0.18668073
248	0x3eab2579	0.33427027
249	0xbe1bf3b1	-0.1522968
250	0xbd7e6361	-0.062106494
251	0x3e6979bd	0.22800346
252	0xbcd7185a	-0.026256729
253	0xbe12e0da	-0.14343587
254	0x3e04d0f7	0.12970339
255	0x3dbabe38	0.091183126

encoder.dcrnn_cells.0.update.bias_pool f4 [2, 64]
0	0x3e5f2831	0.21792676
1	0x3ea61f84	0.3244592
2	0x3e8d9c75	0.2765843
3	0xbebbeac1	-0.3670254
4	0x3e5e0b03	0.21683888
5	0x3e080644	0.1328364
6	0xbeef3c50	-0.46725702
7	0xbf2b341c	-0.6687639
8	0x3f30f1e3	0.6911909
9	0xbd2b13c8	-0.04176691
10	0x3c02461a	0.007951284
11	0x3f20b0d3	0.6276981
12	0xbe4bc5dd	-0.19899698
13	0xbec90c6b	-0.39267287
14	0xbe94df8c	-0.29076803
15	0xbde2f8d5	-0.11082617
16	0x3e80a369	0.25124672
17	0x3e9b286a	0.3030427
18	0xbbc63e1e	-0.0060498854
19	0x3e67f5be	0.22652337
20	0xbe6bf04c	-0.23040885
21	0xbe1dff70	-0.15429473
22	0xbe1a5285	-0.15070541
23	0xbdd1fd46	-0.10253386
24	0xbe0da386	-0.1383191
25	0x3d4a0477	0.049320664
26	0x3b1816c4	0.0023206929
27	0xbe660e40	-0.22466373
28	0x3e9820e5	0.29712597
29	0xbf69b09b	-0.91285104
30	0x3dc17cd4	0.09447637
31	0x3d4d9add	0.050196517
32	0xbee248cc	-0.44196165
33	0x3bb87835	0.005629564
34	0xbe9ff12b	-0.31238684
35	0x3e2bcc9c	0.16777271
36	0xbebb3628	-0.36564755
37	0xbdc87214	-0.09787384
38	0x3ed2ad44	0.41147816
39	0xbe49673b	-0.19668286
40	0xbe472d4c	-0.19450873
41	0x3f01a2ec	0.50639224
42	0xbf154996	-0.5831541
43	0xbe140a62	-0.14457086
44	0xbee3d228	-0.44496274
45	0xbd3e5693	-0.046469282
46	0xbe011355	-0.12605031
47	0x3ca9e338	0.02073823
48	0xbe77353d	-0.24141403
49	0xbdb11950	-0.08647406
50	0xbe30fd91	-0.17284228
51	0xbee5528e	-0.44789547
52	0xbe5a08ff	-0.21292494
53	0xbe264e5a	-0.16240826
54	0x3e2edcf9	0.17076482
55	0xbd09b912	-0.033623762
56	0x3ebd0d77	0.36924335
57	0x3e85404e	0.26025623
58	0x3ca05310	0.019570857
59	0x3f0595c2	0.5218164
60	0x3d8b9736	0.068159506
61	0xbe4f5b56	-0.20249686
62	0x3f0dd26f	0.5539922
63	0xbe041e26	-0.12902126
64	0xbdb89fc9	-0.090148516
65	0x3d701f48	0.058623582
66	0x3e5f6055	0.21814092
67	0xbe809f9f	-0.2512178
68	0xbd8f005e	-0.06982492
69	0xbeb6a182	-0.35670096
70	0xbf41065d	-0.75400335
71	0xbf0c4be6	-0.5480331
72	0x3f112160	0.5669155
73	0x3e04faa3	0.12986235
74	0xbe54523e	-0.20734498
75	0x3e2bd785	0.16781433
76	0xbd150d6d	-0.036389757
77	0xbf573bf8	-0.8407588
78	0xbf056c6f	-0.5211858
79	0x3ef1ec37	0.4725053
80	0xbea3d1ec	-0.31996095
81	0x3e0dba8b	0.13840692
82	0xbf17f400	-0.5935669
83	0x3d1ffe03	0.039060604
84	0x3d22cdad	0.03974693
85	0xbe5b237e	-0.21400258
86	0xbe162a95	-0.14664681
87	0x3f17cbcf	0.5929536
88	0x3e99fe01	0.30076602
89	0xbdc10bf7	-0.0942611
90	0x3e9dce9f	0.30821702
91	0x3dcc12e7	0.09964543
92	0x3f395735	0.7239869
93	0xbf2f506b	-0.68482083
94	0x3e35638a	0.17713752
95	0x3d81d9b4	0.06340352
96	0xbe4b3a50	-0.19846463
97	0xbeca25bc	-0.39481914
98	0xbeb87f80	-0.36034775
99	0x3e969f3b	0.29418358
100	0xbe4fa315	-0.20277055
101	0x3ebaa32a	0.3645261
102	0xbd8b735b	-0.06809112
103	0x3e0fbdd0	0.14037251
104	0x3eb8f939	0.36127642
105	0x3dd743a3	0.105109476
106	0xbde34b52	-0.110983506
107	0x3db9c701	0.0907116
108	0xbf0c7d49	-0.5487867
109	0xbe4f36ca	-0.20235744
110	0x3e057a9e	0.13035056
111	0xbe92bbe8	-0.28658986
112	0xbe3ac42e	-0.18238899
113	0xbd954cd2	-0.07290043
114	0x3e56791e	0.2094464
115	0xbefd6847	-0.4949362
116	0xbee9fd66	-0.4570114
117	0x3d1ba923	0.0380031
118	0x3eeffe02	0.4687348
119	0x3e4ac86e	0.1980302
120	0x3e829334	0.25502932
121	0x3e9c325d	0.30507174
122	0xbd471fe5	-0.0486144
123	0x3cb12e6b	0.02162858
124	0x3e7f0bd4	0.24906856
125	0xbe8363bc	-0.2566203
126	0xbe93c775	-0.2886311
127	0xbe373a2e	-0.17893288

encoder.dcrnn_cells.1.gate.weights_pool f4 [2, 2, 128, 128]
0	0xbd875b96	-0.066092655
1	0x3f1f8330	0.6230955
2	0xbf8b18f9	-1.0866996
3	0x3db63dba	0.08898492
4	0xbea6bb79	-0.32564905
5	0x3e14a181	0.14514734
6	0xbee0e442	-0.43924147
7	0xbefdb375	-0.49550977
8	0xbe433115	-0.19061692
9	0xbd0c3f0f	-0.034239825
10	0xbf9f2b65	-1.2435118
11	0xbf0a6050	-0.5405321
12	0x3ed11f8c	0.4084438
13	0xbea6437a	-0.32473356
14	0xbe951d1d	-0.29123774
15	0xbf08a8cf	-0.5338258
16	0xbf7933c2	-0.973446
17	0xbeda5685	-0.42644134
18	0x3e263fa7	0.16235219
19	0xbea9a4f5	-0.33133665
20	0xbe5b1632	-0.21395186
21	0x3e4f6b68	0.20255816
22	0xbe6732f7	-0.22578035
23	0xbe3d1ba0	-0.1846757
24	0xbee14bce	-0.44003147
25	0xbeed4f9b	-0.46349797
26	0x3f1af26a	0.60526145
27	0xbe5f3519	-0.21797599
28	0xbebfb929	-0.37445953
29	0x3d4d2ae8	0.050089747
30	0x3ed8f540	0.4237461
31	0x3e437744	0.19088465
32	0xbf31fdb2	-0.69527733
33	0xbdddfb24	-0.10838917
34	0xbc9830f7	-0.018578036
35	0xbe75a6a7	-0.23989354
36	0x3e5b34f2	0.21406916
37	0x3ca4a048	0.02009596
38	0xbeb1184a	-0.34588844
39	0x3df3b456	0.11899631
40	0xbde75cbd	-0.11296985
41	0xbd06e505	-0.032933254
42	0x3ea84fc7	0.32873365
43	0xbf0c8bbc	-0.5490072
44	0x3ed6120d	0.41810647
45	0xbec0111a	-0.37513047
46	0xbedf6d08	-0.43637872
47	0xbe86a170	-0.26295042
48	0xbed970f6	-0.42468995
49	0x3b052731	0.002031755
50	0xbec8af9d	-0.39196482
51	0xbedeb9f7	-0.43501255
52	0x3d9e9cd8	0.07744759
53	0x3e9cd03c	0.3062762
54	0xbebbddcb	-0.36692652
55	0xbeda74ba	-0.4266718
56	0xbf1acbeb	-0.60467404
57	0xbddaa94b	-0.10676821
58	0xbe28333d	-0.16425796
59	0x3e1bb0dd	0.15204187
60	0xbebd015e	-0.36915106
61	0xbe8e2421	-0.2776194
62	0xbfa5e1d1	-1.2959539
63	0xbea33765	-0.318782
64	0xbe706f25	-0.23479898
65	0xbf956740	-1.1672134
66	0xbfa03f21	-1.2519265
67	0xbfa54a10	-1.2913227
68	0xbf267975	-0.6502908
69	0xbf505388	-0.8137746
70	0xbe25b6f2	-0.1618307
71	0xbf2d2bb7	-0.6764483
72	0xbedd76f0	-0.43254805
73	0xbeab04c3	-0.3340207
74	0xc06e2ed5	-3.7216084
75	0xbef7bfaf	-0.4838843
76	0xbfd92fa0	-1.6967659
77	0xbf82f93b	-1.0232309
78	0xbf5dbe24	-0.86618257
79	0xbfce804d	-1.6132904
80	0xbecf4f1f	-0.40490052
81	0xbf86ddab	-1.0536398
82	0xbfd5e413	-1.6710228
83	0xbecdf94e	-0.40229267
84	0xbf507542	-0.8142892
85	0xbf8109f3	-1.0081161
86	0xbf541481	-0.82843786
87	0xbf564a05	-0.83706695
88	0xbf0f030f	-0.5586404
89	0xbfb22dcb	-1.3920225
90	0xbfacb8eb	-1.3493932
91	0xbf847f75	-1.0351397
92	0xc0080353	-2.125203
93	0xbfc5d694	-1.5456109
94	0xc00ad5db	-2.1693027
95	0xbf969d14	-1.1766686
96	0xbef59b6c	-0.4797014
97	0xbfbe9f6f	-1.4892405
98	0xbee78f66	-0.45226592
99	0xc00688fc	-2.1021109
100	0xbdb90851	-0.09034789
101	0xbf6831a2	-0.90700734
102	0xbd6ad425	-0.057331223
103	0xbf0be721	-0.5464955
104	0xbd207a05	-0.039178867
105	0xbfa4d4d3	-1.2877449
106	0xbf58bf67	-0.84667057
107	0xbecd51b0	-0.40101385
108	0xbf0787de	-0.5294169
109	0xbf324316	-0.69633615
110	0xbe9d716e	-0.30750602
111	0xbfd220b0	-1.6416225
112	0xbf28a7dd	-0.6588114
113	0xbe8e79a7	-0.27827188
114	0xbf881d63	-1.0633968
115	0xbeec7f09	-0.4619067
116	0xbf5b2802	-0.8560792
117	0xbf32dde5	-0.69869834
118	0xbf8c5426	-1.096318
119	0xbf99ff16	-1.2030971
120	0xbe068424	-0.13136345
121	0xbfa5c6ad	-1.2951256
122	0xbf70444b	-0.93854207
123	0xbdb8064d	-0.08985577
124	0xbf81c317	-1.0137662
125	0xbf658966	-0.8966278
126	0xc0189062	-2.3838124
127	0xbf82cb6a	-1.0218327
128	0xbd37b7b3	-0.044852924
129	0xbe9935f5	-0.29923978
130	0x3f63b2a7	0.88944477
131	0xbdd2483d	-0.102676846
132	0xbf3c8fb3	-0.7365677
133	0x3ddf2cf0	0.10897243
134	0x3e4a5694	0.1975959
135	0x3d484daf	0.04890221
136	0xbe4f2467	-0.2022873
137	0x3f02329f	0.5085849
138	0x3e920964	0.2852279
139	0x3e923ae7	0.28560564
140	0x3dbd7789	0.09251315
141	0x3df4f72a	0.11961205
142	0xbd43f4cc	-0.04784088
143	0xbd95423a	-0.07288022
144	0xbe8b14cf	-0.27164313
145	0x3efb3d01	0.4906998
146	0xbef8cdb4	-0.4859444
147	0x3ed1ce0f	0.40977523
148	0x3f1b8a6c	0.6075809
149	0x3ef2feff	0.47460172
150	0x3e5e7f61	0.21728279
151	0xbdc5934b	-0.096472345
152	0x3e95df41	0.29271892
153	0x3ebd77ca	0.37005454
154	0x3e562416	0.20912203
155	0x3f18fef1	0.5976401
156	0x3e22ee87	0.15911303
157	0x3e144ac7	0.1448165
158	0xbe0f9be3	-0.1402431
159	0x3f0d5ee5	0.5522292
160	0x3f9adc46	1.2098472
161	0xbe1051cf	-0.14093708
162	0x3e571f0d	0.21007939
163	0x3ea949f6	0.3306424
164	0x3e4dbf70	0.20092559
165	0xbd36811d	-0.044556726
166	0xbdf395c3	-0.11893799
167	0xbe8cc100	-0.27490997
168	0xbf0e4e5f	-0.55588335
169	0x3f6176d8	0.88071966
170	0x3e4e95c2	0.20174316
171	0x3d20a0e5	0.03921594
172	0x3e2c5d9b	0.16832583
173	0xbe501478	-0.20320308
174	0x3f27cae9	0.6554399
175	0xbd370254	-0.044679955
176	0x3f4c5707	0.79820293
177	0x3e3892dc	0.18024772
178	0x3e475954	0.1946767
179	0xba6f763f	-0.00091347465
180	0xbf06dcd1	-0.5268069
181	0x3f832aad	1.0247399
182	0x3ed56f0b	0.41686282
183	0xbe9ea0ca	-0.30982047
184	0xbe3c97b0	-0.18417239
185	0x3ce88991	0.02838591
186	0x3ee53461	0.44766524
187	0xbe7d2a21	-0.24723102
188	0xbe0dd2b3	-0.13849907
189	0x3dd7536a	0.10513957
190	0x3eab8500	0.33499908
191	0x3ea12aff	0.31478116
192	0x3e413bda	0.18870488
193	0x3e872e95	0.26402727
194	0xbe8a9725	-0.2706844
195	0x3e9cf854	0.3065821
196	0x3e14c87e	0.14529607
197	0xbd3d6903	-0.046242725
198	0x3e15159c	0.14559025
199	0xbef3cac5	-0.47615638
200	0xbfa61e6f	-1.2978038
201	0xbf8d01fb	-1.1016229
202	0x3caf75b8	0.021418437
203	0xbeb7e1f9	-0.3591459
204	0x3f13f15d	0.57790166
205	0x3ea4e50d	0.32206002
206	0x3d9235c3	0.071391605
207	0xbf0a0b4b	-0.5392348
208	0x3c028b87	0.007967836
209	0xbe6a93f2	-0.22907999
210	0xbe24e9c8	-0.16104805
211	0xbe61f498	-0.22065961
212	0xbd02d364	-0.03193988
213	0x3e13c348	0.14429963
214	0xbea2c17a	-0.31788236
215	0xbddbb2fe	-0.107274994
216	0x3d6d3972	0.057916112
217	0x3e9e462b	0.3091291
218	0xbda8ed0e	-0.082483396
219	0x3b9daa11	0.0048115333
220	0xbe4e6ad5	-0.2015794
221	0x3e8049be	0.2505626
222	0xbe0ef5de	-0.13960978
223	0xbf6ada59	-0.9173942
224	0xbc12deb0	-0.008964226
225	0xbe7e55be	-0.24837396
226	0xbe5af4ba	-0.21382418
227	0x3e7a9b2a	0.24473253
228	0xbe81a099	-0.2531784
229	0xbf168a24	-0.58804536
230	0xbf02b9eb	-0.5106494
231	0x3cf9c954	0.030491509
232	0xbe91063e	-0.28325075
233	0x3d4df2fa	0.05028055
234	0x3da5b270	0.08090675
235	0xbe267fa1	-0.16259624
236	0xbe02ddaf	-0.12779878
237	0x3e124c16	0.14286837
238	0x3e0d1dcd	0.137809
239	0xbd87650e	-0.066110715
240	0x3a733b54	0.0009278555
241	0xbec2b03d	-0.38025084
242	0xbf01d4b8	-0.5071521
243	0x3ca2dd02	0.019880775
244	0x3eff2b79	0.49837855
245	0xbe9c1342	-0.30483443
246	0x3e600613	0.21877317
247	0xbd7f7a74	-0.06237264
248	0x3eeada35	0.45869604
249	0xbf01b715	-0.50669986
250	0xbf62884e	-0.88489234
251	0xbef1f5d1	-0.47257856
252	0x3e371e1d	0.17882581
253	0xbecb5ff4	-0.39721644
254	0xbd9ca6fc	-0.07649037
255	0xbf2256f5	-0.63413936

encoder.dcrnn_cells.1.gate.bias_pool f4 [2, 128]
0	0xbe878a03	-0.26472482
1	0xbd21b625	-0.039480347
2	0xbcd9c6f2	-0.026584122
3	0x3ddb8318	0.107183635
4	0x3dca03e5	0.09864024
5	0x3d72b1b5	0.059251506
6	0xbef3c1fe	-0.47608942
7	0x3b83d895	0.0040236213
8	0xbe3e9f3f	-0.18615435
9	0x3de77030	0.11300695
10	0x3f181ce2	0.5941907
11	0xbdd9965e	-0.106243834
12	0x3ea1b4f6	0.31583375
13	0x3eac7086	0.336796
14	0x3eb8834a	0.36037666
15	0x3e42906d	0.19000407
16	0x3dea7678	0.11448377
17	0xbdad9425	-0.08475522
18	0x3eb98d18	0.36240458
19	0xbe36ee22	-0.17864278
20	0xbd8e0475	-0.06934444
21	0xbdcaa472	-0.09894647
22	0x3f082d11	0.53193766
23	0x3e8dc235	0.2768723
24	0x3ebf2a2d	0.37336865
25	0xbdb9c811	-0.09071363
26	0xbde54559	-0.11194868
27	0xbd97d743	-0.07414105
28	0x3e84663e	0.25859255
29	0x3ddbe932	0.10737838
30	0xbb0354c7	-0.0020039545
31	0xbe574db3	-0.21025734
32	0xbda3536a	-0.07974894
33	0x3eae0740	0.33989906
34	0x3dd8992c	0.1057609
35	0x3ec627be	0.38702196
36	0xbbe0db96	-0.006862114
37	0xbe235696	-0.15950999
38	0x3da68435	0.08130685
39	0xbed64f30	-0.4185729
40	0xbd827fda	-0.06372042
41	0x3f3ee502	0.7456819
42	0x3ebfe412	0.3747869
43	0x3e9e772d	0.309503
44	0xbda1b560	-0.07895923
45	0x3ea62867	0.324527
46	0xbe2aff78	-0.16699016
47	0x3dac48bd	0.08412311
48	0x3e310b4b	0.17289464
49	0xbe374d9c	-0.179007
50	0x3df365b5	0.118846335
51	0x3e469f4a	0.19396701
52	0x3d87cc82	0.06630804
53	0xbdaba32d	-0.08380733
54	0x3d80fd5f	0.06298327
55	0x3eb1961d	0.3468484
56	0x3c87af23	0.016563004
57	0xbe8dee48	-0.27720857
58	0x3e83186a	0.25604564
59	0xbed2b2b7	-0.41151974
60	0x3d798237	0.0609152
61	0xbe12b573	-0.1432703
62	0x3e8d9e4b	0.2765983
63	0x3d9e7b77	0.07738393
64	0xbd353dcc	-0.044248387
65	0x3f4e27a3	0.8052923
66	0xbef21487	-0.47281286
67	0xbd944990	-0.072405934
68	0x3ef1a69f	0.47197434
69	0x3d92d4b8	0.07169479
70	0x3e60f7c8	0.21969521
71	0x3df99e22	0.121883646
72	0x3e68e0f2	0.2274206
73	0xbe540610	-0.20705438
74	0x3ee57214	0.44813597
75	0x3f132bd6	0.57488763
76	0x3f08cebb	0.53440446
77	0x3e70d80e	0.23519918
78	0xbe315ebc	-0.17321295
79	0xbe8dcc96	-0.2769515
80	0x3ee7e8f6	0.45294923
81	0xbf2c68b7	-0.6734728
82	0x3e3fea7a	0.1874179
83	0xbe9b11e0	-0.30287075
84	0xbecba7db	-0.397765
85	0x3dd52b89	0.10408694
86	0x3f14f9f6	0.5819391
87	0x3dbac8be	0.0912032
88	0xbebb3641	-0.3656483
89	0xbf4ae90b	-0.79261845
90	0x3e74aa26	0.23893031
91	0x3f88280d	1.0637223
92	0x3f095af8	0.5365443
93	0x3e934570	0.28763914
94	0x3d212943	0.03934599
95	0xbe1fe97a	-0.15616408
96	0x3eac3ee3	0.3364173
97	0x3e6c1bfa	0.23057547
98	0xbe4c9132	-0.19977263
99	0x3e9c48c2	0.3052426
100	0x3f1e46cc	0.6182678
101	0x3ef15017	0.47131416
102	0xbdfd9f16	-0.12383859
103	0x3e85b5da	0.26115304
104	0x3d81575c	0.063154906
105	0xbef20bd9	-0.47274664
106	0xbe734608	-0.23757184
107	0xbef8c178	-0.48585105
108	0x3f1995e7	0.5999436
109	0xbebcc957	-0.3687236
110	0x3e97b299	0.29628447
111	0x3ed78f88	0.42101693
112	0x3f23aeeb	0.6393878
113	0xbea5f2cb	-0.324118
114	0xbf05442b	-0.5205714
115	0x3f985a1e	1.1902502
116	0x3f4ad13d	0.7922552
117	0x3f72a321	0.94780165
118	0xbdf6410c	-0.120241255
119	0xbcc6fb81	-0.024289848
120	0x3d27ab9e	0.04093515
121	0xbe856083	-0.26050195
122	0x3f23cd5e	0.6398524
123	0xbd971240	-0.07376528
124	0xbee03f01	-0.43798068
125	0x3f3b2343	0.7310068
126	0x3ef9a6cd	0.4876007
127	0xbe5b96fd	-0.21444316
128	0x3e33eb68	0.17570269
129	0x3ec14f6c	0.37755907
130	0x3e48c64c	0.19606894
131	0x3d94f396	0.07273023
132	0xbe0c6fbc	-0.13714498
133	0xbed15d5b	-0.40891537
134	0x3e1543bf	0.14576624
135	0xbb33d6de	-0.0027441303
136	0x3ee01275	0.43764082
137	0xbe892e5d	-0.26793185
138	0xbe2fdeea	-0.17174879
139	0x3af718b4	0.0018851967
140	0x3cca6c0f	0.02470973
141	0x3e385067	0.17999421
142	0x3e2c387a	0.16818419
143	0x3e6e01a8	0.2324282
144	0x3d807940	0.062731266
145	0xbdef105c	-0.11673042
146	0xbdf773c1	-0.12082625
147	0xbd6bba65	-0.057550807
148	0x3e060f4f	0.13091777
149	0xbed0437b	-0.40676484
150	0xbdcf6480	-0.10126591
151	0x3e2d4a30	0.16922832
152	0x3e67387c	0.22580141
153	0xbe416f8d	-0.1889021
154	0x3e2f5f29	0.17126144
155	0xbe7465d1	-0.23866965
156	0xbe4780eb	-0.19482772
157	0xbe18ee53	-0.14934663
158	0xbe4811b5	-0.19538005
159	0x3ea8a64f	0.32939383
160	0xbe84c1f6	-0.2592923
161	0xbd791787	-0.060813453
162	0x3e1c222f	0.15247415
163	0xbdff5407	-0.12467199
164	0x3e57e186	0.21082124
165	0xbe312b80	-0.1730175
166	0x3d4f3cf5	0.050595243
167	0x3eb267e9	0.34844902
168	0x3e2a4e9c	0.1663155
169	0xbc980a65	-0.018559644
170	0x3d1d737d	0.038440216
171	0xbd88f15e	-0.06686662
172	0xbdd6b598	-0.10483855
173	0x3e8581ed	0.26075688
174	0x3e524e77	0.20537744
175	0x3ecc2c0f	0.39877364
176	0xbd8bc6d5	-0.068250336
177	0xbdb5b23f	-0.08871888
178	0xbe140ebe	-0.14458749
179	0xbd6a917e	-0.05726766
180	0x3d8c773f	0.06858682
181	0xbc97b96e	-0.018521037
182	0xbd92e3ff	-0.07172393
183	0x3e10be9e	0.14135215
184	0x3da8ec34	0.08248177
185	0x3c29194d	0.010320974
186	0xbe41e9c4	-0.18936831
187	0x3dc2e15d	0.09515641
188	0x3ef5602d	0.4792494
189	0x3ebb0600	0.36528015
190	0x3d007b30	0.03136748
191	0xbe6ad576	-0.22932991
192	0xbe9f93a7	-0.31167337
193	0x3e29f97c	0.16599077
194	0x3e2a8e33	0.16655807
195	0xbdf89a18	-0.12138766
196	0xbe92ba06	-0.2865755
197	0xbe9c354b	-0.3050941
198	0xbeb19662	-0.34685045
199	0x3eb6e283	0.3571969
200	0x3d150c9e	0.036388986
201	0x3c427fe3	0.011871311
202	0x3d12ef16	0.03587254
203	0x3d8fd84d	0.07023678
204	0xbe9af8e9	-0.30268028
205	0x3ec9c971	0.394115
206	0xbe8856ce	-0.26628727
207	0x3e049c62	0.1295028
208	0xbd797bb7	-0.060909
209	0x3ee05530	0.43814993
210	0x3e024644	0.12722117
211	0xbf1f668a	-0.6226584
212	0xbe818b12	-0.25301415
213	0xbddbeb4d	-0.107382394
214	0x3e7c271e	0.24624297
215	0xbf01215a	-0.50441515
216	0xbd74f15d	-0.059800494
217	0xbd7c47db	-0.061591964
218	0xbd451766	-0.048118018
219	0xbe2a4279	-0.1662692
220	0xbdfd088c	-0.12355146
221	0x3c7f1ebe	0.015571294
222	0x3da4b0a5	0.08041505
223	0x3f2a4f4b	0.6652724
224	0xbeba7aa8	-0.36421704
225	0x3ec877d6	0.39153928
226	0xbe9cf2df	-0.30654046
227	0x3dffd103	0.12491038
228	0xbeea4bb6	-0.45760888
229	0xbd9868fe	-0.07441901
230	0xbeafdc24	-0.3434764
231	0xbe9be683	-0.30449304
232	0xbed238ee	-0.4105906
233	0x3ea7537d	0.32680884
234	0xbea5a8be	-0.32355303
235	0xbf2ab5bc	-0.66683555
236	0x3f147d3d	0.580036
237	0x3ebdc5f4	0.3706509
238	0xbe9a2672	-0.30107456
239	0xbdc716e2	-0.097211614
240	0x3c831972	0.016003344
241	0xbf4932d4	-0.7859318
242	0xbf058a1b	-0.5216386
243	0xbeaeb339	-0.3412111
244	0xbd7b07b8	-0.061286658
245	0x3e84459f	0.25834367
246	0x3e253d5f	0.16136692
247	0xbeefd883	-0.46844873
248	0x3d63dfba	0.055633284
249	0xbf295e48	-0.66159487
250	0xbd0557f8	-0.032554597
251	0x3da8564b	0.08219584
252	0xbe52beba	-0.20580569
253	0x3e890d70	0.26768064
254	0x3d811336	0.06302492
255	0xbeaabcfb	-0.33347306

encoder.dcrnn_cells.1.update.weights_pool f4 [2, 2, 128, 64]
0	0xbf6ed1a8	-0.9328866
1	0x3f0d050d	0.5508583
2	0xbe27d2d6	-0.16389021
3	0xbfb13a6b	-1.3845953
4	0x3f5beb26	0.85905683
5	0xbf8fb472	-1.1226943
6	0x3fb4fdb2	1.4139922
7	0xbed7f837	-0.4218156
8	0xc0092bba	-2.1432939
9	0x3f92f872	1.148207
10	0xbf4feb92	-0.81218827
11	0x3f64edf5	0.89425594
12	0x3e21296b	0.15738456
13	0xbfd9585e	-1.6980093
14	0x3f0c831c	0.5488756
15	0x3f620183	0.88283557
16	0x3f8027d4	1.0012155
17	0xbfe1db89	-1.7645122
18	0xbebc8425	-0.36819568
19	0x3f230f7c	0.636955
20	0x3f3af031	0.73022753
21	0x3fa5ff1c	1.2968478
22	0xbf4ec2fc	-0.8076627
23	0x3fd8bfb5	1.6933504
24	0xbf10efe4	-0.56616044
25	0xbfc11bd5	-1.5086619
26	0x3f91ad94	1.1381097
27	0x3e95d00f	0.292603
28	0x3e4bea8b	0.1991369
29	0x3ef0200a	0.46899444
30	0x3e242a0b	0.16031663
31	0x3fbba215	1.4658839
32	0xbf012b57	-0.50456756
33	0xbe8ce09f	-0.27515122
34	0x3f83a1f6	1.0283802
35	0x3f3d1a59	0.7386833
36	0xbf2323ea	-0.63726676
37	0x3f4d7d7d	0.80269605
38	0xbe0e9a48	-0.13926041
39	0xbea38de3	-0.31944188
40	0x3ed9baf5	0.4252545
41	0x3f79d983	0.9759752
42	0xbf353a23	-0.70791835
43	0x3fc390c6	1.5278556
44	0xbf04aafe	-0.51823413
45	0xbf98597f	-1.1902312
46	0xbd6d6d01	-0.057965282
47	0x3d8423c9	0.06452138
48	0x3fd2744d	1.6441742
49	0xbf494a8a	-0.7862936
50	0xbfa824a1	-1.3136178
51	0xbfb17102	-1.3862612
52	0xbe5fd69f	-0.21859215
53	0x3f777ba4	0.96673036
54	0xbf814d77	-1.0101765
55	0x3f7097c3	0.9398157
56	0x3ec73260	0.3890562
57	0x3f37d3f9	0.7180782
58	0xbf6d6fad	-0.9274853
59	0x3eb039d8	0.3441913
60	0xbf1a1b36	-0.6019777
61	0xbf7675b9	-0.9627338
62	0xbf3d99ea	-0.7406298
63	0x3eb55894	0.35419142
64	0xbe8faa1c	-0.2805947
65	0xbe11527c	-0.14191622
66	0xbf01832b	-0.5059077
67	0xbef1f452	-0.47256714
68	0xbe67081e	-0.2256169
69	0xbd35e4ca	-0.044407643
70	0xbe9e1f02	-0.30883032
71	0xbe00d348	-0.12580597
72	0x3e7e8da8	0.24858725
73	0xbe183d6d	-0.14867182
74	0xbf3636b5	-0.71177226
75	0x3e677c79	0.22606076
76	0x3ecfbf6e	0.40575737
77	0xbf1424c1	-0.5786858
78	0x3cffd3d9	0.031228947
79	0xbd676e93	-0.056501936
80	0x3ea08fdf	0.31359765
81	0xbc305ced	-0.010764343
82	0xbeb002d8	-0.3437717
83	0x3eef819b	0.4677857
84	0x3f0b1544	0.54329324
85	0x3e250801	0.16116334
86	0xbe794666	-0.24343261
87	0xbea2efe7	-0.31823656
88	0x3e4489d5	0.19193204
89	0x3d8c5e52	0.06853928
90	0x3f816696	1.0109432
91	0x3f29dea4	0.6635535
92	0x3f6a1d07	0.9145054
93	0x3f024263	0.5088255
94	0x3ea7903a	0.32727224
95	0x3edcb496	0.43106526
96	0xbee673fb	-0.4501036
97	0xbf3cb622	-0.7371541
98	0x3ebe3710	0.37151384
99	0x3e699954	0.22812396
100	0xbd9517c1	-0.07279921
101	0x3dfbf3b3	0.12302341
102	0x3e90aca8	0.28256726
103	0xbdc250d5	-0.09488074
104	0xbd9c84f5	-0.07642547
105	0x3e546ca5	0.2074457
106	0xbf1caba5	-0.6119941
107	0x3e8fd061	0.28088668
108	0x3d0b823c	0.034059748
109	0xbf9e239a	-1.2354615
110	0xbf7af986	-0.9803699
111	0xbeabfb2f	-0.33590075
112	0x3f280c53	0.65643805
113	0xbd7bece7	-0.061505225
114	0xbe6038f0	-0.2189672
115	0xbf5bb666	-0.8582519
116	0x3eb1416e	0.3462023
117	0x3e82c19c	0.25538337
118	0xbf41ff10	-0.7577982
119	0xbe2b9aa7	-0.16758214
120	0x3e6d78b3	0.23190574
121	0xbe2ff2b9	-0.17182435
122	0x3ec97475	0.39346662
123	0x3e9ecfe4	0.31017983
124	0x3dea5e45	0.11443762
125	0xbe6a8d8a	-0.22905555
126	0xbd9c5303	-0.07633021
127	0xbea7e016	-0.32788152
128	0xbef01fe3	-0.46899328
129	0xbf9462ba	-1.1592629
130	0xbf09c946	-0.53822744
131	0xbf9c25c5	-1.2199026
132	0x3f8beeed	1.0932289
133	0xbf24bbf5	-0.643493
134	0x3f5ac993	0.8546383
135	0xbef97b7b	-0.4872702
136	0xbfa3c4d2	-1.279444
137	0xbde51c58	-0.11187047
138	0xbe16c023	-0.14721732
139	0x3e1b28ad	0.15152235
140	0x3ebe1c50	0.37130976
141	0xbfd27734	-1.6442628
142	0x3f09f1c0	0.53884506
143	0x3d8ef9dd	0.069812514
144	0x3f99f471	1.2027723
145	0xbea535ca	-0.322676
146	0xbee4775a	-0.44622308
147	0x3f193ba8	0.59856653
148	0x3e7771cd	0.24164505
149	0x3f43e5e3	0.76522654
150	0xbf121e56	-0.5707754
151	0x3f13cdae	0.5773572
152	0xbed703a7	-0.41994974
153	0xbf4d25ba	-0.8013569
154	0xbdef2804	-0.11677554
155	0x3ed9ae04	0.42515576
156	0xbf37631b	-0.716356
157	0x3f285358	0.6575217
158	0x3dfb0e9a	0.122586444
159	0x3fd00569	1.6251651
160	0xbeb5f9be	-0.355421
161	0xbc4ba393	-0.012429136
162	0x3f06ac24	0.52606416
163	0x3f41f9bd	0.75771695
164	0xbf099cd7	-0.53754944
165	0x3f8e2d2a	1.1107533
166	0xbe35cc38	-0.17753685
167	0xbf5b5990	-0.85683537
168	0x3f131aa4	0.57462525
169	0x3eb27a86	0.34859103
170	0xbf2875eb	-0.6580493
171	0x3dc70e14	0.09719482
172	0xbed2a0df	-0.4113836
173	0xbe742455	-0.23841985
174	0xbf21833c	-0.6309087
175	0xbe2608b4	-0.16214257
176	0xbf0ab88d	-0.5418785
177	0xbf1244f3	-0.5713646
178	0xbf22f22c	-0.63650775
179	0xbe6d0cef	-0.23149465
180	0x3dc33885	0.095322646
181	0x3f926927	1.143834
182	0xbedac017	-0.42724678
183	0x3f02d3a4	0.5110419
184	0x3f2c817d	0.67385083
185	0x3e93c9fa	0.28865033
186	0xbf26534a	-0.6497084
187	0xbe3cffb1	-0.18456914
188	0xbe638ea9	-0.2222239
189	0xbfbef607	-1.4918832
190	0xbea85763	-0.3287917
191	0x3eb34002	0.35009772
192	0x3e4a8803	0.19778447
193	0xbea2c568	-0.31791234
194	0x3f15f33a	0.5857426
195	0x3defb848	0.11705071
196	0x3e014d42	0.12627128
197	0x3f0e1d58	0.55513525
198	0xbe26fc0c	-0.16307086
199	0x3e93e6f3	0.28887138
200	0x3eb3dfed	0.3513178
201	0xbf22672f	-0.63438696
202	0x3ec3b7fc	0.38226306
203	0xbeabf5ad	-0.33585873
204	0xbecfc350	-0.405787
205	0xbb863b87	-0.0040964517
206	0xbec80ca0	-0.39072132
207	0xbeea9c36	-0.45822304
208	0xbf73fdc1	-0.9530907
209	0x3ec2cc29	0.38046387
210	0x3f5df313	0.86699027
211	0xbe4e2d53	-0.20134477
212	0xbe6f7ee0	-0.23388243
213	0xbeb05594	-0.3444029
214	0x3f301ac8	0.68790865
215	0xbe9c9f9a	-0.30590516
216	0x3eaba921	0.33527473
217	0x3f872c7c	1.056045
218	0xbe35864f	-0.17727016
219	0xbe2228bc	-0.15835851
220	0xbf914d43	-1.1351703
221	0xbeedc058	-0.4643581
222	0xbf470314	-0.7773907
223	0x3deee717	0.11665171
224	0x3f12c972	0.5733863
225	0x3edcb084	0.4310342
226	0xbe987b6f	-0.29781672
227	0xbf27bfa2	-0.65526783
228	0x3f31565b	0.69272393
229	0xbde66b53	-0.11250939
230	0xbea29549	-0.3175452
231	0x3f46d38a	0.77666533
232	0xbeb374bd	-0.35050002
233	0xbf3e5331	-0.7434569
234	0x3eecd2a8	0.46254468
235	0xbd93821c	-0.07202551
236	0x3ea170ec	0.31531465
237	0x3ed92839	0.424135
238	0x3f274e2a	0.65353644
239	0xbf215777	-0.63024086
240	0xbdedc80a	-0.1161042
241	0x3e429aab	0.19004314
242	0x3eeb5743	0.45965013
243	0x3f523bb5	0.82122356
244	0xbee59c4f	-0.44845816
245	0xbe921d10	-0.28537798
246	0x3e6b973f	0.23006915
247	0xbf190473	-0.59772414
248	0xbd693d31	-0.056943122
249	0xbf1f8e56	-0.6232656
250	0x3d65f433	0.05614109
251	0xbf07b51d	-0.5301073
252	0x3e9f90b4	0.31165087
253	0xbe64fa31	-0.22361065
254	0x3f17f0cf	0.5935182
255	0xbede417f	-0.43409345
