CQ/result/P7_Resullt/HOURS/data5/2/best_model.pth (torch_old, 603202 bytes, 11 tensors)

node_embeddings f4 [228, 2]
0.17208096 0.097754225 0.29310513 0.26288974 0.14741215 0.11040072 -0.11849479 0.26513115
0.28676668 0.20527835 0.26794186 0.039807044 0.16516672 0.111417845 0.13967189 0.28065422
-0.326797 0.048739135 -0.1340947 0.2575825 0.2904608 0.16949621 0.2939953 0.25089407
-0.07923259 0.18726811 0.26452777 0.13878396 0.15034679 0.14660388 -0.22809178 0.14860187
-0.018992871 0.30215806 0.20521478 0.2826095 0.18514228 0.049464714 0.12799513 0.24810626
-0.106329836 0.19252394 0.15781334 0.12819652 0.25068647 0.16165215 0.2851715 0.11154827
0.23411225 0.05381404 0.08497489 0.15812956 0.11571938 0.22103453 0.113740556 0.18383184
0.040401347 0.20118682 0.01582547 0.14735217 -0.117912106 0.29610267 0.19177772 0.22386566
0.2652206 0.029763121 0.27710864 0.11715973 0.17381255 0.092134334 0.08136813 0.27309346
0.08128425 0.24907948 -0.112242006 0.26595995 0.13909388 0.23052618 -0.073713884 0.29476392
0.22634134 0.28489083 0.15564986 0.19949906 0.1315178 0.21524839 0.23941953 0.0056677694
0.17479588 0.21627231 0.0716107 0.15963873 0.07568767 0.27617165 0.25565183 0.02973899
0.11885692 0.14562944 0.19466639 0.07022851 0.13640146 0.10842939 0.09846851 0.210812
0.18596661 0.28566602 0.22659275 0.22194086 0.0923642 0.17771447 -0.041628357 0.28942916
0.26606858 0.28776696 0.24898583 0.024726199 0.1672289 0.09452242 0.2225896 0.06734875
0.12345578 0.12322498 0.11753474 0.12443953 0.28409207 0.13089162 0.280779 0.09343018
0.11613064 0.11786876 0.20814534 0.06037002 0.24179894 0.18142688 0.035748444 0.30802163
0.13331932 0.10476299 0.27236298 0.29599026 0.29844117 0.031173753 0.12502731 0.115258984
0.24056031 0.08025283 0.12809825 0.108386315 0.29774666 0.27030492 0.17462014 0.14092804
0.063821115 0.25733492 0.20410675 0.23135668 0.29691154 0.0072580487 0.17548308 0.28412583
0.19743527 0.03417709 0.26615188 0.035163686 0.25093767 0.1300887 0.08922243 0.14516236
0.2998536 0.3005596 0.1915803 0.16422501 0.28295645 -0.023339516 -0.08963866 0.24031208
0.19199002 0.07435577 -0.21682128 0.14180045 -0.066675924 0.1742324 0.17725936 0.07094364
0.18792433 0.10189217 -0.25043797 0.07407725 0.22311369 0.07691017 0.18736103 0.2179273
0.1763254 0.10455842 0.203877 0.10659147 0.25700256 0.18844709 0.08997996 0.27982378
0.050579365 0.13920861 0.08437092 0.26335007 0.120589115 0.29988262 0.19755864 0.13346954
0.06683879 0.22481962 0.17753172 0.1873107 0.060322788 0.13779595 0.060919892 0.24954998
0.12859617 0.11727991 0.29274574 0.2826765 0.25541937 -0.013889466 -0.08557372 0.20988934
-0.06537125 0.17754215 0.28632325 0.22187145 0.1966362 0.1064854 -0.050663196 0.19693391
0.27693862 0.23180771 0.2846398 0.14811984 0.28445354 0.1087442 -0.35217154 0.032027874
0.25870895 0.15478474 0.1829552 0.17383754 0.24146003 0.24975795 0.025279537 0.21249987
-0.02534414 0.16191426 -0.25462115 0.12656736 0.066052854 0.17661306 0.1960499 0.21039939
00000000: fe35 303e 5e33 c83d e011 963e 7c99 863e
00000010: 36f3 163e c619 e23d 65ad f2bd 45bf 873e
00000020: 15d3 923e 7d34 523e ad2f 893e b60c 233d
00000030: 7721 293e 0a2f e43d 2606 0f3e e9b1 8f3e
00000040: f051 a7be b0a2 473d 1f50 09be dae1 833e
00000050: 47b7 943e 6a90 2d3e 8d86 963e 3075 803e
00000060: b244 a2bd 36c3 3f3e 2f70 873e 621d 0e3e
00000070: 82f4 193e 541f 163e e490 69be 172b 183e
00000080: f096 9bbc 76b4 9a3e d323 523e 31b2 903e
00000090: f095 3d3e 839b 4a3d 2811 033e 910f 7e3e
000000a0: 75c3 d9bd ff24 453e d299 213e f345 033e
000000b0: fa59 803e 2488 253e 0002 923e 6b73 e43d
000000c0: 1fbb 6f3e 1c6c 5c3d 5107 ae3d b7ec 213e
000000d0: 48fe ec3d e056 623e cff0 e83d 6a3e 3c3e
000000e0: e27b 253d eb03 4e3e 6ba4 813c 7de3 163e
000000f0: e77b f1bd c59a 973e 6161 443e 0a3d 653e
00000100: ffca 873e cad1 f33c 2fe1 8d3e 71f1 ef3d
00000110: ebfb 313e edb0 bc3d 56a4 a63d e8d2 8b3e
00000120: 5b78 a63d b10e 7f3e 23df e5bd e72b 883e
00000130: a06e 0e3e 0e0f 6c3e 4ef7 96bd 4ceb 963e
00000140: 06c6 673e 36dd 913e ad62 1f3e 7b49 4c3e
00000150: 9aac 063e 136a 5c3e 652a 753e b2b8 b93b
00000160: b1fd 323e 7d76 5d3e a1a8 923d 5678 233e
00000170: 2302 9b3d 5f66 8d3e cce4 823e 2f9f f33c
00000180: 426b f33d e21f 153e a056 473e f7d3 8f3d
00000190: d3ac 0b3e 3a10 de3d dca9 c93d 1adf 573e
000001a0: 086e 3e3e d142 923e ee07 683e 7744 633e
000001b0: 7129 bd3d c8fa 353e 7f82 2abd 0f30 943e
000001c0: 243a 883e 3156 933e 24f6 7e3e 998e ca3c
000001d0: 0e3e 2b3e f894 c13d 87ee 633e 24ee 893d
000001e0: 62d6 fc3d 615d fc3d 0eb6 f03d 27da fe3d
000001f0: 8474 913e 7408 063e 44c2 8f3e 5258 bf3d
00000200: e7d5 ed3d 2d65 f13d 0d24 553e 8e46 773d
00000210: 249a 773e f8c7 393e f66c 123d 03b5 9d3e
00000220: dc84 083e fa8d d63d 2973 8b3e 098c 973e
00000230: 48cd 983e 1960 ff3c 2907 003e e70c ec3d
00000240: 7155 763e 995b a43d 302c 033e a5f9 dd3d
00000250: 4072 983e 6865 8a3e 9fcf 323e 714f 103e
00000260: a5b4 823d 67c1 833e 5c01 513e c4e8 6c3e
00000270: ca04 983e edd4 ed3b d6b1 333e f178 913e
00000280: 792c 4a3e 47fd 0b3d 0f45 883e cc07 103d
00000290: e77a 803e f935 053e 40ba b63d 71a5 143e
000002a0: 6986 993e f3e2 993e a02d 443e 9a2a 283e
000002b0: abdf 903e 8332 bfbc 7994 b7bd 5f14 763e
000002c0: 0899 443e d747 983d 6606 5ebe 2334 113e
000002d0: 638d 88bd fa69 323e 7a83 353e e64a 913d
000002e0: 3c6f 403e d8ac d03d 6839 80be d0b5 973d
000002f0: ea77 643e 1483 9d3d 92db 3f3e 5628 5f3e
00000300: a58e 343e ba22 d63d 22c5 503e a14c da3d
00000310: d795 833e 46f8 403e 6a47 b83d 1045 8f3e
00000320: 4f2c 4f3d b48c 0e3e a9ca ac3d d2d5 863e
00000330: 6df7 f63d 378a 993e d04c 4a3e 3dac 083e
00000340: c7e2 883d 1d37 663e e0ca 353e 60ce 3f3e
00000350: 0715 773d 621a 0d3e 2387 793d 088a 7f3e
00000360: b7ae 033e 7330 f03d c5e2 953e f9ba 903e
00000370: 54c6 823e a590 63bc 4641 afbd 3bed 563e
00000380: 5de1 85bd 9ccd 353e f698 923e 4532 633e
00000390: 005b 493e 0415 da3d 3684 4fbd 0ba9 493e
000003a0: e6ca 8d3e 005f 6d3e 4fbc 913e baac 173e
000003b0: e5a3 913e 47b5 de3d d44f b4be a92f 033d
000003c0: 8075 843e e47f 1e3e 9c58 3b3e 7802 323e
000003d0: 4c41 773e 8cc0 7f3e 0817 cf3c 9199 593e
000003e0: 849e cfbc dacc 253e b45d 82be e09a 013e
000003f0: b846 873d 0eda 343e 4ec1 483e f072 573e

encoder.dcrnn_cells.0.gate.weights_pool f4 [2, 2, 65, 128]
0.13784438 0.043695647 0.1257627 0.11414134 0.119396344 0.1312887 0.09484882 0.13408984
0.09224555 0.13331282 0.13434915 0.12702551 0.12385413 0.1394149 0.10370006 0.0019877502
0.121178195 0.12262775 0.07706796 0.057988748 0.1400107 0.14780267 0.1194115 0.03316556
0.03928439 0.13564512 0.06952131 0.063742004 0.12323597 0.11913617 0.12192598 0.084826656
0.11718093 0.08237197 0.14292093 0.12760799 0.13804321 0.121865585 0.13988675 0.13034631
0.0349792 0.099322416 0.111330606 0.114302054 0.10503029 0.12413145 0.06033615 0.13744956
0.027107725 0.10985677 0.12239366 0.13692313 0.12368106 0.11330514 0.14010793 0.13916627
0.11265466 0.11525663 0.13286196 0.009115489 0.11477199 0.13137726 0.11781349 0.1196234
-0.1282562 -0.004012525 -0.12606709 -0.12467297 -0.103257276 -0.11152724 -0.09220968 -0.112086855
-0.061747245 -0.020770082 -0.10244161 -0.10842565 -0.107797116 -0.115606494 -0.10537026 0.052967183
-0.12262113 -0.12170808 -0.051443238 -0.048778307 -0.120823905 -0.06251565 -0.112774335 0.1289083
0.030979719 -0.12731278 -0.045603227 0.04575659 -0.112102166 -0.11478513 -0.080091745 -0.090902194
-0.084937304 -0.0713291 -0.09481007 -0.12986574 -0.117989235 -0.12384348 -0.13132858 -0.0890847
0.07292943 -0.108597465 -0.101219214 -0.11143137 0.013521481 -0.12618369 0.052427568 -0.12901643
0.12082494 -0.09130031 -0.105271615 -0.108476505 -0.09750274 -0.04257183 -0.10713682 -0.121247075
-0.10444476 -0.1214247 -0.072728656 0.13250113 -0.10705997 -0.12602402 -0.04595575 -0.124706484
-0.11651336 -0.15848489 -0.12943624 -0.13625643 -0.13231952 -0.10840408 -0.14067365 -0.11972087
-0.073473975 -0.110349916 -0.13317572 -0.12063235 -0.10845662 -0.12388084 -0.1383379 -0.11393398
-0.13007218 -0.11694068 -0.09186886 -0.14831743 -0.12037529 -0.029560557 -0.110190526 -0.10440136
-0.12581779 -0.13014577 -0.15353593 -0.03266271 -0.123047054 -0.1343161 -0.12094003 -0.14089517
-0.101624966 -0.15841225 -0.09765193 -0.12701863 -0.118838616 -0.11098577 -0.11876221 -0.11311369
-0.10174246 -0.13693394 -0.12247844 -0.120032504 -0.10540673 -0.12988977 -0.11767177 -0.13735993
-0.11879566 -0.10551398 -0.13284937 -0.11336501 -0.117466524 -0.13389598 -0.12562609 -0.122492686
-0.113872334 -0.116869316 -0.07385774 -0.1066263 -0.13585821 -0.13030554 -0.08000175 -0.13571379
0.15718718 0.14035587 0.14305067 0.13284676 0.14430754 0.14717665 0.12628312 0.14110503
0.12052299 0.14155436 0.15266775 0.14081183 0.14113359 0.14829294 0.12698974 0.13435861
0.13630392 0.1568372 0.13761845 0.12709516 0.1475848 0.13038221 0.15626867 0.13669713
0.14204693 0.13476673 0.14436105 0.13542224 0.15502939 0.14845088 0.13967569 0.13448948
0.14099097 0.14390527 0.12641598 0.14631493 0.1487947 0.14255378 0.1538179 0.123922795
0.15092354 0.12041485 0.13510893 0.15591265 0.13664721 0.13883018 0.14254211 0.147472
0.13844892 0.1405939 0.13163124 0.14996462 0.13526751 0.14252253 0.13389648 0.13971536
0.14734866 0.13480555 0.12633154 0.11946194 0.1378164 0.13489535 0.14259355 0.14528193
00000000: 1427 0d3e 35fa 323d f0c7 003e efc2 e93d
00000010: 1286 f43d 8c70 063e 1940 c23d d94e 093e
00000020: 3ceb bc3d 2883 083e d392 093e fa12 023e
00000030: 3ca7 fd3d c8c2 0e3e b260 d43d ea44 023b
00000040: 462c f83d 4224 fb3d ced5 9d3d 9c85 6d3d
00000050: f75e 0f3e 9559 173e 048e f43d 9cd8 073d
00000060: abe8 203d 8ee6 0a3e 3061 8e3d 2b8b 823d
00000070: 2463 fc3d aafd f33d 54b4 f93d 99b9 ad3d
00000080: 8efc ef3d a3b2 a83d dd59 123e abab 023e
00000090: 335b 0d3e aa94 f93d 793e 0f3e 8179 053e
000000a0: 5a46 0f3d 8d69 cb3d 4d01 e43d 3217 ea3d
000000b0: 1f1a d73d a138 fe3d 0a23 773d 94bf 0c3e
000000c0: 0511 de3c 96fc e03d 87a9 fa3d 9435 0c3e
000000d0: 7f4c fd3d 860c e83d 7478 0f3e 9a81 0e3e
000000e0: 7db7 e63d ab0b ec3d f70c 083e 2259 153c
000000f0: 940d eb3d c387 063e 3348 f13d 1dfd f43d
00000100: 9855 03be 807b 83bb bb17 01be 8b54 ffbd
00000110: 8d78 d3bd 6568 e4bd 6ed8 bcbd cb8d e5bd
00000120: aeea 7cbd 0526 aabc e8cc d1bd 440e debd
00000130: bcc4 dcbd 19c3 ecbd 5dcc d7bd 1ef4 583d
00000140: c920 fbbd 1642 f9bd 25b6 52bd c3cb 47bd
00000150: 8672 f7bd 3508 80bd 3bf6 e6bd 8a00 043e
00000160: 2ec9 fd3c 485e 02be 73ca 3abd 436b 3b3d
00000170: d295 e5bd 7714 ebbd 2407 a4bd ee2a babd
00000180: 9cf3 adbd fe14 92bd c82b c2bd 86fb 04be
00000190: 57a4 f1bd a7a1 fdbd 007b 06be 0a72 b6bd
000001a0: 065c 953d 5968 debd 054c cfbd 2136 e4bd
000001b0: 3489 5d3c 4c36 01be 4abe 563d e21c 04be
000001c0: 1173 f73d a8fb babd a598 d7bd ee28 debd
000001d0: 84af c7bd cd5f 2ebd 8d6a dbbd 6350 f8bd
000001e0: 22e7 d5bd 83ad f8bd c3f2 94bd 60ae 073e
000001f0: 4242 dbbd 710c 01be 193c 3cbd 1d66 ffbd
00000200: 8e9e eebd dd49 22be ef8a 04be ce86 0bbe
00000210: c57e 07be f502 debd c10c 10be 3730 f5bd
00000220: 8679 96bd 23ff e1bd 375f 08be 180e f7bd
00000230: 811e debd 3db5 fdbd 73a8 0dbe 3856 e9bd
00000240: a431 05be 987e efbd be25 bcbd 86e0 17be
00000250: 5287 f6bd fb28 f2bc 92ab e1bd 61d0 d5bd
00000260: 61d6 00be ef44 05be 8638 1dbe 55c9 05bd
00000270: 1800 fcbd 298a 09be 68af f7bd d346 10be
00000280: c020 d0bd d236 22be bcfd c7bd 2c11 02be
00000290: a961 f3bd 824c e3bd 9a39 f3bd 26a8 e7bd
000002a0: 5a5e d0bd 6938 0cbe fad5 fabd 9ad3 f5bd
000002b0: 7cdf d7bd d301 05be e6fd f0bd 15a8 0cbe
000002c0: 244b f3bd b717 d8bd aa09 08be ea2b e8bd
000002d0: 4a92 f0bd 071c 09be 20a4 00be 72dd fabd
000002e0: e635 e9bd 2e59 efbd ba42 97bd e45e dabd
000002f0: 6a1e 0bbe d16e 05be f5d7 a3bd 8ef8 0abe
00000300: adf5 203e 73b9 0f3e e07b 123e fb08 083e
00000310: 5bc5 133e 7ab5 163e 5d50 013e d67d 103e
00000320: c2d4 f63d a0f3 103e ef54 1c3e fa30 103e
00000330: 5385 103e 1bda 173e 9909 023e 4e95 093e
00000340: 4193 0b3e ee99 203e daeb 0c3e 3c25 023e
00000350: 7820 173e ea82 053e e504 203e 55fa 0b3e
00000360: c074 113e 4a00 0a3e 62d3 133e 21ac 0a3e
00000370: 06c0 1e3e 8203 183e 2507 0f3e 9cb7 093e
00000380: f05f 103e e75b 133e 3173 013e 95d3 153e
00000390: a35d 183e 9ef9 113e 7182 1d3e 3ccb fd3d
000003a0: b38b 1a3e 109c f63d ff59 0a3e 91a7 1f3e
000003b0: 3fed 0b3e 8029 0e3e 8ff6 113e e602 173e
000003c0: 8ec5 0d3e d9f7 0f3e 57ca 063e 5390 193e
000003d0: 9183 0a3e 6df1 113e 291c 093e 8b11 0f3e
000003e0: 91e2 163e 770a 0a3e 0e5d 013e 76a8 f43d
000003f0: be1f 0d3e 0222 0a3e 0b04 123e c9c4 143e

encoder.dcrnn_cells.0.gate.bias_pool f4 [2, 128]
0.19648935 -0.20241493 0.15631726 0.067075774 0.33076614 0.35536325 -0.083756 0.10940318
-0.13099979 0.20346594 0.20512511 -0.051806916 0.119337775 0.2056928 0.2812623 0.33228314
0.14585833 0.30547917 -0.31917447 -0.011964433 0.23123159 -0.11543274 0.32141572 0.17664513
0.17008187 0.25333685 0.030591527 -0.3127062 0.22754352 0.21563831 0.17271571 0.15064242
-0.026731135 0.048240714 -0.06901722 -0.060805637 0.15147927 0.07503726 0.2444216 0.28251052
0.14741337 0.11167666 0.08633396 0.15489684 -0.020236138 0.013140724 0.32720605 0.03973636
-0.061601225 -0.1863693 0.34749964 0.13070448 0.0056541166 -0.041838683 0.0061873654 0.19394273
0.09345498 0.30088946 -0.08842761 -0.027795993 0.15886186 0.18228208 -0.14638579 0.0862144
-0.2469875 0.25724506 0.044993736 -0.3399202 -0.26107523 -0.2451561 -0.16846336 0.07028176
-0.009482341 -0.2403216 0.031762037 0.029446194 0.0048427675 -0.06670853 -0.27645788 -0.19935848
-0.20600265 -0.3009374 0.20157343 -0.023199974 0.0010463832 -0.027963433 -0.05757723 -0.16899659
0.006564251 -0.07323728 -0.16919716 -0.02071377 -0.20767634 -0.24472706 -0.23299634 0.058478635
0.19511454 -0.12696657 0.003791623 -0.2676803 -0.025664512 -0.07597334 -0.22195603 -0.119538724
-0.32376894 -0.061636407 0.04085877 -0.1806283 -0.054479588 0.056699906 -0.058024637 -0.28491393
0.08462856 0.14427237 -0.16847734 0.01747779 -0.011035948 -0.13899146 -0.3150979 -0.024960242
-0.09722159 -0.106330454 0.06323041 -0.07489238 -0.2674265 -0.106280476 0.043419942 -0.13933396
0.00074082846 0.24104425 0.18245584 0.22912374 0.08537694 0.005443179 0.2913393 0.1279847
0.13115326 -0.059832342 0.06208021 0.17262396 0.13423596 0.3014023 0.026045896 0.32465416
-0.038090236 0.1968643 0.09998826 0.36306497 0.05195041 0.15588588 0.17971794 0.23050866
0.25516656 0.05859244 0.14162269 0.17979145 0.06817457 0.051501993 0.3389359 -0.012452038
0.19483347 -0.022548135 0.33134818 0.27618355 0.23914163 0.18562353 0.34438047 0.14500813
-0.0071788006 0.16330296 0.21531786 0.13396664 0.060570918 0.11549358 0.118884556 0.34157744
0.2887596 0.16637912 0.058667168 0.023053791 0.08954504 0.29272774 -0.02231434 0.03550598
0.19319491 0.3279431 0.13612184 0.27211398 0.10627929 0.23416555 -0.066505514 0.20097421
-0.33278036 0.0052205375 0.0033723493 -0.09214652 -0.15364222 -0.30232164 0.071758084 -0.24778125
0.06724609 -0.2150637 -0.29190227 0.039082777 -0.009720679 -0.011916487 -0.14841637 -0.27861422
-0.29698202 -0.037415843 0.0002783674 -0.15597038 -0.26843962 -0.21242987 -0.28367832 -0.32299876
-0.044314314 -0.10273748 -0.3266734 -0.0536191 -0.2780343 -0.044927552 -0.12907541 -0.29256243
-0.021157248 -0.33655906 -0.06766896 -0.027716499 -0.28015625 0.07202519 -0.23226088 -0.2018744
0.066068605 -0.13296601 -0.3051251 -0.28638935 -0.29662392 0.027441332 0.0074660084 -0.01737628
-0.25860813 -0.30770215 -0.21691085 -0.18519014 -0.03615807 -0.12667105 -0.003823598 -0.3314076
-0.2584779 0.023381218 -0.21639553 0.018388096 0.06801063 -0.31364706 -0.15076879 -0.3267178
00000000: 8134 493e dc45 4fbe a211 203e 065f 893d
00000010: 2e5a a93e 2cf2 b53e 4488 abbd c60e e03d
00000020: cf24 06be 6059 503e 510c 523e 7d33 54bd
00000030: 5d67 f43d 22a1 523e 9d01 903e 0421 aa3e
00000040: e35b 153e c467 9c3e d66a a3be 7806 44bc
00000050: f9c7 6c3e 0068 ecbd 9a90 a43e 76e2 343e
00000060: f129 2e3e 5eb5 813e 159b fa3c 071b a0be
00000070: 2b01 693e 4ad0 5c3e 63dc 303e 0242 1a3e
00000080: 41fb dabc 0e98 453d e658 8dbd 550f 79bd
00000090: 621d 1b3e 23ad 993d a849 7a3e 38a5 903e
000000a0: 88f3 163e bcb6 e43d dccf b03d 479d 1e3e
000000b0: 42c6 a5bc 314c 573c 8d87 a73e 98c2 223d
000000c0: 9151 7cbd 98d7 3ebe 79eb b13e 65d7 053e
000000d0: 2b46 b93b 0a5f 2bbd 62bf ca3b ec98 463e
000000e0: 5365 bf3d 2f0e 9a3e 8919 b5bd 6cb4 e3bc
000000f0: afac 223e 27a8 3a3e 28e6 15be 2d91 b03d
00000100: 4bea 7cbe a0b5 833e 5a4b 383d 050a aebe
00000110: a7ab 85be 330a 7bbe a981 2cbe e2ef 8f3d
00000120: d25b 1bbc de16 76be e918 023d 2539 f13c
00000130: 14b0 9e3b 7b9e 88bd e38b 8dbe a124 4cbe
00000140: 5cf2 52be 7814 9abe 4469 4e3e df0d bebc
00000150: cb26 893a 9213 e5bc 1ad6 6bbd 710d 2dbe
00000160: ee18 d73b 6dfd 95bd 0542 2dbe edaf a9bc
00000170: 1ba9 54be bb99 7abe 9896 6ebe 4b87 6f3d
00000180: 1bcc 473e 8603 02be e17c 783b 640d 89be
00000190: 623e d2bc e997 9bbd 7148 63be b8d0 f4bd
000001a0: 0bc5 a5be 7576 7cbd 875b 273d a0f6 38be
000001b0: fd25 5fbd 293e 683d 3eab 6dbd 3de0 91be
000001c0: bd51 ad3d 23bc 133e 5385 2cbe 952d 8f3c
000001d0: 1fd0 34bc c753 0ebe 8354 a1be 6c79 ccbc
000001e0: 1d1c c7bd c8c3 d9bd f27e 813d 2d61 99bd
000001f0: 20ec 88be 94a9 d9bd 1cd9 313d 90ad 0ebe
00000200: 2834 423a 4ed4 763e b4d5 3a3e 6a9f 6a3e
00000210: 1bda ae3d b25c b23b 6d2a 953e 6c0e 033e
00000220: 0a4d 063e c212 75bd d147 7e3d 56c4 303e
00000230: 2775 093e 6751 9a3e 345e d53c 1239 a63e
00000240: 8204 1cbd cc96 493e a5c6 cc3d a7e3 b93e
00000250: f4c9 543d 8ca0 1f3e fb07 383e 760a 6c3e
00000260: 31a5 823e a0fe 6f3d 8a05 113e 401b 383e
00000270: 1c9f 8b3d c1f3 523d 0289 ad3e a203 4cbc
00000280: 6d82 473e deb6 b8bc 78a6 a93e ee67 8d3e
00000290: 8be1 743e 1814 3e3e a352 b03e 037d 143e
000002a0: 253c ebbb e438 273e 497c 5c3e 8d2e 093e
000002b0: 3619 783d e687 ec3d bf79 f33d 3de3 ae3e
000002c0: 4cd8 933e 4a5f 2a3e fc4c 703d 4edb bc3c
000002d0: 6463 b73d 69e0 953e 90cc b6bc b86e 113d
000002e0: e3d4 453e 28e8 a73e 8663 0b3e 8652 8b3e
000002f0: f5a8 d93d 18c9 6f3e 0b34 88bd 2fcc 4d3e
00000300: 3062 aabe 0b11 ab3b a202 5d3b 51b7 bcbd
00000310: 6354 1dbe e7c9 9abe e7f5 923d 5eba 7dbe
00000320: 51b8 893d a939 5cbe 3774 95be 4315 203d
00000330: 7c43 1fbc 5e3d 43bc 76fa 17be 86a6 8ebe
00000340: 070e 98be 5b41 19bd d7f1 9139 b3b6 1fbe
00000350: eb70 89be 3787 59be 493e 91be 1860 a5be
00000360: ed82 35bd 0768 d2bd bc41 a7be b49f 5bbd
00000370: 835a 8ebe f405 38bd 582c 04be beca 95be
00000380: f751 adbc 7851 acbe 0696 8abd b60d e3bc
00000390: a470 8fbe f181 933d ccd5 6dbe 2ab8 4ebe
000003a0: fa4e 873d 3e28 08be 5b39 9cbe a0a1 92be
000003b0: 17df 97be a5cc e03c 6ba5 f43b b358 8ebc
000003c0: 4968 84be 238b 9dbe e11d 5ebe 7ca2 3dbe
000003d0: 7c1a 14bd 0eb6 01be 5495 7abb 42ae a9be
000003e0: 3757 84be f889 bf3c ca96 5dbe a2a2 963c
000003f0: 2849 8b3d 5996 a0be 2263 1abe 8e47 a7be

encoder.dcrnn_cells.0.update.weights_pool f4 [2, 2, 65, 64]
-0.11586525 -0.09800259 0.10142856 -0.106051244 0.08892388 -0.11466444 -0.05249748 0.10338468
-0.012441121 -0.011604029 0.08900468 -0.08709442 -0.1159038 -0.096159555 0.0414871 0.04217916
-0.11805368 0.10209878 -0.022662282 0.05130271 0.114020705 0.018602457 -0.117714286 -0.030286174
0.03631867 0.10944103 -0.08428248 -0.0268139 0.103894964 0.1011999 -0.002619015 -0.0520687
-0.0026454972 0.063842796 0.016458161 0.12980136 0.10329002 0.102131985 0.11973329 -0.0035884269
-0.04146694 0.049352825 -0.09265169 -0.10227875 -0.022247817 -0.12778594 0.035043452 -0.11321546
-0.037341602 0.0018519057 0.11000561 -0.11934579 0.015508312 -0.0033213764 0.10776196 -0.10422119
0.09518995 -0.121306084 0.008594652 0.062716335 0.10149453 0.1146582 0.017332748 -0.118445516
0.14268535 -0.13411774 -0.12671597 0.13359725 -0.122578196 0.14758417 -0.13923863 -0.14225836
-0.11818633 -0.12572385 -0.14824294 0.11996672 0.14503571 0.12309813 0.13176791 0.136509
0.13075647 -0.13749433 -0.10784159 0.111256264 -0.13498664 -0.10829253 0.14585976 -0.12472494
0.13124327 -0.12953193 -0.10881521 -0.08871368 -0.12663774 -0.123155914 -0.1241801 -0.11705342
-0.11750993 0.12947336 -0.13077836 -0.1366003 -0.12781726 -0.13549885 -0.14487866 0.12513252
-0.1513801 0.11368013 0.11923794 0.12771864 -0.14654909 0.14978738 0.1394123 0.13650894
-0.14668503 -0.12072488 -0.1403181 0.13378774 -0.118055634 0.13446976 -0.12913813 0.14513797
-0.12925598 0.12941131 0.08791259 0.10749373 -0.13826202 -0.13587569 0.08997424 0.14443134
-0.14228937 -0.1771096 0.16185689 -0.14958121 0.16374926 -0.14828795 -0.22353321 0.20035072
-0.17432228 0.17754515 0.14897521 -0.15674642 -0.21197662 -0.17542565 0.2256734 -0.14639576
-0.15030053 0.17318265 -0.16583715 0.17865036 0.15940818 -0.1655876 -0.17510174 0.19730358
-0.13664562 0.13501735 -0.21441571 -0.15524228 0.1876154 0.16180418 0.15306154 -0.19408493
-0.17577949 0.19190264 -0.16596954 0.19028781 0.20392813 0.17426616 0.20148824 -0.14827919
0.18308325 0.217984 -0.19457799 -0.16561483 0.2092074 -0.16788249 -0.2021456 -0.14957021
0.18120587 -0.16462997 0.15950966 -0.16427137 -0.16979668 -0.16544083 0.15560192 -0.19649471
0.1629552 -0.22422014 0.15325888 0.16682969 0.16336307 0.19578007 0.17260092 -0.16718061
-0.14438608 0.13212074 0.14887981 -0.15007085 0.1380649 -0.12911779 0.13473943 0.14979209
0.12207995 0.14074717 0.11954703 -0.1288152 -0.149329 -0.15057904 -0.12170163 -0.14982776
-0.14133205 0.12379318 0.12341453 -0.13535705 0.14652379 0.11268467 -0.14341639 0.14818466
-0.14163476 0.13417056 0.120180346 0.112674445 0.15022734 0.12374871 0.13396902 0.15344833
0.13058133 -0.1496609 0.15478548 0.14911659 0.13270661 0.116640314 0.13143511 -0.1347887
0.11924165 -0.12046059 -0.14254117 -0.12101915 0.1206932 -0.12656291 -0.14643282 -0.12657548
0.1430286 0.14760202 0.124895066 -0.117212385 0.14256522 -0.14339618 0.13252173 -0.13878699
0.1378374 -0.12738484 -0.12191273 -0.10818578 0.15055656 0.12067782 -0.11942346 -0.14755712
00000000: c34a edbd 95b5 c8bd c7b9 cf3d 6531 d9bd
00000010: b91d b63d 31d5 eabd 9907 57bd 59bb d33d
00000020: d8d5 4bbc d31e 3ebc 1648 b63d 8f5e b2bd
00000030: f95e edbd 4def c4bd 61ee 293d 0ec4 2c3d
00000040: 21c6 f1bd 2a19 d13d 40a6 b9bc ca22 523d
00000050: b083 e93d 2e64 983c 3014 f1bd b61a f8bc
00000060: e3c2 143d 9e22 e03d 4b9c acbd d3a8 dbbc
00000070: e2c6 d43d e541 cf3d c8a3 2bbb fd45 55bd
00000080: 1460 2dbb 03c0 823d 44d3 863c a6ea 043e
00000090: b889 d33d 932a d13d ba36 f53d d02b 6bbb
000000a0: 3dd9 29bd 3026 4a3d 2bc0 bdbd 8577 d1bd
000000b0: 0e41 b6bc 51da 02be b989 0f3d 82dd e7bd
000000c0: 82f3 18bd a5bb f23a 9f4a e13d 916b f4bd
000000d0: 9316 7e3c 73ab 59bb 4db2 dc3d eb71 d5bd
000000e0: f3f2 c23d 536f f8bd 95d0 0c3c 6c71 803d
000000f0: 5ddc cf3d ebd1 ea3d 68fd 8d3c 9093 f2bd
00000100: 1c1c 123e 2956 09be d5c1 01be b8cd 083e
00000110: 470a fbbd 4e20 173e 9294 0ebe 2dac 11be
00000120: ad0b f2bd c1bd 00be ffcc 17be 1db1 f53d
00000130: 3e84 143e df1a fc3d 2bee 063e 04c9 0b3e
00000140: 06e5 053e 50cb 0cbe 0ddc dcbd 53da e33d
00000150: f039 0abe 79c8 ddbd 435c 153e ca6f ffbd
00000160: a364 063e 05a4 04be 82da debd 85af b5bd
00000170: 53ad 01be 2b39 fcbd 2352 febd b4b9 efbd
00000180: 0ca9 f0bd aa94 043e c3ea 05be f3e0 0bbe
00000190: 87e2 02be 36c0 0abe 125b 14be bd22 003e
000001a0: 6303 1bbe 21d1 e83d 0533 f43d adc8 023e
000001b0: f710 16be dd61 193e 19c2 0e3e 00c9 0b3e
000001c0: 9a34 16be 9b3e f7bd 8caf 0fbe a7ff 083e
000001d0: 27c7 f1bd 71b2 093e c93c 04be 0c9f 143e
000001e0: ae5b 04be 6684 043e 840b b43d ac25 dc3d
000001f0: 8f94 0dbe ff22 0bbe 6a44 b83d cfe5 133e
00000200: 4eb4 11be 385c 35be d0bd 253e d12b 19be
00000210: e3ad 273e ccd8 17be e4e5 64be bd28 4d3e
00000220: 8a81 32be 65ce 353e f58c 183e 2282 20be
00000230: 6610 59be c8a2 33be ee16 673e c5e8 15be
00000240: 62e8 19be cb56 313e 37d1 29be 1ff0 363e
00000250: e63b 233e cc8f 29be df4d 33be f309 4a3e
00000260: d4ec 0bbe fd41 0a3e cb8f 5bbe d5f7 1ebe
00000270: 401e 403e ffaf 253e 2abc 1c3e 33be 46be
00000280: 8aff 33be 2082 443e ebf3 29be cfda 423e
00000290: 89d2 503e d472 323e ef52 4e3e 80d6 17be
000002a0: 2d7a 3b3e 3337 5f3e 743f 47be ef96 29be
000002b0: 773a 563e 63e9 2bbe 42ff 4ebe ef28 19be
000002c0: 088e 393e c294 28be 8056 233e c136 28be
000002d0: 2edf 2dbe 5269 29be 1c56 1f3e e935 49be
000002e0: badd 263e f799 65be e5ef 1c3e 67d5 2a3e
000002f0: a648 273e 927a 483e 4cbe 303e 6531 2bbe
00000300: f2d9 13be a94a 073e f373 183e 2cac 19be
00000310: e360 0d3e 7437 04be 22f9 093e 1963 193e
00000320: 0e05 fa3d 0720 103e 13d5 f43d 22e8 03be
00000330: b4e9 18be 6431 1abe b43e f9bd 736c 19be
00000340: 59b9 10be 4787 fd3d c2c0 fc3d 0a9b 0abe
00000350: 550a 163e 38c7 e63d bfdb 12be b8bd 173e
00000360: b408 11be 0264 093e 1d21 f63d dcc1 e63d
00000370: 32d5 193e f76f fd3d 2d2f 093e 8f21 1d3e
00000380: 1db7 053e b540 19be 1680 1e3e 05b2 183e
00000390: 3ee4 073e 1ee1 ee3d ed96 063e 0d06 0abe
000003a0: f734 f43d 0bb4 f6bd 50f6 11be e3d8 f7bd
000003b0: ff2d f73d b599 01be 7cf2 15be 019d 01be
000003c0: 1776 123e fc24 173e fcc8 ff3d 0c0d f0bd
000003d0: 9efc 113e 73d6 12be c7b3 073e 2d1e 0ebe
000003e0: 3f25 0d3e 2c71 02be 62ad f9bd 8290 ddbd
000003f0: 802b 1a3e ef25 f73d 4994 f4bd 3719 17be

encoder.dcrnn_cells.0.update.bias_pool f4 [2, 64]
-0.30025834 -0.18409352 0.45824432 -0.4489805 0.25992936 -0.3433807 -0.02287962 0.24348705
-0.37665012 0.3164877 0.4475497 -0.23768361 -0.25901031 -0.34733868 -0.011370225 -0.34429112
-0.2630113 0.34415954 -0.38260552 0.28487647 0.24409588 -0.27822015 -0.15289539 0.39407927
-0.42996296 0.12399884 -0.14041628 -0.31877074 0.31056273 0.29669577 0.44656584 -0.012683193
-0.3429968 0.06213593 -0.36172274 0.24213278 0.37072197 0.4049471 0.24557212 -0.3152395
0.4328096 -0.008737911 -0.16054046 -0.29780295 0.33919415 -0.25725853 -0.39466068 -0.45212945
0.35958079 -0.33564278 0.17727761 -0.16272321 -0.36061254 -0.4460879 0.2723685 -0.29530126
0.30497345 -0.16470292 0.30037555 0.17488849 0.40493578 0.1904676 0.28750625 -0.39160934
-0.40285796 0.441447 0.19079733 -0.38343576 0.35659048 -0.2519798 0.40542686 0.21601243
0.34611306 -0.060095277 0.4185698 -0.443228 -0.20211199 -0.30730996 -0.3960999 0.009583011
-0.37084225 0.42235404 0.40616915 -0.4039874 0.42857322 0.23655881 -0.33151937 -0.24103588
0.014432055 0.4460177 0.432649 0.26347646 0.22616693 0.3327917 -0.004112255 0.27632615
0.35631034 -0.3266263 0.34116587 0.26338688 0.18189836 0.17286633 0.22089867 -0.016342513
-0.23080306 -0.3648939 -0.15183935 -0.3326514 -0.13425727 -0.24283376 0.17455716 -0.40377867
-0.13706249 0.325287 0.43704453 -0.20996362 0.419516 0.029515142 0.3388978 -0.25096667
0.29573897 -0.15116288 -0.2925143 -0.17402467 0.43209633 0.18161824 -0.26404372 -0.27810058
00000000: 76bb 99be 0383 3cbe 009f ea3e c6e0 e5be
00000010: 7615 853e 98cf afbe 0a6e bbbc ab54 793e
00000020: 49d8 c0be ad0a a23e 3c25 e53e 5563 73be
00000030: 009d 84be 60d6 b1be 2e4a 3abc ed46 b0be
00000040: 6ba9 86be ae35 b03e dfe4 c3be 54db 913e
00000050: 45f4 793e df72 8ebe 9c90 1cbe c2c4 c93e
00000060: 1b24 dcbe 1bf3 fd3d 49c9 0fbe eb35 a3be
00000070: 1402 9f3e 82e8 973e 47a4 e43e 2bcd 4fbc
00000080: 479d afbe 3f82 7e3d b933 b9be a8f1 773e
00000090: 45cf bd3e 3a55 cf3e 4277 7b3e 1267 a1be
000000a0: 3899 dd3e 7429 0fbc b864 24be a179 98be
000000b0: dbaa ad3e 64b7 83be f710 cabe 837d e7be
000000c0: f91a b83e 5fd9 abbe 4388 353e eaa0 26be
000000d0: 35a2 b8be a265 e4be e273 8b3e ba31 97be
000000e0: 7b25 9c3e e2a7 28be d3ca 993e f815 333e
000000f0: be53 cf3e f009 433e 0534 933e 0581 c8be
00000100: 6643 cebe 5705 e23e 6060 433e b151 c4be
00000110: 0793 b63e 7f03 81be 1c94 cf3e 5d32 5d3e
00000120: bb35 b13e 7726 76bd c84e d63e c8ee e2be
00000130: 72f6 4ebe bb57 9dbe 9bcd cabe 1002 1d3c
00000140: 09df bdbe ca3e d83e 67f5 cf3e 70d7 cebe
00000150: f36d db3e 793c 723e e8bc a9be 1cd2 76be
00000160: 6d74 6c3c 6f5c e43e 2b84 dd3e 63e6 863e
00000170: 4e98 673e ac63 aa3e 18c0 86bb 9f7a 8d3e
00000180: 4f6e b63e 903b a7be 4bad ae3e a5da 863e
00000190: 9043 3a3e df03 313e 4333 623e bce0 85bc
000001a0: a357 6cbe 60d3 babe c67b 1bbe 4951 aabe
000001b0: bd7a 09be 6aa9 78be 1dbf 323e 14bc cebe
000001c0: 1c5a 0cbe 058c a63e 4dc4 df3e b400 57be
000001d0: cdca d63e bdc9 f13c 0384 ad3e b47e 80be
000001e0: 196b 973e 71ca 1abe 6fc4 95be 8633 32be
000001f0: bb3b dd3e 22fa 393e bd30 87be 3363 8ebe

encoder.dcrnn_cells.1.gate.weights_pool f4 [2, 2, 128, 128]
-0.027929353 -0.13478553 -0.037687887 -0.12890936 -0.12568888 -0.12452375 -0.13848238 -0.17349741
0.057235472 -0.13905884 -0.13963455 -0.03446279 0.065886445 -0.1085211 -0.020987557 -0.12999046
-0.1262737 -0.13787042 -0.24023189 -0.025330503 -0.12382745 -0.1582896 -0.12605454 -0.13874021
-0.037035305 -0.116614826 0.0658426 -0.008074737 -0.117697716 0.03405288 -0.041714963 -0.12825437
-0.13337095 -0.033076018 -0.1274661 -0.04806274 -0.19452728 -0.0404755 -0.122202925 -0.041003674
-0.13015336 -0.03958488 -0.05550142 -0.14118777 -0.12983434 -0.032491114 -0.13447931 -0.14741483
-0.21469042 0.018210169 -0.12034233 -0.13296181 -0.03579533 -0.12842593 -0.12729165 -0.12516218
-0.08509628 -0.07594477 -0.1158224 0.030061811 -0.11517651 -0.13306265 -0.03330429 -0.029506888
0.14640932 0.14815375 0.14159817 0.15399963 0.14926094 0.1526809 0.15450297 0.1587423
0.1275986 0.15630357 0.16436754 0.1422131 0.13868189 0.16966148 0.1632152 0.16271707
0.16079241 0.15349588 0.120994836 0.13311304 0.15456602 0.15186834 0.1643824 0.16583923
0.14264174 0.1584141 0.13170673 0.15484191 0.17052022 0.10136402 0.16866186 0.17155205
0.15692107 0.14104506 0.15215933 0.15061548 0.15571448 0.14039765 0.15554892 0.1389954
0.15989879 0.13522446 0.13973123 0.15396275 0.14976174 0.13355477 0.1501984 0.15242139
0.15630396 0.15534197 0.15848918 0.14699681 0.14351243 0.15008593 0.16399793 0.1618037
0.16200975 0.14478873 0.15327673 0.14503306 0.14872167 0.14918257 0.14870195 0.14852571
-0.12546296 0.0032609012 0.006811943 0.047129877 0.054173682 0.034668844 -0.06332465 -0.03539007
-0.11921068 0.04201083 0.0565674 0.022724623 -0.09339705 0.027529258 0.10925374 0.031296797
0.044255875 0.054669082 -0.10411616 -0.016091857 0.037594922 -0.03322689 0.043917824 0.034223277
-0.022315836 -0.0010138669 -0.12052839 0.12099849 0.0020249018 -0.15255488 0.115151845 -0.023204772
0.041341774 -0.022909256 0.03583928 0.066631146 -0.057015173 -0.06369735 -0.0062533277 -0.07645887
0.043163527 -0.03328477 0.05569412 0.031908367 0.03536955 0.012522676 0.0462204 -0.023232823
-0.08396957 0.04347134 0.009589193 0.041257072 -0.122430995 0.048086468 0.034693073 0.059438717
0.11624045 0.0797756 -0.01375169 0.088377565 0.06438517 0.050968815 -0.13808088 -0.15699917
0.08140165 0.1301991 0.0752274 0.118050285 0.1014505 0.100956425 0.13122411 0.13443734
0.0938744 0.10850671 0.110061415 0.07424829 0.09809328 0.13218385 0.10285259 0.10534234
0.10275123 0.114006124 0.10385907 0.079016425 0.11263906 0.1262746 0.107754536 0.11295494
0.07836823 0.12870984 0.09746388 0.1036253 0.12052745 0.11384397 0.11616712 0.11414471
0.108390294 0.07213832 0.11527302 0.079426244 0.06370136 0.079320714 0.11814734 0.07136844
0.11776081 0.08841159 0.08345921 0.116193146 0.117030405 0.08472315 0.10626945 0.1314065
-0.0082625 0.083548404 0.12827472 0.107655816 0.08279684 0.10662364 0.11186632 0.10895424
0.099234454 0.09773854 0.11947783 0.10666525 0.11605487 0.103997394 0.08016002 0.08623683
00000000: 19cc e4bc 3805 0abe 9d5e 1abd d100 04be
00000010: 96b4 00be 4f06 ffbd 53ce 0dbe 4ea9 31be
00000020: be6f 6a3d 7165 0ebe 5cfc 0ebe db28 0dbd
00000030: 79ef 863d 4f40 debd 19ee abbc 381c 05be
00000040: e54d 01be e72d 0dbe 59ff 75be ea81 cfbc
00000050: 3f99 fdbd ab16 22be 7114 01be ea11 0ebe
00000060: 55b2 17bd c1d3 eebd 7cd8 863d e74b 04bc
00000070: 800b f1bd 087b 0b3d 4fdd 2abd 1d55 03be
00000080: 6592 08be b87a 07bd 7986 02be 70dd 44bd
00000090: 2932 47be a3c9 25bd 8745 fabd 78f3 27bd
000000a0: ec46 05be c123 22bd 7555 63bd 8793 10be
000000b0: 4bf3 04be 6715 05bd f2b4 09be eaf3 16be
000000c0: ced7 5bbe 7e2d 953c 0a76 f6bd 2427 08be
000000d0: 209e 12bd 1682 03be be58 02be 842a 00be
000000e0: f546 aebd ee88 9bbd 4b34 edbd 3044 f63c
000000f0: a9e1 ebbd 9341 08be 146a 08bd 6eb8 f1bc
00000100: 53ec 153e 9eb5 173e 1cff 103e 14b2 1d3e
00000110: dcd7 183e 6258 1c3e 0736 1e3e 578d 223e
00000120: 35a9 023e 0b0e 203e f74f 283e 50a0 113e
00000130: a002 0e3e bdbb 2d3e e321 273e 4e9f 263e
00000140: c4a6 243e 062e 1d3e 24cc f73d c94e 083e
00000150: 8e46 1e3e 6083 1b3e dc53 283e c2d1 293e
00000160: ad10 123e 4e37 223e 21de 063e e18e 1e3e
00000170: da9c 2e3e f097 cf3d b2b5 2c3e 57ab 2f3e
00000180: ebaf 203e 1e6e 103e a8cf 1b3e f23a 1a3e
00000190: 9e73 1f3e 67c4 0f3e 3748 1f3e cf54 0e3e
000001a0: 82bc 233e 4878 0a3e b415 0f3e 69a8 1d3e
000001b0: 245b 193e 95c2 083e 9ccd 193e 5a14 1c3e
000001c0: 250e 203e f711 1f3e fd4a 223e 5586 163e
000001d0: ecf4 123e 20b0 193e 13ef 273e deaf 253e
000001e0: e2e5 253e 7f43 143e 93f4 1c3e 8c83 143e
000001f0: 7e4a 183e 51c3 183e 5345 183e 2017 183e
00000200: 5d79 00be d8b4 553b b836 df3b 420b 413d
00000210: 39e5 5d3d eb00 0e3d 5bb0 81bd 2ef5 10bd
00000220: bb24 f4bd 8c13 2c3d 38b3 673d fd28 ba3c
00000230: f446 bfbd 0a85 e13c 6dc0 df3d 1231 003d
00000240: a645 353d b0ec 5f3d da3a d5bd 12d3 83bc
00000250: 22fd 193d eb18 08bd 2de3 333d b52d 0c3d
00000260: b3cf b6bc bae3 84ba 97d7 f6bd 0ece f73d
00000270: 37b4 043b 5937 1cbe bbd4 eb3d ef17 bebc
00000280: fe55 293d 31ac bbbc 35cc 123d e975 883d
00000290: be88 69bd c273 82bd b7e8 ccbb 7896 9cbd
000002a0: 3dcc 303d 9c55 08bd 841f 643d 59b2 023d
000002b0: a9df 103d e92b 4d3c 9a51 3d3d c352 bebc
000002c0: 3df8 abbd 010f 323d fe1b 1d3c 2dfd 283d
000002d0: 1abd fabd 51f6 443d 531a 0e3d 0376 733d
000002e0: 790f ee3d 6461 a33d c54e 61bc 4cff b43d
000002f0: 5fdc 833d adc4 503d 1365 0dbe 64c4 20be
00000300: e9b5 a63d ea52 053e d310 9a3d 59c4 f13d
00000310: 48c5 cf3d 3ec2 ce3d 9d5f 063e f1a9 093e
00000320: 3941 c03d c438 de3d e167 e13d 7d0f 983d
00000330: 21e5 c83d 345b 073e 61a4 d23d babd d73d
00000340: 3d6f d23d 0b7c e93d 10b4 d43d 5dd3 a13d
00000350: 4faf e63d 214e 013e 69ae dc3d eb54 e73d
00000360: 867f a03d 83cc 033e 259b c73d 8039 d43d
00000370: 19d7 f63d 0727 e93d 07e9 ed3d b4c4 e93d
00000380: bbfb dd3d 41bd 933d 4314 ec3d 3aaa a23d
00000390: dc75 823d e672 a23d 3cf7 f13d 9e29 923d
000003a0: 942c f13d 2311 b53d aaec aa3d acf6 ed3d
000003b0: a3ad ef3d 5583 ad3d cca3 d93d 6d8f 063e
000003c0: 705f 07bc 6d1b ab3d 735a 033e a77a dc3d
000003d0: 6491 a93d 7f5d da3d 2b1a e53d 6723 df3d
000003e0: 6f3b cb3d 252b c83d cbb0 f43d 5073 da3d
000003f0: 2dae ed3d 96fc d43d f02a a43d ef9c b03d

encoder.dcrnn_cells.1.gate.bias_pool f4 [2, 128]
-0.2350271 0.15886286 0.056658797 0.28429824 0.1317378 0.23501405 0.32109594 0.24033973
0.05238327 -0.09079286 0.15004034 -0.08255307 0.109417774 0.019259581 -0.13978437 0.18594497
0.20693204 0.13008901 -0.07360012 0.08752865 0.27369344 0.27760774 0.13610166 0.03504165
-0.090913326 0.32298806 0.014909799 0.023221921 0.090129726 -0.28124225 0.12255172 0.07840576
0.1311353 0.13593785 0.2579719 -0.068937965 0.036464214 0.15992005 0.10418982 0.06793427
0.02414786 -0.15707332 0.19042826 0.22142206 0.108160034 -0.028698524 0.27325118 -0.102267586
0.13015594 -0.14417656 0.19898155 0.006443813 0.010974631 0.24102859 0.083800755 0.036280163
-0.082897216 0.2553235 0.0047053252 -0.0800328 -0.03091324 0.0018419257 0.018430237 0.053524375
-0.14278126 -0.27032503 -0.026140595 -0.07819841 -0.053024095 0.08984284 0.08884897 -0.11922041
0.020792326 -0.13046622 -0.30496618 -0.018069243 -0.14885488 -0.0103353085 0.11639912 -0.14187044
-0.1444333 -0.07752881 0.0514549 0.004007242 -0.19671609 0.020160358 -0.17949755 -0.009973133
-0.18096186 -0.21684109 0.156681 -0.024909701 0.031132821 0.15332735 0.06085775 0.061335858
0.1165376 -0.030243734 -0.074365936 -0.14173025 -0.2588158 -0.06331581 0.08830541 -0.015162315
0.084868416 -0.0026957043 -0.20249726 -0.21527135 0.066865556 0.107114196 -0.15499876 -0.040912904
-0.20760448 0.10563097 -0.059619017 -0.19151689 -0.07332698 0.044623215 -0.09763579 -0.12904026
0.04973652 -0.033358276 -0.17392138 -0.15029733 -0.13610563 -0.23896968 0.10522611 -0.16346714
0.07138416 0.2887847 -0.084731534 0.031618517 -0.09605711 0.0343838 0.055009555 0.14268161
0.12066837 0.27785113 0.014714032 0.25006667 -0.008748987 0.066125266 0.116076045 0.118242666
0.004768318 -0.045689333 0.1518129 0.31620577 0.2589094 -0.040683147 -0.043821678 0.034224026
0.19994451 0.07274169 0.14887613 -0.22288378 0.15326342 -0.112414636 -0.019327736 0.15080623
0.2245417 0.29423806 0.22737744 0.28447837 0.092349984 0.16271448 -0.0049949274 0.23686275
0.16090597 -0.004113604 0.33367455 0.11625692 0.051904913 0.2906033 0.12342745 0.24927661
-0.0343926 0.1464895 -0.07307803 0.1365306 0.14935333 0.06955983 0.012399135 0.16647105
0.18869972 0.29381713 0.18562473 -0.09240013 0.2770987 0.17560449 0.19723544 0.22666614
-0.2837106 0.10362092 0.023077488 -0.19899058 0.053110834 0.008128511 -0.04197525 0.0076573384
-0.15027697 -0.16739985 -0.3137504 -0.2868583 -0.26751995 -0.24745105 0.078547195 0.005141629
-0.19410358 -0.17880449 -0.1599575 0.09818633 -0.20060328 0.100021824 0.07478082 -0.0076232217
-0.2622611 0.0628239 0.02000566 0.077959865 -0.038494907 0.05480852 -0.16509868 0.028815754
-0.117340334 -0.13161212 -0.17047842 -0.20190805 0.08728982 -0.16365941 0.048236676 -0.18469165
-0.21902876 0.08424752 0.0067570857 -0.2545923 -0.06330273 -0.17229572 -0.17551377 -0.010562237
-0.31237397 -0.17907152 -0.012310098 -0.0005866609 -0.08951035 -0.27595344 0.021561394 -0.27261743
-0.100575924 -0.09331907 -0.10960203 -0.07712215 0.07044529 -0.29036018 -0.057866223 -0.22671604
00000000: f2aa 70be f2ac 223e 0e13 683d 8a8f 913e
00000010: 46e6 063e 86a7 703e b066 a43e 9e1b 763e
00000020: d78f 563d 9bf1 b9bd 2da4 193e 9511 a9bd
00000030: 6d16 e03d 45c6 9d3c a223 0fbe 5c68 3e3e
00000040: fee5 533e 0e36 053e a9bb 96bd 3942 b33d
00000050: 8c21 8c3e 9a22 8e3e 3c5e 0b3e d587 0f3d
00000060: c430 babd b15e a53e 3b48 743c e63b be3c
00000070: ef95 b83d fcfe 8fbe 65fc fa3d 3393 a03d
00000080: 5548 063e 4b33 0b3e e514 843e 592f 8dbd
00000090: 805b 153d 15c2 233e 7961 d53d 1f21 8b3d
000000a0: bcd1 c53c d4d7 20be a0ff 423e 77bc 623e
000000b0: 0283 dd3d 2b19 ebbc 94e7 8b3e ab71 d1bd
000000c0: 9947 053e 05a3 13be d2c1 4b3e 9f26 d33b
000000d0: f0ce 333c 33d0 763e bb9f ab3d 829a 143d
000000e0: 04c6 a9bd c3b9 823e 212f 9a3b 3de8 a3bd
000000f0: c33d fdbc c56c f13a 02fb 963c 603c 5b3d
00000100: 4035 12be 0b68 8abe cd24 d6bc 7d26 a0bd
00000110: cb2f 59bd 86ff b73d 73f6 b53d d529 f4bd
00000120: ab54 aa3c f098 05be 8724 9cbe f305 94bc
00000130: 6a6d 18be 6d55 29bc a962 ee3d 7c46 11be
00000140: 53e6 13be 6dc7 9ebd 60c2 523d 2f4f 833b
00000150: f16f 49be 5627 a53c 35ce 37be 5a66 23bc
00000160: 114e 39be 970b 5ebe fc70 203e 6e0f ccbc
00000170: 420a ff3c d801 1d3e fa45 793d 4f3b 7b3d
00000180: 44ab ee3d b5c1 f7bc 2b4d 98bd bc21 11be
00000190: 8183 84be b8ab 81bd 78d9 b43d 5c6b 78bc
000001a0: 7ecf ad3d 6aaa 30bb 715b 4fbe 1870 5cbe
000001b0: cff0 883d b05e db3d ffb7 1ebe 4a94 27bd
000001c0: 4596 54be 0d55 d83d 1233 74bd 011d 44be
000001d0: 752c 96bd d5c6 363d 46f5 c7bd 2123 04be
000001e0: 85b8 4b3d b0a2 08bd 7218 32be 8be7 19be
000001f0: 465f 0bbe 78b4 74be c980 d73d ee63 27be
00000200: dc31 923d 97db 933e ba87 adbd 6b82 013d
00000210: 97b9 c4bd 07d6 0c3d b351 613d 211b 123e
00000220: fa20 f73d 8142 8e3e 2013 713c bd08 803e
00000230: e957 0fbc af6c 873d 47b9 ed3d 3629 f23d
00000240: 8d3f 9c3b bd24 3bbd d774 1b3e b9e5 a13e
00000250: c68f 843e 5fa3 26bd 5c7e 33bd 7e2e 0c3d
00000260: 41be 4c3e 98f9 943d fc72 183e a53b 64be
00000270: 16f1 1c3e a539 e6bd 3355 9ebc f36c 1a3e
00000280: 42ee 653e 5fa6 963e a2d5 683e 26a7 913e
00000290: fd21 bd3d a09e 263e 7dac a3bb 268c 723e
000002a0: 89c4 243e 69cb 86bb 64d7 aa3e 1c18 ee3d
000002b0: 3f9a 543d f5c9 943e 88c7 fc3d 5e42 7f3e
000002c0: 41df 0cbd 5801 163e efa9 95bd adce 0b3e
000002d0: 14f0 183e 6275 8e3d be25 4b3c 6377 2a3e
000002e0: 803a 413e 336f 963e 6914 3e3e 483c bdbd
000002f0: e1df 8d3e aad1 333e 16f8 493e 2b1b 683e
00000300: 8442 91be 3437 d43d 000d bd3c 30c4 4bbe
00000310: bf8a 593d 722d 053c 3dee 2bbd 69ea fa3b
00000320: 35e2 19be de6a 2bbe e4a3 a0be 17df 92be
00000330: 60f8 88be cf63 7dbe 5add a03d 1c7b a83b
00000340: 17c3 46be 8618 37be e6cb 23be ea15 c93d
00000350: f26a 4dbe 3ed8 cc3d b026 993d 38cc f9bb
00000360: 1647 86be d1a9 803d e9e2 a33c 6ca9 9f3d
00000370: d6ac 1dbd e67e 603d a10f 29be 040f ec3c
00000380: 2150 f0bd 54c5 06be e591 2ebe fcc0 4ebe
00000390: 01c5 b23d 5596 27be d293 453d cf1f 3dbe
000003a0: 1349 60be f789 ac3d 8b6a dd3b ec59 82be
000003b0: dda4 81bd 4a6e 30be e2b9 33be 3c0d 2dbc
000003c0: 7bef 9fbe 865e 37be 4bb0 49bc 26ca 19ba
000003d0: 3451 b7bd c549 8dbe 85a1 b03c 8394 8bbe
000003e0: c0fa cdbd 121e bfbd 0777 e0bd 38f2 9dbd
000003f0: 9f45 903d 17aa 94be 2205 6dbd 4028 68be

encoder.dcrnn_cells.1.update.weights_pool f4 [2, 2, 128, 64]
-0.23739247 -0.20838602 -0.2163805 -0.21940069 0.22335316 -0.2258921 -0.23198193 -0.20430364
0.24104841 0.22749737 0.20851767 -0.23479986 0.25453907 0.22850204 0.24796514 -0.21641484
-0.22438264 -0.22837287 0.20516449 0.23553458 0.22615217 -0.19262353 -0.22004724 0.22806865
0.2471444 0.21736366 -0.2547444 -0.2559044 -0.2218568 -0.23878652 0.23065409 -0.23606142
-0.20483378 0.23246816 0.20717256 0.225057 0.1853722 -0.2281657 0.22297259 -0.24407215
-0.22711283 0.23521407 -0.21662727 0.21692914 0.20900467 0.22338133 0.21165244 -0.20552662
-0.1937407 -0.23938796 -0.2374969 -0.21265286 -0.22951633 0.22427668 -0.20451383 0.21352075
0.22966827 -0.2244295 0.22738196 0.24221708 -0.2173843 0.21763971 -0.23924679 0.2485307
-0.23686294 -0.25103468 -0.228823 -0.25428212 0.2666832 -0.262901 -0.27540883 -0.23023486
0.23320696 0.2761012 0.2641939 -0.23018552 0.23838395 0.26534727 0.24973086 -0.26017135
-0.25780708 -0.27149144 0.14183882 0.23993576 0.25758106 -0.25436905 -0.2518631 0.27556932
0.22701341 0.26299515 -0.22280493 -0.25393462 -0.26952642 -0.25915942 0.2514941 -0.25901493
-0.2734738 0.23256095 0.2678973 0.24397658 0.23232482 -0.22507386 0.26705897 -0.23141989
-0.27210382 0.23507 -0.23448266 0.2557615 0.2724747 0.24777253 0.2597131 -0.2521023
-0.16996722 -0.24530388 -0.25481248 -0.26226452 -0.23050135 0.25071982 -0.27583697 0.2520525
0.25458983 -0.24642313 0.26337633 0.23252507 -0.26696146 0.2583392 -0.22051196 0.22324742
0.2143542 0.2039047 0.21161908 0.2257593 -0.20481999 0.22513093 0.21599329 0.17805454
-0.2513995 -0.20193629 -0.20980205 0.22491717 -0.23259643 -0.20975757 -0.22759826 0.20926818
0.22243378 0.20981178 -0.20115934 -0.2212377 -0.21261603 0.18429203 0.20768814 -0.2153995
-0.2145707 -0.2120945 0.23613116 0.22817552 0.22032546 0.2257026 -0.24284858 0.20954143
0.21173504 -0.23658118 -0.21853314 -0.22644736 -0.16902621 0.23563974 -0.22219662 0.23064382
0.2046955 -0.23744994 0.23311414 -0.20097786 -0.21704194 -0.23358527 -0.20815682 0.20427103
0.17682862 0.23160447 0.22430724 0.22446448 0.22172935 -0.20546773 0.20207933 -0.21471474
-0.22169232 0.21722549 -0.21034278 -0.23083153 0.22129232 -0.22155562 0.24030265 -0.2424301
-0.21828493 -0.19224931 -0.20065208 -0.21854271 0.21892004 -0.20196079 -0.2024135 -0.18007684
0.2300659 0.19186589 0.21527338 -0.2068389 0.24552391 0.21470739 0.23308177 -0.21538489
-0.20137635 -0.20741774 0.18780054 0.23375183 0.19657671 -0.17788433 -0.1959913 0.20105138
0.22867794 0.20655349 -0.24524476 -0.21902749 -0.22621103 -0.2259748 0.23219435 -0.21192354
-0.19641604 0.21780866 0.20942824 0.21366233 0.16164024 -0.22450258 0.207672 -0.23572361
-0.20554289 0.21570371 -0.20420411 0.2116924 0.19529086 0.21128906 0.1941832 -0.1984699
-0.16321193 -0.21795255 -0.20876335 -0.21514453 -0.23309809 0.19531335 -0.21858051 0.21426238
0.21063364 -0.22164808 0.21681803 0.22702403 -0.20539309 0.2193658 -0.2342857 0.21820112
00000000: 0317 73be 2563 55be da92 5dbe 93aa 60be
00000010: b1b6 643e 4250 67be ac8c 6dbe f934 51be
00000020: 65d5 763e 12f5 683e a885 553e 606f 70be
00000030: f252 823e 70fc 693e 93ea 7d3e da9b 5dbe
00000040: 90c4 65be 94da 69be a416 523e fa2f 713e
00000050: 6f94 673e 1a3f 45be 1054 61be d48a 693e
00000060: 6c13 7d3e 9494 5e3e dc6d 82be e705 83be
00000070: 6e2e 63be 7484 74be 9630 6c3e 16ba 71be
00000080: f2bf 51be 220c 6e3e 0b25 543e 5875 663e
00000090: 36d2 3d3e 45a4 69be ed52 643e 0dee 79be
000000a0: 4490 68be f5db 703e 8ad3 5dbe ac22 5e3e
000000b0: 5205 563e 13be 643e 6bbb 583e 9275 52be
000000c0: f663 46be 1e22 75be 6332 73be acc1 59be
000000d0: 5406 6bbe c9a8 653e 136c 51be 2fa5 5a3e
000000e0: 292e 6b3e d9d0 65be d1d6 683e c107 783e
000000f0: fd99 5ebe f2dc 5e3e 1cfd 74be d57e 7e3e
00000100: 338c 72be 9e87 80be 9450 6abe 4431 82be
00000110: b38a 883e f69a 86be 6302 8dbe b0c2 6bbe
00000120: cecd 6e3e 235d 8d3e 6c44 873e c1b5 6bbe
00000130: ec1a 743e 99db 873e 72b9 7f3e 2e35 85be
00000140: 4aff 83be ed00 8bbe 323e 113e b8b1 753e
00000150: aae1 833e a93c 82be 33f4 80be 6c17 8d3e
00000160: 3476 683e 4da7 863e fa26 64be b803 82be
00000170: 5eff 89be 8bb0 84be d6c3 803e 9b9d 84be
00000180: c204 8cbe 7524 6e3e d629 893e ffd4 793e
00000190: 8fe6 6d3e c379 66be f4bb 883e 56f9 6cbe
000001a0: 3151 8bbe 31b6 703e 391c 70be 2cf3 823e
000001b0: ce81 8b3e 15b8 7d3e 1ef9 843e 8d13 81be
000001c0: e30b 2ebe f130 7bbe c876 82be 8947 86be
000001d0: 8c08 6cbe 595e 803e 813a 8dbe 060d 813e
000001e0: 9959 823e 5856 7cbe 43d9 863e 0d1b 6e3e
000001f0: 2caf 88be 0945 843e e3cd 61be f99a 643e
00000200: ab7f 5b3e 65cc 503e acb2 583e 722d 673e
00000210: 55bc 51be b988 663e 582d 5d3e ee53 363e
00000220: 6fb7 80be 63c8 4ebe 59d6 56be b050 663e
00000230: c22d 6ebe b0ca 56be 850f 69be 664a 563e
00000240: aec5 633e e6d8 563e b7fc 4dbe 238c 62be
00000250: 04b8 59be 0db7 3c3e 33ac 543e b091 5cbe
00000260: 6cb8 5bbe 4d2f 59be 5ecc 713e d8a6 693e
00000270: ff9c 613e 951e 673e 4cad 78be 0792 563e
00000280: 12d1 583e 5642 72be 27c7 5fbe d1e1 67be
00000290: 3515 2dbe 8b4b 713e 8387 63be e52d 6c3e
000002a0: b29b 513e 1426 73be 79b5 6e3e 24cd 4dbe
000002b0: 3e40 5ebe fa30 6fbe 1027 55be 6d2c 513e
000002c0: 9012 353e b929 6d3e ccb0 653e 04da 653e
000002d0: 050d 633e 2266 52be e2ed 4e3e 2ede 5bbe
000002e0: 5003 63be 5c70 5e3e 1964 57be 1a5f 6cbe
000002f0: 749a 623e 7adf 62be e611 763e 993f 78be
00000300: 1686 5fbe 01dd 44be bd77 4dbe a9c9 5fbe
00000310: 932c 603e cfce 4ebe 7c45 4fbe 1066 38be
00000320: 6596 6b3e 7e78 443e a070 5c3e 94cd 53be
00000330: 9f6a 7b3e 41dc 5b3e fdac 6e3e db8d 5cbe
00000340: 9a35 4ebe 5165 54be c94e 403e a45c 6f3e
00000350: 684b 493e 4f27 36be f1b1 48be 6ae0 4d3e
00000360: 8d2a 6a3e c282 533e 7121 7bbe be48 60be
00000370: dda3 67be f065 67be 5bc4 6d3e 7c02 59be
00000380: 4921 49be 3c09 5f3e 5b74 563e 4cca 5a3e
00000390: 0585 253e 01e4 65be f8a7 543e 8861 71be
000003a0: d679 52be 6fe1 5c3e e21a 51be e4c5 583e
000003b0: 54fa 473e 295c 583e f6d7 463e b23b 4bbe
000003c0: 0721 27be f42e 5fbe 0fc6 55be d94e 5cbe
000003d0: 44b1 6ebe 3900 483e 92d3 5fbe 9967 5b3e
000003e0: 58b0 573e b7f7 62be 8c05 5e3e fd78 683e
000003f0: 9152 52be 6ea1 603e 97e8 6fbe 1d70 5f3e

encoder.dcrnn_cells.1.update.bias_pool f4 [2, 64]
-0.22013438 0.22791907 0.01867994 0.28405094 -0.12542103 0.27682853 0.41431877 0.23296091
0.21346584 -0.4156552 -0.30910334 -0.04894971 0.09390383 -0.17011471 -0.049057253 0.38547063
0.32950282 0.28943777 -0.27033472 0.09483768 -0.17753056 0.24937887 0.32841146 -0.32464325
0.10957319 -0.27555388 -0.17296883 0.07646146 0.1840309 -0.18967904 -0.08256927 0.30367827
0.28001997 0.120147824 -0.21676436 -0.016016493 -0.21412116 -0.17096865 -0.3553066 -0.21255374
0.31976074 0.105885595 0.0077674957 -0.2732548 -0.24289572 0.029132325 -0.2845798 0.25658068
0.29100668 -0.04248649 0.23211595 0.26846802 -0.2186506 -0.40908486 0.36620593 -0.35530385
-0.10466853 0.061903574 -0.24193849 -0.007928793 0.14161718 -0.4043532 -0.2720454 0.2701064
0.3972419 0.22907652 0.22034563 0.40293264 -0.22641395 0.16617921 -0.10007991 0.37049773
-0.016802186 -0.3952479 -0.43240252 0.3682289 -0.020488074 0.16623038 -0.03637776 0.15640981
0.14819065 0.31228754 -0.3916522 -0.2899058 -0.22034077 0.38624048 0.31157726 -0.30629689
-0.24703468 0.067679375 0.033407692 -0.15079209 -0.0719297 -0.08760304 0.11716024 -0.110764325
0.42352024 -0.43131754 -0.21494299 -0.22537445 -0.41660583 0.24447267 0.018959265 0.27519217
0.36739513 -0.36990282 0.31296152 -0.22461523 -0.18698148 -0.37794247 -0.1632856 0.36312085
0.3683927 0.04638619 -0.033309292 0.3245159 0.32150713 -0.27736378 0.22915673 -0.37687808
-0.044666067 0.18344393 -0.0018056514 0.023799052 0.29511356 -0.41864544 0.14342564 -0.16763853
00000000: e86a 61be 9e63 693e ac06 993c 206f 913e
00000010: 5f6e 00be 78bc 8d3e 9721 d43e 4e8d 6e3e
00000020: ca96 5a3e c2d0 d4be cb42 9ebe 7e7f 48bd
00000030: a750 c03d 8d32 2ebe 42f0 48bd 685c c53e
00000040: 98b4 a83e 3031 943e 5069 8abe 423a c23d
00000050: 92ca 35be 2d5d 7f3e 8c25 a83e a437 a6be
00000060: e967 e03d 6615 8dbe be1e 31be d397 9c3d
00000070: 9972 3c3e 393b 42be 141a a9bd b87b 9b3e
00000080: c75e 8f3e 1010 f63d 7af7 5dbe 0535 83bc
00000090: 9442 5bbe 6812 2fbe bfea b5be b0a7 59be
000000a0: aeb7 a33e 8cda d83d 7a86 fe3b 0ee8 8bbe
000000b0: a8b9 78be eaa6 ee3c 72b4 91be 8b5e 833e
000000c0: d4fe 943e 5006 2ebd ceaf 6d3e a474 893e
000000d0: f1e5 5fbe 9273 d1be 587f bb3e 63ea b5be
000000e0: 745c d6bd 9a8e 7d3d b9be 77be c5e7 01bc
000000f0: 1804 113e 6207 cfbe 8949 8bbe 634b 8a3e
00000100: 4a63 cb3e 0993 6a3e 49a2 613e 304d ce3e
00000110: 0fd9 67be e22a 2a3e b2f6 ccbd e1b1 bd3e
00000120: bda4 89bc ef5d cabe dd63 ddbe 8088 bc3e
00000130: 9bd6 a7bc 4c38 2a3e d900 15bd e529 203e
00000140: 4abf 173e 27e4 9f3e a386 c8be 886e 94be
00000150: 03a1 61be 50c1 c53e 0e87 9f3e f2d2 9cbe
00000160: a9f6 7cbe 7c9b 8a3d 81d6 083d 3e69 1abe
00000170: e14f 93bd 3969 b3bd b5f1 ef3d 68d8 e2bd
00000180: a5d7 d83e a7d5 dcbe 041a 5cbe 8fc8 66be
00000190: 5c4d d5be 0b57 7a3e 7650 9b3c fde5 8c3e
000001a0: 371b bc3e e763 bdbe 7e3c a03e 8901 66be
000001b0: 1378 3fbe ad81 c1be 5734 27be faea b93e
000001c0: f89d bc3e 72ff 3d3d 536f 08bd f326 a63e
000001d0: 959c a43e a002 8ebe 10a8 6a3e 2af6 c0be
000001e0: c4f3 36bd bad8 3b3e 9bab ecba 3bf6 c23c
000001f0: 2019 973e b258 d6be 2cde 123e 6fa9 2bbe
