CQ/result/P7_Resullt/DAYS/2dim/2/best_model.pth (torch_old, 603202 bytes, 11 tensors)

node_embeddings f4 [228, 2]
000000 1d ae dd 3e 80 01 81 3c 3a d9 07 3f b2 dc 64 3d
       0.432969 0.015747786 0.53065836 0.055874534
000010 f0 9c 90 3e 5b 00 5d 3e 49 00 81 3e 6f b3 24 3e
       0.28244734 0.21582167 0.2519553 0.16084073
000020 c2 57 85 3e 05 8c 5b 3e 5e 3c ae 3e b0 98 4d 3e
       0.26043516 0.21440132 0.34030432 0.20077777
000030 19 69 bd 3e c5 69 3c 3e 8c 55 f0 3e 88 22 d4 3c
       0.36994246 0.18399723 0.46940267 0.025895372
000040 70 a6 08 bf 34 36 22 bc de ba a4 3e d1 b6 a5 3b
       -0.53378963 -0.009900618 0.32173818 0.005057194
000050 a2 10 b1 3e 44 19 df bc 79 d5 e5 3e d1 40 a9 3e
       0.34583002 -0.027233727 0.4488943 0.33057263
000060 8c 62 20 bf 67 a0 64 bd ac ab 2d 3e fc 39 be 3e
       -0.6265037 -0.055817034 0.16960019 0.37153614
000070 c9 75 99 3e 3c 1c 5f 3d 28 29 21 bf 9f 6e ec 3c
       0.29972675 0.054470286 -0.62953424 0.028861342
000080 e2 de 6b 3e 3f f3 85 3e 5d 85 36 3e 6c 79 b5 3e
       0.23034242 0.26162145 0.17824312 0.354442
000090 40 af f5 3e 5f 52 09 3e 21 b8 2b 3e 3b d0 d6 3e
       0.47985268 0.13410328 0.16769458 0.41955742
0000a0 ee 17 f5 be 87 d4 65 3e 18 db 9e 3e f9 12 80 3e
       -0.4786982 0.22444354 0.3102653 0.25014475
0000b0 a6 20 83 3e dc 3b ab 3e 79 76 70 3e 3a b2 85 3e
       0.25610846 0.33444107 0.23482694 0.2611254
0000c0 4f 60 d0 3e 38 eb 07 3e 35 3d 82 3e ce 36 81 3e
       0.40698478 0.13273323 0.25437322 0.25237125
0000d0 a6 15 8c 3d 35 68 f3 3e 78 7a 72 3e 2b 4a 86 3e
       0.068400666 0.4754044 0.2367953 0.2622846
0000e0 53 23 9a 3e 9c 4d 84 3e 3b 01 a8 be a8 97 66 3d
       0.30105075 0.2584046 -0.3281344 0.056296974
0000f0 d7 be d9 3e 7e b0 5d 3e b5 20 6c 3e bd 07 ac 3e
       0.42528412 0.21649358 0.23059352 0.33599654
000100 77 cc 77 3e a5 73 7d 3e d7 7d 26 3e 37 e0 d0 3e
       0.24199091 0.24751146 0.16258942 0.40796062
000110 de dd b9 3e 13 52 49 3e 27 73 71 3e 15 49 85 3e
       0.36302084 0.19660215 0.23579083 0.2603232
000120 bc 61 92 3e a5 99 38 3e 59 8d e8 be 4e 9e 0a 3f
       0.2859019 0.1802736 -0.4542034 0.54147804
000130 ce d2 9a 3e 87 17 99 3e 93 f5 fb 3e 02 f7 36 3e
       0.30238956 0.29900762 0.49210796 0.17867664
000140 c6 8e 7e 3e 02 5b a1 3e 66 76 ab 3e 5b 80 8f 3e
       0.24859151 0.31514746 0.33488768 0.28027615
000150 c2 44 30 3d 27 e2 b0 3e c3 8a 6f 3e 5c 56 88 3e
       0.043034323 0.3454754 0.23392777 0.26628387
000160 2d c6 2f 3e c9 e7 91 3e 0a e9 8b 3e 7c 61 a4 3e
       0.17165442 0.2849715 0.27326232 0.32105625
000170 92 90 33 3e 35 cf b5 3e 65 88 8e 3e 18 e2 af 3e
       0.17535618 0.3550965 0.27838436 0.34352183
000180 2c 89 1b 3e 77 fb cd 3e 20 ff 92 3e 3a 20 97 3e
       0.15189046 0.40230915 0.2871027 0.29516774
000190 9b 59 64 3e bd 22 8c 3e 3e 27 9b 3e 29 d9 39 3e
       0.22299807 0.27370253 0.30303377 0.18149246
0001a0 6a c7 f0 3e 4f 2a 68 bc 2c 4f 8e 3e ce df 60 3e
       0.4702714 -0.014170243 0.27794778 0.21960375
0001b0 59 8d 84 3e 7b 6f 5e 3e 20 01 e4 3e e0 1d ec 3c
       0.2588909 0.21722214 0.44532108 0.02882284
0001c0 bf 1b 63 3e 55 0a 92 3e a7 69 28 3e eb 9a d5 3e
       0.22178553 0.28523508 0.16446553 0.41719756
0001d0 d4 64 b9 3e 5a 9d 73 3e ad 70 e7 3e e5 c6 15 3d
       0.36209738 0.23790494 0.45203152 0.036566634
0001e0 0c 1d f5 3e 5a dd 43 3d c0 2e 9b 3e 5c 39 3f 3e
       0.47873724 0.04781852 0.30309105 0.18674225
0001f0 95 3d 64 3e 96 72 85 3e 90 ac 9a 3e 88 0b 88 bc
       0.22289117 0.26063985 0.3020978 -0.016607061
000200 75 aa e6 3e f5 56 9c 3c 5e ce 9f 3e 1b e7 ea 3d
       0.45051923 0.019084433 0.31212133 0.11469861
000210 62 64 59 3e 94 d1 89 3e 1c e5 a9 3e 30 c3 8f 3e
       0.21229699 0.26917708 0.3318261 0.28078604
000220 df 81 7f 3e c4 31 7f 3e 5f ec dc 3e 65 3d ad 3d
       0.24951886 0.24921328 0.43149087 0.08458976
000230 8c 4e 7b 3e 33 0e 82 3e 7c 56 f6 3e 90 f3 73 3d
       0.24541682 0.25401458 0.48112857 0.05955845
000240 51 b7 a1 3e be 18 ec 3d 8a 7d b5 3e 66 b4 92 bb
       0.31585172 0.11528157 0.3544734 -0.0044770716
000250 e0 dd 8c 3e 0d 77 60 3e 89 05 cb 3e 78 2c 2c 3e
       0.27513027 0.21920414 0.3965266 0.16813838
000260 5d a7 26 3e 83 ff 94 3e 1e 12 b7 3e c6 0c 8f 3e
       0.16274782 0.2910119 0.3575601 0.27939433
000270 52 2f 88 3e 02 cd 71 3e b2 5d 7f 3e 14 de 82 3e
       0.26598603 0.2361336 0.24938086 0.25560057
000280 0b 66 92 3e 8c dd 9e 3e 69 43 af 3e 95 1d 81 3e
       0.28593478 0.31028402 0.34231117 0.25217882
000290 63 f5 e8 3e 55 f2 12 3e 94 22 cf 3e 20 f9 9f 3d
       0.45499715 0.14350255 0.4045607 0.07811189
0002a0 e5 90 eb 3e d5 80 aa 3d ea f8 f1 3e 69 fe a5 3e
       0.46008983 0.08325354 0.4726022 0.32420662
0002b0 1f ee eb 3d 96 bd b8 3e 78 51 09 3f 52 7b 02 3e
       0.11520027 0.36082143 0.53639936 0.12742355
0002c0 0b 39 90 3e 11 75 61 3e 1a 83 b5 be 63 6d 22 3e
       0.2816852 0.22017314 -0.35451585 0.1586204
0002d0 e8 de 29 bf 8f f2 4a 3d b2 65 77 3e 74 99 65 3d
       -0.6635575 0.04954773 0.24159887 0.056054547
0002e0 aa bd bf 3e a3 d9 b1 3b 92 a7 c5 be 08 e9 0f 3e
       0.3744939 0.0054275556 -0.38604409 0.14053738
0002f0 dd ab 0b 3f f3 e6 4f 3d ff 43 c2 3e 00 66 8c 3e
       0.5455912 0.05075736 0.37942502 0.2742157
000300 6f 6d da 3e a3 fe 98 3e 54 f7 86 3e 99 69 73 3e
       0.42661616 0.29881772 0.2636057 0.23770751
000310 75 a6 80 3e 61 0a 82 3e 14 a4 90 3e 92 2f 59 3e
       0.25126997 0.25398543 0.28250182 0.21209553
000320 41 39 9e 3e 96 61 7f 3e 0a 65 86 3e 9f eb 76 3e
       0.30903056 0.2493957 0.26248962 0.2411332
000330 0a a9 b5 3e 1a 5d 9e 3e f1 f8 8c 3e 99 a7 6c 3e
       0.3548053 0.30930406 0.27533677 0.23110808
000340 a6 e0 d0 3e 55 79 a5 3e 97 64 0e 3e ca f6 a2 3e
       0.40796393 0.32319131 0.1390556 0.3182891
000350 89 21 e3 3e 1f 09 13 3e d0 b2 4a 3e 08 3b 70 3e
       0.44361523 0.14358948 0.19794774 0.23460019
000360 46 b5 04 3d 01 64 07 3f 0b 76 94 3e f8 1b 66 3e
       0.03239944 0.5288697 0.2899631 0.22471607
000370 d6 b7 a1 3e a8 29 74 3e 45 b1 a8 be 76 c3 25 3e
       0.31585568 0.23844016 -0.32947746 0.16187844
000380 23 df c2 3e 1e 2f a5 3e 10 44 fd 3e 9e 02 34 3c
       0.38060865 0.3226251 0.4946599 0.010986952
000390 05 58 fb 3e bc 09 9d 3c cb d0 96 3e e7 ff 8e 3e
       0.4909059 0.01916968 0.2945617 0.27929613
0003a0 9b 04 ed 3e 73 82 44 bb 0c 9a f5 3e e8 88 6d 3d
       0.46292576 -0.002998498 0.4796909 0.057991892
0003b0 60 51 fd 3e 7f 85 8c 3c ad cd c5 be db f8 ba 3d
       0.49476147 0.0171535 -0.3863348 0.09129497
0003c0 0a 21 b9 3e 20 20 83 3e 37 83 cc 3e 3a 26 69 3e
       0.3615802 0.25610447 0.3994386 0.22768489
0003d0 65 f0 ee 3e 16 a6 9b 3e 68 b8 79 3e 84 07 a9 3e
       0.4666778 0.3040015 0.24386752 0.33013546
0003e0 55 ab bb 3e 26 c9 e2 3d 19 ce 09 bf 46 cf a6 3d
       0.36654153 0.11073522 -0.53830105 0.08145003
0003f0 49 9d 05 3f dd cc 8b 3e 46 aa dc 3e ec 9b fa 3d
       0.52193123 0.27304736 0.43098658 0.12236771

encoder.dcrnn_cells.0.gate.weights_pool f4 [2, 2, 65, 128]
000000 e1 1d 18 3c 33 af 6b bf f4 b0 42 3e de be 98 3d
       0.009284467 -0.9206421 0.19012815 0.0745828
000010 e1 40 27 bc 5f 06 8a 3b e2 9d 59 be d9 b8 d3 3d
       -0.010208339 0.0042121853 -0.21251634 0.10337991
000020 9f 03 bf bf 8d dc b1 3f d8 3c 90 3d 08 aa 13 3e
       -1.492298 1.3895432 0.07042855 0.1442033
000030 44 cf 9f 3d 63 e0 1f 3e b0 31 9e be 3e 00 8d 3e
       0.07803205 0.1561294 -0.30897284 0.27539247
000040 c3 9f e5 bb a3 57 70 bc 8e 96 a3 bf 02 1b 49 bf
       -0.0070075705 -0.014669332 -1.2780321 -0.78556836
000050 7f 16 d2 3d a7 ea 95 bf 58 13 43 3e d6 1d b1 3f
       0.10258197 -1.1712235 0.19050348 1.383723
000060 a7 95 eb 3e ee fe 76 3e 51 67 c0 be 98 ca 3c bf
       0.46012613 0.24120685 -0.37578824 -0.73746634
000070 eb 88 15 3d 94 c1 53 3d 66 1a f9 3e 55 43 0e be
       0.03650753 0.051698282 0.48652953 -0.13892873
000080 b6 e0 b0 bf 20 ed 3d be 89 5d 8a bf ea 31 1e 3d
       -1.3818576 -0.18547487 -1.0809795 0.03862182
000090 d8 0c 24 3e 5d bd 0a 3e aa 95 76 3c bc 52 e8 3e
       0.16020525 0.13548799 0.015050331 0.4537562
0000a0 9c dc a6 3f 31 ce 95 be 0d 31 3b 3e 1e 35 c3 3c
       1.3036075 -0.29258874 0.1828043 0.02382904
0000b0 ed 3c 94 3f 84 23 df 3d bb c1 be 3f 03 a9 e0 bc
       1.1581093 0.10895446 1.4902872 -0.027424341
0000c0 d7 0c b5 3f 55 da a6 bf d8 1a 0c 3e 10 6c 53 3e
       1.4144543 -1.303538 0.13682115 0.20646691
0000d0 92 9b 73 bf 90 8d ce 3e 2c 03 c4 3d 70 69 ec 3d
       -0.95159256 0.4034238 0.095709175 0.11543548
0000e0 88 e9 98 3c aa fe 16 3e db 2a be bf 59 35 8f be
       0.018666044 0.14745584 -1.4856828 -0.2797039
0000f0 91 32 61 3c a3 f2 da 3d 2b 74 8b bf 6e 39 4d bc
       0.013744966 0.106908105 -1.0894827 -0.012525899
000100 ae 87 0c bf 1c a5 c8 be c0 42 a9 be 4c a1 05 bf
       -0.5489453 -0.39188468 -0.3305874 -0.52199244
000110 cb 04 fc be b0 df c3 be e4 bb b5 3e ea 59 a1 be
       -0.49222407 -0.38256598 0.35494912 -0.3151391
000120 0e df 30 bf 51 30 bb bf f3 2e 1e bf 3c 1f a4 be
       -0.69090354 -1.462412 -0.6179039 -0.3205508
000130 39 4b 80 be cb 03 a8 be 58 b1 96 3e 00 d7 fd be
       -0.2505739 -0.32815394 0.29432178 -0.49578094
000140 2e b0 cd be 44 3b 25 bf 26 ee 14 bf 19 4a 16 bf
       -0.40173477 -0.6454356 -0.58175886 -0.58706814
000150 66 45 a8 be c3 4d 4c bf 4d a5 6e be d9 b2 e4 bf
       -0.32865447 -0.79806155 -0.23305245 -1.786708
000160 14 00 aa bd 02 39 1a be 9c 41 0f 3e 81 bc 1f bf
       -0.08300796 -0.15060809 0.13989872 -0.6239701
000170 48 63 bf be a1 e7 c1 be 2e e8 8a bd a1 72 15 3e
       -0.37380433 -0.3787203 -0.06782566 0.14594509
000180 e5 2e 17 bf a0 4a b5 3d ad 8c e8 be 1e 92 89 be
       -0.5905593 0.08852124 -0.45419827 -0.2686929
000190 ed be a0 be e4 47 ac be 3c 82 83 be 57 87 89 be
       -0.31395665 -0.33648598 -0.25685298 -0.2686107
0001a0 30 ea d6 bf f6 25 a1 3e 8e c3 54 be e1 f1 cd be
       -1.6790218 0.31474274 -0.20777723 -0.402236
0001b0 63 3e ac bf eb 5a 82 be 53 61 ce bf fb d4 5c bf
       -1.3456539 -0.2545999 -1.6123451 -0.8626248
0001c0 ce 5f b6 bf 75 2f 02 bf 71 32 4a be 6a ca 0d be
       -1.4247987 -0.50853664 -0.19745804 -0.13846746
0001d0 73 b0 d0 be 67 5b 02 bf f8 3b bc be fd 67 b6 be
       -0.4075962 -0.5092072 -0.36764503 -0.35626212
0001e0 77 72 cc be 35 a0 71 be 70 7e 4e bf bf 21 d6 be
       -0.3993108 -0.2359627 -0.8066168 -0.4182262
0001f0 34 37 0f bf 62 a4 3e be e1 35 14 bf 59 e9 01 bf
       -0.5594361 -0.18617395 -0.5789471 -0.50746685
000200 1e 48 6d bd df 7a 5d 3d 95 40 0e be 23 52 02 be
       -0.057930104 0.054072257 -0.13891824 -0.12726645
000210 36 5b 99 bd e4 3e 80 bd 9b 96 11 bd 5a aa c2 bd
       -0.074881 -0.062619954 -0.03554402 -0.09505148
000220 bb 4e 06 3b 38 9c 2c 3d 0f b3 01 be a8 d8 ba bd
       0.0020493704 0.04214117 -0.12665962 -0.09123355
000230 b7 fb b2 bd 06 88 f9 bd 0d 16 7e 3c 69 ed 60 be
       -0.08739417 -0.121841475 0.015508187 -0.21965565
000240 8f 2f a0 bd e8 d1 a9 bd a9 0e 91 3c ce bf 8a 3d
       -0.07821571 -0.082919896 0.017707186 0.06774865
000250 45 dc 8a bd 5c b2 57 3d e6 49 97 bd 13 47 17 be
       -0.06780294 0.05266033 -0.07387142 -0.14773206
000260 21 67 47 be 6a 68 c2 bd 6f 83 3e bd 47 d7 35 3e
       -0.19472934 -0.09492572 -0.046512064 0.17757903
000270 32 ad c2 bd c4 ea dc bd 06 22 37 be 4b 37 13 be
       -0.09505691 -0.107869655 -0.17884073 -0.14376561
000280 97 55 8b 3c 78 2f 3b be f2 43 88 3b e7 71 a8 bd
       0.017008586 -0.18279827 0.0041584903 -0.0822485
000290 49 9a 00 be e6 de dc bd f5 30 8c bd 3e 61 39 be
       -0.12558855 -0.10784702 -0.06845275 -0.18103501
0002a0 88 3c 06 be a1 65 08 3c fd 33 c6 bd d1 20 a4 bd
       -0.13109028 0.0083250115 -0.09677885 -0.08014072
0002b0 51 51 03 bd 87 fe cf bd 71 80 c1 bd d7 fd cf bd
       -0.03205997 -0.10155969 -0.094483264 -0.10155838
0002c0 7f c6 d7 bd 21 8a 3b 3c 9b 73 ae bd 9f cc a8 bd
       -0.10535907 0.011446507 -0.08518144 -0.082421534
0002d0 01 ea c9 3d 6b 94 56 be 41 9f ba bd 16 da d4 bd
       0.09859086 -0.20955054 -0.091124065 -0.10393159
0002e0 5f 47 a0 bd 29 f7 be bd 96 dc a0 bc 41 eb 03 3e
       -0.07826113 -0.09324486 -0.019636434 0.12882711
0002f0 f5 99 d4 bd 3c d8 bf bd c9 3d 9f 3d d6 bd b5 bd
       -0.103809275 -0.09367415 0.077754565 -0.08874099
000300 2c 13 1f 3d c2 28 e7 3e e8 54 17 be 20 df 57 be
       0.038836643 0.45148283 -0.14778483 -0.21081209
000310 f0 77 71 bb bf 92 21 bd 9a 41 af 3e 1a 3c 6a bd
       -0.003684517 -0.03944659 0.34229738 -0.057186224
000320 d5 f3 13 3f 6b f2 69 3d fe fd 14 be 4a ea 99 bd
       0.57793933 0.057115953 -0.14550015 -0.0751539
000330 da f2 41 bd d1 ef e1 bd b9 89 ce 3e 54 8c 44 be
       -0.047350742 -0.110320695 0.4033945 -0.19194156
000340 66 6e 24 bd 69 1b 5d bd 3a 2a 11 3f d6 d5 d1 3e
       -0.040144347 -0.05398122 0.5670506 0.40983456
000350 16 a7 77 bc ec 19 70 3e b4 a8 9b 3c 43 2f 90 3e
       -0.01511552 0.23447388 0.019001342 0.28161058
000360 ee 8c d9 bd 32 15 b5 bc 74 b0 39 3e 36 47 b9 3d
       -0.10622583 -0.022104833 0.18133718 0.090467855
000370 6d be ee bc 18 39 ce bd 2a 60 d0 bd 5d 5d b1 3e
       -0.029143536 -0.100694835 -0.10174592 0.34641543
000380 7d 86 10 3f f5 09 66 3e b7 37 0c 3f 70 4c 7e bc
       0.5645521 0.22464736 0.54772514 -0.015521154
000390 fc 37 e9 bd 69 2d dc bd 9e fa 48 bb 74 de 85 bd
       -0.11387631 -0.10750849 -0.0030666958 -0.0653657
0003a0 1e a8 2c be 6e 77 be 3e 85 6d 6f 3c b4 4e c8 bc
       -0.16861007 0.37200493 0.014613514 -0.024451591
0003b0 87 3a df bd 34 34 16 bd 86 c1 13 3e 46 d9 0b 3d
       -0.10899835 -0.03667088 0.14429292 0.034142755
0003c0 b6 05 b4 3d 83 77 15 3f 71 79 51 ba f2 f3 3a 3d
       0.08790152 0.58385485 -0.00079908135 0.0456428
0003d0 59 f8 d2 3e 4b 6a 0b be 02 25 35 bd 64 50 a2 bd
       0.412051 -0.13614766 -0.044224747 -0.079254895
0003e0 8a 7a a7 bd b4 47 10 3b 05 3b ca 3e ec ba 70 3e
       -0.08177669 0.0022015395 0.39498153 0.23508805
0003f0 22 17 1c be 95 43 95 3c 99 9d 9f 3e 87 54 6f bd
       -0.152432 0.018220702 0.31174925 -0.05843022

encoder.dcrnn_cells.0.gate.bias_pool f4 [2, 128]
000000 eb d3 8f 3c 17 31 c9 be af 91 5a ba a2 b8 b4 bd
       0.017557105 -0.39295265 -0.00083377486 -0.088242784
000010 cb b9 1a 3e ed 3c 3c 3e 64 be 9d bd 88 0f 7b bd
       0.15109937 0.18382616 -0.0770233 -0.06129411
000020 41 09 6f bd 09 52 c4 3b 16 83 5e 3d 32 8e 6a be
       -0.058358435 0.0059912247 0.054324232 -0.22905806
000030 9e 27 32 bd 67 32 35 3d 36 fd 93 3e e0 79 26 3e
       -0.043494813 0.04423752 0.28904122 0.16257429
000040 1a 43 0d bd 96 ae 13 3e 85 73 73 be 87 90 f6 bd
       -0.03448782 0.14422068 -0.23774536 -0.12039285
000050 d3 d6 4d 3d 03 ab ab bd d3 90 16 3e 72 ba a0 3d
       0.0502537 -0.08382227 0.14703684 0.078480616
000060 7f d4 64 bc bd 43 9b 3d 3a 1b c3 bd 6b 85 a6 be
       -0.013966679 0.075812794 -0.095266774 -0.32523665
000070 f0 d2 6e 3d 4a f7 2b 3d 43 ab 89 bc c8 85 41 3e
       0.058306634 0.04198388 -0.016805297 0.1889869
000080 f4 f2 51 3d f0 4d 13 3d f3 cd a4 3b 98 a4 6e be
       0.05125709 0.035963 0.005029434 -0.23304975
000090 5f ea 51 bc bf 76 bd bd 6f 6d 9d 3d 13 ca ba 3d
       -0.012812226 -0.09251165 0.076868884 0.09120574
0000a0 d0 bd c9 3d ca b4 f8 3d 81 6e a4 bd 37 98 b8 bc
       0.09850657 0.12143858 -0.080288894 -0.02253352
0000b0 6b 9c b8 bd 88 09 22 be 6c c9 48 3e 8a 4e e9 bd
       -0.09014209 -0.15823948 0.19608086 -0.11391933
0000c0 8d 88 1c be 3b 51 e7 bd 70 21 28 3e f3 e5 05 bd
       -0.15286465 -0.1129479 0.16419005 -0.03269
0000d0 b6 e0 88 bc 13 4f 6c be 0c 76 2c be 85 3d ab 3c
       -0.016708713 -0.2307704 -0.16841906 0.020903358
0000e0 45 b8 a7 bd 2b d7 0a 3e 44 b9 96 bc 14 86 25 be
       -0.081894435 0.13558643 -0.018398888 -0.16164428
0000f0 62 21 5b bb 75 ab 78 3c 96 30 0a be 6a 4f ad bd
       -0.0033436646 0.015177597 -0.13495097 -0.08462413
000100 8a dd 05 3e d8 a9 53 be ec cd e0 3e 98 83 12 3d
       0.13072792 -0.20670259 0.43907106 0.03577003
000110 25 89 0b 3e fd 06 0a 3e 5e 89 d8 be 90 13 ee 3e
       0.13626535 0.13479228 -0.42292303 0.464993
000120 0e 3a 01 bf 1e 53 35 bd 10 35 c0 3e 98 00 d7 3e
       -0.5047921 -0.04426872 0.37540483 0.4199264
000130 43 1b c9 3e ef ba a3 3e 4e 45 ad be a9 60 b4 3d
       0.39278612 0.31978557 -0.33841938 0.08807499
000140 c7 6a 28 3e 68 c2 69 3d 93 92 93 be fa 7f 1a bf
       0.16446982 0.057070166 -0.28822765 -0.60351527
000150 72 3a c4 3e 06 47 06 bf 2f ce a3 3e d8 29 9f bd
       0.3832584 -0.52452123 0.31993243 -0.07771653
000160 60 db b0 3e e2 42 a2 3e 97 4a 5d bf 9b a8 12 bf
       0.3454237 0.31691653 -0.8644194 -0.5728852
000170 b7 98 2f 3e 01 a1 11 3e 9d 94 03 3e a4 3e b3 be
       0.171481 0.14221574 0.1284966 -0.35008729
000180 c4 04 94 be dd d6 27 bf f5 08 08 bf 2f 12 e6 3d
       -0.28909886 -0.6556223 -0.5313867 0.11233937
000190 fe f6 b7 3e 96 91 a2 3e 86 33 10 3e ec 3e 6a 3e
       0.35930628 0.31751698 0.14082155 0.22875565
0001a0 c1 1c c3 3e 78 c4 33 be 2d 11 b6 3e 4b 26 49 3e
       0.38107875 -0.17555416 0.3555998 0.19643514
0001b0 b4 30 df 3e 75 a9 e0 3e 39 b7 6a bb 22 81 9a 3c
       0.43591845 0.43879285 -0.0035814776 0.018860403
0001c0 c8 a7 1c 3e 55 64 b9 be 0a 7a 59 3e 5b c5 aa 3e
       0.15298378 -0.3620936 0.2123796 0.33353695
0001d0 00 31 0e bf 54 19 41 3e 4f 94 74 3d bd 66 bb 3e
       -0.5554352 0.18857318 0.05971175 0.3660182
0001e0 eb d7 95 3e 04 07 5a 3e 8e 3a e0 be 44 78 17 bf
       0.29266295 0.21291739 -0.43794674 -0.59167886
0001f0 3d 74 b1 3d 8b 76 5b 3e 48 ce f0 be 76 21 61 3e
       0.08664749 0.2143194 -0.4703238 0.2198542
000200 5a d0 02 be 23 4b 29 3e ce 63 03 3d 49 9b b8 3d
       -0.12774792 0.16532569 0.032077603 0.09013993
000210 d3 1e 39 bd 0e b7 05 be 01 b4 41 3e 52 42 ce bc
       -0.045195412 -0.13058111 0.18916322 -0.025178108
000220 3b 5e e2 3d 18 96 80 be 8f 78 90 bd 38 f4 b3 3c
       0.11053129 -0.25114512 -0.07054245 0.021967039
000230 fd dd 64 bc 10 4f 1e 3e e4 02 b5 bd 45 00 9c 3d
       -0.013968942 0.15459847 -0.08838442 0.07617239
000240 48 ea 36 be 97 b5 98 3d 23 18 a2 3d b5 ba 9b 3e
       -0.17862809 0.074565105 0.0791476 0.30415884
000250 15 ab be bd 5e e0 20 3e 5d 06 e8 3c f8 20 48 3e
       -0.09309975 0.1571059 0.028323347 0.19543827
000260 f5 20 4d 3c 49 a8 c0 bd 65 2a 7b 3c 64 b6 2a 3e
       0.012520065 -0.09407098 0.015329932 0.16671139
000270 c3 b0 a1 bd b6 8d c7 bd a7 10 bc 3d 7a 3c 3f bc
       -0.07895043 -0.09743826 0.09182864 -0.011672134
000280 9a c0 30 3e 4d 0d e9 bc 4a b1 b3 3e 0e 98 07 3e
       0.17260972 -0.028448725 0.35096198 0.13241598
000290 36 18 ad 3d 22 7f f9 3c 2f 73 58 3e 92 e4 01 be
       0.084518835 0.03045613 0.21137689 -0.12684849
0002a0 83 b8 3d bc 8e bc 3b 3d 8e f0 75 3d 11 50 76 bc
       -0.011579636 0.045834117 0.060043864 -0.015033738
0002b0 91 6b 57 bc ab 4b 13 bd 5b 1f 0f bc 91 26 70 3e
       -0.013148204 -0.035960834 -0.008735503 0.23452212
0002c0 bf 26 61 3e c3 fd 20 3e 5c ee bd bd 14 bf 04 be
       0.21987437 0.15721802 -0.09273979 -0.12963516
0002d0 0a 72 84 3d d5 d1 3e 3d 4e 95 30 be 63 40 fc bd
       0.06467064 0.04658683 -0.17244455 -0.12316968
0002e0 a4 ce 39 3d fb c0 34 3e 6a ea e1 3d 91 ba 76 3e
       0.045363083 0.17651741 0.11031039 0.24094607
0002f0 c4 81 eb bc 31 ec b7 3d 93 e1 9c bd a5 0a 87 3d
       -0.0287484 0.08980597 -0.07660212 0.06593827
000300 e4 a4 85 3d 19 2c be bc 43 ff d8 3e 59 3c 9a 3e
       0.06525591 -0.023214387 0.4238225 0.30124167
000310 76 0e 84 3e 2c c2 e7 3d 9d d4 f2 3d 2f bf 20 3e
       0.25792283 0.11316332 0.11856959 0.15697931
000320 c6 8f 69 bd 01 93 cb bd 63 7a 8f 3d ab e2 d8 3e
       -0.05702188 -0.09940148 0.07005765 0.42360434
000330 f4 55 c9 3e ea 00 c8 3e cd e3 2f bd f1 84 44 3e
       0.3932339 0.39063197 -0.042941857 0.19191338
000340 25 99 bb 3d f0 9e ac 3e 6f ce f6 bd 8d 16 99 be
       0.091600694 0.3371501 -0.12051093 -0.29900017
000350 85 f2 f2 3d d2 2e 02 bf e9 ec bc 3d 6c 40 88 be
       0.11862663 -0.5085269 0.092248745 -0.2661165
000360 7c 94 ef 3e 42 16 84 3e 0d 14 7a be f3 cb 14 be
       0.46792972 0.2579823 -0.24421711 -0.14530925
000370 12 2f 09 3e 4c 40 b3 3e a2 47 d2 3e d4 1b b7 be
       0.13396862 0.35009992 0.41070276 -0.3576342
000380 20 6d 1e be 32 d0 f8 be 46 50 6a be ed 96 bd 3e
       -0.15471315 -0.4859634 -0.22882184 0.3702921
000390 23 93 07 3e 17 09 fc 3e 83 d8 2d 3e c2 04 a4 3e
       0.13239722 0.49225685 0.16977124 0.3203488
0003a0 a2 a4 31 3f f9 06 91 bd 65 63 28 3d ab 51 ea 3d
       0.69391835 -0.07081408 0.041110415 0.11441358
0003b0 6b 1c 33 3e 0d 2c da 3e c1 92 57 3e ba a7 a7 3e
       0.1749131 0.42611733 0.21052076 0.32745153
0003c0 a3 1b a0 bd 16 d9 e9 be 24 59 27 3e 8a 7d 31 3e
       -0.07817771 -0.45673436 0.16342598 0.17333046
0003d0 81 e6 35 be 5c 96 b2 3e dc d5 c5 3e e1 f5 a3 3d
       -0.17763712 0.3488034 0.38639724 0.08005882
0003e0 eb 1e 0c 3e d2 4a c2 3e 4f c4 c4 be 0f 63 2a bd
       0.1368367 0.37947708 -0.38431022 -0.041598376
0003f0 70 6b dd 3e 5c 1d 59 3d 42 79 c9 be 2c 70 7d 3d
       0.4324603 0.053006515 -0.39350325 0.061874554

encoder.dcrnn_cells.0.update.weights_pool f4 [2, 2, 65, 64]
000000 92 d8 3b bf fd b4 dc bf 56 4f 61 3e f2 a5 8f be
       -0.73377335 -1.7242733 0.2200292 -0.28056294
000010 06 d6 1f 3f fe c0 f6 be f4 fd b5 bf ef 81 c8 3e
       0.6243595 -0.48194116 -1.4218125 0.3916163
000020 64 0f e5 bf 55 36 2c 3f fc 98 87 3e 30 1b c7 be
       -1.7895322 0.67270404 0.26483905 -0.3888793
000030 3b 94 d1 be 4e 7b 8d be f9 d0 a2 3f c9 2b a0 bd
       -0.40933403 -0.27633137 1.2720023 -0.07820851
000040 af a3 13 bf a9 f9 d2 3e 98 4f da bf b0 f1 d1 3f
       -0.57671636 0.412061 -1.705554 1.6401882
000050 31 a6 2e 3f 95 c6 a5 bf 08 23 2f bf cb 18 5e 3f
       0.6822234 -1.2951227 -0.6841283 0.8675658
000060 37 8e 23 be dc aa 2f 3f f9 18 d2 bf 81 52 ab bf
       -0.1597222 0.68620086 -1.6413871 -1.3384553
000070 4c 79 d1 3e f1 65 b1 3e ac 8b 3d 3e 17 5f c3 bf
       0.40912855 0.34648088 0.18510312 -1.5263394
000080 a6 16 e4 bf e9 3a d0 3f 49 6f c0 bf 68 91 14 3f
       -1.7819412 1.6267978 -1.5033962 0.5803437
000090 59 91 80 3e 9b 30 91 3e bd 06 1a 3f d7 68 63 be
       0.2511089 0.28357396 0.6016653 -0.22207962
0000a0 a1 0a 51 3f 6c b2 a5 3f 0e 4d 19 bf c6 a2 ee be
       0.81656843 1.2945075 -0.598832 -0.4660856
0000b0 89 89 5d 3f cc 62 f4 be 93 85 38 bf 99 ce f7 be
       0.86537987 -0.47731626 -0.7207882 -0.4839981
0000c0 60 ed 39 3f 97 76 da bf 4c 4e 3a 3f 1a 15 3d bf
       0.7262783 -1.7067441 0.7277572 -0.73860323
0000d0 77 be b4 bf 3b bf 00 be 8b c5 e1 3e 01 76 aa be
       -1.4120625 -0.12572949 0.44096026 -0.33293155
0000e0 b8 73 c6 3e f4 e1 11 bf 77 87 ee 3f 58 c6 c0 3f
       0.3876016 -0.569854 1.863509 1.506053
0000f0 74 e8 b0 3e 3f b7 26 3f 21 17 b5 3f 28 0f f6 be
       0.34552348 0.6512336 1.4147683 -0.48058438
000100 a6 0c bc 3c 60 56 13 be 32 2b 68 3c 3b 95 f8 bc
       0.02295525 -0.14388418 0.014170455 -0.030344596
000110 b0 00 89 3a 51 54 4f 3c 68 78 eb bd de a0 1f bc
       0.0010452475 0.01265438 -0.11497575 -0.009742944
000120 5d f0 b7 bc 1e 42 28 bd 3a 9a f9 ba 78 80 84 bc
       -0.022453481 -0.04107868 -0.0019043155 -0.01617454
000130 60 da 5f 3c fa 12 49 bc 06 37 b0 3d 06 72 79 3c
       0.0136629045 -0.012272591 0.08604245 0.015224939
000140 dd 8e 9a ba bd 1a d1 bb f0 58 0a be e8 33 f8 3d
       -0.0011791844 -0.0063813613 -0.1351049 0.12119275
000150 b8 60 11 39 1b da a9 bd 0f f5 36 3b 64 f7 cc bd
       0.00013864308 -0.082935534 0.0027917062 -0.100081235
000160 8f d3 a1 3c 9f aa e4 3b 42 9c d3 bd 41 83 8f bd
       0.0197542 0.0069783474 -0.10332538 -0.070074566
000170 f7 0a 23 3c 73 fe a2 3c c2 1d 4b bb d2 cb d4 bd
       0.009951345 0.019896721 -0.0030993079 -0.10390438
000180 57 33 12 be 4e ae 00 3e 6e 1e 15 be 0a 16 ea ba
       -0.14277397 0.12566492 -0.14562389 -0.0017859351
000190 07 1c c3 3b 2a 04 0b 3a 69 73 74 bc 6b b9 b3 3b
       0.005954269 0.00053030497 -0.014920094 0.00548475
0001a0 ef aa cc bd ac f5 a1 3d af 4c 0f bd ad 4e 62 bc
       -0.099935405 0.07908186 -0.03498524 -0.013812703
0001b0 46 28 bd bd 7f be 6e 3c 4d 24 f4 3d fc af 72 3c
       -0.09236197 0.014571785 0.11920986 0.014812466
0001c0 80 74 14 be 6b 3a 0f be 23 c6 c5 3b 60 25 7d bc
       -0.14497566 -0.13987128 0.0060355826 -0.015450805
0001d0 8e 9f ef bd 66 0c 26 3c a8 93 1b 3c b5 2d f3 3b
       -0.117003545 0.010134792 0.009495653 0.00742122
0001e0 99 d0 37 3c 22 a3 8b bc 87 f2 c6 3d d7 8e d2 3d
       0.011219167 -0.017045561 0.09714227 0.10281151
0001f0 bb c8 81 3c 35 97 0d 3c 61 9b a4 3d fa dc 44 3c
       0.015842786 0.008642008 0.08037449 0.012015576
000200 20 41 0b bd 35 92 8a be df 37 53 3e f3 c3 2c be
       -0.033997655 -0.27064672 0.20626782 -0.16871624
000210 43 1b 9b 3d 1e bf a0 bd 5f fc 32 be da ae 1f 3e
       0.07573559 -0.07848953 -0.17479084 0.15594044
000220 60 2d 88 3e 22 ec 47 bc c1 b9 14 3e 8a 71 dc bd
       0.26597118 -0.012202295 0.14523984 -0.10763843
000230 1c 05 22 be f8 44 20 be 4a 34 37 bd ee dc 97 be
       -0.15822262 -0.1565131 -0.0447276 -0.29660743
000240 d0 89 83 bd ad 20 dc 3d ba 54 79 3e 49 12 6b 3e
       -0.0642277 0.1074842 0.24348727 0.22956194
000250 e9 0e 74 3d c0 cb 1c bd 68 c1 72 bd 0e 0a bc 3d
       0.059584532 -0.03828025 -0.059266478 0.09181605
000260 8c 68 92 be dd 8a 42 3c c5 95 84 be 1e ce 21 bd
       -0.28595388 0.011873928 -0.25895515 -0.03950321
000270 a5 da 08 3e 65 ba f5 3d e4 77 99 3e 57 02 80 be
       0.13364656 0.119984426 0.29974282 -0.25001785
000280 e2 12 0f 3e a2 9c 96 3e ec 16 89 3e 10 d3 d6 3d
       0.13972047 0.29416376 0.267753 0.10489476
000290 9d 53 60 3e eb d1 33 3e 62 c9 e8 3d 88 18 75 be
       0.21906896 0.17560546 0.11366536 -0.23935139
0002a0 82 a2 1c be 4b 24 4e 3c 29 e6 a7 bd 4e 1b ce bd
       -0.15296367 0.012581895 -0.081981964 -0.10063802
0002b0 ef cf e3 bd a4 2a ae bd a7 af 98 bc 44 a9 87 bd
       -0.111236446 -0.08504227 -0.018638445 -0.06624082
0002c0 61 07 ce bc 40 8e 3b 3e 12 cf 29 3d c6 94 eb bc
       -0.025150003 0.18315983 0.041457243 -0.028757464
0002d0 e0 5a 90 3d 4a 8c 96 be 21 fc b7 3d a5 ad 1f be
       0.07048583 -0.29403907 0.08983637 -0.15593584
0002e0 74 3c fe 3d 76 a4 fe bd a4 2f 0b be 3d 9d 1b 3e
       0.12413874 -0.12433712 -0.13592392 0.151967
0002f0 08 bc fe 3d 59 e1 b0 3d a4 93 80 3d b9 63 c4 bd
       0.12438208 0.08636732 0.0627816 -0.09589333
000300 e1 8f 91 bd 69 e1 b6 3d 03 42 b3 3d 01 5d b9 bd
       -0.07107521 0.08929712 0.08752825 -0.09050942
000310 03 16 83 3d be ff 7e bd cb 56 8d 3d 8d 8b b5 3d
       0.06400683 -0.062255614 0.0690132 0.08864508
000320 ae b7 93 3d 6f 0a bf 3d 8f b0 6f 3d 1f 25 71 bd
       0.072127685 0.09328162 0.05851799 -0.058873292
000330 59 d4 bd bd ad 42 c5 bd 18 d1 14 bd ec c7 ed bd
       -0.09269018 -0.09631858 -0.03633222 -0.11610398
000340 08 3c 82 bd 3f a6 84 3d 74 2d c2 3d b1 b4 d2 bd
       -0.06359106 0.064770214 0.09481326 -0.102883704
000350 85 b5 9e 3d 9d 8f a0 3d 45 8d 87 bd c4 66 0c 3e
       0.07749466 0.07839892 -0.06618742 0.13711077
000360 46 cd d2 bd a2 75 4e 3d c5 d2 8f 3d 88 b4 a7 3d
       -0.10293059 0.050405152 0.07022623 0.081887305
000370 0c 96 bd 3d 4b 39 82 3d 47 d2 b8 3d 6d 10 b6 3d
       0.09257135 0.06358584 0.09024482 0.08889852
000380 8c d3 c5 3d 24 19 be bd 8f be 02 3e 54 1f a2 3d
       0.0965949 -0.09282139 0.12768005 0.079161316
000390 4d bc 90 3d 87 2f 5a 3d 10 6d 90 3d 66 6c 98 bd
       0.070671655 0.05326798 0.07052052 -0.0744255
0003a0 74 2e e9 3c 43 24 3a bd 4b 75 5e bd 5f ba 4e bd
       0.028464533 -0.045444738 -0.054311078 -0.050470706
0003b0 99 e2 38 3d fb d9 64 bd cb a7 63 bd c3 0a 90 bd
       0.045137975 -0.055871945 -0.05557994 -0.07033303
0003c0 44 10 52 3d e7 17 f0 3d 1e 81 55 3d 2e f0 2d bd
       0.051285043 0.11723309 0.05212509 -0.04246538
0003d0 c6 a8 e0 3d 49 fb da bd dc 98 84 3d 84 e0 aa bd
       0.10969691 -0.1069246 0.06474468 -0.08343604
0003e0 82 9c ac 3d 9b 72 3b bd 43 9d 9f bd 22 15 9c bd
       0.08428289 -0.045763593 -0.07793667 -0.07621218
0003f0 69 58 c9 3d 86 83 37 3d 71 a1 af bd 93 0b ac bd
       0.09831316 0.044803165 -0.085757144 -0.08400645

encoder.dcrnn_cells.0.update.bias_pool f4 [2, 64]
000000 a1 c0 1d be b9 a1 10 bd aa c5 9f 3e f1 ea 9c be
       -0.15405513 -0.03531048 0.31205493 -0.30647996
000010 8c 99 e2 3d 4d 7e 51 be 06 a7 bc 3d 92 7e 9b 3d
       0.11064443 -0.20458336 0.09211545 0.07592501
000020 8c 17 9b be 3e f0 48 3e 69 c6 a0 3e 73 37 97 bd
       -0.30291402 0.19622895 0.31401375 -0.07383623
000030 25 d4 c8 bd db fc 49 be 13 89 7f bd f0 4c 3c be
       -0.09806088 -0.19725363 -0.062386584 -0.18388724
000040 20 af e1 bd 4b fc 58 3e 6e 91 98 be 1e 54 1e 3e
       -0.110197306 0.21189992 -0.29798454 0.15461776
000050 72 16 b2 3d 65 f8 11 bd 77 a0 f8 3c cf 49 85 3e
       0.08695687 -0.035637278 0.030349953 0.26032874
000060 d4 94 92 be af 45 31 bd e6 d6 cf 3d f2 83 86 bd
       -0.28629172 -0.043279346 0.101484105 -0.06568135
000070 7c 34 24 3e 0b 43 0e 3e 58 34 9a 3e f2 9c 18 3e
       0.16035646 0.13892762 0.3011806 0.1490362
000080 cb fe 86 be cb 0a 0a be 1f 01 8d be 26 8b a4 3d
       -0.26366267 -0.1348068 -0.27539918 0.08034353
000090 04 00 5f 3e 55 27 82 3e 18 e6 b8 3d 37 94 23 be
       0.2177735 0.25420633 0.09028262 -0.15974508
0000a0 9a e9 93 3e d9 66 a3 bd 2f df 4c 3d 88 f2 17 be
       0.2888916 -0.07978601 0.050017532 -0.14838612
0000b0 2d 54 53 3e 91 6f bf bd d0 b0 97 be e4 53 a7 be
       0.2063758 -0.093474515 -0.29627085 -0.3268119
0000c0 87 d6 84 3e 04 53 7a be c0 af 43 38 1e 91 0a 3d
       0.2594492 -0.2444573 4.6655303e-05 0.0338298
0000d0 ee 9a 58 be fc 18 9a be 65 8d f7 3d 2e 36 0a be
       -0.21152851 -0.30097187 0.12087516 -0.1349723
0000e0 a2 49 1a 3e d2 8a 01 3d 09 91 21 3e 44 b0 15 be
       0.15067151 0.03162653 0.15777983 -0.14618021
0000f0 37 99 87 3e 21 60 15 3c 29 bb 83 3d 1c c4 82 be
       0.2648408 0.009117157 0.06432182 -0.25540245
000100 62 06 98 be a5 4c bc 3e c4 19 70 3d ce 13 86 be
       -0.2969237 0.36777225 0.058618322 -0.26186985
000110 c1 7e 7d 3e f2 43 13 be db ff af 3e dc 05 aa 3d
       0.24755384 -0.14381388 0.3437489 0.08301899
000120 6f 6e 77 3e 68 d3 87 be c9 3a 9c 3e a9 73 a2 be
       0.24163221 -0.26528478 0.305136 -0.31728867
000130 d4 da 9a bd d3 1f 39 be 87 43 a3 be fa 58 55 3e
       -0.075612694 -0.18078546 -0.31887457 0.20834723
000140 51 25 82 be cd 3e a3 3e 81 38 94 3e 06 9c a5 be
       -0.25419095 0.3188385 0.2894936 -0.323456
000150 fb 50 a2 3e f2 ed 29 3e df c5 4b be 30 37 b4 be
       0.31702408 0.16594675 -0.198997 -0.35198355
000160 20 c6 3a 3e 98 ef a2 3e 2f 51 d2 3e 5f 6a 58 3e
       0.18239641 0.3182342 0.41077563 0.21134327
000170 34 b5 d9 3d 5d 5a 52 3e c6 bb 29 be c1 41 6f 3e
       0.10630265 0.20542283 -0.16575536 0.23364927
000180 a7 8f 71 3e e1 a5 9b be 4c 0e 69 3e d2 01 0f 3e
       0.23589955 -0.30399993 0.2275936 0.13965538
000190 99 13 3e 3d 1b a5 2b 3d ee 53 d0 3d bf 53 1f 3e
       0.04640541 0.041905504 0.10172258 0.1555929
0001a0 72 24 d4 be 94 06 91 be f8 40 16 3c de 78 5c be
       -0.41434056 -0.2832533 0.009170763 -0.21530482
0001b0 f4 9e ad be a0 6d ea bd f3 ac ae 3e 23 8a 9a be
       -0.33910334 -0.114466906 0.34116325 -0.30183515
0001c0 72 2f a5 be 6d d5 53 3e ed 76 a2 3e b3 38 85 bd
       -0.3226276 0.20686884 0.31731358 -0.06504955
0001d0 43 89 a3 3e 64 30 4c 3e b5 cc 63 3e 0d 23 fb bd
       0.3194066 0.19940335 0.22246058 -0.12262545
0001e0 a7 87 32 3e c0 7c b7 3b dc d7 41 be 98 24 1c be
       0.1743456 0.005599588 -0.1893 -0.15248334
0001f0 42 d6 a3 3e 96 6a 35 3d f7 6e 36 be c1 23 2a be
       0.31999403 0.0442911 -0.17815767 -0.16615202

encoder.dcrnn_cells.1.gate.weights_pool f4 [2, 2, 128, 128]
000000 65 d4 23 3e 10 b9 72 bd 7b 66 e3 3c c8 3f 19 be
       0.15998991 -0.05925852 0.027758827 -0.14965737
000010 30 53 65 3d 42 0b 76 3d 3a cf 7d bd 17 11 7c bd
       0.055987537 0.06006933 -0.061965205 -0.061539736
000020 b3 20 0d 3e 8b e2 63 bb 77 69 0c be 53 6c c4 3d
       0.13782005 -0.0034772481 -0.13712107 0.09590974
000030 a6 34 0c 3e e6 1d c8 bd 5f 7e 17 3d 3a be c6 3c
       0.13691959 -0.09771328 0.03698575 0.024260629
000040 9a 56 a4 bc 97 d7 93 bd 22 c2 f1 bd 95 eb 08 3e
       -0.020060826 -0.07218855 -0.11804606 0.13371117
000050 48 83 a0 bc f0 32 03 bd 3e d8 86 3d 59 59 db bc
       -0.01959385 -0.032031 0.06584214 -0.026776003
000060 bf 89 17 3e 1e d5 fb 3a 18 58 05 3e f1 f2 9c 3e
       0.1479864 0.0019213294 0.13021886 0.306541
000070 f0 02 a6 bc c7 36 2b 3e b0 ba 51 3d 9c 7f 43 bc
       -0.020265073 0.16720115 0.05120343 -0.01193228
000080 ee 7c 23 3d a3 48 fe 3d 49 45 27 be 6f 39 84 3d
       0.039914064 0.12416198 -0.16335024 0.06456267
000090 7f f2 b3 bd 19 2c 22 3e ae 6c 14 3c ec 93 2c 3e
       -0.08786487 0.15837134 0.009059114 0.16853303
0000a0 6b 68 33 be 32 04 15 3e d2 a2 24 3d cf 68 26 3d
       -0.17520301 0.14552382 0.04019434 0.040627297
0000b0 4f 9e 79 3d 1c be 09 3e 26 74 15 be 45 48 66 bd
       0.06094199 0.13451427 -0.14595088 -0.056221265
0000c0 e1 5d 40 be b7 b5 61 3e 16 e1 5d bd bb ba 9d 3d
       -0.18785812 0.22041975 -0.054169737 0.07701632
0000d0 25 a7 02 3e f9 21 57 3d 3c 90 76 bc 82 c1 0d be
       0.12759073 0.052522633 -0.015049037 -0.13843349
0000e0 8b ab c0 bd 3a 89 84 bd 2c 0a 77 3c 88 b3 2a 3e
       -0.09407719 -0.064714864 0.015078109 0.16670048
0000f0 13 e4 0d 3d a8 a6 10 3d 82 1a f1 3d 8f 01 fe 3d
       0.034641337 0.035315186 0.11772634 0.12402641
000100 a8 06 ba 3e 5a ab 2e 3e d4 7e 3e 3e 17 e5 82 3e
       0.36333203 0.17057553 0.18603069 0.25565407
000110 f5 dc 86 3d 2e 87 b6 3d fe 51 2b 3e 91 aa 58 3e
       0.06585113 0.08912502 0.16730496 0.21158816
000120 93 42 ac 3e 43 14 83 3e 61 a3 50 3d a4 82 0b bd
       0.33644542 0.25601396 0.05093706 -0.034060135
000130 77 7e f7 3e 2b e0 0e 3e a8 d7 27 3f 8f a5 a9 3d
       0.48338673 0.13952701 0.6556344 0.08283531
000140 82 5c 7a 3d a3 c0 98 3d d8 7d 15 3e b7 69 d5 3e
       0.06112338 0.074586175 0.14598787 0.41682217
000150 f5 2f b8 3d e9 d2 c3 3d 47 59 3d 3e 0d 55 89 3b
       0.08993522 0.09561712 0.18491088 0.004191047
000160 36 ba a8 3e 2a 44 32 3e ac a4 9f 3e f9 59 47 3e
       0.32954568 0.17408815 0.31180322 0.19467916
000170 4c b4 ac 3d ee da 21 3e 65 75 5b 3e 1c a1 30 3e
       0.084328264 0.15806171 0.21431501 0.17248958
000180 e9 2f a4 3d 92 b3 89 3f 48 9e 78 3d 4f 5c 0a 3f
       0.08016951 1.0757926 0.060697824 0.540471
000190 42 e2 b9 bd fa ae b6 3e c8 d3 b9 3d 02 5e c7 3e
       -0.090763584 0.35680372 0.09073597 0.3893891
0001a0 9b 72 60 3e 7f 52 9f 3e af 2d 65 3f db cc 79 3e
       0.21918719 0.31117627 0.8952283 0.24394552
0001b0 06 be 35 3e 8c be 28 3f f0 38 6f 3e 0f a6 3d 3e
       0.1774827 0.6591575 0.23361564 0.18520378
0001c0 35 43 8f 3e 8e e8 16 3f 50 52 55 3e cc c7 62 3e
       0.27980962 0.589486 0.20832181 0.22146529
0001d0 69 8b c5 3e 0b 75 35 3e d4 ae 56 3d 43 e8 87 3e
       0.38582924 0.1772043 0.052412823 0.2654439
0001e0 73 6e 44 3e 14 f1 5b 3e f9 52 64 3e 53 84 97 3f
       0.19182758 0.21478683 0.22297277 1.1837257
0001f0 a8 5a ca 3d d0 88 a7 3d c8 02 44 3f 6f d1 ba 3e
       0.098805726 0.08180392 0.76566744 0.3648791
000200 56 f6 3f be 3e 22 88 be f7 16 2b bd 3e e5 54 be
       -0.18746313 -0.26588625 -0.041769948 -0.20790574
000210 6f 6d 03 be a0 cf 89 be a5 28 bf be cb 73 6f bf
       -0.12834714 -0.26916218 -0.37335697 -0.9353606
000220 78 33 37 3d d0 20 4a be a1 bb 6c be 2c 8e 63 be
       0.04472682 -0.1973908 -0.2311845 -0.22222203
000230 54 e6 b8 3d d7 03 17 bf eb 4f e0 be b8 bd 8d be
       0.090283066 -0.58990234 -0.43810973 -0.27683806
000240 9d 02 5b be 48 00 81 be 5a d4 10 bf 71 9d 04 3a
       -0.21387716 -0.25195527 -0.5657402 0.0005058861
000250 ca d0 55 be 05 59 99 bf 58 17 7a be 69 3b 93 be
       -0.20880428 -1.1980292 -0.24422967 -0.28756264
000260 b8 c5 30 3d 09 a5 4a be 85 32 81 3d 47 d2 88 be
       0.04315731 -0.19789518 0.06308464 -0.2672293
000270 8f 13 6f be 3b b5 3d be 7a a6 a4 be 3b 2d 31 bf
       -0.23347305 -0.18526165 -0.32158262 -0.6920964
000280 3a bd a1 be e8 c1 cd bc 4e 58 58 be 9a b7 e7 bd
       -0.3158968 -0.025116876 -0.21127436 -0.11314316
000290 00 04 5a bf b2 b0 01 be f8 ab e6 be 3b aa 29 be
       -0.85162354 -0.1266506 -0.45053077 -0.16568844
0002a0 0a 45 7e be f3 0a e5 3c 90 69 5c be 5a 5b 95 be
       -0.24831024 0.027959323 -0.21524644 -0.29171258
0002b0 e4 ab b3 be 24 52 ce bd 34 f0 4d be dc 2d dc be
       -0.3509208 -0.10074261 -0.20111161 -0.43003738
0002c0 93 f8 2a bf 6a e4 9a bd 6b b9 cc be 00 30 68 be
       -0.66785544 -0.07563098 -0.39985213 -0.2267456
0002d0 3a 2f 9e be ed 25 8e be 69 da b3 be 05 9b 87 be
       -0.30895406 -0.2776331 -0.3512757 -0.26485458
0002e0 85 f4 05 3d 71 2e 99 3c 5d a8 37 be ff 7e 8f be
       0.032703895 0.018698903 -0.17935319 -0.28026578
0002f0 aa 02 ed bd ac d7 68 be e3 1a a5 be b1 0e dd be
       -0.11572774 -0.22738522 -0.32247075 -0.4317527
000300 c7 73 df 3e 0b 84 d2 3e 8c ad 09 3f ab 8b fe 3e
       0.4364302 0.41116366 0.53780437 0.49715933
000310 52 d0 4a 3f 1e 02 25 3f b0 e5 d6 3e 4a b4 b2 3e
       0.7922412 0.64456356 0.41972113 0.34903175
000320 89 45 96 3e d8 60 05 3f 05 1f 53 3f 50 86 a8 3d
       0.29349926 0.52100897 0.8246921 0.08228743
000330 38 99 a6 3e 3c ef cf 3e 3f c6 2c 3e 79 64 30 3f
       0.32538772 0.4061221 0.168725 0.6890331
000340 aa 6a 4e 3f 6d 28 01 3f 6e 20 1f 3f 68 a1 bb 3e
       0.80631506 0.5045231 0.6215886 0.3664658
000350 7a 1b 13 3f 6e 66 60 3f fc d0 1b 3f 30 96 10 3f
       0.574638 0.87656295 0.6086576 0.5647917
000360 1b aa 96 3e 84 52 1e 3f 20 a4 85 3e 80 45 f0 3e
       0.29426655 0.6184466 0.2610178 0.46928024
000370 b1 1b 18 3f 8b d0 13 3f 44 c1 b1 3e f1 b3 f8 3e
       0.59417254 0.57740086 0.34717762 0.48574784
000380 5b 57 ab 3e b6 6f e8 3d 25 2b 1f 3f e3 cc ff 3d
       0.33465084 0.11349432 0.6217521 0.12490251
000390 fd 05 c4 3e 70 64 be 3e 65 3e b6 3e a8 28 65 3e
       0.3828582 0.37186003 0.35594478 0.2237879
0003a0 b1 4f 9e 3e 7c 0b a7 3e 4b 56 29 3e 55 a6 c1 3e
       0.30920175 0.3262595 0.16536824 0.37822214
0003b0 69 33 01 3f bd 60 42 3e 29 56 cd 3e ef cb af 3e
       0.5046907 0.18982215 0.40104797 0.34335276
0003c0 e5 1a 9c 3e 09 1c b0 3e ef ad f2 3e 17 a4 00 3f
       0.3048927 0.3439639 0.47398326 0.5025038
0003d0 36 b7 9e 3e d5 16 11 3f 5d ea 53 3f d3 73 90 3e
       0.30999154 0.56675464 0.82779485 0.28213367
0003e0 20 67 ff 3e 26 0c f6 3e f2 e3 08 3f 2d f8 bd 3d
       0.49883366 0.48056144 0.53472817 0.092758514
0003f0 05 ab 3e 3f 3a 43 1e 3f 95 ab 8b bd 8c 87 55 3e
       0.74479705 0.6182133 -0.06819836 0.20852488

encoder.dcrnn_cells.1.gate.bias_pool f4 [2, 128]
000000 f6 b2 91 bd 69 67 f4 3d 28 7d 25 3e 1c 6e 5d 3e
       -0.07114212 0.119337864 0.16161025 0.21624035
000010 0e dd a9 3b 63 47 d8 3c c9 e0 19 3e fe cb 80 3d
       0.0051838225 0.026401227 0.15027155 0.062889084
000020 f9 c7 b4 3e ae 68 73 be 72 cc bd 3d 58 bb 39 be
       0.35308817 -0.23770401 0.092675105 -0.18137872
000030 09 62 c4 3e be 5c 16 be b0 45 59 be e8 c3 aa 3c
       0.38356045 -0.14683816 -0.2121799 0.020845369
000040 bf 77 e0 3d 1d 91 1b 3a b5 21 98 be c9 59 09 3d
       0.1096034 0.00059344043 -0.29713216 0.03353289
000050 39 3b 0c 3e 59 2d d4 3d a4 f3 66 bd 1e 91 c0 bd
       0.13694467 0.10360212 -0.056384698 -0.09402679
000060 17 4e 07 be 22 33 3d 3e 59 5b a4 3e 16 cf c7 3c
       -0.13213383 0.18476537 0.32100943 0.024390738
000070 2c 3e 34 bd dc ba 37 be ef 97 09 3e 63 14 c0 bd
       -0.044004604 -0.17942375 0.13436864 -0.093788885
000080 a7 3a b1 bd 17 6b 97 3d ea 45 79 3e 96 a0 36 bd
       -0.08653765 0.07393473 0.24343076 -0.04458674
000090 73 25 1d be 3c 5a 76 3e 42 47 8e bd 1d 3a 2a 3e
       -0.15346317 0.24057859 -0.06947185 0.16623731
0000a0 9f ac d8 bb e6 58 50 be b5 53 26 3e 98 88 98 3c
       -0.006612375 -0.20346412 0.16242869 0.01861982
0000b0 6a 8b d9 bd 2f 03 d0 bd 37 0b 7e 3e 2d 05 73 be
       -0.10622294 -0.10156857 0.24808966 -0.23732443
0000c0 a8 6e c0 bc 64 08 bc bd e1 bf e7 3c 4c 63 4a be
       -0.023490265 -0.09181288 0.028289737 -0.19764441
0000d0 79 5e 15 3e 84 88 43 3d c3 fb c7 bc 4d a4 05 bc
       0.1458682 0.047737613 -0.024412042 -0.008156848
0000e0 5a e2 99 3c 81 5c 9e 3e ef 4c 05 be eb d1 c1 bc
       0.01878469 0.3092995 -0.13017629 -0.023659667
0000f0 f0 13 07 be 1a d7 36 be 11 a6 76 3e 8c 27 80 3e
       -0.131912 -0.17855492 0.24086787 0.25030172
000100 29 83 56 be 64 5b c0 be b2 23 98 be 03 5b 9e bd
       -0.20948471 -0.37569726 -0.29714733 -0.07732203
000110 ad fb 03 3e b6 73 84 3e c1 37 e1 3d 8c 8c 64 bd
       0.12888975 0.2586953 0.10996962 -0.0557981
000120 1b 71 0d be e4 8d c5 bc be 4d 4d be e8 8b 10 be
       -0.13812678 -0.02411551 -0.20049188 -0.1411587
000130 1c 54 c7 be b1 e5 08 3c 3b a6 38 be 9e aa 4c 3d
       -0.38931358 0.008355544 -0.18032162 0.0499674
000140 99 09 6d 3d ca cf 66 3d 1c 66 6d 3d e9 c9 89 be
       0.05787048 0.056350507 0.057958707 -0.26911858
000150 5a 75 8c bd f7 23 19 3e 00 19 8d bd 44 f1 99 3e
       -0.068583205 0.14955126 -0.06889534 0.30066884
000160 ce 49 b0 be 72 5d 4e be 1a 0c a6 3d 9b ca 6a be
       -0.34431309 -0.20152834 0.08107777 -0.2292885
000170 d9 eb 1f 3e d6 97 44 be f1 57 95 be ca 0b a8 3d
       0.15617312 -0.19198546 -0.29168656 0.082053736
000180 76 67 93 3e 76 c3 02 bf f1 6a e1 3d 27 5f ee be
       0.28789872 -0.510795 0.110067256 -0.4655697
000190 41 7f 5c bd e9 76 85 be b1 22 ec 3d 83 ee f1 bd
       -0.053832296 -0.26067284 0.11530054 -0.118130706
0001a0 1b 84 1f 3c 02 0b 3e be b4 57 2a bf e2 48 6b be
       0.009736086 -0.18558887 -0.66540074 -0.22977021
0001b0 cd f1 f9 3d 7f d7 84 be 38 5f 8e be ef 55 59 bd
       0.12204323 -0.2594566 -0.2780702 -0.05306047
0001c0 af 61 93 3c 9d 5f 31 be 74 c5 c2 bd 8b 48 1f be
       0.017990915 -0.1732163 -0.095103174 -0.15555017
0001d0 6c e3 04 be 8c af 04 3e e0 76 bf 3d 01 27 91 be
       -0.1297738 0.12957591 0.093488455 -0.2835007
0001e0 d9 6f 9a be cd e1 f9 bd f8 13 2e be 19 84 ec be
       -0.30163458 -0.12201271 -0.16999805 -0.46194533
0001f0 c9 c5 86 3a e5 e3 52 bd d9 1d 01 3e 29 65 b0 bd
       0.0010282333 -0.05148687 0.12609042 -0.08613045
000200 af 54 00 3e 24 79 a0 3e 3a 13 fc 3c 78 26 5d bc
       0.12532304 0.31342423 0.030770887 -0.013497941
000210 a7 3c 34 be 90 4b 88 bd dc 19 b0 bd 4e ea 13 3d
       -0.17601262 -0.066550374 -0.08598682 0.036112122
000220 08 cc a5 3e 7a b7 4a 3e a4 c9 4b bd af 16 8a 3e
       0.32382226 0.19796553 -0.049752846 0.2697043
000230 45 78 0e 3e 66 1b 77 bd 11 f7 01 3e 43 64 3f 3c
       0.13913067 -0.060328864 0.12691905 0.011681619
000240 e7 44 9e bd 97 01 2d be be 90 ce 3c a5 6c c3 3e
       -0.07727986 -0.16895138 0.025215503 0.38168827
000250 b6 52 0d 3e 81 1d 27 be 3c dd ac bd 5b 90 e2 bc
       0.13801083 -0.16319849 -0.084406346 -0.027656725
000260 4c 85 4c 3e 18 51 2e bd 9d 89 b5 3e 6f ff 55 be
       0.19972724 -0.042557806 0.35456553 -0.20898221
000270 0a 49 eb bb ac b6 39 3e 59 7b f0 3c dd 01 d6 3d
       -0.007180338 0.1813609 0.029355692 0.10449574
000280 7b f2 0b 3e ba eb b8 3e 2c 6f 52 3e 21 87 0e 3f
       0.13666718 0.36117345 0.20550221 0.5567494
000290 9d 43 81 bd 15 46 59 3e 28 e4 c8 bd 87 3b 91 3e
       -0.06311724 0.2121814 -0.09809142 0.28365728
0002a0 a5 b7 31 3e 27 e3 b0 bb de 5d d1 3e 68 27 ff 3c
       0.17355211 -0.0053981724 0.40891927 0.03114672
0002b0 a7 3c d2 bc 62 b4 ac 3e 0b a6 10 3e f3 d6 aa 3d
       -0.025663687 0.3373137 0.1412584 0.083417796
0002c0 d5 db 81 be e0 bb 81 3e a6 82 38 be 7e 15 fc 3d
       -0.2536303 0.2533865 -0.18018588 0.12308787
0002d0 53 49 3c 3e fd d2 db bb 1c bc 91 bd 51 06 2c 3e
       0.18387346 -0.0067085014 -0.07115957 0.16799285
0002e0 4d 81 7b 3e 75 a6 89 3e 89 c6 af 3d 59 c5 6c 3b
       0.24561043 0.2688481 0.085827895 0.003612837
0002f0 8c 8c 66 3e 3f c7 d8 3d fa 2a 81 3e 42 35 c6 3e
       0.22514552 0.10584878 0.252281 0.38712507
000300 c8 5d 1c bf 96 bc 0a 3a c8 2b 6b bd f9 9c e1 bd
       -0.610806 0.0005292384 -0.0574148 -0.11016268
000310 7e 26 d5 3d 6d f7 0b 3e 35 aa bf 3c 72 1d 08 3d
       0.104077324 0.13668604 0.02339659 0.033231206
000320 9c 12 64 bf f6 d5 c0 bc 24 fb 16 be e5 85 06 bf
       -0.89090896 -0.023539525 -0.1474424 -0.52548057
000330 bf 66 79 bf 8b a5 e9 be 05 f6 48 3e 18 3a 54 3e
       -0.97422403 -0.45634112 0.19625099 0.20725286
000340 a4 8e 1d 3d 74 50 8d bc 5a d4 18 be e1 d8 26 be
       0.03846611 -0.017250277 -0.14924756 -0.1629367
000350 f2 a0 cf bd 48 b9 95 3e b0 45 27 3e 2a fd 79 3e
       -0.1013812 0.2924292 0.16335177 0.2441298
000360 ac de 15 bf a5 eb f9 3d 79 5d 5e bf 14 29 06 3d
       -0.58542895 0.12203149 -0.8686138 0.03275402
000370 52 d9 a4 3d 27 af cd be 35 15 14 bf 4d c5 45 be
       0.08049263 -0.40172693 -0.5784486 -0.19313546
000380 5e 05 c1 3d fb 05 c7 3e 91 9f 8f bc d1 ff 55 bd
       0.09424852 0.3887175 -0.017532142 -0.05224592
000390 e3 3f 29 3d 51 c5 fd be 37 03 00 3d 0e 0d 03 bf
       0.041320693 -0.49564603 0.031253066 -0.51191795
0003a0 23 14 a8 be 4e 18 4a be fd f9 d5 3e d3 35 30 be
       -0.32827863 -0.19735834 0.41792288 -0.17208032
0003b0 bc 19 3b 3d 1b c1 95 3e 16 17 8a be 3f ae af 3c
       0.04567884 0.2924889 -0.26970738 0.021445392
0003c0 02 34 6e bd 2a 23 39 bf 3d d4 3f be c1 44 e0 3d
       -0.058155067 -0.7231928 -0.18733306 0.10950614
0003d0 4c 62 bb be 9e a0 57 be 5f d2 38 3e 87 16 df be
       -0.36598432 -0.21057364 0.18049 -0.43571874
0003e0 32 2b db be f9 f8 a8 bd 19 cf 20 bd 1c 75 35 3d
       -0.42806393 -0.08250613 -0.039260004 0.044301137
0003f0 18 5a 26 3e f1 25 31 be ad 89 a2 be 7e 75 13 bf
       0.16245306 -0.1729963 -0.31745663 -0.57601154
