CQ/result/P7_Resullt/HOURS/data16/2/best_model.pth (torch_old, 603202 bytes, 11 tensors)

node_embeddings f4 [228, 2]
0	0x3d95fb2d	0.073232986
1	0xbb99c420	-0.0046925694
2	0x3e4f7a61	0.20261528
3	0x3e9a4851	0.30133298
4	0x3e94fec1	0.29100612
5	0x3e4f5ae7	0.2024952
6	0xbdb41850	-0.087937
7	0x3ebee3e8	0.37283254
8	0x3ea41999	0.3205078
9	0x3e57e0ca	0.21081844
10	0x3ddc3c2a	0.10753663
11	0xbe596f3b	-0.21233837
12	0x3d96feeb	0.073728405
13	0xbbeaf4e1	-0.007170305
14	0xbd99f1de	-0.07516836
15	0x3ec0a8d4	0.37628806
16	0xbe7559ad	-0.2395999
17	0xbde43e85	-0.11144737
18	0xbdb68d87	-0.08913713
19	0x3ebbb193	0.36658916
20	0x3e1e593f	0.15463732
21	0x3dc2437a	0.094855264
22	0x3e4ece81	0.20195962
23	0x3e91f310	0.28505754
24	0xbd52305d	-0.051315654
25	0x3d9be801	0.076126106
26	0x3e9ee81e	0.31036466
27	0x3e27438d	0.16334362
28	0x3ea1f85e	0.31634802
29	0x3e6c2b83	0.23063473
30	0xbd33aa3d	-0.043863524
31	0x3d50b8c3	0.050957453
32	0xbe0f8a57	-0.14017616
33	0x3e9d042e	0.3066725
34	0x3e9ad1ef	0.30238292
35	0x3e85e743	0.26153
36	0x3e42d48e	0.19026396
37	0x3d93b518	0.07212275
38	0x3eab8355	0.33498636
39	0x3e88ca80	0.26716995
40	0xbdbae6ec	-0.09126076
41	0x3e973a71	0.29536775
42	0x3e676e62	0.22600701
43	0x3e204933	0.15652923
44	0x3ea3eafa	0.3201521
45	0x3e458569	0.19289173
46	0x3e8c633d	0.27419463
47	0x3d8d975a	0.06913634
48	0x3e9d950e	0.30777782
49	0x3e0a01ad	0.13477202
50	0x3e96d393	0.29458293
51	0x3e6da217	0.23206364
52	0x3eb0647c	0.34451663
53	0x3e8a86f3	0.27056083
54	0x3e7889c6	0.24271306
55	0x3e5568c4	0.20840746
56	0xbd44c18e	-0.04803615
57	0x3e726c1f	0.23674057
58	0xbd1ff287	-0.03904965
59	0x3da0fd94	0.07860866
60	0x3d2f3efe	0.042784683
61	0x3d3a93b1	0.045551006
62	0x3e987268	0.29774785
63	0x3e6fc763	0.23415904
64	0x3ea415c3	0.32047853
65	0x3def528f	0.11685669
66	0x3eacc744	0.33745778
67	0x3e276bf3	0.16349773
68	0x3daf5d4c	0.08562717
69	0xba22b021	-0.0006206055
70	0x3e910ed8	0.28331637
71	0x3e84acd9	0.25913122
72	0x3d08de76	0.03341528
73	0x3dfa99ad	0.122363426
74	0xbd68f1fa	-0.05687139
75	0x3def3bea	0.116813496
76	0x3e92191c	0.28534782
77	0x3e69db59	0.2283758
78	0x3bd25ba5	0.0064196163
79	0x3e9d3684	0.30705655
80	0x3ea01d8f	0.3127255
81	0x3e86ece4	0.26352608
82	0x3e928dc0	0.28623772
83	0x3e5fe884	0.21866041
84	0x3eaf11d9	0.34193304
85	0x3e875e62	0.26439196
86	0x3e9afef3	0.30272636
87	0x3df908fc	0.12159917
88	0x3e8f5c54	0.28000128
89	0x3e649aef	0.22324727
90	0x3e94b156	0.29041547
91	0x3e709fdc	0.23498482
92	0x3ea652ba	0.3248499
93	0x3e91e514	0.28495085
94	0x3eb15548	0.34635377
95	0x3e1fe05c	0.1561293
96	0x3ea4c286	0.3217966
97	0x3e77947e	0.24177739
98	0x3e9ea943	0.3098851
99	0x3e1e118d	0.15436383
100	0x3df05735	0.117353834
101	0x3d863be2	0.065543905
102	0xbd23965f	-0.039938327
103	0x3d97c49d	0.07410548
104	0xbd12ba37	-0.03582212
105	0x3ece8dc6	0.4034254
106	0x3dc74027	0.09729033
107	0x3dff0fe0	0.124542
108	0x3e1150fd	0.14191051
109	0x3e0b7884	0.13620192
110	0xbc58bd82	-0.013228776
111	0x3e9f8b8b	0.3116115
112	0x3e9be64f	0.3044915
113	0x3e89890b	0.26862368
114	0x3e9c5ba6	0.30538672
115	0x3e03b20d	0.1286089
116	0x3da64142	0.08117916
117	0xbb113bbc	-0.0022160849
118	0x3d57da8a	0.05269865
119	0xbdfda8ab	-0.123856865
120	0x3cae9d27	0.02131517
121	0x3d1cf0d2	0.0383156
122	0x3d7d07d2	0.061775036
123	0x3d777bb0	0.060420692
124	0x3eac74ca	0.33682853
125	0x3e2abf8a	0.16674629
126	0x3e69d2ea	0.22834364
127	0xbdb804e8	-0.08985311
128	0x3d865b0f	0.06560337
129	0x3ad67d5b	0.0016364263
130	0x3ea6f560	0.3260908
131	0x3e1ebb89	0.15501226
132	0x3e997c60	0.29977703
133	0x3e563751	0.20919539
134	0xbdf96d93	-0.12179103
135	0x3ec60fee	0.38684028
136	0x3e8cbdbf	0.27488515
137	0x3e4735bd	0.19454093
138	0x3ea3b661	0.31975082
139	0x3e8c938e	0.27456325
140	0x3e990066	0.29883116
141	0x3c8b5816	0.017009776
142	0x3d38a9d7	0.045083847
143	0x3cb15c30	0.021650404
144	0x3eac1385	0.33608642
145	0x3e23b4bf	0.15986918
146	0x3dada5e5	0.084789075
147	0x3d33b168	0.04387036
148	0x3e81e6d8	0.25371432
149	0x3e8a2ef2	0.2698894
150	0x3dc03a5e	0.09386133
151	0x3cbdf17e	0.023186442
152	0x3eaae48e	0.33377498
153	0x3e9633ec	0.29336488
154	0x3d968c03	0.07350924
155	0x3db4275c	0.0879657
156	0x3e9999cc	0.3000015
157	0x3c92602a	0.01786812
158	0x3e97c38e	0.29641384
159	0x3e879a0c	0.26484716
160	0x3e360f93	0.17779379
161	0x3ca1484f	0.0196878
162	0x3e411018	0.18853796
163	0xbe190f73	-0.149473
164	0x3e172c1a	0.14762917
165	0xbcd25d6d	-0.025679315
166	0x3ea0f5c0	0.31437492
167	0x3e788bcf	0.24272083
168	0x3e600cae	0.21879837
169	0x3eaf4dcb	0.3423904
170	0x3da3a2f2	0.07990064
171	0xbc1ff5fc	-0.009763237
172	0x3eb0ee12	0.34556633
173	0x3e1c60a0	0.15271235
174	0xbdb96f10	-0.090543866
175	0x3ebbd70c	0.36687505
176	0x3e1f0cc1	0.15532209
177	0x3cc49bda	0.024000097
178	0xbed67da6	-0.41892737
179	0x3e302735	0.17202456
180	0xbddef254	-0.10886064
181	0x3ea9b6dc	0.33147323
182	0x3e05a0a0	0.13049555
183	0x3cc8421b	0.024445584
184	0x3db91389	0.09036929
185	0xb9f28f27	-0.00046264494
186	0xbe8f99b4	-0.28046954
187	0x3e260a02	0.16214755
188	0x3db6ed78	0.08932012
189	0xbe00c948	-0.12576783
190	0x3b9ac347	0.004722986
191	0x3e153143	0.14569573
192	0x3d9c1905	0.076219596
193	0xba0fa648	-0.0005479795
194	0x3e056293	0.13025884
195	0x3d5d25de	0.05399119
196	0x3e87968a	0.2648204
197	0x3e4a4c55	0.19755681
198	0x3dab7100	0.083711624
199	0x3dce48ad	0.100724556
200	0x3e92629f	0.28590867
201	0x3e56d073	0.20977955
202	0x3e102c4d	0.140794
203	0x3e25db60	0.16196966
204	0x3de35e70	0.11101997
205	0x3e290a98	0.16507947
206	0x3e5a93f0	0.21345496
207	0x3e14161d	0.1446156
208	0xbc84fa4b	-0.01623263
209	0x3dc42f38	0.09579319
210	0x3e8a5bd7	0.27023193
211	0x3e56cd16	0.20976672
212	0xbd8a77b6	-0.06761114
213	0x3d85f037	0.06539958
214	0xbdbc7849	-0.0920263
215	0x3df04559	0.11731977
216	0x3e8b47fe	0.27203363
217	0x3e4c51bd	0.19953056
218	0x3e5e0cec	0.21684617
219	0x3ea04bca	0.31307822
220	0x3e50c6ca	0.20388332
221	0xbe0b0b66	-0.13578567
222	0xbddf4d5e	-0.109034285
223	0x3eb03a38	0.34419417
224	0xbd8e8082	-0.06958105
225	0x3d966b7f	0.07344722
226	0x3e2f3e1f	0.17113541
227	0x3e7e6d65	0.24846418
228	0x3dd237b1	0.102645285
229	0xbd4089c6	-0.04700639
230	0xbd9a22c9	-0.07526166
231	0x3e63bd00	0.22240067
232	0x3e12605f	0.14294575
233	0x3e8ae0d4	0.27124655
234	0x3e9e76b1	0.3094993
235	0x3e217600	0.1576767
236	0x3e16a783	0.14712338
237	0xbde98154	-0.114016205
238	0xbea7ff9c	-0.32812202
239	0x3dde4100	0.108522415
240	0x3dda24c8	0.10651547
241	0xbb35a7ff	-0.0027718542
242	0x3d87211e	0.065981135
243	0x3c0336af	0.008008643
244	0x3cd476ff	0.025935648
245	0x3ea6038a	0.32424575
246	0xbdd66ed9	-0.10470361
247	0x3e92fc73	0.28708228
248	0xbdb558d4	-0.08854833
249	0x3e91bb89	0.2846339
250	0xbe21a1bd	-0.15784355
251	0xbde0f48a	-0.10984142
252	0xbda401a9	-0.08008129
253	0x3cc61c7c	0.024183504
254	0x3ea76e28	0.3270123
255	0x3e7594b9	0.23982514

encoder.dcrnn_cells.0.gate.weights_pool f4 [2, 2, 65, 128]
0	0x3d81dcaf	0.0634092
1	0xbefe4dd4	-0.49668753
2	0xbcda24d0	-0.026628882
3	0xbcf56b4c	-0.02995839
4	0xbcb4778d	-0.022029663
5	0x3d020f34	0.03175278
6	0xbe08f0c4	-0.13373095
7	0xbd384dfa	-0.04499624
8	0xbf09fffa	-0.53906214
9	0xbe540176	-0.20703682
10	0xbd0e9b3f	-0.034816023
11	0x3b69f33d	0.003569796
12	0xbd1afc31	-0.037838165
13	0xbd05b425	-0.032642502
14	0xbd938093	-0.07202258
15	0xbde19ba8	-0.11016017
16	0xbcf10aed	-0.029424155
17	0xbcaba583	-0.020952946
18	0xbf0552d5	-0.52079517
19	0xbf08b905	-0.5340732
20	0x3b82a38b	0.003986781
21	0xbf069284	-0.52567315
22	0xbc27d0b2	-0.010242628
23	0xbe817474	-0.2528416
24	0xbd3438dc	-0.043999538
25	0x3c958716	0.01825289
26	0xbed8dec9	-0.42357472
27	0xbf01f025	-0.50757056
28	0xbc94adbd	-0.018149251
29	0xbd68c0d1	-0.05682451
30	0x3c01bda3	0.007918748
31	0xbe47ec76	-0.19523796
32	0xbf08b965	-0.5340789
33	0xbe91c92f	-0.28473803
34	0xbf0545ce	-0.5205964
35	0xbc888494	-0.01666478
36	0xbd1c5a89	-0.03817228
37	0xbc224378	-0.009903781
38	0x3c693e7d	0.01423609
39	0xbd522e1d	-0.05131351
40	0xbe8f430b	-0.27980837
41	0xbd8f2ccf	-0.069909684
42	0xbc664e05	-0.014056687
43	0xbc7462c4	-0.014916126
44	0xbe69c688	-0.2282964
45	0x3d271de8	0.040800005
46	0xbe493120	-0.19647646
47	0x3c0d3567	0.008618689
48	0xbe9538ab	-0.29144797
49	0xbf0a18cf	-0.53944105
50	0xbcb7be51	-0.022429617
51	0x3cff24b0	0.031145424
52	0xbf0c0c44	-0.54706216
53	0xbd23d963	-0.040002238
54	0xbc4e8e7f	-0.012607216
55	0xbc878e9d	-0.016547495
56	0xbd8d6f0a	-0.06905945
57	0x3d752ba4	0.059856072
58	0xbf0ff4e4	-0.5623305
59	0xbf135c06	-0.5756229
60	0xbd1cb650	-0.038259804
61	0xbc287d73	-0.010283816
62	0xbf1353d1	-0.5754977
63	0x3d48ece8	0.049054056
64	0xbdb32e82	-0.08749105
65	0x3de25c20	0.11052728
66	0x3ca56869	0.020191388
67	0x3a9cf922	0.0011976103
68	0xbb3f98b1	-0.0029235298
69	0xbd5bd59f	-0.05367052
70	0x3e2c422c	0.16822118
71	0x3cd5f596	0.026118081
72	0x3df2978d	0.11845312
73	0xbdca6541	-0.09882594
74	0x3d3eadf4	0.046552613
75	0x3c518c13	0.012789744
76	0x3ac798f3	0.0015228078
77	0x3d1a634a	0.037692346
78	0x3e2095ce	0.15682146
79	0xbd8ef151	-0.06979621
80	0xbbefa1c9	-0.0073129875
81	0x3b8dcb73	0.0043272316
82	0x3df1fa82	0.11815359
83	0x3e060307	0.13087092
84	0x3b145acc	0.0022637127
85	0x3e0313af	0.12800477
86	0x3c8ecbef	0.017431227
87	0xbde621f4	-0.11236945
88	0xbd8b3682	-0.06797506
89	0x3c764157	0.015030227
90	0x3e03a9e8	0.12857783
91	0x3ded8a5a	0.11598654
92	0xbd176c53	-0.03696854
93	0x3ced44c9	0.028963463
94	0xbe18914c	-0.14899176
95	0x3e1e479c	0.15457004
96	0x3e079e89	0.1324407
97	0x3e19d347	0.15022002
98	0x3e046291	0.12928225
99	0xbcfce56e	-0.03087112
100	0x3c7a6e19	0.015285038
101	0xbc8c347d	-0.017114872
102	0xbdaaf093	-0.08346667
103	0xbdfc3bde	-0.12316106
104	0xbd963075	-0.07333461
105	0x3e1c13cc	0.15241927
106	0xbcb08bcb	-0.021551033
107	0xbc9f258c	-0.019427083
108	0xbdfd32ba	-0.12363191
109	0xbd8868cb	-0.06660613
110	0xbdcddbc8	-0.100516856
111	0xbc849160	-0.016182601
112	0xbdc1329a	-0.094334796
113	0x3def4222	0.11682536
114	0x3cca901a	0.024726916
115	0xbce616e8	-0.028087094
116	0x3e0c5d53	0.13707475
117	0xbe0ad1b4	-0.13556558
118	0x3c8eb987	0.01742245
119	0xbc9601d2	-0.018311415
120	0x3cf09f70	0.0293729
121	0xbde2ee65	-0.110806264
122	0x3ddbcae7	0.1073206
123	0x3e06e712	0.13174084
124	0x3d0eee05	0.034894962
125	0xbd14477d	-0.03620099
126	0x3e0090ad	0.1255519
127	0xbdb9b18f	-0.0906707
128	0xbdfdc993	-0.12391963
129	0xbe1e2525	-0.15443857
130	0xbe0f956e	-0.14021847
131	0xbe136ba6	-0.14396533
132	0xbe0fb385	-0.14033325
133	0xbdf065eb	-0.11738189
134	0xbde9605d	-0.11395333
135	0xbe052ec2	-0.13006118
136	0xbdb3966a	-0.087689236
137	0xbe034b94	-0.128218
138	0xbe105f71	-0.14098908
139	0xbe01ccf2	-0.12675837
140	0xbdf51038	-0.11965984
141	0xbe07d7e9	-0.13265957
142	0xbde01fc4	-0.10943559
143	0xbe0426bd	-0.12905402
144	0xbe0d00e0	-0.13769865
145	0xbdfeaeb2	-0.12435664
146	0xbdde3461	-0.10849834
147	0xbe07d9c0	-0.13266659
148	0xbe01e7ec	-0.12686127
149	0xbd8adaf6	-0.06780045
150	0xbded67e8	-0.11592084
151	0xbe09c58f	-0.13454269
152	0xbe0e8bf7	-0.1392058
153	0xbe0928fe	-0.13394544
154	0xbe2eea68	-0.17081606
155	0xbd85e5cb	-0.0653797
156	0xbe08b06b	-0.13348548
157	0xbe124816	-0.14285311
158	0xbe092b4b	-0.13395421
159	0xbdf6e04c	-0.120545
160	0xbdefbbb8	-0.117057264
161	0xbe1e4a37	-0.15457998
162	0xbde97222	-0.11398722
163	0xbe0b8806	-0.13626108
164	0xbe059e4d	-0.13048668
165	0xbdfa1cbd	-0.12212513
166	0xbe049fe2	-0.12951615
167	0xbe0246fa	-0.12722388
168	0xbdfc6b85	-0.12325195
169	0xbdd3cfc0	-0.103423595
170	0xbe0741f9	-0.1320876
171	0xbe037b0b	-0.12839906
172	0xbe00c68e	-0.12575743
173	0xbe0e722e	-0.13910744
174	0xbe09d38c	-0.13459605
175	0xbe14bb5e	-0.145246
176	0xbe0fd529	-0.14046158
177	0xbdf505dc	-0.11964008
178	0xbe0e1e2a	-0.13878694
179	0xbdf841f0	-0.121219516
180	0xbe07eb3a	-0.13273326
181	0xbe18ed28	-0.14934218
182	0xbe088d84	-0.13335234
183	0xbe07c8b5	-0.13260157
184	0xbdfc7250	-0.12326491
185	0xbe03b112	-0.12860516
186	0xbdbf4078	-0.09338468
187	0xbdb8397d	-0.0899534
188	0xbe12cb33	-0.14335327
189	0xbe0f1c9c	-0.13975757
190	0xbdcbcf64	-0.09951666
191	0xbe138a58	-0.14408243
192	0x3e27eb12	0.16398266
193	0x3e317681	0.17330362
194	0x3e18a740	0.14907551
195	0x3e0e83db	0.13917486
196	0x3e1a3bb6	0.1506184
197	0x3e1da39f	0.15394448
198	0x3e1cbae8	0.15305674
199	0x3e166c6e	0.146898
200	0x3e40f33f	0.18842791
201	0x3e1512e1	0.14557983
202	0x3e228b5f	0.15873478
203	0x3e164d03	0.14677815
204	0x3e16e7c8	0.14736855
205	0x3e1dc61c	0.15407604
206	0x3e2072f8	0.15668857
207	0x3e0ad20d	0.1355669
208	0x3e11e9b7	0.14249311
209	0x3e26f545	0.163045
210	0x3e413ca9	0.18870796
211	0x3e2cf5e9	0.16890682
212	0x3e1da151	0.15393569
213	0x3e6f7ece	0.23388216
214	0x3e25dcc2	0.16197494
215	0x3e0f3c3c	0.13987821
216	0x3e14087f	0.14456366
217	0x3e1066c5	0.14101703
218	0x3e33c975	0.17557319
219	0x3e757098	0.23968732
220	0x3e257b16	0.16160235
221	0x3e1deac4	0.15421587
222	0x3e1246a5	0.14284761
223	0x3e27a665	0.16372068
224	0x3e4759a9	0.19467796
225	0x3e3632a1	0.17792751
226	0x3e3dd641	0.18538763
227	0x3e1c94e3	0.15291171
228	0x3e1ea2fe	0.15491864
229	0x3e1850aa	0.14874521
230	0x3e24350c	0.16035861
231	0x3e019e04	0.12657934
232	0x3e22b81e	0.15890548
233	0x3e171641	0.14754583
234	0x3e103b01	0.14085008
235	0x3e266416	0.16249117
236	0x3e132859	0.1437086
237	0x3e14de7b	0.14537995
238	0x3e189065	0.14898832
239	0x3e1d8910	0.15384316
240	0x3e13a48c	0.14418238
241	0x3e4a7531	0.19771267
242	0x3e0d163a	0.1377801
243	0x3e1fcd65	0.15605696
244	0x3e3a0382	0.181654
245	0x3e151211	0.14557673
246	0x3e0f5a6b	0.13999335
247	0x3e154439	0.14576806
248	0x3e1d0409	0.1533357
249	0x3e1110bd	0.14166541
250	0x3e4c58e0	0.19955778
251	0x3e6a0956	0.22855124
252	0x3e1378b2	0.1440151
253	0x3e107c1a	0.14109841
254	0x3e619f5b	0.22033446
255	0x3e1bb77f	0.15206717

encoder.dcrnn_cells.0.gate.bias_pool f4 [2, 128]
0	0x3e4be740	0.19912434
1	0xbe2e5147	-0.17023192
2	0x3e236cd2	0.1595948
3	0x3d8f398d	0.06993399
4	0x3eaaac69	0.33334664
5	0x3eb78029	0.35839966
6	0xbdac4ad1	-0.084127076
7	0x3de6ff6a	0.11279185
8	0xbdba90e1	-0.09109665
9	0x3e674421	0.22584583
10	0x3e54d2f7	0.20783602
11	0xbd4b3b58	-0.04961714
12	0x3dfbff29	0.12304527
13	0x3e559600	0.20858002
14	0x3e8c57df	0.2741079
15	0x3eae4208	0.34034753
16	0x3e186108	0.14880764
17	0x3e9dbfa9	0.30810288
18	0xbe90c942	-0.28278548
19	0x3bc3bebc	0.005973665
20	0x3e6f27dd	0.2335505
21	0xbd6ae512	-0.057347365
22	0x3ea586f3	0.3232952
23	0x3e51a32d	0.20472403
24	0x3e350d0d	0.1768076
25	0x3e829bf8	0.2550962
26	0x3dbd72c0	0.092504025
27	0xbe85924f	-0.26088187
28	0x3e6caac7	0.23112021
29	0x3e5ff933	0.21872406
30	0x3e37b526	0.17940196
31	0x3e18a2e6	0.14905891
32	0x3c5691cd	0.013096285
33	0x3d993139	0.074800916
34	0xbcd1d5dc	-0.025614671
35	0xbd6b9bf9	-0.057521794
36	0x3e1f184e	0.15536615
37	0x3da08b77	0.07839101
38	0x3e7ded02	0.24797443
39	0x3e94b8d0	0.2904725
40	0x3e2f45b9	0.17116441
41	0x3dd96a13	0.10615935
42	0x3db6302c	0.08895907
43	0x3e21b63d	0.15792175
44	0x3c1087c2	0.00882143
45	0x3c8645a6	0.016390633
46	0x3eb21cc8	0.34787583
47	0x3d2ef5ec	0.042714998
48	0xbd084131	-0.033265296
49	0xbe0e50f0	-0.13898063
50	0x3eb311d0	0.34974527
51	0x3e089756	0.1333898
52	0x3d25f7c2	0.040519483
53	0xbd05ad28	-0.032635838
54	0x3c136b54	0.008997757
55	0x3e49e7a0	0.19717264
56	0x3dc6360e	0.09678279
57	0x3e9c1912	0.30487877
58	0xbd415c7c	-0.04720734
59	0x3cf366a8	0.029712036
60	0x3e25964c	0.16170615
61	0x3e3dfe85	0.18554123
62	0xbdd05482	-0.101723686
63	0x3db6cc1f	0.08925652
64	0xbe81638b	-0.25271258
65	0x3e42e512	0.19032696
66	0x3d201ca7	0.039089825
67	0xbeb12980	-0.34601974
68	0xbe888a5f	-0.2666807
69	0xbe806fa5	-0.25085178
70	0xbe4f68ee	-0.20254871
71	0x3d841921	0.064501055
72	0xbd41705e	-0.047226302
73	0xbe899a47	-0.26875517
74	0x3cd44f14	0.025916614
75	0x3cc32863	0.023822969
76	0xba19bdb1	-0.0005864753
77	0xbd947420	-0.072487116
78	0xbe9bbd53	-0.3041788
79	0xbe5e8ecd	-0.21734162
80	0xbe5932fa	-0.21210852
81	0xbe9cfd99	-0.3066223
82	0x3e20c831	0.15701367
83	0xbdcdece4	-0.10054949
84	0xbb987297	-0.004652332
85	0xbd945a22	-0.07243754
86	0xbd822436	-0.06354563
87	0xbe47b7e4	-0.19503742
88	0xbc14c93d	-0.009081182
89	0xbda3d251	-0.07999099
90	0xbe6c74df	-0.23091458
91	0xbd7ddc49	-0.06197766
92	0xbe5a9106	-0.21344385
93	0xbe8071c6	-0.25086802
94	0xbe7e79d9	-0.24851169
95	0x3c86a666	0.016436767
96	0x3e164432	0.14674452
97	0xbe40e636	-0.18837819
98	0xbd1c261c	-0.03812228
99	0xbe8c1606	-0.27360553
100	0xbd026daa	-0.031842865
101	0xbda734dd	-0.0816438
102	0xbe68e155	-0.22742207
103	0xbe0cb5a7	-0.1374117
104	0xbeb5a06b	-0.35473952
105	0xbdbbeb8b	-0.09175786
106	0x3d12be0f	0.035825785
107	0xbe3f104e	-0.18658563
108	0xbdaa48e6	-0.083146855
109	0x3d50c210	0.050966322
110	0xbdab5227	-0.08365279
111	0xbe94f64c	-0.2909416
112	0x3d703849	0.058647428
113	0x3dc6294a	0.09675844
114	0xbe325c8e	-0.1741812
115	0x3c47ff5e	0.01220688
116	0xbd7376ce	-0.059439473
117	0xbe210999	-0.15726317
118	0xbea45230	-0.32093954
119	0xbcfaf66b	-0.03063508
120	0xbdd33137	-0.10312121
121	0xbde5aa56	-0.112141296
122	0x3c9d1ff6	0.01918028
123	0xbe08a17a	-0.13342848
124	0xbe8c09f2	-0.27351338
125	0xbde4d733	-0.111738585
126	0xbb4b8acf	-0.0031058078
127	0xbe148a9d	-0.14506002
128	0x36df1758	6.6486355e-06
129	0x3e7068ad	0.2347743
130	0x3e38eafa	0.18058386
131	0x3e69f564	0.22847515
132	0x3dac5020	0.0841372
133	0x3b809bc5	0.003924819
134	0x3e95afa3	0.29235563
135	0x3e012e99	0.12615432
136	0x3def1aa4	0.11675003
137	0xbd1d2c1e	-0.03837215
138	0x3d7baaaa	0.061442055
139	0x3e301997	0.17197262
140	0x3e074a49	0.13211931
141	0x3e99b2a5	0.30019107
142	0x3cebb11c	0.028770976
143	0x3ea92115	0.33033052
144	0xbd1f4181	-0.03888083
145	0x3e48d06e	0.1961076
146	0x3db87c48	0.0900808
147	0x3eb570a4	0.354375
148	0x3d5216f6	0.05129143
149	0x3e0b8654	0.13625461
150	0x3e37512d	0.1790206
151	0x3e81be22	0.25340372
152	0x3e85968f	0.2609143
153	0x3d6dc87f	0.058052536
154	0x3e0ddbc3	0.13853364
155	0x3e22030e	0.15821478
156	0x3d8823a6	0.066474244
157	0x3d4ec2af	0.050478633
158	0x3eb003e6	0.34377974
159	0xbc43f247	-0.011959619
160	0x3e3c8bb2	0.18412665
161	0xbcbf52b2	-0.023354862
162	0x3ea346e4	0.31890023
163	0x3e8cc40a	0.27493316
164	0x3e72f2f8	0.23725498
165	0x3e3c0213	0.18360166
166	0x3eaf483d	0.342348
167	0x3e1b6147	0.15173827
168	0x3c890533	0.016726112
169	0x3e297a4c	0.16550559
170	0x3e59cf55	0.21270497
171	0x3e08100b	0.1328737
172	0x3db1bbaa	0.08678372
173	0x3de90011	0.11376966
174	0x3e16751f	0.14693116
175	0x3eaeb149	0.34119633
176	0x3e9f2d3c	0.310892
177	0x3e1eb1da	0.15497532
178	0x3d6d5404	0.05794145
179	0x3cad5b3d	0.02116167
180	0x3da64813	0.08119216
181	0x3e9801c5	0.2968885
182	0xbcbf0fc4	-0.023322947
183	0x3d09c987	0.033639457
184	0x3e44b837	0.19210897
185	0x3ea60d05	0.32431808
186	0x3dfa1b68	0.122122586
187	0x3e81db51	0.25362638
188	0x3dd866fc	0.10566518
189	0x3e6d8c82	0.2319813
190	0xbda7740f	-0.08176433
191	0x3e4c97c0	0.19979763
192	0xbeabd2ac	-0.33559167
193	0x3c6b8de4	0.014377091
194	0x3a3ad74c	0.00071274186
195	0xbdc35d7b	-0.09539314
196	0xbe202ad5	-0.15641339
197	0xbe9c346e	-0.3050875
198	0x3da77869	0.08177263
199	0xbe804708	-0.25054193
200	0x3d96585a	0.073410705
201	0xbe7bd711	-0.2459376
202	0xbe970bd5	-0.29501215
203	0x3d1599cc	0.036523625
204	0xbc42ec7e	-0.011897204
205	0xbc7434fd	-0.0149052115
206	0xbe0d10f8	-0.13776004
207	0xbe923d0b	-0.28562197
208	0xbe99923b	-0.29994377
209	0xbd24ed6c	-0.040265486
210	0x3bd2c55d	0.006432219
211	0xbe171f5f	-0.14758061
212	0xbe8ae0ae	-0.27124542
213	0xbe51255e	-0.2042441
214	0xbe929390	-0.28628206
215	0xbeb8dc7f	-0.36105725
216	0xbd538574	-0.051640943
217	0xbdd6ff7b	-0.10497948
218	0xbea197a0	-0.31560993
219	0xbd3ece38	-0.046583384
220	0xbe8fb113	-0.28064784
221	0xbd4473c8	-0.04796198
222	0xbe0ac891	-0.13553073
223	0xbe8e2ac1	-0.27766994
224	0xbc66e286	-0.014092093
225	0xbea532e7	-0.32265398
226	0xbd767e11	-0.06017882
227	0xbcf81992	-0.03028563
228	0xbe90f263	-0.28309926
229	0x3d8eb75f	0.06968569
230	0xbe7032f6	-0.2345694
231	0xbe53a44a	-0.2066814
232	0x3d044f11	0.032301966
233	0xbdfa277c	-0.12214562
234	0xbe9d5378	-0.30727744
235	0xbe942a9d	-0.2893876
236	0xbeaad061	-0.33362105
237	0x3ccb9bc2	0.024854545
238	0xbcdda120	-0.02705437
239	0xbca9513a	-0.020668615
240	0xbe970aad	-0.29500332
241	0xbe995102	-0.29944617
242	0xbe609f8c	-0.21935862
243	0xbe4005dd	-0.18752237
244	0xbcec2f3e	-0.02883112
245	0xbe08e23b	-0.1336755
246	0xbbd58845	-0.0065164887
247	0xbeaaf85f	-0.33392617
248	0xbe85c9f7	-0.2613065
249	0x3cb0f6b4	0.021602012
250	0xbe55d610	-0.2088244
251	0x3cfa77f4	0.030574776
252	0x3d84ab70	0.064780116
253	0xbea1b21f	-0.31581208
254	0xbe12b375	-0.1432627
255	0xbea8ccc4	-0.32968724

encoder.dcrnn_cells.0.update.weights_pool f4 [2, 2, 65, 64]
0	0xbea2f4b2	-0.31827313
1	0xbf2bb4c9	-0.6707273
2	0x3e9c7031	0.30554345
3	0xbe9c9595	-0.30582872
4	0x3e9a22f4	0.30104792
5	0xbea40f84	-0.32043087
6	0xbf2c445a	-0.67291796
7	0x3e954ee9	0.29161766
8	0xbf25dd5c	-0.6479089
9	0x3ebfb6ec	0.37444246
10	0x3e839d37	0.25705883
11	0xbe94bc90	-0.29050112
12	0xbea0b0e2	-0.3138495
13	0xbe87dad2	-0.26534134
14	0x3f4638c6	0.7743038
15	0xbee69ae1	-0.45040038
16	0xbe958b57	-0.2920787
17	0x3e943385	0.28945556
18	0xbf240ada	-0.6407906
19	0x3f254d1b	0.6457078
20	0x3e99f61d	0.30070582
21	0xbf2568bd	-0.6461294
22	0xbe8a4a3a	-0.27009755
23	0x3ebe33bc	0.37148845
24	0xbeece3f8	-0.46267676
25	0x3e700bdd	0.23442025
26	0xbf26cca0	-0.6515598
27	0xbf2a1b62	-0.6644803
28	0x3ea026f3	0.31279716
29	0x3e8ff8dd	0.28119555
30	0x3efc04ec	0.49222505
31	0xbf242f30	-0.641345
32	0xbf266001	-0.6499024
33	0x3f2cba19	0.6747146
34	0xbf221217	-0.6330885
35	0x3ea1406c	0.31494462
36	0x3e99fc93	0.3007551
37	0x3ea6b8a4	0.32562745
38	0x3eb21bd3	0.34786853
39	0xbef7263c	-0.48271358
40	0x3eae6f1b	0.34069142
41	0x3f3b324b	0.73123616
42	0xbeb2ee33	-0.34947357
43	0xbea38bf6	-0.3194272
44	0x3ebf09a2	0.37312037
45	0xbeb5c158	-0.35499072
46	0xbeb84cc8	-0.3599608
47	0xbe9d005d	-0.3066434
48	0x3eb5e7d5	0.35528436
49	0xbf253908	-0.6454015
50	0x3e8ef85e	0.27923864
51	0xbead2b5b	-0.3382214
52	0xbf1ed16c	-0.620383
53	0xbefce684	-0.4939462
54	0x3e913b3c	0.28365505
55	0xbe9703f4	-0.29495203
56	0x3e928911	0.28620198
57	0xbed1911a	-0.40931016
58	0x3f26c7f8	0.6514888
59	0x3f3595d9	0.70931774
60	0x3e8f7f44	0.28026783
61	0x3eab08de	0.33405203
62	0x3f2bb8f3	0.67079085
63	0xbeb550f6	-0.3541333
64	0x3e04391f	0.12912415
65	0xbdcb6974	-0.09932223
66	0xbde76004	-0.112976104
67	0x3df7002f	0.12060582
68	0xbdde06ba	-0.10841127
69	0x3e08a93e	0.13345811
70	0xbe273e53	-0.16332369
71	0xbe02bba1	-0.12766887
72	0xbdbbd099	-0.09170646
73	0xbe234b51	-0.159467
74	0xbe0b1a91	-0.13584353
75	0x3dd977f8	0.10618585
76	0x3e055237	0.13019644
77	0x3de1ce28	0.11025649
78	0x3e180b2b	0.1484801
79	0x3e2ae87b	0.16690247
80	0x3def7ebd	0.11694095
81	0xbdff96f2	-0.124799624
82	0xbd9515e2	-0.072795644
83	0x3da33bd8	0.07970399
84	0xbdf72e06	-0.12069325
85	0xbdfe3e38	-0.12414211
86	0x3e0772d0	0.13227391
87	0xbe270c74	-0.16313344
88	0x3e22a343	0.15882592
89	0xbdefded9	-0.11712427
90	0xbdbc55a5	-0.09196023
91	0xbde8a942	-0.11360408
92	0xbde689aa	-0.11256726
93	0xbde03819	-0.109482
94	0xbe19786d	-0.14987345
95	0xbe15a008	-0.14611828
96	0xbdac8025	-0.08422879
97	0x3e1bb4a0	0.15205622
98	0xbdd98072	-0.10620202
99	0xbdf9d0f1	-0.121980555
100	0xbde7d9cd	-0.11320839
101	0xbdf679ce	-0.12034951
102	0xbe04a973	-0.12955265
103	0x3e1b4698	0.15163648
104	0xbe430aa7	-0.19047032
105	0x3e07ef76	0.13274941
106	0x3dcdd7fa	0.1005096
107	0x3de80295	0.113286175
108	0xbe3e037d	-0.18556018
109	0x3e093f33	0.13403015
110	0x3e338707	0.17531978
111	0x3dfd6600	0.123729706
112	0xbe3c2e55	-0.1837705
113	0xbdb1c0b0	-0.0867933
114	0xbe00d19e	-0.12579963
115	0x3df0ebdc	0.117637366
116	0xbdaacc28	-0.08339721
117	0x3e27cafa	0.16386023
118	0xbdeca21e	-0.11554359
119	0x3e05f690	0.13082337
120	0xbdebeae3	-0.115194105
121	0x3de14988	0.11000353
122	0x3d818c1b	0.06325551
123	0x3dc2dd6a	0.09514888
124	0xbe009cf0	-0.12559867
125	0xbdf533cd	-0.11972771
126	0x3d7e8d1c	0.06214629
127	0x3e05fadd	0.13083978
128	0xbe05dc44	-0.13072306
129	0xbe101552	-0.14070633
130	0x3e052aac	0.1300456
131	0xbe0ab03f	-0.13543795
132	0x3e18c28d	0.14917965
133	0xbe013808	-0.1261903
134	0xbe2aa43f	-0.16664217
135	0x3e334b99	0.17509307
136	0xbde3a50d	-0.11115465
137	0x3e023ffe	0.12719724
138	0x3e0edec8	0.13952172
139	0xbe18d99a	-0.14926758
140	0xbe3c6027	-0.18396054
141	0xbe2375b0	-0.15962863
142	0x3dff8011	0.124755986
143	0xbdf529eb	-0.11970886
144	0xbe0d016e	-0.13770077
145	0x3e268b79	0.16264142
146	0xbe010aa2	-0.12601712
147	0x3e1e7ef1	0.15478112
148	0x3e1a20c1	0.15051557
149	0xbda9ef32	-0.08297576
150	0xbe2e8649	-0.17043413
151	0x3e49b335	0.19697268
152	0xbdd6fc03	-0.10497286
153	0x3e19ca21	0.15018512
154	0xbe0d9015	-0.13824494
155	0xbda61733	-0.08109894
156	0x3e2548f8	0.16141117
157	0x3e17561b	0.1477894
158	0x3df1479f	0.11781239
159	0xbe14d834	-0.145356
160	0xbe074eaf	-0.13213609
161	0x3e0ecb4b	0.13944738
162	0xbdc6457e	-0.09681223
163	0x3e2a88f2	0.16653803
164	0x3e31b6e8	0.1735493
165	0x3e11d69f	0.14242028
166	0x3e300a98	0.17191541
167	0xbddeed5c	-0.108851165
168	0x3e3e6bfc	0.1859588
169	0x3e078fda	0.13238469
170	0xbe2c7dcb	-0.16844861
171	0xbe177424	-0.14790398
172	0x3e36cb52	0.17850998
173	0xbe0a5e13	-0.13512449
174	0xbe382e45	-0.179864
175	0xbe0ab2c2	-0.13544753
176	0x3e303d32	0.17210844
177	0xbde9a167	-0.11407738
178	0x3e1bf57c	0.15230364
179	0xbe07ec77	-0.13273798
180	0xbe06e6a8	-0.13173926
181	0xbdfd621c	-0.123722285
182	0x3e0d5d1d	0.13805051
183	0xbe345507	-0.1761056
184	0x3e143770	0.14474273
185	0xbe4057df	-0.1878352
186	0x3dd284c1	0.10279227
187	0x3dc0166e	0.09379278
188	0x3e1ae8b0	0.15127826
189	0x3e25b7df	0.16183423
190	0x3e0434dd	0.1291079
191	0xbe107d4c	-0.14110297
192	0xbe06cf31	-0.13164975
193	0x3dd1b508	0.10239607
194	0x3e0b166e	0.13582775
195	0xbe0d1e61	-0.1378112
196	0x3dff739b	0.12473222
197	0xbded2e2d	-0.11581073
198	0x3e1fd28c	0.15607661
199	0x3e0b4f31	0.13604428
200	0x3dcfb257	0.101414375
201	0x3e30c6ed	0.17263384
202	0x3ddcd88e	0.10783492
203	0xbded637c	-0.11591241
204	0xbe0a8f4c	-0.13531226
205	0xbe0dc264	-0.13843685
206	0xbe0c324b	-0.1369106
207	0xbe37075e	-0.17873904
208	0xbe037d72	-0.12840822
209	0x3de50245	0.111820735
210	0x3dc313fa	0.095252946
211	0xbddf8d43	-0.109156154
212	0x3e085d0e	0.13316748
213	0x3e040b64	0.1289497
214	0xbe05dd00	-0.13072586
215	0x3e3d418a	0.18482032
216	0xbe2bccd5	-0.16777356
217	0x3dfa61d6	0.12225692
218	0x3ddb3c98	0.10704917
219	0x3e0bbc84	0.13646132
220	0x3e0c37a1	0.13693096
221	0x3de313c5	0.11087755
222	0x3e221e19	0.15831794
223	0x3e37e4e7	0.17958413
224	0x3dd5d355	0.10440699
225	0xbe2f8d1e	-0.17143676
226	0x3e0c55d4	0.13704616
227	0x3e0aa1e7	0.13538323
228	0x3df3635e	0.11884187
229	0x3dd1698f	0.10225212
230	0x3def8ea2	0.11697127
231	0xbe23e0ff	-0.16003798
232	0x3e1fa4c8	0.15590203
233	0xbe0c7945	-0.13718136
234	0xbe003e49	-0.1252376
235	0xbddbff7a	-0.10742088
236	0x3e216923	0.15762763
237	0xbde4e479	-0.1117639
238	0xbe387c82	-0.18016246
239	0xbdea87e0	-0.11451697
240	0x3e366871	0.17813279
241	0x3df994cc	0.12186584
242	0x3de40a3d	0.11134765
243	0xbdd12469	-0.10212023
244	0x3dea0ebe	0.11428593
245	0xbe2f9fce	-0.17150804
246	0x3df547d0	0.11976588
247	0xbe004109	-0.12524809
248	0x3dff19ff	0.1245613
249	0xbddf77b6	-0.10911505
250	0xbdd22012	-0.10260023
251	0xbdc527d6	-0.09626739
252	0x3e0df6a9	0.13863625
253	0x3dd81d8b	0.1055251
254	0xbdc80f0f	-0.09768497
255	0xbe09f357	-0.13471733

encoder.dcrnn_cells.0.update.bias_pool f4 [2, 64]
0	0xbe9a5240	-0.30140877
1	0xbe4ccd6d	-0.20000239
2	0x3eeb114d	0.45911637
3	0xbee675ab	-0.4501165
4	0x3e85a4bc	0.26102245
5	0xbeb052e6	-0.34438246
6	0xbc4c64c1	-0.0124751935
7	0x3e7a5c48	0.24449265
8	0xbec4c2db	-0.38429913
9	0x3ea2ca52	0.31794983
10	0x3ee5c828	0.4487927
11	0xbe749cbc	-0.23887914
12	0xbe851961	-0.25995925
13	0xbeb26c4a	-0.34848243
14	0xbc919b49	-0.017774241
15	0xbeb0506e	-0.34436363
16	0xbe8742d6	-0.2641818
17	0x3eb0ce39	0.34532335
18	0xbec93e08	-0.3930514
19	0x3e98dfa9	0.2985814
20	0x3e7b2380	0.24525261
21	0xbe8cef86	-0.27526492
22	0xbe1ea617	-0.15493046
23	0x3eca41d1	0.3950334
24	0xbedbff2f	-0.42968127
25	0x3e14937c	0.14509386
26	0xbe130977	-0.1435908
27	0xbea08c1f	-0.31356904
28	0x3e9f8ae9	0.31160668
29	0x3e987fa6	0.29784888
30	0x3ee474a8	0.44620252
31	0xba151c91	-0.00056881557
32	0xbeb482d5	-0.35256067
33	0x3d454ee7	0.04817095
34	0xbebc512a	-0.36780673
35	0x3e7906e6	0.24319038
36	0x3ebe3f30	0.37157583
37	0x3ecfb81b	0.4057015
38	0x3e7c533a	0.24641123
39	0xbea130cd	-0.31482545
40	0x3ede7e1c	0.4345559
41	0xbc94ef4e	-0.018180516
42	0xbe23ee6d	-0.16008921
43	0xbe990392	-0.29885536
44	0x3eae7937	0.34076855
45	0xbe842522	-0.2580958
46	0xbecad370	-0.3961444
47	0xbee815be	-0.45329088
48	0x3eb8e18a	0.36109573
49	0xbeb04fd2	-0.34435898
50	0x3e36c264	0.17847592
51	0xbe279af7	-0.16367708
52	0xbebde1b0	-0.37086248
53	0xbee43dd2	-0.44578415
54	0x3e8c03a3	0.27346525
55	0xbe97bbe2	-0.2963553
56	0x3e9cb8eb	0.3060983
57	0xbe292401	-0.1651764
58	0x3e9df7bc	0.3085307
59	0x3e37777c	0.17916673
60	0x3ecff68b	0.40617785
61	0x3e43ee0b	0.19133775
62	0x3e97f1e2	0.2967673
63	0xbec90255	-0.39259592
64	0xbece864e	-0.4033684
65	0x3eddb95d	0.43305483
66	0x3e448f21	0.19195224
67	0xbec4a131	-0.3840423
68	0x3eb6e9a1	0.3572512
69	0xbe8175a0	-0.25285053
70	0x3eced3e5	0.40396038
71	0x3e5e2dfa	0.21697226
72	0x3ead1911	0.33808187
73	0xbcab1eb5	-0.020888666
74	0x3ed68ef3	0.41905937
75	0xbee32241	-0.4436207
76	0xbe4ff36f	-0.20307706
77	0xbe9dbc04	-0.30807507
78	0xbec9d81e	-0.39422697
79	0xbb21d864	-0.002469563
80	0xbebe2acc	-0.37142026
81	0x3ed888be	0.42291826
82	0x3ecabd20	0.39597416
83	0xbeca3304	-0.39492047
84	0x3edbaade	0.429038
85	0x3e709e72	0.23497942
86	0xbea9eb62	-0.33187395
87	0xbe342e73	-0.17595844
88	0x3b59d348	0.0033237506
89	0x3ee43fe1	0.44579986
90	0x3edc7f3c	0.43065822
91	0x3e8655dc	0.2623738
92	0x3e689610	0.22713494
93	0x3eaab85b	0.33343777
94	0x3bc6345c	0.006048722
95	0x3e8cd2d6	0.27504605
96	0x3eb15e13	0.34642085
97	0xbea6c438	-0.32571578
98	0x3eab4b55	0.3345591
99	0x3e874045	0.2641622
100	0x3e3b93b0	0.18318057
101	0x3e3243bd	0.17408653
102	0x3e634f69	0.22198261
103	0xbce7c054	-0.028289951
104	0xbe4a9b1a	-0.19785729
105	0xbeb9dda8	-0.36301923
106	0xbe1d69c7	-0.15372382
107	0xbeaaaea0	-0.33336353
108	0xbdc05522	-0.09391238
109	0xbe79951c	-0.24373287
110	0x3e095ee4	0.13415104
111	0xbecf097b	-0.4043692
112	0xbdbc63b9	-0.09198708
113	0x3ea1ee92	0.31627327
114	0x3edff3ec	0.43740785
115	0xbe57e999	-0.21085204
116	0x3ed1ead1	0.40999463
117	0x3c880969	0.01660605
118	0x3eadd859	0.33954123
119	0xbe80e4ad	-0.25174466
120	0x3e97ce88	0.29649758
121	0xbe1c20f8	-0.15246952
122	0xbe90f7a7	-0.28313944
123	0xbe2944c6	-0.16530141
124	0x3edd851e	0.43265623
125	0x3e3b1144	0.18268305
126	0xbe819666	-0.25310057
127	0xbe8ed722	-0.27898508

encoder.dcrnn_cells.1.gate.weights_pool f4 [2, 2, 128, 128]
0	0x3e82b39b	0.25527653
1	0xbdeeee29	-0.11666519
2	0x3d8bc9cd	0.068256
3	0xbddc65c0	-0.10761595
4	0xbdbe85bc	-0.093028516
5	0xbde21809	-0.110397406
6	0xbd9d4838	-0.0767979
7	0xbe23f058	-0.16009653
8	0xbdbb97ce	-0.09159814
9	0xbe01483a	-0.12625208
10	0xbdf31cbe	-0.118707165
11	0x3d2034e1	0.03911293
12	0x3c4e63a6	0.012597
13	0xbd94fb60	-0.072745085
14	0x3d5e8d7c	0.05433415
15	0xbde6a8ac	-0.1126264
16	0xbddf2670	-0.10896003
17	0xbdf0bf13	-0.117551945
18	0xbe83e951	-0.25763944
19	0xbd38bff1	-0.045104925
20	0xbdd61153	-0.10452523
21	0xbe148e4d	-0.14507408
22	0xbdd0819a	-0.101809695
23	0xbe004abd	-0.1252851
24	0xbd5e51e4	-0.054277316
25	0xbd8a0299	-0.06738777
26	0xbdd61e3b	-0.10454985
27	0x3e4d86a0	0.20070887
28	0xbd92b463	-0.07163312
29	0xbea47031	-0.32116845
30	0x3e311d80	0.1729641
31	0xbd983e8f	-0.07433807
32	0xbdf601f2	-0.1201209
33	0xbd5d7f62	-0.05407656
34	0xbdf11eb5	-0.11773435
35	0x3d86cc20	0.065819025
36	0xbe19adb5	-0.1500767
37	0x3c55be6a	0.0130458865
38	0xbd71c900	-0.05902958
39	0x3e4e4cc0	0.20146465
40	0xbde610cd	-0.11233673
41	0xbd729fa8	-0.05923429
42	0x3d5ccbaa	0.053905167
43	0xbe042c9e	-0.12907645
44	0xbde513d8	-0.111854255
45	0x3d79fe67	0.061033633
46	0xbdebbb8e	-0.115103826
47	0xbe0c087a	-0.13675109
48	0xbe24888f	-0.16067718
49	0x3e01b354	0.12666065
50	0xbdaa0303	-0.08301356
51	0xbdf2ea99	-0.11861152
52	0x3e81f600	0.25382996
53	0xbdda6ab3	-0.106648825
54	0xbdebb8dd	-0.11509869
55	0xbdc853b7	-0.09781592
56	0xbc7d3c1c	-0.015456226
57	0x3d4cfcb3	0.05004568
58	0xbd3de9cd	-0.046365548
59	0x3e2d7696	0.16939768
60	0xbdab79cc	-0.0837284
61	0xbdf37ef2	-0.11889447
62	0x3e845a7a	0.25850278
63	0x3e89414b	0.26807627
64	0x3e20c60c	0.15700549
65	0x3e25dc3e	0.16197297
66	0xbb35c43d	-0.0027735375
67	0x3e28f12a	0.16498247
68	0x3e232882	0.15933421
69	0x3e25f20a	0.16205612
70	0x3e2a154d	0.16609688
71	0x3e31b6b5	0.17354853
72	0x3e18c12c	0.14917439
73	0x3e2b0633	0.16701584
74	0x3e32253b	0.17397015
75	0x3e3f741a	0.18696633
76	0x3e2762dd	0.16346307
77	0x3e3cbbb0	0.18430972
78	0x3e3775b0	0.17915988
79	0x3e31bf0c	0.17358035
80	0x3e2dc816	0.16970858
81	0x3e274759	0.1633581
82	0x3dbcef7e	0.09225367
83	0x3e328931	0.17435147
84	0x3e2a86aa	0.16652933
85	0x3d9fe196	0.07806699
86	0x3e3293de	0.1743922
87	0x3e33cf40	0.17559528
88	0x3e432c42	0.19059852
89	0x3e2e2a12	0.17008236
90	0x3e1e5421	0.1546178
91	0x3e313912	0.17306927
92	0x3e3c50cb	0.18390195
93	0x3dbbe500	0.09174538
94	0x3e3fa7ed	0.18716402
95	0x3e3c9ab5	0.18418391
96	0x3e2a1b9d	0.16612096
97	0x3e3c0f74	0.1836527
98	0x3e2a204e	0.16613886
99	0x3e431df7	0.190544
100	0x3e262ef8	0.16228855
101	0x3e38dd54	0.1805318
102	0x3e2b3031	0.16717602
103	0x3e38a638	0.18032157
104	0x3e2f54ee	0.17122242
105	0x3e38d385	0.18049438
106	0x3e3b9561	0.18318702
107	0x3e2de701	0.16982652
108	0x3e21c8db	0.15799277
109	0x3e323167	0.17401658
110	0x3e268597	0.16261898
111	0x3d9bba22	0.076038614
112	0x3d15f28b	0.03660826
113	0x3e302ba4	0.17204148
114	0x3e2db74c	0.16964453
115	0x3e2126ba	0.1573743
116	0x3e28a469	0.16468967
117	0x3e249855	0.16073735
118	0x3e321d47	0.17393981
119	0x3e34ac83	0.17643933
120	0x3e32335e	0.17402408
121	0x3e32c1b6	0.17456707
122	0x3e284958	0.16434228
123	0x3e27267b	0.16323273
124	0x3e21bdb5	0.15795024
125	0x3e2646f6	0.16238007
126	0x3e27e9e3	0.16397814
127	0x3e06b31f	0.13154267
128	0xbe949384	-0.29018795
129	0xbde04175	-0.10949985
130	0xbd230791	-0.039802138
131	0xbd2ab259	-0.04167399
132	0xbd1724af	-0.03690022
133	0xbda64d41	-0.08120204
134	0xbcf5ad0b	-0.02998974
135	0xbdf25e32	-0.118343726
136	0xbe351e74	-0.17687398
137	0xbd84e473	-0.06488886
138	0xbd25b750	-0.040458024
139	0xbc370678	-0.011170976
140	0xbdc7435e	-0.09729646
141	0xbdc27f15	-0.09496895
142	0xb97853d8	-0.00023682357
143	0xbd90f031	-0.07077063
144	0xbd7ac6d3	-0.06122477
145	0xbd31fa11	-0.043451373
146	0xbe46c7bc	-0.1941213
147	0xbdd60de2	-0.10451867
148	0xbd8b2335	-0.067938246
149	0xbdfcd909	-0.12346084
150	0xbd487c36	-0.04894658
151	0xbd988104	-0.07446483
152	0xbe082e9a	-0.13299027
153	0x3c2eb3f0	0.010663018
154	0xbe44bc07	-0.19212352
155	0x3e182c0b	0.14860551
156	0xbb1b4ef1	-0.0023698176
157	0xbdef514a	-0.116854265
158	0x3dd3ac09	0.103355475
159	0x3a9ae6b3	0.0011818021
160	0xbd8ded70	-0.06930053
161	0xbde7f995	-0.11326901
162	0xbdd2abdc	-0.10286686
163	0x3d6a2de5	0.057172675
164	0xbdcfc5ed	-0.10145173
165	0x3d42968a	0.047506846
166	0x3c626a6e	0.01381932
167	0xbe1f641c	-0.15565532
168	0xbd54ce3e	-0.0519545
169	0xbe0ae953	-0.13565569
170	0x3d2a8ead	0.041639972
171	0xbdabf957	-0.08397167
172	0xbd9680e9	-0.073488064
173	0xbcbcb031	-0.023033233
174	0xbd6f2ce2	-0.058392413
175	0xbe010b85	-0.1260205
176	0xbdd7519d	-0.105136134
177	0x3d0fcc33	0.03510685
178	0xba2f8cc9	-0.0006696699
179	0xbd88266a	-0.06647952
180	0xbe8de73b	-0.27715477
181	0xbd3dfc13	-0.046382975
182	0xbd9452c9	-0.072423525
183	0xbca966cd	-0.020678902
184	0x3dc76db6	0.097377226
185	0x3db4e57d	0.08832834
186	0x3c412c74	0.011790384
187	0x3dec0ee8	0.11526281
188	0xbcae0cef	-0.021246402
189	0xbd4fb496	-0.05070933
190	0xbea44201	-0.32081607
191	0xbeacbd5b	-0.33738217
192	0x3e0b5898	0.13608015
193	0x3e2c6aca	0.16837612
194	0xbd797894	-0.060906008
195	0x3e2f2082	0.17102244
196	0x3e186ee1	0.14886047
197	0x3e1a1d51	0.15050246
198	0x3e471826	0.19442806
199	0x3e0dc909	0.1384622
200	0x3def0693	0.11671176
201	0x3e2953fc	0.16535944
202	0x3e22f50d	0.15913792
203	0x3dfea9c9	0.12434728
204	0x3e02384c	0.12716788
205	0x3e43f00f	0.19134544
206	0x3e11e50e	0.14247534
207	0x3e223cca	0.15843502
208	0x3e1b9bab	0.15196101
209	0x3e278ef5	0.16363128
210	0x3e04381e	0.12912032
211	0x3e004df1	0.12529732
212	0x3e2ae3fa	0.16688529
213	0x3c9bbc14	0.019010581
214	0x3e21568f	0.15755676
215	0x3e2a5c7e	0.16636845
216	0x3e06c4af	0.13160966
217	0x3e3d9ab8	0.18516052
218	0x3df64912	0.12025656
219	0x3e120fef	0.1426389
220	0x3e37f737	0.17965399
221	0x3de1a6e7	0.11018162
222	0x3e23424d	0.1594326
223	0x3e313ca4	0.17308289
224	0x3e2441aa	0.16040674
225	0x3df57405	0.119850196
226	0x3e327f5a	0.17431393
227	0x3e062e49	0.13103594
228	0x3da2e602	0.07954027
229	0x3e0326ad	0.12807722
230	0x3e3263bd	0.1742086
231	0x3df7ee72	0.12106027
232	0x3e2f565b	0.17122786
233	0x3e0e6086	0.13904008
234	0x3e0d911a	0.13824883
235	0x3e3424ee	0.17592213
236	0x3e27356a	0.1632897
237	0x3e094d88	0.13408482
238	0x3e23f860	0.16012716
239	0x3ce49e75	0.02790759
240	0xbe4e5df3	-0.20153026
241	0x3deffb2d	0.1171783
242	0x3e3ac06d	0.18237467
243	0x3e24b966	0.16086349
244	0x3e1186f2	0.14211634
245	0x3e2504b4	0.16115075
246	0x3e286079	0.16443051
247	0x3e28df99	0.16491546
248	0x3e162345	0.14661892
249	0x3e186f9b	0.14886324
250	0x3e3437f8	0.17599475
251	0x3e10ee52	0.14153412
252	0x3e2698cc	0.16269225
253	0x3e26b265	0.1627899
254	0x3e11c782	0.14236262
255	0x3df1e2a0	0.118108034

encoder.dcrnn_cells.1.gate.bias_pool f4 [2, 128]
0	0xbea2faa0	-0.31831837
1	0x3e077cf0	0.13231254
2	0x3d3d1166	0.04615917
3	0x3e86415e	0.26221746
4	0x3ddbfeb9	0.10741944
5	0x3e56b9fc	0.20969385
6	0x3e9b667c	0.30351627
7	0x3e5ce573	0.21571903
8	0x3de9e7e5	0.114211835
9	0xbdea35c4	-0.11436036
10	0x3e020bc3	0.12699799
11	0xbdbc7df1	-0.09203709
12	0x3e2c8fb9	0.16851701
13	0xbb068751	-0.0020527432
14	0xbe3c97ee	-0.18417332
15	0x3e25ec33	0.16203384
16	0x3e3b4911	0.18289591
17	0x3dda693a	0.106646016
18	0xbdb2b179	-0.087252565
19	0x3da8913b	0.082308255
20	0x3e7e7d52	0.24852493
21	0x3e815d8b	0.2526668
22	0x3de7eea9	0.11324818
23	0x3c3ae8c8	0.011408038
24	0xbdbdc5a8	-0.092662156
25	0x3e995ac6	0.29952067
26	0x3daa962f	0.083294265
27	0xbd28767f	-0.04112863
28	0x3d898fca	0.06716879
29	0xbe68fd68	-0.22752917
30	0x3d74b841	0.05974603
31	0x3d65d00a	0.056106605
32	0x3ddae582	0.106883064
33	0x3e07f144	0.1327563
34	0x3e6bdb40	0.23032856
35	0xbda919a5	-0.082568444
36	0x3c8592aa	0.016305286
37	0x3e35a19b	0.17737429
38	0x3d9d8531	0.0769142
39	0x3b6092ec	0.003426726
40	0x3a8f67fb	0.0010941023
41	0xbe228060	-0.15869284
42	0x3e361fc5	0.17785557
43	0x3e49bba4	0.19700485
44	0x3daa51ef	0.08316409
45	0xbd19cb92	-0.037547655
46	0x3e7ea826	0.24868831
47	0xbe016b25	-0.12638529
48	0x3dda9764	0.10673407
49	0xbe40e462	-0.18837121
50	0x3e367a4c	0.1782009
51	0xbc8db6cd	-0.01729908
52	0xbd966dec	-0.07345185
53	0x3e5f4573	0.21803837
54	0x3d760416	0.06006249
55	0x3c7295b5	0.014806201
56	0xbdecbf09	-0.115598746
57	0x3e751a4b	0.23935811
58	0xbcc93d19	-0.024565266
59	0xbe0beefa	-0.13665381
60	0xbd5ef304	-0.054430977
61	0xbca77dcc	-0.020445727
62	0xbdb0794f	-0.08616888
63	0xbd70089a	-0.058601953
64	0xbde6c4f9	-0.11268038
65	0xbe903409	-0.281647
66	0x3b6e4561	0.003635727
67	0xbdb4e2f9	-0.08832354
68	0xbd7e5421	-0.06209195
69	0x3da58b7a	0.08083244
70	0x3d9baf83	0.076018356
71	0xbe19f077	-0.15033136
72	0x3c665fa4	0.014060888
73	0xbe100d86	-0.14067659
74	0xbea0f396	-0.3143584
75	0xbcec2118	-0.028824374
76	0xbe208da1	-0.15679027
77	0xbccb46e9	-0.024814086
78	0x3dda752f	0.10666882
79	0xbe1c125e	-0.15241382
80	0xbe1da544	-0.15395075
81	0xbdb1dcd8	-0.08684701
82	0x3d70c121	0.058777932
83	0xbba5910e	-0.0050526923
84	0xbe547826	-0.20748958
85	0x3cdbf763	0.026851362
86	0xbe417fde	-0.18896434
87	0xbca19f0e	-0.019729163
88	0xbe454f7f	-0.19268607
89	0xbe6b668e	-0.2298834
90	0x3e1a55e0	0.15071821
91	0xbd11e417	-0.035617914
92	0x3c9599cd	0.018261814
93	0x3e2ac1b1	0.1667545
94	0x3d4f760a	0.05064968
95	0x3d465a60	0.048426032
96	0x3ddb9943	0.10722592
97	0xbd26ba84	-0.04070522
98	0xbdb0e73b	-0.08637854
99	0xbe1d1e1b	-0.15343516
100	0xbe976fce	-0.29577488
101	0xbd9f63bd	-0.077826954
102	0x3d9cfcb5	0.076653875
103	0xbcf7c939	-0.030247318
104	0x3d98fb64	0.07469824
105	0xbc59871c	-0.0132768415
106	0xbe5c4488	-0.21510518
107	0xbe69a6de	-0.22817561
108	0x3d6f4341	0.058413748
109	0x3dcab264	0.098973066
110	0xbe2a3951	-0.16623427
111	0xbce2d9b2	-0.027691696
112	0xbb336b4d	-0.0027377189
113	0x3dc2b240	0.09506655
114	0xbd92be93	-0.071652554
115	0xbe4e92a5	-0.20173128
116	0xbd5f3bc5	-0.05450036
117	0x3d0d5ab1	0.03451032
118	0xbddbfe0f	-0.10741817
119	0xbe0fe7b6	-0.14053234
120	0x3d210878	0.039314717
121	0xbd355b16	-0.04427632
122	0xbe3edd4b	-0.18639104
123	0xbe24894e	-0.16068003
124	0xbe144a47	-0.1448146
125	0xbe806ed5	-0.25084558
126	0x3e0f9a72	0.1402376
127	0xbe1b8362	-0.15186837
128	0x3d33a27c	0.04385613
129	0x3e8831d5	0.2660052
130	0xbde00d7e	-0.109400734
131	0x3c5b7f29	0.013397017
132	0xbdf035ac	-0.11728987
133	0x3c693a73	0.014235127
134	0x3d14ba42	0.03631044
135	0x3ded0b96	0.115744755
136	0x3da53087	0.080658965
137	0x3e84daf0	0.25948286
138	0xbb8b4b74	-0.004250938
139	0x3e69e44b	0.22840993
140	0xbd5038ef	-0.050835546
141	0x3cf5cf71	0.030006142
142	0x3da4ff09	0.080564566
143	0x3dca0828	0.09864837
144	0xbc69576c	-0.014242034
145	0xbd851942	-0.06498958
146	0x3dc3efeb	0.09567245
147	0x3e93eabc	0.28890026
148	0x3e746134	0.23865205
149	0xbd862524	-0.06550053
150	0xbd812557	-0.0630595
151	0x3c7b24b5	0.015328576
152	0x3e2f6473	0.17128162
153	0x3d870dd8	0.06594437
154	0x3ddbcb9f	0.10732197
155	0xbe8c3d11	-0.2739034
156	0x3e18bf32	0.14916685
157	0xbe30e37d	-0.1727428
158	0xbd914bc7	-0.070945315
159	0x3e0c4597	0.13698421
160	0x3e526326	0.20545635
161	0x3e88e866	0.26739806
162	0x3e510d2c	0.20415181
163	0x3e881011	0.26574758
164	0x3d8061b1	0.06268633
165	0x3df91e9a	0.1216404
166	0xbbeeb177	-0.007284339
167	0x3e4dde5a	0.20104352
168	0x3e118ea4	0.1421457
169	0xbd0125ac	-0.031530067
170	0x3ea0f8c6	0.314398
171	0x3dc664f7	0.09687226
172	0x3cfe9a2a	0.03107937
173	0x3e89fbfe	0.26950067
174	0x3dd3813f	0.10327386
175	0x3e664b19	0.22489585
176	0xbd904e02	-0.07046129
177	0x3dcdae49	0.10043008
178	0xbdaf4625	-0.08558301
179	0x3df08e14	0.11745849
180	0x3df5310e	0.11972247
181	0x3d4d63b5	0.050143916
182	0xbbe29f7e	-0.0069159856
183	0x3e17a6cc	0.14809722
184	0x3e488e86	0.19585618
185	0x3e8dfa92	0.27730232
186	0x3e3d5e01	0.18492891
187	0xbe0c3e85	-0.13695724
188	0x3e834862	0.2564116
189	0x3e213c2a	0.15745607
190	0x3e3d89f1	0.18509652
191	0x3e5d191b	0.21591608
192	0xbe82add4	-0.25523245
193	0x3dea0a0b	0.11427697
194	0xbca89fd4	-0.020584024
195	0xbe3eea9c	-0.18644184
196	0x3d817ad3	0.06322255
197	0x3c9bdc6a	0.019026
198	0xbcdbb855	-0.026821295
199	0x3cb050be	0.021522876
200	0xbe17d2fc	-0.14826578
201	0xbe1e1950	-0.15439343
202	0xbe9ad9b5	-0.30244222
203	0xbe8cac81	-0.2747536
204	0xbe87c01c	-0.26513755
205	0xbe68e896	-0.22744974
206	0x3dac01be	0.0839877
207	0x3c960c09	0.018316286
208	0xbe3ad5f7	-0.18245684
209	0xbe2b15b6	-0.16707501
210	0xbe1f08d2	-0.15530708
211	0x3de07a3d	0.10960815
212	0xbe3f8159	-0.18701686
213	0x3d8720f1	0.0659808
214	0x3db054a1	0.08609892
215	0x3b964ef5	0.004587049
216	0xbe7d20b2	-0.24719504
217	0x3d9ff34c	0.07810077
218	0x3cba693a	0.022755254
219	0x3da622a5	0.08112077
220	0xbccada36	-0.024762254
221	0x3d39e820	0.045387387
222	0xbe2343a3	-0.1594377
223	0x3d32fe2c	0.04369943
224	0xbdd80ec0	-0.10549688
225	0xbdf3ced5	-0.119046845
226	0xbe20b374	-0.15693456
227	0xbe42a747	-0.19009124
228	0x3dd359d2	0.10319866
229	0xbe17e02f	-0.14831613
230	0x3d770972	0.060311742
231	0xbe2d4fdf	-0.16925
232	0xbe530f7a	-0.20611373
233	0x3dc81b5b	0.09770843
234	0x3ca26011	0.019821199
235	0xbe73dd8a	-0.23814979
236	0xbd58bb4c	-0.052912995
237	0xbe249647	-0.16072951
238	0xbe253b03	-0.16135792
239	0xbd73efbb	-0.059554797
240	0xbf021fca	-0.50829756
241	0xbe3243dd	-0.174087
242	0x3b470732	0.003036928
243	0x3c452355	0.01203235
244	0xbd87eae6	-0.066366
245	0xbe86674a	-0.26250678
246	0x3d0b32d6	0.033984028
247	0xbe84078c	-0.25787008
248	0xbdbcc89e	-0.09217952
249	0xbda9c86f	-0.08290183
250	0xbdc57863	-0.096421026
251	0xbd96e7a5	-0.073684014
252	0x3da4f9e2	0.08055474
253	0xbe8cc438	-0.27493453
254	0xbd0a8158	-0.033814758
255	0xbe62488b	-0.22097985
