CQ/result/P7_Resullt/HOURS/data9/2/best_model.pth (torch_old, 603202 bytes, 11 tensors)

node_embeddings f4 [228, 2]
000000 fe 0d 19 3e a9 98 88 3d 32 4a 96 3e 94 79 86 3e
       0.14946744 0.066697426 0.29353482 0.26264632
000010 95 b7 fb 3d 63 d5 98 3d b9 2e 39 be 79 1c 80 3e
       0.12290875 0.07462575 -0.1808423 0.25021723
000020 91 8e 92 3e 45 e3 4f 3e 4a f8 88 3e 6c 49 17 3d
       0.28624395 0.2030154 0.2675193 0.036935255
000030 7f b5 26 3e 51 77 d7 3d 86 a9 0e 3e 1a fb 8f 3e
       0.16280173 0.10520805 0.13931856 0.28121263
000040 cd f1 ae be b0 79 cf 3c 8a 3b 4b be 06 ef 77 3e
       -0.34168854 0.02532658 -0.19846931 0.24212274
000050 ec 48 95 3e 79 15 2c 3e e9 b8 96 3e d5 38 80 3e
       0.29157197 0.16805066 0.2943795 0.2504336
000060 a6 46 0f bd e7 f5 48 3e ad 08 88 3e 3c 2c 0c 3e
       -0.034979485 0.19625054 0.2656912 0.13688749
000070 40 30 18 3e 46 a4 11 3e c7 f8 2e be 36 33 1d 3e
       0.14862156 0.14222822 -0.17087089 0.15351567
000080 81 c6 4c 3b 40 4c 9a 3e 2b da 51 3e 1e d1 90 3e
       0.0031246247 0.301363 0.2049338 0.28284544
000090 24 a2 2f 3e c6 0c 74 3d e8 3d 02 3e 9c 24 7e 3e
       0.17151695 0.059582494 0.12718928 0.24818653
0000a0 43 c5 48 be 04 03 25 3e e9 21 20 3e 4a c4 fc 3d
       -0.196065 0.16114432 0.15637936 0.12342127
0000b0 05 f1 80 3e a5 43 24 3e c4 86 92 3e 6e 00 e0 3d
       0.25183883 0.1604143 0.28618443 0.10937582
0000c0 b6 fc 6d 3e 6a 18 4b 3d c8 4a af 3d c6 19 24 3e
       0.23240933 0.04958383 0.08559185 0.16025457
0000d0 cd c2 eb 3d 00 8d 62 3e 5a 5e e8 3d 96 85 3c 3e
       0.11511765 0.221241 0.11346121 0.18410334
0000e0 b9 aa 19 3d 24 05 4d 3e 15 1b 78 bc 5a 2c 1b 3d
       0.03751633 0.20021492 -0.015143176 0.037884094
0000f0 00 fe 3b be 75 26 90 3e 38 b4 43 3e 64 bd 64 3e
       -0.18358612 0.2815434 0.19111717 0.22337872
000100 9e 26 88 3e bd 95 e4 3c 04 57 8e 3e 9d 15 eb 3d
       0.26591963 0.027903432 0.27800763 0.11478732
000110 79 12 af 3d 91 a1 3a bb ba dd a2 3d e6 47 8c 3e
       0.08548445 -0.0028477649 0.07952447 0.27398604
000120 7d b3 9f 3d 68 49 7f 3e 23 56 a7 bd 41 ce 89 3e
       0.077979065 0.24930346 -0.08170726 0.26915172
000130 c5 75 0e 3e c3 a9 6c 3e d8 44 dc bd 3f 89 95 3e
       0.13912113 0.23111634 -0.107553184 0.29206273
000140 ab d0 66 3e e2 99 91 3e 9e 35 1f 3e 73 15 4c 3e
       0.22540538 0.28437716 0.15547797 0.19930057
000150 95 67 06 3e a8 97 5c 3e d4 6a 7f 3e c5 6d 81 3a
       0.13125451 0.21542227 0.24943095 0.0009874633
000160 04 e1 32 3e 8f b7 5d 3e 14 b3 88 3d cd fc 1c 3e
       0.17468649 0.21652053 0.066747814 0.15330811
000170 c8 7e 94 3d 22 a0 8d 3e 09 8b 84 3e f1 aa f1 3c
       0.07250744 0.27661234 0.25887325 0.029500457
000180 30 a7 f4 3d ec bf 15 3e ff 34 4c 3e db 61 96 3d
       0.11945951 0.14623994 0.19942091 0.07342883
000190 bb c4 0e 3e 25 2c e5 3d 09 f0 c7 3d 6a 35 58 3e
       0.13942234 0.111900605 0.0976258 0.21114126
0001a0 68 81 3f 3e fa ed 92 3e 79 48 69 3e 79 29 64 3e
       0.18701708 0.28697187 0.22781552 0.22281446
0001b0 81 4c bc 3d c4 79 36 3e e7 64 3e bd 02 42 95 3e
       0.091942795 0.17819887 -0.046482947 0.29151922
0001c0 35 6e 88 3e 33 96 93 3e 88 d0 84 3e 59 b5 58 3c
       0.2664658 0.2882553 0.25940347 0.01322683
0001d0 54 39 2e 3e c1 a1 c5 3d e7 23 67 3e ad e6 8a 3d
       0.17014056 0.09649993 0.2257229 0.06782279
0001e0 45 99 01 3e ad 70 02 3e 19 67 f8 3d 3a 2d 05 3e
       0.12656124 0.12738295 0.12129039 0.13005534
0001f0 b8 fd 91 3e 04 cf 03 3e 37 11 90 3e 97 2f ba 3d
       0.28513885 0.12871939 0.28138134 0.09091108
000200 d3 57 f6 3d f6 33 fe 3d 67 98 50 3e 21 e6 5b 3d
       0.1202847 0.124122545 0.20370637 0.053686265
000210 e0 62 78 3e 14 e1 38 3e 78 0e 06 3d a2 d7 9d 3e
       0.24256468 0.1805461 0.032728642 0.30828577
000220 74 b4 06 3e 29 79 cf 3d b4 62 8b 3e 05 92 97 3e
       0.13154775 0.10130531 0.27223742 0.29603592
000230 c0 41 99 3e 78 a4 f4 3c ca cb 03 3e 88 1a f6 3d
       0.29932976 0.029863581 0.12870708 0.12016779
000240 44 55 76 3e c8 f2 9d 3d 36 bf 04 3e de a5 e1 3d
       0.24055964 0.077123225 0.12963566 0.11017965
000250 4f e1 98 3e dc bf 8a 3e f5 af 31 3e 75 fc 0b 3e
       0.29859397 0.27099502 0.17352279 0.13670523
000260 35 6a 7a 3d fd 09 84 3e 20 44 51 3e 86 05 6d 3e
       0.061136443 0.2578887 0.20436144 0.23146638
000270 d7 65 97 3e a2 9c ac 3b c1 c6 34 3e 88 37 92 3e
       0.29569885 0.0052676955 0.17653944 0.28557992
000280 8b 62 4a 3e 39 b8 0a 3d 55 fe 87 3e 5f 3e 04 3d
       0.19764154 0.033867095 0.26561227 0.032286044
000290 28 6a 80 3e e9 82 01 3e eb 4f ab 3d 0a 16 0c 3e
       0.2508099 0.12647595 0.083648525 0.13680282
0002a0 11 81 99 3e 85 db 99 3e ed c2 44 3e 61 47 27 3e
       0.29981282 0.30050293 0.19214983 0.16335823
0002b0 00 f0 95 3e bc 56 03 bd 39 8e 87 bd b7 8e 7c 3e
       0.29284668 -0.03206514 -0.06618924 0.24663816
0002c0 04 12 3b 3e 6c 40 7c 3d 6d a1 9a bd 38 e8 30 3e
       0.18268591 0.061584875 -0.07550321 0.17276084
0002d0 95 08 34 be d7 c5 0c 3e 9a 13 a2 3d cd 5a 02 bd
       -0.17581399 0.13747345 0.07913895 -0.031824876
0002e0 dc 06 3f 3e db cf c6 3d 49 04 65 be 37 a0 cb 3d
       0.1865496 0.09707614 -0.22364916 0.09942668
0002f0 b9 0c 67 3e af f9 9c 3d b3 c8 3f 3e 0c fd 5e 3e
       0.22563447 0.07664811 0.18728904 0.21776217
000300 ba e0 35 3e ec 17 d4 3d 1a bc 4f 3e 44 a3 d0 3d
       0.17761508 0.10356125 0.20286599 0.101873904
000310 64 55 84 3e f1 e7 40 3e d9 ab b5 3d 12 cc 8f 3e
       0.25846398 0.18838479 0.08870668 0.2808538
000320 aa 65 0d 3d ac ef 00 3e ca 96 a9 3d 30 40 87 3e
       0.034520783 0.12591428 0.08280714 0.2641616
000330 99 48 f4 3d 96 a4 99 3e af d4 4a 3e 5d 57 06 3e
       0.119279094 0.30008382 0.19807695 0.13119264
000340 22 6c 83 3d a5 7b 66 3e 0d 1e 36 3e cd a0 3f 3e
       0.06417109 0.22508104 0.17784901 0.18713684
000350 ac c0 a1 bc a2 e8 0b 3d a5 18 6f 3d 81 07 80 3e
       -0.019745193 0.034157403 0.058373112 0.25005725
000360 fc 2e 06 3e 02 b8 f5 3d 8b 20 96 3e 35 11 91 3e
       0.1310386 0.11997987 0.29321703 0.2833344
000370 2d e2 7f 3e e6 d1 a5 bc d2 96 74 bd 6e 93 5b 3e
       0.24988623 -0.020241689 -0.059714146 0.21442959
000380 bf 7b d4 bd c4 51 29 3e 90 0e 93 3e d4 09 63 3e
       -0.10375165 0.16535097 0.28722048 0.22171718
000390 2c a6 46 3e 40 a9 cb 3d 16 c4 1d bd 29 b0 4c 3e
       0.19399327 0.09944391 -0.03851708 0.19989075
0003a0 be b5 8d 3e 7e 80 6c 3e 8e ba 90 3e 5f 3c 11 3e
       0.2767772 0.23095891 0.2826733 0.14183186
0003b0 93 a8 91 3e 45 a9 d7 3d e1 bf 94 be 1e 41 35 bd
       0.28448924 0.105303325 -0.29052642 -0.044251554
0003c0 06 f9 84 3e 55 bb 1c 3e 70 e5 3b 3e d2 88 31 3e
       0.2597124 0.15305836 0.18349242 0.17337349
0003d0 d7 5b 77 3e 90 7a 7f 3e 08 47 a2 3c 33 f9 59 3e
       0.24156128 0.24949098 0.019809261 0.21286468
0003e0 7a 85 a0 bc ec ea 24 3e 2a b0 6a be 7e 7e 0b 3e
       -0.019594897 0.1610524 -0.22918764 0.13622472
0003f0 ef 98 7c 3d 78 ca 2f 3e 05 66 48 3e e9 b6 56 3e
       0.061669286 0.1716708 0.19570167 0.20968212

encoder.dcrnn_cells.0.gate.weights_pool f4 [2, 2, 65, 128]
000000 2c b4 fa 3d 16 9e 3c 3d d6 58 b4 3d 3d bd bf 3d
       0.12241396 0.0460492 0.088060066 0.09362266
000010 6b f9 a2 3d ad f4 e4 3d 35 95 d2 3d 7b b9 ab 3d
       0.07957729 0.11179481 0.10282365 0.08384987
000020 4d 7d 26 3d e9 29 d1 3d a1 15 c5 3d a9 fa c7 3d
       0.04064684 0.10213072 0.09623266 0.097646065
000030 91 09 cc 3d 97 9a c4 3d 66 01 ca 3d 3d 00 aa 3d
       0.09962762 0.09599798 0.09863548 0.08300827
000040 d9 0b c8 3d 7d 09 cf 3d 36 2c 52 3d 7b d1 00 3d
       0.09767885 0.101092316 0.051311694 0.031449776
000050 59 38 e5 3d 19 e5 bb 3b d8 1f b9 3d 8e 7e 6d 3d
       0.11192388 0.0057340977 0.09039277 0.05798202
000060 b3 c1 d6 3d 1e ea e7 3d b2 f3 f6 3d c2 2c cd bc
       0.10486164 0.11323951 0.120582 -0.025045756
000070 67 b0 bf 3d 3b d0 a9 3d 31 d9 d5 3d 4a 6a e0 3d
       0.09359818 0.0829167 0.104418166 0.10957773
000080 ec ce a6 3c d3 c7 cb 3d a6 20 58 3d 1d 8d dd 3d
       0.02036234 0.09950223 0.05276551 0.10817931
000090 80 60 ca 3d 6f 53 c1 3d d4 cf f1 3d 6c 8d c7 3d
       0.09881687 0.09439742 0.11807218 0.09743771
0000a0 4a ea d4 3d a8 bc e1 3d fb 6e 8e 3d bf 53 b7 3d
       0.103962496 0.110223114 0.069547616 0.0895152
0000b0 e2 f0 04 3e bb 41 d5 3d c8 52 fd 3d db 24 f1 3d
       0.12982515 0.10412928 0.12369305 0.11774608
0000c0 80 2b e3 3d 4a 98 3a 3d c9 df c0 3d 33 07 e4 3d
       0.11092281 0.04555539 0.09417684 0.11134186
0000d0 f1 16 41 3d 6b c0 ce 3d e1 70 d8 3d 95 43 e7 3d
       0.04714102 0.100952946 0.10568405 0.11292187
0000e0 40 0a 93 3d 2b 7c c1 3d 44 7e 53 3d 84 95 51 bc
       0.071796894 0.09447511 0.05163409 -0.012791995
0000f0 e2 1c b1 3d 70 11 c7 3d 77 67 b3 3c 7b da c6 3d
       0.08648087 0.09720123 0.021899922 0.097096406
000100 a9 a3 2d be 23 98 e4 bd 6c e6 17 be aa d9 25 be
       -0.16956963 -0.1116183 -0.14833993 -0.16196314
000110 51 c7 06 be 8f 33 1a be 83 b7 c0 bd a2 81 06 be
       -0.1316197 -0.1505873 -0.09410002 -0.13135388
000120 ef 8b eb bd 7a 64 2e be e4 64 00 be 79 68 10 be
       -0.115012996 -0.17030516 -0.12538487 -0.14102353
000130 d5 9b 10 be 47 b5 09 be e4 15 db bd 97 9f 18 be
       -0.14121945 -0.13448058 -0.10697535 -0.14904629
000140 6f bc 20 be e4 20 22 be d1 3e f4 bd 8b 7f b7 bd
       -0.15696882 -0.1583286 -0.11926044 -0.08959874
000150 86 73 1b be 72 92 c4 bd 26 e9 11 be 2a 19 30 be
       -0.15180787 -0.09598245 -0.14249095 -0.171971
000160 f6 1c 0b be 53 2e 1e be 9f a7 02 be a2 d9 da bd
       -0.13585266 -0.15447359 -0.12759255 -0.106860414
000170 a4 d8 15 be 98 2a 10 be 70 f1 26 be 82 f2 e6 bd
       -0.14633423 -0.14078748 -0.16303039 -0.112767234
000180 37 eb c5 bd 97 62 cb bd 74 8c db bd 93 36 2d be
       -0.09664004 -0.09930914 -0.10720149 -0.1691535
000190 9c bc 0f be c6 51 21 be 7d 5a 2f be 5e d8 28 be
       -0.14036793 -0.1575385 -0.17124362 -0.16488788
0001a0 74 aa 15 be 96 24 f0 bd 61 02 08 be 34 08 17 be
       -0.14615804 -0.11725728 -0.13282157 -0.14749223
0001b0 b9 e3 30 be ab 8a 25 be 55 bb 20 be 2c dc 2a be
       -0.1727437 -0.16166179 -0.15696461 -0.16685551
0001c0 8b bd 29 be 90 3c f5 bd de 00 0f be 73 21 15 be
       -0.16576211 -0.11974442 -0.13965175 -0.14563541
0001d0 4e 12 cf bd ba 9f 2c be cc 04 0c be 7e 25 1e be
       -0.10110913 -0.16857806 -0.13673705 -0.1544399
0001e0 f1 11 04 be 01 d3 28 be 8d 87 04 be 47 f2 99 bd
       -0.12897469 -0.16486742 -0.12942334 -0.07516914
0001f0 a1 67 0d be ed 5f 26 be 62 69 de bd ab ef 23 be
       -0.13809063 -0.1624753 -0.10859944 -0.16009395
000200 00 01 f2 bd ec 50 1e be 74 ff 05 be 00 01 0d be
       -0.11816597 -0.15460557 -0.13085729 -0.13769913
000210 7c fd 08 be 1d 4c e1 bd 33 c6 0b be 96 f2 f7 bd
       -0.13377947 -0.110008456 -0.13649826 -0.121068165
000220 6f ff b9 bd 33 bb e1 bd 0e db 09 be f3 45 fa bd
       -0.09081923 -0.110220335 -0.13462469 -0.12220373
000230 69 5f e1 bd 9c 63 00 be ed fa 09 be 6d 22 ec bd
       -0.11004526 -0.12537998 -0.13474627 -0.11530004
000240 5c af 06 be 34 be f2 bd 1b 5d c7 bd 61 73 14 be
       -0.13152832 -0.118526846 -0.09734555 -0.14497139
000250 7a 96 f9 bd aa 39 32 bd 41 ae e4 bd b1 95 6e bd
       -0.12186904 -0.043512024 -0.11166049 -0.058248226
000260 66 40 02 be 19 a1 06 be 77 29 1b be 41 52 15 bd
       -0.12719879 -0.13147391 -0.15152536 -0.036455397
000270 37 08 ff bd 19 12 0b be c4 26 fb bd 3e 3f 0b be
       -0.12452739 -0.13581122 -0.12263253 -0.13598344
000280 26 d0 d5 bd fd 50 1d be e0 19 dd bd 9d b8 03 be
       -0.10440092 -0.15362926 -0.10795951 -0.12863393
000290 d5 4b f6 bd a2 60 e6 bd 8e 83 f6 bd 63 3d ea bd
       -0.120261826 -0.112489 -0.12036811 -0.1143749
0002a0 56 d8 d1 bd b0 ea 07 be 92 19 fe bd e3 0a f9 bd
       -0.10246341 -0.1327312 -0.12407221 -0.121602796
0002b0 34 cb e2 bd 2a be 06 be 70 65 f5 bd 0e 39 0e be
       -0.11073914 -0.1315848 -0.11982238 -0.13888952
0002c0 57 ee f8 bd 93 b6 ee bd ce 94 09 be b6 3a eb bd
       -0.12154835 -0.11655917 -0.1343567 -0.114858076
0002d0 ce 6f f6 bd 56 1a 0b be 1c 38 02 be 74 30 fe bd
       -0.12033044 -0.13584265 -0.12716717 -0.124115855
0002e0 e3 fb eb bd 22 10 f3 bd 44 33 c0 bd e1 3d e9 bd
       -0.11522653 -0.118683115 -0.09384778 -0.113887556
0002f0 b5 98 0c be dc e5 06 be fe 22 b8 bd 04 61 0c be
       -0.13730128 -0.13173622 -0.08991049 -0.13708884
000300 d6 0b 20 3e 90 64 0f 3e 81 10 11 3e 9f cd 06 3e
       0.15629515 0.14003205 0.14166452 0.13164376
000310 11 97 12 3e b2 d8 15 3e d5 e4 00 3e c7 1e 0f 3e
       0.1431544 0.14633444 0.12587292 0.13976584
000320 10 15 f8 3d 7e e8 10 3e 78 11 1b 3e 72 13 0f 3e
       0.12113392 0.14151189 0.15143383 0.13972262
000330 e8 4f 0f 3e 1f 8e 16 3e ac c0 01 3e 19 50 08 3e
       0.13995326 0.14702652 0.12671155 0.13311805
000340 f0 93 0a 3e 7d 77 1f 3e e3 f3 0c 3e c1 45 02 3e
       0.13532996 0.15572925 0.1376491 0.12721922
000350 c5 0f 16 3e 65 83 06 3e 1e 2c 1f 3e 49 51 16 3e
       0.14654453 0.1313606 0.15544173 0.14679445
000360 0f 66 10 3e 38 bd 09 3e 89 f9 12 3e 69 3f 0c 3e
       0.14101432 0.13451087 0.14353003 0.13696064
000370 24 90 1d 3e b4 c6 16 3e 16 17 0e 3e 02 4a 09 3e
       0.15387017 0.14724237 0.13875994 0.13407138
000380 ca e5 10 3e 4b bf 12 3e d5 8c 02 3e 13 c9 14 3e
       0.14150158 0.14330785 0.12749036 0.14529829
000390 7a e8 16 3e 10 94 10 3e 96 67 1c 3e be d2 fb 3d
       0.1473712 0.14118981 0.1527389 0.12296055
0003a0 4d a2 1a 3e 06 bd f4 3d 4c 30 09 3e 96 92 1e 3e
       0.15100975 0.11950116 0.1339733 0.15485606
0003b0 6d da 09 3e 4a 2d 0d 3e bc 3e 11 3e b1 da 15 3e
       0.13462229 0.13786808 0.14184088 0.14634205
0003c0 6b 8b 0c 3e 9d cf 10 3e c7 ce 05 3e 00 77 18 3e
       0.13725059 0.14141698 0.1306716 0.14889145
0003d0 ff 0a 0b 3e c8 65 11 3e 0e 1f 08 3e 31 f0 0d 3e
       0.13578413 0.14198983 0.13293096 0.13861157
0003e0 a0 7b 15 3e ac c9 08 3e 91 18 01 3e 91 d8 f8 3d
       0.1459794 0.13358182 0.12607028 0.12150682
0003f0 0c fa 0b 3e 48 d2 08 3e a5 5d 11 3e 0e b1 13 3e
       0.13669604 0.13361466 0.14195879 0.1442301

encoder.dcrnn_cells.0.gate.bias_pool f4 [2, 128]
000000 59 75 48 3e 71 90 5c be d4 0e 1f 3e 55 dd 87 3d
       0.19576015 -0.21539475 0.15533 0.066340126
000010 e9 b5 a8 3e 84 96 b5 3e 47 14 ac bd 79 09 dd 3d
       0.32951286 0.35466397 -0.08402305 0.107928224
000020 ff a5 04 be 1f 58 51 3e c3 25 51 3e 38 80 58 bd
       -0.12953947 0.20443772 0.20424561 -0.052856654
000030 68 75 f2 3d 71 9e 51 3e 18 fc 8f 3e f2 f8 a8 3e
       0.118388 0.20470597 0.2812202 0.3300243
000040 1c 72 14 3e f6 fc 9b 3e 83 74 a2 be 33 4a 29 bc
       0.14496654 0.3046643 -0.31729516 -0.010332632
000050 0c bb 6b 3e 80 e9 e7 bd 6c e2 a3 3e fc fd 42 3e
       0.23020571 -0.113238335 0.32008684 0.190422
000060 83 4f 2c 3e 39 29 81 3e 30 8f 8b 3d 06 0e 9f be
       0.16827206 0.25226763 0.0681442 -0.31065387
000070 ba f6 67 3e 96 bc 5b 3e 71 89 2f 3e 88 6f 23 3e
       0.22652712 0.21458659 0.17142273 0.15960515
000080 35 d5 ca bc 4a db 77 3d 44 53 8a bd 77 49 7c bd
       -0.024759868 0.060511865 -0.06754163 -0.0615935
000090 02 ff 19 3e 3d 99 97 3d aa 5b 79 3e 82 ba 8f 3e
       0.15038684 0.07402275 0.24351373 0.28071982
0000a0 ec e1 12 3e d6 a3 e4 3d c8 c1 ac 3d d9 a3 1d 3e
       0.14343995 0.11164062 0.08435398 0.15394534
0000b0 69 e6 83 bc 5c e9 4a 3c 54 e1 a6 3e 49 f3 1f 3d
       -0.016101079 0.012384739 0.32593787 0.039050374
0000c0 f2 78 7c bd e3 e6 3d be 38 50 b1 3e 1f 88 04 3e
       -0.06163878 -0.18545108 0.34631515 0.12942551
0000d0 e6 bd c8 3b f5 4a 2e bd 33 27 ab 3b ff 88 45 3e
       0.0061261533 -0.042551953 0.005223179 0.19290541
0000e0 4a 99 bc 3d 1e 9a 99 3e bb de b4 bd 43 b9 b4 bc
       0.09208925 0.30000395 -0.08831545 -0.022060996
0000f0 95 d6 21 3e ae 4d 39 3e cc f2 14 be 80 fe ae 3d
       0.15804513 0.18096039 -0.14545745 0.08544636
000100 43 9b 7c be aa 37 85 3e 34 d5 39 3d 74 d7 ad be
       -0.24668603 0.2601903 0.045369342 -0.3395344
000110 36 57 85 be fa b7 7a be 12 81 2d be 28 06 91 3d
       -0.260431 -0.24484244 -0.16943768 0.07081252
000120 7b 90 79 bc a2 9a 76 be e9 31 04 3d 49 23 f5 3c
       -0.015232201 -0.24082425 0.03227416 0.029924052
000130 c7 fb a9 3b f8 b4 87 bd c6 93 8d be df 69 4b be
       0.005187485 -0.06626314 -0.27651805 -0.19864605
000140 d2 9b 52 be 57 e1 99 be 24 96 47 3e 6d f9 03 bd
       -0.20567253 -0.30054733 0.19490868 -0.032220293
000150 d0 87 c1 3a 86 7b 08 bd 8f 1d 6a bd c6 d5 e8 bd
       0.0014765207 -0.033320926 -0.057157096 -0.11368899
000160 db 33 ee 3b 9e dc 95 bd cb df 4f be 87 ba d1 bc
       0.0072693652 -0.0731747 -0.20300214 -0.025601638
000170 b5 39 54 be 91 27 7a be 95 30 6e be 30 1b 5c 3d
       -0.20725138 -0.24429156 -0.2326072 0.053736866
000180 32 b0 40 3e dc 67 0c be df d4 25 bb f8 f4 88 be
       0.18817213 -0.13711494 -0.0025303883 -0.26749396
000190 60 10 cf bc 5a e9 9a bd 76 12 63 be f8 c0 f3 bd
       -0.025276363 -0.075640395 -0.22175011 -0.1190204
0001a0 75 a9 a5 be f5 49 7d bd b9 dc 29 3d 20 87 38 be
       -0.32355848 -0.06183811 0.041470263 -0.18020296
0001b0 61 8e 60 bd 3e 9d 68 3d ff ec 6e bd 08 b6 91 be
       -0.054823283 0.056790583 -0.058331486 -0.2845919
0001c0 2c cb ac 3d 7e f1 0b 3e df ee 2b be 14 51 93 3c
       0.084371895 0.1366634 -0.16790341 0.017982997
0001d0 f8 2c 8a bc 5c 4b 0e be c5 1f a1 be b8 7d c9 bc
       -0.016867146 -0.13895935 -0.3146955 -0.02459608
0001e0 0c ce c5 bd 6e 63 d9 bd a9 57 6b 3d 3c fa a9 bd
       -0.09658441 -0.10614668 0.057456646 -0.082996815
0001f0 cf ac 88 be b5 b0 d8 bd 38 1d 1b 3d 4e 5a 0e be
       -0.26694342 -0.10580579 0.037869662 -0.13901636
000200 d2 c6 1b 39 2c d2 75 3e 04 05 3a 3e 75 ea 69 3e
       0.00014856018 0.24005955 0.18165976 0.22843345
000210 eb ce ac 3d d9 2c 9f 3b 13 bd 94 3e 1a d1 01 3e
       0.08437904 0.004857641 0.29050502 0.12677422
000220 4a c1 04 3e 00 8f 86 bd ba 5d 7b 3d 29 fe 2f 3e
       0.12964359 -0.06570244 0.06136868 0.17186798
000230 bc b3 08 3e cd e9 99 3e 34 5e cd 3c da 4a a6 3e
       0.13349813 0.30061188 0.025069334 0.32478982
000240 ca bf 1e bd 54 ec 48 3e ed 31 ca 3d 64 4e b9 3e
       -0.038757123 0.19621402 0.09872804 0.3619262
000250 86 d9 51 3d b8 71 1d 3e 87 43 37 3e 86 12 66 3e
       0.051232837 0.15375412 0.17896853 0.22468004
000260 d9 9b 82 3e ce af 6c 3d 62 28 0f 3e e5 ab 35 3e
       0.25509527 0.057784848 0.13980249 0.17741354
000270 47 df 89 3d f9 6e 4f 3d 3b 6e ad 3e 29 42 5c bc
       0.0673204 0.05064294 0.33873162 -0.013443508
000280 ce 29 46 3e 80 fd c2 bc 30 ee a8 3e 0c 14 8d 3e
       0.19351885 -0.023802519 0.32994223 0.27554357
000290 90 fe 73 3e d9 6a 3d 3e 0f f2 af 3e 28 36 14 3e
       0.23827577 0.1849779 0.34364364 0.14473784
0002a0 e0 48 1c bc 1d 3b 26 3e e9 5b 5b 3e 03 5c 08 3e
       -0.009538859 0.16233487 0.2142178 0.1331635
0002b0 15 2e 73 3d 23 29 eb 3d 89 d6 ed 3d a2 92 ae 3e
       0.05937012 0.114824556 0.11613185 0.34096247
0002c0 13 6c 92 3e cf fd 28 3e e3 61 6d 3d 1c f2 b4 3c
       0.2859808 0.1650307 0.05795468 0.022088103
0002d0 b5 a9 b5 3d 65 ab 95 3e c7 ff bc bc 31 3a 0e 3d
       0.0887026 0.29232326 -0.023071183 0.034723464
0002e0 f2 b2 44 3e d1 85 a7 3e be f1 09 3e bc bb 89 3e
       0.19208887 0.3271928 0.13471124 0.26901042
0002f0 14 38 d8 3d 68 a5 6e 3e c9 53 8b bd 7d f7 4c 3e
       0.10557571 0.23305285 -0.0680309 0.20016284
000300 a2 14 aa be 20 8a cd 3b 0f 72 83 3b f2 72 bb bd
       -0.33218867 0.0062725693 0.0040113996 -0.091527835
000310 c0 86 1c be 9e 6f 9a be 1b 42 94 3d f4 f2 7c be
       -0.15285778 -0.30163282 0.07239171 -0.24702054
000320 80 f3 8a 3d f6 a6 58 be 2d 1d 95 be 07 93 22 3d
       0.06784725 -0.2115744 -0.29123822 0.039690997
000330 df 73 13 bc e6 08 39 bc e9 61 17 be a4 20 8e be
       -0.008999794 -0.011293625 -0.14783444 -0.27759278
000340 52 c1 97 be a1 c2 16 bd 98 da 82 3a 49 d4 1e be
       -0.2963968 -0.036806706 0.0009983359 -0.15510668
000350 fd 1d 89 be 48 6e 58 be e5 ee 90 be a2 dc 9f be
       -0.26780692 -0.21135819 -0.28307262 -0.31223017
000360 aa 7e 31 bd 68 3c d1 bd 8f 35 a7 be 87 16 56 bd
       -0.043333687 -0.102166 -0.3265805 -0.052267577
000370 c7 f5 8d be 80 7b 35 bd 44 13 03 be db 73 95 be
       -0.27726576 -0.044307232 -0.12800318 -0.29189953
000380 73 c3 a5 bc 30 eb ab be eb db 88 bd 7b 0c de bc
       -0.020234799 -0.3357787 -0.06682571 -0.02710556
000390 f4 20 8f be 3d db 94 3d 39 0a 6d be ad 8d 4d be
       -0.2795483 0.07268379 -0.23148431 -0.20073576
0003a0 c1 f7 8c 3d 90 a6 07 be 9b ca 9b be 23 44 92 be
       0.06883193 -0.13247132 -0.30428013 -0.2856761
0003b0 e1 ac 96 be c8 ea e5 3c c6 3b 21 3c d2 94 89 bc
       -0.2942877 0.028066054 0.009840911 -0.016794596
0003c0 14 26 83 be 49 20 9d be b5 6a 5d be 9a bc 3c be
       -0.2561499 -0.30688694 -0.21622737 -0.18431321
0003d0 88 35 11 bd 68 c3 ff bd 34 d9 4f bb 20 50 a9 be
       -0.035451442 -0.12488443 -0.0031715157 -0.33068943
0003e0 6d f0 83 be b0 0e c7 3c b2 38 5d be 40 8c a4 3c
       -0.25769368 0.024298996 -0.21603659 0.020086408
0003f0 85 94 8c 3d 47 18 a0 be e0 a7 19 be 57 ef a6 be
       0.06864265 -0.31268522 -0.15005445 -0.32604477

encoder.dcrnn_cells.0.update.weights_pool f4 [2, 2, 65, 64]
000000 90 ec bd bd 02 b3 45 3d ca 46 56 3d db 7f a1 bd
       -0.09273636 0.04826642 0.052313603 -0.078857146
000010 70 b3 66 3d 22 a1 9a bd 1d 01 83 3d a5 f5 4d 3d
       0.05632347 -0.07550265 0.06396697 0.050283093
000020 1b 5a 82 3d dc 44 14 3e 58 87 3b 3d 13 94 8c bd
       0.063648425 0.14479393 0.04578337 -0.068641804
000030 6f dd 7e bd 37 91 43 bd 7a 3f 5c bd 0c 5e 12 be
       -0.062222894 -0.04774591 -0.053771473 -0.14293689
000040 48 16 a1 bd 4a d1 94 3d a0 c6 6b 3d 02 15 48 bd
       -0.07865578 0.07266481 0.05756247 -0.04884816
000050 fc a1 a0 3d cb 18 fe 3c f6 42 a3 bd 3b 64 9f 3d
       0.07843396 0.031017682 -0.07971756 0.07782789
000060 6f f9 13 be fe b4 be 3d 23 f0 b6 3d 41 e4 d3 3c
       -0.1445062 0.09311865 0.08932521 0.025865676
000070 ac a8 76 3d e0 e6 79 3d 57 b6 28 3e 97 94 9f 3d
       0.06021945 0.061011195 0.16475807 0.07792013
000080 8e 30 3a 3d 0c 6b 50 bd 50 68 76 3d 98 bd a5 3d
       0.04545646 -0.050883338 0.060158074 0.08092803
000090 21 4f 52 3d cf b3 6f 3d 09 de 96 3d 9b 1c 1e be
       0.051344994 0.05852109 0.073665686 -0.154406
0000a0 4b 55 da 3d 54 0c 90 bd 49 9a 80 bd ba 23 98 bd
       0.106607996 -0.070336014 -0.062794276 -0.07428689
0000b0 e9 82 24 3e cc e1 ab bd 22 66 0c be 45 f4 a8 bd
       0.16065563 -0.08392677 -0.13710836 -0.08249716
0000c0 36 8a 0a 3e 18 5e 75 3d 78 cd 98 3d cc e6 aa bd
       0.13529286 0.059904188 0.07461065 -0.08344802
0000d0 c0 2c 75 3d 3a 7c 39 be ff 86 84 3d 42 b7 76 bd
       0.05985713 -0.18113795 0.06471061 -0.060233362
0000e0 89 4a 54 3d 24 1f ac bd 8b 03 8d bd f7 93 fb bc
       0.051828895 -0.08404377 -0.068854414 -0.030710204
0000f0 ab f9 82 3d b3 13 8f 3d 01 d3 5e bd b3 47 a4 bd
       0.06395277 0.06986179 -0.054400448 -0.08021488
000100 3d 44 12 3e 77 c3 04 be de 22 02 be 15 07 09 3e
       0.14283843 -0.12965189 -0.12708613 0.13381608
000110 64 b5 fb bd 5b 7d 17 3e ea 88 0b be 8e f0 11 be
       -0.12290457 0.14793913 -0.13626447 -0.1425192
000120 13 19 e0 bd 8e ee fd bd 0d 37 18 be ea 14 f6 3d
       -0.109422825 -0.12399016 -0.1486475 0.12015708
000130 c8 f0 14 3e 5b 08 fd 3d b2 8a 04 3e ae b1 0a 3e
       0.14544976 0.12355109 0.12943533 0.13544342
000140 0b 36 06 3e e8 10 0d be 32 c2 c6 bd 6c 02 d1 3d
       0.13106553 -0.1377598 -0.097050086 0.1020554
000150 61 95 0a be 42 ee c3 bd 30 c6 15 3e 66 7d ce bd
       -0.13533546 -0.095669284 0.14626384 -0.100825116
000160 6b 8b 05 3e 55 51 05 be b2 19 d9 bd e8 4f 92 bd
       0.13041465 -0.13019307 -0.10600604 -0.07144147
000170 f9 1b 02 be ea cf fc bd 3e 22 fd bd d1 db e9 bd
       -0.12705983 -0.12344344 -0.12360047 -0.1141888
000180 4b 84 db bd ae 44 01 3e 4c c0 fd bd 9d 3d 0c be
       -0.10718592 0.12623855 -0.12390193 -0.13695379
000190 89 27 03 be 86 18 0b be 51 b4 14 be a5 1b ff 3d
       -0.1280805 -0.13583574 -0.1452191 0.12456445
0001a0 09 91 18 be c2 e4 e3 3d c7 4b f4 3d 35 0b 03 3e
       -0.14899077 0.111276165 0.11928516 0.12797244
0001b0 a5 8b 13 be df bd 19 3e 83 86 0c 3e 3b 04 0c 3e
       -0.14408739 0.15013836 0.13723187 0.13673489
0001c0 ec 74 13 be fb df eb bd 38 02 10 be 41 33 09 3e
       -0.14400071 -0.1151733 -0.14063346 0.13398458
0001d0 b5 c4 e1 bd a6 7a 08 3e c7 af 04 be 80 0f 15 3e
       -0.11023847 0.13328037 -0.12957679 0.14556694
0001e0 66 ba 04 be 6b 90 04 3e c4 95 a0 3d ee db c3 3d
       -0.1296173 0.12945716 0.078410655 0.09563433
0001f0 d6 0a 0e be 2d 5c 0b be 2c d8 9d 3d 84 55 14 3e
       -0.13871321 -0.13609381 0.07707247 0.14485747
000200 12 97 10 be 25 dd 33 be 3e 60 21 3e 86 3f 17 be
       -0.14120129 -0.17564829 0.1575937 -0.14770326
000210 72 ea 25 3e 05 80 14 be cf b3 5a be 70 0f 4a 3e
       0.16202715 -0.1450196 -0.21357654 0.19732451
000220 30 4b 37 be 2b a2 06 3e 92 c9 17 3e 1f eb 1e be
       -0.17899776 0.131478 0.14822987 -0.15519379
000230 db 3f 52 be 15 50 31 be 4e 66 5a 3e fc d8 02 be
       -0.20532171 -0.17315705 0.21328089 -0.12778085
000240 e0 1a 17 be f6 3f 2f 3e ae 61 2e be 10 83 3b 3e
       -0.14756346 0.17114243 -0.1702945 0.18311715
000250 93 17 20 3e 3a 3c 2d be fd 94 32 be 13 71 41 3e
       0.15633993 -0.16917506 -0.17439647 0.1889079
000260 e2 f8 f0 bd 95 43 0f 3e 3e bd 59 be 78 d4 22 be
       -0.11766221 0.13990624 -0.21263596 -0.15901363
000270 b6 a9 3b 3e 3d a0 23 3e 10 61 08 3e 3f 38 3e be
       0.18326458 0.15979095 0.13318276 -0.18576144
000280 0e 8f 38 be 9b ee 3c 3e 06 ae 2e be 4d cc 3c 3e
       -0.18023321 0.18450396 -0.17058572 0.1843731
000290 e7 d1 4b 3e 40 84 2d 3e 26 7b 48 3e fe e6 fe bd
       0.1990429 0.1694498 0.19578227 -0.12446402
0002a0 4d 64 30 3e 91 77 53 3e 34 99 4b be 80 ba 26 be
       0.17225762 0.2065108 -0.19882661 -0.16282082
0002b0 c3 1c 25 3e 05 d9 22 be 09 99 38 be c5 e6 16 be
       0.16124253 -0.15903099 -0.18027128 -0.14736469
0002c0 da 03 25 3e 78 70 2d be 2b c1 1f 3e 90 9e 21 be
       0.1611475 -0.16937435 0.15601031 -0.15783143
0002d0 78 c7 32 be 85 48 0b be 6a 4b 1c 3e 36 28 46 be
       -0.17458904 -0.13601883 0.15263143 -0.19351277
0002e0 10 d1 23 3e 99 98 60 be bc d1 21 3e 89 ed 2f 3e
       0.1599772 -0.21933211 0.15802664 0.17180456
0002f0 6e 12 25 3e 6a d9 41 3e 2d 68 35 3e 07 02 26 be
       0.16120312 0.18930593 0.17715521 -0.16211711
000300 ac 73 13 be fb 27 04 3e 7e e7 17 3e 8f 42 19 be
       -0.14399594 0.12905876 0.14834401 -0.14966796
000310 66 b0 0c 3e 3c a9 03 be 84 49 07 3e 38 9e 18 3e
       0.13739166 -0.12857527 0.13211638 0.14904106
000320 9c c9 f1 3d 87 ae 0d 3e af 8b f3 3d b5 74 03 be
       0.11806032 0.13836108 0.11891877 -0.12837489
000330 96 49 18 be c1 8a 19 be 1b 5f f5 bd e4 4e 18 be
       -0.14871821 -0.14994337 -0.119810306 -0.14873844
000340 32 1f 10 be 96 7b fc 3d c3 9d ef 3d 6a e1 04 be
       -0.140744 0.1232826 0.117000125 -0.12976614
000350 91 69 15 3e 82 0f d4 3d b7 52 12 be d2 0c f8 3d
       0.14591052 0.103545204 -0.14289366 0.1211182
000360 a5 04 10 be 46 35 09 3e 90 7a f1 3d 30 30 ce 3d
       -0.14064272 0.13399228 0.11790955 0.10067785
000370 28 4d 19 3e d4 4f fc 3d 84 a0 08 3e 8e 61 1a 3e
       0.14970839 0.123199135 0.13342482 0.15076277
000380 cf d1 fc 3d a6 a4 16 be 30 fb 17 3e d9 18 18 3e
       0.12344705 -0.14711246 0.14841914 0.14853229
000390 18 44 07 3e 6e be ed 3d be d5 05 3e 90 f9 08 be
       0.1320957 0.11608587 0.13069817 -0.1337645
0003a0 05 e8 ec 3d 9e 8e f2 bd aa 57 11 be ef ca f6 bd
       0.11567692 -0.11843608 -0.14193597 -0.12050425
0003b0 b6 92 f3 3d 5f e8 00 be 7a 44 13 be 83 12 01 be
       0.11893217 -0.12588643 -0.1438159 -0.12604718
0003c0 0e 9f 0f 3e 0d df 10 3e 8d 69 fe 3d 4d dc ee bd
       0.14025518 0.14147587 0.12422476 -0.11663113
0003d0 ff 51 0b 3e ab 03 12 be 3e 0c 07 3e 14 93 0d be
       0.13605498 -0.14259212 0.13188264 -0.13825637
0003e0 2a 8b 0c 3e 84 ca 01 be 0f 99 f0 bd d5 d1 ca bd
       0.13724962 -0.1267491 -0.117479436 -0.099033035
0003f0 f3 a8 19 3e 44 db f5 3d 1f 21 e5 bd d0 7e 16 be
       0.15005855 0.12004712 -0.11187958 -0.14696813

encoder.dcrnn_cells.0.update.bias_pool f4 [2, 64]
000000 30 9d 99 be 17 e8 44 be 83 89 ea 3e fa c6 e5 be
       -0.30002737 -0.1922916 0.45808038 -0.4487837
000010 25 fa 84 3e 44 b1 af be a9 89 c1 bc 01 25 79 3e
       0.25972095 -0.3431493 -0.023625212 0.24330522
000020 03 d1 c0 be e5 c2 a1 3e 4c 0f e5 3e 2b 27 73 be
       -0.37659463 0.31594005 0.44738233 -0.2374541
000030 b0 7e 84 be 76 be b1 be 73 73 21 bc b0 13 b0 be
       -0.25877905 -0.34715623 -0.009854185 -0.3439002
000040 89 8a 86 be 20 1a b0 3e 1b fb c3 be 56 54 94 3e
       -0.2627757 0.34394932 -0.38277516 0.28970593
000050 f8 b6 79 3e e1 77 8e be 49 d1 1c be 8e 95 c8 3e
       0.24386203 -0.27825835 -0.15314211 0.391766
000060 87 f6 db be 4b aa 08 3e 80 4f 07 be bd 28 a3 be
       -0.42961523 0.13346212 -0.1321392 -0.31867018
000070 a8 e7 9e 3e 18 ce 97 3e 1f 69 e4 3e 6a a9 40 bc
       0.31036115 0.29649425 0.4461145 -0.011759141
000080 5c bd af be 9b 29 7d 3d 38 56 b9 be a3 ad 77 3e
       -0.34324157 0.061807256 -0.36198592 0.24187331
000090 4c b7 bd 3e 0d 3c cf 3e 7a 36 7b 3e 13 39 a1 be
       0.37053907 0.40475503 0.245325 -0.31488857
0000a0 ac 6c dd 3e b7 e5 0c bc 57 d8 23 be 4f 5c 98 be
       0.43246973 -0.00859969 -0.16000496 -0.29757926
0000b0 f0 46 ad 3e 46 96 83 be 88 cd c9 be c5 63 e7 be
       0.33843184 -0.25700587 -0.3941462 -0.45193306
0000c0 c5 d0 b7 3e b1 ef ab be 00 4a 35 3e 40 6a 26 be
       0.35901466 -0.33581308 0.1770401 -0.16251469
0000d0 15 cc b8 be b1 21 e4 be 53 57 8b 3e 5c 14 97 be
       -0.36093202 -0.44556955 0.2721506 -0.2950772
0000e0 86 0c 9c 3e 62 42 28 be 3e be 99 3e 1a ba 32 3e
       0.30478305 -0.16431573 0.30027956 0.17453805
0000f0 e3 3a cf 3e 92 d0 42 3e 7c 2a 93 3e 49 67 c8 be
       0.40474615 0.19024876 0.2874335 -0.391413
000100 34 15 ce be e4 df e1 3e 60 0b 43 3e 23 25 c4 be
       -0.40250552 0.44116127 0.19047308 -0.38309583
000110 5c 67 b6 3e 9e d4 80 be 33 7e cf 3e bb df 5c 3e
       0.35625732 -0.25162214 0.4052597 0.21569721
000120 bd 05 b1 3e d0 a9 c2 bd f0 22 d6 3e de c4 e2 be
       0.3457469 -0.095050454 0.4182353 -0.44290823
000130 8a 99 4e be 5a 2b 9d be a0 bc ca be 86 0c 21 3c
       -0.20175758 -0.30697137 -0.39597034 0.009829646
000140 13 b2 bd be 74 13 d8 3e 1b cf cf 3e 3f b1 ce be
       -0.37049922 0.42202342 0.40587696 -0.40369603
000150 67 44 db 3e 4c e0 71 3e 4d 8b a9 be d5 d1 87 be
       0.42825624 0.23620719 -0.3311409 -0.26527277
000160 6f 4d 6c 3c dc 1a e4 3e 12 64 dd 3e 35 cc 86 3e
       0.0144227585 0.44551742 0.4324041 0.26327673
000170 0e 3d 67 3e 4b 38 aa 3e 98 82 69 bb a6 55 8d 3e
       0.22581884 0.33246073 -0.0035630818 0.27604407
000180 eb 44 b6 3e b5 1d a7 be 1d 78 ae 3e b1 ab 86 3e
       0.35599455 -0.32639852 0.34076014 0.26302865
000190 2d ee 39 3e 5e ac 30 3e 25 da 61 3e 66 42 88 bc
       0.18157263 0.17253253 0.22055872 -0.016633224
0001a0 c3 ac 7c be 64 b8 ba be fd ce 1b be c2 24 aa be
       -0.24675278 -0.36468804 -0.15215679 -0.3323117
0001b0 d8 a4 c0 bd bb 4b 78 be 79 77 38 3e af 8f ce be
       -0.094064415 -0.24247639 0.18014325 -0.40343997
0001c0 93 e1 0e be 6c 55 a6 3e 4d 99 df 3e eb a2 56 be
       -0.13953237 0.32487047 0.43671647 -0.20960586
0001d0 25 a3 d6 3e 2a 12 e9 3c d2 57 ad 3e 5c 50 80 be
       0.41921344 0.028451044 0.33856064 -0.2506131
0001e0 f6 3f 97 3e 18 46 1a be 1d 8a 95 be 82 dd 31 be
       0.29540986 -0.15065801 -0.29206935 -0.17369655
0001f0 4b 0f dd 3e c1 a0 39 3e 1f 03 87 be ff 35 8e be
       0.4317573 0.18127729 -0.2636957 -0.2777557

encoder.dcrnn_cells.1.gate.weights_pool f4 [2, 2, 128, 128]
000000 5a d7 83 bb 63 68 13 be 3d ab 2d bd cc d1 02 be
       -0.0040234746 -0.14395289 -0.042399634 -0.12775344
000010 2d 6c ff bd a5 20 ff bd df 79 15 be ab 46 45 be
       -0.12471805 -0.12457398 -0.14597271 -0.19265239
000020 15 fa 45 3d 8c b6 0e be 3d 03 0e be b8 f3 22 bd
       0.0483342 -0.13936824 -0.13868423 -0.03978321
000030 3b 6e 71 3d e8 3c d8 bd b0 64 98 bc ed 16 05 be
       0.058943015 -0.10558492 -0.018602699 -0.12997027
000040 e4 f9 00 be 06 c1 0c be e5 f2 60 be 43 99 5a bd
       -0.12595326 -0.13745508 -0.21967657 -0.053368818
000050 df a7 fb bd 8a ba 39 be 94 6b 00 be e0 6b 0e be
       -0.12287878 -0.18137565 -0.12541038 -0.13908339
000060 97 a9 97 bd f8 0f ed bd 6f 66 6e 3d 92 26 ac 3c
       -0.074053936 -0.115753114 0.058203157 0.021014486
000070 d8 50 ef bd 60 6a 23 bb 3c f6 cb bc 2e 07 04 be
       -0.116853416 -0.002493523 -0.024897687 -0.12893364
000080 2e 11 08 be 52 a9 86 bd 13 41 03 be b4 d1 48 bd
       -0.13287804 -0.06575264 -0.12817793 -0.049028113
000090 76 0c 49 be fb 73 59 bd 97 30 fa bd cd ba 17 bd
       -0.1963366 -0.053089123 -0.12216299 -0.03704338
0000a0 39 83 04 be 53 73 9b bd a5 88 6a bd 85 c0 10 be
       -0.12940682 -0.07590356 -0.05725922 -0.1413594
0000b0 21 6c 04 be d5 22 15 bd 36 fd 08 be 25 c7 2a be
       -0.12931873 -0.03641017 -0.13377842 -0.1667753
0000c0 cd ac 44 be db 81 13 3d a6 5c f3 bd 9d d9 07 be
       -0.19206543 0.03601251 -0.11882906 -0.13266607
0000d0 be 0e 4d bc 9c 14 03 be 67 38 02 be 0c 61 fe bd
       -0.012515722 -0.1280083 -0.12716828 -0.12420854
0000e0 cd 65 a9 bd 02 5f 9f bd 30 e2 ed bd d1 38 78 3d
       -0.0827137 -0.07781793 -0.116154075 0.06060106
0000f0 17 23 ea bd c2 fc 07 be ec 72 fa 3b a8 c7 08 3c
       -0.11432474 -0.13280013 0.0076430943 0.008348383
000100 f9 7a 0f 3e 32 a6 14 3e 0f f1 09 3e 82 bb 1b 3e
       0.14011754 0.14516523 0.13470863 0.15208247
000110 2f 72 16 3e 2a 54 1a 3e 35 c3 1c 3e d7 f8 1a 3e
       0.14691995 0.15071169 0.1530884 0.15133987
000120 1d 72 fa 3d 3f f7 1d 3e f3 30 26 3e fd 25 0c 3e
       0.12228797 0.15426348 0.1622961 0.13686366
000130 3b 54 08 3e 9c 3f 2d 3e 0d 83 23 3e 83 88 24 3e
       0.13313381 0.16918796 0.1596796 0.160677
000140 af 77 22 3e af 20 1b 3e 9c e6 eb 3d d3 dc 01 3e
       0.15865968 0.15149187 0.115185946 0.12681894
000150 16 23 1c 3e f5 d2 16 3e 08 39 26 3e b6 d9 27 3e
       0.15247759 0.14728911 0.16232693 0.16391644
000160 9e d6 0b 3e c1 fc 20 3e f1 25 01 3e b9 8c 1b 3e
       0.13656089 0.15721418 0.1261213 0.151904
000170 f1 5e 2d 3e dc 14 c6 3d 86 6c 2a 3e 65 8c 2e 3e
       0.16930749 0.09671947 0.16642961 0.17045744
000180 2a cb 1e 3e 8e 45 0a 3e 9f 64 19 3e 57 4b 15 3e
       0.15507188 0.13503096 0.1497979 0.14579521
000190 4b b0 19 3e 4e d8 09 3e bd 14 1e 3e 67 9d 08 3e
       0.15008657 0.1346142 0.15437599 0.13341294
0001a0 09 c1 21 3e 5f 11 04 3e 3d 72 0a 3e c6 8e 1b 3e
       0.15796293 0.12897252 0.13520141 0.15191182
0001b0 d1 6c 17 3e 8e 32 02 3e 4f a3 17 3e ff 3d 18 3e
       0.14787604 0.12714598 0.14808391 0.148674
0001c0 50 41 24 3e eb c0 1a 3e de 32 21 3e f2 7f 14 3e
       0.1604054 0.15112655 0.1574206 0.14501932
0001d0 31 e0 0c 3e e1 a5 17 3e 92 da 25 3e 3c ad 23 3e
       0.13757397 0.14809372 0.16196659 0.15984052
0001e0 fd 94 23 3e 60 b4 0f 3e a0 79 1b 3e 34 9d 10 3e
       0.15974803 0.14033651 0.15183115 0.14122468
0001f0 bb 19 16 3e 74 bd 16 3e 33 bc 13 3e 9c eb 13 3e
       0.14658253 0.14720708 0.14427261 0.14445347
000200 23 c6 f2 bd 69 00 ac bc 78 37 c6 3c 4f e7 37 3d
       -0.11854198 -0.02099629 0.024196371 0.044898327
000210 4f 28 69 3d 64 af eb 3c 50 47 eb bd ed 22 92 bd
       0.056923207 0.028770156 -0.11488211 -0.07135568
000220 ad 4d c2 bd 85 0b 0f 3d 84 17 5b 3d a9 bc 1c 3d
       -0.09487472 0.034923095 0.053489223 0.038265858
000230 41 f5 77 bd 5a 0d 9e bc dd ad e8 3d 19 d0 d0 3c
       -0.060536627 -0.019293476 0.11361287 0.025489854
000240 f5 26 19 3d 6e 92 51 3d ce e4 c5 bd c3 6b 41 bd
       0.037390668 0.051165037 -0.09662782 -0.04722191
000250 1c 73 0d 3d da 7c 9f bd b5 5d 28 3d 09 2f e5 3c
       0.034533605 -0.077874854 0.04110499 0.02797653
000260 f7 5e 97 bd 29 f1 21 bd 0b f4 d1 bd aa 2c 87 3d
       -0.0739116 -0.03953663 -0.102516256 0.06600316
000270 05 81 19 bd 63 1e 14 be e2 88 a0 3d 1d 5a 87 bd
       -0.03747656 -0.14464717 0.07838608 -0.066089846
000280 a8 4b 17 3d a3 04 83 bd 61 43 ec 3c 4d 3d c4 3d
       0.036937386 -0.06397369 0.028840723 0.09582005
000290 ba e1 8b bd 07 e6 ad bd 89 45 2e bd fe 68 a0 bd
       -0.06830163 -0.0849114 -0.042546783 -0.07832526
0002a0 05 55 25 3d 7c 89 ad bd 2a 09 a9 3d c0 37 d3 3c
       0.040364284 -0.08473489 0.08253701 0.02578342
0002b0 5c 17 f9 3c 36 3c 04 3d 4e fc 26 3d de 0b 84 bd
       0.030406646 0.032283984 0.04076796 -0.06447576
0002c0 47 f8 93 bd a1 23 a4 3c 42 37 ce bc 74 7c 16 3d
       -0.072250895 0.02003652 -0.025172833 0.03673978
0002d0 85 1f eb bd 91 5e 35 3d d1 ad e7 3c a9 8f 67 3d
       -0.11480621 0.04427964 0.028281124 0.05653349
0002e0 84 4f d5 3d 08 8f dc 3d 27 04 4a bd 59 5e f5 3c
       0.10415557 0.107694685 -0.049320366 0.029952215
0002f0 20 f1 82 3d a2 4c 3c 3d d4 8c 1f be e7 64 2e be
       0.06393647 0.04597152 -0.15581065 -0.17030679
000300 db ab a0 3d b6 eb 05 3e 65 de 92 3d ef 6a f3 3d
       0.07845279 0.13078198 0.07171325 0.1188563
000310 04 a9 d0 3d ca 87 d0 3d 42 e0 09 3e c5 58 0a 3e
       0.10188487 0.1018215 0.13464454 0.13510425
000320 f7 50 bc 3d df bb df 3d 15 98 e2 3d 81 e6 92 3d
       0.0919513 0.109245054 0.110641636 0.071728714
000330 30 a8 c4 3d 10 b1 0a 3e 9d ab d1 3d 9e 2d d9 3d
       0.09602392 0.13544106 0.10237811 0.10604404
000340 49 3c d4 3d 58 2b eb 3d ea 97 d3 3d f6 b5 9b 3d
       0.10363061 0.114828765 0.1033171 0.07603066
000350 b4 43 e8 3d e5 a9 01 3e 6a c5 dd 3d 7c 24 e9 3d
       0.11341038 0.12662466 0.10828669 0.11383912
000360 e9 bc 9a 3d ed 74 06 3e f8 35 c3 3d 18 54 d5 3d
       0.07555563 0.13130541 0.09531778 0.1041643
000370 28 24 fd 3d f6 22 e1 3d 1d b6 ef 3d 02 0d f0 3d
       0.12360412 0.109929964 0.11704657 0.11721231
000380 c6 02 e0 3d bc e4 8d 3d 14 11 ee 3d 58 5a 9e 3d
       0.10938029 0.06928393 0.11624351 0.077320755
000390 25 01 95 3d 09 36 9d 3d 3a 7e f7 3d ed 1b 8d 3d
       0.07275609 0.07676322 0.12084623 0.06890092
0003a0 a0 cf f2 3d 53 0f af 3d f5 c6 a6 3d ef d4 ef 3d
       0.118560076 0.08547845 0.08143417 0.11710536
0003b0 71 ad f1 3d ad 3a a7 3d 71 22 db 3d 7e d7 06 3e
       0.118006594 0.081654884 0.106999286 0.13168141
0003c0 c1 64 8d bb 52 9b a8 3d 77 f7 05 3e d4 fb dd 3d
       -0.0043149893 0.0823275 0.13082682 0.10839048
0003d0 24 ec a3 3d 99 3c dc 3d 53 8b e6 3d 35 7b e0 3d
       0.080040246 0.107537456 0.11257043 0.10961
0003e0 69 9a cc 3d 01 8f c4 3d aa 41 fa 3d 89 22 d9 3d
       0.09990389 0.09597588 0.12219556 0.1060229
0003f0 f6 f5 ee 3d e8 4a d6 3d 46 9f a0 3d 2a 8f ac 3d
       0.11668007 0.10463506 0.07842879 0.08425744

encoder.dcrnn_cells.1.gate.bias_pool f4 [2, 128]
000000 e3 58 7a be 36 79 1f 3e d0 ab 68 3d 96 41 91 3e
       -0.2444797 0.15573582 0.05680448 0.2837035
000010 a7 66 06 3e 02 ae 6f 3e 37 62 a1 3e fc 80 6f 3e
       0.13125096 0.23406222 0.31520244 0.23389047
000020 74 0b 86 3d 9d f2 bb bd e3 fb 18 3e 89 8f a9 bd
       0.06545153 -0.09177134 0.14939837 -0.0827933
000030 16 0a f7 3d f2 a4 80 3c c9 4d 12 be 66 8a 3d 3e
       0.120624706 0.015703652 -0.14287485 0.18509826
000040 d9 ec 52 3e d4 79 04 3e 5e a1 9d bd 7d cb a3 3d
       0.20598163 0.12937099 -0.07696794 0.07997797
000050 20 bc 8b 3e 1d c0 8a 3e 45 b4 0a 3e 92 bc 0b 3d
       0.27291965 0.27099696 0.1354533 0.03411538
000060 ba d3 d0 bd 12 d2 a3 3e d2 90 e3 3c 0d af 28 3c
       -0.10196634 0.31996208 0.027779017 0.010295642
000070 2b 53 b1 3d 74 a2 8b be 24 7d eb 3d 98 4f 99 3d
       0.08658441 -0.2727238 0.11498478 0.074858844
000080 f3 75 05 3e 2a 3a 02 3e c7 79 83 3e cb 72 8b bd
       0.13033275 0.127175 0.25678846 -0.068090044
000090 1f 26 05 3d fd 9f 19 3e 98 7e cf 3d f9 99 74 3d
       0.03250706 0.15002437 0.10131568 0.059717152
0000a0 d2 60 c0 3c 4d a7 2b be a2 ab 43 3e 58 c6 61 3e
       0.023483668 -0.16763039 0.19108441 0.22048318
0000b0 9d af db 3d ae d4 e9 bc 9c 78 8b 3e 5d 92 dc bd
       0.10726855 -0.028543796 0.27240455 -0.10770104
0000c0 78 eb 05 3e 05 d3 22 be e9 0f 49 3e 4d 7b b8 3b
       0.13078105 -0.1590081 0.19634975 0.005629933
0000d0 49 27 dd 3a b9 15 76 3e d0 c3 a9 3d e4 2b 12 3d
       0.001687267 0.24031724 0.082893014 0.03568639
0000e0 91 07 ad bd 63 06 83 3e 9e dd c9 3a 6b 7a ce bd
       -0.08448709 0.2559081 0.001540113 -0.10081943
0000f0 b9 1f 01 bd 6c 45 8f 3a 8e a8 65 3b 9a 06 22 3d
       -0.031524394 0.0010930724 0.0035043093 0.039557077
000100 ca 83 12 be 03 14 8a be 08 a8 d5 bc e5 be 9f bd
       -0.14308086 -0.26968393 -0.0260811 -0.07800082
000110 af 46 58 bd 2d 71 b8 3d 86 aa b5 3d 43 66 f3 bd
       -0.052801784 0.090059616 0.088704154 -0.11884739
000120 eb 7d a2 3c f0 47 05 be 10 07 9c be 76 35 92 bc
       0.019835433 -0.13015723 -0.30474138 -0.017847758
000130 4e 34 19 be 80 56 32 bc 91 f8 ed 3d 2e 03 11 be
       -0.14961359 -0.010884881 0.11619676 -0.14161369
000140 a2 aa 13 be 92 58 9e bd c9 58 4d 3d 49 c3 86 3b
       -0.1442056 -0.07731737 0.0501335 0.0041126353
000150 42 31 49 be 7e 2a aa 3c 93 90 37 be 53 67 1f bc
       -0.19647697 0.020772215 -0.17926244 -0.009729224
000160 c0 36 39 be 08 4b 5e be 93 8e 1f 3e e3 02 d1 bc
       -0.18087292 -0.2170831 0.15581731 -0.025514072
000170 db 48 fc 3c 19 a4 1d 3e 3d bc 76 3d 09 4d 7a 3d
       0.030796459 0.1539463 0.06023811 0.061108623
000180 f2 2c ef 3d e3 ad f6 bc 74 8d 97 bd ee d4 10 be
       0.116784945 -0.030112213 -0.07400027 -0.14143726
000190 e1 29 87 be f2 2e 81 bd 88 7b b4 3d 96 ad 76 bc
       -0.2639914 -0.06307782 0.08812624 -0.015056035
0001a0 7d 35 ae 3d a6 53 25 bb c2 16 4f be d8 21 5c be
       0.08506296 -0.002522686 -0.20223525 -0.21497285
0001b0 9d 5a 89 3d 1a 62 db 3d 76 77 1e be 71 a6 24 bd
       0.06706736 0.10712071 -0.15475258 -0.040197793
0001c0 d8 c3 5d be 62 4c d8 3d 5e 7a 75 bd 3a d5 43 be
       -0.2165674 0.10561444 -0.05993115 -0.19124308
0001d0 20 75 96 bd 9a 7f 37 3d 3b 81 c7 bd 9c ea 03 be
       -0.073465586 0.044799425 -0.09741446 -0.12882465
0001e0 c1 84 4a 3d 5e 92 07 bd 27 42 32 be ff b6 1a be
       0.04944301 -0.03309857 -0.17408048 -0.1510887
0001f0 c4 30 0b be 9e 6d 74 be 6b 84 d6 3d 38 dc 27 be
       -0.13592821 -0.2386994 0.104744755 -0.163926
000200 ef 96 8c 3d 35 28 93 3e 83 b8 b4 bd 57 4f fa 3c
       0.06864726 0.28741613 -0.08824255 0.03055541
000210 86 ca c7 bd 0b e5 07 3d 30 1c 57 3d d9 24 11 3e
       -0.09755425 0.033177417 0.052517116 0.14174213
000220 a7 0e df 3d de ba 8d 3e 49 3c 60 3c 42 66 7d 3e
       0.108914666 0.2768163 0.013686248 0.2474604
000230 00 84 b4 bc 4d 54 82 3d 33 46 e3 3d 4f cc ef 3d
       -0.022035599 0.06363735 0.11097374 0.11708891
000240 40 d6 71 3b b3 f3 3f bd e5 ea 1b 3e af a6 a0 3e
       0.0036901385 -0.04686327 0.15226324 0.3137717
000250 98 f3 83 3e 24 07 2b bd 26 49 38 bd d1 b4 07 3d
       0.25771785 -0.041754857 -0.044991635 0.033131424
000260 98 64 4a 3e 1a 3c 92 3d c3 35 0e 3e 13 1c 72 be
       0.19764936 0.0714037 0.13887696 -0.23643522
000270 54 2b 1b 3e 33 ae fb bd 73 35 e9 bc c1 ae 18 3e
       0.15153247 -0.12289085 -0.02846787 0.14910413
000280 c1 d6 64 3e ba 89 95 3e 49 82 67 3e cb 24 90 3e
       0.22347547 0.2920664 0.22608294 0.2815307
000290 7e af bb 3d 0d 40 24 3e c4 35 c0 bb 35 21 70 3e
       0.09164332 0.16040058 -0.0058657844 0.23450167
0002a0 57 a2 23 3e 02 41 cf bb 1d 78 a9 3e 99 cc eb 3d
       0.15979896 -0.006324888 0.33099452 0.11513633
0002b0 d9 97 4f 3d 1f 5a 93 3e b1 89 fa 3d 52 04 7e 3e
       0.050681923 0.28779694 0.12233294 0.24806336
0002c0 fe 83 0c bd 65 50 08 3e 1a c1 97 bd cf ab 0a 3e
       -0.034305565 0.13311918 -0.07409878 0.13542102
0002d0 88 2e 16 3e 1f 12 8c 3d 74 15 3a 3c 33 64 29 3e
       0.14666188 0.06839394 0.011357654 0.16542129
0002e0 93 e1 3e 3e 1f e4 94 3e 0a 49 3d 3e db 24 db bd
       0.18640737 0.29080293 0.18484893 -0.10700389
0002f0 e0 34 8d 3e 88 cb 32 3e cb c3 44 3e f9 79 63 3e
       0.27579403 0.17460454 0.19215314 0.22214498
000300 49 50 91 be f8 ae d4 3d 94 6d bc 3c ff 87 4b be
       -0.28381565 0.10384935 0.02300147 -0.19876097
000310 68 3a 5a 3d c6 fe 08 3c 51 85 26 bd e4 52 03 3c
       0.053278357 0.008361524 -0.040654484 0.008015368
000320 69 44 18 be 8e 34 2b be ad 89 a0 be 84 f5 92 be
       -0.14869846 -0.16719267 -0.31355038 -0.2870294
000330 bf 38 88 be bd c4 7b be 4f f4 a1 3d 46 af af 3b
       -0.26605794 -0.24586768 0.07907926 0.0053614704
000340 1b 7e 46 be 5b e2 36 be 95 c9 22 be 9f aa c8 3d
       -0.19384043 -0.17859785 -0.1589721 0.097981684
000350 1c 30 4d be f4 4e cd 3d ea 7f 99 3d 17 e3 f2 bb
       -0.20037884 0.10024825 0.07495101 -0.007412325
000360 6f 5f 86 be 9e a1 82 3d 2c 18 ab 3c ca 3b a2 3d
       -0.26244685 0.06378482 0.02088555 0.0792156
000370 a3 e9 18 bd d6 0d 61 3d 4b b6 27 be a5 c9 f4 3c
       -0.03733219 0.054944836 -0.16378133 0.029881308
000380 a8 d6 ef bd 2d 00 07 be 51 4c 2e be 67 d9 4e be
       -0.11710864 -0.13183661 -0.170213 -0.2020012
000390 16 fc b6 3d a2 c6 27 be 2b b8 48 3d 15 51 3d be
       0.089348 -0.16384366 0.04900376 -0.18487962
0003a0 3a 0b 60 be c3 11 ac 3d 76 d0 d8 3b f6 37 82 be
       -0.21879283 0.08401825 0.0066166474 -0.2543332
0003b0 ad 2c 81 bd ee 92 30 be 1b 78 33 be d6 bc 28 bc
       -0.06307349 -0.17243549 -0.17526285 -0.010298928
0003c0 df 5c 9b be 5b f9 36 be 1a a9 3b bc a2 99 d3 b9
       -0.30344293 -0.17868559 -0.011453891 -0.00040359522
0003d0 89 83 b7 bd 28 2a 8d be f0 43 b2 3c fb 75 8b be
       -0.08960635 -0.27571225 0.02176091 -0.2723845
0003e0 75 9b cc bd d6 10 bf bd c6 83 de bd c0 19 9c bd
       -0.099905886 -0.09329383 -0.108649775 -0.07622099
0003f0 c2 9f 90 3d ee 8d 94 be 7e 9a 6c bd 03 05 68 be
       0.070617214 -0.29014534 -0.057764523 -0.22658162
