CQ/result/HZ_Result/DAYS/2/data2/best_model.pth (torch_old, 599937 bytes, 11 tensors)

node_embeddings f4 [80, 2]
-0.3196212 0.23029043 -0.36715993 0.17297512 0.29714403 0.071483 0.2295941 0.11570869
-0.12957835 0.44934714 0.87319154 -0.64817655 -0.1897123 -0.13248138 -0.41915327 0.75775164
-0.682281 -0.12175724 0.9374475 -0.34092078 0.5510516 -0.015906824 0.7958572 -0.10014857
-0.5606562 -0.19455321 -0.20653199 0.27953145 0.36535615 -0.36202207 -0.20570353 0.41463268
-0.16276287 0.27530262 -0.018324487 -0.47264007 -0.008178743 0.36889955 0.10957808 -0.44677776
-0.295313 0.36505345 -0.3144594 0.18160103 -0.042776983 0.28166413 -0.18308775 -0.42115146
-0.05972905 0.167827 -0.00937693 0.19043629 0.25809774 0.8173795 -0.22447328 -0.8298407
-0.24678892 0.05661335 0.08161075 -0.17112337 0.19387726 0.1598186 -0.19617777 0.079220586
-0.09171111 -0.42252815 0.24087533 -0.21068399 0.034483302 -0.20953152 -0.004619914 -0.15713802
0.0045126067 -0.2022162 0.18285115 0.7659051 -0.12196104 -0.1428261 0.1135585 0.22290511
-0.010834353 -0.28481048 -0.20702401 -0.23281574 -0.31776166 -0.31336364 0.33318743 -0.9289728
-0.3189069 -0.46559465 -0.3424711 -0.42629117 0.004265313 0.31161588 -0.10456975 0.54654145
0.112112544 0.422353 0.84143764 0.10503667 0.08312685 0.30198854 0.6987442 0.3205423
-0.7746931 0.04673617 0.44159412 0.03097839 -0.39020726 -0.19674765 -0.5254892 -0.011233045
-0.02780983 0.52377385 -0.2182007 0.2121538 0.016767874 0.61608416 0.13222374 -0.3737942
0.15267481 0.36198905 0.22324249 -0.38771504 0.21589065 -0.33506018 -0.27040687 0.12031049
0.0518918 -0.15399952 0.22678892 0.21272382 -0.048464213 -0.25493145 0.16651452 0.21229418
0.15254031 -0.34027377 0.14838453 -0.5064685 0.32405582 0.23090805 0.22256477 0.26131395
0.4183547 0.17139041 0.28185153 0.33850008 -0.53024626 -0.3728647 0.4970459 0.12880327
0.035961766 0.34845203 0.401283 0.07644541 0.036331736 -0.34586343 -0.07825449 -0.20841648
00000000: 64a5 a3be 41d1 6b3e 63fc bbbe 6420 313e
00000010: 4323 983e ae65 923d b71a 6b3e adf8 ec3d
00000020: 30b0 04be d410 e63e 7b89 5f3f e6ee 25bf
00000030: f143 42be 33a9 07be 429b d6be 03fc 413f
00000040: f8a9 2ebf dc5b f9bd 8ffc 6f3f 2b8d aebe
00000050: b811 0d3f 074f 82bc 4cbd 4b3f b21a cdbd
00000060: 2a87 0fbf f538 47be 1f7d 53be bf1e 8f3e
00000070: f60f bb3e f55a b9be f2a3 52be bc4a d43e
00000080: 4fab 26be 77f4 8c3e 3c1d 96bc e1fd f1be
00000090: 2200 06bc 67e0 bc3e 796a e03d 0ec0 e4be
000000a0: 4433 97be 49e8 ba3e d300 a1be 9ff5 393e
000000b0: eb36 2fbd 4836 903e 5b7b 3bbe 2aa1 d7be
000000c0: 73a6 74bd d7da 2b3e b2a1 19bc bb01 433e
000000d0: 6325 843e c83f 513f 53dc 65be 7170 54bf
000000e0: 3cb6 7cbe 66e3 673d 8923 a73d f73a 2fbe
000000f0: c387 463e 7da7 233e d3e2 48be 673e a23d
00000100: 09d3 bbbd 9c55 d8be 06a8 763e 8bbd 57be
00000110: 5d3e 0d3d 6e8f 56be a662 97bb cae8 20be
00000120: 7dde 933b c311 4fbe 553d 3b3e 5b12 443f
00000130: b6c6 f9bd 0141 12be 5c91 e83d 3d41 643e
00000140: 9282 31bc aed2 91be 1afe 53be 4067 6ebe
00000150: a8b1 a2be 3371 a0be 8b97 aa3e 29d1 6dbf
00000160: c447 a3be 6c62 eebe 5f58 afbe d642 dabe
00000170: 0ac4 8b3b 1e8c 9f3e aa28 d6bd 24ea 0b3f
00000180: 439b e53d a73e d83e 7568 573f 771d d73d
00000190: 693e aa3d 3e9e 9a3e e6e0 323f 1f1e a43e
000001a0: 4952 46bf 6d6e 3f3d a018 e23e 64c6 fd3c
000001b0: 3fc9 c7be 3778 49be 7686 06bf ce0a 38bc
000001c0: 71d1 e3bc 0b16 063f 0170 5fbe d93e 593e
000001d0: c85c 893c b1b7 1d3f a965 073e f461 bfbe
000001e0: c956 1c3e a156 b93e ae99 643e 9682 c6be
000001f0: 7012 5d3e 028d abbe c572 8abe 5965 f63d
00000200: 7f8c 543d 0db2 1dbe 5b3b 683e 46d4 593e
00000210: 6982 46bd 6086 82be c882 2a3e a563 593e
00000220: 8733 1c3e 5d38 aebe 1df2 173e eba7 01bf
00000230: a5ea a53e 2973 6c3e 05e8 633e f1ca 853e
00000240: 9632 d63e f880 2f3e d84e 903e e24f ad3e
00000250: 38be 07bf 1fe8 bebe cd7c fe3e 01e5 033e
00000260: a54c 133d 4e68 b23e f774 cd3e 698f 9c3d
00000270: 96d0 143d 0315 b1be e443 a0bd 216b 55be

encoder.dcrnn_cells.0.gate.weights_pool f4 [2, 2, 65, 128]
-1.2844946 -2.9562347 -3.263853 -0.5659142 -1.4634528 -0.87660056 -1.247319 0.1481032
-0.78273165 -0.98964643 -1.9619262 -0.29937178 -0.9215222 0.6267397 -0.8805727 0.35413682
-0.1444952 -0.74949145 -0.37193546 -4.238356 -1.6797304 -0.49711645 -3.192472 -0.29498655
-3.6621163 1.5623069 -1.5337569 -4.096046 -0.14438833 -0.30381045 0.035590477 -1.3767159
-1.0342315 -0.9929398 -0.67164487 -0.534335 2.2860508 -0.8440519 -0.64150876 0.04207232
-1.6762064 -2.0523467 -0.6514846 -1.5187329 -0.65463585 -2.085596 -1.7485247 -2.2242823
-2.5969393 -0.77528185 -2.064505 -0.63532275 0.012094909 0.13172038 0.4632368 -3.2702565
-0.58681875 -0.6609169 0.29514772 -0.9491573 -2.5087032 -1.1996857 -2.0426342 0.80155724
-0.96409893 -0.9986955 -1.0429016 0.72157085 0.8305912 0.057943977 1.3479347 0.39266175
1.5557525 1.9575533 -1.0234185 -0.4329668 -1.1882973 0.62167495 1.1298906 0.8699482
-1.5835944 -1.7769477 1.1475003 -1.8976743 -0.20053226 1.1392589 -0.7725423 0.7310706
-0.6108129 -3.0274198 -1.4279914 -1.522187 0.7010201 0.7214573 -0.094168775 1.4107633
0.04413441 1.5715854 0.9056678 1.3579261 -0.10562305 -0.7170537 3.0401685 0.12713195
-2.0718253 0.080425985 -0.81025076 2.0292737 0.6776353 -0.11442003 4.283604 -1.9102284
-1.8083514 0.9925687 0.9482473 0.6376044 2.0607333 -0.41208634 -1.9460294 -0.6855995
-3.2306156 0.8671814 -0.5692404 -0.24843447 1.0731039 -1.4150418 -2.5824847 -0.1633713
-0.19142725 0.11495423 -0.04449971 0.09474737 0.599762 0.07825748 -0.6854946 -0.36690846
0.7805704 0.054337233 0.18836822 -0.48192725 -0.4168763 -0.52476305 0.5091812 1.1532396
0.2230205 0.12067047 -0.19377506 0.10797389 -0.21356726 -0.019294335 0.17176412 -0.8711892
-0.07746638 0.033015504 0.13008267 -0.078167625 -0.038802583 0.27194095 0.22522403 0.5469727
0.05223115 0.08255309 0.81155896 1.406576 0.31299397 0.034370758 0.33762345 0.78674805
0.12036594 0.15309505 -0.40128762 0.85733473 0.4848892 0.021922655 0.16304074 0.19665511
-0.020665837 -0.35261804 -0.033323 -0.11322414 -0.18711017 -0.46973443 0.4794615 -0.1131465
-0.25128683 0.59032714 0.57684076 -0.11195767 0.052547347 -0.33164966 0.062978104 -0.1942176
-0.5426435 -1.5831486 0.036216125 -0.23477027 0.9111253 -0.18440764 -0.22695982 0.27584806
0.59109944 0.15949574 -0.43354768 -0.6554975 0.5649804 0.27803782 0.5213792 0.5055151
0.12618956 0.9666001 -0.053109277 -0.20278445 -0.19643196 -0.2322984 -0.7936667 -0.78169835
0.0919626 0.051876854 0.3760717 0.13203274 0.17281078 0.32114372 -0.30217245 -0.19058652
-1.3619417 0.08962646 0.17871782 -0.29884923 0.16777326 0.10005433 0.0973167 -0.20104434
0.9071706 0.3639312 0.32026914 0.14252222 -0.9175548 0.15903005 -0.013999266 0.07154709
0.06502491 -0.5022685 -0.87399113 0.5403107 0.23182191 0.8111051 0.5418268 -0.50924367
-0.15137257 -0.7534964 1.2127964 1.3229619 0.08031856 0.7089514 0.86726147 0.74612945
00000000: 526a a4bf f332 3dc0 f8e2 50c0 c1df 10bf
00000010: 6c52 bbbf e568 60bf 26a8 9fbf 5ea8 173e
00000020: 1a61 48bf 7859 7dbf 6620 fbbf 4247 99be
00000030: e1e8 6bbf 0372 203f 366d 61bf 6c51 b53e
00000040: 8df6 13be acde 3fbf 536e bebe 9da0 87c0
00000050: 6801 d7bf 0c86 febe 7651 4cc0 7a08 97be
00000060: 1d60 6ac0 acf9 c73f 2552 c4bf cf12 83c0
00000070: 89da 13be 0b8d 9bbe 52c7 113d 3a38 b0bf
00000080: b361 84bf 4d31 7ebf ebf0 2bbf 2eca 08bf
00000090: a84e 1240 c913 58bf eb39 24bf 0654 2c3d
000000a0: ee8d d6bf a659 03c0 b2c7 26bf d765 c2bf
000000b0: 3796 27bf 687a 05c0 a8cf dfbf a45a 0ec0
000000c0: 4134 26c0 df78 46bf da20 04c0 83a4 22bf
000000d0: ba29 463c b5e1 063e 602d ed3e e24b 51c0
000000e0: c139 16bf da31 29bf 9a1d 973e f9fb 72bf
000000f0: 988e 20c0 4d8f 99bf 85ba 02c0 db32 4d3f
00000100: 30cf 76bf 82aa 7fbf cd7d 85bf deb8 383f
00000110: a0a1 543f aa56 6d3d 2089 ac3f f60a c93e
00000120: e622 c73f 1b91 fa3f 61ff 82bf d3ad ddbe
00000130: 201a 98bf 1726 1f3f 41a0 903f edb4 5e3f
00000140: 39b3 cabf 0673 e3bf 4ae1 923f fee6 f2bf
00000150: 5458 4dbe 3cd3 913f 55c5 45bf 7127 3b3f
00000160: 3c5e 1cbf 3fc1 41c0 6cc8 b6bf 06d7 c2bf
00000170: 0e76 333f 6db1 383f 8fdb c0bd e493 b43f
00000180: 48c6 343d b629 c93f d8d9 673f 86d0 ad3f
00000190: e650 d8bd d590 37bf 1f92 4240 e12e 023e
000001a0: c998 04c0 61b6 a43d 986c 4fbf 9fdf 0140
000001b0: 8279 2d3f 0c55 eabd 4913 8940 5d82 f4bf
000001c0: 0f78 e7bf fb18 7e3f 56c0 723f 0b3a 233f
000001d0: 0ee3 0340 fbfc d2be 7e17 f9bf 7383 2fbf
000001e0: 68c2 4ec0 9aff 5d3f bdb9 11bf 9b65 7ebe
000001f0: 785b 893f 1720 b5bf 6e47 25c0 ce4a 27be
00000200: 8105 44be 206d eb3d 5445 36bd e90a c23d
00000210: 018a 193f 7545 a03d 937c 2fbf 6ddb bbbe
00000220: 76d3 473f b890 5e3d 99e3 403e 2bbf f6be
00000230: cf70 d5be df56 06bf b359 023f 5b9d 933f
00000240: 7c5f 643e 1422 f73d f86c 46be 6a21 dd3d
00000250: 60b1 5abe 270f 9ebc efe2 2f3e 4106 5fbf
00000260: b2a6 9ebd 443b 073d 6434 053e 5916 a0bd
00000270: 75ef 1ebd d83b 8b3e 21a1 663e 6706 0c3f
00000280: 55f0 553d 9811 a93d 54c2 4f3f af0a b43f
00000290: bf40 a03e 5ac8 0c3d fbdc ac3e 5268 493f
000002a0: 6b82 f63d f3c4 1c3e 9275 cdbe 4a7a 5b3f
000002b0: 6643 f83e 2497 b33c 27f4 263e f55f 493e
000002c0: 674b a9bc 5a8a b4be b37d 08bd 0fe2 e7bd
000002d0: cf99 3fbe 0881 f0be fa7b f53e 5ab9 e7bd
000002e0: aba8 80be ae1f 173f d6ab 133f 104a e5bd
000002f0: e33b 573d fccd a9be aafa 803d fbe0 46be
00000300: afea 0abf 9da4 cabf 5c57 143d 9e67 70be
00000310: 823f 693f 5bd5 3cbe 2868 68be f53b 8d3e
00000320: 4b52 173f da52 233e f6f9 ddbe afce 27bf
00000330: 8ea2 103f f95a 8e3e 1b79 053f 7069 013f
00000340: d637 013e 1b73 773f 1d89 59bd baa6 4fbe
00000350: 7625 49be a2df 6dbe be2d 4bbf 621d 48bf
00000360: e356 bc3d d37c 543d 788c c03e 9733 073e
00000370: 4ff5 303e f36c a43e 59b6 9abe 1d29 43be
00000380: 1b54 aebf 148e b73d ce01 373e c402 99be
00000390: c1cc 2b3e 49e9 cc3d fa4d c73d 91de 4dbe
000003a0: 553c 683f 3155 ba3e 51fa a33e 58f1 113e
000003b0: dfe4 6abf c6d8 223e 2d5d 65bc 4887 923d
000003c0: c82b 853d ab94 00bf e2bd 5fbf cd51 0a3f
000003d0: b962 6d3e 95a4 4f3f 29b5 0a3f cb5d 02bf
000003e0: 6901 1bbe 24e5 40bf ea3c 9b3f d156 a93f
000003f0: 0f7e a43d d77d 353f d904 5e3f 5702 3f3f

encoder.dcrnn_cells.0.gate.bias_pool f4 [2, 128]
0.33350533 0.04055405 0.18309225 -0.2529333 0.34330878 0.81641024 0.049042188 0.07099891
-0.12168219 0.18976837 0.56830275 0.34445107 0.38946864 -0.18585797 0.04516775 -0.06363763
0.42233264 0.36962697 6.631411e-05 0.1799878 -0.061275057 -0.05545225 0.5331515 -0.060346674
0.44957295 -0.22311221 0.40696207 -0.08815087 -0.13061894 -0.35558963 -0.072784394 0.16513816
0.12253934 0.34950387 0.42380196 0.60415095 0.0041462504 0.24413204 0.79684156 -0.028585779
0.3667899 0.6774923 0.6375751 0.52162725 -0.5869568 0.44985676 0.31237477 0.7178819
0.6301929 0.008951979 0.2793505 -0.3813611 0.38019848 0.58581036 0.37404984 0.3948526
0.2613607 -0.7491691 0.24085955 0.5577194 0.6747703 0.28877825 0.27160347 0.0019355807
-0.6133834 0.039877 0.20986179 -0.19919775 -0.42976737 -0.5884147 0.9468555 -0.21488424
0.19880934 0.04060896 -0.4891599 -0.2895593 0.0057452507 0.46051148 0.39139512 -0.48712307
0.6503796 -0.62391394 -0.95662785 0.02442238 -0.12512024 -0.8541776 -1.8509065e-05 -0.17639509
0.52630293 0.5136575 0.3332418 0.2793015 -0.47706878 0.5038252 -1.0031403 -0.6833352
0.0041840905 -0.059024457 0.060403924 -0.3826242 -0.5618663 0.57743233 -0.019447654 -0.56346893
-0.17737998 -0.056247313 0.24622321 -0.5006554 0.23716664 -0.16876748 0.08101345 0.39244586
0.25176394 -1.1318303 -0.17333685 0.24305654 0.40962392 -0.48348886 0.14934392 -0.11541595
0.2486889 -0.33788142 -0.25900626 -0.30946687 -0.25595787 0.0018427405 0.3126215 -0.12017771
-0.088428766 -0.9136943 -0.33714342 -1.3900641 -1.1501746 -0.7106667 -0.015328885 -0.41244796
-0.46059752 -0.99654895 -0.2039933 -0.62119234 -0.3566073 0.4753143 -0.8814255 0.33700743
0.12000151 -0.12921157 0.29020798 -0.4089332 -0.43842202 -1.1212481 -0.5033735 -0.24165466
-0.4970348 -0.04589851 -0.109277315 -0.68557966 0.11444752 -0.27287048 -0.33935058 -1.2703652
-0.67350215 -1.0475076 -1.1303802 0.15221171 -0.21459481 -0.7120626 -0.97406304 -0.69138926
0.3747532 -0.82692385 -0.88476664 0.095921054 -0.9872922 -0.900478 -0.18030941 -0.22440709
-0.21814258 0.43465173 -1.039721 -1.3311288 -1.2649012 -0.900355 0.03278829 -0.070835985
-0.06273864 0.2554616 -0.2992036 -0.80070513 -0.4567303 -0.098774694 -0.3546084 0.048543308
-0.043755174 0.9400008 -0.045977183 1.3408841 0.62459415 -0.32188764 -0.37672132 -0.27364966
-0.4959082 0.26807407 -0.17302176 -0.6591888 -0.42554903 -0.12261867 0.9483255 -0.11801109
-0.2821778 -0.5367597 -0.37859884 0.5484318 -0.2789881 1.4158899 -0.3079891 -0.21942481
-0.030930648 -0.2802524 -0.6033984 0.35471034 -0.28967446 0.008643848 -0.52005446 0.32240936
0.5324522 0.5735169 0.62386245 -0.18406197 -0.046413116 0.13543975 -0.19993885 1.4089824
-0.08870785 -0.31917933 0.038831472 -0.2883909 0.7493981 0.8099353 0.61627185 -0.38628283
-0.13467547 0.68412703 0.50528204 0.79752403 0.07921515 0.1339725 0.036795758 0.17275153
-0.13932389 -0.7925577 0.3537876 0.120863125 1.0428082 -0.41651183 0.10351617 -0.4952537
00000000: 36c1 aa3e 011c 263d 897c 3b3e 7980 81be
00000010: 2bc6 af3e 4300 513f 76e0 483d e067 913d
00000020: 8334 f9bd a452 423e 4a7c 113f e45b b03e
00000030: 6f68 c73e 8d51 3ebe d201 393d 7254 82bd
00000040: fc3b d83e bf3f bd3e 1e12 8b38 b94e 383e
00000050: 8efb 7abd e621 63bd 9e7c 083f 132e 77bd
00000060: 6d2e e63e 8777 64be 555d d03e 7188 b4bd
00000070: f9c0 05be d80f b6be fc0f 95bd fa19 293e
00000080: e8f5 fa3d 2cf2 b23e 92fc d83e a3a9 1a3f
00000090: 45dd 873b c0fd 793e cffd 4b3f b92c eabc
000000a0: e3cb bb3e 2370 2d3f 1f38 233f 5d89 053f
000000b0: cd42 16bf a053 e63e 96ef 9f3e 1cc7 373f
000000c0: 5254 213f 52ab 123c 0707 8f3e c341 c3be
000000d0: 60a9 c23e abf7 153f 7683 bf3e 1f2a ca3e
000000e0: 12d1 853e 8cc9 3fbf e3a3 763e b3c6 0e3f
000000f0: bfbd 2c3f beda 933e 9c0f 8b3e 50b3 fd3a
00000100: b206 1dbf 1156 233d 02e6 563e 7ffa 4bbe
00000110: 780a dcbe 59a2 16bf 1f65 723f 9d0a 5cbe
00000120: ad94 4b3e 9555 263d 2b73 fabe 1e41 94be
00000130: a842 bc3b 29c8 eb3e f164 c83e 3268 f9be
00000140: 477f 263f d3b8 1fbf 90e5 74bf 7111 c83c
00000150: 851f 00be 62ab 5abf ea43 9bb7 eaa0 34be
00000160: cabb 063f 0f7f 033f ab9e aa3e 9b00 8f3e
00000170: 5c42 f4be b0fa 003f e766 80bf 0eef 2ebf
00000180: b21a 893b a1c3 71bd 1b6a 773d 52e7 c3be
00000190: 78d6 0fbf 9bd2 133f b050 9fbc 803f 10bf
000001a0: 19a3 35be 9563 66bd f021 7c3e f42a 00bf
000001b0: d0db 723e 62d1 2cbe 61ea a53d aaee c83e
000001c0: 34e7 803e d1df 90bf 377f 31be d0e3 783e
000001d0: 3aba d13e da8b f7be 9ded 183e 335f ecbd
000001e0: 4ea8 7e3e cbfe acbe 789c 84be 7172 9ebe
000001f0: e90c 83be 1c88 f13a ed0f a03e bb1f f6bd
00000200: 241a b5bd dfe7 69bf 109e acbe 9fed b1bf
00000210: ec38 93bf 41ee 35bf 0126 7bbc 612c d3be
00000220: 70d3 ebbe d51d 7fbf 9fe3 50be 7606 1fbf
00000230: 3b95 b6be 655c f33e 1aa5 61bf 3d8c ac3e
00000240: 5ac3 f53d 0a50 04be 2496 943e b15f d1be
00000250: da78 e0be 0f85 8fbf 16dd 00bf 5274 77be
00000260: 587b febe 1300 3cbd c9cc dfbd 2682 2fbf
00000270: 7663 ea3d aeb5 8bbe 5cbf adbe 549b a2bf
00000280: a36a 2cbf bb14 86bf 4cb0 90bf 63dd 1b3e
00000290: bebe 5bbe bc49 36bf 325c 79bf e3fe 30bf
000002a0: a7df bf3e 48b1 53bf 1180 62bf 4272 c43d
000002b0: 2ebf 7cbf ba85 66bf 08a3 38be f9ca 65be
000002c0: c560 5fbe ac8a de3e 9415 85bf 6e62 aabf
000002d0: 48e8 a1bf aa7d 66bf 044d 063d 7512 91bd
000002e0: 1e7d 80bd ddcb 823e 3731 99be 03fb 4cbf
000002f0: 8ed8 e9be 634a cabd 3b8f b5be 59d5 463d
00000300: a038 33bd e4a3 703f 9252 3cbd 17a2 ab3f
00000310: 67e5 1f3f 75ce a4be 9ee1 c0be cf1b 8cbe
00000320: aee7 fdbe 0141 893e 9e2c 31be 99c0 28bf
00000330: 90e1 d9be 7f1f fbbd 76c5 723f ccaf f1bd
00000340: 9c79 90be 1569 09bf b5d7 c1be 0766 0c3f
00000350: 87d7 8ebe e13b b53f bfb0 9dbe e6b0 60be
00000360: 4562 fdbc 3e7d 8fbe 5178 1abf 989c b53e
00000370: 3650 94be ed9e 0d3c 4a22 05bf d712 a53e
00000380: ca4e 083f 01d2 123f 73b5 1f3f be7a 3cbe
00000390: ae1b 3ebd b8b0 0a3e c5bc 4cbe 8959 b43f
000003a0: 76ac b5bd 796b a3be c00d 1f3d f9a7 93be
000003b0: 8ed8 3f3f eb57 4f3f fec3 1d3f ddc6 c5be
000003c0: 5ee8 09be f322 2f3f 2a5a 013f 892a 4c3f
000003d0: 8d3b a23d 1630 093e 26b7 163d c7e5 303e
000003e0: ecaa 0ebe 10e5 4abf a623 b53e 1687 f73d
000003f0: bd7a 853f 0a41 d5be 4900 d43d e591 fdbe

encoder.dcrnn_cells.0.update.weights_pool f4 [2, 2, 65, 64]
0.7758697 0.45313457 0.80816215 0.99294853 -0.34505162 0.6870508 -0.43989438 -0.5969892
-0.21008618 0.7060529 1.4651455 0.0801581 -0.8565618 -1.5408909 0.45075318 1.4331621
0.09934565 -2.0215 -1.207035 0.15204778 0.3144126 1.0522362 1.5420518 0.8928295
0.17887862 0.09997741 0.16616234 -0.46077025 0.9269964 -1.4670235 -2.6100037 -1.1031063
-1.0083306 0.7516022 0.23236588 -2.0784438 -0.01050593 -0.038933292 -0.24141164 1.1287639
-1.1742234 -0.3972583 1.271609 -1.3429118 1.1121488 -0.45665354 0.48579115 0.7565429
0.38205984 2.1514955 0.8960581 1.4066962 0.01353674 0.26585007 -0.021587234 -0.91571593
-1.0357774 1.3329134 1.3962685 1.3620286 0.3107957 1.2012881 -0.106434114 0.13136503
0.024145557 0.92809254 -0.1983785 -0.24042837 0.5499116 0.3521801 0.28775653 -1.0728842
1.4675504 -0.0974655 0.7201619 -0.24718271 0.27126405 -0.22810885 -0.08085275 0.004720441
0.7375863 -0.06563369 -1.0090625 -0.113780856 0.9968968 -0.084440805 0.5221799 -0.60851014
-0.13333312 -0.23785487 0.63289535 -1.5088505 0.011367815 1.1120611 0.48491612 0.06636866
0.15765393 -0.51145595 -0.3339965 0.8314745 -0.054171667 0.3013979 0.04273619 -0.43517604
-0.8068761 1.2090796 -0.47472176 0.94413567 -0.9726354 -0.34381497 -1.0396174 -0.06394616
1.5233235 -1.3852322 0.16718462 -0.05560126 0.8632891 -0.26300582 0.24041298 -0.5352307
1.1505312 0.1278736 -0.03536919 0.10288275 -0.29827192 0.33977833 1.2018511 -0.33701578
0.17640634 0.9829886 0.8107654 -0.6978151 0.5479546 0.4043244 -0.22291647 -0.23759179
-0.64312774 -0.6513824 1.8781289 -1.1105392 -0.20939603 0.26667288 -0.20547353 -0.8661595
-0.33731604 0.50666463 0.45054144 0.37421456 0.7390015 -0.6689324 1.2673007 0.4783062
-0.8166486 1.27066 -1.3883156 -0.63926005 -1.0200112 0.87312734 -0.17606154 0.7391265
0.11765126 -0.64485836 0.13102333 1.0783095 0.25393975 -0.66595685 0.19589785 -0.15881102
-0.58533746 0.50845647 0.15910655 0.6845523 -1.0294251 -0.86351544 -1.5831999 0.36182034
1.3931657 -0.37637296 -0.80557436 0.030500488 0.41518298 0.35897017 0.5777987 -1.4050097
0.39708903 -0.86847293 0.035481334 0.07834989 -0.4908403 0.34981388 1.4564652 -0.33668593
-0.58896416 1.1502467 0.7714629 -0.08086713 0.43805778 0.050047252 -0.047921985 0.20872486
-0.33921033 0.2950029 -0.2039352 -0.05126284 0.65279305 0.71651614 -0.06372345 -0.6488009
0.26191652 0.5924527 -0.5236316 0.119755715 0.7087182 -0.549321 -0.5896704 -0.61345065
0.18686703 0.06821798 -0.6591403 0.29542097 0.40108567 0.92052466 0.4925775 0.58250785
0.55171037 -0.2368671 0.18935756 -0.2181979 0.28968963 -0.5505056 -0.16899608 0.11116618
0.45776418 -0.029499184 0.7796324 0.07484235 -0.32016593 -1.0734118 -0.46010137 -0.05622269
0.8622521 -0.08796931 -0.4219858 -0.2585314 0.11056649 -0.46841118 0.79691786 -1.3751345
1.04374 -0.5024448 0.89133745 -0.6528652 -0.67413896 0.14801191 -0.065687165 -1.4303737
00000000: 669f 463f 4101 e83e b7e3 4e3f e031 7e3f
00000010: 9baa b0be 90e2 2f3f d639 e1be 49d4 18bf
00000020: d520 57be e2bf 343f e389 bb3f ee29 a43d
00000030: a247 5bbf ea3b c5bf 1fc9 e63e db71 b73f
00000040: bb75 cb3d 4260 01c0 1f80 9abf 6ab2 1b3e
00000050: b0fa a03e adaf 863f f461 c53f 7990 643f
00000060: f52b 373e f5c0 cc3d 7626 2a3e 14ea ebbe
00000070: a34f 6d3f 6dc7 bbbf 4d0a 27c0 9632 8dbf
00000080: fa10 81bf 0069 403f 52f1 6d3e 3905 05c0
00000090: 1021 2cbc 8478 1fbd 9d34 77be 567b 903f
000000a0: f44c 96bf 7165 cbbe 15c4 a23f 89e4 abbf
000000b0: e45a 8e3f 7ece e9be 9eb9 f83e ccac 413f
000000c0: 599d c33e 1ab2 0940 1064 653f 9f0e b43f
000000d0: 34c9 5d3c 801d 883e b6d7 b0bc 5c6c 6abf
000000e0: 5b94 84bf e89c aa3f edb8 b23f f456 ae3f
000000f0: 9d20 9f3e cfc3 993f 21fa d9bd 8e84 063e
00000100: e7cc c53c 7997 6d3f bc23 4bbe db32 76be
00000110: 02c7 0c3f f350 b43e d354 933e 4554 89bf
00000120: b1d8 bb3f fe9b c7bd 885c 383f 771d 7dbe
00000130: 1fe3 8a3e 5e95 69be 2096 a5bd eead 9a3b
00000140: 75d2 3c3f f56a 86bd f628 81bf f005 e9bd
00000150: a134 7f3f 4def acbd 95ad 053f 52c7 1bbf
00000160: 7a88 08be 3a90 73be 6e05 223f 0322 c1bf
00000170: 1240 3a3c 0558 8e3f ed46 f83e 4bec 873d
00000180: 0870 213e c7ee 02bf 9701 abbe 83db 543f
00000190: 1ce3 5dbd d350 9a3e 250c 2f3d 65cf debe
000001a0: 6f8f 4ebf 1fc3 9a3f bb0e f3be e0b2 713f
000001b0: a2fe 78bf 8408 b0be 2f12 85bf 34f6 82bd
000001c0: 44fc c23f 4a4f b1bf 7232 2b3e 26be 63bd
000001d0: 8400 5d3f b3a8 86be d22e 763e e104 09bf
000001e0: 9b44 933f 4cf1 023e 49df 10bd 31b4 d23d
000001f0: 19b7 98be 6df7 ad3e 42d6 993f 558d acbe
00000200: dda3 343e 24a5 7b3f 528e 4f3f 03a4 32bf
00000210: c146 0c3f 9c03 cf3e 3744 64be 434b 73be
00000220: 05a4 24bf ffc0 26bf 8766 f03f 2626 8ebf
00000230: ea6b 56be 5989 883e a767 52be a1bc 5dbf
00000240: b0b4 acbe c6b4 013f 5ead e63e 0d99 bf3e
00000250: 342f 3d3f 273f 2bbf e936 a23f 8de4 f43e
00000260: e20f 51bf fda4 a23f 53b4 b1bf 8ca6 23bf
00000270: ba8f 82bf 4685 5f3f 7a49 34be 6537 3d3f
00000280: 25f3 f03d 7015 25bf fb2a 063e 0c06 8a3f
00000290: 6404 823e 267c 2abf 7299 483e 5b9f 22be
000002a0: add8 15bf 342a 023f d4ec 223e d23e 2f3f
000002b0: 34c4 83bf 590f 5dbf 4ba6 cabf 8440 b93e
000002c0: 4153 b23f f5b3 c0be 1f3a 4ebf 29dc f93c
000002d0: dd92 d43e f0ca b73e 9eea 133f 5cd7 b3bf
000002e0: 414f cb3e 3e54 5ebf e054 113d e875 a03d
000002f0: 6b4f fbbe ce1a b33e 746d ba3f 1962 acbe
00000300: 5bc6 16bf 493b 933f 987e 453f aa9d a5bd
00000310: 1c49 e03e 59fe 4c3d d849 44bd f8bb 553e
00000320: faac adbe 9f0a 973e 64d4 50be fcf8 51bd
00000330: 721d 273f 9a6d 373f 7181 82bd d117 26bf
00000340: ec19 863e fbaa 173f b80c 06bf 7c42 f53d
00000350: 8e6e 353f 4da0 0cbf a4f4 16bf 1a0b 1dbf
00000360: 125a 3f3e deb5 8b3d 6bbd 28bf 6b41 973e
00000370: 1a5b cd3e 81a7 6b3f 1e33 fc3e 3c1f 153f
00000380: e43c 0d3f 4a8d 72be f3e6 413e 456f 5fbe
00000390: 3352 943e efed 0cbf 4f0d 2dbe 18ab e33d
000003a0: 1160 ea3e 46a8 f1bc fd95 473f f246 993d
000003b0: caec a3be 8f65 89bf 6892 ebbe c349 66bd
000003c0: 8ebc 5c3f 4129 b4bd 860e d8be 3a5e 84be
000003d0: af70 e23d 97d3 efbe cf02 4c3f 6804 b0bf
000003e0: 4699 853f 39a0 00bf b12e 643f 2c22 27bf
000003f0: 5f94 2cbf 6f90 173e fe86 86bd 7c16 b7bf

encoder.dcrnn_cells.0.update.bias_pool f4 [2, 64]
0.6921717 1.7061571 1.2229238 -0.38018328 0.14403598 0.21674135 -0.2990288 -0.12055691
0.7131425 0.036505025 0.17090303 -0.07458989 -0.13377978 -0.13364014 -0.51962715 0.07604395
0.5253252 -0.041987065 -0.33547723 1.1513108 -0.26392522 0.19063696 0.24264751 0.21552739
-0.46750537 0.32582796 -0.58779764 -1.260064 0.20978603 -0.41795093 -0.42550972 0.32227108
0.48023978 0.07457051 -0.3002655 -0.48111138 0.3596411 -0.76654696 -0.03289417 -0.2037772
-0.53584397 0.4878982 0.2810494 -0.60481286 -0.44686604 -0.7506579 0.75717425 0.29052994
0.42162886 0.043924667 0.33245113 -0.3657729 -0.38584575 0.045974877 -0.2589903 -0.57199293
0.7668969 0.13843901 0.37863696 -0.077606946 -0.047339745 0.0452862 1.1918377 0.1895282
-0.1068811 -0.101794 -0.15929635 -0.6525573 0.21859173 0.7767838 -0.15849087 -0.39745927
0.77933943 -0.33933055 -1.0786147 -0.26075378 0.037981812 -0.44848597 -0.6530137 0.4799974
-0.5749454 0.83077204 -0.37373605 -0.2159507 -0.05709845 -0.6093883 -1.2345155 0.5466769
0.123507805 -0.64355654 1.0263836 -0.27597895 0.59814095 -0.72913253 -0.3054196 0.39609778
-0.013725103 -0.47551548 -0.43739924 -0.19046634 0.44750446 0.4192417 0.2108871 -0.5624088
0.35552856 0.37801993 -0.99055475 -0.39003107 -0.7748081 0.3125677 0.11051361 -0.8019767
-0.26286128 0.4706899 -0.32678062 -0.7012706 -0.33632508 -0.23437813 0.98459584 0.011792686
0.6959763 0.31239703 -0.16552454 -0.2296713 0.37720808 -1.1355717 -0.41116348 0.6131406
00000000: 2a32 313f 5b63 da3f c488 9c3f 62a7 c2be
00000010: 2b7e 133e 72f1 5d3e 4e1a 99be 8be6 f6bd
00000020: 8290 363f 4b86 153d 3401 2f3e 96c2 98bd
00000030: 91fd 08be f6d8 08be 4906 05bf eebc 9b3d
00000040: b67b 063f a1fa 2bbd acc3 abbe 275e 933f
00000050: 3521 87be 5636 433e 9778 783e 36b3 5c3e
00000060: dd5c efbe ecd2 a63e e879 16bf c749 a1bf
00000070: 26d2 563e aafd d5be 69dc d9be b700 a53e
00000080: fde1 f53e 6cb8 983d 66bc 99be 3b54 f6be
00000090: e122 b83e 6c3c 44bf 0abc 06bd f8aa 50be
000000a0: 122d 09bf cbcd f93e b5e5 8f3e 04d5 1abf
000000b0: a0cb e4be 1e2b 40bf 2cd6 413f 57c0 943e
000000c0: bddf d73e 5aea 333d 0937 aa3e 9646 bbbe
000000d0: 938d c5be 2750 3c3d 609a 84be 216e 12bf
000000e0: 5b53 443f f5c2 0d3e b4dc c13e 64f0 9ebd
000000f0: 52e7 41bd 067e 393d 238e 983f ae13 423e
00000100: 7ae4 dabd 5f79 d0bd 951e 23be ff0d 27bf
00000110: 83d6 5f3e 4edb 463f 6e4b 22be c87f cbbe
00000120: ca82 473f bcbc adbe 0c10 8abf 8581 85be
00000130: d192 1b3d f49f e5be e82b 27bf 38c2 f53e
00000140: 9f2f 13bf 7aad 543f 555a bfbe 2e22 5dbe
00000150: 10e0 69bd df00 1cbf 9b04 9ebf 04f3 0b3f
00000160: a9f1 fc3d 1fc0 24bf 8a60 833f 1d4d 8dbe
00000170: c41f 193f 6ea8 3abf f55f 9cbe 54cd ca3e
00000180: 41df 60bc c476 f3be cbf2 dfbe 9c09 43be
00000190: 4e1f e53e d9a6 d63e caf2 573e 06fa 0fbf
000001a0: d707 b63e d48b c13e ff94 7dbf 27b2 c7be
000001b0: d359 46bf e008 a03e f654 e23d 584e 4dbf
000001c0: c195 86be 44fe f03e ca4f a7be 7886 33bf
000001d0: cd32 acbe d200 70be 790e 7c3f 1c36 413c
000001e0: 812b 323f 81f2 9f3e 447f 29be f42e 6bbe
000001f0: 6b21 c13e 6a5a 91bf 0584 d2be c8f6 1c3f

encoder.dcrnn_cells.1.gate.weights_pool f4 [2, 2, 128, 128]
-0.9910971 -0.33974582 -1.3237896 -0.10411986 0.39445063 0.2742465 0.10995729 0.18644845
-0.7433926 -1.2328806 -0.21690774 0.103719674 1.0780051 0.2665375 0.13471574 0.25636342
-0.09433053 0.22057591 0.40451002 0.9722855 -0.69259244 0.3505121 -0.9503702 1.2292767
0.34360638 -0.48475876 -0.16309498 -0.37070274 -0.5320286 -0.2619501 -0.19576079 -0.522716
0.24564764 0.55446297 0.06062902 0.52144873 0.099484034 0.04732381 -0.021820517 0.694611
0.03353843 0.11947841 0.07759009 -1.6389728 -0.7657357 -1.2291304 0.010532354 0.49289048
0.90498096 -0.62607574 0.18237638 0.114463374 0.52330554 0.27777326 -0.10896771 -0.7254752
0.20612152 -1.031245 0.03456915 -0.5122897 3.0317903 -0.0103942575 -0.39372104 0.1430716
0.46351507 1.2355748 0.18627548 0.14911509 -0.1783575 -0.7884356 0.22020504 -0.35379073
1.3860153 0.0821947 -0.8173523 -0.6456262 -0.2189632 0.3529277 0.91284347 -1.7157806
0.62423986 -0.28715798 0.8468574 -0.87131125 0.8837684 0.13777922 -0.74855566 0.27740943
-0.12386844 -0.49564847 0.75634193 0.56724507 -1.1073017 -0.8490388 -0.38400754 -0.077921055
-0.53948826 1.3703697 0.27354965 -0.26391613 -0.15338278 -0.974014 -0.6383145 0.54251367
-0.88399684 -0.4673436 -0.06534612 -0.40895632 -0.9711535 0.58230704 -0.24933054 0.36855733
-1.7388748 0.21596873 -1.1950741 -0.58679223 0.9579711 -0.30776823 0.22771572 0.61465275
0.74750245 0.6072307 0.48190075 0.042763654 -1.10601 -0.040000293 -0.027156187 -0.76711535
-0.088456646 -0.65143806 0.45789686 -0.22360753 0.15501773 0.6891422 -0.045476828 -0.08497799
0.115373224 -0.5705365 0.21020684 0.19782147 1.2696402 0.4845775 -0.35962772 0.4515949
0.22467472 0.5442791 0.5308545 -0.39526838 -0.26251885 1.5108591 0.14943032 0.8765298
0.13343881 0.7950416 0.64791113 0.29971838 -0.24881642 0.29481733 0.5139942 0.26851794
0.024314709 0.10607802 0.89827114 0.80403113 -0.112795725 -0.34455055 0.016206594 -0.09767998
-0.08678808 0.67204994 0.92680913 0.30899954 0.24372122 0.5721047 -0.21056901 0.52791506
0.32450798 -0.20256089 -0.016007202 0.27001417 0.20266141 0.2589937 0.07849333 -0.15321197
0.22776379 -1.9492655 -0.23880999 -0.48448694 2.0866663 -0.6732709 -0.42440754 -0.06376529
-0.20330784 -0.29952493 -0.6727268 -0.7596319 -0.4989287 -0.22701298 -0.71413004 0.07410962
-0.422186 0.11214566 0.15963726 -0.09882277 -1.0846604 0.14588787 0.5640045 -1.0085772
-1.8057541 -0.0030890463 -0.41534314 -0.6528466 0.051388536 0.62755936 -0.8934334 0.04031911
-0.6441773 -0.1605182 0.20633006 0.29802352 -0.4517469 -1.8383795 -0.23445727 -0.7123907
-0.33203113 -0.065693274 -0.20768647 -0.49898025 -0.12649848 -1.922084 -0.9354757 0.77637357
-0.023923928 0.41881174 0.05476891 -0.3347487 -0.1639633 0.8157494 -0.37699613 0.016840337
-0.6085793 0.027914498 -0.13918057 -0.1945694 -0.97442055 0.34485614 0.24651092 -1.1867188
-0.6029127 0.5285463 1.0461336 0.27544385 -0.82448304 -0.3653566 0.77516335 -0.014225949
00000000: 8ab8 7dbf 2af3 adbe f071 a9bf cb3c d5bd
00000010: 6ff5 c93e 0a6a 8c3e 4a31 e13d 58ec 3e3e
00000020: fa4e 3ebf 08cf 9dbf 101d 5ebe fb6a d43d
00000030: 12fc 893f 9a77 883e ecf2 093e 1142 833e
00000040: 5d30 c1bd a7de 613e f01b cf3e b4e7 783f
00000050: bd4d 31bf 5276 b33e 764b 73bf f058 9d3f
00000060: 2ded af3e 4d32 f8be 5f02 27be c0cc bdbe
00000070: 0733 08bf 531e 86be 8475 48be b7d0 05bf
00000080: 0e8b 7b3e 49f1 0d3f 2356 783d aa7d 053f
00000090: 49be cb3d 9dd6 413d f1c0 b2bc 07d2 313f
000000a0: 985f 093d 19b1 f43d 8ee7 9e3d dcc9 d1bf
000000b0: 4107 44bf 2554 9dbf e58f 2c3c 245c fc3e
000000c0: d5ac 673f 8046 20bf e0c0 3a3e c66b ea3d
000000d0: 5af7 053f 4c38 8e3e 762a dfbd beb8 39bf
000000e0: 8511 533e d6ff 83bf 6298 0d3d 6b25 03bf
000000f0: da08 4240 ad4c 2abc ce95 c9be 5d81 123e
00000100: d951 ed3e 5127 9e3f 00bf 3e3e a0b1 183e
00000110: 59a3 36be ead6 49bf 6e7d 613e 0f24 b5be
00000120: f368 b13f b255 a83d 003e 51bf c247 25bf
00000130: e437 60be f1b2 b43e 1cb0 693f b39e dbbf
00000140: 2fce 1f3f 5f06 93be a6cb 583f 410e 5fbf
00000150: a53e 623f ff15 0d3e 58a1 3fbf 9c08 8e3e
00000160: bdae fdbd a3c5 fdbe a09f 413f f936 113f
00000170: 10bc 8dbf 9b5a 59bf a39c c4be 1395 9fbd
00000180: e71b 0abf 4668 af3f b30e 8c3e 0420 87be
00000190: 6010 1dbe fb58 79bf 9468 23bf 2de2 0a3f
000001a0: 9e4d 62bf a947 efbe 30d4 85bd b962 d1be
000001b0: 849d 78bf 1312 153f 8150 7fbe 8cb3 bc3e
000001c0: 7393 debf e826 5d3e 30f8 98bf 0438 16bf
000001d0: 983d 753f cc93 9dbe 4f2e 693e e259 1d3f
000001e0: 525c 3f3f 7973 1b3f b2bb f63e f128 2f3d
000001f0: bc91 8dbf 59d7 23bd a776 debc ac61 44bf
00000200: c228 b5bd a5c4 26bf 7571 ea3e 5ff9 64be
00000210: f8bc 1e3e a06b 303f e945 3abd f108 aebd
00000220: cc48 ec3d ae0e 12bf 7640 573e b691 4a3e
00000230: 9283 a23f 8b1a f83e 2021 b8be 7237 e73e
00000240: 2111 663e e055 0b3f 15e6 073f 9e60 cabe
00000250: df68 86be d563 c13f 4304 193e 4264 603f
00000260: 2fa4 083e d987 4b3f 81dd 253f b074 993e
00000270: bbc9 7ebe 4cf2 963e 2095 033f 2f7b 893e
00000280: a42f c73c 6f3f d93d 19f5 653f fcd4 4d3f
00000290: 7201 e7bd ee68 b0be b1c3 843c 710c c8bd
000002a0: f3bd b1bd 770b 2c3f 5d43 6d3f 3035 9e3e
000002b0: 0e92 793e 7475 123f 679f 57be 7125 073f
000002c0: e925 a63e 1f6c 4fbe 8921 83bc 4c3f 8a3e
000002d0: 7986 4f3e d29a 843e 1cc1 a03d 99e3 1cbe
000002e0: e93a 693e 8881 f9bf 9b8a 74be ac0e f8be
000002f0: f18b 0540 7b5b 2cbf f24b d9be 6097 82bd
00000300: ee2f 50be 555b 99be d337 2cbf 3c77 42bf
00000310: 9573 ffbe 1776 68be 3ad1 36bf c9c6 973d
00000320: c328 d8be a0ac e53d f377 233e 9863 cabd
00000330: 27d6 8abf a163 153e 9962 103f 0f19 81bf
00000340: f322 e7bf 9971 4abb dba7 d4be f420 27bf
00000350: c97c 523d bba7 203f 0db8 64bf a725 253d
00000360: cee8 24bf e25e 24be 3048 533e 8a96 983e
00000370: 5f4b e7be 0550 ebbf 9115 70be 3d5f 36bf
00000380: fcff a9be 328a 86bd c3ab 54be 577a ffbe
00000390: d188 01be d906 f6bf 567b 6fbf 6bc0 463f
000003a0: 1dfc c3bc 7e6e d63e 5d55 603d 2e64 abbe
000003b0: ffe5 27be f4d4 503f a305 c1be bff4 893c
000003c0: dacb 1bbf f2ac e43c 5a85 0ebe 333d 47be
000003d0: a073 79bf fc90 b03e 5c6d 7c3e 67e6 97bf
000003e0: 7d58 1abf cf4e 073f b5e7 853f fa06 8d3e
000003f0: 5211 53bf 0510 bbbe 1b71 463f f413 69bc

encoder.dcrnn_cells.1.gate.bias_pool f4 [2, 128]
-0.4009684 -0.2163763 1.5474952 -1.3257179 0.25003064 0.60010636 -0.6400395 -0.12734929
-0.28788635 -0.22584224 0.19744903 0.32006404 0.104425915 0.5373212 -0.3098985 -0.21114889
-0.22878651 -0.51556224 -0.40708816 -1.116345 -0.68754894 1.2305155 0.038201597 0.0023435603
-0.6207009 -0.08668768 0.77203184 0.143386 0.91386175 -0.044920973 -0.50550514 0.5905936
0.21633871 0.07811531 0.4664431 0.7283971 -0.47097573 -1.1467055 -0.9456478 -0.51995957
0.0042927153 0.35266244 0.11714514 -0.97629595 0.1835033 0.4380355 -0.28935745 -1.0141536
-0.03424166 -0.91880214 -1.2435472 0.08235292 -0.25282824 0.3022476 0.27008572 0.013312463
-0.5937414 -0.6225945 0.4191208 -0.6193913 0.7471677 -0.29883423 0.09831882 0.113313735
1.5232111 0.70677006 -0.82820714 0.9090565 0.36112764 0.27046427 -0.6594615 0.27479836
0.22774826 -0.34110558 0.2686788 0.3158558 -0.1414015 -0.010722484 0.8939582 -1.2754372
1.4962623 1.2493721 -2.3357542 0.17781404 1.2375493 -0.543272 0.55828446 0.5621715
0.18919186 1.3613822 -0.19872649 -0.5510772 -1.0274193 1.4411384 -0.94938505 0.43897963
-0.15642112 0.95383954 0.83650064 0.20750223 0.10507721 1.5162481 0.6266661 -0.07467731
1.2858894 -1.9332811 1.3525399 -0.6859163 0.17959347 0.20454983 -0.2790096 0.44324958
-0.60503155 -0.73965013 0.5085822 0.73494434 0.49224198 1.0107311 -0.028529938 0.15137681
0.64625204 -0.9119072 0.0017384585 0.004984525 -0.72293526 -0.26989 -1.2756194 0.75260806
-0.74686486 0.9551766 0.4960392 -0.055371787 -0.08634275 0.17541587 -0.4168891 0.3945656
-0.2840685 -0.9548823 -0.64368796 0.86009216 -0.4267376 0.5938069 0.14417411 -0.14428544
0.3922233 0.060597062 0.37333494 -1.8357582 -0.75324494 0.55287397 -0.43336952 0.5339869
1.2363927 1.0392497 -0.38497698 0.1583019 -0.64607286 1.0966203 0.28639415 -0.38333264
0.55647737 0.5394824 0.16730411 -0.32420963 0.37456262 -1.148646 -0.09271606 -0.60963225
0.31162563 -0.0025591885 -0.86368257 1.0489902 0.5095504 -0.1467736 1.6401811 -0.024925848
-0.8656959 -0.24860449 -0.108024955 0.35966745 0.24219663 0.6908401 0.29230323 0.24887756
0.01659982 -0.76553077 -0.6900892 0.23423254 0.21743466 0.5615984 -1.1300774 -0.32488236
-0.767872 -0.9381992 -0.28999972 -0.22400638 -0.3075514 -0.46127808 -0.25084352 -0.9137956
-0.17741245 2.1475408 -0.9634941 -0.47466698 0.08398413 0.723729 -0.8010157 -1.3758829
-1.1008009 0.30358297 -0.637088 0.37419817 -0.17060114 -0.60523087 0.3701441 0.024751453
-0.5599785 0.6231398 -0.9501142 -0.49990705 -0.6874389 0.13042244 0.4029963 -0.38271448
-0.6379022 -0.11368733 -0.17567879 -0.022871723 -1.0026855 0.3072412 -0.2675645 0.041855693
-1.8167056 1.0761268 -0.6298251 -0.6850544 -0.9937228 -0.35221452 -1.2989976 -0.54798007
-0.6171787 -0.6116278 -0.3060128 -0.23820382 0.22362839 -0.6515568 0.62762564 0.5067236
0.0015341501 0.37599385 -0.81534594 -0.06053198 -0.4406818 -0.17032374 -1.0481489 -0.6513791
00000000: bb4b cdbe c091 5dbe 5314 c63f 20b1 a9bf
00000010: 0404 803e 92a0 193f a1d9 23bf da67 02be
00000020: d765 93be 3043 67be 1430 4a3e 6fdf a33e
00000030: 41dd d53d e28d 093f 04ab 9ebe 6a37 58be
00000040: 0347 6abe e3fb 03bf dc6d d0be 65e4 8ebf
00000050: 3503 30bf 8881 9d3f 4779 1c3d 6b96 193b
00000060: 41e6 1ebf 4f89 b1bd e1a3 453f c8d3 123e
00000070: d8f2 693f 0eff 37bd c968 01bf 2431 173f
00000080: e587 5d3e ebfa 9f3d a1d1 ee3e 3b78 3a3f
00000090: bb23 f1be 3fc7 92bf f915 72bf 121c 05bf
000000a0: e8a9 8c3b 2c90 b43e cbe9 ef3d 88ee 79bf
000000b0: 4ae8 3b3e 3046 e03e a926 94be c9cf 81bf
000000c0: fc40 0cbd 9e36 6bbf 8e2c 9fbf a6a8 a83d
000000d0: b472 81be 33c0 9a3e ad48 8a3e 841c 5a3c
000000e0: 70ff 17bf 5a62 1fbf 0097 d63e 6e90 1ebf
000000f0: 6246 3f3f cd00 99be 615b c93d 0811 e83d
00000100: 95f8 c23f e2ee 343f 6205 54bf edb7 683f
00000110: b9e5 b83e 4b7a 8a3e 78d2 28bf 5fb2 8c3e
00000120: d736 693e 64a5 aebe 4590 893e dab7 a13e
00000130: 8ecb 10be 5cad 2fbc 72da 643f 8741 a3bf
00000140: 8685 bf3f 6deb 9f3f ff7c 15c0 e214 363e
00000150: 0468 9e3f e013 0bbf bbeb 0e3f 79ea 0f3f
00000160: 83bb 413e c641 ae3f f57e 4bbe 6513 0dbf
00000170: 7a82 83bf 3977 b83f e60a 73bf f0c1 e03e
00000180: dc2c 20be d42e 743f e824 563f 777b 543e
00000190: b832 d73d 6b14 c23f 316d 203f 6bf0 98bd
000001a0: 0698 a43f c175 f7bf 0720 ad3f 3698 2fbf
000001b0: 5ae7 373e 8375 513e 59da 8ebe 9cf1 e23e
000001c0: 59e3 1abf b659 3dbf 7132 023f 5025 3c3f
000001d0: 2407 fc3e a35f 813f 9eb7 e9bc 8602 1b3e
000001e0: c670 253f c072 69bf fddc e33a 3a55 a33b
000001f0: 4912 39bf 062f 8abe 7f47 a3bf ecaa 403f
00000200: 8932 3fbf 7486 743f daf8 fd3e 87cd 62bd
00000210: 78d4 b0bd 38a0 333e 7d72 d5be 8104 ca3e
00000220: 6d71 91be 2b73 74bf bcc8 24bf 002f 5c3f
00000230: 5a7d dabe bb03 183f 61a2 133e 90bf 13be
00000240: 7ed1 c83e a034 783d c225 bf3e 20fa eabf
00000250: a9d4 40bf 2689 0d3f 9ce2 ddbe 5eb3 083f
00000260: 1e42 9e3f 2206 853f b41b c5be e519 223e
00000270: 0865 25bf 0e5e 8c3f 41a2 923e 2d44 c4be
00000280: 4d75 0e3f 851b 0a3f c551 2b3e cefe a5be
00000290: acc6 bf3e d506 93bf ebe1 bdbd dc10 1cbf
000002a0: 658d 9f3e 0fb8 27bb 4d1a 5dbf 5045 863f
000002b0: e571 023f d24b 16be 74f1 d13f 4b31 ccbc
000002c0: 3f9e 5dbf 2d92 7ebe 303c ddbd 5526 b83e
000002d0: 6502 783e e6da 303f c5a8 953e c2d9 7e3e
000002e0: 59fc 873c d3f9 43bf b0a9 30bf a8da 6f3e
000002f0: 31a7 5e3e eac4 0f3f 60a6 90bf fb56 a6be
00000300: 4293 44bf d32d 70bf d87a 94be ee61 65be
00000310: 6177 9dbe a42c ecbe 906e 80be 82ee 69bf
00000320: 9cab 35be 4f71 0940 8da7 76bf 8d07 f3be
00000330: dfff ab3d 4e46 393f 5d0f 4dbf ee1c b0bf
00000340: 0be7 8cbf 3a6f 9b3e 3318 23bf e796 bf3e
00000350: 11b2 2ebe 69f0 1abf 8783 bd3e 8fc3 ca3c
00000360: c05a 0fbf 1786 1f3f af3a 73bf d1f3 ffbe
00000370: fffb 2fbf 768d 053e 8855 ce3e 27f3 c3be
00000380: 8f4d 23bf e7d4 e8bd 24e5 33be 7b5d bbbc
00000390: 0058 80bf b84e 9d3e 37fe 88be e070 2b3d
000003a0: cf89 e8bf 86be 893f 383c 21bf ba5f 2fbf
000003b0: 9e64 7ebf 7655 b4be 8e45 a6bf 6c48 0cbf
000003c0: 6cff 1dbf a493 1cbf b6ad 9cbe b4eb 73be
000003d0: d7fe 643e 6dcc 26bf 13ac 203f a3b8 013f
000003e0: 8915 c93a 4482 c03e 83ba 50bf 62f0 77bd
000003f0: 0ba1 e1be 5969 2ebe be29 86bf c8c0 26bf

encoder.dcrnn_cells.1.update.weights_pool f4 [2, 2, 128, 64]
0.86246586 -0.26811913 -0.29634842 1.8042226 0.9183399 -0.0325303 -0.15272349 -0.6640192
0.39515767 -0.6222219 0.12820387 0.44445637 -0.008046753 0.23542129 0.58224446 -0.21058847
-0.34548146 -0.16651934 -0.13128845 0.5340003 -0.9608409 0.023275351 -0.23856454 1.2084737
-0.16708423 -0.39620385 -0.20170105 0.59511864 0.07805161 -0.13940737 0.37267843 -0.04396431
-0.004414026 -0.4640649 0.15554543 -0.5103462 -0.9503243 0.08865408 -0.71093804 -0.1539067
-0.35982668 0.77039033 0.48223227 0.9102826 0.023124062 -0.23792778 0.10472809 -0.55147487
0.854234 0.24554059 -0.3257306 0.08614062 -0.09312799 0.4697481 -0.0907853 -0.25929144
-0.19130605 -0.047055483 -0.60760343 0.007988478 0.19762675 0.73227084 -0.48307452 -0.064981624
-0.04794451 -0.114736624 -0.7702205 0.93351966 -0.30527994 0.4593539 0.8161987 -0.21710205
0.57511324 0.22762346 -0.06496059 0.20680502 -0.13830738 0.4400806 0.8883446 0.28507373
-0.13902299 -0.35692737 -0.47401235 -0.3720769 -0.7242713 0.18350418 0.3111023 -0.10776296
-0.15085925 -0.1431198 -0.33593383 -0.16831848 -0.29150164 -0.6731389 0.34077087 -0.062210467
0.1962823 0.13989614 0.31054544 0.09451802 -0.6068123 0.06495953 -0.8739074 -0.22670327
-0.02332755 0.32205498 0.2278587 0.84334904 0.28714377 0.63393325 0.5722254 0.87163895
0.8282782 0.58210367 0.1944356 -0.21144749 -0.61618704 0.41931117 -0.24182056 0.3196411
-0.1832935 0.2720506 -0.70451266 -0.32844406 0.6343182 0.2857075 -0.19776112 -0.39593005
-0.51013297 -0.030938629 -0.24183568 0.30294192 0.35994488 0.17480938 0.45013678 0.25108078
0.42427048 0.26953954 -0.12267425 0.6276812 0.31496865 0.6191914 0.17993285 0.77284443
0.80001616 -0.60564905 -0.1563802 0.3448318 -0.962808 -0.1863916 0.8682796 -0.20247881
0.086051755 0.66410995 0.016452758 -1.1463953 0.51000935 -0.29884735 0.26212206 -0.14441662
-0.5943737 -0.32932994 0.14407706 -0.14714213 -0.8615453 0.27286413 -1.0880412 -1.3093147
0.42856312 0.50403017 -0.091891035 0.80623835 -1.066265 0.6579289 -0.29576582 -0.46256506
0.2519544 0.07776627 0.40387928 -0.62331635 -0.51984894 0.8510463 -0.24748035 -0.18813084
-0.2063329 0.39567623 -0.5996022 -0.13550782 0.07905497 0.08446542 0.14530872 -0.2700573
-0.0961118 -0.030511422 0.033724982 -0.5176091 0.62747145 -0.08656301 0.22546265 -0.31973284
-0.08371834 0.23037983 0.09634096 0.5414289 0.15146065 -0.7110467 -0.41768017 0.6349453
-0.15793349 -0.23952779 -0.82191366 0.44237265 0.20808728 -0.3016638 -0.062659465 -0.2047262
-0.3818763 1.9500183 0.8765669 -0.53004676 0.047832362 -0.29449898 -0.32590485 -0.121809065
-0.25912824 0.34114176 -0.17597754 0.3496668 0.7449657 -0.25339782 1.1998146 0.18793254
0.22943906 0.6971634 0.44794866 0.17461194 -0.48742473 -1.0039129 0.07261454 -0.2249648
0.4425593 -0.74106014 0.37040365 -0.1588859 -0.20028651 -0.7121499 0.04623002 -0.07173459
-1.0508897 -0.21671778 -0.08783089 0.6185318 0.55847836 0.76939344 0.034659527 0.39406335
00000000: 90ca 5c3f e946 89be fbba 97be c4f0 e63f
00000010: 5318 6b3f 7e3e 05bd 8c63 1cbe 2afd 29bf
00000020: 1b52 ca3e ef49 1fbf e047 033e c98f e33e
00000030: 87d6 03bc 4712 713e f90d 153f 81a4 57be
00000040: f2e2 b0be 0c84 2abe 7b70 06be 3eb4 083f
00000050: abf9 75bf f3ab be3c 434a 74be 44af 9a3f
00000060: 2118 2bbe 3bdb cabe b88a 4ebe b259 183f
00000070: 86d9 9f3d cec0 0ebe b5cf be3e ec13 34bd
00000080: 89a3 90bb ea99 edbe 4d47 1f3e 0ca6 02bf
00000090: 7448 73bf 4590 b53d 0900 36bf b899 1dbe
000000a0: 343b b8be 4d38 453f 26e7 f63e 4808 693f
000000b0: ac6e bd3c 57a3 73be ae7b d63d 752d 0dbf
000000c0: 14af 5a3f fe6e 7b3e 29c6 a6be 7e6a b03d
000000d0: e3b9 bebd d382 f03e a5ed b9bd d9c1 84be
000000e0: bce5 43be 40bd 40bd e68b 1bbf 1be2 023c
000000f0: ab5e 4a3e 1a76 3b3f 8b55 f7be 1615 85bd
00000100: 7661 44bd 09fb eabd 2c2d 45bf 25fb 6e3f
00000110: a74d 9cbe 6f30 eb3e 66f2 503f 0050 5ebe
00000120: 9f3a 133f 2016 693e 0f0a 85bd b2c4 533e
00000130: 73a0 0dbe 3f52 e13e 8d6a 633f 2ff5 913e
00000140: 0b5c 0ebe 2fbf b6be bfb1 f2be dd80 bebe
00000150: d869 39bf 85e8 3b3e cd48 9f3e d4b2 dcbd
00000160: d97a 1abe ff8d 12be 85ff abbe ae5b 2cbe
00000170: b43f 95be d552 2cbf 8579 ae3e 67d0 7ebd
00000180: 3afe 483e ef40 0f3e d0ff 9e3e aa92 c13d
00000190: 0d58 1bbf 8109 853d 65b8 5fbf e724 68be
000001a0: 6b19 bfbc 64e4 a43e cb53 693e b9e5 573f
000001b0: 8204 933e 7349 223f 5d7d 123f bb23 5f3f
000001c0: 0a0a 543f bf04 153f 201a 473e b185 58be
000001d0: 6fbe 1dbf f4af d63e cf9f 77be 00a8 a33e
000001e0: 4bb1 3bbe 374a 8b3e f15a 34bf d229 a8be
000001f0: ad62 223f 4148 923e e481 4abe 58b7 cabe
00000200: 1398 02bf 0273 fdbc c6a3 77be 341b 9b3e
00000210: b24a b83e 3b01 333e 5478 e63e a98d 803e
00000220: fb39 d93e 1601 8a3e a33c fbbd b7af 203f
00000230: 9243 a13e 5483 1e3f 5140 383e 22d9 453f
00000240: dccd 4c3f d10b 1bbf 2222 20be cb8d b03e
00000250: 967a 76bf 71dd 3ebe 9247 5e3f 9b56 4fbe
00000260: e73b b03d 1c03 2a3f efc7 863c 15bd 92bf
00000270: f98f 023f 8502 99be dd34 863e f3e1 13be
00000280: e028 18bf ef9d a8be f088 133e 6dac 16be
00000290: 3c8e 5cbf d9b4 8b3e ef44 8bbf a097 a7bf
000002a0: a06c db3e 1f08 013f 5e31 bcbd a365 4e3f
000002b0: 5f7b 88bf 076e 283f 9e6e 97be 54d5 ecbe
000002c0: 2b00 813e ec43 9f3d 44c9 ce3e a991 1fbf
000002d0: d214 05bf 2cde 593f 7d6b 7dbe 5fa5 40be
000002e0: ef48 53be 1396 ca3e 887f 19bf 90c2 0abe
000002f0: 92e7 a13d 35fc ac3d cfcb 143e f344 8abe
00000300: 43d6 c4bd 17f3 f9bc 3523 0a3d 0882 04bf
00000310: f8a1 203f f347 b1bd aedf 663e 06b4 a3be
00000320: 8574 abbd b1e8 6b3e 694e c53d 169b 0a3f
00000330: 8018 1b3e 2807 36bf 2dda d5be c68b 223f
00000340: 51b9 21be c646 75be ef68 52bf ab7e e23e
00000350: d514 553e ad73 9abe 9b53 80bd bfa3 51be
00000360: 4a85 c3be 339a f93f b066 603f 25b1 07bf
00000370: deeb 433d 92c8 96be 00dd a6be 0877 f9bd
00000380: 75ac 84be 22aa ae3e 7533 34be 8707 b33e
00000390: 12b6 3e3f 5cbd 81be 8693 993f 6371 403e
000003a0: 13f2 6a3e 4d79 323f 8759 e53e 79cd 323e
000003b0: bc8f f9be 3880 80bf efb6 943d 2c5d 66be
000003c0: 2297 e23e 1eb6 3dbf 8ca5 bd3e fcb2 22be
000003d0: e817 4dbe 754f 36bf b05b 3d3d 96e9 92bd
000003e0: 8e83 86bf 44eb 5dbe afe0 b3bd 1a58 1e3f
000003f0: 70f8 0e3f f8f6 443f 26f7 0d3d acc2 c93e

encoder.dcrnn_cells.1.update.bias_pool f4 [2, 64]
-0.76201546 0.9590837 -0.02831481 -1.2962635 -1.4401454 -0.7708592 -0.9596091 -0.41808096
1.2585132 0.27743393 0.8803171 1.0490361 -1.2738028 0.41324377 -0.69097584 -0.56299007
-0.32574126 -0.51800644 0.8321293 0.9266016 0.45786524 0.5115647 -0.11217483 -0.6287317
-1.8585548 -1.3729738 -0.79106855 1.1031635 -0.4641775 0.7624746 -1.1313747 0.21427724
-0.49535474 0.7141201 -2.3279133 0.019282846 1.2137575 -1.7277539 1.1120898 -1.2812417
-0.61727613 0.7314192 -0.46331543 -1.4572794 -1.2420906 -2.2779493 0.042502772 0.36895573
1.1300551 -0.5402869 -0.020105395 -0.2591052 1.0481063 0.6654492 0.74577695 -0.5177921
0.08492141 0.4343534 -0.026143515 0.9082381 0.46079382 0.18990764 -1.1682329 -0.41579133
2.4917245 1.779023 0.2412142 -1.6241751 0.68927586 -1.2955561 0.17996326 -0.22802262
-0.3246687 1.355559 1.2739449 0.16812927 -0.590138 0.038888957 -1.4717215 -0.7182432
-0.5760111 -0.06567843 -1.5938255 0.25404188 0.77664226 -0.18040071 -0.1303669 0.4710967
0.27593312 0.9678294 -0.0797867 -1.1861237 -1.9249511 -0.2418427 -0.36669913 1.0035021
0.18399522 -0.49019688 0.31995887 1.7777886 1.3886782 -1.3087788 0.7756894 1.1463627
0.583293 -0.90715545 1.3115047 -0.52522534 -0.92437553 -0.8777535 1.8504317 -0.8361288
0.95995927 0.25209668 -0.65387774 -0.17261067 0.93002284 0.20484987 0.25754583 0.24864179
0.20892444 -0.4304638 -0.89187616 0.30207658 -0.5614261 -1.0827107 0.28147063 0.22120115
00000000: 7213 43bf 8286 753f 76f4 e7bc f6eb a5bf
00000010: af56 b8bf 0757 45bf f1a8 75bf b50e d6be
00000020: f616 a13f d20b 8e3e 765c 613f d146 863f
00000030: f80b a3bf b094 d33e cbe3 30bf 1e20 10bf
00000040: 8fc7 a6be 129c 04bf 6d06 553f c335 6d3f
00000050: 506d ea3e e7f5 023f ebbb e5bd 90f4 20bf
00000060: 20e5 edbf 9bbd afbf 7883 4abf 7634 8d3f
00000070: aca8 edbe 8931 433f e3d0 90bf 7e6b 5b3e
00000080: 239f fdbe 93d0 363f 88fc 14c0 0ff7 9d3c
00000090: 685c 9b3f 0a27 ddbf f558 8e3f baff a3bf
000000a0: cf05 1ebf 4a3e 3b3f ae37 edbe 2288 babf
000000b0: d3fc 9ebf ecc9 11c0 6317 2e3d c4e7 bc3e
000000c0: a5a5 903f 3e50 0abf 12b4 a4bc 70a9 84be
000000d0: 5928 863f e15a 2a3f 3deb 3e3f 068e 04bf
000000e0: 47eb ad3d 9263 de3e ed2a d6bc 4b82 683f
000000f0: 2bed eb3e 2677 423e a888 95bf 9ae2 d4be
00000100: 6a78 1f40 07b7 e33f db00 773e f8e4 cfbf
00000110: 6274 303f c8d4 a5bf 4a48 383e c37e 69be
00000120: fa3a a6be f582 ad3f a010 a33f 142a 2c3e
00000130: 4913 17bf 074a 1f3d 5f61 bcbf c9de 37bf
00000140: 7775 13bf 6a82 86bd 7902 ccbf c711 823e
00000150: 07d2 463f f7ba 38be e77e 05be 9633 f13e
00000160: 1b47 8d3e abc3 773f 3667 a3bd e7d2 97bf
00000170: cc64 f6bf 9da5 77be fdbf bbbe c272 803f
00000180: 3e69 3c3e 16fb fabe a6d1 a33e 948e e33f
00000190: 35c0 b13f 1086 a7bf 9593 463f 03bc 923f
000001a0: b152 153f 573b 68bf 63df a73f 2b75 06bf
000001b0: e0a3 6cbf 74b4 60bf f2da ec3f 890c 56bf
000001c0: e4bf 753f d112 813e 8864 27bf dac0 30be
000001d0: fa15 6e3f 2ac4 513e 0cdd 833e f49b 7e3e
000001e0: 4af0 553e c065 dcbe ff51 64bf c8a9 9a3e
000001f0: 9fb9 0fbf 4496 8abf eb1c 903e 8e82 623e
