CQ/result/HZ_Result/DAYS/2/data5/best_model.pth (torch_old, 599937 bytes, 11 tensors)

node_embeddings f4 [80, 2]
00000000: c050 4ebe 6a4e 703e a3bf 15bf 367b a53e
00000010: 0a15 833e 1d22 a1be c17c c03d ade1 8cbe
00000020: 0842 b2bd e407 f33e aa79 4e3e 388b 2bbe
00000030: 029d febe 606d 08bf 8853 3fbe 8b74 f73e
00000040: 25c8 32bf 642b 2f3c 4183 313f 307c 0ebe
00000050: 2c5a cb3e bf93 02be 6905 173f 7e04 81be
00000060: 7d25 9ebf c6bf 03be 4f1d d7b9 2909 ae3e
00000070: 7d15 a23e 29d4 29be ef66 27be 4dd7 123f
00000080: 7b1d 1a3c bfc2 813e 4b4a aebd a38c 2dbe
00000090: edc3 cb3d 0869 673e d5e6 cf3d 4e19 50bf
000000a0: ac53 1ebd 805c ab3e f232 9ebe 4f72 dc3d
000000b0: a5b8 04bd 3087 193f 3cab 67be 66c1 7ebe
000000c0: 8697 8ebe 5d8e 053f 6582 29be 3075 a63e
000000d0: 9a0d 113e 82c8 313e 0922 23be 4c94 69be
000000e0: 7f9f 57be 69e7 d03d bb4f 053e 9d89 98be
000000f0: 6cf0 593e f934 413e d5be fdbd 720a 9e3d
00000100: 0ec0 0dbe 31a0 80be 2f38 4a3f f469 223c
00000110: b222 0fbd ee63 b2be e3ba 0ebd 7b55 fabd
00000120: 73dc cf3e 8bfa 323e 6fbe 30be de06 843e
00000130: ce28 11bf 2d41 80be 0bd5 153e bdfe f13e
00000140: 5b09 68bd ec9a 42be 348d 5fbe 061d afbe
00000150: b26a 7fbe 6276 5abe 93d2 1f3d ff98 09bf
00000160: ddc8 36be 63f2 d7be 09f8 95be 95a0 d4be
00000170: bd93 163d 8bf0 c63e afe5 bf3d 64bd e53e
00000180: 56f3 233e a458 8f3e 80b3 313e 0388 82be
00000190: 4533 8d3e 89ed 093f c69d d33d 8b30 32be
000001a0: f8c6 b7be 9ee9 7ebe 93ac 4d3e f50a 57be
000001b0: 2a7a 80be 043b 22be a526 a4be ea03 18be
000001c0: 067e 473d 2051 673e d831 a03d 122d 7a3e
000001d0: 1d5f 7d3d a05c a43e e726 b93d f66b cdbe
000001e0: a3ca 193e f993 5d3e 7041 3c3d 2643 aabe
000001f0: ebb9 7c3d 3b03 8abe 700a 97be de53 303e
00000200: 742b c7bb 6b9d 87be a9b8 803f f503 1b3f
00000210: f01d e9bc 4f65 44be 9d1a b73e 8389 d33d
00000220: 1d86 823c 84f6 6abe 4aee 7e3c 91d1 27be
00000230: aab4 3b3e 40b2 ec3d 1837 b93d 15f7 5e3d
00000240: 7413 793e 39cd 943e 3e8c 0fbe 574e f33d
00000250: 44d6 03be 0266 b8be f975 3e3f 13a4 10bf
00000260: 2bb7 093e 3f0e ab3e c31b b63e 480a a4be
00000270: 56d6 8dbd b6a6 92be 814d 7fbd 0b11 00be
-0.20147991 0.23467413 -0.5849554 0.32320565 0.2560199 -0.3147134 0.09398795 -0.27515927
-0.08704001 0.47466958 0.20163599 -0.16752326 -0.49729162 -0.53291893 -0.18684208 0.48331103
-0.69836646 0.0106914975 0.693409 -0.13914561 0.39717233 -0.12751673 0.5899263 -0.2519874
-1.235519 -0.12866125 -0.00041029832 0.33991364 0.3165702 -0.16584839 -0.1634786 0.5735977
0.009406443 0.25343892 -0.08510264 -0.1694818 0.09949479 0.2259866 0.101514496 -0.8128861
-0.038654014 0.3346901 -0.30898243 0.1076399 -0.032402653 0.59971905 -0.22623914 -0.24878463
-0.27849978 0.52170354 -0.16553648 0.32511282 0.14165345 0.17361644 -0.15930952 -0.22810477
-0.21056937 0.10200388 0.13018696 -0.2979249 0.2128312 0.18867864 -0.12389914 0.07716836
-0.13842794 -0.25122216 0.7899198 0.0099129565 -0.034945197 -0.34841865 -0.034846198 -0.12223335
0.40597877 0.17478387 -0.17260145 0.2578649 -0.5670289 -0.25049725 0.1463205 0.47264662
-0.056649547 -0.1900441 -0.21831208 -0.3420183 -0.24943045 -0.21334222 0.03901918 -0.5374908
-0.17850061 -0.42177114 -0.29290798 -0.41528764 0.036761988 0.38855395 0.093699805 0.44871056
0.16010794 0.27997315 0.1735363 -0.25494394 0.27578178 0.53878075 0.10332827 -0.1740133
-0.3589399 -0.24893805 0.20085363 -0.21000274 -0.25093204 -0.15842825 -0.32060733 -0.14845243
0.04870417 0.2258954 0.07822007 0.24431255 0.061858285 0.32101917 0.09040623 -0.4012143
0.15018706 0.21638478 0.045960844 -0.33254355 0.061700743 -0.2695559 -0.2950015 0.17219493
-0.006078178 -0.26487288 1.0056354 0.6055291 -0.028456658 -0.19179271 0.35762492 0.10328963
0.01593309 -0.22945601 0.015559742 -0.16388537 0.18330637 0.11557436 0.090437114 0.054434855
0.24323827 0.29062822 -0.14018342 0.118801765 -0.12874705 -0.36015326 0.7439876 -0.5650036
0.1344878 0.33409306 0.35568056 -0.32039094 -0.06925647 -0.28642815 -0.062329773 -0.12506501

encoder.dcrnn_cells.0.gate.weights_pool f4 [2, 2, 65, 128]
00000000: c2ad a3bf 62c9 07c0 9e51 c0bf 3f0b 79bf
00000010: ef89 933f 4cc3 25be 324d a13f a8fc 923f
00000020: dffe b73f ba17 9c3f c549 1bc0 92d0 d9bf
00000030: 51fd 36c0 0785 583f eabc ad3f cf1f 203f
00000040: 2f55 46c0 9d28 b5bf a693 50be 9505 26c0
00000050: 9050 f8bf a7be b23f 1b4a 4dc0 e1bc 7ebe
00000060: d814 f0bf 0dea 49bf c016 f2bf bd9e 3cc0
00000070: 380b c63f 3f9a 953f f8f1 af3f b718 b43f
00000080: c452 5ebf f83e dc3f 3eb6 703f e421 c83f
00000090: b6be a53f 204b 1ac0 ebc2 893f 38ca a8be
000000a0: 3218 42c0 345e acbf 4c4f a2bf 39a4 bc3f
000000b0: b396 a73f a9fe eebf efb4 b83f 6c89 24c0
000000c0: 0128 cdbf 6871 d33f 233a 41bf b698 893f
000000d0: c2dd d23f 5fa1 3bc0 25c4 16c0 34cd febf
000000e0: e744 29c0 417a 2e3f 522f b2bf b549 a8bf
000000f0: 4aac 3c3f 53e0 2bc0 8d34 02c0 4423 ad3f
00000100: 80a4 093f 0924 fa3a 77c2 033b 69b0 3bbe
00000110: 334a 32bf 979d 92bf 5aa9 23bf 45d1 e5be
00000120: ed3c c7be 92ec 52bf f6ca 56bd 565b be3e
00000130: de65 a83e 4b08 3abf f316 11bf bc1b cebe
00000140: 0d73 103f 1a56 ab3f a33c bcbe fd79 73be
00000150: 6a29 333f 0100 69bf b523 d43e f3bc e23e
00000160: fb37 5b3f 1200 38be 49d3 983e c06e 1f3f
00000170: 7e95 37bf d791 6ebf 22d2 21bf 7c78 23bf
00000180: 5ca9 113e 4ef2 2dbf a9bf debd 27d8 d3be
00000190: 440d 5ebf 41e6 0ebe 380d 193d cd76 91bf
000001a0: 2c47 f03e 6698 953d fdda c83e 0c09 ebbe
000001b0: 2d45 a7bf 8098 6c3e 8183 79be 29f5 203e
000001c0: 5b36 b03e 307f 0fbf 71fb babf b838 f7be
000001d0: 8f45 8fbf 53e1 493f 07a2 d13e c4fc 953a
000001e0: a8f3 683f 0303 b7bd 5825 333f f9ff db3e
000001f0: 9178 06bf dba6 a13f 512b 063b 24d1 58bf
00000200: ba40 7d3e c2c7 013f 1282 043e 578f 53be
00000210: 78a7 2f3e 8657 0c3e c221 943e ac68 6cbf
00000220: 7a63 c1bd 2ab7 9c3e efbb 893d 34b1 c33e
00000230: 35cf c63d 75d5 8b3e 397b 733f 94c0 a13f
00000240: 5b08 7a3d 2522 833f 9f4e 9e3d cd2f f63d
00000250: 0f3a 883f 7122 9c3e b581 483e 938a b6bd
00000260: 51f4 c73e 81e3 d13e 1ee0 9bbd 3eea 143e
00000270: a330 ad3e c6c3 553f 71af 2abe 69b8 733f
00000280: 08d2 fdbd 3f88 84bf da47 3a3f 8f9d 7b3f
00000290: 508f 603f ac85 e93d 74fd 7abe d936 f3bf
000002a0: 899c 943d 1f8a 2b3e c701 193d c084 4b3f
000002b0: 44b2 cc3f dd78 2d3f 8bb2 843f d902 f33d
000002c0: d037 0cbe 7633 7f3f 92d9 823f 969b 843f
000002d0: cc70 523f fbec 09bf 7c2c 073e 83bf 753e
000002e0: 2304 d23f 8f1f b63e 6765 2a3e 3766 653f
000002f0: 4873 9e3e 79d3 df3f 0133 bb3d 2c90 3b3e
00000300: a9f4 323f 47e8 1c3e 84da 3f3f a632 55bf
00000310: 8bfe 293f 3cc8 4d3c 547d 403e b100 e73e
00000320: 4ec0 ab3e fdfa 663f 8440 853f f48e c83e
00000330: e1ba 6abe 5e52 be3f 81f3 593f b16a e13e
00000340: 7aea 01be 3a13 273d 8afd ad3f 1559 433f
00000350: 77fc db3d 074f 5ebf 4050 c33e d98c 2c3f
00000360: 64f3 dcbf ceb2 2a39 64b4 853f 9d5d b3be
00000370: fe22 e2bd 1b06 763f 3215 123f da5c d43e
00000380: dc31 073f 8c4b 05bf 09e4 dbbe edf8 bbbe
00000390: a1d5 d53e 211c dc3e 2f58 a33f 2d72 7ebf
000003a0: d2f3 c6be 2a2f a9be 371b aebd d88e 493f
000003b0: 3921 193f 8b80 1b3f 8111 c83f f59a af3e
000003c0: 1b33 e53f 8506 7d3d 2277 d33e 5a63 693f
000003d0: cd61 573e ebca 883e bd32 043e 49b3 7abf
000003e0: 8c99 033d 38a2 a13f d712 dd3e 0fad a7be
000003f0: 617a 60be 29d0 c13f d288 903e 3151 d63d
-1.2787402 -2.1216664 -1.5024908 -0.97282785 1.1526469 -0.16187781 1.2601683 1.1483355
1.4374655 1.2194741 -2.4263775 -1.7016776 -2.8592112 0.84577984 1.3573277 0.62548536
-3.0989492 -1.4153019 -0.20368823 -2.5940907 -1.9399586 1.3964432 -3.207648 -0.24876739
-1.8756361 -0.7887276 -1.8913193 -2.9471886 1.5472174 1.1687697 1.3745718 1.4070042
-0.8684504 1.7206717 0.9402808 1.5635343 1.2948825 -2.4108353 1.0762609 -0.3296678
-3.0327268 -1.3466249 -1.268045 1.4737617 1.3092865 -1.8671466 1.4430217 -2.5708876
-1.6027833 1.6518984 -0.75479335 1.0749729 1.6473925 -2.9317243 -2.3557217 -1.9906373
-2.6448305 0.68155295 -1.3920691 -1.3147494 0.7370039 -2.6855667 -2.0344574 1.3526387
0.5376663 0.0019084226 0.0020104924 -0.18329014 -0.6964447 -1.1454343 -0.63930285 -0.44886222
-0.3891367 -0.8239223 -0.052439652 0.3717906 0.32890218 -0.72668904 -0.5667564 -0.40255535
0.56425554 1.3385651 -0.36765012 -0.23777004 0.6998507 -0.9101563 0.41433492 0.44284782
0.85632294 -0.17968777 0.29848698 0.62278366 -0.7171248 -0.93191284 -0.6321126 -0.6385572
0.14224762 -0.6794785 -0.108764 -0.4137585 -0.8673899 -0.13955022 0.037366122 -1.136438
0.469293 0.07304458 0.39229575 -0.4590534 -1.3067986 0.23105049 -0.24366571 0.15718521
0.3441647 -0.5605345 -1.4607984 -0.4828546 -1.1193103 0.7885944 0.4094393 0.0011443128
0.9099679 -0.08936121 0.6997886 0.4296873 -0.5252772 1.2629045 0.0020472596 -0.84694123
0.24731722 0.5069543 0.12940243 -0.20660149 0.17153728 0.13705263 0.28932005 -0.92347217
-0.09442802 0.30608493 0.067252986 0.38221133 0.0970749 0.27311292 0.951099 1.2636895
0.061043125 1.0244795 0.077298395 0.12020836 1.0642718 0.30495027 0.1958073 -0.0891315
0.39053586 0.40993884 -0.07611106 0.14542481 0.3382617 0.8350185 -0.16668488 0.9520326
-0.12393576 -1.0354079 0.72765887 0.9828729 0.8771868 0.11402449 -0.24510747 -1.9001113
0.07256419 0.16751908 0.03735521 0.79499435 1.5991902 0.6776255 1.0366987 0.118657775
-0.13693166 0.996879 1.0222647 1.0359981 0.82203364 -0.5387723 0.13200563 0.23998837
1.6407512 0.35570952 0.16640244 0.8960909 0.30947328 1.7486411 0.091405876 0.18316716
0.6990457 0.15322982 0.74942803 -0.8328041 0.66404027 0.012559947 0.18797809 0.45117715
0.33545154 0.9022673 1.0410314 0.39171565 -0.22922851 1.4868886 0.8513718 0.44026712
-0.12687102 0.04078982 1.3592999 0.76307803 0.10741513 -0.86839336 0.38147163 0.67402416
-1.7261777 0.00016279073 1.0445676 -0.3503236 -0.110418305 0.96103066 0.5706359 0.4147709
0.52810454 -0.520684 -0.42947415 -0.36713353 0.41764548 0.4299021 1.2761286 -0.9939297
-0.38857895 -0.33043796 -0.085012846 0.7873359 0.5981632 0.60743016 1.5630342 0.3429791
1.7906221 0.061773796 0.4130183 0.91167223 0.21033402 0.26717314 0.1290998 -0.9792982
0.032128856 1.262763 0.43178436 -0.3274922 -0.21921684 1.514165 0.28229386 0.10464705

encoder.dcrnn_cells.0.gate.bias_pool f4 [2, 128]
00000000: c306 923f ed2a 443f 046d 3a3f 14f0 e5be
00000010: 6644 0cbf b5e7 3fbe 5380 2fbf 1956 0d3e
00000020: 4bf7 00bf 2880 95bf 84f2 cc3c 29a1 503f
00000030: fd35 963e c42c 2b3e 94a0 17bf 5a2d ec3c
00000040: c194 573f 4ac9 333f bc88 a63e 404f 093f
00000050: cf66 593f f544 6dbf 1ccf b53e 55e4 ed3d
00000060: 7340 2d3f 5aa7 9dbd bf03 1f3f 2688 f03e
00000070: d578 50bf 65f3 46bf b7b4 1dbf fba7 7bbf
00000080: 1a36 803e fd69 48bf 634e febe 4708 5cbf
00000090: b7f3 f2be 2220 3f3f b481 17bf cf7c 2ebe
000000a0: 93e4 623f 9f08 7d3f bbf5 d53e d130 4fbf
000000b0: 9618 8ebf 02ea 6b3e 9722 60bf 79cb 5f3f
000000c0: 81b5 373f b48e 3dbf 3f40 cebe 8454 41bf
000000d0: 7906 30bf ad12 3f3e ebe1 6c3f a64f 453f
000000e0: ea50 183f b942 f8be 5e08 253f 1eff 443f
000000f0: fe30 26bf 7be6 623f d38b 733f 63c3 09be
00000100: 4591 8dbe 9130 2dbf c654 7cbe a447 53bf
00000110: 6592 21bf e63a a7bf 4e12 b33f 4385 16be
00000120: 2af2 5a3f 26aa 7f3f 147c f4be 9f50 17bf
00000130: 7a6e 0140 0cd4 863f e2d3 8f3f fbe6 763f
00000140: a0f0 ff3e b7a2 4dbf 32ba 963f 4bb6 30bf
00000150: 53cc d73e b5b6 f33e d329 303f 7384 00be
00000160: 244c a13f 6a0f 003f d90f 4d3f 6c50 d63e
00000170: 2862 03be 20ed 163f 4658 63bf 7e4f f8bd
00000180: 0982 81be 1e4b 3c3f ac2f b73e b006 0a3f
00000190: 9e52 af3f 81b8 0e3f c39f 703f 2744 95bf
000001a0: 3ca7 57be 22de 07bf 45e9 3bbe c1fa 803e
000001b0: 87fb 6abe 259f 00bf 9da3 ed3e 3abd 1f3f
000001c0: b924 823f 113f 30bd a3c9 2abf 565d 703f
000001d0: 250b 04bf f30e 053e 71ed 85be 1dea 02bf
000001e0: 575f debe 4818 803c efa4 21bf 1b82 1a3f
000001f0: 1ff3 2e3f bd94 40be 704f 09bd 2582 80bd
00000200: 6651 f1be ff8f 30bf 6889 02bf 0f88 d9bd
00000210: 7224 98be 1569 b8bd a64b 6a3e 94f3 713e
00000220: a0d9 46be b37d 63be 60fc 1ebf 6059 05bf
00000230: 0226 06bf aaa7 31be 0fa5 213e 4361 dabd
00000240: e769 b5be ae36 4e3e 5648 cbbe 2cc3 c6be
00000250: 70ff 82bf 9dbf ba3e a68f 54be 1b4a 29bf
00000260: cbd0 24bf 2a19 403f ca03 5b3e 9872 30bf
00000270: fb6c c43e 0742 b1bd 01ff bebe 2126 373e
00000280: fd1a 7dbf 4b1a df3e 78d0 66bd dd5a 6dbd
00000290: 23c5 1cbe c75d 1dbf a6b7 70bd 11be 893e
000002a0: 4ad8 4dbf 6305 8ebe abeb 85bd d019 f83e
000002b0: 1965 ce3d 3d2d 1cbf 29c7 243f ed42 77bd
000002c0: db2f c33d 2644 d43c 4acc fd3c a7b2 4ebe
000002d0: 8480 d33e d8eb 9bbe 7184 35be 85e8 adbe
000002e0: d5ce 763e 4ca5 b93e 8913 c0be e250 34be
000002f0: a797 b43d b8f3 b23e 1acc 8bbe 520e 0d3d
00000300: e626 1e3f 740e 953f 2bcd a93f 7328 71bf
00000310: e103 03bf 3932 fbbe e732 b6bf d214 0abf
00000320: 81c0 8dbf bfcb fcbf 6719 343e d463 24bf
00000330: 36c0 a4be 7ded a23d 015c e5be 53ca 65be
00000340: 3350 7cbe 5f35 3c3f 43fc 163f d075 973f
00000350: d518 aebe 4ef8 a4bf bcbf a0bd 190b 463f
00000360: b310 8bbf bd16 a63e 0c32 99be bce8 283e
00000370: 9a77 b8be f5c7 20bf dffa 243f c072 ebbf
00000380: facf c23e b88c e9be 15ad 72bf 8308 073d
00000390: ebf4 1a3e 829d fe3e 6a18 7dbf e271 833f
000003a0: 23fe e43e 4424 283f 1148 5c3f 532d cfbf
000003b0: aec4 86bf 8e68 d83d 992f 37bf ef5f 92be
000003c0: def1 96bf a66f 7cbf cd2a 8b3f 6022 7dbf
000003d0: 9d53 81bf 027e b93e f8aa 893e 4447 1b3f
000003e0: 3c12 86be 552b 0cbd 3171 f2bd 1ae5 b6be
000003f0: 9675 15bf 6367 88be ad85 86be 545a 7dbf
1.1408314 0.76628 0.72822595 -0.44909728 -0.5479187 -0.18740733 -0.6855518 0.13802375
-0.5037734 -1.1679735 0.025017984 0.8149591 0.29338065 0.16716295 -0.592294 0.028830219
0.84211355 0.7022902 0.32526195 0.5363655 0.849225 -0.92683345 0.35509574 0.116158165
0.67676467 -0.076979354 0.6211509 0.46978873 -0.81434375 -0.7771514 -0.61603874 -0.9830319
0.25041276 -0.78286725 -0.4966918 -0.8595013 -0.47451565 0.74658406 -0.59182286 -0.17039798
0.88630027 0.9884128 0.4178904 -0.8093386 -1.1101253 0.23038486 -0.8755278 0.8741985
0.7176133 -0.7404587 -0.4028339 -0.75519586 -0.68759876 0.18659468 0.92532223 0.7707466
0.59498465 -0.48488405 0.6446589 0.7695178 -0.64918506 0.88632935 0.9513523 -0.1345344
-0.27649894 -0.6765223 -0.24641714 -0.8253119 -0.63114005 -1.3064849 1.3989961 -0.14699273
0.85525763 0.99869 -0.47750914 -0.59107393 2.022368 1.0533462 1.1236537 0.964462
0.4998827 -0.8032641 1.1775572 -0.69028157 0.42148075 0.47600332 0.6881382 -0.12550525
1.2601361 0.5002352 0.80102307 0.41858232 -0.12830412 0.58955574 -0.8880657 -0.12124537
-0.2529452 0.7355212 0.35778558 0.53916454 1.3697088 0.5575028 0.9399378 -1.1661423
-0.21059889 -0.5307332 -0.18350704 0.2519131 -0.22947513 -0.50242835 0.4641389 0.6239811
1.0167457 -0.043028895 -0.66713923 0.9389242 -0.51579505 0.12993984 -0.26157716 -0.5113848
-0.43432114 0.015636578 -0.63142294 0.60354775 0.68339723 -0.18806739 -0.033523023 -0.06274823
-0.47132415 -0.6896972 -0.50990915 -0.10621654 -0.29715306 -0.09004418 0.2288042 0.23628074
-0.19418955 -0.22215919 -0.62103844 -0.520895 -0.52401745 -0.17349115 0.15785621 -0.106630825
-0.3543236 0.20138046 -0.39703625 -0.3882078 -1.0234203 0.36474314 -0.20757923 -0.661287
-0.6438109 0.750384 0.21388164 -0.68924856 0.38364395 -0.08655172 -0.37303928 0.17885639
-0.98869306 0.43574747 -0.056351155 -0.057947982 -0.15309577 -0.6147122 -0.05876889 0.26902822
-0.80408156 -0.27738485 -0.06539091 0.48457193 0.100778766 -0.6100653 0.64366394 -0.06036656
0.09530612 0.025911402 0.030981202 -0.20185338 0.41308987 -0.30453372 -0.17726304 -0.3396646
0.24102338 0.36258924 -0.37514904 -0.1760898 0.08817988 0.34951568 -0.27304155 0.034437485
0.61778104 1.1645036 1.3265737 -0.94202346 -0.51177794 -0.49061754 -1.4234284 -0.5393802
-1.1074373 -1.9749678 0.17587815 -0.64214826 -0.32177895 0.079554535 -0.44796756 -0.22440462
-0.24639969 0.7351894 0.5897867 1.1832829 -0.3400332 -1.2888277 -0.078490704 0.77360684
-1.0864471 0.32439223 -0.29920995 0.16495031 -0.3602875 -0.6280511 0.644453 -1.8394394
0.380493 -0.45615172 -0.9479535 0.0329671 0.15132491 0.49729544 -0.9886538 1.0269129
0.4472514 0.65680337 0.86047465 -1.6185707 -1.0528772 0.10566817 -0.71557003 -0.28588817
-1.1792562 -0.9860786 1.0872437 -0.9888058 -1.0103642 0.3622895 0.2688825 0.6065562
-0.26185787 -0.034221012 -0.11837996 -0.35721666 -0.58382547 -0.26641378 -0.26273862 -0.98965955

encoder.dcrnn_cells.0.update.weights_pool f4 [2, 2, 65, 64]
00000000: 5403 c7bf 68e1 2ebf a527 343f 884d 863f
00000010: 8a9d 7cbe 82e0 803f ca30 0f3f bbac eb3e
00000020: 6af8 bbbe 8951 f53e 1e91 52bf 79b4 0d40
00000030: cb08 9d3e 58be 7ec0 20a4 e43e 066a c23f
00000040: 72f7 bf3e 8f61 a73f 19a1 a9bf 1d07 8fbe
00000050: 89fd 1140 ec52 0f3f 716e 413d b6b0 64bf
00000060: 891e 753f 97ba 40c0 984b 7a3e de4f 113f
00000070: 2948 82bf 8986 d33e 49e3 e73e a8a7 13bf
00000080: 8457 f3bf 1cc6 f73e 82bf b93e 51ec 033f
00000090: fb4b 22bf d51d f03d bd04 97be 37df 27bf
000000a0: 46eb 41bf 24be 24c0 9127 c8be e57a 213f
000000b0: 5be2 f73e 873a f33f 00a4 4bbf e4ed 2dbf
000000c0: 5619 1fbf d720 36bf 88c9 f4bf 1db3 d23e
000000d0: 9291 c63e b335 33bf 609a 9e3e 0fe5 683f
000000e0: 2a44 5b3f 7499 20bf 64bf b4bf 1601 edbf
000000f0: 646e abbe 2372 2cbe eb00 a03f c8c8 1bbf
00000100: 7385 9abe 55da a4bf 1f33 00bf 741c 59be
00000110: 81ec a83f 7fbe d93e 3fa0 c3be bfd4 debe
00000120: 2d67 0540 36b7 c2bf f1d7 073e 7ad3 28bf
00000130: d50a 03bf d7a8 693c 4e4e 803d e9ba d63d
00000140: f9e7 8a3d e10e 9c3f 2a37 8d3e b3c2 a63e
00000150: 2b72 0cc0 fa58 b6be f935 033f a0f4 0b3e
00000160: bc02 413f 4869 c4bb 9f9e 93be 951f 6c3e
00000170: 9533 e73d b032 03c0 3da8 1cc0 e2ad 4e3f
00000180: c2dd 193f b155 35bf 54b7 8bbe e13a eabd
00000190: 27a6 ef3f 44a6 ab3e 9a28 a03e 9c93 333e
000001a0: 7770 f53c 9665 533e 2bac ab3f bca2 043e
000001b0: 10c4 c7be 7fad e4bc 4e95 c73e 7f05 9f3f
000001c0: d56c da3e 9f40 0c3f 041b 9c3d 46a6 aabf
000001d0: 571b cebe c268 14bf 132d 28be 2964 a33c
000001e0: 24c0 54bf 925c 383f 7cc2 323e d4df 0a3f
000001f0: 033d 123f 0f98 96bc caa0 b13e b86b c03f
00000200: 639d 5a3f 8f21 483e e0ff 11bf 1107 0cbe
00000210: 5cbd 953f f454 893e 5201 4ebf 3b2c 10bd
00000220: 6587 113f 05dc 41bf a00a 233b 7c3b 0bbf
00000230: 8311 babf 7839 bd3f fcde 7cbf 2b8b 86bf
00000240: d95d 043f c7f6 c23d 087f 1bbe 4172 a9be
00000250: 89a2 bfbf b9ec 013e c565 2fbf b209 d1be
00000260: 9dea acbf bdd8 d13e eaef 063f 96bd 5cbe
00000270: 7685 f7bc 4882 1dbf 4069 dbbf 6c75 6cbf
00000280: fec6 243e 1f19 a23d 5e06 aabf 5723 983e
00000290: d546 7fbd b827 af3e a041 8b3d 9c0a 023f
000002a0: 93d6 443f 09c9 b03e f6fd 933f db3b 093d
000002b0: f8d0 42be 6099 193e bfac f1be ea40 cfbd
000002c0: 6582 7a3e c0f5 de3e 8487 b0be b091 a9be
000002d0: cbb6 1ebe c817 c93e 4470 2bbd 10c8 95bd
000002e0: 58cd 19c0 dc04 f6be 488b 023f 1b4f 993e
000002f0: 76a0 c3bd 759c d6be d20a 4ebe 695f 693f
00000300: 4496 993f a66f 57bd 4268 023f a927 42bf
00000310: 6246 893f b862 593e c30d 80bf e3d5 41be
00000320: a2cf 873f b2b9 1ac0 e92f 2b3f 818e 90bf
00000330: 7a82 0abf 054c 5b3f 2cc6 1a3f eda4 f33c
00000340: a4f3 9e3d a6f1 1fbf d0b9 563f f372 b03e
00000350: ccc5 60be d38e 57be 37bd 053f 861c 03bd
00000360: ed14 6f3e 7bb6 533d 6679 2fbf 123b 1cbf
00000370: 358c c23e 8087 c4bf 8ce0 5dbf 0060 d13e
00000380: 3aa8 9b3e 4ecd 983e 51df 17c0 585b 27bd
00000390: 7f46 093f 9c37 c33e d1b7 823e a302 e3bd
000003a0: ac20 943d 22f6 743e 90de 933f 0d4d a5bf
000003b0: 4811 c2be 5de9 80bf c1dd 02be 6da0 03bf
000003c0: 6a81 363f e84d ac3e ad55 f43e 91c6 c4bf
000003d0: ac71 45bf 4226 183f 202f 1abf 82db 77bf
000003e0: eaf3 64bf 89e1 f53d 8ded 8bbe 7441 00bb
000003f0: 9603 5f3f ac5f 463e af12 edbd bd68 913f
-1.5547891 -0.6831269 0.7037299 1.0492411 -0.24669471 1.0068514 0.5593382 0.4603022
-0.36712962 0.4791377 -0.8225268 2.2141402 0.3067077 -3.9803677 0.44656467 1.5188606
0.37493473 1.3076648 -1.3252288 -0.27935115 2.2810996 0.55985904 0.047224466 -0.8933214
0.9574972 -3.0113885 0.24442899 0.5676249 -1.0178272 0.4131358 0.45290592 -0.576777
-1.9011083 0.48393333 0.3627892 0.51532465 -0.63397187 0.1172444 -0.29495803 -0.65574974
-0.75749624 -2.5741053 -0.39092687 0.6307815 0.48414883 1.9002236 -0.7954712 -0.6794112
-0.62148035 -0.7114386 -1.9124002 0.41152278 0.38782936 -0.70003814 0.30977154 0.90974516
0.85650885 -0.6273415 -1.4120908 -1.8515956 -0.3348266 -0.16840415 1.250028 -0.6085324
-0.3017994 -1.287913 -0.50078005 -0.2120226 1.3197175 0.4252815 -0.38208196 -0.43521687
2.0844223 -1.5212162 0.13265969 -0.6594769 -0.51188403 0.014261446 0.062649354 0.10484869
0.067825265 1.2192041 0.2758115 0.3257042 -2.1944683 -0.3561476 0.5125423 0.13667536
0.753948 -0.005993996 -0.28831956 0.23058923 0.11289135 -2.0499687 -2.4477684 0.80734074
0.60104 -0.7083388 -0.27288306 -0.114370115 1.8722581 0.33525288 0.31280977 0.17536777
0.029960854 0.2064422 1.3411916 0.12952703 -0.3901677 -0.02791476 0.38981098 1.2423552
0.42661157 0.54786104 0.0762234 -1.3331993 -0.40255234 -0.5797235 -0.16423444 0.019945221
-0.83105683 0.7201625 0.17457002 0.54247785 0.57124346 -0.018383054 0.34692985 1.5032873
0.85396403 0.19544052 -0.5703106 -0.1367457 1.1698413 0.26822627 -0.80470765 -0.03519843
0.5684722 -0.7572635 0.002487816 -0.5438764 -1.4536594 1.4783163 -0.9877775 -1.0511221
0.517057 0.09519725 -0.15185177 -0.3309498 -1.4971477 0.12687959 -0.68514663 -0.4082771
-1.3509098 0.4098567 0.5270983 -0.21556696 -0.030215006 -0.6152692 -1.7141495 -0.9236667
0.16091534 0.07914948 -1.3283193 0.29714462 -0.06232341 0.3420999 0.06799626 0.5079744
0.76889914 0.34528378 1.1561878 0.03350435 -0.19025028 0.14999914 -0.47202107 -0.10119803
0.24463804 0.43546867 -0.3447839 -0.33118963 -0.15499417 0.39275956 -0.04185511 -0.073135495
-2.4031582 -0.48050582 0.50993776 0.29943165 -0.0955209 -0.41916242 -0.20121315 0.9116121
1.1998982 -0.05259671 0.50940335 -0.75841767 1.0724604 0.21229064 -1.00042 -0.18929248
1.061024 -2.417584 0.6686998 -1.1293489 -0.5410534 0.8566287 0.60458636 0.029741729
0.077613145 -0.624781 0.8387728 0.344627 -0.21950454 -0.21050577 0.52241844 -0.032009624
0.23347826 0.0516877 -0.68544614 -0.61027634 0.37997594 -1.5353851 -0.86670756 0.40893555
0.30401784 0.29844135 -2.3730052 -0.040858597 0.53623194 0.38128364 0.25530866 -0.11084487
0.07232794 0.23922017 1.1552296 -1.2914139 -0.3790381 -1.0071217 -0.12779905 -0.51416665
0.7129122 0.33653188 0.47721615 -1.5373098 -0.77126575 0.59433377 -0.6022816 -0.9681932
-0.89434683 0.12005908 -0.27329674 -0.0019570263 0.87114847 0.19372433 -0.11575829 1.1360089

encoder.dcrnn_cells.0.update.bias_pool f4 [2, 64]
00000000: b86f 783f f798 b83f 0cad 933f 6735 8fbf
00000010: 19d1 983f 005d 7c3f 6467 3ebf 6535 02bf
00000020: 7bcd 573f 3aed 1ebf 3fa4 db3d 4f03 98be
00000030: b49a d7bf 2fc7 c2bf 80be 12bf 3860 f43d
00000040: eeaa 5d3f 1f2d c33d 0f31 3dbf 78fa 8e3f
00000050: ab7e 75bd e4fc cbbe a44f 3d3f dca7 bd3e
00000060: afd7 3fbf 74ad 183e c6ec 08bf 60a7 5dbf
00000070: f102 103f 46d8 01bf 93ba ffbe a391 c53e
00000080: 97ce c2bd 622e 53bf 17ba 40bf a2f4 a7be
00000090: f0e4 db3e cd03 8ebf c182 77bd ba8e babf
000000a0: 4907 bebf be0f 763f 3868 bf3e 77f3 1abe
000000b0: 2cdf 5fbf 1b00 56bf d558 dc3e a80c 453f
000000c0: 9e01 4fbe a0ce 0a3f c659 6dbf 1796 38bf
000000d0: c22a afbe 9feb 893f 7e33 32bf af11 c2bf
000000e0: 1e9d 6e3e d462 54bc 62f2 033e cd04 463f
000000f0: 111f 353f eec0 9c3d 0a19 2d3f 48e1 c03e
00000100: 1426 89be 002f 2bbe 02c1 debe 6edb 74be
00000110: ee49 af3d 7bef 90be 7ff7 47be d73d 61bf
00000120: 52d6 bf3e e85b 4cbc 3988 adbe 51e1 9abc
00000130: f2f1 2b3f f544 b1be 76d0 1dbf 15e7 df3e
00000140: 70ca 65bf 2e68 5b3f 1383 01bf 01a2 00bf
00000150: 1a33 f4bd 655c bcbe b909 79bf 64ac dd3e
00000160: b86d cd3e 395f 29be 2a0a 763f 90d3 4f3e
00000170: de8d a53e e591 d5be 213d 0f3f 3eb0 df3e
00000180: 573c 993e 3e99 e9be 5c73 2ebe 590f 3bbe
00000190: 0c73 ccbc ab63 553f ee5e 4e3c dd0f 463f
000001a0: 9b84 9b3f ee2d cdbd 07e3 89bf 3d34 91be
000001b0: cd9d 41bf 8ffc f63d 967f 41bd 2bbd 4bbf
000001c0: f7d2 41bf c434 143e 502a f23e 88ac 9abe
000001d0: 338a 04bf b9c9 bfbe caa2 853f 947e 6d3f
000001e0: a16e a93f 16f5 4c3f 5c7e f0be fc1e 8fbe
000001f0: 2223 bcbd 249f b1bf 5c2e 8cbf 3560 823e
0.9704547 1.4421681 1.1537185 -1.1188172 1.1938812 0.98579407 -0.7437651 -0.50862724
0.84297913 -0.6208073 0.10724687 -0.29690024 -1.6844087 -1.5217036 -0.5732193 0.11932415
0.86588943 0.095300905 -0.7390298 1.1170187 -0.059935253 -0.39841378 0.73949647 0.3704213
-0.7493848 0.14909917 -0.5348629 -0.8658352 0.5625449 -0.5072063 -0.49947032 0.38587674
-0.0951206 -0.8249265 -0.7528395 -0.32803828 0.42948103 -1.109491 -0.06042743 -1.4574807
-1.4845973 0.9611777 0.373842 -0.15131937 -0.8744991 -0.8359391 0.43036523 0.76972437
-0.2021546 0.54221535 -0.9271511 -0.7210402 -0.3421231 1.0775031 -0.6960982 -1.5161647
0.23302123 -0.012963016 0.1288543 0.77351075 0.7075053 0.07653986 0.6761633 0.37671876
-0.26786864 -0.16717148 -0.43506628 -0.23911831 0.08559023 -0.2830771 -0.19528006 -0.87984985
0.374682 -0.012473084 -0.33892992 -0.018906267 0.67166054 -0.34622923 -0.6164621 0.4373099
-0.8976202 0.8570584 -0.5059063 -0.502472 -0.11923809 -0.3678924 -0.9728046 0.43295586
0.4012277 -0.16540231 0.9610926 0.20295548 0.323348 -0.4171287 0.5595265 0.4368915
0.29928848 -0.45624727 -0.17036194 -0.18267573 -0.024957202 0.83355206 0.012595875 0.77367955
1.2149843 -0.10018526 -1.0772408 -0.28360167 -0.7563141 0.120598905 -0.047240816 -0.7958552
-0.7571253 0.14473253 0.47297907 -0.30209756 -0.51773375 -0.3745859 1.0440304 0.9277127
1.3236886 0.8006147 -0.46971405 -0.27953327 -0.091863886 -1.3876691 -1.0951648 0.25464025

encoder.dcrnn_cells.1.gate.weights_pool f4 [2, 2, 128, 128]
00000000: 9f2d 943f a158 0c3e ec55 ed3f 8125 423f
00000010: a04e c2be 34d9 823d 5bc9 163f 7590 8ebe
00000020: cfe1 683f e643 56bf 328e b53e 1596 3f3e
00000030: cad2 613f a571 a33e 11a3 0cbf c0d1 cdbe
00000040: b191 dbbf 7cc0 84be a1ed fb3e 438f a7bf
00000050: ae11 3b3f 4bbb e5bf 7d31 693f 12ba 153f
00000060: dd29 ea3e 2c12 12bf 464f b43f 91ad 96bf
00000070: 4299 033f 56ed 9b3e 6937 14c0 1ca2 533f
00000080: 424e b2be 1114 c93d 2df9 373d 41f6 bc3e
00000090: 3116 82be 5083 853e a3f2 b93f 567e 74bf
000000a0: 6fbd 1d40 37e5 f4be bd18 d0bf 89ed 8d3d
000000b0: 7273 30be c6a5 683f 9650 58be 178f 443f
000000c0: 5915 723f 8bc7 9d3e 2b26 4abe c617 b83f
000000d0: ae36 b83e 0520 153f 410e 70bd 17d9 39bc
000000e0: 83c3 273f d3ea f3be 7052 243f dad8 74be
000000f0: d262 93be 9671 9ebe 3638 4b3f 00b5 0e3f
00000100: 1e95 593f 6746 763f 01fd b93f 1fce 353f
00000110: 44b4 253f ffce ab3c 2c38 a53e 0b6e 313f
00000120: 0221 23bf e748 443f af0e 51bd 96d5 f0be
00000130: 9841 c53f 36ee 983e 3445 40c0 4042 f63e
00000140: 4c57 dbbe 395e 71be bccd a2bf 5dd0 eebe
00000150: 1519 2c3f 16f6 3d3e a37b 69bf e81a 39be
00000160: ee96 34bc 5e47 343f e75a 9ab9 92fb a93f
00000170: 478f c23a dfe1 21bf 4b05 76bf da94 d73e
00000180: 6926 dcbe 2d0c 30bf 0385 a9bf 3995 103e
00000190: 1363 cebe f0d2 69be a0b7 0e3f ae2a 033e
000001a0: f316 1bbf c7a7 cdbe 2d2e a4bd 1def a1be
000001b0: 4bd6 c23e fc8c ff3e 99e3 363e a422 483d
000001c0: 9d49 2a3e fa36 4a3f 1221 d9be be78 893f
000001d0: b764 d33e 1401 603d 8669 5940 5109 52bf
000001e0: 4f53 f13e 17a6 96bf eaea 10be 2d67 5ebf
000001f0: 8f90 373f 483f 1a3f 12e5 aabe e711 6ebf
00000200: d39a b73f 64ab 183f 8ec0 733f b33c 89bd
00000210: eabb 423f 5f4a d93e 776e eebf c797 adbe
00000220: 760c 533f 2b52 cebe 53ba 2c3e c400 933f
00000230: 7120 3e3f 1fe2 00bf 8881 4bbe 46ce e73e
00000240: 0d96 96bf 6142 a43e 15ed 6fbb 3b76 0ac0
00000250: 24cb ac3e 8589 0dc0 3753 c43d 6635 d93c
00000260: 143f f9be 1de6 a0bd ea55 373f 3ceb f7be
00000270: 1a61 b5be 1bf8 d73d 7ccc d9bf c94b be3d
00000280: cb86 b7bf 6ef9 60be 9b50 43be 11a1 4e3f
00000290: a4fb dcbe 398d 02be a142 c23e fcc4 65bf
000002a0: 5d7d e03e 245c bfbf f2eb 44bf e9d6 db3e
000002b0: e28b 1bbd cff5 08bd bac3 21bf fb66 7abe
000002c0: 8f0d 4a3e 9c2f 76bd dcc1 c3be 39b0 773f
000002d0: 16fa 883e 117d 67bf 92de e63f 5b1a 2d3e
000002e0: 6480 6f3f 5ac8 063f a7dd 813c e74a 333f
000002f0: 467b 13bf c44e cbbe b925 6f3f 82e4 7fbe
00000300: bbe6 99be aad4 b43f 2f3d 3dbe eac5 bb3e
00000310: 0940 c23d 8ce8 f2bd 2213 5b3e 2074 423f
00000320: 6f06 9cbf cdaf b23e 309a 133f 69c2 443e
00000330: 9e17 19bd 5a97 c4be f5b2 ccbf 6f19 e93d
00000340: fd1d 16be 1e69 dfbe 2a29 9ebf b6b0 4abe
00000350: 422f f1be a68f 29be 04e9 283f c05f 17bf
00000360: 119c c0be af20 8bbf a89e 18be 535e a63f
00000370: fc43 a9be 81ad 8cbf 7000 d7be 04db 34bd
00000380: 7f93 43bf cbe6 f5bf 4936 afbf cdc3 ca3e
00000390: aeec 4abf 81db fcbd 271b b13d dfcd acbf
000003a0: b691 6dbf 9b8c 35bf ee89 cabe d4c9 87be
000003b0: bf9e fc3d e019 d1bc 09c8 93bf b03a a5bc
000003c0: d98b 2cbf 77c4 243f 61f4 d6be 22fa cc3d
000003d0: 9512 71bf 133f 88bf 403c 0e3f 81b2 00c0
000003e0: 2c33 5bbf 6c89 b4bf b744 56bf 9e50 e9bf
000003f0: f368 1bbe 66c4 e5be f1f2 a8be 394f 71bf
1.1576422 0.13705684 1.8541846 0.75838476 -0.3795061 0.063890845 0.58900994 -0.27844587
0.90969557 -0.83697355 0.3546005 0.18709596 0.88212264 0.3192264 -0.5493632 -0.4019909
-1.7153836 -0.25928104 0.49204734 -1.3090595 0.7307385 -1.7947782 0.9109114 0.58487046
0.45735064 -0.5705898 1.4086692 -1.1771718 0.5140573 0.3045451 -2.315882 0.82669234
-0.3482533 0.098182805 0.044915367 0.36906627 -0.25407556 0.26076746 1.4527172 -0.95505273
2.464687 -0.47831127 -1.625755 0.06930072 -0.17231539 0.9087795 -0.21124491 0.7678084
0.94563824 0.30816302 -0.19741122 1.4382255 0.35979217 0.5825198 -0.058607344 -0.011343262
0.655327 -0.47640094 0.6418829 -0.23910847 -0.2878633 -0.30946034 0.79382646 0.55744934
0.8499316 0.96201175 1.4530336 0.7101764 0.6472819 0.020972727 0.32269418 0.6930854
-0.6372224 0.7667374 -0.051039394 -0.47037953 1.5410643 0.2986924 -3.0042238 0.4809742
-0.4284004 -0.235711 -1.2719035 -0.46643344 0.6722577 0.18550906 -0.9120428 -0.1807667
-0.011022313 0.704214 -0.00029440896 1.3279898 0.0014843725 -0.63235277 -0.96101826 0.42105752
-0.42998055 -0.6876858 -1.3243717 0.14119424 -0.40309963 -0.22834373 0.5574894 0.1280925
-0.6058189 -0.40167066 -0.0801662 -0.3162774 0.38054118 0.4991225 0.17860259 0.04886116
0.16629644 0.7899014 -0.42408043 1.0739973 0.41287777 0.05468853 3.3970656 -0.82045466
0.47133872 -1.1769437 -0.14152113 -0.86876184 0.71704954 0.6025281 -0.33377892 -0.92996067
1.4344124 0.5963652 0.9521569 -0.067010306 0.76067984 0.42439553 -1.8627461 -0.3390486
0.8244089 -0.40297064 0.16867952 1.1484609 0.7426825 -0.50345033 -0.19873631 0.45274562
-1.1764542 0.32081893 -0.0036609818 -2.1634662 0.33748734 -2.2115185 0.095861845 0.02651472
-0.48680937 -0.078563906 0.7161547 -0.48421657 -0.35425645 0.10545369 -1.7015529 0.092917986
-1.433801 -0.2197015 -0.19073717 0.8071452 -0.43160737 -0.12749185 0.3794146 -0.897537
0.43845645 -1.4949994 -0.76922524 0.429374 -0.0379752 -0.033437546 -0.6318928 -0.24453346
0.19731735 -0.060103998 -0.3823384 0.9675327 0.267533 -0.9042521 1.8036673 0.16904585
0.93555284 0.5264946 0.015852762 0.70036167 -0.57609975 -0.3970853 0.93416935 -0.24989513
-0.30058846 1.41274 -0.18480371 0.36674434 0.0948487 -0.11860761 0.21394017 0.7595844
-1.2189463 0.3489975 0.57657146 0.19214787 -0.03737604 -0.38396722 -1.5992113 0.11381804
-0.14659877 -0.43634886 -1.2356312 -0.19793972 -0.47106367 -0.16558704 0.65980554 -0.5913048
-0.3761907 -1.0869349 -0.14904273 1.2997535 -0.3305968 -1.0990449 -0.4199252 -0.044154182
-0.76396936 -1.9211057 -1.3688442 0.3960251 -0.79267395 -0.123465545 0.08647757 -1.3500327
-0.9280046 -0.7091767 -0.39558357 -0.2652117 0.12334966 -0.025525033 -1.1545421 -0.020169586
-0.6740089 0.6436228 -0.4198332 0.100086465 -0.9416898 -1.0644249 0.55560684 -2.010895
-0.8562496 -1.4104438 -0.836986 -1.8227727 -0.15176754 -0.44876403 -0.3299785 -0.9426151

encoder.dcrnn_cells.1.gate.bias_pool f4 [2, 128]
00000000: 9e3f b6bf c574 77bf f68e 4e3e 80ce a3bf
00000010: 4242 41bf ad5b 37be 4461 0ebf bbbf 00bf
00000020: 6698 253e a547 8ebe f056 55bf 9037 cb3c
00000030: 34f1 b1bf 49e1 293f e514 113f 9f9d a5be
00000040: 9957 c23e 354e 18be 8a5e ce3e bd55 9f3e
00000050: d360 8ebf 3152 23bf 263a 51be 3ca8 1f3f
00000060: a0f1 c3bc 25f1 09bf 19e4 b1be 5d55 b0be
00000070: 417c 823e d37e f53e c9d5 9cbf 07f9 1c3f
00000080: 1e2f b53f 177e 16bf 8005 443e faef 1f3c
00000090: aff7 493e c71a 85be aac3 123d 9565 8d3d
000000a0: 1fc3 cf3f cc3b bb3e 0518 773f 6feb 0abf
000000b0: 5ae6 e23e 15fb cd3e 2d77 96be fd1f dcbd
000000c0: 8620 11bf 538c ebbe 750b 5cbf 531f 81bd
000000d0: 1332 aebf 9773 2c3e ca9f 4d3e 11b8 2dbf
000000e0: b1b5 9cbf 33b0 19bf bbea 113f f103 60bf
000000f0: 5616 4c3c ec71 1dbd ba46 82bf d1e8 8f3e
00000100: 3fe5 b13f 89e0 6940 eccf 423f b0cc bb3e
00000110: 7495 62bf 2949 24c0 0e18 12c0 7059 0f3e
00000120: 8698 92bf 8d58 c5bf 85e3 6ebf 7613 d6be
00000130: 02aa 78be 65ac 52bf df3a a83f e764 bebd
00000140: 8a30 b33f 4052 993e a1ea 45be 9e85 74bf
00000150: a321 c8bf ff03 c4bf ebc7 43c0 c7dd af3f
00000160: 3203 07bf 3654 1fbf a4e7 2940 600d 8fbb
00000170: 025d 043f 117f b0be 6ed1 0e40 0977 b93c
00000180: 9132 803e dfa3 563e adf1 dabd 4104 413e
00000190: d4a2 a33d cf4b b7bf 8955 613e ebb9 9dbf
000001a0: bafc a0bd 7918 3cbe 4921 4e3f 92e3 1dbe
000001b0: 1192 0d3f 23af 9abf 9479 463f b266 823f
000001c0: 2779 41be 1cd7 de3d 8933 62bc 7fcb d23f
000001d0: c5d7 0340 3fb2 b73f 85f6 4abf 52ee 583e
000001e0: 0195 3dbf cf22 b3bf c63a 37bf 947d c9be
000001f0: 2206 9dbf 2dcb f2be 937d f3bf 078c f83e
00000200: 2169 7cbf 132e 9cbd 2b47 f63e ed5b 713e
00000210: 1b95 8a3e b1f9 18bf be29 843e fb9f 0c3f
00000220: a174 0a3f 93da 143e e0fc 26be f465 c9be
00000230: bcc7 883e 0151 d53e ae00 ae3e 88b7 5abe
00000240: aa35 a93f 0dc6 07bf 89db 3dbf cc7e 723e
00000250: 1073 353e e726 babf 89a4 88be 419f 04bf
00000260: 0dfa 13bd e73f 543e e4b7 b63e 2265 30bf
00000270: 84dc dd3d 433b 5abf 638d 3dbf a7d3 99bf
00000280: 550e 38be c5de 8dbf 019a 00be bbe4 f63e
00000290: 318d acbe c256 c83d 3b10 023f 5769 c6bf
000002a0: 453e 1d3f 8992 3abe ae97 f0be e531 a5bf
000002b0: f882 913f 1e5a 0a3f 5674 41bf eca7 74be
000002c0: 9e58 373f 9ad7 163f 943b 9abe 4e69 c33e
000002d0: adfc e5be 33a9 433f b388 c43e 82ed b23c
000002e0: 45a0 4e3f 0f2b 0dbf 18f6 d5be 4331 123e
000002f0: 8cda 273f 33bc 5fbf 4be9 fcbe d2d9 30bf
00000300: 7853 abbf f1e8 ba3d 30a4 83bf da97 353f
00000310: aee4 d33f c675 413e 9d4a a5bf 7b19 65bf
00000320: e779 213f f34a bfbf 21f6 3f3e 085f 83bf
00000330: fb5c 6cbf afb2 14be d516 e93e 87d1 81bf
00000340: 690b b4be fa14 e13e 66e9 77bf f05f 2cbe
00000350: f87d b73f f1fc d23f 1a71 44bf dcfa 68bf
00000360: c8d9 a4bf 04b9 b73f d8b3 4b3f e132 a9bf
00000370: 9444 8cbe 87f5 3abf 1f4c 9fbf d36b ae3e
00000380: aaf3 01bf ba15 ee3f 3bbf 0a3f 237f a73c
00000390: 39d7 413f ac42 86be 91d2 133f f0fe c03e
000003a0: e481 a7bf 20e6 f23c 4fd1 003e b78e 213f
000003b0: 8ce3 673f 28fa 613f 7a49 0340 76df 8a3e
000003c0: 81a3 93bf 59e9 d3bf 5739 d2bf c078 f6bf
000003d0: 09cc 5e3e 58e7 0abe 607f 3c3e d54a 7ebc
000003e0: aa99 a3bf 2076 08c0 5374 fe3e aac6 6f3e
000003f0: c9d6 25bf d48c b7be 6ee7 523e dedc 223f
-1.4238164 -0.9666255 0.20171723 -1.2797394 -0.75491726 -0.17906065 -0.55617166 -0.5029256
0.16171417 -0.27789035 -0.8333578 0.024806768 -1.3901734 0.6635938 0.5667251 -0.32346818
0.37957457 -0.14873584 0.40306503 0.311201 -1.1123298 -0.6379729 -0.20432338 0.6236608
-0.023918927 -0.5388358 -0.34744337 -0.34440127 0.25485423 0.47948322 -1.2252742 0.61317486
1.4155004 -0.5878615 0.19142723 0.009761805 0.1972339 -0.25996992 0.03583113 0.06904141
1.6231421 0.3656906 0.96521026 -0.54265493 0.4431637 0.40230623 -0.293878 -0.10748289
-0.5669025 -0.46005496 -0.8595498 -0.06304803 -1.3609031 0.16840969 0.20080486 -0.6785899
-1.2242948 -0.60034484 0.56998795 -0.87506014 0.012456497 -0.038438722 -1.0177834 0.28107312
1.3898085 3.6543295 0.76098514 0.36679602 -0.885093 -2.5669653 -2.2827182 0.13998961
-1.1452796 -1.5417649 -0.9331592 -0.41811723 -0.24283603 -0.82294303 1.3142966 -0.09296589
1.3999188 0.29945564 -0.19327785 -0.95516384 -1.5635265 -1.531372 -3.059077 1.3739556
-0.5273925 -0.6223787 2.6547632 -0.004365608 0.5170442 -0.34471944 2.2315326 0.022639768
0.2503858 0.2096095 -0.10690627 0.18849279 0.079900414 -1.432001 0.22005285 -1.2322363
-0.07860704 -0.1836871 0.8051954 -0.15418842 0.55301005 -1.2084697 0.77529263 1.018759
-0.18893872 0.108808726 -0.013806232 1.6468352 2.0600445 1.4351271 -0.7928241 0.21184662
-0.74055487 -1.3994998 -0.71574056 -0.3935362 -1.2267497 -0.47420636 -1.9022697 0.48544332
-0.98597914 -0.076259755 0.48101172 0.23570223 0.27066883 -0.59756 0.25813097 0.5493161
0.5408421 0.14536504 -0.16307402 -0.39335597 0.26714885 0.41663364 0.33984894 -0.21359074
1.3219502 -0.53036577 -0.7416311 0.23681182 0.17719674 -1.4543122 -0.2668803 -0.518055
-0.03612714 0.20727502 0.35687172 -0.68904316 0.10833076 -0.85246676 -0.74043864 -1.2017716
-0.17974217 -1.1083609 -0.12558748 0.48221382 -0.3370147 0.09782173 0.50806016 -1.5500897
0.6142314 -0.18219961 -0.46990722 -1.2905852 1.1368093 0.5404376 -0.7556814 -0.23892182
0.71619594 0.5892273 -0.3012358 0.3816628 -0.4491934 0.7643005 0.38385543 0.021841768
0.807133 -0.5514383 -0.41789317 0.14276604 0.6556785 -0.87396544 -0.49396738 -0.6908237
-1.3384848 0.09126461 -1.0284481 0.7093483 1.6554163 0.18892583 -1.2913395 -0.89492005
0.63076633 -1.4944748 0.18746234 -1.0263376 -0.92329377 -0.14521287 0.45525232 -1.0142068
-0.35164955 0.43961316 -0.9684051 -0.16833472 1.4335318 1.6483442 -0.7673508 -0.9100778
-1.2878962 1.4353337 0.79571295 -1.3218652 -0.2739607 -0.73030895 -1.2445105 0.34066638
-0.50762427 1.860038 0.54198045 0.020446366 0.7571903 -0.26222742 0.57743174 0.37694502
-1.3086514 0.029650748 0.12579845 0.6310839 0.90581584 0.88272333 2.0513597 0.27123612
-1.1534272 -1.6555587 -1.6423749 -1.92556 0.2175752 -0.13564813 0.18407965 -0.015520771
-1.278127 -2.1322098 0.49698123 0.23415628 -0.6478086 -0.3584963 0.20596096 0.63618267

encoder.dcrnn_cells.1.update.weights_pool f4 [2, 2, 128, 64]
00000000: fb8d 743f 6f41 f3be 940e d73e 68d5 883e
00000010: b1e9 00bf 300b 5e3e 103c 97bf 9812 63be
00000020: 9a0d 8cbe 4869 dcbf b02a 4bbd c350 49be
00000030: 9b12 e2bd 4163 5bbd 3810 64be 6b2c 3fbf
00000040: e02c fc3e 377d 95be e555 063e 14ba 99bc
00000050: e595 7bbd fc2c 12bf 7f02 a03f 3db8 cabd
00000060: 55d0 22bf 819f e23e cdda e43e 463f 14bf
00000070: a62a abbf be8d 0bbe f373 2d3f 9bd1 a33f
00000080: 850b 543f ae11 0b3f 45b0 4ebe 3ad4 ed3d
00000090: af4c 583e 5a5f 16bf 8ac3 8abf 19a3 693e
000000a0: bb39 103f 6676 83bf 8e09 373f c345 a6bd
000000b0: 0c45 10be 1adb 553e 01c1 073f c362 143f
000000c0: c23d bebd 2c25 bb3e 3e8d a2be 5985 913e
000000d0: 0011 1bbf 93ef 143f 217a 443f 7070 213e
000000e0: 28c3 24be 6aba 833e eff6 b1be 5229 41be
000000f0: e30a a3be d035 3d3e 34ef 133f 29e3 483e
00000100: 1892 cc3d 2b40 d6be 6721 823d 57cf 953b
00000110: c8de a6be 05d9 0fbe 5632 00bf 1b7d 103f
00000120: 1b23 c63e 403e 0bbf 2942 92be 0648 433d
00000130: 4198 1e3f dec2 a1be 4b26 ab3e 1d72 d3be
00000140: bfaa 213e f2be 88bd 17ba c83e cab9 af3e
00000150: 7169 d0be 92a0 183f 298a 983e 4629 b8be
00000160: 2be5 ef3e 4566 093f a510 fb3e 6380 3cbf
00000170: b0f2 79bf 0d71 213f 5c38 d03e 6c3d 81bf
00000180: 5105 8c3f 080c 283f bb3c 3fbd 7888 e43e
00000190: 351a 363f 2635 d13e 2923 99bf cb04 f33d
000001a0: b37a 96be 02ba ab3c 5d22 05bf 1f2d cf3d
000001b0: 2156 e23d ac52 9ebc 7210 8bbe 4d4c 143f
000001c0: 1aba e7bd 3a1d 743f 2bd1 913e 0383 dabc
000001d0: 9d1a 503e 80e8 6a3f 3d23 793f ee13 81be
000001e0: b7ed 63be d935 a8be fda6 13bf 10b4 34bf
000001f0: 17df 17bf feed 96bd 7223 fa3e 52f2 5bbe
00000200: 9a6f d23e febe afbd 4568 a4bc 1c04 2cbd
00000210: f450 22bf 58f7 2f3e c3c3 33be e46a 763a
00000220: 53a4 263f 361e 3fbf 5dce 9ebe 8f02 aa3e
00000230: 8238 103f 6446 18bf d2f8 d03e ae20 c53e
00000240: b529 66bd 3fe3 dcbe 59f9 11bf 7a01 5dbe
00000250: 1e24 4bbf ed2f 7ebe 1b65 61bd a730 c2bd
00000260: aa42 5b3f bcad 753e c855 8e3d c480 6d3d
00000270: 0815 a7bd e228 9b3e 0ff0 3f3e 6b0f 783e
00000280: ef0c 983f e860 d63e 2456 5ebe 2345 623f
00000290: e07b 243f 1dec 893e 4418 a0be efe6 94bd
000002a0: 3130 e1bd b85b d73e 36c9 1d3e fd80 6a3c
000002b0: b435 d5bb 9e63 613e ea44 37bf 8006 ce3e
000002c0: e05c b83d 2c57 e73e ec2e d73d cabd a93d
000002d0: 064d 4e3e eba1 833f 4ae3 aa3e 0ff4 f4be
000002e0: bff9 a43e eae0 59be 2059 d3be 3bad b8bb
000002f0: 977a 9cbf da50 1fbe 9d30 febc 133d 443e
00000300: 805a dfbc 02f3 663f 38e8 1fbc 5c33 873e
00000310: 5a39 e33d f171 3bbf 31ad 33be 39d3 84bf
00000320: d76e 183d a84d 9cbf 8fc2 cdbd c681 98be
00000330: 103c 1fbe 69c2 1d3e 74e8 19bf 9fe5 873f
00000340: 6d76 ffbc 52dc 173f 0419 183f 3afb 793e
00000350: dadf 25be bd54 8dbe 944c 30be 06d0 9b3e
00000360: baf6 a3be 90d1 9e3e 07b4 2e3e c885 aa3e
00000370: 26fc 743f ea76 993e a95c a2be a1a6 42bf
00000380: 1d91 cebe e189 a0be f204 73be 6cdb 803e
00000390: 0f1b 7f3f 3823 8a3d 2c04 abbd b685 fe3e
000003a0: 1d4f 963e 3a39 483f 11fe 3abd 8366 7bbe
000003b0: 207c 85bf a96d cd3e be1c 7dbe 8765 37bf
000003c0: a7b4 8cbd 8767 0dbf eec4 77bd 5eff 24bd
000003d0: e472 e13d 1a68 9ebf 5929 babf da63 cabe
000003e0: 8fd5 fc3c 0ebf 4ebf 6dc1 2dbf a47f debe
000003f0: 5823 003f c496 013f 3d03 19bf 0cf8 aebe
0.95529145 -0.4751086 0.4200331 0.26725316 -0.50356585 0.21683955 -1.1815205 -0.22175062
-0.27354127 -1.7219629 -0.049601257 -0.19659714 -0.11038705 -0.053561453 -0.22271812 -0.7467715
0.49252987 -0.29197094 0.13118704 -0.018765487 -0.061422247 -0.5709989 1.2500762 -0.09898422
-0.6359914 0.44262317 0.44698182 -0.5790905 -1.337239 -0.13628289 0.6775505 1.2798342
0.8283008 0.5432385 -0.20184429 0.11612745 0.21123002 -0.58739245 -1.0840924 0.22816123
0.5633809 -1.0270507 0.71498954 -0.08118775 -0.1408884 0.20884362 0.53028876 0.579632
-0.09289123 0.36551797 -0.31748384 0.2842205 -0.60572815 0.5817806 0.76748854 0.15765548
-0.16090071 0.2572816 -0.34758708 -0.18863419 -0.31844243 0.18477559 0.5778687 0.19617905
0.09988803 -0.4184583 0.06354027 0.004571836 -0.32591844 -0.1404763 -0.50076807 0.56440896
0.38698658 -0.5439186 -0.285661 0.04767611 0.6195107 -0.31593984 0.33427653 -0.41298
0.1578779 -0.06677045 0.39204475 0.34321433 -0.40705445 0.5962001 0.29792908 -0.3596899
0.4685453 0.53671676 0.49036136 -0.736334 -0.97635937 0.63063127 0.40668 -1.009687
1.0939122 0.6564336 -0.046688776 0.44635367 0.7113374 0.40860862 -1.1963855 0.118661486
-0.29390487 0.020962719 -0.5200556 0.10116028 0.11051584 -0.01932653 -0.27160984 0.57928926
-0.11314793 0.95357096 0.28479895 -0.0266738 0.20322652 0.91761017 0.97319394 -0.25210518
-0.2225865 -0.32853583 -0.5767668 -0.70587254 -0.59324783 -0.07369612 0.48855168 -0.21479157
0.4110077 -0.08581351 -0.02006925 -0.041996107 -0.63404775 0.17184198 -0.17555146 0.0009400083
0.6509449 -0.74655473 -0.31016818 0.33205077 0.56336224 -0.5948241 0.40814835 0.38501495
-0.05619212 -0.43142125 -0.570211 -0.21582595 -0.79351985 -0.2482297 -0.055028062 -0.09481936
0.85648596 0.23992056 0.06949955 0.05798413 -0.08158308 0.3030463 0.18743919 0.24224631
1.1878947 0.4187081 -0.21712548 0.88386744 0.6425152 0.26937953 -0.31268513 -0.072706096
-0.1099552 0.42062163 0.15408787 0.01431298 -0.006506646 0.22010657 -0.7158953 0.40239334
0.090020895 0.45183694 0.105069965 0.082881525 0.2014657 1.0283788 0.33376533 -0.47842452
0.3222179 -0.21277204 -0.41278934 -0.005635885 -1.2224911 -0.15558186 -0.03102904 0.19163923
-0.027264833 0.9021455 -0.009759955 0.26406372 0.11094923 -0.73220736 -0.17546536 -1.037696
0.03721508 -1.2211199 -0.10046875 -0.2978651 -0.15550256 0.15406193 -0.6012032 1.061695
-0.0311844 0.5932056 0.5941317 0.24412242 -0.16198674 -0.27603713 -0.17216712 0.30432147
-0.32024175 0.31019258 0.17060862 0.33305192 0.9569725 0.29973537 -0.3171132 -0.76035506
-0.40345088 -0.31355193 -0.23732355 0.25167406 0.99650663 0.06744999 -0.08350405 0.49711388
0.29357234 0.7821232 -0.045652453 -0.24550824 -1.0428505 0.40122727 -0.24717996 -0.71639293
-0.06870394 -0.55236095 -0.06049054 -0.0402826 0.11008242 -1.2375519 -1.4543868 -0.39529306
0.030863551 -0.80760276 -0.6787327 -0.43456757 0.5005393 0.50620675 -0.59770566 -0.3417362

encoder.dcrnn_cells.1.update.bias_pool f4 [2, 64]
00000000: bc97 5240 ee9f 2bbf 2eb0 dfbd bda6 2840
00000010: cda0 b3bf 9d40 213f 045d d6bd 1f00 8d3f
00000020: e798 7a3f 4367 29bf 6a72 9c3f c550 773f
00000030: 410d 9e3e f7ba c3bf 3d77 c03f 38ef 8abf
00000040: 20d3 fcbd f97a c03b 3ebe 5e3f 39ae d5be
00000050: 90d4 873f 4b92 23bf a4be cd3e da4e 733e
00000060: 4049 6fbe ded6 e4be 373b 01bf 8282 b33f
00000070: e555 a73f d12f 38be bc08 263f 4313 2d3d
00000080: 16be 733f a3ca e93d 7e88 26c0 0649 83bf
00000090: 280a 8abf 4cac 76bf f5cf 13bf 381c b3bf
000000a0: d987 abbf 1d94 773f 3a60 91bf 6854 03c0
000000b0: 2cd4 e73f 8afb c5bd 2f56 85be 6af8 debe
000000c0: 6348 033f ff89 513f a215 fa3d dc9b 14be
000000d0: 639f e4be 67fb 2b40 7418 4d3e 323c 74bf
000000e0: d89e 53be 0ba9 a0bf 5ac6 9f3f 77a8 1dbf
000000f0: f999 99be 6ca9 b9bf d3f9 45be eba4 e33f
00000100: 9922 a33f 9a40 0fbf 6806 c43f 3e91 16bf
00000110: a6ac ab3f 4356 f0bf e88d 813f da8d 9d3f
00000120: b80c 223d cfa4 9bbf 3968 c7be 9a4b 833e
00000130: a78d c83e f973 7dbf d43e d23e 72b8 ffbe
00000140: ff7f a4bf 3d52 70bf e538 d1be 706b bebe
00000150: 5f88 79be 8d6e 233f 8634 96bf 1646 983f
00000160: 1baf 2b3f a67f 81be 247c 563d 5342 cabf
00000170: c047 373f 6cac 453e f65d 043f bed8 eebf
00000180: d5b4 083f c2b0 cabf 13f5 99bd 42b2 1bbf
00000190: 503a 98bd f12a c63f 90ba ed3f 326a e73f
000001a0: b587 173f 7bee b83e 0fd2 b4bf c0cc 873f
000001b0: 972e b03d 12a4 fdbe 5492 873f 081b 493f
000001c0: 53c7 4f3e b4e2 5640 20a3 22bf aef6 c4be
000001d0: 2490 303f 36a3 803f 8c4f 92bf a898 3d3f
000001e0: 5926 6b3f 2ec7 17bf 830a ad3e 46cb 1e40
000001f0: 22f4 e2bf 4815 08c0 986b be3f 0014 9a3f
3.2905111 -0.6704091 -0.109222755 2.635177 -1.4033448 0.6298922 -0.1046696 1.1015662
0.9788956 -0.6617319 1.2222416 0.9660762 0.30869487 -1.5291432 1.5036389 -1.0854254
-0.123449564 0.0058740345 0.87009037 -0.41734484 1.0611744 -0.638951 0.4018451 0.23760548
-0.23367786 -0.4469518 -0.5048098 1.4024203 1.3073088 -0.1798699 0.6485708 0.042254698
0.95211923 0.11415603 -2.6020808 -1.025666 -1.078435 -0.96356654 -0.5773919 -1.3992987
-1.3400832 0.9671038 -1.1357491 -2.0520267 1.8111625 -0.09667118 -0.26042315 -0.435489
0.5128233 0.8185119 0.122111574 -0.1451258 -0.44652852 2.6872194 0.2002886 -0.9540435
-0.20666063 -1.2551588 1.2482407 -0.6158518 -0.30000284 -1.4504828 -0.19333582 1.7784704
1.2744933 -0.5595795 1.5314455 -0.5881537 1.3412063 -1.8776325 1.0121431 1.2308915
0.03956291 -1.215967 -0.38946703 0.25643617 0.39170572 -0.99005085 0.4106356 -0.49945408
-1.2851561 -0.93875486 -0.4086372 -0.37191343 -0.24368428 0.6384056 -1.1734779 1.1896389
0.67064065 -0.252927 0.052364483 -1.580149 0.71593857 0.19304055 0.51705873 -1.8659894
0.5340093 -1.5835192 -0.07517447 -0.60818875 -0.07432997 1.5481855 1.8572559 1.8079283
0.5919145 0.36119446 -1.4126605 1.060936 0.08602636 -0.49539238 1.0591531 0.7855687
0.2029088 3.3575869 -0.6353016 -0.38469452 0.6896994 1.0049808 -1.1430526 0.7406106
0.9185539 -0.592883 0.33797082 2.4811568 -1.7730753 -2.126299 1.4876585 1.2037354
