CQ/result/P7_Resullt/HOURS/data3/2/best_model.pth (torch_old, 603202 bytes, 11 tensors)

node_embeddings f4 [228, 2]
00000000: 9cc6 2f3e a847 c73d 1303 963e c1ab 863e
00000010: 1f7b 163e 2ada e03d 2d7d e4bd ab7a 873e
00000020: 7658 923e a403 513e 1c25 893e 4b0d 233d
00000030: c4d1 283e 4181 e33d 5674 0e3e a7b8 8f3e
00000040: 1ebd a6be 2f46 4c3d fa9b 03be 7a98 833e
00000050: 02ef 943e 1316 2e3e 077c 963e f08a 803e
00000060: c757 98bd fff6 3e3e 2f58 873e 8de5 0d3e
00000070: 40c1 193e ce25 163e ebfb 68be deac 173e
00000080: 8ca5 2c3c 203b 9a3e 7dfb 513e 4fd4 903e
00000090: 06c5 403e 6c1d 323d 9bd2 023e e42a 7e3e
000000a0: a5c2 ddbd 5cd4 443e d362 213e 9c26 033e
000000b0: 0d60 803e 29a5 253e 2f20 923e 4e0a e53d
000000c0: ac63 6f3e ec9e 5b3d d753 ad3d 64ca 213e
000000d0: 5486 ec3d bb82 623e 4d5f e83d ee62 3c3e
000000e0: 587e 213d 2d3a 4e3e c4b1 ed3c 357f 133e
000000f0: e4c2 f7bd bbc9 973e 851d 443e 2659 653e
00000100: 58d3 873e 665e f53c 2fe0 8d3e c563 f03d
00000110: b212 313e b487 ba3d 14d6 a53d 57ff 8b3e
00000120: 540a a53d 3521 7f3e c5ee d9bd 3de8 873e
00000130: eb3b 0e3e 4547 6c3e 3728 c0bd 7b7d 973e
00000140: aec0 673e 3108 923e 2020 1f3e 4260 4c3e
00000150: 4169 063e ca8d 5c3e cf66 713e d48d 463c
00000160: 00b5 323e a8a5 5d3e 3537 913d 45fc 223e
00000170: 351a 9a3d 5d7f 8d3e 42b9 823e 0825 ee3c
00000180: 8e94 f23d 7ddc 143e e499 463e b489 8e3d
00000190: 9993 0b3e bafa dd3d 93fb c83d 0513 583e
000001a0: 8c5b 3e3e b886 923e 5aec 673e 9c84 633e
000001b0: 4ede bc3d d326 363e 102e 2ebd a946 943e
000001c0: 9be1 873e b624 933e 51da 7f3e 8cd6 a93c
000001d0: d28a 2a3e b2ec bf3d 7ab3 633e 34a0 893d
000001e0: 9583 fb3d 24ce fa3d 202b f03d 81c2 fe3d
000001f0: ab83 913e e926 063e 0dd2 8f3e 21f3 be3d
00000200: c53b ed3d ab21 f13d baa4 553e 1d9a 7a3d
00000210: 4583 773e b5c3 393e bbab 103d 72cf 9d3e
00000220: c88d 083e 65f2 d63d 006c 8b3e 86bf 973e
00000230: 74d7 983e bb26 003d 5db0 fe3d a837 ea3d
00000240: 345a 763e 256a a43d 94da 023e c03d dd3d
00000250: 0870 983e a38e 8a3e 67a4 323e 1c4b 103e
00000260: 00ea 813d 22ea 833e 4dfc 503e 6249 6d3e
00000270: 9702 983e 6aa0 043c 9c6d 333e afa9 913e
00000280: d5a9 493e 4e1f 073d 203e 883e eb0d 103d
00000290: 3c6d 803e 803c 053e 9fd2 b53d 9166 143e
000002a0: ab68 993e c9ee 993e f817 443e d559 283e
000002b0: 68ce 913e 371f e6bc 6daa d1bd 1ed2 773e
000002c0: c89b 443e 6563 983d 1d7f 62be fba7 0e3e
000002d0: bdac 8abd c90d 323e ec90 323e 198c 933d
000002e0: f059 403e 4274 d03d 28b1 77be 1382 a13d
000002f0: 2cf9 633e 1421 9d3d e89e 3f3e 9048 5f3e
00000300: 1911 343e 0a33 d53d e1bd 503e d03d da3d
00000310: db96 833e 9716 413e 8f6b b73d b672 8f3e
00000320: d9e4 503d 7c2b 0d3e 800e ac3d e501 873e
00000330: effd f63d 4fc3 993e 8a41 4a3e 30ad 083e
00000340: d711 883d ec40 663e d79e 353e a0fa 3f3e
00000350: 1f06 6b3d f332 0c3e 549d 783d 95e4 7f3e
00000360: 210a 033e 3082 ee3d e7cd 953e 2cd7 903e
00000370: fb65 823e bb06 58bc a42e aebd dab0 563e
00000380: 5711 96bd ac7a 363e dca0 923e 2c72 633e
00000390: db2b 493e e4c0 d93d d080 4bbd 5e54 493e
000003a0: fdce 8d3e e1a4 6d3e 799d 913e 0c6e 173e
000003b0: 1aa5 913e cee1 de3d ec0d b2be d83c 123d
000003c0: 407f 843e 8cb7 1e3e 5a43 3b3e e437 323e
000003d0: df59 773e e01d 803e a802 c33c d7d4 593e
000003e0: 71ae cfbc 80f4 243e c674 86be 029d fd3d
000003f0: 78a2 853d 4f96 343e ca50 483e 004d 573e
0.17165607 0.09730464 0.2929922 0.26302913 0.14695404 0.109791115 -0.11156688 0.26460776
0.28583115 0.20411545 0.26786125 0.0398076 0.16486269 0.111086376 0.13911566 0.28070566
-0.3256616 0.04987162 -0.12852469 0.25702268 0.29088598 0.17000608 0.293915 0.25106
-0.07438617 0.18648909 0.26434466 0.13857098 0.15015125 0.14662859 -0.22752349 0.14812037
0.010537516 0.30123234 0.20506091 0.2828698 0.18825158 0.04348509 0.12775652 0.24821049
-0.10828141 0.19221634 0.15760355 0.12807697 0.2507328 0.16176285 0.2854018 0.11183606
0.23377866 0.053618357 0.08463257 0.15799862 0.115490586 0.22120182 0.11346302 0.18397114
0.03942713 0.2013938 0.02901543 0.14403994 -0.12097719 0.29646096 0.19151886 0.22397289
0.2652843 0.02995224 0.277101 0.117377795 0.17292288 0.091079146 0.08097473 0.27343246
0.080586106 0.24915011 -0.10641245 0.2654437 0.13890044 0.23074062 -0.093826704 0.29587922
0.22632095 0.28521875 0.15539598 0.19958594 0.13126089 0.21538463 0.23574375 0.012118775
0.17451859 0.21645224 0.07090608 0.15916546 0.0752453 0.27636233 0.25531965 0.029070392
0.11844741 0.14537235 0.19394642 0.069598585 0.13630523 0.10838838 0.09813609 0.21101005
0.1858961 0.28618407 0.22648755 0.22218555 0.09222089 0.17788248 -0.042524397 0.2896016
0.2653931 0.28738946 0.24985625 0.020732187 0.16654518 0.09371318 0.22236434 0.067200094
0.12280957 0.122463495 0.117269754 0.124394424 0.28420767 0.1310078 0.28089944 0.09323717
0.11583666 0.11774 0.2086362 0.06118213 0.24171169 0.18141063 0.035320025 0.3082233
0.13335335 0.10495452 0.27230835 0.29638308 0.29851878 0.031286936 0.124359824 0.11436397
0.24057847 0.08028058 0.12778693 0.108027935 0.29772973 0.27061948 0.17445527 0.14091152
0.0634346 0.25764567 0.20408745 0.23172525 0.29689476 0.008094886 0.17522281 0.2844977
0.19693692 0.03298884 0.26609898 0.035169523 0.2508334 0.1301136 0.088780634 0.14492251
0.29962668 0.3006499 0.19149768 0.16440518 0.28477788 -0.028091056 -0.10237584 0.24201247
0.19200051 0.07440833 -0.22118802 0.13931267 -0.067712285 0.17388071 0.17438096 0.07204456
0.18784308 0.101784244 -0.24188673 0.07886138 0.2226302 0.07672325 0.18712962 0.21805024
0.17584647 0.104101256 0.20384933 0.10656321 0.2570103 0.18856274 0.08956062 0.28017205
0.050999496 0.13786119 0.08401203 0.26368633 0.12060153 0.3003182 0.19751564 0.13347316
0.06644028 0.22485703 0.17736374 0.1874795 0.057378884 0.1369131 0.060696915 0.24989541
0.12796833 0.11645925 0.29258654 0.28289163 0.2546843 -0.013185198 -0.0850499 0.20965901
-0.07327526 0.17820233 0.2863835 0.22211522 0.19645636 0.10632494 -0.049683392 0.1966109
0.27696982 0.23207428 0.28440455 0.14788073 0.28446275 0.108829126 -0.34776247 0.035702556
0.25878334 0.15499705 0.18287411 0.17404133 0.24155377 0.25022793 0.023804978 0.21272598
-0.025351735 0.16108894 -0.26260966 0.123834625 0.06525129 0.17635463 0.19562069 0.21025467

encoder.dcrnn_cells.0.gate.weights_pool f4 [2, 2, 65, 128]
00000000: b32d 033e ef36 a7bd 8bc8 e93d a069 d53d
00000010: 2e4b dc3d 94f0 f83d e993 b53d 7d1d f93d
00000020: 4353 5abd 73f9 fe3d 9678 fb3d e4a6 eb3d
00000030: 4311 e83d 1694 023e 14c4 b33d 67ec aa3d
00000040: cb19 e33d 4572 e53d 7271 4dbd c942 d3bd
00000050: 8df8 033e d026 00bd a37e dd3d 7da4 053e
00000060: 2a9c e53d 070a ff3d 054f a73d debe b3bd
00000070: 850f e63d 286a dc3d 7e8e e33d dab4 ba3d
00000080: 9621 43bd ff10 4c3d fca8 16bc 67b7 f03d
00000090: 8235 013e 16d4 e23d 240a 053e fd57 df3d
000000a0: 7024 0c3e 19e4 af3d fa3c cb3d f7cd d33d
000000b0: 8174 163e 1e51 e93d 2bde 193e 209a 023e
000000c0: 94a1 063e a538 09bd 2118 e33d c184 003e
000000d0: 44ce a3bc 4490 de3d 0402 043e 547c 033e
000000e0: 3b51 ce3d 22f9 d43d 02e6 26bd 18c8 aabd
000000f0: 0eeb d43d b456 f53d 1a15 81bd d077 e03d
00000100: 0a0b 10be f1eb 043d 8a3d 0dbe e932 0dbe
00000110: 6fc8 f0bd 3d65 fcbd 089b 45bd 9a40 00be
00000120: a1ce 393d 1feb c1bd 4562 eabd 5ab7 f7bd
00000130: cacf f2bd e552 02be 3fb8 8dbd c039 94bd
00000140: 0414 0abe a9e5 08be 382b 0c3d c11c 463d
00000150: e474 07be 5a16 633d bafe febd 6ada 8d3c
00000160: 6f47 8cbd 0be6 0bbe a557 15bd 4bba 893d
00000170: d75d 00be 7e18 04be de9f f2bd 124e 9fbd
00000180: e57a 003d 581b 22bc 3d78 233c d1e8 10be
00000190: bd48 06be 00bc 0bbe 6911 13be 5b74 ebbd
000001a0: 2aee 4ebd 1aab 86bd 3fd4 ecbd 9917 ffbd
000001b0: 562a ebbd e4a7 0bbe c45f b9bd 02ad 10be
000001c0: 9149 b2bd 16bb 453c 4640 f0bd 1a1d f7bd
000001d0: 43fd 263b 94bf f3bd cbdf f4bd a1e7 08be
000001e0: bb43 f4bd c7be 09be 9bbf fa3c 0a89 c33d
000001f0: b9f3 f4bd 01f0 0ebe 2f7c 723d 8f02 0cbe
00000200: 87a4 f1bd 0deb 20be b4f6 05be a9e0 0cbe
00000210: 7203 09be f501 e1bd c17e 0ebe 8954 f8bd
00000220: 00b1 9dbd 69b0 e5bd a3c3 09be d936 fabd
00000230: db3f e1bd c354 00be 4817 0dbe 9229 edbd
00000240: 57b5 06be 456d f2bd 6162 bdbd 3844 16be
00000250: 3a98 f9bd 5767 25bd 09f2 e4bd 0389 5fbd
00000260: 6eac 02be becd 06be 2510 1cbe 3fde 13bd
00000270: 00fc febd 6408 0bbe b568 fbbd d453 0ebe
00000280: 4b38 d0bd 22f3 1fbe 0bd7 cabd 2cb1 03be
00000290: 9f4e f6bd b549 e6bd d763 f6bd f154 ebbd
000002a0: 8eea d2bd 19fa 0abe e38b febd 3eef f8bd
000002b0: cea9 dcbd d1b1 06be 3af1 f4bd 2112 0ebe
000002c0: e9dd f6bd 0cfb dbbd fe9a 09be 199b ebbd
000002d0: 389b f0bd aa2d 0bbe b336 02be 42fd fdbd
000002e0: 2c25 ecbd 4419 f3bd 7729 a0bd 286d d6bd
000002f0: 028c 0cbe 1e1e 07be c4a2 a8bd d561 0cbe
00000300: 87e6 1f3e d4d4 0e3e 6458 113e f9e0 063e
00000310: fba2 123e 7fbf 153e 4081 003e 9e68 0f3e
00000320: 9c16 f53d 12a4 103e d536 1b3e 1824 0f3e
00000330: 087c 0f3e 8aba 163e 9288 013e aa70 083e
00000340: 9e98 0a3e 0576 1f3e 8d0b 0c3e a56a 013e
00000350: 9517 163e 0551 043e bf22 1f3e dfe8 183e
00000360: 637a 103e c177 093e 92a0 123e c3e6 093e
00000370: 2da3 1d3e fae8 163e 23ea 0d3e c5d5 083e
00000380: 1eaf 0f3e 6326 123e 080e 013e fed1 143e
00000390: 483d 173e c2d0 103e 8b75 1c3e f5b4 fb3d
000003a0: 7c73 1a3e 58b7 f43d 2371 093e f79e 1e3e
000003b0: 2fe9 0a3e 203c 0d3e ec67 113e 3adc 153e
000003c0: 6930 0d3e c84c 0f3e 49c8 053e cf91 183e
000003d0: aacb 093e 5409 113e 7b14 083e dc15 0e3e
000003e0: bcb7 153e fd0c 093e 21d3 ff3d 7b2b f33d
000003f0: bd00 0c3e 180b 093e 617f 103e fcb2 133e
0.12810402 -0.081647746 0.11415204 0.10420537 0.10756527 0.12155262 0.08866102 0.121638276
-0.05330206 0.124499224 0.12278859 0.11506441 0.113314174 0.12751803 0.08777633 0.083458714
0.11088904 0.11203436 -0.050157018 -0.10315473 0.12887783 -0.031287014 0.1081517 0.13051029
0.112114266 0.124530844 0.08169369 -0.087766394 0.11233429 0.10762435 0.111111626 0.09116526
-0.047639452 0.049820896 -0.009195562 0.11753731 0.12618068 0.110756084 0.1299215 0.10905454
0.13685775 0.08588428 0.0992374 0.10342019 0.1469288 0.11392425 0.15026157 0.12754107
0.13147575 -0.033501286 0.110885866 0.12550642 -0.019995816 0.1086736 0.12891394 0.12840396
0.10074087 0.10399081 -0.040746696 -0.08338946 0.103963956 0.11979428 -0.06302853 0.109603524
-0.14066711 0.032451574 -0.13793007 -0.13788952 -0.1175698 -0.12323997 -0.048243552 -0.12524644
0.045363072 -0.09468674 -0.11444525 -0.120955184 -0.11856039 -0.12726934 -0.06919908 -0.072375774
-0.13484198 -0.13368858 0.034220904 0.048367266 -0.13228184 0.055441238 -0.12450929 0.017316062
-0.068495624 -0.13661973 -0.036460537 0.06724986 -0.12535797 -0.12899968 -0.118468985 -0.077785626
0.0313672 -0.009894215 0.0099773975 -0.14151312 -0.13113685 -0.13645935 -0.1436211 -0.114968024
-0.0505201 -0.06575604 -0.1156392 -0.12455673 -0.11482684 -0.13638264 -0.09051469 -0.14128497
-0.08705438 0.012068531 -0.11731009 -0.120660976 0.0025480546 -0.11901775 -0.119567476 -0.1336961
-0.11926981 -0.13451682 0.030608943 0.095476225 -0.11960549 -0.13958742 0.059200462 -0.13672851
-0.11798959 -0.15714665 -0.13082391 -0.13757576 -0.1338022 -0.109867014 -0.1391554 -0.12125499
-0.07699776 -0.11215288 -0.13453536 -0.122174926 -0.109985076 -0.12532334 -0.13778412 -0.115801945
-0.13155113 -0.11837248 -0.0924728 -0.14674461 -0.12187238 -0.040381756 -0.11178977 -0.054574024
-0.12761089 -0.13164422 -0.15240534 -0.036100622 -0.12450409 -0.1357742 -0.12275831 -0.13899165
-0.10166987 -0.15620092 -0.099042974 -0.12860554 -0.120267145 -0.11244527 -0.12030762 -0.11490811
-0.10298644 -0.13571967 -0.12429025 -0.12155007 -0.10774575 -0.13153769 -0.11960073 -0.13874103
-0.12054045 -0.10741243 -0.13438031 -0.11504192 -0.117483556 -0.13591638 -0.12716179 -0.12401821
-0.115305275 -0.118700534 -0.07820409 -0.10470039 -0.13725284 -0.13195083 -0.0823417 -0.13709195
0.15615283 0.13948375 0.14193875 0.13171758 0.14319985 0.14623831 0.12549305 0.14004752
0.11967203 0.14125088 0.15157636 0.13978612 0.14012158 0.14719597 0.12649754 0.13324228
0.13534781 0.15572365 0.13676281 0.12638338 0.14657433 0.12921531 0.15540598 0.14932583
0.14109187 0.13424589 0.14319065 0.13466935 0.15394278 0.14737311 0.13858847 0.13362797
0.14031646 0.14272456 0.12603009 0.1453323 0.1476947 0.14142135 0.15279214 0.12290374
0.15083116 0.119490325 0.13422064 0.15490328 0.13565515 0.13792467 0.141998 0.14634791
0.13787998 0.13994133 0.13064684 0.14899372 0.13456598 0.14163715 0.13289063 0.13875526
0.1462087 0.13383861 0.124914415 0.118735276 0.13672157 0.13383138 0.14111091 0.14423746

encoder.dcrnn_cells.0.gate.bias_pool f4 [2, 128]
00000000: a3d5 483e 8aad 4ebe ffa8 1f3e c5ab 883d
00000010: f418 a93e 38c9 b53e 0f67 acbd a105 df3d
00000020: 831d 06be dacb 503e 3da9 513e 3c1b 56bd
00000030: 56a0 f33d f534 523e 04c2 8f3e b6a4 a93e
00000040: fafd 143e 2837 9c3e 8b32 a3be 3540 31bc
00000050: ac57 6c3e 7155 ecbd dc4c a43e 1c03 463e
00000060: 1565 2d3e 8a80 813e 4823 2f3d 22e1 9fbe
00000070: 5c94 683e 8561 5c3e 7640 303e 2a6e 1c3e
00000080: ed38 d7bc 2f9e 4f3d 96d5 8cbd a05c 7abd
00000090: 2bb4 1a3e ddcc 983d c8e4 793e 153f 903e
000000a0: 844c 153e f184 e43d 8158 af3d 0a2f 1e3e
000000b0: 21c4 9ebc f0fe 513c ee4c a73e ec69 213d
000000c0: 1dcc 7ebd 3786 3ebe a8ab b13e d05c 053e
000000d0: 1c41 bd3b d454 2dbd f81a be3b e523 463e
000000e0: ed62 be3d 20e2 993e e6e7 b5bd 7927 cfbc
000000f0: 5752 223e e22f 3a3e 5436 16be c2e1 af3d
00000100: bd4e 7dbe 8b26 833e 3bf8 363d 6931 aebe
00000110: c5cd 85be 3f74 7bbe e8fe 2bbe 7e54 8f3d
00000120: bf0c 38bc 271f 76be c221 013d c3af ee3c
00000130: 090f 923b 3e41 89bd 6524 8dbe 5eed 4bbe
00000140: 825c 53be 9e41 9abe e03d 4c3e 7bf0 d6bc
00000150: 3f20 423a c8f1 f1bc 4d49 6dbd dcee dbbd
00000160: 7269 de3b 393a 97bd a527 36be c43f b7bc
00000170: 6f0a 55be c9f8 7abe ac81 6ebe df40 6c3d
00000180: 3985 453e caed 02be e884 f53a ba46 89be
00000190: 973b d5bc a15f 9cbd 83c5 63be ea63 f4bd
000001a0: 656e a5be 0949 79bd b800 263d 0e51 39be
000001b0: 5f1e 5fbd 7d3c 663d 6d7e 6dbd e30b 92be
000001c0: bf2e ad3d 2157 113e 26cd 2cbe 4b0c 8d3c
000001d0: 7831 52bc 844b 0ebe f68a a1be 4892 cfbc
000001e0: c59d c7bd 00a6 dabd e4a7 7c3d 48f5 9ebd
000001f0: cb0f 89be d335 dabd 8f26 2b3d 430f 0fbe
00000200: a62b 213a 2001 773e c6b1 3a3e 6478 6a3e
00000210: bd63 ae3d 878f af3b 8248 953e acd3 023e
00000220: 3957 063e 8a68 7cbd 3a9c 7d3d a996 303e
00000230: 565a 093e ff3b 9a3e c27f d63c 1821 a63e
00000240: 3d72 1cbd 9971 493e fbe3 cc3d 83fc b93e
00000250: ad38 543d 05bd 1f3e 3fef 373e ae88 683e
00000260: 1e89 823e fd52 6f3d 18fc 103e 9d02 383e
00000270: 0c58 8b3d 993b 523d a266 ad3e c606 47bc
00000280: 4b98 473e 4176 b6bc e4ad a93e 935b 8d3e
00000290: 91b8 743e fffe 3d3e 9c41 b03e ee35 143e
000002a0: c1aa 01bc 7b61 273e c350 5c3e 6fff 083e
000002b0: d58a 743d 994d ec3d 7685 f13d 78d1 ae3e
000002c0: 8560 933e 1b71 2a3e 2ed4 6f3d 8192 bb3c
000002d0: b6ce b73d 88a5 953e 0303 b8bc d1d5 103d
000002e0: 839c 453e 80d9 a73e e28b 0b3e 822a 8b3e
000002f0: 9e5b d93d 4191 6f3e dcba 87bd 3ca5 4d3e
00000300: 3d53 aabe ca5d b03b 33bf 653b 0782 bcbd
00000310: ca1b 1dbe f7b1 9abe 172b 933d 6c82 7dbe
00000320: a5e5 893d 0129 5bbe cc60 95be 2396 203d
00000330: 3cce 1bbc 672f 41bc b2d3 17be 9ab8 8ebe
00000340: 1e05 98be 17d2 18bd b010 c339 6e92 1fbe
00000350: a663 89be ae7f 59be aa34 91be 7fbf a0be
00000360: beb8 35bd 1b3f d2bd 2656 a7be 73d1 5abd
00000370: a13a 8ebe c099 37bd e23d 04be 4cae 95be
00000380: 9470 abbc 2e3f acbe e8f5 89bd 1405 e2bc
00000390: de60 8fbe afde 933d 4b8e 6dbe 1fd8 4ebe
000003a0: 4a8e 883d 8a23 08be d7fe 9bbe 9b8a 92be
000003b0: c088 97be 17cb e13c 97ee 023c 4fa5 8dbc
000003c0: 6a14 84be b55c 9dbe ebff 5dbe 7556 3dbe
000003d0: e9b4 13bd 1b4f 01be b83e 73bb 6b8e a9be
000003e0: c43d 84be 0539 c33c 0dbe 5dbe 2e9a 9d3c
000003f0: 967f 8b3d 325f a0be 5677 1abe 6a3a a7be
0.19612746 -0.20183387 0.1559181 0.066733874 0.3302685 0.3550508 -0.08418094 0.108897455
-0.13097195 0.20390263 0.20474716 -0.052272066 0.11895816 0.20528014 0.2807771 0.33133477
0.1455001 0.3051083 -0.318745 -0.010818531 0.23080319 -0.11539734 0.3208989 0.19337124
0.16933091 0.2529338 0.042758256 -0.3122645 0.22712845 0.21521576 0.1721209 0.15276399
-0.026272262 0.050687965 -0.06876676 -0.06112349 0.15107791 0.074609496 0.2440368 0.28173128
0.1457997 0.11158169 0.08561803 0.15447631 -0.01938063 0.0128171295 0.3267588 0.039407656
-0.062206376 -0.18605886 0.34701276 0.13023686 0.005775584 -0.042317227 0.005801555 0.1934963
0.09296212 0.30055332 -0.08882122 -0.025287377 0.15851723 0.18182328 -0.14669162 0.08587982
-0.24737068 0.25615343 0.044670325 -0.34022072 -0.26133552 -0.24556063 -0.16796458 0.069985375
-0.011233508 -0.24035321 0.031526335 0.029136544 0.0044573587 -0.06701897 -0.2756683 -0.19914767
-0.20640758 -0.30128187 0.19945478 -0.026237717 0.0007405318 -0.029534236 -0.057931233 -0.10738918
0.0067874724 -0.07384152 -0.1778856 -0.022369273 -0.20804761 -0.24508967 -0.23291653 0.057679053
0.19289102 -0.12786022 0.0018731626 -0.26811773 -0.026029391 -0.07635427 -0.22243313 -0.119331196
-0.32310787 -0.060860667 0.04052803 -0.18097326 -0.054472324 0.05621003 -0.057981897 -0.28524694
0.08456182 0.14193393 -0.16875133 0.017217776 -0.012829177 -0.13895994 -0.3155133 -0.025338307
-0.09746889 -0.10676193 0.06168355 -0.077616274 -0.26769862 -0.106547974 0.04178482 -0.13970666
0.0006148167 0.24121523 0.18231878 0.22897488 0.08515117 0.005357686 0.29156882 0.12776059
0.1311921 -0.061623134 0.061916567 0.17244972 0.13413367 0.30123898 0.026183967 0.32447124
-0.038194884 0.1967224 0.10004421 0.36325464 0.051811863 0.15599449 0.17962359 0.22708389
0.25495237 0.058428753 0.14158666 0.17969747 0.06803903 0.051326368 0.33867365 -0.012147611
0.19491689 -0.022273185 0.3314048 0.27608928 0.23898531 0.18554305 0.34425056 0.14473698
-0.007914246 0.1634578 0.21515183 0.1337869 0.059702713 0.11538238 0.11793034 0.34144187
0.28784576 0.16644709 0.05855196 0.022897007 0.08974974 0.29227853 -0.022462374 0.03536016
0.19297986 0.32783127 0.1362758 0.27180868 0.10613178 0.23395254 -0.066274375 0.20082563
-0.3326663 0.0053822743 0.003505659 -0.09204488 -0.15342632 -0.302139 0.07185953 -0.24756783
0.06733254 -0.2140236 -0.29175413 0.03920568 -0.009509619 -0.011791087 -0.14826849 -0.27875215
-0.29691404 -0.037309732 0.00037205731 -0.15583202 -0.26833838 -0.21240112 -0.28360492 -0.313961
-0.044365637 -0.10265943 -0.32682914 -0.053422403 -0.27779105 -0.04482436 -0.12914231 -0.2923454
-0.020927705 -0.33641952 -0.06736356 -0.027590312 -0.2800359 0.07220208 -0.23198812 -0.20199631
0.066677645 -0.13294807 -0.30467865 -0.28621373 -0.2959652 0.027562661 0.007991455 -0.01729074
-0.25796825 -0.30734792 -0.21679656 -0.18490012 -0.0360612 -0.12627833 -0.003711624 -0.3311647
-0.25828373 0.0238309 -0.2165453 0.019238558 0.068114445 -0.31322628 -0.15084586 -0.32661754

encoder.dcrnn_cells.0.update.weights_pool f4 [2, 2, 65, 64]
00000000: d098 cebd ef89 05be 2789 ad3d a51a b7bd
00000010: af17 953d 30f7 c5bd d979 aebd 119d ae3d
00000020: 36c5 a7bd 5ae1 d33d 75ef 913d 7eac 92bd
00000030: b92f c4bd 049c a1bd 5df8 973d 8701 b3bd
00000040: d2ed c9bd 5acb ad3d dc2b b1bd 775c e23d
00000050: df9e c73d 80b2 a3bd e894 c3bd 04a7 ba3d
00000060: 8948 b8bd 79c9 b43d 4f7f b4bd 6bef d4bd
00000070: 9db4 b33d 6691 ab3d 79f4 e03d 284a 9ebd
00000080: 19c8 a9bd 44b6 dd3d e66d 92bd e4ac df3d
00000090: 3c7f b33d 372a b03d 9ed2 d23d e8f3 dfbd
000000a0: 75de 9b3d 2861 9b3d 06b6 9cbd fa37 b0bd
000000b0: b673 d83d 3f6c e1bd 25ca bdbd f26c c6bd
000000c0: ca58 b53d 5de5 a0bd 2e2f b73d b1c3 cdbd
000000d0: 0e15 90bd 3f33 ffbd a78b b83d 0059 b3bd
000000e0: 678f 9d3d 3844 d5bd 9773 a33d b2b0 e93d
000000f0: d1cb aa3d fc19 c63d 8d84 ba3d 2c81 cfbd
00000100: 3ea9 123e 6a59 09be 734d 02be ce5a 093e
00000110: 7e49 fcbd 94b9 173e 49c1 0ebe 0046 12be
00000120: 99d7 f2bd 40e5 01be a061 18be f5e2 f63d
00000130: 7222 153e 2d4c fd3d b8b1 063e b02c 0c3e
00000140: a581 063e af5d 0dbe 0c98 dcbd 796e e33d
00000150: d9dc 0abe 7734 e2bd 290a 163e 0920 cdbd
00000160: 5bc4 063e e56f 05be 29f1 ddbd bfde b5bd
00000170: 0548 02be a468 fdbd 9a04 ffbd 6f43 f0bd
00000180: 7055 f1bd cd72 043e c9e1 06be c97c 0cbe
00000190: bc71 03be 5452 0bbe 41f3 14be a598 003e
000001a0: 9316 1cbe 8f0f e93d da68 f53d 4960 033e
000001b0: c410 17be 47fa 193e 8fce 0f3e 8053 0c3e
000001c0: 1527 17be 5448 f9bd 4d54 10be 9d9c 093e
000001d0: 4c55 f3bd 5d06 0a3e 1ddb 04be d139 153e
000001e0: 3efb 04be e118 053e f104 b53d dedf da3d
000001f0: 5b2d 0ebe 07ba 0bbe e2ca b83d 917a 143e
00000200: 97cc 10be e4fd 32be 3181 253e f3dd 17be
00000210: 5a2e 273e 96a2 16be 3a1e 61be 7c24 4d3e
00000220: 1a03 31be 2c38 2f3e 32de 173e fbc7 1fbe
00000230: 7bf9 58be 02f8 32be 5cb1 623e 957e 12be
00000240: 58a2 18be 0a4c 303e c62f 28be e0ee 343e
00000250: bf0e 223e 33fe 27be b0da 32be 232f 3f3e
00000260: a747 08be dbff 0a3e d453 5abe 87a0 1dbe
00000270: d683 3f3e 1ac1 243e 09a0 183e 4657 43be
00000280: 4965 32be 103f 413e 0d7a 28be 0f31 413e
00000290: 7e61 503e ba4a 333e 6c24 4e3e d27f 14be
000002a0: 2429 3a3e c53f 5b3e 0aa1 4bbe e2b7 28be
000002b0: 29b9 523e 6e89 2abe e8ec 4cbe 42fc 17be
000002c0: f97c 373e 352a 27be c824 223e ab9d 26be
000002d0: 4e34 2cbe 9637 22be f965 1e3e bdd1 49be
000002e0: 6d35 263e 350d 65be 602a 1b3e 4c92 283e
000002f0: b301 263e 6b43 483e b906 2f3e fa7a 29be
00000300: 9242 14be 9399 073e 8ac6 183e 5910 1abe
00000310: 00c1 0d3e 9097 04be 2a30 0a3e a2be 193e
00000320: b71e fc3d a31f 113e ec7d f53d 5655 04be
00000330: 3a48 19be 1887 1abe d71a f9bd afbc 19be
00000340: c51d 11be 9a48 fe3d 89b5 fd3d f109 0bbe
00000350: 486f 163e eba0 e93d da4e 13be 71ea f73d
00000360: cf4b 11be 80e3 093e ddfb f53d 6bc9 e63d
00000370: d034 1a3e d235 fe3d dc77 093e 4661 1d3e
00000380: 1d5e 063e 9569 19be b952 1f3e 6814 193e
00000390: f13d 083e 5195 ef3d e5ec 063e fa4d 0abe
000003a0: 6bb2 f53d 4011 f7bd 0c67 12be 3ca5 f8bd
000003b0: c952 f93d 1ef2 01be cbd3 16be 72f7 01be
000003c0: fd51 133e 47fe 173e b04a 003e 26e3 f0bd
000003d0: d3a3 123e 8530 13be c40e 083e b37d 0ebe
000003e0: 3b8a 0d3e e7d6 02be bc48 fcbd 3f0a dcbd
000003f0: 5b89 1a3e a6ea f73d 1ad8 f6bd ea6d 17be
-0.100877404 -0.13040899 0.08473425 -0.08940629 0.07279908 -0.09666288 -0.08519334 0.08526052
-0.08191912 0.10345717 0.07125751 -0.071618065 -0.09579415 -0.07891086 0.074204184 -0.08740526
-0.09859814 0.08486052 -0.08650944 0.110527925 0.09747099 -0.079930305 -0.09549886 0.09113887
-0.0899821 0.0882749 -0.08813345 -0.10397228 0.087746836 0.08377342 0.109841295 -0.07728988
-0.08290119 0.1082578 -0.07149868 0.10921648 0.087645024 0.08601802 0.10294078 -0.10935193
0.0761079 0.075868905 -0.07651906 -0.08604427 0.10568945 -0.110069744 -0.09267072 -0.096887484
0.08854826 -0.078562476 0.08944546 -0.10047091 -0.07035266 -0.12460946 0.090110116 -0.0875721
0.076933675 -0.10413402 0.079810314 0.11410655 0.08339656 0.09672925 0.09107313 -0.101320595
0.14322373 -0.13413015 -0.12724857 0.13413545 -0.12318705 0.14816886 -0.1394092 -0.14284515
-0.11857528 -0.12685108 -0.14880991 0.12055007 0.14563921 0.12368045 0.13153732 0.13688922
0.13135393 -0.13805269 -0.10771188 0.11105055 -0.13560809 -0.11045163 0.14652313 -0.10015876
0.13160841 -0.13030966 -0.10837013 -0.08880376 -0.12722786 -0.12373474 -0.124520496 -0.11731612
-0.11783874 0.12934418 -0.13172068 -0.13719477 -0.12836355 -0.13605624 -0.14545919 0.1255823
-0.15242986 0.11379921 0.119828895 0.12829699 -0.1475249 0.1503688 0.1404364 0.13703728
-0.14761002 -0.121719986 -0.14094658 0.1343865 -0.118815035 0.1347899 -0.1297421 0.14572836
-0.12986466 0.12997772 0.08838833 0.106872305 -0.13884489 -0.13645183 0.09023072 0.1449988
-0.14140545 -0.17479664 0.16162564 -0.1483076 0.16326275 -0.14710459 -0.21984187 0.20033449
-0.1728634 0.17111272 0.14830855 -0.1560363 -0.21188919 -0.1747742 0.2213797 -0.143061
-0.14905679 0.17216507 -0.16424474 0.17669249 0.15825938 -0.16405563 -0.17466235 0.18670325
-0.13308583 0.13574164 -0.2132104 -0.15393268 0.18702635 0.16089287 0.14904799 -0.19076261
-0.1742145 0.18871713 -0.16452809 0.1886637 0.2034969 0.17508975 0.20131081 -0.14501885
0.18179756 0.21411045 -0.1988565 -0.16476396 0.20578445 -0.16653988 -0.20012248 -0.14842322
0.17918767 -0.16324694 0.15834343 -0.16271083 -0.16816828 -0.15841517 0.15468587 -0.19708915
0.16231318 -0.2236832 0.15152884 0.16462058 0.16211586 0.19556968 0.17092408 -0.16550818
-0.1447852 0.13242178 0.14919487 -0.15045299 0.13843155 -0.12948442 0.13494936 0.15014127
0.12310546 0.14172225 0.11986908 -0.12923178 -0.14968958 -0.15090597 -0.121633224 -0.15013383
-0.14171512 0.124161914 0.12388141 -0.13578011 0.14690888 0.11407646 -0.14385548 0.12105263
-0.14189075 0.1346569 0.1201093 0.11268886 0.15059209 0.12412609 0.13424629 0.15369138
0.13121839 -0.14981683 0.155589 0.1494919 0.13304879 0.11698402 0.13176306 -0.13506308
0.11996921 -0.12063837 -0.14297122 -0.12140891 0.12173993 -0.12690017 -0.1472923 -0.12692049
0.14386745 0.14843093 0.12528491 -0.11762075 0.14320306 -0.14373977 0.13286883 -0.13915138
0.13822262 -0.12777291 -0.123185605 -0.10744142 0.1509146 0.121053025 -0.12052937 -0.14788023

encoder.dcrnn_cells.0.update.bias_pool f4 [2, 64]
00000000: 27a4 99be 04ff 3cbe 598d ea3e 52cb e5be
00000010: f0fd 843e 20ba afbe 54a5 bdbc 7929 793e
00000020: 3acf c0be 9cf3 a13e 7c10 e53e 5c35 73be
00000030: ce87 84be d9c0 b1be 7eef 2abc 093c b0be
00000040: bc91 86be 151f b03e 30dc c3be 2277 923e
00000050: 1bc6 793e 9370 8ebe 4c9b 1cbe e4b6 c83e
00000060: ed18 dcbe f079 043e 420a 0dbe e332 a3be
00000070: 1bee 9e3e 01d2 973e 7597 e43e 71ed 4abc
00000080: 8f99 afbe 8aa3 7c3d 6a35 b9be 54c1 773e
00000090: 79bc bd3e 8742 cf3e d24b 7b3e d65e a1be
000000a0: 258c dd3e 98ce 0ebc 2412 24be c562 98be
000000b0: 5f8f ad3e 04a1 83be 6dfc c9be 6568 e7be
000000c0: 6405 b83e 30d6 abbe 3759 353e c674 26be
000000d0: c7a6 b8be e058 e4be e75c 8b3e e71b 97be
000000e0: 600f 9c3e d573 28be 5ebb 993e ba14 333e
000000f0: 253e cf3e a1dc 423e f429 933e b06c c8be
00000100: 082e cebe 340d e23e 0632 433e 983b c4be
00000110: 187d b63e 00ec 80be 7399 cf3e 0105 5d3e
00000120: de41 b13e 4c23 8abd 6939 d63e 70da e2be
00000130: 0bc7 4ebe 1a41 9dbe dbd3 cabe 195d 233c
00000140: 3ac9 bdbe 8729 d83e fc01 d03e e3df cebe
00000150: 7d59 db3e ef43 723e e7a5 a9be 8ec5 87be
00000160: 1c4c 703c 843e e43e 1c8a dd3e 5bf2 863e
00000170: 9469 673e 364e aa3e ae4c 89bb 8d7e 8d3e
00000180: 7f79 b63e 6d41 a7be 8bb6 ae3e 04c4 863e
00000190: 4d13 3a3e a6d5 303e f504 623e 3393 83bc
000001a0: 00d4 73be fcd4 babe c691 1bbe be3b aabe
000001b0: 0f47 06be ff7a 78be 481b 363e e3a5 cebe
000001c0: d9b3 10be 1795 a63e 96af df3e afd2 56be
000001d0: 2fd4 d63e ad1f f23c 226e ad3e 1968 80be
000001e0: 6655 973e 4a85 1abe fdcd 95be 6f53 32be
000001f0: 6826 dd3e dacb 393e 0b3b 87be 054c 8ebe
-0.3000805 -0.18456656 0.45810965 -0.44881684 0.2597499 -0.3432169 -0.023150124 0.24332227
-0.376581 0.31631172 0.4473914 -0.23750824 -0.2588486 -0.34717444 -0.010433076 -0.34420803
-0.26283062 0.34398714 -0.38253927 0.28606516 0.24391977 -0.27820262 -0.15293616 0.39202034
-0.42987767 0.1293714 -0.13773444 -0.3187476 0.31041035 0.29652408 0.44646803 -0.012385712
-0.34296843 0.0616794 -0.36173564 0.24194843 0.37057856 0.40480444 0.24540642 -0.31517667
0.43270984 -0.008716248 -0.16022545 -0.29762855 0.33898446 -0.25708783 -0.39450398 -0.45196834
0.35941613 -0.3356185 0.17709814 -0.16255483 -0.3606474 -0.44599056 0.27219316 -0.29513475
0.3048048 -0.16450436 0.30025762 0.17488375 0.404771 0.19029476 0.28742945 -0.39145422
-0.40269494 0.44150698 0.19062051 -0.38326716 0.35642314 -0.25180054 0.4054676 0.2158394
0.34620565 -0.067450136 0.41840675 -0.4430728 -0.20193116 -0.3071373 -0.39614758 0.009970927
-0.37067586 0.42219183 0.40626514 -0.40405187 0.42841712 0.23658727 -0.33134386 -0.2651791
0.014666583 0.44578946 0.43269432 0.26356778 0.22598869 0.33262795 -0.004190049 0.27635613
0.3563957 -0.32667103 0.34123644 0.26321423 0.18171425 0.17269 0.22072203 -0.016061401
-0.2381134 -0.3649062 -0.15192327 -0.33248705 -0.13113044 -0.2426567 0.17783844 -0.40360937
-0.14131106 0.32535622 0.4368865 -0.20978807 0.41958758 0.02955612 0.33873087 -0.2507942
0.2955734 -0.15089908 -0.2925872 -0.1741464 0.43193364 0.1814417 -0.26412234 -0.27792373

encoder.dcrnn_cells.1.gate.weights_pool f4 [2, 2, 128, 128]
00000000: 1cac 06bd 2621 08be 7477 32bd 40e7 03be
00000010: 1b37 01be a1ca febd 1444 0dbe 3bfa 2bbe
00000020: c9bd 5b3d 82dd 0dbe 8ae8 0ebe dbca 22bd
00000030: 15ef 7b3d 8f02 e0bd 780f d6bc cffa 04be
00000040: 3733 01be c432 0dbe ddb2 74be d738 fdbc
00000050: 88bb fdbd 71f0 1dbe b017 01be 42c0 0dbe
00000060: cec4 2fbd 64d6 eebd 0aff 7f3d 216b 76bc
00000070: 88aa f1bd 1462 123d 9296 3fbd c255 03be
00000080: 8219 08be accc 1dbd f9f2 01be 7cdb 58bd
00000090: 508f 41be e1d0 3dbd 6622 fabd 1d61 3ebd
000000a0: 924f 05be 0c55 39bd d73d 77bd 224f 10be
000000b0: 23f7 04be 4765 1cbd 47c7 09be 5cc4 13be
000000c0: 7c5f 56be edd9 383c 53e6 f6bd 6a03 08be
000000d0: 0754 27bd a660 03be 0c1c 02be cf3f 00be
000000e0: dd3d b1bd 5007 a4bd ce3e edbd 1e8d bd3c
000000f0: cece ecbd 8fec 07be 9171 1cbd 1e30 0dbd
00000100: 2dd4 143e c186 153e e34c 0f3e d7ff 1b3e
00000110: 8d19 173e 7581 1a3e cb1b 1c3e 68e1 1e3e
00000120: 4d54 023e 0f4d 1e3e ffb5 263e d5fa 0f3e
00000130: 5e9f 0d3e 97c8 2c3e 6871 263e edf4 243e
00000140: 4ae3 223e dd71 1b3e 58a9 fa3d 3b8b 063e
00000150: 2296 1c3e a997 183e 38b1 263e 7204 283e
00000160: f894 103e beb8 203e 3526 063e 921f 1e3e
00000170: 7ce9 2c3e 5662 cd3d 966d 2c3e 3af2 2d3e
00000180: e6d2 1e3e d9c3 0e3e 92cb 193e c8c1 183e
00000190: c465 1e3e 1887 0e3e 7889 1d3e 8614 0d3e
000001a0: 3103 223e 1dc9 083e 2dad 0d3e 0506 1c3e
000001b0: 588c 173e 6dfe 063e 3826 183e ce7f 193e
000001c0: 2584 243e 70d8 1e3e a7d7 203e ede0 143e
000001d0: 0bcd 113e ace4 173e af2b 263e e527 243e
000001e0: 86da 243e bfb0 123e 343b 1b3e 1c88 143e
000001f0: 2380 163e f432 173e fa8d 173e 9786 173e
00000200: f85e 03be e463 c83b 1818 a6ba f32f 4a3d
00000210: dc0a 673d fe7b 153d 5132 81bd 5c88 f8bc
00000220: 20ab efbd bc36 353d 3272 713d 493b 873c
00000230: 7732 bebd 2b68 de3c 1c68 e13d 19ea 073d
00000240: e927 3d3d 0587 673d 3184 d2bd 135a cbbc
00000250: e611 233d 5e42 efbc 8580 3c3d e26b 143d
00000260: f012 01bd 076b 85b9 b48c f1bd 076e f93d
00000270: 1dfe 073b b214 1bbe 42ec ea3d cb0c b8bc
00000280: a5e8 333d 1c50 01bd 49ef 1b3d 096e 883d
00000290: 74e9 5abd 07e8 91bd 920a a9bb 7b0c a9bd
000002a0: 4103 393d 112e 2dbd 968b 623d 29c4 0a3d
000002b0: 8f6c 193d fc73 af3b c62d 453d 27e7 a0bc
000002c0: 81c1 a6bd 071f 2e3d 9731 293c 2975 313d
000002d0: fab7 00be 1f12 4d3d 3020 163d a529 7c3d
000002e0: 6381 ed3d ebe5 a83d d092 58bc 6da6 bd3d
000002f0: 00ca 873d a188 5a3d d126 0cbe ddbe 1fbe
00000300: a83e a63d 6036 043e cfd7 973d 2d84 ef3d
00000310: 6898 cd3d 1bcb cc3d f2c6 053e 6587 093e
00000320: be05 c03d 4d20 dc3d df13 df3d 19e0 953d
00000330: 6a1a c83d 9691 063e bf8c d13d 4f5a d53d
00000340: 6f84 d03d 675f e73d d179 d63d 2b2c a03d
00000350: 1f47 e43d 0e42 003e 4361 da3d 1e3c e53d
00000360: deff 9e3d 65bb 023e db81 c73d cde3 d33d
00000370: 317a f53d bf7e e93d ab28 ed3d 6c20 e83d
00000380: 0100 dc3d 81e6 913d 421c ea3d 7393 a03d
00000390: e5cd 8e3d 1f41 a13d 4159 f03d e4f7 903d
000003a0: 350e ef3d ed7a b33d 60ca a83d 2d76 eb3d
000003b0: 9bac ed3d fbf2 ab3d 2130 d73d a967 053e
000003c0: 4d0b dabb a588 aa3d 4170 023e 0d13 da3d
000003d0: 2801 a93d 8c77 d83d 39e6 e23d 87af dc3d
000003e0: 7dae c93d b84d c63d 0d18 f33d 61e4 d93d
000003f0: 75ba eb3d 1559 d23d 5c51 a43d b4ec b03d
-0.03287898 -0.13293895 -0.04357095 -0.12881184 -0.12618677 -0.12440992 -0.13795501 -0.16794674
0.05364779 -0.1385403 -0.13955894 -0.03974424 0.061507303 -0.10937988 -0.026130423 -0.12986301
-0.12617193 -0.13788897 -0.23896356 -0.030910892 -0.12389284 -0.15423752 -0.12606692 -0.13842872
-0.042912297 -0.116619855 0.062499084 -0.01504019 -0.118001044 0.035738066 -0.046774454 -0.12825683
-0.1329098 -0.03852527 -0.12690343 -0.05294369 -0.18902326 -0.04634178 -0.12213592 -0.046479333
-0.13018635 -0.045247123 -0.06036171 -0.14092687 -0.129849 -0.038182523 -0.13454925 -0.14430374
-0.20934862 0.011282426 -0.120556496 -0.13282552 -0.04085162 -0.12829837 -0.12706012 -0.12524341
-0.086543776 -0.08009207 -0.11584245 0.023138579 -0.11562882 -0.13273834 -0.038194243 -0.034469716
0.14534064 0.14602186 0.13994174 0.15234314 0.1475584 0.15088446 0.15244977 0.15515673
0.1272747 0.15459083 0.16280364 0.14060529 0.13830325 0.16873394 0.16254199 0.16109057
0.15907016 0.15180154 0.12239331 0.1313905 0.15291646 0.14901604 0.16278541 0.16407946
0.14119327 0.15695474 0.13100512 0.1544173 0.16885942 0.10028522 0.16838679 0.16986933
0.15510139 0.13941897 0.15019062 0.14917672 0.15468508 0.13918722 0.15384471 0.1377736
0.1582153 0.13357969 0.13835593 0.15236671 0.1479963 0.13182993 0.1485833 0.1499016
0.16066034 0.15512252 0.15707265 0.14538927 0.14238374 0.14833325 0.16227601 0.16030844
0.16098985 0.14325236 0.15159303 0.14505047 0.14697318 0.14765531 0.14800254 0.14797436
-0.12829196 0.0061154235 -0.0012671975 0.049362134 0.05640684 0.0364952 -0.06308425 -0.030338459
-0.117025614 0.044241652 0.058946796 0.016507762 -0.09286969 0.02714928 0.110061854 0.033182237
0.04618064 0.05652525 -0.1027912 -0.024823224 0.03981199 -0.029206451 0.046021003 0.036235698
-0.0315122 -0.00025447478 -0.11794415 0.12179189 0.0020750829 -0.15144613 0.11470844 -0.022467038
0.04392304 -0.03157054 0.038069997 0.066616125 -0.053445294 -0.07124334 -0.005158731 -0.082543336
0.04516912 -0.04228026 0.0553089 0.03387848 0.037457045 0.0053544026 0.048139356 -0.019641472
-0.08142377 0.04251006 0.010326765 0.043324623 -0.12570181 0.05006611 0.03665179 0.061563153
0.11596944 0.08246978 -0.013218597 0.09260259 0.06630325 0.053352956 -0.13686682 -0.15600152
0.081174195 0.12911367 0.07414209 0.116951324 0.10038835 0.09999677 0.13064173 0.13430555
0.09376095 0.107483484 0.10892462 0.07318134 0.09770663 0.13141474 0.10231923 0.104176156
0.1018151 0.112974934 0.104724534 0.07820924 0.11146378 0.12525198 0.106630825 0.11193107
0.077636465 0.12766798 0.09741565 0.10346184 0.11986197 0.11401128 0.115800224 0.11334309
0.10742188 0.07124043 0.11431171 0.07840624 0.06972865 0.07873749 0.11735774 0.070785314
0.11672632 0.087636806 0.08241725 0.114971496 0.116051875 0.08395954 0.10507227 0.13027824
-0.006654179 0.08326844 0.12738134 0.10648165 0.08252174 0.10569677 0.11079068 0.10775667
0.09847734 0.096827924 0.11869822 0.10639263 0.11510173 0.10270897 0.080233306 0.086388975

encoder.dcrnn_cells.1.gate.bias_pool f4 [2, 128]
00000000: bb30 70be 88c5 233e ef7e 653d fbd3 913e
00000010: 2958 073e d336 713e 8fa6 a43e 7191 783e
00000020: 32bf 603d 5bac b8bd a82e 1a3e 821e aabd
00000030: f11d e63d 3e21 9f3c c666 0fbe 84f3 3e3e
00000040: 8f6c 543e 53ba 053e 6197 88bd 880b b23d
00000050: 9168 8c3e ab11 8f3e 0ae3 0b3e 39e2 113d
00000060: 8238 bbbd 7e8a a53e a8e2 953c 71ae bc3c
00000070: 9829 b93d 6766 8fbe cfbf fa3d 454c a13d
00000080: 22f1 063e 2aa2 0a3e dd6d 843e 6bf9 8dbd
00000090: 7453 213d 6a98 233e 351d d63d 3e56 8b3d
000000a0: 38f9 c93c 0258 21be da97 423e a456 633e
000000b0: dd9a de3d 5b06 f1bc 532a 8c3e d379 cebd
000000c0: e6d1 093e 8a60 13be 5510 4c3e f30a e53b
000000d0: f4ef 3a3c 5e59 773e aebe ac3d 1e9a 163d
000000e0: fd42 a9bd 749c 823e 8bd9 a53b bb77 a4bd
000000f0: c8c1 f9bc 45c5 1e3b b5e4 a93c e983 633d
00000100: d644 12be c6ad 8abe 99cf d6bc 1ef0 a0bd
00000110: 4aee 5abd a734 b73d 29b3 b43d eb0d f7bd
00000120: ad05 a43c 8001 06be d955 9cbe 0b79 93bc
00000130: 4d1b 19be f2c0 34bc b2fa ed3d 15a6 11be
00000140: 3f5a 14be 0ea4 9fbd 625a 423d f5fc 893b
00000150: aedd 49be be6a 9e3c cc25 38be ccca 29bc
00000160: ef11 39be 3d9d 5ebe 17bd 1f3e 5002 cebc
00000170: 52b1 f93c 6f34 1b3e c864 773d 1bef 783d
00000180: 99c9 ed3d fbec f5bc 6654 99bd f52e 11be
00000190: 14b7 87be 3aea 80bd dcbe b33d 3b57 74bc
000001a0: d1f2 ac3d 31f6 1cbb 1a66 4fbe e5e4 5cbe
000001b0: 2d29 883d 489e db3d 3226 1fbe a561 2abd
000001c0: 8952 5fbe 8890 d83d 91ad 76bd bc7d 44be
000001d0: 65fb 95bd 5ee3 343d d7c4 c8bd 578a 04be
000001e0: 766b 493d 7428 09bd 60ba 32be e9ca 1abe
000001f0: 0bd2 0bbe 1819 75be 7dc6 d63d 5a9d 27be
00000200: ef19 923d 4123 943e 9f7d adbd 21de 023d
00000210: b81e c4bd 7d7a 0e3d aa6b 653d 94c3 123e
00000220: a7b4 fb3d c375 8e3e d98a 763c 970a 803e
00000230: 196d d0bb 1059 8b3d e50a ef3d b1f6 f23d
00000240: e7d0 a83b 36bb 39bd 7ceb 1c3e a5e1 a13e
00000250: 59bf 843e def9 23bd fa15 32bd 9cbd 0d3d
00000260: feb0 4c3e b0b4 973d 41a2 1a3e 4ee7 60be
00000270: 3979 1e3e 70f6 ddbd 0253 8bbc 07cb 1b3e
00000280: d351 663e e0a2 963e 0347 693e 56a2 913e
00000290: f478 be3d 9791 263e 68fa 82bb 4480 723e
000002a0: d81c 253e d009 88bb 13d5 aa3e 1fe5 ee3d
000002b0: ef29 563d 3cc9 943e 718d fd3d 88de 7f3e
000002c0: c59a 08bd b80d 173e a54a 93bd 0f2c 0c3e
000002d0: d1e3 183e a634 8f3d 5985 513c 29cf 2a3e
000002e0: 19ee 413e a469 963e 5a2d 3f3e ecc0 b7bd
000002f0: d408 8e3e 0e30 343e f607 4a3e 3925 683e
00000300: 8f6b 91be f848 d43d a266 bb3c 82d1 4bbe
00000310: 7f21 593d 920e 043c ae6b 2abd 557e 063c
00000320: 404e 19be 627d 2bbe ebae a0be 1404 93be
00000330: 9ed8 88be f5d4 7cbe 39d5 a03d bc40 a73b
00000340: a4d1 46be 2b2b 37be 5e80 24be 4880 c83d
00000350: 1f78 4dbe bb36 cd3d 8ffe 983d 5f40 fcbb
00000360: 6f70 86be 9f1b 813d 7cb1 9e3c 2020 a03d
00000370: a894 1cbd 55f9 5e3d bebf 28be 87f1 ed3c
00000380: c970 f0bd 5019 07be 7797 2ebe 0bfe 4ebe
00000390: b486 b73d daec 27be 02e2 453d 2277 3dbe
000003a0: f955 60be 77e8 ab3d ba6b d53b b75a 82be
000003b0: 10c9 81bd c6b4 30be 6ac1 33be fd5e 2bbc
000003c0: ec48 9cbe 9080 37be 89de 47bc 6902 2bba
000003d0: 67e9 b7bd 7f53 8dbe b4f8 af3c ac98 8bbe
000003e0: 32e3 cdbd a079 bfbd 6401 e0bd 01b4 9dbd
000003f0: 1110 903d 53b0 94be f539 6ebd 9870 68be
-0.23456089 0.15993321 0.056029256 0.2848204 0.13217224 0.2355607 0.32158324 0.24274231
0.054869838 -0.09017249 0.1505686 -0.083066 0.112361796 0.01942503 -0.14004049 0.18647581
0.20744537 0.13059358 -0.06669498 0.08693606 0.27423528 0.27943167 0.13660827 0.035616133
-0.091416374 0.32332224 0.018296555 0.023032399 0.090411365 -0.28007814 0.12243616 0.078758754
0.13177922 0.13538423 0.2586507 -0.06932338 0.039386228 0.1597611 0.104547895 0.06803559
0.02465497 -0.15756229 0.1900324 0.2220102 0.108693816 -0.029421976 0.2737604 -0.1008183
0.13458976 -0.14392295 0.19928105 0.0069898306 0.011409748 0.24155185 0.08434807 0.03676807
-0.0826473 0.2550999 0.0050613335 -0.08030649 -0.03048791 0.0024226469 0.020738939 0.05554572
-0.14284071 -0.27085704 -0.026222037 -0.07858299 -0.053449906 0.089455895 0.088232346 -0.120632015
0.020022238 -0.1308651 -0.30534247 -0.018002054 -0.1495182 -0.01103233 0.11620082 -0.14223512
-0.14487551 -0.07794963 0.047449477 0.004211063 -0.1971347 0.019338008 -0.17983168 -0.010363292
-0.18073247 -0.21739669 0.15599476 -0.025147587 0.03048006 0.1515672 0.060398847 0.060774904
0.11610717 -0.030020228 -0.07486801 -0.14178069 -0.26506865 -0.06294675 0.08776638 -0.0149133755
0.08444751 -0.0023950452 -0.20253792 -0.21571691 0.06648479 0.10723549 -0.15541914 -0.041597027
-0.21808828 0.10574442 -0.06022412 -0.19188589 -0.0732334 0.044162147 -0.09803169 -0.12943397
0.04917475 -0.033485845 -0.17453909 -0.15116467 -0.13654344 -0.23935354 0.104870774 -0.16368619
0.07133853 0.28933147 -0.08471226 0.03195012 -0.09576172 0.034784783 0.05601088 0.1433242
0.12290316 0.2782422 0.015047752 0.2500808 -0.0063606617 0.06804097 0.11672 0.11863459
0.005151856 -0.045344554 0.15324205 0.31617466 0.25927237 -0.040033214 -0.04347799 0.034604654
0.19989392 0.0740751 0.15100957 -0.21963236 0.1547593 -0.1083802 -0.017007355 0.15214168
0.22492151 0.2942114 0.22780995 0.28444165 0.09300414 0.16266476 -0.003997136 0.23681742
0.16124284 -0.0041515604 0.33365688 0.11664795 0.052286085 0.2905978 0.123804934 0.24987233
-0.033350725 0.14751327 -0.07191972 0.13688682 0.14930655 0.06992464 0.01278814 0.16680588
0.18938483 0.29377472 0.18669644 -0.08972344 0.2774111 0.17596456 0.197296 0.2267045
-0.28402373 0.1036548 0.022876088 -0.1990414 0.05301046 0.008060114 -0.041606598 0.008208831
-0.14971256 -0.16747048 -0.31383452 -0.2871405 -0.26727766 -0.24690612 0.07853169 0.0051041525
-0.19415909 -0.17887561 -0.16064593 0.09790093 -0.20065354 0.10020205 0.07470428 -0.0076981033
-0.26257655 0.063040964 0.01937174 0.07818627 -0.038227707 0.054437 -0.16479394 0.029045833
-0.11740262 -0.1319325 -0.17049967 -0.20214097 0.089612395 -0.16398945 0.04831124 -0.18502477
-0.21907796 0.083939485 0.006513086 -0.25459835 -0.06337178 -0.1725646 -0.1755425 -0.010459659
-0.30524385 -0.17920136 -0.012199053 -0.00065234915 -0.08980065 -0.27602765 0.021480896 -0.27264917
-0.100531 -0.0934937 -0.10937765 -0.07700349 0.070343144 -0.29040775 -0.05816074 -0.22699201

encoder.dcrnn_cells.1.update.weights_pool f4 [2, 2, 128, 64]
00000000: 488e 72be b07e 52be 7c10 5cbe 7ac7 5dbe
00000010: cee0 613e 4d6d 64be 8797 6abe f375 4ebe
00000020: 462c 773e d011 663e ada7 523e eac1 6ebe
00000030: c63f 823e 1e2c 673e 5257 7c3e b2b4 5abe
00000040: 84e1 62be 20f7 66be 081e 503e 7ce2 6f3e
00000050: a0b2 643e f66a 42be 9e75 5ebe 70a7 663e
00000060: d0e0 7b3e 55a0 5b3e 3790 82be 3e50 82be
00000070: d94f 60be 6035 74be c76d 6a3e 20cd 6ebe
00000080: 97da 4ebe 6eb0 6c3e 8f40 513e 7998 643e
00000090: abc6 3b3e ce96 68be 1e5e 613e bdff 78be
000000a0: 63b2 65be 4e95 6f3e 27e8 5bbe f838 5b3e
000000b0: f323 533e e351 633e c6db 553e 3095 4fbe
000000c0: 8433 45be 0f30 74be 434c 70be 77d8 56be
000000d0: e171 6abe 02c8 623e 8287 4ebe 1dca 573e
000000e0: 93b1 683e 9ab8 63be fee6 653e 5211 773e
000000f0: 7bc6 5bbe 99f7 5b3e 16ff 74be 2879 7e3e
00000100: bda6 71be da7e 7ebe 17e0 68be d101 81be
00000110: 796a 873e 306c 85be 45c3 8bbe 16c4 68be
00000120: 4c13 6e3e 2424 8c3e e611 863e 0066 6abe
00000130: 5f39 733e afba 863e f16b 7e3e ce02 84be
00000140: 80d2 82be 09d4 89be 0ce2 103e 0c8f 743e
00000150: dfb4 823e 82d2 80be ab8a 7fbe e5e2 8b3e
00000160: 6b63 673e 5e72 853e a362 63be 4f61 81be
00000170: 3fd7 88be 2977 84be 7a03 803e 9562 83be
00000180: 9aca 8abe a7fb 6c3e c0f9 873e de6f 783e
00000190: b9e6 6a3e b876 65be 3987 873e 3e00 6cbe
000001a0: 5723 8abe 0c98 6f3e beae 6ebe 10bd 813e
000001b0: df54 8a3e c580 7c3e dbcd 833e ca5f 7fbe
000001c0: a801 35be 4b30 7abe 084d 81be 0c13 85be
000001d0: e31f 6bbe b660 7e3e c007 8cbe 33c0 7f3e
000001e0: c067 813e 05cb 7abe abab 853e 9c07 6d3e
000001f0: df8f 87be 1507 833e f9fb 60be 7bbc 633e
00000200: aa85 5a3e 4749 4e3e 78fd 563e 2fa7 643e
00000210: 933d 4fbe ab03 643e d279 5a3e e3e5 333e
00000220: 6a6c 80be e743 4cbe 8e54 54be 6a8a 643e
00000230: f038 6dbe 161f 54be ef30 67be 3abe 533e
00000240: 383f 613e 8652 543e 1ebd 4bbe bf06 61be
00000250: 4233 57be 0b3f 3a3e cf28 523e ab0e 5abe
00000260: cc41 5abe 3772 56be 5f3e 713e 94d4 673e
00000270: 22ef 5e3e 8be0 663e eb9b 76be fbda 533e
00000280: a549 563e 47b4 70be 4d44 5dbe 1c03 66be
00000290: cb40 2bbe 92e8 6f3e 8dce 60be bfde 6a3e
000002a0: 3e17 4f3e 91a3 71be 62c8 6c3e ad42 4bbe
000002b0: 32be 5bbe ab9f 6dbe 65a2 52be ddaa 4e3e
000002c0: 4b98 333e cdae 6b3e 5406 633e 174e 633e
000002d0: 1708 623e e7e2 4fbe f066 4c3e 835c 59be
000002e0: 9b93 60be ff6c 5c3e 22b5 54be 36dd 6abe
000002f0: 9825 603e 8f57 60be 4877 753e 20a7 77be
00000300: fc6d 5ebe 3025 42be ba92 4bbe f816 5dbe
00000310: 627f 5d3e 061b 4cbe 8950 4cbe 1ebf 35be
00000320: b5fd 6a3e 13c4 413e b8c2 593e 65dc 51be
00000330: ed65 7a3e 7bf5 583e 5b9d 6c3e 58d3 59be
00000340: bb7f 4bbe 0eb0 51be bf53 3c3e 73ae 6d3e
00000350: 7899 463e 6f78 33be 9700 46be 232f 4b3e
00000360: 218b 683e da8b 503e ee8e 7abe 0644 5ebe
00000370: 45b7 64be 2d1c 67be 567b 6b3e a910 56be
00000380: 716b 46be 8a52 5d3e 2bc1 533e 9cbc 583e
00000390: 1f7f 233e 5e5a 64be 77b5 513e 46ed 6fbe
000003a0: 22c7 4fbe 6337 5b3e 2001 4fbe 6b0e 563e
000003b0: 334a 453e 32a1 563e f325 443e 5082 48be
000003c0: 8ece 25be c08e 5dbe 77e4 52be 2c95 59be
000003d0: f28c 6dbe 734e 453e 2f1e 5dbe 83b9 583e
000003e0: cb08 553e 79c3 60be d11a 5b3e 3cd0 663e
000003f0: 64b0 4fbe 22ed 5d3e e83a 6fbe 77c5 5e3e
-0.23687088 -0.2055614 -0.21490663 -0.21658126 0.22058412 -0.2230732 -0.22909366 -0.20162182
0.24137983 0.22467732 0.20571776 -0.2331616 0.2543928 0.22575423 0.24642685 -0.21357992
-0.2215634 -0.22555208 0.20323956 0.2342624 0.22333765 -0.18986115 -0.21724555 0.2252481
0.24597478 0.2144788 -0.25500652 -0.25451845 -0.2190546 -0.23848486 0.22893439 -0.23320436
-0.20200573 0.23114178 0.20434783 0.22323789 0.18337505 -0.22713777 0.22008559 -0.24316306
-0.2243133 0.23396799 -0.21475278 0.2140845 0.20619182 0.22199206 0.20884618 -0.20271754
-0.19257933 -0.23846458 -0.23466592 -0.20981012 -0.22895004 0.2214661 -0.2016888 0.21073194
0.22723989 -0.22238389 0.22451398 0.24127701 -0.21462433 0.2148117 -0.23925433 0.24850905
-0.23598762 -0.24853078 -0.22741733 -0.25196698 0.2644842 -0.26059103 -0.27297416 -0.22731051
0.23249549 0.27371323 0.2618553 -0.22890472 0.23752354 0.26314303 0.24845864 -0.2578339
-0.25551224 -0.26919582 0.1414873 0.23882693 0.2552862 -0.25160605 -0.24955241 0.27321544
0.22596519 0.26063818 -0.22205596 -0.25269553 -0.2672672 -0.25872162 0.25002652 -0.2566115
-0.27107698 0.23142873 0.26557732 0.24261424 0.22939576 -0.22408569 0.26470354 -0.23046967
-0.26980087 0.23397845 -0.23308846 0.25339556 0.27017877 0.24658497 0.25742993 -0.24938884
-0.17676413 -0.24432485 -0.25254083 -0.25991094 -0.22961383 0.2484158 -0.27349663 0.24975662
0.25274467 -0.24491508 0.26107535 0.23147434 -0.26476952 0.2559134 -0.2197112 0.22239868
0.21340051 0.2014514 0.20995128 0.223294 -0.20238332 0.22267024 0.21335533 0.17568164
-0.25082713 -0.19947778 -0.2073538 0.22318426 -0.23166251 -0.20714983 -0.2257726 0.20678034
0.21996772 0.20734605 -0.19896361 -0.2197523 -0.21015647 0.18188111 0.2052338 -0.21294658
-0.21314162 -0.20942007 0.23558949 0.22639686 0.2177091 0.22546594 -0.24082915 0.20689003
0.2092653 -0.2350627 -0.21608086 -0.22462124 -0.16723935 0.23428562 -0.21953793 0.22936533
0.2022371 -0.23597552 0.23123315 -0.19849654 -0.21459273 -0.2320544 -0.20569761 0.20182367
0.17538564 0.230159 0.22170383 0.22197758 0.22073399 -0.203014 0.19961143 -0.21226697
-0.21931307 0.21525954 -0.20772222 -0.22935948 0.21889341 -0.21908401 0.23971283 -0.24184847
-0.21721643 -0.18959498 -0.1988019 -0.21590793 0.21630624 -0.19932184 -0.19952597 -0.17748687
0.22948344 0.18922453 0.21265686 -0.2049423 0.24452944 0.21187393 0.23106901 -0.21272027
-0.19872944 -0.20477316 0.18391322 0.23211078 0.19394481 -0.1752641 -0.19336163 0.198422
0.22709323 0.20365849 -0.24468586 -0.21705636 -0.22335537 -0.22569342 0.22996268 -0.20904793
-0.19376923 0.21613517 0.20679156 0.21165699 0.15966462 -0.22300097 0.2047938 -0.23430356
-0.20290807 0.21407847 -0.20215273 0.20903938 0.19266586 0.20959929 0.19155101 -0.1958096
-0.16192076 -0.21636486 -0.20594965 -0.21248311 -0.23198298 0.19268207 -0.21593545 0.21164517
0.20804136 -0.21949567 0.21396948 0.22540373 -0.20282131 0.2167249 -0.23362315 0.21755014

encoder.dcrnn_cells.1.update.bias_pool f4 [2, 64]
00000000: 1261 61be 9790 693e ea8c 9a3c d18a 913e
00000010: 5ca9 00be fcd9 8d3e 4a55 d43e 90b8 6e3e
00000020: 7337 583e a6e9 d4be 8c5e 9ebe 9cec 47bd
00000030: 199d bd3d 52b6 2ebe 3325 4bbd e37b c53e
00000040: 73d3 a83e e84c 943e 138d 8abe 37fb c13d
00000050: 8308 36be cd7c 7f3e cf41 a83e da51 a6be
00000060: 9920 e03d b150 8dbe 65de 2dbe ab03 9e3d
00000070: 95e8 3c3e ac2d 41be ef64 aabd e3b5 9b3e
00000080: 1579 8f3e 03ec f53d 6a2d 5ebe cc8d 84bc
00000090: 25d9 5bbe b1e0 2ebe 3c21 b6be 5382 59be
000000a0: 53d4 a33e f2b7 d83d c274 023c 6904 8cbe
000000b0: 0df1 78be 1dab ed3c 54d5 91be d270 833e
000000c0: bca8 963e 4282 2bbd 8021 6e3e c990 893e
000000d0: 94dc 5fbe 4890 d1be a69c bb3e 8c09 b6be
000000e0: 2044 d7bd c174 7e3d 9b26 78be e514 0ebc
000000f0: dc3b 113e 0923 cfbe 9823 8bbe 7430 8a3e
00000100: 3c7a cb3e 4ea9 6a3e c1c9 613e da5e ce3e
00000110: 81fe 67be 0d4d 2a3e 1077 ccbd e5b7 bd3e
00000120: e95d 8cbc 116d cabe 3d74 ddbe 8fa1 bc3e
00000130: a64b aabc c1dc 293e 3610 16bd 624e 203e
00000140: 34e3 173e b7f6 9f3e 6c59 c8be 2487 94be
00000150: 92c5 61be f0c8 c53e d498 9f3e 23e3 9cbe
00000160: 812c 7dbe b111 8a3d 12e2 093d d90d 1abe
00000170: 7ebb 92bd c055 b5bd a932 ef3d ba4d e2bd
00000180: 29e8 d83e 85ef dcbe fb37 5cbe 66f7 66be
00000190: 724a d5be 8490 7a3e be5d 993c 3c02 8d3e
000001a0: 602d bc3e b87d bdbe 3056 a03e 7425 66be
000001b0: 9a99 3fbe b097 c1be 305a 27be 0cf5 b93e
000001c0: d042 bc3e e624 3f3d 7f5f 07bd 5038 a63e
000001d0: 6db5 a43e 1814 8ebe 13c9 6a3e fd08 c1be
000001e0: 40f5 37bd f800 3c3e dbd7 05bb 5080 c03c
000001f0: ac2b 973e f368 d6be 230d 133e 30d5 2bbe
-0.22009686 0.22809063 0.018866021 0.2842622 -0.12564605 0.2770537 0.4147132 0.23312593
0.21114902 -0.4158451 -0.3093151 -0.048809633 0.092584796 -0.17061737 -0.049596023 0.3857108
0.32973823 0.28964925 -0.27060756 0.094717436 -0.17776684 0.24949951 0.32862708 -0.32484323
0.109437175 -0.27600625 -0.16979368 0.07715543 0.18448098 -0.18865079 -0.08320033 0.30412206
0.28022066 0.12007906 -0.21697012 -0.016180895 -0.21469553 -0.170779 -0.3557223 -0.21241121
0.31997928 0.1058196 0.007962408 -0.27347115 -0.24310704 0.029012257 -0.2848307 0.25672013
0.2942561 -0.04187227 0.23254967 0.26868275 -0.21861488 -0.4093039 0.3664295 -0.3555416
-0.10511041 0.062123064 -0.24233477 -0.008671974 0.14182991 -0.40456417 -0.27175593 0.26990092
0.39741695 0.22916147 0.2204962 0.4030674 -0.2265568 0.16630955 -0.09983647 0.37054363
-0.017134624 -0.39536336 -0.43252745 0.3684201 -0.020788025 0.16588117 -0.036636554 0.156549
0.14832765 0.31242916 -0.39130723 -0.29009354 -0.22048023 0.38629866 0.31171286 -0.30642042
-0.24724008 0.067416556 0.033662863 -0.15044345 -0.071646675 -0.08854246 0.116795845 -0.110499814
0.42364624 -0.4315149 -0.2150573 -0.22555313 -0.4165836 0.24469191 0.018721458 0.27540767
0.36753368 -0.37009978 0.31315756 -0.22475225 -0.18710938 -0.3781104 -0.16342998 0.36319768
0.36769724 0.04666605 -0.033050057 0.32464838 0.32169667 -0.27749705 0.22928266 -0.3770217
-0.044911623 0.18359745 -0.002042285 0.023498684 0.29525506 -0.41876945 0.1436048 -0.16780543
