CQ/result/P7_Resullt/HOURS/data20/2/best_model.pth (torch_old, 603202 bytes, 11 tensors)

node_embeddings f4 [228, 2]
00000000: aabc 2f3e 210a c73d 2780 953e 1370 863e
00000010: 5243 173e 6717 e43d 5fb9 eabd 297a 873e
00000020: 2d8c 923e 8fbf 523e c613 893e 130c 213d
00000030: 77de 273e bcd8 e03d b725 0e3e 68cf 8f3e
00000040: 93dc a8be 7fff 2f3d 88f2 07be 979c 833e
00000050: 22c6 943e 671e 2e3e 01e6 953e e73b 803e
00000060: 1fd0 93bd c262 3d3e df55 873e 70ae 0e3e
00000070: 5aac 193e 24a0 163e c869 5abe 74a1 163e
00000080: dca0 b63b 8c6e 9a3e 9bf6 513e d119 913e
00000090: ad73 3f3e d7db 3e3d 9989 023e 5a4d 7e3e
000000a0: e089 e1bd 4373 443e 4279 213e 8bf4 033e
000000b0: 3d32 803e ad54 263e c220 923e 34a7 e53d
000000c0: 8fa6 6f3e 5638 5c3d b085 ad3d 1a49 223e
000000d0: 327b ec3d 05d6 623e 4356 e83d c1b9 3c3e
000000e0: 9d63 1e3d 7884 4e3e 2d3f 09bd ccab 1d3e
000000f0: 424b 01be 1fce 973e 61d7 433e 6bb4 653e
00000100: 46d6 873e fe45 f43c cac0 8d3e 76b0 f03d
00000110: 34d5 313e bf2d bc3d 1c6d a63d 4636 8c3e
00000120: 4f7a a53d f285 7f3e cc2f e3bd 0df4 873e
00000130: c01d 0e3e 7e98 6c3e bccc ccbd 789b 973e
00000140: 6690 673e 593e 923e 500e 1f3e c1db 4c3e
00000150: 4e61 063e 78f0 5c3e e908 773e 0ff0 493b
00000160: 56c8 323e d640 5e3e 1870 913d a27f 233e
00000170: 09fd 993d 7ea2 8d3e 8ee3 823e 0db0 ec3c
00000180: d6da f23d 3b7d 153e 5182 473e 030d 8f3d
00000190: 3fe2 0b3e 8972 df3d 8303 c93d b568 583e
000001a0: 235c 3d3e 8c3e 923e 65e4 673e 1459 643e
000001b0: ee82 bc3d a438 363e b3fd 35bd 0c5a 943e
000001c0: 7eea 873e f793 933e b5c2 7f3e cb31 b63c
000001d0: 943e 293e e6cc bb3d 9ffd 633e ddfc 893d
000001e0: 047f fb3d f9a1 fb3d c5a5 ef3d e4b5 fe3d
000001f0: 7a7a 913e 6685 063e ade0 8f3e 8b0e c03d
00000200: 3bbc ed3d 22e4 f23d 3f27 563e 7d4f 7a3d
00000210: e56d 773e c3b5 3a3e c5ef 0e3d 51eb 9d3e
00000220: a8f6 083e 7a48 d83d 0b5d 8b3e 4017 983e
00000230: 82d6 983e 3994 003d fe66 ff3d d6d5 eb3d
00000240: 9167 763e 56e9 a43d 83d2 023e 0f91 dd3d
00000250: 7642 983e 0ce9 8a3e 3588 323e eaf1 103e
00000260: 1965 823d 0b15 843e 1796 503e 939a 6d3e
00000270: 840a 983e c42f f43b 1cc0 333e e60f 923e
00000280: 1346 4a3e ecf6 053d ea3b 883e 75d0 0f3d
00000290: af51 803e c1a0 053e b437 b63d d212 153e
000002a0: e63b 993e ab3f 9a3e 91be 433e c4df 283e
000002b0: ba1c 933e 2258 00bd 5d1d dbbd 071f 783e
000002c0: 2d78 453e d13d 993d 63db 69be d42a 0b3e
000002d0: 4be5 8fbd 7157 323e 38ed 353e f652 8f3d
000002e0: 9c93 403e 56a8 d13d 2fb2 7bbe f87d 9b3d
000002f0: 1b63 643e 8f02 9e3d de50 3f3e 28a2 5f3e
00000300: 468a 343e 992a d73d 73cd 503e 2b42 db3d
00000310: 8e85 833e f3ff 413e f106 b83d c9af 8f3e
00000320: 0ce6 453d cce6 0e3e 0381 ac3d be34 873e
00000330: d90a f63d a5c0 993e 8628 4a3e 0d51 093e
00000340: 6fc1 873d c583 663e 138d 353e 2d95 403e
00000350: a109 4b3d e676 0f3e 20d6 793d 2b19 803e
00000360: 6083 033e cdbe f03d d4a6 953e 0526 913e
00000370: 29a0 803e 5164 3cbc 27d3 b9bd 1131 573e
00000380: 1d2e 83bd c657 333e 6b61 923e d7ea 633e
00000390: 1cfd 483e fd99 d93d 1e6f 60bd 9edd 493e
000003a0: f54a 8d3e e70d 6d3e 988a 913e 9fff 173e
000003b0: 3390 913e 49fb dd3d 1b52 b7be e123 f93c
000003c0: 4b44 843e fed9 1e3e d7ff 3a3e 1d98 323e
000003d0: c815 763e 897a 7f3e 419d b73c c91e 5a3e
000003e0: 77db e3bc 83d4 253e 6cdf 72be 1328 023e
000003f0: e8d3 863d 93df 343e a015 483e 6dd5 573e
0.17161813 0.09718729 0.29199335 0.2625738 0.14771774 0.11137276 -0.11461138 0.26460388
0.2862257 0.20580886 0.26772898 0.039318155 0.16393457 0.10978839 0.13881575 0.28087926
-0.32980785 0.04296827 -0.13276112 0.25705406 0.29057413 0.17003785 0.29277042 0.25045702
-0.0721743 0.18494704 0.26432702 0.1393373 0.15007153 0.14709526 -0.21329415 0.14710027
0.005573375 0.30162466 0.20504229 0.2834001 0.1869647 0.046596374 0.12747802 0.24834195
-0.11012626 0.19184594 0.15768912 0.12886254 0.2503833 0.16243239 0.28540617 0.11213532
0.23403381 0.053764664 0.084727645 0.15848199 0.11546935 0.22151954 0.11344578 0.18430234
0.038669217 0.2016772 -0.033507515 0.15397567 -0.12626365 0.29649445 0.1912513 0.22432105
0.26530665 0.029818531 0.2768615 0.11752407 0.17366487 0.09188413 0.0812628 0.27385157
0.08079969 0.2495344 -0.11093101 0.26553383 0.13878536 0.23105046 -0.099999875 0.296108
0.22613677 0.28563192 0.15532804 0.20005704 0.13123056 0.21576107 0.24124493 0.0030813252
0.17459235 0.2170442 0.07101458 0.15966657 0.07518966 0.27663034 0.25564235 0.028892541
0.11858146 0.14598553 0.19483306 0.06984904 0.13660525 0.10910518 0.09815123 0.21133693
0.18492179 0.28563344 0.2264572 0.22299606 0.0920466 0.17795044 -0.0444314 0.2897495
0.2654609 0.28823826 0.24976619 0.02224054 0.16527778 0.09169941 0.22264718 0.06737683
0.12280086 0.12286753 0.1170154 0.12437037 0.28413755 0.13136825 0.28101102 0.09377774
0.11608168 0.11859919 0.20913409 0.061110962 0.24163015 0.18233399 0.03489663 0.30843595
0.13375342 0.10560699 0.27219424 0.29705238 0.29851156 0.031391356 0.12470816 0.11515395
0.24062945 0.08052318 0.12775616 0.10818683 0.29738206 0.27130926 0.17434771 0.14154783
0.06366939 0.25797305 0.20369755 0.23203497 0.29695523 0.007451983 0.17553753 0.28527755
0.19753294 0.032706186 0.2660821 0.03511091 0.2506232 0.13049604 0.08897343 0.1455796
0.2992851 0.301267 0.19115664 0.1649161 0.28732854 -0.03133405 -0.1069896 0.24230586
0.19284125 0.07482494 -0.22837596 0.13590556 -0.07026156 0.17416169 0.17766273 0.069982454
0.18806309 0.10237186 -0.2457969 0.07592386 0.2230343 0.07715332 0.18683192 0.21839201
0.17630872 0.10506172 0.20390873 0.1070598 0.25687832 0.18945293 0.08985699 0.280638
0.048315093 0.1395523 0.084230445 0.26407427 0.12013788 0.3002979 0.19742021 0.13409825
0.066286914 0.22511204 0.17729597 0.18806906 0.04956973 0.140102 0.06099522 0.25019202
0.12843084 0.11755142 0.29228842 0.2834932 0.25122193 -0.011498527 -0.09073477 0.21014811
-0.0640528 0.17513952 0.2858995 0.22257553 0.19627804 0.10625074 -0.05479347 0.19713446
0.2759625 0.23149835 0.2842605 0.14843605 0.28430328 0.108389445 -0.3580483 0.030412616
0.25833353 0.15512845 0.18261658 0.17440839 0.24031746 0.24949087 0.022413852 0.21300806
-0.02781461 0.16194348 -0.23718041 0.127106 0.06583387 0.17663412 0.195395 0.21077509

encoder.dcrnn_cells.0.gate.weights_pool f4 [2, 2, 65, 128]
00000000: 0c81 033e eaa8 06be 4d72 e23d dc9f cc3d
00000010: 237b d73d 20d9 fa3d e385 f3bd 05aa f03d
00000020: 9971 02be eafa ea3d 9849 e93d 2b69 e53d
00000030: 110a eb3d 4517 f93d 7402 eebd daac ae3d
00000040: 025c dd3d 4f1d e03d c91a efbd 7b17 06be
00000050: 56dd 003e 85af d1bd bd44 d23d 0084 dbbd
00000060: dacc e33d f705 b23d 994d ebbd 49b3 03be
00000070: 1055 e73d 2744 cf3d 5522 eb3d d364 ecbd
00000080: a423 f7bd bf07 eebd a2fe e8bd 9462 f23d
00000090: bf66 f93d d377 e23d 1f69 073e d890 e63d
000000a0: e188 b93d f5e0 e6bd c7c6 ce3d 1a6a d13d
000000b0: c88c 083e 742f ed3d a4fa 053e 39ab ff3d
000000c0: 83c6 de3d 8a6e f7bd 2fc2 dc3d a439 013e
000000d0: 25d6 febd 6bac e73d 6ae7 003e 0f80 033e
000000e0: 0842 c43d 49db da3d 2a50 ecbd a1ff d1bd
000000f0: 06a1 c83d a91b f73d 33cc fcbd 216e e03d
00000100: 9fc3 0dbe 6c64 ae3d 82e5 08be 2095 08be
00000110: b160 e9bd 36cd f7bd b562 eb3d 7dad f2bd
00000120: b54b 983d 7dc7 0cbe fd57 e0bd e1da f1bd
00000130: 5900 efbd 0a18 fabd 9701 bf3d 48e3 dfbd
00000140: 9441 05be 8e7e 05be ba7d 963d b1d7 cf3d
00000150: f593 03be 044e 9d3d 4392 efbd f6bf a53c
00000160: d64e d1bd 65d0 e8bd a894 983d 1cf5 8b3d
00000170: 2938 fbbd 87c1 f9bd 0693 06be d16c 2f3d
00000180: 2ec9 ad3d 621e d63d b63a 973d 1cf9 0dbe
00000190: d262 00be 3e6a 09be 0458 11be 9c59 06be
000001a0: c43a 01be bb08 c43d a934 e6bd 8d62 f8bd
000001b0: 0359 0cbe 6068 0abe 8c65 00be 261a 0dbe
000001c0: 9ebc 06be 91fd 6f3d 8218 e7bd 44f4 f0bd
000001d0: 2157 b93d 4603 0ebe f06c ecbd 7c34 06be
000001e0: b6f2 e6bd e24b 08be 5be9 7e3d ed11 b93d
000001f0: 54b0 eabd 7eaa 0bbe e829 aa3d 8c27 09be
00000200: 56b7 f2bd dfc9 1ebe 2799 06be 2071 0dbe
00000210: fe88 09be b120 e2bd 676c 0fbe f25c f9bd
00000220: c553 81bd f29b e7bd f552 0abe 0850 fbbd
00000230: 1359 e2bd 0bdf 00be dec1 0ebe e670 efbd
00000240: ae41 07be 927b f3bd af63 abbd 5015 12be
00000250: 5cbd fabd 7f30 b1bc 47fe e5bd 0555 e13d
00000260: b1d4 03be c544 07be 8c0f 1abe 5360 ccbc
00000270: 0a15 00be fc8f 0bbe 3094 fdbd c625 0fbe
00000280: eb61 b9bd 2387 1fbe b5f5 b2bd 3e34 04be
00000290: 5181 f7bd 2b90 e7bd d569 f7bd 7a71 edbd
000002a0: 970d d2bd 7b67 0cbe 5d9b ffbd a900 fabd
000002b0: 5c99 debd 6b32 07be 894b f7bd d5a3 0ebe
000002c0: 4728 f9bd 9471 c8bd 8b2a 0abe 35b3 ecbd
000002d0: c545 e2bd 6f32 0cbe cdbd 02be 190b ffbd
000002e0: 243b edbd 5d2e f4bd 1233 84bd b9f3 b2bd
000002f0: 191b 0dbe 26ad 07be b04f 8dbd 42f8 0cbe
00000300: 33ae 203e 996a 0e3e c24e 123e 38e5 073e
00000310: 6a7a 133e 058f 163e 07c1 003e c45e 103e
00000320: d906 f23d e671 103e bc14 1c3e 7aee 0f3e
00000330: 894e 103e 13aa 173e 3fee 013e c036 083e
00000340: 6287 0b3e 2f5d 203e dc51 0b3e 593f 013e
00000350: 0afa 163e 3db8 013e 1c3d 203e d39b fe3d
00000360: bb3c 103e 9cbd 0a3e 8c49 123e 2409 063e
00000370: cb83 1e3e c5e7 173e 63a6 0d3e e848 093e
00000380: f3fa 0e3e e635 123e bd54 003e 36b4 153e
00000390: 5737 183e 7ab6 113e 7340 1d3e 5d3d fb3d
000003a0: 372a 1c3e 4955 f53d 144f 0a3e a07e 1f3e
000003b0: 2d97 0a3e 6fef 0d3e db5d 113e d7cb 163e
000003c0: 7131 0d3e 2ca7 0e3e 7aa3 063e 4466 193e
000003d0: 983c 093e 679a 103e 09fe 083e 72f8 0e3e
000003e0: f1b8 163e 97c6 093e 14bd fc3d 6f83 ed3d
000003f0: 98f5 0c3e 18df 093e 2f22 0f3e 04a1 143e
0.12842196 -0.13150373 0.110569574 0.09991428 0.10521533 0.122484446 -0.11890771 0.11751179
-0.12738647 0.11473639 0.1139099 0.112017 0.114765294 0.121626414 -0.11621562 0.085290626
0.10808565 0.1094309 -0.11675031 -0.13094895 0.12584433 -0.10238556 0.10267017 -0.107185364
0.11123057 0.08692544 -0.1148941 -0.1286136 0.11295521 0.10120421 0.11481158 -0.11542668
-0.12067345 -0.11622571 -0.11376692 0.118352085 0.121778004 0.11058011 0.13223694 0.112580955
0.09059311 -0.11273376 0.100965075 0.102253154 0.13334954 0.115813166 0.13083893 0.1248383
0.10877707 -0.120816305 0.10779225 0.12619644 -0.124431886 0.11312183 0.12588277 0.12841819
0.09582907 0.106863566 -0.115387276 -0.102538355 0.09796338 0.12065823 -0.123436354 0.109585054
-0.13844155 0.08515248 -0.133688 -0.13338137 -0.113953955 -0.12099688 0.11493436 -0.118494965
0.07436315 -0.13747974 -0.109542824 -0.11809326 -0.11669988 -0.12211616 0.09326475 -0.10932022
-0.13013297 -0.13036558 0.07348199 0.10148562 -0.1284941 0.07680896 -0.11697819 0.020233136
-0.10220115 -0.11367873 0.07450229 0.0683386 -0.12266571 -0.121951155 -0.13142022 0.042828385
0.084856376 0.10455014 0.07384245 -0.13864559 -0.12537697 -0.13419434 -0.14193732 -0.13120121
-0.12620074 0.09571978 -0.11240513 -0.12128172 -0.1370583 -0.13516378 -0.12538737 -0.13779506
-0.13157889 0.05859143 -0.11283971 -0.1176534 0.09049822 -0.13868436 -0.11544216 -0.13105959
-0.11276762 -0.13310197 0.062234264 0.09036622 -0.11459413 -0.13639256 0.08308774 -0.13393992
-0.11851375 -0.15506695 -0.1314436 -0.13812685 -0.13431165 -0.11041392 -0.14006196 -0.12175931
-0.06314806 -0.11309041 -0.13508208 -0.12271124 -0.11052146 -0.12585084 -0.13941142 -0.116914555
-0.13208649 -0.118888035 -0.083686225 -0.14265943 -0.12243149 -0.02162957 -0.1123014 0.11002544
-0.12874104 -0.13209827 -0.15044993 -0.024948275 -0.12508026 -0.13629144 -0.1238178 -0.13979253
-0.090518795 -0.15578894 -0.08738271 -0.12910554 -0.12085212 -0.11306795 -0.12080733 -0.115939096
-0.10256498 -0.1371135 -0.12480805 -0.12207157 -0.10869095 -0.13202827 -0.12074954 -0.13929684
-0.121658854 -0.09787288 -0.13492791 -0.115576185 -0.11048464 -0.13691114 -0.12767716 -0.124532886
-0.11583546 -0.119229056 -0.064550534 -0.08737893 -0.13779868 -0.13249645 -0.06899965 -0.13766578
0.15691452 0.13907851 0.14287856 0.13271034 0.14402166 0.14702995 0.12573634 0.1409865
0.11817712 0.14105949 0.15242285 0.14055815 0.14092459 0.14810972 0.1268854 0.13302135
0.13625863 0.15660547 0.13605446 0.12621821 0.1474382 0.12667938 0.15648311 0.12432065
0.14085667 0.13548893 0.14285868 0.13089424 0.15479963 0.14834507 0.13833003 0.13406718
0.13962917 0.14278373 0.12532325 0.14619526 0.1486486 0.14229766 0.15356617 0.122675635
0.15250479 0.119791575 0.13506728 0.15575647 0.13534231 0.13860868 0.1419596 0.14726196
0.13788392 0.13930959 0.13148299 0.14980417 0.13402021 0.141214 0.13378157 0.13961962
0.14718987 0.13454662 0.12340751 0.115973346 0.13765562 0.1346401 0.13977884 0.14514548

encoder.dcrnn_cells.0.gate.bias_pool f4 [2, 128]
00000000: f23c 493e c8b1 58be 8114 203e 9483 893d
00000010: 944b a93e ccfb b53e 2bc0 b8bd f9e9 df3d
00000020: e068 07be a003 523e 9b1f 523e a352 54bd
00000030: 1778 f43d 6fa2 523e 4de4 8e3e 1709 aa3e
00000040: 1473 153e 416c 9c3e dc6b a3be d67c 9bbb
00000050: 18cc 6c3e 4853 eebd 2387 a43e 5cea 8ebd
00000060: 751d 2e3e 59d4 813e bceb ed3a 4275 a0be
00000070: 3efc 683e 8cd2 5c3e 4fed 303e 1a23 0a3e
00000080: 0294 d6bc 1459 f43c 5783 8ebd 30d3 78bd
00000090: 7c2e 1b3e 38af 993d 883b 7a3e 1d86 903e
000000a0: 3611 173e 4efb df3d 8607 b03d 7490 1e3e
000000b0: 802a 98bc 08e9 563c 3ef3 a73e 691e 233d
000000c0: d76a 79bd 120f 3fbe 8ae6 b13e 56c0 053e
000000d0: 7921 db3b 3250 2bbd 92e7 cb3b a193 463e
000000e0: 1f31 bf3d d205 9a3e 2a56 b6bd 02af bcbc
000000f0: 53c4 223e b29d 3a3e 1e2b 16be c48e b03d
00000100: b16e 7dbe 1e24 943e d9b6 353d ef5d aebe
00000110: 72e5 85be b28f 7bbe 1741 28be 22c5 8e3d
00000120: 9e3e 25bc a097 76be d230 ff3c 5399 ec3c
00000130: a748 903b c9d7 89bd 9687 8bbe f34d 4cbe
00000140: 90a9 53be 0461 9abe 20e2 4d3e b081 dcbc
00000150: 3dc8 013a f96f e9bc 697e 6ebd 2fab 1b3d
00000160: d832 d13b 2f46 98bd 0dc3 17be b235 b0bc
00000170: 3823 55be d65a 7bbe c4c9 6ebe 84f9 873d
00000180: b826 473e 3c98 eabd 3c53 623b b34d 89be
00000190: 55cc d7bc 44c8 9cbd 5cb2 63be a48f f4bd
000001a0: 7ad5 a7be d3a5 70bd 6cf0 253d ea8e 39be
000001b0: 6a80 65bd e12c 663d 0887 72bd 0535 92be
000001c0: 45e3 a93d 8d71 133e 1a07 2dbe fe48 8c3c
000001d0: ce18 45bc 0c46 0ebe b7a9 a1be beb0 d0bc
000001e0: 523b c8bd 476f dabd 2fb7 803d 1dea 9cbd
000001f0: 1d40 89be d76b dabd 462b 2e3d 623c 0fbe
00000200: 8912 943a 9227 773e 2e37 3b3e 3a04 6b3e
00000210: 9c6a af3d 195f bf3b 1a8c 953e 4461 033e
00000220: 5d3e 063e 621e 7bbd 79e7 7f3d c81d 313e
00000230: 27d1 093e 8780 9a3e 217f db3c 3030 a63e
00000240: 2733 1abd 53fc 493e f993 cc3d e8e8 b93e
00000250: 294d 563d e388 1f3e a475 383e 144f 7d3e
00000260: c9a5 823e 2e59 713d 100a 123e 35c5 373e
00000270: 8056 8c3d a27c 543d f888 ad3e 1e71 3dbc
00000280: 4458 473e e1e3 afbc e195 a93e a99d 8d3e
00000290: 1a36 753e 6c71 3e3e 547d b03e c661 143e
000002a0: 005f f8bb 68e8 273e bed7 5c3e b786 093e
000002b0: 3da8 753d 1b37 ed3d 3661 f23d d418 af3e
000002c0: b4a0 933e de47 2a3e ebf1 713d cd85 bf3c
000002d0: f265 b73d fbcd 953e 5f7a b3bc e5c9 123d
000002e0: 7929 463e 430e a83e 3a47 0b3e 9ff8 8a3e
000002f0: c081 da3d 7c20 703e ac64 88bd f421 4e3e
00000300: 7c66 aabe 0663 b73b afa0 573b 2328 bdbd
00000310: a654 1dbe 09b7 9abe dbb5 923d abc3 7dbe
00000320: 8ef8 893d d6df 5abe 4a8b 95be 457a 1f3d
00000330: 28e6 1bbc 90ed 45bc 4455 18be c1d6 8ebe
00000340: 0b29 98be a0d0 19bd 6af4 bd39 18bf 1fbe
00000350: 4a86 89be d24c 59be 3b55 91be fc16 a2be
00000360: 49fd 36bd 55ee d2bd 1722 a7be 7e1c 5abd
00000370: 9645 8ebe 3e06 39bd 1994 04be fdbc 95be
00000380: 2378 abbc 8853 acbe 44d0 89bd 4a86 e2bc
00000390: 0f84 8fbe cba9 933d 127f 6dbe 871a 4fbe
000003a0: 80c2 8c3d 9b83 08be a70a 9cbe bfa8 92be
000003b0: 223c 97be e8e1 e13c e078 0b3c 3624 90bc
000003c0: a1c8 83be 0b6b 9dbe 6a37 5ebe 1167 3dbe
000003d0: 7ba9 13bd 35b8 01be 8580 80bb 8b9a a9be
000003e0: 6b68 84be 11c0 c33c 0e9d 5dbe 10e6 993c
000003f0: aec3 8a3d 8969 a0be 4149 1abe b353 a7be
0.19652155 -0.21161568 0.15632822 0.0671455 0.33065474 0.35543668 -0.09021028 0.109332986
-0.132236 0.20509195 0.20519869 -0.05183662 0.11936968 0.20569776 0.27908555 0.3321006
0.1459468 0.3055134 -0.31918228 -0.004745106 0.2312473 -0.116369784 0.3213435 -0.06978294
0.17003424 0.2535732 0.0018151919 -0.3133946 0.22752473 0.21564692 0.17278026 0.13489953
-0.026193622 0.029827632 -0.06958645 -0.06074828 0.15154451 0.075041234 0.24436772 0.2822732
0.14752659 0.109366044 0.08595185 0.15484792 -0.018574953 0.013117082 0.32802767 0.039823923
-0.060892906 -0.18658093 0.347462 0.13061652 0.00668734 -0.041824527 0.0062226737 0.19392253
0.09335541 0.30082566 -0.08903153 -0.023032669 0.15895204 0.18224218 -0.14664885 0.086209804
-0.24749257 0.28933805 0.04436383 -0.3405604 -0.26151615 -0.24566534 -0.1643108 0.06971194
-0.01008573 -0.24081278 0.031151209 0.028881704 0.004403192 -0.06730611 -0.2725188 -0.1995161
-0.20670152 -0.30152142 0.20105791 -0.026917309 0.00049507973 -0.028495776 -0.058226023 0.03800505
0.006384235 -0.074352615 -0.148205 -0.021509979 -0.20814216 -0.2454637 -0.23319155 0.06639388
0.19448364 -0.11454818 0.0034534475 -0.26817092 -0.02634255 -0.07655385 -0.22236007 -0.1194146
-0.32780057 -0.058751892 0.040512487 -0.18120924 -0.05603067 0.056195144 -0.059210807 -0.28556076
0.08295301 0.14398785 -0.1689724 0.01712465 -0.01202984 -0.13893908 -0.31574795 -0.025474902
-0.097769395 -0.10665756 0.062849395 -0.07661841 -0.26806727 -0.106651 0.042521738 -0.13987878
0.0011297028 0.24136189 0.18282768 0.22950831 0.08565256 0.005840194 0.29208452 0.12830073
0.13109727 -0.061308272 0.06247661 0.17296517 0.13458692 0.30176184 0.026794018 0.3245864
-0.03764644 0.1972516 0.09989161 0.36310506 0.05231968 0.15579562 0.18013626 0.24737197
0.2551711 0.05892294 0.14261651 0.17946322 0.06852436 0.05187667 0.3389356 -0.011562614
0.19467264 -0.021470966 0.3312216 0.27659348 0.2394642 0.18597955 0.34470618 0.14490423
-0.0075796843 0.1639725 0.21566674 0.13430296 0.059974898 0.11582776 0.11834948 0.3419863
0.28833544 0.16628978 0.0590686 0.02337923 0.089549914 0.29258713 -0.021908937 0.035837073
0.19351758 0.3282338 0.1360139 0.27142808 0.10669279 0.23449892 -0.06659827 0.2013014
-0.33281314 0.0055965213 0.0032902171 -0.09236171 -0.15364322 -0.3021777 0.071635924 -0.24781673
0.06736861 -0.21374449 -0.29207832 0.038934965 -0.009515323 -0.012080565 -0.14876276 -0.2789822
-0.29718813 -0.037552476 0.00036230992 -0.1560024 -0.26860267 -0.21220711 -0.28385338 -0.3165816
-0.044675145 -0.102993645 -0.32643196 -0.05324983 -0.27787465 -0.04517197 -0.1294712 -0.2924575
-0.02093131 -0.3365748 -0.06729177 -0.027651925 -0.2803044 0.0721012 -0.23193005 -0.20224963
0.068730354 -0.13331454 -0.30476877 -0.28644368 -0.29538065 0.02757354 0.008512706 -0.017595392
-0.25739005 -0.3074573 -0.21700826 -0.18496348 -0.0360503 -0.12667926 -0.0039215707 -0.3312572
-0.25860915 0.023895295 -0.21641943 0.01878646 0.06775604 -0.31330517 -0.15067007 -0.32681045

encoder.dcrnn_cells.0.update.weights_pool f4 [2, 2, 65, 64]
00000000: ca45 41bd 69f7 28be 6cc0 fa3c d62e 1ebd
00000010: 60a4 af3c 0204 2bbd b52d 14be 1622 a63c
00000020: e444 0abe b49e 113e 97cd 593c 737b a1bc
00000030: cb0b 13bd 72dc a0bc 0c64 153e e0bf cfbd
00000040: b1f5 13bd bac8 ff3c 0c7a 13be 90b6 253e
00000050: e43f 213d fb91 0bbe 8da7 9abc 6465 153e
00000060: f377 d5bd 67d8 91bc 027f 10be 0380 1abe
00000070: 75b8 143d e4b9 b63c c886 fb3d df1f 08be
00000080: d0ac 14be ff26 243e 8058 08be c38c 343d
00000090: 8144 eb3c a14c 113d ce65 4a3d e137 f1bd
000000a0: 0871 f73d 65f2 0b3e 199c 92bc 3948 13bd
000000b0: 2758 173e 5cfb 6bbd ef3f 0dbe 9c19 3ebd
000000c0: 3807 063e f0b9 10be 7ed7 d23c b7f8 1abd
000000d0: 217c 0fbe f7e2 10be b8d3 f93c 2d82 f6bc
000000e0: a9c2 ad3c 11a2 43bd e80b 0a3e b320 243e
000000f0: 77d7 fa3c f204 0b3d 9ca5 0f3e 3f65 62bd
00000100: ce2f 133e 9063 0abe b9ce 02be 2bdb 093e
00000110: 245a fdbd f340 183e 7a2b 0fbe 2bd1 12be
00000120: fbfd efbd d778 02be 1ee5 18be 23ea f73d
00000130: f7aa 153e 2c56 fe3d 0411 063e 6626 0d3e
00000140: 2807 073e c7e2 0dbe 12d3 d9bd 9bf9 e23d
00000150: 8267 0bbe fa04 debd 4897 163e 2c7a 293b
00000160: 61cb 073e af0c 06be 002c debd 31de b2bd
00000170: dbd0 02be 017d febd af7d 00be f5b1 f1bd
00000180: b273 eebd 8d23 053e 8479 05be 8906 0dbe
00000190: a8f9 03be 20d7 0bbe 7880 15be 9ab7 013e
000001a0: 3da9 1cbe bacb e83d 9355 f63d 67e9 033e
000001b0: 56a7 17be b785 1a3e 4873 103e d4d3 0c3e
000001c0: 648a 17be d0fd f5bd e7dd 10be 2d2a 0a3e
000001d0: a1d7 f0bd 8900 0b3e c461 05be 52c1 153e
000001e0: 7787 05be 60b1 053e 499f b23d d60c da3d
000001f0: 54b1 0ebe 514d 0cbe 8691 b63d 1bfe 143e
00000200: 133e 0fbe 3f04 2dbe 4c3a 243e 984b 17be
00000210: b288 253e f341 15be 3b32 5cbe 0c31 4a3e
00000220: c16b 31be 7d5f 373e 505d 163e 8556 1dbe
00000230: 9b3a 56be f272 31be 6bf7 5f3e 96f9 19be
00000240: ecb5 16be 4c72 2f3e 7147 28be 25bf 313e
00000250: 6a7f 203e 0239 29be 8625 31be 9ba5 173e
00000260: 32b0 0fbe 488c 033e a03c 52be 7900 1fbe
00000270: 7427 3e3e 1864 233e c670 1e3e 16ef 3dbe
00000280: 5f3a 32be 0865 3c3e 8fc5 28be 0604 3f3e
00000290: 6fda 4f3e 1c28 313e 8aaf 4e3e 0d75 20be
000002a0: 28f9 393e 03cf 563e f87d 41be 47e3 27be
000002b0: 6ab2 543e dcd0 28be c076 4ebe c17e 17be
000002c0: 8c1f 383e 6f49 27be c6ff 1f3e c429 24be
000002d0: a45a 2bbe 74c3 2ebe 61ac 1c3e 2bab 46be
000002e0: 57ff 243e 4e63 66be 5c55 1b3e a531 283e
000002f0: 64e1 243e 2aeb 453e ee4a 2f3e 69a7 29be
00000300: 3eca 14be 56d2 083e cb48 193e ed90 1abe
00000310: d84a 0e3e 561f 05be c7ac 0a3e 174b 1a3e
00000320: 6b30 fa3d 8cc5 113e f783 f63d 62db 04be
00000330: a6d3 19be c90b 1bbe c25e f8bd 2cc4 1abe
00000340: aba2 11be 6653 ff3d eadb fb3d 0491 0bbe
00000350: c9f8 163e 0c12 e73d e2d7 13be 68ca 8a3b
00000360: e85a 12be 2c6f 0a3e 376c f73d 3917 e53d
00000370: 5fc0 1a3e 8248 ff3d d271 0a3e e659 1e3e
00000380: 9597 053e 6983 1abe 60b3 1e3e 549e 193e
00000390: b6c9 083e 95a8 f03d f67e 073e 5e79 0bbe
000003a0: 5357 f73d 9cf6 f6bd 09f9 12be 2cb9 f9bd
000003b0: bcc5 fa3d d77d 02be 8594 17be 1578 02be
000003c0: 2be4 133e b372 173e 4ed3 003e 52fc f1bd
000003d0: 798f 123e f428 14be 1595 083e 5f0a 0fbe
000003e0: cd17 0e3e db72 03be aa06 fbbd a6eb dcbd
000003f0: 6b0c 1b3e d216 f93d 385c f5bd 63f0 17be
-0.047185697 -0.1650063 0.030609332 -0.038618885 0.021440685 -0.04175187 -0.14470561 0.020279925
-0.13502842 0.14220697 0.013293645 -0.019712185 -0.03589992 -0.019636367 0.14588946 -0.10144019
-0.03612298 0.031223644 -0.14402026 0.16182923 0.03936757 -0.13629906 -0.018878723 0.14589459
-0.10423269 -0.017803384 -0.1411095 -0.15087895 0.036308724 0.022305436 0.12281567 -0.13293408
-0.14519048 0.16030501 -0.1331501 0.044079553 0.028719189 0.03547347 0.049413495 -0.11778236
0.12082106 0.13666685 -0.017896699 -0.03595755 0.14779721 -0.05761276 -0.1379392 -0.04641114
0.13088691 -0.1413343 0.02573752 -0.03783485 -0.14012195 -0.1414908 0.030496463 -0.03009137
0.021210985 -0.04776198 0.13481104 0.16028099 0.03062032 0.033940263 0.14028019 -0.055272337
0.14373705 -0.13514543 -0.12774171 0.13462512 -0.123707086 0.14868526 -0.13981429 -0.14337604
-0.11718365 -0.12741409 -0.14931151 0.12105205 0.14615999 0.1241878 0.13092428 0.13784179
0.13186324 -0.1385604 -0.106359616 0.11082765 -0.13613704 -0.10840793 0.14706147 0.0025860174
0.13261177 -0.13090776 -0.10848236 -0.08733786 -0.12774985 -0.12426186 -0.12547944 -0.11801521
-0.11643161 0.13001843 -0.13034636 -0.13772024 -0.12888205 -0.13656282 -0.14599788 0.12667695
-0.15298934 0.11366983 0.12028041 0.12882005 -0.14809927 0.1509007 0.14106476 0.13752681
-0.14798886 -0.120113015 -0.14147149 0.13492651 -0.11759878 0.13574423 -0.13025576 0.14624527
-0.13039957 0.13055944 0.087217875 0.106469795 -0.13934833 -0.13701369 0.08914475 0.14550059
-0.13988523 -0.16896151 0.16037863 -0.1477493 0.16165426 -0.14575939 -0.21503536 0.19745272
-0.17326261 0.1790752 0.14684033 -0.15365036 -0.20920794 -0.17329004 0.21871726 -0.15036616
-0.14717835 0.17133445 -0.16433503 0.17358072 0.15673605 -0.16525653 -0.1729947 0.14809267
-0.14032057 0.12846482 -0.20530939 -0.15527524 0.18569738 0.15956151 0.15472707 -0.18548235
-0.1740508 0.18397915 -0.16481613 0.18653879 0.2029817 0.17300457 0.2018415 -0.15669651
0.18161452 0.20977406 -0.1889571 -0.16395293 0.20771185 -0.16485924 -0.20162487 -0.14794447
0.17980784 -0.16336606 0.15624914 -0.16031557 -0.16733795 -0.17066747 0.15300132 -0.19401233
0.1611303 -0.22498819 0.15169281 0.16425188 0.16101605 0.19327989 0.17118427 -0.16567768
-0.14530274 0.13361487 0.14969175 -0.15094347 0.13895738 -0.13000235 0.13542472 0.15067707
0.12216266 0.14235514 0.12036889 -0.12974313 -0.15022144 -0.15141214 -0.121274486 -0.15113896
-0.14222209 0.12467079 0.12297805 -0.13629538 0.14743342 0.11282739 -0.14437822 0.0042355545
-0.1429249 0.13518971 0.12081187 0.1118607 0.15112446 0.12465002 0.13519982 0.15463981
0.13046105 -0.15089191 0.15498114 0.15001804 0.13358197 0.117509045 0.13232026 -0.13620517
0.12077203 -0.12058756 -0.14352812 -0.12193522 0.12244746 -0.12743317 -0.1480275 -0.1274112
0.14442508 0.14789848 0.12580606 -0.118157044 0.14312543 -0.14468747 0.1333812 -0.139688
0.13876267 -0.12836783 -0.122571304 -0.10787134 0.15141456 0.12162556 -0.1198048 -0.14837794

encoder.dcrnn_cells.0.update.bias_pool f4 [2, 64]
00000000: b7cd 99be 3ddf 42be e6b4 ea3e a0f3 e5be
00000010: f325 853e 8de2 afbe 173d cbbc 4e78 793e
00000020: 990d c1be 2106 a23e 3839 e53e ce80 73be
00000030: 53af 84be 4ae8 b1be 9a67 01bc a170 b0be
00000040: c4b9 86be 4348 b03e 7811 c4be 0441 983e
00000050: f715 7a3e a4be 8ebe 2123 1dbe d8b8 c53e
00000060: b856 dcbe 9eb0 063e 9111 12be 797d a3be
00000070: bf15 9f3e e4fa 973e f8dd e43e 1f28 70bc
00000080: 67d9 afbe d062 813d cd7b b9be af13 783e
00000090: ece3 bd3e c069 cf3e dda0 7b3e 699d a1be
000000a0: e1d9 dd3e a610 d5bb 781f 24be 268d 98be
000000b0: 37b2 ad3e d0c9 83be 271e cabe e190 e7be
000000c0: f621 b83e 1c23 acbe afa7 353e 3ad3 26be
000000d0: 65f5 b8be 358f e4be ed84 8b3e 8744 97be
000000e0: 7338 9c3e abbe 28be c3fa 993e 48da 333e
000000f0: 2967 cf3e a72e 433e 6265 933e bf94 c8be
00000100: a050 cebe cf32 e23e 6074 433e 5e5d c4be
00000110: 359f b63e 270e 81be 55ca cf3e fa45 5d3e
00000120: ae5c b13e d32a a2bd 415a d63e 3ffc e2be
00000130: 1d09 4fbe c061 9dbe cb10 cbbe a1a5 1d3c
00000140: 0deb bdbe 694b d83e 3325 d03e fd05 cfbe
00000150: d77c db3e 1662 723e 4fc8 a9be 6269 8cbe
00000160: edbf 6c3c bf61 e43e 68aa dd3e 03fe 863e
00000170: d1ad 673e ee6f aa3e f99b 91bb 66b5 8d3e
00000180: 329b b63e f163 a7be 78d6 ae3e 52e6 863e
00000190: 8657 3a3e 8c1a 313e 754b 623e 8a23 87bc
000001a0: 6bb8 82be 1a0e bbbe fe18 1cbe 575f aabe
000001b0: 76f3 12be b7bd 78be 1461 413e 85c7 cebe
000001c0: 0d79 1abe 3cb5 a63e c6d1 df3e 5516 57be
000001d0: bdf4 d63e 88ed f13c 2d8f ad3e fa89 80be
000001e0: 0078 973e 78e3 1abe 12ea 95be 4386 32be
000001f0: d647 dd3e cf11 3a3e b155 87be 696e 8ebe
-0.3003976 -0.19030471 0.4584114 -0.44912434 0.26005515 -0.34352532 -0.024809403 0.24362299
-0.37705687 0.316453 0.44770217 -0.23779604 -0.25915012 -0.34747535 -0.007898236 -0.3446093
-0.26313603 0.3443013 -0.38294578 0.29737103 0.24422441 -0.27879822 -0.15345432 0.38617587
-0.4303491 0.13153312 -0.14264514 -0.31931666 0.31071278 0.29683602 0.447006 -0.014658003
-0.34345552 0.06317675 -0.36227265 0.24226259 0.37087953 0.40510368 0.24573083 -0.31565407
0.4333029 -0.006502229 -0.1602763 -0.29795188 0.3392503 -0.25739908 -0.3947613 -0.4522772
0.3596341 -0.33620536 0.17739747 -0.16291514 -0.3612472 -0.44640508 0.27249852 -0.2954447
0.30511817 -0.16478984 0.30074129 0.17563736 0.40508392 0.19060765 0.28788286 -0.39175984
-0.40295887 0.4417939 0.19087362 -0.38352484 0.3566834 -0.2520611 0.40584055 0.21608725
0.3464102 -0.07918324 0.41865733 -0.44333073 -0.2021832 -0.3073864 -0.3966125 0.009622009
-0.37093392 0.42245033 0.4065338 -0.40434256 0.42868683 0.2367023 -0.33160636 -0.2742415
0.014450056 0.44605824 0.43294072 0.2636567 0.226249 0.3328852 -0.004443642 0.2767746
0.3566528 -0.32693437 0.34148002 0.26347595 0.1819745 0.17295283 0.22099097 -0.016496439
-0.25531325 -0.36534196 -0.15243909 -0.33275864 -0.14350685 -0.2429112 0.18884689 -0.40386596
-0.1508524 0.32560146 0.43714732 -0.21004613 0.41983595 0.029532209 0.33898297 -0.25105268
0.2958374 -0.15125835 -0.29280144 -0.1743403 0.4321887 0.18170856 -0.26432565 -0.2781861

encoder.dcrnn_cells.1.gate.weights_pool f4 [2, 2, 128, 128]
00000000: 55ca d5bc b5ae 0abe ddcd 1ebd 0795 05be
00000010: 3dc4 02be 2018 01be 4636 10be a8bd 2fbe
00000020: 3faa 6c3d a9ba 0fbe 86a5 10be 4d10 11bd
00000030: ef4d 853d dcb6 e3bd 3235 cebc dc8f 06be
00000040: 59e1 02be 08e1 0ebe 476a 76be 1241 cfbc
00000050: de87 00be 2e4a 21be e0b5 02be 917f 0fbe
00000060: 9c12 19bd c859 f3bd 1733 883d 0354 5fbc
00000070: ab3b f6bd 1fe9 413d f127 40bd f3be 05be
00000080: 7700 0abe 2a39 07bd 5fe6 03be 4b35 4fbd
00000090: 1896 43be 0540 28bd 8cd8 febd e922 27bd
000000a0: e2f6 06be 5250 23bd 8970 6dbd c410 12be
000000b0: 69b8 06be fbd9 08bd c35f 0bbe f0e5 16be
000000c0: a20d 5bbe cace 843c b626 fbbd a3bb 09be
000000d0: 4008 0cbd 7d0f 05be 3dc8 03be c1c9 01be
000000e0: 76aa b4bd e4be a2bd 080e f2bd 54c3 d83c
000000f0: fee1 efbd dda2 09be 6e1b eebc 1d81 d2bc
00000100: 87d6 133e 95e6 153e f46a 0e3e a76b 1c3e
00000110: 0e64 173e 62ec 1a3e 9a4f 1c3e bb7b 1e3e
00000120: 8d55 013e b7c3 1e3e d71b 273e 75f4 0e3e
00000130: 1f8b 0c3e 5a8d 2c3e c293 253e 2534 253e
00000140: 7a4e 233e 9ed5 1b3e 7d60 ee3d 5b52 053e
00000150: 50e2 1c3e 9dd9 183e 36ef 263e bc70 283e
00000160: 3026 0f3e b89e 203e c457 053e 2e43 1d3e
00000170: bbee 2c3e d516 ce3d 7795 2b3e b208 2e3e
00000180: 1b6c 1f3e 339b 0d3e ca49 1a3e ccee 173e
00000190: 8d51 1d3e 9e25 0d3e afb0 1d3e 52bf 0b3e
000001a0: b372 223e 7d70 073e 0abb 0c3e e355 1c3e
000001b0: 0af0 173e 9726 063e f066 183e f5d2 193e
000001c0: 01db 283e c050 1d3e 20c3 203e 3d3f 153e
000001d0: 22bf 103e 564e 183e 4381 263e 6e71 243e
000001e0: 9b90 243e d75b 123e 2c45 1b3e c72e 133e
000001f0: 13dc 163e 528a 173e fffb 163e 0322 173e
00000200: 521c 14be 3191 22bb 4beb 5cbc 5fc4 243d
00000210: a6f4 3f3d cba7 e33c a179 8dbd e0ba 18bd
00000220: e093 03be 42d1 103d 22d6 4a3d 3ed7 803b
00000230: 3c14 d6bd 101d bd3c 73e3 dd3d f412 cc3c
00000240: 546c 193d a7fb 423d 060f d6bd ff3f 18bd
00000250: 21af fc3c 435b 16bd b557 183d 8fb7 e03c
00000260: dfcf 33bd 7ba8 aebb e825 06be 621a fd3d
00000270: 7446 58bb 7fb4 19be eb1d ec3d fbe9 e4bc
00000280: cb70 0d3d a308 36bd 9e34 ed3c b39a 5e3d
00000290: c7f3 67bd ee7d afbd 1cc3 39bc fdb2 c7bd
000002a0: 5011 143d 4a18 63bd b5bf 2e3d fa90 cd3c
000002b0: c214 e93c 69f0 f8bb 5388 223d 44cd e4bc
000002c0: 7256 adbd 5632 1f3d e97b ad3b a86f 0c3d
000002d0: cecc 10be aeab 293d a46c e63c 561f 593d
000002e0: 5184 e63d 9b1b 913d a5d6 9dbc c011 c53d
000002f0: a032 6a3d 4ad7 353d 3316 1dbe 0da3 2dbe
00000300: 98d2 ae3d c543 063e d614 9d3d 75aa f33d
00000310: 3bc9 d13d 6f80 d03d 5d58 073e df65 0c3e
00000320: 05bb c63d 5eed df3d 314c e33d 4511 9c3d
00000330: 8ce6 ce3d d382 083e de0f d73d e335 d93d
00000340: 4171 d43d c56b eb3d 2fb9 dc3d 88e8 a63d
00000350: 0890 e83d 7195 023e c446 de3d a4eb e83d
00000360: 911d a63d 749d 043e fb01 cf3d 9211 d93d
00000370: 76ee f83d 7fc6 f63d 76e2 f13d 9fd3 eb3d
00000380: 501d e03d d1c8 983d c353 ee3d c1f3 a53d
00000390: bb97 9b3d c4bb a83d 2306 f43d 0f7a 983d
000003a0: 6928 f33d 0b99 ba3d d5e5 ae3d ccf6 ef3d
000003b0: cc93 f13d a92e b23d 3252 db3d 3984 073e
000003c0: 3005 91bb 1d47 b13d 0769 043e f945 de3d
000003d0: d36c b13d 923f dc3d 2e8f e63d d0fb e03d
000003e0: 3d14 ce3d 5e01 cb3d 479c f63d 7419 e03d
000003f0: 91bc ef3d 1289 d63d d234 ad3d 124a bb3d
-0.026097456 -0.13543208 -0.038770545 -0.1304513 -0.12770171 -0.12606859 -0.14083204 -0.17162192
0.057779547 -0.14036049 -0.14125642 -0.035415936 0.06509005 -0.11118862 -0.02517185 -0.13140815
-0.12781276 -0.1395303 -0.24063979 -0.025299583 -0.12551829 -0.15750954 -0.12764692 -0.14013506
-0.037371263 -0.11882359 0.066503696 -0.01363087 -0.120230995 0.047341462 -0.04691309 -0.13061123
-0.1347674 -0.0330135 -0.12880848 -0.050587934 -0.19100225 -0.04107668 -0.12443647 -0.040804777
-0.13180116 -0.03987152 -0.05796865 -0.14264208 -0.13156284 -0.033411007 -0.13610749 -0.14736152
-0.2139192 0.016211886 -0.12263243 -0.13450484 -0.034187555 -0.1299419 -0.12869354 -0.1267462
-0.08821575 -0.07946566 -0.118190825 0.026460327 -0.117130265 -0.13441034 -0.029065814 -0.025696332
0.14437304 0.14638741 0.13907987 0.15275441 0.14784262 0.15129235 0.1526474 0.15476887
0.12630291 0.15504347 0.16319214 0.1396044 0.13724945 0.16850796 0.16169646 0.16133173
0.15947905 0.15218207 0.116394974 0.13019697 0.15320706 0.14926763 0.16302189 0.16449255
0.13979411 0.15685546 0.13021761 0.15357658 0.16887943 0.100629486 0.16756235 0.16995504
0.15568583 0.13828735 0.15067211 0.14837188 0.1536314 0.13783881 0.1539943 0.13647202
0.15864067 0.13226505 0.13743225 0.15267138 0.14837661 0.13100658 0.14883018 0.1502188
0.16489793 0.15362835 0.15699434 0.14574905 0.14135411 0.14873633 0.16260247 0.16058895
0.16070788 0.14292847 0.15163106 0.14373313 0.14732389 0.14798859 0.14744566 0.14759068
-0.14463928 -0.002480578 -0.013483833 0.040226337 0.046864174 0.02778997 -0.069079645 -0.037287593
-0.12849379 0.035355814 0.04952062 0.003931909 -0.10453078 0.023085147 0.10834398 0.024911381
0.037456825 0.047603276 -0.10452084 -0.037170406 0.030845227 -0.036708128 0.03719302 0.027431278
-0.043899413 -0.005330143 -0.13100398 0.12358548 -0.0033000978 -0.1501026 0.11529144 -0.027943602
0.034531396 -0.04444183 0.028955754 0.05434675 -0.05662897 -0.08568941 -0.011338022 -0.09750936
0.036149323 -0.055443086 0.042663295 0.025093544 0.02845228 -0.0075970185 0.03968079 -0.02792991
-0.08463754 0.038866363 0.0052943123 0.03428617 -0.14140627 0.041423492 0.028127976 0.0530084
0.11255706 0.070853435 -0.01926739 0.09622526 0.057177186 0.04439477 -0.153405 -0.1695673
0.08536261 0.1311179 0.0766999 0.118977465 0.1024346 0.10180747 0.13217302 0.13710736
0.0970364 0.10933946 0.11098517 0.076204814 0.10102567 0.13331155 0.10501073 0.10605981
0.10373164 0.11495165 0.107775085 0.081498206 0.11355597 0.1275232 0.10853341 0.1137307
0.08111108 0.12950689 0.101077996 0.105990544 0.12154858 0.12049579 0.11810772 0.11514973
0.10943091 0.07460178 0.1163707 0.08103133 0.075973 0.082389385 0.11915233 0.07445156
0.11872942 0.09111222 0.08539931 0.11716995 0.11795768 0.08700306 0.10709037 0.13234033
-0.004425667 0.08656142 0.1293069 0.1085319 0.08663335 0.107543126 0.11257778 0.109855294
0.10062454 0.0991237 0.12041526 0.10942355 0.11705888 0.10475363 0.0845734 0.09144987

encoder.dcrnn_cells.1.gate.bias_pool f4 [2, 128]
00000000: f81c 76be bb66 233e b821 603d 2dc4 913e
00000010: f23d 073e e11a 713e 6fbc a43e bcab 773e
00000020: 13a7 473d c30e b9bd e30a 1a3e a266 acbd
00000030: 4f54 d73d 7b7a a23c 4247 0fbe afd9 3e3e
00000040: c351 543e 2799 053e 2c02 98bd 65da ae3d
00000050: a65c 8c3e 39b8 8e3e f8c4 0b3e 004e 113d
00000060: e60e bfbd 2ab3 a53e c7a6 1d3c 853b c23c
00000070: 01d2 b93d 0b22 8fbe 0d44 fc3d 58e0 a13d
00000080: a5c5 063e 4d07 093e e756 843e 1cd5 8fbd
00000090: 06a0 1e3d 5e25 203e 0c93 d63d 4100 833d
000000a0: f6ec c83c 6c38 23be c0b0 413e 5b33 633e
000000b0: 2e5e de3d 6946 fbbc 6320 8c3e a4a4 cfbd
000000c0: b2e4 053e fbf2 14be c162 4c3e 00b7 e03b
000000d0: 4914 c23b a238 773e 3a7f ac3d 1f3c 163d
000000e0: 4267 a8bd 6446 823e 4ea7 ad3b 9efd a3bd
000000f0: e872 fabc 81fb 143b 1c2c 2d3c 9ac1 393d
00000100: 4b79 10be c83e 8abe c817 cfbc b565 9fbd
00000110: 7bc1 57bd 3fae b83d 2548 b63d bca8 f4bd
00000120: ab58 ae3c 9240 05be 8cf0 9bbe 9853 8cbc
00000130: 3103 18be 3d6a 27bc 53b5 ef3d 3fe3 10be
00000140: 0095 13be 9516 9ebd dcc0 5a3d 2a45 a73b
00000150: a109 49be 4c33 a63c c466 37be d0e9 1dbc
00000160: daff 37be 8dce 5dbe 4547 213e 2065 c7bc
00000170: 8af5 ff3c aa87 1c3e 5b78 7a3d bb29 7c3d
00000180: 8955 ef3d e676 eebc 02ad 97bd a34d 10be
00000190: 5725 87be 4880 7dbd b949 b53d 70c1 62bc
000001a0: ab7b ae3d bfeb bcba 8f6b 4ebe 690b 5cbe
000001b0: 00ab 893d c96a dd3d 5954 1ebe 288e 26bd
000001c0: 9f5e 5dbe 87e7 da3d e567 73bd c3b5 43be
000001d0: 9bef 92bd d8e0 373d 4746 c7bd c9bd 03be
000001e0: a891 4c3d 3f15 06bd 69e9 31be 2593 18be
000001f0: ca0a 0bbe db4c 74be 3c20 db3d 5f2d 25be
00000200: bdcf 913d aad3 933e b352 adbd a5d5 003d
00000210: 3b0d c5bd f351 0c3d 7a09 553d aa0b 123e
00000220: d87d fc3d 4c32 8e3e 5d6a 6e3c 9710 803e
00000230: c5b2 ccbb 303a 833d f8bc ed3d b8e8 f13d
00000240: 96bf 973b f8bc 3bbd 22d9 1c3e 90e6 a13e
00000250: da7d 843e dec6 26bd 0d18 34bd 39a2 0b3d
00000260: 80b6 4c3e 0f34 923d 78d3 1a3e c89e 64be
00000270: 8799 1b3e b473 dbbd 48e6 a2bc 6c71 183e
00000280: f0c9 653e 58a4 963e 87b8 683e ada7 913e
00000290: 5bf4 bc3d 4d86 263e 6735 cabb 596f 723e
000002a0: 379d 243e d210 88bb bad6 aa3e 8bd1 ed3d
000002b0: 7405 543d 69d3 943e e87c fc3d aa34 7f3e
000002c0: d132 0bbd c911 173e bcfb 97bd 65a8 0b3e
000002d0: 9cbf 183e 0c29 8e3d 741c 493c e14e 2a3e
000002e0: 74c5 403e 8a5f 963e 7f0d 3d3e 10cf babd
000002f0: d7cb 8d3e d6ad 333e 709f 493e 7bbc 673e
00000300: 2c3f 91be 1c30 d53d 4276 bd3c 0648 4bbe
00000310: 7640 5b3d beca 0c3c 98b8 27bd a114 0a3c
00000320: 3c98 19be 72f7 2abe a26a a0be 5acd 92be
00000330: f18f 88be ac07 7cbe f10d a23d 68ef b83b
00000340: 293d 46be 2c9f 36be 175f 23be 6f3c c93d
00000350: f1eb 4cbe 2dfd cd3d 8005 9a3d 2d4e ebbb
00000360: 723d 86be a89b 823d de2b a63c 5573 a13d
00000370: 3389 19bd 49b2 5d3d b100 28be 2d78 f43c
00000380: fa60 efbd 86b4 06be fa10 2ebe 4588 4ebe
00000390: d769 b73d 0881 27be 50d9 483d 0f11 3dbe
000003a0: fcc7 5fbe 54a8 ac3d 080a e43b 5113 82be
000003b0: e8ae 80bd a758 30be dd2d 33be 4c61 24bc
000003c0: c312 9bbe 0def 36be 4383 3abc 4fb4 0fb9
000003d0: bc31 b7bd 8c0b 8dbe b844 b43c 0451 8bbe
000003e0: 7d83 ccbd 5d8b bebd cd94 debd 746d 9cbd
000003f0: 2b26 913d 196c 94be b7d7 6cbd 0018 68be
-0.24034488 0.15957157 0.054719657 0.28469983 0.13207224 0.2354541 0.32175013 0.24186605
0.04874332 -0.09036019 0.15043215 -0.08418013 0.105141275 0.019833794 -0.13992026 0.18637727
0.20734315 0.13046704 -0.07422289 0.08537749 0.27414435 0.27874926 0.13649356 0.035474777
-0.093290135 0.32363254 0.009622282 0.023710022 0.09073258 -0.2795566 0.12317667 0.07904118
0.13161333 0.13381691 0.2584755 -0.07023069 0.03872683 0.15639254 0.10477266 0.06396533
0.024527054 -0.15939492 0.18915081 0.2218756 0.10857807 -0.030673223 0.2736846 -0.101388246
0.13075522 -0.14545815 0.19959547 0.006857753 0.0059228283 0.24142697 0.08422704 0.03667843
-0.0822282 0.2544433 0.0052994853 -0.08007358 -0.03057237 0.0022732916 0.0105695985 0.04535065
-0.1410877 -0.27001023 -0.025279894 -0.07783071 -0.05267475 0.0901761 0.08900479 -0.11946246
0.021282515 -0.13012913 -0.3045696 -0.017129704 -0.14844967 -0.0102182 0.11704507 -0.14149188
-0.14412308 -0.07719151 0.05340658 0.0051046805 -0.1963258 0.020288132 -0.17910296 -0.009638265
-0.17968693 -0.21660824 0.15749843 -0.024340212 0.031245012 0.15286127 0.061149936 0.061563235
0.116862364 -0.02910943 -0.074060455 -0.14092116 -0.26395676 -0.061889917 0.08851952 -0.013840064
0.085196815 -0.001441352 -0.20158218 -0.21488728 0.06722069 0.10811383 -0.15461864 -0.040662915
-0.21618126 0.106886916 -0.059425253 -0.19112305 -0.07174607 0.044892162 -0.09730201 -0.12865366
0.049943596 -0.032735106 -0.17374195 -0.14899881 -0.13578334 -0.23857443 0.106995076 -0.16130589
0.07119701 0.28872424 -0.08463039 0.031453747 -0.09621664 0.03425784 0.05201099 0.14262262
0.1232869 0.27772748 0.014551726 0.25012657 -0.006246897 0.06407583 0.116083086 0.11811966
0.004630993 -0.04583451 0.15317205 0.31621218 0.25877267 -0.040717 -0.04396825 0.034090254
0.19991493 0.07138836 0.15119731 -0.22326195 0.15195285 -0.10715428 -0.019885197 0.14887017
0.22440314 0.2942226 0.22726642 0.2844824 0.092262946 0.16262169 -0.006170917 0.23675288
0.16075598 -0.0041523958 0.33366948 0.11612233 0.051763013 0.29067543 0.123285115 0.24922433
-0.03398401 0.14752878 -0.074210614 0.13638456 0.14916843 0.06941423 0.01227485 0.16631652
0.18825322 0.29369766 0.1846218 -0.09121525 0.2769458 0.17546782 0.19689727 0.22630493
-0.2836851 0.10409567 0.023127679 -0.19851694 0.05352827 0.008593259 -0.040947527 0.00842777
-0.14999479 -0.16695955 -0.31331354 -0.28672296 -0.2667232 -0.24612302 0.07912815 0.005643774
-0.19359268 -0.17834157 -0.15954243 0.0982598 -0.2001188 0.10058055 0.0752058 -0.00718095
-0.26218754 0.06377345 0.02028459 0.07883326 -0.03748436 0.054125104 -0.16406514 0.02984246
-0.11688419 -0.13154802 -0.16998664 -0.2016917 0.08955734 -0.16357815 0.04903537 -0.18463539
-0.21853632 0.084305435 0.0069592036 -0.25405362 -0.06283361 -0.17221318 -0.17497964 -0.010032963
-0.30287752 -0.17864628 -0.011383834 -0.00013704713 -0.08945033 -0.27547872 0.022005424 -0.27210248
-0.09986017 -0.09303925 -0.10868225 -0.07638064 0.07087358 -0.28988722 -0.05782291 -0.22665405

encoder.dcrnn_cells.1.update.weights_pool f4 [2, 2, 128, 64]
00000000: 8b61 71be 3bdc 50be e9e4 5abe 8b7c 5cbe
00000010: 3494 603e 5d0b 63be b8dc 68be 0ec7 4cbe
00000020: 498f 753e 8da8 643e 6e5a 513e b0a8 6dbe
00000030: 7584 813e c4be 653e a806 7b3e cf66 59be
00000040: c180 61be c0a2 65be f000 543e 2bbf 6e3e
00000050: cc63 633e 90c6 40be 4528 5dbe bc40 653e
00000060: 1fc0 7a3e 4a36 5a3e e0b3 81be 518f 81be
00000070: d1ce 5ebe 3262 72be cafe 683e 2a5a 6dbe
00000080: 947f 4dbe 188f 6b3e 59cf 4f3e bc72 633e
00000090: 34f9 393e 5883 67be c4ee 5f3e 70ec 77be
000000a0: 9762 64be f975 6e3e 39c7 5abe 24e2 593e
000000b0: 78c4 513e 4028 623e 7491 543e 68fa 4dbe
000000c0: b07c 45be 51cc 72be 7ded 6ebe 4b87 55be
000000d0: ad52 69be 4c6f 613e 8e27 4dbe 2581 563e
000000e0: f875 673e 828e 62be 396a 643e 5c9e 753e
000000f0: 5073 5abe 5da4 5a3e f092 73be cb01 7d3e
00000100: 7ba4 70be 37db 7cbe 1d94 67be 783d 80be
00000110: 6ea7 863e 3ca1 84be ece2 8abe 9d3a 67be
00000120: 2564 6d3e 1855 8b3e 494e 853e 0713 69be
00000130: c96b 723e 7402 863e 1d59 7d3e 5938 83be
00000140: 3f09 82be 570c 89be f579 0d3e df50 733e
00000150: bbed 813e 98ff 7fbe dcf9 7dbe 1a15 8b3e
00000160: 8d27 663e 0ead 843e 4dc4 62be 4be4 80be
00000170: ab0e 88be bba8 83be eef1 7e3e 2a9a 82be
00000180: 6afe 89be 09bc 6b3e 1a31 873e 1114 773e
00000190: e226 6a3e d452 64be acc2 863e 17e0 6abe
000001a0: a25f 89be cb5f 6e3e e95e 6dbe 52f4 803e
000001b0: e888 893e 7a38 7b3e 2b0b 833e bba8 7dbe
000001c0: 180e 1fbe e532 79be 2091 80be 654a 84be
000001d0: 1114 6abe 58ce 7c3e 053a 8bbe 7041 7e3e
000001e0: 31c1 803e 4e72 79be 68df 843e 4012 6c3e
000001f0: f9cb 86be af3b 823e e72d 60be 69ec 623e
00000200: e879 593e 9a30 4d3e fbde 553e c1cd 633e
00000210: e05f 4ebe a119 633e 4a63 593e c6bb 323e
00000220: 5f74 7fbe dc54 4bbe ee78 53be cca0 633e
00000230: 8de6 6bbe 493d 53be a92f 66be eae4 523e
00000240: 5356 603e 6472 533e fe62 50be 730a 60be
00000250: 6156 56be a01b 393e f14d 513e aa20 59be
00000260: f749 59be f592 55be f8ca 6f3e 16b0 663e
00000270: 84fd 5d3e 2e1d 653e 7192 75be 5ff6 523e
00000280: ff62 553e 70bd 6fbe 3350 5cbe e916 65be
00000290: 7317 2abe f9fc 6e3e 5ee9 5fbe 43ef 693e
000002a0: 033b 4e3e d4ac 70be 18e6 6b3e 7561 4abe
000002b0: 80d4 5abe 099d 6cbe 8ccb 51be f88f 4d3e
000002c0: e942 343e d38d 6a3e 5c2f 623e ce6f 623e
000002d0: 1607 613e 6501 4fbe 117f 4b3e 4987 58be
000002e0: e1bb 5fbe c384 5b3e 35c5 53be 9cb1 69be
000002f0: 9e46 5f3e 1f79 5fbe b03a 743e 6369 76be
00000300: 9c79 5dbe 450c 41be 6c91 4abe cd41 5cbe
00000310: 9ba6 5c3e af34 4bbe f733 4bbe 138d 34be
00000320: 3ba7 693e 3bd7 403e f1ea 583e 6203 51be
00000330: f526 793e b113 583e a9a7 6b3e 26fe 58be
00000340: 569a 4abe 9bd3 50be e8d9 413e c3c4 6c3e
00000350: 7ec1 453e 0a51 32be c229 45be 6944 4a3e
00000360: 2fa5 673e cbac 4f3e 872b 79be dd26 5dbe
00000370: 3bc4 63be dd58 65be 5d78 6a3e 242b 55be
00000380: 4588 45be 6b6d 5c3e 4acf 523e 89de 573e
00000390: 8a41 223e 2181 63be 8dd0 503e 8011 6fbe
000003a0: 85ee 4ebe da52 5a3e 2d2c 4ebe c130 553e
000003b0: 8464 443e 30b2 553e 8a53 433e 0064 47be
000003c0: 743d 26be fd7a 5cbe c20d 52be 01bb 58be
000003d0: 37a2 6cbe 1a70 443e ee39 5cbe 22e8 573e
000003e0: 5439 543e b9e8 5fbe 732a 5a3e caaf 653e
000003f0: 6ad5 4ebe 0712 5d3e 4c14 6ebe 0e9d 5d3e
-0.23572366 -0.20396511 -0.21376385 -0.21531884 0.21931535 -0.22172303 -0.22740448 -0.19997808
0.2398044 0.22329922 0.20444652 -0.2320888 0.2529637 0.22436053 0.24514258 -0.21230625
-0.22021772 -0.22425365 0.20703483 0.23315112 0.22206038 -0.18825746 -0.21597393 0.22387975
0.24487351 0.21309772 -0.25332546 -0.25304654 -0.21758582 -0.23670271 0.22753444 -0.23178926
-0.20068198 0.23003805 0.2029394 0.22211736 0.1816147 -0.22608697 0.21868426 -0.24211287
-0.22303234 0.2328719 -0.2136506 0.21277672 0.20485103 0.22085667 0.20758611 -0.20115054
-0.19285846 -0.23710753 -0.23332782 -0.20852391 -0.22785445 0.22015113 -0.2003462 0.20947702
0.22603595 -0.22124675 0.22306146 0.2398619 -0.2133305 0.21351762 -0.23786521 0.24707715
-0.23500244 -0.24692999 -0.22615094 -0.25046897 0.26299614 -0.25904262 -0.27126253 -0.22580953
0.23182733 0.2721336 0.2603629 -0.22761165 0.2367393 0.26173747 0.24741025 -0.25628927
-0.2539768 -0.26767227 0.13816054 0.23761319 0.25376686 -0.24999845 -0.24802345 0.27164537
0.22476025 0.2591328 -0.22145195 -0.25174174 -0.2657369 -0.2571467 0.24896976 -0.25508243
-0.26951915 0.23020948 0.2640465 0.24128748 0.22866395 -0.22297221 0.26320398 -0.22937046
-0.26830775 0.2327873 -0.23180737 0.25186402 0.26862264 0.24533263 0.25594458 -0.24771397
-0.1553272 -0.24335821 -0.25110722 -0.2583801 -0.22859217 0.24688089 -0.27192703 0.2482965
0.25147393 -0.2436001 0.25951695 0.23053837 -0.26327494 0.2543616 -0.2189251 0.22160496
0.2123791 0.20038071 0.20885842 0.22246458 -0.20153761 0.22177745 0.21229282 0.17454442
-0.24946736 -0.1985659 -0.206516 0.22229308 -0.23037167 -0.20628847 -0.22479118 0.20595136
0.2190793 0.20649105 -0.20350263 -0.21878986 -0.20931388 0.18076944 0.20439889 -0.21203867
-0.21219622 -0.20856841 0.2341727 0.22528109 0.2167874 0.22374412 -0.23981644 0.20601796
0.20838545 -0.23412108 -0.21514969 -0.22372021 -0.16610508 0.23338689 -0.21866366 0.22845177
0.20139699 -0.23503429 0.23036993 -0.1976374 -0.21370125 -0.23106779 -0.20487803 0.20074451
0.17603649 0.22905664 0.22088379 0.22112963 0.2197536 -0.20215376 0.1987269 -0.21145357
-0.21849014 0.21437363 -0.20680697 -0.22821659 0.21804282 -0.21823548 0.23850513 -0.2406364
-0.21628422 -0.18852337 -0.19782037 -0.21509476 0.2154793 -0.19844316 -0.19844042 -0.1763194
0.228177 0.18832104 0.21183373 -0.20411447 0.24331267 0.21101262 0.23013176 -0.211907
-0.19785437 -0.20393221 0.18930781 0.23121934 0.19312093 -0.17413726 -0.1925421 0.19752659
0.22621606 0.20280759 -0.2433301 -0.21596856 -0.22242825 -0.2239718 0.22897477 -0.20817238
-0.19290264 0.21526115 0.20586887 0.21080984 0.15845314 -0.22217228 0.20392056 -0.2334652
-0.20208175 0.21320668 -0.20134039 0.2081938 0.19178969 0.20868754 0.19074836 -0.1947174
-0.1623438 -0.21531291 -0.2051306 -0.21165086 -0.23108755 0.19183388 -0.21506473 0.21084645
0.20724994 -0.2186612 0.21305256 0.2243034 -0.20198599 0.21588908 -0.2324993 0.21641943

encoder.dcrnn_cells.1.update.bias_pool f4 [2, 64]
00000000: 3789 63be b944 693e 2fed 933c e55f 913e
00000010: da51 00be fdaf 8d3e 4c29 d43e d064 6e3e
00000020: 7913 5c3e 59bf d4be a635 9ebe 98b8 4bbd
00000030: 9672 c23d 5c4f 2ebe 9c3e 48bd 774f c53e
00000040: 70a9 a83e 7120 943e 83a1 8abe f257 c43d
00000050: 92b1 35be 932e 7f3e af16 a83e 0c28 a6be
00000060: 2902 e33d 2720 8dbe e209 34be c7ab 9c3d
00000070: a287 3c3e bc14 42be 0f22 a9bd c886 9b3e
00000080: a74e 8f3e 2a4b f83d bed9 5dbe 9e36 7dbc
00000090: f567 5bbe b47f 30be 6ef2 b5be 8353 5bbe
000000a0: 13a8 a33e fb67 db3d f90f ee3b 2cd7 8bbe
000000b0: 319b 78be 0801 f53c 1fa9 91be e049 833e
000000c0: f599 963e f3a6 30bd 75be 6d3e a565 893e
000000d0: 6be5 61be c564 d1be 4572 bb3e d9db b5be
000000e0: c958 d6bd ca8a 7c3d 61ca 77be f699 fcbb
000000f0: d8e3 103e 63f7 cebe 4b8f 8cbe b9a6 8b3e
00000100: 025f cb3e a179 6a3e 369e 613e 0a3f ce3e
00000110: 9fc0 67be 6c10 2a3e 61f1 ccbd dea8 bd3e
00000120: 097c 8abc 5e50 cabe e954 ddbe e783 bc3e
00000130: 5d37 a8bc 4c36 2a3e c9f2 14bd e50e 203e
00000140: 06a6 173e 26d8 9f3e c69d c8be 8d6a 94be
00000150: b886 61be a0b7 c53e 6079 9f3e 59c5 9cbe
00000160: abf3 7cbe 23b2 8a3d e2e1 083d c360 1abe
00000170: f74e 93bd c2e8 b1bd 6cd4 ef3d 5cf1 e2bd
00000180: 8cca d83e 02d3 dcbe 1d02 5cbe 6bbe 66be
00000190: a644 d5be b253 7a3e 62c1 9b3c 57e4 8c3e
000001a0: 4f0d bc3e d660 bdbe 1a37 a03e 3fe7 65be
000001b0: d55c 3fbe c27c c1be e618 27be e3e0 b93e
000001c0: bc3f bc3e 4013 3e3d 6f95 08bd 1119 a63e
000001d0: c599 a43e 76f5 8dbe 698b 6a3e 97e7 c0be
000001e0: 0cd7 36bd 63c8 3b3e 607a e8ba 24bf c23c
000001f0: 100e 973e 424a d6be 0fd5 123e a59d 2bbe
-0.22220312 0.22780122 0.018057434 0.28393474 -0.12531224 0.2767333 0.41437757 0.23280644
0.21491803 -0.41552237 -0.30900306 -0.04973659 0.09494512 -0.1702246 -0.048887834 0.3853719
0.3294177 0.28931 -0.2707635 0.09587087 -0.17743519 0.2492011 0.32829806 -0.32452428
0.110843964 -0.27563593 -0.17581895 0.076499514 0.18411115 -0.18953222 -0.08258449 0.30376267
0.27989694 0.121237114 -0.21665093 -0.015454916 -0.21426375 -0.17236215 -0.35536522 -0.21418576
0.31964168 0.10713192 0.0072650877 -0.273126 -0.24277951 0.029907718 -0.28449342 0.256423
0.29414335 -0.043127965 0.23217185 0.2683536 -0.22060172 -0.40897194 0.36610618 -0.35519293
-0.10466153 0.061655797 -0.24198295 -0.0077087833 0.14149415 -0.40423116 -0.27453074 0.27275637
0.39720923 0.2289796 0.22033009 0.4028247 -0.22632073 0.16607827 -0.10006977 0.37042898
-0.016904848 -0.3951444 -0.43228844 0.36819384 -0.020534212 0.16622275 -0.03636435 0.15630682
0.14809427 0.31219596 -0.39182872 -0.28987542 -0.22024047 0.38616657 0.3114729 -0.30619314
-0.24702327 0.06772258 0.033418544 -0.15075974 -0.07192796 -0.08686973 0.11710438 -0.11081192
0.4234203 -0.43129736 -0.21485181 -0.22533576 -0.41653937 0.2444599 0.01901311 0.2751796
0.36728904 -0.36987942 0.3129204 -0.22451495 -0.18687756 -0.37790495 -0.16318092 0.36304387
0.36767375 0.046405077 -0.033345636 0.32441 0.32148567 -0.27726334 0.22904743 -0.3767669
-0.04463868 0.1833816 -0.0017736666 0.023772784 0.29502916 -0.4185353 0.14339088 -0.16759355
