CQ/result/P7_Resullt/DAYS/2dim/3/best_model.pth (torch_old, 603202 bytes, 11 tensors)

node_embeddings f4 [228, 2]
00000000: ab6f c83e 160a d7bc 0289 e13e 1090 2b3d
00000010: ae7e 8e3e 4f69 403e c4e4 713e 9a91 103e
00000020: 3c1e 713e f0e9 3f3e 8958 af3e af61 373e
00000030: d60e c13e 7f6d 203e 1003 d23e 4aea cf3c
00000040: 1f34 eebe 0096 79bc aca9 963e a577 6d3c
00000050: dad3 8d3e 488d bdbd aea0 f33e a632 713e
00000060: d923 1abf 8a9d 8aba c561 153e 028c b83e
00000070: f852 943e 4db8 c93c c889 f7be 6bad 983c
00000080: 3626 293e 3524 833e 2291 3c3e 8829 d03e
00000090: adc1 f63e 838b 193e 18df 8d3e 884c b63e
000000a0: c7fe cfbe 8d3c 793e 1892 b43e 0cfe 453e
000000b0: 64ff 913e 1826 a53e 9d38 8e3e 2f94 753e
000000c0: e703 d83e 362a e33d 190e 8d3e 526a 7e3e
000000d0: c3a2 f03d f863 eb3e d571 5c3e 8339 953e
000000e0: be26 af3e 587f 433e 6452 a7be 0ba6 5a3d
000000f0: bc69 e43e 8a03 f93d c5bc 623e 5d4e ca3e
00000100: aeba 573e 6d50 903e 7e7f 8c3e 8555 b03e
00000110: d4cc b83e 8a57 293e 76b5 653e 275e 9d3e
00000120: 12a2 713e f8db c93d b8fd e5be 4fec f03e
00000130: 4025 0e3e 6689 c13e b345 113f f9d9 353e
00000140: 2f33 7f3e cc82 a83e 6ed4 c33e 1cde 743e
00000150: 8510 d43d c085 aa3e 98f9 4f3e fe81 943e
00000160: 3451 443e d662 c93e 5fc9 813e 6082 b13e
00000170: 1576 313e 46db dc3e fc3a 943e 8cf6 ac3e
00000180: 9966 833e d07a a73e 6ed7 7d3e bee9 a93e
00000190: 22cb 673e 4038 a13e d6fb 993e 1b80 033e
000001a0: f6a4 ef3e 4788 c6bb 7b74 903e 689d 583e
000001b0: 8fca 543e 209c 9a3e 0282 cc3e c1ee c73b
000001c0: 10d7 4d3e 1816 a93e ab56 a93e 1b5e 8e3e
000001d0: 6f5c c63e 124d 283e 9d85 de3e 3011 5b3d
000001e0: 39e5 003f 1e1f b83d 915b ae3e a6c3 313e
000001f0: 72b5 4f3e c45b 853e 589e 823e 371c 43bd
00000200: 5057 df3e ec99 683d 82ea a13e f2be 053e
00000210: ae47 4a3e ab33 a73e 2edb aa3e cbe2 863e
00000220: 0ebc 813e aa74 853e 5911 d63e 3bee ea3d
00000230: ea99 793e d936 7b3e 5814 003f 4d8a df3d
00000240: 6703 9f3e c58c 643e f3c2 a53e 4be3 ac3c
00000250: 558f 903e ed06 753e a574 ed3e 9af4 84be
00000260: 91a9 2f3e 5a32 b33e 3b49 c03e 6f42 753e
00000270: b84a 8d3e 9691 823e cc3d 6a3e e6c4 9e3e
00000280: ad55 ae3e 09ae 20be ae72 b53e 183a 5a3e
00000290: e7c3 df3e da97 ce3d 15b4 c13e 85d0 bc3d
000002a0: 85b1 c83e 8eb7 143e 6abf 063f 378a 8d3e
000002b0: bf15 743e cbc0 a33e 2659 d33e 5e1e 8a3e
000002c0: add5 9e3e 9724 703e 38e1 90be d38c 613e
000002d0: 1f8d 03bf 340a 3c3d cca7 743e fc8e e93b
000002e0: 3864 833e 8244 f93d 8a1b 64be 377a 1e3e
000002f0: 4e54 f03e 9a1a 853e 44aa c43e 07d5 673e
00000300: 2d9a f63e 497b 603e 0397 893e 58db 793e
00000310: 60b9 6f3e 3d0e 9d3e d19c 993e e1f2 643e
00000320: 1406 a53e e973 613e 6f81 843e dd65 883e
00000330: f4e8 d03e 3de3 8d3e a516 963e 32f3 7f3e
00000340: 9490 df3e dcda 8a3e d394 1a3e b66b ba3e
00000350: cb5d e03e 0bbf f63d 26a6 5c3e 9fe7 c83e
00000360: 8d11 b83e 51b7 6c3e 6fba 733e b721 303e
00000370: d337 a03e 2681 fb3c b3ce f13d c0a5 933e
00000380: eaf7 033f 75d4 763e 3dab ec3e 1687 d23c
00000390: 1f23 2a3f 1b79 bbbe 9c94 713e 49e6 b53e
000003a0: 9446 c73e 378f 2d3e 1f3b 013f a159 c53d
000003b0: ba95 1f3f fe24 b4be 45c1 d1be e1b6 933d
000003c0: 5ce8 b53e da94 493e 87f6 e43e 99bb 203e
000003d0: 945b 1c3f f297 6f3e ac7f 663e f225 d93e
000003e0: 97d6 b43e d0e3 2d3e edcd 3abf 1efb b23d
000003f0: 726d 263f 6ee3 563e 3428 d33e 7f2e 4f3e
0.39147696 -0.026249927 0.4404984 0.041885436 0.27831024 0.18790172 0.23622423 0.14118043
0.2354669 0.18741584 0.34247234 0.17908357 0.3770663 0.1566677 0.41017962 0.025380272
-0.4652414 -0.015233517 0.29426324 0.0144938575 0.27700692 -0.09255463 0.47583526 0.23554477
-0.6021095 -0.0010575515 0.14588077 0.36044317 0.2896955 0.024624014 -0.48347306 0.01863738
0.16518483 0.2561356 0.18414739 0.40656686 0.48194638 0.14994626 0.2770927 0.35605264
-0.40624067 0.24339505 0.3526771 0.19335192 0.2851516 0.32255626 0.27777568 0.23982309
0.42190477 0.110920355 0.27549818 0.24845245 0.11749794 0.45974708 0.21527798 0.2914544
0.34209245 0.19091547 -0.32680047 0.053381007 0.4461192 0.12158878 0.22142322 0.3951291
0.21067306 0.2818636 0.2744102 0.34440246 0.3609377 0.165373 0.22432503 0.30735895
0.23596981 0.09856409 -0.44920135 0.4705529 0.13881397 0.3780014 0.5674698 0.17758931
0.24921869 0.3291229 0.38248008 0.23912853 0.10354713 0.33305168 0.20310056 0.29005426
0.19171602 0.39333218 0.25348946 0.3466978 0.17330201 0.43136042 0.28951252 0.3378185
0.25664213 0.32710886 0.24789211 0.33186144 0.22636083 0.31488228 0.30074948 0.12841837
0.46805543 -0.006058726 0.28213868 0.21153796 0.20780395 0.3019724 0.39942938 0.0061014597
0.20101571 0.3302467 0.33073935 0.27806172 0.38742396 0.1643565 0.43461314 0.05348319
0.50349766 0.0899031 0.34054235 0.1735979 0.2028406 0.26046574 0.25511432 -0.04763433
0.43621302 0.056787416 0.31624228 0.13061121 0.19753906 0.32656607 0.33370346 0.26344904
0.25338787 0.2606557 0.4181011 0.1147122 0.2437512 0.24532641 0.5003104 0.10915051
0.31057283 0.22319324 0.32375297 0.021104475 0.28234354 0.23928423 0.46378055 -0.25967866
0.17154528 0.34999353 0.3755587 0.23951124 0.27596068 0.25501698 0.22875136 0.31009597
0.3404974 -0.15691389 0.35439056 0.21311224 0.4370415 0.10087557 0.37832704 0.092194594
0.39197937 0.14523146 0.52635825 0.27644512 0.2383642 0.31983027 0.41278952 0.26976293
0.31022397 0.23451458 -0.28296828 0.22026376 -0.5138721 0.045908168 0.23892134 0.007127641
0.25662398 0.1217127 -0.2227613 0.15476309 0.4693932 0.25996858 0.38411152 0.22639857
0.48164502 0.2192203 0.26873025 0.24400079 0.23410559 0.30674925 0.30002454 0.22358276
0.322312 0.22016872 0.2588 0.26640216 0.4080273 0.27712432 0.2931415 0.24995115
0.43664992 0.271201 0.15095834 0.36410302 0.43821558 0.12048157 0.21547756 0.39239213
0.3595089 0.23116805 0.23801588 0.17200361 0.3129259 0.030701231 0.11807003 0.28837395
0.5155016 0.24104483 0.46224394 0.02569918 0.6645984 -0.36615834 0.23591846 0.35527256
0.38921034 0.16949163 0.50480837 0.09636236 0.6233784 -0.35184473 -0.40967765 0.07212616
0.3552884 0.19685689 0.44719335 0.15696563 0.6107724 0.23397806 0.2250964 0.42411762
0.3531997 0.16981435 -0.7297047 0.08739303 0.6501075 0.20985195 0.4124161 0.2023258

encoder.dcrnn_cells.0.gate.weights_pool f4 [2, 2, 65, 128]
00000000: 4b81 c33d 0e58 6abf e0d6 553e 3b5e 313e
00000010: dde0 df3d c16b 243e eb16 a8be 4e83 833e
00000020: 2c25 b8bf c123 9c3f 4335 573e 5e14 983e
00000030: a3c1 693e 273b 673e c5b0 cbbe 2d9e 9a3e
00000040: 43bc 1c3e ed4f 203e 2923 95bf 8ce9 7dbf
00000050: b4eb 803e 0f3c aabf 031e a63e e6ba d03f
00000060: fe0a e33e a74f 933e b7a4 f1be c6f6 51bf
00000070: 2f96 5b3e f26b 373e 561c e83e a84d 8abe
00000080: 0447 cabf 472d c6be 1758 81bf 399b 723e
00000090: c2b6 4c3e 00b8 5c3e 1d9c 483e 0b45 ee3e
000000a0: 3edf b23f 52f7 cfbe b0db 963e 58df 4c3e
000000b0: 4e61 813f dcfe 973e 89ad be3f 5625 233e
000000c0: 4bbe c43f 0833 c0bf de41 873e 1240 9f3e
000000d0: f969 74bf 59eb ec3e 4a29 8b3e cf32 723e
000000e0: 84b5 2b3e 9349 aa3e 19e6 e3bf 279e 0cbf
000000f0: ba10 333e 8da1 8c3e eaa1 b9bf 8ee1 223e
00000100: 1425 2dbf acfa d1be ea52 00bf 9884 13bf
00000110: 3923 debe 817c d0be 59d0 933e 9db2 babe
00000120: 979b 3abf 2d9d 97bf e983 16bf 7348 d0be
00000130: 2a8c 98be 9fce d3be a9c9 c63e 07cb 23bf
00000140: c7c6 d5be 4c7f 0bbf c5b4 17bf b1e6 2bbf
00000150: c8d6 b8be 5518 69bf 6aa9 8bbe e4b9 babf
00000160: b031 02bf 7c83 b5bd fef7 ecbd a0f9 1fbf
00000170: 2dc7 dabe d252 d9be aa32 05bf 0258 0d3e
00000180: efaa 2dbf e8d7 8e3d dcaa 09bf 70b2 96be
00000190: d095 e1be 7540 dfbe 1ec6 87be 1d19 1abf
000001a0: 2346 babf 9c9e b23e 7eba 4dbe ae14 d7be
000001b0: 882b 9bbf 4e68 a4be adf2 a9bf 0112 52bf
000001c0: cd92 b6bf d2dc 19bf 35f0 70be d8bc 46be
000001d0: 5fce ffbe 2422 30bf 393e cabe 3730 dfbe
000001e0: 46a4 e8be db72 86be f258 65bf d624 08bf
000001f0: 9511 0ebf 266a 71be 253b 31bf 0a63 eabe
00000200: d3f9 06bc 592c 303d bb5b 19be 7b42 11be
00000210: 244d 3cbd ea2d 81bd 243d 08bd 941a afbd
00000220: 6bcc 1739 0177 8fbd c953 01be 9437 afbd
00000230: bf4f 95bd 08e3 00be ed48 c33d 386a 5bbe
00000240: 9240 6fbd 69b1 bcbd 45ba 283c 2074 0f3d
00000250: a846 51bd 8be9 443c 8fbc 29bd 7a37 6dbd
00000260: c1e7 40be 8de9 7abd 0ba3 ecbb d1bb 143e
00000270: b701 b0bd b833 ecbd 1cbf 21be e21a d8bd
00000280: 4c66 263b fcd7 ebbd 09e0 c93b deef 7dbd
00000290: 48e4 08be a416 dabd dd4e 7dbd 350c f4bd
000002a0: 82c8 57bd aa4f f93d 671c 87bd 5096 98bd
000002b0: db07 fbbd becc a9bd f463 cabd 5213 d1bd
000002c0: 9909 afbd 455b 203b b301 34bd f015 63bd
000002d0: f1ef 413d 532a 1cbe 3d56 9bbd c4cb afbd
000002e0: ac31 99bd 7600 85bd 3361 aabb 44aa 323e
000002f0: eb3a d1bd 85b2 84bd 8d81 eb3c afe9 b5bd
00000300: 3b93 6c3d 5911 c13e d543 89be 409c acbe
00000310: ee0c 89bd b2a0 adbd 39be 023f 4f11 91bd
00000320: a14a 063f 273a eb3d 5c9c b8bd 188a f7bd
00000330: a8b9 6cbd e04e 53be 8456 ae3e dc01 86be
00000340: 9a27 afbd d900 a6bd 6a8f c73e 94fb b93e
00000350: 3935 83bd 3367 833e fe36 33bc 3f91 993d
00000360: ee08 6abe 971b 7d3b 89bb 0a3f 09c8 b83e
00000370: 9d3b 5ebd ffa4 3bbe 7d08 6bbe 9b07 943e
00000380: c6be 1c3f 875f 343e a151 c43e fde5 71bd
00000390: 4672 69be 934a 58be 5f8a 72bd fffd 32be
000003a0: 40fa 14be 3440 d03e d589 c0bb 5faa 7abd
000003b0: f72c 2cbe 7d57 6bbd c77d 643e 4929 47bd
000003c0: 8b6c 3e3e 8946 143f 6351 4ebd f6fc 793c
000003d0: 30b6 9f3e 1a1b 3bbe a7b0 a0bd ba16 cfbd
000003e0: 4021 babd bff7 37bd e451 233f c654 d63e
000003f0: 2336 bbbd 7ad0 47bc 443b 013f 1625 9bbd
0.09546145 -0.9154061 0.2088275 0.17321102 0.10931561 0.1605673 -0.32829985 0.25686115
-1.4386344 1.2198411 0.21016411 0.2970304 0.22827773 0.22581159 -0.39783302 0.30198804
0.15306191 0.1565549 -1.1651355 -0.9918449 0.25179827 -1.3299578 0.32444772 1.6307037
0.44344324 0.28771707 -0.4719598 -0.8201717 0.21444009 0.17912272 0.4533412 -0.27012372
-1.5802922 -0.3870642 -1.0105008 0.23692025 0.19991592 0.21554565 0.19590802 0.4653705
1.3974378 -0.40618378 0.29464483 0.20007074 1.010782 0.2968663 1.4896709 0.15932211
1.5370573 -1.5015574 0.2641744 0.3110357 -0.954742 0.46273306 0.2717994 0.23652194
0.16768461 0.33259258 -1.7804595 -0.5492882 0.1748685 0.27467003 -1.4502537 0.15906355
-0.676347 -0.4101156 -0.50126517 -0.57624197 -0.43386248 -0.4071999 0.28869894 -0.36464396
-0.7289366 -1.1844841 -0.5879503 -0.40680274 -0.29794437 -0.41368577 0.3882573 -0.6398167
-0.41753218 -0.54491115 -0.5926021 -0.6714888 -0.36101365 -0.9105275 -0.2727769 -1.4587979
-0.5085707 -0.08862969 -0.11570738 -0.6249027 -0.42730084 -0.42446 -0.5203043 0.13803104
-0.6783895 0.069747746 -0.53776336 -0.29433012 -0.4405961 -0.43603864 -0.2651834 -0.6019457
-1.4552654 0.34886634 -0.20090672 -0.42007965 -1.212266 -0.32110828 -1.3277184 -0.8205872
-1.426355 -0.6010257 -0.23529132 -0.19407976 -0.49962136 -0.68802094 -0.39500597 -0.43591473
-0.4543783 -0.26259503 -0.89588845 -0.5318121 -0.5549558 -0.23575649 -0.6923087 -0.45778686
-0.008238274 0.043011043 -0.14976399 -0.14185517 -0.045972005 -0.063075855 -0.033261433 -0.08549991
0.00014476634 -0.0700512 -0.12629618 -0.085555226 -0.07290601 -0.12586606 0.09535394 -0.21427238
-0.05841119 -0.09213526 0.010298316 0.035022855 -0.051092774 0.012018572 -0.04143959 -0.057914235
-0.18838407 -0.061257888 -0.0072215847 0.14524771 -0.08594077 -0.11533302 -0.15795559 -0.105520025
0.0025390564 -0.11515805 0.0061607403 -0.061996333 -0.13368332 -0.106488496 -0.061842788 -0.11916391
-0.052681454 0.12173398 -0.06597214 -0.07450545 -0.12257358 -0.082910046 -0.09882346 -0.10208763
-0.085467525 0.0024468463 -0.043946933 -0.055440843 0.047347967 -0.1525052 -0.07584808 -0.08583787
-0.07480177 -0.064942285 -0.0051995753 0.17447764 -0.10216316 -0.064793624 0.028748298 -0.08882462
0.057757597 0.37708548 -0.26809564 -0.3371296 -0.06691919 -0.08477916 0.51071507 -0.070833795
0.52457625 0.11485701 -0.09014198 -0.12086886 -0.057794243 -0.20635557 0.3405038 -0.26173294
-0.08552475 -0.081056304 0.38976604 0.3632475 -0.06406636 0.25664672 -0.010938404 0.074984066
-0.22854969 0.003862118 0.54192406 0.36090115 -0.05425607 -0.1832466 -0.22952457 0.28912053
0.612286 0.17614566 0.38343528 -0.059057225 -0.22797498 -0.21122198 -0.059213992 -0.17479704
-0.14548588 0.40673983 -0.005875806 -0.061197635 -0.16814028 -0.057456482 0.22313605 -0.048623357
0.18596093 0.5792013 -0.050370585 0.0152580645 0.31193686 -0.18272057 -0.07846194 -0.101117566
-0.09088373 -0.044914003 0.6379683 0.41861552 -0.09141185 -0.012195701 0.5048106 -0.07575433

encoder.dcrnn_cells.0.gate.bias_pool f4 [2, 128]
00000000: 2329 b83c 7128 b4be 4280 053d 4f9d 6ebd
00000010: 6ec6 243e 0ac9 4e3e ee59 6fbd 8296 4abd
00000020: 1ba3 37bd 070c 293d 6c36 983d fb94 5cbe
00000030: f260 09bd af00 953d 0f04 753e 7955 433e
00000040: c97c f1bc 8203 2a3e 7df7 8bbe 660b 62bd
00000050: 5b4c 5c3d 8624 48bd e17a 103e 3b65 b03c
00000060: 290f ad3c 426f 923d 4983 b9bd 1aae 8ebe
00000070: 3be4 8c3d 1a69 833d 4d76 503c 564c 2a3e
00000080: 1554 4a3d c264 513c 9f3f d4bc dbdc 6ebe
00000090: 0e75 b03c bd93 83bd c5cf ae3d cd2e f93d
000000a0: 801b 403c e2fd 773d 502d a8bd 73da 21bc
000000b0: ff26 c1bd a6b8 1ebe e9dc 3b3e b5b0 b9bd
000000c0: d365 48be 9015 f5bd dabe 1a3e 3afd 0ebd
000000d0: adc9 ce3b a64d 56be 3b88 23be c862 0d3d
000000e0: 5b35 84bd 12b2 003e 42f5 3cbc 500f cdbd
000000f0: 96f0 753c 4716 1c3c bea8 9cbd 6c27 8abd
00000100: 9742 f43d 3d8f b3bd 5299 dc3e 2d25 bf3c
00000110: 6bab a53d 0f49 b13d 850c efbe bcb6 cb3e
00000120: b7ed 86be 074e 4fbe 2568 9f3e f293 c23e
00000130: 3b02 a63e e356 9b3e 799a cdbe fe5e 3a3e
00000140: 36fd 013e 02ad 5e3c b6cb d8bd dc52 dfbe
00000150: 71ba af3e d310 8fbe 4e6a 803e 912f 2dbd
00000160: 01d8 e33e 11d0 603e e029 08bf dee8 bcbe
00000170: cf16 f33d a8d0 f63d 2a82 513e 7a6c e7be
00000180: bb7d c5bd 2f9f 27bf 83dd 99be 3086 783d
00000190: 920b b53e 6ac9 9d3e 40b0 9f3d 79f1 773e
000001a0: 4327 2c3d a9c4 60be 1427 8c3e 2996 1d3e
000001b0: 3637 0b3f 69c1 c33e 84aa 73bd 058c 623d
000001c0: 5e4f c93d 1f8e 0fbe 2dfb 1d3e 5dae 823e
000001d0: f6f2 c5be b950 573e 8c4a 7d3c b9f8 9f3e
000001e0: 325d 713e 5db2 303e 4037 85be 2992 f6be
000001f0: 3298 d23c 1211 153e 96a7 81be cb71 393e
00000200: 94e8 c3bd 2405 413e 07c6 5e3d a9bb e53d
00000210: 8735 3abc c1d4 bebd bd42 6a3e 0e3c 993c
00000220: 9117 d33d 6e8f d4bd 8017 37bd b4a8 5b3d
00000230: be11 063d 1c04 3b3e 7cf7 91bd 8c31 c73d
00000240: 5092 16be e25f cc3d 52e9 8b3d b008 b83e
00000250: 74e9 83bd f9d0 2e3e 8767 853d 2c5a 6b3e
00000260: ad69 f73b 8d6f 8bbd e81d 3b3d dc1b 633e
00000270: 66b8 3cbd b481 8dbd 61ef ab3d 8262 acbd
00000280: 784b 193e e5f1 cbbd 8cb8 a03e d12d 303e
00000290: 360c e13d 06f9 693d 3e8c 813e d678 dbbd
000002a0: 1df5 94bd 87e2 7a3d dad0 cb3d d979 983c
000002b0: 0a3e 9d3c 4b31 013c a013 753d 2d7c 813e
000002c0: 1aeb 783e 931b fb3d 904a 8cbd 6c3c b5bd
000002d0: 7150 b03d 969f a03d e1e6 0bbe 1892 b2bd
000002e0: 7bd6 9d3d f266 633e 9fcd bc3d 7666 903e
000002f0: 3a57 66bb da8c 073e 886f 99bd 305d c93d
00000300: e400 3e3d 6b7d 5a3b d51f d33e c3a5 993e
00000310: 85a0 6b3e 55a5 a13d a615 fe3d 0bd7 bc3d
00000320: 477a d93c 0cbd 8ebe 5cf3 a23d 1ffe c73e
00000330: ae37 aa3e cdf9 bc3e 0b18 70bd c7c9 533e
00000340: 1833 a53d 80ee ab3e 1120 93bc e9e5 5bbe
00000350: 4311 be3d 5ef2 b7be 69f9 0d3d f213 f7be
00000360: dcb7 e33e 82fe 4f3e da0f 01bf 7721 5cbe
00000370: eb4b c83d 244a aa3e 5fa1 a73e 0582 00bf
00000380: 7984 52bd 6d14 28bf 26fa e0bd 6889 a83e
00000390: ec7e f53d d041 f23e 899f d83d 58cd 3b3e
000003a0: 8ac7 fb3d 1dd2 8fbd 5cfb ffbc 3475 c83d
000003b0: cedd 6dbe 1347 be3e b9c6 1b3d 9f9e ad3e
000003c0: 94cc 59be d1f9 aebe 6f04 ef3d b6a5 cb3d
000003d0: bdbf c4bd 68d4 dc3d c92e b83e 3a90 fd3c
000003e0: 2bbc d43d cb59 a53e 8d31 97be 2e7b 12be
000003f0: a9fb e33e 61c3 8dbc caa8 79be 7d21 853d
0.022480553 -0.35187104 0.03259302 -0.05825549 0.1609132 0.20193878 -0.058435373 -0.04945994
-0.044833284 0.041271236 0.07432255 -0.21541207 -0.03353972 0.07275521 0.2392733 0.19075574
-0.029478448 0.166029 -0.27337256 -0.05518665 0.053783756 -0.048862956 0.14109375 0.021532645
0.021125393 0.07150127 -0.09058244 -0.27867204 0.06879469 0.06416531 0.012723518 0.16630682
0.049396593 0.01278037 -0.025909243 -0.23326437 0.021540191 -0.06424663 0.08535723 0.1216713
0.0117253065 0.060544856 -0.08211768 -0.0098787425 -0.09431266 -0.15500125 0.1834599 -0.09066907
-0.19570093 -0.11967003 0.15111867 -0.034909464 0.0063106627 -0.20928058 -0.15969937 0.034518033
-0.06455489 0.12567928 -0.011533083 -0.10012686 0.015010973 0.009526796 -0.076493725 -0.067458004
0.119267635 -0.08767555 0.43085724 0.023333156 0.08089336 0.08656513 -0.4668924 0.39787853
-0.26353237 -0.20244609 0.31134143 0.38003498 0.32423577 0.30339727 -0.40156916 0.18200299
0.12694249 0.013591053 -0.1058573 -0.43617904 0.3432193 -0.27942523 0.25081104 -0.04228169
0.44500735 0.21954371 -0.53188896 -0.36896414 0.11869585 0.12051517 0.2045981 -0.4519995
-0.09643122 -0.6547727 -0.30051813 0.060674846 0.3536039 0.3081773 0.07797289 0.24213208
0.04202963 -0.2195002 0.27373564 0.15389313 0.5438112 0.38233498 -0.05948879 0.055309314
0.09829591 -0.14019059 0.15427847 0.25523654 -0.38661927 0.21026887 0.015459668 0.31244448
0.23570707 0.1725554 -0.26018715 -0.48158386 0.025707338 0.14557293 -0.2532317 0.18109815
-0.09565845 0.18849617 0.054388072 0.11217434 -0.011365301 -0.09317923 0.22877021 0.018705394
0.10307229 -0.103789195 -0.044700146 0.053627685 0.032731764 0.18263286 -0.07127282 0.09726247
-0.14704251 0.09979226 0.06831612 0.35944128 -0.06441012 0.17071904 0.06513887 0.22983617
0.0075504393 -0.06808386 0.045682818 0.22178596 -0.046074294 -0.069095045 0.08395267 -0.084172264
0.14970195 -0.09958247 0.31390798 0.17204978 0.10988657 0.057122253 0.2530231 -0.10716407
-0.07273314 0.06125119 0.09951945 0.018612789 0.019194622 0.0078852875 0.05983317 0.2529005
0.24308434 0.12261119 -0.06850159 -0.08849415 0.08609093 0.078429386 -0.13662292 -0.087192714
0.077069245 0.2220724 0.092189066 0.28203171 -0.0035147206 0.13237324 -0.07491976 0.09832227
0.046387568 0.0033338915 0.41235223 0.3000928 0.23010452 0.07892863 0.12406473 0.09220704
0.026547564 -0.27878606 0.07956573 0.39061067 0.33245605 0.36909333 -0.05861668 0.2068244
0.08066386 0.335804 -0.017959626 -0.21474423 0.09280636 -0.359271 0.034661684 -0.48257405
0.4447621 0.20311931 -0.5041481 -0.21497141 0.09780105 0.3325969 0.32740304 -0.50198394
-0.051395867 -0.6565617 -0.10985212 0.32917333 0.11987099 0.47315836 0.10577304 0.18340051
0.122939184 -0.07022498 -0.031247787 0.0978798 -0.23229143 0.371636 0.038031314 0.3391008
-0.21269447 -0.3417497 0.116707675 0.09943716 -0.09606884 0.10782701 0.35973194 0.030952562
0.10387453 0.3229507 -0.29529992 -0.14304802 0.4452794 -0.017305078 -0.24380794 0.06500528

encoder.dcrnn_cells.0.update.weights_pool f4 [2, 2, 65, 64]
00000000: ce87 39bf 58b6 bdbf 20ed 8a3e 691c b1be
00000010: bb18 2a3f 27e8 11bf 737b bbbf 3b0e f33e
00000020: 0026 d5bf 3e01 423f 7b1b b03e 68e7 e4be
00000030: 539e 01bf 82f2 b2be 5882 9d3f 85c5 14be
00000040: 40d7 1abf 9d17 f03e 8a9b 96bf c47e b13f
00000050: db3f 2a3f 759d b1bf d27c 53bf 05d9 6c3f
00000060: fde3 5cbe 5443 953f 6372 d7bf b164 9fbf
00000070: 4fc5 f33e 1cab ca3e fc33 793e 0702 c8bf
00000080: e911 f2bf e2d8 d33f 46c8 91bf 4950 243f
00000090: bfb7 9b3e 63c6 ab3e a9cb 263f c261 a4be
000000a0: c370 6e3f 71f1 a43f 40c8 5bbf 281d 0abf
000000b0: a729 693f 1c1e 11bf 4881 43bf a760 00bf
000000c0: d01e 543f de05 ebbf e095 483f f879 6cbf
000000d0: 6070 9abf 5ab6 4ebe 836a 0c3f 5d20 dabe
000000e0: 6ad1 e63e 85ff 25bf 352f f83f 8f76 b83f
000000f0: e621 d23e 2977 333f 562a df3f 75f3 09bf
00000100: 8d19 523d 83f4 2ebe 70c9 0a3d 6e2d 2dbd
00000110: 5150 edbb 8005 c53c 207d 11be 383e 01bc
00000120: 8812 09be 6c85 34bd 23a3 6a3c 49b0 ddbc
00000130: 7253 953c 6355 b1bc 49ae e03d 7542 723c
00000140: 7c73 86bc 269c 1dbc 2feb febd c273 193e
00000150: b8c0 b6b7 1892 13be dfbf 14bb 2b9f a1bc
00000160: 5c42 363b 899e 533d b94a 08be 369c e0bd
00000170: e97b 7c3c e3a3 143d 79e7 883c 595f fbbd
00000180: 243c d7bd 2623 133e 35d8 19be 3b8c 343c
00000190: accc bf3c cc9d b13c 6362 dcbc 4d4e c4bc
000001a0: 86db f3bd 0d01 d13d 1e5e 4cbd 7548 f9bc
000001b0: 8967 eebd 1d6c cc3b f527 d73d 30bb 183d
000001c0: cdb6 f9bd 7c58 08be 03f6 103c cd98 aabc
000001d0: 4f55 12be 95fc 27bc a797 9d3c e8e3 0b3b
000001e0: 9bad 9d3c c40e f0bc 729b 9ebd f0b3 0e3e
000001f0: afb3 003d bef3 003c 1c22 013e fc94 c63b
00000200: 07da 27bc 31af 02be c1a5 493e d0c0 1abe
00000210: bffe 613d 1ba8 85bd 9fce 58be 8618 2b3e
00000220: cb8e a9bb ca7b 863d 932f ae3d 5002 f1bd
00000230: ecc6 22be fde1 16be da20 673d 8844 8ebe
00000240: 18cf 68bd b960 c93d aa70 bbbd 2e98 1d3e
00000250: 6385 5d3d 1d6f c3be 9b74 40bd 3dcf c73d
00000260: 09b6 82be 21e1 e3ba 071e bbbe c9c8 2dbe
00000270: 5b73 063e 2406 083e 78c0 893e 07a0 97be
00000280: 1753 eabd a2a2 b73e c284 a0bd 483c c23d
00000290: 38ad 583e b8f1 273e c61a d33d 4b80 84be
000002a0: 8015 853d 97c8 933d d68a 44bd e77a cabd
000002b0: 2953 ed3d 110b c1bd 66d6 fabd fcb1 03bd
000002c0: 663a cd3d 9104 bdbd 8234 ea3c 21bb 95bc
000002d0: 8fa3 96bd dbe2 94be 5941 ad3d fe73 1cbe
000002e0: cffa fc3d 3b6e f9bd a973 e7bc c2c3 903e
000002f0: 60a6 e43d 4ba0 963d 484e 143e 948f b5bd
00000300: 83d1 aabd 99c5 b33d 153c c83d 9cd5 cfbd
00000310: b4f5 843d 0b05 55bd e003 813d 6202 9c3d
00000320: 140a 103e 850c d23d 0539 853d 63af 6bbd
00000330: a838 a0bd f576 c8bd ff02 fcbc afe2 cbbd
00000340: b679 6dbd 3fe3 833d 0474 003e 2ad8 d1bd
00000350: c0d6 843d 02d4 2a3d fb04 72bd 40b6 b13d
00000360: 8043 c1bd 47a1 393d 42e7 8d3d 91dc 9e3d
00000370: 40fd a33d b8fa 793d 5865 b23d a4ad bd3d
00000380: 8371 243e 7628 cdbd e84e 153e 2f14 733d
00000390: 68c7 a13d 3e67 6e3d e021 513d 441f 86bd
000003a0: 57ec 2f3c 0908 10bd f430 4bbd 8b96 2fbd
000003b0: 138c a7ba 7565 33bd 9f31 c8bd 986c 9abd
000003c0: 4096 c03d 8b4e 333e 0a9a 313d 33e7 04bd
000003d0: 84ff f33d 70f5 c6bd d570 613d c81a 8fbd
000003e0: 28f2 913d e3f7 ebbc 1374 71bd 6560 94bd
000003f0: 06b5 b63d bda6 ef3c 83f3 bcbd be9d a0bd
-0.72472847 -1.4821272 0.27134037 -0.34591988 0.66443986 -0.5699486 -1.4647049 0.47471794
-1.6652222 0.75783145 0.34395966 -0.447078 -0.5063221 -0.34950644 1.2305403 -0.14528473
-0.60484695 0.46893016 -1.1766217 1.3866811 0.66503686 -1.3876177 -0.82612336 0.92518646
-0.21571346 1.1661172 -1.6831783 -1.2452604 0.47611472 0.3958367 0.24336237 -1.5625619
-1.8911716 1.6550562 -1.1389244 0.64185005 0.30413625 0.33549795 0.6515451 -0.32105833
0.9314081 1.2886182 -0.8585243 -0.5395074 0.9107918 -0.5668657 -0.7636914 -0.5014748
0.82859516 -1.8361166 0.7835369 -0.9237361 -1.2065544 -0.20186749 0.54850024 -0.42602816
0.45081645 -0.64843017 1.9389406 1.4411181 0.41041487 0.701037 1.7434795 -0.5388711
0.0512939 -0.17085461 0.033883512 -0.042279653 -0.0072422405 0.024050474 -0.14207888 -0.007888369
-0.13385975 -0.044072554 0.014321121 -0.027061598 0.018228266 -0.02164716 0.10970742 0.014786352
-0.01641249 -0.009619748 -0.124472015 0.14985564 -2.1785832e-05 -0.14411199 -0.0022697372 -0.019729218
0.002781055 0.051664863 -0.13309754 -0.10967295 0.015410402 0.036289107 0.016711937 -0.122740455
-0.10509518 0.14368877 -0.15023883 0.011019762 0.023413025 0.021681689 -0.026902383 -0.023963118
-0.11907105 0.102052785 -0.049894445 -0.030430058 -0.116408415 0.006238474 0.10505668 0.03728789
-0.121930696 -0.13315004 0.008847716 -0.020824814 -0.14290355 -0.010253091 0.019237353 0.002134556
0.01924782 -0.029303916 -0.077444926 0.13935828 0.03142136 0.007870613 0.12610668 0.006060241
-0.010244853 -0.12762143 0.19692136 -0.15112615 0.055174585 -0.06526204 -0.2117257 0.16708574
-0.005174493 0.0656658 0.08505168 -0.11768019 -0.15896195 -0.14734645 0.056427814 -0.2778666
-0.056838125 0.098329015 -0.09152348 0.15390083 0.054082286 -0.3817071 -0.046986204 0.097563244
-0.25529507 -0.0017385819 -0.36546347 -0.16971125 0.13129942 0.13283592 0.26904655 -0.2961428
-0.114416294 0.35866266 -0.078378215 0.09484154 0.21159828 0.16400802 0.10307841 -0.2587913
0.064982414 0.07215994 -0.047983967 -0.09886723 0.11588127 -0.09425939 -0.122479245 -0.03215216
0.10020904 -0.092293866 0.02858949 -0.018277707 -0.07355415 -0.29079327 0.0845973 -0.15278623
0.123525254 -0.12179228 -0.028253393 0.2827435 0.11164546 0.07354792 0.14482987 -0.08865276
-0.083407424 0.08777923 0.09777085 -0.10148165 0.06492177 -0.052006762 0.06299567 0.07617642
0.14066344 0.10256294 0.06505016 -0.05754031 -0.07823306 -0.09788314 -0.030763147 -0.09955346
-0.0579774 0.06439828 0.12544256 -0.10246308 0.06486273 0.041706093 -0.05908678 0.086773396
-0.09436703 0.04531982 0.069288746 0.077569135 0.08007288 0.06103012 0.08710736 0.09261635
0.16058926 -0.10017483 0.14580882 0.05934542 0.07899362 0.05820393 0.051057696 -0.06548932
0.0107375 -0.035163913 -0.049607232 -0.04286818 -0.0012782834 -0.04379793 -0.097750895 -0.07540244
0.09403658 0.1751043 0.043359794 -0.03244705 0.1191397 -0.09714782 0.055039246 -0.0698753
0.07126266 -0.028804725 -0.058948588 -0.07244948 0.08921246 0.029254312 -0.09226134 -0.07842587

encoder.dcrnn_cells.0.update.bias_pool f4 [2, 64]
00000000: 12d2 2bbe 95ff 64be 9bcc a63e e257 a4be
00000010: d623 003e 44ab 5abe 824e b63c 1a9f b33d
00000020: 3f82 92be 8d14 313e 895d a83e aa58 b3bd
00000030: a136 dfbd a7e5 5cbe 0fce 78ba b812 52be
00000040: fc43 f9bd 8a1b 663e 0502 b7be e9d2 ab3e
00000050: 72bf d33d 8c3c bbbd 577d 8e3c 2bd9 643e
00000060: 85a5 9dbe 0f0a 30bd a231 b3bc 1942 d4bd
00000070: 15dc 2d3e 309d 1e3e f73f a53e e39a a63d
00000080: 94c8 92be dbca 82bd 2c71 acbe 473b bc3d
00000090: 67d4 6f3e 18ea 883e 044d d73d 3464 2ebe
000000a0: 8f40 8e3e 0825 49bc 8116 4c3d e373 22be
000000b0: 2016 2d3e d6de d3bd ccb8 8ebe 85fd aebe
000000c0: f530 6d3e 5bf6 84be e24c 843c 28a3 ad3c
000000d0: bee3 a6be 8beb a4be ab41 083e 58a6 19be
000000e0: 4352 293e 45fd a53c c1d4 593e 6332 c6bd
000000f0: c1c2 8e3e c9e7 cd3c f636 fc3d 6400 87be
00000100: 6064 90be 5abf b63e 0bf4 703d 5fca 84be
00000110: cbdd 703e 3345 08be e3d5 bb3e 029b 963d
00000120: 9c50 8b3e 47ae a2be 23de 983e 58ec 9ebe
00000130: 5427 83bd 3246 38be b95f a5be 4369 413e
00000140: 2cdb 78be 3524 9e3e 3ba4 a43e 471e a1be
00000150: 7ad0 9b3e 9679 4c3e 4ca4 44be 4626 efbe
00000160: 4db3 2e3e 1992 9f3e c7df d13e 3231 793e
00000170: 7c4b bd3d 9991 4c3e 139e 22be f622 7c3e
00000180: e51c 883e 0307 9fbe 84e4 843e fb22 053e
00000190: 44c3 3a3d 561c 173d c92d c23d 213b 2e3e
000001a0: b816 fabe 7c75 96be 8fac 693c 3d97 52be
000001b0: 0075 e8be 45c6 d5bd e22b d63e 5514 97be
000001c0: 46c6 ccbe 7eac 723e 2669 9b3e 1eac 70bd
000001d0: 84a4 ac3e 3d8a 293e 6430 5b3e 0e64 e8bd
000001e0: fe2a 293e a63b 6c3c f905 5dbe 92c8 1ebe
000001f0: 3294 9d3e a3d1 193d 1d74 4dbe 3999 1fbe
-0.16779354 -0.22363122 0.32577977 -0.320983 0.1251367 -0.21354395 0.022254232 0.087705806
-0.28614995 0.17292996 0.32883862 -0.08757146 -0.108990915 -0.2157198 -0.00094911543 -0.20514953
-0.1217117 0.22471443 -0.35743728 0.3355935 0.1033925 -0.09142408 0.017393751 0.22348468
-0.30790344 -0.042978343 -0.021874253 -0.103641696 0.16978486 0.1548965 0.32275364 0.08135011
-0.28668654 -0.06386348 -0.33680093 0.09190994 0.23420869 0.267411 0.105127364 -0.17030412
0.2778363 -0.012276895 0.04982615 -0.1586452 0.16902971 -0.10345237 -0.27875364 -0.34177795
0.23163207 -0.25969204 0.016149942 0.021195963 -0.32595628 -0.32210955 0.133063 -0.15004861
0.16535287 0.02026237 0.21272565 -0.09677579 0.2788296 0.025134938 0.123151705 -0.26367486
-0.2820158 0.35692865 0.058826488 -0.25935647 0.23522107 -0.13307647 0.3668662 0.07353784
0.27209938 -0.31773588 0.29856977 -0.3103969 -0.064039856 -0.17995527 -0.32299593 0.1888781
-0.24302357 0.30887 0.32156548 -0.31468412 0.30432492 0.19968256 -0.192033 -0.46708888
0.17060585 0.3116615 0.4099104 0.24335173 0.09242913 0.19977416 -0.15880613 0.24622712
0.26584545 -0.31060037 0.25955594 0.13001625 0.045596376 0.036892258 0.09481389 0.17014743
-0.48845458 -0.29386508 0.014262333 -0.20565505 -0.45401764 -0.104382075 0.41830355 -0.295077
-0.3999502 0.23698613 0.3035366 -0.058757894 0.33719265 0.1655664 0.21405178 -0.11347209
0.16520306 0.014418518 -0.2158431 -0.15506199 0.30777127 0.03755344 -0.20063825 -0.15585794

encoder.dcrnn_cells.1.gate.weights_pool f4 [2, 2, 128, 128]
00000000: dce4 3b3e c5a9 1cbe a64f fb3d f5e1 013d
00000010: 4473 dfbc 73b2 9fbd 5a2e a3bd 6694 f5b7
00000020: 0b46 893d 190b 8dbd e39e 81bd 83e6 133c
00000030: d8b8 bf3d 03ea 8b3c 10c2 613c 24f1 b0bc
00000040: d347 2e3d 30e8 e6bd 12a5 8bbe 6147 183e
00000050: e77f d03c b51b 873d b419 ad3d c8bf 623d
00000060: 977b 153e 4f2d 3dbc 3713 013e 276a eb3e
00000070: 7640 1cbd ad6a 233e 730b 383e cbc7 be3c
00000080: 0fa6 073d 6709 b23d 0b7a 6f3d 8d1d 61bd
00000090: 47ba a63c db5e 263e 5c9c 493d ac34 2f3e
000000a0: 6de0 8abe e71c 0e3e 934c 17bd c921 083d
000000b0: 52b7 143d c3a8 893d 1002 6abe e5f1 643d
000000c0: 18b3 13bd c284 3f3e ecc8 bf3c 29c6 3a3d
000000d0: 1485 493e 4e3b 383d da07 e0bd a8f9 c3bc
000000e0: bb40 7cbe 2781 36be 0916 15bd 66ad 803e
000000f0: 99be e33c 3251 143d f5c2 653e 0c21 b43d
00000100: 13b8 cb3e 5d4f 483e a983 263e e21c 643e
00000110: f755 323e e53e 1e3e 5d9e 373e 6a85 043f
00000120: 354c 8c3e f74b 2e3e 40b3 303e 0310 c63e
00000130: 2aef 3e3f 3bd2 883e d505 433f 5e6e 8e3c
00000140: 427d 423e 71fa 393d 2a54 8abd 06e7 ac3e
00000150: 0c26 303e e287 f93d 9c47 4d3e 0785 c83d
00000160: 8e58 ba3e 389e fd3d 8f4d 323f 6823 433e
00000170: 749e f43d f5da 503e fbaf dc3e c051 6cbc
00000180: b81a e13d c4b6 b33e e9a9 423d 16ef 953e
00000190: 75c7 283e ce99 af3e 52f4 c83e d134 c43e
000001a0: 15c6 973e 0efe bc3e abf0 373f 72a2 013e
000001b0: 3d29 013e 72c0 873f 0f3f 9d3e 9a75 553e
000001c0: c0aa 743e dd6a f13e 2bcb f83e b81b 3e3e
000001d0: 9ff1 b53e ab23 323e a872 8a3d 6e65 bc3e
000001e0: 1263 813e 594b 383e f284 5c3e 5450 073f
000001f0: e307 243e 0cb0 413e b03d 9f3e 8fee e5bd
00000200: f0e9 6ebd 54c7 b2be 34e0 f63b 4944 47be
00000210: 160b 1bbe 3a38 eebe fec3 30bf 271f 54bf
00000220: e062 323e 466a cfbe 3e7a f6bd 3354 49be
00000230: 3221 5d3e efe8 04bf fb28 08bf b804 8dbe
00000240: 6228 80be d22e debe c681 8fbf 99eb 9e3d
00000250: af56 51be d941 23bf 2d44 dfbd 14ef 13bf
00000260: 7d44 d83d 3167 40be 8dfd 23bd f249 9dbd
00000270: d265 b6be 0178 d3be 393e 48be 53fe 03bf
00000280: f3d1 8bbe 67e5 a83c c4d5 92be b164 8abe
00000290: 3320 3dbf 27cb 30bc 826c 11bf bd9b 93bc
000002a0: 935e 9cbe ef1f d33d 7f6b 91be 3ad5 97be
000002b0: 99b0 9cbe b9d2 62be 6575 69be b09e ddbe
000002c0: 28e3 0cbf f7b6 1a3e dd84 22bf f9cd 80be
000002d0: ff2c 91bd 4aff 80be a78d d7be a608 0dbf
000002e0: dfb9 f2bd da8e 89bd f8e9 9ebe 0ae5 97bd
000002f0: d7f5 25be 4759 5cbe 51ed bdbd 6885 6ebd
00000300: 4595 0e3e b7d3 033f fa45 a13e b2ae c93e
00000310: 3ee0 d73e 5831 fa3e d0e1 f73e 9165 d93e
00000320: 83c6 3f3e 0427 cb3e e044 ce3e 0b6a f03d
00000330: 2b27 4d3e 7d24 de3e 81b9 343d ab12 163f
00000340: 0b0b db3e 1a85 d13e 3a48 3b3f b577 1e3e
00000350: 16e7 be3e b8b2 18bf bf39 dd3e 2b6a 263f
00000360: f3f5 4d3e fe33 0b3f e4bc 093e f3f2 c53e
00000370: e46b f33e b859 183f 1d0c a73e 6802 103f
00000380: 6490 f33e 8878 293e 46b2 f33e 16f5 873e
00000390: 310b 3e3f f9bf 2c3e 94b2 003f abd5 223e
000003a0: 272f 233f fe47 4f3e 128d f33c 7c6a f03e
000003b0: d861 c83e 90d8 7b3d a39f 013f 4987 da3e
000003c0: a2b5 263e 97a5 1e3e 7ef7 cf3e e055 dd3e
000003d0: dac0 913e 5967 d53e 6f27 393f 503c 153f
000003e0: 0fd9 d43e 489f c43e 7301 ef3e f930 e1bb
000003f0: 2692 c83e 51c0 d53e 3a20 5c3e 4758 f83e
0.18349022 -0.15299137 0.12271051 0.03170963 -0.027276643 -0.07797708 -0.07967825 -2.927538e-05
0.06702813 -0.06886882 -0.06329133 0.009027126 0.09361428 0.017079359 0.013779178 -0.02159936
0.042548966 -0.11274755 -0.27274376 0.14870979 0.025451614 0.065970816 0.08452168 0.055358678
0.14597927 -0.011546447 0.12604986 0.45979425 -0.038147412 0.15958662 0.17973118 0.023288628
0.03311735 0.086931996 0.058466 -0.054959822 0.020352496 0.16247122 0.04922138 0.17109936
-0.27124348 0.13878213 -0.03693826 0.033235345 0.03630764 0.06721642 -0.2285235 0.05589475
-0.03605947 0.18702987 0.023411237 0.045599137 0.19679672 0.044978432 -0.109389976 -0.023922756
-0.24634068 -0.17822705 -0.036397967 0.25132293 0.027800845 0.036210246 0.22437651 0.08795366
0.39788875 0.19561525 0.16261162 0.22276643 0.17415605 0.1545368 0.17931505 0.51766074
0.2740189 0.17021166 0.17255878 0.3868409 0.74583685 0.26722893 0.76180774 0.017386612
0.18993095 0.045404855 -0.06754334 0.33770007 0.17202014 0.12184121 0.20046848 0.09790998
0.36395687 0.123836935 0.69649595 0.19056475 0.11944285 0.20396025 0.43103012 -0.014423788
0.10991424 0.35100377 0.04752532 0.2928397 0.16482337 0.3429703 0.39248902 0.38321546
0.29643312 0.36912578 0.71851605 0.12659624 0.12613387 1.0605605 0.30712172 0.20845643
0.23893261 0.47151843 0.48592505 0.18565261 0.35535905 0.17396419 0.0676015 0.36796135
0.25270897 0.17997493 0.2153509 0.52856946 0.16018634 0.18914813 0.3110175 -0.11227142
-0.05832857 -0.349177 0.0075340513 -0.19459642 -0.15140948 -0.46527272 -0.6904906 -0.82860035
0.1742053 -0.40510768 -0.120350346 -0.19661026 0.21594694 -0.5191793 -0.5318753 -0.27542663
-0.2503081 -0.43395096 -1.1211479 0.077597804 -0.20443223 -0.6377235 -0.109016754 -0.5778668
0.10559938 -0.18789364 -0.040036727 -0.076801196 -0.35624558 -0.41302493 -0.19554986 -0.5155994
-0.27308616 0.0206172 -0.28678715 -0.27029946 -0.7387726 -0.010790623 -0.56806195 -0.018018598
-0.30540904 0.10308825 -0.28402326 -0.29654866 -0.30603483 -0.22150697 -0.22798689 -0.4328513
-0.5503411 0.15108858 -0.63483983 -0.25157145 -0.070886604 -0.2519477 -0.4210026 -0.5509132
-0.11851858 -0.067167 -0.3103788 -0.074167326 -0.16207062 -0.21518432 -0.0927378 -0.058232695
0.1392413 0.51494926 0.314987 0.39391094 0.4216327 0.4886577 0.4841447 0.42460302
0.1872807 0.39678204 0.40286922 0.11738976 0.20034473 0.43387213 0.044122223 0.58622235
0.42781863 0.4092186 0.73157084 0.15475352 0.3728568 -0.59647703 0.4320812 0.6500575
0.20113353 0.5437621 0.13450962 0.38661918 0.47543252 0.595119 0.3262643 0.5625367
0.475711 0.16549885 0.4759695 0.26554173 0.74235827 0.16870107 0.5027249 0.1590182
0.63743824 0.20242307 0.029730354 0.4695624 0.3913715 0.061485827 0.5063421 0.4268134
0.16280225 0.15492855 0.4061851 0.4322958 0.28467447 0.4168041 0.72325796 0.58295155
0.41571853 0.38402772 0.46680793 -0.006872293 0.39174002 0.41748288 0.21496668 0.4850485

encoder.dcrnn_cells.1.gate.bias_pool f4 [2, 128]
00000000: de7a 67be 2c6b 503e ef6c 183e f597 b23d
00000010: 0424 24bc 9093 c33d fa39 313e 473e a03c
00000020: 8dad c33e 663e 73be 3e50 e23c 674b 10be
00000030: 68b2 af3e ec57 04be e8cb 4fbe 4f00 af3c
00000040: b4ee 1e3c bb3a f43c da22 7abe a0a5 2a3c
00000050: 8950 b03d 4c3c 123d 2972 a3bd ded8 4fbd
00000060: 2741 21be 2bff 373e a8ec 9a3e 4f3a 0abe
00000070: e0ac f6bc e895 13be b1c7 9a3d d64b 1bbe
00000080: dcab a6bd 98c8 b13d 8b1e 203d 0e21 31be
00000090: b2a9 3cbe da3d 073e dca0 d5bd 9a69 353d
000000a0: 0ce2 50bd 127e 65be aa21 b73d 88a1 5eba
000000b0: bb45 f0bd 7cc4 a6bd 0f18 653e 1aae aebe
000000c0: 2ad9 14bd 1610 c8bd 0c0d 383b 46ac 50be
000000d0: b070 93bb 0b3d 023d 490c edbc 300f 01be
000000e0: 19cd 13be 34f1 493e 5703 2ebe 3636 86bd
000000f0: 92d1 5abe 126b 50be 624e ab3d 610c 8b3e
00000100: 2c0e 54be 0e5f 85be 36d3 88be 50a1 a7bd
00000110: cc3e edbc b477 533e b1a6 203e 0158 5ebd
00000120: 3e56 6abe cf3f dcbd 5e8a 90be 095f 61be
00000130: 9dc2 16bf 6076 49bd 5a6b 30bd 30bf 90bd
00000140: 82ee f7bd 074a c639 b19d 013e 31f4 38be
00000150: 07f0 34be 4d8d 51bd c5e0 12be 2356 fdbc
00000160: 77c8 9ebe 7203 47be 371e 1f3e e945 39be
00000170: ed4e 913d 3c92 95be 2516 b4be e6b8 3ebd
00000180: 3de5 533e 0f1d 5fbe 51bb 2d3d 8362 41be
00000190: 85be 59be b0f7 2cbe 78a7 39bd 80f8 c1bd
000001a0: 7edc d7bd 36b3 08be 357a d9be c345 37be
000001b0: e712 0e3e 9494 e7be 906e 6dbe 4cd2 0abd
000001c0: 1807 babd 716d 03be 7370 d4bd 88a0 3abe
000001d0: 1bf7 1cbe a8b1 e63d 3c55 a03d d718 94be
000001e0: 962b 7ebe 3b98 5ebe 5819 4ebe 0e55 ecbe
000001f0: 8fbd a3bd d427 62be d8de 8fbc 6423 13bf
00000200: 20cf 9c3d 5c3b a13e 013b c73c f9a3 a7bb
00000210: 60c1 f3bd 4017 51bd 16ff dcbc c693 5d3d
00000220: a62b 673e f3d8 403e bbc3 a33d ff68 ba3e
00000230: 6900 d23d ea3b 94bd a217 203e 1b4e 7b3d
00000240: ee92 c8bc 2731 adbd 7340 933d 1354 d43e
00000250: e94a 6e3e b417 99bd cd9e 20bd 1b64 88bd
00000260: a49a 5b3e 1c1b d3bc 5bd4 8b3e 1a82 97be
00000270: dd96 5d3d ff50 eabd 7ab6 34bd 2b48 fc3d
00000280: 9e8a 1d3e 2a84 a73e 3c46 e23d b9f6 d63e
00000290: 2d3f 62bc bafc 283e e8ca 12bd a787 743e
000002a0: ac80 533e f9da 233c 60f9 e43e 139c 393d
000002b0: df80 1abc 2400 fa3e f0c3 4a3e d710 483e
000002c0: bfa4 37be b973 533e 03bb c1bd e08d b33d
000002d0: ef72 1e3e 6bf7 2f3d fb60 47be c1f7 e33d
000002e0: ad44 a13d 8c49 cd3e ff53 c13d 6015 853d
000002f0: 5d97 663e 4738 0d3e b265 663e b421 ac3e
00000300: a91b e5be 237e 143e 907f cdbd 2910 e8bd
00000310: c352 433e 6360 203e c470 933d 0e6b 143e
00000320: 56c0 c4be 3e0d c0bd 06ed 7dbe c66d 65be
00000330: 6b59 60bd 7f5b eabe f15e fa3c 7e46 093e
00000340: 6ede 83bd 9668 b1bc e10b e73c d690 3fbe
00000350: 1e54 61bc b82e 9abc f4d4 6c3e adbd a33d
00000360: 482f 0cbf 8f25 4e3e 9049 53be 6639 8d3d
00000370: 723d ad3d 6839 debe a24f cabe 8547 63be
00000380: 4e68 ad3d 23e2 d8be e826 73bc 61cb e1be
00000390: 3ca6 b7bc d99e 00bf dadd 26bc dd1b dbbe
000003a0: 9e33 90be d5bf 32be 619e 483e ae51 c0bd
000003b0: a00a 693d 5201 aa3e b627 16be f1fb e53d
000003c0: f6e7 9ebe fc5b 34bf 58e2 43be 64a6 7b3d
000003d0: 8d76 90be 1301 09be ed7b 553e 9af9 a1be
000003e0: 8c41 c9be d9f4 1cbe 5c00 61ba c8d6 123e
000003f0: be9b 663e d1af 2fbe 2b83 99be a3a2 23bf
-0.22605464 0.20353383 0.14885305 0.0872039 -0.010018352 0.0954963 0.17307273 0.019560946
0.38218346 -0.23754272 0.027626153 -0.14091264 0.343158 -0.12924165 -0.20292628 0.021362452
0.009700466 0.029813161 -0.24427357 0.010415465 0.08609111 0.035702035 -0.07980759 -0.05074393
-0.1574751 0.17968433 0.3025868 -0.13498805 -0.03011173 -0.14412653 0.07557619 -0.15165648
-0.08138248 0.08680838 0.039091628 -0.17297766 -0.18424109 0.13207188 -0.10431072 0.044290163
-0.050996825 -0.22411373 0.08941968 -0.0008492698 -0.1173205 -0.08142945 0.22372459 -0.34117204
-0.036339916 -0.09768693 0.0028083948 -0.20378217 -0.0044995174 0.031796496 -0.028936522 -0.1260345
-0.14433707 0.19720918 -0.16993462 -0.06553309 -0.21369007 -0.20353344 0.0836456 0.27157882
-0.20708531 -0.26049083 -0.2672364 -0.08185065 -0.028960608 0.20651132 0.15688588 -0.054283146
-0.22884461 -0.10754358 -0.28230566 -0.2200891 -0.58890706 -0.049185157 -0.04307113 -0.07067716
-0.12106039 0.00037820658 0.12657811 -0.18061902 -0.17669688 -0.051160146 -0.14343555 -0.030924862
-0.31012318 -0.19434908 0.1553887 -0.18093075 0.07095132 -0.2921313 -0.35173145 -0.04656305
0.20692916 -0.21788429 0.042414967 -0.18885235 -0.21264084 -0.1689136 -0.045325726 -0.09471226
-0.105401024 -0.13349614 -0.4247605 -0.17897706 0.13874398 -0.45230544 -0.23186707 -0.03389196
-0.09083384 -0.12834717 -0.103730105 -0.182253 -0.15328638 0.11264354 0.07828757 -0.289252
-0.24821314 -0.21737759 -0.20126855 -0.46158642 -0.0799514 -0.22085506 -0.017562315 -0.57475877
0.076566935 0.314906 0.024320127 -0.0051159826 -0.11902118 -0.051047564 -0.026977103 0.054096006
0.22575244 0.1883276 0.07996317 0.3640823 0.102539845 -0.0723799 0.15634015 0.061353784
-0.024484124 -0.08456641 0.07190027 0.41470394 0.23270763 -0.07475224 -0.039213944 -0.066597186
0.2144571 -0.025769763 0.27310452 -0.29591447 0.054098953 -0.1144123 -0.044119336 0.123184524
0.1538491 0.3271802 0.110485524 0.4198511 -0.013809008 0.16502658 -0.035838038 0.23879872
0.20654553 0.010000938 0.44721508 0.04531486 -0.009430139 0.48828232 0.19801307 0.19537674
-0.1793394 0.20649613 -0.09459498 0.08767295 0.15473531 0.042960566 -0.19470589 0.1113124
0.07874427 0.40095174 0.09439849 0.064982176 0.22518678 0.13791 0.22499731 0.33619463
-0.44747666 0.14501242 -0.10034096 -0.11331207 0.1907454 0.15661769 0.07199243 0.14493963
-0.3842799 -0.09377526 -0.24797449 -0.22405156 -0.054772776 -0.4577293 0.03056285 0.13405797
-0.064389095 -0.021656316 0.028203906 -0.18707594 -0.013752965 -0.018821105 0.2312811 0.07995162
-0.54759645 0.20131515 -0.2063353 0.068957135 0.084589854 -0.43403172 -0.3951388 -0.22195251
0.0846716 -0.4236003 -0.014840819 -0.44100478 -0.022418134 -0.5024238 -0.0101847295 -0.42794695
-0.2816438 -0.1745599 0.19591667 -0.09390579 0.0568949 0.33204132 -0.14663586 0.11229695
-0.31036347 -0.70452857 -0.19129312 0.06143798 -0.28215447 -0.13379316 0.20848055 -0.31635743
-0.3930782 -0.15327777 -0.00085831224 0.14339745 0.22520348 -0.17156912 -0.29982886 -0.6392004

encoder.dcrnn_cells.1.update.weights_pool f4 [2, 2, 128, 64]
00000000: c73b 71be d808 aebd 9b46 09be 2d0e c6bd
00000010: c83d a33d 692e 2ebe 5932 1abe 13ce b6bd
00000020: 36a9 a13e 2085 3f3e e12c 8d3d d2b2 24bf
00000030: 0582 363f 2969 ff3e 8aa5 8b3e a59b 0abe
00000040: d1e5 e3bd 4e9e 83bd 194f be3e 7092 e63e
00000050: 29bd 383d 9edc 7ebe 6ecf eebc 9646 403e
00000060: ce7a ab3e d8d3 8a3e c1df 2dbf 5df6 f3bd
00000070: 5b74 49be d489 86be bec0 fb3e e3e3 01bf
00000080: fff1 40be b6b9 cc3e be3f e53d 4515 21be
00000090: 7f9a d23e 5167 bfbe dbdd 663e 7f7d b0be
000000a0: 9f4b c3bc 6f75 a23e 6b85 48be 48e9 6b3e
000000b0: 6d8c 453e 168a 003f 1024 183e 3f49 bebd
000000c0: e3c5 d8be 0a12 bfbe d568 c9be 2edf 48bd
000000d0: 95c3 abbe bbde 483d ee97 c6bd eee8 1f3c
000000e0: 67dc deba ef63 a2bd 6997 10bc 0055 6a3f
000000f0: 80a3 f8bd 7503 d33d 7a1b 96be 0633 ea3e
00000100: fd8e 92be 9fe4 17bf 2356 20bf 3dd1 c0be
00000110: 7dae 853e a40f 9dbe e55b cdbe 513f e6be
00000120: c20c 883e 554e 083f 808c de3e 20aa 65be
00000130: c130 923e 37fc e53e e46f 913e f3b5 d4be
00000140: 8989 babe 76b0 3cbe 0423 f13d 9503 a33e
00000150: dedb 113f d398 47bf 537c 0cbf ae28 db3e
00000160: 54a7 9d3e c519 8a3e 1d28 87be 7cde 21bf
00000170: e85d 94be 4727 79bf 600c ae3e 8303 cfbe
00000180: a450 55be 45a4 a33e 9fae fc3e 79ea 443f
00000190: c973 233e 8006 8fbe c4b4 903e 1ff0 94be
000001a0: 182f 36bf ee35 a03e 3f7a 8abe 8895 053f
000001b0: 63a6 153f 6f3d 8f3e d2c8 173f e9d8 e4be
000001c0: 5881 22be d4d8 99be 063d 8ebe db4b e0be
000001d0: ab47 96be e4d4 ed3e c413 02bf 414f 363f
000001e0: 4829 353f ab94 22bf 0717 2d3f 0b18 8b3e
000001f0: 6a5b ccbe 0b71 e03e e4b5 93be dbb5 b13e
00000200: 8473 6a3e 1a5a bb3d ef79 9d3d 0648 cb3d
00000210: 5bc5 b1bd d6b6 123e e21a 303e 9945 93bc
00000220: 14af 9ebe 47ce e9bd d4b2 0dbe e0ec a13e
00000230: 69e5 8ebe 2f7e b1be 59a2 72be 8ae9 c23d
00000240: 97b7 e93d ceb1 613e 4618 8ebe 9632 5dbe
00000250: 5ecc 09be c682 c43a 2c0b 843e 82ef 03bd
00000260: 586c 12be 2c10 91be 89fa 5b3e 2c00 653e
00000270: bb81 2f3e 84f0 2f3e e085 37be 12f7 693e
00000280: 8b37 833e e7df 5abe 03a7 56bd b173 8bbd
00000290: 4ceb 1bbe 5052 8a3e 8e55 a5bc fa26 6a3e
000002a0: 66b1 2e3e 69b3 5ebe c4d3 983e 2765 6cbe
000002b0: 7dea 59be 8270 59be 188d 1dbe 6d6e f03d
000002c0: 8433 893e 6513 673e b45a 9d3d 36a2 243e
000002d0: dd8d 6f3e 690b 34be 97b6 723d 57a2 8bbd
000002e0: 323e 05bd bc92 fe3d 6f31 83be 0288 8cbe
000002f0: 20a7 8c3d 812b 09be ab3f 9d3e 1daf 47be
00000300: dd1e 81be 21d1 61bd 5bf3 a0bd 132a 64bd
00000310: b3d0 8b3d a87a b1bd 16a5 d8bd 6bd0 073d
00000320: a77f a23e 8cb3 953d e2db db3d e0d4 96be
00000330: 8461 af3e f6a9 c53e 1f76 773e adff a1bd
00000340: 458b 65bd 2eb2 33be 594b 9e3e 5656 7a3e
00000350: 4fdf a53d 37f0 9e3b ecdb 2ebe e691 c23c
00000360: ec50 233e 5c92 763e 1254 74be 05c4 32be
00000370: 04c1 11be 423f 18be 3d30 443e c882 85be
00000380: c6f7 4bbe 63b9 543e 9eee 413d eb3b 163d
00000390: ee7d 2f3e 76bd 89be 5524 253d 7f17 76be
000003a0: 4825 08be 848a 503e 7a32 89be fc28 503e
000003b0: 542b 143e b426 553e 0030 dd3d 69b0 87bd
000003c0: 6233 a1be 510a 63be 8e69 b5bd 033f debd
000003d0: 30bb 8bbe 42c7 d43d 3773 96bd 03ef 2f3d
000003e0: 7cd3 8a3c 62ba e4bd 7fcd 413e 545b 983e
000003f0: d2a0 0abd d62f b83d 78bd a7be a5a7 403e
-0.2355796 -0.084977806 -0.1340584 -0.096706726 0.07970768 -0.17009892 -0.15058269 -0.08926024
0.3157441 0.18703127 0.068933256 -0.6433536 0.71292144 0.49884918 0.27274734 -0.13535936
-0.111278184 -0.064266786 0.37169722 0.45033598 0.045102272 -0.24888846 -0.029151645 0.18776926
0.3349213 0.2711475 -0.67919546 -0.119122244 -0.19673292 -0.2627703 0.49170488 -0.5073835
-0.18842314 0.39985436 0.111937985 -0.1573077 0.41133496 -0.37383512 0.22545569 -0.34470746
-0.02383977 0.3173022 -0.19582145 0.23038208 0.1929185 0.502107 0.14857507 -0.09291314
-0.42338476 -0.3731845 -0.39337793 -0.049040966 -0.33547655 0.049040537 -0.09696947 0.009760125
-0.0017002941 -0.07929217 -0.0088251615 0.9153595 -0.1214056 0.10303394 -0.29317838 0.45742053
-0.28624716 -0.59333223 -0.62631434 -0.37659636 0.26109686 -0.30675995 -0.40109172 -0.44970182
0.26572233 0.53244525 0.43466568 -0.22428179 0.2855282 0.44918987 0.28405678 -0.41545066
-0.36433056 -0.1842669 0.11774257 0.3183867 0.56976116 -0.77967566 -0.54877204 0.42804474
0.30791724 0.26972786 -0.26397792 -0.6323011 -0.28977895 -0.9732556 0.33993816 -0.40432367
-0.20831543 0.31961265 0.49351975 0.76920277 0.15962137 -0.27934647 0.28262913 -0.29089448
-0.7116561 0.31291145 -0.2704639 0.5218129 0.5845701 0.27976558 0.592908 -0.4469674
-0.15869653 -0.3004824 -0.27780932 -0.43807873 -0.29351553 0.46451485 -0.5081141 0.7121468
0.70766115 -0.635081 0.6761326 0.2716678 -0.39913493 0.43836245 -0.2884971 0.34709057
0.22895628 0.09148045 0.076892726 0.09925847 -0.08680221 0.14327559 0.17197755 -0.017977523
-0.3099295 -0.114162974 -0.13837749 0.31626034 -0.279094 -0.34666583 -0.23694743 0.095172
0.1141197 0.22040483 -0.27752894 -0.21601328 -0.13456866 0.0014992587 0.25789773 -0.032210834
-0.14299142 -0.2833265 0.2148229 0.22363347 0.17139332 0.17181593 -0.17922163 0.22848156
0.25628313 -0.21374474 -0.05240537 -0.06809176 -0.15226477 0.27015924 -0.020182397 0.22866431
0.1705986 -0.21748127 0.29849064 -0.23085462 -0.21280856 -0.21234325 -0.15385854 0.11739812
0.26797116 0.22565992 0.07683316 0.16077504 0.2339396 -0.17582478 0.059256162 -0.06818073
-0.032530017 0.12430331 -0.25623652 -0.27447516 0.06867814 -0.13395502 0.30712637 -0.19500394
-0.2521886 -0.05513108 -0.07858916 -0.055704188 0.068269156 -0.08665973 -0.10578363 0.033157747
0.31738016 0.073096365 0.10735299 -0.29459286 0.34254086 0.38606232 0.24166153 -0.079100944
-0.05604102 -0.17548439 0.3091686 0.24446997 0.08099233 0.004850413 -0.17076081 0.02375121
0.15948838 0.24079269 -0.23860195 -0.17457588 -0.14233786 -0.14867881 0.19159026 -0.2607634
-0.19918737 0.20773844 0.047346704 0.036678236 0.17137882 -0.2690236 0.040317852 -0.240324
-0.13295472 0.2036534 -0.26796323 0.20328134 0.14469653 0.20815545 0.10800171 -0.066254444
-0.31484514 -0.22171904 -0.088580236 -0.10851862 -0.2729125 0.10389568 -0.07346194 0.04295255
0.016946547 -0.11168362 0.18926047 0.29757178 -0.033844776 0.08993499 -0.3276174 0.18813951

encoder.dcrnn_cells.1.update.bias_pool f4 [2, 64]
00000000: 61ae 50bd bea6 17be 9c14 9fbd a3ef e7bb
00000010: 51e2 7b3e 65de e8bc eb85 d33d 60fe 7c3e
00000020: 3831 70bd 8be0 f2bd e7dc 0f3c 0dd2 883d
00000030: e3c6 f4bd 844d febd c942 5fbe 1ba0 993d
00000040: d958 1abb ca45 15bd 84d9 50be 03da 49bc
00000050: 17a7 7a3d 8611 3b3e 583c 8b3c 0cd7 15bc
00000060: 9be8 83bc f597 34bd 2f50 fe3d bcc9 18be
00000070: 1f77 99bd a55c 34bf b3c3 c6bd cd08 9d3e
00000080: 9c49 3a3c aab8 bb3c 5ad0 4a3e a593 c6bd
00000090: 3ae7 6bbe e93e 63bd bcbb d1be c025 9abd
000000a0: 053a 583e 213d 81bc bc69 7f3e ef3c 81bd
000000b0: 19dc 4ebc b14b babc 950f 43be 4271 5bbd
000000c0: 0ecd 923e b87e fc3d 1078 8c3e 25c3 e8bc
000000d0: 9d8a 60bd 920b d1bd b1e3 5fbb dfce b0be
000000e0: 12fc 023d dbce 14be 8648 bd3c cdd6 68be
000000f0: daca 52be edc9 bdbd 3f33 83bd 1518 6a3e
00000100: 4f56 be3e 9a11 1b3c bfe3 463e 9764 913e
00000110: 6bd8 78bd ef88 9a3c a2e3 b6be ed83 b53e
00000120: c6c4 84bb 2f15 7ebe 5de3 76be e5f6 b93e
00000130: 4d4b 0cbe cf77 5c3e aa67 0cbd da46 9e3b
00000140: 6dfb 95bc 5a38 9a3d b1f3 b8be 034f 9bbe
00000150: 1f5c 9fbd e864 c73e 7a60 f33d 7020 b7bd
00000160: 6bb4 75be 7deb 843e 3ac3 ea3c 8c22 b0be
00000170: 97ff 92be d1e6 27bf affa ff3d e4b6 2cbe
00000180: 5fe0 9b3e 97a7 e4be 549f 853c b514 47be
00000190: 55ab c8be fdcd 623e 3c27 ba3c 132f 803e
000001a0: f1c2 7d3e 5681 b4be 463a 843e ecf4 d3bd
000001b0: 4d97 9ebd 60d0 09bf 6fab b7bd 4786 533e
000001c0: d287 ab3e e3ff 923d 2393 4abd a00e 303e
000001d0: 33d5 a13e 6295 f2bd a077 5e3d 82bb b8be
000001e0: 311e c1bd c3aa d43d 1aa4 723e 217e 88bd
000001f0: 5a42 293e bbf3 8bbe 51de 003e a38f 67be
-0.05094755 -0.14809701 -0.07767603 -0.0070781275 0.24598052 -0.028426358 0.10328277 0.24706411
-0.05864069 -0.118592344 0.008780695 0.06680689 -0.11951997 -0.12417129 -0.2180282 0.07501241
-0.0023551492 -0.03644351 -0.20395476 -0.012320044 0.061194506 0.18268403 0.016996548 -0.009145509
-0.016102126 -0.04409023 0.124176376 -0.14920706 -0.07493424 -0.70453864 -0.097052954 0.30670777
0.011370089 0.022915203 0.19806042 -0.0969613 -0.23037425 -0.055479918 -0.40963542 -0.075267315
0.21115883 -0.015776219 0.24942678 -0.0631045 -0.012625718 -0.02274117 -0.19048913 -0.053574808
0.2867207 0.12328857 0.2743535 -0.028413365 -0.054819692 -0.10207285 -0.0034162814 -0.3453283
0.031978674 -0.14532034 0.023105871 -0.2273819 -0.20585194 -0.0926703 -0.06406259 0.22860749
0.37175223 0.009464646 0.19422816 0.28397056 -0.060753267 0.018864123 -0.35720545 0.35452214
-0.0040517775 -0.24812768 -0.2411017 0.36321178 -0.137006 0.21530078 -0.03427855 0.0048302235
-0.018308366 0.075302795 -0.36123422 -0.3033372 -0.077812426 0.38944173 0.11883636 -0.08941734
-0.23994605 0.25960913 0.028657544 -0.34401357 -0.28710625 -0.6558657 0.12498986 -0.16866642
0.3044462 -0.4465911 0.016311325 -0.19441493 -0.39193216 0.22148891 0.022723787 0.25035915
0.24781395 -0.35254925 0.2582571 -0.103494495 -0.07743702 -0.5383358 -0.08968245 0.20656691
0.3350206 0.07177713 -0.049456727 0.17193079 0.3160797 -0.11844899 0.054313302 -0.36080557
-0.09429587 0.10384133 0.23695412 -0.06664682 0.16529217 -0.2733439 0.12584807 -0.22613387
