CQ/result/P7_Resullt/HOURS/data6/2/best_model.pth (torch_old, 603202 bytes, 11 tensors)

node_embeddings f4 [228, 2]
000000 21 d3 2c 3e 2a 37 bd 3d 80 30 96 3e 46 79 86 3e
       0.16877414 0.09239037 0.29333878 0.262644
000010 e8 49 04 3e 82 85 a8 3d 52 9c fa bd 2b fa 87 3e
       0.12918818 0.082285896 -0.12236847 0.2655805
000020 9a b8 91 3e 8d c2 4f 3e 9d 53 88 3e a0 2a 19 3d
       0.28461152 0.20289059 0.26626292 0.037394166
000030 63 e1 24 3e 7f 74 d5 3d 16 4b 0f 3e fe c7 8f 3e
       0.16101603 0.104226105 0.13993487 0.2808227
000040 d4 88 af be d7 42 1f 3d 52 51 11 be e3 53 84 3e
       -0.3428408 0.038882103 -0.14191177 0.2584525
000050 42 e8 94 3e 91 44 2d 3e 7c 9d 96 3e 63 3e 80 3e
       0.2908345 0.16920687 0.29417026 0.25047597
000060 7e 78 9e bd e5 4a 3f 3e 68 87 87 3e 83 21 0d 3e
       -0.07737826 0.18680914 0.26470494 0.13782315
000070 5e 1e 18 3e f9 0e 13 3e eb 41 6c be 13 39 19 3e
       0.14855334 0.1436118 -0.2307202 0.14963178
000080 1b 87 06 3c 52 10 9a 3e 33 61 52 3e 05 c1 90 3e
       0.008210923 0.30090576 0.20544891 0.28272262
000090 a1 6a 3f 3e c8 e1 54 3d 9b 01 03 3e 3d b9 7d 3e
       0.1869302 0.051973134 0.12793581 0.24777694
0000a0 41 24 dc bd 23 57 44 3e a5 01 20 3e 1e fd ff 3d
       -0.107491024 0.19173865 0.15625627 0.1249945
0000b0 84 7f 80 3e 15 d5 24 3e d2 e2 91 3e 26 1c e2 3d
       0.25097287 0.1609691 0.28493363 0.11040525
0000c0 cd 0c 70 3e 5b 80 5a 3d 3f bb ae 3d da d2 22 3e
       0.23442383 0.053345066 0.08531808 0.15900746
0000d0 f9 97 ec 3d 34 0f 62 3e 65 bd e8 3d 79 0d 3c 3e
       0.11552424 0.22076112 0.11364249 0.18364514
0000e0 a3 f8 1d 3d f5 94 4d 3e a0 2e 38 b9 0b 1c 07 3d
       0.038567197 0.20076354 -0.00017564977 0.03298573
0000f0 24 d3 0b be 2a 8c 98 3e f5 4d 44 3e 96 e7 64 3e
       -0.13654763 0.29794437 0.19170363 0.22353968
000100 ad 3a 88 3e 28 fb f3 3c 23 fa 8d 3e 8d d6 ed 3d
       0.26607266 0.029782847 0.27729902 0.11613188
000110 92 f5 2d 3e 62 9a b0 3d e2 c9 a5 3d 62 f5 8b 3e
       0.16988209 0.08623196 0.08095147 0.2733565
000120 71 51 a2 3d 7a 99 7e 3e 63 d2 d6 bd 5b a2 87 3e
       0.0792569 0.24863234 -0.10489347 0.26491055
000130 3f 80 0e 3e 04 ee 6b 3e 20 94 b3 bd ef 3f 97 3e
       0.1391611 0.23040015 -0.08768487 0.29540965
000140 5c b5 66 3e 90 62 91 3e 33 6e 1f 3e f0 ef 4b 3e
       0.2253012 0.2839551 0.15569381 0.19915748
000150 96 92 06 3e 47 24 5c 3e fc 5f 7c 3e 46 66 85 3b
       0.13141856 0.21498214 0.2464599 0.00407103
000160 82 19 33 3e 1f 8c 5d 3e 92 74 8f 3d e3 fe 20 3e
       0.17490199 0.21635483 0.07004656 0.15722232
000170 cc f7 98 3d b7 5e 8d 3e 6c d9 83 3e 17 c0 fa 3c
       0.074691385 0.27611324 0.25751817 0.030609174
000180 dc b9 f3 3d 51 18 15 3e 8e 91 4a 3e 78 38 96 3d
       0.11900684 0.14560057 0.19782087 0.07334989
000190 6d 6f 0d 3e f7 be e3 3d c0 14 c9 3d 77 b2 57 3e
       0.13812037 0.11120408 0.09818411 0.21064173
0001a0 b6 35 3f 3e 26 9f 92 3e dd e2 68 3e 48 de 63 3e
       0.18672833 0.28637046 0.22742791 0.22252762
0001b0 7a f1 bc 3d 50 e5 35 3e 2f 88 b3 bc 17 84 93 3e
       0.092257455 0.17763257 -0.021915523 0.28811714
0001c0 89 61 88 3e e7 69 93 3e f3 71 81 3e c8 11 c6 3c
       0.26636913 0.28791735 0.2528225 0.0241784
0001d0 8f 8e 2c 3e 98 c1 c4 3d 9a 50 65 3e e5 1a 8b 3d
       0.16851257 0.096072376 0.22394028 0.06792239
0001e0 79 7a 00 3e 7b 8e 01 3e b1 31 f4 3d 84 67 02 3e
       0.1254672 0.12652008 0.119235404 0.127348
0001f0 fd 44 91 3e ea ad 04 3e 45 db 8f 3e 09 fb bd 3d
       0.28372946 0.12956968 0.28096977 0.09276397
000200 8b 42 f2 3d 95 67 f9 3d 99 35 be 3d 7c 03 67 bd
       0.11829098 0.1217796 0.09287567 -0.056399807
000210 7f b0 77 3e 40 5d 39 3e f3 20 05 3d 82 72 9d 3e
       0.24188422 0.18101978 0.032502126 0.30751425
000220 fa dc d9 3d da 07 87 3d db 04 89 3e 75 92 95 3e
       0.10637851 0.065932944 0.26761517 0.292133
000230 07 e6 98 3e 80 4d fc 3c f1 6e 02 3e 60 0f f4 3d
       0.29862997 0.030798674 0.12737633 0.11916995
000240 b6 88 74 3e fc 57 9e 3d 11 07 03 3e 09 b5 dd 3d
       0.23880276 0.077316254 0.12795664 0.10825545
000250 4b ab 98 3e e7 a0 8a 3e 42 b3 31 3e 58 36 0e 3e
       0.29818186 0.27075884 0.17353538 0.13887918
000260 1b a1 80 3d c4 c7 83 3e 8d 75 51 3e 98 e0 6c 3e
       0.062807284 0.25738347 0.20454998 0.2313255
000270 9a ea 96 3e b9 62 bc 3b 78 9a 34 3e d3 ea 91 3e
       0.29475862 0.0057490733 0.1763705 0.2849947
000280 7b a9 4c 3e fa f4 0d 3d eb 66 88 3e f4 e1 0d 3d
       0.19986527 0.034657456 0.2664102 0.034639314
000290 69 ed 7f 3e 1b 2c 03 3e 62 9f a8 3d 0c 41 08 3e
       0.24992909 0.12809794 0.08233525 0.13306063
0002a0 e1 6f 99 3e 35 b5 99 3e 9c 64 44 3e 66 96 27 3e
       0.2996817 0.30021062 0.19179004 0.16365966
0002b0 1e 5b 90 3e 5d 1f db bc d1 af c3 bd 14 d3 76 3e
       0.28194517 -0.026748354 -0.09555019 0.24103957
0002c0 77 cf 34 3e d7 d8 64 3d ef ea 6a be 51 22 13 3e
       0.17657267 0.055870857 -0.22941183 0.1436856
0002d0 cb e9 b7 bd 5f 6b 22 3e 09 d0 15 3e c8 c3 17 3d
       -0.08980139 0.15861271 0.1463014 0.037051946
0002e0 25 fd 3f 3e e8 60 cd 3d 82 f8 73 be b5 f0 ad 3d
       0.1874891 0.10028249 -0.23825267 0.08493177
0002f0 6b f2 65 3e 2b de 9e 3d 32 ff 3f 3e ff df 5e 3e
       0.22455756 0.07757219 0.18749693 0.21765135
000300 8f 64 36 3e fd d2 d9 3d b7 de 4e 3e 10 26 d3 3d
       0.17811798 0.10635946 0.20202146 0.10309994
000310 f0 ff 83 3e 0c 25 41 3e 3d f5 b7 3d a8 73 8f 3e
       0.25781202 0.18861789 0.08982322 0.28017926
000320 c3 ac 36 3d 24 35 02 3e cf 07 ac 3d ed ed 86 3e
       0.044598352 0.12715584 0.08399927 0.26353398
000330 c2 ca f6 3d 71 71 99 3e 3c a2 49 3e e6 ea 06 3e
       0.12050392 0.2996936 0.19690794 0.13175544
000340 db d3 86 3d 6e 0e 66 3e 02 eb 35 3e 8b 91 3f 3e
       0.06583377 0.22466442 0.1776543 0.18707864
000350 78 6b 30 3d ef ae 00 3e 22 6f 75 3d a1 93 7f 3e
       0.04307124 0.12566732 0.059920438 0.2495866
000360 74 9d 01 3e 03 c1 e8 3d 1a 0e 96 3e 3d f8 90 3e
       0.1265772 0.11364939 0.29307634 0.2831439
000370 4d 7a 85 3e c6 f6 4c bc 19 3f ad bd 70 1a 56 3e
       0.2606987 -0.012510007 -0.084593005 0.20908523
000380 bc b1 7e bd f1 c1 37 3e 0c 05 93 3e 10 7c 63 3e
       -0.06218122 0.17945077 0.28714788 0.22215295
000390 3c 51 4a 3e bd 6e da 3d b2 71 40 bd e6 aa 49 3e
       0.19757551 0.10665653 -0.04698343 0.19694099
0003a0 c1 39 8e 3e d3 f3 6d 3e 28 3e 91 3e 59 b6 15 3e
       0.27778438 0.23237543 0.28367734 0.14620341
0003b0 7e e8 91 3e 36 70 dd 3d 0a bd ac be 71 6d 14 3d
       0.2849769 0.10812418 -0.33737975 0.036237184
0003c0 fd b6 84 3e 2c df 1d 3e 06 a8 3b 3e 10 b0 31 3e
       0.2592086 0.15417165 0.18325815 0.17352319
0003d0 b6 c1 77 3e a9 95 7f 3e 23 af d4 3c d7 6f 59 3e
       0.24194989 0.24959435 0.025962418 0.2123407
0003e0 f1 a0 3d bd 24 f9 16 3e 77 17 88 be 00 69 fa 3d
       -0.046296064 0.14743477 -0.26580402 0.122270584
0003f0 fc eb 86 3d c2 90 35 3e 28 a0 47 3e 5d 4d 56 3e
       0.06587979 0.17731002 0.19494689 0.20927949

encoder.dcrnn_cells.0.gate.weights_pool f4 [2, 2, 65, 128]
000000 2b 64 08 3e 04 00 d9 3d 1e f0 f5 3d 2d 4a e1 3d
       0.13319461 0.10595706 0.12008689 0.11000476
000010 a1 2d e9 3d 7d 6c 01 3e 0a ed 01 3e 41 c9 02 3e
       0.11385656 0.12639041 0.1268808 0.12772085
000020 3c db c7 3d 46 43 b8 3d 7c d7 04 3e d6 fd f8 3d
       0.097586125 0.089972064 0.12972826 0.1215779
000030 90 d9 f1 3d a0 22 09 3e a0 89 04 3e 27 59 a2 3d
       0.11809075 0.13392115 0.12943125 0.07927161
000040 9d 62 ee 3d bb 5d f1 3d fe 16 e0 3d a9 c0 d4 3d
       0.11639903 0.11785456 0.109418854 0.103883095
000050 03 d0 09 3e a6 bc ec 3d 89 a0 e9 3d 5d 24 cb 3d
       0.13458256 0.11559419 0.11407573 0.09919045
000060 3d f1 e4 3d 98 4e 06 3e 3f d3 02 3e f4 e0 b7 3d
       0.11178825 0.13115919 0.12775896 0.08978453
000070 1e 9e f0 3d c2 1b e9 3d a8 50 df 3d 04 d2 f1 3d
       0.117489085 0.113822475 0.10904056 0.118076354
000080 09 75 db 3d a5 16 02 3e e3 d7 e8 3d ee 32 fa 3d
       0.10715682 0.1270395 0.11369302 0.12216745
000090 8d 71 07 3e c8 0c ee 3d 14 38 09 3e 0a 2c d4 3d
       0.1322691 0.116235316 0.13400298 0.10359962
0000a0 76 d7 d3 3d 47 cb 08 3e 89 77 d5 3d 01 f3 de 3d
       0.1034383 0.13358794 0.1042319 0.10886193
0000b0 8c 08 eb 3d 38 f8 f1 3d b8 5d e2 3d cd 0a 08 3e
       0.114762396 0.11814922 0.11053032 0.1328537
0000c0 cf 92 c3 3d 83 78 d3 3d 69 92 ef 3d 32 b9 05 3e
       0.09549486 0.1032572 0.116978474 0.13058928
0000d0 54 20 da 3d d0 87 d7 3d 08 ba 09 3e 56 ef 08 3e
       0.10650697 0.10523951 0.13449872 0.1337255
0000e0 29 06 dc 3d 2c 58 dd 3d a8 da e0 3d ab d7 b6 3d
       0.107433625 0.10807833 0.10979205 0.08927854
0000f0 c6 c9 e1 3d 66 37 ff 3d ff 1d cb 3d f3 82 ea 3d
       0.11024813 0.12461738 0.09917831 0.11450758
000100 f7 36 0d be ff 7c e6 bd fe 1e 0e be 91 6a 0c be
       -0.13790499 -0.1125431 -0.1387901 -0.13712527
000110 85 5f ef bd 3f 3d f6 bd c6 48 e5 bd 6c f8 00 be
       -0.11688141 -0.120234005 -0.11195521 -0.12594765
000120 94 7a fb bd 0f ee c5 bd de 15 ed bd d0 dc f4 bd
       -0.12279239 -0.09664547 -0.115764365 -0.11956179
000130 c5 b9 ee bd 12 42 03 be 78 62 02 be 55 bc a7 bd
       -0.116565265 -0.12818173 -0.12732875 -0.08190218
000140 68 0c 08 be 52 5a 07 be 83 52 02 be 41 0f cb bd
       -0.13285983 -0.13218048 -0.12726788 -0.09915019
000150 cc fa 05 be b8 8f e6 bd ff 0b fa bd 68 03 83 bd
       -0.13083953 -0.11257881 -0.12209319 -0.06397134
000160 04 da a5 bd c3 d4 08 be f9 04 f2 bd a5 e1 d8 bd
       -0.08098224 -0.13362412 -0.11817355 -0.10589913
000170 84 e5 fc bd cb 7e 03 be 52 dd 00 be e9 55 eb bd
       -0.12348464 -0.12841336 -0.12584427 -0.114909954
000180 5e 6e ee bd 24 d5 d6 bd 22 c6 f6 bd 6f 38 0e be
       -0.116421446 -0.10489872 -0.120495096 -0.13888715
000190 48 f6 06 be 61 c3 0a be c4 aa 0f be e6 96 f5 bd
       -0.13179886 -0.13551094 -0.14029986 -0.11991672
0001a0 56 5f 82 bd 7a a6 06 be a8 50 e5 bd 53 b1 fa bd
       -0.0636584 -0.13149443 -0.111970246 -0.12240853
0001b0 47 31 f7 bd a5 1d 09 be 35 c8 aa bd db 6a 0f be
       -0.12069946 -0.13390215 -0.08338968 -0.14005606
0001c0 e2 c3 a4 bd 70 7c 04 be 05 68 ec bd f9 8c f2 bd
       -0.08045174 -0.12938094 -0.11543278 -0.11843295
0001d0 b3 c3 ef bd ab c2 fe bd ba 9c f0 bd 7d 28 06 be
       -0.117072485 -0.12439474 -0.11748643 -0.13101383
0001e0 91 2f f7 bd 4c b8 06 be e1 da 0c be a4 80 77 bd
       -0.120696194 -0.13156241 -0.1375537 -0.060425416
0001f0 cb ac f4 bd 26 01 0d be ff ae f1 bd c4 67 0a be
       -0.1194702 -0.1376997 -0.11800956 -0.13516146
000200 c8 88 f1 bd 11 6a 1f be 34 f9 05 be 3b c7 0c be
       -0.11793667 -0.15567805 -0.13083345 -0.13747875
000210 c9 f8 08 be 12 12 e1 bd 23 d3 0a be 3c 3d f8 bd
       -0.13376154 -0.10989775 -0.13557105 -0.121210545
000220 a9 3a b7 bd 52 ec e6 bd 19 ad 09 be 70 ff f9 bd
       -0.089467354 -0.11275543 -0.13444938 -0.12206924
000230 a6 66 e1 bd fb 4e 00 be 46 14 09 be b6 d5 ec bd
       -0.11005907 -0.12530129 -0.1338664 -0.115641996
000240 f3 91 06 be 25 4e f2 bd 97 ed c9 bd 21 02 17 be
       -0.13141613 -0.11831311 -0.0985977 -0.14746906
000250 20 67 f9 bd 9b 3c 6c bd c8 b7 e4 bd f5 a7 e2 bd
       -0.12177873 -0.057674985 -0.11167866 -0.110671915
000260 b7 98 02 be ca 9d 06 be d9 5b 1a be e6 6f 30 bd
       -0.12753569 -0.13146129 -0.150741 -0.043075465
000270 45 06 ff bd bb f1 0a be 12 a8 fb bd 44 42 0a be
       -0.12452368 -0.13568775 -0.12287916 -0.13501841
000280 8d 09 e0 bd da d0 1c be a9 58 e3 bd 2b a6 03 be
       -0.10939322 -0.15314046 -0.11100895 -0.12856357
000290 fc 69 f6 bd 32 4d e6 bd b4 a0 f6 bd 02 2f eb bd
       -0.12031934 -0.112451926 -0.120423704 -0.114835754
0002a0 23 34 d5 bd 97 18 07 be b1 b7 fe bd d5 d5 f8 bd
       -0.10410335 -0.13192974 -0.1243738 -0.1215016
0002b0 ae 76 e1 bd 16 c5 06 be c4 bd f7 bd ec fa 0d be
       -0.110089645 -0.1316112 -0.12096742 -0.1386525
0002c0 f5 f2 f9 bd 6c dd ee bd 2f 86 09 be 1f 98 eb bd
       -0.122045435 -0.116633266 -0.13430093 -0.11503624
0002d0 f7 16 fd bd 56 68 0b be 97 26 02 be f5 04 fe bd
       -0.12357896 -0.1361402 -0.12710033 -0.12403289
0002e0 47 da eb bd ec 97 f3 bd d2 cc bc bd 32 f1 dc bd
       -0.115162425 -0.11894211 -0.09218754 -0.10788192
0002f0 a4 6c 0c be ba 1e 07 be d9 9f bd bd 61 57 0c be
       -0.13713318 -0.13195315 -0.09259004 -0.13705207
000300 95 5a 21 3e c0 0e 0e 3e b2 6d 12 3e ce 34 08 3e
       0.1575721 0.13872814 0.14299658 0.13301393
000310 d0 e7 13 3e 73 14 17 3e 48 bf fe 3d 1a 98 10 3e
       0.14443898 0.14753895 0.12438828 0.14120522
000320 74 d0 f3 3d c2 45 10 3e 6d 5a 1c 3e fc 74 10 3e
       0.11904994 0.1408911 0.1526887 0.14107126
000330 16 a8 10 3e 0e e4 17 3e 54 55 00 3e 69 85 08 3e
       0.1412662 0.1483309 0.1253255 0.13332142
000340 dd 01 0c 3e 0a ce 20 3e 09 85 0b 3e 00 ae 00 3e
       0.13672586 0.15703598 0.13624968 0.12566376
000350 3a 68 17 3e 13 8f 03 3e 34 9e 20 3e a7 9b 0a 3e
       0.14785853 0.12847547 0.1568535 0.13535939
000360 32 79 10 3e 23 3c 0b 3e 61 94 11 3e 99 2a 09 3e
       0.14108732 0.13597159 0.14216758 0.13395156
000370 4a ee 1e 3e 65 3c 18 3e 0b 4e 0e 3e 0b 85 07 3e
       0.15520588 0.14866789 0.13896959 0.13234346
000380 cb 3a 0f 3e 55 ef 10 3e df 75 00 3e ee 23 16 3e
       0.13987271 0.14153798 0.12544964 0.14662144
000390 ad 62 18 3e e0 fb 11 3e 7a bd 1d 3e 52 38 fc 3d
       0.14881392 0.14256239 0.15404311 0.1231543
0003a0 a4 7f 1a 3e 73 71 f2 3d 25 bf 0a 3e ef fc 1f 3e
       0.15087754 0.11838045 0.13549478 0.1562383
0003b0 94 42 0a 3e 3f 75 0e 3e da 1d 11 3e a3 31 17 3e
       0.1350196 0.13911913 0.14171544 0.14765029
0003c0 62 d0 0c 3e a8 c5 0e 3e 9c 22 07 3e d5 e0 19 3e
       0.13751367 0.13942587 0.13196796 0.15027173
0003d0 7c 90 09 3e 4e 44 11 3e 5c 6e 09 3e 14 5a 0f 3e
       0.13434023 0.14186212 0.13421005 0.13999206
0003e0 3c f8 16 3e 1d 4f 0a 3e b8 75 fe 3d 93 d1 f0 3d
       0.14743131 0.13506742 0.12424797 0.11758723
0003f0 75 47 0d 3e 04 54 0a 3e 5a 92 0f 3e 97 02 15 3e
       0.1379679 0.13508612 0.14020672 0.14551769

encoder.dcrnn_cells.0.gate.bias_pool f4 [2, 128]
000000 92 1f 48 3e f6 df 44 be 2f cb 1e 3e 89 43 87 3d
       0.19543293 -0.1922606 0.15507196 0.06604678
000010 6b 9b a8 3e 8d 6b b5 3e 3a 25 a3 bd 09 de dc 3d
       0.32931075 0.35433617 -0.07966085 0.10784537
000020 83 12 07 be 9f fd 50 3e 35 d2 50 3e 34 c1 59 bd
       -0.13190655 0.20409249 0.20392688 -0.05316277
000030 1d f0 f1 3d e6 4d 51 3e b1 cf 90 3e 5f d6 a8 3e
       0.11813376 0.20439872 0.28283456 0.32976052
000040 a4 41 14 3e 25 d3 9b 3e dc 7f a3 be 74 2c 7b bc
       0.14478165 0.30434528 -0.31933486 -0.015330423
000050 24 82 6b 3e 12 d7 ee bd 9e d7 a3 3e 72 14 36 3e
       0.22998863 -0.11662115 0.3200044 0.17781237
000060 29 0f 2c 3e dc 0e 81 3e ab 9f 96 3d 94 48 a0 be
       0.16802658 0.2520665 0.07354673 -0.31305373
000070 0a a3 67 3e 69 81 5b 3e b7 3d 2f 3e 4b 8f 2c 3e
       0.22620788 0.21436085 0.17113386 0.16851537
000080 ad 1c e1 bc 46 46 8e 3d 34 d8 8f bd f0 1b 7d bd
       -0.027479494 0.06946997 -0.07023659 -0.06179422
000090 a6 be 19 3e 79 d9 96 3d fe 12 79 3e f1 9b 8f 3e
       0.15014133 0.07365698 0.24323651 0.2804866
0000a0 74 03 12 3e c9 73 e8 3d 47 92 ac 3d 1d 5a 1d 3e
       0.1425913 0.11350209 0.08426338 0.15366407
0000b0 8c bb 92 bc 84 4a 47 3c b1 8a a6 3e 07 ab 1e 3d
       -0.017911695 0.012163762 0.32527688 0.038737323
0000c0 fb 65 81 bd 20 54 40 be f1 3a b1 3e c3 84 04 3e
       -0.06318279 -0.18782091 0.3461528 0.1294127
0000d0 05 ec 77 3b 43 01 2f bd 4e f3 a2 3b 19 2c 45 3e
       0.0037829888 -0.042725813 0.004972852 0.19255103
0000e0 41 5c bc 3d 48 9b 99 3e 55 9d b9 bd 56 8d ad bc
       0.091972835 0.30001283 -0.09063212 -0.021185558
0000f0 e8 95 21 3e f6 3c 39 3e c4 d4 17 be 20 7b ae 3d
       0.15779841 0.18089661 -0.14827257 0.08519578
000100 2c 92 7c be 62 8c 6b 3e d7 99 3a 3d 01 c2 ad be
       -0.24665135 0.2300277 0.04555687 -0.33937076
000110 d1 5b 85 be ee c4 7a be 3f 22 2f be f3 28 91 3d
       -0.26046613 -0.24489185 -0.17102908 0.070878886
000120 c0 07 47 bc 5d 2e 75 be ab bd 04 3d b6 50 f6 3c
       -0.012147844 -0.23943467 0.032407444 0.030067783
000130 82 54 a8 3b 6b 6b 87 bd e7 6c 8e be 95 6b 4a be
       0.0051370272 -0.06612285 -0.2781746 -0.19767602
000140 0c 92 52 be 8c d2 99 be fc 00 4b 3e 65 67 d5 bc
       -0.20563525 -0.30043447 0.19824594 -0.026050279
000150 d4 22 ca 3a 83 70 f4 bc a3 1b 6a bd f9 f0 29 be
       0.0015421757 -0.029838806 -0.057155263 -0.1659583
000160 49 d4 01 3c c6 5f 95 bd b6 4c 51 be 2f c8 b8 bc
       0.007924148 -0.07293658 -0.20439419 -0.022556392
000170 bc 31 54 be 81 07 7a be 61 ad 6d be 4e 1c 53 3d
       -0.20722097 -0.24416925 -0.2321067 0.051540665
000180 c5 7b 44 3e 49 3d 0e be f9 15 33 3a d6 f9 88 be
       0.1918784 -0.13890566 0.0006831582 -0.2675311
000190 29 f7 cd bc ff a0 9a bd 7f 38 63 be d5 74 f2 bd
       -0.02514227 -0.07550239 -0.2218952 -0.1183869
0001a0 a8 3c a4 be 20 23 81 bd 8c 53 29 3d 49 76 38 be
       -0.32077527 -0.06305528 0.041339442 -0.18013872
0001b0 5f 05 5a bd 2d 92 68 3d ef 5f 67 bd 0a a2 91 be
       -0.05322778 0.05678003 -0.056487974 -0.28443938
0001c0 0d bf b0 3d dc fc 0f 3e 84 11 2c be 81 57 91 3c
       0.0863019 0.14061302 -0.16803557 0.01774192
0001d0 8c 63 54 bc 2b ba 0d be 45 20 a1 be 31 e8 c8 bc
       -0.012963187 -0.13840549 -0.31469932 -0.02452478
0001e0 b2 ab c5 bd 0e 10 da bd 05 f4 79 3d 8b 2f a4 bd
       -0.09651889 -0.106475934 0.06102373 -0.080168806
0001f0 cf 9f 88 be ec 11 d9 bd fa 92 29 3d ef 44 0e be
       -0.26684424 -0.105991215 0.041399933 -0.13893484
000200 73 07 5d 38 ca 7a 75 3e e4 00 3a 3e 29 da 69 3e
       5.2697444e-05 0.23972622 0.18164402 0.22837128
000210 18 d9 ac 3d f0 73 9c 3b 6e c2 94 3e 84 06 02 3e
       0.08439845 0.004774563 0.29054588 0.12697798
000220 67 79 05 3e 70 1d 82 bd ba 01 7b 3d 86 e3 2f 3e
       0.13034593 -0.06353271 0.061280943 0.17176637
000230 94 b4 08 3e 26 e5 99 3e 51 2a cd 3c 84 3a a6 3e
       0.13350135 0.3005764 0.025044592 0.3246652
000240 24 99 1e bd c6 d3 48 3e 52 5a cb 3d e5 7b b9 3e
       -0.038720265 0.19612035 0.099293366 0.36227337
000250 ab d0 51 3d 0b ad 1e 3e 56 5f 37 3e e2 c0 69 3e
       0.051224392 0.15495698 0.17907462 0.22827485
000260 9d 92 82 3e a4 ff 6c 3d f2 3c 0f 3e 58 c6 36 3e
       0.25502482 0.057860985 0.13988093 0.178491
000270 11 ea 89 3d 11 85 4f 3d cc 57 ad 3e 69 02 5c bc
       0.06734098 0.05066401 0.33856046 -0.013428309
000280 58 d5 46 3e 5a 38 c3 bc 15 43 a9 3e 64 15 8d 3e
       0.19417322 -0.023830581 0.33058992 0.27555382
000290 1e 02 74 3e 72 64 3d 3e e0 f0 af 3e 3a 11 14 3e
       0.23828933 0.18495348 0.3436346 0.14459696
0002a0 84 54 ff bb ba 56 26 3e 97 75 5b 3e 8e 58 08 3e
       -0.0077920575 0.16244021 0.21431576 0.13315031
0002b0 52 1a 73 3d e9 3c eb 3d dd bf f0 3d 5d 86 ae 3e
       0.059351273 0.11486227 0.11755345 0.34086886
0002c0 a2 13 93 3e c5 8e 29 3e 33 88 6d 3d 57 a0 b6 3c
       0.28725916 0.16558369 0.057991218 0.022293253
0002d0 b1 de b6 3d c5 83 95 3e 56 23 bd bc f5 09 0e 3d
       0.08929194 0.29202095 -0.023088139 0.034677465
0002e0 77 d4 44 3e f0 a1 a7 3e 17 d5 0a 3e d9 d2 89 3e
       0.19221674 0.32740736 0.1355785 0.26918676
0002f0 dc 2a d8 3d 6d d3 6e 3e 9c 1c 89 bd eb 00 4d 3e
       0.1055505 0.2332284 -0.0669491 0.20019881
000300 dd 15 aa be 13 93 a3 3b 92 e3 82 3b fa 5b bb bd
       -0.33219805 0.004991898 0.0039944137 -0.091484025
000310 64 97 1c be 6a 88 9a be 9e 37 93 3d a7 10 7d be
       -0.15292126 -0.301822 0.071883425 -0.24713384
000320 41 21 89 3d 94 cf 5b be 5d 18 95 be 8e d4 22 3d
       0.06695796 -0.21465904 -0.2912015 0.03975349
000330 60 d7 16 bc e3 a4 38 bc e3 b3 17 be a0 d2 8e be
       -0.009206623 -0.011269781 -0.14814715 -0.2789507
000340 72 c5 97 be ec 8c 16 bd 89 3b 19 39 09 c1 1f be
       -0.29642826 -0.036755487 0.00014613396 -0.15600981
000350 88 1d 89 be e8 32 5a be 83 f5 90 be e0 93 a5 be
       -0.26780343 -0.21308482 -0.2831231 -0.32339382
000360 09 1a 36 bd 7d 32 d1 bd f2 8d a7 be 83 42 5c bd
       -0.044458423 -0.10214708 -0.32725483 -0.053774368
000370 00 0c 8e be e8 6a 35 bd fc 22 04 be 31 e3 95 be
       -0.2774353 -0.044291407 -0.1290397 -0.29274896
000380 b1 25 ae bc be 65 ac be db e2 8a bd 26 e9 de bc
       -0.021258207 -0.33671373 -0.067815505 -0.027210783
000390 0a 25 8f be 18 9d 94 3d 23 5b 6d be de d8 4e be
       -0.27957946 0.07256526 -0.23179297 -0.20199916
0003a0 65 3b 87 3d ff 0f 08 be 6b 00 9c be 47 4e 92 be
       0.066031255 -0.13287352 -0.3046907 -0.28575346
0003b0 a3 fd 97 be 44 6d e4 3c 89 df ef 3b c0 3d 89 bc
       -0.29685697 0.027884133 0.0073203486 -0.016753078
0003c0 32 70 84 be e6 a4 9d be ce 79 5d be b7 12 3d be
       -0.25866848 -0.3078987 -0.21628496 -0.1846417
0003d0 58 cc 14 bd 8e 3f 01 be 71 c1 53 bb 01 64 a9 be
       -0.03632769 -0.126219 -0.0032311345 -0.3308411
0003e0 0d f8 83 be 78 88 c2 3c d7 51 5e be 4a 0e 99 3c
       -0.25775185 0.023746714 -0.21710907 0.018683571
0003f0 0b a1 8c 3d 84 4b a0 be d0 fb 1a be ce f9 a6 be
       0.06866654 -0.31307614 -0.15135121 -0.3261246

encoder.dcrnn_cells.0.update.weights_pool f4 [2, 2, 65, 64]
000000 cb dc 15 be 84 c8 ca 3d ef 5e fa 3d e1 97 0c be
       -0.14635007 0.099015266 0.122251384 -0.13729812
000010 b1 38 f0 3d 47 3d 12 be a4 4f fb 3d 6c 00 f6 3d
       0.11729563 -0.14281188 0.122710496 0.12011799
000020 bf c7 f5 3d d5 2e 70 3d fc 33 ee 3d 2c f1 f5 bd
       0.12000989 0.058638413 0.11631009 -0.120088905
000030 e3 78 09 be 1a 97 f3 bd bc 5d e0 bd 2a 98 8b bd
       -0.13425021 -0.11894055 -0.109553784 -0.06816132
000040 02 b1 14 be 5d 64 08 3e 1d d4 de 3d da 77 db bd
       -0.14520648 0.13319536 0.10880301 -0.10716219
000050 73 a3 0f 3e de 98 e9 3d c9 93 14 be 5e 08 c5 bc
       0.14027195 0.1140611 -0.145095 -0.024051841
000060 c0 46 95 bd a7 01 17 3e 56 87 f6 3d fb 14 c6 3d
       -0.07288885 0.14746724 0.12037532 0.096719705
000070 e3 84 01 3e 00 a7 00 3e 93 44 cc 3d bf c7 05 3e
       0.12648349 0.12563705 0.09974017 0.13064478
000080 63 c0 f3 3d f7 ff d8 bd d6 ae 05 3e 14 b9 18 3e
       0.11901929 -0.105956964 0.13054976 0.14914352
000090 4f f1 f6 3d 24 aa fc 3d e0 92 0d 3e 46 e1 b7 bd
       0.12057745 0.12337139 0.1382556 -0.089785144
0000a0 70 0d 36 bc 17 e0 f2 bd 3c 6d ee bd ef 83 06 be
       -0.011111602 -0.11859148 -0.116419286 -0.13136266
0000b0 08 5b 47 3d bc a2 18 be 71 c5 0b bd 1c d1 11 be
       0.0486708 -0.14905828 -0.03412384 -0.14239925
0000c0 b6 55 8f 3c d9 6b fb 3d 67 46 10 3e 94 7b 11 be
       0.017496925 0.1227643 0.14089356 -0.14207298
0000d0 78 49 04 3e 42 67 d0 bd d2 a0 08 3e fc 6b fe bd
       0.12918651 -0.10175945 0.13342598 -0.1242294
0000e0 95 b0 ef 3d c6 f1 0f be 57 f1 f9 bd 70 5e b0 bd
       0.11703602 -0.14057073 -0.12204235 -0.086117625
0000f0 69 44 08 3e 3e 8b 08 3e 94 bf ec bd ca 17 14 be
       0.13307346 0.13334367 -0.11559978 -0.144622
000100 db 57 12 3e 93 7f 07 be 79 0a 02 be dd 0c 09 3e
       0.14291327 -0.1323226 -0.12699308 0.13383813
000110 5a d3 fb bd d3 7d 17 3e 34 b1 0c be 44 04 12 be
       -0.122961715 0.14794092 -0.13739473 -0.1425944
000120 91 50 ee bd 63 ff 00 be c8 2a 18 be d1 3e f6 3d
       -0.116364606 -0.12597422 -0.1486007 0.120237
000130 ec e7 14 3e e1 da fc 3d 24 59 05 3e 1b 62 0b 3e
       0.14541596 0.12346435 0.13022286 0.13611643
000140 de 41 06 3e e4 14 0d be 29 6b d4 bd fa 33 db 3d
       0.13111064 -0.137775 -0.10372002 0.10703273
000150 df 9a 0a be b6 85 e0 bd a3 bc 15 3e 1d ec fe bd
       -0.13535641 -0.10963003 0.1462274 -0.12447379
000160 df 0c 06 3e e2 0e 05 be 4d 5d d9 bd 7d 02 ac bd
       0.13090847 -0.12993959 -0.10613499 -0.08398912
000170 4d 0b 02 be f2 d2 fc bd 94 c1 fd bd 4d 34 ec bd
       -0.12699623 -0.12344922 -0.12390438 -0.11533413
000180 7b b7 ea bd 72 72 01 3e ec 4f 05 be cc 3a 0c be
       -0.11460777 0.12641314 -0.13018769 -0.13694304
000190 7f 22 03 be 0e 0f 0b be cb b7 14 be ab e7 ff 3d
       -0.12806128 -0.13579962 -0.14523236 0.12495359
0001a0 35 f1 1a be 1f 75 e5 3d 88 bf f4 3d 1d 15 03 3e
       -0.15131076 0.1120398 0.11950594 0.12801023
0001b0 41 e2 15 be 24 c4 19 3e ce 99 0e 3e c2 0f 0c 3e
       -0.1463709 0.15016228 0.1392586 0.13677886
0001c0 5e e0 15 be f0 03 f5 bd e8 0e 10 be 13 4b 09 3e
       -0.1463637 -0.11963642 -0.14068186 0.13407545
0001d0 24 77 ed bd cc 3f 09 3e da a6 04 be 30 fb 14 3e
       -0.1159499 0.13403243 -0.12954274 0.14548945
0001e0 fd b4 04 be 09 bf 04 3e 28 41 b0 3d 28 37 d0 3d
       -0.12959667 0.12963499 0.086061776 0.1016677
0001f0 95 f2 0d be eb 6a 0b be 4c 04 b2 3d 92 45 14 3e
       -0.13862069 -0.13615005 0.08692226 0.14479664
000200 24 f5 10 be 97 47 38 be d6 e8 26 3e 4d 7c 17 be
       -0.14156014 -0.1799606 0.16299757 -0.1479351
000210 38 e0 28 3e 68 56 16 be 48 6e 60 be a3 8a 51 3e
       0.16491783 -0.14681399 -0.21917069 0.20463042
000220 51 16 30 be 7d 4c 04 3e 23 52 19 3e 7e d3 21 be
       -0.17196013 0.12919803 0.14972739 -0.15803334
000230 ca f3 57 be 2b 0a 35 be 49 06 55 3e 12 15 08 be
       -0.21089092 -0.1767966 0.20803179 -0.13289288
000240 ba ce 18 be 7e 0e 30 3e b9 83 27 be 97 39 38 3e
       -0.1492261 0.17193028 -0.16358842 0.17990719
000250 0a 65 22 3e d8 16 25 be c5 29 34 be 89 60 42 3e
       0.15858856 -0.16121995 -0.17594059 0.18982138
000260 09 03 fb bd 8c 50 0f 3e a5 3f 5f be 31 df 19 be
       -0.12256438 0.1399557 -0.21801622 -0.15026547
000270 ab f4 40 3e 08 7c 25 3e ca 5b 0d 3e d5 ee 43 be
       0.18843333 0.16160595 0.13804546 -0.19134076
000280 ce 45 32 be dd 2d 42 3e ca c9 27 be 98 95 40 3e
       -0.17409441 0.18962808 -0.1638557 0.18807065
000290 d4 88 4e 3e b2 a6 34 3e f4 e5 4a 3e 90 74 04 be
       0.20169383 0.17641714 0.19814283 -0.1293509
0002a0 cb 2a 34 3e c7 80 56 3e 21 92 57 be 00 bf 28 be
       0.17594449 0.20947562 -0.21051838 -0.1647911
0002b0 37 79 2c 3e 12 3c 29 be 3f 9c 39 be f2 69 17 be
       0.16843115 -0.16526821 -0.1812601 -0.14786509
0002c0 cd b0 2a 3e b0 da 26 be ef 52 23 3e 82 b6 26 be
       0.16669007 -0.1629436 0.15949605 -0.16280559
0002d0 80 60 2d be 2d b7 0e be 6f d9 1e 3e a0 87 4e be
       -0.16931343 -0.13937064 0.15512632 -0.20168924
0002e0 36 78 28 3e 28 8b 60 be ad b4 1a 3e 76 e7 26 3e
       0.16452107 -0.21928084 0.15107985 0.16299233
0002f0 aa 25 26 3e b4 ce 46 3e 5e 23 2e 3e cf f3 27 be
       0.16225305 0.19414788 0.17005679 -0.164016
000300 e4 c4 13 be 6c 2f 07 3e 4e 31 18 3e c1 8d 19 be
       -0.14430577 0.13201684 0.14862558 -0.14995481
000310 60 21 0d 3e 64 0b 04 be 4d a6 08 3e e0 1f 19 3e
       0.13782263 -0.1289497 0.13344689 0.14953566
000320 c7 2c fd 3d 61 d2 0f 3e 4d 4b f4 3d 43 ca 03 be
       0.12362056 0.14045097 0.11928425 -0.12870125
000330 7a b3 18 be 7f e7 19 be a0 38 f7 bd 45 8c 18 be
       -0.14912215 -0.15029715 -0.12071347 -0.14897259
000340 38 91 10 be f6 26 fd 3d df e9 fb 3d f5 e2 09 be
       -0.14117897 0.12360947 0.12300467 -0.13465483
000350 ce d3 15 3e ac 5d ea 3d 9e c2 12 be 05 d4 16 3e
       0.14631578 0.11443648 -0.14332053 0.14729317
000360 a7 1a 10 be df 5f 09 3e aa 1b f4 3d 67 47 e1 3d
       -0.14072667 0.13415478 0.11919339 0.10999947
000370 68 9d 19 3e af 0e fd 3d e8 8b 08 3e 5e c1 1b 3e
       0.15001452 0.12356316 0.1333462 0.15210482
000380 42 bf 05 3e ec f4 17 be c2 4e 1f 3e df 86 18 3e
       0.1306124 -0.14839524 0.15557387 0.14895199
000390 29 a2 07 3e 5c 6d ee 3d cb 49 06 3e 41 27 09 be
       0.13245453 0.116419524 0.13114087 -0.1339388
0003a0 96 71 f1 3d c8 b4 f4 bd e3 c3 11 be 92 83 f7 bd
       0.11789243 -0.11948544 -0.14234881 -0.12085642
0003b0 95 fa f6 3d 41 5a 01 be 71 18 15 be 1a 70 01 be
       0.120595135 -0.12632085 -0.14560105 -0.1264042
0003c0 d5 ab 11 3e af a2 17 3e 9e 60 ff 3d 49 c5 ef bd
       0.14225705 0.14808153 0.124696 -0.11707551
0003d0 41 88 11 3e fb 4d 12 be 93 73 07 3e b5 e8 0d be
       0.14212133 -0.1428756 0.13227682 -0.13858302
0003e0 a6 ed 0c 3e 75 4a 02 be e2 18 fd bd 06 b7 d2 bd
       0.1376253 -0.12723716 -0.12358262 -0.10288815
0003f0 e5 f7 19 3e c2 ba f6 3d 66 c4 f5 bd 53 d2 16 be
       0.1503597 0.1204734 -0.12000351 -0.1472867

encoder.dcrnn_cells.0.update.bias_pool f4 [2, 64]
000000 0a 67 99 be d3 b3 38 be dd 54 ea 3e 3f 91 e5 be
       -0.29961425 -0.18037347 0.4576787 -0.44837376
000010 c8 c4 84 3e f8 7c af be 29 8b b3 bc 2e b8 78 3e
       0.25931382 -0.3427503 -0.021916943 0.24289009
000020 a8 8e c0 be d5 ce a1 3e 5d d8 e4 3e 6a c1 72 be
       -0.37608838 0.31603113 0.44696322 -0.23706594
000030 d5 4a 84 be 41 88 b1 be d0 60 46 bc 72 12 b0 be
       -0.25838342 -0.34674266 -0.012108043 -0.34389073
000040 4f 54 86 be fa e4 af 3e e5 bf c3 be 84 98 8e 3e
       -0.26236197 0.34354383 -0.3823234 0.27850735
000050 a5 4d 79 3e ac 22 8e be 5c 1d 1c be 55 88 c9 3e
       0.24346025 -0.27760828 -0.15245575 0.39361826
000060 17 eb db be 5f ef 04 3e 64 60 07 be 7d eb a2 be
       -0.42952797 0.12981938 -0.13220364 -0.31820288
000070 4f b3 9e 3e 79 98 97 3e a4 5b e4 3e 34 4c 23 bc
       0.30996177 0.29608515 0.44601166 -0.009966899
000080 c3 7a af be f3 47 78 3d 32 04 b9 be ae 44 77 3e
       -0.34273347 0.06061549 -0.36136013 0.24147293
000090 a1 83 bd 3e f9 08 cf 3e 8e d0 7a 3e 69 2a a1 be
       0.37014487 0.40436533 0.2449362 -0.3147767
0000a0 41 69 dd 3e b7 67 26 bc 81 98 23 be 93 27 98 be
       0.43244365 -0.0101565635 -0.15976144 -0.29717693
0000b0 9c 5b ad 3e aa 62 83 be ec d0 c9 be 33 2e e7 be
       0.33858955 -0.25661212 -0.39417207 -0.45152435
0000c0 ef dc b7 3e 5d a8 ab be bf dd 34 3e 63 f4 25 be
       0.35910746 -0.33526888 0.17662714 -0.16206507
0000d0 af 80 b8 be 3a 20 e4 be 2f 22 8b 3e e6 e0 96 be
       -0.36035678 -0.44555837 0.27174518 -0.2946846
0000e0 9e d6 9b 3e 92 e9 27 be 43 81 99 3e 3e 79 32 3e
       0.30437177 -0.16397694 0.2998143 0.17429063
0000f0 e9 04 cf 3e 20 64 42 3e a8 f0 92 3e 38 31 c8 be
       0.40433434 0.18983507 0.2869923 -0.3910005
000100 6f f5 cd be 0d de e1 3e ae c5 42 3e e6 03 c4 be
       -0.40226313 0.44114724 0.19020721 -0.38284224
000110 2d 47 b6 3e cc b3 80 be 55 60 cf 3e 5a 9a 5c 3e
       0.35601178 -0.25137174 0.40503183 0.21543255
000120 51 0d b1 3e ee 10 94 bd 57 02 d6 3e f7 a3 e2 be
       0.34580472 -0.072297916 0.4179866 -0.4426572
000130 7c 58 4e be d3 0a 9d be 03 95 ca be ca 5b 30 3c
       -0.20150942 -0.3067232 -0.39566812 0.010764072
000140 32 91 bd be f3 f1 d7 3e 6e cc cf 3e 57 a5 ce be
       -0.37024838 0.4217678 0.40585655 -0.4036052
000150 70 21 db 3e f7 e2 71 3e f4 6e a9 be 85 6e 78 be
       0.42798948 0.23621736 -0.33092463 -0.2426091
000160 a1 d9 77 3c 02 06 e4 3e be 5a dd 3e 4e d4 86 3e
       0.01512757 0.44535834 0.43233293 0.2633385
000170 a6 fb 66 3e 36 17 aa 3e d0 16 89 bb 55 3b 8d 3e
       0.22556934 0.33220834 -0.0041836277 0.2758433
000180 08 42 b6 3e 8c 13 a7 be cb 79 ae 3e ff 8a 86 3e
       0.35597253 -0.326321 0.34077296 0.2627792
000190 df a6 39 3e e9 6a 30 3e 99 94 61 3e e9 9a 81 bc
       0.18130063 0.17228283 0.22029342 -0.015820937
0001a0 5d 0f 78 be 1b 98 ba be 30 4f 1b be b3 03 aa be
       -0.2422461 -0.36444172 -0.15166926 -0.33205947
0001b0 6e 7b f1 bd f3 08 78 be b7 7e 35 3e d4 6d ce be
       -0.117911205 -0.24222164 0.17724119 -0.40318167
0001c0 cc 5a 13 be 86 5a a6 3e 88 78 df 3e 68 63 56 be
       -0.14390105 0.3249094 0.43646646 -0.20936358
0001d0 7d 9f d6 3e 2e 68 f0 3c 08 37 ad 3e 6b 31 80 be
       0.41918555 0.029346552 0.33831048 -0.25037703
0001e0 a7 1e 97 3e 4e 11 1a be 43 92 95 be 39 0e 32 be
       0.29515573 -0.15045664 -0.2921315 -0.17388238
0001f0 3b ee dc 3e d0 5c 39 3e 28 05 87 be c9 13 8e be
       0.43150505 0.18101811 -0.2637112 -0.2774947

encoder.dcrnn_cells.1.gate.weights_pool f4 [2, 2, 128, 128]
000000 5d 18 b8 bc 85 f6 09 be 7c ad 28 bd c1 23 05 be
       -0.022472555 -0.13472946 -0.041181073 -0.1300192
000010 56 5b 02 be 3e ab 00 be 3b 1e 0e be 4d 20 2f be
       -0.12730154 -0.12565324 -0.1387872 -0.17102166
000020 16 b7 4f 3d d4 2b 0f be 7a 23 10 be ff 00 1c bd
       0.050711714 -0.13981563 -0.14076033 -0.038086887
000030 d9 2d 7a 3d 49 be df bd 5d 75 d6 bc c1 49 06 be
       0.06107888 -0.10924966 -0.02617901 -0.13114072
000040 f1 72 02 be c5 6c 0e be ec f0 6f be 02 28 e0 bc
       -0.12739159 -0.1390868 -0.23431748 -0.027362827
000050 d2 3c 00 be cb d5 20 be 5a 54 02 be e9 09 0f be
       -0.12523201 -0.15706556 -0.1272749 -0.13968624
000060 9f fc 1c bd fd 79 f0 bd e3 bc 75 3d 75 de ed bb
       -0.038326856 -0.117420174 0.05999459 -0.007259185
000070 6f 9c f2 bd 1f 26 a7 3c 3c 5a 2d bd 66 3e 04 be
       -0.118462436 0.02040392 -0.042322382 -0.12914428
000080 bf 7a 09 be 5f 2c 10 bd c2 4f 03 be 25 e5 57 bd
       -0.1342573 -0.035198566 -0.12823394 -0.052708764
000090 6d 37 42 be 9e 31 1f bd df 85 fc bd 8f 32 1b bd
       -0.18966456 -0.038865678 -0.123302214 -0.037890013
0000a0 83 85 06 be 4c c8 28 bd 1e a1 75 bd f1 ac 11 be
       -0.13136868 -0.041206643 -0.059968106 -0.14226128
0000b0 93 3b 06 be 9d 2d 14 bd cd 21 0b be 11 2f 16 be
       -0.13108663 -0.036176313 -0.13587113 -0.14666392
0000c0 9d 7c 53 be 2e b4 9b 3c 96 ef f8 bd 2c 44 09 be
       -0.20653005 0.019006815 -0.121550724 -0.13404912
0000d0 cc e5 f6 bc 5e 9e 04 be a4 5e 03 be 58 8e 01 be
       -0.030138873 -0.12951037 -0.12829071 -0.12651956
0000e0 70 c6 b2 bd 9c 54 a5 bd bd 82 ef bd 42 0c 0a 3d
       -0.08729255 -0.080727786 -0.11694858 0.033703096
0000f0 74 13 ef bd 5e 46 09 be 2e 00 bf bc 64 f5 a7 bc
       -0.11673632 -0.13405749 -0.023315515 -0.020502754
000100 62 46 13 3e 21 b8 15 3e d9 a1 0d 3e 58 61 1c 3e
       0.14382318 0.14621021 0.13831271 0.15271509
000110 df 59 17 3e 9a f7 1a 3e 07 76 1c 3e 79 60 1c 3e
       0.14780377 0.15133515 0.15279399 0.15271176
000120 cd 77 01 3e f0 b3 1e 3e 59 fa 26 3e 2a 0f 0f 3e
       0.12643357 0.15498328 0.16306438 0.13970628
000130 67 ae 0c 3e 08 2f 2d 3e 78 71 25 3e 4b 4b 25 3e
       0.13738404 0.16912472 0.16156566 0.16142003
000140 40 48 23 3e 2b e7 1b 3e 77 9b fd 3d 61 6a 05 3e
       0.1594553 0.15224902 0.12383168 0.13028862
000150 21 f9 1c 3e e1 f0 17 3e 08 eb 26 3e e2 75 28 3e
       0.1532941 0.14837982 0.16300595 0.16451219
000160 56 62 0f 3e 81 f2 20 3e c1 69 05 3e 35 1b 1d 3e
       0.14002356 0.15717508 0.13028623 0.1534241
000170 b6 56 2d 3e 61 5c cd 3d 92 d0 2b 3e dc 5e 2e 3e
       0.16927609 0.100273855 0.16778782 0.17028373
000180 c1 66 1f 3e dc a8 0d 3e 92 3c 1a 3e ef af 17 3e
       0.15566541 0.13833946 0.15062168 0.14813207
000190 c4 94 19 3e c7 47 0d 3e f1 ff 1d 3e c4 be 0b 3e
       0.14998156 0.13796912 0.15429665 0.1364699
0001a0 3d 82 22 3e 76 9e 07 3e e2 b7 0c 3e 5a 65 1c 3e
       0.15869994 0.13244042 0.1374202 0.15273038
0001b0 da 00 18 3e fa e0 05 3e 6a 8c 18 3e b4 58 19 3e
       0.14844075 0.13074103 0.14897314 0.14975244
0001c0 ed 07 27 3e 93 06 1e 3e 5b 3e 21 3e c7 37 15 3e
       0.16311617 0.15432195 0.15746443 0.14572059
0001d0 45 48 10 3e ac 69 18 3e 8f 89 26 3e dc 8a 24 3e
       0.14090069 0.1488406 0.16263412 0.16068596
0001e0 8f a6 24 3e a5 bf 11 3e 67 96 1b 3e 72 cf 13 3e
       0.16079162 0.14233263 0.15194093 0.14434603
0001f0 e3 db 16 3e 0e 79 17 3e 6a fd 15 3e f7 f8 15 3e
       0.14732318 0.14792272 0.14647451 0.14645754
000200 80 ee e6 bd 73 f4 12 3c 6c 92 7a 3c 95 9d 5f 3d
       -0.11275959 0.008969414 0.015293699 0.05459364
000210 fd 3f 81 3d 9c 29 2a 3d f7 4e 84 bd 21 f4 01 bd
       0.06311033 0.041543588 -0.06460374 -0.03172696
000220 91 f1 dc bd 60 64 47 3d 00 2c 83 3d 7e c6 04 3d
       -0.10788263 0.04867971 0.06404877 0.03241586
000230 72 7a a2 bd b5 18 bd 3c df cb ea 3d 25 bd 1b 3d
       -0.07933511 0.02308307 0.114646666 0.03802218
000240 0c 18 52 3d ba fa 7c 3d a8 32 d0 bd a7 3d b6 bb
       0.051292464 0.06176255 -0.10165912 -0.0055615488
000250 6c 00 39 3d 71 6f f1 bc 2a f3 51 3d e3 92 27 3d
       0.045166418 -0.029472085 0.05125729 0.040911566
000260 8c 5b 3c bc 91 a5 ab ba e0 20 e0 bd 14 1a db 3d
       -0.011496436 -0.0013095607 -0.109437704 0.106983334
000270 40 de 68 3a e3 3e 1b be d0 13 dd 3d 40 6f c6 bc
       0.00088832155 -0.15160708 0.107947946 -0.02422297
000280 54 da 46 3d c6 60 49 bc da f2 2f 3d 7e 59 a1 3d
       0.048548058 -0.012291139 0.04295621 0.078783974
000290 42 59 5b bd 2c 16 52 bd f2 28 8f bb 83 2d 82 bd
       -0.05355192 -0.051290676 -0.0043688947 -0.06356337
0002a0 cb 03 4e 3d 5e 31 b6 bc 70 01 8b 3d d0 de 1d 3d
       0.050296586 -0.022240337 0.067873836 0.03854257
0002b0 76 56 2f 3d 44 d0 b7 3c a1 9e 59 3d e2 3a 99 bc
       0.042807065 0.022438176 0.053129796 -0.018704835
0002c0 7b ad a3 bd 9f 4f 50 3d a2 c8 2d 3c fb 8d 45 3d
       -0.07992073 0.050857183 0.010606917 0.048231106
0002d0 e6 28 e1 bd 9f 2c 62 3d 36 c6 29 3d d0 d6 87 3d
       -0.10994129 0.055218335 0.041448794 0.06632769
0002e0 aa 67 f9 3d b8 1d c0 3d 79 13 48 bc 4e 61 99 3d
       0.121779755 0.093806684 -0.012211674 0.074892625
0002f0 bb 66 94 3d 74 9d 6c 3d 3b 71 07 be 65 f6 18 be
       0.07246157 0.057767347 -0.13226788 -0.14937742
000300 bf f9 9e 3d 5c c6 04 3e 39 1d 93 3d a0 50 f1 3d
       0.07762479 0.12966293 0.07183308 0.11782956
000310 17 c9 ce 3d 22 32 ce 3d f4 df 06 3e 80 9f 0a 3e
       0.100969486 0.10068156 0.13171369 0.13537407
000320 5e bc ba 3d 0d 72 dd 3d f1 81 e0 3d 6c bb 91 3d
       0.091179594 0.10812769 0.10962284 0.07115826
000330 92 fd c2 3d 69 42 08 3e cb 25 ce 3d cc 38 d7 3d
       0.09521021 0.13306583 0.10065802 0.1050888
000340 21 0d d2 3d 09 12 e9 3d cb 40 cd 3d d7 e8 9a 3d
       0.102564104 0.11380393 0.10022124 0.07563942
000350 83 72 e6 3d c2 ca 00 3e 2a 89 db 3d 77 c3 e6 3d
       0.1125231 0.12577346 0.10719521 0.11267751
000360 f0 78 99 3d e3 3a 04 3e df 48 c1 3d 8a 08 d0 3d
       0.0749377 0.12913089 0.09437727 0.10157879
000370 ea 28 f8 3d bb d9 dd 3d 8f f8 ea 3d e6 26 eb 3d
       0.12117179 0.108325444 0.1147319 0.11482029
000380 f8 bd dd 3d 23 d2 8c 3d f6 01 ec 3d d2 24 9d 3d
       0.10827249 0.06876018 0.115238115 0.076730385
000390 ee 16 a7 3d 40 8b 9b 3d 96 dd f2 3d cf 10 8b 3d
       0.0815867 0.07594919 0.118586704 0.06790315
0003a0 23 f0 f0 3d ac e2 ad 3d 7d 07 a5 3d c8 22 ee 3d
       0.117645524 0.084905 0.08058069 0.11627728
0003b0 93 30 ef 3d 1f e0 a6 3d 85 ae d9 3d d7 cc 05 3e
       0.11679187 0.081482165 0.1062899 0.13066421
0003c0 5c 26 79 bb 98 dd a5 3d f9 ee 03 3e 8c d6 db 3d
       -0.0038017249 0.08098906 0.1288413 0.10734281
0003d0 8a cb a1 3d 85 2a da 3d 57 45 e4 3d 9b 04 df 3d
       0.0790015 0.10652641 0.11146038 0.1088955
0003e0 10 80 c9 3d c7 3a c3 3d 3e cd f5 3d 3d bc d5 3d
       0.09838879 0.09532695 0.120020375 0.10436294
0003f0 db f4 ec 3d 4e 70 d4 3d 3c c8 9c 3d a9 21 a8 3d
       0.1157014 0.10372983 0.07655379 0.08209545

encoder.dcrnn_cells.1.gate.bias_pool f4 [2, 128]
000000 1f 01 70 be 60 2f 23 3e b0 b4 69 3d 9f a1 91 3e
       -0.23437928 0.15936041 0.057057083 0.2844362
000010 d1 ee 06 3e 73 c8 70 3e 07 25 a4 3e 38 8d 77 3e
       0.13177039 0.23513965 0.320595 0.24174964
000020 d2 50 7d 3d 9d 78 b9 bd d0 c7 19 3e f5 2d a8 bd
       0.061844654 -0.09056208 0.15017629 -0.082118906
000030 3c 3b f4 3d cd a3 95 3c e1 ed 0f be 6c 8b 3e 3e
       0.119253606 0.018266583 -0.14055587 0.18607873
000040 fa 03 54 3e 24 55 05 3e 8e d0 86 bd 5a e6 b4 3d
       0.20704642 0.1302076 -0.065827474 0.088329986
000050 55 30 8c 3e c1 a2 8e 3e 25 7e 0b 3e 37 35 10 3d
       0.27380624 0.27858546 0.13622339 0.035207
000060 f9 45 b8 bd c2 17 a5 3e f4 16 de 3c c4 ae a2 3c
       -0.08997721 0.32244688 0.027110554 0.019858725
000070 2c 2f b7 3d fb 6d 8e be c9 bc f6 3d 16 64 9f 3d
       0.08944544 -0.27818283 0.12047727 0.07782762
000080 1f 82 06 3e 75 04 0c 3e ea 32 84 3e bd 0d 8d bd
       0.13135575 0.13673575 0.25820094 -0.06887386
000090 2c b4 1e 3d eb b8 24 3e f1 98 d4 3d 83 d9 8c 3d
       0.038746044 0.16086166 0.10380734 0.068774246
0000a0 ac c9 c6 3c e0 e9 1f be d7 12 43 3e d8 e8 62 3e
       0.024266087 -0.1561656 0.19050156 0.22159135
0000b0 15 bf dd 3d f0 c2 e7 bc f7 f3 8b 3e 81 f0 cf bd
       0.10827462 -0.028291196 0.27334568 -0.10153294
0000c0 69 1e 0a 3e 58 97 14 be 09 3c 4b 3e 84 9e d7 3b
       0.13488163 -0.14510858 0.1984712 0.006580176
0000d0 c6 dd 3b 3c 3b f9 76 3e 3b ef ab 3d f4 f6 14 3d
       0.011466449 0.24118511 0.08395239 0.036368325
0000e0 6d 37 aa bd a6 b6 82 3e c5 3a 8d 3b d4 c4 ad bd
       -0.08311353 0.25529975 0.0043099844 -0.084848076
0000f0 df 08 fd bc 62 88 04 3b 5d 0f a6 3c ce da 63 3d
       -0.03088802 0.0020222892 0.020270998 0.05562859
000100 b2 a0 13 be 32 67 8a be 05 37 db bc d2 71 a0 bd
       -0.14416769 -0.27031857 -0.026759634 -0.078342095
000110 aa 40 5a bd 26 c0 b7 3d 01 cc b5 3d 77 71 f5 bd
       -0.053284325 0.08972196 0.08876801 -0.11984532
000120 99 ff 9b 3c 1d ae 05 be b5 3a 9c be 47 fb 9a bc
       0.019042777 -0.130547 -0.3051354 -0.018918646
000130 83 15 1a be d7 dd 2f bc 4e 64 ec 3d 02 69 11 be
       -0.15047269 -0.010734043 0.11542569 -0.14200214
000140 2d 11 14 be df 22 9f bd 53 62 42 3d 2b 4a 4b 3b
       -0.14459677 -0.07770323 0.04745705 0.003101955
000150 06 a6 49 be df 15 a4 3c 26 f4 37 be aa 1b 25 bc
       -0.19692239 0.02002996 -0.17964229 -0.010077396
000160 06 6f 3a be b0 51 5e be ea 88 1e 3e 82 a4 d3 bc
       -0.18206415 -0.21710849 0.15481916 -0.02583528
000170 5e 9d fc 3c a7 bf 1a 3e 9f bf 75 3d 03 9c 7a 3d
       0.030836757 0.15112172 0.059997197 0.06118394
000180 d3 74 ee 3d fd 9c ff bc de 91 98 bd fa e4 11 be
       0.11643376 -0.031202788 -0.07449697 -0.14247504
000190 ba 9a 88 be 5d e7 83 bd cb 6b b4 3d 8d c4 85 bc
       -0.26680547 -0.064406134 0.088096224 -0.016329074
0001a0 ac 7f ad 3d ab 53 70 bb 2b 43 50 be de 98 5c be
       0.08471617 -0.0036670964 -0.20338123 -0.21542689
0001b0 b4 ae 88 3d 5f d0 d9 3d 74 eb 1e be 26 9c 27 bd
       0.06673947 0.10635447 -0.15519506 -0.0409204
0001c0 50 9b 68 be 63 8e d5 3d 8c 9c 75 bd dc 42 44 be
       -0.22715497 0.10427549 -0.059963748 -0.1916613
0001d0 48 bc 98 bd 47 16 36 3d 85 3b c8 bd 71 55 04 be
       -0.07457787 0.04445484 -0.097769774 -0.12923218
0001e0 1f 02 49 3d 6d b0 0a bd 72 5b 32 be a3 59 1c be
       0.04907429 -0.03385966 -0.17417696 -0.15268569
0001f0 83 9e 0b be 2a d8 74 be 3f e3 d3 3d 61 68 29 be
       -0.13634686 -0.23910585 0.10346078 -0.16543724
000200 3e 8d 90 3d 2f a1 93 3e 7e 4e af bd fb a7 ff 3c
       0.0705819 0.2883391 -0.08559893 0.031208029
000210 81 d3 c5 bd 31 e8 0a 3d 55 80 5e 3d e1 a6 11 3e
       -0.09659482 0.03391284 0.054321606 0.14223816
000220 ac 20 f2 3d a2 10 8e 3e 9a 74 6a 3c 94 6c 7f 3e
       0.11822638 0.27747065 0.014310027 0.24943763
000230 0a a5 38 bc ef 42 88 3d 4c f5 ea 3d d0 41 f1 3d
       -0.011269817 0.066533916 0.11472568 0.11780131
000240 e6 3b 8d 3b e2 eb 3c bd dc f2 1a 3e 9f 8c a1 3e
       0.004310119 -0.046123393 0.15131706 0.31552598
000250 d6 4f 84 3e eb 45 28 bd c5 49 35 bd 52 7d 0a 3d
       0.2584216 -0.041082304 -0.044259805 0.03381092
000260 4e 07 4c 3e 7f 5d 95 3d ed 4a 16 3e 70 13 65 be
       0.19924662 0.072932236 0.1467702 -0.22370696
000270 db 20 1d 3e e0 d6 eb bd 2a 4c a4 bc 41 8b 1a 3e
       0.15344565 -0.115155935 -0.02005585 0.15092184
000280 64 85 65 3e 17 55 96 3e a9 57 68 3e 26 44 91 3e
       0.22414166 0.29361793 0.2268969 0.28372306
000290 ae f4 bb 3d ad e1 25 3e 16 61 a6 bb 5c cc 71 3e
       0.09177528 0.1619937 -0.0050774915 0.23613113
0002a0 5e 57 24 3e 04 ad 9c bb 8d 7e aa 3e 18 37 ed 3d
       0.16048953 -0.0047813673 0.33299676 0.11582774
0002b0 c6 9e 52 3d 7f 71 94 3e 8f d1 fb 3d 54 dc 7e 3e
       0.05142095 0.2899284 0.122958295 0.24888736
0002c0 c5 04 0f bd 0f 3c 13 3e fc 5a 95 bd 27 61 0b 3e
       -0.034916658 0.1437838 -0.072927445 0.1361128
0002d0 2a 20 18 3e c3 93 8d 3d 99 37 44 3c e8 0d 2a 3e
       0.1485602 0.06912949 0.011976146 0.16606867
0002e0 43 9e 40 3e a1 fd 95 3e 5c 03 3e 3e 87 60 c2 bd
       0.18810372 0.29295066 0.18555969 -0.094910674
0002f0 6c a0 8d 3e be 6e 33 3e ab b2 48 3e cb f1 66 3e
       0.27661455 0.17522714 0.19599406 0.22553174
000300 d5 67 91 be 75 42 d4 3d d4 45 bb 3c db d1 4b be
       -0.2839953 0.10364238 0.022860445 -0.19904272
000310 5b 24 59 3d c4 12 04 3c c4 bb 2c bd 10 e8 06 3c
       0.053013187 0.008061115 -0.042171255 0.008234039
000320 14 06 1c be 89 7d 2b be 4c b0 a0 be 6c ff 92 be
       -0.15236694 -0.16747107 -0.31384504 -0.28710496
000330 8b 43 8a be 8c d3 7d be 94 06 a0 3d 33 fe a6 3b
       -0.27004656 -0.2478773 0.07813755 0.005096221
000340 5b d8 46 be 48 2c 37 be ef aa 23 be f5 90 c8 3d
       -0.1941847 -0.17887986 -0.15983175 0.09793273
000350 42 7f 4d be 75 42 cd 3d 60 05 99 3d bb da fb bb
       -0.20068076 0.10022441 0.07471728 -0.007685987
000360 96 6b 86 be ce 2c 80 3d 2f 6a 91 3c 25 07 9e 3d
       -0.26253957 0.06258546 0.017750828 0.077162065
000370 3e d9 1e bd 8e 3f 5d 3d b7 e1 29 be 08 a6 ea 3c
       -0.038781397 0.05401569 -0.1659001 0.028643623
000380 19 6e f0 bd 76 0e 07 be ef 9d 2e be ea fc 4e be
       -0.117397495 -0.1318911 -0.17052434 -0.20213667
000390 a3 95 ba 3d c4 d8 27 be 67 c6 44 3d f2 67 3d be
       0.09110572 -0.16391283 0.048040774 -0.18496683
0003a0 c6 55 60 be 03 04 ac 3d 2a d5 d6 3b c0 5f 82 be
       -0.2190772 0.08399203 0.006556173 -0.25463676
0003b0 fb c8 81 bd 2e b1 30 be dc c5 33 be e0 23 2b bc
       -0.06337162 -0.17255089 -0.17555946 -0.010445565
0003c0 24 8a 98 be 8a c9 37 be 94 70 4d bc 97 98 2b ba
       -0.29792893 -0.17947975 -0.012539048 -0.000654587
0003d0 6b d3 b7 bd 2b 54 8d be f4 e6 af 3c fb 98 8b be
       -0.08975872 -0.27603278 0.021472432 -0.27265152
0003e0 98 a7 ce bd f2 7f bf bd ee ec e0 bd 78 ab 9f bd
       -0.1009056 -0.093505755 -0.10982691 -0.07796377
0003f0 b0 10 90 3d 9c b3 94 be 81 1d 6e bd 72 68 68 be
       0.07034433 -0.2904328 -0.058133606 -0.22696093
