CQ/result/P7_Resullt/HOURS/data15/2/best_model.pth (torch_old, 603202 bytes, 11 tensors)

node_embeddings f4 [228, 2]
0.075768396 -6.8139125e-05 0.291664 0.25542936 0.20739847 0.21179157 -0.11926291 0.27642387
0.29338408 0.21691269 0.09811417 -0.10542246 0.070699416 0.00055057375 0.13611029 0.26953393
-0.29891354 -0.07977852 -0.14425585 0.25889277 0.280378 0.15073922 0.29161662 0.24024042
-0.06197887 0.054207165 0.29189724 0.16354325 0.19426931 0.23434633 0.007475002 0.05308795
-0.03934687 0.30363366 0.20681058 0.28480408 0.22035167 0.08839317 0.13563354 0.26513118
-0.09299011 0.22799459 0.18366732 0.17043786 0.28073806 0.2118608 0.2906921 0.10918678
0.33413965 0.08727707 0.115918115 0.24055688 0.1319421 0.26141894 0.11947744 0.18969956
0.04455554 0.17208548 0.0029503233 0.062167734 -0.08636511 0.28936338 0.18884024 0.20867635
0.27682862 0.025749594 0.33203718 0.15110053 0.08041924 -0.011013666 0.08042043 0.2751802
0.079862185 0.21840735 -0.118646406 0.24832414 0.14399451 0.24078034 -0.019235536 0.28667712
0.2277726 0.28735885 0.17295009 0.23942232 0.14964834 0.25574198 0.292479 0.0189909
0.18141313 0.23060383 0.08636139 0.22264944 0.07157054 0.28455684 0.3577141 0.061737355
0.16753745 0.2427009 0.30253005 0.13496466 0.15140234 0.12634991 0.095035985 0.19177605
0.18566488 0.280887 0.21529302 0.1816119 0.06294825 0.08145665 0.013467576 0.28033644
0.2672467 0.28992143 0.30418724 0.037862696 0.07222688 -0.012803295 0.04398433 -0.08293145
0.028806673 0.023560556 0.04878144 0.05145844 0.32690403 0.16214056 0.23316002 0.056007132
0.12565614 0.13073538 0.32741338 0.11404406 0.24941166 0.19305764 -0.0062246965 0.31189153
0.1913417 0.20481372 0.27382404 0.29873 0.15459354 -0.06595635 0.043453682 0.018272923
0.33864242 0.123653464 0.08693218 0.04361922 0.29732963 0.26612097 0.10962234 0.029070115
0.059198897 0.2692743 0.19489752 0.19904055 0.27625975 -0.008827272 0.17788905 0.2866991
0.13066244 0.019365832 0.11178601 -0.060288493 0.24849181 0.11795061 0.13083866 0.23772599
0.29950207 0.2983988 0.08077477 -0.016500069 0.36737433 0.02025938 -0.09879778 0.26159686
0.2015813 0.07039562 -0.08501008 0.22567073 -0.03917796 0.22546113 0.105632566 0.013187449
0.08863635 0.001024932 -0.1796816 0.2034049 0.19887456 0.05028402 0.16542454 0.14744411
0.07027087 0.00041228117 0.18982194 0.080127046 0.25977752 0.1884374 0.089588195 0.26605815
0.11440588 0.20247027 0.08462182 0.24205016 0.12016183 0.2984114 0.22833693 0.17885746
0.06662717 0.19887103 0.1984992 0.23698123 -0.0616435 0.06099986 0.06549316 0.22828346
0.18111819 0.21380615 0.29240876 0.27915856 0.1545763 -0.04943749 -0.07823967 0.24435635
-0.11737131 0.060588 0.2801848 0.19999193 0.07330474 -0.023231883 -0.12736215 0.096008986
0.27323678 0.21620227 0.25582486 0.111830704 0.16762233 0.013181335 -0.37472787 0.037864763
0.12894592 0.0055496222 0.08433861 -0.002497593 0.23756102 0.23524927 0.023820013 0.19738512
-0.021144323 0.20602563 -0.19898582 -0.13132672 -0.06942353 0.02289745 0.20975523 0.24585558
00000000: 762c 9b3d eae5 8eb8 fc54 953e a3c7 823e
00000010: 4460 543e e4df 583e 1d40 f4bd 6e87 8d3e
00000020: 7036 963e 5c1e 5e3e 15f0 c83d bbe7 d7bd
00000030: dbca 903d 6154 103a 7f60 0b3e 5a00 8a3e
00000040: 320b 99be ec62 a3bd ceb7 13be 988d 843e
00000050: b58d 8f3e 625b 1a3e c64e 953e 9601 763e
00000060: 8edd 7dbd 5508 5e3d 8e73 953e e277 273e
00000070: 89ee 463e 7cf8 6f3e ddf0 f43b c072 593d
00000080: 2f2a 21bd df75 9b3e 27c6 533e d7d1 913e
00000090: dea3 613e 7a07 b53d 85e3 0a3e 46bf 873e
000000a0: 9971 bebd 6a77 693e 4913 3c3e 4387 2e3e
000000b0: e6bc 8f3e 0af2 583e 98d5 943e 529d df3d
000000c0: 5a14 ab3e 52be b23d 7a66 ed3d 8b54 763e
000000d0: d41b 073e b4d8 853e 97b0 f43d 9a40 423e
000000e0: df7f 363d 2d37 303e 365a 413b 98a3 7e3d
000000f0: 31e0 b0bd 7027 943e 565f 413e 41af 553e
00000100: 7bbc 8d3e d0f0 d23c c700 aa3e 19ba 1a3e
00000110: d8b2 a43d aa72 34bc 77b3 a43d 6be4 8c3e
00000120: c98e a33d 2da6 5f3e e3fc f2bd af48 7e3e
00000130: 4c73 133e 1f8f 763e d893 9dbc 58c7 923e
00000140: 383d 693e b320 933e d419 313e 202b 753e
00000150: 6a3d 193e 9df0 823e cfbf 953e ce92 9b3c
00000160: 5dc4 393e 6923 6c3e 3ede b03d 37fe 633e
00000170: 9393 923d 6fb1 913e 4d26 b73e 4fe0 7c3d
00000180: f08e 2b3e 9686 783e 38e5 9a3e 2d34 0a3e
00000190: 3709 1b3e df61 013e 3aa2 c23d f160 443e
000001a0: ef1e 3e3e 6cd0 8f3e c675 5c3e 78f8 393e
000001b0: 03eb 803d bed2 a63d 1ca7 5c3c 4288 8f3e
000001c0: 8fd4 883e 9570 943e 6ebe 9b3e ea15 1b3d
000001d0: b0eb 933d e9c4 51bc ea28 343d f7d7 a9bd
000001e0: f9fb eb3c 1102 c13c 0ccf 473d 16c6 523d
000001f0: f75f a73e 2d08 263e 80c1 6e3e bc67 653d
00000200: 01ac 003e 7fdf 053e baa2 a73e ef8f e93d
00000210: c565 7f3e e7b0 453e 8af8 cbbb 3fb0 9f3e
00000220: 14ef 433e b0ba 513e aa32 8c3e 23f3 983e
00000230: c54d 1e3e 1f14 87bd 7dfc 313d 19b1 953c
00000240: 8a62 ad3e 073e fd3d 8009 b23d 11aa 323d
00000250: 973b 983e 0241 883e ad81 e03d 7324 ee3c
00000260: 8b7a 723d 52de 893e 3793 473e 49d1 4b3e
00000270: eb71 8d3e 43a0 10bc 8c28 363e 39ca 923e
00000280: 60cc 053e 18a5 9e3c 10f0 e43d 11f1 76bd
00000290: a374 7e3e 1790 f13d 92fa 053e 716e 733e
000002a0: 5658 993e bac7 983e 3e6d a53d 272b 87bc
000002b0: 7d18 bc3e 00f7 a53c 7e56 cabd 06f0 853e
000002c0: 546b 4e3e 942b 903d c419 aebd 3a16 673e
000002d0: 1279 20bd 48df 663e e355 d83d 2c10 583c
000002e0: fa86 b53d 0357 863a 74fe 37be 6049 503e
000002f0: c6a5 4b3e 9ef6 4d3d 0d65 293e 97fb 163e
00000300: 2dea 8f3d 7127 d839 af60 423e a619 a43d
00000310: 8f01 853e bcf5 403e 047a b73d c638 883e
00000320: a14d ea3d 5e54 4f3e 344e ad3d ffdb 773e
00000330: 6817 f63d 61c9 983e 28d1 693e 6926 373e
00000340: d373 883d d9a4 4b3e 6043 4b3e 35ab 723e
00000350: e57d 7cbd fdda 793d 4721 863d 24c3 693e
00000360: 0c77 393e 00f0 5a3e 9ab6 953e dfed 8e3e
00000370: 4049 1e3e f77e 4abd 1f3c a0bd 8d38 7a3e
00000380: 5f60 f0bd 1f2b 783d 6274 8f3e afca 4c3e
00000390: cc20 963d ca50 bebc 396b 02be 5ca0 c43d
000003a0: b1e5 8b3e 2164 5d3e 7afb 823e 7f07 e53d
000003b0: 30a5 2b3e 87f6 573c 55dc bfbe 1518 1b3d
000003c0: 660a 043e 9bd9 b53b b9b9 ac3d a8ae 23bb
000003d0: 3243 733e 2fe5 703e 3022 c33c 531f 4a3e
000003e0: dc36 adbc 62f8 523e f0c2 4bbe 837a 06be
000003f0: ec2d 8ebd 6f93 bb3c 13ca 563e 91c1 7b3e

encoder.dcrnn_cells.0.gate.weights_pool f4 [2, 2, 65, 128]
-0.060736325 -0.36895403 -0.12043591 -0.118815966 -0.11627079 -0.087304406 -0.1275104 -0.11982649
-0.34023088 0.095625155 -0.10912163 -0.09777299 -0.1336414 -0.10853528 -0.11930928 0.04774599
-0.11487281 -0.109988935 -0.3724164 -0.39605597 -0.08580585 -0.21750674 -0.09540197 0.081598915
0.08442464 -0.05828942 -0.28352797 -0.21241772 -0.12589519 -0.1292539 0.10325215 -0.15313628
-0.37774855 -0.19360773 -0.33219036 -0.11573661 -0.12124107 -0.124517806 -0.106457636 0.07938671
0.07313071 -0.1103162 -0.12505251 -0.11789851 0.089095615 -0.10300568 0.1136787 -0.090424225
0.062079113 -0.36696076 -0.102200545 -0.08004865 -0.4107895 0.09180138 -0.09957401 -0.11041839
-0.14081486 -0.11413756 -0.37711346 -0.37059656 -0.12150295 -0.109832816 -0.38090506 -0.09579657
-0.118003264 0.1287641 0.0011950193 -0.031249486 -0.020794882 -0.07432091 0.16832833 0.0055619706
0.13966651 -0.07673339 0.02502515 -0.0235805 -0.029108083 0.016937032 0.15137635 -0.06260824
-0.0402015 -0.028057333 0.13137703 0.14603773 -0.030298937 0.1523863 -0.030230097 -0.08957072
-0.060965344 -0.0520131 0.14437863 0.1362093 -0.049738325 0.0013470703 -0.12626818 0.16456692
0.14734404 0.15799102 0.14526898 -0.07403311 -0.0026541392 -0.038350094 -0.09065051 -0.11439574
-0.052321274 0.1504906 -0.049834482 -0.045494854 -0.10302209 -0.07850225 -0.077307545 -0.048040427
-0.07574584 0.13205515 -0.015730005 -0.06123722 0.15022449 -0.11726522 -0.009913367 -0.046360902
0.003677056 -0.11011967 0.12798724 0.1542445 0.0065754633 -0.06331965 0.1464029 -0.086075895
-0.12915635 -0.13447648 -0.14306049 -0.1486359 -0.1458177 -0.12187693 -0.12689927 -0.13503161
-0.10346476 -0.13959086 -0.14530388 -0.13272196 -0.12444765 -0.13733907 -0.11599751 -0.13474263
-0.14295566 -0.12928037 -0.09450332 -0.11673372 -0.13239297 -0.113216534 -0.12212781 -0.14879933
-0.14466749 -0.14015897 -0.16194622 -0.11168704 -0.1382946 -0.14807679 -0.13991404 -0.13474835
-0.10421966 -0.16273661 -0.12378745 -0.1420536 -0.13390924 -0.1254651 -0.13472377 -0.13371408
-0.13746557 -0.113206774 -0.13851213 -0.13358936 -0.14011015 -0.14471775 -0.14882259 -0.1501142
-0.15497476 -0.12414941 -0.14454801 -0.1271689 -0.09972822 -0.15468144 -0.13870777 -0.1373216
-0.12840359 -0.13427195 -0.08378298 -0.051897135 -0.14807852 -0.14549392 -0.09064022 -0.14873286
0.16235222 0.1678943 0.1477959 0.13783427 0.1492084 0.15249625 0.14449137 0.14589609
0.1705672 0.15034598 0.15774226 0.14552642 0.1461563 0.15305515 0.14318721 0.13957103
0.14134516 0.16182147 0.17506377 0.15840894 0.15267234 0.20524605 0.1609798 0.14407139
0.14729081 0.13993959 0.17259006 0.2093802 0.16008842 0.15317734 0.14504966 0.15717523
0.18060035 0.17173572 0.1710132 0.15135801 0.15363033 0.14742279 0.15893422 0.12954016
0.16164982 0.13559152 0.1397941 0.16101696 0.14622156 0.14392665 0.15162471 0.15251428
0.1473868 0.18292162 0.13659868 0.15483758 0.17085373 0.14858444 0.13892472 0.14472109
0.15213446 0.13967794 0.1788628 0.18996932 0.14281125 0.13974479 0.19766405 0.15049917
00000000: a7c6 78bd 8be7 bcbe 1aa7 f6bd c955 f3bd
00000010: 611f eebd a7cc b2bd 1692 02be 9767 f5bd
00000020: be32 aebe 1fd7 c33d 297b dfbd 353d c8bd
00000030: 4bd9 08be bf47 debd 6c58 f4bd 4d91 433d
00000040: 7042 ebbd e141 e1bd 5dad bebe d9c7 cabe
00000050: faba afbd 16ba 5ebe 1c62 c3bd 551d a73d
00000060: d3e6 ac3d e3c0 6ebd 942a 91be 0884 59be
00000070: abea 00be 225b 04be dd75 d33d c2cf 1cbe
00000080: 4268 c1be 1b41 46be db14 aabe 5107 edbd
00000090: 3d4d f8bd 3103 ffbd 7606 dabd 8095 a23d
000000a0: 8ec5 953d 76ed e1bd c40d 00be c674 f1bd
000000b0: c377 b63d a4f4 d2bd 61d0 e83d 5630 b9bd
000000c0: ab46 7e3d 48e2 bbbe 854e d1bd 8cf0 a3bd
000000d0: 0053 d2be 5d02 bc3d 75ed cbbd 0923 e2bd
000000e0: c531 10be f4c0 e9bd 0415 c1be d5be bdbe
000000f0: 8ad6 f8bd 07f0 e0bd fd05 c3be fe30 c4bd
00000100: b2ab f1bd bcda 033e 32a2 9c3a ecfe ffbc
00000110: 075a aabc 9035 98bd 435e 2c3e 3141 b63b
00000120: bd04 0f3e 6526 9dbd 8b01 cd3c e52b c1bc
00000130: 1374 eebc 88bf 8a3c 6702 1b3e c038 80bd
00000140: 54aa 24bd 7ed8 e5bc b387 063e ea8a 153e
00000150: 7a35 f8bc 270b 1c3e 1ca5 f7bc db70 b7bd
00000160: ccb6 79bd b00b 55bd fed7 133e 737a 0b3e
00000170: 6aba 4bbd 2e90 b03a 724c 01be 3b84 283e
00000180: 5be1 163e 66c8 213e 64c1 143e ac9e 97bd
00000190: 11f1 2dbb fd14 1dbd f9a6 b9bd 5048 eabd
000001a0: d54e 56bd 351a 1a3e 3e1f 4cbd d058 3abd
000001b0: 3ffd d2bd cac5 a0bd 6b53 9ebd 0ac6 44bd
000001c0: a320 9bbd 7739 073e 36dc 80bc e1d3 7abd
000001d0: 73d4 193e bf28 f0bd ad6b 22bc eee4 3dbd
000001e0: c3fa 703b 6c86 e1bd 160f 033e 45f2 1d3e
000001f0: fc76 d73b bcad 81bd a4ea 153e 8f48 b0bd
00000200: 9041 04be 34b4 09be 737e 12be 0234 18be
00000210: 3c51 15be 9d9a f9bd e2f1 01be ba45 0abe
00000220: 55e5 d3bd e8f0 0ebe 8aca 14be 44e8 07be
00000230: 69de febd 9da2 0cbe 1a90 edbd f9f9 09be
00000240: f862 12be 1362 04be f58a c1bd 1712 efbd
00000250: 0692 07be 12de e7bd 251e fabd da5e 18be
00000260: b723 14be d585 0fbe 3bd5 25be 2dbc e4bd
00000270: 1a9d 0dbe 71a1 17be a045 0fbe 79fb 09be
00000280: 1e71 d5bd 6da4 26be 4684 fdbd 8076 11be
00000290: 811f 09be ec79 00be 07f5 09be 58ec 08be
000002a0: c6c3 0cbe f4d8 e7bd 20d6 0dbe a6cb 08be
000002b0: 0979 0fbe e430 14be f364 18be 89b7 19be
000002c0: b4b1 1ebe 0c42 febd 6504 14be 9038 02be
000002d0: 4f3e ccbd d064 1ebe 6909 0ebe 099e 0cbe
000002e0: 3b7c 03be 967e 09be 6996 abbd 1792 54bd
000002f0: e5a1 17be 5cfc 14be 94a1 b9bd 6d4d 18be
00000300: a93f 263e 7cec 2b3e cf57 173e 6d24 0d3e
00000310: 16ca 183e fa27 1c3e 8cf5 133e c965 153e
00000320: 2ba9 2e3e 4cf4 193e 3087 213e e104 153e
00000330: ffa9 153e 7dba 1c3e ab9f 123e b5eb 0e3e
00000340: c9bc 103e 87b4 253e eb43 333e f435 223e
00000350: 2356 1c3e 052c 523e e4d7 243e 7387 133e
00000360: 67d3 163e 534c 0f3e 73bb 303e c367 563e
00000370: 38ee 233e 85da 1c3e e687 143e 8bf2 203e
00000380: 4cef 383e 7ddb 2f3e 161e 2f3e 98fd 1a3e
00000390: 4551 1d3e 00f6 163e a7bf 223e 2da6 043e
000003a0: 8887 253e 81d8 0a3e 2f26 0f3e a1e1 243e
000003b0: 1bbb 153e 8261 133e 8243 1b3e b42c 1c3e
000003c0: 91ec 163e ce4f 3b3e 86e0 0b3e be8d 1e3e
000003d0: 48f4 2e3e 8526 183e 4842 0e3e c431 143e
000003e0: 23c9 1b3e bc07 0f3e cf27 373e 5187 423e
000003f0: 1d3d 123e 4219 0f3e 7268 4a3e 741c 1a3e

encoder.dcrnn_cells.0.gate.bias_pool f4 [2, 128]
0.19918002 -0.23753522 0.15914407 0.06983456 0.33348098 0.3583109 -0.08285092 0.112722434
-0.112893425 0.21241096 0.20770355 -0.04937002 0.12286716 0.20846981 0.28026804 0.33601382
0.14880745 0.30809474 -0.30874866 -0.022154812 0.23375785 -0.08332949 0.32378626 0.18734054
0.17361249 0.2557208 0.03142823 -0.28473657 0.23085555 0.2186821 0.17648293 0.14609791
-0.013744523 0.06080314 -0.048575 -0.057433594 0.1548414 0.07797573 0.24794671 0.28683558
0.15375964 0.11119519 0.089177 0.15779223 -0.008694253 0.01646325 0.33353394 0.042542003
-0.05175589 -0.16473033 0.34998345 0.13365307 0.007261366 -0.036852013 0.008991192 0.19701998
0.09657473 0.304896 -0.07529113 -0.016190415 0.16160993 0.18568113 -0.1321043 0.08908465
-0.25160837 0.21050002 0.040346626 -0.34489962 -0.26550815 -0.24969001 -0.18399435 0.06586331
-0.03781705 -0.2660661 0.026945816 0.025089098 0.00077282643 -0.07125286 -0.28754765 -0.21129954
-0.21089718 -0.30549794 0.1686255 -0.08127707 -0.0034679247 -0.05986818 -0.06190646 -0.19504096
-0.0038002373 -0.078274034 -0.20946693 -0.050321504 -0.212088 -0.24959803 -0.2432336 0.04040757
0.15948391 -0.1627608 -0.026916755 -0.27210352 -0.030372936 -0.08047504 -0.22623421 -0.13080908
-0.35301515 -0.074255444 0.037109975 -0.1853247 -0.08013587 0.052172765 -0.08167558 -0.28989848
0.060570534 0.108585246 -0.17286988 0.013480157 -0.046778224 -0.15135883 -0.31980205 -0.02942464
-0.101743884 -0.11049091 0.03122966 -0.11652431 -0.27233893 -0.11039737 0.010128896 -0.14399205
0.0010770131 0.23708285 0.18283507 0.22961475 0.085401125 0.005683126 0.29054505 0.12796795
0.12719545 -0.061599977 0.06257262 0.17282143 0.13421452 0.30167285 0.025647962 0.3270768
-0.037676252 0.19727315 0.096058376 0.35816318 0.052272703 0.15144052 0.17991138 0.2279025
0.2573089 0.058545902 0.14020172 0.175205 0.06826805 0.051754408 0.34044135 -0.013807076
0.19050634 -0.024354266 0.32755193 0.27628922 0.23949084 0.18595548 0.34433025 0.14669098
-0.00778947 0.1627098 0.21488214 0.13420153 0.05917532 0.115542084 0.11789269 0.3421219
0.28743148 0.16218807 0.05896635 0.022877267 0.08544278 0.29398683 -0.021992104 0.035565775
0.19331394 0.32740748 0.1314531 0.26251033 0.10680867 0.23396654 -0.07138378 0.20117593
-0.33617267 0.005110411 -0.00012637663 -0.0960004 -0.15692204 -0.3054473 0.07002554 -0.2509817
0.06670265 -0.21213713 -0.29566097 0.035772167 -0.012407276 -0.015461683 -0.15078293 -0.27970928
-0.30065265 -0.040919527 -0.0007495154 -0.15660532 -0.2718848 -0.21214725 -0.28686693 -0.32230473
-0.046126246 -0.10599678 -0.3271627 -0.052973367 -0.28107098 -0.0485751 -0.1311532 -0.2930597
-0.021799028 -0.3367826 -0.06786791 -0.03071638 -0.28377622 0.06883345 -0.23488076 -0.20271406
0.06776039 -0.13540208 -0.30744225 -0.2898224 -0.2940523 0.024534767 0.009082568 -0.021265637
-0.2566243 -0.30760643 -0.22023241 -0.18764596 -0.03712485 -0.12721336 -0.0072297477 -0.33444703
-0.26195604 0.021211596 -0.21688046 0.020384593 0.06412966 -0.31612313 -0.15100254 -0.3301467
00000000: d9f5 4b3e 6f3c 73be aaf6 223e 6c05 8f3d
00000010: 05be aa3e 8774 b73e bead a9bd 05db e63d
00000020: ab34 e7bd 4282 593e 3db0 543e 3838 4abd
00000030: c7a1 fb3d 1c79 553e 4b7f 8f3e 010a ac3e
00000040: fb60 183e 98be 9d3e 4e14 9ebe 027e b5bc
00000050: 385e 6f3e a7a8 aabd 50c7 a53e 33d6 3f3e
00000060: 79c7 313e d6ed 823e e3ba 003d fec8 91be
00000070: 6665 6c3e 33ee 5f3e f1b7 343e b19a 153e
00000080: b530 61bc b70c 793d 94f6 46bd 7d3f 6bbd
00000090: be8e 1e3e bdb1 9f3d bee5 7d3e 1ddc 923e
000000a0: 2b73 1d3e 4eba e33d 6ea2 b63d 4994 213e
000000b0: 5772 0ebc f0dd 863c f6c4 aa3e 8640 2e3d
000000c0: fcfd 53bd 11af 28be 0831 b33e 5adc 083e
000000d0: c1f0 ed3b 23f2 16bd cb4f 133c 9bbf 493e
000000e0: f9c8 c53d 541b 9c3e 3c32 9abd c3a1 84bc
000000f0: 137d 253e 3223 3e3e 5a46 07be 0372 b63d
00000100: d0d2 80be 518d 573e 8142 253d af96 b0be
00000110: aff0 87be bdae 7fbe 0469 3cbe 58e3 863d
00000120: 0de6 1abd d139 88be 79bd dc3c a787 cd3c
00000130: 8197 4a3a 05ed 91bd 7239 93be e85e 58be
00000140: 6ef5 57be 3a6a 9cbe 2aac 2c3e 9874 a6bd
00000150: 1f46 63bb 5638 75bd a191 7dbd d1b8 47be
00000160: 670d 79bb 234e a0bd 807e 56be ec1d 4ebd
00000170: 992d 59be a096 7fbe 3b12 79be 6882 253d
00000180: c04f 233e c4aa 26be 8780 dcbc 2751 8bbe
00000190: aad0 f8bc 19d0 a4bd f1a9 67be d1f2 05be
000001a0: 67be b4be 3d13 98bd a100 183d c2c5 3dbe
000001b0: 461e a4bd 1cb3 553d 8745 a7bd 936d 94be
000001c0: cf18 783d f161 de3d cd04 31be e0db 5c3c
000001d0: 869a 3fbd cffd 1abe 18bd a3be f10b f1bc
000001e0: 195f d0bd 0f49 e2bd 58d5 ff3c 4ca4 eebd
000001f0: 0270 8bbe 0418 e2bd abf3 253c a772 13be
00000200: 902a 8d3a d9c5 723e 1e39 3b3e 2120 6b3e
00000210: c9e6 ae3d 8439 ba3b 52c2 943e 080a 033e
00000220: 863f 023e 4250 7cbd 1326 803d 1af8 303e
00000230: 886f 093e dd74 9a3e ad1b d23c 9c76 a73e
00000240: 6a52 1abd f901 4a3e 41ba c43d 2a61 b73e
00000250: e71b 563d 3913 1b3e b03a 383e 465f 693e
00000260: febd 833e d4cd 6f3d 0a91 0f3e f168 333e
00000270: 1fd0 8b3d 6efc 533d 544e ae3e 1337 62bc
00000280: 1814 433e 9982 c7bc e3b4 a73e c875 8d3e
00000290: 163d 753e 1d6b 3e3e 0e4c b03e 2936 163e
000002a0: cf3e ffbb 669d 263e 100a 5c3e 206c 093e
000002b0: d261 723d 54a1 ec3d b971 f13d 9a2a af3e
000002c0: 382a 933e a114 263e b386 713d 1b69 bb3c
000002d0: a0fc ae3d 7185 963e c928 b4bc 6bad 113d
000002e0: 17f4 453e f4a1 a73e a49b 063e c167 863e
000002f0: 81be da3d ed94 6f3e a931 92bd 1001 4e3e
00000300: d31e acbe 3c75 a73b f883 04b9 dc9b c4bd
00000310: 2cb0 20be 9763 9cbe 8d69 8f3d ac80 80be
00000320: 669b 883d 7a3a 59be e060 97be d685 123d
00000330: e347 4bbc 0053 7dbc d766 1abe 0e36 8fbe
00000340: 25ef 99be 3c9b 27bd 217b 44ba 255d 20be
00000350: 7c34 8bbe 213d 59be 39e0 92be 2005 a5be
00000360: e0ee 3cbd d714 d9bd df81 a7be 9afa 58bd
00000370: 89e8 8fbe aff6 46bd 064d 06be ec0b 96be
00000380: e093 b2bc c56e acbe 55fe 8abd eba0 fbbc
00000390: 1e4b 91be 8df8 8c3d 9584 70be 4694 4fbe
000003a0: f6c5 8a3d d8a6 0abe 1269 9dbe 9a63 94be
000003b0: 068e 96be 23fd c83c 0dcf 143c 4635 aebc
000003c0: 4364 83be 977e 9dbe 9b84 61be 4326 40be
000003d0: 3a10 18bd 3844 02be 85e7 ecbb a43c abbe
000003e0: 1a1f 86be f1c3 ad3c e915 5ebe 97fd a63c
000003f0: 6956 833d e4da a1be 69a0 1abe fd08 a9be

encoder.dcrnn_cells.0.update.weights_pool f4 [2, 2, 65, 64]
-0.17369111 -0.51222533 0.14132465 -0.15983753 0.14625295 -0.16162108 -0.5192092 0.13389668
-0.4875422 0.21787266 0.1241518 -0.14829527 -0.15183389 -0.12603813 0.5432046 -0.21894228
-0.15247768 0.14877975 -0.48345706 0.48782903 0.15470162 -0.48392984 -0.13974795 0.21947795
-0.22371858 0.13557573 -0.5071915 -0.49809477 0.15222399 0.13778089 0.24672456 -0.5026369
-0.49202237 0.54368937 -0.48228997 0.16104321 0.1384803 0.1556952 0.17120384 -0.238538
0.18917342 0.5223884 -0.15931453 -0.1627437 0.22268364 -0.18012618 -0.20938289 -0.163209
0.20460664 -0.48778665 0.14550564 -0.16804925 -0.47076932 -0.25596893 0.14323047 -0.14455912
0.13756436 -0.1992354 0.4882433 0.5277312 0.1443981 0.1591113 0.49934706 -0.18187325
0.13246295 -0.13997826 -0.117162354 0.123954736 -0.111958176 0.13743043 -0.17025077 -0.13170747
-0.13181578 -0.11684498 -0.13861099 0.109376706 0.13442838 0.11349507 0.16822185 0.13393441
0.12034022 -0.12791768 -0.11735465 0.12195099 -0.12420233 -0.17087537 0.13513438 -0.11732412
0.12886037 -0.1192217 -0.1076757 -0.15349007 -0.11664627 -0.11285281 -0.12214703 -0.1477684
-0.12723434 0.14045471 -0.14108142 -0.12582217 -0.117664546 -0.12513034 -0.1341427 0.122534156
-0.14403565 0.14886142 0.10596522 0.11702265 -0.13853748 0.13854405 0.1315113 0.12692338
-0.13782352 -0.12809448 -0.12908459 0.12202601 -0.12964617 0.13121134 -0.11891447 0.13458768
-0.11880836 0.116331816 0.10293625 0.124121375 -0.12861826 -0.12444982 0.104620956 0.13474052
-0.12506507 -0.16484891 0.14408381 -0.13170369 0.14666781 -0.1304294 -0.20420516 0.18302171
-0.14470242 0.099752955 0.13534345 -0.13823542 -0.19389993 -0.1606094 0.195748 -0.09907425
-0.13166876 0.1574553 -0.1454357 0.1729507 0.13927907 -0.14238882 -0.15948698 0.16788408
-0.08806351 0.12626265 -0.18293339 -0.13621607 0.16794643 0.14542829 0.10312079 -0.17492594
-0.15332305 0.16313562 -0.13783737 0.1693231 0.18905516 0.15745987 0.1845146 -0.09354753
0.15551347 0.19213173 -0.1814555 -0.1470635 0.143765 -0.14365049 -0.1532861 -0.13345487
0.14007336 -0.13784562 0.1407925 -0.1409184 -0.15474355 -0.10547143 0.138784 -0.1803544
0.14361298 -0.2066296 0.12530689 0.13197872 0.14592107 0.1732319 0.14365141 -0.14645359
-0.13483948 0.1390536 0.13978904 -0.14101589 0.12806456 -0.11953423 0.16243355 0.13982114
0.13392523 0.13205291 0.1104515 -0.118942104 -0.1392819 -0.14148076 -0.15478481 -0.14724629
-0.1316001 0.11477794 0.13427357 -0.147245 0.13644451 0.16749112 -0.13341801 0.14080338
-0.13924262 0.12431749 0.12119422 0.16881411 0.14077109 0.114062384 0.13203235 0.18121402
0.14155042 -0.16116191 0.16533712 0.13899416 0.12305661 0.10677087 0.1212561 -0.13226786
0.111328825 -0.15175657 -0.13033563 -0.11095669 0.11277526 -0.11597494 -0.13842653 -0.11754698
0.13408133 0.15647186 0.11442799 -0.10622559 0.15496802 -0.14035223 0.12291165 -0.12880397
0.12798606 -0.115036115 -0.1358184 -0.11984627 0.14148743 0.1099461 -0.1330367 -0.13838781
00000000: 15dc 31be 3321 03bf 69b7 103e 73ac 23be
00000010: 55c3 153e ff7f 25be e5ea 04bf 361c 093e
00000020: 229f f9be 031a 5f3e 4d43 fe3d b7da 17be
00000030: 587a 1bbe 2410 01be 750f 0b3f 6832 60be
00000040: 1c23 1cbe b859 183e af87 f7be bac4 f93e
00000050: 1a6a 1e3e a7c5 f7be 161a 0fbe d4be 603e
00000060: 7c16 65be 5dd4 0a3e 4dd7 01bf 4706 ffbe
00000070: 9be0 1b3e 6f16 0d3e 5da5 7c3e d0ac 00bf
00000080: 5bea fbbe 3a2f 0b3f b6ee f6be 83e8 243e
00000090: c8cd 0d3e 906e 1f3e 0f50 2f3e 4e43 74be
000000a0: adb6 413e 3fbb 053f 5923 23be 49a6 26be
000000b0: 2e07 643e ff72 38be 7868 56be 4320 27be
000000c0: 6784 513e 2cbf f9be 6eff 143e 1a15 2cbe
000000d0: ad08 f1be 5c0e 83be 02ab 123e 4e07 14be
000000e0: acdd 0c3e 5d04 4cbe 07fb f93e 6419 073f
000000f0: 18dd 133e 13ee 223e 6baa ff3e fb3c 3abe
00000100: 5ea4 073e 7656 0fbe d1f2 efbd fbdb fd3d
00000110: 544a e5bd 90ba 0c3e 3856 2ebe 53de 06be
00000120: b7fa 06be 6c4c efbd 0af0 0dbe e500 e03d
00000130: 98a7 093e 1a70 e83d 5942 2c3e 1a26 093e
00000140: ef74 f63d dafc 02be a257 f0bd 71c1 f93d
00000150: cb5d febd f4f9 2ebe ab60 0a3e a147 f0bd
00000160: f9f3 033e 822a f4bd 1485 dcbd 802c 1dbe
00000170: 3de4 eebd 601f e7bd 3928 fabd 9950 17be
00000180: b849 02be 5cd3 0f3e a677 10be 87d7 00be
00000190: 1cfa f0bd 2b22 00be b45c 09be 30f3 fa3d
000001a0: 157e 13be 216f 183e 4b04 d93d 92a9 ef3d
000001b0: c5dc 0dbe 7ede 0d3e e6aa 063e 34f8 013e
000001c0: 9c21 0dbe 332b 03be c02e 04be c6e8 f93d
000001d0: f7c1 04be 445c 063e 6e89 f3bd 5ad1 093e
000001e0: cc51 f3bd 603f ee3d 3ed0 d23d 5933 fe3d
000001f0: 81b4 03be 8cdf febd 8343 d63d 6bf9 093e
00000200: 0f11 00be 27ce 28be b58a 133e 55dd 06be
00000210: 1630 163e 498f 05be 281b 51be 0b6a 3b3e
00000220: df2c 14be 474b cc3d 7997 0a3e 968d 0dbe
00000230: b48d 46be ca76 24be 2a72 483e 71e7 cabd
00000240: 2dd4 06be f63b 213e 19ed 14be fd19 313e
00000250: 2c9f 0e3e 60ce 11be 8e50 23be cee9 2b3e
00000260: a45a b4bd ff4a 013e e452 3bbe 3a7c 0bbe
00000270: 26fa 2b3e 27eb 143e fe30 d33d c91f 33be
00000280: b800 1dbe 060d 273e 3d25 0dbe 0963 2d3e
00000290: ad97 413e 293d 213e 65f1 3c3e d995 bfbd
000002a0: ec3e 1f3e 2ebe 443e 78cf 39be d097 16be
000002b0: 2237 133e 1d19 13be 08f7 1cbe 65a8 08be
000002c0: 646f 0f3e 6727 0dbe e92b 103e ea4c 10be
000002d0: 1875 1ebe 6801 d8bd 651d 0e3e d3ae 38be
000002e0: 480f 133e b696 53be 7350 003e 6e25 073e
000002f0: 556c 153e b463 313e 5b19 133e eef7 15be
00000300: 5c13 0abe 1164 0e3e dc24 0f3e 7866 10be
00000310: 5b23 033e 5dce f4bd fb54 263e 462d 0f3e
00000320: b223 093e e138 073e 6534 e23d eb97 f3bd
00000330: ea9f 0ebe 55e0 10be e97f 1ebe bbc7 16be
00000340: 2dc2 06be b210 eb3d 037f 093e 65c7 16be
00000350: 1cb8 0b3e cb82 2b3e bb9e 08be c32e 103e
00000360: 9e95 0ebe 2b9a fe3d ad34 f83d 9bdd 2c3e
00000370: 4c26 103e 8a99 e93d 7d33 073e 2b90 393e
00000380: 98f2 103e a107 25be 224e 293e 7c54 0e3e
00000390: 1b05 fc3d b0aa da3d 1e55 f83d 3a71 07be
000003a0: 5e00 e43d 1366 1bbe b476 05be 433d e3bd
000003b0: b7f6 e63d 4584 edbd afbf 0dbe 79bc f0bd
000003c0: 9e4c 093e 293a 203e 3959 ea3d cd8c d9bd
000003d0: f0af 1e3e 7fb8 0fbe 1ab9 fb3d 30e5 03be
000003e0: c70e 033e 0e98 ebbd fb13 0bbe f671 f5bd
000003f0: 15e2 103e 6c2b e13d c63a 08be 89b5 0dbe

encoder.dcrnn_cells.0.update.bias_pool f4 [2, 64]
-0.30147472 -0.18729118 0.45947185 -0.4501824 0.261154 -0.34461188 -0.01718372 0.24473563
-0.37575954 0.317632 0.44883257 -0.23881556 -0.26024753 -0.34859672 -0.014467588 -0.3454766
-0.26422065 0.34538093 -0.3806245 0.28846955 0.24521813 -0.2750655 -0.15486556 0.39500603
-0.43107894 0.14413516 -0.14275809 -0.31483537 0.31181094 0.29792252 0.44774824 -0.0066442247
-0.34116653 0.057766248 -0.36035752 0.24334365 0.3719557 0.40614703 0.24684002 -0.31645218
0.43433553 -0.014499144 -0.16072513 -0.29898444 0.34035516 -0.25844374 -0.39591905 -0.45337906
0.3607375 -0.33417046 0.17843123 -0.16405898 -0.3580561 -0.44713002 0.27363303 -0.29653034
0.30615583 -0.16583514 0.2991228 0.1737997 0.4061753 0.19172226 0.28635553 -0.39285707
-0.40370673 0.44246942 0.19175033 -0.38432062 0.35749033 -0.2528819 0.4066606 0.21693437
0.34721097 -0.05886851 0.41943058 -0.44406924 -0.20302586 -0.30820832 -0.39763764 0.0076658167
-0.37172768 0.42322397 0.40730277 -0.40513197 0.4294398 0.2380083 -0.33233434 -0.21421498
0.012890166 0.44651663 0.43364608 0.26502848 0.22711676 0.33366728 -0.0029737127 0.277662
0.3574669 -0.3277955 0.3423276 0.26425868 0.18291007 0.1738362 0.221832 -0.01822854
-0.22894204 -0.36619905 -0.1535715 -0.3335537 -0.122111835 -0.24367362 0.1676263 -0.4046316
-0.12722845 0.32646215 0.4378914 -0.21079162 0.4206705 0.027313752 0.3397517 -0.25189286
0.29669312 -0.15191333 -0.2935879 -0.17529662 0.43296605 0.18254267 -0.26510465 -0.27900907
00000000: e55a 9abe 42c9 3fbe e53f eb3e 4f7e e6be
00000010: fab5 853e f870 b0be dfc4 8cbc fa9b 7a3e
00000020: 8e63 c0be a9a0 a23e 62cd e53e 118c 74be
00000030: 2a3f 85be 457b b2be 7609 6dbc 4fe2 b0be
00000040: ee47 87be c5d5 b03e 37e1 c2be 48b2 933e
00000050: 761a 7b3e 63d5 8cbe 1495 1ebe 3b3e ca3e
00000060: 61b6 dcbe 2b98 133e 2d2f 12be 1a32 a1be
00000070: afa5 9f3e 4d89 983e 423f e53e ccb7 d9bb
00000080: 61ad aebe 4d9c 6c3d c880 b8be 142f 793e
00000090: fa70 be3e 81f2 cf3e a1c3 7c3e 0506 a2be
000000a0: 3a61 de3e d18d 6dbc 2195 24be 7d14 99be
000000b0: 0843 ae3e bd52 84be e7b5 cabe 4d21 e8be
000000c0: 96b2 b83e 6418 abbe adb6 363e 14ff 27be
000000d0: 2153 b7be 3aee e4be a119 8c3e d3d2 97be
000000e0: 75c0 9c3e b0d0 29be a026 993e 8cf8 313e
000000f0: 35f6 cf3e d752 443e 319d 923e 9024 c9be
00000100: a6b2 cebe 5a8b e23e 335a 443e acc5 c4be
00000110: f908 b73e bd79 81be d135 d03e 0b24 5e3e
00000120: a3c5 b13e 1b20 71bd 9bbf d63e 0b5d e3be
00000130: 03e6 4fbe 7bcd 9dbe 2997 cbbe 8831 fb3b
00000140: 1753 bebe d0b0 d83e fd89 d03e 756d cfbe
00000150: 89df db3e 73b8 733e ba27 aabe 2c5b 5bbe
00000160: 4631 533c d49d e43e dc06 de3e d0b1 873e
00000170: 4c91 683e 70d6 aa3e 9fe2 42bb b729 8e3e
00000180: e705 b73e d0d4 a7be 9045 af3e ea4c 873e
00000190: c74c 3b3e 1e02 323e ee27 633e 0554 95bc
000001a0: c86f 6abe 717e bbbe d941 1dbe 8dc7 aabe
000001b0: c515 fabd 9485 79be 3ba6 2b3e e02b cfbe
000001c0: 2d48 02be 0c26 a73e 4d33 e03e c2d9 57be
000001d0: 2062 d73e 17c1 df3c eff3 ad3e 1af8 80be
000001e0: 29e8 973e 2b8f 1bbe 2751 96be f580 33be
000001f0: baad dd3e 77ec 3a3e ccbb 87be 47da 8ebe

encoder.dcrnn_cells.1.gate.weights_pool f4 [2, 2, 128, 128]
0.09940363 -0.13412535 -0.013206675 -0.15326893 -0.15269147 -0.15057546 -0.15155582 -0.13525195
0.0009882773 -0.15985201 -0.16491008 0.0003733264 0.052880492 -0.14804259 0.010136718 -0.15519607
-0.15179124 -0.16404949 -0.044630136 -0.03820271 -0.15429425 -0.1371595 -0.15106884 -0.16278237
-0.038189076 -0.15036522 0.010742311 0.069428205 -0.15241557 -0.1839127 0.0380558 -0.15328006
-0.15704507 -0.04945107 -0.15220322 0.025453135 -0.12870851 0.040967204 -0.15272775 0.07427685
-0.1562088 -0.045939863 0.012914297 -0.1667944 -0.1580466 0.0074047795 -0.16092207 -0.13344347
-0.13993423 0.08324351 -0.15568319 -0.1600361 0.09546028 -0.1531638 -0.15261003 -0.14690907
-0.01412937 0.012829557 -0.14546694 0.083046354 -0.14066528 -0.15603127 0.08440743 0.083559364
0.17976326 0.1532952 0.16816567 0.16258457 0.15839678 0.16037235 0.16587813 0.15987179
0.13827397 0.16307402 0.17304052 0.16999894 0.15324706 0.18542154 0.18156648 0.17137296
0.1689983 0.16189055 0.04786185 0.15911707 0.1632713 0.15627316 0.17294483 0.17280568
0.17135917 0.17279196 0.14256616 0.17238964 0.18429583 0.08365167 0.18517923 0.18544301
0.16411035 0.16808523 0.15825501 0.1753565 0.1503039 0.16806753 0.16864038 0.16731638
0.16857645 0.16243882 0.16566484 0.16219579 0.1577285 0.15875128 0.15909167 0.1574466
0.124564685 0.17484826 0.17265254 0.15522663 0.17476632 0.15777674 0.17192487 0.17142916
0.17834064 0.16423352 0.1659754 0.1630977 0.15756314 0.1574252 0.17251076 0.17745355
-0.122051574 -0.15607898 -0.04875913 -0.19452626 -0.17660452 -0.20006879 -0.25427872 -0.107617475
-0.100788675 -0.19025192 -0.18741728 -0.028314041 -0.07918129 -0.2719686 0.011585044 -0.20565312
-0.19330397 -0.183236 -0.06852174 -0.12631859 -0.20276055 -0.13858227 -0.19341725 -0.20310113
-0.115595184 -0.25406817 -0.100214005 -0.07678529 -0.24591191 -0.07269368 -0.08110145 -0.26857126
-0.19796851 -0.14280619 -0.19181247 0.05621894 -0.086262956 -0.05096608 -0.23489217 -0.035783693
-0.19612524 -0.1361925 0.04049952 -0.20501263 -0.20093462 -0.019268284 -0.19219445 -0.14988679
-0.09125654 -0.06594883 -0.23001117 -0.20002076 -0.108669534 -0.18908247 -0.20353802 -0.17704019
0.08051727 0.085401006 -0.22746515 -0.058049537 -0.16896208 -0.19012667 -0.20788403 -0.21594551
0.105258666 0.14860728 0.095150225 0.13566346 0.119333 0.11853461 0.1589343 0.1533635
0.10823181 0.12584695 0.12826386 0.09430179 0.11479762 0.15953949 0.12342372 0.122432284
0.12094268 0.13166627 0.091920935 0.096881375 0.13005422 0.14540222 0.124924436 0.12988777
0.09648324 0.15487543 0.111708805 0.12638201 0.14748475 0.1306292 0.1396136 0.14118683
0.12609957 0.09041493 0.13207464 0.09943034 0.07688074 0.09632817 0.14374556 0.08858102
0.13531663 0.10611406 0.10312827 0.13322149 0.13487372 0.104157194 0.12343366 0.15040046
-0.029365066 0.10252112 0.15347879 0.12500547 0.102200694 0.123989515 0.1291907 0.12611832
0.12231355 0.11811303 0.14513293 0.12702206 0.13400745 0.12121519 0.09611379 0.10591949
00000000: 2194 cb3d 2858 09be cf60 58bc 88f2 1cbe
00000010: 275b 1cbe 7430 1abe 7331 1bbe 7d7f 0abe
00000020: 1589 813a 3fb0 23be 30de 28be 05bb c339
00000030: 3799 583d 7a98 17be 7a14 263c b8eb 1ebe
00000040: 2a6f 1bbe 97fc 27be 17ce 36bd 727a 1cbd
00000050: 50ff 1dbe 8a73 0cbe cab1 1abe 6cb0 26be
00000060: 266c 1cbd 57f9 19be 8500 303c 6030 8e3d
00000070: d412 1cbe 9c53 3cbe 66e0 1b3d 73f5 1cbe
00000080: 6cd0 20be 358d 4abd 29db 1bbe 1883 d03c
00000090: 2acc 03be 3acd 273d aa64 1cbe 761e 983d
000000a0: 33f5 1fbe 702b 3cbd 7d96 533c 27cc 2abe
000000b0: f8d6 21be cba3 f23b c1c8 24be 68a5 08be
000000c0: eb4a 0fbe 937b aa3d 6a6b 1fbe 81e0 23be
000000d0: ae80 c33d f9d6 1cbe ce45 1cbe 556f 16be
000000e0: e07e 67bc 1033 523c 49f5 14be 3514 aa3d
000000f0: 8f0a 10be a9c6 1fbe cddd ac3d 2c21 ab3d
00000100: dc13 383e 6bf9 1c3e 9f33 2c3e 927c 263e
00000110: c432 223e a638 243e f5db 293e 6eb5 233e
00000120: b197 0d3e e0fc 263e 8931 313e 3414 2e3e
00000130: ccec 1c3e 25df 3d3e 90ec 393e 657c 2f3e
00000140: e40d 2d3e a3c6 253e ca0a 443d 96ef 223e
00000150: 9730 273e 1206 203e 7318 313e f9f3 303e
00000160: c778 2f3e 60f0 303e ddfc 113e e986 303e
00000170: 0cb8 3c3e 9151 ab3d a09f 3d3e c6e4 3d3e
00000180: 8b0c 283e 891e 2c3e 9a0d 223e a890 333e
00000190: 44e9 193e e519 2c3e 10b0 2c3e fc54 2b3e
000001a0: 4e9f 2c3e 5d56 263e 0ba4 293e a716 263e
000001b0: 9483 213e b28f 223e ede8 223e ae39 213e
000001c0: c51b ff3d 6c0b 333e d4cb 303e bbf3 1e3e
000001d0: f1f5 323e 3a90 213e 130d 303e 208b 2f3e
000001e0: ee9e 363e d52c 283e 75f5 293e 1503 273e
000001f0: 3b58 213e 1234 213e a9a6 303e 62b6 353e
00000200: 2df6 f9bd 2bd3 1fbe a7b7 47bd e431 47be
00000210: d1d7 34be d5de 4cbe d230 82be 8d66 dcbd
00000220: 4b6a cebd 66d1 42be 51ea 3fbe d9f2 e7bc
00000230: cd29 a2bd 783f 8bbe 32cf 3d3c bb96 52be
00000240: 7af1 45be 38a2 3bbe 2055 8cbd a959 01be
00000250: 76a0 4fbe 83e8 0dbe 2c0f 46be bef9 4fbe
00000260: 2bbd ecbd 3915 82be 003d cdbd 9b41 9dbd
00000270: 55d0 7bbe 6de0 94bd 8418 a6bd 2c82 89be
00000280: 42b8 4abe c93b 12be 7d6a 44be d545 663d
00000290: a2aa b0bd cfc1 50bd 9387 70be ec91 12bd
000002a0: 0ed5 48be 0c76 0bbe d3e2 253d d5ee 51be
000002b0: cec1 4dbe 85d8 9dbc 9fce 44be ec7b 19be
000002c0: b5e4 babd 2e10 87bd 0c88 6bbe 3ed2 4cbe
000002d0: 228e debd d69e 41be 456c 50be 064a 35be
000002e0: 3de6 a43d b9e6 ae3d a0ec 68be 5ac5 6dbd
000002f0: 6504 2dbe 91b0 42be 8ddf 54be d220 5dbe
00000300: db91 d73d 822c 183e 1fde c23d 5deb 0a3e
00000310: dc64 f43d 46c2 f23d acbf 223e 520b 1d3e
00000320: a4a8 dd3d 06de 003e 9a57 033e 4c21 c13d
00000330: 041b eb3d 525e 233e 93c5 fc3d c7bd fa3d
00000340: ccb0 f73d 86d3 063e 0b41 bc3d be69 c63d
00000350: ef2c 053e 52e4 143e 62d8 ff3d 4d01 053e
00000360: 0199 c53d aa97 1e3e 96c7 e43d 496a 013e
00000370: 3e06 173e a9c3 053e def6 0e3e 4893 103e
00000380: 3f20 013e 762b b93d 933e 073e 22a2 cb3d
00000390: a673 9d3d b447 c53d 0932 133e f769 b53d
000003a0: 7190 0a3e 5452 d93d ea34 d33d 376b 083e
000003b0: 561c 0a3e 5e50 d53d c9ca fc3d 9402 1a3e
000003c0: 028f f0bc 98f6 d13d 8b29 1d3e 6f01 003e
000003d0: 994e d13d 37ee fd3d 914a 043e 2925 013e
000003e0: 877f fa3d 3fe5 f13d ba9d 143e 1212 023e
000003f0: 4039 093e ab3f f83d 4fd7 c43d 51ec d83d

encoder.dcrnn_cells.1.gate.bias_pool f4 [2, 128]
-0.26352644 0.124626406 0.043646187 0.24863432 0.09502298 0.19816764 0.28900525 0.20776789
0.094353504 -0.12557316 0.11455556 -0.0968426 0.11750223 -0.019926723 -0.16323978 0.14968656
0.1705083 0.093872115 -0.18654498 0.07111862 0.23596737 0.24394158 0.1000962 -0.00043912014
-0.1054297 0.28602087 0.063750155 -0.056560926 0.052922495 -0.25582543 0.042283226 0.043015935
0.09537162 0.11912511 0.22132282 -0.08446858 0.006308708 0.13647181 0.067690246 0.0420466
-0.011742763 -0.17204948 0.17457634 0.18543299 0.07101724 -0.0385166 0.23622426 -0.13543038
0.093836226 -0.20063862 0.1604833 -0.029446157 -0.018140826 0.20507707 0.04791746 0.0008656649
-0.10686277 0.23817334 -0.032562513 -0.15063852 -0.06752421 -0.032804854 -0.013336325 0.020708479
-0.14313939 -0.2734062 -0.028412309 -0.08237935 -0.05724819 0.08576953 0.08232732 -0.12205663
0.0145048285 -0.13465053 -0.30938846 -0.02084958 -0.15524185 -0.01771187 0.1108105 -0.14599918
-0.14878957 -0.08171223 0.06605872 0.0009866492 -0.20090973 0.017721562 -0.18383166 -0.014147657
-0.18445323 -0.22325931 0.15027659 -0.032855447 0.024530478 0.16091123 0.053420477 0.05508109
0.112396345 -0.03339919 -0.07833619 -0.14452626 -0.2658111 -0.06705122 0.082444794 -0.019117009
0.08078367 -0.005940973 -0.20541853 -0.21946464 0.0626265 0.104511954 -0.15916674 -0.04363129
-0.19124804 0.09927518 -0.06569657 -0.1957035 -0.07680272 0.04039481 -0.1018582 -0.13310674
0.044130784 -0.036278754 -0.18011141 -0.15704136 -0.14021386 -0.24327023 0.09845626 -0.16943587
0.061476767 0.2775284 -0.09803058 0.020768916 -0.10726154 0.023629867 0.034483694 0.13182926
0.09230355 0.2669514 0.0039434633 0.23877554 -0.037755217 0.043364994 0.10007423 0.10749119
-0.005833685 -0.056609187 0.10871397 0.30724677 0.24779642 -0.051703006 -0.05494651 0.023329401
0.19200522 0.05489345 0.12296164 -0.26842543 0.1356049 -0.16546655 -0.064818665 0.13135552
0.21350007 0.28594816 0.216761 0.27334103 0.08068554 0.15535808 -0.018531177 0.2291615
0.15001883 -0.011985086 0.3226835 0.10563983 0.040805057 0.2788017 0.11243938 0.2381192
-0.04815376 0.112609 -0.08850137 0.12587549 0.13991848 0.05833565 0.001675196 0.15541223
0.17997636 0.28325692 0.1724336 -0.12928358 0.26588455 0.16469693 0.17993577 0.21143329
-0.276351 0.10604446 0.027274866 -0.19717976 0.055052128 0.009931788 -0.03445716 0.012522004
-0.14282484 -0.16566356 -0.3118101 -0.28306875 -0.259091 -0.23783608 0.08472397 0.0068990323
-0.19204958 -0.17690927 -0.15169689 0.101883166 -0.19883235 0.10329148 0.07651809 -0.0058928602
-0.25816783 0.070016004 0.027537838 0.08684069 -0.030822363 0.05822862 -0.15599017 0.03594261
-0.11556259 -0.127823 -0.1688407 -0.19837904 0.09438321 -0.15959045 0.054300644 -0.1805166
-0.21727085 0.08808911 0.010069325 -0.25296193 -0.06136227 -0.16826683 -0.17371452 -0.007716325
-0.32264084 -0.17263322 -0.0057591153 0.0011598008 -0.08385655 -0.27415183 0.02335172 -0.27087796
-0.09444205 -0.09016005 -0.10300582 -0.06929236 0.072391644 -0.28867087 -0.05241733 -0.22079659
00000000: f0ec 86be 213c ff3d 58c6 323d ff99 7e3e
00000010: 689b c23d 75ec 4a3e 7ff8 933e 1bc1 543e
00000020: 693c c13d 4096 00be 1b9c ea3d 6a55 c6bd
00000030: 02a5 f03d 5e3d a3bc 5428 27be 6f47 193e
00000040: ba99 2e3e 0640 c03d a605 3fbe a4a6 913d
00000050: 6ea1 713e d2cb 793e 3dff cc3d b539 e6b9
00000060: 87eb d7bd 5471 923e 718f 823d 6eac 67bd
00000070: 42c5 583d 8dfb 82be 2d31 2d3d 7a31 303d
00000080: 3252 c33d def7 f33d 73a2 623e ddfd acbd
00000090: 47b9 ce3b 44bf 0b3e 2fa1 8a3d 0e39 2c3d
000000a0: b864 40bc bd2d 30be 24c4 323e 25e2 3d3e
000000b0: 7d71 913d 95c3 1dbd c6e4 713e 43ae 0abe
000000c0: 352d c03d 3674 4dbe bc55 243e 1139 f1bc
000000d0: 129c 94bc b9ff 513e 1945 443d caed 623a
000000e0: deda dabd b6e3 733e 4560 05bd fc40 1abe
000000f0: 224a 8abd 625e 06bd 9a80 5abc d4a4 a93c
00000100: 2293 12be e6fb 8bbe eec0 e8bc 81b6 a8bd
00000110: 147d 6abd efa7 af3d 3a9b a83d d4f8 f9bd
00000120: a9a5 6d3c d4e1 09be 2a68 9ebe bdcc aabc
00000130: b8f7 1ebe 7c18 91bc 9ef0 e23d cf80 15be
00000140: 4b5c 18be be58 a7bd cb49 873d 7452 813a
00000150: 48bb 4dbe cf2c 913c 5e3e 3cbe 93cb 67bc
00000160: 4fe1 3cbe 179e 64be 1be2 193e 6f93 06bd
00000170: 24f4 c83c eac5 243e 6ecf 5a3d b69c 613d
00000180: 0e30 e63d 97cd 08bd b96e a0bd b1fe 13be
00000190: 6418 88be 2652 89bd d1d8 a83d 469b 9cbc
000001a0: e971 a53d 7eac c2bb 3c59 52be 57bb 60be
000001b0: 5342 803d 5d0a d63d 9bfc 22be b9b6 32bd
000001c0: 87d6 43be c950 cb3d ec8b 86bd 8066 48be
000001d0: bf4a 9dbd 0775 253d 089b d0bd 224d 08be
000001e0: 7bc2 343d 0899 14bd 206f 38be 73cf 20be
000001f0: 3994 0fbe d51b 79be 70a3 c93d 9980 2dbe
00000200: 10cf 7b3d 3418 8e3e 42c4 c8bd 9323 aa3c
00000210: f0ab dbbd 6c93 c13c c63e 0d3d 40fe 063e
00000220: a509 bd3d dbad 883e 2b38 813b 9381 743e
00000230: 37a5 1abd 7e9f 313d b8f3 cc3d 5724 dc3d
00000240: 7f28 bfbb 09df 67bd 6ea5 de3d 734f 9d3e
00000250: 58be 7d3e 88c6 53bd 970f 61bd 4d1d bf3c
00000260: 049d 443e f4d7 603d 50d3 fb3d 0f6f 89be
00000270: 03dc 0a3e 1070 29be a6bf 84bd 1082 063e
00000280: c39f 5a3e cc67 923e 98f6 5d3e 5bf3 8b3e
00000290: 763e a53d 3016 1f3e b2ce 97bc 50a9 6a3e
000002a0: 899e 193e 185d 44bc c636 a53e b259 d83d
000002b0: 3423 273d 19bf 8e3e 9e46 e63d 85d5 733e
000002c0: e13c 45bd 8c9f e63d 3540 b5bd 81e5 003e
000002d0: ca46 0f3e 5df1 6e3d 4092 db3a 6224 1f3e
000002e0: b94b 383e 0d07 913e 6f92 303e ea62 04be
000002f0: 0522 883e 50a6 283e 1541 383e f881 583e
00000300: e17d 8dbe d62d d93d 8a6f df3c 7ee9 49be
00000310: 577e 613d f0b8 223c f322 0dbd 1729 4d3c
00000320: ad40 12be b5a3 29be 93a5 9fbe 63ee 90be
00000330: 93a7 84be 4d8b 73be c383 ad3d 4711 e23b
00000340: a5a8 44be b427 35be 6e56 1bbe 1fa8 d03d
00000350: b59a 4bbe 7c8a d33d 84b5 9c3d e518 c1bb
00000360: 932e 84be 8d64 8f3d 0897 e13c 88d9 b13d
00000370: 2e7f fcbc 2281 6e3d e3bb 1fbe 8f38 133d
00000380: 14ac ecbd 08e4 02be 94e4 2cbe e023 4bbe
00000390: fc4b c13d ae6b 23be 5a6a 5e3d 58d9 38be
000003a0: 407c 5ebe 1068 b43d cff9 243c 3a84 81be
000003b0: 0157 7bbd 244e 2cbe 38e2 31be 3ad9 fcbb
000003c0: 2e31 a5be c3c6 30be f6b6 bcbb 7504 983a
000003d0: fcbc abbd a15d 8cbe 1b4c bf3c 84b0 8abe
000003e0: d56a c1bd d5a5 b8bd b7f4 d2bd 27e9 8dbd
000003f0: 1242 943d abcc 93be 8eb3 56bd 8018 62be

encoder.dcrnn_cells.1.update.weights_pool f4 [2, 2, 128, 64]
-0.102266625 -0.030569877 -0.07622344 -0.13933599 0.130957 -0.13811402 -0.12570061 -0.014761685
0.094934925 0.12962613 0.11885066 -0.1173683 0.10994125 0.13910626 0.122266695 -0.13892907
-0.13972324 -0.14364971 0.022771314 0.111249216 0.14394435 -0.0026779699 -0.1410721 0.1399273
0.12366288 0.1389048 -0.108738415 -0.12195478 -0.12096798 -0.13487214 0.10764917 -0.16142856
-0.11139733 0.110062405 0.09490191 0.10462549 -0.002027974 -0.10772981 0.14322223 -0.120775774
-0.14761575 0.1129308 -0.103576176 0.13837433 0.12289556 0.097580954 0.13692866 -0.018523894
-0.014223779 -0.11093372 -0.17255184 -0.12661757 -0.09672615 0.14327416 -0.11919545 0.14419387
0.10561298 -0.09883196 0.13805766 0.108498305 -0.12725946 0.13594969 -0.08771828 0.080794446
-0.22456463 -0.14012022 -0.20263249 -0.2339369 0.246996 -0.23721683 -0.2505354 -0.10450481
0.18409559 0.24122825 0.24170585 -0.24920382 0.19091384 0.2626369 0.22314437 -0.24023545
-0.23366663 -0.24948621 0.016538324 0.24688569 0.2350924 -0.12887718 -0.22923984 0.24336502
0.23987316 0.2547143 -0.16999319 -0.21103938 -0.26050588 -0.18818049 0.21712188 -0.24782725
-0.23978443 0.24558355 0.22990036 0.25988758 0.121606335 -0.23831128 0.25665903 -0.24200387
-0.25280616 0.2480722 -0.2536482 0.2314353 0.24698383 0.2466574 0.24074598 -0.13134015
-0.021117281 -0.22070086 -0.24782829 -0.23921524 -0.22474638 0.22474305 -0.24968253 0.2361603
0.23751421 -0.249018 0.24945275 0.1937264 -0.24818818 0.23190218 -0.18757327 0.18341996
0.101783045 0.050406914 0.091585614 0.15870766 -0.1269212 0.15106437 0.12589537 0.010482945
-0.12753156 -0.119245656 -0.13443226 0.12842566 -0.109825656 -0.1356355 -0.122510634 0.14453012
0.15106103 0.13872139 -0.025414905 -0.1182629 -0.14354147 0.017649647 0.1415238 -0.1410306
-0.113073975 -0.1466548 0.112018324 0.11528911 0.13541305 0.13187948 -0.13958453 0.14731874
0.13280207 -0.13565718 -0.12275663 -0.12641035 -0.0042121075 0.13736768 -0.15549509 0.1294889
0.13832714 -0.1370235 0.14022937 -0.13525945 -0.14447471 -0.12834057 -0.1457997 0.041626245
0.012324204 0.1256843 0.17043658 0.15223557 0.111298025 -0.13749343 0.13031799 -0.1573589
-0.11687742 0.11061101 -0.13514104 -0.119172685 0.14538121 -0.15317678 0.11287836 -0.10190018
-0.103541546 -0.04228903 -0.08016372 -0.15317237 0.14290819 -0.12994483 -0.11289647 -0.0142201185
0.10169017 0.11143645 0.14182776 -0.10951034 0.11887056 0.1404198 0.12651412 -0.15219726
-0.13192359 -0.13809499 0.010914363 0.12957393 0.12932481 -0.013918376 -0.13145201 0.12880309
0.12556489 0.14155483 -0.1168973 -0.10389758 -0.14165744 -0.12992127 0.12721282 -0.15004735
-0.11967278 0.115712196 0.11658009 0.1134283 -0.00221116 -0.12427044 0.14162199 -0.13246708
-0.14067522 0.113815695 -0.111000046 0.14766562 0.124724016 0.10545208 0.13331732 -0.03851829
-0.0011759865 -0.10934763 -0.15531015 -0.14474703 -0.120476745 0.12911022 -0.14874032 0.1580803
0.10598757 -0.11595301 0.142502 0.11260854 -0.13150918 0.15272589 -0.10335176 0.07316892
00000000: 2a71 d1bd ae6d fabc 091b 9cbd 18ae 0ebe
00000010: 9819 063e c36d 0dbe a9b7 00be ffda 71bc
00000020: 3e6d c23d b6bc 043e fa67 f33d cb5e f0bd
00000030: e128 e13d df71 0e3e f666 fa3d 6c43 0ebe
00000040: 9c13 0fbe e918 13be e88a ba3c a1d6 e33d
00000050: 2666 133e e180 2fbb 3475 10be 1a49 0f3e
00000060: f742 fd3d 0f3d 0e3e 3fb2 debd 6dc3 f9bd
00000070: 0fbe f7bd ec1b 0abe 2b77 dc3d 874d 25be
00000080: 4924 e4bd 6668 e13d ef5b c23d e445 d63d
00000090: c2e7 04bb 72a1 dcbd d9a8 123e 4a59 f7bd
000000a0: 9528 17be 4348 e73d bf1f d4bd 00b2 0d3e
000000b0: abb0 fb3d 86d8 c73d 0737 0c3e 6cbf 97bc
000000c0: da0a 69bc 3831 e3bd 6eb1 30be 09a8 01be
000000d0: 5c18 c6bd 76b6 123e be1c f4bd 8fa7 133e
000000e0: 9e4b d83d 6968 cabd fd5e 0d3e 5c34 de3d
000000f0: 4e50 02be 6536 0b3e a4a5 b3bd 8f77 a53d
00000100: 45f4 65be ad7b 0fbe e47e 4fbe 288d 6fbe
00000110: 85ec 7c3e f8e8 72be 2d46 80be 9e06 d6bd
00000120: 8e83 3c3e 8a04 773e bd81 773e 492f 7fbe
00000130: eb7e 433e 5878 863e f57f 643e 4800 76be
00000140: 4e46 6fbe 5079 7fbe 617b 873c 9acf 7c3e
00000150: 10bc 703e 61f8 03be d9bd 6abe ae34 793e
00000160: 4fa1 753e ea69 823e b212 2ebe b51a 58be
00000170: 0761 85be 63b2 40be 3355 5e3e 6dc6 7dbe
00000180: 0d8a 75be 417a 7b3e 006b 6b3e fc0f 853e
00000190: be0c f93d df07 74be d068 833e ddcf 77be
000001a0: cf6f 81be a406 7e3e 2dde 81be 60fd 6c3e
000001b0: 54e9 7c3e c293 7c3e 1d86 763e 087e 06be
000001c0: 26fe acbc 68ff 61be b3c6 7dbe d7f4 74be
000001d0: ea23 66be 0b23 663e c7ac 7fbe 01d4 713e
000001e0: ed36 733e 93fe 7ebe 8b70 7f3e 3760 463e
000001f0: 0b25 7ebe c477 6d3e 3513 40be 71d2 3b3e
00000200: a173 d03d 7b77 4e3d 3d91 bb3d 4384 223e
00000210: a2f7 01be 9eb0 1a3e b7ea 003e a8c0 2b3c
00000220: a297 02be 1137 f4bd 9ca8 09be 0482 033e
00000230: 46ec e0bd 08e4 0abe dbe6 fabd b4ff 133e
00000240: beaf 1a3e fb0c 0e3e eb32 d0bc d233 f2bd
00000250: 89fc 12be fe95 903c 9deb 103e 536a 10be
00000260: 5493 e7bd ad2c 16be dd69 e53d b21c ec3d
00000270: b8a9 0a3e 6a0b 073e 3fef 0ebe b9da 163e
00000280: 44fd 073e b7e9 0abe d467 fbbd b771 01be
00000290: b805 8abb 1daa 0c3e 1b3a 1fbe bd98 043e
000002a0: a1a5 0d3e e34f 0cbe 4a98 0f3e 7481 0abe
000002b0: 2ef1 13be b66b 03be 844c 15be 4880 2a3d
000002c0: 75eb 493c 63b3 003e ed86 2e3e a4e3 1b3e
000002d0: 38f0 e33d 14cb 0cbe 1472 053e b122 21be
000002e0: 6e5d efbd 0688 e23d 6a62 0abe cf10 f4bd
000002f0: d0de 143e 60da 1cbe c52c e73d 0bb1 d0bd
00000300: 970d d4bd 4337 2dbd e02c a4bd 38d9 1cbe
00000310: 8656 123e 4210 05be 4436 e7bd 80fb 68bc
00000320: f042 d03d cb38 e43d 4c3b 113e f546 e0bd
00000330: 6872 f33d 35ca 0f3e eb8c 013e 99d9 1bbe
00000340: fa16 07be c668 0dbe 28d2 323c 07af 043e
00000350: b96d 043e e609 64bc 5b9b 06be f5e4 033e
00000360: 1594 003e c0f3 103e da67 efbd 41c8 d4bd
00000370: a60e 11be 150a 05be 1444 023e 03a6 19be
00000380: 0117 f5bd 84fa ec3d 8bc1 ee3d 194d e83d
00000390: 1ce9 10bb 8081 febd 5b05 113e 73a5 07be
000003a0: 2a0d 10be 3418 e93d fe53 e3bd a835 173e
000003b0: 4e6f ff3d 43f7 d73d 5684 083e 5bc5 1dbd
000003c0: 8f23 9aba a6f1 dfbd a009 1fbe 9138 14be
000003d0: 83bc f6bd 7835 043e 624f 18be cddf 213e
000003e0: 0310 d93d c678 edbd 0bec 113e 4e9f e63d
000003f0: 58aa 06be 2d64 1c3e 16aa d3bd 96d9 953d

encoder.dcrnn_cells.1.update.bias_pool f4 [2, 64]
-0.25166157 0.24977466 -0.003431002 0.2893262 -0.1281332 0.28268483 0.42340982 0.26184624
0.2537262 -0.42309782 -0.31327656 -0.07126245 0.128713 -0.17303309 -0.033733495 0.3909831
0.33547595 0.29444182 -0.30619144 0.12216747 -0.18284117 0.2761348 0.3349081 -0.3328219
0.13603629 -0.28141028 -0.2139423 0.065406926 0.18766606 -0.22852442 -0.07505372 0.31183028
0.28771347 0.14589211 -0.22153342 0.0038710623 -0.23607065 -0.19798858 -0.36094695 -0.24174929
0.32492998 0.13183281 -0.009881801 -0.2801084 -0.24907286 0.054257996 -0.29013613 0.2824195
0.32162458 -0.06382104 0.23877856 0.27357757 -0.24941611 -0.416466 0.3729469 -0.3606638
-0.09489868 0.04439604 -0.24746785 0.008549603 0.14413269 -0.4118177 -0.3026898 0.29262206
0.38616112 0.22362524 0.20923525 0.39437604 -0.21640454 0.15693673 -0.119760886 0.36896738
0.0058423188 -0.38641676 -0.42308363 0.35933998 0.002025632 0.1856225 -0.01836473 0.14796871
0.13885017 0.3032936 -0.39964896 -0.2807558 -0.21156599 0.38278502 0.3029977 -0.29783255
-0.23760274 0.08517007 0.012164854 -0.17642802 -0.09198423 -0.11614325 0.14081153 -0.12787826
0.41491908 -0.42231312 -0.20494401 -0.21600723 -0.41982466 0.23496632 0.035580505 0.26555145
0.3588776 -0.36059263 0.30357984 -0.21661715 -0.17791128 -0.36822242 -0.15484264 0.35905662
0.37712914 0.029092016 -0.04863535 0.31564477 0.31083822 -0.26901585 0.22044338 -0.36901698
-0.027989602 0.17372066 0.015559627 0.045864753 0.2854236 -0.41056898 0.13036582 -0.15462501
00000000: c9d9 80be eec4 7f3e a9da 60bb 9022 943e
00000010: 5935 03be 11bc 903e 2cc9 d83e b610 863e
00000020: 67e8 813e 47a0 d8be c965 a0be 0cf2 91bd
00000030: 57cd 033e 962f 31be 222c 0abd f02e c83e
00000040: 81c3 ab3e 14c1 963e 20c5 9cbe f032 fa3d
00000050: b73a 3bbe 8a61 8d3e 1379 ab3e a267 aabe
00000060: 194d 0b3e 0215 90be b113 5bbe 11f4 853d
00000070: 882b 403e 4e02 6abe c4b5 99bd 38a8 9f3e
00000080: 2e4f 933e be64 153e a8d9 62be a6b1 7d3b
00000090: 81bc 71be 85bd 4abe 0ace b8be 208d 77be
000000a0: 395d a63e 2eff 063e 47e7 21bc 5e6a 8fbe
000000b0: f50c 7fbe a23d 5e3d b98c 94be 4a99 903e
000000c0: faab a43e 9bb4 82bd 5e82 743e 5c12 8c3e
000000d0: f066 7fbe 083b d5be e5f2 be3e eda8 b8be
000000e0: 3d5a c2bd 9fd8 353d 3668 7dbe a213 0c3c
000000f0: 8597 133e c5d9 d2be 28fa 9abe 8fd2 953e
00000100: e9b6 c53e 04fe 643e c441 563e a8eb c93e
00000110: 2799 5dbe 06b4 203e 3245 f5bd 4be9 bc3e
00000120: ec70 bf3b 6bd8 c5be 6b9e d8be 69fb b73e
00000130: 77c0 043b d313 3e3e a171 96bc 1c85 173e
00000140: bd2e 0e3e 4c49 9b3e ca9e ccbe 39bf 8fbe
00000150: c1a4 58be 66fc c33e 8422 9b3e 827d 98be
00000160: 224e 73be a56d ae3d 194f 473c 8ca9 34be
00000170: 3a62 bcbd 83dc edbd e630 103e 85f2 02be
00000180: 4670 d43e 6d39 d8be d8dc 51be 0031 5dbe
00000190: 42f3 d6be 039b 703e ddbc 113d 5cf6 873e
000001a0: cebe b73e 999f b8be d16e 9b3e e3d0 5dbe
000001b0: 602e 36be a687 bcbe 128f 1ebe 45d6 b73e
000001c0: 1217 c13e 6152 ee3c dc35 47bd 319c a13e
000001d0: 3026 9f3e 72bc 89be e9bb 613e cbef bcbe
000001e0: 734a e5bc d4e3 313e ceed 7e3c aedc 3b3d
000001f0: 0b23 923e 1936 d2be 9e7e 053e 0556 1ebe
