CQ/result/HZ_Result/DAYS/2/data0/best_model.pth (torch_old, 599937 bytes, 11 tensors)

node_embeddings f4 [80, 2]
-0.30065927 0.33069697 -0.3657363 0.23041366 0.3833152 0.072701745 0.5063426 0.13709083
-0.20812064 0.5830441 0.56305677 -0.40296537 -0.15865323 -0.11386496 -0.02770238 0.30777237
-0.4509099 -0.034557525 0.9304327 -0.2702311 0.34264332 -0.04090597 1.0041097 -0.63739353
-0.7742188 -0.27831408 0.02185746 0.3788772 0.24319841 -0.2319108 -0.1256264 0.42147136
0.0935014 0.4292209 -0.082656145 -0.5168272 0.12389048 0.414347 0.066709444 -0.45229253
-0.03954426 0.47006994 -0.2983291 0.21867236 0.06427668 0.5196529 -0.22397521 -0.43532845
0.010335541 0.64388555 0.09109283 0.19016887 -0.5680486 0.46169576 -0.36549178 -1.1424291
-0.19053377 0.11604208 0.22095533 -0.54448354 0.7096296 0.25847667 -0.24990408 0.104347244
-0.17806625 -0.59561765 0.34693104 0.008493235 0.0021988628 -0.19975331 -0.030043786 -0.16396321
-0.027593995 -0.20075077 0.2400122 0.21069962 -0.13487987 -0.15584062 0.17251155 0.15269698
-0.01564505 -0.27189952 -0.19665511 -0.2594022 -0.27995306 -0.2758689 0.0480239 -0.29977974
-0.36110044 -0.5073862 -0.3569836 -0.4226098 0.06502004 0.3226173 0.027233908 0.25902537
0.2246055 0.25266388 0.75594854 -0.80272686 0.15504663 0.1812401 0.18811755 0.06409435
-0.6288826 -0.030088603 0.3891266 -0.35576326 -0.321403 0.021960879 -0.7809183 -0.14804173
0.16093253 0.4297052 0.19946015 0.4835364 0.1828135 0.3700518 0.10296728 -0.4821319
-0.34739333 0.07522743 0.10546055 -0.32046863 0.11736615 -0.28878558 -0.32379135 0.16504414
0.0059679365 -0.3799473 0.25734925 0.13072017 -0.063151486 -0.23446581 0.48986802 0.29230568
0.1292822 -0.5227679 0.07156652 -0.3858119 0.80064696 0.38614178 0.1695288 0.10315214
0.31504864 0.48178297 -0.14480622 0.05031394 -0.5528953 0.029910248 0.35769194 -0.40862092
0.17904413 0.2933016 0.6280681 0.100723 -0.0383776 -0.3403956 -0.08976003 -0.20046555
00000000: 03f0 99be 1d51 a93e ca41 bbbe 8ff1 6b3e
00000010: e441 c43e a7e4 943d ab9f 013f 8a61 0c3e
00000020: 941d 55be 6142 153f 7d24 103f 7a51 cebe
00000030: fe75 22be 0832 e9bd 1af0 e2bc 5794 9d3e
00000040: aadd e6be 318c 0dbd d630 6e3f bb5b 8abe
00000050: f26e af3e 058d 27bd ab86 803f 392c 23bf
00000060: 3433 46bf 2f7f 8ebe 6a0e b33c 31fc c13e
00000070: 0109 793e 067a 6dbe 35a4 00be 18cb d73e
00000080: a97d bf3d d8c2 db3e a047 a9bd ca4e 04bf
00000090: 4bba fd3d 4a25 d43e f69e 883d e392 e7be
000000a0: 29f9 21bd 02ad f03e 97be 98be a6eb 5f3e
000000b0: 7ea3 833d f907 053f c259 65be 5fe3 debe
000000c0: 6756 293c afd5 243f e18e ba3d a1bb 423e
000000d0: a26b 11bf 6363 ec3e bd21 bbbe 1e3b 92bf
000000e0: 491b 43be 78a7 ed3d 1d42 623e 4663 0bbf
000000f0: 49aa 353f 0e57 843e dbe6 7fbe 02b4 d53d
00000100: 0057 36be 667a 18bf f2a0 b13e 3627 0b3c
00000110: cc1a 103b 228c 4cbe 631e f6bc f9e5 27be
00000120: cd0c e2bc 9c91 4dbe c2c5 753e a4c1 573e
00000130: f31d 0abe af94 1fbe dea6 303e 995c 1c3e
00000140: 0c2a 80bc 6a36 8bbe f55f 49be 5dd0 84be
00000150: 0256 8fbe b03e 8dbe b5b4 443d bb7c 99be
00000160: 28e2 b8be 10e4 01bf 8ec6 b6be 5060 d8be
00000170: 3a29 853d 182e a53e a519 df3c f99e 843e
00000180: fcfe 653e 295d 813e d885 413f 827f 4dbf
00000190: 8bc4 1e3e 0197 393e e3a1 403e e643 833d
000001a0: 73fe 20bf 607c f6bc 9a3b c73e 9a26 b6be
000001b0: ef8e a4be 4de7 b33c 43ea 47bf 4098 17be
000001c0: 7fcb 243e 5202 dc3e 483f 4c3e 1592 f73e
000001d0: 7633 3b3e 6e77 bd3e 82e0 d23d fed9 f6be
000001e0: 8add b1be d710 9a3d b3fb d73d 7714 a4be
000001f0: aa5d f03d b4db 93be fbc7 a5be 5501 293e
00000200: ae8e c33b 7488 c2be 48c3 833e 82db 053e
00000210: 9155 81bd ce17 70be fbcf fa3e 17a9 953e
00000220: 8e62 043e 1ed4 05bf 7891 923d 2389 c5be
00000230: 33f7 4c3f 60b4 c53e f598 2d3e 6e41 d33d
00000240: 0e4e a13e 42ac f63e 1548 14be fd15 4e3d
00000250: 8c8a 0dbf 5606 f53c 6623 b73e c336 d1be
00000260: 5857 373e a12b 963e 12c9 203f dc47 ce3d
00000270: d531 1dbd 5548 aebe 1bd4 b7bd d746 4dbe

encoder.dcrnn_cells.0.gate.weights_pool f4 [2, 2, 65, 128]
1.9491659 2.1093953 2.5098333 -0.6309772 -0.94734365 0.35253966 1.7935572 1.357285
-0.9366668 -0.34834653 -2.4244812 1.5114216 1.1629006 -2.5513422 2.2295437 -1.3682278
1.595779 -0.66812724 0.090522885 2.3578775 3.2308838 0.1557356 1.2904545 1.0115641
1.6724583 1.5462769 1.660309 1.441873 0.5158911 -0.36143848 1.2017742 0.35245162
3.357225 0.16996886 -1.3444906 0.64481056 -0.59741235 1.9599198 -0.5169149 -2.3958485
-1.0211017 3.2183852 -1.5791577 2.3298888 0.68804353 3.343029 -1.0754238 0.5128317
1.7216007 1.5253812 -0.4761369 -0.76009125 2.0356934 3.7510452 0.82856345 2.4072194
-1.7196634 -0.35201737 2.1926873 3.3666363 -0.05162852 -1.6105906 1.4093539 -1.0199919
-1.6535599 -1.2550477 -1.8881856 1.9007509 0.10808248 -0.6406814 0.043402076 -0.026340926
2.30834 1.593418 -0.12866265 -0.86669177 -1.1990443 0.3519554 0.1453095 -0.49331358
-0.18497562 0.38280407 -0.26746562 -0.57913053 -0.9466622 2.6171575 0.05890639 1.0248413
-1.2864043 -0.1859821 -1.9519651 -0.45880547 -0.6053751 0.3108206 0.3084607 1.5937436
-0.451794 -0.14928547 2.292388 0.7755435 -1.3744973 -1.9608989 0.9469584 0.62096953
-2.1565833 -2.4655943 -0.80282074 -0.19464922 1.5991707 -0.9810307 3.2379744 -0.82157487
-0.9007454 0.9132098 0.22701871 1.9038512 -0.10114066 -1.058308 -1.5382663 -1.3960121
0.15943156 -1.0619993 -1.3019735 -1.2916521 2.0018027 -0.025491333 -2.2495408 1.4369105
0.7475361 0.45347184 0.7679572 0.007211209 -0.32660463 0.45527226 -0.2894419 -0.025265533
0.49061802 0.31228676 0.3832324 0.07096707 -0.26437214 0.12341755 0.013121756 0.25703406
0.60767967 0.028662298 -0.17583022 0.43216747 0.230758 -0.24092506 0.18993595 -0.06628097
0.6689163 0.34190443 0.65191865 -0.0024666851 -0.54586583 0.0014492279 0.029073067 0.0056009344
0.67967486 -0.2382448 -0.20500895 -0.55845195 0.43431816 0.7497391 0.08462327 0.18568908
0.0037051518 -0.0009541447 0.11102639 -0.5464319 0.2047668 0.37692374 1.7800274 0.095566675
0.32458743 0.12507819 0.039671123 0.18967535 -0.42089403 -0.14546062 0.15240593 0.6908113
0.38747832 0.38950488 -0.26442647 0.25430837 1.0312765 -0.013896267 -0.08325451 0.012793115
0.27618825 0.56342787 0.5375339 -0.7737804 -0.66802067 0.15026988 -0.006008813 0.46965492
0.8854313 -0.66796124 0.030449763 -0.37763885 -0.36029786 -0.46089682 0.39238173 -0.021857256
-0.25719306 -0.98077345 0.31414193 0.88825643 -0.83893096 0.22705676 0.2771335 0.22193766
-0.86841345 -0.1704668 -0.68285346 0.17686258 -0.89595795 0.38006827 1.0161391 0.25098115
0.26220492 -0.50981194 0.026128747 -0.43903923 -0.043669097 0.45459288 -0.31704006 0.43388098
-0.43465462 0.09181996 -1.6146423 0.23478699 -0.22727646 0.2188658 0.13802148 -1.4049649
-0.9604567 0.1892313 0.5537853 -0.5749639 -0.8205237 -1.4481131 0.12090087 -0.3022507
-0.44182616 -1.0113214 -0.118862115 -0.16750416 0.19721289 -1.2982857 -0.3472661 0.38937634
00000000: 457e f93f 5500 0740 1ca1 2040 b987 21bf
00000010: 1d85 72bf 1480 b43e 4893 e53f 84bb ad3f
00000020: 65c9 6fbf 7a5a b2be b32a 1bc0 4376 c13f
00000030: edd9 943f 3149 23c0 d8b0 0e40 1722 afbf
00000040: 7c42 cc3f 630a 2bbf 1064 b93d 77e7 1640
00000050: cdc6 4e40 2779 1f3e 9d2d a53f ef7a 813f
00000060: 1d13 d63f 67ec c53f 0185 d43f 4b8f b83f
00000070: 7011 043f 770e b9be bdd3 993f 8a74 b43e
00000080: c6dc 5640 510c 2e3e 4518 acbf 4e12 253f
00000090: 04f0 18bf a7de fa3f 8954 04bf 9555 19c0
000000a0: 76b3 82bf 06fa 4d40 d721 cabf e61c 1540
000000b0: 9f23 303f 30f4 5540 7da7 89bf f048 033f
000000c0: 695d dc3f b13f c33f 37c8 f3be 5795 42bf
000000d0: cd48 0240 2011 7040 bc1c 543f e20f 1a40
000000e0: ee1d dcbf 9f3b b4be fd54 0c40 f876 5740
000000f0: 6d78 53bd d527 cebf b565 b43f 188f 82bf
00000100: daa7 d3bf 67a5 a0bf 11b0 f1bf ce4b f33f
00000110: 595a dd3d b203 24bf 60c6 313d edc8 d7bc
00000120: d8bb 1340 1ff5 cb3f 24c0 03be 83df 5dbf
00000130: 497a 99bf 8033 b43e 03cc 143e 9993 fcbe
00000140: 406a 3dbe e5fe c33e 41f1 88be e641 14bf
00000150: 7458 72bf 827f 2740 d447 713d 002e 833f
00000160: e5a8 a4bf 1772 3ebe fed9 f9bf 8de8 eabe
00000170: ddf9 1abf e123 9f3e 90ee 9d3e caff cb3f
00000180: 8b51 e7be 4ade 18be 7cb6 1240 058a 463f
00000190: 87ef afbf bcfe fabf de6b 723f dcf7 1e3f
000001a0: 7605 0ac0 4ccc 1dc0 a985 4dbf 2052 47be
000001b0: a0b1 cc3f d424 7bbf f93a 4f40 bb52 52bf
000001c0: 4097 66bf 1ec8 693f 9877 683e 65b1 f33f
000001d0: d622 cfbd a376 87bf e9e5 c4bf 86b0 b2bf
000001e0: 0742 233e 98ef 87bf 11a7 a6bf db54 a5bf
000001f0: 891d 0040 33d3 d0bc 7af8 0fc0 afec b73f
00000200: 875e 3f3f 762d e83e d898 443f 014c ec3b
00000210: b938 a7be 7219 e93e bb31 94be aaf9 cebc
00000220: 4932 fb3e 0de4 9f3e 0a37 c43e 2f57 913d
00000230: c95b 87be 57c2 fc3d a2fc 563c f899 833e
00000240: e590 1b3f 32cd ea3c d60c 34be 0e45 dd3e
00000250: d34b 6c3e 0fb5 76be 927e 423e 51be 87bd
00000260: 193e 2b3f 190e af3e 24e4 263f 1ca8 21bb
00000270: ddbd 0bbf 05f4 bd3a a42a ee3c 0b88 b73b
00000280: 2cff 2d3f 72f6 73be deed 51be b5f6 0ebf
00000290: f35e de3e e7ee 3f3f f74e ad3d 4725 3e3e
000002a0: 22d2 723b 911f 7aba ce61 e33d f6e2 0bbf
000002b0: 63ae 513e 26fc c03e f0d7 e33f 76b8 c33d
000002c0: 5330 a63e 7f14 003e 307e 223d 413a 423e
000002d0: 6c7f d7be a1f3 14be 4d10 1c3e 02d9 303f
000002e0: 8f63 c63e 2f6d c73e e862 87be b534 823e
000002f0: de00 843f 2bad 63bc 5781 aabd 379a 513c
00000300: 8c68 8d3e cf3c 103f d29b 093f 7916 46bf
00000310: 6703 2bbf 59e0 193e 94e5 c4bb 9c76 f03e
00000320: a0ab 623f 82ff 2abf c871 f93c e159 c1be
00000330: f678 b8be abfa ebbe 42e6 c83e fd0d b3bc
00000340: cfae 83be f813 7bbf 36d7 a03e c664 633f
00000350: 2ec4 56bf 9181 683e 71e4 8d3e a043 633e
00000360: 5850 5ebf d98e 2ebe 7ccf 2ebf 771b 353e
00000370: 805d 65bf 4f98 c23e d910 823f 9a80 803e
00000380: b93f 863e 0983 02bf f40b d63c c0c9 e0be
00000390: 5ede 32bd 66c0 e83e 1353 a2be a625 de3e
000003a0: 0d8b debe 1a0c bc3d 99ac cebf 006c 703e
000003b0: 29bb 68be 5b1e 603e 8155 0d3e e4d5 b3bf
000003c0: 7ee0 75bf dac5 413e e0c4 0d3f d630 13bf
000003d0: d70d 52bf c55b b9bf e09a f73d 9bc0 9abe
000003e0: 0a37 e2be fb72 81bf fb6d f3bd 3686 2bbe
000003f0: 2df2 493e 3a2e a6bf ddcc b1be 565c c73e

encoder.dcrnn_cells.0.gate.bias_pool f4 [2, 128]
-0.023228414 -0.1586998 -0.097787336 -0.15645105 -0.23757692 0.04860312 -0.0679815 -0.36884046
0.23329206 -0.024961019 0.10346835 0.03450902 0.60403454 0.21955046 0.036572177 0.50678575
0.45281 0.5385691 -0.1453221 0.29702878 0.14635521 0.53427947 0.38446417 -0.2636265
0.253809 -0.23496433 0.5921171 0.05167525 -0.49309105 -0.6451239 -0.08530559 0.45196632
-0.13486527 0.5101138 0.2997933 -0.37195972 0.820517 -0.33767298 0.5854637 -0.20140621
0.26866987 0.5493558 0.40322548 -0.1623248 0.0658949 0.048250206 -0.29142082 0.5171479
0.10442521 -0.15697536 -0.19200158 0.0017285285 -0.31678927 0.444102 0.5101138 -0.10052478
0.17719853 0.3612186 -0.18944612 0.5518059 -0.19861683 0.118177846 0.3072736 0.057040364
-0.13191023 -0.9865514 -0.118788615 0.2585584 -0.053464416 1.0872791 1.6003762 -0.27060106
1.4303868 -0.12819588 -0.4803596 -0.11580742 -0.8841188 0.10214961 0.043109518 -0.14658698
1.1781176 -0.68929636 0.023604307 -0.818581 -0.72710633 -0.030694611 -1.5319753 -0.68430465
-0.4387201 -0.5666007 -0.3288568 -1.2719928 0.7636407 1.1203029 -0.67514294 0.019453403
0.2089746 -1.453786 0.3876071 -0.7958442 -0.76723784 -1.5131214 0.13130742 -0.114740975
0.24434006 -1.1873605 0.097220674 -0.22599652 1.0091807 -0.7632865 0.074451864 -0.33560285
-1.0328451 -0.1176581 0.542084 1.3571011 0.19515148 -0.75455433 -0.42884064 -0.28290358
-0.9652481 0.9391536 0.06517802 -0.33348367 -0.46854258 -0.5307309 -0.85135216 0.27493778
0.19815083 -0.48436046 0.027332501 -0.73035234 -0.3138698 -0.27354702 0.05457659 -0.91372114
-0.5120523 -0.47695002 -0.2288428 0.35729024 -0.065371804 0.5082617 -0.616346 0.22432256
-0.1508559 0.11751935 -0.13735828 -0.25027567 0.022688003 -0.32131237 -0.6595568 -0.32161832
-0.50522983 -0.590693 0.49070802 -0.37007374 -0.6193449 -0.5884562 -0.3140944 -0.75006276
-0.3357829 -0.12045346 -0.6781836 -0.36097312 -0.66835845 -0.55783355 -0.80949724 -0.2265936
0.98348725 -0.2850863 -0.10428327 -0.5280352 -0.5394377 -0.6268852 -0.4260391 -0.11866368
-0.20978469 -0.28274637 -0.54082125 -0.84839135 -0.096094936 -0.20817427 0.09938482 -0.20614311
-0.26848128 -0.4819472 -0.63141567 -0.61101377 -0.84131134 -0.12482965 -0.3780293 -0.3828085
0.18500492 0.05405689 0.24734895 -0.2797586 -0.18312721 -0.31552008 0.2581659 1.0726748
0.101737976 -0.8976068 0.4287155 0.4049386 0.06463746 -1.5128385 0.550269 1.954777
-0.5477337 0.27518 1.0432531 0.52845263 0.28796545 0.15048184 0.049700573 0.6974888
0.012444171 0.96644235 0.44687086 0.78503567 0.670803 0.6776073 -1.2633753 0.80244833
0.17077944 1.1572621 -0.1691017 0.6860519 1.0197126 0.07102707 -0.97375673 0.008112066
0.03906673 0.2114028 0.5561974 0.715594 0.9662386 -0.022519672 0.62924343 0.43137878
-0.23978795 -0.27166232 -0.054243583 0.32160297 1.3336127 1.0145248 0.12282062 0.49529856
0.5550462 1.728822 0.12669547 0.026302645 0.85858816 0.5669007 0.5304333 -0.2868357
00000000: 8449 bebc 3382 22be ba44 c8bd b434 20be
00000010: 5d47 73be 1114 473d e239 8bbd a8d8 bcbe
00000020: 1de4 6e3e 0d7b ccbc 37e7 d33d 5559 0d3d
00000030: 02a2 1a3f d6d1 603e b5cc 153d b6bc 013f
00000040: b6d6 e73e aadf 093f 51cf 14be 2814 983e
00000050: 24de 153e 8ac6 083f 7dd8 c43e 0dfa 86be
00000060: 41f3 813e 7d9a 70be fc94 173f 6da9 533d
00000070: 6e76 fcbe d726 25bf b2b4 aebd 2168 e73e
00000080: 1f1a 0abe d196 023f 827e 993e 8171 bebe
00000090: 670d 523f 79e3 acbe f3e0 153f 6e3d 4ebe
000000a0: 198f 893e 95a2 0c3f 9273 ce3e 7938 26be
000000b0: e8f3 863d 02a2 453d 1c35 95be ce63 043f
000000c0: e2dc d53d 26be 20be 109c 44be cb8f e23a
000000d0: 3432 a2be 5661 e33e d196 023f f0df cdbd
000000e0: 8873 353e a5f1 b83e 2afe 41be 2743 0d3f
000000f0: 3662 4bbe 3a07 f23d f752 9d3e 28a3 693d
00000100: 7a13 07be a28e 7cbf 7247 f3bd c461 843e
00000110: 81fd 5abd f62b 8b3f 21d9 cc3f 398c 8abe
00000120: ea16 b73f c845 03be b2f1 f5be 712c edbd
00000130: 9c55 62bf d133 d13d 9b93 303d e61a 16be
00000140: 8fcc 963f ba75 30bf d25d c13c 868e 51bf
00000150: a423 3abf 4473 fbbc c417 c4bf 972e 2fbf
00000160: ec9f e0be be0c 11bf eb5f a8be a9d0 a2bf
00000170: f57d 433f 1666 8f3f 2bd6 2cbf be5c 9f3c
00000180: 70fd 553e a915 babf 7074 c63e 72bc 4bbf
00000190: b369 44bf f6ad c1bf 7475 063e 51fd eabd
000001a0: 4834 7a3e 6efb 97bf a21b c73d a26b 67be
000001b0: d52c 813f be66 43bf 387a 983d 23d4 abbe
000001c0: 4534 84bf bbf6 f0bd 04c6 0a3f 7db5 ad3f
000001d0: cad5 473e 792a 41bf 0091 dbbe bdd8 90be
000001e0: 801a 77bf 5f6c 703f 0e7c 853d 5fbe aabe
000001f0: d0e4 efbe fbdd 07bf 37f2 59bf a5c4 8c3e
00000200: 0de8 4a3e 18fe f7be 69e8 df3c 5ff8 3abf
00000210: 8bb3 a0be 5b0e 8cbe b48b 5f3d a1e9 69bf
00000220: dc15 03bf cb32 f4be c455 6abe bfee b63e
00000230: a7e1 85bd 701d 023f dac8 1dbf d0b4 653e
00000240: f879 1abe fcad f03d a6a7 0cbe 2224 80be
00000250: 31dc b93c 0e83 a4be b7d8 28bf 28ab a4be
00000260: be56 01bf a837 17bf 153e fb3e 4e7a bdbe
00000270: 638d 1ebf 11a5 16bf fbd0 a0be 1d04 40bf
00000280: bceb abbe 4eb0 f6bd 719d 2dbf 78d1 b8be
00000290: 8a19 2bbf 2ece 0ebf 363b 4fbf 2708 68be
000002a0: d2c5 7b3f d5f6 91be 7892 d5bd 512d 07bf
000002b0: 9718 0abf 8c7b 20bf cc21 dabe f205 f3bd
000002c0: ccd1 56be 22c4 90be 4373 0abf 2d30 59bf
000002d0: 6ccd c4bd a32b 55be 458a cb3d 2e17 53be
000002e0: 6176 89be c9c1 f6be 75a4 21bf 666b 1cbf
000002f0: 2e60 57bf b0a6 ffbd 0e8d c1be 7aff c3be
00000300: ee71 3d3e c26a 5d3d 0b49 7d3e 853c 8fbe
00000310: b385 3bbe d98b a1be 522e 843e 684d 893f
00000320: 005c d03d 8fc9 65bf 9980 db3e 1d54 cf3e
00000330: a560 843d b1a4 c1bf 6ede 0c3f 2236 fa3f
00000340: 4738 0cbf 65e4 8c3e 5189 853f ac48 073f
00000350: 3570 933e e917 1a3e d492 4b3d a08e 323f
00000360: a3e2 4b3c c468 773f 42cc e43e 19f8 483f
00000370: bfb9 2b3f ac77 2d3f 48b6 a1bf 416d 4d3f
00000380: cee0 2e3e 2a21 943f ff28 2dbe 19a1 2f3f
00000390: f185 823f a476 913d 1f48 79bf 79e8 043c
000003a0: 6f04 203d fa79 583e f462 0e3f 2b31 373f
000003b0: 6a5b 773f 2d7b b8bc 1916 213f aedd dc3e
000003c0: f98a 75be 5317 8bbe 852e 5ebd 25a9 a43e
000003d0: d2b3 aa3f f3db 813f 6189 fb3d c697 fd3e
000003e0: 8217 0e3f 0a4a dd3f 75bc 013e a578 d73c
000003f0: 6fcc 5b3f 6720 113f 7aca 073f 21dc 92be

encoder.dcrnn_cells.0.update.weights_pool f4 [2, 2, 65, 64]
0.9629113 1.4348497 1.4178089 -0.25898787 1.8746833 0.3619389 -1.4114438 -1.5932
1.2098234 -0.019602655 2.0984356 -1.9926252 -1.8601866 -0.6819638 -1.4054767 2.0507863
0.98873013 -1.3256646 -1.2328551 1.0338432 -2.264499 -0.65385866 3.1598227 -0.04422924
-0.9973583 -2.0741262 -0.61790997 -1.2055883 1.2605389 -2.179547 -0.613208 -0.12744829
1.5398968 1.3154683 -1.2802455 -0.7281017 1.145141 -1.2605858 0.0030890168 1.4866201
-1.7728238 0.87491095 0.7060545 -1.9825886 -1.1629735 -1.6593002 -1.3695176 2.4768486
2.835874 0.09419628 -1.0032386 -1.3086437 -0.91903704 1.7103959 -2.0191712 -2.2446163
-1.6774759 1.588001 2.0635564 1.0410756 -1.0052632 2.107102 0.93313545 0.5113591
1.9532304 0.4912021 1.620664 0.83977395 1.3805529 0.2041047 -0.5868137 -0.8280971
1.0051168 -0.8221694 -0.61454844 -1.073652 0.69291997 -0.028542822 0.5689396 -0.10681993
1.3656679 0.85291034 1.1081234 -0.53123707 -0.6017473 -0.7282443 -0.23895027 -0.14207867
-0.033891276 -0.10111261 -1.010885 -0.5695679 0.77444327 -1.3275249 -0.6051799 0.7604345
1.1674881 -0.36159554 -0.4601672 -0.6358966 0.3109914 0.39261347 0.33958858 -0.3889601
-0.077753276 -0.61208004 0.442297 -0.014919009 -0.13130745 -1.1084679 0.09385039 0.028590882
-0.09293231 0.21445636 -1.6191163 0.16495086 1.0681589 -0.35695052 -0.06669534 -1.9535154
-1.1549113 0.56607705 0.13401951 0.8745993 0.6450576 1.4549322 0.23126696 -0.41547516
0.29321176 -1.4033452 0.9739746 -0.1873761 0.6811265 0.23423146 -0.34234673 -0.7819707
0.8395383 -0.51029503 -1.0735818 0.698124 1.0373782 -0.055788692 1.0518243 0.47924012
0.1846087 0.47223938 0.9027644 -0.5784644 0.923631 0.28677177 -0.1615331 -0.82322717
-0.01020742 0.6685681 -0.8577871 1.3343759 0.5484981 0.30095384 -0.66892546 -1.0977026
0.34603524 -0.7652455 -0.5836663 0.6053796 -0.21266322 -0.01625405 0.39959595 0.33968148
0.60437894 0.096685275 -1.2968806 0.1655004 0.024926087 -1.4855418 -0.45579168 0.79268813
0.3357103 -0.14030169 0.15896416 -0.36897692 -0.07047126 0.47671014 0.3927529 -0.68912745
-0.24994092 -0.21104147 -0.46671313 1.0484906 -0.24825166 0.14516714 -0.23584387 0.77748626
0.5564201 -0.43320647 1.648867 -0.5404099 0.37334368 -0.57387406 -0.17119947 -1.053551
0.81790316 -0.17459337 -0.2609717 -0.92324203 -0.15005572 -0.06678269 0.10070502 0.42236406
0.69185066 0.3042724 1.509383 0.397021 0.3115419 -0.3676978 -0.40383327 -0.23980379
-0.010512412 -0.024804125 -1.2125692 0.13313904 0.6325836 -0.5250891 0.59328103 -0.12441989
2.0556145 0.37533498 0.22857091 0.09733606 0.58796227 0.25484675 1.5629393 0.054757383
0.11531672 -0.25722972 0.5068657 0.19467755 0.11262116 -0.07269432 -0.3078957 -0.53095156
-0.09586048 -0.29419354 -0.40755436 0.48354658 0.71505976 0.86832803 -1.0021943 -1.1849041
-1.9766005 0.20964724 0.28543657 1.3139496 -1.3640512 0.7686681 -0.49806914 -0.051779002
00000000: 5b81 763f 28a9 b73f c37a b53f 0f9a 84be
00000010: 9ff5 ef3f 0e50 b93e 31aa b4bf faed cbbf
00000020: 7edb 9a3f bf95 a0bc c54c 0640 580e ffbf
00000030: 981a eebf 2e95 2ebf a9e6 b3bf 1540 0340
00000040: 6b1d 7d3f 61af a9bf 32ce 9dbf f954 843f
00000050: 8ded 10c0 4863 27bf 893a 4a40 b829 35bd
00000060: e052 7fbf 7cbe 04c0 592f 1ebf b850 9abf
00000070: 5759 a13f b37d 0bc0 33fb 1cbf ce81 02be
00000080: 571b c53f 4461 a83f 16df a3bf df64 3abf
00000090: fb93 923f e05a a1bf 1a71 4a3b 9149 be3f
000000a0: e4eb e2bf 2afa 5f3f fdbf 343f 77c5 fdbf
000000b0: 51dc 94bf f363 d4bf 5a4c afbf b084 1e40
000000c0: f67e 3540 fbe9 c03d 1f6a 80bf a381 a7bf
000000d0: 0346 6bbf 41ee da3f 1a3a 01c0 cba7 0fc0
000000e0: 88b7 d6bf 9e43 cb3f 4f11 0440 f741 853f
000000f0: 77ac 80bf c2da 0640 f7e1 6e3f 6ee8 023f
00000100: 7403 fa3f d77e fb3e eb71 cf3f 6dfb 563f
00000110: f5b5 b03f d300 513e 6c39 16bf 2cfe 53bf
00000120: aba7 803f b279 52bf 0c53 1dbf 6e6d 89bf
00000130: 3463 313f a3d2 e9bc 07a6 113f 68c4 dabd
00000140: 35ce ae3f 5558 5a3f fdd6 8d3f 27ff 07bf
00000150: 1c0c 1abf 386e 3abf 61af 74be 127d 11be
00000160: 94d1 0abd 2114 cfbd ae64 81bf 34cf 11bf
00000170: ea41 463f 56ec a9bf 12ed 1abf d6ab 423f
00000180: 4070 953f 0d23 b9be 099b ebbe 1fca 22bf
00000190: 443a 9f3e a204 c93e 8ede ad3e c725 c7be
000001a0: 1c3d 9fbd 47b1 1cbf c174 e23e dc6e 74bc
000001b0: 7675 06be 47e2 8dbf a234 c03d 6d37 ea3c
000001c0: 4c53 bebd 739a 5b3e 343f cfbf e1e8 283e
000001d0: 6eb9 883f 38c2 b6be 9197 88bd cb0c fabf
000001e0: 22d4 93bf 6dea 103f 693c 093e bde5 5f3f
000001f0: 7f22 253f 383b ba3f 3fd1 6c3e 29b9 d4be
00000200: da1f 963e d1a0 b3bf 6656 793f 85df 3fbe
00000210: 4e5e 2e3f 5fda 6f3e 1248 afbe 3b2f 48bf
00000220: fbeb 563f b2a2 02bf 216b 89bf 41b8 323f
00000230: cfc8 843f af82 64bd 2ea2 863f f65e f53e
00000240: 100a 3d3e 5cc9 f13e 911b 673f 3e16 14bf
00000250: 1573 6c3f c0d3 923e ef68 25be 04bf 52bf
00000260: 063d 27bc 4727 2b3f ef97 5bbf d4cc aa3f
00000270: 5f6a 0c3f 9f16 9a3e b33e 2bbf 8581 8cbf
00000280: 882b b13e 21e7 43bf 286b 15bf 28fa 1a3f
00000290: 63c4 59be 3727 85bc d797 cc3e bbea ad3e
000002a0: 94b8 1a3f ee02 c63d 2f00 a6bf f078 293e
000002b0: cb31 cc3c 3c26 bebf 875d e9be 9ced 4a3f
000002c0: 38e2 ab3e 3fab 0fbe 80c7 223e 8bea bcbe
000002d0: 3c53 90bd 5a13 f43e e816 c93e a86a 30bf
000002e0: 83f0 7fbe 411b 58be 06f5 eebe f134 863f
000002f0: af35 7ebe b2a6 143e 0e81 71be 5709 473f
00000300: 8c71 0e3f 3dcd ddbe 130e d33f 4e58 0abf
00000310: e726 bf3e 69e9 12bf ea4e 2fbe c2da 86bf
00000320: 1a62 513f 9bc8 32be 159e 85be 9759 6cbf
00000330: 35a8 19be 5dc5 88bd 6f3e ce3d 1a40 d83e
00000340: 201d 313f 98c9 9b3e 7633 c13f 5646 cb3e
00000350: 6b82 9f3e e342 bcbe 3cc3 cebe 208f 75be
00000360: 403c 2cbc 0532 cbbc 7835 9bbf 9a55 083e
00000370: 00f1 213f 3d6c 06bf 44e1 173f dbcf febd
00000380: 308f 0340 e82b c03e 7e0e 6a3e 2158 c73d
00000390: b284 163f 467b 823e 650e c83f 4749 603d
000003a0: 2c2b ec3d 9db3 83be f3c1 013f 8d59 473e
000003b0: eca5 e63d c2e0 94bd 81a4 9dbe 71ec 07bf
000003c0: 8052 c4bd 89a0 96be f7aa d0be 6b93 f73e
000003d0: 280e 373f bf4a 5e3f e747 80bf f0aa 97bf
000003e0: 3f01 fdbf c4ad 563e be24 923e 802f a83f
000003f0: 3b99 aebf 6fc7 443f eb02 ffbe 3816 54bd

encoder.dcrnn_cells.0.update.bias_pool f4 [2, 64]
0.05535898 0.74620485 0.6492177 -0.6186054 0.03684553 -0.51324093 -0.5650662 -0.09276931
0.476727 -0.27543366 0.21259166 0.29355195 0.08487048 -0.4133219 -0.0807037 -0.3316827
0.47825974 -0.4968628 0.081889614 0.97519445 -0.2491907 0.12485512 0.5786298 0.27403435
-0.43604577 0.29063576 0.7118004 -0.375414 -0.09291341 -0.7285889 -0.13141878 -0.17776753
0.2826036 0.63822776 -0.26717752 0.29662085 0.6261072 -0.7819191 -0.1341508 -0.5627383
-0.28240106 0.7411197 0.3395868 -0.28565747 -0.3909389 -0.5581227 -0.37524432 0.8293246
0.10097565 -0.22836578 -0.02925201 -0.27622518 -0.15898223 -0.19235818 -0.22805236 -0.15365465
-0.7673434 -0.0235944 0.14134844 0.22294487 -0.3560784 -0.028577618 0.72266173 0.13137607
-0.04606473 -0.121468544 -0.228094 -0.6318917 0.6597485 1.0202229 -0.7922504 -0.7715858
0.7289195 -0.21604088 -0.43789786 -0.26446664 0.076953255 -0.11711376 -0.75223064 0.70731986
0.058674637 0.41709483 -0.9745408 0.22797677 0.15381037 -0.45159125 -1.4125131 0.5573599
0.4172167 -0.55384684 0.23980011 0.0064985766 0.59934735 -0.94918114 -0.59172404 0.6021934
0.4464945 -0.5548627 -0.42231074 -0.54593337 -0.43769443 1.5444012 0.2462956 -0.6772401
0.073415674 -0.18005575 -0.801196 -0.69038606 -0.8135419 0.27593222 0.27405182 -0.20248276
-0.33781 0.36973867 -0.5249276 -0.63555276 -0.7602743 0.09849101 0.59973586 -0.07708705
1.0950681 0.6457898 -0.1699101 -0.13766976 0.26760057 -0.8093557 -1.0608851 0.6395672
00000000: 19c0 623d 4807 3f3f 2233 263f ec5c 1ebf
00000010: 57eb 163d c263 03bf 2ea8 10bf d6fd bdbd
00000020: 9015 f43e a405 8dbe a1b1 593e 714c 963e
00000030: 93d0 ad3d ee9e d3be fb47 a5bd 51d2 a9be
00000040: 76de f43e cd64 febe beb5 a73d 58a6 793f
00000050: d92b 7fbe 0bb4 ff3d 1521 143f 3b4e 8c3e
00000060: 6441 dfbe 36ce 943e 8d38 363f 4436 c0be
00000070: 6349 bebd cd84 3abf a592 06be b108 36be
00000080: 6bb1 903e e562 233f 7ecb 88be b0de 973e
00000090: 9048 203f da2b 48bf d45e 09be 9e0f 10bf
000000a0: df96 90be 05ba 3d3f 52de ad3e b241 92be
000000b0: 2529 c8be 21e1 0ebf 0620 c0be 9e4e 543f
000000c0: 52cc ce3d b8d8 69be e9a1 efbc 636d 8dbe
000000d0: 3dcc 22be 8bf9 44be 8f86 69be a557 1dbe
000000e0: 9e70 44bf 0b49 c1bc a5bd 103e a94b 643e
000000f0: e84f b6be 9c1b eabc 5c00 393f 7387 063e
00000100: 5fae 3cbd 80c4 f8bd 7991 69be a8c3 21bf
00000110: 47e5 283f aa96 823f ecd0 4abf a686 45bf
00000120: 789a 3a3f d239 5dbe 2634 e0be 2c68 87be
00000130: ab99 9d3d 57d9 efbd 3092 40bf ea12 353f
00000140: d154 703d 748d d53e 827b 79bf be72 693e
00000150: 7780 1d3e f836 e7be 3bcd b4bf 23af 0e3f
00000160: 6d9d d53e e8c8 0dbf 298e 753e 03f2 d43b
00000170: d46e 193f 89fd 72bf 3a7b 17bf 5929 1a3f
00000180: ed9a e43e 7b0b 0ebf 1d39 d8be 4ac2 0bbf
00000190: 7c19 e0be f0ae c53f ea34 7c3e 9b5f 2dbf
000001a0: f55a 963d 8960 38be 2e1b 4dbf 24bd 30bf
000001b0: 4844 50bf fd46 8d3e 8550 8c3e a457 4fbe
000001c0: 6ff5 acbe 634e bd3e a861 06bf 96b3 22bf
000001d0: 56a1 42bf a8b5 c93d 4a88 193f d1df 9dbd
000001e0: 312b 8c3f 7b52 253f eafc 2dbe 4df9 0cbe
000001f0: f102 893e ef31 4fbf 15cb 87bf adba 233f

encoder.dcrnn_cells.1.gate.weights_pool f4 [2, 2, 128, 128]
0.05541231 0.778633 1.6467526 0.77260226 -0.41431537 0.61889714 -2.0666358 0.18932268
1.7939547 -0.6444452 -1.362815 0.9944966 0.63061374 0.06750973 0.6582128 0.7038808
1.0643265 -2.364902 -0.28545836 -0.18910825 0.20075892 0.34995154 0.42709833 -0.3215048
0.53320426 -0.9925799 1.6263577 -0.3412123 -1.0019222 0.09809067 0.3871151 -0.42578757
-0.34074816 -1.0927484 -0.2608814 0.41576552 0.4733286 -0.3216304 0.4133086 1.0159403
-0.42767134 -0.6953039 0.8608131 -0.82892406 -1.7205539 0.4172097 -0.943434 -0.2406891
-0.7107973 1.0957606 0.897305 1.4968578 0.13293083 -0.603414 0.563349 0.09765111
-0.80606323 0.17309053 0.022437604 -0.082266234 1.2397388 -0.5319887 -2.387228 -0.4705892
0.119764306 -0.016975233 -0.85852313 -1.9513843 0.20253843 -0.82959867 -0.14250144 0.85946554
-0.9495051 -0.6499129 1.2163873 -1.8401861 -1.347677 -0.26368552 -1.1421592 -0.5276658
0.24990113 0.92258114 0.42308855 -0.3609629 -1.2158 -0.24623927 -0.2646584 -0.09523312
-0.3278549 -0.7388513 1.005104 -1.5844413 0.821909 -1.7806653 0.01891918 -1.005354
0.19304842 -0.8860215 0.5949639 0.55976915 -0.9704539 0.49276662 0.30447173 0.72782004
1.0289863 -0.09654756 -0.41246697 -1.0806124 0.64284056 0.11371232 0.50948524 -1.2818042
0.48544255 -0.9598612 0.5968263 0.70127755 -0.5978468 0.34935883 -0.27774215 0.5652881
-0.28872767 0.15042898 1.6280063 0.24904902 -1.332259 -0.06551113 -0.5233028 -1.035215
-0.32989085 0.7793663 0.2624508 0.6161807 -0.3997806 0.51518136 -1.267921 0.2563563
0.013911538 -0.5203619 -1.3634273 0.11859761 0.08309474 -0.13133743 0.036225 -0.5117469
1.1449699 -1.1613163 -0.48841664 -0.9942702 -0.24604523 0.53714776 -0.066521354 1.2799472
0.6830836 -0.89349955 0.6778413 0.40726718 0.20866996 -0.20058025 -0.6396198 0.32168078
0.09501982 0.5557476 -0.2674725 -0.2478384 -0.43147808 -0.15690827 -0.19687831 -0.298168
0.20515274 -0.40994564 0.292678 -2.6094756 -0.060252536 -2.0167456 0.92834854 0.49968085
-0.55329394 0.48599032 0.337478 0.43933585 0.4305077 -0.15473616 -0.17726806 -0.9020684
0.37165964 -0.8300421 -0.142896 0.7472948 1.3667197 0.42568803 -0.1467376 0.5521158
0.03655304 1.5242633 -0.50854564 -1.2330899 -0.6188383 0.48190242 0.4849044 0.4479785
-0.16151682 -0.49986848 0.74479765 -0.06386063 -0.06580055 -0.03717186 -0.6430797 0.7250483
0.0055887857 1.6272817 -0.34669167 -0.07533118 -1.0171527 -0.79728836 -0.10527144 -1.3622187
-0.5669406 0.48369646 0.13122523 -2.1573753 -2.1913455 -1.6732594 0.51552594 -0.42611384
-1.3692725 -0.6414477 -0.80333376 -0.7098905 -0.8792364 -0.7419266 0.9446514 -0.4649273
0.3478278 0.19344032 0.28952876 -0.4404608 -0.49656576 -0.8988767 0.8044908 -0.47695836
0.8388704 -0.5505382 1.5630604 -0.38071644 -1.7933643 0.021422232 0.38683015 -0.034217913
-0.5172998 -0.28306988 0.56083447 0.63970834 -0.055965584 -1.6159732 -0.92091995 0.48444623
00000000: 05f8 623d 7e54 473f cac8 d23f 43c9 453f
00000010: 2521 d4be 0b70 1e3f c343 04c0 cedd 413e
00000020: 4fa0 e53f 5cfa 24bf b970 aebf 5497 7e3f
00000030: e76f 213f 8b42 8a3d a280 283f 8831 343f
00000040: da3b 883f 8e5a 17c0 9927 92be 98a5 41be
00000050: bf93 4d3e d92c b33e a2ac da3e 479c a4be
00000060: 1380 083f b719 7ebf 7d2c d03f 61b3 aebe
00000070: fd3e 80bf c3e3 c83d f333 c63e d400 dabe
00000080: 8b76 aebe 2edf 8bbf 3f92 85be 38df d43e
00000090: 2058 f23e bdac a4be 2f9d d33e 550a 823f
000000a0: bdf7 dabe 70ff 31bf 3f5e 5c3f 5e34 54bf
000000b0: 1c3b dcbf 839c d53e e484 71bf 3477 76be
000000c0: d0f6 35bf e241 8c3f c8b5 653f 0999 bf3f
000000d0: 051f 083e 5779 1abf a437 103f 4efd c73d
000000e0: 295a 4ebf a53e 313e 11cf b73c 337b a8bd
000000f0: c3af 9e3f 6930 08bf 58c8 18c0 11f1 f0be
00000100: fd46 f53d a50f 8bbc 2cc8 5bbf f6c6 f9bf
00000110: 3c66 4f3e 9460 54bf e6eb 11be ef05 5c3f
00000120: c412 73bf b160 26bf 94b2 9b3f 388b ebbf
00000130: ae80 acbf ca01 87be 4632 92bf 1b15 07bf
00000140: 15e6 7f3e 472e 6c3f 109f d83e 21d0 b8be
00000150: 569f 9bbf 2626 7cbe 4e81 87be 9509 c3bd
00000160: 99dc a7be 5c25 3dbf 3fa7 803f f9ce cabf
00000170: a168 523f d7ec e3bf 65fc 9a3c 71af 80bf
00000180: 7cae 453e 4ed2 62bf 8e4f 183f 084d 0f3f
00000190: ab6f 78bf e84b fc3e b8e3 9b3e 6a52 3a3f
000001a0: d3b5 833f baba c5bd df2e d3be 8251 8abf
000001b0: 3391 243f 01e2 e83d a06d 023f 2912 a4bf
000001c0: ed8b f83e 77b9 75bf 9cc9 183f ed86 333f
000001d0: 7d0c 19bf 29df b23e 3834 8ebe b9b6 103f
000001e0: 1dd4 93be 0e0a 1a3e 8362 d03f b506 7f3e
000001f0: 7787 aabf b32a 86bd 2cf7 05bf ed81 84bf
00000200: 74e7 a8be 8d84 473f f45f 863e 05be 1d3f
00000210: 0bb0 ccbe ede2 033f 3c4b a2bf 2241 833e
00000220: 38ed 633c 7036 05bf c984 aebf 4ee3 f23d
00000230: 932d aa3d 527d 06be aa60 143d d801 03bf
00000240: 608e 923f 03a6 94bf bf11 fabe 7e88 7ebf
00000250: 48f3 7bbe 8482 093f 593c 88bd 4fd5 a33f
00000260: 91de 2e3f 63bc 64bf 0287 2d3f 5385 d03e
00000270: 94ad 553e e964 4dbe 20be 23bf 58b3 a43e
00000280: c099 c23d 7a45 0e3f 28f2 88be 59c9 7dbe
00000290: b2ea dcbe 90ac 20be 789a 49be 7aa9 98be
000002a0: 8f13 523e 65e4 d1be e4d9 953e a601 27c0
000002b0: 5dcb 76bd 5c12 01c0 40a8 6d3f 2bd6 ff3e
000002c0: aca4 0dbf b9d3 f83e ebc9 ac3e a1f0 e03e
000002d0: 816b dc3e 2873 1ebe c285 35be f4ed 66bf
000002e0: 2c4a be3e a47d 54bf 5453 12be b64e 3f3f
000002f0: acf0 ae3f c8f3 d93e 6242 16be 7657 0d3f
00000300: a4b8 153d 0f1b c33f 0c30 02bf e4d5 9dbf
00000310: 306c 1ebf eabb f63e 6445 f83e 705d e53e
00000320: aa64 25be c3ee ffbe 0fab 3e3f 5dc9 82bd
00000330: 70c2 86bd 8541 18bd dfa0 24bf c49c 393f
00000340: 2222 b73b c44a d03f 9281 b1be 3c47 9abd
00000350: 0f32 82bf 171b 4cbf 8e98 d7bd 2f5d aebf
00000360: 0523 11bf 10a7 f73e e85f 063e 7012 0ac0
00000370: 013f 0cc0 5d2d d6bf 82f9 033f 982b dabe
00000380: 5244 afbf eb35 24bf 48a7 4dbf 62bb 35bf
00000390: a315 61bf e7ee 3dbf add4 713f f30a eebe
000003a0: 7c16 b23e 3815 463e 1d3d 943e 1484 e1be
000003b0: de3d febe c91c 66bf 1cf3 4d3f e333 f4be
000003c0: 36c0 563f 12f0 0cbf 5d12 c83f 44ed c2be
000003d0: f68c e5bf ad7d af3c 9a0e c63e 1528 0cbd
000003e0: c26d 04bf 89ee 90be d992 0f3f edc3 233f
000003f0: 2b3c 65bd 36d8 cebf 69c1 6bbf 5609 f83e

encoder.dcrnn_cells.1.gate.bias_pool f4 [2, 128]
-0.7544207 0.2159998 -0.09369735 0.009256852 -0.4100811 0.41856164 -0.31748328 -0.21156077
0.27273363 -1.1677293 -0.27161285 -0.2380853 -0.8184543 0.14580792 -0.10608568 0.32506347
-0.269866 -1.2145042 0.67015475 -0.05201525 -0.08031076 0.1318947 -0.014116168 0.6251154
-0.98240685 -0.56706554 0.0031310085 0.46087602 0.09794549 -0.039798327 0.4336748 0.22137016
-0.51417375 0.8105323 0.7258876 0.8788604 -0.2579318 -0.039682865 0.0009657182 0.024596209
-0.93227696 0.7444391 0.57817245 -1.1740354 0.036790952 0.12871686 0.27100712 -0.3314951
0.7481986 -0.25332433 0.14024895 0.87966275 0.97795814 0.0023495962 -0.12592566 0.062144995
0.46509588 0.046883825 0.035724677 -0.37878895 1.3456311 0.34754705 -0.11257011 -0.19913034
-1.5228839 -1.1046474 1.331502 -0.13142936 0.16057967 0.6680503 -1.9953053 -1.6842973
0.7736659 -1.2993085 -0.8956176 -0.7901901 2.20237 -0.21747923 -0.7079378 0.6539836
-1.9054716 1.5653071 0.7753465 1.1883441 -1.7231886 -0.5680735 0.008639413 0.13898456
-1.1416968 1.9724287 0.106941395 1.1680322 0.3348555 -0.49499983 0.42437178 0.47459844
-1.220658 -0.17734301 0.78718776 -1.8963559 0.4946014 -1.3101362 1.0735155 -1.2037514
-0.8116609 0.12336092 0.93703395 -1.3456224 1.0647073 1.611016 1.0039966 1.0767556
-1.4455506 0.15456356 0.34674317 -0.9758464 1.2175164 -0.35594302 0.13736615 0.419624
-0.6923252 -0.669374 -2.46415 -1.0352302 2.6674757 1.2455236 1.1156354 -0.25542364
0.0695481 0.41465348 1.0506512 0.6985204 -0.21290745 0.024226194 0.73038363 -0.36432597
0.25939643 0.77093595 0.12601703 -0.1595074 -0.4519081 0.48912576 0.4654002 1.1569942
0.05588048 -0.23231356 0.04018065 0.20498121 0.48204428 -0.23426794 -0.7748648 0.5245721
0.24247184 0.9795542 -0.04273848 0.4407208 0.6000842 0.22402519 0.7640931 0.12702054
0.7389821 0.049970914 0.7558321 -0.7953218 0.11918198 -0.22827435 -0.07433207 0.13413523
0.17749143 0.2679722 0.5674861 0.44207188 0.3366143 -0.34618768 0.36034903 -0.23013774
-0.6614436 0.63531125 0.57471764 -0.12541375 0.31822875 -0.045217 0.82879984 0.8302608
0.18738341 -0.9233348 0.777512 0.43833598 0.8026145 0.51774323 -1.082406 0.3075102
-1.41034 0.48461193 0.5071448 1.5739198 -1.4600289 -0.5566384 -1.3370862 -0.2977867
-0.5501176 0.44609416 0.38119087 2.6237667 1.9822252 0.711798 0.16104367 0.03667456
-1.0226667 -0.95182925 -0.6072653 -0.53514606 0.40217796 -0.33038405 0.2010355 0.18606035
-1.988837 -1.4606571 -0.2624936 -1.0646585 -1.4059057 2.0898411 0.17893265 -0.2631428
0.58306843 -1.1389052 -0.24069211 1.1049418 -1.1721257 -0.2089611 -0.9937569 -0.65056974
-1.5307447 -0.31404477 -0.6678819 -1.6675136 -1.0740707 -0.7355354 0.18419918 -0.5460123
-1.9747306 -0.58656186 -0.89750177 -2.3792799 -1.491968 -2.4265082 -0.14603345 0.54907507
1.1054891 -0.6204171 0.25687978 1.5066667 1.119809 -0.23153405 0.36515865 -1.3462325
00000000: b721 41bf 0d2f 5d3e 65e4 bfbd 0daa 173c
00000010: 26f6 d1be b64d d63e 2b8d a2be 63a3 58be
00000020: bea3 8b3e 2778 95bf d710 8bbe a2cc 73be
00000030: 3986 51bf ac4e 153e 7343 d9bd b86e a63e
00000040: e02b 8abe e074 9bbf 438f 2b3f f10d 55bd
00000050: f879 a4bd 670f 073e 8047 67bc 9007 203f
00000060: 047f 7bbf 352b 11bf 9b31 4d3b f1f7 eb3e
00000070: a597 c83d 9203 23bd a00a de3e dcae 623e
00000080: e4a0 03bf 0b7f 4f3f c5d3 393f fffc 603f
00000090: a30f 84be 808a 22bd 4028 7d3a fd7d c93c
000000a0: b4a9 6ebf 9093 3e3f 1c03 143f cb46 96bf
000000b0: 1cb2 163d 5ace 033e 72c1 8a3e bab9 a9be
000000c0: f289 3f3f bab3 81be 6c9d 0f3e 9431 613f
000000d0: 775b 7a3f affb 193b a8f2 00be c08b 7e3d
000000e0: 0c21 ee3e 4109 403d 0a54 123d a0f0 c1be
000000f0: a43d ac3f b0f1 b13e 288b e6bd d3e8 4bbe
00000100: dced c2bf 1665 8dbf a86e aa3f 6b95 06be
00000110: ff6e 243e 5805 2b3f 2a66 ffbf 0e97 d7bf
00000120: f80e 463f be4f a6bf 3247 65bf e649 4abf
00000130: a1f3 0c40 e0b2 5ebe 693b 35bf 786b 273f
00000140: 7ee6 f3bf fc5b c83f 1c7d 463f a91b 983f
00000150: 7291 dcbf 446d 11bf 538c 0d3c f851 0e3e
00000160: 1f23 92bf 8b78 fc3f 1704 db3d 1482 953f
00000170: 2e72 ab3e 9e70 fdbe 4247 d93e 91fe f23e
00000180: 853e 9cbf 6899 35be 2385 493f cabb f2bf
00000190: 653c fd3e 8bb2 a7bf f568 893f 8714 9abf
000001a0: 02c9 4fbf a6a4 fc3d 75e1 6f3f 5b3d acbf
000001b0: 5448 883f c635 ce3f f682 803f 21d3 893f
000001c0: cd07 b9bf e945 1e3e 5288 b13e 12d1 79bf
000001d0: 94d7 9b3f 2a3e b6be b6a9 0c3e f5d8 d63e
000001e0: 393c 31bf 185c 2bbf a2b4 1dc0 6c82 84bf
000001f0: ecb7 2a40 516d 9f3f 24cd 8e3f e3c6 82be
00000200: 3c6f 8e3d 764d d43e bd7b 863f 3cd2 323f
00000210: 6904 5abe 0376 c63c 6cfa 3a3f ef88 babe
00000220: 9ccf 843e 0f5c 453f 9c0a 013e e855 23be
00000230: 8060 e7be b16e fa3e ef48 ee3e 6318 943f
00000240: eee2 643d 9be3 6dbe 7794 243d 98e6 513e
00000250: 82ce f63e efe3 6fbe 8a5d 46bf 5b4a 063f
00000260: 8a4a 783e 10c4 7a3f 8b0e 2fbd 28a6 e13e
00000270: 1e9f 193f dc66 653e 9b9b 433f ac11 023e
00000280: ee2d 3d3f 4dae 4c3d 367e 413f 369a 4bbf
00000290: af15 f43d c0c0 69be 6a3b 98bd bf5a 093e
000002a0: 50c0 353e a733 893e c546 113f 3f57 e23e
000002b0: b658 ac3e 833f b1be ab7f b83e 3aa9 6bbe
000002c0: 5e54 29bf c2a3 223f b220 133f 766c 00be
000002d0: e1ee a23e 7635 39bd 3a2c 543f f98b 543f
000002e0: 70e1 3f3e ab5f 6cbf 070b 473f 936d e03e
000002f0: 2578 4d3f d28a 043f 488c 8abf fa71 9d3e
00000300: 0586 b4bf 0e1f f83e 3ed4 013f 3476 c93f
00000310: 3ae2 babf db7f 0ebf a425 abbf 8077 98be
00000320: 82d4 0cbf 7466 e43e 732b c33e cbeb 2740
00000330: 8eb9 fd3f 6538 363f a2e8 243e 1038 163d
00000340: bee6 82bf 15ab 73bf bd75 1bbf 55ff 08bf
00000350: 45ea cd3e 1928 a9be 40dc 4d3e 9b86 3e3e
00000360: 3692 febf d0f6 babf 9065 86be bb46 88bf
00000370: b8f4 b3bf f5bf 0540 1f3a 373e a7ba 86be
00000380: f943 153f a5c7 91bf fe77 76be bc6e 8d3f
00000390: 3708 96bf e6f9 55be da66 7ebf bd8b 26bf
000003a0: 71ef c3bf 7aca a0be 4ffa 2abf 1671 d5bf
000003b0: 267b 89bf 0c4c 3cbf b69e 3c3e 76c7 0bbf
000003c0: f9c3 fcbf eb28 16bf adc2 65bf 1f46 18c0
000003d0: cff8 bebf e94b 1bc0 cb89 15be 2f90 0c3f
000003e0: ab80 8d3f a8d3 1ebf bf85 833e 74da c03f
000003f0: e755 8f3f 4317 6dbe 13f6 ba3e 5951 acbf

encoder.dcrnn_cells.1.update.weights_pool f4 [2, 2, 128, 64]
0.55375224 -0.40515444 0.5717393 -0.6823579 0.71758354 -1.0191258 0.3315867 0.08561894
0.31389558 -0.16361485 -0.19911362 -0.089069754 -0.5095727 -1.7903591 -0.6645635 1.31544
1.7554106 -1.8038467 0.8050018 -1.4174223 0.41411972 0.009558359 0.12249817 -0.5569527
1.427142 -1.1535913 -0.5573634 -0.8085801 0.84125733 0.90384066 2.125634 1.3828772
1.0092068 0.0652162 -0.15383035 0.5738977 2.087781 -0.10500364 1.8974434 -1.5414345
0.045033496 0.42709666 0.28069356 0.79433966 0.24464801 0.20084749 -0.8188485 -0.35599348
0.8097077 0.19100161 -0.021587007 -0.8990641 -0.7428405 0.08303805 -1.0244695 -0.37453097
0.17024423 -0.9220176 0.271519 -0.043901175 0.20397827 0.055065677 -0.3483786 -0.57572025
-0.01124043 -0.4444803 0.09007485 -1.0163217 1.028005 -0.6515098 -0.1277156 -0.0130408155
-0.45206925 -0.1799091 0.328181 0.0657082 0.21378484 -1.9347788 -1.3565924 0.0055701495
-0.12028989 -0.070775844 1.4240452 0.4033941 0.5355972 0.36514056 -0.76351255 0.41823846
2.6665225 0.46427482 -1.3878126 0.12460049 1.2139865 -0.31093338 0.5750354 -1.2310696
0.42156443 0.57766765 0.07949416 0.3995645 1.5724916 0.30045086 0.965283 -1.1739073
-0.5886509 -0.11955199 -0.39170736 0.20122546 -0.50002307 0.55730635 -1.1862252 -0.64043176
0.20728113 0.27858907 -0.45457166 -0.73844516 1.0006124 -0.22918747 -0.31404108 0.58933365
-0.5931441 0.5822632 0.319933 -0.555503 0.18372865 1.4321212 -0.26751727 0.29566607
-0.26534075 -0.5347952 0.21077098 -0.9964518 0.68361175 -0.27543297 -0.2328999 -0.7622608
0.57095057 0.4032887 -1.1803397 -0.42314574 -0.058192987 0.10480819 -1.0566082 0.35986137
0.08462424 -0.6597647 1.1625189 0.48223367 -0.40729257 0.07823438 -0.7434047 0.10645291
0.42943236 -0.21817859 -0.3352467 -0.664263 0.4256143 -1.8538958 0.71925694 0.48010033
0.09906505 0.29258284 0.010562504 0.48728624 1.3991266 0.11856638 -0.10624083 -0.80296904
-0.19787417 -0.3299917 -0.20587203 0.7621576 0.7127787 0.6687525 -0.3986611 2.0704198
-0.58708507 0.40856636 0.92484134 -0.64239347 0.31735715 0.07438088 -0.8280349 -0.43427452
-0.39733437 -1.2594997 0.74471736 0.5971026 -0.39242256 0.12597777 -0.52375805 -0.6583005
0.12175445 0.78263897 -0.70744044 -0.054907363 0.10944077 0.19966811 0.3133029 0.31953695
0.19639866 -0.10430685 -0.24981263 0.2655044 -0.1484368 -0.3818817 -0.3495017 -0.21918182
-0.13903368 0.35420424 0.6251787 0.62566495 0.32703117 0.026606644 -0.32312638 -1.05819
-0.4603855 -0.60670894 0.1718788 0.7716862 -0.27743217 0.21457425 -1.519191 0.551548
-0.6020964 -1.1515733 -0.9188603 -0.3337441 -0.32262403 -0.8286065 -0.2659475 0.8258058
-0.35352647 -0.14743324 -0.67126393 0.3803432 0.03693418 -0.14221679 -0.8794228 -0.4285093
0.4962364 0.0019582727 0.12240483 -0.6262202 0.46680698 0.12768102 0.50264215 -0.52114147
0.44890788 1.1094513 -0.27297562 0.9525894 0.08931362 0.10887997 -0.09255633 1.2263782
00000000: b5c2 0d3f 6770 cfbe 825d 123f 02af 2ebf
00000010: 8eb3 373f b772 82bf bbc5 a93e fc58 af3d
00000020: ecb6 a03e a78a 27be 71e4 4bbe 346a b6bd
00000030: 5b73 02bf 7d2a e5bf d520 2abf 5760 a83f
00000040: 4bb1 e03f 73e4 e6bf 9914 4e3f 186e b5bf
00000050: 8007 d43e aa9a 1c3c 52e0 fa3d 7494 0ebf
00000060: 97ac b63f e1a8 93bf 5eaf 0ebf 1bff 4ebf
00000070: a45c 573f 1a62 673f 630a 0840 1f02 b13f
00000080: b02d 813f 1290 853d b485 1dbe f6ea 123f
00000090: 349e 0540 260c d7bd 6ddf f23f ba4d c5bf
000000a0: 0b75 383d 6aac da3e 11b7 8f3e d859 4b3f
000000b0: 0285 7a3e f7aa 4d3e 0ea0 51bf c744 b6be
000000c0: 0149 4f3f ed95 433e 3cd7 b0bc 1129 66bf
000000d0: cc2a 3ebf da0f aa3d d121 83bf 86c2 bfbe
000000e0: 8154 2e3e 5809 6cbf 8a04 8b3e b8d1 33bd
000000f0: aedf 503e 8c8c 613d ae5e b2be 6762 13bf
00000100: c829 38bc ec92 e3be 2a79 b83d d416 82bf
00000110: ab95 833f 59c9 26bf e1c7 02be 25a9 55bc
00000120: 9f75 e7be 173a 38be 5707 a83e 0592 863d
00000130: 6aea 5a3e d5a6 f7bf d2a4 adbf cd85 b63b
00000140: 8c5a f6bd edf2 90bd 1d47 b63f ac89 ce3e
00000150: e61c 093f b4f3 ba3e 8f75 43bf 5a23 d63e
00000160: 4ea8 2a40 6eb5 ed3e d8a3 b1bf 8b2e ff3d
00000170: e963 9b3f a932 9fbe 8535 133f b093 9dbf
00000180: 4bd7 d73e 07e2 133f d6cd a23d b893 cc3e
00000190: 6847 c93f b2d4 993e c91c 773f 9842 96bf
000001a0: d3b1 16bf acd7 f4bd de8d c8be 0c0e 4e3e
000001b0: 8301 00bf a1ab 0e3f 3ad6 97bf 56f3 23bf
000001c0: 8141 543e 3aa3 8e3e 9ebd e8be be0a 3dbf
000001d0: 1114 803f 1fb0 6abe fec9 a0be 92de 163f
000001e0: 4bd8 17bf 330f 153f 42ce a33e 7235 0ebf
000001f0: 5d23 3c3e bf4f b73f 06f8 88be 8b61 973e
00000200: beda 87be 57e8 08bf 59d4 573e 7717 7fbf
00000210: 2e01 2f3f 8d05 8dbe 507d 6ebe 8623 43bf
00000220: d129 123f db7b ce3e 5f15 97bf 8fa6 d8be
00000230: c55b 6ebd ada5 d63d f03e 87bf c03f b83e
00000240: 794f ad3d 57e6 28bf 6bcd 943f 55e7 f63e
00000250: a788 d0be 5939 a03d c54f 3ebf fc03 da3d
00000260: 8fde db3e 356a 5fbe 75a5 abbe 240d 2abf
00000270: 1eea d93e 754c edbf 3921 383f b6cf f53e
00000280: 9ee2 ca3d 6bcd 953e 5a0e 2d3c 957d f93e
00000290: 9516 b33f eed2 f23d cb94 d9bd 618f 4dbf
000002a0: 879f 4abe acf4 a8be 1ed0 52be c31c 433f
000002b0: aa78 363f 5d33 2b3f 4f1d ccbe c281 0440
000002c0: 354b 16bf 9c2f d13e 67c2 6c3f e673 24bf
000002d0: a37c a23e 0155 983d 18fa 53bf 3b59 debe
000002e0: 696f cbbe 4937 a1bf cca5 3e3f b7db 183f
000002f0: 9ceb c8be 5100 013e 0215 06bf 6286 28bf
00000300: 665a f93d 075b 483f d11a 35bf 8be6 60bd
00000310: 7b22 e03d cc75 4c3e 3d69 a03e 599a a33e
00000320: bb1c 493e d49e d5bd e2ce 7fbe 31f0 873e
00000330: d1ff 17be 0086 c3be e3f1 b2be 3371 60be
00000340: d85e 0ebe 425a b53e b60b 203f 942b 203f
00000350: a170 a73e 2df6 d93c d270 a5be c572 87bf
00000360: a6b7 ebbe 4751 1bbf ff00 303e 3a8d 453f
00000370: 970b 8ebe 5ab9 5b3e da74 c2bf 4032 0d3f
00000380: fd22 1abf c166 93bf 6e3a 6bbf 82e0 aabe
00000390: fa2e a5be 8e1f 54bf 452a 88be 0268 533f
000003a0: 6c01 b5be bdf8 16be f4d7 2bbf 58bc c23e
000003b0: 4b48 173d 47a1 11be da21 61bf 9265 dbbe
000003c0: b312 fe3e 5d56 003b 62af fa3d f84f 20bf
000003d0: 5301 ef3e d0be 023e 28ad 003f 8769 05bf
000003e0: 41d7 e53e 8002 8e3f 76c3 8bbe e6dc 733f
000003f0: 0fea b63d 76fc de3d 2c8e bdbd f6f9 9c3f

encoder.dcrnn_cells.1.update.bias_pool f4 [2, 64]
1.4789655 -0.92022794 0.15121165 0.23924737 0.05320727 -1.2428427 -0.36231834 -0.5639679
0.43668595 -1.024211 0.37759683 1.344983 0.27588916 -2.0156975 -0.47633448 -0.2297112
0.4673272 -1.2677367 0.8915331 -0.38151553 -0.8359058 -0.2946303 -0.07990043 -0.4977217
0.6633405 0.30866808 -3.5381522 2.8282804 0.83209985 3.039848 -0.06344939 -0.37961254
-0.8119052 -0.16935882 -0.6255876 1.086524 -0.6197546 -0.37979913 -0.39048612 -1.7978112
-0.77636796 -0.16169818 0.4729485 -1.2365351 -0.65492505 -0.31152788 -1.4164566 0.037651084
-1.4586196 0.15126188 -0.48869503 -0.6670887 1.3989047 0.30612925 -0.77071947 -2.367417
-0.81882733 -1.1822815 -0.37365937 1.0116823 2.854036 -0.7332612 -1.9556795 1.5829116
-0.4157509 1.3047695 -0.35226032 -0.5338521 1.0444243 0.77727824 0.99059284 -0.8746535
-0.46418032 0.21299307 0.32025632 0.8824195 -1.4923855 -0.83102655 0.05450269 1.6305336
-0.3234424 -0.4985662 -0.9753849 -0.23685382 0.7004132 -0.4095233 0.6437082 2.0628216
-0.46761572 1.286259 -1.1559824 -0.6310372 -2.6355674 -1.6702253 1.3261846 0.7493102
-0.621729 0.029132247 0.1711902 0.42495626 0.3211092 -0.3252458 0.0358717 0.5107608
0.87886286 -0.17845711 -0.20715581 -0.085434385 -1.5762991 1.0733024 0.41898665 0.31830567
1.4595612 0.2973423 0.28994325 1.1474233 -0.29915228 0.98861223 -0.6772715 -1.247412
-0.9192114 -0.30993572 -1.2553895 1.608377 0.7762431 -0.7305401 0.087989286 1.1780784
00000000: be4e bd3f 0f94 6bbf 3ad7 1a3e 43fd 743e
00000010: deef 593d 7815 9fbf ca81 b9be 3360 10bf
00000020: 4d95 df3e 5919 83bf 5f54 c13e 6728 ac3f
00000030: 5841 8d3e 3001 01c0 1de2 f3be 6a39 6bbe
00000040: 8345 ef3e 3245 a2bf 833b 643f 0156 c3be
00000050: ecfd 55bf c8d9 96be d6a2 a3bd 61d5 febe
00000060: afd0 293f be09 9e3e 1671 62c0 8c02 3540
00000070: 7f04 553f df8c 4240 c1f1 81bd 935c c2be
00000080: 05d9 4fbf 666c 2dbe 8226 20bf 3813 8b3f
00000090: 3da8 1ebf 0875 c2be cced c7be ad1e e6bf
000000a0: 0dc0 46bf 3594 25be 4e26 f23e c846 9ebf
000000b0: 2ba9 27bf 9580 9fbe 734e b5bf 0638 1a3d
000000c0: 0cb4 babf 65e4 1a3e 3c36 fabe 53c6 2abf
000000d0: 4f0f b33f f9bc 9c3e df4d 45bf c383 17c0
000000e0: ab9e 51bf 0055 97bf 4850 bfbe ce7e 813f
000000f0: 87a8 3640 02b7 3bbf b553 fabf d99c ca3f
00000100: 4ddd d4be b002 a73f 775b b4be 88aa 08bf
00000110: b2af 853f b5fb 463f 7e97 7d3f 4be9 5fbf
00000120: 0ba9 edbe db1a 5a3e a3f8 a33e 3fe6 613f
00000130: 7d06 bfbf 28be 54bf 363e 5f3d 53b5 d03f
00000140: 3e9a a5be 1244 ffbe d3b2 79bf cf89 72be
00000150: 484e 333f 0aad d1be 10ca 243f 4505 0440
00000160: 546b efbe 23a4 a43f 3bf7 93bf a78b 21bf
00000170: 23ad 28c0 f1c9 d5bf 6bc0 a93f cbd2 3f3f
00000180: a229 1fbf c0a6 ee3c 7c4c 2f3e de93 d93e
00000190: 6d68 a43e 9e86 a6be 34ee 123d 38c1 023f
000001a0: 28fd 603f 76bd 36be a720 54be 39f8 aebd
000001b0: 2bc4 c9bf f961 893f 6b85 d63e f6f8 a23e
000001c0: e7d2 ba3f 403d 983e 7173 943e c4de 923f
000001d0: 7d2a 99be b115 7d3f aa61 2dbf 32ab 9fbf
000001e0: 7051 6bbf e5af 9ebe 9ab0 a0bf 4cdf cd3f
000001f0: deb7 463f ad04 3bbf ba33 b43d 46cb 963f
