CQ/result/P7_Resullt/HOURS/data11/2/best_model.pth (torch_old, 603202 bytes, 11 tensors)

node_embeddings f4 [228, 2]
0.16885 0.09290967 0.29159763 0.26127893 0.14472473 0.10584237 -0.11025239 0.26420742
0.28518134 0.20356756 0.2666555 0.038224027 0.16173 0.10581957 0.13837512 0.28002042
-0.349266 0.03498129 -0.120972335 0.25586578 0.2900319 0.16898866 0.2923548 0.24909982
-0.07676518 0.18584338 0.26448527 0.13859853 0.1497294 0.14566483 -0.22084922 0.1444173
-0.033898123 0.30248624 0.20460866 0.28211188 0.17893757 0.054014847 0.12765642 0.24762525
-0.1048497 0.19031467 0.15738417 0.12734106 0.2508797 0.16175497 0.28547916 0.111866124
0.23352955 0.053068154 0.08491792 0.15810661 0.11574415 0.22091706 0.11382376 0.18379514
0.040568035 0.201033 -0.04542929 0.13341494 -0.09548741 0.29535314 0.19097549 0.22316885
0.26522368 0.029293302 0.2769551 0.1168183 0.16784939 0.083760574 0.08179173 0.27335367
0.07961587 0.24873848 -0.11223529 0.26553488 0.1390916 0.23042534 -0.08938242 0.29565653
0.22548759 0.28411216 0.15558824 0.19932064 0.13163681 0.21519673 0.24697402 -0.0049468377
0.17436539 0.21612252 0.07093281 0.15857588 0.074588984 0.2758721 0.25589076 0.029177714
0.118767 0.14538963 0.19476078 0.07009897 0.13637942 0.10820716 0.09851838 0.21080518
0.18588291 0.2857131 0.22737823 0.2227787 0.09244543 0.1776987 -0.06282936 0.2901332
0.26593587 0.2877023 0.25371537 0.014410533 0.16616634 0.092923984 0.22281492 0.06751194
0.12334593 0.12280874 0.11790171 0.1249108 0.28444597 0.1312174 0.2807595 0.09330676
0.1165678 0.11842648 0.20917533 0.06112634 0.24171725 0.18136945 0.03372607 0.30789948
0.13386858 0.105267264 0.2722245 0.29588303 0.29848453 0.031274527 0.12503603 0.114913866
0.24066499 0.08033296 0.12843855 0.10871359 0.2979937 0.27085724 0.17420503 0.14027593
0.06345939 0.25739363 0.20393501 0.2310853 0.297251 0.0044499156 0.17664236 0.2850318
0.19155422 0.032742687 0.26576993 0.0346627 0.2506523 0.12957872 0.08874019 0.14430742
0.29893735 0.29969105 0.19157597 0.16409685 0.29038084 -0.034706216 -0.099793054 0.24165407
0.1924011 0.07450274 -0.22336923 0.13727184 -0.067374274 0.17215034 0.1642454 0.05623651
0.18750261 0.10106328 -0.23950289 0.0771137 0.22324458 0.07704106 0.18702365 0.21753143
0.17623974 0.10433505 0.20393832 0.10647682 0.25772062 0.1892148 0.09072758 0.28022653
0.04894439 0.13749693 0.08485783 0.26359963 0.120074145 0.2992906 0.19774355 0.13348609
0.066295594 0.22472715 0.17755347 0.1873397 0.05472545 0.13552333 0.0607663 0.249632
0.12752223 0.11518001 0.29258725 0.28289768 0.25640848 -0.016940445 -0.08686762 0.20978469
-0.06843598 0.17698409 0.28656057 0.22220497 0.19616745 0.105592914 -0.053189646 0.19710347
0.2769824 0.23204397 0.2833596 0.14643647 0.28425473 0.108293995 -0.3351725 0.028599676
0.25863406 0.15457733 0.18319495 0.17395304 0.24148117 0.24950132 0.024925105 0.21238539
-0.028331371 0.15743625 -0.26319772 0.12374786 0.06545229 0.17578506 0.19582967 0.2100011
00000000: 04e7 2c3e 6d47 be3d 494c 953e 5ac6 853e
00000010: b832 143e e2c3 d83d 01cc e1bd 3246 873e
00000020: 4a03 923e 0474 503e 1287 883e cc90 1c3d
00000030: 8d9c 253e eeb7 d83d 35b2 0d3e d65e 8f3e
00000040: fed2 b2be 8b48 0f3d 58c0 f7bd d700 833e
00000050: 107f 943e 5d0b 2d3e 87af 953e 0614 7f3e
00000060: 1037 9dbd ba4d 3e3e 9d6a 873e c6ec 0d3e
00000070: aa52 193e 2929 153e 4c26 62be 21e2 133e
00000080: c2d8 0abd 7adf 9a3e ef84 513e f870 903e
00000090: 693b 373e ac3e 5d3d 5db8 023e 7991 7d3e
000000a0: 71bb d6bd d9e1 423e 5129 213e b265 023e
000000b0: 4e73 803e 18a3 253e 532a 923e 111a e53d
000000c0: 5f22 6f3e fe5d 593d 72e9 ad3d b3e6 213e
000000d0: 450b ed3d 1538 623e 6e1c e93d cb34 3c3e
000000e0: ab2a 263d 98db 4d3e 1014 3abd ed9d 083e
000000f0: e78e c3bd 8738 973e 148f 433e 6086 643e
00000100: 66cb 873e 82f8 ef3c 0fcd 8d3e 6f3e ef3d
00000110: b6e0 2b3e aa8a ab3d 6c82 a73d 03f5 8b3e
00000120: a50d a33d 4db5 7e3e 9edb e5bd 30f4 873e
00000130: 076e 0e3e 9ff4 6b3e 210e b7bd 4b60 973e
00000140: 38e6 663e 2677 913e 8652 1f3e b61a 4c3e
00000150: cdcb 063e 885c 5c3e c2e6 7c3e 1519 a2bb
00000160: d78c 323e 394f 5d3e 3945 913d b761 223e
00000170: 1cc2 983d 1c3f 8d3e 1d04 833e 1a06 ef3c
00000180: 1d3c f33d 05e1 143e 5f6f 473e 0c90 8f3d
00000190: 0ca7 0b3e b79b dd3d 01c4 c93d 50dd 573e
000001a0: 1758 3e3e fd48 923e d7d5 683e 1920 643e
000001b0: 0854 bd3d a6f6 353e aeac 80bd 578c 943e
000001c0: bf28 883e b74d 933e fbe6 813e 281a 6c3c
000001d0: 8227 2a3e ee4e be3d 9829 643e b343 8a3d
000001e0: ca9c fc3d 2683 fb3d 7476 f13d 3cd1 ff3d
000001f0: e7a2 913e db5d 063e b6bf 8f3e 9d17 bf3d
00000200: 19bb ee3d 9589 f23d 0f32 563e 9d5f 7a3d
00000210: ba84 773e eab8 393e 5924 0a3d 00a5 9d3e
00000220: d814 093e 5d96 d73d 0261 8b3e fb7d 973e
00000230: f7d2 983e b819 003d 7209 003e f657 eb3d
00000240: e270 763e 9b85 a43d 6585 033e 3ba5 de3d
00000250: a192 983e cdad 8a3e ce62 323e 7ea4 0f3e
00000260: fff6 813d 19c9 833e 57d4 503e a0a1 6c3e
00000270: 4831 983e 99d0 913b bce1 343e b0ef 913e
00000280: ca26 443e 321d 063d ff12 883e 7afa 0d3d
00000290: 8055 803e 49b0 043e 6bbd b53d 53c5 133e
000002a0: 510e 993e 1b71 993e 7e2c 443e 0109 283e
000002b0: ccac 943e 1b28 0ebd 4d60 ccbd 2a74 773e
000002c0: cb04 453e e494 983d e7ba 64be fd90 0c3e
000002d0: 86fb 89bd 2e48 303e f22f 283e 4158 663d
000002e0: af00 403e 44fa ce3d 3f40 75be caed 9d3d
000002f0: 3a9a 643e b4c7 9d3d 2183 3f3e 8fc0 5e3e
00000300: 3178 343e 9dad d53d 35d5 503e 8510 da3d
00000310: f5f3 833e 86c1 413e 62cf b93d da79 8f3e
00000320: ea79 483d ffcb 0c3e f1c9 ad3d 88f6 863e
00000330: 6fe9 f53d 9e3c 993e 497d 4a3e 94b0 083e
00000340: fcc5 873d e01e 663e 94d0 353e fad5 3f3e
00000350: cb27 603d a1c6 0a3e 15e6 783d 889f 7f3e
00000360: 3095 023e 7fe3 eb3d ffcd 953e f7d7 903e
00000370: f947 833e b0c6 8abc a7e7 b1bd ccd1 563e
00000380: 2a28 8cbd 513b 353e 11b8 923e b389 633e
00000390: 1fe0 483e 1941 d83d 63dd 59bd 7ed5 493e
000003a0: a3d0 8d3e ef9c 6d3e 8214 913e 71f3 153e
000003b0: d689 913e 3ec9 dd3d bb9b abbe de49 ea3c
000003c0: af6b 843e 8549 1e3e 7597 3b3e bf20 323e
000003d0: d746 773e 467d 7f3e bc2f cc3c 8e7b 593e
000003e0: 3117 e8bc f836 213e dac1 86be 856f fd3d
000003f0: da0b 863d 0001 343e 9387 483e 870a 573e

encoder.dcrnn_cells.0.gate.weights_pool f4 [2, 2, 65, 128]
0.11918362 0.047104135 0.09348926 0.09088212 0.083678395 0.111162014 0.093336925 0.092792846
-0.025535582 0.10211858 0.09646223 0.09178134 0.09991032 0.09889381 0.08456806 0.09146953
0.09169974 0.09227576 0.0095156655 0.023550024 0.10298912 -0.08197762 0.08009567 0.10845594
0.11400425 0.093583055 0.109208174 -0.11553262 0.0949565 0.08300944 0.108557515 0.112368025
-0.008256966 0.09508128 0.01827833 0.10565434 0.10395122 0.09510658 0.11614899 0.10441191
0.10640816 0.09561753 0.07915154 0.08560484 0.12515308 0.10058287 0.11754102 0.11479735
0.10203265 0.011600576 0.08463659 0.10824354 0.025781164 0.10655694 0.10188538 0.11065314
0.07668925 0.09172184 -0.022462368 -0.052001912 0.082318254 0.10021432 -0.040418025 0.100828595
-0.16010016 -0.064232245 -0.13826674 -0.15298669 -0.120525345 -0.13900854 -0.06534055 -0.119007476
-0.025499925 -0.1436968 -0.1119052 -0.13075325 -0.12837234 -0.12196277 -0.0827198 -0.13499334
-0.14504027 -0.14567675 -0.040931363 -0.023808336 -0.13908169 -0.00046600486 -0.1292941 -0.14351462
-0.12439656 -0.1429537 -0.086336024 0.0054157553 -0.13126597 -0.13022631 -0.15036333 -0.08907594
-0.021827936 -0.06283536 -0.032386087 -0.15728869 -0.12954766 -0.14292507 -0.15612262 -0.15052444
-0.12689069 -0.09065496 -0.12328153 -0.13584751 -0.14793244 -0.14884236 -0.13143305 -0.15707305
-0.13785131 -0.042410698 -0.1264924 -0.13215818 -0.02864921 -0.15533742 -0.122046195 -0.14075667
-0.11676801 -0.1498625 -0.032208763 0.024193212 -0.12548807 -0.14794643 -0.011779258 -0.15366852
-0.1176869 -0.15380977 -0.13033131 -0.13719825 -0.13332072 -0.109503105 -0.13894887 -0.12062577
-0.07817063 -0.11268698 -0.1341151 -0.12184022 -0.109558135 -0.124833845 -0.1381285 -0.11561947
-0.13110386 -0.118014246 -0.08905658 -0.1425924 -0.121413365 -0.021662928 -0.11129315 -0.11205792
-0.12744947 -0.13112807 -0.15067625 -0.005255986 -0.12398909 -0.13531578 -0.122714944 -0.13841228
-0.09573141 -0.15471618 -0.09975239 -0.12816666 -0.11972193 -0.11196541 -0.11977294 -0.114762865
-0.10353325 -0.13588782 -0.123779126 -0.12108534 -0.1119745 -0.13101287 -0.12169874 -0.13834272
-0.12341647 -0.10901741 -0.1339996 -0.11453473 -0.11494711 -0.13607249 -0.12666923 -0.123577446
-0.11471145 -0.11812924 -0.07850874 -0.08280465 -0.13682352 -0.13140412 -0.07614893 -0.1366536
0.15604511 0.13774765 0.14156161 0.13145095 0.14303552 0.14613682 0.124691576 0.13974947
0.118558116 0.13981676 0.15131868 0.13951702 0.13987695 0.14693265 0.1262851 0.13192908
0.1351907 0.15554842 0.1351449 0.12482256 0.1463835 0.12839924 0.1553223 0.13324547
0.13982838 0.13442402 0.14190619 0.13195647 0.15381518 0.14714798 0.13759628 0.13283344
0.13878924 0.14167613 0.12494564 0.14510912 0.14739229 0.14113407 0.15273 0.12196107
0.15008825 0.118888944 0.13393964 0.15476161 0.13314644 0.13772373 0.14030473 0.14612356
0.1358156 0.13885817 0.13053326 0.14873953 0.13306208 0.14068955 0.13280243 0.1385222
0.14595866 0.13365734 0.123587176 0.11711166 0.13649671 0.13357796 0.13935158 0.14404203
00000000: 8b16 f43d 44f0 403d 4c77 bf3d 6820 ba3d
00000010: 945f ab3d e9a8 e33d 6e27 bf3d 2d0a be3d
00000020: ff2f d1bc 8c23 d13d fd8d c53d dbf7 bb3d
00000030: c89d cc3d d688 ca3d 0532 ad3d 6054 bb3d
00000040: 13cd bb3d 13fb bc3d 98e7 1b3c fbeb c03c
00000050: f6eb d23d e2e3 a7bd 3309 a43d 261e de3d
00000060: 0f7b e93d 79a8 bf3d 89a8 df3d 5e9c ecbd
00000070: 8e78 c23d da00 aa3d 6753 de3d 3521 e63d
00000080: 3a48 07bc f9b9 c23d 70bc 953c 4d61 d83d
00000090: 61e4 d43d 3dc7 c23d 86df ed3d e9d5 d53d
000000a0: 85ec d93d 20d3 c33d 341a a23d 9751 af3d
000000b0: 2128 003e 64fe cd3d 59b9 f03d df1a eb3d
000000c0: 7ef6 d03d 5810 3e3c f355 ad3d caae dd3d
000000d0: 0533 d33c 863a da3d 48a9 d03d 1d9e e23d
000000e0: 410f 9d3d a9d8 bb3d 0003 b8bc f5ff 54bd
000000f0: 7996 a83d 2a3d cd3d 5f8d 25bd 397f ce3d
00000100: 4cf1 23be 328c 83bd cc95 0dbe 8ba8 1cbe
00000110: fed5 f6bd 4158 0ebe 44d1 85bd 31ba f3bd
00000120: 38e5 d0bc 4125 13be 8e2e e5bd 2ee4 05be
00000130: 0a74 03be 9ec7 f9bd 0069 a9bd b23b 0abe
00000140: 7085 14be 492c 15be a5a7 27bd b309 c3bc
00000150: 6e6b 0ebe 1d52 f4b9 ac65 04be 7ff5 12be
00000160: a0c3 febd 7462 12be f1d0 b0bd a676 b13b
00000170: 966a 06be 0c5a 05be d8f8 19be 726d b6bd
00000180: 80d0 b2bc d3af 80bd 46a7 04bd 4910 21be
00000190: 24a8 04be f35a 12be 9cde 1fbe 1423 1abe
000001a0: a2ef 01be 4fa9 b9bd 077b fcbd 9c1b 0bbe
000001b0: 9a7b 17be 226a 18be 6396 06be c2d7 20be
000001c0: e528 0dbe d7b6 2dbd 3987 01be 7954 07be
000001d0: c0b1 eabc c610 1fbe 5bf3 f9bd 8422 10be
000001e0: 1124 efbd 8e75 19be 56ed 03bd d830 c63c
000001f0: f27f 00be 457f 17be cafd 40bc 485b 1dbe
00000200: d405 f1bd 4f80 1dbe 9275 05be b37d 0cbe
00000210: 3a85 08be 2a43 e0bd 9d48 0ebe a50a f7bd
00000220: ec17 a0bd 6ec8 e6bd 7855 09be 5e87 f9bd
00000230: 0460 e0bd e3a8 ffbd 8f71 0dbe e7c9 ecbd
00000240: 1740 06be 74b1 f1bd 4c63 b6bd be03 12be
00000250: 92a7 f8bd 7476 b1bc aaed e3bd 9f7e e5bd
00000260: 1d82 02be 7046 06be e04a 1abe 683a acbb
00000270: feed fdbd 3890 0abe f951 fbbd f3bb 0dbe
00000280: d40e c4bd eb6d 1ebe fb4a ccbd 1f3e 03be
00000290: c530 f5bd 1f4e e5bd 844b f5bd cb08 ebbd
000002a0: 3e09 d4bd 2d26 0bbe e97f fdbd 97fb f7bd
000002b0: e352 e5bd 3d28 06be 303d f9bd b7a9 0dbe
000002c0: c6c1 fcbd 8544 dfbd 3137 09be 2f91 eabd
000002d0: 6469 ebbd 9656 0bbe 94b5 01be 2c16 fdbd
000002e0: d6ed eabd beed f1bd 31c9 a0bd 7c95 a9bd
000002f0: 771b 0cbe cd8e 06be f8f3 9bbd ecee 0bbe
00000300: 4aca 1f3e b80d 0d3e 87f5 103e 149b 063e
00000310: e777 123e e4a4 153e 4c5e ff3d 7c1a 0f3e
00000320: 99ce f23d 202c 0f3e 49f3 1a3e 8ddd 0e3e
00000330: e73b 0f3e 8375 163e e250 013e 6b18 073e
00000340: 6e6f 0a3e 1648 1f3e 6d63 0a3e f8a2 ff3d
00000350: 8ee5 153e 177b 033e cf0c 1f3e 8071 083e
00000360: 2c2f 0f3e 73a6 093e db4f 113e 991f 073e
00000370: ba81 1d3e f6ad 163e 0ae6 0c3e 7d05 083e
00000380: c41e 0e3e 8c13 113e 80e3 ff3d 7c97 143e
00000390: 01ee 163e 7385 103e 4165 1c3e bac6 f93d
000003a0: bcb0 193e 0c7c f33d 7927 093e d479 1e3e
000003b0: 8a57 083e 7307 0d3e 0bac 0f3e 6aa1 153e
000003c0: 3f13 0b3e d630 0e3e 83aa 053e 2d4f 183e
000003d0: 6d41 083e ec10 103e 5cfd 073e c3d8 0d3e
000003e0: 3076 153e 78dd 083e 461b fd3d 3dd8 ef3d
000003f0: cbc5 0b3e a9c8 083e 2eb2 0e3e c17f 133e

encoder.dcrnn_cells.0.gate.bias_pool f4 [2, 128]
0.19599609 -0.21831977 0.15543851 0.06649675 0.32975698 0.35482332 -0.09090942 0.10815425
-0.13019964 0.20632537 0.2043328 -0.052558012 0.11857027 0.20482722 0.2787951 0.330765
0.14521891 0.30482593 -0.31769124 -0.0040417034 0.23054917 -0.1154737 0.3204885 0.17971115
0.16900283 0.2528393 0.029468797 -0.3130741 0.22674307 0.21477044 0.17209849 0.14040315
-0.024729222 0.041826785 -0.06810234 -0.06134488 0.15052208 0.07413561 0.24385309 0.2815415
0.14300369 0.10796217 0.084467866 0.1541624 -0.014786533 0.012735234 0.3266298 0.039220467
-0.060643703 -0.18478727 0.34669134 0.12993135 0.006783617 -0.04143564 0.005453795 0.19306932
0.09227923 0.3004222 -0.08800302 -0.015373439 0.15821455 0.18134971 -0.14561935 0.085689224
-0.24645078 0.28915274 0.045538384 -0.33941612 -0.26028064 -0.24461703 -0.16397287 0.070917785
-0.010527094 -0.2408542 0.03249094 0.030085139 0.0054166047 -0.06607997 -0.27234674 -0.19823773
-0.20557791 -0.30033305 0.20011105 -0.027811438 0.0016081526 -0.02864407 -0.05712395 -0.16814162
0.0076393667 -0.07325834 -0.1677653 -0.021452403 -0.20706941 -0.2442099 -0.23234013 0.06291662
0.19380066 -0.121142484 0.0026541366 -0.26729903 -0.02510802 -0.07544093 -0.2215613 -0.118832804
-0.32303363 -0.057374608 0.041817624 -0.18006796 -0.054443955 0.05689877 -0.058104582 -0.2844463
0.08504889 0.14236118 -0.1677128 0.018070772 -0.0121794725 -0.13890372 -0.31454057 -0.024403617
-0.096463226 -0.10607418 0.06242309 -0.07989198 -0.2668201 -0.105665565 0.042582102 -0.13890989
0.0004587376 0.24070564 0.18204498 0.22868818 0.084667996 0.0052512125 0.29116762 0.12725925
0.13081786 -0.06515657 0.061576355 0.17211722 0.13394402 0.3008998 0.02568542 0.32441399
-0.03842657 0.19645916 0.099672824 0.36282063 0.051529635 0.15560573 0.17933853 0.22814304
0.25480857 0.058038626 0.14136237 0.17895299 0.067733884 0.050946955 0.3383841 -0.012435285
0.19444305 -0.02291182 0.33100036 0.2759287 0.23869522 0.18537144 0.34407797 0.14431696
-0.0076909834 0.16304818 0.21492432 0.13349049 0.059296973 0.11523656 0.117073864 0.34120226
0.28742015 0.16594572 0.058254134 0.022681395 0.08948032 0.29164138 -0.02274288 0.035073403
0.19238573 0.32775015 0.13589889 0.26956347 0.105823345 0.23372217 -0.0666294 0.20045203
-0.33173382 0.006707717 0.004395628 -0.0911642 -0.15247144 -0.30111617 0.07264756 -0.24670136
0.06778484 -0.21303776 -0.29086354 0.040070962 -0.008521597 -0.010957928 -0.14757623 -0.27788574
-0.29604122 -0.03639404 0.0008876785 -0.15518971 -0.2674253 -0.21155632 -0.28273538 -0.32210445
-0.043462384 -0.10183834 -0.32594866 -0.0520917 -0.27681872 -0.043985743 -0.12796703 -0.29162687
-0.020355375 -0.33533722 -0.06692659 -0.026646446 -0.27922857 0.073117435 -0.23097701 -0.20067246
0.06760083 -0.13228503 -0.30375084 -0.28527862 -0.29541835 0.028497828 0.00851979 -0.016437816
-0.25776994 -0.30689415 -0.21578707 -0.18390483 -0.035524536 -0.1247897 -0.0027772645 -0.33023652
-0.25734422 0.02475877 -0.21609521 0.020267095 0.06898303 -0.31222653 -0.15018898 -0.32563242
00000000: 33b3 483e 388f 5fbe 462b 1f3e 732f 883d
00000010: e8d5 a83e 67ab b53e b82e babd fa7f dd3d
00000020: 0e53 05be f546 533e 9e3c 513e 1247 57bd
00000030: f8d4 f23d 3abe 513e 3bbe 8e3e 085a a93e
00000040: 44b4 143e 2512 9c3e 6da8 a2be 4470 84bb
00000050: 1515 6c3e 7a7d ecbd 1217 a43e 3306 383e
00000060: 140f 2d3e 2774 813e 8c68 f13c 404b a0be
00000070: 562f 683e c8ec 5b3e 963a 303e d8c5 0f3e
00000080: f094 cabc 9052 2b3d 3d79 8bbd c544 7bbd
00000090: 7622 1a3e 69d4 973d a0b4 793e 3526 903e
000000a0: 8f6f 123e 451b dd3d 7dfd ac3d c0dc 1d3e
000000b0: 3743 72bc 71a7 503c 053c a73e a4a5 203d
000000c0: 8865 78bd e038 3dbe 8781 b13e b90c 053e
000000d0: 1b49 de3b 6bb8 29bd c0b5 b23b f7b3 453e
000000e0: e5fc bc3d f0d0 993e ed3a b4bd e0e0 7bbc
000000f0: ff02 223e bdb3 393e 3d1d 15be d57d af3d
00000100: 985d 7cbe d40b 943e 7586 3a3d f3c7 adbe
00000110: 8143 85be e37c 7abe 81e8 27be 583d 913d
00000120: d579 2cbc 7ca2 76be 3815 053d 1c75 f63c
00000130: c67d b13b ef54 87bd 0871 8bbe d5fe 4abe
00000140: 0483 52be 41c5 99be e9e9 4c3e d0d4 e3bc
00000150: a6c8 d23a f8a6 eabc cefa 69bd 512d 2cbe
00000160: a753 fa3b 7808 96bd abca 2bbe f3bc afbc
00000170: 010a 54be 2912 7abe 92ea 6dbe 6eda 803d
00000180: ae73 463e 8d19 f8bd 06f1 2d3b 6bdb 88be
00000190: 56af cdbc c680 9abd f7e0 62be 9d5e f3bd
000001a0: aa64 a5be a301 6bbd f548 2b3d bc63 38be
000001b0: a000 5fbd af0e 693d 12ff 6dbd f2a2 91be
000001c0: 1d2e ae3d 21c7 113e e7bc 2bbe 2809 943c
000001d0: 698c 47bc c73c 0ebe 760b a1be 18ea c7bc
000001e0: 838e c5bd 6b3d d9bd 5baf 7f3d 689e a3bd
000001f0: a59c 88be 3067 d8bd 926a 2e3d 653e 0ebe
00000200: b882 f039 8a7b 763e 006a 3a3e 3c2d 6a3e
00000210: 6a66 ad3d 5d12 ac3b ec13 953e 4050 023e
00000220: 1ef5 053e cf70 85bd 7d37 7c3d 7f3f 303e
00000230: 9f28 093e 8a0f 9a3e 3b6a d23c 9719 a63e
00000240: 2e65 1dbd 972c 493e 4421 cc3d a0c3 b93e
00000250: bd10 533d 1c57 1f3e 85a4 373e 549e 693e
00000260: 4576 823e e9b9 6d3d 4cc1 103e 743f 373e
00000270: 10b8 8a3d c1ad 503d ae40 ad3e 5ebd 4bbc
00000280: 141c 473e 92b1 bbbc e178 a93e 8746 8d3e
00000290: 856c 743e 03d2 3d3e fd2a b03e d3c7 133e
000002a0: a504 fcbb 1af6 263e 1f15 5c3e bbb1 083e
000002b0: 62e1 723d 2501 ec3d 6cc4 ef3d 10b2 ae3e
000002c0: bc28 933e aded 293e e39b 6e3d 55ce b93c
000002d0: 7541 b73d 0552 953e 474f babc 21a9 0f3d
000002e0: c400 453e dece a73e 1429 0b3e 3904 8a3e
000002f0: e9b9 d83d dd54 6f3e ff74 88bd 4c43 4d3e
00000300: 04d9 a9be 69cc db3b 3309 903b 4cb4 babd
00000310: 7921 1cbe e62b 9abe 3ec8 943d 489f 7cbe
00000320: c7d2 8a3d 9226 5abe 11ec 94be 7321 243d
00000330: 2b9e 0bbc e288 33bc 391e 17be 0a47 8ebe
00000340: b792 97be eb11 15bd 19b3 683a 0dea 1ebe
00000350: f8eb 88be 38a2 58be b1c2 90be e0ea a4be
00000360: 9d05 32bd 9f90 d0bd bee2 a6be 1b5e 55bd
00000370: 2fbb 8dbe 652a 34bd ca09 03be 1e50 95be
00000380: 51c0 a6bc 52b1 abbe cf10 89bd a649 dabc
00000390: 0cf7 8ebe 98be 953d 3d85 6cbe 157d 4dbe
000003a0: 4e72 8a3d ba75 07be 3b85 9bbe 0a10 92be
000003b0: 1341 97be 4774 e93c 9796 0b3c 99a8 86bc
000003c0: 6cfa 83be 3b21 9dbe 49f7 5cbe 8c51 3cbe
000003d0: 2d82 11bd be91 ffbd c402 36bb c314 a9be
000003e0: 9fc2 83be e7d2 ca3c 1048 5dbe 2e07 a63c
000003f0: fa46 8d3d 28dc 9fbe 24cb 19be 4bb9 a6be

encoder.dcrnn_cells.0.update.weights_pool f4 [2, 2, 65, 64]
-0.11159846 0.048808564 0.07532094 -0.102234766 0.08091695 -0.09487569 0.0655212 0.06413347
0.07346995 0.1457763 0.06676942 -0.08627013 -0.07978525 -0.0670373 -0.050855 -0.12276313
-0.090934664 0.09166158 0.06520493 -0.053227242 0.092616186 0.05405787 -0.08092257 0.14781633
-0.12546846 0.08588982 0.082097456 0.04114554 0.0863065 0.07624908 0.1446784 0.08514955
0.06164366 -0.05462201 0.07456 0.09202442 0.06884848 0.081681766 0.09512813 -0.13765211
0.12115498 -0.06828779 -0.06823214 -0.09488315 0.1512395 -0.10452128 -0.14022468 -0.10443581
0.13308752 0.06743982 0.08360421 -0.08984914 0.069429785 -0.15837584 0.080497086 -0.0765939
0.07330427 -0.09687332 -0.0717104 -0.04786976 0.08684205 0.080616124 -0.06708147 -0.11884608
0.14333533 -0.13565558 -0.12744868 0.13424715 -0.12346045 0.14841409 -0.13922265 -0.14312309
-0.11980262 -0.1268955 -0.14908193 0.120703414 0.14592437 0.12397746 0.12975246 0.13669257
0.13161503 -0.13823277 -0.10686778 0.109578334 -0.13589427 -0.10620672 0.14685355 -0.12544335
0.13157026 -0.1307447 -0.10966488 -0.07809225 -0.12747042 -0.123940706 -0.12449016 -0.11777608
-0.11675006 0.129763 -0.13405192 -0.13746543 -0.12856188 -0.13626888 -0.145772 0.1258001
-0.15219435 0.11316237 0.11954177 0.12848079 -0.14716795 0.15067603 0.1400979 0.13720782
-0.14733906 -0.12385601 -0.14124496 0.13462983 -0.11936237 0.13466436 -0.13005662 0.14598098
-0.13009119 0.13018036 0.0889298 0.10403976 -0.1390806 -0.13668992 0.08881059 0.14523622
-0.13504517 -0.16940157 0.15429263 -0.14250636 0.15653278 -0.14045343 -0.21633749 0.19503519
-0.17507243 0.121215425 0.14266148 -0.15023436 -0.20209946 -0.1689124 0.21941009 -0.13274534
-0.14206372 0.16625355 -0.1661336 0.17580086 0.1512664 -0.16439433 -0.16928543 0.19184625
-0.12231074 0.13305876 -0.20897518 -0.15440251 0.17897627 0.15531538 0.13777505 -0.18729733
-0.17622551 0.18362418 -0.1671453 0.17901164 0.19981685 0.16580251 0.19114396 -0.12680404
0.17989805 0.21108499 -0.19489323 -0.15769398 0.15409367 -0.15202843 -0.16330016 -0.1418257
0.15245211 -0.1654833 0.15086968 -0.15215269 -0.16999285 -0.13695465 0.14794157 -0.18962352
0.15516043 -0.22021176 0.153339 0.16382639 0.15566677 0.1850073 0.17240478 -0.15638284
-0.14449403 0.13481142 0.14875326 -0.15011345 0.13795023 -0.1290793 0.13506892 0.14967176
0.12943506 0.14109045 0.119404055 -0.12889524 -0.14924198 -0.15042354 -0.120582975 -0.14946209
-0.14133257 0.12377348 0.12767722 -0.13729817 0.1464922 0.11633203 -0.14354049 0.14807269
-0.1412705 0.13452314 0.121916525 0.11033248 0.15014736 0.12372115 0.13385837 0.15446207
0.13372171 -0.15164022 0.1587113 0.14909583 0.13262148 0.11655091 0.1312857 -0.13462073
0.11805248 -0.120336555 -0.14248359 -0.121016674 0.121622816 -0.12645552 -0.14626929 -0.12653819
0.14317603 0.1512713 0.12488014 -0.1172861 0.14506933 -0.14354254 0.13242094 -0.13870421
0.13774586 -0.12747177 -0.12890503 -0.10757669 0.15047018 0.120677434 -0.12453191 -0.1473752
00000000: bc8d e4bd 7deb 473d dd41 9a3d 7660 d1bd
00000010: c9b7 a53d 304e c2bd fb2f 863d 6958 833d
00000020: 6a77 963d 6246 153e 68be 883d 65ae b0bd
00000030: 7366 a3bd da4a 89bd 554d 50bd 3c6b fbbd
00000040: f43b babd 11b9 bb3d 2a8a 853d cf04 5abd
00000050: 8ead bd3d c96b 5d3d bbba a5bd 2a5d 173e
00000060: ce7a 00be 00e7 af3d b622 a83d 3a88 283d
00000070: 76c1 b03d 7a28 9c3d 9326 143e e362 ae3d
00000080: 107e 7c3d 54bb 5fbd eab2 983d 4d77 bc3d
00000090: 6f00 8d3d c548 a73d 89d2 c23d adf4 0cbe
000000a0: 1a20 f83d 78da 8bbd 4bbd 8bbd 1952 c2bd
000000b0: 87de 1a3e 410f d6bd 0f97 0fbe 71e2 d5bd
000000c0: 1848 083e e31d 8a3d af38 ab3d d302 b8bd
000000d0: 3431 8e3d 472d 22be a8db a43d 43dd 9cbd
000000e0: 8d20 963d 8565 c6bd e7dc 92bd 1513 44bd
000000f0: 3fda b13d 111a a53d 0262 89bd 9365 f3bd
00000100: 7fc6 123e 4ce9 0abe e881 02be 1678 093e
00000110: d5d8 fcbd ddf9 173e 6290 0ebe dc8e 12be
00000120: 135b f5bd e5f0 01be efa8 18be 5a33 f73d
00000130: 336d 153e e5e7 fd3d d4dd 043e 23f9 0b3e
00000140: 17c6 063e e48c 0dbe 7fdd dabd 9b6a e03d
00000150: de27 0bbe e982 d9bd c760 163e 3974 00be
00000160: 5bba 063e f0e1 05be fb97 e0bd d4ee 9fbd
00000170: 9b87 02be a0d4 fdbd b2f4 febd 9634 f1bd
00000180: a81a efbd 98e0 043e e844 09be bdc3 0cbe
00000190: baa5 03be 128a 0bbe 4145 15be bed1 003e
000001a0: d6d8 1bbe acc1 e73d 51d2 f43d 7890 033e
000001b0: 32b3 16be d14a 1a3e d375 0f3e 3580 0c3e
000001c0: 0de0 16be 38a8 fdbd 85a2 10be 67dc 093e
000001d0: 4274 f4bd 74e5 093e 902d 05be 0a7c 153e
000001e0: a036 05be 004e 053e d420 b63d cc12 d53d
000001f0: 256b 0ebe 71f8 0bbe 54e2 b53d ceb8 143e
00000200: 4849 0abe 9b77 2dbe e3fe 1d3e 30ed 11be
00000210: 214a 203e 06d3 0fbe 9387 5dbe 4eb7 473e
00000220: 3046 33be cb3f f83d da15 123e 09d7 19be
00000230: 29f3 4ebe 5ff7 2cbe 0aad 603e 65ee 07be
00000240: 2779 11be 5f3e 2a3e ed1e 2abe 2405 343e
00000250: 94e5 1a3e fd56 28be 2959 2dbe 5873 443e
00000260: 0e7e fabd 8e40 083e 97fd 55be b11b 1ebe
00000270: 8e45 373e ff0a 1f3e e714 0d3e dfca 3fbe
00000280: 7674 34be fa07 3c3e 2328 2bbe d44e 373e
00000290: ca9c 4c3e 22c8 293e 3ebb 433e ebd8 01be
000002a0: 3237 383e aa26 583e 1792 47be 887a 21be
000002b0: bbca 1d3e 57ad 1bbe 2838 27be c23a 11be
000002c0: 681c 1c3e 7474 29be 957d 1a3e eacd 1bbe
000002d0: 9b12 2ebe d73d 0cbe ff7d 173e ab2c 42be
000002e0: 60e2 1e3e 317f 61be e604 1d3e 1bc2 273e
000002f0: 1c67 1f3e 8e72 3d3e e18a 303e d322 20be
00000300: 3ef6 13be 010c 0a3e c652 183e 57b7 19be
00000310: d342 0d3e 5d2d 04be 824f 0a3e 8e43 193e
00000320: a08a 043e 047a 103e 1d8a f43d 1dfd 03be
00000330: e4d2 18be a108 1abe 35f4 f6bd 970c 19be
00000340: 7cb9 10be f37c fd3d d1bd 023e e497 0cbe
00000350: 0d02 163e 7d3f ee3d 47fc 12be 5ea0 173e
00000360: 37a9 10be 6fc0 093e 5faf f93d fff5 e13d
00000370: 3bc0 193e 8461 fd3d 2b12 093e 4e2b 1e3e
00000380: 58ee 083e 9347 1bbe 3785 223e 94ac 183e
00000390: edcd 073e 3eb2 ee3d c26f 063e 04da 09be
000003a0: 80c5 f13d 0373 f6bd 38e7 11be 97d7 f7bd
000003b0: 6215 f93d 8e7d 01be 9ec7 15be 3a93 01be
000003c0: bd9c 123e dde6 1a3e 29c1 ff3d b233 f0bd
000003d0: 0e8d 143e d1fc 12be 5b99 073e 7a08 0ebe
000003e0: 400d 0d3e f687 02be aeff 03be 2b51 dcbd
000003f0: db14 1a3e bb25 f73d 960a ffbd 86e9 16be

encoder.dcrnn_cells.0.update.bias_pool f4 [2, 64]
-0.29970807 -0.21064346 0.45775548 -0.44845745 0.25941488 -0.3428351 -0.027366228 0.24301167
-0.37689558 0.31611943 0.44704774 -0.23714781 -0.25848228 -0.3468386 -0.004740989 -0.3440759
-0.2624742 0.34362742 -0.38286805 0.3006519 0.24356313 -0.2785767 -0.15304616 0.39358178
-0.42981955 0.13783857 -0.14256299 -0.3187416 0.31005135 0.296183 0.44636074 -0.01617936
-0.34340692 0.06753316 -0.36216998 0.24157591 0.37024367 0.4044452 0.2450394 -0.31502804
0.43271363 -0.0041136225 -0.15884835 -0.2972744 0.3386875 -0.25672024 -0.39434138 -0.4516047
0.35926193 -0.33595785 0.17673881 -0.16229388 -0.36124417 -0.44575533 0.27185142 -0.29477826
0.30447507 -0.16401042 0.30058768 0.17544979 0.4044179 0.18996304 0.2877355 -0.39108962
-0.40221813 0.44114158 0.19018483 -0.3828063 0.35597315 -0.2513276 0.40519708 0.21541438
0.34574723 -0.091641806 0.41794664 -0.44261503 -0.20147416 -0.30669293 -0.39601186 0.011496229
-0.37021026 0.42172483 0.40590265 -0.40369704 0.42795378 0.23625278 -0.3308681 -0.2417093
0.01607479 0.44521683 0.4322137 0.26347268 0.22553787 0.33217427 -0.005431319 0.27602947
0.35603246 -0.32629237 0.34078172 0.26274604 0.18128635 0.17226285 0.22025293 -0.01557305
-0.24969116 -0.36469585 -0.1520073 -0.33202255 -0.10534248 -0.24218336 0.18130298 -0.40314546
-0.14070608 0.3249173 0.43641305 -0.20931625 0.41918132 0.030070148 0.33827636 -0.25034267
0.2951278 -0.15044323 -0.2921415 -0.17394349 0.43146926 0.18099394 -0.2637499 -0.27745765
00000000: 5673 99be ebb2 57be ed5e ea3e 379c e5be
00000010: 07d2 843e 1588 afbe 242f e0bc 0dd8 783e
00000020: 75f8 c0be 68da a13e 71e3 e43e e0d6 72be
00000030: ca57 84be d494 b1be 4c5a 9bbb b72a b0be
00000040: 0563 86be efef af3e 4807 c4be 0cef 993e
00000050: 9d68 793e 9ba1 8ebe 22b8 1cbe 8d83 c93e
00000060: 4f11 dcbe 8e25 0d3e 08fc 11be 1932 a3be
00000070: 0dbf 9e3e 4ca5 973e 6589 e43e 948a 84bc
00000080: 08d3 afbe d34e 8a3d 586e b9be ad5f 773e
00000090: 9490 bd3e 7113 cf3e 9ceb 7a3e 5b4b a1be
000000a0: a48c dd3e 91cb 86bb 24a9 22be 5a34 98be
000000b0: 7368 ad3e d670 83be 1de7 c9be bb38 e7be
000000c0: 2ef1 b73e ab02 acbe 05fb 343e 5e30 26be
000000d0: fff4 b8be 0b3a e4be 1c30 8b3e 2ded 96be
000000e0: 28e4 9b3e 59f2 27be a1e6 993e 1ca9 333e
000000f0: dd0f cf3e ac85 423e 1152 933e e63c c8be
00000100: 89ef cdbe 4fdd e13e d0bf 423e 30ff c3be
00000110: 1d42 b63e 03ae 80be fe75 cf3e 9695 5c3e
00000120: c805 b13e b3ae bbbd 1afd d53e 709e e2be
00000130: 3e4f 4ebe db06 9dbe 11c2 cabe ae5a 3c3c
00000140: 338c bdbe 51ec d73e 79d2 cf3e 61b1 cebe
00000150: c21c db3e 40ec 713e 8b67 a9be a582 77be
00000160: 47af 833c 76f3 e33e 1d4b dd3e e4e5 863e
00000170: 66f3 663e bf12 aa3e 35f9 b1bb bc53 8d3e
00000180: e349 b63e cb0f a7be f17a ae3e a686 863e
00000190: 21a3 393e ac65 303e fc89 613e 1b26 7fbc
000001a0: 0aaf 7fbe 6ab9 babe cda7 1bbe dcfe a9be
000001b0: ccbd d7bd eafe 77be 7da7 393e 1569 cebe
000001c0: 4115 10be 8f5b a63e 8871 df3e 0057 56be
000001d0: ef9e d63e ac55 f63c 8f32 ad3e ea2c 80be
000001e0: fe1a 973e ca0d 1abe 9293 95be 3e1e 32be
000001f0: 8ae9 dc3e 7a56 393e 3a0a 87be ee0e 8ebe

encoder.dcrnn_cells.1.gate.weights_pool f4 [2, 2, 128, 128]
-0.022440983 -0.13726264 -0.037631184 -0.1305827 -0.1276247 -0.12645997 -0.14101504 -0.17643885
0.056075655 -0.14091384 -0.14149065 -0.034380995 0.0649274 -0.1101175 -0.02396218 -0.13175362
-0.12814435 -0.13967231 -0.2412388 -0.024162788 -0.12568514 -0.1616032 -0.12782334 -0.14051999
-0.035825405 -0.11835321 0.06476019 -0.007890609 -0.11969851 0.041706428 -0.042871185 -0.13024446
-0.13515893 -0.032046024 -0.12941684 -0.049620517 -0.19411874 -0.037784588 -0.12419477 -0.036925945
-0.13198186 -0.038470376 -0.0570999 -0.14295523 -0.13176598 -0.03221592 -0.1363428 -0.15063179
-0.2225755 0.020422503 -0.122188166 -0.1347856 -0.030461377 -0.13013539 -0.12909907 -0.12685862
-0.08720419 -0.07872291 -0.1180241 0.031239059 -0.11717302 -0.13478565 -0.026505684 -0.023597274
0.1435887 0.14696285 0.13842292 0.15293463 0.1479582 0.15151529 0.1532614 0.155103
0.12449185 0.15530428 0.16333362 0.1389102 0.13540992 0.1688623 0.1608901 0.16159795
0.15971318 0.15242575 0.10960643 0.12952235 0.1535011 0.14982304 0.16313635 0.16476293
0.13915755 0.15736352 0.12827499 0.15243821 0.16943188 0.09996017 0.16685289 0.17042862
0.15594709 0.13752122 0.15112388 0.14773016 0.15401864 0.137165 0.15441772 0.13578404
0.15888081 0.13158576 0.13681424 0.15300725 0.14861757 0.13015424 0.14913331 0.15082803
0.16461328 0.15269394 0.15746416 0.14593475 0.14061625 0.14900227 0.16286257 0.1608139
0.16055463 0.14230789 0.1522407 0.14260548 0.14752126 0.14824407 0.14660822 0.14676778
-0.13125671 -0.011824461 -0.0037306866 0.031653315 0.038991217 0.018490788 -0.08263371 -0.047609042
-0.120992355 0.026557654 0.040540233 0.013362168 -0.09306589 0.0026558419 0.10707699 0.015589035
0.027832378 0.039164625 -0.107340805 -0.024946125 0.022111613 -0.047263015 0.02841778 0.018635897
-0.03151704 -0.022694757 -0.12499751 0.11268505 -0.019912137 -0.14862618 0.10594184 -0.045262054
0.02577862 -0.032445915 0.020110963 0.059529833 -0.062864065 -0.07117735 -0.027278395 -0.082298264
0.027555773 -0.04291393 0.048193723 0.016404131 0.01955951 0.0032488264 0.03026679 -0.038348738
-0.091702014 0.045264877 -0.0120986365 0.025633305 -0.1274725 0.032642305 0.018994197 0.04404421
0.10335921 0.07222866 -0.03421971 0.08696699 0.048957366 0.035487197 -0.1442451 -0.16234665
0.08253819 0.1325307 0.07490963 0.11985952 0.10306819 0.10285998 0.13458262 0.13728112
0.09497336 0.11040283 0.11182998 0.074363865 0.09905431 0.13529764 0.10409142 0.10694384
0.10478642 0.11594215 0.10735947 0.07932481 0.11458618 0.12887035 0.1091528 0.11478534
0.07872454 0.13132177 0.098932736 0.10521535 0.123657145 0.115861855 0.11811714 0.117233686
0.110576525 0.07241362 0.11769263 0.07949495 0.0728881 0.079955466 0.1209425 0.07199217
0.11974367 0.0887926 0.08370536 0.11822913 0.119005464 0.08500912 0.10819565 0.13380046
-0.002854858 0.08498747 0.13110131 0.10935073 0.08381633 0.10867384 0.11355786 0.11078654
0.10098643 0.098037556 0.12237318 0.10811784 0.11790165 0.10568602 0.08175322 0.08809658
00000000: 27d6 b7bc 948e 0cbe 2823 1abd 79b7 05be
00000010: 0db0 02be b97e 01be 3f66 10be 63ac 34be
00000020: 96af 653d b84b 10be ede2 10be 16d3 0cbd
00000030: a8f8 843d 4985 e1bd 554c c4bc 6cea 06be
00000040: 4638 03be 4206 0fbe 4e07 77be 0af1 c5bc
00000050: 9bb3 00be 4f7b 25be 1fe4 02be 79e4 0fbe
00000060: a9bd 12bd 2b63 f2bd fea0 843d 9d47 01bc
00000070: 7e24 f5bd 5cd4 2a3d b299 2fbd ce5e 05be
00000080: 1a67 0abe b142 03bd d985 04be e23e 4bbd
00000090: 10c7 46be 03c4 1abd d459 febd a93f 17bd
000000a0: 4126 07be 1d93 1dbd 96e1 69bd db62 12be
000000b0: a9ed 06be d7f4 03bd 729d 0bbe 383f 1abe
000000c0: d5ea 63be 184d a73c ca3d fabd 3c05 0abe
000000d0: 238a f9bc 3642 05be 8c32 04be 3ae7 01be
000000e0: 1c98 b2bd 7a39 a1bd 9fb6 f1bd 0ee9 ff3c
000000f0: 69f8 efbd 4005 0abe 7322 d9bc 124f c1bc
00000100: eb08 133e 6e7d 163e bdbe 0d3e e59a 1c3e
00000110: 5b82 173e d326 1b3e 8ef0 1c3e 52d3 1e3e
00000120: 95f5 fe3d 1608 1f3e ee40 273e 7a3e 0e3e
00000130: e6a8 0a3e 3dea 2c3e 60c0 243e ef79 253e
00000140: da8b 233e 7f15 1c3e 5679 e03d 82a1 043e
00000150: 642f 1d3e 366b 193e 370d 273e 9db7 283e
00000160: 517f 0e3e e723 213e 855a 033e c318 1c3e
00000170: 8d7f 2d3e ebb7 cc3d 7cdb 2a3e d784 2e3e
00000180: 98b0 1f3e 5dd2 0c3e 38c0 1a3e 9346 173e
00000190: 10b7 1d3e fb74 0c3e ae1f 1e3e f90a 0b3e
000001a0: a7b1 223e 6bbe 063e 0819 0c3e efad 1c3e
000001b0: 342f 183e 2747 053e 67b6 183e aa72 1a3e
000001c0: 6290 283e cd5b 1c3e 493e 213e eb6f 153e
000001d0: b5fd 0f3e 0d94 183e 72c5 263e 66ac 243e
000001e0: 6f68 243e 29b9 113e fce4 1b3e 2c07 123e
000001f0: d00f 173e 4bcd 173e 7720 163e 4b4a 163e
00000200: 2968 06be 62bb 41bc 897e 74bb e8a6 013d
00000210: 41b5 1f3d fe79 973c dd3b a9bd b301 43bd
00000220: d7ca f7bd 708f d93c 840d 263d ffec 5a3c
00000230: 5499 bebd a20d 2e3b 2e4b db3d 2769 7f3c
00000240: ba00 e43c 166b 203d 7fd5 dbbd d15b ccbc
00000250: 6a23 b53c dd96 41bd 67cc e83c 4faa 983c
00000260: 0318 01bd 5bea b9bc b2fe ffbd 6bc7 e63d
00000270: c71e a3bc 7631 18be 09f8 d83d b464 39bd
00000280: af2d d33c 02e6 04bd bfbf a43c 8ed5 733d
00000290: e0be 80bd 6ec5 91bd f176 dfbc fe8b a8bd
000002a0: a5bc e13c 84c6 2fbd c866 453d f561 863c
000002b0: 443b a03c 43ea 543b 0ff2 f73c 9113 1dbd
000002c0: 44ce bbbd aa67 393d 5c39 46bc f0fc d13c
000002d0: 2788 02be f0b3 053d b899 9b3c b467 343d
000002e0: fead d33d 9fec 933d f729 0cbd c01b b23d
000002f0: 8587 483d 065b 113d fdb4 13be 333e 26be
00000300: c809 a93d 21b6 073e 386a 993d e878 f53d
00000310: 6a15 d33d 41a8 d23d 07d0 093e 6c93 0c3e
00000320: 6581 c23d e11a e23d 1e07 e53d 154c 983d
00000330: fcdc ca3d 778b 0a3e e22d d53d 5f05 db3d
00000340: 439a d63d 1473 ed3d 48df db3d 0c75 a23d
00000350: 29ac ea3d 97f6 033e 818b df3d 9414 eb3d
00000360: 553a a13d 3779 063e 3f9d ca3d 257b d73d
00000370: f53f fd3d fb48 ed3d 66e7 f13d 3718 f03d
00000380: f275 e23d 984d 943d d508 f13d 40ce a23d
00000390: 5b46 953d b1bf a33d b4b0 f73d a170 933d
000003a0: 2b3c f53d e5d8 b53d b76d ab3d 1d22 f23d
000003b0: 23b9 f33d 4319 ae3d ae95 dd3d fd02 093e
000003c0: 9218 3bbb e90d ae3d 6c3f 063e 47f3 df3d
000003d0: e5a7 ab3d 6490 de3d 0691 e83d 0ee4 e23d
000003e0: f9d1 ce3d eac7 c83d ca9e fa3d e36c dd3d
000003f0: 6c76 f13d e971 d83d 3b6e a73d fb6b b43d

encoder.dcrnn_cells.1.gate.bias_pool f4 [2, 128]
-0.24253295 0.15855661 0.0544281 0.28415778 0.13158862 0.23485267 0.32103586 0.2398003
0.050171435 -0.091002725 0.1498659 -0.084566236 0.10663959 0.019354843 -0.14025259 0.18578227
0.20676206 0.12992327 -0.08318493 0.08483586 0.27358475 0.27705154 0.13593064 0.034874894
-0.09406746 0.3231205 0.00962357 0.022275997 0.09023123 -0.2803652 0.12225775 0.07848559
0.13099498 0.13314639 0.2578085 -0.070502765 0.036718175 0.15499742 0.10427203 0.062317837
0.023974717 -0.16015905 0.18893482 0.22127752 0.10800692 -0.030896401 0.27310872 -0.10280369
0.12099333 -0.14681292 0.19911388 0.0062838155 0.0039210944 0.24085665 0.083631836 0.03613468
-0.08269517 0.25416094 0.004794093 -0.08194762 -0.031063287 0.0016700411 0.008897911 0.043778226
-0.14160414 -0.2694864 -0.025430057 -0.07752207 -0.0524015 0.090501346 0.08949841 -0.11840038
0.021073174 -0.1297581 -0.30426785 -0.017256811 -0.1483682 -0.009858365 0.11695413 -0.14118768
-0.14377293 -0.0768516 0.06047426 0.0049262815 -0.19603005 0.021041514 -0.17882714 -0.0092808725
-0.17994176 -0.21628465 0.15774055 -0.0245345 0.031651855 0.1520148 0.061190974 0.061941512
0.11723789 -0.029312937 -0.07366701 -0.14100651 -0.2618735 -0.06223483 0.08888805 -0.014118126
0.08554483 -0.0016971233 -0.20172302 -0.2145366 0.06752064 0.10794941 -0.15432763 -0.039981797
-0.19568047 0.10651382 -0.059087753 -0.19083029 -0.072153516 0.04528044 -0.096952766 -0.12836671
0.050115157 -0.032725148 -0.17332613 -0.15020154 -0.13549323 -0.2382248 0.10649011 -0.161741
0.07142188 0.2886398 -0.08452136 0.031358123 -0.0962982 0.034129843 0.04985781 0.14262013
0.1207363 0.27762595 0.0144503275 0.2502711 -0.009110541 0.06150209 0.11462847 0.117994905
0.004499507 -0.045937333 0.15359269 0.31640807 0.25866795 -0.040755708 -0.04407031 0.033976514
0.20014401 0.069696724 0.14913988 -0.22766699 0.15007949 -0.110488296 -0.023331625 0.14689776
0.22430703 0.29441914 0.22715062 0.2845921 0.092238285 0.16289526 -0.0074354033 0.23702933
0.1606627 -0.0039396123 0.33377644 0.116021484 0.051644355 0.29080182 0.12316265 0.24916644
-0.033868425 0.14524324 -0.07557749 0.13628185 0.14940782 0.06930494 0.012153642 0.16621362
0.18720764 0.2937657 0.1833909 -0.09494409 0.2768318 0.17536922 0.19697544 0.22639191
-0.28361726 0.104018964 0.023126746 -0.19855113 0.05351416 0.008571617 -0.04086998 0.008216709
-0.14854172 -0.16698247 -0.313333 -0.28669986 -0.26533803 -0.2460307 0.079390086 0.005575788
-0.19363058 -0.17836256 -0.15776946 0.09828244 -0.20013928 0.100471616 0.07515786 -0.007201957
-0.2621393 0.06377175 0.021517973 0.07928816 -0.037430357 0.054684523 -0.16357566 0.029809285
-0.116885595 -0.13151775 -0.17002673 -0.20168678 0.08888877 -0.16352388 0.049042616 -0.18458442
-0.21856008 0.084316604 0.0069513083 -0.25409943 -0.06285768 -0.17217769 -0.17502277 -0.010103103
-0.31103137 -0.17824896 -0.011410781 -0.00017007321 -0.08941497 -0.27548984 0.02198065 -0.27214193
-0.099711135 -0.093054816 -0.1086542 -0.07577837 0.07085223 -0.2899328 -0.05767835 -0.22653428
00000000: 8f5a 78be aa5c 223e 00f0 5e3d 217d 913e
00000010: 2bbf 063e 387d 703e d05e a43e 368e 753e
00000020: 9080 4d3d a35f babd 7276 193e 1031 adbd
00000030: db65 da3d 0c8e 9e3c 609e 0fbe b53d 3e3e
00000040: 6fb9 533e 9b0a 053e dc5c aabd 6cbe ad3d
00000050: 4d13 8c3e b3d9 8d3e 6731 0b3e fad8 0e3d
00000060: 71a6 c0bd 0d70 a53e 2eac 1d3c 277c b63c
00000070: 27cb b83d 078c 8fbe 4562 fa3d 0ebd a03d
00000080: 8c23 063e 8757 083e 7aff 833e c163 90bd
00000090: cc65 163d a5b7 1e3e 938c d53d fd40 7f3d
000000a0: a066 c43c bc00 24be 2178 413e 9396 623e
000000b0: bb32 dd3d 731a fdbc e8d4 8b3e be8a d2bd
000000c0: 5acb f73d 2056 16be 82e4 4b3e 77e8 cd3b
000000d0: 867c 803b 20a3 763e 2b47 ab3d f501 143d
000000e0: 165c a9bd 6221 823e c417 9d3b 27d4 a7bd
000000f0: 6f78 febc 48e5 da3a 8bc8 113c cc50 333d
00000100: ad00 11be 1ffa 89be b252 d0bc e4c3 9ebd
00000110: f5a2 56bd c558 b93d f14a b73d e67b f2bd
00000120: a6a1 ac3c 4fdf 04be ffc8 9bbe 285e 8dbc
00000130: d5ed 17be fb84 21bc a685 ef3d 8193 10be
00000140: 3639 13be 5f64 9dbd dcb3 773d a56c a13b
00000150: 1abc 48be 415f ac3c 761e 37be cd0e 18bc
00000160: a742 38be b979 5dbe bd86 213e 93fc c8bc
00000170: 60a5 013d c5a9 1b3e 63a3 7a3d 62b6 7d3d
00000180: 6b1a f03d af21 f0bc bbde 96bd 0364 10be
00000190: 4914 86be f3e9 7ebd f00a b63d b64f 67bc
000001a0: 2132 af3d 0272 deba 7b90 4ebe 7caf 5bbe
000001b0: 4348 8a3d 9514 dd3d 1008 1ebe f4c3 23bd
000001c0: 7660 48be eb23 da3d 0006 72bd 0469 43be
000001d0: 39c5 93bd fc77 393d 2c8f c6bd 9072 03be
000001e0: 8d45 4d3d ce0a 06bd 687c 31be 6fce 19be
000001f0: bdbe 0abe 34f1 73be 7d17 da3d 6f9f 25be
00000200: a245 923d 99c8 933e 8919 adbd 6071 003d
00000210: fe37 c5bd bccb 0b3d b437 4c3d 030b 123e
00000220: 9844 f73d fd24 8e3e 11c1 6c3c 8923 803e
00000230: 6144 15bc 9ee9 7b3d 55c2 ea3d 50a7 f13d
00000240: 9a70 933b c928 3cbd 6747 1d3e 3d00 a23e
00000250: 2070 843e 75ef 26bd 1283 34bd f52a 0b3d
00000260: 8df2 4c3e 28bd 8e3d 20b8 183e 8921 69be
00000270: 70ae 193e b047 e2bd f721 bfbc 5e6c 163e
00000280: beb0 653e 1bbe 963e 2c9a 683e 0eb6 913e
00000290: 6de7 bc3d 04ce 263e afa4 f3bb d1b7 723e
000002a0: c384 243e dd17 81bb bfe4 aa3e ac9c ed3d
000002b0: 0889 533d fae3 943e b33c fc3d 7d25 7f3e
000002c0: 9eb9 0abd a5ba 143e 5fc8 9abd 788d 0b3e
000002d0: 5dfe 183e c0ef 8d3d 1220 473c e733 2a3e
000002e0: 5cb3 3f3e 7568 963e d3ca 3b3e 0c72 c2bd
000002f0: e6bc 8d3e fd93 333e eeb3 493e 48d3 673e
00000300: 4836 91be e507 d53d 4d74 bd3c fd50 4bbe
00000310: aa31 5b3d f86f 0c3c 4867 27bd 609f 063c
00000320: 521b 18be 74fd 2abe 2f6d a0be 53ca 92be
00000330: 63da 87be 79ef 7bbe 4597 a23d 1ab5 b63b
00000340: 1847 46be ada4 36be 518e 21be 4e48 c93d
00000350: 50f1 4cbe 10c4 cd3d 5dec 993d 65fe ebbb
00000360: 1f37 86be c39a 823d 7646 b03c d561 a23d
00000370: 9350 19bd e1fc 5f3d 6180 27be 9a32 f43c
00000380: b761 efbd 97ac 06be 7d1b 2ebe fb86 4ebe
00000390: 510b b63d ce72 27be e9e0 483d b303 3dbe
000003a0: 37ce 5fbe 2fae ac3d cdc7 e33b 5219 82be
000003b0: 87bb 80bd 594f 30be 2b39 33be 7c87 25bc
000003c0: 813f 9fbe e586 36be 49f4 3abc ae55 32b9
000003d0: 321f b7bd 010d 8dbe c410 b43c 3056 8bbe
000003e0: 5a35 ccbd 8693 bebd 1886 debd b131 9bbd
000003f0: f91a 913d 1272 94be 2240 6cbd 9af8 67be

encoder.dcrnn_cells.1.update.weights_pool f4 [2, 2, 128, 64]
-0.23298101 -0.20063247 -0.21018282 -0.21314758 0.21701929 -0.21940456 -0.22512554 -0.19519882
0.2368057 0.22082764 0.20222156 -0.2297759 0.24985573 0.22250855 0.24276868 -0.21009523
-0.21791877 -0.22194873 0.20418417 0.23064667 0.21978495 -0.18410641 -0.21376254 0.22154813
0.24241932 0.21126293 -0.25019017 -0.2504777 -0.21558276 -0.23419066 0.2251139 -0.22991915
-0.19826935 0.22764315 0.2002935 0.21966626 0.17494504 -0.22374101 0.21677637 -0.23967274
-0.2208402 0.23046115 -0.21143284 0.21061562 0.20252676 0.21806236 0.20545715 -0.19734566
-0.18500635 -0.23478171 -0.23158824 -0.20629506 -0.22516279 0.21790007 -0.19802639 0.20744437
0.22383162 -0.2185366 0.22096264 0.23727565 -0.21107396 0.21133126 -0.2348953 0.24410482
-0.23314081 -0.24396873 -0.2233088 -0.2482941 0.26070857 -0.2567955 -0.269093 -0.22208168
0.22945756 0.26980284 0.25816327 -0.22591448 0.23429903 0.2599029 0.24541005 -0.25422084
-0.2517153 -0.26544 0.12612602 0.23584983 0.2515601 -0.2466567 -0.24585748 0.26933995
0.22311021 0.25731364 -0.21874087 -0.24946786 -0.26381025 -0.25187346 0.24686301 -0.25321582
-0.26720124 0.22850433 0.26153842 0.2393685 0.2238097 -0.22147988 0.26128244 -0.22784863
-0.2661961 0.23111242 -0.23004493 0.24974123 0.26634464 0.24316971 0.25390485 -0.24462205
-0.14100222 -0.24151933 -0.24935322 -0.25618842 -0.226884 0.24468802 -0.26974285 0.24632275
0.24942932 -0.24124382 0.2574876 0.22844571 -0.26105288 0.25226364 -0.21686321 0.2194771
0.21050727 0.19790533 0.20631698 0.22103819 -0.19999649 0.22021292 0.21080203 0.17077628
-0.24734105 -0.19687964 -0.20504983 0.22077629 -0.22823593 -0.20513873 -0.22323292 0.2044827
0.21753784 0.2049457 -0.19937064 -0.2171274 -0.20778383 0.1775785 0.20293298 -0.210468
-0.21057758 -0.20744455 0.23194164 0.22352274 0.21552117 0.22140706 -0.23818621 0.20486575
0.2067549 -0.23253645 -0.21329655 -0.22208065 -0.16063684 0.2318436 -0.2174825 0.2268376
0.1999541 -0.23344749 0.22891769 -0.19620577 -0.2121323 -0.22916898 -0.2034715 0.19788769
0.16845275 0.22754773 0.21982673 0.21965119 0.21792814 -0.20065036 0.19716896 -0.21013832
-0.2170449 0.21251057 -0.20545442 -0.22649452 0.21651876 -0.21679536 0.2363959 -0.23850167
-0.2145413 -0.18608423 -0.1954049 -0.21361962 0.2139122 -0.1968395 -0.1968022 -0.1726639
0.22605066 0.18660747 0.21032012 -0.2026567 0.24117339 0.20969562 0.22853719 -0.21038526
-0.19626944 -0.20234756 0.18808943 0.22964673 0.1915527 -0.17102757 -0.19103053 0.1959197
0.22468375 0.20152977 -0.24113515 -0.21412767 -0.22101381 -0.22167973 0.2272538 -0.20685981
-0.1912393 0.21376291 0.20400631 0.2092264 0.15322685 -0.2206994 0.20259993 -0.23193832
-0.20058864 0.21170035 -0.19991547 0.20671223 0.19018482 0.20688947 0.18928485 -0.1919079
-0.1551596 -0.21378939 -0.20392881 -0.21012889 -0.2293862 0.19028582 -0.21346405 0.2094671
0.20573711 -0.21685818 0.2115734 0.22253816 -0.20043474 0.21439995 -0.23051372 0.21442346
00000000: 9392 6ebe 9972 4dbe 2a3a 57be 5c43 5abe
00000010: 4e3a 5e3e 97ab 60be 4f87 66be 33e2 47be
00000020: 327d 723e a420 623e 2b13 4f3e 604a 6bbe
00000030: 2eda 7f3e 48d9 633e 5a98 783e 3423 57be
00000040: 1926 5fbe 8746 63be a815 513e a42e 6c3e
00000050: 4e0f 613e 6486 3cbe 91e4 5abe 83dd 623e
00000060: c53c 783e 4f55 583e ed18 80be 9d3e 80be
00000070: bac1 5cbe adcf 6fbe 4284 663e ed6f 6bbe
00000080: 1f07 4bbe 491b 693e bd19 4d3e 31f0 603e
00000090: cb24 333e 5d1c 65be a0fa 5d3e c56c 75be
000000a0: ef23 62be 02fe 6b3e da81 58be 9fab 573e
000000b0: 2d63 4f3e bd4b 5f3e 5c63 523e fb14 4abe
000000c0: 4e72 3dbe 9e6a 70be 7825 6dbe 033f 53be
000000d0: 1391 66be 3221 5f3e 6ec7 4abe 4c6c 543e
000000e0: 1e34 653e 0fc8 5fbe 0844 623e 63f8 723e
000000f0: c623 58be 3967 583e 6588 70be 9df6 793e
00000100: 77bc 6ebe f0d2 79be 10ab 64be cf40 7ebe
00000110: 987b 853e b37a 83be 8fc6 89be 6169 63be
00000120: ecf6 6a3e 9923 8a3e fa2d 843e 2056 67be
00000130: 16ec 6f3e fe11 853e c64c 7b3e 3c29 82be
00000140: d4e0 80be c0e7 87be 2e27 013e 9e82 713e
00000150: 7ccc 803e 9393 7cbe 10c2 7bbe ede6 893e
00000160: 0177 643e 9dbe 833e 9bfd 5fbe 8174 7fbe
00000170: 2312 87be 8ff5 80be a8c9 7c3e 81a5 81be
00000180: 9ace 88be 0afd 693e 5de8 853e 041d 753e
00000190: 5f2e 653e 9fcb 62be d0c6 853e 2751 69be
000001a0: db4a 88be bca8 6c3e e690 6bbe 2abc 7f3e
000001b0: 535e 883e 7b01 793e d1ff 813e 347e 7abe
000001c0: e362 10be d850 77be 7356 7fbe 212b 83be
000001d0: 4754 68be 7f8f 7a3e bc1b 8abe 083c 7c3e
000001e0: 666a 7f3e 9f08 77be 6ad5 833e aced 693e
000001f0: b9a8 85be b328 813e 6411 5ebe 9bbe 603e
00000200: 388f 573e b2a7 4a3e c244 533e d657 623e
00000210: e1cb 4cbe 7f7f 613e 7ddc 573e fadf 2e3e
00000220: f946 7dbe d19a 49be 95f8 51be 2e13 623e
00000230: aeb6 69be e30f 52be 2c97 64be ea63 513e
00000240: 3dc2 5e3e 49dd 513e d127 4cbe a556 5ebe
00000250: 49c5 54be 23d7 353e aacd 4f3e ec84 57be
00000260: a6a1 57be 586c 54be 1c82 6d3e 25e3 643e
00000270: 95b1 5c3e 88b8 623e 16e7 73be 54c8 513e
00000280: 8eb7 533e 091e 6ebe 696a 5abe 1c69 63be
00000290: fc7d 24be 6968 6d3e bcb3 5ebe 1e48 683e
000002a0: c5c0 4c3e dc0c 6fbe 6669 6a3e 2aea 48be
000002b0: 3639 59be 46ab 6abe d55a 50be 12a3 4a3e
000002c0: e17e 2c3e 4602 693e 421a 613e 3eec 603e
000002d0: 8e28 5f3e 4a77 4dbe a9e6 493e 802e 57be
000002e0: 0541 5ebe 5f9c 593e a562 52be 2eee 67be
000002f0: 18b7 5d3e 9aff 5dbe c411 723e c839 74be
00000300: b7b0 5bbe dd8c 3ebe 3918 48be 1abf 5abe
00000310: cd0b 5b3e 4b90 49be 8486 49be cece 30be
00000320: d379 673e 0716 3f3e 285e 573e 3d85 4fbe
00000330: 28f6 763e 73ba 563e a705 6a3e 3c6f 57be
00000340: dbfa 48be 3334 4fbe 849a 403e 8328 6b3e
00000350: 6426 443e da21 2fbe 829d 43be 2d9f 483e
00000360: 7f13 663e d25d 4e3e 22ec 76be 4944 5bbe
00000370: 7251 62be 0300 63be 38b5 683e 0fd3 53be
00000380: 3cd4 43be aae4 5a3e 08e7 503e 723f 563e
00000390: 80e7 1c3e 06ff 61be 5b76 4f3e 3d81 6dbe
000003a0: 1c67 4dbe fac7 583e a4b6 4cbe 5fac 533e
000003b0: cfbf 423e d5da 533e e3d3 413e 8183 44be
000003c0: 28e2 1ebe 9beb 5abe b7d2 50be 072c 57be
000003d0: 37e4 6abe 49da 423e 5296 5abe 8b7e 563e
000003e0: c0ac 523e 1210 5ebe b3a6 583e 0be1 633e
000003f0: c43e 4dbe a98b 5b3e ca0b 6cbe d391 5b3e

encoder.dcrnn_cells.1.update.bias_pool f4 [2, 64]
-0.22312425 0.22754192 0.01783904 0.28356847 -0.12492797 0.2763731 0.41406444 0.232695
0.21569438 -0.41517377 -0.30862167 -0.050431512 0.0955837 -0.16986331 -0.048338003 0.38498425
0.3290569 0.28894892 -0.27106467 0.09657824 -0.17705448 0.24904892 0.32792425 -0.3241812
0.11160715 -0.2752662 -0.17913288 0.07597876 0.18376939 -0.18765858 -0.08205454 0.30340743
0.27955163 0.12195395 -0.2163201 -0.014869894 -0.2143719 -0.17323959 -0.35500878 -0.2150184
0.31926227 0.1078459 0.006685375 -0.27275947 -0.24241567 0.030515824 -0.284098 0.25621367
0.29172537 -0.043627836 0.23180357 0.2679802 -0.22147389 -0.40860197 0.3657294 -0.3547946
-0.104205035 0.0611426 -0.24166238 -0.007190129 0.14112143 -0.40384278 -0.27516106 0.27347234
0.39674285 0.2287082 0.21982966 0.40257764 -0.22605786 0.16582906 -0.10026582 0.37011677
-0.016139787 -0.39489815 -0.43204483 0.36785784 -0.019777058 0.166531 -0.03599497 0.15607022
0.14784177 0.3119432 -0.3921411 -0.28949764 -0.2199903 0.38586313 0.31122598 -0.30594206
-0.24663393 0.06795693 0.03252174 -0.15124801 -0.07218231 -0.087336704 0.117522985 -0.1110508
0.42316422 -0.43092647 -0.21459097 -0.22500668 -0.41616616 0.2440794 0.019261423 0.27478075
0.36704537 -0.36950463 0.3126044 -0.2242715 -0.18663658 -0.37750718 -0.16294095 0.36275187
0.36860192 0.045969207 -0.033607002 0.32416546 0.32102945 -0.2770194 0.22881195 -0.37652624
-0.044325124 0.1830608 -0.0015162159 0.024238935 0.29477298 -0.41829348 0.14282967 -0.16702664
00000000: af7a 64be c000 693e 2e23 923c e32f 913e
00000010: 3cda ffbd c680 8d3e 4100 d43e 9947 6e3e
00000020: fdde 5c3e a891 d4be a903 9ebe 4691 4ebd
00000030: 63c1 c33d a6f0 2dbe 12fe 45bd a81c c53e
00000040: 257a a83e 1df1 933e fdc8 8abe d0ca c53d
00000050: c54d 35be ae06 7f3e b0e5 a73e 14fb a5be
00000060: 4a92 e43d b1ef 8cbe 9c6e 37be c19a 9b3d
00000070: 0b2e 3c3e 9229 40be 360c a8bd 3858 9b3e
00000080: 6421 8f3e fec2 f93d 0483 5dbe dba0 73bc
00000090: 4f84 5bbe b865 31be b6c3 b5be c92d 5cbe
000000a0: 5876 a33e 50de dc3d fd10 db3b 21a7 8bbe
000000b0: d03b 78be 52fc f93c 4b75 91be 702e 833e
000000c0: 075d 953e 1ab3 32bd ea5d 6d3e b334 893e
000000d0: 0dca 62be 4734 d1be e240 bb3e a3a7 b5be
000000e0: 7369 d5bd aa70 7a3d 5876 77be 2c9b ebbb
000000f0: 2382 103e 7bc4 cebe e9e1 8cbe 9104 8c3e
00000100: e121 cb3e 7b32 6a3e 071b 613e a81e ce3e
00000110: b67b 67be 18cf 293e 2b58 cdbd f27f bd3e
00000120: 9637 84bc 1730 cabe fb34 ddbe dd57 bc3e
00000130: 7f03 a2bc 1a87 2a3e 766f 13bd dfd0 1f3e
00000140: d563 173e 05b7 9f3e b8c6 c8be 0939 94be
00000150: 2345 61be da8f c53e 0359 9f3e 70a4 9cbe
00000160: 9b8d 7cbe 012d 8b3d 8435 053d c2e0 1abe
00000170: 52d4 93bd 96dd b2bd e4af f03d 9a6e e3bd
00000180: fba8 d83e 65a2 dcbe bcbd 5bbe 2768 66be
00000190: bb13 d5be f3ef 793e 22ca 9d3c 10b0 8c3e
000001a0: 5fed bb3e b62f bdbe af0d a03e 6ea7 65be
000001b0: a91d 3fbe 9f48 c1be fed9 26be 9dba b93e
000001c0: 64b9 bc3e 354a 3c3d 7fa7 09bd 04f9 a53e
000001d0: f95d a43e 7dd5 8dbe ae4d 6a3e 0cc8 c0be
000001e0: 438e 35bd 4a74 3b3e c3bb c6ba bb90 c63c
000001f0: 7cec 963e 902a d6be f141 123e 0809 2bbe
