CQ/result/P4_Result/DAYS/2/data0/best_model.pth (torch_old, 603835 bytes, 11 tensors)

node_embeddings f4 [307, 2]
0	0xb990542d	-0.00027528536
1	0x3e620b1d	0.22074552
2	0xbd0c976a	-0.034324087
3	0x3e754102	0.2395058
4	0x3ebe2560	0.3713789
5	0x3dee02e9	0.11621649
6	0x3de76cca	0.11300047
7	0xbe1c8a7e	-0.15287206
8	0x3d83dde2	0.06438805
9	0x3e8749e5	0.26423565
10	0x3d4155d1	0.04720098
11	0x3e18d2df	0.14924191
12	0xbe8244f0	-0.2544322
13	0xbe900bfb	-0.2813414
14	0x3d435653	0.047689747
15	0x3e5f7633	0.21822433
16	0xbe841f73	-0.25805244
17	0xbd84141c	-0.06449148
18	0x3e3f749f	0.18696831
19	0xbe4d8730	-0.20071101
20	0x3dd8473e	0.10560463
21	0xbe0ad480	-0.13557625
22	0x3e9610a3	0.29309568
23	0xbe82db9e	-0.2555818
24	0xbe95187d	-0.29120246
25	0xbdc56257	-0.096378975
26	0x3d3eb0a1	0.046555165
27	0x3e3c757f	0.18404196
28	0x3ddee722	0.10883929
29	0xbe21eea7	-0.15813695
30	0x3f015168	0.5051484
31	0xbe5a973c	-0.21346754
32	0x3d09d37c	0.033648953
33	0x3e454dfa	0.19268027
34	0xbed9b97b	-0.42524323
35	0xbe77ebfe	-0.24211118
36	0x3da44216	0.080204174
37	0x3e3925bf	0.18080805
38	0x3df087b3	0.117446326
39	0xbe0ae8a6	-0.13565311
40	0x3d260182	0.04052878
41	0x3e497ec3	0.19677262
42	0xbe02dd0d	-0.12779637
43	0x3e97aedd	0.29625598
44	0x3d68ae4e	0.056806855
45	0x3e40d93f	0.18832873
46	0xbe8de34f	-0.27712485
47	0xbe6f63be	-0.23377892
48	0xbe13c29d	-0.14429708
49	0x3e7e5cc6	0.24840078
50	0x3c4169b0	0.011804983
51	0x3e673550	0.22578931
52	0x3d70dd4d	0.0588048
53	0x3e26b081	0.16278268
54	0xbe7f3900	-0.24924088
55	0xbc2d0209	-0.010559567
56	0xbe36d04c	-0.17852896
57	0x3e4e5a08	0.20151532
58	0x3e15e445	0.14637859
59	0xbe3f267c	-0.18667024
60	0x3d5e0771	0.054206315
61	0x3e28acf3	0.16472225
62	0xbd98b1ce	-0.074557886
63	0x3e8c4b05	0.27400985
64	0xbec5c96f	-0.38630244
65	0xbe8e1a32	-0.2775436
66	0x3e2d4714	0.16921645
67	0xbe465398	-0.19367826
68	0x3f108ca9	0.5646463
69	0xbe7fc0fc	-0.24975961
70	0xbebec370	-0.37258482
71	0xbe6d9c1f	-0.23204087
72	0x3ddcccfd	0.10781286
73	0xbe12c2b9	-0.14332093
74	0x3d144cb5	0.036205966
75	0x3e4a3bb5	0.19749339
76	0x3d25c39f	0.040469762
77	0x3e56b5bc	0.20967764
78	0x3d2515ff	0.04030418
79	0x3e33ffc8	0.17578042
80	0x3df63ccd	0.120233156
81	0xbe23b468	-0.15986788
82	0xbed3b0d2	-0.4134584
83	0xbdd6d815	-0.10490433
84	0xbecfdb06	-0.4059679
85	0xbe5f8f43	-0.21831994
86	0x3dfa6bd9	0.122276016
87	0xbe19b804	-0.15011603
88	0x3e9fe849	0.31231907
89	0xbea7db47	-0.32784483
90	0xbee9728b	-0.45595202
91	0xbe744027	-0.23852597
92	0x3d821a45	0.06352667
93	0x3e48bd4d	0.19603463
94	0x3d3000ec	0.04296963
95	0x3e55d6c4	0.20882708
96	0x3c11a63d	0.008889732
97	0x3e5ed687	0.21761523
98	0x3eb60326	0.35549277
99	0xbeb7ed73	-0.35923347
100	0x3d698a7a	0.057016827
101	0x3e373149	0.17889895
102	0x3df167d7	0.11787384
103	0xbe143b6c	-0.14475793
104	0xbe9cbcab	-0.30612692
105	0xbd85a7e9	-0.06526167
106	0x3e34f0e9	0.17670025
107	0x3d1b13dd	0.03786074
108	0xbeac8614	-0.33696043
109	0xbe95ac8b	-0.29233202
110	0xbe8925bb	-0.267866
111	0xbddb698c	-0.10713491
112	0x3e0c73b9	0.1371602
113	0xbe130636	-0.14357838
114	0xbc87e7f2	-0.016590092
115	0x3e570eb4	0.21001703
116	0xbdb15fcc	-0.0866085
117	0x3e7d3fc2	0.24731353
118	0x3df13a53	0.117787026
119	0xbe1bc738	-0.15212715
120	0x3d7b7d20	0.061398625
121	0x3e63d297	0.22248302
122	0x3df68c29	0.12038452
123	0xbe0f376e	-0.13985988
124	0x3eb21fb9	0.34789827
125	0xbeb6d2dd	-0.3570775
126	0xbd26dfe0	-0.040740848
127	0x3e6f6d0d	0.23381443
128	0x3e2e9870	0.17050338
129	0xbe46d934	-0.19418794
130	0x3d190127	0.037354615
131	0x3e4351d6	0.19074187
132	0x3de133f3	0.10996237
133	0xbe1bb9f0	-0.15207648
134	0xbdc347a5	-0.095351495
135	0x3e815c89	0.2526591
136	0x3eab055f	0.33402535
137	0xbef2fdf6	-0.47459382
138	0xbda60e64	-0.081082135
139	0x3e7d6584	0.24745756
140	0x3dc8d795	0.09806744
141	0xbe18ff01	-0.14941026
142	0x3d7d0f8d	0.06178241
143	0x3e262e86	0.16228685
144	0x3d609bcf	0.05483609
145	0x3e155bbb	0.14585774
146	0x3d13aa1a	0.036050893
147	0x3e4bcbd1	0.19901969
148	0xbe78887a	-0.24270812
149	0xbd7439cf	-0.059625443
150	0x3ee1f147	0.44129393
151	0xbe3eb2ad	-0.18622847
152	0x3d7a7667	0.061148074
153	0x3e2b090a	0.16702667
154	0x3e9ad68d	0.30241814
155	0x3dec99de	0.11552785
156	0x3de6026c	0.11230931
157	0xbe0b3b21	-0.13596775
158	0xbec79b9a	-0.38985902
159	0xbe2aab5f	-0.16666935
160	0x3dfbb2e2	0.122899786
161	0xbe1ae348	-0.15125763
162	0x3e896f97	0.2684295
163	0x3e0a1412	0.13484219
164	0xbdcc667f	-0.09980487
165	0x3e779bc5	0.24180515
166	0x3d6b8646	0.0575011
167	0x3e8287c1	0.25494197
168	0x3e970a7c	0.29500186
169	0xbe3bbdcf	-0.18334125
170	0x3d5b39ce	0.053521924
171	0x3e1cbbc8	0.15306008
172	0xbe51b252	-0.2047818
173	0xbe45d7d5	-0.19320615
174	0x3ec09f36	0.37621468
175	0xbec8c3bc	-0.39211833
176	0x3dff950c	0.124796
177	0xbe21e96f	-0.15811704
178	0x3e109977	0.14121042
179	0xbe42254a	-0.18959537
180	0x3ea5b66b	0.32365736
181	0x3dd70e60	0.10500789
182	0xbd3941c4	-0.045228735
183	0x3e6e5aae	0.23276779
184	0xbe76ea76	-0.24112877
185	0x3e029a4a	0.12754169
186	0x3d2ae536	0.0417225
187	0x3e789a28	0.24277556
188	0x3df686c1	0.12037421
189	0xbe1916f0	-0.14950156
190	0x3e3e4ea8	0.18584692
191	0x3d9f835d	0.077887274
192	0x3d5c03b0	0.053714454
193	0x3e15c895	0.14627297
194	0xbe1e333e	-0.15449235
195	0x3e31421c	0.17310375
196	0xbe91e955	-0.2849833
197	0xbe746d9d	-0.23869939
198	0xbde4d159	-0.111727424
199	0x3e82a9ff	0.25520322
200	0x3df68292	0.12036623
201	0xbe1bfc1b	-0.1523289
202	0xbdb22367	-0.08698159
203	0x3e811031	0.25207666
204	0xbd088566	-0.033330344
205	0x3e744d83	0.23857693
206	0x3d4da239	0.050203536
207	0x3e189940	0.1490221
208	0x3e609a6a	0.21933904
209	0xbe6ab44a	-0.22920337
210	0x3d82be24	0.06383923
211	0x3e3bedd0	0.18352437
212	0xba5a2ae6	-0.00083224324
213	0x3e551ef1	0.20812584
214	0x3d62b71c	0.055350408
215	0x3e48db17	0.19614826
216	0x3e7283ba	0.23683062
217	0x3dea8310	0.114507794
218	0x3e888c8c	0.2666973
219	0x3ded66cb	0.11591872
220	0xbead08e7	-0.33795854
221	0xbe04f796	-0.12985072
222	0xbf09df1f	-0.5385608
223	0xbe888251	-0.26661924
224	0x3d5b293b	0.053506117
225	0x3e3c73e8	0.1840359
226	0x3d1b5013	0.03791816
227	0x3c354446	0.011063641
228	0x3bc6c5af	0.006066046
229	0x3e658a76	0.224161
230	0x3ddf455f	0.10901903
231	0xbe232b92	-0.1593459
232	0xbd889f01	-0.066709526
233	0x3e872250	0.26393366
234	0x3e1b43fd	0.15162654
235	0xbe38a93f	-0.18033312
236	0x3dd149d6	0.10219161
237	0x3e70c8f8	0.23514163
238	0x3e008ffb	0.12554924
239	0xbdcd7478	-0.1003198
240	0xbdac1643	-0.084026836
241	0x3e8188a5	0.25299564
242	0x3d727d1a	0.059201337
243	0x3e2347b3	0.1594532
244	0x3e0a21e7	0.13489495
245	0xbe059b97	-0.13047634
246	0xbed1bc17	-0.40963814
247	0xbe7c10dc	-0.24615806
248	0xbeaf0d2b	-0.34189734
249	0xbde77622	-0.11301829
250	0x3e624ce6	0.22099647
251	0xbd88e566	-0.06684379
252	0x3d2fa127	0.042878296
253	0x3e491037	0.19635092
254	0x3e046800	0.12930298
255	0xbe211ffa	-0.15734854

encoder.dcrnn_cells.0.gate.weights_pool f4 [2, 2, 65, 128]
0	0xbf394ae4	-0.723799
1	0xbdcf4470	-0.10120475
2	0xbf4b08de	-0.79310405
3	0x3f20a164	0.6274626
4	0x3f2b735c	0.669729
5	0x3f2a8b0d	0.66618425
6	0x3f3633a7	0.71172565
7	0x3f278a63	0.65445536
8	0x3f30fe16	0.69137704
9	0x3f0c3ac7	0.5477719
10	0x3f0dc2ae	0.5537518
11	0xbf3436ef	-0.7039632
12	0xbddbd88b	-0.10734662
13	0x3f2f9374	0.6858437
14	0x3f2ae8a4	0.6676123
15	0x3f03e74f	0.51524824
16	0xbf409ec9	-0.75242287
17	0xbe9f95d1	-0.31168988
18	0x3f0ae3a3	0.54253596
19	0xbf6cf1ea	-0.9255663
20	0xbe10dedd	-0.14147516
21	0x3f02bb98	0.51067495
22	0xbf29983c	-0.66247916
23	0x3f25c807	0.6475834
24	0xbf5371c8	-0.8259549
25	0x3f0c607d	0.5483473
26	0xbf4d456a	-0.8018404
27	0xbf6fb5c3	-0.9363672
28	0x3f3d08b5	0.7384141
29	0x3f2efc7c	0.6835401
30	0x3f3b9947	0.7328076
31	0x3f1aaa43	0.6041605
32	0xbf0a414b	-0.5400588
33	0x3f351732	0.7073852
34	0x3f335c76	0.7006296
35	0x3f28c332	0.65922844
36	0x3f2983a7	0.6621651
37	0xbf2f6073	-0.68506545
38	0x3ee030fd	0.43787375
39	0x3f3fb5ae	0.74886596
40	0xbf3f691c	-0.7476976
41	0x3f101b6f	0.5629186
42	0xbeb992b7	-0.36244747
43	0x3f2e09ad	0.67983514
44	0x3f2951e7	0.661406
45	0xbdf81fb7	-0.12115424
46	0x3f1e62f4	0.6186974
47	0xbf2e622c	-0.6811855
48	0xbf27175d	-0.65270025
49	0x3f17f13f	0.5935249
50	0x3f2a92cf	0.6663026
51	0x3f2c9d8c	0.674279
52	0x3f418ebf	0.7560844
53	0xbf34c13c	-0.7060735
54	0xbf3beb89	-0.73406273
55	0xbf3d92c6	-0.74052083
56	0x3d8bf89f	0.0683453
57	0x3ef6508b	0.48108324
58	0xbf34ce4e	-0.70627296
59	0x3eaebe56	0.3412959
60	0x3f3b37ae	0.73131835
61	0xbeed3f83	-0.46337518
62	0xbf54dafc	-0.83146644
63	0x3f279f0b	0.65477055
64	0xbd319b8e	-0.04336124
65	0xbd7f0adf	-0.062266227
66	0xbdce6fbb	-0.10079905
67	0xbeaea26d	-0.34108296
68	0xbeabe8e2	-0.33576113
69	0xbeb79f0c	-0.3586353
70	0xbeae8df1	-0.34092668
71	0xbe9a3e3c	-0.30125606
72	0xbeb2aaf5	-0.34896055
73	0xbeac9611	-0.33708242
74	0xbd68fed1	-0.056883637
75	0xbda3700d	-0.07980356
76	0xbd8166ac	-0.06318411
77	0xbeb03dc9	-0.34422138
78	0xbe9fde2e	-0.31224197
79	0xbe6c4084	-0.23071486
80	0x3d9f9862	0.077927366
81	0x3e894bf6	0.26815766
82	0xbe82292d	-0.2542204
83	0xbdeb4011	-0.11486829
84	0xbd932ff3	-0.0718688
85	0xbe9750e6	-0.29553908
86	0xbe8dae64	-0.27672112
87	0xbea2e617	-0.3181617
88	0x3dc450cc	0.09585723
89	0xbe6a01fb	-0.22852318
90	0xbece7c4f	-0.40329215
91	0xbe7eb19f	-0.24872445
92	0xbea371b8	-0.31922698
93	0xbea4cec7	-0.3218901
94	0xbe97d3b0	-0.29653692
95	0xbeb9aa78	-0.3626287
96	0xbdd50f79	-0.10403342
97	0xbebdc24f	-0.37062308
98	0xbeb1a687	-0.34697363
99	0xbea46168	-0.32105565
100	0xbe6cee20	-0.23137712
101	0xbd826eb4	-0.06368771
102	0xbe184ed5	-0.14873822
103	0xbeb4ca90	-0.35310793
104	0x3d688c38	0.056774348
105	0xbefc3e19	-0.49266127
106	0x3e7c5758	0.24642694
107	0xbeba56fd	-0.36394492
108	0xbeaae49c	-0.3337754
109	0xbd7cf13b	-0.061753493
110	0xbe62f6b3	-0.22164421
111	0xbee47c8a	-0.44626266
112	0xbea8ebf1	-0.3299251
113	0xbec67010	-0.38757372
114	0xbeb437bd	-0.35198775
115	0xbeae4fdb	-0.340453
116	0xbea1d7cb	-0.3160995
117	0xbd111c25	-0.03542723
118	0xbdba466a	-0.09095462
119	0x3d9bf45f	0.076149695
120	0x3efaff49	0.49022892
121	0xbdd7a6cf	-0.10529863
122	0xbe740eb1	-0.2383373
123	0x3d9312e1	0.07181335
124	0xbe9b874d	-0.30376664
125	0x3dda586f	0.106613986
126	0xbcd614f3	-0.026133036
127	0xbe971288	-0.29506326
128	0x3dd34f61	0.10317875
129	0x3d2c47ec	0.042060778
130	0x3dbab40f	0.09116375
131	0x3d4b9448	0.04970196
132	0xbc5792d6	-0.013157567
133	0xbd16ecdc	-0.03684698
134	0xbd004795	-0.031318266
135	0xbc0dccea	-0.008654812
136	0xbd4b3196	-0.049607836
137	0x3cf8fb0d	0.030393148
138	0x3d91a378	0.07111257
139	0x3de1f077	0.11032193
140	0x3cbbcb9c	0.022924237
141	0xbdb6d194	-0.089266926
142	0x3b85009d	0.004058911
143	0x3bacd1ff	0.005274057
144	0x3df1b943	0.11802914
145	0xbbd961a4	-0.006633954
146	0xba0bfdbc	-0.00053402386
147	0x3da63f25	0.081175126
148	0x3d7e93e8	0.062152773
149	0x3d2a9767	0.041648295
150	0xbcf4c25b	-0.029877832
151	0xbcafa7a3	-0.02144224
152	0x3dc25818	0.09489459
153	0xbd228b99	-0.039683912
154	0x3ddc3001	0.107513435
155	0x3da258db	0.07927104
156	0xbd2ea2f2	-0.042635866
157	0xbd2b64a0	-0.04184401
158	0xbda5f3d8	-0.0810315
159	0xbb04b8dc	-0.0020251786
160	0x3e26e517	0.16298328
161	0x3c585d30	0.013205811
162	0xbc256778	-0.01009547
163	0xbd14ab18	-0.03629598
164	0x3d6e2301	0.05813885
165	0x3dd53d9a	0.1041214
166	0x3e5f54e6	0.2180973
167	0x3b8ef2d5	0.004362444
168	0x3dcd2454	0.10016695
169	0xbe0bc9bc	-0.13651174
170	0xbce538f5	-0.02798126
171	0xbcea5b9e	-0.02860814
172	0xbab7ae7b	-0.0014013791
173	0x3cad0046	0.021118294
174	0xbd20bb8b	-0.039241355
175	0xbb636484	-0.0034697363
176	0xbc9b68cc	-0.01897087
177	0x3d4906f3	0.049078893
178	0xbd060e45	-0.032728452
179	0x3be15cff	0.006877541
180	0xbc3aee47	-0.011409349
181	0x3db5864e	0.08863507
182	0x3e046ed3	0.12932901
183	0x3e024eb8	0.12725341
184	0x3da89a2d	0.08232532
185	0x3d3f4260	0.04669416
186	0x3dcf28a5	0.10115174
187	0x3e37e715	0.17959245
188	0xbc2ddbba	-0.010611469
189	0xbc59fbf9	-0.013304704
190	0x3da3364d	0.079693414
191	0xbd0adc2d	-0.033901382
192	0x3d463d9b	0.048398595
193	0xbec8baed	-0.39205113
194	0x3dba2537	0.090891294
195	0xbdb67ee9	-0.08910925
196	0xbdde46bd	-0.10853336
197	0xbe16f6ac	-0.14742535
198	0xbda8b3f6	-0.0823745
199	0xbde447ed	-0.11146531
200	0xbde13c4a	-0.10997827
201	0xbe0283f6	-0.12745652
202	0xbe4ee702	-0.2020531
203	0x3b6ee505	0.0036452424
204	0xbec1caf8	-0.37850165
205	0xbdb29425	-0.087196626
206	0xbdce712b	-0.10080179
207	0xbd90ac14	-0.07064071
208	0xbd85ca95	-0.0653278
209	0xbe4f8b7b	-0.20268051
210	0xbdc5e5ee	-0.09662996
211	0x3e0de983	0.13858609
212	0xbed4214a	-0.41431648
213	0xbdd4e1bc	-0.10394618
214	0xbe85dc5d	-0.26144686
215	0xbe0e1cb6	-0.1387814
216	0xbe010014	-0.12597686
217	0xbd0ee77f	-0.03488874
218	0xbeb33b43	-0.3500615
219	0x3d8eebf6	0.069786
220	0xbacc9339	-0.0015607841
221	0xbdf255cb	-0.1183277
222	0xbda7297c	-0.081622094
223	0xbde9d6ec	-0.11417946
224	0xbd82d5fe	-0.06388472
225	0xbddce09f	-0.107850306
226	0xbdd9c913	-0.10634055
227	0xbdac8da6	-0.08425455
228	0xbe02e7f1	-0.12783791
229	0xbd2faa84	-0.042887226
230	0xbdbd5b85	-0.092459716
231	0xbe350f5d	-0.17681642
232	0xbdb3612d	-0.08758769
233	0xbeb13e3f	-0.34617803
234	0xbe3793f3	-0.17927532
235	0xbde5a72e	-0.112135276
236	0xbde2c8e1	-0.11073471
237	0xbeace6ff	-0.33769986
238	0xbdec0bfe	-0.11525725
239	0xbed6b864	-0.41937554
240	0xbec61bdb	-0.38693127
241	0xbe0a0142	-0.13477042
242	0xbe1aebfc	-0.15129083
243	0xbe25e438	-0.1620034
244	0xbde1cf0a	-0.11025818
245	0xbe90f9b8	-0.2831552
246	0xbe17a697	-0.14809643
247	0xbdde8001	-0.108642586
248	0xbcecbb0e	-0.028897788
249	0xbd9f4aa3	-0.07777908
250	0xbc5e63c9	-0.013573595
251	0x3dd15b05	0.10222439
252	0xbe1a3364	-0.15058666
253	0xbe529d1e	-0.20567748
254	0x3d2de92f	0.04245871
255	0xbdfc3407	-0.12314611

encoder.dcrnn_cells.0.gate.bias_pool f4 [2, 128]
0	0x3e950ff7	0.29113743
1	0x3dabf915	0.08397118
2	0xbd7d90e3	-0.061905753
3	0xbdd04ce7	-0.10170918
4	0xbd9c649a	-0.07636376
5	0x3d1a43a2	0.037662156
6	0x3dc11338	0.09427494
7	0x3d946ad5	0.07246939
8	0x3ce6eb51	0.02818838
9	0xbd18d759	-0.037314747
10	0x3e44da73	0.19223957
11	0x3e87cf57	0.26525375
12	0x3e98b3e8	0.29824758
13	0xbba0b5f5	-0.0049045035
14	0x3df1b0de	0.11801313
15	0x3e8261ab	0.2546514
16	0x3d848d3c	0.06472251
17	0xbd528157	-0.05139288
18	0x3e81ac96	0.25326985
19	0xbd0f11b3	-0.03492899
20	0x3e93854a	0.2881263
21	0x3d828d45	0.06374601
22	0x3df30ac8	0.11867291
23	0xbd61143e	-0.054950945
24	0x3e8cedff	0.27525327
25	0x3ad30d79	0.0016102038
26	0x3e5f7919	0.21823539
27	0xbd49c12e	-0.049256496
28	0x3d92a515	0.07160393
29	0xbe0f372d	-0.13985892
30	0x3d64289b	0.055702787
31	0xbdd3f818	-0.103500545
32	0x3a029d7e	0.00049825746
33	0x3d250ed1	0.040297333
34	0x3cb537d3	0.022121346
35	0x3e08170b	0.1329004
36	0x3e5988f3	0.21243648
37	0x3d5a27b9	0.05326054
38	0x3d918e0f	0.07107174
39	0xbd8dc239	-0.06921811
40	0xbdf6e909	-0.12056167
41	0x3e02ef18	0.1278652
42	0xbd960fa1	-0.073272
43	0x3e769d9b	0.24083559
44	0xbc9f30cf	-0.019432453
45	0x3c780343	0.015137496
46	0x3eaade3c	0.33372676
47	0x3e60a733	0.21938781
48	0x3e64c6ef	0.22341512
49	0xbd5f4798	-0.054511636
50	0xbe0ad032	-0.13555983
51	0xbdc2ade5	-0.09505824
52	0xbd9dc0bf	-0.07702779
53	0x3e66aeea	0.22527662
54	0x3e6264b1	0.22108723
55	0x3e299e8e	0.1656439
56	0xbdfd8f7d	-0.12380884
57	0xbd692ee5	-0.056929488
58	0x3e8ccfda	0.27502328
59	0x3d8ebb7b	0.06969353
60	0x3e04429f	0.12916039
61	0xbd859ee3	-0.06524446
62	0xbcdcf35f	-0.026971517
63	0x3e77abe3	0.24186663
64	0xbe882e16	-0.2659766
65	0xbe23464c	-0.15944785
66	0xbed93e48	-0.4243033
67	0xbdb954ed	-0.090494014
68	0x3d08b953	0.033379864
69	0x3e021920	0.12704897
70	0x3e9d7a69	0.30757454
71	0xbdc3ea95	-0.09566227
72	0x3eb017e0	0.34393215
73	0x3e13bdb8	0.1442784
74	0xbd5a8e43	-0.053358328
75	0xbef5d205	-0.48011795
76	0xbd9a6800	-0.07539368
77	0x3ea21f43	0.31664476
78	0x3e42c409	0.19020094
79	0xbd87f52e	-0.06638561
80	0xbec6f591	-0.38859227
81	0x3cc8d09f	0.02451354
82	0x3e1d6a22	0.15372518
83	0xbf07d3d5	-0.53057605
84	0xbe5f92d1	-0.2183335
85	0xbdc921bd	-0.09820888
86	0x3e147231	0.14496686
87	0xbda579a8	-0.08079845
88	0xbe5c99aa	-0.21542993
89	0x3e2dedb9	0.16985215
90	0x3e8845f8	0.26615882
91	0xbee2a5c0	-0.44267082
92	0x3d98ebe0	0.074668646
93	0x3e854aba	0.26033574
94	0xbe3c2c5f	-0.18376301
95	0xbd9bf1cb	-0.07614478
96	0xbedcf040	-0.43152046
97	0x3e416b71	0.18888642
98	0x3e01b15f	0.12665318
99	0xbd9750fa	-0.07388492
100	0x3e21f0f9	0.1581458
101	0xbe40141a	-0.18757668
102	0x3dec88a3	0.11549499
103	0xbd687c80	-0.056759357
104	0xbec94f16	-0.3931815
105	0x3d8a6304	0.06757167
106	0x3e2dca97	0.16971813
107	0x3e56da74	0.20981771
108	0x3db04651	0.08607162
109	0xbe7bb6b5	-0.24581416
110	0xbcb74ba9	-0.022374945
111	0xbcba2055	-0.022720495
112	0xbe26aea1	-0.16277553
113	0xbd36f876	-0.044670545
114	0x3e379232	0.17926863
115	0x3e626c39	0.22111596
116	0xbb7c4a96	-0.0038496605
117	0xbeadd29a	-0.3394974
118	0xbebc2d81	-0.36753467
119	0xbed2f404	-0.41201794
120	0x3dc9d082	0.09854223
121	0xbd9541de	-0.07287954
122	0xbec6689a	-0.3875168
123	0x3e65351c	0.22383541
124	0x3e18edce	0.14934465
125	0x3e8c0e55	0.27354684
126	0xbeb003e8	-0.3437798
127	0xbae03bc8	-0.001710766
128	0x3e8e4a21	0.2779093
129	0xbe81e715	-0.25371614
130	0x3dd4d609	0.103923865
131	0x3dd59a55	0.10429827
132	0xbdd28a9c	-0.10280344
133	0x3e02dbff	0.12779234
134	0x3dee2dab	0.11629804
135	0xbd622790	-0.05521351
136	0xbb23a551	-0.0024970362
137	0xbcfe20a5	-0.031021426
138	0x3e8cb730	0.2748351
139	0x3e20e9a6	0.1571413
140	0xbe34f1dc	-0.17670387
141	0x3e1b5ea3	0.1517282
142	0x3dcb97d5	0.09941069
143	0x3e8f1d05	0.27951828
144	0x3e960f9c	0.29308784
145	0x3e85e4a6	0.26151007
146	0x3de414b4	0.11136761
147	0x3e812c1e	0.2522897
148	0xbe96fccd	-0.29489747
149	0x3e129823	0.14315848
150	0x3e2ca358	0.16859186
151	0x3d765431	0.060138885
152	0x3dd4d6b6	0.10392515
153	0x3e596502	0.21229938
154	0x3e209cae	0.15684769
155	0xbe21e173	-0.15808658
156	0xbd27166e	-0.040792875
157	0xbddf6c07	-0.109092765
158	0xbc48a325	-0.012245928
159	0xbc8247b3	-0.01590333
160	0x3dbffa8e	0.093739614
161	0x3d9d69b1	0.07686175
162	0x3dbea5c3	0.0930896
163	0x3d5ab882	0.053398617
164	0x3e991d9a	0.29905397
165	0x3d4dcf02	0.050246246
166	0x3e40c77d	0.18826099
167	0x3e00c212	0.12574032
168	0x3ed027d2	0.4065538
169	0xbe11cc64	-0.14238125
170	0x3e420e5a	0.18950787
171	0xbda3ece1	-0.080041654
172	0xbd81232c	-0.06305537
173	0xbde43de9	-0.11144621
174	0x3e988f6a	0.29796916
175	0x3e556e0b	0.2084276
176	0x3de457ee	0.11149584
177	0x3e9eec6e	0.31039757
178	0x3c3fa3aa	0.011696735
179	0xbe1264a5	-0.14296205
180	0x3e25fe0e	0.16210195
181	0x3eb23ee9	0.34813622
182	0x3ee3d495	0.44498125
183	0x3ddbac65	0.10726241
184	0x3d3d8d79	0.046277497
185	0x3d6d9432	0.05800266
186	0xbcc993fa	-0.024606694
187	0x3d0d2ff3	0.034469556
188	0x3e430980	0.19046593
189	0x3e290557	0.16505943
190	0x3dc1e480	0.09467411
191	0x3ec007f6	0.37506074
192	0x3d8f7b7a	0.07005973
193	0x3ea0baf7	0.31392643
194	0xbb2bfe88	-0.0026244242
195	0x3db95277	0.09048932
196	0xbcd0a82a	-0.025470812
197	0xbdb14ed9	-0.08657617
198	0xbd50dda4	-0.050992623
199	0xbc300c84	-0.010745171
200	0xbda48939	-0.08033986
201	0xbdf17d6a	-0.11791499
202	0xbe704a03	-0.23465733
203	0xbc389542	-0.011266055
204	0xbe0290fe	-0.12750623
205	0x3e7c7842	0.2465525
206	0x3da5e4a4	0.0810025
207	0x3e177d37	0.1479386
208	0xbe906a72	-0.2820621
209	0xbe6aebad	-0.22941466
210	0x3e96adaa	0.2942937
211	0xbdd4bbea	-0.10387404
212	0xbb8fbd58	-0.004386585
213	0xbd3bcedc	-0.045851573
214	0x3d9fe45b	0.07807227
215	0x3e67caf6	0.22636017
216	0xbdd1164e	-0.102093324
217	0x3ca2842d	0.019838417
218	0xbe03d70e	-0.12875006
219	0xbdfcc40f	-0.12342083
220	0x3c1799d4	0.009252984
221	0x3e803477	0.25040027
222	0x3e6af155	0.22943623
223	0xbdd0c901	-0.101945885
224	0x3d911dd6	0.07085769
225	0x3d81770f	0.06321537
226	0x3e1f9226	0.15583095
227	0x3e9ad7e7	0.30242845
228	0x3e828ac2	0.2549649
229	0x3dc0336b	0.09384807
230	0xbe3faea7	-0.18718968
231	0x3e56c27d	0.20972629
232	0xbb7c06ab	-0.0038456123
233	0x3e47426f	0.19458936
234	0x3e42a1c1	0.19007017
235	0xbd06eef7	-0.03294274
236	0x3e88aa54	0.2669245
237	0x3ea16ad3	0.31526813
238	0x3e6e2e70	0.23259902
239	0xbd4d07ca	-0.050056256
240	0xbd1e8f0a	-0.03871063
241	0x3e150bee	0.14555332
242	0x3dfa3121	0.12216402
243	0x3e0bf912	0.13669232
244	0x3e31e69a	0.17373124
245	0xbe8fdfe5	-0.28100505
246	0xbcfe0f09	-0.031013029
247	0x3db5351d	0.08848021
248	0xbdc3babc	-0.09557101
249	0xbd16d227	-0.03682151
250	0xbe407175	-0.1879328
251	0x3e60c2cd	0.2194931
252	0x3e58e4f2	0.21181086
253	0x3c492c46	0.012278622
254	0xbe027649	-0.12740435
255	0x3af5f5ab	0.0018765231

encoder.dcrnn_cells.0.update.weights_pool f4 [2, 2, 65, 64]
0	0x3ea8e6c3	0.32988557
1	0x3e9252a3	0.28578672
2	0x3eb5166a	0.35368663
3	0xbd985939	-0.07438893
4	0x3ccc618c	0.024948858
5	0x3dc6db09	0.097097464
6	0xbcf6c211	-0.030121835
7	0xbd84c1a9	-0.0648225
8	0xbc57710e	-0.013149513
9	0xbda0a0b5	-0.078431524
10	0xbd48ec0a	-0.04905323
11	0xbebca1ae	-0.36842102
12	0xbf0b5855	-0.5443166
13	0x3d4914ec	0.04909222
14	0xbd9625b5	-0.07331411
15	0x3d8cac48	0.068687975
16	0x3eeb3ca3	0.459447
17	0xbea21c33	-0.3166214
18	0xbdb4f1a1	-0.088351496
19	0x3eb09a40	0.34492683
20	0xbe604447	-0.21901046
21	0xbd8ef684	-0.06980613
22	0x3e9acf85	0.3023645
23	0x3d38d615	0.04512604
24	0xbed537dd	-0.41644183
25	0xbd8db336	-0.069189474
26	0xbe6cfa43	-0.23142342
27	0xbeabfae1	-0.33589843
28	0x3d94a5d7	0.07258194
29	0xbcab8c93	-0.020941054
30	0xbd7d624a	-0.061861314
31	0x3d73ddb4	0.059537604
32	0x3eaf2ce6	0.34213942
33	0xbd482029	-0.048858795
34	0xbd9e1621	-0.077190645
35	0xbd802af9	-0.062581964
36	0x3db61ef3	0.08892622
37	0xbee770e1	-0.45203307
38	0x3e075869	0.1321732
39	0xbd4a28ba	-0.049355246
40	0xbece0cc4	-0.40244114
41	0x3d1f1701	0.038840298
42	0x3ea5d804	0.3239137
43	0xbd95e23c	-0.073185414
44	0xbd5840e2	-0.052796252
45	0xbed084fc	-0.4072646
46	0x3db96f70	0.09054458
47	0x3f9a96e6	1.20773
48	0x3e752765	0.23940809
49	0x3d83f380	0.06442928
50	0xbdadd6f3	-0.08488264
51	0xbd61cb7b	-0.055125695
52	0xbda302a3	-0.07959487
53	0x3f0e16ef	0.55503744
54	0xbfac430a	-1.3457959
55	0xbee7bc4c	-0.45260847
56	0x3ebe54b2	0.37173992
57	0x3e336091	0.17517306
58	0x3f5a3f74	0.8525307
59	0x3bcee405	0.006313803
60	0x3d8ab033	0.067718886
61	0x3ec16cd2	0.37778336
62	0x3eb9dd9a	0.3630188
63	0x3da74364	0.081671506
64	0x3e84a987	0.2591059
65	0x3dea2e02	0.114345565
66	0x3e962b50	0.2932992
67	0xbe350923	-0.17679267
68	0x3dff26df	0.12458586
69	0x3e229ba5	0.15879686
70	0xbe196de8	-0.14983332
71	0xbe241c28	-0.16026366
72	0x3df825f6	0.121166155
73	0xbe2eab2c	-0.17057484
74	0xbe15e1a2	-0.14636853
75	0xbe3d289a	-0.1847252
76	0x3d40539b	0.046954732
77	0xbdec2c88	-0.11531931
78	0xbe25ce6c	-0.16192025
79	0x3e15b968	0.14621508
80	0x3e562b2c	0.20914906
81	0x3c2221e1	0.009895773
82	0xbe348fb9	-0.17632951
83	0x3e962c28	0.29330564
84	0x3d51ee65	0.05125274
85	0xbe2ed5d8	-0.17073762
86	0xbe0dd8cd	-0.13852234
87	0x3e2bb310	0.16767526
88	0xbe56125b	-0.2090544
89	0xbe3ba9a6	-0.18326434
90	0x3c81dec7	0.015853299
91	0xbeb0d98e	-0.3454098
92	0x3e3665e8	0.17812312
93	0xbe08c063	-0.1335464
94	0xbe2f05df	-0.17092083
95	0x3e3347b9	0.17507829
96	0x3e426fca	0.18987957
97	0xbe101f2a	-0.14074388
98	0xbe277fe4	-0.1635738
99	0xbe43674c	-0.19082373
100	0x3e4193c3	0.18904023
101	0xbe42ed6c	-0.19035882
102	0x3e21e3f1	0.15809609
103	0xbe2a6759	-0.16640987
104	0xbe6a8e71	-0.229059
105	0xbe03690b	-0.1283304
106	0x3d0b3662	0.03398741
107	0xbe2498e5	-0.1607395
108	0xbe1a1de2	-0.15050462
109	0xbd053e0f	-0.032529887
110	0x3e27dcc7	0.16392814
111	0x3e494518	0.19655263
112	0xbd46a6f7	-0.048499074
113	0x3e7a6e9b	0.24456255
114	0xbe4862b2	-0.195689
115	0xbe2a68ee	-0.1664159
116	0xbe253319	-0.16132773
117	0x3e0a3f72	0.13500765
118	0xbdb7109a	-0.08938713
119	0xbe3a025f	-0.18164967
120	0x3e51abab	0.20475642
121	0x3e45f1a7	0.19330464
122	0x3e05c221	0.13062336
123	0x3e58a7ca	0.21157756
124	0x3e04fb24	0.12986428
125	0x3c54bf8b	0.0129851205
126	0x3e723100	0.23651505
127	0x3e4e7942	0.20163444
128	0x3e79a0aa	0.24377695
129	0x3f973bfc	1.1815181
130	0x3e82f117	0.25574562
131	0xbe1318ac	-0.1436488
132	0x3e1a5bc0	0.15074062
133	0x3e14a3d3	0.14515619
134	0xbe3d9fb6	-0.18517956
135	0xbe363206	-0.1779252
136	0x3e1a81e5	0.15088613
137	0xbe11f5aa	-0.1425387
138	0xbe43e892	-0.19131687
139	0xbd760504	-0.060063377
140	0x3ee00626	0.4375469
141	0xbe3d3ce8	-0.18480265
142	0xbe3a8afc	-0.18217081
143	0x3e27870a	0.16360107
144	0x3e8dc817	0.2769172
145	0xbe6be43e	-0.23036286
146	0xbe21cb52	-0.15800217
147	0x3e8eba3d	0.27876464
148	0xbdec9aa8	-0.11552936
149	0xbe303247	-0.1720668
150	0x3e9d1ffe	0.3068847
151	0x3e165f90	0.14684892
152	0xbe93c904	-0.288643
153	0xbe5227b1	-0.20522954
154	0xbe72cbf7	-0.23710619
155	0xbe67f4fb	-0.22652046
156	0x3e62af8a	0.22137275
157	0xbe23f9f6	-0.16013321
158	0xbe106022	-0.14099172
159	0x3e345308	0.17609799
160	0x3e369856	0.17831549
161	0xbe26c663	-0.16286616
162	0xbe34bd4b	-0.17650335
163	0xbe3ddb08	-0.18540585
164	0x3e53a573	0.20668583
165	0xbe073055	-0.13202031
166	0x3e31e141	0.17371084
167	0xbe259d90	-0.16173387
168	0xbe90b357	-0.28261825
169	0x3ec06468	0.37576604
170	0x3e73c720	0.23806429
171	0xbe25c2da	-0.16187611
172	0xbe29b1a7	-0.16571675
173	0xbe2e1185	-0.1699887
174	0x3e23c391	0.15992571
175	0xb98033b1	-0.00024452576
176	0x3e3983b3	0.18116646
177	0x3e48c652	0.19606903
178	0xbe2a1a8d	-0.16611691
179	0xbe123aff	-0.14280318
180	0xbe44d243	-0.19220833
181	0x3e116d09	0.1420175
182	0xbe5d1819	-0.21591224
183	0xbebe4184	-0.3715936
184	0xbddcb84f	-0.107773416
185	0x3ca32411	0.019914659
186	0x3d23039d	0.039798368
187	0xbd75469b	-0.059881788
188	0x3e316e27	0.17327176
189	0x3e5fd11f	0.21857117
190	0x3e864817	0.26226875
191	0x3e409f6a	0.18810812
192	0x3e622701	0.22085191
193	0x3ddadc92	0.10686602
194	0x3e85cee1	0.261344
195	0xbe00b886	-0.1257039
196	0x3de9d6b5	0.11417905
197	0x3e11d135	0.14239962
198	0xbe07b025	-0.13250788
199	0xbdf538c3	-0.11973717
200	0x3dc6b976	0.097033426
201	0xbe0a1792	-0.13485554
202	0xbe015a23	-0.1263204
203	0xbe58b712	-0.21163586
204	0x3c8d8a37	0.01727782
205	0xbdd32a0d	-0.10310755
206	0xbe1edb81	-0.15513422
207	0x3e10f1c0	0.1415472
208	0x3e4e7aba	0.20164004
209	0x3d5f1784	0.054465786
210	0xbe061911	-0.130955
211	0x3e88b943	0.26703843
212	0x3dc3e1f5	0.09564582
213	0xbe21dcbb	-0.15806858
214	0xbe3e6743	-0.18594079
215	0x3e0d870a	0.13821045
216	0xbe3f95be	-0.18709466
217	0xbe09d19b	-0.13458864
218	0x3d304b0d	0.043040324
219	0xbea0c495	-0.3139998
220	0x3e1c27b7	0.15249525
221	0xbe0dc6ec	-0.13845414
222	0xbe0ff9d4	-0.14060146
223	0x3dfa3126	0.122164056
224	0x3e5b7744	0.21432215
225	0xbe108ddf	-0.1411662
226	0xbe1db484	-0.15400892
227	0xbe24d7e2	-0.16097978
228	0x3e45e098	0.19323957
229	0xbe265567	-0.16243516
230	0x3e2243a0	0.1584611
231	0xbe0e7d06	-0.1391488
232	0xbe6083ba	-0.2192525
233	0xbdfd0044	-0.12353566
234	0xbd0ae887	-0.03391316
235	0xbe11629a	-0.1419777
236	0xbe15903b	-0.14605801
237	0xbb82089a	-0.0039683105
238	0x3e218829	0.15774597
239	0x3dae0517	0.084970646
240	0xbd980bcf	-0.07424127
241	0x3e663e5f	0.2248473
242	0xbe35a9e9	-0.17740597
243	0xbe14ffbe	-0.14550683
244	0xbe0e8a55	-0.13919957
245	0x3e27e6df	0.16396664
246	0xbe0f649d	-0.14003225
247	0xbe0c81af	-0.13721345
248	0x3e516790	0.20449662
249	0x3e19a4f1	0.15004326
250	0x3de17c27	0.11010008
251	0x3e5067ec	0.20352143
252	0x3de32146	0.11090331
253	0xbd234927	-0.039864685
254	0x3e6a0ef7	0.22857271
255	0x3e3c96d1	0.18416907

encoder.dcrnn_cells.0.update.bias_pool f4 [2, 64]
0	0x3edaa3dc	0.4270314
1	0x3f24c80b	0.6436774
2	0x3f0567b2	0.5211135
3	0xbf17975c	-0.5921533
4	0x3f31c9f7	0.694488
5	0x3f0bace8	0.5456071
6	0xbf1b55b4	-0.6067765
7	0xbefff0c7	-0.49988386
8	0x3f380d0f	0.71894926
9	0xbef0cc72	-0.4703098
10	0xbe94c7ec	-0.29058778
11	0xbed40158	-0.41407275
12	0xbf0bc0e7	-0.5459122
13	0xbf0e46a2	-0.5557653
14	0xbf0a0ea6	-0.539286
15	0x3ec3be2b	0.38231024
16	0x3f0b65d6	0.54452264
17	0x3d4f7099	0.05064449
18	0xbec2eccd	-0.3807129
19	0x3f094441	0.5361977
20	0xbf0fd49f	-0.5618381
21	0xbedbf807	-0.42962667
22	0xbd9bdfd9	-0.07611055
23	0x3ee6a1c1	0.45045283
24	0xbeeb7feb	-0.4599603
25	0xbebd89b7	-0.3701913
26	0xbddfc034	-0.10925332
27	0xbef43767	-0.4769852
28	0x3edeb25c	0.43495452
29	0xbf32306f	-0.69605154
30	0xbecafbe2	-0.39645296
31	0x3edf13b0	0.43569708
32	0x3eb7e885	0.35919586
33	0xbf0b340c	-0.5437629
34	0xbf184dad	-0.59493524
35	0xbecec076	-0.4038121
36	0x3eaf4d6b	0.34238753
37	0xbeeb5f96	-0.45971364
38	0x3ea2a37b	0.3176535
39	0xbf1bcc32	-0.6085845
40	0xbf156bbc	-0.58367515
41	0x3f27278e	0.6529473
42	0xbd3c81ff	-0.04602241
43	0xbed6b5a2	-0.4193545
44	0xbf1d56a7	-0.61460346
45	0xbf08aa71	-0.5338507
46	0x3eaf145e	0.34195226
47	0xbc377b9b	-0.011198903
48	0x3c9661d5	0.018357197
49	0x3edf4623	0.43608198
50	0xbf125a77	-0.5716929
51	0xbf25d1f1	-0.6477347
52	0xbefd74e4	-0.49503243
53	0x3eafba1a	0.34321672
54	0xbed164df	-0.4089727
55	0xbebf484f	-0.37359855
56	0xbdd5df91	-0.104430325
57	0x3e872c8a	0.26401168
58	0x3e4d68c2	0.20059493
59	0x3efa97c9	0.48943928
60	0x3f09cb09	0.5382543
61	0xbbd0c65c	-0.0063713025
62	0x3f0f57ff	0.55993646
63	0x3ee02c1a	0.43783647
64	0xbdb119b5	-0.08647481
65	0x3db6ad2f	0.08919751
66	0xbe002231	-0.12513043
67	0xbeb80766	-0.35943145
68	0x3eb6493a	0.35602742
69	0x3e81f6f6	0.2538373
70	0xbed95a77	-0.42451832
71	0xbefcb8d2	-0.49359757
72	0x3eef545f	0.46744058
73	0xbe989704	-0.29802716
74	0xbecbedea	-0.39829952
75	0x3cf4411c	0.029816203
76	0xbde4c77d	-0.11170862
77	0xbf02a2a3	-0.51029414
78	0xbf0012d9	-0.5002876
79	0x3ee5e9f7	0.44905064
80	0xbea5079a	-0.32232362
81	0x3eb2623d	0.34840575
82	0xbefe1c39	-0.49630907
83	0xbe282cdf	-0.16423367
84	0xbdf56ac7	-0.11983257
85	0xbec77251	-0.38954404
86	0xbeb086e5	-0.34477916
87	0x3ecb3999	0.3969238
88	0x3e3ee56c	0.18642205
89	0xbeef0a75	-0.46687666
90	0x3ef93555	0.48673502
91	0x3dba705f	0.09103464
92	0x3eea583f	0.4577045
93	0xbefbaaa4	-0.49153626
94	0xbe72dc9d	-0.2371697
95	0x3ec827dd	0.39092913
96	0x3d54091c	0.0517665
97	0xbed878f7	-0.4227979
98	0xbed14c3b	-0.40878472
99	0xbebb86dd	-0.3662633
100	0x3e61d99a	0.22055665
101	0x3e9f9fb9	0.31176546
102	0x3e4aad18	0.19792593
103	0xbea74fab	-0.3267797
104	0x3ea83c73	0.3285862
105	0x3e4ba2d8	0.19886339
106	0xbe9b88db	-0.3037785
107	0xbed869e1	-0.4226828
108	0xbf0791b1	-0.5295668
109	0xbe2007bd	-0.15627952
110	0x3ea067a7	0.3132908
111	0xbecccf37	-0.40001842
112	0xbecff13c	-0.40613735
113	0x3e86a078	0.26294303
114	0xbe95b1a5	-0.29237095
115	0xbef12546	-0.4709875
116	0xbf0070a0	-0.5017185
117	0xbd04f2f4	-0.03245826
118	0x3eb34574	0.35013926
119	0x3e18ba3c	0.14914793
120	0x3eed1a1d	0.46308985
121	0x3ecf03f1	0.40432695
122	0xbe247cb5	-0.16063197
123	0x3e738e10	0.23784661
124	0x3ebe5b2c	0.37178934
125	0xbed4cd8c	-0.4156307
126	0xbe6f01ca	-0.23340526
127	0x3e7e2a77	0.24820887

encoder.dcrnn_cells.1.gate.weights_pool f4 [2, 2, 128, 128]
0	0xbf07c4a3	-0.5303442
1	0x3c2bd723	0.010488304
2	0x3b9d3287	0.004797283
3	0xbe388c60	-0.18022299
4	0x3e030e88	0.12798512
5	0xbe10cc9e	-0.14140555
6	0x3e126297	0.14295422
7	0xbeb7b5d5	-0.35880914
8	0xbf20beb9	-0.6279102
9	0xbe6a5d1e	-0.22887084
10	0xbf23c533	-0.6397278
11	0x3d77116a	0.06031934
12	0xbc7b83aa	-0.015351215
13	0x3eee226b	0.46510634
14	0xbeb3a56d	-0.35087147
15	0xbeac2ef3	-0.3362957
16	0xbe2b5268	-0.16730654
17	0xbe4c1f5e	-0.1993384
18	0x3de71fed	0.11285386
19	0xbf287166	-0.6579803
20	0xbf164055	-0.5869191
21	0xbf231cb3	-0.63715667
22	0xbeaf91d8	-0.34290957
23	0xbe90ad48	-0.28257203
24	0xbec0e734	-0.37676394
25	0xbecc3dcf	-0.39890906
26	0x3d9f9537	0.07792132
27	0xbf088c14	-0.5333874
28	0xbde0b699	-0.10972328
29	0xbf3f146b	-0.7464053
30	0x3b88fc10	0.004180439
31	0x3f2a1d79	0.6645122
32	0xbf014608	-0.50497484
33	0xbdbcc9e4	-0.09218195
34	0x3e4e4b21	0.20145847
35	0xbe25f9b1	-0.16208531
36	0x3ca3a8b6	0.019977909
37	0x3e3af6fe	0.18258283
38	0xbdb90990	-0.09035027
39	0xbe1dd3a0	-0.1541276
40	0xbf053e83	-0.5204851
41	0xbeefd840	-0.46844673
42	0xbf2dc916	-0.6788496
43	0xbf61db3f	-0.8822517
44	0x3e5e9b28	0.21738875
45	0xbf2dd4ce	-0.6790284
46	0x3e63c9cb	0.22244947
47	0x3cf97cf2	0.030455086
48	0xbeeca453	-0.4621912
49	0x3e7a1f06	0.24425897
50	0xbda71909	-0.08159072
51	0xbe879c3d	-0.26486388
52	0xbecc0b91	-0.39852574
53	0xbeddd1aa	-0.43324023
54	0xbec1062e	-0.37700027
55	0xbdb765b7	-0.089549474
56	0xbe9a518a	-0.30140334
57	0x3c3b4875	0.011430849
58	0x3ef4fc96	0.47848958
59	0xbf0b55d2	-0.54427826
60	0xbdd89d26	-0.10576849
61	0x3eae2caf	0.34018466
62	0xbe68bbae	-0.22727844
63	0x3ec2e0bb	0.3806208
64	0x3d5a34c3	0.053272974
65	0xbe5fae3c	-0.21843809
66	0x3e4797dc	0.19491524
67	0xbeb1c0c9	-0.34717396
68	0xbd9e39f7	-0.077259
69	0x3c4aa188	0.012367614
70	0xbe0c2f9a	-0.13690034
71	0x3ec3d1b6	0.38245934
72	0xbeae0ad7	-0.33992645
73	0xbe7ecbad	-0.24882384
74	0x3de313e6	0.1108778
75	0xbef766b9	-0.4832056
76	0x3d5c861c	0.053838834
77	0xbefa7262	-0.48915392
78	0x3f0d18dd	0.55116063
79	0xbd89629d	-0.06708262
80	0xbf3401ca	-0.7031523
81	0xbf2e0f8d	-0.6799248
82	0xbe2a3b27	-0.16624127
83	0xbeacf40c	-0.33779943
84	0x3ebe3c47	0.37155363
85	0xbf0ab582	-0.5418321
86	0xbf46b75b	-0.7762353
87	0x3e3c9b01	0.18418504
88	0xbed60951	-0.41803983
89	0xbef0ac69	-0.4700654
90	0xbe89d8ab	-0.26923117
91	0xbe564738	-0.20925605
92	0xbef87fa3	-0.4853488
93	0x3e79c069	0.24389805
94	0xbd7835d0	-0.060598195
95	0xbeab9dbf	-0.33518788
96	0xbe866ccf	-0.2625489
97	0x3e2da246	0.16956434
98	0xbf4da132	-0.8032409
99	0xbe65ef48	-0.2245456
100	0x3f31d15c	0.6946008
101	0xbeda4f67	-0.42638704
102	0x3c987a10	0.018612891
103	0x3ebd339d	0.3695344
104	0x3e2bc4a8	0.16774237
105	0xbda4bb34	-0.08043519
106	0x3edc1e70	0.42991972
107	0xbe8c12bc	-0.27358043
108	0xbe80760b	-0.2509006
109	0x3ea1e635	0.31620947
110	0x3ed76686	0.42070407
111	0xbe96f736	-0.29485482
112	0xbdb9636e	-0.09052168
113	0x3ed318b5	0.41229787
114	0x3f22bbb5	0.6356767
115	0xbf15a442	-0.5845376
116	0x3d69f1f4	0.05711551
117	0x3d310dc5	0.043226022
118	0xbf3d7ab1	-0.7401534
119	0x3ea34d1c	0.31894767
120	0x3d8764cc	0.06611022
121	0x3d94be6d	0.07262883
122	0xbcc48756	-0.023990314
123	0x3f5f7fb0	0.8730421
124	0xbf802c90	-1.0013599
125	0xbf2706c0	-0.65244675
126	0xbf00706b	-0.50171536
127	0xbe8ca0e2	-0.27466494
128	0x3f370a69	0.7150026
129	0xbfb9a9a0	-1.450489
130	0xbf6fbefe	-0.93650806
131	0xbe80c85d	-0.25152865
132	0x3e8e0452	0.2773767
133	0xbf87a826	-1.059819
134	0x3f12184c	0.57068324
135	0x3f299d41	0.66255575
136	0x3e649698	0.22323072
137	0xbe57693c	-0.21036237
138	0xbf73ae62	-0.9518796
139	0xbe8190db	-0.25305828
140	0x3d8f46eb	0.069959484
141	0xbf9eb9df	-1.2400473
142	0x3f04d295	0.5188382
143	0x3efbefdf	0.49206445
144	0xbfbf527c	-1.4947047
145	0xbfadb68f	-1.3571337
146	0xbfa37034	-1.2768617
147	0xbf35e963	-0.71059245
148	0xbc206d31	-0.009791658
149	0xbea24daf	-0.31699893
150	0x3ec640bf	0.38721272
151	0xbfdef74a	-1.7419217
152	0xbfa202e6	-1.2657135
153	0xbf48c99e	-0.78432643
154	0xbfbccf7d	-1.475082
155	0xbf817446	-1.0113609
156	0x3e7e0814	0.24807769
157	0xbdea3d93	-0.114375256
158	0xbf0ee436	-0.5581697
159	0x3f30482e	0.6886014
160	0x3e8d3527	0.27579615
161	0xbec51a8c	-0.38496816
162	0x3e6d8bd9	0.23197879
163	0xbf18eb10	-0.59733677
164	0xbf703c39	-0.9384189
165	0x3d45aef1	0.04826254
166	0x3ecdcfd9	0.40197638
167	0xbda5a067	-0.08087235
168	0xbe9a13cf	-0.30093238
169	0xbf3f67f3	-0.7476799
170	0x3f9d640d	1.2296158
171	0x3e8e8008	0.27832055
172	0x3c3cc019	0.011520409
173	0xbf1556a8	-0.5833535
174	0x3e8d747d	0.27627936
175	0xbe80d150	-0.25159693
176	0x3f1ab28f	0.6042871
177	0xbec7390f	-0.3891072
178	0xbf07d2be	-0.5305594
179	0xbf1d05ba	-0.61336863
180	0x3da331ad	0.07968459
181	0xbf912cbd	-1.1341778
182	0xbf005837	-0.50134605
183	0x3ecad6c3	0.39616975
184	0x3d186c2e	0.037212543
185	0x3e98492f	0.29743335
186	0x3e24e3f8	0.16102588
187	0x3f13081a	0.57434237
188	0xbfa87e26	-1.3163497
189	0xbe265b91	-0.16245867
190	0xbe792477	-0.24330316
191	0xbf2597d9	-0.64684826
192	0xbe9658ef	-0.29364726
193	0x3fa9ce80	1.3266144
194	0x3ea85291	0.32875493
195	0xbf0da55c	-0.55330443
196	0x3e04364b	0.12911336
197	0x3f0cf88a	0.5506674
198	0xbed5e537	-0.4177644
199	0x3e424c17	0.18974338
200	0xbf637953	-0.88857
201	0xbf830ca7	-1.0238236
202	0xbd85c437	-0.06531566
203	0xbfa677f3	-1.3005356
204	0xbdd32ff4	-0.10311881
205	0x3e9957ad	0.29949704
206	0x3ef06ad4	0.46956503
207	0xbf9eb260	-1.2398186
208	0x3ec9c3fc	0.39407337
209	0xbbcffcb3	-0.0063472628
210	0x3e5d44a0	0.2160821
211	0x3ed30a11	0.41218618
212	0xbe23675d	-0.15957399
213	0x3fb0f062	1.3823359
214	0xbf3cbf4c	-0.73729396
215	0x3ec3466d	0.38139668
216	0xbdf2d35d	-0.118567206
217	0xbf260389	-0.64849144
218	0x3ff3cd7f	1.9047087
219	0x3f1464b0	0.57966137
220	0xbe903015	-0.28161684
221	0xbf4d198f	-0.80117124
222	0xbebcd547	-0.36881468
223	0xbf807ab3	-1.0037445
224	0xbee65620	-0.44987583
225	0xbe88cbf4	-0.26718104
226	0xbfc6a47b	-1.5518945
227	0x3ee27cfb	0.44235978
228	0xbfb4c044	-1.4121175
229	0xbf324547	-0.6963696
230	0xbf883efc	-1.0644221
231	0xbf1f92aa	-0.62333167
232	0xbecc7cdb	-0.39939007
233	0xbf88adf8	-1.0678091
234	0x3f02b049	0.5105024
235	0xbf1ed1e5	-0.62039024
236	0xbe082d1c	-0.13298458
237	0x3faab99b	1.3337892
238	0xbf066e61	-0.52512175
239	0xbef90ddf	-0.48643395
240	0x3f472879	0.7779613
241	0xbfdf5e67	-1.7450684
242	0x3e913593	0.28361186
243	0x3d82efcc	0.06393394
244	0xbe95bd74	-0.29246104
245	0x3cab33c7	0.020898713
246	0x3f3e7888	0.74402666
247	0x3e4e1e62	0.20128778
248	0x3eb3a86a	0.35089427
249	0x3e84e573	0.25956306
250	0x3e2207dd	0.15823312
251	0xbf06a0d5	-0.5258916
252	0xbfa50fdd	-1.2895466
253	0x3ea06afa	0.31331617
254	0x3f4593a9	0.77178437
255	0x3d660f41	0.05616689

encoder.dcrnn_cells.1.gate.bias_pool f4 [2, 128]
0	0x3dde9831	0.10868872
1	0x3e809030	0.25110006
2	0xbbc88b2d	-0.0061201067
3	0xbd5ba287	-0.053621795
4	0x3d1c23c0	0.03812003
5	0x3e4dacac	0.200854
6	0xbea0c551	-0.3140054
7	0xbc52e670	-0.012872323
8	0x3e007da9	0.12547936
9	0xbd81f810	-0.06346142
10	0x3e2d49d8	0.169227
11	0x3e255552	0.16145828
12	0x3ee06fa6	0.4383518
13	0x3e772a0b	0.24137132
14	0x3e92878f	0.28619048
15	0x3eb1b35b	0.3470715
16	0x3f04c39b	0.5186097
17	0x3e2537e4	0.16134602
18	0xbd127da8	-0.035764366
19	0x3e2e7621	0.1703725
20	0x3e856705	0.2605516
21	0x3e0dddb5	0.13854106
22	0x3f0c5936	0.54823625
23	0x3e2ed42f	0.17073129
24	0x3d234584	0.039861217
25	0xbbde20c7	-0.0067788097
26	0x3dba385d	0.09092782
27	0xbd6fdabe	-0.05855822
28	0xbd8d33a8	-0.06894618
29	0x3f481a12	0.7816478
30	0xbdbd10f9	-0.09231753
31	0x3e528331	0.20557858
32	0x3ea7f00e	0.32800335
33	0x3e427b7f	0.18992423
34	0x3d1d13d9	0.038349006
35	0x3e45b125	0.19305857
36	0xbcb09d57	-0.0215594
37	0xbde8b958	-0.113634765
38	0x3e41177f	0.1885662
39	0xbe408c8f	-0.18803619
40	0x3e113f9c	0.14184421
41	0xbe1f7f28	-0.1557585
42	0x3e955239	0.29164293
43	0x3cce6936	0.025196653
44	0x3e7cd528	0.24690688
45	0x3e67c39e	0.22633216
46	0x3d6ab2b8	0.057299346
47	0xbe8092c4	-0.25111973
48	0x3e4ee43f	0.20204256
49	0xbdc3f68d	-0.0956851
50	0xbd8a5c58	-0.067558944
51	0x3d803261	0.06259609
52	0x3e18eaec	0.14933366
53	0x3d51e740	0.051245928
54	0x3f07c418	0.5303359
55	0x3efa00f1	0.48828843
56	0xbc3a88dd	-0.01138517
57	0xbd8bfa5c	-0.06834862
58	0x3e3eb756	0.18624625
59	0x3dd180e3	0.10229661
60	0x3ea5d80f	0.32391402
61	0x3e95c6d1	0.29253247
62	0x3e3caa68	0.1842438
63	0xbd913997	-0.070910625
64	0xbf556c97	-0.8336882
65	0x3f91f5ee	1.1403177
66	0xbf11c28d	-0.56937486
67	0xbfad9fcf	-1.3564395
68	0xbd2fdb6d	-0.04293387
69	0x3e0e6a7d	0.1390781
70	0x3fa44b43	1.2835468
71	0xbe9febca	-0.3123458
72	0x3f203b47	0.6259045
73	0x3f79cc28	0.9757714
74	0x3f7f12bb	0.99637955
75	0x3e84d436	0.25943154
76	0xbef756bb	-0.48308358
77	0x3f8e4eb0	1.1117764
78	0x3e13f305	0.14448173
79	0xbdd756dc	-0.10514614
80	0x3f8553d1	1.0416204
81	0x3f9131b5	1.1343294
82	0x3fe214ef	1.7662638
83	0x3f1f73c0	0.62285995
84	0xbdc2e6f4	-0.09516707
85	0x3f444ea1	0.7668248
86	0x3f4c4ffd	0.7980955
87	0x3f6fe98c	0.9371574
88	0xbe5d390a	-0.2160379
89	0x3fa211ed	1.266172
90	0x3f92cc2e	1.1468561
91	0x3e38eee9	0.18059887
92	0x3f9b2fc0	1.2123947
93	0x3de46dbe	0.11153744
94	0x3fe3317b	1.7749475
95	0xbf0cfe1c	-0.5507524
96	0x3f7df983	0.9920885
97	0xbfd4a6e8	-1.6613436
98	0xbf02564d	-0.50912935
99	0xbe3cd6b6	-0.1844128
100	0xbbeee4ad	-0.007290444
101	0xbf0016f0	-0.50035
102	0xbe605bd6	-0.21910033
103	0x3e18dc4d	0.14927788
104	0xbf0d80ed	-0.5527485
105	0x3ef78bd6	0.48348874
106	0xbd43590b	-0.04769234
107	0x3f1f7f27	0.62303394
108	0xbba463f6	-0.005016799
109	0x3f5934bc	0.8484609
110	0x3dc103bb	0.0942454
111	0xbf74c2a4	-0.956095
112	0x3caaefec	0.020866357
113	0xbee2f5f8	-0.44328284
114	0xbfb15156	-1.3852947
115	0x3f95feaa	1.1718342
116	0xbf8440ed	-1.0332314
117	0xbe1983ee	-0.14991733
118	0x3e92f62e	0.28703445
119	0xbf19d5b9	-0.6009174
120	0xbf7df7a8	-0.9920602
121	0xbf45a0e7	-0.7719864
122	0x3e353094	0.17694312
123	0xbfcd403c	-1.6035228
124	0x3e879e5a	0.26488
125	0x3e46b4f8	0.19404972
126	0x40260cb8	2.5945263
127	0xbd34a574	-0.0441031
128	0x3e715eaa	0.23571268
129	0x3e703eb9	0.23461427
130	0x3eb1c368	0.34719396
131	0x3e1320e8	0.14368021
132	0x3e942b9a	0.28939515
133	0xbe09bc52	-0.13450745
134	0x3c9224d0	0.01783982
135	0x3ed99833	0.4249893
136	0xbca7ea18	-0.020497367
137	0xbe425c01	-0.18980409
138	0xbd084702	-0.033270843
139	0x3eb92d6a	0.3616746
140	0x3e0443eb	0.12916534
141	0x3f1974ab	0.59943646
142	0x3e844c1c	0.25839317
143	0xbdbc001c	-0.09179708
144	0x3e35b4c9	0.17744745
145	0x3cb1c9e0	0.021702707
146	0x3dc2df07	0.09515195
147	0x3c2a975d	0.010412064
148	0x3eed4732	0.4634338
149	0x3cf7693d	0.030201549
150	0xbde3130c	-0.11087617
151	0x3d4d723e	0.050157778
152	0xbc9bb2ec	-0.019006215
153	0x3e46efd9	0.19427432
154	0x3e77f10a	0.24213043
155	0x3c823fa7	0.015899492
156	0xbe56df67	-0.20983659
157	0x3e59db36	0.21275029
158	0xbd62e9ca	-0.05539874
159	0x3da8a3fa	0.08234401
160	0xbe23e33a	-0.16004649
161	0x3d920089	0.07129008
162	0x3e669dcc	0.22521132
163	0xbe452916	-0.19253954
164	0x3de1c8f8	0.1102466
165	0xbcb38a7c	-0.02191662
166	0xbcfffc36	-0.031248193
167	0x3d87bf96	0.06628339
168	0xbdb725c0	-0.08942747
169	0xbe991c45	-0.2990438
170	0x3eda2c99	0.4261215
171	0x3e08a624	0.13344628
172	0xbe8f2a7d	-0.27962103
173	0x3ec91ee9	0.39281395
174	0x3ed9537e	0.42446512
175	0x3db93e9e	0.090451464
176	0x3e0194f3	0.12654476
177	0xbdc77af4	-0.09740248
178	0x3e00204d	0.12512322
179	0x3de51408	0.11185461
180	0x3e990f00	0.29894257
181	0x3e04d2c1	0.12971021
182	0x3d24f8e8	0.040276438
183	0xbe766a25	-0.24063928
184	0x3f06814a	0.5254103
185	0xbd6f6587	-0.058446433
186	0xbdfddfe9	-0.12396223
187	0xbe3d86cf	-0.18508457
188	0x3b97a579	0.00462788
189	0xbb912863	-0.0044298633
190	0xbeaf6b87	-0.34261724
191	0x3e45bb97	0.19309841
192	0x3f07fc13	0.5311901
193	0xbec61e93	-0.386952
194	0x3f41a256	0.7563833
195	0x3f8bd047	1.0922936
196	0xbea10a71	-0.3145328
197	0xbdd5620b	-0.10419091
198	0xbf74f768	-0.9569001
199	0x3ef35dd0	0.4753251
200	0x3ddb4190	0.107058644
201	0x3ee2d72a	0.44304782
202	0xbe5d06ed	-0.21584673
203	0x3e7d3201	0.24726106
204	0x3f816230	1.010809
205	0x3f219e20	0.63131905
206	0x3eadf71a	0.33977586
207	0x3faa73bb	1.3316568
208	0x3fc2bfb5	1.5214754
209	0x3f88fcca	1.0702145
210	0xbee92fae	-0.4554419
211	0xbf0f56b6	-0.55991685
212	0x3e815bc6	0.2526533
213	0xbf0dcdba	-0.5539204
214	0xbb80c210	-0.003929384
215	0xbe2b7202	-0.1674271
216	0x3e08e7f7	0.13369738
217	0x3f56c7dc	0.8389871
218	0xbe8c35ef	-0.27384898
219	0x3d934611	0.071910985
220	0xbccd3fd2	-0.025054846
221	0x3ed8e908	0.4236529
222	0xbd56131c	-0.052264318
223	0x3ffdf3dd	1.9840046
224	0x3ea9e464	0.3318206
225	0x3fa750d0	1.3071537
226	0xbe2be0ec	-0.1678502
227	0x3f0e7eb8	0.5566211
228	0x3d115be7	0.035488036
229	0x3ed60348	0.41799378
230	0x3fae1f7a	1.3603356
231	0xbda10619	-0.07862491
232	0x3f678ba3	0.90447444
233	0xbd62042a	-0.055179752
234	0xbdc19206	-0.0945168
235	0x3e6ad3db	0.22932379
236	0x3f6b0416	0.9180311
237	0xbeb98cbe	-0.3624019
238	0x3ee00f2e	0.4376158
239	0x3fb2c807	1.3967294
240	0x3f0e44a1	0.5557347
241	0xbc4b1587	-0.012395269
242	0x3ec8e2c3	0.39235505
243	0x3eeb05f3	0.45902976
244	0x3f7e9e42	0.9946023
245	0x3ed8a843	0.42315874
246	0xbea539ad	-0.32270566
247	0x3f942ee6	1.1576812
248	0x3f2e4d73	0.6808693
249	0x3f6f855f	0.93562883
250	0x3f0bf74c	0.5467422
251	0x3fc2af54	1.5209756
252	0xbedcae96	-0.43101948
253	0xbcd2cb3f	-0.02573168
254	0x3edbbc57	0.4291713
255	0x3eef6a42	0.46760756

encoder.dcrnn_cells.1.update.weights_pool f4 [2, 2, 128, 64]
0	0xbf47b88f	-0.7801599
1	0x3e85b104	0.26111615
2	0xbeb637fc	-0.35589588
3	0xbebc7b7a	-0.36812955
4	0xbd866c4b	-0.06563624
5	0xbe9e5be7	-0.3092949
6	0x3f1005e5	0.56258994
7	0xbe415f40	-0.18883991
8	0x3e3bbb22	0.18333104
9	0x3f693c7e	0.9110793
10	0xbf7922eb	-0.97318906
11	0x3f332a0b	0.6998603
12	0xbd9b3c2a	-0.07579835
13	0x3df3bd72	0.11901368
14	0x3ef9659f	0.48710343
15	0x3f1d5916	0.6146406
16	0xbd457223	-0.048204552
17	0x3d1bd80c	0.038047835
18	0xbf944fb2	-1.1586821
19	0x3f5df1b6	0.86696947
20	0x3ef73691	0.48283818
21	0x3ee0457d	0.43803015
22	0xbf463a39	-0.7743259
23	0x3ee798e6	0.4523384
24	0xbf20a77b	-0.62755555
25	0xbe886312	-0.26638085
26	0x3e57ab20	0.21061373
27	0x3ea24368	0.31692052
28	0x3f6cdde2	0.92526066
29	0x3ecd1fe0	0.4006338
30	0x3f431d2a	0.76216376
31	0x3e15b511	0.14619853
32	0xbf818187	-1.0117654
33	0xbe0598c3	-0.13046555
34	0xbd8a592f	-0.06755292
35	0x3f127cfa	0.5722195
36	0x3e27250f	0.1632273
37	0x3f8b6741	1.0890886
38	0x3dfddb7f	0.12395381
39	0xbe902c48	-0.28158784
40	0x3d19769a	0.037466623
41	0x3f63d7ec	0.89001346
42	0xbec5da68	-0.38643193
43	0xbe179778	-0.14803874
44	0xbf095c86	-0.53656805
45	0xbe06a1bb	-0.13147633
46	0xbebe2ec7	-0.37145063
47	0x3e8fbb0b	0.2807239
48	0x3e124d82	0.1428738
49	0x3ce782a0	0.028260529
50	0xbe4dde9b	-0.20104448
51	0xbec4da7d	-0.38447943
52	0x3ee30f9d	0.4434785
53	0xbe8f27fa	-0.27960187
54	0xbe464fca	-0.19366375
55	0x3b15add3	0.0022839203
56	0x3ec4cd5c	0.38437927
57	0x3e744e75	0.23858054
58	0xbe8f24ff	-0.27957913
59	0x3d8d34c1	0.06894828
60	0xbecc0039	-0.3984392
61	0xbcc29eb6	-0.02375732
62	0xbd899072	-0.06717004
63	0x3c00577d	0.007833359
64	0x3f8d7ebd	1.1054302
65	0x3ce58434	0.02801714
66	0x3ea20c79	0.3165014
67	0xbf865ace	-1.0496461
68	0x3f3e99a5	0.7445319
69	0x3f1a453e	0.60261905
70	0x3f968b04	1.1761174
71	0x3f462193	0.7739498
72	0x3e2c00e1	0.1679721
73	0x3f536c6c	0.82587314
74	0xbf968972	-1.1760695
75	0xbfaa5c0c	-1.330934
76	0x3e9463aa	0.28982288
77	0xbf6633a2	-0.89922535
78	0xbf3bd84d	-0.73376924
79	0x3f4e9b04	0.80705285
80	0x3fb9c202	1.4512331
81	0xbf9d86cd	-1.2306763
82	0xc0121ca9	-2.2829993
83	0x3fd12c01	1.6341554
84	0xbf1d164b	-0.6136214
85	0xbf8fbacf	-1.1228884
86	0xbfba6ab0	-1.4563808
87	0x3e534703	0.20632558
88	0xbf30e78b	-0.69103307
89	0xbfc46e5b	-1.5346178
90	0xbe5a6203	-0.21326451
91	0xbd0aa8da	-0.033852436
92	0x403d6c70	2.9597435
93	0xbf871f85	-1.0556494
94	0x3fd6ea5e	1.6790273
95	0x3e8072b2	0.25087506
96	0xbf9d18e0	-1.2273216
97	0xbfbb1a20	-1.4617348
98	0xbeab2959	-0.33429983
99	0xbebb34e0	-0.36563778
100	0xbef347e9	-0.475158
101	0xbf55ce3a	-0.835178
102	0x3c2d538d	0.010579002
103	0xbf5bf24d	-0.85916597
104	0xbeb43636	-0.3519761
105	0x3eb20496	0.34769124
106	0x3f389abc	0.72111106
107	0x3fb8aabd	1.4427105
108	0xbffc633b	-1.9717783
109	0x3e4b9a60	0.19883108
110	0xbf12e5eb	-0.57382077
111	0x3ec1ca2d	0.3784956
112	0xbe83ba06	-0.25727862
113	0xbf39023d	-0.7226904
114	0xbf79bf78	-0.97557783
115	0xc012faa9	-2.296549
116	0x3f9627f2	1.173094
117	0xbe1b697a	-0.15176955
118	0x3eae91cf	0.34095618
119	0x4025f980	2.5933533
120	0x3fb7ec8b	1.4369062
121	0x3fa16a10	1.2610493
122	0xbfab2d7c	-1.3373256
123	0x3fa246e8	1.2677889
124	0x3f2a8f9a	0.6662537
125	0x3e0cac9e	0.13737723
126	0xc04e0c48	-3.2194996
127	0x3ef68b8a	0.48153335
128	0xbf5e8975	-0.8692849
129	0x3e7db597	0.24776302
130	0xbe943859	-0.2894924
131	0xbf26b6aa	-0.65122473
132	0x3d1f6beb	0.038921278
133	0xbeaa3298	-0.33241725
134	0x3f06feef	0.5273275
135	0xbde6e405	-0.1127396
136	0x3db9b7b4	0.09068242
137	0x3f25814e	0.6465043
138	0xbfae6469	-1.3624393
139	0x3f367d8a	0.7128531
140	0xbdaf50a2	-0.08560301
141	0x3de413df	0.111366026
142	0x3eea7ec3	0.45799837
143	0x3f0e2362	0.5552274
144	0xbe12df51	-0.14343001
145	0x3de4fdcb	0.1118122
146	0xbfcaf2d1	-1.5855352
147	0x3f85dbd1	1.0457708
148	0x3f018d6b	0.5060641
149	0x3ece4306	0.4028551
150	0xbf76f4df	-0.96467394
151	0x3f29c9f5	0.66323787
152	0xbec18f17	-0.3780448
153	0xbe5fafc0	-0.21844387
154	0x3e530c61	0.20610191
155	0x3e82cfde	0.25549215
156	0x3fc5abd0	1.5443058
157	0x3e673889	0.2258016
158	0x3faefbc7	1.3670586
159	0x3e96bbdc	0.294402
160	0xbf86f962	-1.0544856
161	0xbea762a8	-0.32692456
162	0x3b9df6d8	0.004820686
163	0x3ee6d35f	0.45083138
164	0x3c6c8b54	0.014437515
165	0x3f8f0629	1.1173755
166	0x3ef8939b	0.48550114
167	0xbe9ca7f7	-0.30596897
168	0x3ee5bafc	0.4486922
169	0x3f92675a	1.143779
170	0xbef96ae3	-0.4871436
171	0x3e172870	0.1476152
172	0xbf0b6b49	-0.5446058
173	0xbe1b1618	-0.15145147
174	0xbeba1d63	-0.36350545
175	0x3f1ee0ba	0.62061656
176	0x3e144a8a	0.1448156
177	0x3d75b6bf	0.059988733
178	0xbe783828	-0.24240172
179	0xbea2c7fb	-0.31793198
180	0x3f1d7b2c	0.6151607
181	0xbe4abde0	-0.19798994
182	0xbe1a1323	-0.15046363
183	0x3e1f79b6	0.15573773
184	0x3eeeca19	0.46638563
185	0x3e9fc7fd	0.31207266
186	0xbe836731	-0.25664666
187	0x3e6a6e65	0.22893675
188	0xbecf2786	-0.4045984
189	0xbe6671bd	-0.22504325
190	0xbd95c22e	-0.073124275
191	0x3c48f059	0.012264335
192	0xbe05cb8b	-0.13065927
193	0xbecb05c0	-0.39652824
194	0x3e7c02de	0.24610469
195	0x3e5e35dd	0.21700235
196	0xbd8e4d8b	-0.06948384
197	0x3dbf8391	0.09351266
198	0xbd9419b2	-0.072314635
199	0x3e26dd0c	0.1629526
200	0x3e0de80a	0.13858047
201	0xbed29d40	-0.41135597
202	0xbe659f61	-0.2242408
203	0xbe4818e3	-0.19540744
204	0xbe9d60f6	-0.30738038
205	0x3e640bce	0.22270128
206	0xbe59843d	-0.21241851
207	0x3dea6b8a	0.11446293
208	0x3e87c2e7	0.26515886
209	0xbedfe4f1	-0.43729356
210	0x3cd401a4	0.025879689
211	0xbe37ba1d	-0.1794209
212	0x3cd32a23	0.025776928
213	0xbe6d8d04	-0.23198324
214	0x3e2377da	0.15963688
215	0xbd1ac603	-0.037786495
216	0x3e72692f	0.23672937
217	0xbe5ca64d	-0.21547814
218	0xbe825454	-0.25454962
219	0xbdf75231	-0.12076224
220	0xbd99169d	-0.07475016
221	0xbdcd4c72	-0.100243464
222	0x3d839b9c	0.064261645
223	0x3d3a26e1	0.045447234
224	0xbc2b2cd3	-0.010447699
225	0x3e13a3f5	0.14418013
226	0xbcfde301	-0.030992033
227	0xbd9164eb	-0.07099327
228	0x3e3f1dce	0.18663713
229	0x3df0290d	0.1172658
230	0x3e7911c8	0.2432319
231	0x3d25456b	0.040349405
232	0x3e4abc91	0.19798495
233	0x3cda8ba9	0.026677923
234	0x3e09257a	0.13393202
235	0x3c204473	0.009781945
236	0xbdbc66ed	-0.09199319
237	0x3e435f16	0.19079241
238	0x3dad90ba	0.0847487
239	0x3da230cd	0.07919464
240	0xbe6007a3	-0.21877913
241	0x3e6be7ef	0.23037694
242	0x3e069394	0.13142234
243	0xbe121c5d	-0.14268632
244	0xbe59ee41	-0.21282293
245	0xbe266b0d	-0.16251774
246	0x3ebbd805	0.36688247
247	0x3db46a57	0.08809345
248	0xbefb8f34	-0.49132693
249	0x3e9a0fc1	0.30090144
250	0x3e0d4862	0.13797143
251	0x3d3d7bd8	0.046260685
252	0x3e7bbd5b	0.24583952
253	0x3d14d0e0	0.03633201
254	0x3e3436d0	0.17599034
255	0xbec19682	-0.3781014
