CQ/result/P4_Result/DAYS/2/data3/best_model.pth (torch_old, 603835 bytes, 11 tensors)

node_embeddings f4 [307, 2]
-0.033439778 0.13613325 -0.29258758 0.7197137 0.21212594 0.06725715 0.17128628 0.028098982
0.11475156 0.15946205 0.18249637 -0.017724961 -0.46464097 0.075717926 -0.30359522 0.6430503
-0.4181742 0.091038264 0.16806954 0.03008016 0.175695 0.015927546 0.19574149 0.04682763
-0.08824207 0.10010905 -0.4539593 0.07212636 0.14516678 0.0022673649 -0.21923679 0.6043015
0.008512389 0.14695041 -0.31783357 -0.13629977 0.17406805 0.014395618 0.2043006 -0.0038738954
-0.20052853 0.44087628 -0.40573847 0.0318105 -0.4584584 0.06761643 -0.43655095 0.07615597
-0.16635449 0.061275084 -0.21603169 0.6154626 -0.1464209 0.05791498 -0.5112091 0.06403778
-0.11238879 0.044213526 0.48032984 -0.087084234 0.1907343 0.038882867 -0.5045743 0.05838893
-0.32964286 -0.07503901 0.16479687 0.023436682 0.24994257 -0.03716539 -0.41953644 -0.028636381
0.17238672 0.023763651 -0.10708569 0.42646736 -0.46096265 0.115701996 -0.21025588 0.21686149
0.19022925 -0.025389913 0.03541739 0.10912351 -0.18233873 -0.12068477 0.19020247 -0.009269413
0.16858049 -0.2063842 -0.2463456 -0.12308768 0.13402541 0.061693147 -0.29912987 0.6304718
-0.29043636 0.8807606 0.14052986 -0.023390427 0.18906687 0.11498569 0.18609321 0.025515167
-0.19882739 0.50885856 0.38156605 -0.019191746 -0.37251467 0.11483757 -0.12020081 0.049937163
0.21220076 0.04319959 -0.09005253 0.072306395 0.21341167 0.034747634 0.16363093 -0.0006780733
-0.03224682 -0.018905962 0.2172126 0.04554855 0.2388322 -0.05334675 0.058243796 0.30169123
0.16657408 0.028053785 -0.017101167 0.2874165 0.15801498 -0.0018552046 0.1842413 0.027896957
0.05387885 0.0055093914 0.2127377 0.005722725 0.15642 0.09304479 0.19616586 0.09671079
0.22429931 0.09515887 -0.012025142 0.17363048 -0.43713504 0.03289403 0.2780327 -0.027312081
-0.1385116 0.070801005 0.17399853 -0.02824591 0.18471764 0.0041611185 -0.31430447 -0.16392049
0.17838554 0.027742956 0.23830596 0.06419354 0.20314413 0.035412595 -0.43946648 0.62595195
0.21832903 0.05411935 0.0068812096 0.1208272 -0.4029089 0.025604254 0.15449844 0.177932
0.17948937 0.028773269 0.16211757 -0.04356417 0.21963917 0.06869989 0.08575102 0.371919
0.014361397 0.15289079 -0.37548664 0.66158766 0.20405886 0.042815313 0.23117122 0.050033033
0.17981927 0.010319469 -0.08477779 0.0646867 -0.4764711 0.06516616 0.15192366 0.02385182
0.16952062 0.014010973 0.34110206 -0.002499415 -0.35651234 0.7611476 -0.013354741 0.1067295
0.17613085 -0.035071015 0.1473038 0.07057037 0.065746605 0.2722907 0.12696038 0.11434102
0.38772693 -0.017430805 0.35130185 -0.0303966 -0.13365287 0.08585493 -0.16381443 -0.1836197
0.114949085 0.012699188 0.13865547 -0.06668371 -0.353101 0.9177686 0.17821625 0.04464502
-0.50683683 0.06837017 0.1780869 0.033463545 0.17546004 0.07567221 0.22616278 0.046993047
0.23963001 0.0059699584 0.18489006 0.027050234 0.24269399 -0.0026197154 -0.4566711 -0.04068196
-0.08340253 0.08287687 0.23441565 0.06256737 0.10084603 0.1334308 0.18350208 -0.007937148
00000000: 26f8 08bd 8466 0b3e 0ace 95be 283f 383f
00000010: 8b37 593e 1ebe 893d ac65 2f3e d62f e63c
00000020: de02 eb3d 054a 233e 54e0 3a3e f033 91bc
00000030: 6ce5 edbe 0012 9b3d d570 9bbe f29e 243f
00000040: ee1a d6be 4572 ba3d 6c1a 2c3e ab6a f63c
00000050: 64e9 333e 7c7a 823c 7570 483e 54ce 3f3d
00000060: 42b8 b4bd f905 cd3d 5a6d e8be fcb6 933d
00000070: 9aa6 143e 1298 143b 9c7f 60be 81b3 1a3f
00000080: 8c77 0b3c 2b7a 163e 15bb a2be 2b92 0bbe
00000090: e53e 323e 99db 6b3c 2d34 513e 2ee1 7dbb
000000a0: 5a57 4dbe 89ba e13e f4bc cfbe ba4b 023d
000000b0: 0fbb eabe 7c7a 8a3d 9b83 dfbe a9f7 9b3d
000000c0: d558 2abe 95fb 7a3d 6937 5dbe f58e 1d3f
000000d0: 5cef 15be 4238 6d3d 99de 02bf 3d26 833d
000000e0: 182c e6bd 3e19 353d cbed f53e 3859 b2bd
000000f0: da4f 433e a443 1f3d c82b 01bf 3b29 6f3d
00000100: f3c6 a8be 0dae 99bd 83c0 283e 49fe bf3c
00000110: f2f0 7f3e bc3a 18bd 7bcd d6be d896 eabc
00000120: 2586 303e fdab c23c be4f dbbd ee59 da3e
00000130: 4c03 ecbe 2bf5 ec3d 514d 57be f010 5e3e
00000140: 75cb 423e 82fe cfbc d311 113d 267c df3d
00000150: 01b7 3abe 9429 f7bd 70c4 423e bcde 17bc
00000160: 5da0 2c3e 6156 53be 0542 7cbe 6515 fcbd
00000170: f53d 093e f4b1 7c3d 8d27 99be 9a66 213f
00000180: 13b4 94be 8779 613f 0fe7 0f3e 489d bfbc
00000190: bf9a 413e 9e7d eb3d 388f 3e3e 2f05 d13c
000001a0: 6899 4bbe 8e44 023f a05c c33e 0238 9dbc
000001b0: 3eba bebe f62f eb3d d82b f6bd e98a 4c3d
000001c0: 284b 593e 0ef2 303d 766d b8bd 6015 943d
000001d0: 9788 5a3e 8953 0e3d de8e 273e bbc0 31ba
000001e0: 3e15 04bd ade0 9abc fb6c 5e3e 1e91 3a3d
000001f0: 6e90 743e 1f82 5abd 0c91 6e3d 4677 9a3e
00000200: 6592 2a3e 0dd1 e53c bf17 8cbc 4128 933e
00000210: aece 213e 562a f3ba c0a9 3c3e 2988 e43c
00000220: 12b0 5c3d 2088 b43b e9d7 593e b285 bb3b
00000230: 912c 203e 448e be3d b4df 483e 4f10 c63d
00000240: b8ae 653e a7e2 c23d 1a05 45bc 30cc 313e
00000250: 2ad0 dfbe e4bb 063d 4d5a 8e3e 96bd dfbc
00000260: fcd5 0dbe 1e00 913d ac2c 323e f763 e7bc
00000270: 9f26 3d3e fe59 883b 84ec a0be c6da 27be
00000280: b3aa 363e 3245 e33c 7a06 743e e777 833d
00000290: 0405 503e cc0c 113d c001 e1be 633e 203f
000002a0: a591 5f3e 40ac 5d3d c57b e13b 4074 f73d
000002b0: 134a cebe 03c0 d13c d734 1e3e ce33 363e
000002c0: 10cc 373e ebb5 eb3c 2602 263e 5870 32bd
000002d0: 17e9 603e 87b2 8c3d 3b9e af3d 2b6c be3e
000002e0: 114c 6b3c 678f 1c3e c93f c0be cf5d 293f
000002f0: cef4 503e 1c5f 2f3d 26b8 6c3e 70ef 4c3d
00000300: 8b22 383e fd12 293c fa9f adbd 767a 843d
00000310: 05f4 f3be d675 853d e091 1b3e e464 c33c
00000320: d096 2d3e 488e 653c eea4 ae3e 3acd 23bb
00000330: c988 b6be 92da 423f d8cd 5abc ff94 da3d
00000340: a55b 343e a0a6 0fbd cfd6 163e 3387 903d
00000350: 28a6 863d b069 8b3e e701 023e a02b ea3d
00000360: 2584 c63e 0ccb 8ebc d6dd b33e 4a02 f9bc
00000370: 4cdc 08be b6d4 af3d f8be 27be cd06 3cbe
00000380: 6d6a eb3d 4110 503c b3fb 0d3e 7891 88bd
00000390: a7c9 b4be e2f2 6a3f 527e 363e b2dd 363d
000003a0: 0fc0 01bf a905 8c3d 6a5c 363e 1211 093d
000003b0: ccab 333e 08fa 9a3d 3797 673e c87b 403d
000003c0: 9261 753e a49f c33b d253 3d3e 7498 dd3c
000003d0: c684 783e 88af 2bbb cbd0 e9be 20a2 26bd
000003e0: f2ce aabd 59bb a93d a80a 703e 5223 803d
000003f0: 5d88 ce3d 15a2 083e f8e7 3b3e d00a 02bc

encoder.dcrnn_cells.0.gate.weights_pool f4 [2, 2, 65, 128]
0.04310763 0.0068563106 0.022871356 0.24846072 0.17203961 0.6098848 0.35492808 0.18482523
0.18537714 0.5707202 0.021372244 -0.0569516 0.030948661 0.11180868 0.5106448 0.32990327
-0.05449383 -0.37782595 0.47132924 -0.0069941827 0.025842046 0.25520355 -0.34302652 0.27609798
0.031006157 0.17016333 -0.30601195 0.032825705 0.25787336 0.19265832 0.251584 0.4921003
0.093594216 0.5903929 0.5090559 0.33394423 0.34221795 -0.073947825 0.30174485 0.52949536
-0.02502017 -0.013459769 -0.38726014 0.2603956 0.23324287 0.017991262 0.38716674 -0.35306638
-0.34722495 0.31561384 0.60447776 0.27768487 0.60542667 0.01508799 -0.13538912 -0.040108453
-0.008228965 0.16430567 -0.15708242 0.043347657 0.18561791 -0.37297675 0.021078106 0.31301966
-0.30672342 -0.115929596 -0.22834522 -0.097104445 -0.017513327 -0.13945289 -0.4261812 0.5128514
0.45731384 -0.15539768 0.3615023 -0.3688562 -0.11409728 0.37928575 -0.1073428 -0.1599006
-0.18825124 -0.05532343 -0.27512524 -0.2838972 -0.16325006 -0.056402322 -0.03239631 -0.084645934
-0.31851828 0.38507643 -0.026060855 -0.28584394 -0.08770657 0.2467748 -0.08593463 -0.19604886
-0.3936195 -0.12488726 -0.13181001 -0.09750633 -0.10045523 -0.22531554 -0.1567924 -0.20370823
-0.22093302 -0.036948133 -0.06556886 -0.21541843 0.075834796 -0.113791876 -0.13935287 -0.019644732
-0.011408407 -0.10576872 -0.15351003 -0.07699013 -0.13249668 -0.3136084 -0.19579506 -0.22944987
-0.19161099 -0.069395624 -0.197289 -0.35209987 0.41901654 -0.21642753 -0.31881347 -0.11271551
0.19101809 0.14382735 0.20697795 0.068672866 0.0592339 0.0562267 0.06657178 0.07303335
0.04841471 0.04643365 -0.2416145 0.11057152 0.10803418 0.028672986 0.07333119 0.050120108
0.2274768 0.32397127 0.05258112 0.20601767 0.12169253 0.0058669364 0.20358074 0.015877737
0.19440788 -0.2428804 0.20484777 0.16762678 -0.06366167 0.06828832 0.040355764 0.086419664
0.058574922 0.042044867 0.07716102 0.11353559 0.079115294 0.25048563 0.023990702 0.16782083
0.22191982 0.036475312 0.2949406 0.030971054 0.01879045 0.10714263 0.13785903 0.21006598
0.20901662 0.07195763 0.08584852 0.04158302 0.04925614 0.17481492 0.2742192 0.24512832
0.14009506 -0.02797499 0.27802628 0.2974326 0.061868463 0.32183975 0.19789277 0.07703654
-0.1512099 0.014112874 -0.15680304 0.16518107 -0.045373596 0.12376731 0.19658925 -0.075795405
-0.20729996 0.1704934 0.24458863 -0.16043243 -0.02814359 0.052980043 0.0710773 0.2003538
-0.18128793 -0.005485148 0.23685513 -0.0751097 -0.020142104 0.005100759 -0.27610838 0.119661465
-0.12829195 0.3044862 -0.29783157 -0.13559805 0.23843226 -0.12112306 0.049091745 0.14834152
-0.09960716 0.05137755 0.21091715 0.47372225 -0.08182645 -0.3280241 0.06818223 0.12737274
-0.19760609 -0.04669597 0.010040423 0.06728179 -0.12335564 -0.006562489 0.3942885 -0.30849338
-0.29037812 0.21453495 0.13693994 0.10141239 0.122058645 -0.11864982 -0.32435793 -0.24304676
0.028459001 0.22987355 -0.296195 -0.029435286 -0.11946195 5.4991044e-05 -0.14097579 0.38338283
00000000: a091 303d e7aa e03b b65c bb3c 7d6c 7e3e
00000010: 272b 303e 6921 1c3f 22b9 b53e d342 3d3e
00000020: 81d3 3d3e b81a 123f d814 af3c 1546 69bd
00000030: 0c88 fd3c f3fb e43d 9eb9 023f 15e9 a83e
00000040: ec34 5fbd 6772 c1be 1152 f13e 752f e5bb
00000050: b3b2 d33c 0aaa 823e 2ca1 afbe b75c 8d3e
00000060: a000 fe3c 4c3f 2e3e 99ad 9cbe 3f74 063d
00000070: fa07 843e 3948 453e 9ecf 803e 92f4 fb3e
00000080: 53ae bf3d fd23 173f 7d51 023f bdfa aa3e
00000090: 3137 af3e f571 97bd 4d7e 9a3e 028d 073f
000000a0: 19f7 ccbc 5d86 5cbc f646 c6be 9252 853e
000000b0: 38d7 6e3e 6962 933c b83a c63e 1ec5 b4be
000000c0: 78c7 b1be 2398 a13e 0ebf 1a3f b62c 8e3e
000000d0: 3efd 1a3f 9e33 773c 72a3 0abe c348 24bd
000000e0: c8d2 06bc bf3f 283e 37da 20be 508d 313d
000000f0: 9f12 3e3e cff6 bebe feab ac3c 1d44 a03e
00000100: da0a 9dbe 7f6c edbd 54d3 69be b2de c6bd
00000110: 1c78 8fbc bdcc 0ebe 6c34 dabe 3b4a 033f
00000120: 0a25 ea3e 9220 1fbe d416 b93e b8da bcbe
00000130: d6ab e9bd be31 c23e 8bd6 dbbd fcbc 23be
00000140: efc4 40be d29a 62bd 37dd 8cbe f95a 91be
00000150: 062b 27be 1f06 67bd feb1 04bd d95a adbd
00000160: d414 a3be bd28 c53e 937d d5bc 235a 92be
00000170: 819f b3bd 88b2 7c3e 7ffe afbd 08c1 48be
00000180: 7f88 c9be e4c4 ffbd 34f9 06be 66b1 c7bd
00000190: 79bb cdbd 1eb9 66be 308e 20be e498 50be
000001a0: 443c 62be ed56 17bd f748 86bd a696 5cbe
000001b0: 464f 9b3d b70b e9bd 85b2 0ebe fded a0bc
000001c0: 54ea 3abc 459d d8bd bc31 1dbe 00ad 9dbd
000001d0: 36ad 07be 4891 a0be 807e 48be e8f4 6abe
000001e0: ac35 44be 4b1f 8ebd 2106 4abe 6f46 b4be
000001f0: 5689 d63e 2e9f 5dbe 853b a3be 64d7 e6bd
00000200: 3f9a 433e 7a47 133e 07f2 533e 5ca4 8c3d
00000210: 3f9f 723d f84d 663d c956 883d 8292 953d
00000220: 814e 463d 3631 3e3d cb69 77be 5273 e23d
00000230: 0641 dd3d 9ce3 ea3c aa2e 963d be4a 4d3d
00000240: aeef 683e 90df a53e 4d5f 573d 4cf6 523e
00000250: ef39 f93d 6e3f c03b 7877 503e 0712 823c
00000260: dc12 473e a4b5 78be 9dc3 513e 5ba6 2b3e
00000270: 0d61 82bd bfda 8b3d 164c 253d cbfc b03d
00000280: 42ec 6f3d 3d37 2c3d 9906 9e3d 5985 e83d
00000290: 3307 a23d a73f 803e 2688 c43c 39d9 2b3e
000002a0: f33e 633e 2367 153d 7402 973e 02b7 fd3c
000002b0: 6eee 993c 986d db3d eb2a 0d3e 891b 573e
000002c0: 7408 563e 865e 933d 59d1 af3d f552 2a3d
000002d0: cec0 493d af02 333e 7566 8c3e eb02 7b3e
000002e0: 1475 0f3e ce2b e5bc 7659 8e3e 1649 983e
000002f0: c969 7d3d 2ec8 a43e 67a4 4a3e 55c5 9d3d
00000300: c5d6 1abe af39 673c fa90 20be 3a25 293e
00000310: aad9 39bd b779 fd3d b14e 493e 9f3a 9bbd
00000320: 7146 54be d295 2e3e 7175 7a3e 6648 24be
00000330: 638d e6bc 9a01 593d fa90 913d 8c29 4d3e
00000340: 8ba3 39be c2bc b3bb 278a 723e 1dd3 99bd
00000350: 0e01 a5bc 4524 a73b 145e 8dbe 1211 f53d
00000360: f75e 03be 9de5 9b3e 617d 98be 37da 0abe
00000370: 9627 743e 5e0f f8bd 6d14 493d d7e6 173e
00000380: d7fe cbbd 4471 523d aafa 573e b98b f23e
00000390: a094 a7bd c6f2 a7be 20a3 8b3d 006e 023e
000003a0: 4059 4abe 4644 3fbd 9680 243c 09cb 893d
000003b0: e2a1 fcbd 260a d7bb 2fe0 c93e d8f2 9dbe
000003c0: 71ac 94be 0daf 5b3e fc39 0c3e 4db1 cf3d
000003d0: e2f9 f93d adfe f2bd 3e12 a6be 40e1 78be
000003e0: da22 e93c f963 6b3e dfa6 97be 4522 f1bc
000003f0: 78a8 f4bd 2fa6 6638 f55b 10be c14a c43e

encoder.dcrnn_cells.0.gate.bias_pool f4 [2, 128]
0.1386853 0.15037666 -0.21144566 0.014393857 0.2802016 0.09272498 0.29368344 0.37333032
0.41321293 -0.1960497 0.2894237 0.21201651 0.33780867 0.38928667 0.20186101 0.25723857
-0.025555763 -0.014215784 0.13530062 -0.11659568 0.33338264 0.05867372 0.07706715 0.09676118
0.15607503 0.14583497 0.15279905 -0.23869511 0.19604397 0.22366144 0.05738924 -0.121847376
-0.3359283 0.059314262 0.13594821 0.112305254 0.14395253 -0.028224863 -0.028317714 0.105826974
-0.22730385 0.45271367 -0.01995093 0.32516822 0.27166685 0.059661128 0.23079422 0.14840838
0.1700178 0.0020496757 -0.10635203 0.17566513 -0.021351585 0.06133326 0.1375624 0.068514004
-0.17851858 -0.014054443 0.16968413 0.31845954 0.43656135 -0.036000937 -0.17128737 0.23212846
0.28240085 -0.101378255 0.1401173 -0.17734212 0.0032492585 0.07717607 0.3555767 -0.1310725
0.23085345 0.13797918 -0.23111366 0.12278301 0.04248724 -0.087809496 0.13346387 0.06609017
0.088795304 -0.037988536 0.44871908 0.10412602 -0.097273245 -0.08800946 0.1918885 -0.04976795
0.31712642 -0.09872715 0.31242546 0.20212975 0.13776569 0.20957853 -0.06745555 -0.077213176
0.12711261 0.13191313 0.042162932 0.04557975 0.23208232 0.26455617 0.04021822 -0.10120574
0.09140491 -0.116492964 0.011462972 0.22192846 0.0429765 -0.14481623 0.14479794 0.13208829
-0.107233666 0.06762382 0.12009878 0.16454378 -0.024631878 0.16392775 0.11248969 0.10155186
0.23232242 -0.11203876 -0.04644047 0.08446546 0.23797953 0.23372167 0.20969655 0.11315906
0.32067266 -0.32803187 0.24577256 0.22001438 0.055334896 0.1572762 0.23208533 0.03654143
0.21600817 -0.013846312 0.14149092 0.12506668 -0.24114329 0.2200555 0.06270543 0.24534084
0.2661206 0.25991195 0.21867141 0.31861907 -0.32149833 0.22702906 0.059289347 0.09750874
0.085291505 0.3362597 0.25715414 -0.035025086 0.019304913 -0.017384117 -0.009561009 0.015464674
0.18305725 0.09539058 0.07061046 0.09715739 0.12953839 -0.046999745 0.06222593 0.2692238
0.35866818 0.16546045 0.17545584 0.045539886 0.021153666 -0.2058094 0.29633927 0.11562806
0.14580981 0.36240092 0.026684474 0.098275304 0.15913387 0.27979013 0.37146205 0.04774422
-0.069153376 0.013178272 -0.082579836 0.19565494 0.2921836 0.1369749 0.10955399 0.23799354
0.036527976 0.18743256 -0.12927942 -0.013914494 -0.11795045 -0.14336833 -0.12168854 0.06236067
-0.17571747 -0.15314314 -0.37878725 -0.18682599 -0.068947464 -0.0925698 0.033591878 -0.10552542
-0.17878048 -0.44758156 0.23486239 -0.18119794 -0.11673335 -0.091591254 -0.110612266 0.18631779
-0.15410908 -0.38146797 -0.3582435 -0.23154011 -0.15954398 0.15053315 -0.06491007 -0.1663024
-0.10876396 0.02776572 0.092615336 0.20922546 0.07332897 0.13209575 -0.36475834 0.13897522
0.02652458 0.035002053 -0.058151428 -0.1631517 0.21399651 0.19396739 0.11607031 -0.10004094
-0.19667299 0.08286313 0.06116182 0.0776333 0.1285155 -0.33703896 0.024230817 0.04952725
-0.19982499 -0.18045647 -0.25860047 -0.083158895 0.19601355 -0.37435508 -0.24210516 -0.096665576
00000000: 8503 0e3e 57fc 193e 3685 58be 36d4 6b3c
00000010: 9676 8f3e 98e6 bd3d ad5d 963e 2725 bf3e
00000020: a590 d33e 41c1 48be 582f 943e db1a 593e
00000030: 42f5 ac3e 9550 c73e a7b4 4e3e c6b4 833e
00000040: 525a d1bc 52e9 68bc 3f8c 0a3e b7c9 eebd
00000050: 21b1 aa3e db53 703d 62d5 9d3d ba2a c63d
00000060: 22d2 1f3e c355 153e 5b77 1c3e 7e6c 74be
00000070: c0bf 483e 8107 653e fb10 6b3d 1e8b f9bd
00000080: cbfe abbe 83f3 723d 0236 0b3e 4c00 e63d
00000090: 4b68 133e d437 e7bc 8dfa e7bc d0bb d83d
000000a0: 57c2 68be 16ca e73e 2270 a3bc 737c a63e
000000b0: eb17 8b3e 3a5f 743d 5255 6c3e 5ef8 173e
000000c0: 2519 2e3e da53 063b 18cf d9bd 8fe1 333e
000000d0: 85e9 aebc 9638 7b3d 28dd 0c3e 1251 8c3d
000000e0: 93cd 36be 9b44 66bc adc1 2d3e 210d a33e
000000f0: f884 df3e b875 13bd f565 2fbe 15b3 6d3e
00000100: d896 903e 679f cfbd e97a 0f3e 2c99 35be
00000110: 83f1 543b 7d0e 9e3d 260e b63e df37 06be
00000120: d964 6c3e 6a4a 0d3e 0fa9 6cbe a975 fb3d
00000130: 1a07 2e3d 77d5 b3bd c1aa 083e 485a 873d
00000140: 50da b53d de99 1bbd 82be e53e 0640 d53d
00000150: 3237 c7bd 4e3e b4bd 6b7e 443e 7ad9 4bbd
00000160: 655e a23e 7631 cabd 3bf6 9f3e 1afb 4e3e
00000170: 7312 0d3e c19b 563e 2326 8abd f121 9ebd
00000180: cf29 023e 3c14 073e 0ab3 2c3d d5b1 3a3d
00000190: fda6 6d3e e873 873e dcbb 243d f444 cfbd
000001a0: 7f32 bb3d dd93 eebd 30cf 3b3c 3741 633e
000001b0: 2008 303d b54a 14be e945 143e 2742 073e
000001c0: 539d dbbd 5b7e 8a3d 59f6 f53d 2a7e 283e
000001d0: cbc8 c9bc addc 273e ff60 e63d 6cfa cf3d
000001e0: eee5 6d3e 9474 e5bd 5d38 3ebd 3afc ac3d
000001f0: e8b0 733e bc54 6f3e b1ba 563e f0bf e73d
00000200: 352f a43e cbf3 a7be cdab 7b3e 734b 613e
00000210: d8a6 623d 030d 213e c7a7 6d3e 77ac 153d
00000220: 3f31 5d3e a4db 62bc ffe2 103e 7b11 003e
00000230: 44ee 76be 3b56 613e b46b 803d a13a 7b3e
00000240: f640 883e 2e13 853e 66eb 5f3e 0a22 a33e
00000250: 6e9b a4be 4e7a 683e 63d9 723d aab2 c73d
00000260: 50ad ae3d 3b2a ac3e b5a9 833e 7776 0fbd
00000270: 5625 9e3c 2369 8ebc c7a5 1cbc 8b5f 7d3c
00000280: 5c73 3b3e 235c c33d 389c 903d 74fa c63d
00000290: b6a5 043e ce82 40bd 9ee0 7e3d b4d7 893e
000002a0: 5ba3 b73e 776e 293e b2aa 333e 0888 3a3d
000002b0: 744a ad3c b3bf 52be c8b9 973e 68ce ec3d
000002c0: 2b4f 153e 9d8c b93e 6699 da3c 9044 c93d
000002d0: fdf3 223e a740 8f3e 4630 be3e 718f 433d
000002e0: 49a0 8dbd aee9 573c 9e1f a9bd c559 483e
000002f0: 1799 953e 2643 0c3e d85d e03d 94b4 733e
00000300: 5c9e 153d 52ee 3f3e d361 04be 9ef9 63bc
00000310: 0190 f1bd 26cf 12be d737 f9bd e76d 7f3d
00000320: 48ef 33be 8ed1 1cbe 67f0 c1be 504f 3fbe
00000330: 5434 8dbd 3c95 bdbd a397 093d b61d d8bd
00000340: 3b12 37be 6929 e5be c47f 703e f48b 39be
00000350: e511 efbd 3294 bbbd af88 e2bd 17ca 3e3e
00000360: c5ce 1dbe c54f c3be b16b b7be da18 6dbe
00000370: 7f5f 23be 5d25 1a3e 92ef 84bd 2d4b 2abe
00000380: a4bf debd ef74 e33c 1cad bd3d 333f 563e
00000390: 802d 963d 1c44 073e 9bc1 babe 854f 0e3e
000003a0: 134a d93c 505e 0f3d 3130 6ebd 3d11 27be
000003b0: e721 5b3e 639f 463e 45b6 ed3d 44e2 ccbd
000003c0: a564 49be 25b4 a93d d184 7a3d 35fe 9e3d
000003d0: 9199 033e 5f90 acbe b57f c63c 16dd 4a3d
000003e0: ec9e 4cbe 95c9 38be 4867 84be 364f aabd
000003f0: c7b7 483e 78ab bfbe 6aea 77be 9af8 c5bd

encoder.dcrnn_cells.0.update.weights_pool f4 [2, 2, 65, 64]
0.3257136 -0.009118222 0.33422112 -0.08934757 0.15196908 0.12943545 -0.120555446 -0.23918769
0.17199428 -0.11186093 0.32344684 -0.31631666 0.03188571 0.08859672 -0.11445543 0.1063266
0.50765973 -0.5095136 -0.18696517 0.267355 0.03659573 -0.102761455 0.527138 0.14741099
-0.38305214 0.22345963 -0.5216524 -0.30920896 0.12367785 -0.18976095 -0.09317416 0.099869356
0.27615112 -0.10949334 -0.1137935 -0.11772184 0.105181634 -0.5025746 0.00018623893 -0.09938415
-0.48221856 0.12371584 0.51063424 -0.14235614 -0.12619953 0.035466067 0.12315425 0.5216485
0.51101106 0.1002923 -0.11282147 -0.11299359 -0.13457415 0.3560323 -0.50282013 -0.5038068
-0.22860804 0.016062558 0.6321162 0.05162358 0.16670278 0.38246056 0.37795117 0.12777139
0.0066473424 -0.028748944 0.012692339 -0.06732972 -0.047710937 0.032420095 0.04135595 0.020728802
-0.05843535 -0.04851225 -0.09659395 -0.11156076 0.0019051679 0.05653018 -0.017078787 0.022457244
0.05834677 -0.1639577 -0.022164237 -0.0050273826 -0.09006354 -0.004630326 0.09756459 -0.0008403508
-0.026160771 -0.14263146 -0.10010026 -0.043538596 0.12807594 0.032880314 -0.16861556 0.0831462
0.04752203 0.025153363 -0.046925742 -0.13214955 0.17093024 -0.1215481 0.123419896 -0.06026504
0.08389365 -0.14111619 0.23431061 -0.08805896 0.00389156 0.054620404 0.10389143 0.1018698
0.10567671 0.13074806 -0.0501875 -0.00468091 -0.016338026 -0.15997912 -0.12823686 -0.08037139
0.042057704 0.2737498 0.1648703 0.24395946 -0.062321834 0.44698802 0.012890006 0.14573891
0.2348124 0.12464061 0.27207702 -0.1243607 0.105565734 0.13664196 -0.10515252 -0.114890695
0.10273851 -0.13411948 -0.09829189 -0.22846171 -0.1475529 -0.21883793 -0.13351218 0.06091234
0.054810025 -0.10346266 -0.040816948 0.10084181 -0.22470203 -0.13229957 0.07763787 0.121750645
-0.2741536 -0.13363235 -0.10402747 -0.27488902 0.11219713 -0.10015334 -0.049640782 0.1499949
0.26148146 -0.117358655 -0.14000288 -0.0952996 0.054119673 -0.04030497 0.01590497 -0.12847242
-0.0659016 0.082570694 0.09464225 -0.10492819 -0.106584445 -0.22600347 0.12461895 0.099121116
0.09475058 0.110949166 -0.13008279 -0.10136627 -0.147543 0.27637073 -0.076237015 -0.053972933
-0.0030234067 0.0029733244 0.056369267 0.009566984 0.11490269 0.119107544 0.23820296 0.08424314
-0.087029174 -0.005854345 -0.04735197 -0.0388573 -0.054383293 0.03998402 0.09210221 0.052499354
-0.0763269 -0.028156018 -0.037398882 -0.08463581 0.0032244516 0.057229772 -0.025426231 -0.022707919
-0.06225366 -0.07888957 0.055737887 -0.09927145 0.034489747 -0.0072513204 -0.016458074 -0.017697582
0.05676526 -0.06879034 -0.04713373 0.028209677 0.09259025 0.01580695 -0.13652532 0.054684605
-0.02812235 0.020843226 -0.059846446 -0.090067305 0.15393066 0.0733607 0.12130881 -0.042343643
0.14782432 -0.10238999 0.09335606 -0.060999043 -0.008305509 0.061951164 0.087418824 0.00046114533
0.047388438 0.088715196 -0.032560017 0.010706365 -0.008223238 -0.23567326 0.07326902 0.099655345
0.096108735 0.18592803 -0.086517446 0.23094164 -0.08032062 0.13588998 -0.062176183 0.11210343
00000000: efc3 a63e 9864 15bc 081f ab3e dcfb b6bd
00000010: c89d 1b3e ba8a 043e c6e5 f6bd 9eed 74be
00000020: 451f 303e 5817 e5bd d39a a53e 42f4 a1be
00000030: 979a 023d 3272 b53d 9c67 eabd c3c1 d93d
00000040: fdf5 013f 7c6f 02bf cc73 3fbe c1e2 883e
00000050: 67e5 153d 9974 d2bd 84f2 063f e8f2 163e
00000060: 691f c4be 9ad2 643e 038b 05bf a350 9ebe
00000070: d04a fd3d b250 42be 18d2 bebd 4e88 cc3d
00000080: ae63 8d3e 0b3e e0bd 910c e9bd 2618 f1bd
00000090: 7869 d73d bba8 00bf 2249 4339 eb89 cbbd
000000a0: 5ae5 f6be bb5e fd3d edb8 023f cfc5 11be
000000b0: 733a 01be de44 113d 4c38 fc3d c28a 053f
000000c0: 9fd1 023f 0d66 cd3d f10e e7bd 2f69 e7bd
000000d0: cecd 09be de49 b63e d2b8 00bf 7cf9 00bf
000000e0: 3a18 6abe a095 833c 5ed2 213f 3f73 533d
000000f0: 22b4 2a3e dfd1 c33e d182 c13e 81d6 023e
00000100: f3d1 d93b e882 ebbc 87f3 4f3c 2ae4 89bd
00000110: 8b6c 43bd efca 043d db64 293d 73cf a93c
00000120: e859 6fbd c8b4 46bd 0dd3 c5bd f879 e4bd
00000130: d4b6 f93a 318c 673d d0e8 8bbc 41f8 b73c
00000140: 06fd 6e3d 87e4 27be c691 b5bc bebc a4bb
00000150: 3c73 b8bd fdb9 97bb f2cf c73d fd4a 5cba
00000160: 1d4f d6bc fb0d 12be 5d01 cdbd 8755 32bd
00000170: 5726 033e 82ad 063d 8fa9 2cbe 8e48 aa3d
00000180: 76a6 423d 6d0e ce3c 3535 40bd 3652 07be
00000190: 5608 2f3e 36ee f8bd 92c3 fc3d 79d8 76bd
000001a0: 6fd0 ab3d c380 10be 1fef 6f3e 4258 b4bd
000001b0: 8b09 7f3b a5b9 5f3d 08c5 d43d 1da1 d03d
000001c0: 086d d83d d2e2 053e 6891 4dbd 5262 99bb
000001d0: 53d7 85bc 91d1 23be 8650 03be c199 a4bd
000001e0: b344 2c3d ef28 8c3e c3d3 283e 82d0 793e
000001f0: 2e45 7fbd 9ddb e43e 9b30 533c 953c 153e
00000200: a972 703e 9343 ff3d ae4d 8b3e d3b0 febd
00000210: d932 d83d dfeb 0b3e 345a d7bd d04b ebbd
00000220: 9168 d23d 9e56 09be 424d c9bd def1 69be
00000230: 1b18 17be 0d17 60be 6bb7 08be 387f 793d
00000240: 7a80 603d 3be4 d3bd ac2f 27bd 2786 ce3d
00000250: 4a18 66be 8a79 07be 9b00 9f3d 6758 f93d
00000260: dc5d 8cbe ebd6 08be 5b0c d5bd 41be 8cbe
00000270: 9cc7 e53d 321d cdbd 2254 4bbd 4398 193e
00000280: e6e0 853e bc59 f0bd ea5c 0fbe 702c c3bd
00000290: 97ac 5d3d d316 25bd 244b 823c 468e 03be
000002a0: 6bf7 86bd d31a a93d ccd3 c13d 97e4 d6bd
000002b0: f248 dabd 746d 67be 3838 ff3d 0300 cb3d
000002c0: 980c c23d 5139 e33d 6c34 05be 1e99 cfbd
000002d0: 8315 17be 7780 8d3e 2722 9cbd b912 5dbd
000002e0: 5924 46bb 1bdc 423b 76e3 663d d7be 1c3c
000002f0: 1a52 eb3d a8ee f33d 7aeb 733e ab87 ac3d
00000300: 5a3c b2bd ced5 bfbb 24f4 41bd d528 1fbd
00000310: 04c1 5ebd 49c6 233d 15a0 bc3d 9009 573d
00000320: 4751 9cbd 73a7 e6bc 922f 19bd 8a55 adbd
00000330: 5251 533b c469 6a3d ac4a d0bc f505 babc
00000340: b2fd 7ebd db90 a1bd 694d 643d d44e cbbd
00000350: 1f45 0d3d 7c9c edbb 15d3 86bc 85fa 90bc
00000360: b082 683d f3e1 8cbd 4c0f 41bd fb17 e73c
00000370: f59f bd3d 947d 813c 4bcd 0bbe f7fc 5f3d
00000380: d860 e6bc 6abf aa3c 8c21 75bd 3575 b8bd
00000390: 00a0 1d3e 223e 963d c170 f83d 8770 2dbd
000003a0: 425f 173e d8b1 d1bd 7631 bf3d 22da 79bd
000003b0: d413 08bc 81c0 7d3d a408 b33d e1c5 f139
000003c0: 611a 423d 50b0 b53d a75d 05bd c069 2f3c
000003d0: c3ba 06bc 5554 71be 110e 963d 1a18 cc3d
000003e0: a8d4 c43d eb63 3e3e 0f30 b1bd f77b 6c3e
000003f0: 237f a4bd be26 0b3e 74ac 7ebd 7c96 e53d

encoder.dcrnn_cells.0.update.bias_pool f4 [2, 64]
0.14298245 0.19477972 0.22029476 -0.28490308 0.2318544 0.20068023 -0.15407577 -0.08083626
0.25356278 -0.14476441 -0.119249 -0.03846459 -0.091910765 -0.23468862 -0.15284055 0.010347397
0.31860396 -0.09793771 0.034559004 0.22844672 -0.112458564 -0.117770635 0.17138849 0.041043673
-0.1462059 -0.12756364 -0.28876805 -0.15490134 0.050726473 -0.20885046 -0.08434897 0.057301067
0.036506407 -0.120019734 -0.23239438 -0.009402081 0.027846022 -0.3082661 0.015566546 -0.21872503
-0.35405138 0.22815429 0.091141485 -0.028452663 -0.2182734 -0.06527799 0.012113187 0.26338685
0.24913721 0.11959348 -0.1978907 -0.2383512 -0.11195335 0.063871264 -0.29102427 -0.23447329
-0.19607842 0.0059777633 0.16240783 0.2048537 0.14067598 0.12332904 0.22740433 0.07098352
-0.16925593 -0.23981954 0.0010321691 -0.12429525 0.12659629 0.025565095 -0.077031404 -0.21008848
0.2054642 -0.0714044 -0.25862515 0.1595575 0.24903636 -0.37562975 -0.28564423 0.045188062
-0.3152333 0.062002506 -0.15582933 -0.0549646 0.2398545 -0.16498847 -0.33035302 0.09728348
0.23417845 -0.38888106 0.40735447 0.0632764 0.122391276 -0.21374291 0.10615631 0.089476675
-0.09121158 -0.19768696 -0.19774584 -0.06185299 -0.076236494 0.37982416 0.009711878 -0.02586918
0.32205385 -0.051334653 -0.0916975 -0.07882377 -0.28381184 0.2615393 0.043360244 -0.4006155
-0.38526955 -0.0012725637 -0.031204553 -0.19105493 -0.25055346 -0.02985548 0.3837074 0.23345283
-0.15900052 0.18776637 -0.16015066 -0.04926792 0.13849348 -0.27290347 -0.28572178 -0.089901224
00000000: fe69 123e 5674 473e f394 613e d1de 91be
00000010: 3d6b 6d3e 1e7f 4d3e 0ac6 1dbe 7b8d a5bd
00000020: fbd2 813e 1f3d 14be d238 f4bd 0c8d 1dbd
00000030: b63b bcbd 3752 70be 3c82 1cbe 2188 293c
00000040: 0f20 a33e 9193 c8bd be8d 0d3d f0ed 693e
00000050: ad50 e6bd bb31 f1bd 7780 2f3e 691d 283d
00000060: 00b7 15be 0ba0 02be 68d9 93be 759e 1ebe
00000070: 90c6 4f3d e5dc 55be 27bf acbd 86b4 6a3d
00000080: be87 153d e8cc f5bd cbf8 6dbe 300b 1abc
00000090: 571d e43c 0ed5 9dbe d30a 7f3c 74f9 5fbe
000000a0: 3946 b5be 47a1 693e 63a8 ba3d 8f15 e9bc
000000b0: 1083 5fbe 78b0 85bd 6476 463c a4da 863e
000000c0: d31d 7f3e 6ded f43d dca3 4abe 5612 74be
000000d0: cc47 e5bd f0ce 823d 2201 95be c419 70be
000000e0: c8c8 48be 1de1 c33b 3d4e 263e 2bc5 513e
000000f0: 5d0d 103e f093 fc3d aedc 683e cf5f 913d
00000100: 6d51 2dbe 4193 75be d949 873a 828e febd
00000110: 75a2 013e e46d d13c a4c2 9dbd 6f21 57be
00000120: 3565 523e 783c 92bd 846a 84be 0b63 233e
00000130: 6303 7f3e 8b52 c0be f63f 92be 1e17 393d
00000140: 4266 a1be 57f6 7d3d b991 1fbe 8f22 61bd
00000150: 6b9c 753e bdf2 28be 0824 a9be 903c c73d
00000160: 7acc 6f3e 6b1b c7be c490 d03e 0f97 813d
00000170: 47a8 fa3d 6cdf 5abe 7b68 d93d 8c3f b73d
00000180: 23cd babd 736e 4abe e37d 4abe 9059 7dbd
00000190: e121 9cbd 5078 c23e 921e 1f3c 9aeb d3bc
000001a0: 3ee4 a43e 4944 52bd e6cb bbbd 5b6e a1bd
000001b0: c94f 91be 7be8 853e 839a 313d 7a1d cdbe
000001c0: 0d42 c5be 27cc a6ba b1a0 ffbc e7a3 43be
000001d0: 8b48 80be 7b93 f4bc 4c75 c43e 420e 6f3e
000001e0: 08d1 22be d445 403e 89fe 23be 29cd 49bd
000001f0: 3cd1 0d3e 01ba 8bbe 204a 92be 221e b8bd

encoder.dcrnn_cells.1.gate.weights_pool f4 [2, 2, 128, 128]
-0.0739174 -0.21829076 0.050974254 0.09733633 -0.08811754 0.456117 0.061736587 0.20825396
-0.26260185 0.19180925 0.41907826 0.40051877 0.24145323 0.10328007 0.43926415 0.2326349
0.33639973 -0.19509797 0.24651563 -0.16881822 0.41281882 0.18254359 -0.23085131 0.20088191
-0.8242616 0.19817112 0.03483677 -0.21061733 -0.5241729 1.4964446 -0.17308068 -0.33403996
-0.1742155 -1.3145666 -0.21263374 0.9708285 -0.058566198 -0.1744886 -0.31831664 -0.040086992
-0.1319585 -0.7785616 0.23088607 0.25215617 -0.1484946 1.499573 -0.40864673 0.32314783
0.3534575 -0.2598903 -0.5753323 -0.116798766 -0.26544088 -0.11824984 0.0422605 -0.2664341
-0.008694565 -0.1748439 -0.13623565 0.008006835 0.15231253 -0.17369463 -0.07834673 -0.26979622
-0.6345483 0.36874765 -0.8198381 0.20752203 0.32079995 -0.740704 0.1569851 -0.01845799
-0.07880663 0.21357965 0.13437505 -0.28434327 -0.44339085 -0.17056005 -0.4709977 -0.039053738
0.19931753 -0.13624665 0.3439706 -0.09227633 0.61620224 -0.08460825 -0.46275693 0.0036793388
-0.30546373 -0.11326115 -0.3623681 0.14139906 -0.23428509 -0.021107286 0.23109475 0.045269378
-0.029943118 -0.48487398 -0.37833065 -0.07501871 -0.37002936 -0.53221965 -0.19543864 -0.12233257
-0.5970461 -0.0714658 -0.21801792 -0.6487202 -0.021771709 -0.35910615 -0.39967957 0.49627912
-0.039422147 -0.24425031 -0.4411479 0.5942039 0.13411076 -0.18922205 0.0650408 -0.07595208
-0.19974497 0.006720498 -0.40229303 0.0733855 -0.22724809 0.29868585 0.08278449 0.35336253
-0.16095515 -0.092053086 -0.39110327 0.15704715 0.048356973 0.23816384 -0.16193622 0.38193774
0.12921345 0.35839012 0.50312287 0.10564332 0.22649753 0.2645169 0.37535778 0.33959353
0.0137983 -0.11706076 0.1405018 -0.099868394 0.22039044 0.27677587 0.22345191 0.28823024
0.10297011 0.05147544 -0.32353738 0.19967349 0.090808555 0.4315938 -0.12390368 0.118707255
-0.08153323 -0.70394987 0.0034798572 0.44555947 0.28964755 -0.24337006 -0.17434834 0.15988675
-0.09572653 -0.45161378 0.24664685 0.41352227 -0.11322435 0.53251886 0.40697423 0.26331225
0.183703 0.16774379 -0.6228103 0.02423156 -0.056433335 0.13354303 -0.055647224 -0.17145969
-0.4213389 -0.16884254 -0.5038746 -0.045101225 0.28815162 -0.14777048 0.07800878 0.19172458
0.23459336 -0.34306762 0.18990234 -0.20321207 -0.29366648 0.5132632 0.14283374 -0.40654933
-0.5917017 -0.5891666 0.047179643 0.0047657783 -0.42475864 -0.752303 0.14785695 -0.6971295
0.5538438 -0.2510009 -1.0877761 -0.3782303 -0.48163065 -0.7016955 -0.13901699 -0.24642898
-0.06287853 0.12051109 -0.18819894 0.059463374 -0.380479 0.23844418 0.10819494 -0.43229684
-0.21010613 -0.1409061 -0.23482457 -0.05224854 0.05124446 -0.3868296 -0.22773162 0.03347682
-0.09410954 -0.45066074 -0.15639502 -0.49166656 -0.051816072 0.2538182 0.0067225024 -0.0639697
-0.63580537 -0.639798 0.11664972 -0.15776604 -0.33092302 -0.40542647 0.35115954 0.118380256
-0.26556113 -0.16779625 0.096170194 -0.27965304 -0.17801003 -0.46959028 -0.7416615 -0.23744826
00000000: 0162 97bd 9d87 5fbe 61ca 503d 4558 c73d
00000010: f876 b4bd 2b88 e93e 81df 7c3d 8740 553e
00000020: c073 86be a569 443e 6d91 d63e cc10 cd3e
00000030: 843f 773e 8084 d33d 3be7 e03e d837 6e3e
00000040: 963c ac3e c3c7 47be 986e 7c3e afde 2cbe
00000050: fd5c d33e b5ec 3a3e 4964 6cbe fdb3 4d3e
00000060: cf02 53bf 5fed 4a3e 00b1 0e3d 12ac 57be
00000070: 3230 06bf 7f8b bf3f 103c 31be 4907 abbe
00000080: 8c65 32be b843 a8bf a9bc 59be 3788 783f
00000090: 1ce3 6fbd 24ad 32be 66fa a2be 4232 24bd
000000a0: 2120 07be d04f 47bf 666d 6c3e 9d1a 813e
000000b0: f80e 18be 02f2 bf3f 253a d1be a273 a53e
000000c0: 62f8 b43e 5710 85be fa48 13bf 3134 efbd
000000d0: dee7 87be f92c f2bd 5919 2d3d 0d6a 88be
000000e0: a673 0ebc 480a 33be 5c81 0bbe 1a2f 033c
000000f0: d1f7 1b3e 01dd 31be 4074 a0bd bb22 8abe
00000100: c271 22bf 7ecc bc3e e9e0 51bf a880 543e
00000110: e43f a43e c79e 3dbf b4c0 203e 3635 97bc
00000120: 5f65 a1bd a0b4 5a3e 9d99 093e 7195 91be
00000130: 2004 e3be 4ba7 2ebe 9c26 f1be d0f6 1fbd
00000140: e519 4c3e 3e84 0bbe ea1c b03e 5ffb bcbd
00000150: 6ebf 1d3f 1747 adbd 7aee ecbe 1021 713b
00000160: be65 9cbe 76f5 e7bd 5088 b9be eaca 103e
00000170: 6ee8 6fbe 30e9 acbc 1aa4 6c3e 626c 393d
00000180: 454b f5bc 6741 f8be 8eb4 c1be 69a3 99bd
00000190: 7d74 bdbe 8c3f 08bf 1121 48be 8089 fabd
000001a0: 03d8 18bf a95c 92bd 1740 5fbe 8712 26bf
000001b0: 955a b2bc c3dc b7be cda2 ccbe 4c18 fe3e
000001c0: 1e79 21bd c11c 7abe 23de e1be bf1d 183f
000001d0: 5554 093e 6dc3 41be 1c34 853d c48c 9bbd
000001e0: f289 4cbe a037 dc3b 5af9 cdbe 234b 963d
000001f0: b9b3 68be 5aed 983e ea8a a93d efeb b43e
00000200: 6dd1 24be 5486 bcbd b03e c8be f8d0 203e
00000210: f611 463d 39e1 733e 9cd2 25be 588d c33e
00000220: 8850 043e e97e b73e a9cc 003f 865b d83d
00000230: f8ee 673e c26e 873e e52e c03e 34df ad3e
00000240: 4412 623c 8dbd efbd b4df 0f3e cd87 ccbd
00000250: 08ae 613e 91b5 8d3e 94d0 643e ea92 933e
00000260: fee1 d23d e9d7 523d b1a6 a5be 3577 4c3e
00000270: d6f9 b93d ddf9 dc3e 36c1 fdbd ca1c f33d
00000280: e5fa a6bd 0f36 34bf 510e 643b 5f20 e43e
00000290: af4c 943e 0036 79be 5f88 32be 5ab9 233e
000002a0: 450c c4bd ec39 e7be fe90 7c3e 31b9 d33e
000002b0: 2be2 e7bd 2853 083f ed5e d03e ddd0 863e
000002c0: a41c 3c3e 07c5 2b3e 7f70 1fbf 4481 c63c
000002d0: a426 67bd 81bf 083e 58ee 63bd 2193 2fbe
000002e0: bbb9 d7be 0fe5 2cbe edfd 00bf 10bc 38bd
000002f0: 9c88 933e 2551 17be 11c3 9f3d 7353 443e
00000300: 3e39 703e 8fa6 afbe c275 423e d316 50be
00000310: 745b 96be 3865 033f 0243 123e 3c27 d0be
00000320: c379 17bf 9fd3 16bf 713f 413d 3f2a 9c3b
00000330: f779 d9be ee96 40bf d067 173e 1477 32bf
00000340: b5c8 0d3f 3183 80be 3f3c 8bbf 67a7 c1be
00000350: 4b98 f6be 51a2 33bf 785a 0ebe e157 7cbe
00000360: 75c6 80bd 85ce f63d 39b7 40be de8f 733d
00000370: 25ce c2be b62a 743e 4f95 dd3d 0356 ddbe
00000380: 1026 57be b049 10be da75 70be 9102 56bd
00000390: b6e5 513d 880e c6be 7a32 69be fd1e 093d
000003a0: 81bc c0bd 01bd e6be 0426 20be b8bb fbbe
000003b0: 173d 54bd 76f4 813e 7048 dc3b 8c02 83bd
000003c0: 24c4 22bf cdc9 23bf 0ce6 ee3d 6c8d 21be
000003d0: be6e a9be 0f94 cfbe 2fcb b33e 5971 f23d
000003e0: a1f7 87be c8d2 2bbe e1f4 c43d af2e 8fbe
000003f0: 4348 36be 236e f0be 87dd 3dbf a325 73be

encoder.dcrnn_cells.1.gate.bias_pool f4 [2, 128]
-0.1638486 -0.039173417 -0.3804947 0.13334431 0.2209239 0.22785541 -0.055687968 0.2123027
0.20335577 0.16657905 0.3824275 -0.10513689 0.47146165 0.36910146 0.18253036 0.46225703
0.49964997 -0.1075798 0.014087828 0.035174638 0.007507342 -0.06346185 -0.16041934 0.348952
-0.008073521 -0.2605058 -0.24368587 -0.12286573 0.11941124 0.4592099 -0.11249281 0.32354116
-0.022307381 -0.49862373 -0.18925053 0.40205106 0.0733952 -0.06566581 0.31631976 0.009579169
-0.016178848 -0.0127753 0.28568092 0.8934518 -0.21873921 0.32329983 0.2843631 0.7520001
0.07382018 -0.0018829299 -0.09097486 0.32727918 -0.20237616 0.12866776 -0.30705234 0.023546644
-0.18669267 0.085915476 0.059383143 -0.30400696 0.5188977 0.0870021 0.012534898 0.0964879
0.037792932 0.09869383 0.58209085 -1.0137591 -0.2893483 -0.8891642 -0.18735404 0.10222989
-0.64573604 -0.307831 0.30256775 0.6768127 0.38123998 -0.10039742 0.8503736 -0.7017574
0.4872578 -0.04802701 0.18661828 0.17165874 0.069504276 -0.62496626 0.12472966 -1.0583254
0.024754364 0.8532873 0.1678714 -0.19019404 0.0058513153 0.33524844 -0.5743148 -0.75787294
-1.1351808 0.24491833 -0.10202164 -0.48899615 0.73790526 0.2555985 0.330207 0.6477937
-2.5152786 -0.006646952 0.5867994 -1.0958494 0.18709254 0.5231624 0.23922305 -0.7573043
-0.23699974 -0.44894546 0.26630276 -0.7386407 0.56349075 -0.077167176 -0.6989649 -0.16130498
-0.14517486 -0.10211002 -1.4178694 -0.30423224 -0.12221377 -0.4218483 0.13436078 -0.23210035
-0.11000814 0.20182085 0.39027095 0.21024697 -0.19276997 0.03312486 -0.108081855 0.17469215
0.29949048 0.2169422 -0.04612479 0.46490696 -0.0930245 0.08787894 0.1218913 0.44945642
0.30005676 0.112596735 0.04437537 0.21243572 0.025011113 0.028870663 -0.076301344 0.15704691
0.06357329 0.38970315 0.173573 0.061300408 0.17418753 0.44082412 -0.103403285 0.054994173
0.13761002 -0.25872248 0.28280577 -0.19755812 0.28163508 -0.067469984 -0.6175867 0.47552547
-0.011554322 -0.21441203 0.26436862 -0.31689155 -0.087411255 0.38784543 0.5759113 0.39033502
-0.0850195 0.1172767 -0.020817053 -0.07410312 -0.25006285 0.2511769 0.0941475 -0.06436895
0.15140732 -0.023850564 -0.054566585 0.11906939 0.25770777 0.39294687 0.19181137 0.016946763
-0.019162102 -0.018914161 -0.75786805 -0.26552284 -0.17450146 0.7299373 -0.39985195 -0.20788741
-0.15551683 -0.32445705 -0.13909402 -0.23686871 -0.30246264 -0.24517193 -0.49873945 -0.54759544
-0.5323133 -0.6417419 -0.28848833 -0.17964056 -0.39438912 -0.52770555 -0.51748437 0.8959184
-0.5526154 -0.12040936 -0.49251103 -0.29389673 -0.41343242 -0.40664688 -0.0658021 -0.37266383
0.7243685 -0.44992357 -0.78587276 -0.46014526 -0.39471382 -0.34368238 -0.1349641 -0.18903556
-1.9238849 -0.42784792 -0.42132822 0.177024 -0.1620583 -0.35641456 -0.33846483 -0.13033038
0.15103148 -0.7966579 -0.6384745 -0.46839234 -0.05345101 -0.39610016 -0.21253633 -0.5001485
0.14557983 -0.57994914 -1.2088586 -0.10592906 -0.5952935 -0.33550918 -0.40995172 -0.19246975
00000000: edc7 27be 4e74 20bd 34d0 c2be 698b 083e
00000010: e039 623e ee52 693e 1119 64bd e165 593e
00000020: 7f3c 503e b393 2a3e 8acd c33e 0352 d7bd
00000030: 6c63 f13e defa bc3e 3de9 3a3e f4ac ec3e
00000040: 1fd2 ff3e cc52 dcbd a2d0 663c 4813 103d
00000050: 2600 f63b 49f8 81bd f844 24be d6a9 b23e
00000060: cd46 04bc 0461 85be ca88 79be 07a1 fbbd
00000070: e18d f43d 8f1d eb3e a162 e6bd 30a7 a53e
00000080: f8bd b6bc 9c4b ffbe e4ca 41be a3d9 cd3e
00000090: 3950 963d cc7b 86bd aaf4 a13e f2f1 1c3c
000000a0: 8189 84bc 7e4f 51bc c544 923e 42b9 643f
000000b0: 2cfd 5fbe 8e87 a53e 0a98 913e 1483 403f
000000c0: 092f 973d a5cc f6ba 0751 babd 2391 a73e
000000d0: b23b 4fbe 7bc1 033e f735 9dbe e4e4 c03c
000000e0: 5d2c 3fbe 74f4 af3d bd3b 733d cda6 9bbe
000000f0: 7bd6 043f 282e b23d 2c5f 4d3c 739b c53d
00000100: c3cc 1a3d fe1f ca3d e803 153f dcc2 81bf
00000110: 7625 94be 44a0 63bf bdd9 3fbe e85d d13d
00000120: f54e 25bf 069c 9dbe 29ea 9a3e 9943 2d3f
00000130: e331 c33e 2a9d cdbd 16b2 593f 5fa6 33bf
00000140: db79 f93e f8b7 44bd dd18 3f3e 4fc7 2f3e
00000150: 4258 8e3d cafd 1fbf 4472 ff3d 3577 87bf
00000160: aac9 ca3c 0971 5a3f 7be6 2b3e 3ac2 42be
00000170: 64bc bf3b afa5 ab3e 4b06 13bf f603 42bf
00000180: 9b4d 91bf dfcb 7a3e b9f0 d0bd b45d fabe
00000190: 5ce7 3c3f cedd 823e e410 a93e cfd5 253f
000001a0: 53fa 20c0 adce d9bb 7c38 163f cb44 8cbf
000001b0: 3095 3f3e f9ed 053f e3f6 743e b2de 41bf
000001c0: 0fb0 72be 2edc e5be d658 883e 8f17 3dbf
000001d0: ee40 103f d309 9ebd 5def 32bf 222d 25be
000001e0: b8a8 14be 0f1f d1bd bf7c b5bf 54c4 9bbe
000001f0: 374b fabd 80fc d7be df95 093e b7ab 6dbe
00000200: f34b e1bd 20aa 4e3e 98d1 c73e fb4a 573e
00000210: 7e65 45be efad 073d 055a ddbd 80e2 323e
00000220: d156 993e 1926 5e3e 59ed 3cbd 4908 ee3e
00000230: a183 bebd e0f9 b33d 25a2 f93d 271f e63e
00000240: 0aa1 993e 1e99 e63d f3c2 353d c088 593e
00000250: 1be4 cc3c 2b82 ec3c e143 9cbd e8d0 203e
00000260: b732 823d 2c87 c73e 1fbd 313e 2316 7b3d
00000270: 375e 323e b3b3 e13e 1ac5 d3bd 9241 613d
00000280: a4e9 0c3e 4677 84be ebcb 903e ad4c 4abe
00000290: 7932 903e b42d 8abd 291a 1ebf 1378 f33e
000002a0: 574e 3dbc d48e 5bbe 535b 873e 9c3f a2be
000002b0: ac04 b3bd ad93 c63e ec6e 133f fed9 c73e
000002c0: b41e aebd c42e f03d 8688 aabc 60c3 97bd
000002d0: 3d08 80be 429a 803e 68d0 c03d ded3 83bd
000002e0: 850a 1b3e 4262 c3bc 3681 5fbd a7da f33d
000002f0: 46f2 833e 5530 c93e 336a 443e f0d3 8a3c
00000300: d7f9 9cbc dff1 9abc a403 42bf 9cf2 87be
00000310: 83b0 32be 2cdd 3a3f 65b9 ccbe 70e0 54be
00000320: ce3f 1fbe 3c1f a6be aa6e 0ebe b68d 72be
00000330: 62dc 9abe 5a0e 7bbe c75a ffbe 372f 0cbf
00000340: af45 08bf 3249 24bf beb4 93be b2f3 37be
00000350: 5fed c9be b617 07bf db79 04bf e95a 653f
00000360: 3478 0dbf 2f99 f6bd 682a fcbe a279 96be
00000370: 6aad d3be 0534 d0be 40c3 86bd cbcd bebe
00000380: 3770 393f 625c e6be f52e 49bf 2998 ebbe
00000390: ee17 cabe 23f7 afbe 0734 0abe 8a92 41be
000003a0: dc41 f6bf e20e dbbe 55b8 d7be c845 353e
000003b0: 9cf2 25be f87b b6be 434b adbe 5475 05be
000003c0: ffa7 1a3e c6f1 4bbf 1173 23bf 1fd1 efbe
000003d0: 72ef 5abd a4cd cabe 20a3 59be bb09 00bf
000003e0: e112 153e 8c77 14bf e1bb 9abf 56f1 d8bd
000003f0: 2865 18bf dcc7 abbe 31e5 d1be ca16 45be

encoder.dcrnn_cells.1.update.weights_pool f4 [2, 2, 128, 64]
0.004456116 0.768271 0.45083985 -0.030040253 0.22124285 0.7581965 0.34872276 -0.33268777
-0.4212586 0.28826705 0.2847043 -0.19430263 -0.12145203 -0.13542338 -0.26404685 -0.5103675
-0.17568056 -0.0142504405 -0.49945244 -0.2284419 -0.40139163 0.3410285 0.42388457 -0.0349266
-0.30542514 0.077297464 0.5646162 -0.33046877 0.20837164 -0.3626045 0.5220012 0.47084293
0.06768297 -0.20085147 0.12542494 -0.444702 0.11583947 0.662588 0.43132943 0.15219763
0.86507255 -0.14839613 0.49552304 0.42741105 0.33696058 0.29224312 -0.06131339 0.698999
-0.011387965 -0.16853456 -0.60041934 -0.34914654 0.30231452 0.050676867 -0.1350999 0.019874843
0.47448087 0.51571274 1.1092337 0.4543224 0.06182341 -0.16356197 0.017638797 -0.13179268
0.18139414 0.5032265 0.5208644 0.3120022 0.40987495 0.84037954 0.20211676 -0.0041863867
0.09687468 0.108384795 0.8826065 -0.3544961 -0.66585207 0.25948632 -0.30394945 -0.3545417
-0.5299813 0.25107506 -0.008398073 -0.38558328 -1.014484 -0.04722379 0.5089981 -0.10361433
0.18576197 0.20263685 0.08219975 0.1043669 -0.07868902 -0.67112064 0.024374925 -8.5239124e-05
0.4570191 0.20433545 0.41883472 -0.67012644 0.27019417 0.102100186 0.09051934 0.36035004
-0.2624544 -0.26994058 0.3367078 -0.088758364 0.13773732 0.5152457 0.26139376 0.128555
-0.13433152 0.24606784 0.08268442 0.14960967 -0.106034525 -0.43783033 0.06885252 0.12552953
0.19419648 0.37057734 0.022382025 0.031630456 0.20417644 0.17520627 0.4290142 -0.47952226
0.1278296 0.35394213 0.46329662 -0.0069344067 0.23699905 0.7389264 -0.024337066 -0.28489342
-0.31468934 0.15663314 0.3363357 -0.18166578 -0.35631207 0.23360157 -0.22900133 -0.543988
-0.18129548 0.039539535 -0.31920493 -0.24022779 -0.43355426 0.31466576 0.49677852 -0.30729857
-0.1473851 0.051198732 0.42511776 -0.4736352 0.06323892 -0.33033606 0.35057262 0.3596251
0.3053951 -0.13578533 -0.009265511 -0.45482117 0.13529007 0.4740718 0.474427 0.29447645
0.8527495 -0.4926916 0.81036174 0.34811485 0.30900034 0.273751 -0.04041031 0.6802356
-0.32266012 -0.06754543 -0.38113284 -0.24775364 0.25170293 0.07063118 -0.24682227 -0.025381075
0.37769458 0.21944027 0.914091 0.3593979 0.23479167 -0.08890831 0.03508413 -0.1913114
-0.08012823 -0.3706935 -0.5262978 -0.2877398 -0.40336567 -0.5274318 -0.2672411 0.0011802061
-0.0036277352 0.03210282 -0.33464342 -0.25160646 0.47897142 -0.32950965 0.37393692 0.29121
0.23332651 -0.21115503 -0.04907197 -0.008798448 0.6823464 0.1574979 -0.52946866 0.025473326
-0.14108104 -1.0785476 -0.04606615 -0.053573728 0.035921708 0.43188727 0.0364014 -0.037098836
-0.31214693 -0.2500066 -0.51966786 0.032043688 -0.2996341 -0.025676629 0.020656507 -0.06859166
-0.062202062 0.20727552 -0.40178728 0.07241515 -0.13042198 -0.2893718 -0.63941973 -0.03264556
0.13003059 -0.3317589 0.08734023 -0.12258524 0.09139689 0.33239847 -0.13772322 0.069142714
-0.09232424 -0.17188767 -0.21004406 -0.016178785 -0.27265137 -0.15603434 -0.32326332 0.42882967
00000000: 9c04 923b 69ad 443f 7bd4 e63e fa16 f6bc
00000010: 7c8d 623e 2a19 423f ca8b b23e 0d56 aabe
00000020: 35af d7be bd97 933e c3c4 913e 45f7 46be
00000030: d8bb f8bd 6dac 0abe 2631 87be 72a7 02bf
00000040: 9be5 33be ae7a 69bc 3bb8 ffbe acec 69be
00000050: 3483 cdbe 4a9b ae3e 6607 d93e 320f 0fbd
00000060: af60 9cbe 224e 9e3d b08a 103f 3433 a9be
00000070: 605f 553e 4ca7 b9be dfa1 053f 5312 f13e
00000080: 5e9d 8a3d 02ac 4dbe 656f 003e fbaf e3be
00000090: 3e3d ed3d 5e9f 293f 36d7 dc3e b2d9 1b3e
000000a0: 6575 5d3f 28f5 17be 32b5 fd3e 9fd5 da3e
000000b0: 1986 ac3e e4a0 953e c023 7bbd 99f1 323f
000000c0: 9694 3abc 5394 2cbe 15b5 19bf 56c3 b2be
000000d0: f8c8 9a3e 8c92 4f3d a157 0abe 91d0 a23c
000000e0: 28ef f23e c005 043f 5ffb 8d3f f29c e83e
000000f0: 8b3a 7d3d ca7c 27be 3d7f 903c a9f4 06be
00000100: 63bf 393e 74d3 003f 5f57 053f c1be 9f3e
00000110: 21db d13e 1d23 573f b2f7 4e3e f52d 89bb
00000120: 3b66 c63d d9f8 dd3d 80f2 613f 8380 b5be
00000130: 4875 2abf 64db 843e 439f 9bbe 7d86 b5be
00000140: dbac 07bf e98c 803e 1298 09bc 2c6b c5be
00000150: 9dda 81bf bc6d 41bd b34d 023f c033 d4bd
00000160: 6338 3e3e 0980 4f3e 5858 a83d 50be d53d
00000170: b527 a1bd 90ce 2bbf ecad c73c 68c2 b2b8
00000180: 68fe e93e 503d 513e 8171 d63e 688d 2bbf
00000190: e456 8a3e e719 d13d 3462 b93d cd7f b83e
000001a0: 6c60 86be a735 8abe f764 ac3e f2c6 b5bd
000001b0: 030b 0d3e 24e7 033f 67d5 853e eca3 033e
000001c0: 348e 09be 35f9 7b3e 7356 a93d 4733 193e
000001d0: a128 d9bd 4c2b e0be 8d02 8d3d d08a 003e
000001e0: 71db 463e 50bc bd3e 825a b73c f08e 013d
000001f0: a113 513e 4669 333e c0a7 db3e f183 f5be
00000200: c3e5 023e e737 b53e 3735 ed3e 053a e3bb
00000210: e1af 723e 482a 3d3f 875e c7bc 8ddd 91be
00000220: f61e a1be 7064 203e 3134 ac3e 9806 3abe
00000230: 896e b6be 4035 6f3e 537f 6abe cc42 0bbf
00000240: 86a5 39be 35f4 213d d46e a3be 46fe 75be
00000250: d3fa ddbe df1b a13e c159 fe3e 3d56 9dbe
00000260: 1fec 16be c3b5 513d 09a9 d93e 5080 f2be
00000270: 6883 813d cf21 a9be 417e b33e c820 b83e
00000280: bf5c 9c3e 4f0b 0bbe 5fce 17bc 52de e8be
00000290: 7b89 0a3e 8ab9 f23e 19e8 f23e 9ec5 963e
000002a0: cb4d 5a3f 1342 fcbe de73 4f3f 1c3c b23e
000002b0: 4b35 9e3e 1729 8c3e 4885 25bd ec23 2e3f
000002c0: b533 a5be 4255 8abd d823 c3be 21b3 7dbe
000002d0: 35df 803e 15a7 903d fabe 7cbe f9eb cfbc
000002e0: 2f61 c13e f3b4 603e de01 6a3f 0003 b83e
000002f0: 3a6d 703e 8f15 b6bd 60b4 0f3d 23e7 43be
00000300: 451a a4bd 8acb bdbe 74bb 06bf a252 93be
00000310: f285 cebe c505 07bf d3d3 88be 25b1 9a3a
00000320: 4cbf 6dbb 3f7e 033d 6256 abbe 90d2 80be
00000330: be3b f53e 7db5 a8be a974 bf3e 7a19 953e
00000340: 25ed 6e3e 0639 58be b1ff 48bd 5e27 10bc
00000350: 41ae 2e3f 2147 213e 428b 07bf 70ad d03c
00000360: 8c77 10be d90d 8abf dcaf 3cbd 2070 5bbd
00000370: a422 133d 5420 dd3e a219 153d f3f4 17bd
00000380: b9d1 9fbe dd00 80be f408 05bf 3e40 033d
00000390: a469 99be cb57 d2bc d637 a93c c979 8cbd
000003a0: 97c7 7ebd 0940 543e 10b7 cdbe 654e 943d
000003b0: 578d 05be 8a28 94be 03b1 23bf 5ab7 05bd
000003c0: bd26 053e 4ddc a9be 6fdf b23d f80d fbbd
000003d0: 4b2e bb3d 2230 aa3e 5107 0dbe b29a 8d3d
000003e0: 7e14 bdbd 5203 30be ca15 57be 5f89 84bc
000003f0: f698 8bbe 77c7 1fbe c582 a5be 908f db3e

encoder.dcrnn_cells.1.update.bias_pool f4 [2, 64]
1.2171539 0.5544083 -0.56359166 0.6898291 -1.0199817 -0.15992765 -1.1264833 -0.2996455
0.8654369 0.17344777 0.013916286 0.75574034 -1.3080527 0.25335017 0.38077205 -0.59471977
0.25070766 0.2868694 -0.10801349 0.18573378 0.18793009 0.21750125 -0.48376215 -0.33700344
0.6569402 -0.40625048 -0.12849408 0.67866457 0.04348298 0.5129923 0.37897852 -0.7352255
-0.18442796 0.41484484 -0.8149656 0.33100185 -0.287817 -1.3241627 -0.93490994 -0.197514
0.9311736 -0.752471 0.72142386 -1.0190517 -0.9647233 -0.588777 -0.37542298 -1.0119678
-0.042114966 0.15225181 0.5432288 -0.80722886 -0.4666408 -0.11994182 -0.48134124 0.2804917
-0.64345175 -1.1622307 0.71409976 -0.44291297 1.0403157 0.8722379 -0.5044433 0.5595978
0.6578301 -0.81828886 -0.8807936 -0.15531066 0.1789544 0.63237286 -0.5257811 0.063275546
-0.21582375 -0.5831497 0.73437285 -0.17062111 -0.73845655 -0.2266491 -0.6575728 -0.25753587
-0.5150315 0.01837525 -1.1431382 -0.44596565 0.02718413 -0.331149 0.5926722 0.27527773
0.19073585 0.20794702 -0.23914398 -0.4005186 -0.45990095 -0.35788056 -0.93628454 -0.27307433
-0.18277007 -0.029642927 0.5571542 0.343436 0.57999796 -0.36145508 -0.29928815 0.7099221
0.67141277 -0.12691118 0.35103208 -0.044469032 -1.0650641 0.73815846 0.7599391 0.5447169
0.4667625 0.7417693 0.5021177 0.5167542 -0.2089021 0.22278208 0.51228076 -0.32495508
-0.0876407 -0.99994296 -0.13365494 0.17955074 -0.77653855 0.2476349 0.45917836 -0.11218146
00000000: b3cb 9b3f b4ed 0d3f 8b47 10bf a498 303f
00000010: c38e 82bf 13c4 23be 9b30 90bf 236b 99be
00000020: 468d 5d3f 4b9c 313e 2201 643c 3378 413f
00000030: 456e a7bf 1db7 813e 8ef4 c23e 8e3f 18bf
00000040: c15c 803e 8ce0 923e 2d36 ddbd ff30 3e3e
00000050: bf70 403e a6b8 5e3e acaf f7be b78b acbe
00000060: 3c2d 283f 1000 d0be f493 03be f6bc 2d3f
00000070: 361b 323d 7753 033f 7909 c23e bd37 3cbf
00000080: afda 3cbe 8b66 d43e 96a1 50bf 1379 a93e
00000090: c05c 93be 2a7e a9bf 4256 6fbf 1c41 4abe
000000a0: 6561 6e3f f1a1 40bf 3caf 383f 4970 82bf
000000b0: 1bf8 76bf 17ba 16bf 7137 c0be 2988 81bf
000000c0: be80 2cbd e6e7 1b3e 0b11 0b3f 8da6 4ebf
000000d0: 8beb eebe 0fa4 f5bd 5c72 f6be 9c9c 8f3e
000000e0: 41b9 24bf fac3 94bf 3ecf 363f 7dc5 e2be
000000f0: 1129 853f fc4a 5f3f 3223 01bf cd41 0f3f
00000100: 8e67 283f 617b 51bf b07b 61bf c209 1fbe
00000110: d23f 373e 30e3 213f 9799 06bf 9c96 813d
00000120: e700 5dbe 4c49 15bf dcff 3b3f 4db7 2ebe
00000130: 7d0b 3dbf b416 68be b156 28bf bedb 83be
00000140: 1bd9 03bf b187 963c 5a52 92bf 9c55 e4be
00000150: 41b1 de3c 5d8c a9be 5eb9 173f 34f1 8c3e
00000160: 4250 433e 10f0 543e 29e2 74be c610 cdbe
00000170: 2378 ebbe 1f3c b7be 58b0 6fbf 66d0 8bbe
00000180: 1428 3bbe b9d5 f2bc a8a1 0e3f d8d6 af3e
00000190: bf7a 143f a410 b9be 4c3c 99be 74bd 353f
000001a0: b5e1 2b3f 01f5 01be 7aba b33e 2925 36bd
000001b0: 0554 88bf f4f7 3c3f 5e8b 423f 9172 0b3f
000001c0: 7ffb ee3e 98e4 3d3f c98a 003f 014a 043f
000001d0: 6fea 55be fc20 643e d524 033f 8360 a6be
000001e0: f87c b3bd 43fc 7fbf d7dc 08be 26dc 373e
000001f0: 3bcb 46bf 0194 7d3e 6d19 eb3e 65bf e5bd
