CQ/result/P7_Resullt/HOURS/data4/2/best_model.pth (torch_old, 603202 bytes, 11 tensors)

node_embeddings f4 [228, 2]
0	0x3e2fc2bf	0.17164133
1	0x3dc82365	0.09772376
2	0x3e95bb61	0.2924452
3	0x3e86cac0	0.2632656
4	0x3e169519	0.14705314
5	0x3de2ccc9	0.11074216
6	0xbdef93ef	-0.11698138
7	0x3e87c664	0.26518548
8	0x3e925846	0.28582972
9	0x3e523641	0.20528509
10	0x3e89131c	0.26772392
11	0x3d22a4ff	0.039708134
12	0x3e28a395	0.16468652
13	0x3de4780b	0.11155709
14	0x3e0e57a7	0.13900624
15	0x3e8fc893	0.28082713
16	0xbea7448e	-0.3266949
17	0x3d5d28db	0.05399404
18	0xbe082ed8	-0.1329912
19	0x3e83e54f	0.25760886
20	0x3e949235	0.29017797
21	0x3e2dfad6	0.16990218
22	0x3e9633f6	0.29336518
23	0x3e80aa3e	0.25129884
24	0xbd9e601e	-0.07733177
25	0x3e3f3932	0.18674162
26	0x3e8737b5	0.2640969
27	0x3e0e3595	0.13887627
28	0x3e196759	0.1498083
29	0x3e167696	0.14693674
30	0xbe67ac3f	-0.226243
31	0x3e17b293	0.14814214
32	0x3ba375b6	0.0049883975
33	0x3e9a584f	0.301455
34	0x3e517ed3	0.20458536
35	0x3e90c6e1	0.28276733
36	0x3e422744	0.18960291
37	0x3d2f20d9	0.042755935
38	0x3e02c2d0	0.12769628
39	0x3e7e50d9	0.24835528
40	0xbddcc2fc	-0.10779378
41	0x3e44a2c5	0.19202717
42	0x3e2112a6	0.1572977
43	0x3e03869e	0.12844321
44	0x3e801351	0.25014737
45	0x3e25da32	0.16196516
46	0x3e91f0f2	0.2850414
47	0x3de4b4b8	0.11167282
48	0x3e6f601d	0.23376508
49	0x3d5bb21a	0.053636648
50	0x3dacfbbb	0.08446451
51	0x3e21d6c9	0.1580459
52	0x3dec29d3	0.11531415
53	0x3e6289b7	0.22122847
54	0x3de7ea11	0.113239415
55	0x3e3c7b21	0.18406345
56	0x3d222ae6	0.039591692
57	0x3e4e2495	0.20131142
58	0x3c63a151	0.013893441
59	0x3e16d412	0.14729336
60	0xbdf16484	-0.1178675
61	0x3e9787b9	0.29595736
62	0x3e43dc9a	0.19127122
63	0x3e659b09	0.22422422
64	0x3e87b7d9	0.26507452
65	0x3cf41d29	0.02979906
66	0x3e8dc33d	0.27688017
67	0x3df07750	0.11741507
68	0x3e316f9d	0.17327733
69	0x3dbbfef7	0.0917949
70	0x3da5687d	0.0807657
71	0x3e8bff38	0.27343154
72	0x3da51856	0.08061282
73	0x3e7f40cb	0.2492706
74	0xbde034c0	-0.10947561
75	0x3e8817ae	0.26580566
76	0x3e0e0324	0.13868386
77	0x3e6c5b40	0.23081684
78	0xbdaca915	-0.08430687
79	0x3e97147d	0.2950782
80	0x3e6796cc	0.22616118
81	0x3e922fb2	0.28552014
82	0x3e1ee8b6	0.1551846
83	0x3e4c8d45	0.19975765
84	0x3e06366c	0.13106698
85	0x3e5ca743	0.2154818
86	0x3e6f2917	0.23355518
87	0x3c7cc5f7	0.015428058
88	0x3e325e30	0.17418742
89	0x3e5dd4ba	0.2166318
90	0x3d9140a5	0.07092408
91	0x3e22f361	0.15913154
92	0x3d99ee63	0.07516172
93	0x3e8d83d0	0.27639627
94	0x3e82c0bc	0.2553767
95	0x3cef35fb	0.029200545
96	0x3df21f87	0.118224196
97	0x3e14ff4d	0.14550515
98	0x3e46ed69	0.19426502
99	0x3d8ef8b0	0.06981027
100	0x3e0b4b35	0.13602908
101	0x3dde8687	0.10865503
102	0x3dc89768	0.097945035
103	0x3e582045	0.2110606
104	0x3e3ddc25	0.1854101
105	0x3e9277cd	0.28607026
106	0x3e675485	0.22590835
107	0x3e63bb58	0.22239435
108	0x3dbc7510	0.092020154
109	0x3e363f71	0.17797638
110	0xbd2a7bb2	-0.04162187
111	0x3e943e1c	0.28953636
112	0x3e877f17	0.2646415
113	0x3e93141a	0.28726274
114	0x3e7f620c	0.24939746
115	0x3cb7cb29	0.022435741
116	0x3e2ab1fe	0.16669461
117	0x3dc0f1d6	0.094211265
118	0x3e63ab91	0.22233416
119	0x3d89c051	0.067261346
120	0x3dfb258e	0.12263022
121	0x3dfb9eff	0.122861855
122	0x3def82a9	0.11694843
123	0x3dff060a	0.12452324
124	0x3e9148c6	0.28375834
125	0x3e060069	0.13086094
126	0x3e8fa545	0.28055778
127	0x3dbeda8b	0.093190275
128	0x3dec9ef2	0.11553754
129	0x3df17493	0.11789813
130	0x3e557c3d	0.20848174
131	0x3d79fce7	0.061032202
132	0x3e7708a0	0.24124384
133	0x3e3a4c9e	0.1819329
134	0x3d124f06	0.035719894
135	0x3e9ddbfc	0.30831897
136	0x3e084256	0.13306555
137	0x3dd75f6f	0.105162494
138	0x3e8b4005	0.2719728
139	0x3e97e930	0.29670095
140	0x3e98bb2e	0.29830307
141	0x3cfeec48	0.031118527
142	0x3dfe6d9b	0.12423249
143	0x3deb280f	0.1148225
144	0x3e761e87	0.24035083
145	0x3da44997	0.08021849
146	0x3e0294af	0.12752031
147	0x3dddc865	0.10829238
148	0x3e981795	0.29705492
149	0x3e8aad7f	0.27085492
150	0x3e3242d0	0.174083
151	0x3e10a456	0.14125189
152	0x3d81875f	0.06324648
153	0x3e83e491	0.2576032
154	0x3e50b3ff	0.20381163
155	0x3e6d8d94	0.23198539
156	0x3e97e95d	0.2967023
157	0x3c006cff	0.007838487
158	0x3e330b9b	0.17484896
159	0x3e91a3f9	0.28445414
160	0x3e4b815d	0.19873567
161	0x3d00528b	0.03132872
162	0x3e88226b	0.2658876
163	0x3d0f8e19	0.035047624
164	0x3e804a6e	0.25056785
165	0x3e0572d0	0.13032079
166	0x3db596e1	0.088666685
167	0x3e147ffa	0.14501944
168	0x3e9923f2	0.29910237
169	0x3e9a1181	0.3009148
170	0x3e43c454	0.19117862
171	0x3e28b0f9	0.1647376
172	0x3e919f08	0.28441644
173	0xbcdc6bef	-0.026906935
174	0xbdc38768	-0.09547311
175	0x3e769fc1	0.24084379
176	0x3e44bc51	0.19212462
177	0x3d98ae40	0.074551105
178	0xbe5e1dd8	-0.21691072
179	0x3e10524c	0.14093894
180	0xbd8ace17	-0.0677759
181	0x3e31eff9	0.17376699
182	0x3e33bba6	0.17552051
183	0x3d941050	0.07229674
184	0x3e4021ab	0.18762843
185	0x3dd1014a	0.10205324
186	0xbe7bb170	-0.24579406
187	0x3d9c8122	0.07641818
188	0x3e640e85	0.22271164
189	0x3d9d7158	0.07687634
190	0x3e3f677f	0.18691824
191	0x3e5f9419	0.21833839
192	0x3e33f91c	0.17575496
193	0x3dd5f056	0.10446231
194	0x3e507350	0.20356488
195	0x3ddaa6a7	0.10676318
196	0x3e83459b	0.25639042
197	0x3e4168ab	0.18887584
198	0x3db6eb95	0.089316525
199	0x3e8f6f89	0.28014782
200	0x3d4bc857	0.049751606
201	0x3e0d8c4f	0.13823055
202	0x3dab9ffc	0.08380124
203	0x3e8701b2	0.2636848
204	0x3df68c83	0.12038519
205	0x3e99c4ed	0.30033055
206	0x3e49ccdb	0.19707052
207	0x3e090051	0.13379027
208	0x3d880c44	0.066429645
209	0x3e664313	0.22486524
210	0x3e3537fd	0.17697139
211	0x3e40354d	0.18770333
212	0x3d745452	0.059650727
213	0x3e0b4df5	0.13603957
214	0x3d77a5b5	0.060460765
215	0x3e7fe3d2	0.2498925
216	0x3e02e370	0.12782073
217	0x3def78df	0.11692976
218	0x3e956c45	0.29184166
219	0x3e90e032	0.28296047
220	0x3e8224ed	0.25418797
221	0xbc46cc0d	-0.01213361
222	0xbdaf3a08	-0.085559905
223	0x3e56c1f3	0.20972423
224	0xbd8af85d	-0.06785653
225	0x3e35496d	0.17703791
226	0x3e924697	0.2856948
227	0x3e63af73	0.22234897
228	0x3e48f091	0.19623019
229	0x3dda46c2	0.10658027
230	0xbd4b3c30	-0.049617946
231	0x3e49469a	0.19655839
232	0x3e8d6de8	0.27622914
233	0x3e6dd6a8	0.23226416
234	0x3e9179c3	0.2841321
235	0x3e17b063	0.1481338
236	0x3e917d91	0.28416112
237	0x3ddea0ab	0.10870489
238	0xbeb23f33	-0.34813842
239	0x3d10a347	0.035311963
240	0x3e843a78	0.25825858
241	0x3e1ecc87	0.15507708
242	0x3e3ad83e	0.18246552
243	0x3e327b98	0.1742996
244	0x3e76e50f	0.24110816
245	0x3e802f64	0.25036156
246	0x3ccd7ad7	0.025082989
247	0x3e59a8ef	0.2125585
248	0xbcd4ffef	-0.026000945
249	0x3e24c809	0.16091932
250	0xbe839321	-0.25698188
251	0x3e0063aa	0.12538019
252	0x3d8624f9	0.06550021
253	0x3e349813	0.17636137
254	0x3e482a50	0.19547391
255	0x3e57bc51	0.21067931

encoder.dcrnn_cells.0.gate.weights_pool f4 [2, 2, 65, 128]
0	0x3e0022e9	0.12513317
1	0x3d54495d	0.051827777
2	0x3de19911	0.11015523
3	0x3dcd6ba6	0.10030298
4	0x3dd44e3c	0.103664845
5	0x3df2bd67	0.11852532
6	0x3df11489	0.11771495
7	0x3df20b12	0.11818518
8	0xbd109312	-0.035296507
9	0xbd01107d	-0.031509865
10	0x3df1ffab	0.11816343
11	0x3de4487c	0.11146638
12	0x3de2a91f	0.110674135
13	0x3dfd0232	0.12353934
14	0x3df25073	0.11831751
15	0x3b9086fa	0.0044106217
16	0x3ddc99c6	0.107715175
17	0x3dde48d1	0.108537324
18	0xbc9aca83	-0.018895393
19	0x3c718140	0.014740288
20	0x3e007a3f	0.12546633
21	0xbbe1f49f	-0.006895616
22	0x3dd81744	0.105513126
23	0xbdc30fd9	-0.09524507
24	0x3d03aab0	0.032145202
25	0x3dfa15c0	0.1221118
26	0x3df0a9b4	0.11751118
27	0xbd925ac5	-0.07146219
28	0x3ddf4179	0.1090116
29	0x3dd4d31e	0.1039183
30	0x3db46d1e	0.08809875
31	0x3de443ef	0.1114577
32	0xbc337593	-0.010953325
33	0x3df330a4	0.11874512
34	0x3d084553	0.033269238
35	0x3deb6749	0.114943095
36	0x3dfab2a3	0.122411035
37	0x3ddb6a26	0.107136056
38	0x3e025df7	0.12731157
39	0x3da686a5	0.0813115
40	0xbd9e3f3e	-0.07726906
41	0x3df91e04	0.12163928
42	0x3dc49849	0.095993586
43	0x3dccb2f5	0.09995071
44	0x3b84b233	0.0040495633
45	0x3de3a2e4	0.11115053
46	0xbd62b917	-0.055352297
47	0x3dfd4d7c	0.123682946
48	0xbd8f15cf	-0.069865815
49	0x3b244904	0.0025067935
50	0x3ddd2a69	0.10799105
51	0x3dfb8993	0.122820996
52	0x3cdbb984	0.02682186
53	0x3d92e1c9	0.07171971
54	0x3e006be5	0.12541158
55	0x3e0058d2	0.12533882
56	0x3dc6b92a	0.09703286
57	0x3dcfb9f8	0.101428926
58	0xbc89a303	-0.016801363
59	0xbd51fbe5	-0.051265616
60	0x3dcc3951	0.0997187
61	0x3defb0d1	0.11703647
62	0xbcfe05cc	-0.031008624
63	0x3dd946fe	0.10609244
64	0xbe0eafc2	-0.13934234
65	0xbd8ca501	-0.068674095
66	0xbe0cee4f	-0.13762783
67	0xbe0c34f5	-0.13692077
68	0xbdf055c3	-0.11735108
69	0xbdf99a2d	-0.1218761
70	0xbdd26200	-0.10272598
71	0xbe00757b	-0.12544815
72	0xbcd162e8	-0.025559857
73	0xbc184a97	-0.009295127
74	0xbde93c8a	-0.113885
75	0xbdf60f6d	-0.12014661
76	0xbdf17db5	-0.11791555
77	0xbe0208ce	-0.12698671
78	0xbde6214a	-0.11236818
79	0xbd21320c	-0.03935437
80	0xbe08d85c	-0.13363785
81	0xbe07f159	-0.1327566
82	0xbd2c858e	-0.042119555
83	0xbd2b0cab	-0.041760128
84	0xbe0665c8	-0.13124764
85	0xbd097171	-0.03355545
86	0xbdfc8d9c	-0.12331697
87	0x3d9e90ff	0.077424996
88	0xbd146746	-0.0362313
89	0xbe0a75cf	-0.13521503
90	0xbdcbc722	-0.09950091
91	0x3cb2b397	0.02181415
92	0xbdff8566	-0.124766156
93	0xbe03aada	-0.12858143
94	0xbdd18448	-0.10230309
95	0xbddfe63a	-0.10932584
96	0xbd4dee54	-0.050276116
97	0xbdbead0c	-0.0931035
98	0xbe02ff06	-0.12792596
99	0xbe0fcccf	-0.14042972
100	0xbe0621ab	-0.13098781
101	0xbe0b4026	-0.1359869
102	0xbe121228	-0.14264739
103	0xbdc943a5	-0.09827355
104	0x3d9ff97e	0.07811259
105	0xbded83b5	-0.11597387
106	0xbdeb95c9	-0.115031786
107	0xbdfd1154	-0.12356821
108	0xbd46b5b3	-0.048513126
109	0xbe0a6ca6	-0.13518009
110	0x3d450988	0.048104793
111	0xbe0f67ca	-0.14004436
112	0x3d3fc20b	0.046815913
113	0xbd9d576f	-0.07682692
114	0xbdee7403	-0.11643221
115	0xbdf5ec4f	-0.12007963
116	0xbe03d7d5	-0.12875302
117	0xbdc7c41b	-0.09754201
118	0xbdf34036	-0.11877482
119	0xbe08020e	-0.13282034
120	0xbdf52f00	-0.11971855
121	0xbe0926d4	-0.13393718
122	0xbd46367a	-0.048391797
123	0x3d5580cf	0.052124795
124	0xbdf35d97	-0.11883085
125	0xbe0ea4a2	-0.1392999
126	0xbcbddf6e	-0.023177829
127	0xbe0ac69a	-0.13552323
128	0xbdf1f95b	-0.11815139
129	0xbe20cf10	-0.15703988
130	0xbe061c90	-0.13096833
131	0xbe0d0370	-0.13770843
132	0xbe09249d	-0.13392873
133	0xbde15fdf	-0.11004614
134	0xbe0e2b8d	-0.13883801
135	0xbdf8a430	-0.12140691
136	0xbd9cfa44	-0.07664922
137	0xbde4f4ce	-0.11179505
138	0xbe09e40d	-0.134659
139	0xbdfa7eb0	-0.12231195
140	0xbde1a960	-0.11018634
141	0xbe007679	-0.12545194
142	0xbe0ce31d	-0.13758512
143	0xbded9db9	-0.11602349
144	0xbe06e11b	-0.13171808
145	0xbdf2a86a	-0.11848529
146	0xbdbcc8a4	-0.09217957
147	0xbe160f7d	-0.14654346
148	0xbdf9f5ff	-0.12205123
149	0xbd29dc29	-0.041469727
150	0xbde559bb	-0.11198755
151	0x3db1edad	0.08687911
152	0xbe02f0b6	-0.12787136
153	0xbe070484	-0.13185316
154	0xbe1bb6ba	-0.15206423
155	0xbd0fcc3b	-0.03510688
156	0xbdff6329	-0.12470085
157	0xbe0b2f5a	-0.13592282
158	0xbdfbede1	-0.12301231
159	0xbe0e17e1	-0.13876297
160	0xbdcf9649	-0.101360865
161	0xbe1fac1d	-0.15593
162	0xbdcc0094	-0.09961048
163	0xbe03e46d	-0.12880106
164	0xbdf6a9aa	-0.120440796
165	0xbde6a6dd	-0.112622954
166	0xbdf6c77f	-0.120497696
167	0xbdebc2a3	-0.115117334
168	0xbdd2f3fa	-0.10300441
169	0xbe0ab892	-0.1354697
170	0xbdff12c7	-0.12454753
171	0xbdf94337	-0.12171023
172	0xbddcbb07	-0.1077786
173	0xbe06e127	-0.13171826
174	0xbdf51d2c	-0.11968455
175	0xbe0e3802	-0.13888553
176	0xbdf65503	-0.120279334
177	0xbddc371b	-0.10752698
178	0xbe09c811	-0.13455226
179	0xbdec15b8	-0.1152758
180	0xbdf0b5c3	-0.11753418
181	0xbe0b6385	-0.13612182
182	0xbe025a64	-0.12729794
183	0xbdfe4ed6	-0.124173805
184	0xbdec7b13	-0.11546912
185	0xbdf3b299	-0.11899299
186	0xbd9f0104	-0.077638656
187	0xbdd8016c	-0.10547146
188	0xbe0cacb7	-0.1373776
189	0xbe07588c	-0.13217372
190	0xbda731d3	-0.081638
191	0xbe0c8cd4	-0.13725597
192	0x3e1f9ced	0.15587206
193	0x3e0ed925	0.13950022
194	0x3e11555e	0.14192721
195	0x3e06d6df	0.13167904
196	0x3e128017	0.14306675
197	0x3e1582a9	0.14600624
198	0x3e007e4a	0.12548175
199	0x3e0f64d9	0.14003314
200	0x3df47100	0.119356155
201	0x3e1139ee	0.14182255
202	0x3e1b2980	0.1515255
203	0x3e0f0fc6	0.13970861
204	0x3e0f5a6c	0.13999337
205	0x3e16b7a8	0.14718497
206	0x3e01592b	0.12631671
207	0x3e08b4cc	0.13350219
208	0x3e0a803b	0.13525479
209	0x3e1f506e	0.15558025
210	0x3e0bf792	0.1366866
211	0x3e017612	0.12642696
212	0x3e15fc20	0.1464696
213	0x3e03f3cf	0.12885974
214	0x3e1f0bae	0.15531799
215	0x3e2f4379	0.17115583
216	0x3e109d76	0.14122567
217	0x3e094a6a	0.13407293
218	0x3e12b08c	0.1432516
219	0x3e08c380	0.13355827
220	0x3e1d7c82	0.15379527
221	0x3e16e9f1	0.14737679
222	0x3e0e0b47	0.1387149
223	0x3e08d388	0.13361943
224	0x3e0faf53	0.14031725
225	0x3e1224b4	0.14271814
226	0x3e00e6ea	0.12588087
227	0x3e149fa1	0.14514019
228	0x3e174311	0.14771678
229	0x3e10bf7b	0.14135544
230	0x3e1c3b1d	0.15256925
231	0x3dfbf35c	0.123022765
232	0x3e1b7eed	0.15185137
233	0x3df49c52	0.11943878
234	0x3e095d77	0.1341456
235	0x3e1e812b	0.15478961
236	0x3e0b96bc	0.1363172
237	0x3e0d180d	0.13778706
238	0x3e121b6a	0.1426827
239	0x3e15c800	0.14627075
240	0x3e0dfd31	0.13866116
241	0x3e0f31f3	0.13983898
242	0x3e0599b1	0.1304691
243	0x3e186a6d	0.14884348
244	0x3e09fb3e	0.13474748
245	0x3e111b02	0.14170459
246	0x3e07fbef	0.13279699
247	0x3e0df595	0.13863213
248	0x3e15b8ef	0.14621328
249	0x3e08e571	0.13368775
250	0x3dff65b5	0.12470571
251	0x3df1313c	0.11776969
252	0x3e0bfc5c	0.13670486
253	0x3e08d80f	0.1336367
254	0x3e104eeb	0.14092605
255	0x3e1398e5	0.14413793

encoder.dcrnn_cells.0.gate.bias_pool f4 [2, 128]
0	0x3e48bc41	0.19603063
1	0xbe4d4043	-0.20044045
2	0x3e1f85db	0.15578406
3	0x3d886d55	0.066614784
4	0x3ea90df8	0.3301847
5	0x3eb5b921	0.35492805
6	0xbdab9ccd	-0.08379517
7	0x3ddebcbe	0.108758435
8	0xbe0624a0	-0.13099909
9	0x3e4ff106	0.20306787
10	0x3e51967b	0.2046756
11	0xbd567b61	-0.052363757
12	0x3df364ff	0.11884498
13	0x3e521bde	0.20518443
14	0x3e8fbe85	0.28075042
15	0x3ea9a985	0.33137146
16	0x3e14db94	0.14536887
17	0x3e9c2947	0.30500242
18	0xbea34e8c	-0.31895864
19	0xbc3bb0af	-0.011455699
20	0x3e6c3a95	0.23069222
21	0xbdeb3b67	-0.114859395
22	0x3ea43a5c	0.32075775
23	0x3ab48c6f	0.0013774763
24	0x3e2d5a3f	0.16928957
25	0x3e816aaf	0.25276706
26	0x3d2d86f1	0.04236502
27	0xbe9ff1ca	-0.31239158
28	0x3e687c42	0.2270365
29	0x3e5c4488	0.21510518
30	0x3e3029ca	0.17203441
31	0x3e1c34b7	0.15254484
32	0xbcd76c41	-0.026296737
33	0x3d4bdbe1	0.04977024
34	0xbd8d5ae9	-0.06902105
35	0xbd7b01a1	-0.06128085
36	0x3e1a915d	0.15094514
37	0x3d98a1fd	0.07452772
38	0x3e79c894	0.2439292
39	0x3e902df0	0.28160048
40	0x3e15ba34	0.14621812
41	0x3de4ea90	0.11177552
42	0x3daf7417	0.08567064
43	0x3e1e1362	0.15437081
44	0xbca0f831	-0.019649597
45	0x3c4f64f9	0.012658351
46	0x3ea738df	0.32660577
47	0x3d20f416	0.03929528
48	0xbd80da57	-0.06291645
49	0xbe3f0f11	-0.18658091
50	0x3eb19c3f	0.3468952
51	0x3e052850	0.13003659
52	0x3bbdb0d5	0.0057889023
53	0xbd2eabef	-0.042644437
54	0x3bba1a0d	0.005679375
55	0x3e461208	0.19342816
56	0x3dbe243f	0.09284257
57	0x3e99cb4d	0.3003792
58	0xbdb5446e	-0.088509426
59	0xbce1af9b	-0.027549556
60	0x3e22337f	0.15839957
61	0x3e3a0506	0.18165979
62	0xbe1586db	-0.14602225
63	0x3daf9113	0.085725926
64	0xbe7d6015	-0.24743684
65	0x3e82519a	0.25452882
66	0x3d372d6b	0.04472105
67	0xbeae30c0	-0.34021568
68	0xbe85d03b	-0.2613543
69	0xbe7b7acc	-0.24558562
70	0xbe2c7039	-0.16839685
71	0x3d8f7184	0.07004073
72	0xbc38636c	-0.011254173
73	0xbe74a44d	-0.23890801
74	0x3d00fb2f	0.031489547
75	0x3cee8cbd	0.029119844
76	0x3b928054	0.0044708643
77	0xbd8937a6	-0.06700067
78	0xbe8d4601	-0.2759247
79	0xbe4bd4b5	-0.1990536
80	0xbe53590c	-0.20639437
81	0xbe9a4740	-0.30132484
82	0x3e4c621e	0.19959304
83	0xbcd1ef70	-0.025626868
84	0x3a3e8db9	0.0007269043
85	0xbcf3f466	-0.029779624
86	0xbd6d2503	-0.057896625
87	0xbc8a3e4a	-0.016875405
88	0x3be00688	0.006836716
89	0xbd9714ba	-0.07377
90	0xbe36a914	-0.17837936
91	0xbcb6e34e	-0.022325184
92	0xbe550a32	-0.2080467
93	0xbe7af68c	-0.24508113
94	0xbe6e6ea3	-0.23284392
95	0x3d6c498e	0.057687335
96	0x3e457a96	0.19285044
97	0xbe0227f7	-0.12710558
98	0x3b00851d	0.0019610592
99	0xbe8944b3	-0.26810226
100	0xbcd4c13a	-0.025971044
101	0xbd9c5145	-0.076326884
102	0xbe63ce5b	-0.22246687
103	0xbdf40cee	-0.11916529
104	0xbea52434	-0.32254183
105	0xbd7c0e3a	-0.061537005
106	0x3d25b55b	0.040456157
107	0xbe395856	-0.18100104
108	0xbd5ca385	-0.053866882
109	0x3d665f44	0.056243196
110	0xbd6b03f4	-0.057376817
111	0xbe920e4d	-0.28526536
112	0x3dae4bcf	0.08510553
113	0x3e11bfbb	0.14233296
114	0xbe2cd3cd	-0.1687767
115	0x3c8d50fd	0.017250532
116	0xbc5102bb	-0.012756999
117	0xbe0de476	-0.13856682
118	0xbea18a9a	-0.31551057
119	0xbccf9faf	-0.025344698
120	0xbdc798e8	-0.097459614
121	0xbddaa008	-0.10675055
122	0x3d7ba532	0.06143684
123	0xbd9c10fa	-0.076204255
124	0xbe891173	-0.26771125
125	0xbdda2f9f	-0.10653614
126	0x3d297fd3	0.04138167
127	0xbe0f073a	-0.139676
128	0x3a131c83	0.00056118536
129	0x3e76dd8a	0.24107948
130	0x3e3a8ddf	0.18218182
131	0x3e6a64eb	0.2289006
132	0x3dae4c16	0.08510606
133	0x3bac1cc8	0.0052524544
134	0x3e953303	0.2914048
135	0x3e02b631	0.12764813
136	0x3e063181	0.13104822
137	0xbd7ad161	-0.061234836
138	0x3d7d65f1	0.061864797
139	0x3e308bf6	0.17240891
140	0x3e09379f	0.13400124
141	0x3e9a30c6	0.30115336
142	0x3cd5a7ad	0.02608093
143	0x3ea5febe	0.32420915
144	0xbd1cd484	-0.03828861
145	0x3e49621c	0.19666332
146	0x3dcc868d	0.09986601
147	0x3eb9e372	0.3630634
148	0x3d53ee85	0.05174114
149	0x3e1f756c	0.15572137
150	0x3e37c9de	0.179481
151	0x3e7c1037	0.2461556
152	0x3e826ca7	0.2547352
153	0x3d6f1344	0.058367983
154	0x3e10cfbb	0.14141743
155	0x3e37d8da	0.17953816
156	0x3d8b19ab	0.06792005
157	0x3d51fd02	0.051266678
158	0x3ead5635	0.33854833
159	0xbc496e71	-0.012294398
160	0x3e47698e	0.1947386
161	0xbcb73b1b	-0.02236705
162	0x3ea9981b	0.3312386
163	0x3e8d4f8c	0.27599752
164	0x3e749564	0.23885113
165	0x3e3dce68	0.18535769
166	0x3eb03499	0.3441513
167	0x3e140a7a	0.14457121
168	0xbc0413aa	-0.008061329
169	0x3e273521	0.16328861
170	0x3e5c4aec	0.21512955
171	0x3e08f0d7	0.13373123
172	0x3d754f4d	0.05989008
173	0x3dec1a89	0.11528499
174	0x3df1b5c4	0.11802247
175	0x3eaec97b	0.34138092
176	0x3e937b2f	0.2880492
177	0x3e2a5315	0.16633256
178	0x3d6f6d53	0.05845387
179	0x3cba71d1	0.02275935
180	0x3db757d7	0.08952301
181	0x3e95b16e	0.2923693
182	0xbcb895d9	-0.02253239
183	0x3d106e14	0.03526123
184	0x3e458935	0.19290622
185	0x3ea7cdca	0.32774192
186	0x3e0b3db5	0.13597758
187	0x3e8b47c4	0.2720319
188	0x3dd93c28	0.10607177
189	0x3e6f772b	0.23385303
190	0xbd888a6a	-0.066670254
191	0x3e4d8c8f	0.2007315
192	0xbeaa6046	-0.33276576
193	0x3ba6e5b9	0.005093303
194	0x3b667a64	0.0035168165
195	0xbdbc9d9f	-0.09209751
196	0xbe1d2dce	-0.15349504
197	0xbe9abc06	-0.30221575
198	0x3d92fed8	0.07177514
199	0xbe7d84fe	-0.24757764
200	0x3d89a255	0.067204155
201	0xbe5b5bf6	-0.21421799
202	0xbe95697a	-0.29182035
203	0x3d20545b	0.039142948
204	0xbc1c49fa	-0.009539122
205	0xbc416f33	-0.011806297
206	0xbe180087	-0.14843951
207	0xbe8eb2d8	-0.27870822
208	0xbe980cdb	-0.29697308
209	0xbd19222f	-0.037386116
210	0x39a15e45	0.0003077855
211	0xbe1fada9	-0.1559359
212	0xbe896dba	-0.26841527
213	0xbe59a81f	-0.2125554
214	0xbe913723	-0.28362378
215	0xbea3aedd	-0.31969348
216	0xbd359ece	-0.0443409
217	0xbdd25067	-0.10269242
218	0xbea769b5	-0.32697836
219	0xbd5ba113	-0.05362041
220	0xbe8e4010	-0.2778325
221	0xbd37cec9	-0.04487494
222	0xbe0450e7	-0.12921487
223	0xbe95c5ad	-0.29252377
224	0xbcac3860	-0.021022975
225	0xbeac5ecf	-0.33666083
226	0xbd8a4500	-0.06751442
227	0xbce27a87	-0.027646316
228	0xbe8f5f38	-0.28002334
229	0x3d93e0bb	0.07220598
230	0xbe6da0d4	-0.23205882
231	0xbe4eecc5	-0.20207508
232	0x3d89339d	0.066992976
233	0xbe0833c9	-0.13301004
234	0xbe9c0b27	-0.3047726
235	0xbe92963e	-0.2863025
236	0xbe978955	-0.29596964
237	0x3ce17609	0.027522104
238	0x3c03e7b6	0.00805085
239	0xbc8e212c	-0.017349802
240	0xbe84090e	-0.25788158
241	0xbe9d7b9f	-0.30758378
242	0xbe5e1457	-0.21687447
243	0xbe3d6659	-0.18496074
244	0xbd13d29d	-0.03608953
245	0xbe01a8c9	-0.12662043
246	0xbb76fdd2	-0.003768791
247	0xbea994d9	-0.33121374
248	0xbe8444ad	-0.25833645
249	0x3cc27b00	0.023740292
250	0xbe5db9d2	-0.21652916
251	0x3c984911	0.018589528
252	0x3d8b5d5e	0.06804918
253	0xbea0695f	-0.31330392
254	0xbe1a745e	-0.15083453
255	0xbea74099	-0.32666472

encoder.dcrnn_cells.0.update.weights_pool f4 [2, 2, 65, 64]
0	0xbd932656	-0.071850464
1	0xbd8d2b79	-0.068930574
2	0x3d7f79c6	0.06237199
3	0xbd80f79a	-0.06297226
4	0x3d32bc32	0.04363651
5	0xbd8aa942	-0.067705646
6	0xbcea887c	-0.028629534
7	0x3d77b8e0	0.060479045
8	0xbc85289b	-0.016254714
9	0x3d3e1650	0.046407998
10	0x3d32efd9	0.043685768
11	0xbd2fb6d5	-0.04289897
12	0xbd8dd067	-0.06924515
13	0xbd58ccf8	-0.05292985
14	0x3cbab278	0.022790179
15	0xbd07d3f8	-0.033161134
16	0xbd8f376e	-0.06992994
17	0x3d6660e5	0.05624475
18	0xbc8d69a8	-0.017262295
19	0x3d4afd26	0.049557827
20	0x3d8bd231	0.068272
21	0xbbe09280	-0.0068534017
22	0xbd8d1ea0	-0.06890607
23	0x3cadea04	0.021229751
24	0xbd1c3a72	-0.038141675
25	0x3d80accf	0.062829606
26	0xbcc48c98	-0.023992822
27	0xbd281471	-0.04103512
28	0x3d789760	0.060691237
29	0x3d6a34f5	0.05717941
30	0x3d8c5373	0.06851854
31	0xbcb1a55e	-0.021685299
32	0xbc574b15	-0.01314046
33	0x3cc813e9	0.024423556
34	0x3c0d3995	0.008619686
35	0x3da7c3b0	0.08191621
36	0x3d868198	0.06567687
37	0x3d7eac51	0.062176052
38	0x3d9ae421	0.075630434
39	0xbd8f55b4	-0.069987684
40	0x3c9f40ac	0.019440018
41	0x3cc0c707	0.023532404
42	0xbd42345f	-0.047413226
43	0xbd6e6f98	-0.058211893
44	0x3d48c913	0.049019884
45	0xbda87117	-0.08224695
46	0xbcf0fe16	-0.029418033
47	0xbd8e88bb	-0.06959673
48	0x3d0cc223	0.03436483
49	0xbbbf1280	-0.005831063
50	0x3d78c951	0.060738865
51	0xbd95f485	-0.07322029
52	0x3c5db9f2	0.013533102
53	0xbda80fb3	-0.082061194
54	0x3d7d65ed	0.061864782
55	0xbd7c4780	-0.061591625
56	0x3d535dd3	0.05160315
57	0xbd9ddee3	-0.07708528
58	0x3c6b25fa	0.014352316
59	0x3d606c1b	0.054790597
60	0x3d61deff	0.055144306
61	0x3d90d1fe	0.07071303
62	0x3cc894c1	0.024484994
63	0xbd9763a9	-0.073920555
64	0x3e12a165	0.1431938
65	0xbe09358e	-0.13399336
66	0xbe023d42	-0.1271868
67	0x3e094ed3	0.13408975
68	0xbdfc3adc	-0.12315914
69	0x3e17afda	0.14813176
70	0xbe0e74db	-0.13911764
71	0xbe123c77	-0.14280878
72	0xbdf3cd31	-0.119043715
73	0xbe01ed20	-0.12688112
74	0xbe18595c	-0.14877838
75	0x3df6cb5c	0.120505065
76	0x3e151872	0.14560106
77	0x3dfd374b	0.12364062
78	0x3e065da9	0.13121666
79	0x3e0c32d2	0.13691261
80	0x3e06791c	0.13132137
81	0xbe0d54a9	-0.13801827
82	0xbddc943b	-0.1077046
83	0x3de34bb4	0.110984236
84	0xbe0ad734	-0.13558656
85	0xbde3276e	-0.11091505
86	0x3e15fdce	0.146476
87	0xbc8fb63b	-0.017542949
88	0x3e06c77d	0.13162036
89	0xbe055732	-0.13021544
90	0xbddd9387	-0.10819154
91	0xbdb69a3e	-0.08916138
92	0xbe023e56	-0.12719092
93	0xbdfd5be3	-0.123710416
94	0xbdfefe92	-0.12450899
95	0xbdefe3e4	-0.117133886
96	0xbdf1c118	-0.11804408
97	0x3e045d62	0.12926248
98	0xbe0779e8	-0.13230097
99	0xbe0c75b4	-0.13716775
100	0xbe036458	-0.12831247
101	0xbe0b42dc	-0.13599724
102	0xbe14ebf7	-0.14543138
103	0x3e009a14	0.12558776
104	0xbe1c1198	-0.15241086
105	0x3de829a5	0.11336068
106	0x3df563d3	0.119819306
107	0x3e03592f	0.1282699
108	0xbe1719a3	-0.14755873
109	0x3e19f342	0.15034202
110	0x3e0fd433	0.14045791
111	0x3e0c48cd	0.13699646
112	0xbe171367	-0.14753495
113	0xbdfa2374	-0.122137934
114	0xbe104c2a	-0.14091554
115	0x3e099463	0.13435511
116	0xbdf36714	-0.11884895
117	0x3e0a05e0	0.13478804
118	0xbe04d35b	-0.1297125
119	0x3e152f93	0.1456893
120	0xbe04f4dd	-0.12984033
121	0x3e05145a	0.12996045
122	0x3db54f1a	0.08852978
123	0x3ddc7b49	0.10765702
124	0xbe0e2608	-0.13881695
125	0xbe0bb511	-0.1364329
126	0x3db90026	0.090332314
127	0x3e14719c	0.14496464
128	0xbe114498	-0.14186323
129	0xbe340e6f	-0.17583631
130	0x3e2642f5	0.1623648
131	0xbe18a23e	-0.1490564
132	0x3e27370f	0.16329597
133	0xbe171f7d	-0.14758106
134	0xbe60eb37	-0.21964727
135	0x3e4e40e6	0.20141944
136	0xbe31065e	-0.17287585
137	0x3e376018	0.1790775
138	0x3e182d38	0.14861
139	0xbe201682	-0.15633586
140	0xbe58fc1b	-0.2118992
141	0xbe339150	-0.17535901
142	0x3e61df6e	0.22057888
143	0xbe173d8c	-0.14769572
144	0xbe197555	-0.14986165
145	0x3e30b3fd	0.1725616
146	0xbe284a9f	-0.16434716
147	0x3e3545fc	0.17702478
148	0x3e22b84d	0.15890618
149	0xbe284485	-0.16432388
150	0xbe339b5d	-0.17539735
151	0x3e15ecc3	0.14641099
152	0xbe0cec77	-0.13762079
153	0x3e0a08c1	0.13479902
154	0xbe5ac978	-0.21365917
155	0xbe1d975a	-0.15389767
156	0x3e404954	0.18777972
157	0x3e2535a9	0.16133751
158	0x3e1cb173	0.15302067
159	0xbe435116	-0.190739
160	0xbe325e58	-0.17418802
161	0x3e419d2a	0.1890761
162	0xbe286dab	-0.16448085
163	0x3e42d231	0.19025494
164	0x3e50882d	0.20364447
165	0x3e32ffce	0.17480394
166	0x3e4e13cb	0.20124738
167	0xbe1b6898	-0.15176618
168	0x3e3ae105	0.182499
169	0x3e5a958d	0.21346112
170	0xbe4616ee	-0.19344684
171	0xbe2943f1	-0.16529824
172	0x3e5501b6	0.20801434
173	0xbe2c7f27	-0.1684538
174	0xbe4ebf34	-0.20190126
175	0xbe18d938	-0.14926612
176	0x3e391ba7	0.18076955
177	0xbe275a46	-0.1634303
178	0x3e22ea61	0.15909721
179	0xbe28e074	-0.16491872
180	0xbe2c380b	-0.16818254
181	0xbe2ba7a4	-0.16763169
182	0x3e1ed5ca	0.15511242
183	0xbe499f7b	-0.19689743
184	0x3e27634c	0.16346473
185	0xbe64ad1f	-0.22331665
186	0x3e1b244f	0.1515057
187	0x3e298744	0.16555506
188	0x3e26c3b8	0.16285598
189	0x3e48cade	0.19608638
190	0x3e2eee14	0.17083007
191	0xbe2b2765	-0.16714247
192	0xbe143975	-0.14475043
193	0x3e07757e	0.13228413
194	0x3e18b222	0.14911702
195	0xbe1a0212	-0.15039852
196	0x3e0db5f0	0.13838935
197	0xbe04895b	-0.12943022
198	0x3e09e178	0.13464916
199	0x3e19aedf	0.15008114
200	0x3dfc88ee	0.12330805
201	0x3e1116c6	0.14168844
202	0x3df561bd	0.11981533
203	0xbe044991	-0.12918688
204	0xbe1938f1	-0.14963128
205	0xbe1a7640	-0.15084171
206	0xbdf867d2	-0.12129177
207	0xbe19d6dc	-0.15023369
208	0xbe110e3a	-0.14165583
209	0x3dfe2f30	0.12411344
210	0x3dfd3138	0.12362903
211	0xbe0b0b0d	-0.13578434
212	0x3e16631c	0.14686245
213	0x3de9dd72	0.114191905
214	0xbe1339f0	-0.1437757
215	0x3d085463	0.033283602
216	0xbe116394	-0.14198142
217	0x3e09d11e	0.13458678
218	0x3df5acf2	0.11995877
219	0x3de7247d	0.112862565
220	0x3e1a27ef	0.15054296
221	0x3dfe1ea7	0.1240819
222	0x3e0985ee	0.13429996
223	0x3e1d2d72	0.15349367
224	0x3e065720	0.13119173
225	0xbe194a13	-0.14969663
226	0x3e1f9554	0.15584308
227	0x3e1905ed	0.14943667
228	0x3e082c4e	0.13298151
229	0x3def729d	0.116917826
230	0x3e06e128	0.13171828
231	0xbe0a5ff2	-0.13513163
232	0x3df5e760	0.12007022
233	0xbdf63094	-0.12020984
234	0xbe126601	-0.14296724
235	0xbdf890f8	-0.121370256
236	0x3df992d1	0.12186206
237	0xbe01e506	-0.12685022
238	0xbe16e898	-0.14737165
239	0xbe01e904	-0.12686545
240	0x3e134801	0.14382936
241	0x3e18247e	0.1485767
242	0x3e003ac3	0.12522416
243	0xbdf0c754	-0.11756769
244	0x3e12b810	0.14328027
245	0xbe1339b8	-0.14377487
246	0x3e07ff96	0.13281092
247	0xbe0e70ef	-0.13910268
248	0x3e0d7efd	0.13817973
249	0xbe02d03e	-0.1277475
250	0xbdfbdc7a	-0.12297912
251	0xbdde4250	-0.10852492
252	0x3e1a7bde	0.15086314
253	0x3df7d5fa	0.1210136
254	0xbdf60764	-0.120131284
255	0xbe175fe5	-0.14782675

encoder.dcrnn_cells.0.update.bias_pool f4 [2, 64]
0	0xbe99a72b	-0.30010352
1	0xbe3bb09e	-0.18329093
2	0x3eea8d4c	0.45810926
3	0xbee5cd0e	-0.44883007
4	0x3e84ff15	0.25975862
5	0xbeafbab0	-0.3432212
6	0xbcbb32dc	-0.0228514
7	0x3e792b94	0.2433303
8	0xbec0b2c5	-0.3763639
9	0x3ea1e75d	0.3162183
10	0x3ee512cd	0.44740906
11	0xbe7337a3	-0.23751692
12	0xbe848854	-0.2588526
13	0xbeb1c1bc	-0.3471812
14	0xbc345657	-0.011006913
15	0xbeb03ea4	-0.3442279
16	0xbe8693e3	-0.26284704
17	0x3eb021ae	0.34400696
18	0xbec3ce1f	-0.38243195
19	0x3e92192d	0.28534833
20	0x3e79cbe5	0.24394186
21	0xbe8e48ac	-0.2778982
22	0xbe1c9e78	-0.15294826
23	0x3ec54421	0.3852854
24	0xbedc1b93	-0.42989787
25	0x3e02020d	0.12696095
26	0xbe0c863b	-0.1372308
27	0xbea3196e	-0.3185534
28	0x3e9eee83	0.31041345
29	0x3e97d4aa	0.29654437
30	0x3ee499fa	0.44648725
31	0xbc465505	-0.012105231
32	0xbeaf8632	-0.3428207
33	0x3d7bf568	0.061513335
34	0xbeb915bf	-0.36149403
35	0x3e77c661	0.2419677
36	0x3ebdbca5	0.37057987
37	0x3ecf41c8	0.40479875
38	0x3e7b4f70	0.24542022
39	0xbea1608e	-0.31518978
40	0x3edd87cc	0.43267667
41	0xbc14daf7	-0.009085408
42	0xbe241731	-0.16024472
43	0xbe9865d6	-0.29765195
44	0x3ead89ed	0.33894292
45	0xbe83a2c5	-0.2571012
46	0xbec9f6ea	-0.39446193
47	0xbee76aa1	-0.4519854
48	0x3eb7ff92	0.35937172
49	0xbeabcb4b	-0.33553538
50	0x3e355d08	0.1771127
51	0xbe267ac1	-0.16257764
52	0xbeb894ea	-0.36051112
53	0xbee45abd	-0.44600478
54	0x3e8b5e77	0.27220508
55	0xbe971ce1	-0.2951422
56	0x3e9c124c	0.3048271
57	0xbe287533	-0.16450958
58	0x3e999c7a	0.30002195
59	0x3e3306b8	0.17483032
60	0x3ecf40d9	0.40479162
61	0x3e42e144	0.19031245
62	0x3e930474	0.28714335
63	0xbec86d85	-0.39146057
64	0xbece32c7	-0.40273115
65	0x3ee2100e	0.44152874
66	0x3e433506	0.19063196
67	0xbec43fd7	-0.38329956
68	0x3eb68067	0.35644838
69	0xbe80effb	-0.2518309
70	0x3ecf9c37	0.4054887
71	0x3e5d0a64	0.21585995
72	0x3eb147db	0.34625134
73	0xbd997a83	-0.074940704
74	0x3ed63d85	0.4184381
75	0xbee2ddf3	-0.4430996
76	0xbe4eccd9	-0.2019533
77	0xbe9d4416	-0.30716008
78	0xbecad427	-0.39614984
79	0x3c239fce	0.009986831
80	0xbebdcdba	-0.3707102
81	0x3ed82de2	0.42222506
82	0x3ed004eb	0.40628752
83	0xbecee1dd	-0.40406695
84	0x3edb5e84	0.42845547
85	0x3e72591d	0.23666807
86	0xbea9aa19	-0.33137587
87	0xbe8e9d64	-0.27854455
88	0x3c6f8635	0.0146194
89	0x3ee4488a	0.44586593
90	0x3edd8d60	0.43271923
91	0x3e86f99e	0.26362318
92	0x3e67704b	0.2260143
93	0x3eaa52bc	0.33266246
94	0xbb8861a6	-0.004162031
95	0x3e8d8152	0.27637726
96	0x3eb67d2a	0.35642368
97	0xbea7458e	-0.32670254
98	0x3eaeba33	0.34126434
99	0x3e86c842	0.2632466
100	0x3e3a180f	0.1817324
101	0x3e30d7f3	0.17269878
102	0x3e620c20	0.22074938
103	0xbc842110	-0.016129047
104	0xbe771add	-0.24131341
105	0xbebad6a5	-0.36491886
106	0xbe1b9368	-0.1519295
107	0xbeaa40b1	-0.3325248
108	0xbe097761	-0.13424446
109	0xbe7881d4	-0.24268275
110	0x3e395fc0	0.18102932
111	0xbeceaa37	-0.4036424
112	0xbe15dfe8	-0.14636195
113	0x3ea6967c	0.32536685
114	0x3edfb404	0.4369203
115	0xbe56dad2	-0.20981911
116	0x3ed6d72d	0.4196104
117	0x3cf2dd55	0.029646555
118	0x3ead717b	0.3387564
119	0xbe806aff	-0.25081632
120	0x3e9759db	0.29560742
121	0xbe1a9251	-0.15094878
122	0xbe95d4b6	-0.29263848
123	0xbe324c1d	-0.17411847
124	0x3edd2b11	0.4319692
125	0x3e39d510	0.18147683
126	0xbe874535	-0.26419988
127	0xbe8e500b	-0.27795443

encoder.dcrnn_cells.1.gate.weights_pool f4 [2, 2, 128, 128]
0	0xbd082fac	-0.03324859
1	0xbe08228b	-0.13294427
2	0xbd332d00	-0.043744087
3	0xbe040604	-0.1289292
4	0xbe016176	-0.12634835
5	0xbdfef7eb	-0.1244963
6	0xbe0d44fd	-0.13795848
7	0xbe2b8961	-0.16751625
8	0x3d5d1d1d	0.053982843
9	0xbe0df703	-0.13863759
10	0xbe0f0250	-0.13965726
11	0xbd239b4e	-0.039943032
12	0x3d7b39a4	0.061334267
13	0xbde02353	-0.109442376
14	0xbcd75364	-0.026284881
15	0xbe0512c9	-0.12995447
16	0xbe014dc9	-0.12627329
17	0xbe0d57ae	-0.13802978
18	0xbe746594	-0.23866874
19	0xbcfe59a4	-0.031048603
20	0xbdfdfa7b	-0.12401291
21	0xbe1db6cd	-0.15401764
22	0xbe0134d2	-0.12617806
23	0xbe0ddaf2	-0.13853052
24	0xbd305a84	-0.043055072
25	0xbdeed33f	-0.11661386
26	0x3d8099dd	0.06279347
27	0xbc80c15a	-0.015717197
28	0xbdf1bbd7	-0.11803406
29	0x3d181b9b	0.0371357
30	0xbd41e39c	-0.047336206
31	0xbe035389	-0.12824835
32	0xbe0832d4	-0.1330064
33	0xbd1e5954	-0.03865941
34	0xbe020d8f	-0.12700485
35	0xbd5a7c80	-0.05334139
36	0xbe40b847	-0.18820296
37	0xbd3e7b79	-0.04650447
38	0xbdfa2c83	-0.12215521
39	0xbd3f82f8	-0.04675576
40	0xbe056fff	-0.13031004
41	0xbd39ef09	-0.045393977
42	0xbd78b7c8	-0.060722142
43	0xbe106a4a	-0.14103046
44	0xbe0519a2	-0.1299806
45	0xbd1d5339	-0.038409445
46	0xbe09dea2	-0.13463834
47	0xbe13a669	-0.14418949
48	0xbe55c7c7	-0.2087699
49	0x3c2c4b5a	0.010516012
50	0xbdf6e0b0	-0.120545745
51	0xbe082004	-0.13293463
52	0xbd28fc64	-0.041256323
53	0xbe0382ab	-0.12842815
54	0xbe023504	-0.12715536
55	0xbe0059d9	-0.12534274
56	0xbdb18e23	-0.086696886
57	0xbda4c930	-0.08046186
58	0xbded5c0b	-0.115898214
59	0x3cb66324	0.02226407
60	0xbded2219	-0.11578769
61	0xbe07fef0	-0.13280845
62	0xbd1d034f	-0.038333233
63	0xbd0dd5e9	-0.03462783
64	0x3e151a37	0.14560781
65	0x3e155ac6	0.14585409
66	0x3e0f7eb1	0.14013173
67	0x3e1baf27	0.15203534
68	0x3e16cf78	0.1472758
69	0x3e1a41b8	0.15064132
70	0x3e1bd804	0.15219122
71	0x3e1ebd15	0.15501817
72	0x3e02a579	0.12758435
73	0x3e1e09c4	0.15433413
74	0x3e26658d	0.16249676
75	0x3e101a79	0.14072599
76	0x3e0dc9fa	0.13846579
77	0x3e2c37b8	0.1681813
78	0x3e264389	0.162367
79	0x3e24aa6d	0.16080637
80	0x3e229993	0.15878896
81	0x3e1b2462	0.15150598
82	0x3df9867c	0.12183854
83	0x3e06c2e7	0.13160287
84	0x3e1c4214	0.15259582
85	0x3e187a5b	0.14890425
86	0x3e266cf5	0.16252501
87	0x3e27ba21	0.16379596
88	0x3e10d6b2	0.141444
89	0x3e2050bc	0.15655798
90	0x3e06690b	0.13126008
91	0x3e1de0c3	0.15417771
92	0x3e2c7c9d	0.16844411
93	0x3dcdfa00	0.10057449
94	0x3e2c093a	0.16800395
95	0x3e2d9504	0.16951376
96	0x3e1e8c75	0.15483268
97	0x3e0f004d	0.13964958
98	0x3e198f4f	0.14996074
99	0x3e18b7fd	0.14913936
100	0x3e1ea7a1	0.15493633
101	0x3e0ec7e3	0.13943438
102	0x3e1d3866	0.15353546
103	0x3e0d5276	0.13800988
104	0x3e21adc3	0.15788941
105	0x3e090b0a	0.13383117
106	0x3e0dad32	0.138356
107	0x3e1bb0c4	0.1520415
108	0x3e174457	0.14772163
109	0x3e0735af	0.13204072
110	0x3e17cddc	0.14824623
111	0x3e195da8	0.14977133
112	0x3e24ee69	0.16106571
113	0x3e1ed725	0.15511759
114	0x3e206b86	0.15666017
115	0x3e149af6	0.14512238
116	0x3e121118	0.14264333
117	0x3e1793e0	0.14802504
118	0x3e25e445	0.16200359
119	0x3e23cd59	0.15996303
120	0x3e246faf	0.16058229
121	0x3e1293af	0.1431415
122	0x3e1adbc2	0.15122893
123	0x3e145675	0.14486106
124	0x3e163809	0.14669813
125	0x3e16db1c	0.14732021
126	0x3e17d1d9	0.14826144
127	0x3e17cb2d	0.14823599
128	0xbe048cfa	-0.12944403
129	0x3bf671ce	0.007520891
130	0xba9b3780	-0.0011842102
131	0x3d4edebe	0.050505392
132	0x3d6ae61b	0.057348352
133	0x3d1b5b7b	0.03792904
134	0xbd785a1f	-0.06063282
135	0xbcec2385	-0.02882553
136	0xbdef6213	-0.11688628
137	0x3d3a3df3	0.045469236
138	0x3d76530b	0.06013779
139	0x3c87c1c0	0.01657188
140	0xbdbed5db	-0.093181334
141	0x3d0180ec	0.03161709
142	0x3dde7500	0.1086216
143	0x3d0daeb9	0.034590457
144	0x3d43106e	0.04762309
145	0x3d6c2ca5	0.057659764
146	0xbdd15951	-0.10222114
147	0xbccc02f1	-0.024903746
148	0x3d282ee3	0.04106034
149	0xbce3dc5f	-0.027815042
150	0x3d4185f8	0.047246903
151	0x3d19b116	0.037522398
152	0xbd0221c1	-0.03177047
153	0x3b53b336	0.0032302863
154	0xbdf0b4eb	-0.11753257
155	0x3df7cbd0	0.12099421
156	0x3bb0c41f	0.005394473
157	0xbe1bddad	-0.15221281
158	0x3deb0bdf	0.114768736
159	0xbc9b4d87	-0.018957866
160	0x3d38fbb3	0.045161914
161	0xbd0193e9	-0.0316352
162	0x3d217d58	0.039426178
163	0x3d861d35	0.065485395
164	0xbd548053	-0.051880192
165	0xbd93dda3	-0.07220008
166	0xbb09aa1b	-0.0021005932
167	0xbdab49bf	-0.08363675
168	0x3d3daaf4	0.04630561
169	0xbd2dfb68	-0.042476088
170	0x3d5e0eaa	0.054213203
171	0x3d100adb	0.035166603
172	0x3d1e9a7f	0.038721558
173	0x3bada45a	0.0052991332
174	0x3d4b1ae7	0.049586203
175	0xbc957ea2	-0.01824886
176	0xbda4a734	-0.08039704
177	0x3d227b17	0.03966817
178	0x3c6246b3	0.013810801
179	0x3d36636a	0.044528402
180	0xbe01f077	-0.12689386
181	0x3d5235ce	0.051320843
182	0x3d1b9c76	0.03799101
183	0x3d80b493	0.06284442
184	0x3defdaf3	0.11711683
185	0x3da61be3	0.08110788
186	0xbc2b040a	-0.010437975
187	0x3db7d385	0.08975891
188	0x3d89ae85	0.0672274
189	0x3d5fce1d	0.054639924
190	0xbe0cc56b	-0.13747184
191	0xbe20ab8c	-0.1569044
192	0x3da61285	0.08109001
193	0x3e041d25	0.12901743
194	0x3d9847e2	0.074355856
195	0x3deef483	0.11667731
196	0x3dcd0cdf	0.100122206
197	0x3dcc1970	0.09965789
198	0x3e0525a6	0.13002643
199	0x3e0acf2d	0.13555594
200	0x3dbf3fe8	0.09338361
201	0x3ddb9afc	0.1072292
202	0x3dde8aa5	0.10866288
203	0x3d95bb3a	0.07311101
204	0x3dc74e9c	0.097317904
205	0x3e05bba2	0.13059857
206	0x3dd0bcb8	0.10192245
207	0x3dd4ce5c	0.103909224
208	0x3dcfc910	0.101457715
209	0x3de6b8da	0.112657264
210	0x3dd3d6ad	0.103436805
211	0x3da01c0e	0.07817851
212	0x3de3a742	0.11115886
213	0x3e00ba05	0.12570961
214	0x3dd9f7bf	0.10642957
215	0x3de4a708	0.11164671
216	0x3d9ee420	0.07758355
217	0x3e022427	0.12709104
218	0x3dc6bf20	0.09704423
219	0x3dd2a3ae	0.10285126
220	0x3df407e0	0.119155645
221	0x3de86497	0.11347311
222	0x3debda4c	0.11516246
223	0x3de6b240	0.11264467
224	0x3ddb55c3	0.10709717
225	0x3d91d68b	0.07120999
226	0x3de973ca	0.11399038
227	0x3da074e8	0.07834798
228	0x3d948978	0.072527826
229	0x3da0fa86	0.078602836
230	0x3def2530	0.11677015
231	0x3d90baba	0.07066865
232	0x3dee52b3	0.116368674
233	0x3db36352	0.08759178
234	0x3da8a210	0.08234036
235	0x3deaf0ff	0.114717476
236	0x3decfbb9	0.1157145
237	0x3dabe6c7	0.08393627
238	0x3dd67ecd	0.10473404
239	0x3e058b43	0.13041405
240	0xbbdd758c	-0.0067583974
241	0x3da9ae69	0.08285219
242	0x3e01bfad	0.12670775
243	0x3dd9abd4	0.10628477
244	0x3da8d6a6	0.08244066
245	0x3dd7a981	0.10530377
246	0x3de24ac4	0.11049417
247	0x3ddc08bd	0.10743854
248	0x3dc8a850	0.09797728
249	0x3dc6124e	0.0967146
250	0x3df1e9ec	0.11812195
251	0x3dd8d616	0.10587709
252	0x3deb0ac0	0.1147666
253	0x3dd1e837	0.102493696
254	0x3da40a78	0.08009809
255	0x3db0b1cc	0.08627662

encoder.dcrnn_cells.1.gate.bias_pool f4 [2, 128]
0	0xbe6fae49	-0.23406328
1	0x3e23ca3f	0.1599512
2	0x3d6578f1	0.05602354
3	0x3e91d0f5	0.28479734
4	0x3e074ffe	0.13214108
5	0x3e7132b5	0.235545
6	0x3ea4a546	0.32157344
7	0x3e78be04	0.24291235
8	0x3d619423	0.055072915
9	0xbdb8b5ae	-0.09019028
10	0x3e1a298d	0.15054913
11	0xbdaa2496	-0.083077595
12	0x3de62f8a	0.11239536
13	0x3c9eff0e	0.019408729
14	0xbe0f7cc3	-0.14012437
15	0x3e3eef10	0.18645883
16	0x3e5467c3	0.20742707
17	0x3e05b310	0.13056588
18	0xbd88904c	-0.066681474
19	0x3db23ca4	0.087029725
20	0x3e8c65f4	0.27421534
21	0x3e8f1dcc	0.2795242
22	0x3e0bdd5a	0.13658658
23	0x3d11ce3d	0.035597075
24	0xbdbaf0d9	-0.09127969
25	0x3ea588ae	0.3233084
26	0x3c9864e8	0.018602803
27	0x3cbcceff	0.023047922
28	0x3db91e0c	0.09038934
29	0xbe8f6aa6	-0.28011054
30	0x3dfabd27	0.12243109
31	0x3da14592	0.078745976
32	0x3e06ec98	0.13176191
33	0x3e0abcf8	0.13548648
34	0x3e846c19	0.25863722
35	0xbd8e3f83	-0.06945708
36	0x3d22aa3c	0.03971313
37	0x3e23e332	0.16004637
38	0x3dd6128b	0.104527555
39	0x3d8c1416	0.068397686
40	0x3cc9c478	0.024629816
41	0xbe213463	-0.1574264
42	0x3e42778f	0.1899092
43	0x3e63517d	0.22199054
44	0x3dde8d68	0.10866815
45	0xbcf11d4a	-0.029432911
46	0x3e8c2853	0.27374515
47	0xbdce5d19	-0.10076351
48	0x3e0a28df	0.13492154
49	0xbe136a89	-0.14396109
50	0x3e4c0c29	0.19926514
51	0x3be456d3	0.006968358
52	0x3c430f60	0.011905521
53	0x3e775346	0.2415286
54	0x3dacb56f	0.08433043
55	0x3d1686be	0.036749594
56	0xbda94a53	-0.08266129
57	0x3e829128	0.2550137
58	0x3ba5022e	0.00503566
59	0xbda484a5	-0.080331124
60	0xbcfa08e7	-0.030521823
61	0x3b1dce79	0.0024079366
62	0x3cacf827	0.021114422
63	0x3d64e368	0.055880934
64	0xbe11fdec	-0.1425702
65	0xbe8ab32c	-0.27089822
66	0xbcd6b053	-0.026207125
67	0xbda10108	-0.07861525
68	0xbd5b059e	-0.053472154
69	0x3db727c4	0.089431316
70	0x3db4b986	0.08824448
71	0xbdf7889e	-0.120866045
72	0x3ca1f0cf	0.019768147
73	0xbe060925	-0.13089426
74	0xbe9c5992	-0.30537087
75	0xbc93a941	-0.018025042
76	0xbe19600a	-0.14978042
77	0xbc346c83	-0.011012199
78	0x3deddfb9	0.11614937
79	0xbe11ad3d	-0.14226241
80	0xbe14604e	-0.14489862
81	0xbd9fb3ff	-0.077980034
82	0x3d439707	0.047751453
83	0x3b890543	0.0041815354
84	0xbe49e5a5	-0.19716509
85	0x3c9d85ee	0.019228902
86	0xbe382cc9	-0.17985834
87	0xbc2a53c5	-0.010395949
88	0xbe391f18	-0.18078268
89	0xbe5e995b	-0.21738188
90	0x3e1f7de9	0.15575375
91	0xbccddbb5	-0.025129179
92	0x3cf9be9a	0.030486394
93	0x3e1b49cb	0.15164869
94	0x3d775938	0.06038782
95	0x3d78fac3	0.06078602
96	0x3dedbad0	0.11607897
97	0xbcf638a6	-0.030056309
98	0xbd995c1e	-0.07488273
99	0xbe11364a	-0.14180866
100	0xbe881db4	-0.26585162
101	0xbd81017b	-0.062991105
102	0x3db3c5b7	0.087779455
103	0xbc756248	-0.014977045
104	0x3dace0da	0.084413245
105	0xbb1f1c84	-0.0024278471
106	0xbe4f6873	-0.20254688
107	0xbe5ced7a	-0.21574965
108	0x3d881b7f	0.066458695
109	0x3ddb8e53	0.107205056
110	0xbe1f2bf1	-0.15544106
111	0xbd2aa9aa	-0.04166571
112	0xbe609bb1	-0.21934392
113	0x3dd8a208	0.1057778
114	0xbd76a4ae	-0.060215645
115	0xbe4484ed	-0.19191332
116	0xbd95a400	-0.07306671
117	0x3d34c2ce	0.044131093
118	0xbdc8d418	-0.09806079
119	0xbe049099	-0.12945785
120	0x3d495aef	0.049158987
121	0xbd094622	-0.03351415
122	0xbe32b909	-0.17453398
123	0xbe1a70ce	-0.15082094
124	0xbe0bd728	-0.13656294
125	0xbe7523ad	-0.2393939
126	0x3dd7539b	0.10513993
127	0xbe277475	-0.16353019
128	0x3d91ffd0	0.071288705
129	0x3e942c65	0.2894012
130	0xbdad8e31	-0.084743865
131	0x3d030d8b	0.031995337
132	0xbdc406a0	-0.09571576
133	0x3d0eb8a5	0.03484406
134	0x3d672169	0.056428347
135	0x3e12d9ea	0.1434094
136	0x3dfc0c34	0.12307015
137	0x3e8e7c9d	0.27829447
138	0x3c7755ae	0.015096111
139	0x3e8006f2	0.250053
140	0xbbc883d8	-0.0061192326
141	0x3d8c01ca	0.06836279
142	0x3def615b	0.11688491
143	0x3df314ce	0.118692026
144	0x3baaaa44	0.0052082855
145	0xbd39866d	-0.045294214
146	0x3e1d1796	0.15341029
147	0x3ea1db23	0.316125
148	0x3e84c66b	0.2593263
149	0xbd23a312	-0.039950438
150	0xbd31e0c2	-0.043427236
151	0x3d0df403	0.034656536
152	0x3e4ca431	0.19984509
153	0x3d982d34	0.07430497
154	0x3e1ac45f	0.15113972
155	0xbe608286	-0.2192479
156	0x3e1ec06a	0.15503088
157	0xbddd7d51	-0.10814918
158	0xbc889ef2	-0.016677354
159	0x3e1c162e	0.15242836
160	0x3e665efc	0.22497171
161	0x3e969cd6	0.2941653
162	0x3e69568f	0.22786926
163	0x3e91a401	0.28445438
164	0x3dbe99a0	0.093066454
165	0x3e268413	0.1626132
166	0xbb7b17ea	-0.0038313814
167	0x3e72729f	0.23676537
168	0x3e252953	0.16129045
169	0xbb89927f	-0.004198372
170	0x3eaad62f	0.33366534
171	0x3def01e3	0.11670282
172	0x3d5664db	0.052342277
173	0x3e94c49d	0.29056254
174	0x3dfdab03	0.123861335
175	0x3e7ff145	0.24994381
176	0xbd08730c	-0.033312842
177	0x3e173e34	0.14769822
178	0xbd92f04f	-0.071747415
179	0x3e0c3902	0.13693622
180	0x3e18d5ff	0.14925383
181	0x3d8f4ef4	0.06997481
182	0x3c526eb6	0.012843778
183	0x3e2adbfc	0.1668548
184	0x3e42140f	0.18952964
185	0x3e966d76	0.29380387
186	0x3e3f5637	0.18685232
187	0xbdb6d7bd	-0.089278676
188	0x3e8e0f49	0.27746037
189	0x3e343da1	0.17601635
190	0x3e49fb54	0.1972478
191	0x3e6817f1	0.22665383
192	0xbe917367	-0.28408358
193	0x3dd41bb2	0.10356845
194	0x3cbb1aef	0.022839991
195	0xbe4be437	-0.19911276
196	0x3d58d941	0.052941564
197	0x3c02dc83	0.007987144
198	0xbd2b38cf	-0.041802224
199	0x3c03beb9	0.008041077
200	0xbe190fba	-0.14947405
201	0xbe2b9048	-0.16754258
202	0xbea0b8d2	-0.31391007
203	0xbe930ad6	-0.28719205
204	0xbe889fee	-0.26684517
205	0xbe7d0fee	-0.24713108
206	0x3da07489	0.07834727
207	0x3ba4dbd2	0.0050310874
208	0xbe46e66c	-0.19423836
209	0xbe373f34	-0.17895204
210	0xbe2483f1	-0.16065957
211	0x3dc86670	0.097851634
212	0xbe4d8db2	-0.20073584
213	0x3dccf93c	0.10008475
214	0x3d98de36	0.074642584
215	0xbbfe8534	-0.007767344
216	0xbe8677d1	-0.26263288
217	0x3d80bfe2	0.06286599
218	0x3ca34137	0.019928558
219	0x3d9fe70a	0.07807739
220	0xbd1d4d9e	-0.0384041
221	0x3d5e109a	0.05421505
222	0xbe28e8e6	-0.16495094
223	0x3cec7893	0.028866088
224	0xbdf09896	-0.117478535
225	0xbe07258c	-0.13197917
226	0xbe2eadac	-0.17058438
227	0xbe4f0dcb	-0.20220105
228	0x3db73908	0.08946425
229	0xbe27fb69	-0.16404499
230	0x3d453962	0.048150428
231	0xbe3d8622	-0.18508199
232	0xbe6069dd	-0.21915384
233	0x3dabcff0	0.0838927
234	0x3bd3b691	0.0064609726
235	0xbe826660	-0.2546873
236	0xbd81f21b	-0.06345006
237	0xbe30c2a3	-0.17261748
238	0xbe33d7eb	-0.17562835
239	0xbc2cf7ab	-0.0105570955
240	0xbe9bef5c	-0.30456054
241	0xbe37afb3	-0.17938118
242	0xbc4a914c	-0.012363743
243	0xba3d7ce2	-0.0007228387
244	0xbdb8059e	-0.089854464
245	0xbe8d5dad	-0.2761053
246	0x3caf6374	0.021409728
247	0xbe8ba2a5	-0.27272525
248	0xbdce37f8	-0.10069269
249	0xbdbf99d6	-0.09355514
250	0xbde05b72	-0.10954942
251	0xbd9db017	-0.07699602
252	0x3d8fed6d	0.07027707
253	0xbe94b9e8	-0.29048085
254	0xbd6e833c	-0.058230624
255	0xbe687ff5	-0.22705062

encoder.dcrnn_cells.1.update.weights_pool f4 [2, 2, 128, 64]
0	0xbe727198	-0.23676145
1	0xbe51d936	-0.20493016
2	0xbe5bd224	-0.21466881
3	0xbe5d3187	-0.21600924
4	0x3e614d13	0.22002058
5	0xbe63d337	-0.22248541
6	0xbe69cde4	-0.22832447
7	0xbe4dbdb5	-0.20091899
8	0x3e772230	0.24134135
9	0x3e657928	0.22409499
10	0x3e52117a	0.2051448
11	0xbe6e85cd	-0.23293228
12	0x3e822f76	0.25426835
13	0x3e66794c	0.22507209
14	0x3e7bf988	0.24606907
15	0xbe5a2076	-0.21301445
16	0xbe624865	-0.22097929
17	0xbe666369	-0.2249886
18	0x3e4fa5f2	0.20278147
19	0x3e6fb431	0.23408581
20	0x3e641c28	0.22276366
21	0xbe41be4b	-0.18920247
22	0xbe5de129	-0.21667923
23	0x3e660da5	0.22466142
24	0x3e7bb799	0.24581756
25	0x3e5aeb48	0.21378815
26	0xbe8288bd	-0.25494948
27	0xbe8219a0	-0.25410175
28	0xbe5f98a5	-0.21835573
29	0xbe73e29b	-0.23816912
30	0x3e69f5df	0.22847699
31	0xbe6e14f1	-0.23250176
32	0xbe4e4210	-0.20142388
33	0x3e6c7f41	0.23095419
34	0x3e50a4e7	0.20375405
35	0x3e644e3c	0.22295469
36	0x3e3afc63	0.1826034
37	0xbe687104	-0.22699362
38	0x3e60a9eb	0.21939819
39	0xbe78db6a	-0.2430245
40	0xbe651b32	-0.22373655
41	0x3e6f6427	0.23378049
42	0xbe5b981e	-0.21444747
43	0x3e5a9c83	0.21348767
44	0x3e528b59	0.2056097
45	0x3e632290	0.22181153
46	0x3e554533	0.20827179
47	0xbe4eee64	-0.20208126
48	0xbe447d33	-0.19188385
49	0xbe73f323	-0.23823218
50	0xbe6f9cc9	-0.23399653
51	0xbe563ee1	-0.20922424
52	0xbe6a5a00	-0.22885895
53	0x3e6231a0	0.22089243
54	0xbe4df02a	-0.20111147
55	0x3e5732ad	0.21015425
56	0x3e682ed0	0.22674108
57	0xbe635997	-0.22202145
58	0x3e65361a	0.2238392
59	0x3e76c723	0.24099402
60	0xbe5b3850	-0.214082
61	0x3e5b5eb8	0.21422851
62	0xbe74f51a	-0.23921624
63	0x3e7e6d94	0.24846488
64	0xbe721bcf	-0.2364342
65	0xbe7ed635	-0.24886401
66	0xbe696851	-0.227937
67	0xbe8127dc	-0.25225723
68	0x3e8790a5	0.26477543
69	0xbe85903f	-0.26086614
70	0xbe8be7bf	-0.27325246
71	0xbe691ae1	-0.2276416
72	0x3e6e92ba	0.23298159
73	0x3e8c4b92	0.27401406
74	0x3e86372c	0.26213968
75	0xbe6ac576	-0.22926888
76	0x3e73b186	0.23798189
77	0x3e86d7ec	0.2633661
78	0x3e7ebe27	0.24877225
79	0xbe842479	-0.25809076
80	0xbe82f6fe	-0.25579065
81	0xbe89fb15	-0.26949373
82	0x3e105aaa	0.14097086
83	0x3e74f78e	0.2392256
84	0x3e82d891	0.25555852
85	0xbe8100c0	-0.25195885
86	0xbe7fd322	-0.24982885
87	0x3e8c0980	0.27350998
88	0x3e67c860	0.22635031
89	0x3e858fcd	0.26086274
90	0xbe63eba6	-0.22257861
91	0xbe818a36	-0.2530076
92	0xbe88f78e	-0.2675137
93	0xbe84b220	-0.2591715
94	0x3e80296d	0.25031605
95	0xbe838000	-0.25683594
96	0xbe8af1d7	-0.27137634
97	0x3e6d631f	0.23182343
98	0x3e88220a	0.2658847
99	0x3e78cb91	0.24296404
100	0x3e6b0bae	0.22953674
101	0xbe65d689	-0.2244512
102	0x3e87a6ba	0.2649439
103	0xbe6c64e8	-0.23085368
104	0xbe8a4881	-0.2700844
105	0x3e700146	0.23437986
106	0xbe6f055f	-0.23341893
107	0x3e81e31f	0.25368592
108	0x3e8a7ac7	0.27046797
109	0x3e7cf273	0.24701862
110	0x3e83ef3c	0.2576846
111	0xbe7fb805	-0.24972542
112	0xbe33f8df	-0.17575406
113	0xbe7a915f	-0.24469517
114	0xbe8168d4	-0.2527529
115	0xbe853826	-0.260194
116	0xbe6b8dfd	-0.23003383
117	0x3e7eaae5	0.24869879
118	0xbe8c2b42	-0.27376753
119	0x3e800183	0.25001153
120	0x3e818bb9	0.25301912
121	0xbe7b2881	-0.2452717
122	0x3e85cda4	0.26133454
123	0x3e6d62c7	0.23182212
124	0xbe87b3fa	-0.265045
125	0x3e832b21	0.25618842
126	0xbe617c3d	-0.2202005
127	0x3e643be5	0.22288473
128	0x3e5a70a5	0.21332033
129	0x3e4dc2ee	0.20093891
130	0x3e56ca6d	0.20975657
131	0x3e642e21	0.22283222
132	0xbe4ec6f7	-0.20193087
133	0x3e638650	0.22219205
134	0x3e59d3ce	0.21272203
135	0x3e334b99	0.17509307
136	0xbe80670f	-0.25078627
137	0xbe4bc8e2	-0.1990085
138	0xbe53db4a	-0.20689121
139	0x3e645dc4	0.22301394
140	0xbe6d1a5c	-0.23154587
141	0xbe538ca3	-0.20659117
142	0xbe66e5ab	-0.22548549
143	0x3e5345fa	0.20632163
144	0x3e60c2f8	0.21949375
145	0x3e53db85	0.20689209
146	0xbe4b637a	-0.19862166
147	0xbe60e546	-0.21962461
148	0xbe56b961	-0.20969154
149	0x3e39b0c8	0.18133843
150	0x3e51b11a	0.20477715
151	0xbe599239	-0.21247186
152	0xbe5a2344	-0.21302515
153	0xbe55dd5c	-0.20885223
154	0x3e7131bf	0.23554133
155	0x3e677a71	0.22605301
156	0x3e5e5883	0.21713452
157	0x3e669f67	0.22521745
158	0xbe76399f	-0.24045418
159	0x3e534360	0.2063117
160	0x3e55ce1c	0.20879406
161	0xbe7090ab	-0.23492686
162	0xbe5cc5e6	-0.21559867
163	0xbe65cbe9	-0.22441067
164	0xbe2a95d1	-0.16658713
165	0x3e6fcb33	0.23417358
166	0xbe603a76	-0.21897301
167	0x3e6ac2a1	0.22925808
168	0x3e4e9d48	0.20177186
169	0xbe717f5c	-0.2358374
170	0x3e6c8b81	0.23100092
171	0xbe4ac3c8	-0.19801247
172	0xbe5b428c	-0.21412104
173	0xbe6d7ed7	-0.23192917
174	0xbe5227e8	-0.20523036
175	0x3e4e22b3	0.20130424
176	0x3e32fe12	0.17479733
177	0x3e6b7c85	0.22996719
178	0x3e6276e2	0.22115663
179	0x3e62d1cf	0.22150348
180	0x3e61f69a	0.22066727
181	0xbe4f6946	-0.20255002
182	0x3e4bec28	0.19914305
183	0xbe58e248	-0.2118007
184	0xbe602a53	-0.21891145
185	0x3e5c24b4	0.21498376
186	0xbe5423cd	-0.20716782
187	0xbe6a9fe2	-0.22912553
188	0x3e5fb3e2	0.21845964
189	0xbe5fdc44	-0.21861368
190	0x3e756e7d	0.23967929
191	0xbe779e88	-0.24181569
192	0xbe5e4ef5	-0.21709807
193	0xbe41a8e5	-0.18912084
194	0xbe4b597f	-0.19858359
195	0xbe5ca66c	-0.2154786
196	0x3e5d106c	0.21588296
197	0xbe4ba71f	-0.1988797
198	0xbe4bb6ef	-0.19894002
199	0xbe352dcf	-0.17693256
200	0x3e6aec1e	0.22941634
201	0x3e4151a9	0.18878807
202	0x3e595216	0.2122272
203	0xbe51aa7e	-0.20475194
204	0x3e7a40ed	0.2443883
205	0x3e586ce1	0.21135284
206	0x3e6c511e	0.23077819
207	0xbe5963d9	-0.21229495
208	0xbe4b0ca4	-0.19829041
209	0xbe51414b	-0.20435064
210	0x3e3be654	0.18349582
211	0x3e6d856f	0.23195432
212	0x3e462870	0.19351363
213	0xbe32f39e	-0.17475745
214	0xbe459148	-0.19293702
215	0x3e4abbc1	0.19798185
216	0x3e686483	0.22694592
217	0x3e500206	0.20313272
218	0xbe7a7ad2	-0.24460915
219	0xbe5dea56	-0.21671423
220	0xbe642b42	-0.22282127
221	0xbe66d4fd	-0.22542186
222	0x3e6b1a8c	0.22959346
223	0xbe558461	-0.2085128
224	0xbe45f8c8	-0.19333184
225	0x3e5d27ae	0.21597168
226	0x3e534c5a	0.20634595
227	0x3e5881a4	0.21143204
228	0x3e22db09	0.15903868
229	0xbe64356e	-0.22286007
230	0x3e512c44	0.20427042
231	0xbe6fc896	-0.23416361
232	0xbe4f5553	-0.20247392
233	0x3e5b0b90	0.2139113
234	0xbe4ec176	-0.20190987
235	0x3e559858	0.20858896
236	0x3e44d792	0.19222859
237	0x3e56798c	0.20944804
238	0x3e43b480	0.19111824
239	0xbe480322	-0.19532445
240	0xbe254097	-0.1613792
241	0xbe5d57f3	-0.21615581
242	0xbe525f47	-0.20544158
243	0xbe592189	-0.21204199
244	0xbe6d7179	-0.23187818
245	0x3e44dda2	0.19225171
246	0xbe5caca1	-0.21550228
247	0x3e584788	0.21121037
248	0x3e54a478	0.20765865
249	0xbe607a4f	-0.21921657
250	0x3e5a9476	0.21345696
251	0x3e668fdc	0.22515815
252	0xbe4f46b3	-0.20241813
253	0x3e5d7a62	0.21628717
254	0xbe6f27b1	-0.23354985
255	0x3e5eb242	0.21747687
