CQ/result/P4_Result/DAYS/2/data6/best_model.pth (torch_old, 603835 bytes, 11 tensors)

node_embeddings f4 [307, 2]
000000 fc ae ed 3d 4b b7 83 3e c5 c8 dc be da 42 bd 3e
       0.11605641 0.2572578 -0.43121925 0.36965066
000010 0c c2 22 3f c7 5f 6a 3e 6f 60 06 3e 18 8f 49 be
       0.6357734 0.22888099 0.13122724 -0.19683492
000020 d3 51 f8 3d 36 e9 80 be 61 a9 c1 3e 9b ab 19 3d
       0.12124982 -0.25177926 0.37824538 0.03751717
000030 aa 27 78 bd 79 a3 7b be 07 4b 51 bb 85 8d 9e 3e
       -0.0605847 -0.24574079 -0.003193559 0.30967346
000040 af 6e 1d be a3 a0 54 3e 42 d8 05 3e d8 c9 4e be
       -0.15374254 0.20764403 0.13070777 -0.20194185
000050 c3 6d 65 3e 7c db f3 bd 48 43 c6 3d 40 4a 52 be
       0.22405152 -0.11907098 0.09680802 -0.20536137
000060 92 2a 86 be 00 67 38 3e 17 e6 1c be c5 6c 84 3e
       -0.26204354 0.18008041 -0.15322147 0.25864235
000070 66 07 d0 3c ce 98 35 be 78 63 b1 3e c0 50 b1 bc
       0.025394153 -0.17734072 0.346462 -0.02164495
000080 41 5d da 3d 23 15 7b 3e e8 7c 39 bf ef f8 01 bf
       0.10662318 0.24519782 -0.72456217 -0.5077047
000090 3b 44 a5 3d d4 60 78 3e af 63 a1 3e ee 3f 20 bd
       0.080696546 0.24255687 0.31521365 -0.039123468
0000a0 61 e4 08 be 90 b6 58 3e ea 60 04 be 3b 96 8a 3e
       -0.1336837 0.21163392 -0.12927595 0.27067742
0000b0 b3 a6 09 be 6f 24 87 3e 24 9e ea bd 26 59 5c be
       -0.13442497 0.26394984 -0.11455944 -0.21518382
0000c0 b6 7c 55 be 5c 12 73 3e 17 75 e4 3d be df 85 3e
       -0.20848355 0.23737472 0.111551456 0.26147264
0000d0 0d fc 94 3d 64 21 7b 3e 64 ca 17 be 62 aa 98 3e
       0.07274637 0.24524456 -0.148233 0.29817492
0000e0 e6 1a 9a be 91 77 a5 bd 45 5e c3 3e 9f 8f be ba
       -0.30098647 -0.08079446 0.3815786 -0.0014538652
0000f0 5f f6 21 3d f4 c5 5c 3e 43 d9 8c be 40 03 f1 3e
       0.0395416 0.21559888 -0.27509508 0.47072792
000100 e5 bf 01 bf 0b 57 bf be 55 f3 a8 3e 19 89 6e bd
       -0.5068343 -0.37371096 0.32998148 -0.058236215
000110 0b 11 bd 3e 5e 59 9a bc 31 bb fe be 06 b9 96 be
       0.36927065 -0.018841442 -0.4975219 -0.29438037
000120 82 c4 2c 3e 1b c2 25 be 6f 8c dd 3d c0 b9 87 3e
       0.16871837 -0.16187327 0.10817801 0.26508904
000130 0f f6 98 be 52 ce 92 3e 4f 4f 05 3e eb 1e 8c 3e
       -0.29875228 0.28673035 0.13018535 0.2736734
000140 72 b3 ab 3e 41 3d 26 bd 41 97 6e be 7a 3d f9 3d
       0.33535343 -0.04058576 -0.23299886 0.12169929
000150 1d ba f2 be 32 66 9a 3c bd 92 93 3d 57 bb 73 3e
       -0.47407618 0.018847559 0.072057225 0.23801933
000160 d8 9f 8a 3b c3 da 35 be 6b 13 12 bf e1 63 e3 be
       0.0042304806 -0.17759232 -0.5706088 -0.4441214
000170 f4 0e b4 3c 53 87 a4 3e 78 d3 a7 be 7a e8 b0 3e
       0.021979786 0.32134494 -0.32778525 0.34552366
000180 7c 11 f1 3d 70 4a 83 3e 84 5e 2c 3f 50 18 d1 bd
       0.11770913 0.2564273 0.6733172 -0.10209715
000190 0e 56 99 3d 03 b3 93 3e 89 48 a4 3e 2f f2 16 bd
       0.07487117 0.28847513 0.3208659 -0.036852058
0001a0 06 34 fb 3d 5c e6 83 3e b7 c9 b6 3e fe 54 47 3c
       0.12265782 0.25761688 0.3570077 0.01216626
0001b0 1b 47 86 be c8 1f 3f be 1c ec bb bd 47 ca 1a 3e
       -0.26226124 -0.18664467 -0.09175894 0.15116225
0001c0 de 18 a3 3e df 87 f9 bc ad d1 38 3e ad 38 34 3e
       0.3185491 -0.030460296 0.18048735 0.17599745
0001d0 1b 87 a7 3e d6 91 38 3d d0 6c a1 3e ed 46 73 bd
       0.32720265 0.045060955 0.3152833 -0.059393812
0001e0 2e ac 6c 3b 3e ef 50 be d3 7f a4 3e 7c d0 0f bd
       0.003611337 -0.20403764 0.32128772 -0.035110936
0001f0 63 63 48 3d d6 3c 43 be b3 31 e0 3d 19 96 7b 3e
       0.048922908 -0.19066176 0.109469794 0.24568976
000200 83 75 9f 3e 55 c3 8b bd 83 9b f3 3d e4 35 7e 3e
       0.31144342 -0.06824366 0.11894896 0.24825245
000210 9e 80 00 3e f9 68 56 be ea b0 fc 3d 74 e2 4b 3e
       0.12549064 -0.20938481 0.12338431 0.19910604
000220 d3 b8 a2 3c b0 32 17 be e5 05 8c 3e f4 2f 06 3e
       0.019863522 -0.1476543 0.27348247 0.1310423
000230 73 6f 01 3e 4a 19 9c be 1b 1f dc 3d ca 8b 84 3e
       0.12640171 -0.30488044 0.107481204 0.258879
000240 05 e5 c0 3e 40 01 40 3d e3 b6 e2 3d f3 8f 88 3e
       0.37674728 0.046876192 0.11070039 0.26672325
000250 f7 5d 3d be bb 24 8b 3e 53 7e dd 3e 7f 95 e5 3d
       -0.18492876 0.2717646 0.4326044 0.11210155
000260 e1 6a d5 3d ce 4b 81 3e d2 e0 be 3e af 2c 07 3d
       0.10420776 0.25253147 0.372809 0.033001598
000270 73 33 1f 3e 35 9e 0c be 27 a1 91 be 03 ab 0d 3e
       0.1554697 -0.13732226 -0.28443262 0.13834767
000280 11 4f be 3d 1b 0a 23 be 45 46 d9 3e 30 ee 37 3e
       0.092924245 -0.15921824 0.42436424 0.17961955
000290 2d 07 6a 3e e1 b6 00 3e 46 a4 b1 bd f9 e8 a2 3e
       0.228543 0.12569763 -0.08673911 0.3181837
0002a0 e7 75 ab 3e 7b 2c 0c bd 10 b9 9a 3d 23 99 7b 3e
       0.3348839 -0.034222107 0.07554829 0.24570136
0002b0 f7 64 cb bd 43 d1 6f be 9d af 1b 3e 51 99 7b be
       -0.09931367 -0.23419671 0.1520371 -0.24570204
0002c0 91 f5 b4 3e dd 08 06 bd 5b 2f 4b 3f a5 0d 46 bd
       0.35343602 -0.032723296 0.79369134 -0.048352856
0002d0 84 77 43 3e 46 a8 72 3e c1 c0 33 3e 99 9a 68 3e
       0.1908856 0.23697004 0.17553999 0.22715224
0002e0 fd b8 a3 be 86 b2 3d 3e 58 20 21 be fc 4b 5a 3e
       -0.31977072 0.18525133 -0.15734994 0.21318048
0002f0 6d 33 ae 3e d8 7e 21 bc 31 d0 da 3e 6c 80 0f 3e
       0.3402361 -0.009856902 0.42736962 0.14013833
000300 b8 dd 98 3e 08 0b 73 bd 48 92 f4 3d ac b1 14 3e
       0.29856658 -0.059336692 0.119419634 0.14520901
000310 9c 9a de bd 31 6f 77 3e 96 44 c2 3e 5a 24 be 3c
       -0.10869333 0.2416351 0.37942952 0.023210693
000320 d1 8c a1 3e e1 9a 55 bd 95 ba a8 3e ca 85 70 3c
       0.31552747 -0.052149657 0.3295485 0.014680335
000330 ad 3d 8d be b4 c6 62 3e 29 39 1b 3e 0e 93 76 3e
       -0.27586117 0.22146112 0.15158524 0.24079534
000340 39 9c 08 3e b8 75 83 be 99 01 49 3d d5 23 97 3e
       0.13340844 -0.2567575 0.04907379 0.29519525
000350 db ec c9 3e 11 49 7f 3d 80 7d d1 3b 79 4b 46 be
       0.3943852 0.06232554 0.0063931346 -0.19364728
000360 3f d1 d1 3e 3b 35 fd 3d b8 d0 cd 3e 7f 55 e0 3d
       0.40979955 0.123636685 0.40198302 0.10953807
000370 e7 92 a3 be 43 1c 41 3e 6f 6c 33 bf f4 9d 61 bf
       -0.31948015 0.18858437 -0.7008733 -0.8813164
000380 10 c9 a8 bc ab ad 85 3e c0 21 13 3d 8e c5 ff bd
       -0.020603687 0.2610906 0.03592086 -0.124888524
000390 14 16 a0 be a3 79 81 3e d0 ef b1 3d 51 0e a4 3e
       -0.31266844 0.25288114 0.08688319 0.32042173
0003a0 23 ca 24 be 35 f3 9f 3e 18 6c b4 3e e8 c7 06 bd
       -0.16092734 0.3124024 0.3523872 -0.03290549
0003b0 e5 d5 b5 3d 5e 4f 86 3e d2 94 ba 3d d2 3c 59 3e
       0.08878688 0.26232427 0.091104165 0.21214607
0003c0 b1 f7 24 3e ba bf 3f 3e a9 01 de 3d 51 55 76 3e
       0.16110112 0.18725482 0.108401604 0.24055983
0003d0 bc 8e a5 3e 81 16 d9 bc 03 83 23 bf 3c 99 ce be
       0.3233546 -0.026499989 -0.63871783 -0.40351284
0003e0 c9 5c 68 be 83 c3 11 3e c2 2b d1 3e 65 ba 1e 3d
       -0.22691645 0.14234738 0.40853697 0.03875198
0003f0 1a 50 8c 3d 78 28 91 3e ea e5 cf 3e 5d 1e 91 3d
       0.06851216 0.28351188 0.40605098 0.070858695

encoder.dcrnn_cells.0.gate.weights_pool f4 [2, 2, 65, 128]
000000 a2 ff e5 3d ee 12 9f be 26 97 22 3f 55 c3 bb 3e
       0.11230399 -0.3106913 0.63511884 0.36672464
000010 6b ca 06 3f 37 61 90 3f 59 5b 35 3f e8 02 05 3f
       0.52652615 1.1279668 0.7084251 0.5195756
000020 65 8b d7 3e d8 92 16 3f b2 31 12 3f 5c 8d f5 3e
       0.42098537 0.58817816 0.5710708 0.4795941
000030 19 06 3c 3e c0 a1 29 3f ac 32 1d 3f da 52 21 3f
       0.18361701 0.66262436 0.61405444 0.63017046
000040 4b 22 8c bf cb 53 65 bf 1a b6 04 3f 85 3c 13 bf
       -1.0947965 -0.8958098 0.51840365 -0.5751422
000050 72 f6 da bd e4 3c 12 3f 97 9e 9f bf 67 35 36 3f
       -0.10691537 0.5712416 -1.2470273 0.71175236
000060 45 ae 82 bf 8d cf 5c 3f 2d 2d 4a bf fc 4a c8 bd
       -1.0209433 0.862542 -0.7897518 -0.09779927
000070 e5 c3 15 3f 2a 00 d0 3e 04 77 15 3e 22 fc a0 3e
       0.58502036 0.40625125 0.14596182 0.31442362
000080 8a 4d d4 3e c3 a7 05 3f cd ae ac 3e 5d 38 9b 3f
       0.41465408 0.5220911 0.33727112 1.2126576
000090 35 a7 0e 3e 9d 70 6f bf a7 f9 96 3d 7a 7e 29 3f
       0.13930972 -0.9353121 0.07371836 0.6620861
0000a0 6a 0a 75 3e 40 16 ab bd 74 0c 4a bf 7e 2a 53 3f
       0.23929754 -0.08353853 -0.7892525 0.8248671
0000b0 c6 08 07 3f 70 f7 6d bd c8 ed 66 3f cf a6 55 bf
       0.5274776 -0.058097303 0.90206575 -0.83457655
0000c0 3e 3e 70 bf 00 b5 8c 3f a6 b8 38 3f 54 ee 8d 3e
       -0.93844974 1.0992737 0.7215675 0.27720892
0000d0 2d 3e 0d 3f 62 0d 46 3d d8 a5 82 bf 18 07 9c bf
       0.55173 0.048352607 -1.0206861 -1.2189665
0000e0 7b 88 84 bf 9c 7f a0 3f b8 27 83 bf 39 d2 c9 bd
       -1.035415 1.2538943 -1.0246496 -0.0985455
0000f0 00 99 ed 3f ea 81 34 bf 49 76 82 be ec 6a 43 3f
       1.8562317 -0.70510733 -0.2548087 0.76335025
000100 3e 96 26 bf 57 43 61 3f ce 0f 07 bf ea 45 e8 3d
       -0.65073 0.8799338 -0.5275849 0.1134146
000110 42 b6 9a be e4 a2 8b 3e 09 90 2f bf 77 db c2 3e
       -0.30217177 0.27272713 -0.68579155 0.38058063
000120 29 5e be 3e 29 d8 13 be 8a 64 f8 3e f1 c6 47 bf
       0.37181213 -0.14437927 0.48514205 -0.78037935
000130 07 06 82 bf 5b 97 1d bd fa 20 9e 3e 03 fb c5 3d
       -1.0158089 -0.038474422 0.30884534 0.09667017
000140 67 df ff bd 70 4a 26 3c 5c a0 c7 3d a5 f1 e2 be
       -0.124937825 0.010149583 0.09747383 -0.44324985
000150 44 6c 71 be b1 63 5e 3e 73 01 7f bf 84 a5 3a 3e
       -0.23576456 0.21717717 -0.99611586 0.18227202
000160 1f cb 54 bf c4 a1 17 3f 66 64 35 bf 5e 54 02 bf
       -0.8312244 0.5923121 -0.7085632 -0.50909984
000170 e3 a4 6c 3e 1a 0e 8d 3e ba 6d 6a bf 59 78 1a bf
       0.23109774 0.2754982 -0.9157368 -0.60339886
000180 45 e9 3f bf 74 35 8a bd 2d d0 ac bf be 59 1d 3f
       -0.74965316 -0.067484766 -1.350103 0.6146506
000190 18 71 f2 3f 55 ca 35 bf c6 f5 0c 3f 66 db 24 3f
       1.8940763 -0.7101186 0.5506252 0.64397275
0001a0 d1 fa 7e be bb 68 b2 be cb c2 51 3c 57 38 10 3f
       -0.24900366 -0.34845528 0.01280279 0.5633597
0001b0 ad 94 91 3e 5a c6 17 3f fb 97 29 3f d8 5b 44 bf
       0.28433743 0.59287035 0.6624753 -0.7670264
0001c0 dc e0 3c bf b4 12 29 3f 02 ac f9 3e f2 58 d8 bc
       -0.7378061 0.66044164 0.48764044 -0.0264096
0001d0 7b bc 27 3e 9d 8e 05 bf da 72 08 bf b0 93 09 bf
       0.16380493 -0.52170736 -0.5330025 -0.5374098
0001e0 2e 09 c7 3c 63 4e 3f 3f 12 5f 3f bf 60 f5 2c 3f
       0.02429637 0.74728984 -0.7475444 0.6756191
0001f0 8a 82 a3 3d bc f9 29 3c f7 84 94 be e3 51 a9 3f
       0.07983883 0.010374483 -0.29007694 1.3228115
000200 a6 64 55 3d 9a a6 24 bd e9 30 74 3e 1b de 80 be
       0.05209794 -0.040197946 0.23846783 -0.25169453
000210 7f 49 0a be d1 5f a8 be 74 5e a8 bd d1 91 09 be
       -0.13504599 -0.32885602 -0.082211405 -0.13434531
000220 e3 96 9e bd e7 66 55 be 8c ac 49 be 4e 8d 56 3e
       -0.07743623 -0.20840035 -0.19694728 0.20952341
000230 63 90 20 3b 35 ed 4f bd b1 14 21 be 9e 95 31 be
       0.0024500124 -0.050763328 -0.1573055 -0.1734223
000240 ff 6c c2 bc f1 0b 1f 3e e7 8c 27 be b1 3c 7b be
       -0.023733614 0.15531899 -0.16362344 -0.2453487
000250 ee 3a 4f be 44 e0 8a be 81 f0 44 bc 3c 92 89 be
       -0.20237324 -0.27124226 -0.012020231 -0.2686938
000260 34 31 53 bc c7 78 0b be d0 3b 65 bd e5 21 2b 3e
       -0.012890149 -0.13620292 -0.055965245 0.16712148
000270 d9 69 15 be db fd e2 bb 1a 98 22 be 52 ec 07 be
       -0.14591159 -0.0069272346 -0.15878335 -0.13273743
000280 b0 8b 25 3e b6 46 26 be df 8d 04 be 89 94 5f be
       0.16166568 -0.16237912 -0.12944745 -0.21834005
000290 4d 05 b9 bd 8f 91 d6 bc 3e 37 45 3e 49 65 03 be
       -0.09034214 -0.026192455 0.19259354 -0.12831606
0002a0 5d 48 11 3e f7 d3 74 be eb be 85 be 38 71 05 be
       0.1418776 -0.23908983 -0.2612222 -0.13031471
0002b0 d2 2d 21 be 2e d7 e0 3c 6f bf 70 be f0 ed 4b be
       -0.15740135 0.027446356 -0.23510526 -0.19914985
0002c0 03 1d 97 be c5 42 5a bd eb d9 50 be c7 13 93 bd
       -0.29514322 -0.053286333 -0.20395629 -0.071815066
0002d0 76 a9 f4 bd d3 33 09 3d 22 5d fa bd 50 82 a4 3b
       -0.119463846 0.03349669 -0.12224795 0.0050204173
0002e0 ba f5 e1 bd 74 44 b7 bc 70 0e 0a be e1 d0 24 3e
       -0.11033197 -0.022371508 -0.1348207 0.16095306
0002f0 bc d5 3c bd 68 90 b9 3c cf 0e c5 3e 9d 5c 68 be
       -0.04610227 0.022651866 0.3848786 -0.22691579
000300 79 9a de be 5b 19 5f be 84 7c 9b be 60 54 48 bd
       -0.43477228 -0.21787016 -0.30368435 -0.04890859
000310 7b e8 c5 be 4f 7b 40 3d 71 5e d9 be 27 d7 86 be
       -0.3865393 0.046992596 -0.42454866 -0.26336023
000320 4e 4b 36 3e be a3 82 be c8 9f 98 be 18 2a f9 bd
       0.17802164 -0.2551555 -0.29809403 -0.12166232
000330 af bb d6 be b0 4b 6a be 15 16 88 bd b0 a0 31 3e
       -0.41940066 -0.22880435 -0.06644837 0.17346454
000340 c5 95 38 bd 65 72 18 be 7b 5c bc be a4 f8 7c be
       -0.045064706 -0.14887388 -0.36789307 -0.24704224
000350 53 84 c4 be 27 9a 40 be 6f 9f 02 bc 33 f7 4c be
       -0.38382205 -0.18808804 -0.007972582 -0.20016174
000360 13 99 41 be 26 76 91 be e4 0a 55 be 70 94 e8 be
       -0.1890605 -0.28410453 -0.20804936 -0.4542575
000370 ff b5 79 be 6f 9a b5 b9 f1 b2 89 3e 90 a5 b6 be
       -0.24385832 -0.00034638072 0.26894334 -0.3567319
000380 c4 b1 7a be 85 00 b8 be 81 82 85 be ee 5e 60 be
       -0.24481875 -0.35937896 -0.2607613 -0.21911213
000390 fd e0 38 3e 0e 61 91 be 71 62 36 be d9 d5 90 be
       0.18054576 -0.2839436 -0.1781099 -0.28288153
0003a0 4e 5e 0a bf 7d 6b 1a be c7 7f 6f bd 98 39 97 be
       -0.5405015 -0.15080066 -0.058471467 -0.29536128
0003b0 fc 7d 96 be 58 32 fa be 33 b1 97 be 50 cd 09 3e
       -0.29392993 -0.48866534 -0.2962738 0.13457227
0003c0 76 9a 69 3e 58 b1 d0 be e1 a6 cc be db dd 03 be
       0.22812828 -0.40760303 -0.39971069 -0.128776
0003d0 2b 94 c6 bd e1 ed c2 3c ac ed ea 3d 0c 11 d7 bd
       -0.096962295 0.02379507 0.114711136 -0.10501298
0003e0 31 04 f4 bd e9 a9 87 be 9f f6 41 bd 0c e8 3e be
       -0.11914862 -0.2649682 -0.047354337 -0.18643206
0003f0 ea 74 87 3d b0 d0 20 be e2 2d d0 be 72 d7 a3 be
       0.066140965 -0.15704608 -0.40660006 -0.3200031

encoder.dcrnn_cells.0.gate.bias_pool f4 [2, 128]
000000 f6 8e 98 3e d6 68 10 3e ec d6 e4 bd 05 5c ba bd
       0.2979657 0.14102492 -0.111738056 -0.090995826
000010 32 bd 01 3e f1 49 35 3e 03 1e 21 3e e4 7a 94 3e
       0.12669829 0.17703988 0.15734105 0.29000008
000020 1c b3 5e 3e 14 25 4b bd c8 ce a3 bd 56 75 6d 3e
       0.21748012 -0.049595907 -0.07998425 0.23189291
000030 bb a6 99 3e ff c5 44 3e 89 20 a0 3e 73 2f b5 3e
       0.30010018 0.19216155 0.31274822 0.35387763
000040 fe c4 c2 3c c6 62 df bd 32 89 95 3e 3e b4 ce bd
       0.023775574 -0.109075114 0.29206234 -0.10092972
000050 2f 31 b9 3e c5 da 6b bb c6 4c 2f 3e 05 40 25 3e
       0.36170337 -0.003598855 0.1711913 0.16137703
000060 da 5b 82 3e 14 28 42 be 80 ea c2 3d c9 ef c0 bd
       0.25460702 -0.18960601 0.095173836 -0.094207354
000070 47 3c 56 3d 23 c2 b1 bc b3 23 7c be 58 dc 79 be
       0.05230358 -0.021699017 -0.24622993 -0.2440046
000080 d6 0d c8 3d 23 79 76 3e 1c 29 1b 3e 3d ca 43 3d
       0.09768264 0.24069647 0.151524 0.04780029
000090 62 5e df 3e 1a b5 24 3d dd b8 39 3e da 66 dc bd
       0.43626696 0.040211774 0.18136926 -0.10761805
0000a0 b5 1c 2e be 2c e0 c2 3e dc ea ba bd cf 74 cd 3d
       -0.17003138 0.38061655 -0.09126827 0.10032045
0000b0 2a 9f 6e 3e 61 d2 fe 3d e6 d0 2d 3e e5 9b db 3d
       0.23302904 0.1244247 0.1697422 0.10723094
0000c0 fb 57 c9 3d e9 ce 13 be f8 1f 51 be 51 28 60 bd
       0.09831234 -0.14434399 -0.20422351 -0.05472595
0000d0 b5 ff d7 3d 90 61 18 3e f0 a9 20 3e 4d 4c 37 3e
       0.10546819 0.14880967 0.15689826 0.179002
0000e0 ef 95 6d bd 3a f2 15 be 28 87 2e 3e 28 3d 89 3e
       -0.058004316 -0.14643183 0.17043746 0.2680447
0000f0 09 f7 89 3e 27 4f 29 bd 0b 04 07 be 70 ef 5a 3e
       0.26946285 -0.04133525 -0.13185136 0.213804
000100 1b f6 ec 3d a2 1c 80 bf 02 06 a3 be ce 54 f0 bd
       0.115703784 -1.0008738 -0.3184052 -0.11734925
000110 8a 39 09 be 54 64 60 3e 6a d5 52 3e b8 d9 49 be
       -0.13400856 0.21913272 0.20589224 -0.1971196
000120 ba 1d a3 3e 9a b2 f1 3d 93 d2 dc 3d 34 7a b8 be
       0.31858617 0.11801644 0.10782351 -0.36030734
000130 13 0d 6a be 95 bf a0 3e 01 38 7d 3e aa d6 87 3e
       -0.2285655 0.31396165 0.24728395 0.26530963
000140 c5 69 48 be 72 b0 a0 bd 40 4e 49 3e 5c 13 94 be
       -0.19571598 -0.07846154 0.19658756 -0.2892102
000150 1d be c3 be 18 cf 82 bc 5f 50 c3 bc 99 ee 37 bd
       -0.38230982 -0.01596789 -0.023842035 -0.04490528
000160 c0 d8 9e 3d 68 ac f6 3e 1f ea 72 3d 63 ab 79 bd
       0.077561855 0.4817841 0.059305307 -0.060954463
000170 a2 8e fb 3c c6 52 5e 3e 59 2b 48 bf c1 f2 01 be
       0.030707661 0.21711263 -0.78191143 -0.1269026
000180 3a 10 68 bd fe 04 4d 3e 4d 98 10 be 2b 8b 70 3d
       -0.0566561 0.20021436 -0.14120598 0.05872647
000190 91 17 2d 3c ba ae 05 3e f8 73 0a be 14 5c 7d be
       0.010564701 0.13054934 -0.13520801 -0.24742156
0001a0 8d 5a 6f bd b6 f6 1e bf 40 8e 23 3e dd 76 6c 3e
       -0.058435965 -0.620952 0.15972233 0.23092218
0001b0 10 85 63 bd fd ec 53 bf e7 94 fe 3d c2 b7 c3 bd
       -0.05554682 -0.8278349 0.124307446 -0.095565334
0001c0 8f 6a 61 be dc de 29 3d c7 46 ab bd a8 6a 3b 3e
       -0.22013305 0.0414723 -0.08363109 0.18302405
0001d0 cc 00 a7 3c 06 ad de 3c 44 45 ae bd 0f 0c 9b be
       0.020386122 0.027182113 -0.08509305 -0.30282637
0001e0 6a bb b1 bc 4a c7 d1 3d 84 5f 03 3e 16 0b 2c bd
       -0.021695811 0.102430895 0.12829405 -0.04200276
0001f0 4f c6 0b 3e a2 be 16 3d cc 42 57 be ef e3 6b be
       0.13649867 0.036802895 -0.21021575 -0.23036169
000200 32 0d 0d 3e 7a 8d 49 be b3 a4 3c be 27 fc ac bd
       0.13774565 -0.19682875 -0.18422203 -0.08446532
000210 ca 64 43 be 8e 99 05 be 04 92 5f 3d 59 d5 62 be
       -0.19081417 -0.13046858 0.05458261 -0.22151698
000220 95 ee 2d bd 8b 72 24 be c3 13 22 be 8b 3a 34 be
       -0.042463858 -0.1605932 -0.15827851 -0.17600457
000230 05 46 a4 be 79 d7 69 bd e8 51 04 be 79 cb 40 3d
       -0.3208467 -0.057090256 -0.1292187 0.047069047
000240 48 94 47 3e 96 6c 38 3e 4c d2 18 3d fd f2 d2 bc
       0.19490159 0.18010172 0.03730993 -0.025750631
000250 b5 51 99 be 43 b8 e0 bd a6 24 68 3e 42 9d de bd
       -0.2994515 -0.10972645 0.2267023 -0.10869838
000260 27 7c 50 bd 5a 58 d3 3b f6 e1 11 3e e9 8a 9c be
       -0.05089965 0.0064497413 0.14246354 -0.3057473
000270 b4 e3 ad be c2 1a af be 1a f3 95 be c1 b6 c0 be
       -0.33962786 -0.34200102 -0.29287034 -0.3763943
000280 cc 55 b6 be a1 af 51 3d d4 8e 5d be 1c 3b 35 be
       -0.35612333 0.051192883 -0.21636516 -0.1769833
000290 5b c6 a2 3e 46 2f fa bd fa fc 3c bd 9e c7 ed bb
       0.31791958 -0.12216048 -0.046139695 -0.0072564622
0002a0 09 9b c0 3e a2 d2 3e 3e 3d 82 bf 3d e6 53 a5 be
       0.37618282 0.18635038 0.09351013 -0.32290572
0002b0 8f bb 7e be 81 02 13 be c1 f4 a2 3c 11 fc f4 3d
       -0.24876235 -0.14356424 0.019892098 0.1196214
0002c0 11 a2 70 3e 3c 7d c3 3c 45 62 56 be f9 02 b9 be
       0.23499323 0.023863427 -0.20935924 -0.3613508
0002d0 68 ee da bd 93 43 29 be 82 92 a0 3e bf 84 1e 3d
       -0.10690004 -0.16529684 0.31361777 0.038700815
0002e0 cd ac 95 3d 5d 26 75 be 48 90 ea bd f9 ba c7 3d
       0.0730835 -0.23940416 -0.11453301 0.09752459
0002f0 43 f8 99 3d 91 1c ef 3d 64 1f 17 be c0 4e 4c bd
       0.07518055 0.116753705 -0.14758068 -0.04987979
000300 83 bb 42 be 5f 3f 17 be 82 3d ed 3d 8b 87 01 3e
       -0.19016843 -0.14770268 0.11583997 0.12649362
000310 c4 c6 26 3d c2 10 75 be 3f 9f c0 be dd db 2b bd
       0.0407169 -0.23932174 -0.37621495 -0.041957725
000320 4f a7 68 bc 3a 79 e6 3d 6a 42 aa 3d 88 43 7f be
       -0.014200046 0.11253591 0.08313449 -0.24928105
000330 a6 c5 3c bc bc e7 8a 3e 0c 07 b8 3d de 1a 2d be
       -0.011521732 0.27129924 0.08985719 -0.1690478
000340 f2 31 14 be 54 ad 51 3e 93 8a 8c 3e 70 7b 40 be
       -0.14472178 0.20476276 0.27449474 -0.18797088
000350 a7 5a 4b 3c 84 16 07 be 66 1d 54 bd 43 81 62 3d
       0.01241175 -0.13192183 -0.05178585 0.055299055
000360 3a e8 5f 3d 5e 96 1d 3d 69 08 c9 3e 32 af 48 be
       0.054664828 0.03847348 0.3926423 -0.19598082
000370 7d 9c c7 3d e7 94 82 3e f0 ac 13 3e 77 8d 84 bd
       0.09746645 0.25504228 0.14421439 -0.06472295
000380 cb 1b ee 3d 8c 1e 02 3e 27 09 1a 3e d2 00 b9 3e
       0.11626395 0.12706965 0.15042554 0.36133438
000390 37 82 00 be 81 90 b7 3e 77 64 e7 be b9 65 d2 3e
       -0.12549673 0.35852435 -0.45193836 0.41093233
0003a0 53 25 84 bd eb 3c 76 be b2 29 0a 3f 03 1f 92 3d
       -0.064524315 -0.24046676 0.5396987 0.07134821
0003b0 29 f2 94 3e 5d 0c 9d be 59 4e 94 3e 92 bb 03 3f
       0.29091004 -0.30673495 0.28966025 0.51458085
0003c0 b1 70 dc 3d 45 f4 90 3e ee 00 da 3d 55 6d 64 3e
       0.10763682 0.28311363 0.106447086 0.22307332
0003d0 44 11 de 3d d2 ff 69 be 20 64 27 3f 61 22 0f 3e
       0.10843137 -0.22851494 0.65387154 0.13977958
0003e0 0a 9d cb 3e 5c 2d e9 3d 8f 3d 08 be 08 ed 82 be
       0.3976825 0.11385605 -0.13304733 -0.25571465
0003f0 74 66 43 3d ec ec 86 3e 01 99 0d be 0f 4a 20 be
       0.04770513 0.26352632 -0.13827898 -0.15653251

encoder.dcrnn_cells.0.update.weights_pool f4 [2, 2, 65, 64]
000000 31 64 6f 3f e9 c2 1f bf 8c 41 a3 3f fa af 67 be
       0.93512255 -0.62406784 1.2754378 -0.22625723
000010 07 1d 13 3e 8c 53 16 be b4 2c d0 bf 70 f5 99 bc
       0.14366542 -0.14680308 -1.6263642 -0.018793792
000020 d6 2c 1e 3e 18 56 a7 be f6 69 64 be 4f d7 e9 be
       0.15446791 -0.32682872 -0.22306046 -0.4567208
000030 32 1a 34 bf 13 57 7f be ce 6a 79 be 7a e4 44 be
       -0.7035247 -0.2493556 -0.24357149 -0.19227782
000040 6f 4f fa 3e 96 75 14 bf 53 64 c1 be 64 4b 77 3e
       0.48888728 -0.5799192 -0.37771854 0.24149853
000050 0c 00 e2 bc ef b8 56 be aa 54 34 3f b7 17 99 3d
       -0.027587913 -0.20968984 0.7044169 0.07475226
000060 6b 96 0c bf d0 b6 a6 be f2 e9 31 bf 7e 27 a9 be
       -0.5491702 -0.3256135 -0.694976 -0.33037943
000070 a2 bb 67 3d ab 0f c9 bd c4 55 b3 be 23 71 1f 3f
       0.056575425 -0.098174416 -0.3502637 0.6228201
000080 ce 5d c5 3f 53 b0 14 be e8 34 58 bf a5 c1 82 be
       1.5419252 -0.14520387 -0.8445573 -0.25538364
000090 47 cc d1 bf 18 0f d1 bd 66 25 99 3e 19 c0 e8 bd
       -1.6390465 -0.10207957 0.29911345 -0.11364765
0000a0 80 45 9c bf 23 00 7e be b6 8a f0 3e 9d 16 95 be
       -1.220871 -0.2480474 0.46980828 -0.29118815
0000b0 04 5a 7b bd 09 a6 92 3f d9 25 96 3e eb 4c a4 3e
       -0.061365142 1.145692 0.2932575 0.32089934
0000c0 37 0d 83 3e eb cb 3b 3e c2 a0 0b be de 04 ca be
       0.2559602 0.18339507 -0.13635543 -0.39456838
0000d0 cc e0 dd be bd ca fb 3e 04 58 80 be 40 27 00 bd
       -0.4333557 0.49178115 -0.2506715 -0.03128743
0000e0 0d 2c 76 be d3 8e 62 3e d2 f5 ef 3e 75 44 9c 3e
       -0.24040242 0.22124796 0.46867234 0.3052098
0000f0 36 f5 ed bc db 8b d8 3e c9 1e 8d 3f d8 fa 37 3f
       -0.02904759 0.422942 1.102502 0.7186713
000100 39 ec 65 3e 15 6b 66 3e 1d b8 6f 3e c8 69 1a be
       0.22453393 0.22501786 0.23410077 -0.15079415
000110 aa dd 93 bd 8a 79 c3 3e b9 55 06 be 41 ca 54 be
       -0.072200134 0.38178664 -0.13118638 -0.20780279
000120 22 d1 f7 bd b6 f0 a0 bb 6f 5c f9 3d 44 2a 87 bd
       -0.12100436 -0.0049115075 0.121758334 -0.065998584
000130 07 c0 8a bd e0 cc 70 bc c0 55 26 be fc 1c 2c 3f
       -0.067749076 -0.0146972835 -0.16243649 0.67231727
000140 4e fb 1a 3e d5 d4 f4 bd 25 e5 61 bc e6 ce 91 3e
       0.15134928 -0.11954657 -0.0137875425 0.28478163
000150 0d 6d 84 be 22 18 29 be e5 40 a9 3c b4 c8 50 3e
       -0.2586445 -0.16513112 0.020660827 0.20389062
000160 e2 6a 42 3d aa 11 c4 3e 09 fb 75 3d 92 61 6a bd
       0.047465213 0.38294727 0.06005386 -0.057221957
000170 f8 de 07 3f 2f 4f 32 3d c8 4a db bd 63 62 5f 3e
       0.530746 0.043532547 -0.10707623 0.21814875
000180 21 1b 7f 3d b3 3a 02 3e 1f 37 0e be af c2 f6 bd
       0.06228173 0.12717704 -0.13888215 -0.12048852
000190 06 98 b5 3e da f0 9a be c1 ec 7b be bb 0c 79 3e
       0.35467547 -0.3026188 -0.24602033 0.24321263
0001a0 11 de 70 bd 70 e1 4b bd 52 55 05 3e a0 2a 05 3c
       -0.05880553 -0.04977554 0.13020828 0.008127838
0001b0 c7 4f bf bd 59 32 71 be 72 60 a5 be 23 82 3b 3e
       -0.09341388 -0.23554362 -0.32300144 0.18311362
0001c0 0d c0 01 3e db d5 32 3d 6c 80 07 3b 1e eb 09 bd
       0.12670918 0.04366098 0.002067591 -0.03367149
0001d0 38 de 6f bd 2d f9 b4 bb ed 62 fb bd d6 76 ed bd
       -0.058561534 -0.005522868 -0.12274728 -0.11594932
0001e0 11 4a c6 bd 21 66 a3 bd fa c7 03 3e 31 e3 a8 3e
       -0.09682096 -0.07978464 0.12869254 0.32985833
0001f0 35 02 60 bd 32 27 49 3e e1 c1 f3 3c f5 9a c0 be
       -0.054689605 0.19643858 0.029755535 -0.37618223
000200 94 55 6e 3d a6 bb bb bc cf 2e eb 3e a8 fa 29 be
       0.058187082 -0.022916626 0.4593415 -0.16599524
000210 9e 76 3c 3e b5 ff 31 3f de a2 1e bc df d1 a2 be
       0.18404624 0.695308 -0.009682385 -0.31800744
000220 49 8f 6a 3e b4 e9 15 be b4 5d 2e bd 01 f4 55 3b
       0.22906221 -0.14639932 -0.04256983 0.0032646658
000230 8b 37 97 be 51 62 9c bd 3e e4 24 be ad 0a a1 3e
       -0.29534563 -0.0763594 -0.16102692 0.31453457
000240 91 db 20 3e a7 d7 1c bd 43 28 8f be 39 62 99 3e
       0.15708758 -0.0382916 -0.27960405 0.2995775
000250 13 86 96 bd fd 51 56 be db 30 67 3d 7e 09 0c 3e
       -0.073497914 -0.20929714 0.056443077 0.13675496
000260 d7 e9 e3 bd 10 a7 28 be 08 28 c1 bd ba 34 cb be
       -0.11128586 -0.1646998 -0.094314635 -0.39688665
000270 56 1e 99 3e 22 e4 88 bd 09 14 2b 3d 66 cb c6 3e
       0.29905957 -0.06684138 0.041767154 0.38827056
000280 75 eb b4 3c 11 eb 15 be 7a 88 af be 0f ea dc bd
       0.02208493 -0.14640452 -0.3428381 -0.10786831
000290 67 20 97 3e c8 1d 44 be 8d b3 5a 3e ca f4 ab bd
       0.2951691 -0.19151986 0.21357556 -0.08396299
0002a0 b9 13 7d bd 98 bb 1a 3e 19 e6 af bc 4e d7 8a bd
       -0.061786387 0.15110624 -0.021472024 -0.06779347
0002b0 b2 31 68 be 59 bb fc bd 13 14 36 3d bf 36 5c 3e
       -0.22675207 -0.12340421 0.044452738 0.21505259
0002c0 84 92 4a 3e f1 22 08 3e 4d 9e e6 bd 2f d0 1e be
       0.19782454 0.13294579 -0.11260662 -0.15509103
0002d0 1e d6 5e be 60 4c 57 3e 62 62 10 be a1 12 15 be
       -0.21761367 0.21025229 -0.1410003 -0.14557888
0002e0 b4 7b ca bc 53 3d f2 3d 1d 42 17 3e ca be 7a 3e
       -0.02471719 0.11828103 0.14771314 0.24486843
0002f0 d6 e8 1b 3d 17 5e 3d bc 36 b1 52 3d e1 5e aa 3d
       0.038063847 -0.011558077 0.051438533 0.08318878
000300 38 50 66 bd ea 4e d3 3d dd 6c be bf 08 a4 0e be
       -0.056228846 0.10317786 -1.4876972 -0.1392976
000310 f6 89 80 be a3 1b 8e 3e d1 59 c1 3e 4c 8d 1e bf
       -0.25105256 0.2775546 0.37763837 -0.6193435
000320 84 c0 1b bd f5 96 0a 3e e5 75 61 3e 6e c4 7e be
       -0.038025394 0.13534148 0.2201763 -0.2487962
000330 60 3e 5e be 15 ec 12 3e 64 5e 83 be fe 28 1d 3f
       -0.21703482 0.1434787 -0.25657952 0.61390674
000340 1d 1a 0d 3e 28 74 30 bf 39 4f cd 3c c5 9a bb be
       0.13779493 -0.6892724 0.02506219 -0.36641517
000350 86 33 2d bd 3a 49 c5 be 69 e7 e6 3c ce 69 c4 3d
       -0.042285465 -0.3853243 0.028186517 0.09590493
000360 ae 12 55 bc 12 c7 5b 3e 58 88 5b bd 47 db 54 3e
       -0.013004942 0.21462658 -0.053596824 0.20786773
000370 49 b1 ed 3f 17 68 52 3e 76 29 0a 3e 92 a8 bd bc
       1.8569728 0.2054752 0.13492379 -0.02315167
000380 e1 da 09 be f0 a1 05 3e 39 81 7c be 79 f9 2b 3d
       -0.13462402 0.13050056 -0.2465867 0.041985963
000390 32 25 ab 3e 20 6b 16 be 4f 14 88 3e 06 03 03 3e
       0.33426815 -0.14689302 0.26577994 0.12794122
0003a0 6d 60 0f 3d 04 c1 14 bd 7b e0 fd 3e 45 d9 e6 3d
       0.03500407 -0.036316887 0.49585328 0.112719096
0003b0 64 4a ad bd 63 99 9c 3b 1f 3b 52 be 5c 0b 2b 3e
       -0.084614545 0.0047790273 -0.20530365 0.16703552
0003c0 3d 6a 65 3e 22 b3 24 be e9 5b 2f 3e 09 4f 6e bd
       0.22403808 -0.16083959 0.17124905 -0.058180843
0003d0 6a 47 12 be cc 2e 18 be 78 f1 b9 bc 40 95 39 3e
       -0.14285055 -0.14861602 -0.02269815 0.1812334
0003e0 5e a4 90 bc c3 40 e3 bd ab de d3 be 88 c8 2f bd
       -0.017656501 -0.11096337 -0.4138082 -0.04291585
0003f0 4d 6d 70 be 7f e1 ac 3e 74 85 30 be bf 61 d7 be
       -0.23479195 0.3376579 -0.17238408 -0.42066762

encoder.dcrnn_cells.0.update.bias_pool f4 [2, 64]
000000 0a 2e 1c bd 9b ed 0f 3f 2b 88 c3 3e b6 b3 0b bf
       -0.038129844 0.5622193 0.38189825 -0.5457109
000010 2e 25 23 3f f1 8d 03 3f 84 7b 03 be f6 4f 0b be
       0.63728607 0.5138846 -0.12840086 -0.13604721
000020 b8 fc ce 3e dd 46 24 bf 20 b6 40 be c3 c9 be be
       0.40427184 -0.6417063 -0.18819475 -0.37263307
000030 c5 f0 f1 bd f9 08 98 be 48 52 9e be 35 e8 30 3e
       -0.11813501 -0.29694346 -0.3092215 0.1727608
000040 93 89 77 3e 81 b5 d3 3d b0 2d bf bd 11 58 e5 3e
       0.24173574 0.103373535 -0.09334886 0.44793752
000050 e0 0d 3a be 46 ca 86 be 1a f4 26 3c 76 27 01 3e
       -0.18169355 -0.26326197 0.010190034 0.1261271
000060 98 cb 69 be c8 5d 1f be 3e 71 dd 3a fb 9d 9f be
       -0.22831571 -0.15563118 0.0016894711 -0.31175217
000070 72 8b d5 3e 77 e4 06 bf 0a 52 3b bf 4d be cb 3e
       0.4170795 -0.5269236 -0.73172057 0.39793625
000080 43 b0 85 bd 4c a8 d4 be 86 1d 04 bf e0 a7 ad be
       -0.0652776 -0.4153465 -0.5160755 -0.3391714
000090 9c db bc 3e 60 54 b3 bc bc 34 a2 3e 97 ab 3a bf
       0.368863 -0.02189082 0.31680858 -0.72918075
0000a0 cb 92 6d be 91 84 ae be 8b 95 1e be 8a e6 d7 be
       -0.23200528 -0.34085515 -0.15486734 -0.42168075
0000b0 5c 5b e5 be c7 57 c4 be 3f 51 b6 3e ce d3 64 3d
       -0.44796264 -0.3834822 0.3560886 0.055866055
0000c0 86 d4 48 bc c8 5b 08 3f 26 c2 20 bf 0c 74 01 bf
       -0.012257701 0.5326505 -0.62796247 -0.505677
0000d0 23 91 84 be 49 2f 98 3d 74 ba 34 be 8d 71 62 be
       -0.2589198 0.07430894 -0.17649251 -0.22113629
0000e0 5c 87 06 3f 6f 83 9a 3e 0a 43 1f be 63 48 0c 3f
       0.5255029 0.301784 -0.15552917 0.54797953
0000f0 cf 03 7a 3e 55 66 68 bd 9c f5 c3 3e de 93 53 3e
       0.24415515 -0.056738216 0.38273323 0.20661876
000100 9f 70 61 3e e3 2f cb bc 76 7a ca be e2 ff cb be
       0.22015618 -0.024803108 -0.39546555 -0.3984366
000110 3b 94 88 3e a6 6c d4 3e 9c 5c c8 be e0 51 0b bf
       0.2667559 0.41489142 -0.39133155 -0.54421806
000120 1f f9 b6 3e 32 12 d6 bd c2 67 10 bf 22 b7 84 be
       0.3573694 -0.10452689 -0.5640832 -0.2592097
000130 1d d9 8c bc 18 65 56 bf cb 7e 17 bf fa 02 18 3f
       -0.017193371 -0.83748007 -0.59177846 0.5937954
000140 4d 28 e8 be 97 a6 b3 3e 2f 87 a1 be 0f a8 ca 3c
       -0.45343247 0.35088035 -0.3154845 0.02473834
000150 6e b9 12 3d c1 fa 16 bf af fc 8d be c1 e2 1f 3f
       0.03582137 -0.5897637 -0.27731845 0.62455374
000160 03 4a 55 3c b0 87 44 bf 6b 5d c3 3e 91 84 00 be
       0.013018134 -0.7676954 0.3815721 -0.1255057
000170 41 3c 26 3f ea 1b 49 bf 27 4b a7 be f6 8d 1f 3f
       0.6493569 -0.7855822 -0.32674524 0.6232599
000180 78 4f 80 be e7 5d 68 be e7 61 0b bf f0 4b 0a bf
       -0.2506063 -0.22692071 -0.5444626 -0.5402212
000190 cb c0 c1 3e bc 62 b9 3e aa 6f 0a 3f 79 73 a7 be
       0.37842402 0.3620814 0.54076636 -0.32705286
0001a0 b7 68 64 3e 28 47 ca 3d c2 b7 b9 be 25 df 11 bf
       0.2230557 0.09876853 -0.3627301 -0.56981117
0001b0 f7 2b f0 be f3 ab 6e bd 3d 09 f8 3e 99 86 d3 be
       -0.46908543 -0.058269452 0.48444548 -0.41313627
0001c0 a9 e0 d8 be 65 0d ec 3e 1b 36 a3 be 1d 38 17 bf
       -0.42358902 0.4610397 -0.31877217 -0.5907
0001d0 5e fc 28 bf 11 80 5d 3e 5f 2e b0 3e b8 d2 ba bd
       -0.6601008 0.21630885 0.34410378 -0.09122223
0001e0 ab 77 db 3e 90 2c 1a 3f 65 f6 4f 3d bb b6 e4 3e
       0.42864737 0.60224247 0.05077209 0.44670662
0001f0 fd 0f 87 3e 31 98 d0 be 58 c5 d0 3c 62 f4 fb 3e
       0.26379386 -0.40741113 0.025484726 0.49209887

encoder.dcrnn_cells.1.gate.weights_pool f4 [2, 2, 128, 128]
000000 82 1e b7 3d e6 16 04 bf b1 9e 12 be 11 bc c8 bd
       0.08941366 -0.5159744 -0.14318348 -0.09801496
000010 8a f9 8a 3e 35 0f e0 bd 6b 39 71 3e 84 4d 14 be
       0.27143508 -0.109404005 0.2355706 -0.14482695
000020 2a 21 44 be 85 ef c8 be 7e 4a 63 3e 18 3a de be
       -0.19153276 -0.3924524 0.22196385 -0.43403697
000030 cc 7a 82 be cb 41 87 bd b9 65 dc bd 1d 15 04 3e
       -0.25484312 -0.06604346 -0.107615896 0.12898679
000040 1a fd 21 be bf 5c 32 be 4a f0 f5 3c 66 86 19 bd
       -0.15819207 -0.17418192 0.030021805 -0.037481688
000050 79 25 08 be 36 d6 98 bd f3 6f 72 be 53 a1 8d be
       -0.13295545 -0.074627325 -0.23675518 -0.27662143
000060 d6 29 b9 be 03 b8 65 bd e5 41 5d bf 97 e6 62 bd
       -0.3616473 -0.05608369 -0.8642867 -0.05539569
000070 4d cc 0c be 34 6a 58 be 5b c6 27 bf 6a 02 54 3e
       -0.1374981 -0.21134263 -0.6553704 0.20704046
000080 8b fb 65 be 08 6a 9b be 72 05 94 be 58 08 6f be
       -0.22459237 -0.30354333 -0.28910404 -0.23343027
000090 7a cc 6f bd 9f 5f 17 3f b4 d3 8d 3c 1b 76 96 be
       -0.058544613 0.5913028 0.017312862 -0.29386982
0000a0 7c 19 0b bd e2 23 17 3e 25 c9 3b be 17 72 65 bd
       -0.03395985 0.14759782 -0.1833845 -0.056017008
0000b0 7d 67 d5 3d 51 45 91 bd 1a ad 3e be 6e 9e 30 bd
       0.104201294 -0.07093299 -0.1862072 -0.04311984
0000c0 e9 bf e1 bd 07 81 54 be ce 1e cb 3e d2 97 23 3d
       -0.11022932 -0.20752345 0.3967194 0.03993971
0000d0 c7 61 91 be 7a e7 84 bd 7b 11 c1 be c6 25 11 be
       -0.2839491 -0.06489463 -0.3770865 -0.14174566
0000e0 a7 ac c0 be b5 b6 ff 3e 99 e0 92 3e 78 24 e7 3d
       -0.37631723 0.49944082 0.2868698 0.11286253
0000f0 bb 2d e3 bd 50 7a 0e 3d 94 55 bb bd bd ab fc bd
       -0.11092707 0.034784615 -0.09147182 -0.12337444
000100 5f b9 51 3e 29 1e 29 bf 06 2e 7e bf 9c 0d 42 bf
       0.2048087 -0.66061646 -0.99288976 -0.75802016
000110 70 3d 45 bf 12 27 b2 bf 5b 15 40 be db 64 93 bf
       -0.7704687 -1.3918173 -0.18758146 -1.1515154
000120 38 c8 0d 3e 51 30 f7 bc c7 1c 10 bf a2 0c f8 be
       0.13845909 -0.030174406 -0.5629391 -0.48447138
000130 e1 7a 57 3e 58 ec bb bf 09 14 69 3e 0c f9 89 bf
       0.21042968 -1.4681501 0.22761549 -1.0779128
000140 18 2c f0 bf 78 78 da bf a5 ef 38 3e fa d8 8e 3c
       -1.8763456 -1.7068014 0.18060167 0.017437447
000150 33 85 63 bf 56 92 b1 be e3 29 76 be 96 d1 51 be
       -0.8887512 -0.34681958 -0.24039416 -0.20490107
000160 bd 26 a2 bf ea 5e 00 3f 8e 65 4d bf 18 92 9a bf
       -1.2668072 0.5014483 -0.80233085 -1.2075834
000170 5c 6f c5 bf 51 41 da bf c8 48 54 be 3b 71 9c be
       -1.5424609 -1.7051183 -0.20730889 -0.30555138
000180 2a f2 df be 88 0f 36 3f 24 2e e6 bd 56 73 db bf
       -0.43739444 0.7111745 -0.112392694 -1.7144573
000190 21 70 89 3e 3b f8 e4 3d fe 58 83 bf 50 ba d1 be
       0.2684336 0.11180159 -1.0261533 -0.40962458
0001a0 da c3 4a bf 55 39 82 3e ff 10 d9 be 0b 7c 01 bf
       -0.79205096 0.25434366 -0.4239578 -0.505799
0001b0 14 d8 c7 bf a3 36 68 bf 62 40 a9 bd ec 38 55 bf
       -1.5612817 -0.9070837 -0.08264233 -0.8328998
0001c0 05 d2 ed bf 10 07 a1 3d e4 2d 7d bf 89 1f a4 bf
       -1.8579718 0.07862675 -0.9889815 -1.2822124
0001d0 6f 21 e0 bc 65 7b e6 bf 4f 46 6d 3e 1b 37 a2 be
       -0.027359692 -1.8006407 0.23171352 -0.31682667
0001e0 69 56 ae 3e b2 3b 60 3e 6d f6 85 be a6 7d 9e 3e
       0.340503 0.21897772 -0.2616457 0.30955237
0001f0 0d 40 a9 bf 26 eb 66 bd 9d 61 a8 be c8 b3 cc be
       -1.3222672 -0.0563766 -0.32886973 -0.39980912
000200 82 9b 57 3e 9d 63 07 3e 1c 0f b1 3d fc 6d 7f 3e
       0.21055415 0.13221593 0.0864546 0.249443
000210 f1 47 55 3e 45 d9 ca 3e 90 ba 10 3e 91 ee 96 be
       0.20828225 0.39618888 0.14133668 -0.29478887
000220 28 5a 14 be 02 32 17 bd e4 e1 36 3e 43 59 8e be
       -0.14487517 -0.036912926 0.17859608 -0.27802476
000230 28 57 15 bc 09 3d 15 be 18 72 59 3f 32 30 a5 be
       -0.009115018 -0.14574064 0.8493972 -0.32263333
000240 5d 55 a1 be d3 6b 15 be 1d 60 68 3e 9e 96 29 3e
       -0.3151044 -0.14591913 0.22692914 0.16561362
000250 74 ad 35 be 86 9f ac bd 75 5a 7e 3d b0 a1 10 3d
       -0.17741948 -0.08428864 0.062097985 0.035310447
000260 a8 6c 4d 3d 99 99 4e 3d bf 1d ca be f0 bc e8 bd
       0.05015245 0.05043945 -0.3947582 -0.11364162
000270 32 b9 98 3b 0a 1d 16 be 20 17 aa be eb d6 81 be
       0.004660749 -0.14659515 -0.33220768 -0.25359282
000280 a6 5c 01 3e a2 42 f5 3d e6 3b 46 3e 83 ef fc 3e
       0.12632999 0.119756 0.19358787 0.49401483
000290 63 4b 05 3d ec 7d 49 be df c4 b9 be cb 7f 2c bd
       0.032542598 -0.19676942 -0.36283013 -0.04211406
0002a0 57 bd 5e be 69 48 bb be 0f 07 94 be 22 1f e3 bd
       -0.21751915 -0.36578682 -0.28911635 -0.110899225
0002b0 8f da 32 3e 0f ed 9d bd 94 57 b1 bd c5 a9 4c 3e
       0.17466186 -0.07711231 -0.08659282 0.19986637
0002c0 23 a0 30 3f d1 1c 10 bd 50 83 ef bd 84 6a 65 3d
       0.6899435 -0.03518373 -0.11694968 0.056009784
0002d0 c8 11 5b be 69 44 8c 3d 71 85 a9 bd 86 ff d7 bd
       -0.21393502 0.06848986 -0.08277405 -0.10546784
0002e0 0d 3b a7 3d 60 0d 51 3e 88 bd 09 3e 97 39 43 3e
       0.0816556 0.20415258 0.13451207 0.19064938
0002f0 83 66 c3 bd 6b 95 47 3f d9 71 fd bd 8a f9 1e bd
       -0.09541037 0.7796237 -0.1237523 -0.038812198
000300 fd 6b 6b bc 8f 96 2c 3c 90 0f 5f 3f 17 4c 8f bd
       -0.014369008 0.010533943 0.8713312 -0.06996935
000310 a5 6d 90 3e 8b 78 69 3e 9f f4 56 bd de 63 fc 3d
       0.28208652 0.2279989 -0.052479383 0.12323736
000320 69 b0 26 be c4 d6 07 3c 06 80 cc bd 3e fd ac be
       -0.16278233 0.00829095 -0.09985356 -0.33786958
000330 b9 40 c8 bd aa d4 de be 8d 5c ba 3f ee 7e fe 3e
       -0.0977797 -0.43521625 1.4559494 0.49706215
000340 78 6f 19 3f d8 de b3 3e 84 2d cf be f7 e4 30 be
       0.5993571 0.35130954 -0.40464413 -0.17274843
000350 c1 f4 7a be f4 5d 33 be 95 44 50 bd 68 98 25 be
       -0.24507429 -0.17516309 -0.050846655 -0.1617142
000360 10 ef e4 3e e7 bc 0f 3e d5 ff 1d 3f 57 d0 9b be
       0.4471364 0.14036904 0.61718494 -0.30432388
000370 84 d5 b1 3e ff ab df 3e c4 65 42 be 0b bc c6 be
       0.34733212 0.4368591 -0.18984133 -0.3881534
000380 cc 86 f3 3d 49 58 0b 3e 1d 7b 29 be 70 1d 55 bc
       0.11890945 0.13607897 -0.1655087 -0.013007507
000390 70 a4 af 3e 07 2f af be ff b9 09 bf 75 0c 88 be
       0.34305143 -0.34215567 -0.5379943 -0.26572004
0003a0 56 4b 46 3e ba f0 b9 3e fa 4c 37 be 8e 70 38 3e
       0.19364676 0.36316472 -0.17900458 0.18011686
0003b0 21 af 2f be ed 75 1e bf d7 c6 4d be 6c ae 25 bd
       -0.1715665 -0.6189869 -0.20095383 -0.040449545
0003c0 2b b1 8d 3e 0e 5a ac be cf df 88 be a0 5b c1 3e
       0.2767423 -0.33662456 -0.26733252 0.37765217
0003d0 95 f0 be be a8 04 51 3e 0d ec a4 3d 6c 1f b6 be
       -0.37292925 0.20411932 0.080528356 -0.35570848
0003e0 e1 99 f7 3d 11 2c 8b 3e 37 8c 1a 3f cd e1 31 bf
       0.12089897 0.27182057 0.603702 -0.6948517
0003f0 74 16 fe bc dc ec 19 be 73 12 b9 be 49 c3 15 bf
       -0.031016566 -0.15031761 -0.36146888 -0.58501107

encoder.dcrnn_cells.1.gate.bias_pool f4 [2, 128]
000000 50 6e 1b be 75 83 29 3e e3 ff 03 3d dc 75 4d 3e
       -0.151788 0.16554053 0.032226454 0.20064491
000010 1b a9 6c be 0b fc ba 3e 9e 85 10 bf 7b 2a 21 be
       -0.23111384 0.3652042 -0.56453884 -0.15738861
000020 60 80 95 3d a1 d1 7d be a0 d5 ae 3e 6b 11 06 3e
       0.07299876 -0.24786998 0.34147358 0.13092582
000030 f8 a1 45 3e 57 8b 95 3e b0 0f ef 3e c8 83 3d bc
       0.19300067 0.2920787 0.46691656 -0.011567064
000040 ca 46 95 3e 4b 21 a4 3c 55 8f 94 3d 36 13 5d 3e
       0.2915557 0.020035407 0.07253901 0.2158936
000050 38 b7 3a 3e 64 ef b5 3d c5 5b 6c 3e 77 58 9a 3d
       0.18233955 0.08883551 0.23081882 0.075364046
000060 de 98 9a 3e f6 f7 2b 3d ff 3c df 3c e1 28 d9 bd
       0.30194753 0.04198452 0.027250765 -0.106035
000070 51 5b e7 3d ef f0 2b 3e 5d f5 26 be 5a 88 16 3e
       0.11296714 0.16791128 -0.16304536 0.14700451
000080 e6 83 0a bb aa 4c 68 bd 9c 25 0e 3b ca fc ea 3e
       -0.0021135747 -0.056713738 0.0021689897 0.45895988
000090 76 ba 46 3e bc 99 d8 bd e6 3f 20 be 6a c0 b4 3c
       0.19407067 -0.105761975 -0.15649375 0.022064406
0000a0 43 3e 0a 3e db a8 07 3f 52 cb aa 3e 6f c8 f1 3d
       0.13500313 0.5299203 0.33358246 0.11805808
0000b0 04 59 82 bc 2f 86 91 3e 76 6c 2e 3e 49 1e a4 be
       -0.015911587 0.28422686 0.17033562 -0.32054356
0000c0 a5 fa d6 3d 34 c9 dc 3d 4b aa 96 be 97 4b 0e 3e
       0.104970254 0.10780564 -0.29426798 0.13896023
0000d0 23 2e 30 bd 3e 10 04 3d 82 6f 8c 3c 78 90 09 3d
       -0.04301275 0.032242052 0.017143015 0.03358504
0000e0 db a0 28 3c 97 6b 17 be 46 07 d0 bc a0 58 60 be
       0.010292257 -0.14787136 -0.025394093 -0.21908808
0000f0 59 e6 f3 bd be 34 7a 3d 4b 65 40 3e 86 ab e6 3c
       -0.1190917 0.061085455 0.1878864 0.02815796
000100 21 bf a5 3c bf 98 72 bf 23 75 9f 3d 6b eb f9 be
       0.020232739 -0.9476432 0.07786014 -0.48812422
000110 f6 88 84 be 7d c1 99 3e 5b 73 25 3e b2 9c 2e 3e
       -0.25885743 0.30030432 0.16157286 0.17051962
000120 e4 75 c2 3e 00 ee f8 be 4e a1 06 3f ce 3a b1 bd
       0.37980568 -0.4861908 0.5258988 -0.08653794
000130 3a 4e b9 3e 1b 54 27 3f 6f 6c 17 3f 63 f8 28 3f
       0.36192495 0.6536271 0.5914983 0.6600401
000140 d2 7d 57 3e b9 45 01 3f bc af 16 be 24 b9 89 be
       0.2104409 0.50497013 -0.14715475 -0.26899064
000150 7f b8 23 bf 69 cb 63 bf 31 2f 0b bf e5 bd c1 3b
       -0.63953394 -0.88982254 -0.54368883 0.00591253
000160 1d 96 2e 3f ef 2a cd be cc d2 32 3f 68 cd 4d 3d
       0.68197805 -0.40071818 0.698529 0.05024472
000170 0e f3 a6 3f 01 63 2d 3f 19 32 7b 3e 31 f3 a3 3e
       1.3042924 0.6772919 0.2453083 0.32021478
000180 19 f6 25 bf d1 56 32 3f 0a 61 da bc 76 4c 5f bd
       -0.6482864 0.6966372 -0.0266576 -0.05451628
000190 0d b3 34 bf d5 b2 2c 3f 83 c8 b2 bf 44 6b 87 bf
       -0.7058571 0.67460376 -1.3967441 -1.057961
0001a0 c3 52 8c 3f 75 a8 65 3f 2b 4e 26 3e 8a bc 8a be
       1.0962757 0.8971017 0.16240756 -0.2709697
0001b0 25 a6 7b 3f 16 b1 2d bf 1d 6c 8f bf aa 4b bf 3e
       0.9830039 -0.67848337 -1.1204869 0.37362415
0001c0 9e b7 79 be 68 c0 09 bf f6 b5 c5 be 86 c6 ae 3d
       -0.2438645 -0.53809214 -0.38615388 0.08533959
0001d0 bb 13 2f be 06 c7 4d 3e 34 5c 36 bf 40 6e 39 bf
       -0.1709737 0.20095453 -0.7123444 -0.72433853
0001e0 20 35 2c 3f d9 e4 c5 3f eb 1a 51 be b5 fc 06 be
       0.6726856 1.5460464 -0.20420425 -0.13182338
0001f0 c5 b2 bb 3e 5e 80 e1 be d6 13 97 bf e3 70 25 bf
       0.36659828 -0.4404325 -1.1802928 -0.64625376
000200 8b 0a a1 bd e5 f4 6d 3e d9 c2 93 bb 6d 1b 58 3e
       -0.07863339 0.23237951 -0.0045093116 0.21104212
000210 63 1a 83 bc 64 36 ac be 20 ec eb bd 28 14 a0 3e
       -0.016003793 -0.33635247 -0.11519647 0.31265378
000220 da b4 e9 bd 33 40 80 be d8 dd cd bd 98 6f 15 3b
       -0.11411448 -0.2504898 -0.10052079 0.002280211
000230 03 4d 74 bd 6d 6f 4b 3e 12 31 18 3e 1d de 96 be
       -0.059643757 0.19866724 0.14862469 -0.29466334
000240 d5 9b 8d 3d 72 43 61 be 88 38 11 3e 79 66 3f 3d
       0.06914488 -0.21998385 0.14181721 0.046728585
000250 ec 59 99 3d 72 8f 30 be a1 a0 41 3d 56 c8 a7 3d
       0.07487854 -0.1724222 0.04727233 0.08192508
000260 2b 0f e5 3d 9e a1 dd 3d 91 15 ad 3e 59 65 47 bc
       0.11184534 0.10821842 0.33805516 -0.012170159
000270 9f e6 0b 3e 40 9b 0f 3e 75 ce 6e be 10 aa de be
       0.13662194 0.14024067 -0.23320945 -0.43489122
000280 08 1a 82 3e 9f 0f 32 bd dc 9f 5e bd 7b 33 bd be
       0.25410485 -0.04347193 -0.054351673 -0.3695334
000290 76 c8 ef bc f4 c1 21 bd d8 0f 11 be 33 1d 28 3c
       -0.029270392 -0.03949161 -0.141662 0.010260868
0002a0 64 fe 52 3e 9a 79 4b bd a9 66 f8 3d 37 44 93 bd
       0.20604855 -0.049676515 0.12128956 -0.07190745
0002b0 6b 32 dd 3d 60 83 9d 3e 89 89 2f 3e 33 ae 2d 3e
       0.10800632 0.30764294 0.17142309 0.16960983
0002c0 0e ce 7b be b6 4e 67 bd 14 ac 98 bd 55 fa 45 3d
       -0.24590322 -0.05647155 -0.07454696 0.04833444
0002d0 95 dd 2e 3e 85 e3 7d be 3f ab a4 be d6 53 eb bd
       0.17076714 -0.24793823 -0.321619 -0.114906
0002e0 44 67 1b be 2f 00 f4 bd fd 55 67 be 9a 3e cc bc
       -0.15176111 -0.119140975 -0.22591396 -0.024932195
0002f0 43 89 c0 3e 6a f8 34 bd 9e 6b 03 bf 82 19 e1 bd
       0.37604722 -0.04418222 -0.51336086 -0.10991193
000300 03 ed d6 bd 6f 1b 6e 3f 94 cf 4f 3e 64 2a 02 be
       -0.10494425 0.9301061 0.20294029 -0.12711483
000310 10 2f 76 3f 32 fd 5b be 96 55 3e 3d c6 8b 19 3e
       0.9616556 -0.21483305 0.04646834 0.14994726
000320 db e7 c1 3e ec 08 24 3f f2 72 00 bf 12 b3 05 3d
       0.37872204 0.64076114 -0.5017539 0.032641478
000330 8c 1d 18 bf f4 b1 13 bf af 93 7f bf f6 d3 07 3c
       -0.59420085 -0.5769341 -0.9983472 0.0082902815
000340 f1 7d 54 bf 69 26 fd be 1a 52 b9 3e ed ad 53 bf
       -0.8300467 -0.49443367 0.3619545 -0.82687265
000350 84 ad 43 be 17 32 da 3e c1 a4 10 3f 2c bb 08 3d
       -0.1910916 0.4261634 0.56501395 0.033381626
000360 de fb 54 3f 52 c3 1b bf 88 6d 44 3e e2 41 e2 be
       0.8319682 -0.6084491 0.19182408 -0.4419089
000370 47 a0 40 bf ce 8d 99 be e6 d8 c4 bd c5 bf 05 be
       -0.75244564 -0.29991 -0.096116826 -0.13061436
000380 50 90 04 3d a6 c2 16 bf 71 f3 43 3d 72 48 3c bf
       0.03236419 -0.5889076 0.047839586 -0.7354804
000390 97 c0 7b be ec 51 6d be 97 93 08 3e d9 87 e5 3e
       -0.24585186 -0.23175782 0.13337551 0.44830206
0003a0 72 a9 73 bf 46 07 02 bf 96 23 9b bc 05 d4 ac 3c
       -0.9518043 -0.5079235 -0.018937867 0.021097193
0003b0 2e 0e 10 3f 3b 8c 7b be 59 f5 03 3e 47 1a 99 be
       0.56271636 -0.24565212 0.12886561 -0.2990286
0003c0 3d 19 0f bf a4 34 c4 be 99 83 32 be ed e2 7e be
       -0.55897886 -0.38321412 -0.17433013 -0.24891253
0003d0 92 26 52 be a2 38 b1 be 81 fd 09 3f e7 0d 70 be
       -0.20522526 -0.3461352 0.5390244 -0.23442803
0003e0 ef 88 95 be 3a c4 6f bf 57 81 26 3f 37 81 87 bd
       -0.29206035 -0.9365879 0.65041107 -0.06616443
0003f0 d6 69 e3 be f0 e3 03 3d 7b 51 58 3f ef 1c 69 3d
       -0.44416684 0.0321998 0.8449933 0.05691236
