CQ/result/HZ_Result/DAYS/2/data3/best_model.pth (torch_old, 599937 bytes, 11 tensors)

node_embeddings f4 [80, 2]
-0.20834629 0.17693143 -0.52706116 0.4204377 0.3559106 0.10105497 0.32134405 -0.8609755
-0.05475603 0.45409623 0.7069573 -0.5769845 -0.09183051 -0.16293107 0.06867341 0.8545225
-0.36773282 -0.10434587 0.9534803 -0.26467398 0.31788012 -0.11333036 0.74476504 -0.41732916
-0.6065035 -0.20526852 0.09154149 0.38096154 0.3464673 -0.31370705 0.0050833146 0.5407292
-0.10810176 0.25588202 -0.06738145 -0.33662498 0.12595059 0.51746 0.081470504 -0.43208733
0.063578725 0.3168564 -0.44486254 0.34633395 -0.10753782 0.34737954 -0.1750887 -0.39105132
-0.26031527 0.67602223 -0.16915928 0.42469722 -0.3913931 0.39051318 -0.21548252 -0.71429634
-0.51540405 0.108105294 0.07143188 -0.12844807 0.46171063 0.23896383 -0.40816334 0.11196898
-0.14953792 -0.5817632 0.33586925 -0.21416457 0.011419916 -0.33371875 -0.008128247 -0.13841204
0.19230588 0.22691916 0.15599823 0.25228265 -0.081452355 -0.21659328 0.15118533 0.31228957
0.015773766 -0.25813153 -0.26177567 -0.52584094 -0.25061238 -0.37735838 0.16608949 -0.6539431
-0.44916672 -0.66740644 -0.37449 -0.5207006 0.12862489 0.60800064 -0.11529656 0.46949473
-0.24782221 0.28471664 0.20880748 -0.26805753 0.28073975 0.6138924 0.2315769 0.12631787
-0.4711169 -0.0618238 0.38051787 -0.39681762 -1.0321373 -0.15352827 -0.9000321 -0.19360858
0.15160947 0.45795536 -0.24046557 0.3648296 -0.20479476 0.36471847 0.0819517 -0.32235384
-0.33075684 0.44195282 0.15409368 -0.42286435 0.14036404 -0.35024187 -0.44529396 0.28586876
0.060661215 -0.15112586 0.26826686 0.33654022 -0.0073668044 -0.28597638 0.18461657 0.19025075
0.086501546 -0.2959089 0.08648573 -0.49327904 0.20968527 0.16332923 0.258509 0.2366614
0.9752201 0.3083461 -0.39729264 0.15299065 -0.42411572 -0.4621621 0.82341516 0.12998173
-0.13830921 0.24451797 0.44727564 0.06552375 0.03208346 -0.19907233 -0.026442984 -0.23700225
00000000: bb58 55be 832d 353e 7bed 06bf 9c43 d73e
00000010: ea39 b63e e8f5 ce3d 3587 a43e e468 5cbf
00000020: dc47 60bd 4d7f e83e 27fb 343f 42b5 13bf
00000030: a211 bcbd 67d7 26be a5a4 8c3d fdc1 5a3f
00000040: 7a47 bcbe 4ab3 d5bd 4917 743f 5983 87be
00000050: 2fc1 a23e bf19 e8bd eca8 3e3f 2bac d5be
00000060: d043 1bbf e931 52be 1b7a bb3d 640d c33e
00000070: 2964 b13e 369e a0be ef91 a63b 3b6d 0a3f
00000080: 7564 ddbd f802 833e 49ff 89bd 1c5a acbe
00000090: 31f9 003e 4278 043f 02da a63d 8d3a ddbe
000000a0: 9035 823d 013b a23e 06c5 e3be af52 b13e
000000b0: ca3c dcbd bbdb b13e 744a 33be e137 c8be
000000c0: 0b48 85be cb0f 2d3f 1738 2dbe ea71 d93e
000000d0: ad64 c8be 58f1 c73e 73a7 5cbe 20dc 36bf
000000e0: 85f1 03bf 4f66 dd3d e14a 923d e487 03be
000000f0: 5665 ec3e efb2 743e c9fa d0be fe4f e53d
00000100: 7820 19be 6fee 14bf 0ef7 ab3e f54d 5bbe
00000110: 991a 3b3c 2fdd aabe 572c 05bc e3bb 0dbe
00000120: d5eb 443e 7f5d 683e 00be 1f3e 312b 813e
00000130: 7ed0 a6bd a1ca 5dbe 54d0 1a3e 6be4 9f3e
00000140: fc37 813c d129 84be 7607 86be 839d 06bf
00000150: 4450 80be 1e35 c1be 5d13 2a3e d168 27bf
00000160: 2ef9 e5be 26db 2abf 27bd bfbe a24c 05bf
00000170: 3eb6 033e eea5 1b3f 9a20 ecbd 9d61 f03e
00000180: 1bc5 7dbe 61c6 913e a1d1 553e d63e 89be
00000190: 1fbd 8f3e 0d28 1d3f 7f22 6d3e 7959 013e
000001a0: 3c36 f1be f43a 7dbd 3dd3 c23e ae2b cbbe
000001b0: 131d 84bf 8436 1dbe 8168 66bf 5441 46be
000001c0: 833f 1b3e 2079 ea3e 9b3c 76be f2ca ba3e
000001d0: b8b5 51be 61bc ba3e 4bd6 a73d 900b a5be
000001e0: f658 a9be a447 e23e bcca 1d3e ad81 d8be
000001f0: 97bb 0f3e e752 b3be 92fd e3be 645d 923e
00000200: e577 783d bdc0 1abe 465a 893e 004f ac3e
00000210: 3c65 f1bb 7f6b 92be 200c 3d3e 18d1 423e
00000220: b927 b13d 5f81 97be 6e1f b13d 128f fcbe
00000230: bcb7 563e c73f 273e 4b5b 843e 5e57 723e
00000240: 06a8 793f 8adf 9d3e f169 cbbe 95a9 1c3e
00000250: b225 d9be 83a0 ecbe 56cb 523f ee19 053e
00000260: eea0 0dbe eb62 7a3e 5001 e53e 5131 863d
00000270: f269 033d 9ed9 4bbe f59e d8bc b8b0 72be

encoder.dcrnn_cells.0.gate.weights_pool f4 [2, 2, 65, 128]
-0.9184577 0.43919453 0.15728617 0.22639942 0.3025585 0.84602237 1.7650237 0.24242231
0.3789727 0.3455397 -0.46819872 0.96841437 0.4158951 -0.7760976 0.37655604 2.5262847
1.0899999 -0.7474609 0.72979116 1.5061555 2.1907773 0.027074683 -0.62657887 0.693458
-0.9579735 0.805124 -0.26938054 -0.62051547 1.6853966 1.6386384 0.32374528 1.1964965
0.49964744 0.14578247 0.14584017 1.6207829 1.3113607 -0.119950466 0.06760616 -0.5050178
-0.49624988 1.2916448 -1.1723706 1.0053076 0.43820283 -1.0890498 0.10021178 -0.8570629
-1.1801834 0.7324846 -0.30453998 -0.24648595 1.5892991 0.46756062 -0.6207239 -0.37270978
-0.077301085 1.0689521 0.37493336 0.2931875 0.61137563 -1.605924 -0.6428974 0.89566046
0.25461146 -0.07631316 -0.28179052 0.0042646113 0.08227851 -0.20330775 0.54025507 -0.52165586
0.24244562 -0.14345704 -3.3547552 -0.030355351 0.55631155 1.4200163 -0.6154187 0.31931627
-0.103569366 -2.1891704 2.2200801 -0.06954634 -0.052133247 -0.53435415 -1.3194824 2.1901817
-2.3376367 -1.2583615 -1.1508126 -1.1392581 -0.22809763 0.63412076 0.3526364 -0.45895132
0.021868266 -0.6800287 -0.10938722 -0.4584895 -0.2262363 -0.070703894 -0.5281661 0.12115636
-1.8941549 0.022812128 -1.7443359 -0.35733572 -0.19636436 0.6963819 -0.525329 -1.7166891
-1.8177418 0.24547543 -0.24840714 -0.52613914 -0.4093695 0.1985935 -1.1598774 -0.45826656
-0.7467103 0.6113017 0.14343935 0.51985836 -0.09113108 -2.7057748 -1.8948356 0.034153193
0.084614076 0.4170753 -0.5768028 -0.32326078 0.16269153 0.57221234 -0.22033896 0.08569999
-0.5308655 -0.2429928 0.14747384 0.08165661 -0.0036716696 -0.1868393 0.050280027 0.25612321
0.12153097 -0.5574685 -0.111880854 0.56441146 0.7465048 0.04388263 -0.095717564 0.41822258
0.28646204 -0.14712352 -0.008031618 0.8058269 0.39599553 -0.1350765 0.3751402 0.55200464
0.018717477 0.022339582 0.18732212 -0.38220656 0.171267 0.17161064 -0.26088068 -0.1294046
0.064327165 -0.103163026 0.060067035 -0.50334907 0.21137051 0.26131865 -0.17608541 -0.06948515
0.20338312 0.82870305 -0.26636392 0.029893015 0.45591876 -0.25573158 0.08635169 -0.1213398
-0.14524084 0.28218374 0.8015503 0.3474932 0.12762281 0.2163707 0.35475025 -0.123303995
-0.36138213 -0.15996899 -0.36161014 -1.2408289 -0.31986862 -1.1094215 -0.7038529 -0.13552454
-0.908489 -0.44616765 0.33829975 0.8059623 -0.41301462 -0.5013598 -0.62898064 -0.17231248
0.092501506 0.08348192 -0.13665113 -0.08467442 0.38355276 -0.69736505 0.09278177 -0.25185576
0.08153721 0.09465357 0.5187387 -0.48506603 -1.5384942 -0.09896509 -1.1009744 -0.88829446
-0.3370234 -0.7580119 -0.48938277 -0.5965261 -1.5255817 0.10003632 -0.5664808 0.9868094
-0.5519283 0.09870563 -0.0062265345 -0.66384655 -0.100475006 0.22418742 -0.5679505 -0.06329218
-0.29942927 -1.4024584 -0.6922306 -0.4567055 -0.41933656 -0.54273796 0.025799742 -0.026085258
-0.18092272 -0.5323733 0.0004797512 -0.016568776 -1.4680561 0.86969644 0.14849737 0.049125604
00000000: 0b20 6bbf 1bde e03e a00f 213e 40d5 673e
00000010: f3e8 9a3e ec94 583f 4cec e13f 8e3d 783e
00000020: b608 c23e 94ea b03e beb7 efbe 01ea 773f
00000030: 34f0 d43e 55ae 46bf f4cb c03e a6ae 2140
00000040: 1e85 8b3f 9959 3fbf 98d3 3a3f b4c9 c03f
00000050: b235 0c40 bacb dd3c 7967 20bf 7786 313f
00000060: c03d 75bf 9b1c 4e3f 3fec 89be 1ada 1ebf
00000070: 13bb d73f e7be d13f f1c1 a53e cc26 993f
00000080: cad1 ff3e 0048 153e 2057 153e d075 cf3f
00000090: abda a73f 97a8 f5bd 1975 8a3d d948 01bf
000000a0: 7714 febe 9e54 a53f 3d10 96bf ebad 803f
000000b0: 1f5c e03e fc65 8bbf d53b cd3d 7968 5bbf
000000c0: 4010 97bf 1c84 3b3f aaec 9bbe d066 7cbe
000000d0: 276e cb3f 1b64 ef3e c3e7 1ebf d1d3 bebe
000000e0: 0850 9ebd 6cd3 883f 44f7 bf3e ac1c 963e
000000f0: 1d83 1c3f eb8e cdbf ed94 24bf 014a 653f
00000100: 6f5c 823e 134a 9cbd d946 90be 27be 8b3b
00000110: a381 a83d e82f 50be 284e 0a3f 3d8b 05bf
00000120: aa43 783e 67e6 12be 4fb4 56c0 c9ab f8bc
00000130: 6f6a 0e3f 18c3 b53f 148c 1dbf 6c7d a33e
00000140: 2d1c d4bd 5e1b 0cc0 cb15 0e40 506e 8ebd
00000150: ac89 55bd 6fcb 08bf cde4 a8bf f02b 0c40
00000160: d79b 15c0 fd11 a1bf d44d 93bf 36d3 91bf
00000170: 6d92 69be bd55 223f c28c b43e abfb eabe
00000180: 1425 b33c 5c16 2ebf 6806 e0bd 23bf eabe
00000190: 7daa 67be 34cd 90bd e535 07bf d320 f83d
000001a0: ab73 f2bf 80e0 ba3c 6646 dfbf b5f4 b6be
000001b0: bd13 49be 1646 323f f67b 06bf 78bc dbbf
000001c0: c3ab e8bf e95d 7b3e 715e 7ebe 0eb1 06bf
000001d0: e198 d1be 185c 4b3e dd76 94bf eaa1 eabe
000001e0: 6828 3fbf 457e 1c3f c4e1 123e 7015 053f
000001f0: efa2 babd 6a2b 2dc0 f989 f2bf 38e4 0b3d
00000200: 254a ad3d e58a d53e 59a9 13bf 7082 a5be
00000210: 9c98 263e 827c 123f 89a0 61be 7a83 af3d
00000220: cde6 07bf 1bd3 78be 6203 173e 953b a73d
00000230: 65a0 70bb cd52 3fbe 6ef2 4d3d 9522 833e
00000240: 3be5 f83d 41b6 0ebf ca21 e5bd 457d 103f
00000250: f01a 3f3f 46be 333d 9207 c4bd 4521 d63e
00000260: 27ab 923e 8ca7 16be 0c97 03bc ac4a 4e3f
00000270: edbf ca3e 7e51 0abe 6012 c03e 2d50 0d3f
00000280: 6555 993c 8001 b73c 5fd1 3f3e 94b0 c3be
00000290: 9e60 2f3e b3ba 2f3e 2792 85be a482 04be
000002a0: f6bd 833d 2347 d3bd da08 763d 7cdb 00bf
000002b0: 8371 583e 8fcb 853e bc4f 34be 3b4e 8ebd
000002c0: aa43 503e e225 543f da60 88be 32e2 f43c
000002d0: 2f6e e93e 40ef 82be 28d9 b03d 0081 f8bd
000002e0: 04ba 14be 637a 903e 6732 4d3f a1ea b13e
000002f0: 8eaf 023e 4890 5d3e d3a1 b53e ce86 fcbd
00000300: 1407 b9be e9ce 23be f724 b9be 7bd3 9ebf
00000310: d2c5 a3be 8601 8ebf b42f 34bf f2c6 0abe
00000320: bc92 68bf 1670 e4be a035 ad3e 8c53 4e3f
00000330: a776 d3be 1e59 00bf e004 21bf af72 30be
00000340: 6e71 bd3d 92f8 aa3d 46ee 0bbe c869 adbd
00000350: 0761 c43e 8486 32bf 5e04 be3d 3df3 80be
00000360: fbfc a63d bbd9 c13d 0fcc 043f 935a f8be
00000370: 61ed c4bf 36ae cabd bbec 8cbf 4467 63bf
00000380: 558e acbe 110d 42bf 6190 fabe efb5 18bf
00000390: 4346 c3bf d8df cc3d e304 11bf 8a9f 7c3f
000003a0: 2c4b 0dbf 2d26 ca3d f507 ccbb d9f1 29bf
000003b0: d7c5 cdbd 6391 653e 3465 11bf 559f 81bd
000003c0: cb4e 99be c283 b3bf 0636 31bf 4ed5 e9be
000003d0: 48b3 d6be e0f0 0abf fb59 d33c c0b0 d5bc
000003e0: ce43 39be 9e49 08bf 1e87 fb39 3ebb 87bc
000003f0: 43e9 bbbf 6da4 5e3f b20f 183e ee37 493d

encoder.dcrnn_cells.0.gate.bias_pool f4 [2, 128]
0.69212586 0.3679416 -0.14672565 -0.24277961 -0.023696061 -0.09764926 0.061620664 0.07865465
0.034902062 -0.16317548 0.034617495 0.38239053 0.27409506 -0.20397708 0.22232518 -0.04392411
0.08608882 0.18574744 0.36046752 -0.012105912 0.40865 0.1235624 0.39394957 -0.2081867
0.32596835 -0.25942165 0.13662036 0.104170464 0.018010767 0.11882654 -0.07574277 0.22710152
-0.28014868 0.25788304 -0.026748007 0.20135853 0.038452502 0.45482236 0.4261878 -0.08992447
-0.3664646 0.6587136 0.4058782 0.18457657 -0.11898144 0.61751574 0.18347493 0.03600409
0.18052989 -0.29706427 -0.28681478 0.107342914 -0.12753871 0.27594468 0.19733769 0.13282935
-0.27375418 -0.2988898 0.10997269 0.95735717 0.36536804 0.3271561 0.15881656 -0.15553288
0.17871861 0.0009971272 0.21729298 -0.013168041 0.6201875 0.98144853 1.344095 -0.3144225
0.80774474 0.4801631 0.042267554 0.1377153 -0.21354072 0.54664695 -0.07828851 0.6986493
0.12005796 -0.82226896 0.2252803 0.17904405 0.0821388 -0.6389958 -0.26485667 -0.025894897
-0.34891692 0.36626697 0.66987896 -0.62431294 0.97531325 1.414701 0.8557749 -0.12308426
-0.16963205 -0.17013007 0.4021793 0.08509357 0.73787737 0.37115404 0.31739843 0.045438055
-0.44022387 0.09157093 -0.47814953 0.27617055 0.6441369 0.12575033 -0.27896166 -0.77183443
-0.05149176 0.9970632 1.2142411 0.03164222 -0.12915485 -0.06368587 -0.15690334 -0.20651896
0.82131904 0.21835555 -0.3313126 0.36261442 0.503849 0.14690123 -0.39292473 1.2248042
0.52725357 0.133152 0.4685384 -0.40383294 -0.5639843 -0.4977341 -1.2291783 -0.5407393
-0.6946863 -0.5726697 0.15864867 0.060294457 -0.5693724 0.088643484 -0.18436259 0.06700908
0.12095175 0.51234543 -0.3425477 0.019746222 -0.17107321 -0.23333369 0.3453275 -0.44560018
0.15786162 0.39572057 0.39374992 -0.48550737 -0.36587474 -0.84219503 -0.27194828 -0.55436015
0.004910444 -0.17906855 -0.35382423 -1.2497637 -0.38372964 0.14985396 0.2078258 0.12893519
0.67991656 0.15188329 0.5017874 -0.54829943 -0.6345715 -0.09839976 -0.15309358 0.49198836
0.6419081 -0.21906765 -0.35848236 -0.32505405 -0.65108615 -0.3288653 0.52851236 0.20673193
-0.16339491 -0.47082457 -0.10013662 0.12925456 -0.86610764 -0.20761763 -0.0019998783 -0.35243577
0.015395619 -0.31248072 0.008478741 0.40485838 0.55253476 -0.03852049 0.17465982 0.0076110903
0.30753428 -0.15287493 0.32526487 -0.29031166 0.19641231 0.26616272 0.36125192 -0.14343096
-0.18279275 0.08275302 0.49709213 0.40848288 -0.5734627 -0.08357933 -0.09978278 0.42283985
-0.116790734 -0.396942 0.14930986 0.14499214 0.63247555 1.1632211 -0.0019057113 -0.7361194
-0.066998154 -0.28436595 0.5261683 0.498345 0.42531613 0.26229534 -1.6513946 0.87657976
0.9906227 -0.4251877 0.47217688 -0.17673434 0.8377394 0.21412182 0.17435864 0.22278501
-0.35999522 -0.1540875 0.13873062 0.12025835 0.52532554 0.45119414 0.32658073 0.20745121
0.40768597 0.20361811 0.39026454 0.28795975 0.32194775 0.16013111 0.4041273 -0.35270104
00000000: 292f 313f d762 bc3e 403f 16be 389b 78be
00000010: 3e1e c2bc 56fc c7bd f365 7c3d b015 a13d
00000020: 77f5 0e3d 7917 27be 13cb 0d3d b1c8 c33e
00000030: 3056 8c3e 5edf 50be 36a9 633e c4e9 33bd
00000040: 564f b03d 9434 3e3e 338f b83e e057 46bc
00000050: 933a d13e 490e fd3d c2b3 c93e e52e 55be
00000060: 53e5 a63e ead2 84be 35e6 0b3e 5357 d53d
00000070: 518b 933c 545b f33d 071f 9bbd 4d8d 683e
00000080: a66f 8fbe 3f09 843e a31e dbbc ee30 4e3e
00000090: 5f80 1d3d 7ade e83e 4a35 da3e 522a b8bd
000000a0: 40a1 bbbe 74a1 283f 44cf cf3e a401 3d3e
000000b0: 8bac f3bd 8315 1e3f dae0 3b3e 0679 133d
000000c0: d4dc 383e cf18 98be 63d9 92be 9ad6 db3d
000000d0: 8299 02be 9f48 8d3e e412 4a3e 6b04 083e
000000e0: 8229 8cbe 1508 99be 5d39 e13d 5c15 753f
000000f0: 8511 bb3e 0181 a73e cfa0 223e 0344 1fbe
00000100: 0302 373e 09b2 823a 0d82 5e3e c4be 57bc
00000110: 9cc4 1e3f 3640 7b3f 4e0b ac3f fcfb a0be
00000120: 5cc8 4e3f f0d7 f53e be20 2d3d 3d05 0d3e
00000130: 6baa 5abe 0ef1 0b3f ba55 a0bd aeda 323f
00000140: f3e0 f53d 3880 52bf e1af 663e 5357 373e
00000150: 6338 a83d 3b95 23bf 4b9b 87be 8921 d4bc
00000160: 3da5 b2be 5887 bb3e 307d 2b3f f9d2 1fbf
00000170: 21ae 793f ec14 b53f 1014 5b3f 9a13 fcbd
00000180: 06b4 2dbe 9436 2ebe 72ea cd3e 8a45 ae3d
00000190: 88e5 3c3f e707 be3e 0c82 a23e 411d 3a3d
000001a0: 0665 e1be 8a89 bb3d 04d0 f4be 3a66 8d3e
000001b0: 28e6 243f b2c4 003e 10d4 8ebe f196 45bf
000001c0: 06e9 52bd 893f 7f3f 416c 9b3f 469b 013d
000001d0: 2b41 04be bd6d 82bd 45ab 20be b579 53be
000001e0: f741 523f 9998 5f3e cea1 a9be 99a8 b93e
000001f0: 40fc 003f 476d 163e 6e2d c9be 62c6 9c3f
00000200: 17fa 063f ff58 083e 44e4 ef3e 31c3 cebe
00000210: 4661 10bf 01d7 febe b755 9dbf e46d 0abf
00000220: f6d6 31bf 7b9a 12bf cc74 223e 52f7 763d
00000230: 64c2 11bf b78a b53d 8cc9 3cbe 0e3c 893d
00000240: 8db5 f73d 1229 033f 6a62 afbe d4c2 a13c
00000250: d12d 2fbe 07ef 6ebe c4ce b03e b525 e4be
00000260: 7aa6 213e e39b ca3e 9799 c93e 6c94 f8be
00000270: ef53 bbbe 189a 57bf ce3c 8bbe 8cea 0dbf
00000280: cae7 a03b bf5d 37be 7328 b5be 42f8 9fbf
00000290: 3678 c4be 5173 193e 49d0 543e 9607 043e
000002a0: 030f 2e3f 4b87 1b3e 2475 003f 5a5d 0cbf
000002b0: 4773 22bf d085 c9bd 90c4 1cbe e6e5 fb3e
000002c0: 1754 243f 4553 60be 008b b7be 7c6d a6be
000002d0: 95ad 26bf 0861 a8be 964c 073f 89b1 533e
000002e0: ff50 27be eb0f f1be 6e14 cdbd 4f5b 043e
000002f0: 3bb9 5dbf b799 54be 6410 03bb 7672 b4be
00000300: e83d 7c3c 79fd 9fbe 6bea 0a3c 9949 cf3e
00000310: eb72 0d3f a9c7 1dbd 06da 323e 7466 f93b
00000320: 2275 9d3e 3f8b 1cbe 1e89 a63e bba3 94be
00000330: 4f20 493e 7b46 883e 03f6 b83e 91df 12be
00000340: 062e 3bbe 6a7a a93d dc82 fe3e ab24 d13e
00000350: 74ce 12bf a42b abbd ea5a ccbd 777e d83e
00000360: fb2f efbd fb3b cbbe afe4 183e d278 143e
00000370: ebe9 213f 6ee4 943f 0fc9 f9ba 5272 3cbf
00000380: 5436 89bd 6a98 91be f7b2 063f 1327 ff3e
00000390: 09c3 d93e 934b 863e e660 d3bf 8867 603f
000003a0: 7399 7d3f 34b2 d9be 2bc1 f13e d9f9 34be
000003b0: 1776 563f c042 5b3e 128b 323e c121 643e
000003c0: 4b51 b8be 1dc9 1dbe 660f 0e3e 034a f63d
000003d0: bc7b 063f eb02 e73e 9735 a73e 176e 543e
000003e0: 37bc d03e 4481 503e c1d0 c73e 766f 933e
000003f0: 56d6 a43e 69f9 233e c6e9 ce3e 3b95 b4be

encoder.dcrnn_cells.0.update.weights_pool f4 [2, 2, 65, 64]
0.8904638 0.7877678 1.0616976 0.16336665 -0.2963743 0.14376204 -0.26860747 0.55882674
-0.09680836 0.62023467 0.61553484 -0.31125334 -1.049357 -0.4881718 0.3011224 -0.30770957
0.11760702 -0.8808593 0.019828828 0.538719 -0.25971073 0.25334308 0.28483328 -0.08314163
-0.5400723 0.6140535 -0.7118574 -0.587044 0.3879007 -0.17342684 -0.2196666 -0.22111242
0.20963809 0.39779195 0.006417001 0.22533946 0.358129 -1.1208202 0.09451063 0.3191492
-0.88231957 0.17720352 0.7872999 0.18340701 0.4513722 -0.7215052 -0.13247307 0.7195165
-0.25670576 -0.013179664 0.009505232 0.27114522 0.3456219 0.99564236 -1.1319724 0.42372227
0.087526575 0.80779654 0.14972511 0.9958029 -0.08305351 1.0078717 0.89287007 0.057139494
-0.24869159 0.3608194 -0.29967466 -0.6271852 0.12544656 0.8598671 0.5222326 -0.78264165
0.42674136 0.25408435 0.35386202 0.466377 -0.35855496 0.03344217 -0.052211314 0.43737745
0.2296228 -0.3257282 -0.07499271 0.40884393 -0.16411674 -0.028157802 0.19193673 0.5119962
-0.08396638 0.042243093 -0.36861598 -0.48973688 0.13549463 0.22045664 0.1960405 0.18158352
0.7442358 -0.18587267 -0.22589661 -0.41745433 -0.059072066 -0.14101143 0.056491487 0.3646216
-0.39938784 0.62449825 0.5816941 -0.2939107 -0.20039088 -0.63829374 0.103684984 -0.06279702
0.025413424 0.10281697 -0.49051535 -0.44949383 -0.3930213 -0.008538903 0.2655327 -0.683147
-0.34965354 -0.3319636 0.19818449 0.13970248 0.46931496 0.7722097 0.18553254 0.723079
-0.12683673 0.94753987 0.21557426 -0.6553119 -0.1688621 0.41571182 -0.34781408 -0.41435394
0.45246944 0.11248706 0.42302984 0.0033419672 -0.058826216 0.020263609 -0.18754528 0.36297062
0.17877576 -0.22816981 -0.30048743 0.62359095 -0.60563684 -0.3035686 0.078868896 -0.3240247
-0.08011857 0.38528496 -0.31683123 -0.31718305 0.43179065 -0.22596022 0.09405138 0.63950527
-0.1591591 -0.26089418 -0.2905864 -0.31008273 -0.010967792 -0.096220255 0.3653163 0.20319112
-0.32694972 0.3595612 0.76974076 -0.550385 -0.42814964 -0.4290954 0.016336018 0.06667888
0.22901253 -0.15509954 -0.45682162 -0.82980525 -0.5128689 -0.14089742 -0.32866845 -0.068399966
-0.038801037 1.1676931 0.38187775 0.33536583 0.8744052 0.43970433 0.84256357 0.51109016
-0.43313453 -0.026421253 -0.26230082 -1.0512382 -0.43473533 -0.22209948 0.24336027 0.33421853
-0.37455663 -0.368781 0.7173171 -0.012200199 -0.0006426717 -0.7409478 -0.36209345 -0.21448047
0.23851675 -0.81858015 -0.08403301 0.13359612 -0.19186741 -0.7284251 0.14916377 0.38845116
0.060009975 0.14888415 -0.37767717 -0.43663514 -0.28376636 0.19267617 0.27653113 0.23023637
0.42793477 -0.2724828 -0.48591498 -0.30622995 -0.56621397 0.22072898 0.4381753 -0.35594708
-0.7251267 0.5801935 0.5298848 -0.13345857 -0.9332722 -0.35499445 0.091483414 -0.127101
-0.061439488 0.12962197 0.51371217 0.25855944 -0.69179285 -0.33465976 0.08766472 -0.22479208
0.4659751 -0.18859287 -0.20487969 -0.68340755 -0.2740472 0.559888 0.14689043 1.1516008
00000000: 70f5 633f 27ab 493f b5e5 873f 9649 273e
00000010: 5fbe 97be 5b36 133e eb86 89be 450f 0f3f
00000020: 7643 c6bd b3c7 1e3f b193 1d3f 995c 9fbe
00000030: 5551 86bf a7f1 f9be b72c 9a3e 1c8c 9dbe
00000040: f3db f03d ff7f 61bf 1170 a23c 7de9 093f
00000050: cef8 84be 2fb6 813e abd5 913e 2946 aabd
00000060: 2e42 0abf 9c32 1d3f 493c 36bf 8448 16bf
00000070: ec9a c63e ce96 31be 48f0 60be 4b6b 62be
00000080: 5eab 563e 63ab cb3e b545 d23b 63bf 663e
00000090: af5c b73e 0977 8fbf ca8e c13d 8667 a33e
000000a0: b2df 61bf d774 353e 7c8c 493f 0ccf 3b3e
000000b0: 421a e73e 91b4 38bf 05a7 07be 3c32 383f
000000c0: f06e 83be 84ef 57bc d5bb 1b3c 8cd3 8a3e
000000d0: 5bf5 b03e 6be2 7e3f 79e4 90bf 20f2 d83e
000000e0: 2241 b33d c1cb 4e3f 8a51 193e f0ec 7e3f
000000f0: f517 aabd f101 813f 2293 643f 1a0b 6a3d
00000100: 02a9 7ebe 52bd b83e f56e 99be 368f 20bf
00000110: 1075 003e 4020 5c3f 09b1 053f 345b 48bf
00000120: d87d da3e 5817 823e 672d b53e f7c8 ee3e
00000130: 8494 b7be a8fa 083d 88db 55bd f0ef df3e
00000140: 3d22 6b3e d9c5 a6be c795 99bd fe53 d13e
00000150: 380e 28be 31ab e6bc 108b 443e 2f12 033f
00000160: 91f6 abbd 1807 2d3d 3cbb bcbe cbbe fabe
00000170: 1bbf 0a3e 63bf 613e d7be 483e 08f1 393e
00000180: 3d86 3e3f 6855 3ebe 7151 67be 93bc d5be
00000190: 8df5 71bd 4d65 10be 9e63 673d afaf ba3e
000001a0: 907c ccbe 1edf 1f3f e8e9 143f 777b 96be
000001b0: 4433 4dbe 3867 23bf cb58 d43d b99b 80bd
000001c0: d02f d03c b491 d23d d424 fbbe 0e24 e6be
000001d0: 163a c9be c1e6 0bbc e7f3 873e b9e2 2ebf
000001e0: ca05 b3be 22f7 a9be e0f0 4a3e 2b0e 0f3e
000001f0: 0d4a f03e 89af 453f 3efc 3d3e b51b 393f
00000200: 7de1 01be f991 723f 80bf 5c3e 85c2 27bf
00000210: 30ea 2cbe 2ed8 d43e b014 b2be 3326 d4be
00000220: 13aa e73e 9e5f e63d 5e97 d83e e804 5b3b
00000230: c2f3 70bd deff a53c df0b 40be 49d7 b93e
00000240: fe10 373e 59a5 69be 7dd9 99be a8a3 1f3f
00000250: 040b 1bbf 586d 9bbe 0486 a13d 91e6 a5be
00000260: 3415 a4bd 1244 c53e b437 a2be d165 a2be
00000270: aa13 dd3e 1e62 67be 039e c03d 9eb6 233f
00000280: 9afa 22be ec93 85be bec7 94be 2ac3 9ebe
00000290: 41b2 33bc 200f c5bd bd0a bb3e 5511 503e
000002a0: f465 a7be 6818 b83e bb0d 453f 08e6 0cbf
000002b0: 6e36 dbbe 64b2 dbbe 1dd3 853c f08e 883d
000002c0: 4382 6a3e 6ad2 1ebe 86e4 e9be 1e6e 54bf
000002d0: 604b 03bf 6a47 10be 3b47 a8be 4815 8cbd
000002e0: d6ed 1ebd f876 953f 7b85 c33e 12b5 ab3e
000002f0: 05d9 5f3f ed20 e13e 3fb2 573f ced6 023f
00000300: cfc3 ddbe 6271 d8bc 4b4c 86be f98e 86bf
00000310: a195 debe 0c6e 63be 6f33 793e b11e ab3e
00000320: e3c5 bfbe ddd0 bcbe 18a2 373f 58e3 47bc
00000330: f878 28ba c1ae 3dbf 5064 b9be c5a0 5bbe
00000340: bc3d 743e 788e 51bf 8019 acbd 6ccd 083e
00000350: e478 44be 117a 3abf 63be 183e 12e3 c63e
00000360: 05cd 753d 1675 183e e75e c1be a48e dfbe
00000370: d349 91be e74c 453e 7d95 8d3e 15c3 6b3e
00000380: 441a db3e de82 8bbe d9c9 f8be 2cca 9cbe
00000390: 66f3 10bf c706 623e 8358 e03e b23e b6be
000003a0: e7a1 39bf 9087 143f 88a6 073f 5da9 08be
000003b0: edea 6ebf d5c1 b5be a85b bb3d c426 02be
000003c0: f9a7 7bbd 9fbb 043e a482 033f e761 843e
000003d0: 5619 31bf 8658 abbe 9089 b33d e52f 66be
000003e0: 4a94 ee3e 7d1e 41be fbcb 51be ccf3 2ebf
000003f0: ea4f 8cbe d254 0f3f 726a 163e a867 933f

encoder.dcrnn_cells.0.update.bias_pool f4 [2, 64]
0.41248646 0.36572286 0.5116514 -0.543815 0.41171095 0.5504249 -0.3102389 -0.27717605
0.58014697 -0.35225236 -0.42088887 -0.27252737 -0.67965 -0.21409313 -0.3780982 0.2682392
0.4522376 -0.8047946 0.027106633 0.5417224 -0.33224916 -0.40648985 0.15399987 -0.786259
-0.5259758 -0.19141854 -0.3492916 -0.3820517 0.1718343 -0.5903568 -0.14172727 0.2855301
0.06447842 -0.36924347 -0.5130244 -0.178919 0.21972463 -0.5083184 0.37146592 -0.63886327
-0.79334563 0.36532858 0.24994168 -0.06932407 -0.61922663 -0.3833419 -0.0015439051 0.20965159
0.46832648 0.257702 -0.46082738 -0.5471661 -0.3907906 0.49593806 -0.011771038 -0.078266606
0.30333322 -0.05905173 0.054856744 0.5351792 0.2393251 0.16052379 0.8151334 0.29408976
-0.16029559 -0.1578879 -0.7538315 -0.57652074 0.52371293 0.22806554 -0.870842 -0.7638102
0.5880381 -0.35859022 -0.261982 0.0909872 0.28153813 -0.6702693 -0.6578963 0.7628295
-0.91693157 1.0608177 -0.79620403 -0.5160685 0.025338035 -0.50543624 -0.7166874 0.7236817
0.85568804 -0.9287352 0.8639528 0.33699077 0.7177106 -0.9081574 -0.1783313 0.60607046
-0.16630603 -0.49210215 -0.47740236 -0.5781625 0.15450107 1.4600602 0.3581726 -0.31072617
1.3371031 0.10113148 -0.2673869 -0.42866126 -0.6484068 0.079823114 0.50797933 -1.2899551
-1.1520213 0.2896695 -0.21424112 -0.54663676 -0.61187685 -0.2338295 1.6570295 0.68510413
0.6963713 0.71086293 -0.32240567 -0.07034539 0.50113213 -0.173842 -0.9616732 0.24722366
00000000: 6d31 d33e 0740 bb3e 96fb 023f 7637 0bbf
00000010: c7cb d23e a5e8 0c3f a2d7 9ebe 05ea 8dbe
00000020: 8384 143f 6c5a b4be bf7e d7be b588 8bbe
00000030: 8bfd 2dbf 3b3b 5bbe 1696 c1be a656 893e
00000040: b08b e73e 0507 4ebf bb0e de3c 52ae 0a3f
00000050: 901c aabe 701f d0be 24b2 1d3e 4548 49bf
00000060: 5aa6 06bf 3903 44be 59d6 b2be 489c c3be
00000070: 55f5 2f3e a021 17bf f420 11be 0031 923e
00000080: 430d 843d 7b0d bdbe 9155 03bf 8b36 37be
00000090: 7eff 603e 2821 02bf c830 be3e 8b8c 23bf
000000a0: b318 4bbf 590c bb3e b6f0 7f3e c7f9 8dbd
000000b0: a385 1ebf 6445 c4be dc5c caba e8ae 563e
000000c0: 7dc8 ef3e 84f1 833e 91f1 ebbe 1413 0cbf
000000d0: b515 c8be 98eb fd3e 50db 40bc 3e4a a0bd
000000e0: 7e4e 9b3e 3ae0 71bd 77b1 603d 8101 093f
000000f0: a411 753e 5960 243e 95ac 503f ef92 963e
00000100: 8724 24be 5ead 21be 1afb 40bf dd96 13bf
00000110: 0d12 063f 038a 693e 80ef 5ebf 1189 43bf
00000120: aa89 163f 2399 b7be 8122 86be 7f57 ba3d
00000130: c425 903e c596 2bbf e46b 28bf cb48 433f
00000140: 07bc 6abf e0c8 873f 07d4 4bbf 111d 04bf
00000150: b691 cf3c 4564 01bf d378 37bf 3443 393f
00000160: 5f0e 5b3f 97c1 6dbf 032c 5d3f 0e8a ac3e
00000170: e2bb 373f 017d 68bf 7b9c 36be 6f27 1b3f
00000180: 214c 2abe d0f4 fbbe 156e f4be 7502 14bf
00000190: 8735 1e3e 41e3 ba3f 6662 b73e 8017 9fbe
000001a0: 3226 ab3f 051e cf3d f0e6 88be 7d79 dbbe
000001b0: fdfd 25bf 4d7a a33d ef0a 023f 401d a5bf
000001c0: 6f75 93bf 904f 943e 0662 5bbe 63f0 0bbf
000001d0: f6a3 1cbf 0071 6fbe 8b19 d43f fc62 2f3f
000001e0: 6445 323f 1dfb 353f 5b12 a5be 3e11 90bd
000001f0: 324a 003f a303 32be 3730 76bf 3328 7d3e

encoder.dcrnn_cells.1.gate.weights_pool f4 [2, 2, 128, 128]
-0.090750046 -1.9227641 0.4589538 -0.1612948 -0.21710521 -1.2589277 -0.85637563 -0.24674089
-0.59387696 0.09126573 0.66950834 0.5059734 0.7073198 0.54515773 0.768467 -0.95237625
-0.0646513 -0.26648593 -0.1942492 -0.43139237 0.56193537 0.16434637 -1.2317833 -0.030793244
0.14430332 -0.54402095 -0.00847391 0.962914 -0.5122023 -0.72734916 -0.24554077 -0.37456617
-0.072176665 0.15459996 0.13151199 0.9810418 -1.2268333 0.076565795 -0.1447206 0.26076236
-0.97513765 0.10976369 0.1751548 -1.3627998 0.60603184 -0.33988345 -0.32869363 -1.0276793
-0.68698674 -0.23051314 1.0695181 -0.47428098 -1.4251693 0.18318814 -0.20835075 -0.107230335
0.05683379 0.71762025 0.053832192 0.40030706 -0.10496356 0.13479555 0.3402089 -0.25761342
0.26046464 -0.21541059 -1.1936724 -0.5622407 -0.3932928 -0.12942372 -0.8167741 -1.1965288
-0.07233387 0.5206526 -0.4331594 -0.3806984 -0.80072474 0.36333433 -0.17137851 0.13526136
-0.22398034 0.5097912 -2.4094293 0.20895004 0.11698978 -0.1722755 0.049366172 0.4813301
-0.67397493 -0.56196064 -0.29359138 -0.24530841 -0.06703269 -0.27401975 -0.13465016 0.52541226
-0.74267375 -0.13045718 0.31155458 0.0031307323 -0.6522715 -0.14620022 -0.7175672 -0.04194225
0.0076564034 -0.21012992 -0.1004512 0.16636625 0.22283545 -0.0067165093 -0.2961927 0.54972494
0.2596769 -0.45314494 -0.0047467593 0.100501984 -0.14083415 -0.35551697 -0.46289766 -0.85776836
-1.0263144 0.009031589 -0.67798054 -0.5349301 -0.34307477 -1.5423381 0.6109789 0.3320129
-0.082911946 0.73404837 -0.28929368 0.534616 0.053978015 0.067596234 -0.30488846 0.0786886
0.6147953 -0.122213386 -1.8797685 0.1866467 -0.25297365 -0.39201698 0.8264924 -0.59735584
0.683788 0.67354083 0.036932345 0.09952388 -0.6056641 -0.16328056 0.61781746 -0.35713673
-0.034574363 -0.08703741 0.145444 1.6649903 0.41802186 -0.48319298 0.60251844 -0.35140336
0.3913908 0.47581136 -0.5086649 -0.3852287 0.5503374 -0.27851802 0.7416487 -0.49967867
-0.9120721 0.8474073 -0.035921898 -0.23010063 0.21705982 -0.11670207 0.28932223 -0.22842121
-0.6057647 -0.1527295 0.17443591 0.16565448 -0.38642615 -0.2613495 -0.39669085 -0.20334427
-0.07220986 0.35479212 -0.059976097 0.3053487 -0.59956926 1.2522877 0.073408835 -0.04497926
-0.0609495 -0.61669827 -0.71282846 -1.0850065 0.16273788 -0.19316638 -1.0680844 -0.30993927
-0.05178982 -0.38818547 -1.4011858 -0.6535846 -0.49816346 0.41842934 -0.66642183 -0.29044655
-0.022219725 -0.15964153 -0.1809432 0.48677433 0.6617209 -0.40940356 -0.101828165 0.06673953
-0.41220772 -0.68657196 -0.5304052 -1.2183821 -0.21699157 -0.34600016 1.4052799 -0.020112347
-0.5393885 -0.16151664 0.20995344 -0.175039 0.3011071 -0.01941135 -0.16660333 -0.25521198
-0.31735924 0.4575361 -0.27177843 0.75183266 -0.0107355835 0.10776617 0.20120582 0.83686256
-0.36853415 -0.7486307 0.3345111 0.13172583 -0.9522121 -0.12470538 0.1002353 -0.41597396
-0.2513777 -0.099710725 -0.45563486 -0.70858663 0.493474 -1.3165148 0.0057990323 -0.30256224
00000000: 29db b9bd 221d f6bf fefb ea3e 772a 25be
00000010: d450 5ebe 8b24 a1bf 6f3b 5bbf a5a9 7cbe
00000020: 5208 18bf 87e9 ba3d e664 2b3f 7987 013f
00000030: e912 353f 758f 0b3f 41ba 443f eece 73bf
00000040: e767 84bd d870 88be 43e9 46be 76df dcbe
00000050: ffda 0f3f 6a4a 283e 13ab 9dbf 1d42 fcbc
00000060: 40c4 133e f544 0bbf 28d6 0abc 8881 763f
00000070: b11f 03bf 8e33 3abf 0a6f 7bbe 23c7 bfbe
00000080: 5cd1 93bd 744f 1e3e 14ab 063e 8e25 7b3f
00000090: e008 9dbf 87ce 9c3d a331 14be a582 853e
000000a0: 9fa2 79bf c9cb e03d c85b 333e 3970 aebf
000000b0: e724 1b3f 3405 aebe 884a a8be ff8a 83bf
000000c0: 5dde 2fbf a30b 6cbe f8e5 883f f5d4 f2be
000000d0: f36b b6bf ac95 3b3e e659 55be 949b dbbd
000000e0: 8cca 683d f6b5 373f 257f 5c3d 0cf5 cc3e
000000f0: 23f7 d6bd d807 0a3e dc2f ae3e e8e5 83be
00000100: 9f5b 853e 9894 5cbe 42ca 98bf 02ef 0fbf
00000110: ad5d c9be a787 04be 1b18 51bf db27 99bf
00000120: c823 94bd 7d49 053f 12c7 ddbe e7ea c2be
00000130: 4cfc 4cbf f506 ba3e d97d 2fbe f481 0a3e
00000140: 1a5b 65be ad81 023f 1734 1ac0 00f7 553e
00000150: 5698 ef3d fd68 30be 2f34 4a3d e670 f63e
00000160: 9f89 2cbf a7dc 0fbf 9c51 96be 2132 7bbe
00000170: 6f48 89bd 514c 8cbe bbe1 09be 6b81 063f
00000180: de1f 3ebf 9196 05be 1584 9f3e f92c 4d3b
00000190: 44fb 26bf 83b5 15be 7cb2 37bf a3cb 2bbd
000001a0: 91e2 fa3b 4c2c 57be 5cb9 cdbd ea5b 2a3e
000001b0: fa2e 643e 2a16 dcbb 92a6 97be c6ba 0c3f
000001c0: 5ff4 843e 9d02 e8be b48a 9bbb fcd3 cd3d
000001d0: d436 10be 5206 b6be ec00 edbe b596 5bbf
000001e0: 455e 83bf 3bf9 133c 2290 2dbf 2ef1 08bf
000001f0: 7fa7 afbe 566b c5bf 1d69 1c3f 98fd a93e
00000200: bdcd a9bd 98ea 3b3f 4d1e 94be 98dc 083f
00000210: 0d18 5d3d e56f 8a3d 571a 9cbe 7d27 a13d
00000220: 3a63 1d3f 034b fabd 419c f0bf 5020 3f3e
00000230: c385 81be 73b6 c8be 0295 533f 50ec 18bf
00000240: bb0c 2f3f 2c6d 2c3f 5f46 173d 2dd3 cb3d
00000250: cd0c 1bbf 0533 27be 4929 1e3f a0da b6be
00000260: d99d 0dbd ab40 b2bd 46ef 143e 671e d53f
00000270: f606 d63e 1265 f7be a63e 1a3f 24eb b3be
00000280: 6064 c83e 8c9d f33e dd37 02bf b23c c5be
00000290: e9e2 0c3f ea99 8ebe b0dc 3d3f e2d5 ffbe
000002a0: 8f7d 69bf afef 583f d722 13bd 809f 6bbe
000002b0: ee44 5e3e 7f01 efbd 0b22 943e 40e7 69be
000002c0: 6513 1bbf 1f65 1cbe 549f 323e 54a1 293e
000002d0: a6d9 c5be 9acf 85be 101b cbbe 7b39 50be
000002e0: c3e2 93bd 50a7 b53e 7fa9 75bd aa56 9c3e
000002f0: 5f7d 19bf f74a a03f 5f57 963d 2c3c 38bd
00000300: 2fa6 79bd f0df 1dbf ed7b 36bf 7ee1 8abf
00000310: c2a4 263e 68cd 45be fdb6 88bf 5cb0 9ebe
00000320: 9021 54bd 3fc0 c6be 0e5a b3bf 5251 27bf
00000330: 480f ffbe 5f3c d63e 9f9a 2abf 69b5 94be
00000340: 2406 b6bc 1279 23be 2d49 39be 7c3a f93e
00000350: 8a66 293f 589d d1be 498b d0bd bcae 883d
00000360: e40c d3be 2ec3 2fbf a3c8 07bf f2f3 9bbf
00000370: 0a33 5ebe ef26 b1be 36e0 b33f a6c2 a4bc
00000380: 5d15 0abf 9e64 25be 09fe 563e 6c3d 33be
00000390: b62a 9a3e 8d04 9fbc 109a 2abe 25ab 82be
000003a0: e97c a2be 2c42 ea3e 8b26 8bbe 1b78 403f
000003b0: 4de4 2fbc 82b4 dc3d e608 4e3e a03c 563f
000003c0: 82b0 bcbe 43a6 3fbf 0a45 ab3e 23e3 063e
000003d0: 2cc4 73bf 8965 ffbd 2a48 cd3d 8afa d4be
000003e0: 94b4 80be 2335 ccbd f948 e9be ef65 35bf
000003f0: a0a8 fc3e 8f83 a8bf cf05 be3b 70e9 9abe

encoder.dcrnn_cells.1.gate.bias_pool f4 [2, 128]
-0.30145848 0.075457856 -0.5534842 -0.18974446 0.14256948 0.22026044 -0.027996438 -0.28810632
0.16064902 0.0176918 0.10995551 0.35903034 0.0653996 -0.19185552 -0.1377292 -0.17133008
0.38854823 0.0700656 0.039955847 1.0001588 -0.08329049 0.5764178 0.57620996 0.092321284
-0.13409668 -0.05488533 -0.5643032 -0.90256715 0.030444443 0.07788091 -0.30291378 0.79507816
0.28171325 0.6946531 -0.057498123 0.301741 -0.48536822 -0.0436053 0.11641792 -0.483572
-0.16920058 0.56865174 0.5139207 0.65603334 0.032087293 0.24306476 0.123317905 -0.86973083
-0.6530864 0.1100106 -0.11471862 0.4000118 -0.0040750117 0.064639 -0.10288308 -0.78630024
-0.30749092 0.1537078 0.80444676 0.21356331 -0.21659318 0.48878002 -0.0046858173 0.09479842
0.4408737 0.4795804 -1.1680298 -0.41539255 2.2459977 -0.26309422 0.13366388 0.5174635
-0.21394368 0.91771215 -0.09672212 0.635551 1.0424972 1.3808758 1.0392193 1.0392946
0.66308075 -0.49236542 -0.066265 1.7404981 -0.017911782 -0.83285576 -0.25468186 -1.4807593
0.077727884 -0.29603666 0.5230759 0.4100354 0.6780184 0.3896135 -1.6737305 -0.6498707
-0.39173815 0.513779 0.6975171 0.45942038 -0.18801786 0.52752435 -1.1372067 0.073101446
0.42693186 0.4554461 0.64954484 0.3824756 0.68855095 -0.47832808 0.20539604 -0.4169618
0.9975026 0.08694748 2.008858 0.3235358 0.5997082 1.6188828 -0.49328735 0.39446113
-0.7279477 -0.022750549 0.8103919 0.8743683 0.46922988 0.97254884 1.9102874 0.59293413
-0.75987893 -0.23996146 0.060057994 -0.27627525 -1.2557673 0.3239517 -0.4987228 0.796962
-0.12152218 -0.8813721 -0.87638783 0.058693245 -0.54511046 0.26146165 0.15485759 -0.042350374
0.48858863 0.017863771 0.02284623 0.008682436 -0.49956992 -0.52198833 -0.10958138 -0.16739544
0.5839247 0.8755143 -0.068323895 0.90811926 0.3754273 -0.50205064 -0.07674581 -0.48346
0.37667397 -0.17627205 0.01862551 0.055308245 -0.5745373 -0.40743387 0.46276546 -0.14468047
0.5718911 -0.50290877 -0.3248503 -0.2888827 0.07406057 -0.0717431 -0.43757322 -0.08171365
-0.97024846 0.5693711 0.11933712 -0.43603915 0.2553883 0.6338413 -0.028372517 -0.42417905
-1.1015493 -0.63676745 0.37505317 0.22149284 0.066323414 -0.00061909866 -0.606122 0.04218055
0.07662833 1.1270941 -0.47172856 -0.14432292 2.2145054 -0.85292953 -0.5419034 -0.5419672
-0.49765545 -0.44039473 -0.36425048 0.6145084 -0.04944838 -0.042316064 -0.33097306 -0.8568751
-0.47407997 0.42175937 0.11439155 -1.1403028 -1.0190909 0.38938326 -0.41629037 -0.88198835
-0.7944573 -1.1446165 -1.1895958 -1.3394887 -0.4563662 -0.8528781 1.0121655 -0.3049717
-0.16795051 -0.18909769 0.09234228 0.15863448 -1.9791024 -0.74410987 -1.0193809 -0.21402115
-0.8761978 -0.16884832 -0.29615745 0.36967176 0.3966223 -0.2008298 0.16709651 -0.23443937
-1.1677389 -0.46661398 0.50560975 0.0682538 -1.4774952 -0.08697088 -0.55371904 -0.23977545
-0.43742195 -0.5046616 1.3561764 0.04139271 0.008335401 2.4678028 1.5290629 -0.18802947
00000000: c458 9abe a689 9a3d 24b1 0dbf 5f4c 42be
00000010: bcfd 113e f48b 613e c958 e5bc ac82 93be
00000020: 2d81 243e 65ee 903c 5b30 e13d d3d2 b73e
00000030: 3af0 853d c675 44be e208 0dbe 2771 2fbe
00000040: cbef c63e 8e7e 8f3d bea8 233d 3405 803f
00000050: 3494 aabd 1e90 133f 7f82 133f f112 bd3d
00000060: a450 09be 71cf 60bd 2d76 10bf a40e 67bf
00000070: a066 f93c 0780 9f3d 8417 9bbe 3e8a 4b3f
00000080: b83c 903e c9d4 313f 2783 6bbd cc7d 9a3e
00000090: 2f82 f8be 799b 32bd 856c ee3d c096 f7be
000000a0: eb42 2dbe 2993 113f 4f90 033f cdf1 273f
000000b0: f76d 033d f8e5 783e 198e fc3d aea6 5ebf
000000c0: ac30 27bf 3d4d e13d 99f1 eabd 59ce cc3e
000000d0: ad87 85bb 7461 843d 5db4 d2bd f94a 49bf
000000e0: 736f 9dbe 9465 1d3e 39f0 4d3f 57b0 5a3e
000000f0: 9aca 5dbe 6041 fa3e 7c8b 99bb ad25 c23d
00000100: 33ba e13e 908b f53e 0082 95bf 55ae d4be
00000110: 6dbe 0f40 49b4 86be 2fdf 083e 7d78 043f
00000120: 0d14 5bbe 2fef 6a3f 3f16 c6bd 78b3 223f
00000130: 8c70 853f 8ac0 b03f 2305 853f 9b07 853f
00000140: a9bf 293f 5217 fcbe f2b5 87bd a4c8 de3f
00000150: bbbb 92bc 0936 55bf a965 82be 8589 bdbf
00000160: cc2f 9f3d 1e92 97be 4de8 053f 29f0 d13e
00000170: 9d92 2d3f 6c7b c73e cd3c d6bf ed5d 26bf
00000180: e791 c8be 0587 033f 7b90 323f 2639 eb3e
00000190: c187 40be d60b 073f fd8f 91bf 36b6 953d
000001a0: d096 da3e 3b30 e93e 9248 263f d8d3 c33e
000001b0: e044 303f 6be7 f4be 5753 523e 047c d5be
000001c0: 555c 7f3f 8511 b23d 2191 0040 7ca6 a53e
000001d0: 7a86 193f 8d37 cf3f 2990 fcbe cff6 c93e
000001e0: c85a 3abf 5c5f babc d875 4f3f 9ad6 5f3f
000001f0: e63e f03e f6f8 783f 4c84 f43f 88ca 173f
00000200: 6d87 42bf 75b8 75be 5fff 753d f373 8dbe
00000210: fcbc a0bf ffdc a53e 9858 ffbe b405 4c3f
00000220: 9fe0 f8bd 9aa1 61bf f45a 60bf 5468 703d
00000230: 5c8c 0bbf 4dde 853e fd92 1e3e 9677 2dbd
00000240: 4a28 fa3e 0b57 923c 0428 bb3c c740 0e3c
00000250: a1c7 ffbe 07a1 05bf 346c e0bd b669 2bbe
00000260: 177c 153f b521 603f 66ed 8bbd 817a 683f
00000270: 0238 c03e 6486 00bf e82c 9dbd 1288 f7be
00000280: 69db c03e a980 34be 8794 983c e68a 623d
00000290: e014 13bf 2c9b d0be 98ef ec3e 1e27 14be
000002a0: 7567 123f a1be 00bf c752 a6be 6fe8 93be
000002b0: 11ad 973d 0cee 92bd 9909 e0be 7c59 a7bd
000002c0: 3462 78bf 4ec2 113f 0567 f43d 8640 dfbe
000002d0: 41c2 823e 6c43 223f 7b6d e8bc ff2d d9be
000002e0: 91ff 8cbf 3103 23bf f806 c03e 05cf 623e
000002f0: 92d4 873d 024b 22ba d02a 1bbf 83c5 2c3d
00000300: 50ef 9c3d 9f44 903f 6886 f1be 63c9 13be
00000310: 75ba 0d40 9759 5abf 2eba 0abf 5dbe 0abf
00000320: b2cc febe 6b7b e1be 0a7f babe 6c50 1d3f
00000330: 628a 4abd 9c53 2dbd 4d75 a9be 2b5c 5bbf
00000340: 9cba f2be d8f0 d73e 1e46 ea3d 71f5 91bf
00000350: 9271 82bf 3e5d c73e 0324 d5be fdc9 61bf
00000360: 8e61 4bbf cb82 92bf ad44 98bf 5e74 abbf
00000370: d5a8 e9be 3856 5abf a48e 813f 4025 9cbe
00000380: 38fb 2bbe d3a2 41be f31d bd3d 1471 223e
00000390: 3a53 fdbf fc7d 3ebf 137b 82bf 5c28 5bbe
000003a0: 804e 60bf 93e6 2cbe f3a1 97be 9e45 bd3e
000003b0: 1412 cb3e 54a6 4dbe 591b 2b3e e010 70be
000003c0: 7878 95bf 07e8 eebe a46f 013f a6c8 8b3d
000003d0: 901e bdbf ca1d b2bd 88c0 0dbf b287 75be
000003e0: c5f5 dfbe 8131 01bf 3097 ad3f 678b 293d
000003f0: 3591 083c 7bf0 1d40 55b8 c33f cc8a 40be

encoder.dcrnn_cells.1.update.weights_pool f4 [2, 2, 128, 64]
-0.1266328 -0.19040327 -0.32421595 -0.102243625 -0.35031414 -0.664152 -0.57113224 -0.129312
-1.0261716 -0.1432851 -0.13218288 0.80891347 0.7556334 0.116144925 -0.74876404 0.25948304
-0.3587237 -0.7197336 -0.6571084 0.15290274 -0.11892261 -0.2583872 0.029655797 -0.39449453
-0.029593261 0.5183914 2.4982185 0.39176273 -0.14106011 0.30445918 -1.2107228 -0.67477906
-0.07111841 0.2853161 -0.68139815 0.59810096 0.48799062 0.7539141 -0.2774324 -0.3254328
0.13472709 -0.17320953 -0.8122853 0.18962656 -0.7300267 0.57887435 -0.21430632 0.021196894
0.23788433 0.61514664 -0.5477848 0.2628551 0.4170828 1.6533062 -0.06068691 -1.5247147
0.038442645 -0.28552425 -0.65859157 0.18045904 0.21806557 -0.4524628 -0.10427249 0.5290326
-0.7907582 -0.049805578 -0.6828508 -0.90358603 0.19245893 0.117178105 0.051819984 -0.13348597
-0.12916414 -0.87345684 -0.42465335 0.54243433 -0.30756873 1.0604254 -0.92019033 0.63505936
0.24490333 -1.3722991 -0.9490499 0.02215402 -0.538508 -1.1354066 1.0278239 0.33314353
-0.49551558 0.007779698 0.6945849 0.73688936 0.5992881 0.16857746 0.403248 0.11906747
0.3937971 -0.16661893 0.01976925 0.033205446 -0.48041508 0.17424051 -0.43335122 0.23771827
0.6463511 -0.49731773 -0.22498624 0.47308612 -0.6878018 0.5035649 0.197301 0.22577251
0.09717951 0.5942092 -0.59929204 -0.5948868 0.39251378 1.0950162 -0.3918065 -0.76615477
-0.09591161 -0.8029991 -0.018705344 0.18024254 0.025869282 -0.45028284 0.6556531 0.21484394
-0.6646838 -0.012400171 -0.18493788 0.07596746 0.47530085 -0.56714094 0.72188526 -1.2277479
0.021026121 0.29393783 0.8319547 0.8193701 -0.057759427 -0.27163377 -0.19290614 0.0545883
-0.50214607 -0.4656623 0.55477643 1.185822 -0.25407526 0.28610688 -1.1146852 -0.1292238
0.7994973 0.9071291 -0.033324245 1.4287723 1.35059 -0.15138927 0.18449925 0.33956245
-1.1640595 1.6264975 -1.0028347 0.17089048 0.40799406 1.4188542 0.68835425 0.14381249
0.56729376 0.8123241 -0.7061988 0.124009356 -1.4119593 -0.97085816 -0.014015292 0.015844716
0.41125697 0.70656836 -1.1444993 -1.7728828 1.0892625 0.72963285 -0.5837575 0.21881188
0.15362632 1.0576608 -0.31686553 1.7618738 -1.069191 0.5770971 -0.82844585 0.5150054
-0.1472847 0.051108416 -0.1257015 0.23221716 -0.055113155 -0.19389302 -0.2510066 -0.28278214
-0.19910714 0.074564524 -0.06665664 0.3450189 -0.7955352 -0.97371244 0.31699347 0.19993235
0.3926759 -0.28123343 0.21797568 -0.39504972 0.60231656 0.46216917 0.12774897 -0.12597744
0.7548987 0.07246257 -1.1296439 0.08894363 -0.8846779 0.07443293 -0.06872722 0.5988082
-0.48789406 -0.4715312 0.5820692 0.2051706 0.011811394 0.19962761 0.017004441 -0.14705394
0.053793967 0.5527023 0.42928568 0.19064164 -0.23294267 -0.46751404 -1.1846923 -0.40598276
0.14502904 -0.54739064 -0.32561013 -0.31634048 0.31298727 0.28700072 -0.5139564 -0.34343767
0.47129175 0.28296167 -0.19849592 -0.30114064 0.22168866 0.30716375 0.29153922 0.047953345
00000000: 07ac 01be 13f9 42be a2ff a5be 1b65 d1bd
00000010: 605c b3be de05 2abf b935 12bf 5d6a 04be
00000020: 9759 83bf 54b9 12be f35a 07be f414 4f3f
00000030: 3171 413f 64dd ed3d 00af 3fbf f6da 843e
00000040: a2aa b7be 7640 38bf 4238 28bf 8992 1c3e
00000050: b38d f3bd 544b 84be b7f0 f23c 30fb c9be
00000060: 916d f2bc 4cb5 043f d0e2 1f40 2095 c83e
00000070: 1072 10be 13e2 9b3e f7f8 9abf 52be 2cbf
00000080: 87a6 91bd f414 923e 1c70 2ebf 251d 193f
00000090: e8d9 f93e 8400 413f 9f0b 8ebe 219f a6be
000000a0: e6f5 093e d75d 31be eef1 4fbf 772d 423e
000000b0: 08e3 3abf 1c31 143f 1e73 5bbe 1ca5 ad3c
000000c0: f397 733e 407a 1d3f a03b 0cbf f294 863e
000000d0: e08b d53e 8a9f d33f d692 78bd da29 c3bf
000000e0: 0976 1d3d 3c30 92be 7599 28bf 41ca 383e
000000f0: 954c 5f3e 34a9 e7be d18c d5bd ae6e 073f
00000100: 216f 4abf ef00 4cbd 4fcf 2ebf 6a51 67bf
00000110: f413 453e 13fb ef3d 3141 543d 8cb0 08be
00000120: 9b43 04be de9a 5fbf 2a6c d9be fadc 0a3f
00000130: a679 9dbe 05bc 873f 9891 6bbf 4093 223f
00000140: f0c7 7a3e 7fa7 afbf eff4 72bf 597c b53c
00000150: a9db 09bf 0155 91bf bc8f 833f ca91 aa3e
00000160: 38b4 fdbe d6ec fe3b 51d0 313f c8a4 3c3f
00000170: f26a 193f 929f 2c3e 8676 ce3e a5d9 f33d
00000180: c69f c93e 279e 2abe 1ff3 a13c 6f02 083d
00000190: f7f8 f5be 1b6c 323e 36e0 ddbe 6b6c 733e
000001a0: 4477 253f 6ea0 febe cb62 66be 5838 f23e
000001b0: c713 30bf a1e9 003f 4609 4a3e e930 673e
000001c0: 0d06 c73d 181e 183f 346b 19bf 804a 18bf
000001d0: 91f7 c83e 7e29 8c3f dd9a c8be b822 44bf
000001e0: 4e6d c4bd 5991 4dbf f33b 99bc 8091 383e
000001f0: d1eb d33c 798b e6be e2d8 273f 0d00 5c3e
00000200: b828 2abf 162a 4bbc 5b60 3dbe d494 9b3d
00000210: a25a f33e 2630 11bf 79cd 383f d826 9dbf
00000220: f93e ac3c 057f 963e fcfa 543f 3dc2 513f
00000230: 2695 6cbd 9513 8bbe 3089 45be fb97 5f3d
00000240: a58c 00bf 4a6b eebe d405 0e3f 04c9 973f
00000250: 2716 82be 9a7c 923e 01ae 8ebf 3e53 04be
00000260: dbab 4c3f 9d39 683f 017f 08bd 03e2 b63f
00000270: 22e0 ac3f ca05 1bbe 5fed 3c3e 21db ad3e
00000280: e7ff 94bf 1231 d03f e35c 80bf eafd 2e3e
00000290: 99e4 d03e 049d b53f fc37 303f 9543 133e
000002a0: 2a3a 113f 79f4 4f3f 72c9 34bf 9ef8 fd3d
000002b0: 15bb b4bf 298a 78bf 65a0 65bc c7cc 813c
000002c0: 4690 d23e aae1 343f f47e 92bf d3ed e2bf
000002d0: f46c 8b3f 38c9 3a3f 2271 15bf 3910 603e
000002e0: 3850 1d3e 6e61 873f 333c a2be 1585 e13f
000002f0: 40db 88bf a3bc 133f 0715 54bf 65d7 033f
00000300: cdd1 16be 0f57 513d e5b7 00be 56ca 6d3e
00000310: 55be 61bd e48b 46be f083 80be d2c8 90be
00000320: bee2 4bbe 49b5 983d 4783 88bd 51a6 b03e
00000330: 32a8 4bbf 3845 79bf f84c a23e 11bb 4c3e
00000340: d10c c93e d4fd 8fbe 0435 5f3e f543 cabe
00000350: 6b31 1a3f 70a1 ec3e a0d0 023e 3b00 01be
00000360: 0b41 413f 4267 943d 2c98 90bf 1428 b63d
00000370: 407a 62bf 4b70 983d dbc0 8cbd 7f4b 193f
00000380: 40cd f9be 8a6c f1be 7d02 153f 3e18 523e
00000390: 9484 413c 2e6b 4c3e e64c 8b3c 4f95 16be
000003a0: 1057 5c3d e67d 0d3f 55cb db3e 9037 433e
000003b0: 8688 6ebe 005e efbe ffa3 97bf f9dc cfbe
000003c0: 7e82 143e cb21 0cbf 5fb6 a6be 61f7 a1be
000003d0: de3f a03e c2f1 923e a692 03bf 10d7 afbe
000003e0: 274d f13e 5ae0 903e 8442 4bbe 1b2f 9abe
000003f0: 5a02 633e 9144 9d3e a144 953e ba6a 443d

encoder.dcrnn_cells.1.update.bias_pool f4 [2, 64]
2.593941 -1.7796391 0.7232319 1.1249576 -1.1425716 -0.420961 -0.7811555 -0.25514793
-1.354787 0.035825554 0.6305788 1.3685974 -0.122308284 -0.0013397406 -0.1842908 -0.17424706
0.20972466 -0.5030048 -2.0475538 1.4710494 0.6632887 -1.0042913 0.9431209 0.84440607
1.3131858 -0.6802105 0.43288732 0.34009114 0.4872114 0.022502221 -0.5576338 -0.05994013
-0.314214 1.0674969 -1.9191039 1.0388019 -0.52684695 -0.42396212 0.54874986 -1.0256249
-0.5201704 1.555189 -0.4861399 -1.3505834 0.017545616 0.25076985 -1.8252975 -0.7147986
1.1528937 0.5669269 1.717157 0.073995955 -0.096614696 1.0918525 -0.28479725 -1.0125421
-2.7885563 -2.5597708 -0.45853084 -0.23575011 -0.08612389 0.6918998 -1.8153229 0.9635262
1.0653354 -0.6850428 0.60005456 -0.4869625 0.22208661 -0.37704018 -0.352235 -0.60365665
0.109293126 -0.80315757 -0.14380157 0.5023974 -0.3379511 -0.82035035 0.2549573 -0.07192071
-1.4441197 0.021200228 -0.7952881 0.5121553 0.7208449 1.2536709 -1.5785074 1.7383244
-1.1273282 0.22438125 0.0144588975 0.18527578 0.92101216 1.6189448 -0.43231985 -0.5413769
-0.68692946 0.021762818 0.03557423 1.2753204 1.3050339 0.6118564 0.65945184 -0.49730703
1.1894135 -0.553529 -0.55221915 0.4900539 -0.7274005 -1.2674072 -0.53518456 0.58902407
0.51477236 1.2932142 0.75301033 -2.0611935 -0.06621896 1.1332376 -0.6308232 0.4161039
-1.7713048 -2.126448 0.061616793 0.018747646 -1.6576055 0.057687163 -0.5869964 0.50646925
00000000: 2103 2640 37cb e3bf ba25 393f 9cfe 8f3f
00000010: c93f 92bf 3388 d7be cff9 47bf c0a2 82be
00000020: a969 adbf d1bd 123d 9d6d 213f 332e af3f
00000030: c47c fabd 3c9a afba bab6 3cbe d26d 32be
00000040: 10c2 563e ecc4 00bf 1f0b 03c0 594b bc3f
00000050: 4acd 293f 9e8c 80bf 5f70 713f ff2a 583f
00000060: 7916 a83f 4622 2ebf 68a3 dd3e 6d20 ae3e
00000070: c673 f93e 9456 b83c 17c1 0ebf c883 75bd
00000080: a8e0 a0be bda3 883f 32a5 f5bf 76f7 843f
00000090: 71df 06bf 9011 d9be df7a 0c3f ad47 83bf
000000a0: e329 05bf 6f10 c73f 54e7 f8be ebdf acbf
000000b0: d3bb 8f3c e864 803e 59a3 e9bf 0bfd 36bf
000000c0: 0592 933f 1f22 113f cdcb db3f 318b 973d
000000d0: eddd c5bd d3c1 8b3f f2d0 91be fb9a 81bf
000000e0: b577 32c0 49d3 23c0 8ec4 eabe 7a68 71be
000000f0: b961 b0bd 5820 313f 805c e8bf a7a9 763f
00000100: e95c 883f f75e 2fbf 2d9d 193f 2653 f9be
00000110: ac6a 633e 690b c1be 2558 b4be 3e89 1abf
00000120: 13d5 df3d bc9b 4dbf b840 13be 1e9d 003f
00000130: ed07 adbe 7b02 52bf c389 823e 2a4b 93bd
00000140: ead8 b8bf 1aac ad3c 0098 4bbf 9c1c 033f
00000150: 4b89 383f 4a78 a03f 880c cabf 6a81 de3f
00000160: 4a4c 90bf 33c4 653e 03e5 6c3c efb8 3d3e
00000170: 74c7 6b3f 9539 cf3f 0759 ddbe ad97 0abf
00000180: 9cda 2fbf f047 b23c 49b6 113d b33d a33f
00000190: 5a0b a73f 9fa2 1c3f d6d1 283f 079f febe
000001a0: b43e 983f 14b4 0dbf 3c5e 0dbf 58e8 fa3e
000001b0: eb36 3abf 663a a2bf db01 09bf 48ca 163f
000001c0: 1fc8 033f 0b88 a53f 49c5 403f 98ea 03c0
000001d0: ce9d 87bd ee0d 913f a17d 21bf 920b d53e
000001e0: 1eba e2bf b917 08c0 e461 7c3d aa94 993c
000001f0: 6b2c d4bf 6049 6c3d 6545 16bf f8a7 013f
