CQ/result/P7_Resullt/HOURS/data13/2/best_model.pth (torch_old, 603202 bytes, 11 tensors)

node_embeddings f4 [228, 2]
000000 e1 7c 2d 3e 16 11 c0 3d 7e 6b 94 3e 2f f6 84 3e
       0.16942169 0.09378259 0.2898826 0.25969073
000010 2a 36 15 3e 60 31 dc 3d 03 d3 e6 bd 80 6b 87 3e
       0.14571443 0.10751605 -0.11270716 0.26449203
000020 5f 42 92 3e 15 13 51 3e 79 53 88 3e 94 2c 1b 3d
       0.28566262 0.20417435 0.26626185 0.03788431
000030 36 67 24 3e 36 1a d5 3d 6c f9 0c 3e ad 19 8f 3e
       0.16054997 0.1040539 0.13767022 0.27949277
000040 42 10 b0 be 0a 3f 1b 3d 83 15 01 be b9 54 83 3e
       -0.34387404 0.037901916 -0.12605862 0.25650576
000050 fb f6 93 3e 36 2d 2c 3e 4e 53 95 3e cf 6d 7e 3e
       0.2889937 0.16814122 0.2916512 0.24846576
000060 bf 3e 93 bd 4c e1 3b 3e 3e 8d 87 3e d0 47 0e 3e
       -0.07189702 0.18347663 0.26474947 0.13894582
000070 bd 97 19 3e 4b 8c 15 3e ab bc 56 be 4c 44 15 3e
       0.1499929 0.14604299 -0.20970409 0.14576834
000080 25 97 b3 bc de cc 9a 3e 67 1d 52 3e 63 b1 90 3e
       -0.021922657 0.30234426 0.20519029 0.28260335
000090 bb 31 3a 3e b5 c7 4f 3d 10 13 03 3e 32 cd 7d 3e
       0.18183033 0.050727565 0.1280024 0.24785307
0000a0 02 81 d8 bd 1d 05 43 3e b6 78 21 3e a2 e9 02 3e
       -0.10571481 0.1904492 0.15768704 0.12784436
0000b0 75 9b 80 3e c4 f7 25 3e be 41 92 3e 75 bc e5 3d
       0.25118604 0.16207796 0.28565782 0.11217586
0000c0 33 5a 6f 3e 7f c0 5a 3d 76 c6 ad 3d 28 bf 21 3e
       0.23374252 0.053406235 0.08485119 0.15795577
0000d0 c0 97 ed 3d 99 67 62 3e d7 1d e9 3d 8c 34 3c 3e
       0.1160121 0.22109832 0.113826446 0.1837942
0000e0 5d 4f 25 3d 40 fc 4d 3e a9 b4 a3 3b 83 0a 0d 3e
       0.04035889 0.20115757 0.0049959016 0.13773541
0000f0 69 2d db bd c0 9e 97 3e c0 87 43 3e 8d 8f 64 3e
       -0.10702021 0.29613304 0.19094753 0.22320385
000100 a1 a0 87 3e e4 ca ef 3c c4 eb 8d 3e 2e f0 ef 3d
       0.26489738 0.02927155 0.27718937 0.117157325
000110 11 d6 27 3e f8 d5 a0 3d 22 2c a7 3d 55 f7 8b 3e
       0.16390254 0.07853311 0.081627145 0.27337137
000120 3c 37 a4 3d 2a e1 7e 3e 7e 82 df bd d3 ef 87 3e
       0.080183476 0.24890581 -0.10913561 0.2655016
000130 6a 6d 0e 3e 85 05 6c 3e 4d a0 94 bd 51 1e 97 3e
       0.13908926 0.2304898 -0.072571374 0.29515317
000140 7f 70 67 3e 91 aa 91 3e f1 b6 1f 3e c6 62 4c 3e
       0.22601508 0.28450444 0.1559713 0.19959554
000150 85 0d 07 3e e5 86 5c 3e e3 d5 7a 3e c9 1f 86 bb
       0.13188751 0.21535833 0.24495654 -0.0040931446
000160 6e f3 32 3e 2e a6 5d 3e fd cb 91 3d 25 f1 22 3e
       0.17475674 0.21645424 0.07118986 0.15912302
000170 35 a0 99 3d 7f 5c 8d 3e 69 da 82 3e 0c 99 ec 3c
       0.0750126 0.2760963 0.2555726 0.028881572
000180 9e 3f f3 3d 2b d1 14 3e ec e5 46 3e 36 43 8e 3d
       0.118773684 0.14532916 0.19423646 0.06946413
000190 b9 66 0a 3e c3 ba d9 3d 33 d1 c9 3d b6 f3 57 3e
       0.13515748 0.10631325 0.09854355 0.21089062
0001a0 b0 f7 3c 3e e5 cb 91 3e 1e 95 68 3e 43 ee 63 3e
       0.1845386 0.28475872 0.22713134 0.22258858
0001b0 4f e7 bc 3d 80 c4 35 3e a4 1d 72 bd fb 8d 94 3e
       0.09223806 0.1775074 -0.0591103 0.29014573
0001c0 14 54 88 3e 3d 78 93 3e 10 7a 80 3e 2b d3 99 3c
       0.26626647 0.28802672 0.25093126 0.01877745
0001d0 fc fe 24 3e 27 8a af 3d 19 6d 63 3e da a3 88 3d
       0.16112894 0.08571272 0.22209586 0.06671877
0001e0 5c 8d fa 3d b6 68 f8 3d 97 51 ef 3d 6a 7a fc 3d
       0.122339934 0.12129347 0.11685484 0.12328036
0001f0 72 c6 91 3e 58 b9 06 3e 56 dc 8f 3e 65 e1 bf 3d
       0.28471714 0.1315664 0.2809779 0.093691625
000200 12 ac ec 3d e7 cc ef 3d b4 f0 55 3e 87 32 79 3d
       0.11556257 0.11709004 0.20892602 0.060839202
000210 1b b4 77 3e 14 f6 39 3e d2 e7 0e 3d c1 bf 9d 3e
       0.24189799 0.18160278 0.03488905 0.3081036
000220 43 d8 08 3e 3d f9 d6 3d a4 ad 8b 3e 20 c4 97 3e
       0.13363747 0.10496757 0.27280915 0.2964182
000230 f4 ce 98 3e 7b 52 00 3d 15 02 fe 3d 08 4b e8 3d
       0.29845393 0.03132866 0.12402741 0.11342436
000240 30 7f 76 3e a2 c5 a4 3d 1f 5e 03 3e 0d 70 de 3d
       0.24071956 0.08045508 0.12828873 0.10861216
000250 3d a7 98 3e 0a be 8a 3e d9 83 32 3e 5d e2 0f 3e
       0.29815093 0.27098113 0.17433108 0.14051194
000260 70 ae 82 3d 04 dd 83 3e ec 18 51 3e 59 db 6c 3e
       0.063809276 0.2575456 0.20419663 0.2313055
000270 b8 24 98 3e 92 89 9a 3b 7d dd 34 3e b5 f4 91 3e
       0.29715514 0.0047161067 0.17662616 0.2850701
000280 f6 c2 43 3e bb dd 09 3d 67 00 88 3e 77 9b 0d 3d
       0.1911734 0.033658724 0.26562807 0.03457209
000290 e2 68 80 3e c9 f4 04 3e 4c 1d b6 3d c7 1f 14 3e
       0.2508002 0.12984003 0.08892307 0.14465247
0002a0 32 84 99 3e 23 e4 99 3e 14 4b 44 3e 15 27 28 3e
       0.2998367 0.30056867 0.19169265 0.16421159
0002b0 fb 24 93 3e 3c 78 00 bd 3a 47 cd bd 3a 93 77 3e
       0.2873915 -0.031364664 -0.10023351 0.24177256
0002c0 7d a8 44 3e b9 c4 97 3d da 4f 66 be fe e0 0b 3e
       0.19204898 0.07410569 -0.22491398 0.13660046
0002d0 27 f4 8a bd 47 d4 30 3e f5 df 2a 3e 65 f8 76 3d
       -0.067848496 0.17268477 0.16686995 0.06029548
0002e0 fc 45 40 3e 50 e4 cf 3d 32 5c 76 be 5b e4 9e 3d
       0.18776697 0.10150969 -0.24058607 0.07758399
0002f0 dd 6d 64 3e fd 91 9d 3d 08 8b 3f 3e 7b c7 5e 3e
       0.22307535 0.07693861 0.1870538 0.21755783
000300 a1 5a 34 3e 3d 80 d5 3d 7f de 50 3e 6c 3f da 3d
       0.17612697 0.1042485 0.20397376 0.10656628
000310 f7 f0 83 3e e8 b9 41 3e 1c 8a b9 3d 57 77 8f 3e
       0.2576978 0.18918574 0.090595454 0.28020737
000320 40 81 48 3d 49 28 0d 3e a8 be ad 3d 38 f9 86 3e
       0.048951387 0.13784899 0.084836304 0.26362014
000330 10 2e f7 3d 73 67 99 3e bb 9d 4a 3e 90 d4 08 3e
       0.120693326 0.29961738 0.19786732 0.13362336
000340 8d 52 88 3d 8e 35 66 3e 7d 23 36 3e e8 1e 40 3e
       0.0665637 0.22481367 0.17786975 0.1876179
000350 54 ec 62 3d 0e c7 0a 3e 01 07 7a 3d a8 c9 7f 3e
       0.05540116 0.13552496 0.061041836 0.2497927
000360 64 ed 02 3e 1f 65 ed 3d ea a6 95 3e e7 b0 90 3e
       0.1278587 0.11591553 0.29228908 0.28259966
000370 b0 00 80 3e 27 f8 76 bc f2 0b b3 bd be b7 56 3e
       0.25000525 -0.015073813 -0.08742513 0.2096853
000380 7d 82 89 bd 0a 39 33 3e 2c 92 92 3e 9d 3e 63 3e
       -0.06714342 0.17502227 0.28627145 0.22191854
000390 f4 72 48 3e bb 2c d7 3d 2c a0 52 bd a7 3a 49 3e
       0.19575101 0.105065785 -0.051422283 0.1965128
0003a0 cf 3c 8d 3e 4d 87 6c 3e c3 39 91 3e 31 7f 16 3e
       0.27585456 0.23098488 0.2836438 0.14696957
0003b0 7c 70 91 3e 34 70 dd 3d ad d2 a6 be bb 3d 12 3d
       0.2840613 0.10812417 -0.32582608 0.035703402
0003c0 75 39 84 3e 10 f6 1d 3e 92 9e 3b 3e 04 30 32 3e
       0.25825086 0.15425897 0.18322209 0.17401129
0003d0 02 18 77 3e 8b 5f 7f 3e 08 ef ed 3c f1 2c 59 3e
       0.24130252 0.2493879 0.029044643 0.2120855
0003e0 90 5a e5 bc a7 20 24 3e 0e 79 82 be fb 42 fe 3d
       -0.027997285 0.16028081 -0.25482982 0.12415119
0003f0 a6 f7 85 3d 5f 41 33 3e 3a f9 48 3e 6b 69 57 3e
       0.06541376 0.17505406 0.19626322 0.21036308

encoder.dcrnn_cells.0.gate.weights_pool f4 [2, 2, 65, 128]
000000 6b ed 02 3e a0 d9 38 3d f9 d6 de 3d 92 81 cf 3d
       0.1278588 0.04512942 0.108808465 0.101321355
000010 17 2f d9 3d 1b c1 f7 3d 4f 35 a8 3d 69 86 e9 3d
       0.10604685 0.12097379 0.08213293 0.1140259
000020 5f ee 3b bc 21 b2 e2 3d 16 f1 eb 3d 60 c4 e4 3d
       -0.011470406 0.11069132 0.11520593 0.11170268
000030 ad 1d e5 3d 7d d8 f5 3d 73 19 9e 3d ff fb bf 3d
       0.11187301 0.120041825 0.07719698 0.09374236
000040 36 7b d9 3d 5c b1 de 3d 1f 7d ad 3c d2 d3 ce 3c
       0.10619204 0.10873672 0.021177826 0.025247488
000050 b1 38 fe 3d 3c 95 75 bd 9a 9e c4 3d e4 0e f4 3d
       0.12413157 -0.059956774 0.09600563 0.11916903
000060 b7 79 f0 3d d2 1e da 3d 82 2d bd 3d bd 10 d7 bd
       0.11741965 0.1065041 0.092371956 -0.105012394
000070 12 dd e5 3d f0 7a cc 3d af 58 e3 3d 95 8a c7 3d
       0.112238064 0.09984386 0.111008994 0.09743229
000080 8b b5 e4 3b 58 d4 a1 3d ee 3a e8 3c b1 ff eb 3d
       0.0069796494 0.079018295 0.028348412 0.11523379
000090 72 e4 f3 3d ac 68 df 3d 0f 74 05 3e 8c 93 de 3d
       0.11908807 0.109086365 0.13032554 0.10867986
0000a0 08 ac ee 3d 1d f3 ac 3d 50 ba c2 3d 79 7e cf 3d
       0.11653906 0.08444808 0.095081925 0.101315446
0000b0 a1 49 05 3e f6 d5 e8 3d 66 34 01 3e b3 37 ff 3d
       0.13016368 0.11368935 0.12617645 0.12461796
0000c0 87 09 e2 3d 25 4b 83 3c a2 a1 d4 3d bb 09 fd 3d
       0.110369734 0.016027043 0.103823915 0.123553716
0000d0 15 8d f5 3c a0 5a df 3d 03 0d fc 3d 4a 9c 00 3e
       0.0299745 0.10905957 0.12307169 0.1255962
0000e0 32 dc c5 3d 98 b5 d6 3d 82 6e 1e bc 36 b5 61 bd
       0.096611395 0.10483855 -0.009669902 -0.055104457
0000f0 1f f7 c9 3d 33 42 f1 3d 98 08 ec bc 66 6f e0 3d
       0.09861588 0.117802046 -0.028812692 0.109587476
000100 0e 09 1d be 5b e8 8d bd 2d e7 16 be e4 d3 19 be
       -0.15335485 -0.06929084 -0.14736624 -0.15022236
000110 59 79 06 be f0 21 0a be f4 47 69 bd 76 d2 07 be
       -0.13132228 -0.13489509 -0.056953385 -0.13263878
000120 ce 30 f8 bc a2 31 0c be 88 f8 fd bd 24 96 07 be
       -0.03029671 -0.13690808 -0.12400919 -0.13240868
000130 d3 3a 04 be 24 ee 0a be fe 2c 97 bd 10 8a ff bd
       -0.12913065 -0.13567406 -0.073816285 -0.12477505
000140 e8 94 14 be 28 f7 14 be 8e e2 5c bd 09 1f 0d bd
       -0.14509928 -0.14547408 -0.053926997 -0.034453426
000150 f4 06 13 be 91 ae 0b 39 a4 ad 05 be 1e 12 0c be
       -0.14358121 0.00013321104 -0.1305452 -0.13678786
000160 7a a5 ec bd c8 36 0f be ec 9b 9c bd af ca 51 3c
       -0.11555 -0.13985741 -0.07646927 0.012804671
000170 a3 bb 0d be ee ce 0c be d1 21 11 be f8 ec 9d bd
       -0.13841109 -0.13750812 -0.14173056 -0.07711214
000180 c1 de 0c bd 84 47 63 bd 77 83 38 bd 66 49 1c be
       -0.034392122 -0.055488124 -0.04504725 -0.15262374
000190 46 1c 0e be 64 76 17 be ec 18 20 be 3d b4 10 be
       -0.13877973 -0.14791256 -0.15634507 -0.14131255
0001a0 9f d9 f8 bd 00 bf a4 bd f9 85 ff bd 9e 41 0c be
       -0.12150883 -0.08044243 -0.12476725 -0.13696906
0001b0 66 d8 13 be ed 67 17 be 9f c7 00 be f0 8b 1c be
       -0.14438018 -0.14785738 -0.1257615 -0.15287757
0001c0 e4 24 09 be 77 5b 4f bd 3f ff 02 be 69 bb 07 be
       -0.13392979 -0.050624337 -0.12792681 -0.13255085
0001d0 06 ab 26 bd 51 f3 15 be 8b f8 04 be 4a 4f 13 be
       -0.040690444 -0.14643599 -0.12985437 -0.14385715
0001e0 ef 8b 06 be 08 90 17 be e3 58 1b bd 0d 86 10 3d
       -0.13139318 -0.14801037 -0.037926566 0.03528409
0001f0 70 d1 05 be 2f 86 1b be 93 1a 5d bc c3 5f 19 be
       -0.13068175 -0.15187906 -0.013495105 -0.14977936
000200 e5 1c f2 bd 94 50 1e be e4 14 06 be cf 0a 0d be
       -0.118219174 -0.15460426 -0.13093907 -0.13773654
000210 23 2a 09 be 3b 70 e1 bd ac 53 0e be e0 5e f8 bd
       -0.1339498 -0.110077344 -0.13899106 -0.12127471
000220 ad aa a4 bd 0b 19 e8 bd ba ec 09 be 28 ab fa bd
       -0.08040366 -0.113329016 -0.1346921 -0.12239677
000230 3b 9c e1 bd c0 72 00 be ae 90 0d be cf c2 ed bd
       -0.11016127 -0.12543774 -0.13824722 -0.116094224
000240 a1 cd 06 be 5f d6 f2 bd 38 3e bc bd ae a3 13 be
       -0.13164379 -0.11857294 -0.09191555 -0.14417908
000250 e6 df f9 bd db 83 05 bd 10 08 e5 bd 80 ef e5 bd
       -0.12200908 -0.03259645 -0.111831784 -0.112273216
000260 10 05 03 be f5 d2 06 be 46 ff 19 be da 48 6e bc
       -0.127949 -0.13166411 -0.15038785 -0.014543736
000270 5c 45 ff bd 18 20 0b be fb 4c fc bd 91 ca 0d be
       -0.12464401 -0.13586462 -0.1231937 -0.13846804
000280 49 7b cc bd 98 9d 1e be 67 28 d1 bd da cb 03 be
       -0.09984452 -0.15489805 -0.10212784 -0.12870732
000290 9c 68 f6 bd ac 93 e6 bd be bd f6 bd d2 09 ec bd
       -0.120316714 -0.11258635 -0.12047909 -0.115253106
0002a0 67 b1 d5 bd 72 42 0b be 23 c0 fe bd f6 30 f9 bd
       -0.104342274 -0.13599566 -0.12438991 -0.12167542
0002b0 31 b4 e4 bd 93 db 06 be d3 12 fa bd 61 38 0e be
       -0.11167181 -0.13169698 -0.12210622 -0.13888694
0002c0 57 36 fd bd 5e db e1 bd ed c6 09 be 56 e2 eb bd
       -0.1236388 -0.11028169 -0.1345479 -0.115177795
0002d0 f3 49 ef bd 6c c9 0b be 5b 56 02 be f1 4d fe bd
       -0.116840266 -0.13651055 -0.12728254 -0.1241721
0002e0 87 2a ec bd 48 c6 f3 bd 41 de a6 bd 11 6d b3 bd
       -0.11531549 -0.119030535 -0.0814786 -0.08761037
0002f0 a6 ad 0c be f4 40 07 be 00 a5 a5 bd 00 86 0c be
       -0.13738117 -0.13208371 -0.08088112 -0.13722992
000300 9c 0c 20 3e 4b 49 0e 3e bf 61 11 3e e7 f6 06 3e
       0.1562981 0.13895147 0.14197443 0.13180123
000310 b3 b9 12 3e 25 f6 15 3e 7d 8d 00 3e 7e 84 0f 3e
       0.14328651 0.14644678 0.12553973 0.14015386
000320 36 a4 f6 3d 7e e7 0f 3e 73 4e 1b 3e a8 3f 0f 3e
       0.120430395 0.14053151 0.15166645 0.13989127
000330 9e aa 0f 3e 96 d6 16 3e 3d 1f 02 3e 4e a8 07 3e
       0.14029929 0.14730296 0.12707229 0.13247797
000340 b8 cf 0a 3e ec 95 1f 3e ce 19 0c 3e a4 4e 01 3e
       0.13555801 0.15584534 0.13681719 0.12627655
000350 79 32 16 3e e1 76 06 3e 2f 70 1f 3e 24 c7 09 3e
       0.14667691 0.13131286 0.15570138 0.13454872
000360 45 b2 0f 3e 5c f2 09 3e 01 51 12 3e 98 39 0b 3e
       0.14032848 0.13471359 0.14288713 0.13596189
000370 f2 be 1d 3e 40 15 17 3e 86 4d 0d 3e 64 fa 08 3e
       0.15404871 0.147542 0.13799104 0.13376766
000380 3a e5 0f 3e fc 0c 12 3e 86 96 01 3e ab 04 15 3e
       0.14052287 0.14262766 0.12655076 0.14552562
000390 f1 5f 17 3e 1f eb 10 3e 39 a2 1c 3e 60 b5 fa 3d
       0.14782692 0.14152192 0.15296258 0.12241626
0003a0 a3 75 1a 3e 94 3d f5 3d 2d ab 09 3e 5d c9 1e 3e
       0.15083937 0.11974636 0.13444205 0.15506501
0003b0 d4 44 09 3e 4f 59 0d 3e 48 81 10 3e 1c fc 15 3e
       0.13405162 0.138036 0.14111817 0.14646953
0003c0 34 f9 0b 3e a5 b5 0f 3e 6a 07 06 3e 81 b3 18 3e
       0.13669282 0.14034136 0.13088766 0.14912225
0003d0 c3 dd 09 3e b0 7a 10 3e ed 48 08 3e 82 37 0e 3e
       0.13463502 0.14109302 0.13309069 0.13888362
0003e0 6b cc 15 3e f8 3c 09 3e 56 a1 00 3e fc ae f5 3d
       0.1462876 0.13402164 0.12561545 0.11996266
0003f0 24 1f 0c 3e 64 28 09 3e eb 03 11 3e 22 c4 13 3e
       0.13683754 0.13394314 0.14161651 0.14430287

encoder.dcrnn_cells.0.gate.bias_pool f4 [2, 128]
000000 b8 18 49 3e c3 10 5f be 7e a7 1f 3e 50 2f 89 3d
       0.19638336 -0.21783738 0.15591237 0.06698477
000010 e1 14 a9 3e a9 dc b5 3e 95 1e b5 bd 5e 93 de 3d
       0.33023742 0.35519913 -0.08843724 0.10867952
000020 2e 38 06 be 7e 1f 53 3e b0 c0 51 3e b9 a4 55 bd
       -0.13107368 0.20617482 0.2048366 -0.052159045
000030 6f 9f f3 3d 9f 35 52 3e 1a 5e 8f 3e ae 8d a9 3e
       0.11895644 0.20528267 0.2800148 0.33115906
000040 fa 2c 15 3e 4c 4b 9c 3e 7f 0c a3 be 66 b8 9c bb
       0.14567938 0.30526197 -0.3184547 -0.004782724
000050 4f 88 6c 3e ba f4 ee bd 35 4f a4 3e 96 de 37 3e
       0.23098873 -0.11667772 0.3209168 0.17956004
000060 85 6f 2d 3e 00 9b 81 3e 1e d4 bc 3c f4 d1 a0 be
       0.16937073 0.25313568 0.023050364 -0.31410182
000070 91 98 68 3e 47 6d 5c 3e a6 95 30 3e 8a e4 11 3e
       0.2271445 0.21526061 0.17244586 0.14247337
000080 19 ac d1 bc b7 5d 34 3d e6 fd 8c bd b4 b6 79 bd
       -0.025594758 0.044034686 -0.06884365 -0.060965255
000090 b1 9b 1a 3e da ab 98 3d 51 0f 7a 3e 8d 4f 90 3e
       0.15098454 0.07454653 0.24419905 0.28185692
0000a0 b4 9a 12 3e 38 c0 df 3d a0 11 ae 3d d2 4b 1e 3e
       0.14316827 0.10925335 0.084994555 0.1545861
0000b0 29 2a 81 bc e6 ed 55 3c b8 1f a7 3e c2 8d 22 3d
       -0.015767174 0.013057208 0.32641387 0.039685972
0000c0 22 f5 79 bd 9a ad 3d be 85 bb b1 3e 46 7a 05 3e
       -0.061024792 -0.18523255 0.3471338 0.13034925
0000d0 d6 59 cd 3b 14 cd 28 bd 1d 44 c0 3b 09 1d 46 3e
       0.006266813 -0.041211203 0.0058674947 0.19347014
0000e0 0d 23 be 3d 5d 02 9a 3e 63 fa b5 bd 2f 5c 8a bc
       0.09284029 0.30079928 -0.08885648 -0.01688966
0000f0 a9 86 22 3e 69 2a 3a 3e 4c 2b 16 be 74 57 b0 3d
       0.15871681 0.1818024 -0.14664954 0.0861043
000100 3f 3d 7d be cb fa 90 3e e2 1f 36 3d 73 56 ae be
       -0.24730395 0.2831634 0.044464 -0.3405033
000110 89 c8 85 be 78 6b 7b be d1 d0 2a be 32 03 8f 3d
       -0.2612956 -0.24552715 -0.1668122 0.06983031
000120 02 a2 36 bc 18 1a 78 be af 63 00 3d f3 58 ee 3c
       -0.011147024 -0.24228704 0.031345066 0.029095149
000130 ff e4 93 3b 9e 91 89 bd 4c 8c 8c be 06 69 4c be
       0.0045133824 -0.067172274 -0.27450788 -0.19961938
000140 49 98 53 be f5 4b 9a be be 24 4c 3e 38 16 f4 bc
       -0.20663561 -0.30136076 0.19935891 -0.029795751
000150 48 3c 26 3a 6b 96 f1 bc b3 72 6e bd 01 52 2e be
       0.000634138 -0.02949067 -0.058214854 -0.1702347
000160 1c 76 d0 3b 64 1b 98 bd 39 b2 28 be 29 74 b4 bc
       0.006361736 -0.07427099 -0.16474237 -0.022028046
000170 51 fa 54 be 84 41 7b be 71 24 6f be 93 d9 77 3d
       -0.20798613 -0.24536711 -0.23353745 0.06051023
000180 9e 71 45 3e ee 8a fe bd 30 0b f6 3a 14 50 89 be
       0.19281623 -0.124288425 0.0018771645 -0.26818907
000190 cf dd d6 bc 9b 8b 9c bd 3d a7 63 be 95 cf f5 bd
       -0.026228813 -0.07643815 -0.22231765 -0.12002484
0001a0 8e 6f a6 be a2 5b 73 bd 8f f5 26 3d 79 6a 39 be
       -0.32506984 -0.05941356 0.040761527 -0.18107022
0001b0 ee 9c 64 bd e5 1b 66 3d 25 fa 73 bd ad 2c 92 be
       -0.055813722 0.056178946 -0.05956473 -0.2854971
0001c0 8a ff aa 3d 83 c0 10 3e 04 d3 2c be c1 22 8d 3c
       0.083495215 0.14135937 -0.16877371 0.017228486
0001d0 82 c7 58 bc 1a 72 0f be 11 98 a1 be ee f6 cf bc
       -0.01323116 -0.1400837 -0.3156133 -0.0253863
0001e0 1b ee c7 bd 62 a9 da bd fd 74 7c 3d 6a bd a5 bd
       -0.09762212 -0.106768385 0.061635006 -0.080927685
0001f0 60 31 89 be d5 29 da bd 2b 28 2b 3d 6c 35 0f be
       -0.26795483 -0.1065251 0.041786354 -0.13985223
000200 e4 e6 6e 3a c3 e4 76 3e eb e8 3a 3e 31 bb 6a 3e
       0.0009113385 0.24110703 0.18252914 0.2292297
000210 0d 7a ae 3d 25 9b b9 3b d8 4e 95 3e af da 02 3e
       0.08519373 0.0056642466 0.29161716 0.12778734
000220 87 4a 06 3e 40 b3 82 bd 67 82 7e 3d 6e ba 30 3e
       0.13114367 -0.063818455 0.06213608 0.17258617
000230 55 93 09 3e d0 51 9a 3e 5a 1f d6 3c c4 77 a6 3e
       0.13435109 0.30140543 0.026137996 0.3251325
000240 ba 58 1b bd 03 ae 49 3e 05 c6 cc 3d c6 f6 b9 3e
       -0.037926413 0.19695286 0.09998707 0.36321086
000250 e1 11 55 3d 89 ca 1f 3e c1 1e 38 3e f4 a5 6a 3e
       0.052019004 0.15604605 0.17980482 0.22914869
000260 6a d5 82 3e 26 f6 6f 3d 07 66 11 3e cc be 37 3e
       0.25553447 0.058584355 0.14199077 0.17943877
000270 14 ae 8b 3d d4 d1 52 3d 72 98 ad 3e 85 f9 44 bc
       0.06820312 0.05146964 0.3390537 -0.012022381
000280 51 74 47 3e 18 ab b7 bc fc a3 a9 3e f7 7c 8d 3e
       0.19477965 -0.022420451 0.33132923 0.27634403
000290 5c e8 74 3e 72 3e 3e 3e bb 62 b0 3e af 72 14 3e
       0.23916763 0.18578508 0.34450325 0.14496873
0002a0 5c c1 dd bb 5e 6f 27 3e 4a 77 5c 3e 2a 31 09 3e
       -0.006767435 0.16351077 0.2152988 0.13397661
0002b0 55 a1 75 3d d3 db ec 3d 47 b2 f1 3d bc f7 ae 3e
       0.05996831 0.11565366 0.11801582 0.3417338
0002c0 2c a3 93 3e 40 3d 2a 3e f4 9b 70 3d 3a 1b bd 3c
       0.28835428 0.16624928 0.05874248 0.023084272
0002d0 7a e4 b7 3d 00 ae 95 3e fa 57 b6 bc 56 82 11 3d
       0.08979125 0.29234314 -0.022258747 0.03552469
0002e0 4b 99 45 3e 53 13 a8 3e 51 86 0b 3e 20 49 8a 3e
       0.19296758 0.32827243 0.13625456 0.27008915
0002f0 99 e2 d9 3d 9b c5 6f 3e 60 a9 87 bd 01 c6 4d 3e
       0.10638923 0.23415224 -0.066241026 0.20095064
000300 87 43 aa be d6 0d c7 3b dc ca 65 3b 0c b1 bc bd
       -0.33254644 0.0060746474 0.003506354 -0.092134565
000310 64 07 1d be c6 90 9a be 52 68 93 3d 62 83 7d be
       -0.1533485 -0.30188578 0.07197632 -0.2475715
000320 08 41 8a 3d a4 c6 5a be 9e 6a 95 be 2d 84 20 3d
       0.06750685 -0.21364838 -0.29182905 0.039188553
000330 c9 c6 17 bc dc 69 42 bc 16 ce 17 be dc c8 8e be
       -0.009263703 -0.011866059 -0.1482471 -0.2788762
000340 99 0b 98 be a6 cc 18 bd 41 7e 05 3a 39 61 1f be
       -0.29696348 -0.037304543 0.00050923607 -0.15564431
000350 9f 63 89 be d3 eb 58 be de 3c 91 be 48 0e a5 be
       -0.26833817 -0.2118371 -0.2836675 -0.32237458
000360 46 25 36 bd 2d 7e d2 bd 27 20 a7 be 5a 97 56 bd
       -0.04446914 -0.10277972 -0.32641718 -0.052390434
000370 08 1e 8e be 52 10 38 bd e2 25 04 be 7c 98 95 be
       -0.27757287 -0.04493744 -0.12905076 -0.292179
000380 80 94 a9 bc 18 f3 ab be 3e 9d 89 bd 66 b2 e0 bc
       -0.020700693 -0.33583903 -0.06719445 -0.027428817
000390 1c 6c 8f be 7c 1e 94 3d db 34 6d be 8d 78 4e be
       -0.28012168 0.07232377 -0.23164694 -0.20163174
0003a0 66 00 89 3d 90 30 08 be 78 ed 9b be 6f 84 92 be
       0.06689529 -0.13299775 -0.30454612 -0.28616664
0003b0 45 92 97 be 70 d4 e3 3c fa 7f 01 3c 46 6c 8e bc
       -0.29603782 0.027811259 0.007904047 -0.017385613
0003c0 6a 49 84 be cc 3b 9d be 9c e9 5d be e5 1a 3d be
       -0.2583726 -0.30709684 -0.21671146 -0.1846729
0003d0 2c 45 13 bd 96 d2 00 be 12 a8 70 bb ed 7b a9 be
       -0.03595464 -0.12580332 -0.0036721271 -0.3310236
0003e0 38 43 84 be 5e b3 c5 3c 2e 85 5d be df 92 a6 3c
       -0.25832534 0.02413338 -0.21632835 0.020333705
0003f0 80 40 8b 3d 69 3a a0 be f8 0a 1a be 85 30 a7 be
       0.06799412 -0.31294563 -0.15043247 -0.32654205

encoder.dcrnn_cells.0.update.weights_pool f4 [2, 2, 65, 64]
000000 03 83 03 be 70 65 15 3d 93 5d be 3d 2f a1 f3 bd
       -0.12842946 0.03647369 0.092951916 -0.11895978
000010 a5 59 cf 3d ce cc e6 bd fa 28 51 3d bc 47 a8 3d
       0.1012452 -0.11269532 0.05106447 0.08216807
000020 80 30 57 3d 55 d1 12 3e 92 93 ae 3d a9 41 d4 bd
       0.052536488 0.14337666 0.085242406 -0.10364086
000030 60 c3 c5 bd cf 85 ae bd f9 3d 16 bd 1d ea ef bd
       -0.096564054 -0.08521616 -0.036680195 -0.117145754
000040 23 4a db bd 0a 2d e1 3d 40 8b 47 3d b4 44 1d bd
       -0.107075 0.10994919 0.048716784 -0.0383956
000050 ad d8 e5 3d b3 5a d0 3c bd 51 b6 bd 8f 65 13 3e
       0.11222968 0.025433874 -0.08902309 0.1439421
000060 1f 61 f6 bd c6 bf b5 3d 3c f9 85 3d 6e d0 4a 3c
       -0.12030243 0.088744685 0.06541678 0.012378795
000070 2b ac db 3d 3e 89 bc 3d 3f 7e 0e 3e 5b fc 8c 3d
       0.10726198 0.09205864 0.13915347 0.068840705
000080 8b 2a 3b 3d 73 25 1d bd 49 08 72 3d 1c 19 d8 3d
       0.04569487 -0.038365792 0.059089933 0.10551664
000090 cd 13 ae 3d 60 9a cc 3d 26 c4 ee 3d 75 c1 07 be
       0.084998704 0.09990382 0.11658506 -0.13257392
0000a0 d1 d3 f3 3d d5 22 5a bd ff 4d a6 bd 27 b0 e6 bd
       0.11905635 -0.053255875 -0.08120345 -0.11264067
0000b0 73 c4 16 3e 75 4c 02 be c4 73 0d be f1 3e f9 bd
       0.14723377 -0.12724479 -0.13813692 -0.12170208
0000c0 c1 42 05 3e 2d de 4c 3d b6 5e c7 3d ee d6 d9 bd
       0.13013746 0.05001657 0.097348616 -0.10636698
0000d0 d1 34 5f 3d 10 d7 1c be 43 8f cb 3d f7 0c bf bd
       0.05449373 -0.15316415 0.099394344 -0.09328645
0000e0 06 bc bb 3d 4b fa e9 bd a6 43 4c bd c3 80 92 bc
       0.09166722 -0.11424693 -0.049869202 -0.017883664
0000f0 24 f5 d5 3d 41 e9 c8 3d d5 27 2d bd 81 2b 09 be
       0.104471475 0.09810115 -0.042274315 -0.13395502
000100 dc 13 13 3e 6f b6 0a be 2b c4 02 be 06 c2 09 3e
       0.14363045 -0.13546155 -0.12770145 0.1345292
000110 f8 58 fd bd ac 3b 18 3e f2 c2 0e be c6 d1 12 be
       -0.12370485 0.14866513 -0.13941553 -0.14337835
000120 ac b2 f4 bd 6c 84 02 be 8e e3 18 be 0e c3 f7 3d
       -0.119481415 -0.12745827 -0.14930555 0.120977506
000130 37 b0 15 3e eb 5a fe 3d 25 4f 05 3e 10 95 0c 3e
       0.14618002 0.12419685 0.13018472 0.13728738
000140 22 06 07 3e 09 d0 0d be dc e6 da bd 27 ba e0 3d
       0.13185933 -0.1384889 -0.10688564 0.10973006
000150 62 64 0b be bc c7 db bd 23 a0 16 3e 4a 19 01 be
       -0.13612512 -0.10731456 0.14709525 -0.12607303
000160 16 46 07 3e 12 0e 06 be 1e f7 df bd 68 26 a4 bd
       0.1321033 -0.13091305 -0.10935806 -0.08015138
000170 dd cb 02 be fb 5c fe bd 1d 03 00 be ce 49 f1 bd
       -0.1277308 -0.12420078 -0.12501188 -0.11781655
000180 58 85 ef bd 9d 7f 04 3e c0 61 08 be f2 06 0d be
       -0.11695355 0.12939306 -0.13318539 -0.1377218
000190 bf ea 03 be 0d cf 0b be 06 86 15 be a0 4f 01 3e
       -0.12882517 -0.13653202 -0.14601907 0.12628031
0001a0 8c 76 1c be f3 2b e8 3d 33 c4 f5 3d e1 d6 03 3e
       -0.15279597 0.11336508 0.12000313 0.12874939
0001b0 fe 76 17 be 97 89 1a 3e a9 11 10 3e 0c c4 0c 3e
       -0.14791486 0.15091549 0.14069237 0.13746661
0001c0 89 87 17 be 4d e3 fa bd 25 e0 10 be cb 26 0a 3e
       -0.14797796 -0.122503854 -0.14148004 0.13491361
0001d0 7c 55 f3 bd 9e 82 0a 3e 5c 66 05 be ab bf 15 3e
       -0.11881539 0.13526389 -0.13027328 0.14623897
0001e0 c9 7c 05 be 22 a7 05 3e b8 84 b6 3d 17 da d4 3d
       -0.13035883 0.13052037 0.08912033 0.1039316
0001f0 21 a9 0e be f9 43 0c be 5f 62 b7 3d e8 f8 14 3e
       -0.13931705 -0.13697805 0.0895431 0.14548075
000200 54 c2 0b be 6e c7 2d be 25 1c 20 3e dd 54 13 be
       -0.13648349 -0.16970608 0.15635736 -0.14387842
000210 98 3d 22 3e a4 75 11 be e1 4a 5d be d1 eb 49 3e
       0.15843809 -0.14205033 -0.21610595 0.19718863
000220 71 c6 32 be ed 4a f9 3d 7c eb 13 3e 4a 90 1b be
       -0.17458512 0.12172494 0.14445299 -0.1519176
000230 99 4e 52 be d7 37 2f be af 8b 60 3e 01 c6 08 be
       -0.20537795 -0.17111145 0.21928285 -0.13356782
000240 bb 21 13 be 97 e9 2b 3e 3a c7 29 be 10 cc 33 3e
       -0.14368336 0.16788326 -0.16579905 0.17558312
000250 90 a3 1c 3e e5 13 28 be 77 73 2f be d3 a3 44 3e
       0.15296769 -0.16413839 -0.1713389 0.19203119
000260 65 ee fb bd 02 02 0a 3e ba 80 54 be d0 ce 1d be
       -0.123013295 0.13477328 -0.2075223 -0.15410924
000270 30 63 39 3e ad be 20 3e 8f d6 0d 3e da 41 3f be
       0.18104243 0.15697737 0.13851379 -0.18677464
000280 44 18 34 be a3 a5 3b 3e 19 b5 2a be 32 b2 39 3e
       -0.17587382 0.18324904 -0.16670646 0.18134382
000290 cd 7d 4e 3e c7 47 2c 3e 24 f4 46 3e 9c eb 02 be
       0.20165177 0.16824256 0.1942907 -0.1278519
0002a0 7f 02 38 3e cc e9 57 3e 57 2f 4c be 90 4e 23 be
       0.17969702 0.2108528 -0.19939934 -0.15947938
0002b0 16 47 21 3e 0d 27 1e be 34 b0 29 be 38 d1 12 be
       0.15749773 -0.15444584 -0.16571122 -0.14337623
0002c0 f0 d8 1f 3e 8d f4 28 be a9 b3 1c 3e e8 f1 1d be
       0.15610099 -0.16499539 0.1530291 -0.15424311
0002d0 0a b9 2d be 90 4d 0d be 70 79 19 3e 75 1e 45 be
       -0.16965118 -0.13799119 0.14987731 -0.192499
0002e0 2b 16 21 3e e4 df 61 be 6c 9c 1c 3e b2 40 27 3e
       0.15731113 -0.22058064 0.15294045 0.16333273
0002f0 02 09 21 3e d9 15 40 3e a9 2f 30 3e bc 12 22 be
       0.15726092 0.18758334 0.17205681 -0.15827459
000300 de 70 14 be 50 2a 0a 3e 75 dd 18 3e 6a 34 1a be
       -0.1449618 0.13492703 0.14928229 -0.15059057
000310 f2 d2 0d 3e fa b7 04 be 4d a2 0a 3e 0d da 19 3e
       0.1385 -0.12960806 0.13538475 0.15024586
000320 4a d8 02 3e e8 3b 11 3e f9 a1 f5 3d e9 79 04 be
       0.1277782 0.14183009 0.119937845 -0.1293713
000330 5c 6a 19 be 06 99 1a be c6 dd f7 bd bb 99 19 be
       -0.14981979 -0.15097436 -0.12102847 -0.1500005
000340 57 43 11 be b8 81 fe 3d 57 2c 02 3e 5c 01 0d be
       -0.14185844 0.12427086 0.12712227 -0.1377005
000350 f3 8b 16 3e d0 5a ed 3d b5 89 13 be 1b 5b 18 3e
       0.14701824 0.11589587 -0.14408 0.14878504
000360 14 31 11 be 49 37 0a 3e f9 68 fa 3d 84 2b e1 3d
       -0.14178878 0.13497652 0.12227053 0.10994628
000370 46 4f 1a 3e 91 72 fe 3d 7f 8e 09 3e b2 6c 1e 3e
       0.15069303 0.124241956 0.13433264 0.15471151
000380 74 10 09 3e 82 5a 1b be ef c6 22 3e 54 3e 19 3e
       0.13385183 -0.15171245 0.158962 0.14965183
000390 95 5a 08 3e aa cd ef 3d c2 09 07 3e 0d 73 0a be
       0.13315804 0.11709149 0.13187316 -0.13520451
0003a0 46 af f3 3d d9 1b f7 bd 5a 7b 12 be dc e3 f8 bd
       0.11898665 -0.120658584 -0.14304867 -0.12152836
0003b0 cf 32 fa 3d a7 10 02 be 49 77 16 be 72 15 02 be
       0.12216722 -0.12701665 -0.14693941 -0.12703493
0003c0 3d 43 13 3e 16 24 1b 3e 52 6f 00 3e 3f 4d f1 bd
       0.14381118 0.15150484 0.12542465 -0.11782312
0003d0 29 ea 14 3e 1a 79 13 be 79 27 08 3e 18 9b 0e be
       0.1454245 -0.14401665 0.13296308 -0.13926351
0003e0 c7 a0 0d 3e e1 20 03 be 97 ba 02 be 8e ea d9 bd
       0.13830863 -0.12805511 -0.12766491 -0.10640441
0003f0 de 9e 1a 3e c6 4a f8 3d ee a8 fd bd da 78 17 be
       0.15099666 0.12123637 -0.123857364 -0.14792195

encoder.dcrnn_cells.0.update.bias_pool f4 [2, 64]
000000 e3 be 99 be 28 25 4b be 88 a9 ea 3e 8d e7 e5 be
       -0.30028448 -0.19838393 0.45832467 -0.44903222
000010 77 1c 85 3e 66 d4 af be 2e 56 cc bc 1b 69 79 3e
       0.2599828 -0.34341735 -0.024943437 0.24356501
000020 da b5 c0 be be 11 a2 3e 1f 2e e5 3e 08 6c 73 be
       -0.37638742 0.3165416 0.4476175 -0.2377168
000030 ab a2 84 be f0 de b1 be 6b db e4 bb 43 78 b0 be
       -0.25905356 -0.347404 -0.0069841645 -0.34466752
000040 40 ad 86 be 23 3c b0 3e d5 b3 c3 be 00 e8 97 3e
       -0.26304054 0.3442088 -0.38223138 0.2966919
000050 95 fd 79 3e 4f 76 8e be b3 3b 1d be 9b bd c9 3e
       0.2441314 -0.27824637 -0.15354805 0.3940247
000060 64 5c dc be 4f 67 0a 3e 05 d0 0f be 01 16 a3 be
       -0.43039238 0.13515972 -0.14044197 -0.31852725
000070 50 09 9f 3e df ef 97 3e 96 d7 e4 3e 33 29 61 bc
       0.31061792 0.29675195 0.4469573 -0.013742733
000080 24 7e af be ca 35 83 3d 0a 14 b9 be 70 f6 77 3e
       -0.34275925 0.06406744 -0.361481 0.24215102
000090 59 db bd 3e bb 5d cf 3e 79 82 7b 3e b9 97 a1 be
       0.3708141 0.40501198 0.2456149 -0.31561068
0000a0 36 be dd 3e d0 1d c8 bb 74 9e 23 be 2b 7f 98 be
       0.43309182 -0.0061070696 -0.15978414 -0.2978452
0000b0 63 a7 ad 3e 69 b9 83 be 71 1e ca be e1 83 e7 be
       0.33916768 -0.25727394 -0.3947635 -0.45217803
0000c0 d6 27 b8 3e d6 a9 ab be 6f 93 35 3e 0c c2 26 be
       0.35967892 -0.33528012 0.17732023 -0.1628496
0000d0 7e 7d b8 be 19 89 e4 be 73 79 8b 3e 99 38 97 be
       -0.36033243 -0.44635847 0.27241096 -0.29535368
0000e0 eb 2d 9c 3e 18 88 28 be 85 a4 99 3e a4 2f 33 3e
       0.30503783 -0.16458166 0.3000833 0.17498642
0000f0 74 5a cf 3e 2e 1a 43 3e 5a 1a 93 3e 6c 87 c8 be
       0.40498698 0.19052956 0.28731042 -0.3916582
000100 60 4a ce be 82 33 e2 3e 51 74 43 3e 01 5a c4 be
       -0.4029112 0.44179922 0.1908734 -0.38349918
000110 29 9d b6 3e 91 0a 81 be 6b cd cf 3e 99 49 5d 3e
       0.3566678 -0.25203374 0.4058641 0.21610107
000120 ff 53 b1 3e 76 a8 a8 bd ad 57 d6 3e 2f f8 e2 be
       0.34634396 -0.082352564 0.41863766 -0.44329974
000130 aa 05 4f be 69 61 9d be 00 18 cb be 9b d5 23 3c
       -0.20217004 -0.3073838 -0.39666748 0.009999658
000140 6f e6 bd be d1 47 d8 3e 23 1d d0 3e af 08 cf be
       -0.3708987 0.42242292 0.4064723 -0.40436313
000150 ac 76 db 3e e5 80 72 3e df c3 a9 be 61 3a 78 be
       0.42863977 0.23681982 -0.3315725 -0.2424102
000160 1c 13 6f 3c e0 54 e4 3e 02 a8 dd 3e 6c 2a 87 3e
       0.014591958 0.44596004 0.43292242 0.26399553
000170 52 a9 67 3e b8 6c aa 3e 15 bf 88 bb 07 b1 8d 3e
       0.22623184 0.3328607 -0.0041731694 0.27674124
000180 23 95 b6 3e ca 6b a7 be 01 c9 ae 3e 6f e1 86 3e
       0.35660657 -0.32699424 0.3413773 0.26343867
000190 35 5a 3a 3e de 1a 31 3e 76 43 62 3e 1b 7b 8b bc
       0.18198474 0.17295405 0.22096047 -0.017026475
0001a0 ed 2f 7c be d7 11 bb be 09 50 1c be 33 5a aa be
       -0.24627657 -0.36537048 -0.15264906 -0.33271942
0001b0 58 c0 e1 bd b7 b2 78 be 72 0c 35 3e 16 c4 ce be
       -0.11023015 -0.24286924 0.17680529 -0.40383977
0001c0 74 0d 0c be 05 ab a6 3e af cc df 3e fa 0c 57 be
       -0.13677007 0.32552353 0.4371085 -0.21001044
0001d0 f6 ec d6 3e 2e c5 eb 3c 34 8c ad 3e a9 88 80 be
       0.41977662 0.028780546 0.3389603 -0.25104263
0001e0 63 75 97 3e db d9 1a be 2e e2 95 be 2d c2 32 be
       0.29581746 -0.15122168 -0.29274124 -0.17456885
0001f0 d9 43 dd 3e 78 0e 3a 3e 7a 55 87 be 23 6a 8e be
       0.43215826 0.18169582 -0.264324 -0.2781535

encoder.dcrnn_cells.1.gate.weights_pool f4 [2, 2, 128, 128]
000000 d3 ca d5 bc 48 a9 0a be 8e 48 25 bd 12 13 05 be
       -0.02609769 -0.13541138 -0.040352397 -0.12995556
000010 ee 61 02 be d3 c3 00 be 79 8c 0f be 54 81 31 be
       -0.1273267 -0.12574701 -0.1401843 -0.17334491
000020 d7 09 65 3d ca 4d 0f be 59 34 10 be ff 8d 17 bd
       0.055917587 -0.13994518 -0.14082469 -0.037000652
000030 e0 9d 83 3d 88 05 e2 bd f7 df d8 bc 67 38 06 be
       0.06426597 -0.11036211 -0.026473982 -0.13107453
000040 c6 8d 02 be 0a 69 0e be db 0c 77 be e7 10 e1 bc
       -0.12749395 -0.13907257 -0.24125998 -0.02747388
000050 fd 21 00 be a5 7b 22 be 9d 4a 02 be 63 16 0f be
       -0.12512966 -0.15867479 -0.12723775 -0.13973384
000060 6c 26 21 bd ad be f1 bd 5b 75 84 3d a1 19 48 bc
       -0.039343283 -0.11803947 0.06467696 -0.012213142
000070 13 9b f4 bd ea 40 2e 3d 4f d7 3b bd 67 f9 04 be
       -0.119436406 0.042542376 -0.04585963 -0.12985764
000080 a2 7f 09 be 65 12 11 bd 40 82 03 be d8 b2 53 bd
       -0.13427594 -0.035417933 -0.12842655 -0.05168423
000090 80 df 44 be 8e e6 29 bd 0e 75 fd bd 68 9e 26 bd
       -0.19225883 -0.04147964 -0.12375842 -0.04067841
0000a0 06 81 06 be b3 0d 2c bd 7f 4e 72 bd 19 92 11 be
       -0.13135156 -0.042005252 -0.05915689 -0.14215888
0000b0 bd 43 06 be ea ba 0f bd a6 04 0b be 0d 92 17 be
       -0.13111778 -0.035090365 -0.13575992 -0.14801808
0000c0 bc 75 60 be f0 fd 88 3c c6 bf f9 bd 21 48 09 be
       -0.21919912 0.01672265 -0.12194781 -0.13406421
0000d0 58 74 0b bd a5 93 04 be ca 6c 03 be fc 59 01 be
       -0.0340465 -0.12946947 -0.12834468 -0.12631983
0000e0 8b 8e b3 bd f3 a2 a4 bd 44 bf f0 bd f4 5e e1 3c
       -0.08767422 -0.080388926 -0.11755231 0.027511097
0000f0 72 36 ef bd e5 33 09 be 37 d3 ee bc 54 5f d6 bc
       -0.116803065 -0.13398702 -0.02915345 -0.026168503
000100 95 2f 14 3e 9a 70 15 3e ec 45 0e 3e ab c9 1b 3e
       0.14471276 0.14593735 0.1389386 0.15213649
000110 43 d3 16 3e 31 50 1a 3e 7c 1a 1c 3e c0 2e 1e 3e
       0.14729027 0.15069653 0.15244478 0.15447521
000120 45 1b 02 3e dd 20 1e 3e 7f 7d 26 3e e3 fd 0e 3e
       0.12705715 0.15442224 0.1625881 0.13964038
000130 b6 56 0d 3e e8 82 2c 3e 6c fd 25 3e 83 b5 24 3e
       0.13802609 0.16846812 0.16209954 0.16084866
000140 c0 b8 22 3e 01 41 1b 3e 21 5f e2 3d 2f 80 05 3e
       0.15890789 0.15161516 0.11053301 0.1303718
000150 d0 61 1c 3e 50 71 18 3e 7c 5a 26 3e d1 d8 27 3e
       0.15271688 0.14886975 0.16245455 0.16391303
000160 41 9a 0f 3e d2 97 20 3e 5a b2 05 3e 95 e6 1d 3e
       0.14023687 0.15682915 0.13056317 0.15419991
000170 5e df 2c 3e c6 99 cf 3d 4f 34 2c 3e e2 d1 2d 3e
       0.16882083 0.10136752 0.16816829 0.16974595
000180 e9 b9 1e 3e b5 b8 0d 3e 01 c2 19 3e 60 e2 17 3e
       0.15500607 0.13839991 0.15015413 0.14832449
000190 13 71 1c 3e 3c a7 0d 3e 85 6f 1d 3e 3c 3f 0c 3e
       0.1527751 0.13833326 0.15374573 0.13695997
0001a0 54 d3 21 3e ee b8 07 3e d9 c3 0c 3e e7 d3 1b 3e
       0.15803272 0.13254139 0.13746585 0.15217553
0001b0 6d 5c 17 3e 56 e5 05 3e db e9 17 3e 56 67 19 3e
       0.14781351 0.13075766 0.14835303 0.14980826
0001c0 98 cd 27 3e 50 44 1e 3e bd af 20 3e 4c a2 14 3e
       0.16387022 0.15455747 0.15692039 0.14515036
0001d0 a5 1e 11 3e e3 b9 17 3e eb f3 25 3e fd e8 23 3e
       0.14171846 0.14817004 0.16206329 0.16006847
0001e0 9c 9d 24 3e 0f 00 12 3e c9 2f 1b 3e 1b 71 14 3e
       0.16075748 0.14257835 0.15154947 0.14496271
0001f0 27 4b 16 3e a4 ff 16 3e e3 46 17 3e cb 80 17 3e
       0.14677106 0.14745957 0.14773135 0.14795224
000200 73 ad 07 be 63 8b 01 bc b3 8d e1 bb 35 6e 0e 3d
       -0.1324976 -0.007906768 -0.006883347 0.03477307
000210 de 1f 2b 3d 7f 52 b1 3c 21 2b a3 bd 96 84 34 bd
       0.041778438 0.021645783 -0.079672106 -0.044071756
000220 05 a2 f5 bd d3 07 f5 3c 18 4c 33 3d ec 02 32 3c
       -0.119937934 0.029910957 0.04377374 0.010864954
000230 6a ca be bd bf 79 fc 3b f5 a6 dd 3d 82 ea 98 3c
       -0.09315951 0.007704943 0.1082286 0.01866651
000240 51 52 fe 3c 44 b3 2c 3d d3 f0 dc bd 6b ee ec bc
       0.03104511 0.04216315 -0.10788121 -0.02892228
000250 36 c4 cd 3c 2c ef 30 bd 84 cb 00 3d 6e ac b2 3c
       0.025117975 -0.043196842 0.031444088 0.021810737
000260 c8 84 12 bd 4f a1 97 bc 8d c6 fb bd 81 5c ec 3d
       -0.03577116 -0.018509535 -0.1229373 0.11541081
000270 69 25 83 bc 6f 35 19 be bd fa dd 3d 80 4e 28 bd
       -0.01600905 -0.1496179 0.1083884 -0.04109049
000280 e1 0a ef 3c 60 29 15 bd 70 59 c0 3c 55 85 71 3d
       0.029179992 -0.03641641 0.023480147 0.058965046
000290 db 20 7d bd 3a 22 99 bd 4b 7f bd bc 82 51 af bd
       -0.06179891 -0.07477231 -0.023131987 -0.08560468
0002a0 78 ea fa 3c 6e 01 41 bd d0 e0 42 3d 61 8c a0 3c
       0.030629382 -0.047120504 0.04757768 0.019598188
0002b0 6b 2d ba 3c 4f da d3 39 5e 81 08 3d 99 5c 0b bd
       0.022726735 0.0004040771 0.0333265 -0.034023855
0002c0 5a 75 b9 bd 96 82 34 3d 38 b1 ff bb a6 ed eb 3c
       -0.09055586 0.04406985 -0.0078031085 0.028799843
0002d0 69 23 04 be fc 3c 12 3d e5 3c b5 3c fc b5 40 3d
       -0.12904133 0.03570269 0.022123763 0.047048554
0002e0 25 3b d9 3d 76 c7 95 3d 8e 8e fa bc 86 eb b5 3d
       0.10606984 0.07313435 -0.030585553 0.08882813
0002f0 25 08 54 3d a0 a2 1e 3d 84 51 12 be d5 1a 25 be
       0.05176558 0.03872931 -0.14288908 -0.16123517
000300 27 a1 aa 3d 10 cf 06 3e 77 a8 9a 3d c8 fd f4 3d
       0.083315186 0.13164926 0.07551663 0.119624674
000310 ba a9 d2 3d 9a 22 d2 3d f4 99 09 3e 12 d2 0c 3e
       0.10286279 0.10260506 0.13437635 0.1375201
000320 72 d5 c4 3d 28 55 e1 3d 4c a7 e4 3d c2 f0 99 3d
       0.09611024 0.110025704 0.11164722 0.07516624
000330 a6 20 cd 3d 95 fa 0a 3e a1 d8 d7 3d e3 80 da 3d
       0.10015993 0.13572152 0.105393656 0.106691144
000340 ec 1f d6 3d ca d8 ec 3d c7 ef de 3d 01 fe a3 3d
       0.10455307 0.11564787 0.10885578 0.08007432
000350 cc e2 e9 3d 23 4d 03 3e d2 3d df 3d 47 75 ea 3d
       0.11420211 0.12822394 0.10900463 0.1144815
000360 0a e8 a2 3d 58 87 06 3e a4 d1 cc 3d 46 15 db 3d
       0.07954414 0.13137567 0.10000923 0.10697417
000370 a6 7c fd 3d 78 9a f0 3d f8 0a f5 3d bc 1e f0 3d
       0.123772904 0.117482126 0.11964983 0.11724612
000380 c2 af e1 3d 0d df 95 3d e5 cd ef 3d 9f 6d a4 3d
       0.11019851 0.07317934 0.11709193 0.08028721
000390 91 68 9c 3d b8 6b a5 3d de c4 f7 3d 96 06 95 3d
       0.07637132 0.08077186 0.12098096 0.07276647
0003a0 67 ac f4 3d 96 6a b7 3d 77 f2 ac 3d 6e 1b f1 3d
       0.11946946 0.089558765 0.08444684 0.1177281
0003b0 89 2b f3 3d 36 bc af 3d ea e6 dc 3d 2a 2b 08 3e
       0.11873538 0.0858082 0.10786231 0.13297716
0003c0 f2 5d 9f bb 5f b7 b0 3d f8 56 06 3e e4 4b df 3d
       -0.004863494 0.08628725 0.13119113 0.10903147
0003d0 d6 28 ad 3d e9 16 de 3d 1a 02 e8 3d 71 72 e2 3d
       0.084550545 0.108442135 0.11328526 0.11056984
0003e0 6d 8a d0 3d 7b 6a ca 3d 02 65 fa 3d b1 35 e0 3d
       0.101826526 0.09883591 0.12226297 0.10947741
0003f0 fa f7 f0 3d f7 c1 d7 3d fa cc a8 3d 3b 62 b5 3d
       0.11766048 0.10535043 0.08242221 0.088566266

encoder.dcrnn_cells.1.gate.bias_pool f4 [2, 128]
000000 cf 4c 75 be 8d 2d 23 3e c1 e5 61 3d b1 b3 91 3e
       -0.23955081 0.15935345 0.05515075 0.28457406
000010 71 1b 07 3e c8 ef 70 3e 76 94 a4 3e dd 0d 77 3e
       0.13194062 0.2352897 0.32144517 0.24126382
000020 ff 05 59 3d 68 53 b9 bd e0 e5 19 3e a5 a5 ab bd
       0.052984234 -0.090491116 0.15029097 -0.083812036
000030 d7 2f e1 3d c5 b3 9f 3c 6f 36 0f be 88 ae 3e 3e
       0.10995453 0.0194949 -0.13985609 0.18621266
000040 e2 25 54 3e ce 76 05 3e 4a a8 a2 bd 42 b9 af 3d
       0.20717576 0.13033602 -0.07942255 0.08580257
000050 2a 49 8c 3e 1a 7e 8e 3e 4e 9d 0b 3e 8b bc 10 3d
       0.2739957 0.27830583 0.13634226 0.03533606
000060 cd 45 be bd 53 8e a5 3e ce 57 68 3c d2 de b9 3c
       -0.09290657 0.32335147 0.0141810905 0.022689257
000070 4f 3c b9 3d 4c 58 8f be 2b 10 fb 3d f6 46 a1 3d
       0.09044706 -0.27997053 0.12258943 0.07874863
000080 24 a4 06 3e 71 51 09 3e 5b 43 84 3e df 13 8f bd
       0.13148552 0.13409974 0.25832638 -0.06986212
000090 36 9b 1c 3d 25 c6 20 3e b9 14 d6 3d 9d 74 84 3d
       0.03823396 0.15700586 0.10453171 0.06467555
0000a0 38 dc c7 3c 25 dc 22 be 67 22 42 3e 48 11 63 3e
       0.024397 -0.15904291 0.18958436 0.22174561
0000b0 a3 12 de 3d 82 44 f7 bc e7 09 8c 3e 5b 57 d0 bd
       0.108433984 -0.030184034 0.27351305 -0.10172912
0000c0 64 d7 00 3e 87 cc 14 be 52 18 4c 3e 55 4c dc 3b
       0.12582165 -0.14531146 0.19931152 0.0067229667
0000d0 05 22 e0 3b 5e 14 77 3e 46 30 ac 3d bf a2 15 3d
       0.006839993 0.24128863 0.08407645 0.03653216
0000e0 b4 9a a8 bd 28 65 82 3e f4 97 a5 3b 03 bc a6 bd
       -0.08232632 0.254678 0.0050535146 -0.08141329
0000f0 a2 93 fb bc ab 07 0c 3b 07 52 55 3c 4a 10 44 3d
       -0.030710045 0.0021366875 0.013020045 0.047867097
000100 2c 44 12 be bd 8a 8a be a5 4e d7 bc 48 8c a0 bd
       -0.14283818 -0.27058974 -0.026282618 -0.078392565
000110 d7 1b 5a bd f0 98 b7 3d 4c 2a b5 3d 26 f0 f5 bd
       -0.053249206 0.089647174 0.08845958 -0.12008695
000120 4d 71 a3 3c b2 d0 05 be 33 3e 9c be 74 45 92 bc
       0.019951487 -0.13067892 -0.30516204 -0.017855383
000130 a2 1d 19 be 18 2a 31 bc a4 34 ee 3d b9 75 11 be
       -0.1495271 -0.010813259 0.11631134 -0.14205064
000140 39 24 14 be 49 36 9f bd 06 83 6c 3d 55 3f 8c 3b
       -0.14466943 -0.07774026 0.05774214 0.0042800107
000150 9e a6 49 be 55 7f a1 3c 8f fa 37 be 4a 99 26 bc
       -0.19692466 0.019714037 -0.17966674 -0.010168383
000160 9b f8 38 be bf 6d 5e be a7 19 20 3e 15 87 ce bc
       -0.18063585 -0.21721552 0.15634786 -0.025210897
000170 02 91 fb 3c 9c dd 1a 3e 2e ca 77 3d 9d db 79 3d
       0.030708794 0.151236 0.060495548 0.061000455
000180 88 37 ee 3d be 49 f5 bc 87 dd 98 bd 40 0c 11 be
       0.116316855 -0.02994239 -0.07464128 -0.14164829
000190 28 c3 87 be 3e be 80 bd 00 2b b4 3d 6f fb 72 bc
       -0.2651608 -0.06286286 0.08797264 -0.014830454
0001a0 02 62 ad 3d 1f d4 16 bb b7 33 4f be c5 a9 5c be
       0.08465959 -0.0023014618 -0.20234571 -0.21549137
0001b0 72 8b 88 3d ab ba db 3d 63 f2 1e be 98 ed 28 bd
       0.06667222 0.107289635 -0.1552215 -0.041242212
0001c0 e2 4a 55 be fb c0 d8 3d 30 ce 75 bd ca 4f 44 be
       -0.20829347 0.10583683 -0.06001109 -0.19171062
0001d0 ff 0a 96 bd 62 c5 35 3d e1 5f c8 bd fb 58 04 be
       -0.07326316 0.044377692 -0.097839125 -0.12924568
0001e0 50 1d 4a 3d 58 cd 08 bd 03 7c 32 be 42 3c 1b be
       0.04934436 -0.033398956 -0.17430119 -0.15159705
0001f0 88 9f 0b be c1 e5 74 be 1a 40 d7 3d 79 22 27 be
       -0.13635075 -0.23915769 0.10510273 -0.16321744
000200 f2 1e 92 3d 99 fa 93 3e 29 48 ad bd 36 bb 01 3d
       0.071348086 0.28902128 -0.08461029 0.03167268
000210 1f a2 c4 bd 69 3a 0d 3d 1d c8 54 3d 77 70 12 3e
       -0.09601235 0.034479532 0.051948655 0.14300714
000220 32 4b fa 3d af 51 8e 3e 42 f7 71 3c 86 18 80 3e
       0.122213736 0.27796695 0.0147684235 0.2501871
000230 4e 41 f4 bb 29 15 83 3d 03 4e ed 3d 08 5c f2 3d
       -0.007454074 0.0640052 0.11587145 0.1183396
000240 f0 e6 9e 3b 4e d3 3a bd ec 74 1d 3e 26 f1 a1 3e
       0.0048493072 -0.045611672 0.15376633 0.31629294
000250 d5 9a 84 3e d0 4d 25 bd cc 34 33 bd 07 8d 0c 3d
       0.25899377 -0.04035741 -0.043751523 0.03431418
000260 a6 d3 4c 3e 31 59 92 3d d5 21 1a 3e 29 75 65 be
       0.20002612 0.07145918 0.15051968 -0.22407974
000270 fe 98 1b 3e 8b ee dd bd 34 f3 a7 bc 9e 5d 18 3e
       0.1519508 -0.10836514 -0.02050171 0.14879462
000280 61 08 66 3e 89 af 96 3e c4 f6 68 3e 6a b1 91 3e
       0.22464134 0.29430798 0.22750384 0.2845567
000290 9d 99 bd 3d 8f af 26 3e d1 23 c4 bb 00 9a 72 3e
       0.09257815 0.16277908 -0.005985715 0.23691559
0002a0 bb d7 24 3e 3a ad 84 bb e9 e0 aa 3e d8 4d ee 3d
       0.1609792 -0.0040489705 0.33374718 0.11635941
0002b0 9e f2 54 3d 51 d8 94 3e de f0 fc 3d b1 8b 7f 3e
       0.05198919 0.29071286 0.12350629 0.24955632
0002c0 3f 8a 09 bd 84 1f 16 3e 6a 9a 97 bd 74 e2 0b 3e
       -0.033579107 0.1466046 -0.07402499 0.13660604
0002d0 dc e7 18 3e 7e 9f 8e 3d 9b c2 4c 3c 0b 88 2a 3e
       0.14932197 0.069640145 0.012497569 0.16653459
0002e0 28 d9 40 3e fb 6c 96 3e a0 49 3d 3e 75 3f bd bd
       0.18832839 0.2938002 0.18485117 -0.09240619
0002f0 87 e4 8d 3e d9 e9 33 3e 76 c9 49 3e f5 e6 67 3e
       0.27713415 0.17569675 0.19705757 0.22646697
000300 7b 6b 91 be 5a 31 d4 3d 4c 6f ba 3c 73 bd 4b be
       -0.28402314 0.103609756 0.022758149 -0.19896488
000310 b4 7e 59 3d 3d a1 05 3c a2 36 29 bd 7e d2 02 3c
       0.05309935 0.008156118 -0.041311868 0.007984756
000320 a8 e2 1b be 2e 71 2b be 96 a5 a0 be 03 fe 92 be
       -0.15223181 -0.16742393 -0.31376332 -0.2870942
000330 83 8d 89 be 59 39 7c be e1 d7 a1 3d 64 56 aa 3b
       -0.26865777 -0.24631251 0.07902504 0.005198287
000340 d7 b5 46 be 93 14 37 be 19 73 22 be ef 80 c8 3d
       -0.19405304 -0.17878942 -0.15864219 0.09790217
000350 8a 5c 4d be 31 03 cd 3d 25 1d 99 3d dd 05 fa bb
       -0.20054832 0.10010374 0.07476262 -0.0076300935
000360 02 6a 86 be 67 01 82 3d 7d 3e 9b 3c d2 91 a1 3d
       -0.26252753 0.06347924 0.018950695 0.07889141
000370 66 c8 1a bd 23 c0 5b 3d d8 f8 27 be 70 84 f1 3c
       -0.03778877 0.053650033 -0.1640352 0.029482096
000380 b2 4c f0 bd a9 13 07 be 7e 88 2e be cf eb 4e be
       -0.117333785 -0.13191094 -0.17044255 -0.20207141
000390 f7 a8 b6 3d 1a d7 27 be d5 71 47 3d 86 69 3d be
       0.08918946 -0.16390648 0.048692543 -0.18497285
0003a0 aa 3e 60 be 1d ed ab 3d b6 79 d7 3b bb 4d 82 be
       -0.21898904 0.08394835 0.0065757884 -0.2544993
0003b0 f0 93 81 bd fc b6 30 be fc 9f 33 be cf 44 2c bc
       -0.06327045 -0.17257303 -0.17541498 -0.010514452
0003c0 35 54 9c be 41 f3 36 be a9 f2 3f bc 4c 6b 17 ba
       -0.30532995 -0.17866232 -0.0117155695 -0.00057761814
0003d0 a2 ec b7 bd 3a 47 8d be bc a2 b0 3c c4 8a 8b be
       -0.08980681 -0.27593404 0.021561973 -0.27254307
0003e0 fd fa cc bd 03 5f bf bd 96 40 df bd 7f 54 9c bd
       -0.1000881 -0.09344294 -0.10900991 -0.07633304
0003f0 c3 3c 90 3d dd a8 94 be 84 16 6e bd d3 6f 68 be
       0.070428394 -0.29035082 -0.05812694 -0.22698908
