CQ/result/P7_Resullt/HOURS/data1/2/best_model.pth (torch_old, 603202 bytes, 11 tensors)

node_embeddings f4 [228, 2]
00000000: edc1 2f3e e854 c73d 341c 963e 9594 863e
00000010: 43b0 163e 0f96 e13d f6a5 eebd 31a3 873e
00000020: 137c 923e 8783 513e 9c15 893e e072 223d
00000030: 868e 283e 93a4 e23d 272f 0f3e c3be 8f3e
00000040: 8fbe aabe 65aa 3c3d 247f 08be 9fde 833e
00000050: 48c1 943e ede1 2d3e 2f95 963e 606e 803e
00000060: 79a0 9dbd 485e 3f3e ca36 873e 06af 0d3e
00000070: a4b8 193e 06e1 153e c495 6bbe bdf0 163e
00000080: f08b c33b 792d 9a3e d735 523e 72bb 903e
00000090: 696b 3d3e 63bb 433d b724 033e e1df 7d3e
000000a0: 9ff0 dbbd 4ea0 443e 486e 213e 0004 033e
000000b0: 2a5f 803e 8885 253e fd03 923e 36df e43d
000000c0: e04e 6f3e 7649 5b3d 2eca ad3d d1af 213e
000000d0: c22c ed3d ea46 623e 50be e83d 7928 3c3e
000000e0: 3b39 233d 970e 4e3e db01 c43c 76c2 143e
000000f0: a5af f5bd 9cb5 973e 495a 443e 751f 653e
00000100: 29c2 873e 5338 f43c 3eec 8d3e 9ffd ef3d
00000110: acf0 303e f352 ba3d 806d a63d c6d4 8b3e
00000120: a082 a53d 54c8 7e3e 9cfa debd eef7 873e
00000130: eb76 0e3e 2102 6c3e 50f9 b4bd 6c53 973e
00000140: e5d1 673e 38d7 913e 8646 1f3e b514 4c3e
00000150: 399f 063e 004b 5c3e 875a 743e 74c3 ee3b
00000160: 8baa 323e f957 5d3e 0501 923d dff7 223e
00000170: a114 9b3d cf5d 8d3e 83b8 823e 800e f13c
00000180: d0e2 f23d dea8 143e 9b8c 463e 049b 8e3d
00000190: 607b 0b3e 51b4 dd3d c97c c93d fad0 573e
000001a0: 7149 3e3e 6949 923e 1ee3 673e 164c 633e
000001b0: 3647 bd3d e4f2 353e 56ce 19bd 0f0f 943e
000001c0: d8fb 873e 9325 933e d9c7 7e3e af10 c13c
000001d0: 2571 2a3e cae8 bf3d 628d 633e 5a74 893d
000001e0: d17f fb3d 8630 fa3d 3e49 f03d 7f43 fe3d
000001f0: 2e65 913e 4104 063e 768d 8f3e 7df8 be3d
00000200: ea55 ed3d abe0 f03d 5798 553e 6061 7a3d
00000210: ec3b 773e d189 393e 898b 113d 27a7 9d3e
00000220: 0876 083e 2db5 d63d 2f79 8b3e e199 973e
00000230: 28bb 983e cf2b ff3c 8f75 fe3d 13de e93d
00000240: 4f36 763e 8e44 a43d 8fe2 023e 3c53 dd3d
00000250: 9364 983e e277 8a3e 3faf 323e 9220 103e
00000260: 1f25 823d e5bf 833e b933 513e 77f8 6c3e
00000270: dbf4 973e 0ed8 f93b 438f 333e df88 913e
00000280: 9fe5 473e f088 0f3d 0f24 883e be4b 0f3d
00000290: 896e 803e 050d 053e b959 b63d 344d 143e
000002a0: ed5e 993e 87bd 993e d254 443e b81e 283e
000002b0: 91cb 903e 9500 c6bc 1450 c4bd 6f04 773e
000002c0: 8993 443e 1260 983d d677 5ebe 12b1 0f3e
000002d0: 78af 89bd 33c3 313e 1097 333e 1ce6 913d
000002e0: 593a 403e ca3e d03d 22bc 70be 503c a83d
000002f0: b522 643e c40a 9d3d 9c7e 3f3e c8c1 5e3e
00000300: 590b 343e 0af7 d43d a9a4 503e e416 da3d
00000310: 1283 833e 2dee 403e fcfe b73d 5b45 8f3e
00000320: 7f6d 513d fe3c 0d3e 8ca1 ac3d d6d6 863e
00000330: 0116 f73d 4070 993e 342d 4a3e fa8f 083e
00000340: fdc7 883d 301e 663e 9c9b 353e 6aaf 3f3e
00000350: 33b7 6e3d 03d9 0b3e 63b5 783d 858b 7f3e
00000360: d402 033e c839 ee3d 6fbe 953e 0fbd 903e
00000370: 86a7 823e 056b 5fbc d59a aebd 61b4 563e
00000380: 9e92 8cbd e99d 353e 269e 923e 5147 633e
00000390: 351e 493e 5987 d93d ff1e 4bbd 1444 493e
000003a0: 97c5 8d3e 917b 6d3e 519c 913e a560 173e
000003b0: 819d 913e eeb1 de3d 4f51 b2be 9658 103d
000003c0: 108c 843e 7998 1e3e 2b75 3b3e 6b04 323e
000003d0: edab 773e b5ee 7f3e 0f95 cc3c cf8c 593e
000003e0: 7eda d3bc c3f1 243e 3601 85be 1820 fe3d
000003f0: 0cb6 863d 8a8c 343e 3ea0 483e eb20 573e
0.1716382 0.097329915 0.29318392 0.26285234 0.14715676 0.110149495 -0.11652748 0.26491693
0.28610286 0.2046033 0.267743 0.039660335 0.16460618 0.11066546 0.13982831 0.28075227
-0.3334851 0.04606094 -0.1332975 0.25755784 0.29053712 0.16980715 0.29410693 0.2508421
-0.07696623 0.18688309 0.26408988 0.13836297 0.15011841 0.14636621 -0.2300635 0.14740272
0.0059676096 0.30112818 0.20528351 0.2826801 0.18498005 0.047786128 0.12806974 0.24792434
-0.10739254 0.19201776 0.15764725 0.12794495 0.25072604 0.1616422 0.28518668 0.111753866
0.23369932 0.053536855 0.08485828 0.15789725 0.115808025 0.22097364 0.11364424 0.18374814
0.0398495 0.20122753 0.023926666 0.14527306 -0.11996392 0.29630744 0.19175066 0.22375281
0.2651532 0.029812014 0.277193 0.11718296 0.17279309 0.090978526 0.08126354 0.2731077
0.08081555 0.24881107 -0.10887644 0.26556343 0.13912551 0.23047687 -0.08836615 0.29555833
0.22638662 0.2848451 0.15554246 0.19929774 0.13146676 0.21512985 0.23862658 0.0072864834
0.1744787 0.2161559 0.07129101 0.15914868 0.07572294 0.27610633 0.25531396 0.02942586
0.11859667 0.14517543 0.19389574 0.06963161 0.13621283 0.10825408 0.09838254 0.21075812
0.18582703 0.28571633 0.22645232 0.22196993 0.09242098 0.17768437 -0.037550293 0.2891774
0.2655933 0.28739604 0.24880923 0.023567526 0.16644724 0.09370573 0.22221902 0.067116454
0.122802384 0.12216286 0.1173272 0.124152176 0.28397506 0.1308756 0.28037614 0.09324739
0.115886524 0.11761602 0.20858894 0.06112802 0.24143952 0.18118979 0.03553346 0.3079159
0.13326275 0.10483775 0.27240893 0.29609588 0.2983029 0.03114882 0.12424766 0.114193104
0.24044155 0.08020888 0.12781738 0.10806891 0.29764232 0.27044588 0.17449664 0.14074925
0.063547365 0.2573234 0.20429887 0.23141657 0.29678997 0.0076246327 0.17535119 0.28424737
0.19521187 0.035042703 0.2659001 0.034984343 0.25084332 0.12993248 0.08903832 0.14482576
0.29955235 0.3002741 0.19172981 0.16417968 0.2828031 -0.0241702 -0.09585586 0.24122785
0.19196905 0.07440199 -0.21725401 0.1403239 -0.06722921 0.17359619 0.17538095 0.07123968
0.18772258 0.10168226 -0.23509267 0.08214629 0.22278865 0.07668069 0.18700641 0.21753609
0.17582454 0.103986815 0.20375313 0.10648897 0.25685936 0.18840857 0.08984181 0.27982602
0.051129814 0.13792798 0.0842925 0.26335782 0.12064744 0.29968452 0.19743806 0.13336173
0.0667877 0.22472453 0.17735142 0.18719259 0.05828018 0.13657002 0.06071986 0.24955566
0.12794048 0.11632115 0.29246852 0.2826924 0.25518435 -0.013636355 -0.085256256 0.20967247
-0.068639025 0.17736019 0.28636283 0.22195174 0.1964043 0.10621519 -0.049590107 0.19654876
0.27689812 0.23191668 0.28439572 0.1478296 0.28440478 0.10873781 -0.3482766 0.035240732
0.2588811 0.15487851 0.18306415 0.17384498 0.24186678 0.24993403 0.02497342 0.2124512
-0.025861021 0.1610785 -0.25977486 0.12408465 0.065776914 0.17631736 0.19592378 0.21008651

encoder.dcrnn_cells.0.gate.weights_pool f4 [2, 2, 65, 128]
00000000: e050 083e dea6 173d c15f f63d eaad e13d
00000010: b2b8 e83d f18a 013e 50b2 e33d e5b5 023e
00000020: 904c 513d db07 033e 8acc 043e b212 f83d
00000030: d1ae f13d 7b38 093e d68f e73d 6e4f cd3d
00000040: 57ba ee3d b86e f13d 36e5 503d 5774 083d
00000050: a52e 0a3e 4bf0 bb3d e360 e93d a26e 253e
00000060: a19e ff3d 6cf8 053e cda5 c13d 2ee8 643b
00000070: 9cc3 f03d c024 e93d 1828 ee3d d810 cf3d
00000080: 1d8b 933d 57d1 c43d 1f74 d53d a053 fa3d
00000090: c56a 073e f4eb ed3d e373 093e a9e6 ee3d
000000a0: 3044 1d3e cf42 ec3d ecb9 d43d d945 df3d
000000b0: d910 1a3e f1b9 f23d 7270 1d3e 2783 083e
000000c0: ff06 113e cb45 613d ac94 ef3d 70e9 053e
000000d0: f164 cf3d 6cfd e83d a208 0a3e ec90 083e
000000e0: 9246 db3d 932d de3d 815d b23d 5612 2dbd
000000f0: fb5d e23d 6fc7 ff3d b5d1 7e3d 3295 eb3d
00000100: eb08 0ebe 967c efbc 6a02 0cbe fdfa 0abe
00000110: 1832 eebd eafd f8bd 0b0b c6bd 04ea fcbd
00000120: 4bbc 08bd 0043 b6bd 43e7 e9bd ed97 f5bd
00000130: 9a88 efbd 0996 01be c016 bfbd cabe babd
00000140: f4ea 07be db6b 07be 23f7 18bd 5b38 c3bc
00000150: 39b0 05be 1a30 37bd ff24 fbbd ff59 9dbd
00000160: 6e8f b6bd 08cb 0bbe 5c81 53bd e6ce 823c
00000170: 0dfa fcbd eae1 01be fd59 efbd ad51 c6bd
00000180: f086 4cbd db5e 56bd 415a a4bd 24b8 0ebe
00000190: 294b 04be 4100 0abe 72f7 10be 3dc2 f4bd
000001a0: 8ec9 cdbd f01e d8bd 8b33 e9bd 1533 fbbd
000001b0: dec3 d1bd 4de2 09be 57f5 babd 8ab4 0ebe
000001c0: e63f acbd 041e 34bd 7879 ecbd 18f6 f1bd
000001d0: fe03 e9bd 9233 d9bd 8650 f1bd 0765 07be
000001e0: 01fd efbd 0bcf 06be d2ee b0bd 047c aa3d
000001f0: ac64 f1bd 813e 0cbe 80bc 50bd fab3 09be
00000200: 7896 f0bd e872 20be 0a90 05be aa6e 0cbe
00000210: ed86 08be 9c10 e0bd 4af1 0dbe de5d f7bd
00000220: 2b17 9bbd 2b9e e5bd d14c 09be 152f f9bd
00000230: d247 e0bd 50bd ffbd f26b 0cbe 0136 ecbd
00000240: 822b 06be 3170 f1bd 490b bcbd 3643 16be
00000250: f194 f8bd 38e1 1ebd 6ce0 e3bd 04e4 d8bd
00000260: 5d33 02be 8f52 06be ea29 1bbe 611a 0dbd
00000270: f310 febd 8887 0abe 886b fabd ffbe 0dbe
00000280: 3e20 d1bd e281 1fbe 3400 cbbd 581c 03be
00000290: 0d79 f5bd c964 e5bd ea5c f5bd 4687 eabd
000002a0: 8d93 d2bd cc78 0abe 7656 fdbd ade4 f7bd
000002b0: 9637 dbbd 8123 06be 39fc f3bd 5597 0dbe
000002c0: 4c4e f6bd c50f dabd 6c19 09be e578 eabd
000002d0: 1a82 f0bd d2a8 0abe 74ad 01be 88ff fcbd
000002e0: 5927 ebbd 42e1 f1bd 8c83 9bbd 143a d0bd
000002f0: a90f 0cbe 1d91 06be 3071 a6bd 85ef 0bbe
00000300: d0c1 1f3e c08d 0e3e 6022 113e 62c3 063e
00000310: ac70 123e 1284 153e 492d 003e fe31 0f3e
00000320: d642 f53d d4ac 0f3e 2905 1b3e 79f5 0e3e
00000330: c439 0f3e ca87 163e 0c17 013e 3b53 083e
00000340: 7969 0a3e 684f 1f3e 8c16 0c3e 5836 013e
00000350: 1de3 153e a558 043e cef1 1e3e 435b 0b3e
00000360: d760 103e b753 093e 6661 123e 083e 0a3e
00000370: 7571 1d3e 39c3 163e 8bd4 0d3e 1c66 083e
00000380: 9886 0f3e 2ade 113e 45b7 003e e992 143e
00000390: 770a 173e cf99 103e f631 1c3e 0159 fb3d
000003a0: d891 193e b52e f43d cd30 093e 6f74 1e3e
000003b0: 9bb4 0a3e 79ef 0c3e fff6 103e efb9 153e
000003c0: a8b3 0c3e 4013 0f3e 7895 053e b555 183e
000003d0: 839b 093e 3bf4 103e 03df 073e 7dd6 0d3e
000003e0: 5291 153e 6cce 083e bf42 003e 7820 f33d
000003f0: 15d8 0b3e 9cd6 083e 1cd7 103e 5282 133e
0.13312101 0.03702437 0.12029982 0.110194996 0.11363353 0.12650658 0.11117995 0.127647
0.051098406 0.12795965 0.1296865 0.12112941 0.11800922 0.13400452 0.113067314 0.10024916
0.11656635 0.11788696 0.050999843 0.033314075 0.13494356 0.091766916 0.11395433 0.16155484
0.12481428 0.13083047 0.09455452 0.003492843 0.117560595 0.11383963 0.11628741 0.101106346
0.07204268 0.09610241 0.10422539 0.122229815 0.13224323 0.1161727 0.13423114 0.11665089
0.15358043 0.1153618 0.10387024 0.10901994 0.1504549 0.11851872 0.15374926 0.1333128
0.14162825 0.0549982 0.11698279 0.1307733 0.10126675 0.113764614 0.13479856 0.13336533
0.107068196 0.10848536 0.08709241 -0.042253815 0.110530816 0.12489211 0.06221171 0.11503066
-0.1387059 -0.029234212 -0.13672796 -0.13572307 -0.116306484 -0.12157805 -0.09670075 -0.123493224
-0.033382695 -0.08899498 -0.11421063 -0.11991868 -0.116959766 -0.1265489 -0.09330511 -0.091184214
-0.13273221 -0.13224737 -0.037345063 -0.023830583 -0.13055505 -0.044723608 -0.12262916 -0.07683181
-0.08914076 -0.13651669 -0.05163704 0.015967797 -0.12352381 -0.12683836 -0.11687086 -0.09683547
-0.049933374 -0.052336555 -0.08025027 -0.13937432 -0.12919296 -0.1347666 -0.14156893 -0.119511105
-0.10048209 -0.10552776 -0.11386784 -0.122656025 -0.10242437 -0.13465233 -0.09128826 -0.13936058
-0.08410625 -0.043973938 -0.11546606 -0.11814517 -0.113777146 -0.106055394 -0.11782937 -0.13222133
-0.117181785 -0.13164918 -0.08639301 0.08324435 -0.1178678 -0.13695718 -0.050961018 -0.13447562
-0.1174745 -0.15668833 -0.13043228 -0.1371409 -0.1333272 -0.10940668 -0.13861576 -0.120784506
-0.07572778 -0.11211809 -0.1340821 -0.12167183 -0.10951199 -0.1248728 -0.13713053 -0.11533738
-0.13102534 -0.11788977 -0.0918184 -0.14674076 -0.12137783 -0.038789004 -0.111267895 -0.105903655
-0.12714906 -0.13117431 -0.15152708 -0.034448985 -0.124055766 -0.13528264 -0.12227541 -0.1384239
-0.10211228 -0.1557689 -0.09912148 -0.12803781 -0.11985979 -0.11200864 -0.119806126 -0.114515826
-0.10282049 -0.13522643 -0.12370007 -0.12104163 -0.107039616 -0.13099481 -0.11913342 -0.1382726
-0.12026653 -0.10647539 -0.13388604 -0.1144884 -0.11743565 -0.13540962 -0.12663823 -0.12353426
-0.11482114 -0.11810543 -0.0759345 -0.101673275 -0.13677849 -0.13141294 -0.081270576 -0.13665588
0.15601277 0.13921261 0.1417327 0.1316047 0.14300793 0.14601162 0.12517275 0.13983914
0.119756386 0.14030772 0.15138687 0.13960828 0.1398688 0.14700237 0.12606448 0.13313
0.13516797 0.15557635 0.13680476 0.12618387 0.14637418 0.1292444 0.15521929 0.13609032
0.14099441 0.13410841 0.14294967 0.13500226 0.15375312 0.14722909 0.1385061 0.13320202
0.14016187 0.14244905 0.12569912 0.14509167 0.14750086 0.14121173 0.15253434 0.122728355
0.14997041 0.11922971 0.13397522 0.15474103 0.13545458 0.13763227 0.14156722 0.1462171
0.13740408 0.13972187 0.13045299 0.14876445 0.1343823 0.14155667 0.13268666 0.13851352
0.14606217 0.13359994 0.12525462 0.11871427 0.13656648 0.13363117 0.14144558 0.14405182

encoder.dcrnn_cells.0.gate.bias_pool f4 [2, 128]
00000000: 0895 483e 42ef 4ebe 866b 1f3e 7d32 883d
00000010: 0efb a83e 51a8 b53e e74f abbd fc91 de3d
00000020: 25e8 05be 0279 4f3e b468 513e 931f 57bd
00000030: 9c1d f33d e5f5 513e 59d9 8f3e 237d a93e
00000040: a0bf 143e 9017 9c3e 9317 a3be f2ec 33bc
00000050: 991c 6c3e 0f39 ecbd a931 a43e 9abf 363e
00000060: c319 2d3e a75e 813e 991e 173d dadd 9fbe
00000070: 0353 683e 0c24 5c3e 07f4 2f3e be71 1d3e
00000080: ccaa d6bc 31f0 513d 649d 8cbd ea60 7bbd
00000090: 5873 1a3e 8143 983d 93a2 793e 9219 903e
000000a0: 9421 153e d650 e43d 91c0 ae3d 69f1 1d3e
000000b0: e69e a2bc 4ef3 4d3c 7221 a73e f670 203d
000000c0: 4783 7ebd 3149 3ebe 3c8f b13e 7a29 053e
000000d0: 6246 bd3b d344 2ebd 96e8 b53b badf 453e
000000e0: 84f4 bd3d d3c1 993e bd61 b5bd a4c1 c4bc
000000f0: f114 223e 15f5 393e be0d 16be 9b6b af3d
00000100: bfad 7cbe cbb1 823e 14e5 383d 4ef7 adbe
00000110: f983 85be 55d1 7abe 6706 2cbe a959 903d
00000120: b386 30bc 366d 75be fc07 033d 7d06 f33c
00000130: 6f74 a63b 2e46 88bd c246 8dbe 2088 4bbe
00000140: 67d2 52be d4fc 99be 8bb3 4c3e d843 d3bc
00000150: 4abc a63a bc3b eebc c9f2 6abd a909 2dbe
00000160: 8625 ec3b 2eed 95bd 776e 31be bfcf b3bc
00000170: 026d 54be 0380 7abe f611 6ebe b5d1 6d3d
00000180: cd00 463e 8567 03be 56bd 133b a4f3 88be
00000190: fc44 d1bc a746 9bbd 460c 63be fa6a f3bd
000001a0: bcfe a4be 281d 7abd d5fe 283d 64c3 38be
000001b0: d745 5cbd 86b4 683d 0783 6abd 76ce 91be
000001c0: 16d9 ae3d 4fd9 113e f62d 2cbe 606f 923c
000001d0: 303d 49bc 41db 0dbe 7243 a1be 90d9 cabc
000001e0: fca9 c6bd 341a d9bd 416c 7f3d 73d8 9ebd
000001f0: 71d5 88be b7d6 d8bd 2d97 2d3d c68b 0ebe
00000200: 670a cf39 e1b7 763e 7973 3a3e b53c 6a3e
00000210: 03fc ad3d 0183 a73b 7a1e 953e cfa5 023e
00000220: f223 063e 0889 78bd 97b2 7c3d 095c 303e
00000230: 961d 093e 401f 9a3e e8ce d33c 7e01 a63e
00000240: 074c 1dbd 1139 493e d87a cc3d a7e0 b93e
00000250: 1f60 533d 1f81 1f3e cdba 373e cccb 6a3e
00000260: 676b 823e 1275 6e3d 3add 103e fdd2 373e
00000270: efdc 8a3d dc66 513d b342 ad3e 2e1b 4dbc
00000280: 7a66 473e 5952 b9bc f794 a93e 8f40 8d3e
00000290: 887b 743e 0abe 3d3e 8d25 b03e 2601 143e
000002a0: 9fdc 00bc a113 273e 110c 5c3e 80ca 083e
000002b0: 00ec 733d 2ee0 eb3d f68f f13d a7b2 ae3e
000002c0: 0a54 933e 2a3d 2a3e b0fc 6e3d 4e34 ba3c
000002d0: 686e b73d c87d 953e abbe b9bc 04ea 0f3d
000002e0: fb6a 453e eebd a73e 7862 0b3e 0f00 8b3e
000002f0: 9fea d83d 8865 6f3e 5207 88bd 386a 4d3e
00000300: 7217 aabe 2467 b63b 8443 803b 32c7 bbbd
00000310: d3b0 1cbe e868 9abe 97ae 933d 811f 7dbe
00000320: de41 8a3d 5ab8 5bbe 1030 95be 1f22 223d
00000330: f320 13bc 2542 3bbc 6d94 17be 92a3 8ebe
00000340: d6d4 97be 7831 17bd 22cf 0b3a a266 1fbe
00000350: 9a31 89be e955 59be 2904 91be 0fd7 a4be
00000360: adf8 34bd b379 d1bd 7f30 a7be 331e 5abd
00000370: 76f6 8dbe 7245 36bd d7fe 03be 0b8e 95be
00000380: 3c2e aabc 0229 acbe 6c9d 89bd bb0c debc
00000390: 742e 8fbe 1edd 943d 55ea 6cbe 3ca9 4ebe
000003a0: a007 883d 75e7 07be d3b0 9bbe 6252 92be
000003b0: 4995 97be 6536 e63c fd01 013c a096 8abc
000003c0: 6728 84be 534a 9dbe 2496 5dbe 72d7 3cbe
000003d0: 4a09 13bd 2121 01be 67a0 58bb 954b a9be
000003e0: 5311 84be c76f c83c 5199 5dbe 5897 9e3c
000003f0: 2d31 8c3d 6e19 a0be 1259 1abe 9801 a7be
0.19588101 -0.20208457 0.1556836 0.06650255 0.3300404 0.35479978 -0.083648495 0.10867688
-0.13076837 0.20261005 0.20450097 -0.052520346 0.11870882 0.20503958 0.2809551 0.33103284
0.14526224 0.30486727 -0.31853923 -0.010981785 0.23057784 -0.115343206 0.32069138 0.17846528
0.16904359 0.25267527 0.036894415 -0.31223947 0.22687916 0.21498126 0.17182933 0.1537542
-0.02620449 0.051254455 -0.068659574 -0.06137172 0.15083063 0.0743475 0.24378423 0.2814451
0.1456359 0.11148231 0.08532823 0.15424122 -0.01985116 0.012570215 0.32642704 0.039170228
-0.062136915 -0.18582608 0.34679592 0.13004103 0.0057762126 -0.042546105 0.005551408 0.19323626
0.09275153 0.3003069 -0.08856533 -0.024018116 0.15828301 0.18159898 -0.1465368 0.08565446
-0.24675654 0.2552627 0.04514034 -0.3397774 -0.2607725 -0.24493916 -0.16799317 0.07048351
-0.010774302 -0.23967442 0.031990036 0.02966618 0.005079798 -0.06654011 -0.27593046 -0.19876146
-0.20588075 -0.30075705 0.19990365 -0.025789186 0.001272091 -0.029081218 -0.057360444 -0.16898216
0.0072066216 -0.07320629 -0.17327295 -0.021949647 -0.20744708 -0.24462895 -0.23249039 0.05806132
0.19336243 -0.12832458 0.0022543273 -0.26748383 -0.02554559 -0.07581835 -0.2217265 -0.118856385
-0.32225597 -0.06106296 0.04125865 -0.18043286 -0.053777542 0.056812786 -0.057253864 -0.2847783
0.085374996 0.14243053 -0.16814408 0.017875373 -0.012282655 -0.1385317 -0.3149677 -0.024761945
-0.09700391 -0.10600701 0.0623591 -0.07756128 -0.26725343 -0.105878286 0.0423805 -0.13920507
0.00039489867 0.24093582 0.18208112 0.2287472 0.08495333 0.0051120524 0.29124814 0.12758563
0.1309965 -0.06067756 0.061693754 0.17222609 0.13390192 0.30101967 0.025855497 0.32423013
-0.038402583 0.19650675 0.09984368 0.3630421 0.05160534 0.155766 0.17942353 0.22929305
0.25472566 0.058217116 0.14146891 0.1795158 0.06780421 0.051123485 0.3383995 -0.012518687
0.19472685 -0.022622274 0.33121464 0.27588317 0.23875248 0.18529525 0.3440365 0.14453563
-0.0078651 0.16316082 0.21488978 0.13358498 0.05955124 0.11517368 0.117950365 0.34120676
0.28775054 0.16624895 0.05834645 0.022730019 0.08956605 0.29197526 -0.022673925 0.035135284
0.19279091 0.32762092 0.13611782 0.27148482 0.105916254 0.23378575 -0.06642021 0.2006005
-0.33221012 0.0055664945 0.0039142985 -0.09168853 -0.15301828 -0.30158162 0.07211035 -0.24719049
0.067508444 -0.21457043 -0.2913823 0.03958332 -0.008980024 -0.011429344 -0.14802714 -0.2785917
-0.29654568 -0.03691241 0.00053332944 -0.15566495 -0.26795655 -0.21224178 -0.28323486 -0.32195327
-0.04418247 -0.102282904 -0.32654187 -0.053251456 -0.27727097 -0.044499822 -0.12890182 -0.29209933
-0.020774 -0.33625036 -0.06719479 -0.02710568 -0.27965128 0.07268737 -0.23136266 -0.20181745
0.06642079 -0.13271888 -0.30408344 -0.28578478 -0.29606083 0.02810211 0.007874009 -0.016917527
-0.25812075 -0.30720767 -0.21639305 -0.18441561 -0.03589753 -0.12610294 -0.0033054592 -0.33065477
-0.25794467 0.024467362 -0.21640517 0.019359276 0.06845317 -0.312694 -0.1507304 -0.32618403

encoder.dcrnn_cells.0.update.weights_pool f4 [2, 2, 65, 64]
00000000: 9bb4 16be bf40 9238 0493 023e e92c 0dbe
00000010: e9ea f53d 79a3 15be b3c6 2d3d 6432 013e
00000020: 11a3 a1bb 12cd c03d cd51 f63d fcbf f6bd
00000030: 47bc 0fbe d1c8 fdbd a139 28bd 13f8 a3bd
00000040: 3e81 17be 0f4c 0a3e 5e36 03bb 184f cdbb
00000050: a1c8 123e d168 c83a 6ae2 15be 393b 943d
00000060: 2368 a8bd ae58 153e 29ba 573c 059f 03bd
00000070: 261c 063e 3832 043e 7121 d23d a753 2d3d
00000080: b38a 3f3c 9101 5dbc 855a ec3c 9bc9 1d3e
00000090: 957b 013e 6f58 033e deb2 133e 858d d7bd
000000a0: f7f2 833d dfa8 2abd 8883 f6bd 4a2c 08be
000000b0: 73b3 a83d 53ab 1dbe 7a04 9fbd ee10 14be
000000c0: efea 913d 7ae4 283c cfb4 113e 8bb5 14be
000000d0: 35cb 143d fab7 debd 00c6 0c3e 9577 04be
000000e0: 4ecb f73d 28f1 14be 4814 94ba 4335 243d
000000f0: d680 0a3e 628e 0d3e 9abb 343c 2f89 17be
00000100: 1453 123e ca08 09be eef3 01be e905 093e
00000110: c397 fbbd cc5e 173e 5d68 0ebe 6eed 11be
00000120: 10f3 f1bd 4f34 01be a407 18be 4935 f63d
00000130: d7c6 143e 8998 fc3d 158d 063e 60de 0b3e
00000140: dc28 063e 9305 0dbe 7317 dcbd e49e e23d
00000150: 0a81 0abe 9db6 e0bd 8fac 153e fa57 00be
00000160: 3d77 063e df0f 05be 9469 ddbd 5aa5 b4bd
00000170: a7ed 01be b6b5 fcbd fb6b febd 3b5f efbd
00000180: 5581 f0bd 14dd 033e 7825 06be 3b22 0cbe
00000190: 4715 03be 21f7 0abe 0e98 14be d93f 003e
000001a0: 6fac 1bbe 8977 e83d c9ba f43d f508 033e
000001b0: 2eb3 16be 7ca2 193e 1a5e 0f3e cffd 0b3e
000001c0: 81cf 16be 4893 f7bd 1df8 0fbe 7845 093e
000001d0: 8d23 f2bd 2ec2 093e 9c81 04be 21e0 143e
000001e0: eaa1 04be 1dbf 043e 8e3c b43d 22d1 d83d
000001f0: e3d3 0dbe 3761 0bbe 9464 b83d dc21 143e
00000200: d640 10be d192 33be c060 243e 1c4e 17be
00000210: d28a 263e 8b14 16be 3c9a 61be f60b 4c3e
00000220: 1352 31be 7a9d 293e a950 173e 7e7b 1fbe
00000230: 87bc 57be 3740 32be fa97 623e 0f51 11be
00000240: 1001 18be 56a2 2f3e 4ca1 28be 3297 353e
00000250: 1f8e 213e 4d0a 28be 60e5 31be 948b 473e
00000260: 3b26 07be 6015 0b3e 59bb 59be 3ea7 1dbe
00000270: b6b7 3e3e 1f23 243e e39a 173e ffc8 43be
00000280: c6ee 32be 0e82 413e 83f3 28be 960b 403e
00000290: 6c69 4f3e db0b 323e f31d 4d3e 9443 12be
000002a0: 9344 393e 6c7d 5b3e 50a3 4cbe a3e9 27be
000002b0: ec19 513e c418 29be f77e 4bbe 334a 17be
000002c0: 6240 363e 538a 27be 4885 213e 5130 25be
000002d0: b9e6 2cbe a4f1 1fbe 89a0 1d3e 42f1 48be
000002e0: 5954 253e 5663 64be 8c91 1b3e 8783 283e
000002f0: c767 253e f2c2 463e fd68 2f3e 3da6 28be
00000300: 76f7 13be 7a7d 073e 497f 183e 44c8 19be
00000310: d977 0d3e 2f4f 04be 6ff4 093e b379 193e
00000320: fbaa fb3d f673 103e ddf0 f43d 220a 04be
00000330: 8701 19be a241 1abe 24ea f8bd 1956 19be
00000340: 49d8 10be c8b5 fd3d 79bc fd3d cae6 0abe
00000350: b425 163e 1f24 e93d df09 13be c032 183e
00000360: 10e6 10be 8b9d 093e a801 f63d 7e60 e63d
00000370: 08eb 193e 99a4 fd3d b715 093e b017 1d3e
00000380: ea52 063e a52b 19be b330 1f3e e7ce 183e
00000390: 1ef4 073e c401 ef3d 17a4 063e f0e6 09be
000003a0: 73c1 f43d 01b4 f6bd 5515 12be fe11 f8bd
000003b0: b25a f83d 35ac 01be dc52 16be 9fb0 01be
000003c0: 82ec 123e 63d9 173e aa03 003e 0e57 f0bd
000003d0: e083 123e c0d0 12be 83c9 073e fd35 0ebe
000003e0: e741 0d3e bb8c 02be 0bfb fbbd 11b6 dabd
000003f0: e641 1a3e 1e5b f73d dbee f6bd 7c25 17be
-0.14717333 6.9738824e-05 0.12751395 -0.13786663 0.12007696 -0.14613141 0.042425822 0.12616879
-0.004932769 0.09414114 0.12027321 -0.12048337 -0.14036666 -0.12391818 -0.041070584 -0.08006301
-0.14795396 0.13505577 -0.002002142 -0.006265532 0.14334346 0.0015290027 -0.14637151 0.07237858
-0.082229875 0.1458461 0.013166943 -0.032134075 0.13096675 0.12909782 0.10260285 0.042316105
0.011690783 -0.013489143 0.028851757 0.15408938 0.12644799 0.12826703 0.14423701 -0.105250396
0.06442826 -0.041664954 -0.12036806 -0.13298145 0.08237352 -0.15397386 -0.07764526 -0.14459583
0.07124888 0.010308379 0.14229129 -0.14522378 0.036326606 -0.108749345 0.13747406 -0.12936242
0.12099324 -0.14545119 -0.0011297548 0.040089857 0.1352571 0.13823846 0.011031056 -0.14798425
0.14289504 -0.13382259 -0.12690708 0.13381161 -0.122848056 0.14782256 -0.13906999 -0.14250728
-0.118139386 -0.1261761 -0.14846665 0.12021882 0.14528976 0.12333781 0.13139756 0.13659048
0.13101524 -0.13771658 -0.1074666 0.11065462 -0.13525787 -0.10972331 0.14616607 -0.1253356
0.13131423 -0.12994336 -0.10811153 -0.08820601 -0.12688313 -0.12339346 -0.124229394 -0.11688086
-0.11743418 0.12877303 -0.1310023 -0.13684933 -0.12801085 -0.13570835 -0.1451113 0.12524356
-0.15202497 0.113509245 0.11949689 0.12796386 -0.14716789 0.15003389 0.1400074 0.13671039
-0.14727594 -0.120886385 -0.14059491 0.13405406 -0.11823187 0.1345298 -0.12940067 0.14538623
-0.1295239 0.12963529 0.088006124 0.10586764 -0.1385036 -0.13611303 0.09003559 0.14466041
-0.14087233 -0.17536475 0.16052532 -0.1477589 0.16263893 -0.14656274 -0.22031492 0.19926438
-0.17316465 0.16563979 0.14776863 -0.15574452 -0.21068011 -0.17407309 0.22128287 -0.14191078
-0.14844155 0.1715177 -0.1646778 0.17733458 0.15776871 -0.1641018 -0.17372656 0.19486839
-0.13198178 0.13582373 -0.21262874 -0.15395829 0.18624768 0.16029023 0.14805178 -0.19119643
-0.17473897 0.18897268 -0.16499142 0.1875442 0.20255059 0.17387335 0.20030956 -0.14283592
0.18092565 0.21434563 -0.19984174 -0.16397719 0.20420045 -0.16513354 -0.19872652 -0.14774399
0.17797998 -0.1636136 0.15773499 -0.16131712 -0.16884889 -0.15619522 0.1539327 -0.19623283
0.16145457 -0.22303519 0.1519224 0.16456424 0.16152869 0.19410303 0.17129894 -0.16469665
-0.14449868 0.1323146 0.14892305 -0.15017802 0.1381525 -0.12920831 0.1347215 0.14987831
0.12288471 0.14106736 0.119600035 -0.1289449 -0.14941989 -0.150641 -0.12154034 -0.1497425
-0.14145006 0.12388188 0.12389464 -0.13564602 0.1466282 0.11383843 -0.14359234 0.1486311
-0.14150262 0.13439004 0.12012035 0.11248873 0.15031064 0.1238491 0.1338719 0.15341067
0.13117567 -0.14958055 0.15545921 0.14922677 0.13276717 0.11670259 0.13148533 -0.13467002
0.1195096 -0.12046052 -0.1426595 -0.12112807 0.12126674 -0.12663348 -0.14680046 -0.12665032
0.14348033 0.1482902 0.12501398 -0.11735354 0.14308119 -0.14337444 0.13260464 -0.13887782
0.13794671 -0.12748997 -0.12303742 -0.10679258 0.15064201 0.12077926 -0.12057277 -0.14760393

encoder.dcrnn_cells.0.update.bias_pool f4 [2, 64]
00000000: c884 99be 8c0c 3ebe 406c ea3e c7aa e5be
00000010: 92df 843e c199 afbe 7e2b bebc cceb 783e
00000020: 4bd6 c0be 80e9 a13e f0f0 e43e f6f7 72be
00000030: 0968 84be a7a1 b1be 80c4 2dbc e21b b0be
00000040: 8c72 86be d5ff af3e 11e5 c3be 43af 923e
00000050: 5e87 793e 746a 8ebe ec3e 1cbe b1a1 c93e
00000060: c1f7 dbbe 94f6 023e fc4a 0fbe 7f2d a3be
00000070: a9cd 9e3e 04b3 973e 2875 e43e 7d01 4fbc
00000080: b89b afbe 844e 7f3d 3533 b9be 0584 773e
00000090: ae9b bd3e 0522 cf3e 620c 7b3e 6939 a1be
000000a0: 946e dd3e cd38 0abc fbe4 23be 4743 98be
000000b0: 167a ad3e 5782 83be 1ce4 c9be 4d48 e7be
000000c0: abed b73e d9d6 abbe 6319 353e ac34 26be
000000d0: 0fab b8be 5139 e4be 693e 8b3e 78fc 96be
000000e0: dfef 9b3e cd35 28be 0dce 993e 653c 333e
000000f0: 961e cf3e aa9e 423e ac36 933e 084c c8be
00000100: 9d0a cebe 62e9 e13e 6bee 423e f518 c4be
00000110: 525a b63e 9ec9 80be f472 cf3e 75c0 5c3e
00000120: 671a b13e d755 60bd ba16 d63e 61b7 e2be
00000130: 7183 4ebe f91e 9dbe c7ab cabe 4b47 283c
00000140: 12a6 bdbe 3506 d83e 12db cf3e e9b9 cebe
00000150: e035 db3e 20f9 713e 6d83 a9be a0da 79be
00000160: 4a5e 753c 651c e43e 0667 dd3e a9cc 863e
00000170: 6025 673e 042b aa3e 3432 92bb 9758 8d3e
00000180: 3753 b63e 281e a7be 3791 ae3e 14a1 863e
00000190: 0fcf 393e 6292 303e 63bf 613e 3e42 81bc
000001a0: c0ce 6ebe feaf babe 3e31 1bbe 0c18 aabe
000001b0: eece 05be 5a36 78be e8dc 323e 5583 cebe
000001c0: 6878 0cbe 1c70 a63e d08b df3e 1b8d 56be
000001d0: abae d63e d9b6 f43c a04b ad3e e345 80be
000001e0: 2432 973e 0b4c 1abe c7a5 95be 0b0d 32be
000001f0: 1a03 dd3e a285 393e c911 87be a729 8ebe
-0.29984117 -0.18559474 0.45785713 -0.44856855 0.2595182 -0.34296992 -0.023214098 0.243087
-0.37663493 0.3162346 0.4471507 -0.23727402 -0.25860623 -0.34693643 -0.010605931 -0.34396273
-0.26259267 0.34374872 -0.382607 0.2864934 0.24368045 -0.27815592 -0.15258378 0.39381173
-0.4296246 0.12789375 -0.13993448 -0.31870648 0.3101628 0.29628766 0.44620633 -0.012634632
-0.3429849 0.062330738 -0.3617188 0.24171455 0.37032837 0.40455642 0.24516442 -0.31489113
0.43248427 -0.008436394 -0.16005318 -0.2973883 0.33882207 -0.2568538 -0.39431846 -0.4517235
0.35923514 -0.33562353 0.17685466 -0.1623103 -0.36068007 -0.4457498 0.27196053 -0.29489493
0.30456445 -0.16426773 0.30040017 0.17503507 0.40453023 0.19005838 0.2875265 -0.39120507
-0.40242472 0.4412337 0.19036262 -0.3830029 0.35615784 -0.25153822 0.4051739 0.21557792
0.34590456 -0.054769363 0.41814214 -0.44280532 -0.20167328 -0.30687693 -0.3958418 0.010270904
-0.37040764 0.42192236 0.40596825 -0.40376213 0.4281454 0.2363019 -0.33108082 -0.24399805
0.014976094 0.44552913 0.43242663 0.26328018 0.22572851 0.33235943 -0.004461551 0.2760665
0.35610363 -0.32640195 0.34095165 0.26294768 0.18145393 0.1724334 0.22045664 -0.015778657
-0.23321056 -0.36462396 -0.15155503 -0.3322147 -0.13067219 -0.24239483 0.17467082 -0.40334573
-0.13717806 0.32507408 0.43661356 -0.20952265 0.41930136 0.029872345 0.3384676 -0.2505332
0.29530442 -0.1506807 -0.2922804 -0.17387788 0.4316643 0.18117383 -0.26380756 -0.27766153

encoder.dcrnn_cells.1.gate.weights_pool f4 [2, 2, 128, 128]
00000000: 269e 07bd 55bc 08be 1d6d 31bd 22f2 03be
00000010: d624 01be 83fa febd 6d97 0dbe 6c55 2dbe
00000020: c0f2 5a3d 360f 0ebe a7f8 0ebe 7a01 22bd
00000030: fc7c 7c3d 6806 e0bd 7871 d2bc 4517 05be
00000040: 0548 01be 2b3c 0dbe 2261 74be 52d6 f8bc
00000050: 4fcf fdbd 4e15 1fbe 7d24 01be cce0 0dbe
00000060: 46a8 2cbd 9c0a efbd c33c 7f3d f016 6ebc
00000070: 0bc5 f1bd c081 0c3d a8fe 3dbd c17b 03be
00000080: ee40 08be 9280 1bbd cd25 02be a367 57bd
00000090: e835 42be 81d7 3bbd 935d fabd 378a 3dbd
000000a0: ce5a 05be 825f 36bd 38f4 75bd d468 10be
000000b0: 1303 05be fd75 1bbd 92d4 09be b5b8 14be
000000c0: b3aa 56be 35eb 413c 65fe f6bd 4f18 08be
000000d0: 3c46 28bd 4c71 03be a03d 02be 344b 00be
000000e0: edd1 b0bd d522 a3bd 1469 edbd 22f3 c13c
000000f0: 3caf ecbd 4a13 08be 0361 20bd 7db2 10bd
00000100: c603 143e cbd1 153e 12bf 0e3e 8712 1c3e
00000110: 9d23 173e bc9c 1a3e e168 1c3e fd36 1f3e
00000120: 724d 013e 9570 1e3e 2fc5 263e c660 0f3e
00000130: 95ad 0c3e 9dcb 2c3e a7b6 253e cb02 253e
00000140: 0bfc 223e 8c8a 1b3e 2a75 f83d 57ea 053e
00000150: 1aa9 1c3e 40fb 183e a8b4 263e 8e2a 283e
00000160: 1bcf 0f3e 70c8 203e 8e54 053e 2d73 1d3e
00000170: ae14 2d3e 6202 cd3d 90da 2b3e 9313 2e3e
00000180: 28fc 1e3e 4912 0e3e 3902 1a3e d338 183e
00000190: 4390 1e3e aaa8 0d3e 28a7 1d3e e238 0c3e
000001a0: 801e 223e d311 083e 7d13 0d3e 2e1c 1c3e
000001b0: a1a7 173e e067 063e a039 183e 60dc 193e
000001c0: c427 253e 32db 1d3e cde2 203e eaec 143e
000001d0: edfc 103e 140b 183e 0846 263e ec30 243e
000001e0: 0092 243e 7f4a 123e bc63 1b3e 73a8 133e
000001f0: e691 163e c24a 173e 20ca 163e 37c3 163e
00000200: 2a69 01be 2c14 963b 53c0 04b9 2fdb 443d
00000210: 02c9 613d 4a36 103d 409b 82bd b3dd 02bd
00000220: 8a72 efbd 5cab 2f3d 1c8d 6b3d ea28 8d3c
00000230: ce01 bdbd 8263 d73c 162c e03d 3f50 023d
00000240: 22de 373d 1faa 623d a767 d2bd dcba b7bc
00000250: ce7b 1d3d a3cf fcbc c9f8 363d fd2b 0f3d
00000260: 46fb eabc f506 acba 912d f1bd 7eba f73d
00000270: c0d4 a33a 985b 1bbe 3ffe e93d 08e8 c0bc
00000280: a717 2e3d af91 eebc 4991 163d c025 873d
00000290: 295e 5cbd a15f 8cbd ebcb c9bb 5739 a4bd
000002a0: 8ab4 333d 2dd6 21bd cf54 603d 58b5 053d
000002b0: c02d 143d 35b4 d43b 5393 3f3d bccf aebc
000002c0: f57f a6bd d095 313d d4d5 173c 3f15 2c3d
000002d0: 8165 fdbd 2be7 473d 8f8f 103d 5a49 763d
000002e0: b8c1 ec3d 7a7c a63d 8bbb 65bc 92d2 bb3d
000002f0: 905f 853d 1760 543d 019c 0abe b2f1 1dbe
00000300: 409b a43d 3388 043e 33f8 963d 7e3d f03d
00000310: b12d ce3d c77f cd3d f728 063e d90d 093e
00000320: 9ee3 be3d 08d0 dc3d dcca df3d 9023 953d
00000330: e405 c73d 600d 073e 6fb5 d03d 491d d63d
00000340: 5837 d13d a916 e83d 64ff d43d cd15 9f3d
00000350: de20 e53d 2847 003e bdf5 da3d 36fe e53d
00000360: 71cd 9d3d 5635 033e 862f c63d afee d23d
00000370: 0569 f63d 7cd7 e63d 718f ec3d 6227 e93d
00000380: bfc2 dc3d 94dc 903d 3df0 ea3d fdf4 9f3d
00000390: 933b 8c3d b1ff 9f3d 7038 f13d 1ab5 8f3d
000003a0: 29d8 ef3d 254e b23d 4717 a83d ed5b ec3d
000003b0: 135a ee3d 21e8 aa3d 531d d83d 7895 053e
000003c0: c62e f1bb 7850 a93d 66e9 023e dac6 da3d
000003d0: fd61 a73d 3e46 d93d 459b e33d 9e8b dd3d
000003e0: 59ac c93d 5bcf c53d 82fd f33d 47e0 d83d
000003f0: 4149 ec3d 9d39 d33d 679e a23d c7d9 ae3d
-0.033109806 -0.13353093 -0.04331695 -0.12885335 -0.12611708 -0.12450125 -0.13827296 -0.16927117
0.05345416 -0.1387299 -0.13962041 -0.03955219 0.061642632 -0.10938722 -0.025688872 -0.12997158
-0.1262513 -0.13792484 -0.23865178 -0.030375633 -0.123930566 -0.15535471 -0.12611575 -0.13855284
-0.042152666 -0.116719455 0.062313806 -0.014531836 -0.11805161 0.034303427 -0.046385437 -0.12840177
-0.13306019 -0.03796441 -0.12709732 -0.05258907 -0.18965876 -0.045859817 -0.12224879 -0.04627439
-0.1302292 -0.044524677 -0.06004736 -0.14102489 -0.12989454 -0.03795432 -0.13459995 -0.14523585
-0.20963554 0.011835863 -0.12060241 -0.13290523 -0.041082606 -0.12836188 -0.1271882 -0.12528688
-0.0863379 -0.07965628 -0.11592308 0.023675505 -0.11556861 -0.13288608 -0.039155018 -0.03532647
0.14454564 0.14630811 0.13940075 0.15241443 0.14759679 0.15098852 0.15274383 0.1554832
0.126272 0.15472634 0.16286157 0.1400176 0.13738091 0.16874547 0.16182958 0.16114347
0.1591646 0.1518957 0.12131722 0.13077675 0.15298882 0.14939594 0.16279852 0.16422483
0.14043848 0.15701461 0.13020536 0.15375967 0.1690242 0.1001022 0.16782594 0.16999654
0.15525877 0.13874163 0.1503991 0.14865427 0.15484719 0.13833871 0.15395796 0.13693574
0.15831947 0.1328805 0.13776965 0.15245125 0.14810039 0.13125563 0.14865732 0.15025473
0.1612845 0.15415648 0.15711518 0.145435 0.14158984 0.14847976 0.16237652 0.16034287
0.1607132 0.1428623 0.15174764 0.14419727 0.14704093 0.14774612 0.14725542 0.14722906
-0.12637773 0.0045800414 -0.00012660147 0.048060592 0.055123337 0.035208024 -0.06377268 -0.03194971
-0.116917685 0.04288803 0.05750762 0.017231423 -0.0922886 0.026292566 0.10945909 0.03181481
0.044889577 0.05533802 -0.10273676 -0.022427969 0.038448147 -0.030860728 0.044670854 0.03495406
-0.02868427 -0.0013124632 -0.11776269 0.120961174 0.0012499318 -0.15171659 0.11425447 -0.023548141
0.042503025 -0.029122202 0.03675965 0.06598997 -0.053800736 -0.06854177 -0.006158342 -0.08018749
0.043873347 -0.039510895 0.05476838 0.032643646 0.036176443 0.006491209 0.04677136 -0.02133929
-0.081298746 0.043355763 0.009267289 0.04201245 -0.12372876 0.048804443 0.03529316 0.060128547
0.115603864 0.08129211 -0.0140217645 0.091710225 0.06512368 0.05184945 -0.13536073 -0.1542423
0.08037424 0.12942581 0.07371559 0.11730479 0.10067309 0.10034137 0.13101564 0.13384189
0.09320758 0.10781866 0.10927364 0.07282174 0.097179204 0.13188696 0.10190856 0.104548045
0.10215634 0.11332447 0.104002744 0.0776783 0.111879095 0.12527144 0.10691402 0.112301275
0.077052005 0.12813315 0.09677033 0.102994315 0.1203175 0.11271569 0.11550797 0.11384465
0.10779332 0.07073322 0.11471603 0.078104 0.068473004 0.07812441 0.11778343 0.07016964
0.11711151 0.08706311 0.08207565 0.11540971 0.11638274 0.08345056 0.10552468 0.13045299
-0.007360312 0.08267301 0.12784347 0.10682459 0.08172987 0.10609101 0.111136 0.108176455
0.09847326 0.096586905 0.11913587 0.105896525 0.115374096 0.10313723 0.07940369 0.085376315

encoder.dcrnn_cells.1.gate.bias_pool f4 [2, 128]
00000000: 1af2 6fbe 9a76 233e ff38 653d 42bc 913e
00000010: fa2a 073e 6103 713e 9188 a43e d20b 783e
00000020: d780 613d 1316 b9bd 38fd 193e a431 aabd
00000030: 2639 e63d 6e9b 9d3c b67c 0fbe f4bf 3e3e
00000040: a53a 543e f98a 053e 80ec 8abd 6051 b23d
00000050: f34e 8c3e a2d9 8e3e 36b2 0b3e 1d16 113d
00000060: acd9 babd a36f a53e 2c32 983c 43ad bb3c
00000070: e6c3 b83d 1285 8fbe 8277 fa3d eddc a03d
00000080: 40bb 063e 4fc5 0a3e 7e51 843e cc29 8ebd
00000090: 43b1 1f3d 82d5 233e 7fb6 d53d 18d1 8b3d
000000a0: 8d79 c83c 602b 21be d380 423e de23 633e
000000b0: 3837 de3d be29 f1bc ec10 8c3e e93b cfbd
000000c0: 0432 093e b94e 13be dddc 4b3e 8bc5 de3b
000000d0: 3308 3f3c 7b29 773e 9257 ac3d 28d5 153d
000000e0: 9bab a9bd a290 823e ab85 9f3b 3683 a4bd
000000f0: 0623 fbbc d499 113b 8318 ad3c b55b 653d
00000100: 19eb 11be da8e 8abe 7c57 d5bc 1aa5 a0bd
00000110: e14e 5abd 9281 b73d 4833 b53d 0c24 f6bd
00000120: 62dd a63c 64d7 05be 2443 9cbe 4de7 90bc
00000130: add2 18be 1f35 31bc 11eb ee3d 0584 11be
00000140: c72f 14be 3352 9fbd 663d 473d 6193 943b
00000150: f0b3 49be b30f a13c aa05 38be a344 27bc
00000160: e39d 38be a36f 5ebe 44f3 1f3e 6ac0 c9bc
00000170: a999 fb3c 7308 1b3e 25e5 783d e5b8 793d
00000180: 5f20 ee3d 1740 f3bc 25f0 98bd b0eb 10be
00000190: 963c 87be 0925 80bd 3017 b43d f2c6 6dbc
000001a0: eb44 ad3d 8785 06bb 031a 4fbe 4bb9 5cbe
000001b0: 0e77 883d f34b dc3d ce01 1fbe 1533 29bd
000001c0: 315e 5cbe e55c da3d 2cf4 75bd 495a 44be
000001d0: f03e 95bd ae92 353d 1277 c8bd 9268 04be
000001e0: 8b69 4a3d f56f 08bd e17f 32be dba9 19be
000001f0: 28a9 0bbe 05f2 74be 7e9f d73d 0369 27be
00000200: c3fb 913d 100d 943e b696 adbd 1e5a 023d
00000210: b35f c4bd fae7 0d3d 674c 663d 0b96 123e
00000220: f33c fb3d b563 8e3e c170 743c 4c02 803e
00000230: 6b1d d7bb 4a38 8b3d f3be ee3d a1ae f23d
00000240: 7e57 a43b 4943 3abd e8ca 1c3e 27db a13e
00000250: e2ad 843e 61ba 24bd f69d 32bd 242f 0d3d
00000260: 70a3 4c3e 838f 973d 1961 1a3e 971a 61be
00000270: aa60 1e3e 1404 dfbd e1a9 8cbc c4cd 1b3e
00000280: 192e 663e c69b 963e 5520 693e b898 913e
00000290: 0d25 be3d b781 263e 6c7e 86bb c26f 723e
000002a0: 67fb 243e e1cd 89bb 5ccb aa3e 9f9d ee3d
000002b0: a59b 553d 0ac2 943e 3347 fd3d 01b0 7f3e
000002c0: 1251 09bd 4ae2 163e db7a 93bd 7509 0c3e
000002d0: 71d4 183e 3ef0 8e3d 2e44 4f3c f8ad 2a3e
000002e0: 9dcc 413e 175f 963e 560c 3f3e 5743 b8bd
000002f0: 21f8 8d3e 7d0d 343e 4afc 493e 3e1a 683e
00000300: f24f 91be 39ab d43d 48f2 bc3c 87a3 4bbe
00000310: 04ee 593d f645 073c b307 29bd 3851 083c
00000320: 19c2 18be f44c 2bbe 6996 a0be d3e9 92be
00000330: fc87 88be 5272 7cbe 7b99 a13d cd56 ad3b
00000340: 129e 46be f2f9 36be 1533 24be 59ea c83d
00000350: 1445 4dbe 8f8e cd3d 9b5d 993d 3e25 f6bb
00000360: 8d53 86be 7dc9 813d 3667 a73c b57a a13d
00000370: 220d 1bbd d171 5f3d 5b08 28be 17c0 f03c
00000380: 1812 f0bd 79e4 06be b463 2ebe d9c7 4ebe
00000390: ae67 b73d 58b2 27be 6f1f 473d 4e3c 3dbe
000003a0: bb27 60be fa53 ac3d 8ee9 db3b 5542 82be
000003b0: cc61 81bd da81 30be 0b8e 33be 8f77 28bc
000003c0: e5cf 9cbe fc0f 37be 2147 42bc 42ea f5b9
000003d0: 517e b7bd 5f3a 8dbe 8f84 b13c d781 8bbe
000003e0: 3f3f cdbd 1413 bfbd 4156 dfbd 5cf3 9bbd
000003f0: b072 903d 6099 94be 823d 6dbd ab37 68be
-0.23432198 0.15963212 0.05596256 0.28463942 0.13199988 0.23536445 0.32135442 0.24223259
0.055054512 -0.090374134 0.15038002 -0.083102494 0.11241369 0.019239154 -0.14012417 0.18627912
0.20725496 0.13041295 -0.0678339 0.08706927 0.27403983 0.27900416 0.13642201 0.03542148
-0.09123549 0.32311735 0.018578611 0.022909766 0.0902174 -0.28031212 0.122298256 0.07854638
0.13157368 0.1355183 0.25843424 -0.06941566 0.03898741 0.15999416 0.10435199 0.06826991
0.024472022 -0.15739202 0.18994455 0.22181651 0.10850376 -0.02943885 0.2735666 -0.10118849
0.13397986 -0.14385499 0.19908471 0.0067984513 0.01165967 0.24136917 0.0841514 0.036580235
-0.08284684 0.2550097 0.0048682294 -0.08032839 -0.030656349 0.0022216933 0.021129852 0.05599566
-0.14249839 -0.27062112 -0.026042692 -0.078439906 -0.05329788 0.089602605 0.08847672 -0.12018594
0.020369235 -0.13070446 -0.30519974 -0.017688418 -0.14924116 -0.010815888 0.11665929 -0.14210518
-0.1447135 -0.0777935 0.04864254 0.0045341705 -0.19697547 0.019660806 -0.1797091 -0.010209235
-0.18028979 -0.21722274 0.15620142 -0.024627883 0.03071292 0.15139942 0.060765404 0.060967345
0.11627268 -0.029693646 -0.07467679 -0.14152408 -0.2641341 -0.06257064 0.08793485 -0.014512764
0.08460411 -0.0020526366 -0.20224766 -0.21555059 0.06663333 0.10756674 -0.15528032 -0.04130848
-0.21520306 0.106622495 -0.060047314 -0.19175066 -0.07287395 0.044329338 -0.09788336 -0.12930515
0.04941706 -0.033309896 -0.17431594 -0.15006201 -0.13638747 -0.23920448 0.105284676 -0.16348653
0.07128098 0.28916216 -0.084760115 0.031824224 -0.09588566 0.03464506 0.056225207 0.1431505
0.122674845 0.27810445 0.014919461 0.25001752 -0.006564786 0.06797846 0.116575144 0.11849714
0.0050153127 -0.045474324 0.15311778 0.31612512 0.25913912 -0.040216807 -0.043607675 0.034468785
0.19984221 0.074004196 0.15076102 -0.219828 0.15466562 -0.1088945 -0.017170848 0.15215212
0.22478522 0.2941572 0.2276624 0.28436828 0.092844106 0.1626042 -0.004104426 0.23675445
0.16111527 -0.004205451 0.33358276 0.116511576 0.052150387 0.2905429 0.12367096 0.24969484
-0.03352458 0.1473476 -0.07201167 0.13675483 0.1492479 0.06979416 0.012650533 0.16667926
0.1892571 0.29369423 0.1865705 -0.08997219 0.2772837 0.1758327 0.19725147 0.2266626
-0.28381306 0.10384221 0.023064747 -0.198866 0.053205505 0.008256426 -0.04126711 0.008320145
-0.14917792 -0.16728574 -0.31364754 -0.2869402 -0.26666248 -0.24652985 0.07890602 0.0052898885
-0.19396237 -0.17868784 -0.16035111 0.09810323 -0.20045882 0.100369565 0.07488557 -0.007511764
-0.2623562 0.06337259 0.020434957 0.07884733 -0.03785432 0.054551903 -0.16409437 0.02938847
-0.11722201 -0.13173093 -0.17030221 -0.20193423 0.08955322 -0.16376626 0.04861396 -0.18480036
-0.21890156 0.08414455 0.0067111915 -0.25441232 -0.063174814 -0.17237034 -0.17534654 -0.010282411
-0.3062736 -0.17877191 -0.011857779 -0.00046904577 -0.0895964 -0.27583596 0.021669654 -0.27247497
-0.10021829 -0.09329811 -0.109051235 -0.076147765 0.07053125 -0.29023266 -0.057919987 -0.22677486

encoder.dcrnn_cells.1.update.weights_pool f4 [2, 2, 128, 64]
00000000: ef4d 72be 2e75 52be dfdf 5bbe 92da 5dbe
00000010: 80f2 613e 247e 64be 23a8 6abe 614a 4ebe
00000020: f8e1 763e 2d1e 663e c8b8 523e 6fa3 6ebe
00000030: 8d19 823e 603d 673e 4739 7c3e 3dc5 5abe
00000040: 13f3 62be 2008 67be 5e37 503e a6b6 6f3e
00000050: fac2 643e 344f 42be b086 5ebe 61b7 663e
00000060: edaf 7b3e 3fb8 5b3e e670 82be c040 82be
00000070: 8463 60be bd3f 74be 5f5a 6a3e c1df 6ebe
00000080: a7e7 4ebe f286 6c3e 824b 513e 4182 643e
00000090: b57b 3b3e 465f 68be e975 613e 56c6 78be
000000a0: 7bc4 65be db68 6f3e abd5 5bbe 184c 5b3e
000000b0: ad35 533e d029 633e 76ee 553e 307f 4fbe
000000c0: 15c6 44be 4bfb 73be a664 70be a9ea 56be
000000d0: eb2f 6abe 8fd9 623e 8497 4ebe 5add 573e
000000e0: 04b9 683e f4aa 63be 4efb 653e 6add 763e
000000f0: fbd6 5bbe b308 5c3e 3ebc 74be 113a 7e3e
00000100: db9c 71be 6f86 7ebe 02cf 68be e90b 81be
00000110: 8c72 873e 5c77 85be a4d7 8bbe 72bb 68be
00000120: b704 6e3e f22d 8c3e 561d 863e 2e5e 6abe
00000130: 7526 733e a8d0 863e f863 7e3e da10 84be
00000140: 75dd 82be 5add 89be 2d2f 103e 8784 743e
00000150: ddbf 823e b5d2 80be 4ba2 7fbe d9ec 8b3e
00000160: 4358 673e 2f8b 853e 7c50 63be d95d 81be
00000170: efec 88be 3b51 84be 7a06 803e d37b 83be
00000180: 13d5 8abe 33f1 6c3e bd00 883e b765 783e
00000190: dda3 6a3e 286c 65be 019d 873e eef3 6bbe
000001a0: 872e 8abe ac8b 6f3e 65a6 6ebe a5c7 813e
000001b0: 3b5e 8a3e 2e74 7c3e d1da 833e 0f6d 7fbe
000001c0: 0d80 31be ef1d 7abe 9a63 81be 2e1e 85be
000001d0: a718 6bbe d175 7e3e 7514 8cbe 7fdb 7f3e
000001e0: aa71 813e 73c3 7abe 19bf 853e dffb 6c3e
000001f0: 4f98 87be 9015 833e c4f5 60be 80b9 633e
00000200: b47c 5a3e 894a 4e3e 92f6 563e f1c2 643e
00000210: 1d59 4fbe 5a1c 643e d792 5a3e 5dc8 333e
00000220: 5768 80be 4f58 4cbe 736e 54be 5a96 643e
00000230: fb2c 6dbe 0140 54be 3640 67be a7d8 533e
00000240: a758 613e 016c 543e 35e8 4bbe 310b 61be
00000250: c44c 57be e92d 3a3e eb42 523e e825 5abe
00000260: 5c44 5abe 5596 56be fa37 713e 24e2 673e
00000270: 4f0e 5f3e 36c9 663e a4af 76be d3f9 533e
00000280: d65e 563e 1cba 70be 1757 5dbe cd0f 66be
00000290: e00a 2bbe ade8 6f3e cdf1 60be b6dd 6a3e
000002a0: fe32 4f3e b8a8 71be 6fd9 6c3e de5d 4bbe
000002b0: 8ad7 5bbe 4fa3 6dbe 9bbe 52be 869f 4e3e
000002c0: 9f4b 333e 47b7 6b3e 042b 633e da68 633e
000002d0: 14fe 613e d2fc 4fbe b27f 4c3e 977a 59be
000002e0: b5b1 60be 3c7b 5c3e 3ad3 54be 33e3 6abe
000002f0: 423e 603e 9f71 60be e569 753e 4999 77be
00000300: 6371 5ebe f835 42be a79c 4bbe 8240 5dbe
00000310: 3aa9 5d3e 6d41 4cbe b676 4cbe 3db3 35be
00000320: dbfa 6a3e bae6 413e 16ea 593e c0f6 51be
00000330: 7f61 7a3e 7123 593e afba 6c3e 56fb 59be
00000340: 3ca7 4bbe bdd7 51be 45d4 3c3e 32c1 6d3e
00000350: b5c0 463e fd77 33be 7628 46be 7154 4b3e
00000360: ec9b 683e a8bc 503e 488e 7abe d55e 5ebe
00000370: a1e3 64be 820d 67be 159d 6b3e 5c3c 56be
00000380: 158f 46be c466 5d3e 6be2 533e eed8 583e
00000390: 1a5c 233e b067 64be 1ee6 513e b7f9 6fbe
000003a0: d1f0 4fbe 8c4a 5b3e f220 4fbe 6237 563e
000003b0: 4171 453e d6b3 563e 594f 443e c687 48be
000003c0: d188 25be 44a3 5dbe f515 53be d4bd 59be
000003d0: b68f 6dbe 1976 453e 5d44 5dbe bee4 583e
000003e0: c235 553e b4e1 60be 8246 5b3e d0e1 663e
000003f0: 0cd7 4fbe bf14 5e3e ce37 6fbe 75c1 5e3e
-0.23662542 -0.20552513 -0.21472119 -0.21665409 0.22065163 -0.22313744 -0.22915702 -0.20145561
0.24109638 0.22472449 0.20578301 -0.23304532 0.2541012 0.22582006 0.24631225 -0.21364303
-0.22163038 -0.22561693 0.20333621 0.23409519 0.22340003 -0.18975526 -0.21731067 0.22530891
0.24578829 0.21457003 -0.2547676 -0.25440025 -0.21912962 -0.23852439 0.22886036 -0.23327543
-0.20205556 0.23098353 0.2043896 0.22315313 0.18308909 -0.22692594 0.22017635 -0.24294409
-0.22438233 0.23379843 -0.21468227 0.21415746 0.20625944 0.22183919 0.20891747 -0.20263362
-0.19216187 -0.2382633 -0.23475894 -0.20987953 -0.22869842 0.22153305 -0.20174986 0.21080533
0.22726828 -0.22233182 0.22459146 0.241079 -0.21468727 0.21487693 -0.23899934 0.24826838
-0.23594992 -0.2485597 -0.22735217 -0.252044 0.2645458 -0.26067626 -0.27312958 -0.22727755
0.23243986 0.27378803 0.26194257 -0.22887489 0.23745139 0.26331067 0.24842823 -0.25794107
-0.25559583 -0.2692669 0.14080496 0.2387868 0.25537005 -0.25160757 -0.24964254 0.27329138
0.22592263 0.2608275 -0.22198671 -0.25266913 -0.26743266 -0.25843224 0.2500494 -0.25680408
-0.27115688 0.23138885 0.26563063 0.24257551 0.22914071 -0.2240454 0.26486972 -0.2304227
-0.26988623 0.23393124 -0.23305662 0.2534763 0.27025017 0.24653694 0.2575288 -0.24943946
-0.17334004 -0.24425481 -0.25271302 -0.25999588 -0.22958623 0.24849631 -0.27359357 0.24986075
0.2528203 -0.2448862 0.26122358 0.23142956 -0.2648339 0.25602388 -0.21968752 0.22238731
0.21336633 0.2014562 0.20992497 0.22339989 -0.20248838 0.2227644 0.21345077 0.17556901
-0.25079605 -0.19955562 -0.20745258 0.2232298 -0.2316169 -0.2072754 -0.22583088 0.20688115
0.22006474 0.20744325 -0.19912799 -0.21976925 -0.21025378 0.18181576 0.2053334 -0.21303523
-0.2131514 -0.20955785 0.2355651 0.2264486 0.21782802 0.22537693 -0.24090439 0.20700769
0.20934615 -0.23508495 -0.21615253 -0.22466965 -0.16703367 0.23428603 -0.2196724 0.22936139
0.20234296 -0.23599517 0.2312982 -0.19860026 -0.2146894 -0.23206829 -0.20580523 0.20178041
0.17509316 0.23019134 0.22184378 0.22207966 0.2206958 -0.20311287 0.19970587 -0.2123817
-0.2194279 0.21531385 -0.20783702 -0.22938232 0.2189875 -0.21918343 0.23966177 -0.24179567
-0.21722941 -0.189659 -0.19883977 -0.21606639 0.21646586 -0.19946833 -0.1996716 -0.17744155
0.22947256 0.18935671 0.21280703 -0.20504284 0.24451254 0.21204926 0.23118089 -0.21287283
-0.19888014 -0.20492454 0.1844035 0.2321823 0.1940945 -0.1752624 -0.19351372 0.1985643
0.2271573 0.20384467 -0.24468338 -0.21715863 -0.22352459 -0.22563747 0.23009141 -0.20921463
-0.19390519 0.21621233 0.2069184 0.21176502 0.15953103 -0.22305179 0.20497939 -0.23435102
-0.20306708 0.21415156 -0.20227411 0.20919564 0.19281484 0.2096704 0.19170894 -0.19583043
-0.16165473 -0.21644312 -0.20613845 -0.2126382 -0.23199353 0.19283332 -0.2160811 0.21181008
0.20821288 -0.21961099 0.21413615 0.22547078 -0.20296878 0.21687602 -0.23361132 0.21753486

encoder.dcrnn_cells.1.update.bias_pool f4 [2, 64]
00000000: 9a21 61be af7a 693e d24b 9a3c 457f 913e
00000010: 9290 00be 1bcd 8d3e dd42 d43e cfa1 6e3e
00000020: 089c 573e a3de d4be 0152 9ebe 84ea 47bd
00000030: 5467 bd3d 2a8c 2ebe 9091 4abd e06e c53e
00000040: b2c6 a83e ca41 943e 0785 8abe 65da c13d
00000050: c3ee 35be f269 7f3e a035 a83e 5e46 a6be
00000060: fce4 df3d a83c 8dbe 9607 2dbe 5499 9d3d
00000070: 07c1 3c3e 60fb 40be ef03 aabd 1ba2 9b3e
00000080: d46d 8f3e 6dc0 f53d 6c15 5ebe e753 84bc
00000090: e9b6 5bbe 84bb 2ebe a50e b6be a748 59be
000000a0: 70c8 a33e dc80 d83d 0fdf 013c 28f9 8bbe
000000b0: d8d8 78be 34bb ed3c 84c7 91be f866 833e
000000c0: e666 963e 408a 2bbd 87fa 6d3e d984 893e
000000d0: ef96 5fbe 0f84 d1be bd8f bb3e 58fc b5be
000000e0: c3f8 d6bd 4417 7e3d 7803 78be ffb0 0bbc
000000f0: ec24 113e ee16 cfbe 7ce8 8abe 8bf5 893e
00000100: b870 cb3e 119e 6a3e 9fb7 613e ee58 ce3e
00000110: b7f1 67be b341 2a3e 6078 ccbd aab1 bd3e
00000120: f0f4 8bbc f266 cabe b26e ddbe 7a99 bc3e
00000130: 29ed a9bc 34de 293e 10ec 15bd 1f43 203e
00000140: 65d7 173e 32f0 9f3e 7b53 c8be 557e 94be
00000150: f5b9 61be d6c2 c53e 0893 9f3e 23dd 9cbe
00000160: 3a19 7dbe 4514 8a3d 74bb 093d 4113 1abe
00000170: f7c1 92bd b91f b4bd 5f42 ef3d 6f4e e2bd
00000180: c8e1 d83e 32e6 dcbe 382c 5cbe c7e6 66be
00000190: 2143 d5be 3d7e 7a3e 8a79 993c a9f8 8c3e
000001a0: 8527 bc3e 9874 bdbe 5c4e a03e b219 66be
000001b0: ed8d 3fbe f68e c1be d84f 27be b1ee b93e
000001c0: 5947 bc3e b7f8 3e3d 1770 07bd 7532 a63e
000001d0: 18ab a43e 5a0e 8ebe 20be 6a3e be03 c1be
000001e0: b4cb 37bd 0af2 3b3e 607d 04bb 11bf c03c
000001f0: 9124 973e 0863 d6be 95f9 123e 5fc1 2bbe
-0.21985474 0.22800706 0.018834982 0.2841741 -0.12555149 0.27695546 0.41457263 0.23303913
0.21055615 -0.41576108 -0.3092194 -0.048807636 0.09248224 -0.17045656 -0.049455225 0.38561153
0.32964092 0.28956443 -0.27054617 0.094654836 -0.17766862 0.24942759 0.32853413 -0.3247556
0.10932347 -0.2758534 -0.16897425 0.07695261 0.18433009 -0.18845892 -0.083015315 0.30397114
0.2801348 0.11999593 -0.2168786 -0.016153289 -0.21456493 -0.17063719 -0.35558048 -0.21219121
0.3198886 0.10571453 0.0079267165 -0.2733853 -0.2430147 0.02901993 -0.2847253 0.25664496
0.2937538 -0.041879892 0.232401 0.26859167 -0.2183492 -0.40921065 0.366331 -0.35544086
-0.10496666 0.062033907 -0.24220073 -0.008526086 0.14174241 -0.4044718 -0.27130497 0.26945147
0.39734435 0.2291186 0.22042702 0.40302223 -0.226508 0.16626625 -0.09983897 0.3704961
-0.017084569 -0.39531666 -0.43248516 0.36835843 -0.02074297 0.1658867 -0.03660208 0.15650605
0.1482826 0.31237942 -0.3912619 -0.29002634 -0.22043593 0.3862521 0.31166863 -0.30637464
-0.24716654 0.06742147 0.033626035 -0.15046407 -0.07165902 -0.08795113 0.11682581 -0.11050116
0.42359757 -0.43144375 -0.21501243 -0.22548972 -0.41652778 0.24462219 0.018734712 0.27533463
0.367489 -0.37003016 0.31309783 -0.2247074 -0.18706484 -0.37804383 -0.16339052 0.3631492
0.36773184 0.04662391 -0.03306588 0.3246037 0.32161784 -0.27745324 0.2292409 -0.37698168
-0.044872 0.1835405 -0.002021633 0.023528608 0.29520085 -0.4187243 0.1435302 -0.16772984
