CQ/result/P7_Resullt/HOURS/data7/2/best_model.pth (torch_old, 603202 bytes, 11 tensors)

node_embeddings f4 [228, 2]
0.115523525 -0.04211032 0.29323864 0.2632007 0.07882204 0.0026329258 -0.13173331 0.2637334
0.28576192 0.20245239 0.1578324 -0.15459348 0.099215165 -0.034398068 0.13977674 0.2817149
-0.34805208 0.040920433 -0.16064633 0.25499743 0.29183424 0.16494708 0.29406112 0.25101167
-0.07815804 0.1919964 0.26596576 0.14132065 0.13850172 0.10684934 -0.26698992 0.14942996
0.0058244197 0.30125678 0.20548314 0.28347427 0.10833771 -0.014339939 0.12750746 0.2486902
-0.11790748 0.19494699 0.14934711 0.097378746 0.25185242 0.16424122 0.28681406 0.057469413
0.16394392 -0.10884316 0.08281967 0.1556794 0.115155034 0.22205551 0.11478444 0.18803039
0.03396524 0.19729228 -0.02719672 0.035983644 -0.13998656 0.29666066 0.19117497 0.22354756
0.27417055 0.052672833 0.27951744 0.13663873 0.09606751 -0.022922294 0.07868626 0.27430463
0.07682253 0.24896875 -0.114542976 0.26403764 0.139464 0.23176365 -0.108775735 0.2964677
0.22570196 0.28494444 0.15460418 0.19855651 0.13150434 0.21637934 0.27244702 0.12580128
0.17484713 0.21672371 0.06703165 0.15157354 0.07231982 0.27703592 0.27925277 0.14404233
0.12387256 0.15907928 0.19929868 0.094060905 0.14341268 0.12619281 0.09747303 0.21228126
0.18653382 0.28692254 0.22743101 0.22333962 0.09082834 0.17683311 -0.023976354 0.288436
0.26609606 0.28845578 0.2781408 0.13748097 0.1725422 0.10790546 0.24067348 0.14086317
0.13368234 0.14983258 0.12795188 0.15097524 0.28524718 0.09875408 0.27757046 0.027099334
0.12660141 0.14398144 0.094751865 -0.055556133 0.24195729 0.1785715 0.02967239 0.3080489
0.08057822 0.018725468 0.26921883 0.29385144 0.31404635 0.14790949 0.13558955 0.14254992
0.16835614 -0.09041833 0.13832565 0.13403307 0.29794002 0.27123296 0.16753593 0.10789392
0.060240082 0.2579075 0.2045074 0.23216856 0.23485763 -0.14305893 0.1763767 0.2857003
0.19213997 0.031671494 0.27707252 0.10545059 0.24990839 0.10453459 -0.0071412236 0.037924197
0.2994265 0.30072132 0.19300994 0.16882923 0.32698765 0.14778323 -0.10904008 0.23952955
0.117676854 -0.03932196 -0.24789074 0.14567082 -0.07015965 0.11723968 0.10437006 -0.018197032
0.19572276 0.1206495 -0.22645463 0.08698055 0.2378438 0.14045352 0.1873444 0.2184279
0.18855906 0.14236353 0.16073206 -0.025108118 0.2581385 0.18989693 0.0877514 0.2811933
-0.06301126 0.03692512 0.08189676 0.26455313 0.11870923 0.30035844 0.19454798 0.108131446
0.06340589 0.22590078 0.1780919 0.1888565 0.010917518 0.03013471 0.0573023 0.24978842
0.13723494 0.14018081 0.29287365 0.28371558 0.2782623 0.10094672 -0.08621194 0.21033485
-0.08880415 0.16384886 0.28698483 0.22257133 0.18719834 0.042904988 -0.04423102 0.20053078
0.2763161 0.2314303 0.28338996 0.12571257 0.28540123 0.06115724 -0.3315342 0.028571676
0.26004794 0.1587144 0.18386044 0.17646518 0.24117222 0.24978888 0.026031984 0.21477376
-0.044088595 0.15415896 -0.25104526 0.12371387 0.059702802 0.1659261 0.1936617 0.20806447
00000000: 9997 ec3d df7b 2cbd 6023 963e 3ec2 863e
00000010: 736d a13d 2a8d 2c3b 19e5 06be 1008 873e
00000020: 634f 923e ae4f 4f3e d19e 213e c14d 1ebe
00000030: 5231 cb3d fde4 0cbd a221 0f3e ef3c 903e
00000040: e233 b2be 2f9c 273d 7980 24be 068f 823e
00000050: 4c6b 953e e3e7 283e 2e8f 963e 9a84 803e
00000060: 5311 a0bd b49a 443e aa2c 883e 5cb6 103e
00000070: 65d3 0d3e d4d3 da3d e7b2 88be 2b04 193e
00000080: c6da be3b 543e 9a3e 2c6a 523e 8a23 913e
00000090: 29e0 dd3d 10f2 6abc 5191 023e a5a8 7e3e
000000a0: 7a79 f1bd 2fa0 473e 73ee 183e 826e c73d
000000b0: cdf2 803e da2e 283e 4bd9 923e 0c65 6b3d
000000c0: eae0 273e 2ae9 debd 5c9d a93d 6c6a 1f3e
000000d0: 67d6 eb3d 8562 633e 1b14 eb3d 0a8b 403e
000000e0: 231f 0b3d fd06 4a3e a8cb debc 9663 133d
000000f0: a358 0fbe e8e3 973e 5fc3 433e a7e9 643e
00000100: 1560 8c3e 78bf 573d e91c 8f3e 06eb 0b3e
00000110: 0bbf c43d 89c7 bbbc 4326 a13d a871 8c3e
00000120: 2155 9d3d aaf1 7e3e 8295 eabd f12f 873e
00000130: a7cf 0e3e 7353 6d3e d0c5 debd 9dca 973e
00000140: 6a1e 673e 3de4 913e 8f50 1e3e 6652 4b3e
00000150: 13a9 063e 8c92 5d3e 2d7e 8b3e 0dd2 003e
00000160: 200b 333e d2ec 5d3e e447 893d 1836 1b3e
00000170: 6a1c 943d a7d7 8d3e 38fa 8e3e d57f 133e
00000180: e6b0 fd3d aee5 223e f414 4c3e 01a3 c03d
00000190: c6da 123e b038 013e f19f c73d 4260 593e
000001a0: b902 3f3e 83e7 923e ade3 683e 24b3 643e
000001b0: 3504 ba3d bd13 353e 0f6a c4bc e2ad 933e
000001c0: be3d 883e 7ab0 933e 7968 8e3e d0c7 0c3e
000001d0: e7ae 303e 8afd dc3d 1c73 763e 6f3e 103e
000001e0: 06e4 083e b66d 193e d105 033e 4199 1a3e
000001f0: eb0b 923e 943f ca3d b71d 8e3e 6cff dd3c
00000200: cda3 013e df6f 133e 440d c23d d48e 63bd
00000210: a7c3 773e 73db 363e 8313 f33c 96b8 9d3e
00000220: 3206 a53d 2766 993c 0dd7 893e b273 963e
00000230: afca a03e 9675 173e fdd7 0a3e 9bf8 113e
00000240: 8d65 2c3e 3f2d b9bd 3da5 0d3e f73f 093e
00000250: 988b 983e 0cdf 8a3e 8a8e 2b3e 7df7 dc3d
00000260: 4ebe 763d 740c 843e 636a 513e 98bd 6d3e
00000270: 857e 703e 0a7e 12be 189c 343e 4f47 923e
00000280: 57c0 443e f8b9 013d 73dc 8d3e 7bf6 d73d
00000290: fce7 7f3e 3b16 d63d ed00 eabb 6756 1b3d
000002a0: 6e4e 993e 25f8 993e 66a4 453e 92e1 2c3e
000002b0: ed6a a73e 7d54 173e 6850 dfbd 3c47 753e
000002c0: 9000 f13d 1010 21bd 12d7 7dbe bb2a 153e
000002d0: ddaf 8fbd 5b1b f03d f8bf d53d f111 95bc
000002e0: 8c6b 483e 1617 f73d b9e3 67be dc22 b23d
000002f0: 538d 733e 0cd3 0f3e 36d7 3f3e 90ab 5f3e
00000300: a015 413e bfc7 113e f296 243e 8aaf cdbc
00000310: bb2a 843e 5774 423e 02b7 b33d 91f8 8f3e
00000320: 0c0c 81bd cb3e 173d 7db9 a73d 8273 873e
00000330: d31d f33d 95c8 993e 9637 473e 0574 dd3d
00000340: f2da 813d 8952 673e b95d 363e 9963 413e
00000350: 64df 323c 11dd f63c d1b5 6a3d 89c8 7f3e
00000360: 5187 0c3e 8f8b 0f3e 89f3 953e 2b43 913e
00000370: 6578 8e3e 27bd ce3d e38f b0bd 0562 573e
00000380: f3de b5bd ffc7 273e adef 923e bde9 633e
00000390: ecb0 3f3e 24bd 2f3d 962b 35bd f157 4d3e
000003a0: 4e79 8d3e 11fc 6c3e 7d18 913e ccba 003e
000003b0: 1c20 923e 0480 7a3d dabe a9be 260f ea3c
000003c0: 0125 853e 0786 223e e945 3c3e 4ab3 343e
000003d0: daf5 763e a8c8 7f3e 0741 d53c a7ed 5b3e
000003e0: 3e96 34bd d9db 1d3e 0189 80be b35d fd3d
000003f0: ed8a 743d 88e8 293e 414f 463e da0e 553e

encoder.dcrnn_cells.0.gate.weights_pool f4 [2, 2, 65, 128]
0.11875424 -0.040146504 0.088284 0.09022292 0.085763454 0.10686906 0.09248546 0.0896309
-0.062653385 -0.20851843 0.10418977 0.10400865 0.08803587 0.10436247 0.110014275 -0.09278133
0.09743146 0.10048732 -0.055799928 -0.07410119 0.11793971 -0.096962646 0.10004312 -0.27225098
-0.046891052 0.12443428 0.0714872 -0.10964296 0.087861896 0.087954454 0.024000144 0.08141613
-0.07899601 0.0644802 -0.046410922 0.09791409 0.09651822 0.085718 0.10506297 -0.057089202
-0.23453374 0.11024518 0.069216855 0.087468356 -0.029311087 0.09564288 -0.13463478 0.11225475
-0.17536935 -0.06581464 0.1002799 0.11236515 -0.07271413 -0.0056116483 0.111303374 0.106938735
0.07305037 0.08021878 -0.07869926 -0.14006107 0.08823756 0.095928475 -0.10026376 0.09230655
-0.17211701 -0.15306184 -0.17016761 -0.16848895 -0.15132311 -0.15608709 -0.116684034 -0.15729475
-0.1548328 -0.11221744 -0.14705156 -0.15042181 -0.15058821 -0.15674625 -0.13021189 -0.14934622
-0.16694382 -0.1630734 -0.15758583 -0.1395814 -0.1623912 -0.14679597 -0.15627083 -0.1344581
-0.14194733 -0.16229622 -0.13836484 -0.1642244 -0.15982291 -0.16057758 -0.18587492 -0.12379319
-0.1415539 -0.12863976 -0.14470224 -0.17394969 -0.16485871 -0.17022078 -0.17929438 -0.16971534
-0.094601326 -0.13514006 -0.1534615 -0.15739533 -0.1791034 -0.1691799 -0.105701044 -0.1718865
-0.10855066 -0.15647587 -0.14947042 -0.15774688 -0.14013217 -0.19225113 -0.15074961 -0.16678463
-0.15107824 -0.17420349 -0.1662578 -0.13051382 -0.14963557 -0.17988074 -0.14852494 -0.17003316
-0.12275568 -0.19069101 -0.13615803 -0.14230877 -0.13910943 -0.11508105 -0.13634121 -0.12738757
-0.16486439 -0.12695661 -0.13921331 -0.12682648 -0.116590664 -0.13057588 -0.1317395 -0.12404988
-0.13635746 -0.12301311 -0.16281773 -0.18170153 -0.12622696 -0.16037264 -0.11585303 0.042679265
-0.13531405 -0.13484237 -0.16609183 -0.15094948 -0.13065648 -0.14106187 -0.13075489 -0.13801426
-0.17368592 -0.16349222 -0.17734921 -0.13465458 -0.12641695 -0.11826714 -0.12704217 -0.123276375
-0.12307024 -0.12976867 -0.13125175 -0.1267625 -0.12840147 -0.13746844 -0.13706736 -0.14371088
-0.14117439 -0.1787783 -0.13862771 -0.12016861 -0.17738266 -0.14495295 -0.13221785 -0.1300068
-0.12101931 -0.12603384 -0.17134836 -0.18454276 -0.14184439 -0.13812053 -0.17068627 -0.14214464
0.15810251 0.15162595 0.14325109 0.1333659 0.14464152 0.14817618 0.13625087 0.14125514
0.13575238 0.1520596 0.15306318 0.14133509 0.14160217 0.1484256 0.13552235 0.13967277
0.13679913 0.1573759 0.1507997 0.13892679 0.14816304 0.15013573 0.15658413 0.19218343
0.14683475 0.13533485 0.15674496 0.15745354 0.15560612 0.14864105 0.14423122 0.14644356
0.15526678 0.15685807 0.14185923 0.14697899 0.14882445 0.14282812 0.15426908 0.12904382
0.1675214 0.12870452 0.13524163 0.15651536 0.1443688 0.13953996 0.15216242 0.14802979
0.14830002 0.15515698 0.13202648 0.15035585 0.14903386 0.14838915 0.13445865 0.14028026
0.14743534 0.13513623 0.1408082 0.13823429 0.13839066 0.13510533 0.15802991 0.14597249
00000000: 6c35 f33d a970 24bd 3ece b43d cbc6 b83d
00000010: c0a4 af3d 2ade da3d 0469 bd3d 6890 b73d
00000020: 6b50 80bd db85 55be 7261 d53d 7d02 d53d
00000030: 264c b43d febb d53d 2a4f e13d 2304 bebd
00000040: 258a c73d 4ccc cd3d 778e 64bd 5dc2 97bd
00000050: 608a f13d 5a94 c6bd 68e3 cc3d 7b64 8bbe
00000060: d510 40bd 66d7 fe3d e267 923d 7d8c e0bd
00000070: f0f0 b33d 7721 b43d f39b c43c 80bd a63d
00000080: a9c8 a1bd 320e 843d 6119 3ebd 2f87 c83d
00000090: 58ab c53d eb8c af3d 412b d73d 5ed6 69bd
000000a0: 9d29 70be 3ac8 e13d 91c1 8d3d 9c22 b33d
000000b0: ce1d f0bc 6ae0 c33d b3dd 09be d2e5 e53d
000000c0: 0694 33be d3c9 86bd 8c5f cd3d b31f e63d
000000d0: 25eb 94bd ebe1 b7bb 06f3 e33d b202 db3d
000000e0: 6f9b 953d be49 a43d 142d a1bd 2b6c 0fbe
000000f0: e5b5 b43d 2676 c43d 1657 cdbd 370b bd3d
00000100: 713f 30be 3ebc 1cbe 6b40 2ebe 5e88 2cbe
00000110: 72f4 1abe 4bd5 1fbe 0af8 eebd e011 21be
00000120: 7d8c 1ebe 42d2 e5bd af94 16be 2d08 1abe
00000130: cc33 1abe 1782 20be 4456 05be 37ee 18be
00000140: 52f3 2abe b7fc 26be 2e5e 21be 6dee 0ebe
00000150: e149 26be af51 16be 7605 20be 62af 09be
00000160: a45a 11be fb30 26be 83af 0dbe 712a 28be
00000170: 9ea8 23be 736e 24be ff55 3ebe 4987 fdbd
00000180: 81f3 10be 24ba 03be d32c 14be de1f 32be
00000190: b9d0 28be 5b4e 2ebe f298 37be dcc9 2dbe
000001a0: 57be c1bd 2862 0abe 0325 1dbe 3e2c 21be
000001b0: e266 37be 7f3d 2dbe ca79 d8bd 0403 30be
000001c0: cf4f debd 363b 20be c60e 19be 6688 21be
000001d0: cf7e 0fbe 7bdd 44be 1b5e 1abe 97c9 2abe
000001e0: 41b4 1abe 6662 32be 7c3f 2abe 6aa5 05be
000001f0: 113a 19be a832 38be ec16 18be 2c1d 2ebe
00000200: 5467 fbbd 8144 43be 036d 0bbe 64b9 11be
00000210: b472 0ebe 9daf ebbd 089d 0bbe e371 02be
00000220: 36d2 28be ea00 02be ef8d 0ebe cdde 01be
00000230: 16c7 eebd afb5 05be b8e6 06be dd0d febd
00000240: 4aa1 0bbe 4cee fbbd b1b9 26be f70f 3abe
00000250: a441 01be ba38 24be 5a44 edbd 74d0 2e3d
00000260: c48f 0abe 1e14 0abe fa13 2abe 8092 1abe
00000270: d0ca 05be 8672 10be 9ce4 05be 9c53 0dbe
00000280: b9da 31be 816a 27be 089b 35be e4e2 09be
00000290: 7273 01be 0b36 f2bd 5817 02be 5378 fcbd
000002a0: 400c fcbd 14e2 04be dc66 06be 07ce 01be
000002b0: ad7b 03be 87c4 0cbe 635b 0cbe f228 13be
000002c0: 0590 10be a911 37be 6cf4 0dbe f61a f6bd
000002d0: cda3 35be 8c6e 14be 1e64 07be 8120 05be
000002e0: f9d8 f7bd 040f 01be f275 2fbe c7f8 3cbe
000002f0: a83f 11be 786f 0dbe 62c8 2ebe 5d8e 11be
00000300: a0e5 213e d543 1b3e 6ab0 123e 1291 083e
00000310: e81c 143e 7fbb 173e 5985 0b3e 30a5 103e
00000320: ac02 0b3e 83b5 1b3e 98bc 1c3e 25ba 103e
00000330: 2900 113e e1fc 173e 5fc6 0a3e 6106 0f3e
00000340: 1215 0c3e 2627 213e 3d6b 1a3e d342 0e3e
00000350: 0db8 173e 2ebd 193e 9757 203e bccb 443e
00000360: d95b 163e 3895 0a3e c081 203e 803b 213e
00000370: 3657 1f3e 5c35 183e 59b1 133e 4df5 153e
00000380: 41fe 1e3e 679f 203e 8c43 113e a981 163e
00000390: 7065 183e 8941 123e b7f8 1d3e 1024 043e
000003a0: bb8a 2b3e 1ecb 033e c87c 0a3e 9045 203e
000003b0: 6ad5 133e 90e3 0e3e 77d0 1b3e 1f95 173e
000003c0: f6db 173e 79e1 1e3e f331 073e e2f6 193e
000003d0: 559c 183e 53f3 173e 87af 093e a1a5 0f3e
000003e0: 4af9 163e 2761 0a3e 0630 103e 4a8d 0d3e
000003f0: 48b6 0d3e 0d59 0a3e 98d2 213e d079 153e

encoder.dcrnn_cells.0.gate.bias_pool f4 [2, 128]
0.19724482 -0.1459374 0.15679443 0.06769679 0.33122882 0.35626933 -0.08369582 0.109947965
-0.10875019 0.21170929 0.20555274 -0.05138092 0.12044734 0.20621777 0.27995485 0.3324585
0.14661929 0.30602545 -0.29675618 0.004878439 0.23166199 -0.08303733 0.32162848 0.04470807
0.1703347 0.25348422 0.087488115 -0.2851289 0.22840405 0.21626148 0.17354338 0.16550715
-0.0021887242 0.07386761 -0.045502212 -0.059536286 0.15217623 0.075674824 0.24562457 0.28328487
0.15195125 0.10955284 0.08676895 0.1555995 -0.008803743 0.014351386 0.33260807 0.04045933
-0.054555226 -0.16064844 0.34779465 0.13137019 0.026365086 -0.040132724 0.0068421722 0.19467291
0.09393218 0.30264515 -0.065077186 0.0017493997 0.15942347 0.18315482 -0.121091105 0.087008215
-0.24861877 0.20191655 0.043885488 -0.34121335 -0.26217666 -0.24670243 -0.18179488 0.0691613
-0.029580034 -0.25463173 0.030703098 0.02819931 0.0033591597 -0.06774791 -0.2853446 -0.20508045
-0.20743394 -0.3022049 0.17942028 -0.059079785 -0.0003106104 -0.049213335 -0.058832277 -0.03434339
0.0020573004 -0.07451889 -0.23274206 -0.040168926 -0.20907524 -0.24590749 -0.23766458 0.03679049
0.17047867 -0.16299549 -0.01888898 -0.26938504 -0.026832014 -0.07720218 -0.22358374 -0.12522869
-0.34332973 -0.07134472 0.039579183 -0.1820781 -0.06712458 0.05492088 -0.06963421 -0.2861949
0.07186264 0.11822465 -0.16975857 0.01593375 -0.034480814 -0.14537466 -0.31640503 -0.026324872
-0.098285176 -0.10840838 0.042474017 -0.10244333 -0.2685973 -0.10783321 0.02227448 -0.14074308
-0.00022804641 0.24037477 0.18131264 0.22809307 0.083990686 0.004435985 0.2911913 0.12633985
0.12912993 -0.07162145 0.061048448 0.17144063 0.13306026 0.30022058 0.025376882 0.32634693
-0.039103545 0.19585975 0.09833755 0.3620837 0.050863124 0.15311462 0.17852473 0.24148194
0.25639033 0.057391178 0.1405117 0.17677227 0.0669277 0.050276503 0.33961925 -0.012594956
0.19328375 -0.023012482 0.32965988 0.27513513 0.2379324 0.1846313 0.34322345 0.14596598
-0.01537226 0.16288686 0.21366793 0.13279647 0.054628156 0.1144116 0.110069595 0.3406317
0.28061345 0.16485971 0.057568844 0.02155312 0.0885788 0.29368928 -0.023475228 0.0343038
0.19176929 0.32673246 0.13430263 0.26897097 0.10525767 0.23253071 -0.06834316 0.19982193
-0.33312088 0.008151313 0.003007113 -0.092522226 -0.15380765 -0.30262113 0.07318559 -0.24783334
0.070303254 -0.20438844 -0.2922443 0.038853757 -0.009944075 -0.012174364 -0.14766993 -0.27476424
-0.29727498 -0.037737824 0.0031951047 -0.1521217 -0.26865333 -0.20797895 -0.2838371 -0.3119854
-0.0416248 -0.10302402 -0.32459924 -0.048964288 -0.27821738 -0.045169417 -0.1266599 -0.29014874
-0.01784991 -0.33348513 -0.064396635 -0.028027369 -0.28043884 0.07164893 -0.23248816 -0.19833402
0.076858595 -0.13204506 -0.30514294 -0.28662288 -0.2880059 0.027150007 0.015738714 -0.017763916
-0.24941736 -0.30438176 -0.21708182 -0.18511179 -0.03297771 -0.1227673 -0.004047704 -0.3316591
-0.2586676 0.02327947 -0.21314919 0.024005217 0.06766864 -0.31363887 -0.14697105 -0.32695943
00000000: 8cfa 493e 9d70 15be b88e 203e 9da4 8a3d
00000010: d396 a93e ef68 b63e b768 abbd 662c e13d
00000020: 6bb8 debd 52ca 583e 6b7c 523e cd74 52bd
00000030: 18ad f63d c02a 533e 3e56 8f3e 0038 aa3e
00000040: 5e23 163e 5eaf 9c3e 6df0 97be 50db 9f3b
00000050: cd38 6d3e 7a0f aabd 7dac a43e cf1f 373d
00000060: 386c 2e3e afc8 813e f82c b33d 6afc 91be
00000070: c0e2 693e a673 5d3e 5bb5 313e b57a 293e
00000080: b370 0fbb e747 973d 8760 3abd 52dc 73bd
00000090: 16d4 1b3e 67fb 9a3d 0285 7b3e b70a 913e
000000a0: 1c99 1b3e 3d5d e03d ebb3 b13d 7a55 1f3e
000000b0: 933d 10bc 1322 6b3c 9b4b aa3e afb8 253d
000000c0: 4d75 5fbd 0681 24be 2412 b23e e885 063e
000000d0: 98fb d73c 3662 24bd 4d34 e03b 5658 473e
000000e0: 845f c03d 4ef4 9a3e 3047 85bd 1d4c e53a
000000f0: e83f 233e f08c 3b3e 9dfe f7bd 5d31 b23d
00000100: eb95 7ebe 36c3 4e3e 45c1 333d 84b3 aebe
00000110: 053c 86be 909f 7cbe 7028 3abe 71a4 8d3d
00000120: d451 f2bc 175f 82be 1085 fb3c 3d02 e73c
00000130: 5925 5c3b 6bbf 8abd b018 92be 9c00 52be
00000140: 9069 54be 9aba 9abe f3b9 373e a5fd 71bd
00000150: 6cd9 a2b9 ec93 49bd 1dfa 70bd a8ab 0cbd
00000160: c6d3 063b 5c9d 98bd ef53 6ebe 2c88 24bd
00000170: d217 56be 2ccf 7bbe 585e 73be a0b1 163d
00000180: f691 2e3e 4ae8 26be 10bd 9abc d6ec 89be
00000190: d0ce dbbc 2d1c 9ebd 23f3 64be f33b 00be
000001a0: eac8 afbe 2e1d 92bd c81d 223d ae72 3abe
000001b0: 9d78 89bd b7f4 603d 619c 8ebd 2388 92be
000001c0: b82c 933d c41f f23d 31d5 2dbe 7f87 823c
000001d0: c13b 0dbd 18dd 14be d7ff a1be 42a7 d7bc
000001e0: bd49 c9bd 3605 debd 3cf9 2d3d cfcd d1bd
000001f0: 9685 89be a8d7 dcbd f878 b63c f41e 10be
00000200: be1f 6fb9 ce24 763e 05aa 393e 3b91 693e
00000210: 4f03 ac3d bd5b 913b 0717 953e 3c5f 013e
00000220: a33a 043e 44ae 92bd f00d 7a3d 228e 2f3e
00000230: f340 083e 83b6 993e 2ee3 cf3c f216 a73e
00000240: 0a2b 20bd 758f 483e 3365 c93d 0963 b93e
00000250: da55 503d 14ca 1c3e 30cf 363e 0b47 773e
00000260: 9845 833e 0313 6b3d 4de2 0f3e ca03 353e
00000270: 6411 893d bcee 4d3d 93e2 ad3e 135b 4ebc
00000280: 2dec 453e ac84 bcbc 2ec9 a83e 83de 8c3e
00000290: 8da4 733e fd0f 3d3e fcba af3e 1b78 153e
000002a0: eedb 7bbc d0cb 263e c4cb 5a3e ccfb 073e
000002b0: c6c1 5f3d a150 ea3d 2b6c e13d 4767 ae3e
000002c0: 91ac 8f3e fcd0 283e 4fcd 6b3d 2b90 b03c
000002d0: cd68 b53d 715e 963e 1f4f c0bc 2482 0c3d
000002e0: 2b5f 443e 7a49 a73e a186 093e 90b6 893e
000002f0: 5591 d73d 881c 6e3e 80f7 8bbd 1f9e 4c3e
00000300: d28e aabe 168d 053c fc12 453b 4b7c bdbd
00000310: c17f 1dbe 28f1 9abe 54e2 953d 06c8 7dbe
00000320: 27fb 8f3d 344b 51be 0ba1 95be 1e25 1f3d
00000330: 79ec 22bc fc76 47bc c936 17be e6ad 8cbe
00000340: 6d34 98be fa92 1abd f664 513b cac5 1bbe
00000350: ee8c 89be 6ff8 54be 1953 91be 8dbc 9fbe
00000360: c47e 2abd 42fe d2bd df31 a6be c78e 48bd
00000370: 8272 8ebe 9103 39bd 22b3 01be 608e 94be
00000380: f939 92bc 90be aabe 62e2 83bd a799 e5bc
00000390: ae95 8fbe adbc 923d 6011 6ebe 1318 4bbe
000003a0: 0a68 9d3d d236 07be b23b 9cbe 3cc0 92be
000003b0: 8275 93be b169 de3c 7aee 803c a285 91bc
000003c0: 4467 7fbe edd7 9bbe b24a 5ebe f28d 3dbe
000003d0: a313 07bd 6c6d fbbd 9aa2 84bb 39cf a9be
000003e0: 1470 84be 96b4 be3c c843 5abe 97a6 c43c
000003f0: db95 8a3d 4695 a0be 947f 16be 3a67 a7be

encoder.dcrnn_cells.0.update.weights_pool f4 [2, 2, 65, 64]
-0.1897955 -0.027841423 0.15700842 -0.17858034 0.15564482 -0.17868635 -0.024111865 0.1571203
-0.013009006 0.041455425 0.14615178 -0.16488446 -0.17034577 -0.14890298 0.044866152 -0.12211406
-0.18249151 0.17204656 -0.017156005 0.012749076 0.17539538 -0.04764067 -0.18109185 0.040549915
-0.1336862 0.18715788 -0.012055871 -0.054855477 0.16354753 0.16436139 0.17429765 -0.019519866
-0.032771815 0.044934895 -0.014219545 0.18572651 0.160653 0.1638139 0.1775573 -0.13825601
-0.026725382 0.022660758 -0.17125963 -0.17419948 0.072374605 -0.18860523 -0.028983511 -0.17841244
0.022752142 -0.015036827 0.17638645 -0.18927687 -0.006563256 -0.1721185 0.16551317 -0.16224328
0.15490432 -0.19587201 0.0020446675 0.045572095 0.16357094 0.17907912 0.0226038 -0.178889
0.13995817 -0.15362391 -0.124567606 0.13102292 -0.120024115 0.1452316 -0.17247944 -0.13965721
-0.14621463 -0.12300495 -0.14598389 0.11716423 0.14260139 0.12081709 0.15894462 0.13593225
0.12784287 -0.13498321 -0.12684748 0.11605053 -0.13210312 -0.1415193 0.1425507 0.015556737
0.13097426 -0.12548009 -0.1512776 -0.12453488 -0.12442526 -0.120431 -0.12412576 -0.15599495
-0.14011888 0.17087375 -0.16385674 -0.13383643 -0.12530741 -0.13313763 -0.14242582 0.12515534
-0.15187316 0.14234227 0.11595742 0.12499018 -0.14300872 0.14719531 0.13685207 0.13412394
-0.14293103 -0.15248664 -0.13704382 0.13061321 -0.13401979 0.13357984 -0.12680891 0.1426728
-0.12645929 0.12617098 0.110678874 0.13078299 -0.13601422 -0.13299946 0.11516871 0.14228308
-0.13717392 -0.21132125 0.1588026 -0.14480357 0.15978645 -0.14181983 -0.23498592 0.20072438
-0.20763512 0.12060952 0.14615044 -0.1524974 -0.20503055 -0.17281199 0.22402768 -0.12018166
-0.14476362 0.1680997 -0.20124587 0.21948843 0.15381283 -0.19454306 -0.17204046 0.14211595
-0.11014138 0.13888681 -0.24085717 -0.18326972 0.1831608 0.15732595 0.12573484 -0.20961103
-0.21191576 0.21173052 -0.19913445 0.18356614 0.19619253 0.17067456 0.19171757 -0.11688077
0.1705443 0.22348058 -0.2014608 -0.16024156 0.14968698 -0.15953769 -0.17332797 -0.1445141
0.15517761 -0.2004003 0.15517431 -0.15715873 -0.20725466 -0.12723589 0.14999086 -0.19687113
0.1611476 -0.21003544 0.18576884 0.20230928 0.1584491 0.1872182 0.20511943 -0.15938325
-0.14128695 0.14985095 0.14597733 -0.14703856 0.13468967 -0.12605114 0.16427317 0.14637275
0.14926034 0.1368726 0.116446 -0.12556249 -0.14606439 -0.14740814 -0.14640877 -0.14871177
-0.13776903 0.120675825 0.14240769 -0.14176011 0.14291428 0.1412208 -0.13951907 -0.0022620137
-0.14068794 0.1297755 0.15783076 0.14453256 0.14722791 0.12039325 0.13351372 0.18781167
0.15104593 -0.18682441 0.18152536 0.14565657 0.12948929 0.11354161 0.12807247 -0.13388152
0.117678 -0.14630967 -0.13872515 -0.11770127 0.11731737 -0.12313715 -0.14284703 -0.123594604
0.1385522 0.17229119 0.12092287 -0.11349978 0.15577418 -0.14240359 0.12931524 -0.13555214
0.13430141 -0.12364183 -0.14468168 -0.12781152 0.14755456 0.11715121 -0.14365175 -0.14454885
00000000: c059 42be b213 e4bc d1c6 203e c4dd 36be
00000010: 5b61 1f3e 8ef9 36be 3f86 c5bc 25e4 203e
00000020: ba23 55bc 2acd 293d d0a8 153e 79d7 28be
00000030: 1f6f 2ebe 067a 18be 92c5 373d f016 fabd
00000040: 0edf 3abe f92c 303e c08a 8cbc 80e1 503c
00000050: d99a 333e dd22 43bd 2470 39be ab17 263d
00000060: 09e5 08be 51a6 3f3e fd85 45bc 23b0 60bd
00000070: 0179 273e 5a4e 283e 157b 323e 20e8 9fbc
00000080: bd3b 06bd a70d 383d 18f9 68bc 172f 3e3e
00000090: 3882 243e d5be 273e 95d1 353e fc92 0dbe
000000a0: 30ef dabc 0ea3 b93c af5e 2fbe 5961 32be
000000b0: 2339 943d bb21 41be d46e edbc c0b1 36be
000000c0: b362 ba3c 065d 76bc a69e 343e ccd1 41be
000000d0: 9510 d7bb d53f 30be 497c 293e 1a23 26be
000000e0: 3d9f 1e3e ac92 48be d4ff 053b cea9 3a3d
000000f0: 247f 273e 8460 373e 9b2b b93c ae2e 37be
00000100: 3251 0f3e 964f 1dbe 4d1d ffbd df2a 063e
00000110: 34cf f5bd 98b7 143e 739e 30be 4d02 0fbe
00000120: 4ab9 15be 05ea fbbd cd7c 15be cdf3 ef3d
00000130: 1906 123e f36e f73d 61c2 223e d331 0b3e
00000140: 3ee9 023e 0a39 0abe 4ee4 01be e6ab ed3d
00000150: 0a46 07be 6fea 10be d0f8 113e afe1 7e3c
00000160: 1e1e 063e da7d 00be 84e8 1abe 250c ffbd
00000170: acd2 febd 87a4 f6bd a535 febd 24bd 1fbe
00000180: 537b 0fbe 87f9 2e3e 10ca 27be 6b0c 09be
00000190: 9650 00be 3b55 08be 13d8 11be b928 003e
000001a0: a384 1bbe 2cc2 113e 157b ed3d dafa ff3d
000001b0: e170 12be 5eba 163e f322 0c3e c957 093e
000001c0: 835c 12be 7525 1cbe 3755 0cbe 78bf 053e
000001d0: 7c3c 09be 27c9 083e 32da 01be d218 123e
000001e0: 8b7e 01be f732 013e 9bab e23d faeb 053e
000001f0: 5047 0bbe 0331 08be 93dd eb3d a8b2 113e
00000200: 5277 0cbe 9964 58be 269d 223e 6347 14be
00000210: 0f9f 233e 3839 11be 26a0 70be b18a 4d3e
00000220: 4d9e 54be 2002 f73d 76a8 153e 4728 1cbe
00000230: 87f3 51be a0f5 30be 8367 653e cd21 f6bd
00000240: ea3c 14be 5422 2c3e 6613 4ebe 93c1 603e
00000250: 1c81 1d3e 4c36 47be 602b 30be d886 113e
00000260: ce91 e1bd 5838 0e3e 43a3 76be 0fab 3bbe
00000270: 818e 3b3e 0e1a 213e a2c0 003e 46a4 56be
00000280: 7200 59be e3cf 583e e7e9 4bbe c3f8 3b3e
00000290: b2e6 483e 50c5 2e3e 9c51 443e 2f5f efbd
000002a0: 2aa3 2e3e 18d8 643e bd4b 4ebe 5d16 24be
000002b0: 8b47 193e d95d 23be e37c 31be 81fb 13be
000002c0: e1e6 1e3e bc35 4dbe 04e6 1e3e 38ee 20be
000002d0: 913a 54be 204a 02be 3497 193e 9698 49be
000002e0: e003 253e 8813 57be 303a 3e3e 2a2a 4f3e
000002f0: 7b40 223e 21b6 3f3e d40a 523e 5d35 23be
00000300: 87ad 10be 8772 193e 157b 153e 4791 16be
00000310: 17ec 093e 8d13 01be 3a37 283e bde2 153e
00000320: b4d7 183e 5528 0c3e 3e7b ee3d 7493 00be
00000330: e791 15be 29f2 16be 2eec 15be e647 18be
00000340: 5313 0dbe e324 f73d 52d3 113e 9029 11be
00000350: 1f58 123e 2f9c 103e 16de 0ebe 4b3e 14bb
00000360: 8010 10be dee3 043e 639e 213e 5800 143e
00000370: eac2 163e bc90 f63d d2b7 083e b451 403e
00000380: c9ab 1a3e e64e 3fbe c9e1 393e ff26 153e
00000390: d798 043e 8188 e83d 6e25 033e 3d18 09be
000003a0: 2a01 f13d 34d2 15be f70d 0ebe 5d0d f1bd
000003b0: 1744 f03d 552f fcbd 7e46 12be 2b1f fdbd
000003c0: a1e0 0d3e 1a6d 303e 69a6 f73d 9372 e8bd
000003d0: 4483 1f3e 3fd2 11be 376b 043e 2ece 0abe
000003e0: 4f86 093e ee37 fdbd 6f27 14be 06e1 02be
000003f0: 8b18 173e f9ec ef3d 7219 13be 9d04 14be

encoder.dcrnn_cells.0.update.bias_pool f4 [2, 64]
-0.30044743 -0.17365876 0.45850015 -0.44916534 0.2601543 -0.34357578 -0.017788213 0.24377216
-0.37342808 0.3168099 0.44776797 -0.23791099 -0.25926945 -0.34756345 -0.014366882 -0.34508958
-0.26318085 0.34434837 -0.37995133 0.27462274 0.24428631 -0.27532536 -0.15342055 0.38439482
-0.4307126 0.1311547 -0.12123226 -0.31554195 0.31084833 0.2969035 0.44715652 -0.004283688
-0.34002265 0.051965993 -0.35764968 0.24233013 0.37096816 0.40518305 0.24580821 -0.31607607
0.43409398 -0.013071432 -0.16067067 -0.2980247 0.3393139 -0.25747722 -0.39502758 -0.4523015
0.35991287 -0.33186924 0.17744645 -0.16298924 -0.35803255 -0.4467036 0.2725937 -0.2955466
0.3052194 -0.16492087 0.2976558 0.17100407 0.40515694 0.1907621 0.2845463 -0.39183658
-0.40192255 0.44158208 0.18989456 -0.3825454 0.35563326 -0.2510368 0.405851 0.21505858
0.3463384 -0.10600522 0.41767126 -0.44227195 -0.20112109 -0.30638695 -0.39652795 0.01123086
-0.36990094 0.42144862 0.40634048 -0.403969 0.42763686 0.23695268 -0.3305537 -0.27914992
0.015480371 0.44501922 0.43306974 0.26404828 0.22519082 0.33187416 -0.0043477337 0.2766794
0.35648295 -0.32708004 0.34131476 0.2624193 0.18096997 0.17192326 0.21992552 -0.015227585
-0.26462016 -0.36528394 -0.15135525 -0.33170977 -0.10806914 -0.2418239 0.18887341 -0.40287778
-0.1550259 0.32538536 0.4360819 -0.20893845 0.4196564 0.029512225 0.3379365 -0.25000483
0.29482254 -0.14995466 -0.29266435 -0.17437723 0.4311842 0.18062909 -0.26433384 -0.27718592
00000000: 3fd4 99be 9ad3 31be 88c0 ea3e 00f9 e5be
00000010: f232 853e 2ae9 afbe 96b8 91bc 699f 793e
00000020: f731 bfbe e834 a23e d841 e53e f09e 73be
00000030: f7be 84be d6f3 b1be 1263 6bbc 95af b0be
00000040: a4bf 86be 6e4e b03e fb88 c2be 5a9b 8c3e
00000050: 3126 7a3e 72f7 8cbe 471a 1dbe 66cf c43e
00000060: 5d86 dcbe 6b4d 063e 9e48 f8bd b78e a1be
00000070: 8327 9f3e bc03 983e b3f1 e43e 2e5e 8cbb
00000080: 7317 aebe 4bda 543d dc1d b7be 6425 783e
00000090: 8aef bd3e 2774 cf3e 26b5 7b3e b9d4 a1be
000000a0: 9141 de3e 8f29 56bc da86 24be b296 98be
000000b0: 8dba ad3e 0ed4 83be 0e41 cabe 1094 e7be
000000c0: 8046 b83e c4ea a9be 86b4 353e a7e6 26be
000000d0: 0b50 b7be 56b6 e4be 6791 8b3e e251 97be
000000e0: b845 9c3e 04e1 28be 5766 983e b11b 2f3e
000000f0: bb70 cf3e 2457 433e 0db0 913e ce9e c8be
00000100: cbc8 cdbe 0c17 e23e b873 423e fedc c3be
00000110: 9015 b63e e587 80be b4cb cf3e 5138 5c3e
00000120: 4453 b13e 4419 d9bd 02d9 d53e 7871 e2be
00000130: b0f2 4dbe c0de 9cbe b605 cbbe a401 383c
00000140: a863 bdbe 1dc8 d73e dc0b d03e 06d5 cebe
00000150: 38f3 da3e b9a3 723e 563e a9be bdec 8ebe
00000160: 62a1 7d3c 8fd9 e33e 51bb dd3e 5631 873e
00000170: 6c98 663e 69eb a93e 6f77 8ebb eca8 8d3e
00000180: ef84 b63e 0977 a7be cfc0 ae3e d35b 863e
00000190: 3150 393e a70c 303e 2834 613e 1f7d 79bc
000001a0: 4b7c 87be 7f06 bbbe dffc 1abe ddd5 a9be
000001b0: 5a53 ddbd afa0 77be 0868 413e ff45 cebe
000001c0: 1cbf 1ebe e998 a63e 2046 df3e f6f3 55be
000001d0: 34dd d63e 9fc3 f13c 0306 ad3e a200 80be
000001e0: fbf2 963e b78d 19be 1ad8 95be f28f 32be
000001f0: 2dc4 dc3e d5f6 383e c456 87be 50eb 8dbe

encoder.dcrnn_cells.1.gate.weights_pool f4 [2, 2, 128, 128]
-0.056306437 -0.07116299 -0.038928032 -0.08721428 -0.0764705 -0.07901025 -0.09266607 -0.113318734
-0.052051056 -0.09324011 -0.09784667 -0.016260501 0.010979989 -0.06228981 0.030789971 -0.08728416
-0.08323285 -0.09484507 -0.19248103 -0.02364376 -0.076763414 -0.09101483 -0.08408217 -0.09380175
-0.037317753 -0.07958612 -0.0439593 0.1392313 -0.07394099 -0.1932918 0.08168275 -0.09045498
-0.08730075 -0.029321965 -0.07466136 -0.014393912 -0.12715915 -0.051773567 -0.08777397 -0.06505234
-0.08715384 -0.037455317 -0.020300053 -0.09472301 -0.08364851 -0.028414715 -0.09143968 -0.0798689
-0.15609294 0.098729834 -0.0858534 -0.088058226 -0.05948971 -0.08550835 -0.0840971 -0.084790744
-0.034326915 -0.03474342 -0.078249335 0.13753012 -0.069654115 -0.090673365 -0.0039868183 -0.0070755845
0.14820051 0.13598214 0.121614255 0.1558948 0.14833337 0.1543915 0.16864468 0.14140375
0.12899835 0.15618391 0.1669733 0.13649194 0.14169528 0.1891999 0.16998976 0.16389905
0.16242619 0.15550984 0.14363043 0.12845398 0.15512238 0.108721234 0.16624282 0.1665367
0.14004084 0.17426819 0.13351162 0.16832994 0.18582582 0.0073580225 0.18198219 0.18719144
0.15849257 0.13712855 0.1490586 0.14179085 0.11044809 0.13917117 0.16972324 0.13870917
0.1619371 0.13166477 0.13367653 0.15451768 0.15254037 0.12605178 0.15188573 0.11707208
0.19185184 0.162171 0.17397393 0.14766878 0.14468239 0.1515982 0.16571431 0.16412444
0.17086716 0.13342018 0.16636884 0.15338895 0.1502023 0.15076698 0.15475266 0.15641482
-0.24467698 0.08563394 0.012860928 0.12113952 0.14417204 0.10674457 -0.062388163 0.021746987
-0.18460047 0.11501036 0.13076763 0.058525022 -0.13752198 0.005922661 0.19603503 0.09935079
0.11387722 0.12632757 -0.06775011 -0.010940274 0.11725793 0.041392304 0.11597461 0.10673745
-0.025951622 -9.077344e-05 -0.18499942 0.1225007 0.004931832 -0.214998 0.13421696 -0.023954624
0.11811524 -0.01564999 0.117149904 0.13429317 -0.0057844385 -0.10973414 0.008687067 -0.15869786
0.117533654 -0.03229945 0.12665562 0.10643393 0.10929353 0.030138973 0.117097 0.05818937
-0.04761065 0.02730703 0.017992828 0.11581096 -0.23710817 0.11962337 0.10378928 0.13059142
0.17921804 0.16482812 0.0037152441 0.08311862 0.14428647 0.12301951 -0.27069807 -0.27855152
0.08739197 0.13167296 0.06993993 0.1304301 0.11155499 0.11356856 0.15773214 0.12711206
0.099449456 0.12008636 0.12317401 0.07545902 0.10465677 0.158907 0.114665404 0.117262244
0.11576257 0.12654728 0.01354832 0.08063686 0.123873115 0.09189433 0.12007023 0.12480789
0.08098105 0.15389499 0.1031173 0.12142949 0.1460124 -0.094143994 0.13446265 0.13973628
0.120765716 0.0738779 0.12448196 0.08031443 0.010234868 0.08247484 0.14236401 0.07537017
0.12994242 0.09027166 0.08488311 0.12763105 0.13046175 0.08553441 0.11826877 0.106709905
0.016842874 0.09224018 0.15230934 0.11911144 0.08840963 0.11899689 0.12475969 0.12085016
0.11567978 0.09872368 0.14345148 0.118074805 0.12828714 0.1162261 0.09002466 0.09652049
00000000: 94a1 66bd e7bd 91bd 0073 1fbd 679d b2bd
00000010: 919c 9cbd 20d0 a1bd b5c7 bdbd a713 e8bd
00000020: 7d33 55bd acf4 bebd d663 c8bd be34 85bc
00000030: 69e5 333c 9a23 7fbd 403b fc3c 0ac2 b2bd
00000040: fc75 aabd 223e c2bd bf19 45be 8fb0 c1bc
00000050: 2336 9dbd fc65 babd 4633 acbd 221b c0bd
00000060: 80da 18bd 0cfe a2bd ab0e 34bd a692 0e3e
00000070: 606e 97bd 49ee 45be 4949 a73d 7640 b9bd
00000080: bcca b2bd 9e34 f0bc 0ee8 98bd 71d4 6bbc
00000090: 0236 02be 8510 54bd d7c2 b3bd 293a 85bd
000000a0: b67d b2bd bf6a 19bd 4c4c a6bc 23fe c1bd
000000b0: e94f abbd fac5 e8bc ba44 bbbd 4e92 a3bd
000000c0: d4d6 1fbe de32 ca3d e8d3 afbd df57 b4bd
000000d0: 7bab 73bd 001f afbd 1a3b acbd c5a6 adbd
000000e0: 619a 0cbd 1e4f 0ebd 3041 a0bd b2d4 0c3e
000000f0: d1a6 8ebd f5b2 b9bd dba3 82bb 4eda e7bb
00000100: e0c1 173e e73e 0b3e e510 f93d e3a2 1f3e
00000110: b4e4 173e ce18 1e3e 31b1 2c3e 25cc 103e
00000120: 2518 043e adee 1f3e 0cfb 2a3e 8bc4 0b3e
00000130: 9118 113e 9ebd 413e cc11 2e3e 27d5 273e
00000140: 0d53 263e f93d 1f3e db13 133e 7189 033e
00000150: 67d8 1e3e 3da9 de3d 8f3b 2a3e 9988 2a3e
00000160: de66 0f3e 5c73 323e 45b7 083e af5e 2c3e
00000170: 2049 3e3e 911b f13b 8a59 3a3e 1daf 3f3e
00000180: e04b 223e 6d6b 0c3e d1a2 183e 9f31 113e
00000190: 9c32 e23d e382 0e3e eecb 2d3e c709 0e3e
000001a0: d7d2 253e 21d3 063e 80e2 083e e239 1e3e
000001b0: 8b33 1c3e b813 013e ef87 1b3e 7dc3 ef3d
000001c0: cf74 443e 2810 263e 3926 323e 7c36 173e
000001d0: 9f27 143e 8f3c 1b3e 03b1 293e 3d10 283e
000001e0: cdf7 2e3e 4d9f 083e 985c 2a3e fe11 1d3e
000001f0: a2ce 193e a962 1a3e 7b77 1e3e 352b 203e
00000200: 9a8c 7abe d960 af3d a4b6 523c ff17 f83d
00000210: d6a1 133e e69c da3d bb8a 7fbd bd26 b23c
00000220: e807 3dbe 8d8a eb3d f3e7 053e efb7 6f3d
00000230: 90d2 0cbe e212 c23b 68bd 483e 6d78 cb3d
00000240: 7638 e93d 045c 013e 92c0 8abd d63e 33bc
00000250: ed24 f03d fa8a 293d 1984 ed3d 2a99 da3d
00000260: 7f98 d4bc 9f5d beb8 7d70 3dbe a6e1 fa3d
00000270: 359b a13b 7028 5cbe 2c70 093e 7d3c c4bc
00000280: 67e6 f13d 6834 80bc 4aec ef3d 2684 093e
00000290: 638b bdbb 4bbc e0bd 3354 0e3c b181 22be
000002a0: 7cb5 f03d 6e4c 04bd 03b2 013e 08fa d93d
000002b0: 49d5 df3d 02e6 f63c 8dd0 ef3d fa57 6e3d
000002c0: 6303 43bd feb2 df3c b265 933c 4c2e ed3d
000002d0: 7ccc 72be 19fd f43d 798f d43d c2b9 053e
000002e0: ef84 373e b4c8 283e 747b 733b 183a aa3d
000002f0: d5bf 133e a7f1 fb3d f098 8abe 4e9e 8ebe
00000300: 90fa b23d 47d5 063e ab3c 8f3d 788f 053e
00000310: f176 e43d a296 e83d 8984 213e aa29 023e
00000320: 28ac cb3d d6ef f53d a842 fc3d 428a 9a3d
00000330: 4a56 d63d 84b8 223e b2d5 ea3d 3027 f03d
00000340: ed14 ed3d 9c95 013e c6f9 5d3c f024 a53d
00000350: 30b1 fd3d 1833 bc3d 61e7 f53d 479b ff3d
00000360: 65d9 a53d a696 1d3e 2a2f d33d 06b0 f83d
00000370: 4684 153e 91ce c0bd 94b0 093e 0717 0f3e
00000380: 0454 f73d 4c4d 973d 66f0 fe3d e47b a43d
00000390: 26b0 273c 92e8 a83d dfc7 113e ad5b 9a3d
000003a0: a00f 053e 59e0 b83d 32d7 ad3d b7b1 023e
000003b0: c497 053e aa2c af3d e636 f23d b98a da3d
000003c0: 11fa 893c 6be8 bc3d fbf6 1b3e b3f0 f33d
000003d0: 1c10 b53d a4b4 f33d 0282 ff3d 4a80 f73d
000003e0: 85e9 ec3d a42f ca3d f2e4 123e 34d1 f13d
000003f0: b45d 033e f307 ee3d d95e b83d 89ac c53d

encoder.dcrnn_cells.1.gate.bias_pool f4 [2, 128]
-0.2144152 0.14669314 0.06774492 0.2771941 0.122795634 0.22689287 0.31147027 0.22771925
0.12109574 -0.09863305 0.1429293 -0.08053392 0.16288492 0.00984545 -0.15490574 0.17852123
0.19936678 0.122566275 -0.090015605 0.09732095 0.26529273 0.26395178 0.12883544 0.027237622
-0.080185585 0.31585118 0.08983393 -0.024960266 0.08114186 -0.23605907 0.08874162 0.0708926
0.123209655 0.14483412 0.24835405 -0.073748164 0.021242 0.1729806 0.09752484 0.084783345
0.016734071 -0.14736502 0.18550245 0.2132154 0.09989704 -0.022258507 0.26565912 -0.11545054
0.117474854 -0.1741444 0.19232543 -0.0014158243 0.029526483 0.23365128 0.076376714 0.029355498
-0.09353279 0.24776718 -0.002807575 -0.12788989 -0.03901361 -0.005240135 0.009234826 0.04710221
-0.1481634 -0.27014917 -0.02614032 -0.08111533 -0.05552338 0.08700728 0.08228457 -0.11819117
0.014773317 -0.13287689 -0.30809724 -0.019975582 -0.1553374 -0.018782169 0.110942 -0.14470664
-0.14750887 -0.0804778 -0.015791524 0.0016013586 -0.19947444 0.0297002 -0.18239835 -0.012573285
-0.18413116 -0.22401163 0.15055846 -0.03247876 0.023952765 0.23172769 0.053860974 0.0545263
0.11384992 -0.03269559 -0.07640511 -0.14303362 -0.27973005 -0.06663785 0.082069024 -0.01898927
0.081922635 -0.005234957 -0.20413688 -0.21797435 0.06392274 0.10532329 -0.1579374 -0.034481067
-0.24826734 0.100286424 -0.06653326 -0.19413409 -0.07822969 0.04177166 -0.100602716 -0.13200848
0.044187576 -0.034142524 -0.18048222 -0.1572531 -0.13909343 -0.24189456 0.097315595 -0.17231555
0.06260749 0.28489557 -0.09449462 0.027925592 -0.10031634 0.029949266 0.03606426 0.13941315
0.09325714 0.27419716 0.011029096 0.24379317 -0.0356168 0.045315538 0.103253365 0.11401676
0.00040608077 -0.049618702 0.15413204 0.3088592 0.25462458 -0.04373668 -0.04775203 0.030312382
0.1926133 0.058496937 0.123586185 -0.2506781 0.1373805 -0.15121357 -0.04422292 0.13542365
0.22080691 0.2875233 0.22301985 0.278743 0.08959201 0.15518044 -0.016512183 0.22879583
0.15716577 -0.011096611 0.32849813 0.11221096 0.04746486 0.28340974 0.119029045 0.24618429
-0.037109926 0.11631466 -0.08518319 0.13270321 0.14050232 0.06558998 0.0083156135 0.1627913
0.17865548 0.288198 0.17375144 -0.11665706 0.2729913 0.17200135 0.18213704 0.21339336
-0.2811225 0.10628985 0.02447115 -0.19568606 0.05620698 0.011393385 -0.033421375 0.008317197
-0.14595039 -0.16416368 -0.31024656 -0.28503168 -0.2629676 -0.23717 0.08339932 0.008436566
-0.19052093 -0.17548387 -0.16219121 0.09983614 -0.19726156 0.09635479 0.07796698 -0.0044460157
-0.26032305 0.07077859 0.023068417 0.08607157 -0.0301231 -0.01835918 -0.15694492 0.036824938
-0.11411617 -0.12986015 -0.1672231 -0.19992323 0.08080368 -0.1615935 0.055069733 -0.18245943
-0.21574843 0.085991696 0.008605962 -0.25111732 -0.059908584 -0.170569 -0.1719641 -0.01195348
-0.29738182 -0.17479448 -0.0048468905 0.0026015723 -0.08703216 -0.27259073 0.024936778 -0.26917797
-0.09491761 -0.09104771 -0.102254756 -0.07165161 0.073694944 -0.28693503 -0.054200247 -0.22304654
00000000: a88f 5bbe ba36 163e d9bd 8a3d 63ec 8d3e
00000010: 477c fb3d 9b56 683e 0879 9f3e 3c2f 693e
00000020: 0b01 f83d 2000 cabd 0f5c 123e f8ee a4bd
00000030: 4ecb 263e cf4e 213c 9c9f 1ebe 45ce 363e
00000040: ce26 4c3e 0704 fb3d 1a5a b8bd 3550 c73d
00000050: 73d4 873e b024 873e 70ed 033e 6f21 df3c
00000060: 5738 a4bd 3fb7 a13e dafa b73d 7979 ccbc
00000070: b42d a63d 78b9 71be 2bbe b53d 2430 913d
00000080: 5855 fc3d 654f 143e 8650 7e3e 4709 97bd
00000090: b403 ae3c d421 313e 1abb c73d e4a2 ad3d
000000a0: e415 893c dbe6 16be 5bf4 3d3e 2355 5a3e
000000b0: d296 cc3d 7957 b6bc 7904 883e 5571 ecbd
000000c0: a896 f03d e952 32be f5f0 443e 2e93 b9ba
000000d0: 86e1 f13c 4842 6f3e 656b 9c3d f17a f03c
000000e0: 1f8e bfbd aeb6 7d3e 4bff 37bb 91f5 02be
000000f0: bccc 1fbd 70b5 abbb ab4d 173c 3fee 403d
00000100: 25b8 17be fe50 8abe 3924 d6bc cb1f a6bd
00000110: 7c6c 63bd df30 b23d d084 a83d 360e f2bd
00000120: c80b 723c e110 08be ecbe 9dbe d5a3 a3bc
00000130: c410 1fbe 10dd 99bc 8f35 e33d fa2d 14be
00000140: 910c 17be 8bd1 a4bd 3a5d 81bc aee4 d13a
00000150: 0743 4cbe d54d f33c a2c6 3abe 2e00 4ebc
00000160: e18c 3cbe 4e63 65be ff2b 1a3e 7308 05bd
00000170: 9738 c43c 064a 6d3e 539d 5c3d f856 5f3d
00000180: 262a e93d d0eb 05bd 487a 9cbd 6877 12be
00000190: c738 8fbe 6d79 88bd ce13 a83d 638f 9bbc
000001a0: 0ec7 a73d 018a abbb 4209 51be ab34 5fbe
000001b0: ede9 823d bdb3 d73d 57ba 21be 053c 0dbd
000001c0: cb39 7ebe f862 cd3d 9742 88bd 16cb 46be
000001d0: e336 a0bd c318 2b3d cc08 cebd 3b2d 07be
000001e0: 08fe 343d 08d9 0bbd 55d0 38be f506 21be
000001f0: 826e 0ebe 35b3 77be 664d c73d 7d73 30be
00000200: 5b38 803d d5dd 913e 6586 c1bd 36c4 e43c
00000210: a772 cdbd 2a58 f53c 1eb8 133d 52c2 0e3e
00000220: 99fd be3d 9263 8c3e 62b3 343c eba4 793e
00000230: ece2 11bd c99c 393d 8076 d33d 9e81 e93d
00000240: 3de7 d439 fb3c 4bbd cad4 1d3e cb22 9e3e
00000250: 275e 823e 3c25 33bd a297 43bd ac51 f83c
00000260: 6c3c 453e 7c9a 6f3d c11a fd3d e158 80be
00000270: 79ad 0c3e bbd7 1abe 1823 35bd 7fac 0a3e
00000280: 351b 623e 4136 933e 515f 643e 67b7 8e3e
00000290: 047c b73d 9fe7 1e3e 8f44 87bc 7449 6a3e
000002a0: 10f0 203e 8fce 35bc e830 a83e dcce e53d
000002b0: 836a 423d 151b 913e 80c5 f33d bc17 7c3e
000002c0: 9400 18bd 6136 ee3d 8674 aebd 5ae3 073e
000002d0: d7df 0f3e 0a54 863d 363e 083c c3b2 263e
000002e0: 76f1 363e b08e 933e e6eb 313e e6e9 eebd
000002f0: 84c5 8b3e 1f21 303e 2282 3a3e ca83 5a3e
00000300: 4aef 8fbe 7eae d93d b977 c83c ed61 48be
00000310: 4a39 663d 52ab 3a3c dae4 08bd da44 083c
00000320: 0574 15be 861a 28be a3d8 9ebe acef 91be
00000330: b0a3 86be b1dc 72be 43cd aa3d 8639 0a3c
00000340: eb17 43be 0bb2 33be 7415 26be e476 cc3d
00000350: effe 49be a955 c53d 27ad 9f3d e2af 91bb
00000360: 1049 85be 5ef4 903d faf9 bc3c 4b46 b03d
00000370: b8c4 f6bc fe65 96bc 2bb6 20be bfd5 163d
00000380: bdb5 e9bd 0ffa 04be 883c 2bbe adb8 4cbe
00000390: 667c a53d c478 25be cd90 613d a5d6 3abe
000003a0: 28ed 5cbe 6a1c b03d 0500 0d3c 7392 80be
000003b0: b462 75bd a4a9 2ebe 5b17 30be 87d8 43bc
000003c0: 6e42 98be 53fd 32be aad2 9ebb 247f 2a3b
000003d0: eb3d b2bd 0391 8bbe 3748 cc3c b2d1 89be
000003e0: 2a64 c2bd 3977 babd f16a d1bd 14be 92bd
000003f0: 60ed 963d 26e9 92be 1401 5ebd 5066 64be

encoder.dcrnn_cells.1.update.weights_pool f4 [2, 2, 128, 64]
-0.16860339 -0.14220224 -0.08088163 -0.19105119 0.1895468 -0.19606915 -0.21818782 -0.06118192
0.19185801 0.19255391 0.17975572 -0.15101162 0.20011717 0.22101921 0.20769238 -0.18804307
-0.19544633 -0.19824837 0.07809121 0.14579539 0.19565356 -0.028373748 -0.19146311 0.19763252
0.16342792 0.20810425 -0.2098116 -0.22554131 -0.210015 -0.19479191 0.20177609 -0.22752878
-0.17256917 0.14664681 0.1677251 0.14438117 0.065813646 -0.15487352 0.21111515 -0.16846637
-0.19761948 0.15174508 -0.15027717 0.18828028 0.1802068 0.11795262 0.18505482 -0.08213006
-0.06830601 -0.19104797 -0.22851078 -0.18241094 -0.15893446 0.19525535 -0.17492837 0.18751614
0.20197195 -0.13966748 0.21302132 0.20009026 -0.18818493 0.18900461 -0.19231261 0.20604843
-0.22464599 -0.24134001 -0.10862553 -0.25955287 0.27012277 -0.267755 -0.2898612 -0.10111829
0.21785675 0.27952892 0.26962784 -0.2138334 0.2255865 0.279216 0.25224704 -0.26509854
-0.2631608 -0.2763854 0.0028537293 0.21944799 0.26167652 -0.14171074 -0.25702602 0.28014445
0.21092674 0.2772287 -0.20297293 -0.25552726 -0.28318584 -0.19242562 0.25712413 -0.27367973
-0.27753085 0.21479696 0.2691907 0.22970876 0.10545496 -0.21295977 0.28058434 -0.21876572
-0.27689093 0.218787 -0.22444226 0.260646 0.2778877 0.20868552 0.26519132 -0.20222864
-0.02793077 -0.2436921 -0.26859206 -0.26691338 -0.21817027 0.25571865 -0.28111047 0.257334
0.26197731 -0.22900371 0.27629954 0.23237813 -0.27211183 0.26361588 -0.21364646 0.2163668
0.15844296 0.14733925 0.09577181 0.20213878 -0.17653947 0.20011804 0.20378284 0.051421475
-0.20991506 -0.17268926 -0.18577394 0.15750219 -0.18706788 -0.20274872 -0.19441147 0.18565021
0.19816731 0.18468057 -0.076955505 -0.14875151 -0.18714395 0.039068364 0.18385446 -0.18991151
-0.14731012 -0.20376682 0.19760333 0.20203593 0.20975582 0.18367326 -0.21817529 0.201786
0.18470192 -0.1674806 -0.18525128 -0.16083744 -0.06258648 0.17709172 -0.21178831 0.16996382
0.18018745 -0.17044815 0.17965867 -0.17712967 -0.19292207 -0.14721455 -0.18602267 0.09737185
0.06318621 0.19248164 0.21630666 0.1992259 0.16440144 -0.18124609 0.17734775 -0.19322836
-0.1983674 0.14680494 -0.19784063 -0.19596614 0.19688141 -0.19772291 0.20129222 -0.20684808
-0.16089538 -0.13710774 -0.08350246 -0.19519468 0.1910236 -0.17730178 -0.18996087 -0.056394096
0.18731178 0.16305114 0.19154172 -0.1383699 0.19849327 0.20743659 0.19915701 -0.19200613
-0.17742145 -0.18257865 0.06554526 0.15982696 0.17145316 -0.035755757 -0.17241323 0.17593512
0.15982103 0.19795674 -0.20606935 -0.19249323 -0.21539609 -0.18474373 0.20701097 -0.20387967
-0.16977748 0.14737555 0.17681776 0.14746706 0.0591235 -0.16436361 0.19701938 -0.17332618
-0.1812706 0.14721677 -0.15024534 0.18811831 0.17149387 0.12370054 0.17225826 -0.093820475
-0.054933462 -0.17755143 -0.20050009 -0.19021639 -0.17422487 0.17138015 -0.1941622 0.19291589
0.18709032 -0.1513632 0.20411608 0.19114925 -0.18132865 0.19579755 -0.19427483 0.18189242
00000000: 5ea6 2cbe 779d 11be 45a5 a5bd eca2 43be
00000010: 8e18 423e 5ac6 48be a16c 5fbe e599 7abd
00000020: 6d76 443e da2c 453e e211 383e caa2 1abe
00000030: 84eb 4c3e dc52 623e 50ad 543e 5d8e 40be
00000040: 1523 48be 9f01 4bbe 49ee 9f3d 634b 153e
00000050: 6859 483e 1070 e8bc e80e 44be 2e60 4a3e
00000060: a659 273e 4819 553e dad8 56be 4df4 66be
00000070: 2c0e 57be 8877 47be 649e 4e3e 4efd 68be
00000080: f9b5 30be 952a 163e 21c0 2b3e a8d8 133e
00000090: 4ec9 863d 2a97 1ebe 922e 583e 7382 2cbe
000000a0: c35c 4abe 1063 1b3e 42e2 19be 8ccc 403e
000000b0: 2288 383e 2591 f13d 037f 3d3e ce33 a8bd
000000c0: 05e4 8bbd 14a2 43be bbfe 69be efc9 3abe
000000d0: b7bf 22be 05f1 473e 6c20 33be 3b04 403e
000000e0: bcd1 4e3e fe04 0fbe 4322 5a3e 76e4 4c3e
000000f0: 8db3 40be 6d8a 413e 99ed 44be 5cfe 523e
00000100: 9909 66be d621 77be 1077 debd 1de4 84be
00000110: 884d 8a3e 2f17 89be b068 94be 1b17 cfbd
00000120: d715 5f3e 6a1e 8f3e a90c 8a3e 25f7 5abe
00000130: 2600 673e 66f5 8e3e 8626 813e ffba 87be
00000140: 03bd 86be 6382 8dbe a205 3b3b f9b6 603e
00000150: 77fa 853e 9f1c 11be ea98 83be 186f 8f3e
00000160: 2efd 573e ecf0 8d3e 23d8 4fbe 78d4 82be
00000170: bcfd 90be 390b 45be c6a5 833e c01f 8cbe
00000180: 8618 8ebe bcf3 5b3e 5dd3 893e c638 6b3e
00000190: c5f8 d73d 2012 5abe c0a8 8f3e 1f04 60be
000001a0: a6c4 8dbe b309 603e 31d4 65be 6473 853e
000001b0: 4c47 8e3e a8b1 553e 28c7 873e 0615 4fbe
000001c0: 12cf e4bc 6c8a 79be e684 89be dfa8 88be
000001d0: 0768 5fbe 8eed 823e b6ed 8fbe 48c1 833e
000001e0: e421 863e f37f 6abe 2277 8d3e 88f4 6d3e
000001f0: 3e52 8bbe a9f8 863e 23c6 5abe 428f 5d3e
00000200: df3e 223e 1ae0 163e 0324 c43d 78fd 4e3e
00000210: c3c6 34be beeb 4c3e 73ac 503e 539f 523d
00000220: f9f3 56be 74d5 30be 863b 3ebe 4148 213e
00000230: b98e 3fbe 5c9d 4fbe cd13 47be 171b 3e3e
00000240: 5fec 4a3e e71c 3d3e d99a 9dbd 5152 18be
00000250: aaa2 3fbe 2606 203d 5844 3c3e 2a78 42be
00000260: 77d8 16be 40a8 50be 8758 4a3e 82e2 4e3e
00000270: 3bca 563e d814 3c3e 5869 5fbe fda0 4e3e
00000280: 8022 3d3e 0980 2bbe 83b2 3dbe 92b2 24be
00000290: 572d 80bd 8857 353e 09df 58be ff0a 2e3e
000002a0: 0f83 383e f689 2ebe 71f8 373e 7b61 35be
000002b0: 5d8d 45be 69bf 16be ba7c 3ebe e46a c73d
000002c0: c667 813d e819 453e 7e7f 5d3e e001 4c3e
000002d0: da58 283e 9398 39be a69a 353e a8dd 45be
000002e0: d320 4bbe 0954 163e bc96 4abe 59ab 48be
000002f0: 489b 493e e077 4abe 8c1f 4e3e fccf 53be
00000300: c2c1 24be f965 0cbe 5603 abbd 1de1 47be
00000310: b19b 433e 998e 35be 1a85 42be 7ffd 66bd
00000320: a9ce 3f3e e1f6 263e 8323 443e d7b0 0dbe
00000330: d241 4b3e 426a 543e d1ef 4b3e 419d 44be
00000340: f8ad 35be e6f5 3abe 983c 863d aea9 233e
00000350: 6b91 2f3e a174 12bd 188d 30be 5628 343e
00000360: 20a8 233e 2cb5 4a3e d803 53be f21c 45be
00000370: cb90 5cbe 762d 3dbe affa 533e d5c5 50be
00000380: 26da 2dbe 9ee9 163e b70f 353e 9b01 173e
00000390: 7c2b 723d ef4e 28be 73bf 493e 6b7c 31be
000003a0: 009f 39be febf 163e ead9 19be 16a2 403e
000003b0: 179c 2f3e b556 fd3d 7864 303e f324 c0bd
000003c0: e901 61bd 0bd0 35be e54f 4dbe 16c8 42be
000003d0: 0168 32be 477e 2f3e 75d2 46be be8b 453e
000003e0: 9b94 3f3e f4fe 1abe ce03 513e a1bc 433e
000003f0: 38ae 39be 277f 483e fbef 46be 0242 3a3e

encoder.dcrnn_cells.1.update.bias_pool f4 [2, 64]
-0.23352768 0.22450148 -0.020186523 0.28606376 -0.1267778 0.27891213 0.421429 0.21214834
0.20460205 -0.41697162 -0.3111623 -0.06362302 0.09317117 -0.17780972 -0.051474825 0.3875295
0.3317667 0.29131478 -0.24952179 0.113636345 -0.17926006 0.22598977 0.3304917 -0.32656854
0.12674999 -0.2824823 -0.15557516 0.08523359 0.19120255 -0.22390586 -0.08974069 0.31086904
0.2816026 0.13728328 -0.21740893 -0.004472224 -0.18989621 -0.18506965 -0.36160827 -0.22804692
0.32165438 0.12287512 -0.00027691177 -0.27517536 -0.24505231 0.051720913 -0.28686303 0.2425767
0.2764959 -0.04337974 0.23865737 0.27028084 -0.23311871 -0.41114828 0.36829436 -0.35749462
-0.108751446 0.051290475 -0.24805483 -0.012280297 0.14364912 -0.40639263 -0.27089122 0.265216
0.38988894 0.22252262 0.22137415 0.3972824 -0.22042473 0.1601317 -0.11581582 0.372662
0.003464671 -0.38925838 -0.4265042 0.36264724 -0.0021559398 0.18040706 -0.0245098 0.15082541
0.14207424 0.30647045 -0.39636752 -0.28385615 -0.21465819 0.38609403 0.30583537 -0.30038053
-0.2409873 0.07968483 0.0125465775 -0.1739299 -0.086107776 -0.11386906 0.13661759 -0.12329904
0.41762835 -0.4254619 -0.20865373 -0.21931335 -0.4196238 0.23863082 0.029909957 0.26900643
0.36179098 -0.3639447 0.30761185 -0.21913496 -0.18100263 -0.3726081 -0.157689 0.35854906
0.371585 0.035453785 -0.043758184 0.3187855 0.3145066 -0.27160433 0.22324832 -0.3716043
-0.03402074 0.17676085 0.009650619 0.040266346 0.2892225 -0.4130288 0.13399732 -0.15824209
00000000: e121 6fbe b7e3 653e 355e a5bc f376 923e
00000010: 0ad2 01be 92cd 8e3e 8bc5 d73e 6a3d 593e
00000020: 3383 513e 4e7d d5be aa50 9fbe c94c 82bd
00000030: 87d0 be3d c013 36be 44d7 52bd 446a c63e
00000040: 53dd a93e 3627 953e a482 7fbe 2cba e83d
00000050: f38f 37be dd69 673e 3536 a93e fe33 a7be
00000060: c0ca 013e 85a1 90be 184f 1fbe f38e ae3d
00000070: 9aca 433e 9447 65be f8c9 b7bd 3a2a 9f3e
00000080: 372e 903e fd93 0c3e 72a0 5ebe bc8b 92bb
00000090: 2774 42be e682 3dbe b824 b9be 2285 69be
000000a0: e2af a43e f3a5 fb3d 782e 91b9 c9e3 8cbe
000000b0: feee 7abe 4fd9 533d b6df 92be 0766 783e
000000c0: df90 8d3e f4ae 31bd 9962 743e 4062 8a3e
000000d0: acb6 6ebe 0782 d2be 1491 bc3e 8909 b7be
000000e0: 14b9 debd f615 523d 1602 7ebe 4d33 49bc
000000f0: c118 133e b212 d0be 41b2 8abe 64ca 873e
00000100: 869f c73e f8dc 633e e8af 623e 9968 cb3e
00000110: 05b7 61be 90f9 233e d830 edbd 8ecd be3e
00000120: 890f 633b e04c c7be c25e dabe e6ac b93e
00000130: ab4a 0dbb a1bc 383e c7c8 c8bc fa71 1a3e
00000140: e97b 113e b2e9 9c3e aff0 cabe 9855 91be
00000150: 5bcf 5bbe 1eae c53e 7496 9c3e 7acb 99be
00000160: 60c5 76be cd31 a33d 2990 4d3c ae1a 32be
00000170: 4659 b0bd 2f34 e9bd 7be5 0b3e 3584 fcbd
00000180: 62d3 d53e 24d6 d9be 53a9 55be ae93 60be
00000190: eed8 d6be a35b 743e ba05 f53c 36bb 893e
000001a0: ab3c b93e f656 babe 4d7f 9d3e ea64 60be
000001b0: c158 39be 7dc6 bebe 3a79 21be be93 b73e
000001c0: 6440 be3e fd37 113d c83b 33bd da37 a33e
000001d0: 0207 a13e b90f 8bbe 359b 643e eb42 bebe
000001e0: 5559 0bbd cc00 353e a11d 1e3c 53ee 243d
000001f0: f914 943e 8378 d3be 9836 093e 370a 22be
