CQ/result/P7_Resullt/HOURS/data18/2/best_model.pth (torch_old, 603202 bytes, 11 tensors)

node_embeddings f4 [228, 2]
000000 79 cf 57 3d 7d 93 51 bc 9b 1e 96 3e c9 20 86 3e
       0.052688096 -0.012791512 0.29320225 0.26196888
000010 f4 9c 2e 3e ac e0 02 3e 0c 3a b7 bd 1a bc 90 3e
       0.1705206 0.12781018 -0.089466184 0.2826851
000020 e9 5f 93 3e 08 40 4f 3e 9f da 86 3e c0 00 04 3d
       0.2878411 0.2023927 0.2633867 0.032227278
000030 f7 7f 17 3e 5f 6b b8 3d b5 f2 0c 3e 52 4f 8f 3e
       0.14794908 0.090048544 0.1376446 0.27990204
000040 13 1f 81 be 1e f5 dd bd b6 01 e0 bd 22 c9 8c 3e
       -0.2521902 -0.10837768 -0.10937826 0.27497202
000050 9c b7 95 3e a7 41 2a 3e be 8e 96 3e 23 6d 7f 3e
       0.29241645 0.16626607 0.2940578 0.24943976
000060 e5 d5 16 bd a1 16 52 3d 44 9e 88 3e 00 9b 09 3e
       -0.03682508 0.05129111 0.26683247 0.13438034
000070 b9 8e 29 3e 7b f4 21 3e 90 85 31 bd 8b db c3 3c
       0.1655835 0.15815918 -0.043340266 0.023908397
000080 61 4b 76 bd c7 72 9d 3e 4c 84 52 3e db 90 90 3e
       -0.06013048 0.3075163 0.2055828 0.28235516
000090 bf f6 3d 3e cb 48 89 3d f3 f7 05 3e 24 47 7f 3e
       0.18551157 0.06703337 0.13082866 0.24929482
0000a0 02 0b b3 bd be 1a 5c 3e 6c 31 31 3e 74 d5 0c 3e
       -0.08742334 0.21494576 0.17304009 0.13753301
0000b0 99 a2 81 3e 04 29 22 3e 7e db 92 3e 31 3c db 3d
       0.25319365 0.15835959 0.28683084 0.1070484
0000c0 39 9d 78 3e 21 7d 59 3d 3c ce e0 3d 56 8c 3d 3e
       0.24278726 0.053097848 0.10976836 0.18510565
0000d0 4a bc f8 3d 20 39 66 3e e8 f7 e1 3d fb 07 39 3e
       0.12145288 0.22482729 0.110336125 0.1806945
0000e0 96 9a 2c 3d 9f f5 5b 3e cd f2 00 3c 9a c9 7e 3d
       0.042139612 0.21480416 0.007870388 0.06220398
0000f0 85 cc f1 bd ec 45 93 3e b4 46 44 3e ca 27 64 3e
       -0.11806587 0.28764284 0.19167596 0.22280803
000100 db 95 85 3e 05 93 be 3c d0 14 8f 3e b2 53 e6 3d
       0.26090893 0.023263464 0.27945566 0.11246432
000110 bb ac 8c 3d 01 9a 8f bc 97 68 9c 3d ff ca 8a 3e
       0.06868883 -0.01752949 0.076371364 0.27108
000120 2d 2a a2 3d b2 e8 7e 3e b6 86 1f be 56 07 73 3e
       0.07918201 0.24893454 -0.15578732 0.23733267
000130 1a 3e 0f 3e c7 39 6c 3e 05 6b 1d bd ce f0 92 3e
       0.13988534 0.23068915 -0.03843214 0.28699344
000140 1a 16 68 3e 39 98 91 3e 68 d7 23 3e 9c 9b 4e 3e
       0.22664681 0.2843645 0.1600014 0.20176548
000150 4d b2 0d 3e f9 d7 60 3e c9 9a 7b 3e 58 08 12 ba
       0.13837548 0.21957387 0.24570765 -0.00055707013
000160 78 dd 34 3e 97 12 5e 3e 28 ed c5 3d ae 68 42 3e
       0.17662609 0.21686779 0.096643746 0.18985245
000170 d4 00 98 3d 79 18 8e 3e 62 89 86 3e 4d 67 e9 3c
       0.07422033 0.27753046 0.2627669 0.02849164
000180 34 25 12 3e ce d0 2c 3e a9 9a 5c 3e ad c5 a1 3d
       0.14272004 0.16876528 0.21543373 0.07899032
000190 ab 91 00 3e b5 4e c6 3d 4e 85 b9 3d 81 3e 51 3e
       0.12555568 0.09682981 0.09058629 0.20434
0001a0 2c 6f 43 3e 94 d2 94 3e 2e 42 68 3e b1 5f 62 3e
       0.19085377 0.29066908 0.22681496 0.22106816
0001b0 b6 09 99 3d 0f 00 24 3e 48 82 53 bc a7 e3 92 3e
       0.07472555 0.16015647 -0.012909479 0.2868931
0001c0 fb 44 88 3e 9d 2b 93 3e 7c 23 82 3e d5 19 ab 3c
       0.26615128 0.28744212 0.25417697 0.020886341
0001d0 c7 fb 81 3d 4e 2f 70 bc 78 90 3c 3e 1a b9 1e 3d
       0.06346851 -0.014659716 0.18414485 0.038750745
0001e0 9f 1a 96 3c 86 3c cf 3c f0 17 1b 3d 7f b3 0d 3d
       0.01832324 0.025297415 0.037864625 0.03459501
0001f0 95 ad 92 3e b0 9a 01 3e 4a 2c 90 3e 28 ba b5 3d
       0.28648058 0.12656665 0.2815879 0.08873397
000200 24 92 de 3d 83 15 d7 3d f2 f7 67 3e 14 b3 89 3d
       0.10867718 0.1050215 0.22653177 0.067236096
000210 dd a4 79 3e 63 b3 37 3e f5 62 3f 3c f0 45 9f 3e
       0.24379297 0.17939524 0.011681308 0.31108046
000220 4e 0e 24 3e 13 cd 04 3e 0a 9d 8b 3e c7 63 97 3e
       0.16021082 0.12968855 0.2726825 0.29568312
000230 cd 26 98 3e 1c 54 d9 3c 1e 4a 29 3d 60 bf d8 3c
       0.29717103 0.026529364 0.04133045 0.026458442
000240 03 46 7e 3e 02 3f a1 3d 60 9e 0a 3e 0a 95 e5 3d
       0.24831395 0.07873346 0.13536978 0.112100676
000250 4f ad 98 3e 73 4e 8a 3e 58 2f 2f 3e 36 88 08 3e
       0.29819724 0.27012977 0.17107904 0.1333321
000260 b0 3e 7b 3d a4 58 84 3e d0 50 50 3e e1 7b 6b 3e
       0.06133908 0.25848877 0.20343328 0.22996475
000270 c3 5a 97 3e 07 6c 2f 3b 78 9a 33 3e 0c 8d 91 3e
       0.29561433 0.002676727 0.17539394 0.28427923
000280 e4 05 23 3e c2 a2 13 3c ef ef 83 3e 37 9c d0 3c
       0.15920216 0.009010972 0.25768992 0.025465114
000290 d1 f2 80 3e d6 42 ff 3d 49 1b f7 3d c8 db 37 3e
       0.25185254 0.1246392 0.12065751 0.17954934
0002a0 7c 75 99 3e 50 ae 99 3e 77 4b 40 3e 55 81 21 3e
       0.29972446 0.30015802 0.18778788 0.15771993
0002b0 bd 9e 97 3e e4 0a 0d bd 59 23 88 bd 3b ad 89 3e
       0.29613295 -0.034434214 -0.06647367 0.26889977
0002c0 60 c1 40 3e bb e6 86 3d f6 cd 86 be c6 e4 43 3e
       0.18823767 0.06586977 -0.2632901 0.19130239
0002d0 ca 99 2e 3c c2 f9 5f 3e b6 a3 f7 3d cf 6d db 3c
       0.010656783 0.21872619 0.12091772 0.02678576
0002e0 d5 c6 3c 3e a5 9e bd 3d ac fe 59 be d4 35 12 3e
       0.18435223 0.09258775 -0.21288556 0.14278346
0002f0 44 11 6b 3e 72 f6 97 3d e8 41 3e 3e f9 ea 5c 3e
       0.22955805 0.074200526 0.18579829 0.2157401
000300 c4 38 69 3d 8b 5b 16 3b 37 f7 52 3e 16 12 d1 3d
       0.0569389 0.0022942747 0.20602117 0.10208528
000310 89 0c 84 3e 9a 41 3e 3e 46 f0 ae 3d 9b 31 8e 3e
       0.25790814 0.18579713 0.08541922 0.2777222
000320 ae 7f db 3d 1f 30 25 3e 83 56 9f 3d 89 e5 84 3e
       0.10717712 0.16131638 0.07780173 0.2595637
000330 20 3d f3 3d bf ff 98 3e c6 d4 4d 3e ef d0 05 3e
       0.11876893 0.2988262 0.20100698 0.13067983
000340 0c 07 5f 3d 1f 2f 5b 3e b6 7c 37 3e a2 65 3f 3e
       0.05445008 0.21404694 0.17918667 0.18691114
000350 2d 2c 8b bd 58 ff 4e 3d 88 7f 5b 3d 0e 00 7b 3e
       -0.06795535 0.050536484 0.05358842 0.2451174
000360 2a 2c 16 3e 7f 66 06 3e 98 0e 96 3e 42 ca 90 3e
       0.14665285 0.13125037 0.2930801 0.2827931
000370 c4 22 4e 3e 01 1a 6d bd 74 9e 3f bd 14 86 7d 3e
       0.2013045 -0.057886127 -0.046781972 0.24758178
000380 19 9e d7 bd 51 31 04 3e 83 e9 92 3e 40 9f 61 3e
       -0.105282016 0.12909438 0.2869378 0.22033405
000390 6c 46 45 3e 5f 89 c7 3d 71 bc bb bd ee 0e c5 3d
       0.19265145 0.09742998 -0.09166802 0.09621988
0003a0 28 2d 8e 3e 72 68 6c 3e eb 52 92 3e 5c ad 12 3e
       0.27768826 0.23086718 0.28578886 0.14323944
0003b0 91 d1 91 3e ad 90 d3 3d 58 25 ad be df bd 04 3d
       0.284802 0.10330329 -0.33817554 0.032407638
0003c0 95 9b 84 3e 85 b4 19 3e 27 1e 37 3e cb cf 2b 3e
       0.2589995 0.15010269 0.17882596 0.16778485
0003d0 9e b5 76 3e b8 5d 7e 3e f8 f5 26 3c fd f3 45 3e
       0.24092719 0.24840438 0.010190479 0.19331355
0003e0 0d c2 98 bc 75 16 2c 3e 2e c1 48 be ed 96 d6 bd
       -0.018647218 0.16805442 -0.19604942 -0.104780056
0003f0 77 40 4a bd 43 51 d1 3c 2f a0 4a 3e 86 49 57 3e
       -0.049377885 0.025551444 0.19787668 0.2102414

encoder.dcrnn_cells.0.gate.weights_pool f4 [2, 2, 65, 128]
000000 fe 60 51 bd 4a 58 24 be 60 72 a8 bd 4c 30 b9 bd
       -0.05111789 -0.16049305 -0.0822494 -0.09042415
000010 56 57 af bd 9b ff 68 bd 72 fd 05 be 3a 12 a4 bd
       -0.0856158 -0.05688439 -0.13084963 -0.08011289
000020 f1 71 29 be 36 6e 40 3e 7b 66 a3 bd ed d8 a7 bd
       -0.16547371 0.18792042 -0.07978531 -0.08195672
000030 ab d8 9d bd bd dc 9a bd 24 b7 06 be 9f ef d7 3d
       -0.07707342 -0.07561634 -0.131558 0.10543751
000040 d6 a7 b0 bd a7 e1 b0 bd c0 7f 1d be 46 e3 29 be
       -0.08625762 -0.0863679 -0.15380764 -0.16590604
000050 af a6 8f bd da 9c 10 be b6 85 ba bd 6d 42 54 3e
       -0.07014214 -0.14122334 -0.091075346 0.20728464
000060 68 bd 0e 3e 1f fb 93 bd 6a a1 0f be b6 f8 27 be
       0.1393944 -0.07225632 -0.14026418 -0.1640347
000070 9c 3f 99 bd cf d1 c3 bd 56 27 21 3e a8 6e 0e be
       -0.07482836 -0.09561502 0.15737662 -0.139094
000080 07 18 25 be 15 d2 04 be cb ea 1d be f1 13 8c bd
       -0.16122447 -0.12970765 -0.15421598 -0.06839741
000090 31 57 98 bd d3 b1 9c bd 2d 4f 4e bd 50 78 24 3e
       -0.074385054 -0.07651105 -0.050368477 0.1606152
0000a0 64 1e 58 3e 45 74 02 be e1 f7 a2 bd bd 7a b4 bd
       0.21105343 -0.12739666 -0.079574354 -0.08812473
0000b0 1a 06 4a 3e 2e c6 6f bd 5e 0c 51 3e 1f 0f 76 bd
       0.1972889 -0.05853861 0.20414874 -0.060073014
0000c0 bd 99 4c 3e d4 04 27 be c0 89 b9 bd f3 fb 83 bd
       0.19980522 -0.16310436 -0.09059477 -0.0644454
0000d0 13 a9 29 be d9 26 19 3e ce 7f 92 bd 6d 17 87 bd
       -0.16568403 0.14956225 -0.07153283 -0.06596265
0000e0 c7 e9 cb bd 79 81 83 bd 95 53 23 be 39 4a 16 be
       -0.09956699 -0.06421179 -0.15949853 -0.14676751
0000f0 36 fb be bd 5f 55 94 bd 11 c1 2b be 32 09 85 bd
       -0.093252584 -0.07242846 -0.16772868 -0.064958945
000100 64 9e 8c 3c 19 b1 ec 3d b1 1c 96 3d d2 16 82 3d
       0.01716537 0.11557216 0.07329691 0.06352009
000110 50 3c 96 3d 96 38 32 3d 85 28 0f 3e b7 e0 a3 3d
       0.073357224 0.043510996 0.139803 0.08001845
000120 83 59 ef 3d 50 e1 85 bd c8 68 c3 3d 6b 67 a0 3d
       0.11686995 -0.065371156 0.0954147 0.078322254
000130 79 b2 93 3d 75 d1 ad 3d 1a 94 f1 3d a0 7c 0e bc
       0.07211775 0.084872164 0.11795826 -0.008696705
000140 3d 09 6b 3d eb 70 83 3d c4 3c e0 3d 1f 10 05 3e
       0.057381857 0.06418022 0.1094909 0.12994431
000150 f2 7d 7c 3d de e5 f2 3d 80 eb 8c 3d 21 a2 99 bd
       0.06164355 0.1186025 0.068808556 -0.07501627
000160 97 a8 89 bc 00 e3 55 3d ec 35 fc 3d b8 4d d9 3d
       -0.016804023 0.052218437 0.12314972 0.10610527
000170 57 85 69 3d c7 42 a1 3d 69 99 ba bd 8f eb 06 3e
       0.05701193 0.07874065 -0.09111292 0.13175796
000180 5d c8 fc 3d 17 8b 07 3e 9f 92 f6 3d 8f bb 23 3d
       0.12342904 0.13236652 0.120396845 0.03997379
000190 70 95 99 3d 21 b7 75 3d c5 45 d8 3c 6e a8 91 bd
       0.07499206 0.0599891 0.026400456 -0.071122035
0001a0 23 09 e7 bc be d5 f0 3d b4 75 66 3d 9b 96 80 3d
       -0.028202599 0.11759518 0.056264594 0.06278726
0001b0 7a 0d cb bd 36 98 20 3d bc 26 90 bd 19 fe 56 3d
       -0.0991468 0.03920766 -0.07038638 0.05248842
0001c0 9e 7b 8f bd a3 d5 de 3d ac 02 9c 3d 88 49 78 3d
       -0.07006 0.10880592 0.07617697 0.060617
0001d0 64 3e 04 3e 93 a6 b8 bd 62 4e 9f 3d 0b 23 6b 3d
       0.12914425 -0.090161465 0.07778622 0.057406466
0001e0 68 7e a8 3d fc 99 08 3d b9 d4 d5 3d 9b 33 06 3e
       0.08227235 0.033349976 0.10440964 0.13105623
0001f0 8b e5 ae 3d 3d a9 42 3d a9 f6 f8 3d 53 99 f4 3c
       0.085398756 0.04752468 0.12156422 0.029858267
000200 32 de ef bd bc 1e 26 be 2d 6f 05 be 60 69 0c be
       -0.11712302 -0.16222662 -0.13030691 -0.13712072
000210 8a 1c 08 be e8 4f df bd 6e cf 0c be ce 06 f7 bd
       -0.13292137 -0.10903913 -0.13751003 -0.12061845
000220 ca 98 7e bd 15 16 d2 bd ed 32 09 be 9e 98 f7 bd
       -0.06215743 -0.10258118 -0.13398333 -0.12089656
000230 6f e3 df bd b6 53 ff bd ef 2e 09 be ec 2c e4 bd
       -0.109320514 -0.124671385 -0.1339681 -0.11141381
000240 eb c7 05 be 3d dd f0 bd 2c c7 ba bd d4 e7 1b be
       -0.13064544 -0.11760948 -0.0912002 -0.15225154
000250 b0 94 f7 bd 0c 82 e2 bb 58 d8 e1 bd fa a8 cb bd
       -0.12088907 -0.0069124755 -0.110275924 -0.09944339
000260 05 0b fd bd e3 c6 04 be 72 94 1d be 92 ad 41 bc
       -0.123556174 -0.12966494 -0.15388659 -0.011821168
000270 ef ce fd bd 3e 76 0a be 7e 9e f3 bd 1e 71 0e be
       -0.12392985 -0.13521668 -0.11895464 -0.13910338
000280 73 b1 c8 bd ea 03 22 be 4d 28 b7 bd f1 bf 02 be
       -0.09799471 -0.15821806 -0.08943234 -0.12768532
000290 0b 45 f5 bd d0 9f e4 bd eb fa f4 bd 81 1d e3 bd
       -0.119760595 -0.11163294 -0.11961921 -0.11089612
0002a0 dc 5d b9 bd 70 02 07 be bf e0 f9 bd 2b 15 f7 bd
       -0.090511054 -0.13184524 -0.1220107 -0.12064584
0002b0 59 e2 c3 bd cd 91 05 be 02 c4 dc bd 45 7d 0d be
       -0.09564657 -0.130439 -0.10779573 -0.13817318
0002c0 3d 98 df bd 7c c1 c9 bd f3 41 08 be 69 99 e8 bd
       -0.10917709 -0.09851357 -0.13306408 -0.11357386
0002d0 3c ba f4 bd 60 b6 06 be b8 23 01 be b0 85 fc bd
       -0.11949584 -0.13155508 -0.12611282 -0.12330186
0002e0 31 50 eb bd 3d db ef bd be bf 8b bd d5 07 82 bd
       -0.11489905 -0.11711738 -0.06823681 -0.0634915
0002f0 8a d7 0b be 96 f4 05 be 87 7f 9d bd 73 a8 0b be
       -0.1365644 -0.13081583 -0.076903395 -0.13638477
000300 0b 25 1f 3e 1a f6 14 3e 7e b0 10 3e 11 2f 06 3e
       0.15541475 0.14547005 0.14129826 0.13103892
000310 4f c6 11 3e 07 0c 15 3e 62 f6 05 3e 56 9c 0e 3e
       0.14235805 0.1455537 0.13082269 0.13926825
000320 f5 da 02 3e c9 1f 0e 3e a3 6f 1a 3e 17 42 0e 3e
       0.12778838 0.13879313 0.15081649 0.13892399
000330 42 d0 0e 3e 4c 0b 16 3e 01 e4 06 3e 48 a6 06 3e
       0.13946632 0.14652747 0.13172914 0.13149369
000340 5f cc 09 3e c4 ea 1e 3e 5c 13 13 3e cc 5a 08 3e
       0.13456868 0.15519243 0.14362854 0.13315886
000350 54 51 15 3e a3 73 11 3e ca 36 1e 3e 78 4b 05 3e
       0.14581805 0.14204268 0.15450588 0.1301707
000360 31 c8 0e 3e e1 cf 08 3e 07 34 19 3e 5f 44 15 3e
       0.13943554 0.1336055 0.14961253 0.14576863
000370 cc da 1c 3e 92 1d 16 3e 57 38 0c 3e cc d1 0f 3e
       0.1531784 0.14659718 0.13693367 0.14044875
000380 34 46 17 3e 15 8c 19 3e 35 c4 09 3e bf 0c 14 3e
       0.14772874 0.14994843 0.13453753 0.14457987
000390 e2 7f 16 3e 80 24 10 3e 6f cd 1b 3e f1 bf f8 3d
       0.14697221 0.14076424 0.15215085 0.12145985
0003a0 2f fd 17 3e 7d 67 fe 3d 99 76 07 3e 25 e1 1d 3e
       0.14842676 0.124220826 0.13228835 0.15417917
0003b0 69 96 09 3e 8f 81 0c 3e 88 62 0f 3e 7c 3d 15 3e
       0.13436283 0.13721298 0.1400243 0.14574236
0003c0 ea fa 0a 3e 7a d6 17 3e f3 e0 04 3e 31 ac 17 3e
       0.13572279 0.1482791 0.12976436 0.1481178
0003d0 0a 21 11 3e f0 67 0f 3e 7e 57 07 3e 2f 41 0d 3e
       0.1417276 0.14004493 0.1321697 0.13794397
0003e0 6c eb 14 3e 69 36 08 3e 64 e6 08 3e 5f 84 03 3e
       0.14542931 0.13302006 0.13369137 0.12843464
0003f0 ae 4a 0b 3e 35 0e 08 3e d5 ff 19 3e bd 07 13 3e
       0.13602707 0.1328667 0.15038998 0.1435842

encoder.dcrnn_cells.0.gate.bias_pool f4 [2, 128]
000000 bb 10 48 3e d0 9d 4d be e8 fb 1e 3e c1 c6 87 3d
       0.19537632 -0.20079732 0.15525782 0.06629706
000010 a6 92 a8 3e 5c 68 b5 3e b6 ed b8 bd 7c 4c dd 3d
       0.32924384 0.35431182 -0.09029715 0.10805604
000020 1d 58 fe bd 6f 69 52 3e 6e 18 51 3e 63 db 59 bd
       -0.1241915 0.20548032 0.20419475 -0.05318774
000030 36 86 f1 3d 0d 75 51 3e 71 d9 8e 3e a6 be a8 3e
       0.11793177 0.20454808 0.2790027 0.32957953
000040 8e 42 14 3e 07 e4 9b 3e a3 11 a0 be 47 36 43 3a
       0.14478514 0.3044741 -0.31263456 0.00074467476
000050 c7 a0 6b 3e 34 ca df bd 8b b5 a3 3e a3 25 39 3e
       0.2301055 -0.10927239 0.31974444 0.18080764
000060 e6 08 2c 3e 0f 12 81 3e c6 5a 71 bc c3 1e 9d be
       0.1680027 0.2520909 -0.014731115 -0.30687532
000070 90 e1 67 3e 85 b3 5b 3e 6c f6 2e 3e f6 1b 06 3e
       0.22644639 0.214552 0.1708619 0.13096604
000080 d0 2b a0 bc 93 83 20 3d c8 f3 7b bd de 93 7e bd
       -0.019552141 0.03918798 -0.061511785 -0.062152736
000090 66 34 1a 3e 06 fd 96 3d 00 f2 78 3e 23 5f 8f 3e
       0.15059051 0.07372479 0.24311066 0.2800227
0000a0 44 33 17 3e 98 85 e0 3d 5b 00 a9 3d 71 6a 1d 3e
       0.1476565 0.10962981 0.08252021 0.15372635
0000b0 22 d3 8b bc 0a 33 43 3c d5 14 a8 3e 1d b0 1f 3d
       -0.01706845 0.011914024 0.32828394 0.038986314
0000c0 35 20 70 bd 9b 3a 35 be 3d 32 b1 3e e0 45 04 3e
       -0.058624465 -0.17698137 0.3460864 0.1291728
0000d0 01 5c 4a 3c ae b0 30 bd d1 ef a4 3b 35 2a 45 3e
       0.012351037 -0.043137245 0.005033471 0.19254382
0000e0 39 be bc 3d a5 31 99 3e 2e 34 a7 bd 7b 5d 37 bc
       0.092159696 0.29920688 -0.08164249 -0.011191721
0000f0 53 d0 21 3e 49 2f 39 3e 29 28 0f be 70 7f ae 3d
       0.15802126 0.18084444 -0.13980164 0.085204005
000100 0f 9c 7c be 1b 36 8b 3e 25 95 38 3d b0 05 ae be
       -0.24668907 0.27189717 0.04506411 -0.33988714
000110 1f 81 85 be 46 b9 7a be 8f a7 2b be 45 ab 8f 3d
       -0.26075074 -0.24484739 -0.16763137 0.07015089
000120 5c 71 62 bc 4d f7 7b be 9c a0 02 3d 88 43 f2 3c
       -0.013820972 -0.24606057 0.03189145 0.029573217
000130 d7 5a a6 3b 60 b6 88 bd eb e0 8b be 40 e4 4d be
       0.005076747 -0.0667541 -0.27320036 -0.20106602
000140 da 04 53 be b8 fb 99 be 5c ce 48 3e 2a 91 0e bd
       -0.2060732 -0.3007486 0.1960997 -0.034806408
000150 a9 b1 93 3a 31 51 09 bd 05 4e 6c bd bc 9b 2f be
       0.0011268157 -0.033524696 -0.057691593 -0.17149252
000160 b0 1b ad 3b f1 51 97 bd fa 5b 12 be c2 16 d5 bc
       0.0052828416 -0.07388676 -0.14292899 -0.026011828
000170 ea 68 54 be 9f be 7a be 8d c5 6f be 4f ce 7f 3d
       -0.20743147 -0.24486779 -0.23415203 0.06245261
000180 ae b4 41 3e 34 46 01 be 94 c8 18 ba 13 01 89 be
       0.1891658 -0.12624437 -0.00058282283 -0.26758632
000190 c3 27 d3 bc b7 31 9b bd 2c 08 63 be 64 a1 f7 bd
       -0.025775796 -0.07577842 -0.22171086 -0.1209133
0001a0 c2 3d a8 be 2b 07 77 bd 4d 88 2e 3d 4a d9 38 be
       -0.32859617 -0.06030957 0.042610455 -0.18051639
0001b0 36 b0 77 bd 7e f7 67 3d f0 13 81 bd 61 d7 91 be
       -0.060470782 0.05663251 -0.06302631 -0.28484634
0001c0 77 e1 a2 3d 00 e9 0d 3e 38 3e 2c be 60 6b 8f 3c
       0.0795316 0.13858414 -0.1682061 0.017507255
0001d0 61 fc 8a bc f1 3d 10 be bd 53 a1 be 00 52 cb bc
       -0.016966047 -0.14086129 -0.315092 -0.024819374
0001e0 c2 df c6 bd 33 a5 d9 bd c5 5e 6e 3d 86 7b af bd
       -0.09710647 -0.106272124 0.058195848 -0.08568482
0001f0 c4 db 88 be 0f 8f d9 bd 14 b1 1a 3d 97 7b 0e be
       -0.26730168 -0.106229894 0.03776653 -0.13914333
000200 6e f5 9e b9 b9 b3 74 3e 7b ac 39 3e 86 a9 69 3e
       -0.00030318968 0.23896684 0.18132202 0.22818574
000210 a6 e9 ab 3d c2 c3 89 3b 2f 68 94 3e 55 a9 01 3e
       0.08394174 0.0042042444 0.28985736 0.12662251
000220 ac e1 01 3e 79 6c 83 bd 09 5d 7a 3d b5 92 2f 3e
       0.12683743 -0.06417174 0.06112388 0.17145808
000230 f8 e8 07 3e d7 b8 99 3e ea aa cb 3c 65 71 a6 3e
       0.13272464 0.30023834 0.024861772 0.32508388
000240 ce 1c 20 bd 69 94 48 3e 92 15 c6 3d 7c 99 b8 3e
       -0.03908997 0.19587864 0.09672083 0.360546
000250 01 a3 50 3d dd 96 19 3e 38 e2 36 3e a3 19 64 3e
       0.050936703 0.14998956 0.17859733 0.22275405
000260 a0 c9 82 3e 7d 71 6a 3d a4 3a 10 3e 87 b7 31 3e
       0.25544453 0.057237137 0.1408487 0.17355166
000270 f4 e8 88 3d c5 38 4e 3d 73 44 ad 3e 85 c3 6b bc
       0.06685057 0.05034711 0.33841285 -0.014389877
000280 c2 d2 43 3e 8f 1e c9 bc b8 a2 a7 3e 05 b8 8c 3e
       0.19123366 -0.024550704 0.32741332 0.27484146
000290 49 ac 73 3e fa c7 3c 3e b0 91 af 3e cf 35 14 3e
       0.2379619 0.1843566 0.34290838 0.14473651
0002a0 27 1a 55 bc b1 d0 25 3e 65 6d 5a 3e 7b e7 07 3e
       -0.0130067235 0.1619289 0.21330793 0.13271897
0002b0 61 45 5c 3d 50 8e e9 3d eb 2e e8 3d a4 72 ae 3e
       0.053777102 0.11404097 0.11337074 0.3407184
0002c0 50 80 90 3e d6 46 26 3e 3f e9 6b 3d a5 46 b0 3c
       0.28222895 0.1623796 0.057595488 0.021518061
0002d0 b3 dd b1 3d 3d 94 95 3e c9 d2 bf bc 55 76 0b 3d
       0.08684864 0.2921466 -0.02341594 0.034048397
0002e0 ed 81 44 3e b2 d7 a6 3e 82 f0 06 3e da 29 87 3e
       0.19190188 0.32586437 0.13177684 0.26399118
0002f0 ac c0 d7 3d 07 39 6e 3e c9 3f 91 bd db 78 4c 3e
       0.10534796 0.23263942 -0.07092244 0.19967978
000300 91 df a9 be dc 92 d7 3b af 64 80 3b 60 8c bb bd
       -0.3317838 0.0065787863 0.0039182524 -0.09157634
000310 f1 59 1c be 84 33 9a be f5 e1 93 3d ea 1c 7d be
       -0.15268685 -0.30117428 0.07220832 -0.24718061
000320 20 a7 8c 3d ea 28 59 be 16 19 95 be 55 56 23 3d
       0.06867814 -0.21207014 -0.29120702 0.039877255
000330 94 5c 0d bc c4 ae 3a bc 80 9e 17 be 61 65 8e be
       -0.008628029 -0.011394206 -0.14806557 -0.2781172
000340 bf b4 97 be e1 14 16 bd db 70 9e 3a 3f d4 1e be
       -0.29630086 -0.036641005 0.0012088077 -0.15510653
000350 46 0f 89 be 4b a1 57 be 3d dc 90 be 09 7f a4 be
       -0.26769465 -0.21057622 -0.28293028 -0.3212817
000360 e4 d3 33 bd 15 ce d0 bd fa 86 a6 be 5a d2 52 bd
       -0.043903247 -0.10195557 -0.32524854 -0.051470138
000370 34 cf 8d be 30 cb 35 bd ab c6 03 be fd 4c 95 be
       -0.27697146 -0.044383228 -0.12868755 -0.291603
000380 e4 48 a3 bc e2 bf ab be 49 53 87 bd a0 fe da bc
       -0.019932218 -0.33544832 -0.06607682 -0.026732743
000390 c7 39 8f be 5d 36 95 3d a0 83 6c be 92 c0 4d be
       -0.27973768 0.072857596 -0.23097086 -0.20092991
0003a0 35 ed 8c 3d 9c 12 08 be 68 fe 9a be a1 35 92 be
       0.06881181 -0.13288349 -0.30272222 -0.2855654
0003b0 ef 36 96 be 81 9d e8 3c 6b a4 27 3c fc 9c 89 bc
       -0.29338786 0.028395416 0.010232071 -0.016798489
0003c0 dd 00 83 be 81 7e 9c be 99 22 5d be 00 88 3c be
       -0.25586596 -0.30565265 -0.21595229 -0.18411255
0003d0 40 4f 10 bd 6b 57 00 be 7d b5 44 bb 86 26 a9 be
       -0.03523183 -0.12533347 -0.0030015402 -0.33037204
0003e0 fe 00 84 be 5e 7c ca 3c 79 1f 5c be 1d dc b4 3c
       -0.25782007 0.024717506 -0.21496381 0.022077614
0003f0 ba 87 8c 3d e2 fb 9f be ba ea 18 be 83 e0 a6 be
       0.06861825 -0.3124686 -0.14933291 -0.32593164

encoder.dcrnn_cells.0.update.weights_pool f4 [2, 2, 65, 64]
000000 d0 42 cc bd 4a a6 65 be 8b e8 8e 3d 59 73 b4 bd
       -0.09973681 -0.22426715 0.06977948 -0.08811063
000010 c5 ec a1 3d 7d d2 b8 bd aa 31 7a be 09 12 81 3d
       0.07906488 -0.090245225 -0.24433008 0.06302268
000020 a3 4e 49 be c7 73 3a 3e fa 5f 6b 3d c0 7b 9f bd
       -0.19658904 0.18208228 0.057464577 -0.07787275
000030 b4 ae 9f bd c6 79 76 bd 24 69 8a 3e 5a 03 32 be
       -0.07796994 -0.060174726 0.2703334 -0.17384091
000040 57 98 ae bd ba 13 a3 3d 19 33 4c be 23 a3 58 3e
       -0.0852515 0.07962747 -0.19941367 0.21155982
000050 f9 58 b7 3d d8 21 49 be 64 00 8f bd 65 5b 3c 3e
       0.08952517 -0.19641817 -0.069824964 0.18394239
000060 da 4e 37 be c6 1e 95 3d 2d 1c 58 be f5 dc 59 be
       -0.17901173 0.0728126 -0.21104498 -0.21275695
000070 4d a0 a9 3d 73 b7 8b 3d c7 3c 4c 3e 82 b9 63 be
       0.08282528 0.068220995 0.1994506 -0.22238734
000080 f5 18 4e be f0 61 7c 3e 25 73 42 be 9d 9c b3 3d
       -0.20126708 0.24646735 -0.18989237 0.08770106
000090 09 e9 86 3d f0 76 a1 3d d7 2c c8 3d 60 5d 45 be
       0.06587417 0.07884014 0.097741775 -0.19273901
0000a0 6e 7a 1f 3e 6c 3b 81 3e 31 77 78 bd ec 57 b9 bd
       0.15574047 0.25240648 -0.060660545 -0.09049973
0000b0 93 61 3b 3e 50 ca db bd 7c a9 34 be 3a f2 c1 bd
       0.1829894 -0.107319474 -0.17642778 -0.09470029
0000c0 9d a0 2a 3e 6d 47 4d be 14 13 9e 3d 77 ab b5 bd
       0.16662832 -0.20046778 0.077184826 -0.08870595
0000d0 44 8b 47 be e8 28 56 be 0f b0 9c 3d 0d be 90 bd
       -0.1948672 -0.20914042 0.07650768 -0.07067499
0000e0 7a 3f 8c 3d 8f 2a dc bd 17 47 48 3e c0 be 62 3e
       0.06848045 -0.10750305 0.19558369 0.22143078
0000f0 27 fb a1 3d a5 8c a5 3d 4b 62 4f 3e 0b f2 e3 bd
       0.07909232 0.080834664 0.2025234 -0.111301504
000100 c5 55 0b 3e 6a 14 04 be 3f 63 f6 bd 7b 76 02 3e
       0.13606937 -0.12898412 -0.120306484 0.12740509
000110 25 d6 ec bd d2 3f 10 3e af 5d 0e be fd 4d 0a be
       -0.11564282 0.14086846 -0.13902925 -0.13506313
000120 37 fe ff bd ac e9 f1 bd ec 66 11 be 06 74 e7 3d
       -0.124996595 -0.118121475 -0.14199418 0.113014266
000130 f4 4a 0d 3e 24 f7 ee 3d 10 5e 05 3e c0 53 08 3e
       0.13798124 0.11668232 0.13024163 0.13313198
000140 81 a2 fd 3d 26 5d 06 be 69 b8 da bd 8e 4d d5 3d
       0.12384511 -0.13121471 -0.10679705 0.10415183
000150 47 2a 03 be ff c7 07 be 26 20 0e 3e 8d 61 f0 bd
       -0.12809096 -0.13259886 0.13879451 -0.11737356
000160 f8 ab 03 3e 1a 10 fc bd 7e 77 da bd 11 be e0 bd
       0.1285857 -0.12307759 -0.106673226 -0.10973752
000170 a7 a8 f5 bd e4 53 ee bd dd ff f9 bd f9 ef f3 bd
       -0.119950585 -0.116370946 -0.12207005 -0.119110055
000180 80 5d f0 bd 4e e1 05 3e 91 8a 09 be 50 98 04 be
       -0.11736584 0.13074228 -0.13431765 -0.12948728
000190 5f fa f7 bd 79 ca 03 be 25 1a 0d be 52 c8 fa 3d
       -0.12108301 -0.12870206 -0.13779505 0.12245239
0001a0 f9 8f 13 be 8b 1b e8 3d 7c 78 de 3d af 80 f7 3d
       -0.1441039 0.113333784 0.10862824 0.12085091
0001b0 e6 40 0e be 83 eb 11 3e 8f 4a 07 3e 14 5e 05 3e
       -0.13891944 0.14249997 0.13212036 0.13024169
0001c0 e8 20 0e be ff f1 f7 bd c2 4e 08 be 7b 1e 01 3e
       -0.1387974 -0.12106704 -0.13311294 0.12609284
0001d0 17 6d e9 bd 07 47 06 3e ea 8b fa bd 87 9a 0d 3e
       -0.1139776 0.13113032 -0.12233718 0.13828479
0001e0 9a c1 fa bd ea cd f7 3d 38 e1 c4 3d a9 26 f8 3d
       -0.12243958 0.12099822 0.096132696 0.12116749
0001f0 87 19 07 be 22 64 03 be 8f 1c cc 3d c8 5f 0d 3e
       -0.13193332 -0.12831166 0.099663846 0.13806069
000200 b1 9b 1b be d7 47 36 be f2 25 28 3e ee ab 20 be
       -0.1519611 -0.17800842 0.16420725 -0.15690586
000210 5a 8b 30 3e 92 66 1e be 8f 45 59 be 57 12 53 3e
       0.17240658 -0.15468815 -0.21217941 0.20612465
000220 76 bb 3a be ea b9 f1 3d 63 18 23 3e 6e d5 2b be
       -0.18235573 0.118030384 0.15927272 -0.16780636
000230 2b d4 5d be 57 a8 3c be 1c de 51 3e 82 71 ed bd
       -0.21662967 -0.18423592 0.20494884 -0.115939155
000240 a6 ce 22 be 26 c4 3a 3e 9a 17 33 be d7 d1 3e 3e
       -0.15899143 0.18238887 -0.17489472 0.18634735
000250 ad 5a 2c 3e f0 a6 2f be 9b 42 43 be b5 04 3c 3e
       0.16831465 -0.17153525 -0.19068377 0.1836117
000260 19 f6 d5 bd 78 59 24 3e 1d f6 53 be 8e 71 25 be
       -0.1044733 0.16049755 -0.20699354 -0.16156599
000270 4b eb 43 3e 93 5a 2f 3e 48 1d f5 3d 31 2e 3e be
       0.19132726 0.17124395 0.119684756 -0.18572308
000280 11 49 3c be da 70 3e 3e 5e e7 30 be 0e ed 47 3e
       -0.18387248 0.18597737 -0.1727576 0.19524023
000290 06 17 55 3e 88 7e 36 3e d4 eb 52 3e e3 49 e4 bd
       0.20809564 0.17821705 0.20597774 -0.11146905
0002a0 07 ae 2e 3e e4 eb 4c 3e 99 ac 43 be 88 a1 30 be
       0.17058574 0.2001186 -0.1910881 -0.1724912
0002b0 ec 24 35 3e c2 ce 2a be 9b 4a 34 be 65 13 22 be
       0.17689866 -0.16680434 -0.17606585 -0.15827711
0002c0 ba 3a 25 3e 35 9e 2f be 4c 7d 2e 3e eb 3e 2a be
       0.16135684 -0.17150195 0.17039984 -0.16625564
0002d0 44 b6 36 be d9 bc fb bd af b1 27 3e 90 02 51 be
       -0.17842966 -0.12291879 0.16376375 -0.20411134
0002e0 ed c7 2c 3e a8 47 6b be 12 bc 25 3e e5 20 31 3e
       0.1687314 -0.22976553 0.16185024 0.17297705
0002f0 23 24 30 3e 8a 99 49 3e c1 c5 39 3e c8 0c 2e be
       0.17201285 0.19687477 0.18141843 -0.16997063
000300 b1 90 0d be 27 87 04 3e a4 4c 12 3e b3 c3 13 be
       -0.13824727 0.12942182 0.14287049 -0.14430122
000310 85 bf 06 3e 7f 9a fb bd e7 61 0a 3e 75 86 12 3e
       0.13158996 -0.12285327 0.1351391 0.14309104
000320 e0 06 05 3e 3f 92 08 3e 1d e5 e8 3d 60 97 fa bd
       0.12990904 0.13337038 0.11371825 -0.12235904
000330 ad 2a 12 be 2e 0c 14 be cb 27 f8 bd a9 d9 15 be
       -0.14274092 -0.14457771 -0.12116965 -0.14633812
000340 19 30 0a be 46 88 f1 3d d3 a9 00 3e cd b2 06 be
       -0.1349491 0.1179357 0.12564783 -0.13154145
000350 ea 81 0f 3e 64 df 0a 3e 6f 2f 0c be 99 2f 10 3e
       0.14014402 0.1356178 -0.1368997 0.14080657
000360 cb 35 0e be f8 ee 02 3e bc 82 f6 3d 06 29 07 3e
       -0.13887708 0.12786472 0.12036654 0.13199243
000370 9d 6e 13 3e 76 7d f0 3d 9c 00 07 3e c4 12 20 3e
       0.14397664 0.1174268 0.13183826 0.15632159
000380 77 de 08 3e 57 54 1c be 5f c3 24 3e 96 ef 11 3e
       0.13366114 -0.15266548 0.16090153 0.14251551
000390 81 75 01 3e 25 d0 e1 3d 06 ab ff 3d 2e 55 07 be
       0.1264248 0.110260285 0.12483792 -0.13216087
0003a0 08 18 e4 3d a2 9c f6 bd 14 a5 08 be 41 b6 ea bd
       0.11137396 -0.12041594 -0.13344222 -0.114605434
0003b0 f6 1a e7 3d 9c 55 f5 bd 84 4f 0e be 57 40 f7 bd
       0.11284439 -0.11979219 -0.1389752 -0.12072819
0003c0 cc 32 0a 3e 07 4f 1b 3e a6 2c f2 3d e9 80 e1 bd
       0.1349594 0.15166865 0.11824922 -0.11010916
0003d0 95 02 11 3e 91 6f 0f be b6 42 01 3e c0 8b 07 be
       0.14161141 -0.14007403 0.12623104 -0.13236904
0003e0 13 9f 06 3e b0 c5 f4 bd fc 60 06 be cd 03 f4 bd
       0.1314662 -0.119517684 -0.13122934 -0.119147874
0003f0 9f 22 14 3e 41 cf e8 3d bc 9b 05 be 06 fe 10 be
       0.14466332 0.113676555 -0.13047689 -0.14159402

encoder.dcrnn_cells.0.update.bias_pool f4 [2, 64]
000000 bf c7 99 be 34 3d 4c be 4c a4 ea 3e c9 e7 e5 be
       -0.30035207 -0.19945222 0.45828474 -0.449034
000010 94 21 85 3e cb d6 af be 1b 52 d7 bc 94 66 79 3e
       0.2600218 -0.34343562 -0.026284268 0.24355537
000020 40 09 c1 be 0f f4 a1 3e 76 34 e5 3e a3 77 73 be
       -0.3770237 0.31631514 0.44766587 -0.23776107
000030 81 a3 84 be 50 e2 b1 be 9e 35 ae bb cf 0c b0 be
       -0.25905994 -0.34742975 -0.0053164503 -0.34384772
000040 9e b4 86 be a8 3f b0 3e 70 51 c4 be b6 af 99 3e
       -0.26309675 0.34423566 -0.38343382 0.3001687
000050 51 06 7a 3e 9e 4c 8e be 27 79 1d be fd 8b c9 3e
       0.24416472 -0.2779283 -0.15378247 0.39364615
000060 b8 e7 db be 97 7d 13 3e 89 55 1c be e6 e4 a2 be
       -0.42950225 0.14403377 -0.15267004 -0.3181526
000070 72 06 9f 3e 61 f6 97 3e 12 70 e4 3e b2 0b 89 bc
       0.31059605 0.2968016 0.44616753 -0.01672921
000080 78 11 b0 be a1 e9 85 3d 5e 86 b9 be c0 01 78 3e
       -0.34388328 0.06538702 -0.36235327 0.24219418
000090 63 cf bd 3e 43 56 cf 3e 19 7d 7b 3e c8 29 a1 be
       0.37072286 0.404955 0.2455944 -0.3147719
0000a0 30 a4 dd 3e a9 c3 b3 bb 47 39 16 be 33 81 98 be
       0.43289328 -0.005485971 -0.14670287 -0.2978607
0000b0 9d aa ad 3e 7b bb 83 be cb 0e ca be cb 89 e7 be
       0.3391923 -0.25728974 -0.3946441 -0.45222315
0000c0 bf 14 b8 3e ec 45 ac be ee 9f 35 3e ef cb 26 be
       0.35953328 -0.33647096 0.1773679 -0.16288732
0000d0 92 7a b9 be 10 25 e4 be ee 7e 8b 3e 86 3b 97 be
       -0.36226326 -0.44559526 0.27245277 -0.295376
0000e0 d0 2c 9c 3e 10 82 28 be 78 03 9a 3e 13 82 33 3e
       0.3050294 -0.16455865 0.3008077 0.17530088
0000f0 78 60 cf 3e 9a 14 43 3e 12 5a 93 3e 42 88 c8 be
       0.40503287 0.19050828 0.28779656 -0.39166456
000100 e2 d9 cd be 47 c7 e1 3e 25 c2 42 3e b4 ef c3 be
       -0.40205294 0.4409735 0.19019373 -0.38268816
000110 3b 2e b6 3e da a2 80 be 6a 6e cf 3e 52 77 5c 3e
       0.35582146 -0.25124246 0.40513927 0.21529892
000120 2d f9 b0 3e 28 d4 57 bd 7a e8 d5 3e 14 86 e2 be
       0.34565106 -0.052692562 0.41778928 -0.44242918
000130 cd 3d 4e be bf f7 9c be e4 c2 ca be 9d 6e 12 3c
       -0.20140763 -0.30657765 -0.39601815 0.008937505
000140 af 76 bd be 84 dc d7 3e 4b b6 cf 3e 41 82 ce be
       -0.3700461 0.42160428 0.40568766 -0.4033375
000150 86 06 db 3e 56 c5 71 3e 26 48 a9 be ac 6f 57 be
       0.42778414 0.23610434 -0.33062857 -0.21038693
000160 d8 db 64 3c 4f bf e3 3e 70 4e dd 3e 6c c0 86 3e
       0.01396843 0.44481894 0.43223906 0.2631868
000170 ac da 66 3e f0 fd a9 3e 82 13 8e bb d6 5b 8d 3e
       0.22544354 0.3320155 -0.0043358216 0.27609128
000180 cb 2d b6 3e 95 0c a7 be 6a 75 ae 3e b9 74 86 3e
       0.35581812 -0.32626787 0.34073955 0.26260927
000190 f5 a4 39 3e 1e 64 30 3e 49 85 61 3e 11 b0 8d bc
       0.18129332 0.17225692 0.220235 -0.017295869
0001a0 56 bf 68 be 4f ae ba be 6f df 1b be 17 ee a9 be
       -0.22729239 -0.36461112 -0.15221952 -0.3318946
0001b0 f6 eb 04 be 8f e7 77 be 76 d2 2a 3e 48 58 ce be
       -0.12980637 -0.24209426 0.16681847 -0.40301728
0001c0 aa b5 01 be 84 51 a6 3e a1 54 df 3e 64 33 56 be
       -0.12666956 0.32484066 0.43619254 -0.20918041
0001d0 44 80 d6 3e ab 83 eb 3c 3b 1e ad 3e 02 20 80 be
       0.41894734 0.028749308 0.33812127 -0.2502442
0001e0 df 09 97 3e 19 21 1a be 9d 7e 95 be 79 f3 31 be
       0.2949972 -0.15051688 -0.2919816 -0.17378034
0001f0 ac d3 dc 3e 8b 3c 39 3e c4 e9 86 be 28 05 8e be
       0.43130243 0.18089502 -0.26350224 -0.2773831

encoder.dcrnn_cells.1.gate.weights_pool f4 [2, 2, 128, 128]
000000 a3 be b4 3d 16 36 30 be e6 62 e7 bc 94 c0 06 be
       0.088254236 -0.17208132 -0.0282454 -0.131594
000010 98 d8 d0 bd c5 b3 13 be f4 b2 0d be 45 2a 18 be
       -0.10197562 -0.14424045 -0.13837796 -0.14859875
000020 f3 6b 14 3d f5 14 34 be b0 2d 17 be 3a c1 1b bc
       0.03623576 -0.1758612 -0.14763522 -0.009506518
000030 61 d8 6e 3d 3c 25 ed bd 41 8a 3a 3d 5d 8a 15 be
       0.058311824 -0.115793675 0.045542005 -0.14603563
000040 16 41 0f be b1 36 13 be e9 f7 18 be 2f 1d 42 bd
       -0.13989672 -0.14376332 -0.1493832 -0.047391113
000050 00 2d 05 be e6 1d 22 be 33 42 07 be 72 02 2a be
       -0.13005447 -0.15831718 -0.13208847 -0.16602495
000060 18 f4 1f bd ad cd 0c be 35 b8 42 3d c2 e0 08 3d
       -0.039051145 -0.13750334 0.047538955 0.03341747
000070 80 de 08 be 82 08 43 be 0f 33 0f bc 2f 77 17 be
       -0.13366127 -0.19046214 -0.008740201 -0.14791559
000080 47 18 24 be 23 a1 70 bd 22 94 2c be b1 a9 6e bc
       -0.16024886 -0.058747422 -0.16853383 -0.014566825
000090 8c e4 08 be be d0 b3 3c 94 30 19 be 92 c5 47 3d
       -0.13368434 0.021950122 -0.14959937 0.048772402
0000a0 a9 c5 0a be b3 62 3f bd b7 63 cb bc 09 d5 2e be
       -0.13551964 -0.046724986 -0.024827821 -0.17073454
0000b0 1a ed 14 be 9e 28 a6 bc 55 7a 11 be a7 5a 28 be
       -0.14543572 -0.02028304 -0.14206822 -0.16440831
0000c0 61 5c 11 be 1b 9b 7b 3d 28 a3 07 be 9b c8 19 be
       -0.14195396 0.061427217 -0.13245833 -0.15017931
0000d0 04 d7 a7 3d d5 9c 10 be 66 28 19 be 1e 04 fc bd
       0.08195308 -0.14122327 -0.14956817 -0.12305473
0000e0 f9 e0 11 bd 7d a7 26 bd 6e 22 12 be 67 b1 8c 3d
       -0.03561494 -0.040687073 -0.14270946 0.06869774
0000f0 04 34 c4 bd 41 8c 22 be 3a 2e 9b 3d 5b 2a a3 3d
       -0.09580234 -0.15873815 0.075771764 0.07967063
000100 24 1c 23 bd 0d 0c 19 3e 4d ef 02 3e 45 1d 1f 3e
       -0.03982176 0.14946003 0.12786599 0.15538509
000110 11 58 19 3e 7d 9a 1d 3e 3f 93 22 3e 5e b0 1c 3e
       0.14975001 0.15390964 0.15876482 0.15301654
000120 ff d0 e7 3d 6f f4 21 3e 1c b4 29 3e 18 fb 22 3e
       0.1131916 0.158159 0.16572613 0.15916097
000130 cc a8 00 3e 9d 5c 31 3e cf 37 25 3e 8e 11 28 3e
       0.12564391 0.17320485 0.1613457 0.16412947
000140 42 c6 25 3e c4 87 1e 3e 1d fc b4 3d ae 28 98 3c
       0.1618891 0.15481478 0.08837149 0.018574085
000150 12 87 1f 3e bc 25 19 3e b8 da 29 3e 2a 78 2b 3e
       0.15578869 0.14955801 0.16587341 0.16745058
000160 53 33 b5 3b 55 73 25 3e f7 1a ee 3d 30 c1 1e 3e
       0.0055298 0.16157277 0.11626237 0.15503383
000170 29 91 31 3e 36 0c b9 3d 9a 00 2e 3e e0 8e 33 3e
       0.1734053 0.09035532 0.16992417 0.17534971
000180 ba 76 22 3e 88 48 8c 3d 33 c1 1c 3e 69 c7 19 3e
       0.15865603 0.06849772 0.15308075 0.15017475
000190 04 0d 1a 3e c6 d5 16 bb 57 57 22 3e d1 ec 27 bb
       0.15044028 -0.0023015602 0.1585363 -0.0025623331
0001a0 24 37 25 3e c6 23 01 b8 60 fb 0f 3e 9b 4f 1f 3e
       0.16134316 -3.0789313e-05 0.14060736 0.15557711
0001b0 69 d4 1a 3e 02 40 91 3d a4 34 1b 3e 30 f6 1b 3e
       0.1512009 0.07092287 0.151568 0.15230632
0001c0 09 9b 1a 3e cc fc 1a 3e ed bd 25 3e 1e f1 17 3e
       0.15098204 0.15135497 0.16185732 0.14838073
0001d0 a5 23 20 bd 3a 53 1b 3e f9 86 29 3e 63 b5 27 3e
       -0.039096493 0.15168467 0.16555394 0.16377787
0001e0 17 55 26 3e 1e 27 11 3e 56 a1 1f 3e fe 5d 0f 3e
       0.16243397 0.14175078 0.15588889 0.14000699
0001f0 b2 d4 18 3e b8 01 1b 3e 4a 54 8a 3c b1 ac b4 ba
       0.14924887 0.15137374 0.016885895 -0.0013784376
000200 e4 65 26 be 8b bd fc bd a4 7d a9 3c af f8 12 3a
       -0.16249806 -0.1234084 0.020689793 0.0005606515
000210 8a 34 61 3d 26 50 4f bd db 80 56 be 31 f2 52 bd
       0.054981746 -0.050613545 -0.20947592 -0.051500503
000220 44 84 af bd b8 63 91 bd 45 fa db b9 a4 63 88 3d
       -0.085701495 -0.07099098 -0.000419574 0.0665963
000230 15 0b 6a bd 62 d9 22 be 94 36 e9 3d e8 55 38 bd
       -0.057139475 -0.15903237 0.11387363 -0.0450038
000240 45 98 f9 bc ef d3 36 3a d3 57 be bd c1 f4 bf bd
       -0.030468116 0.00069743296 -0.09294095 -0.09372855
000250 11 38 94 bc d6 22 b0 bd 63 9e 1a bc 95 99 7f bd
       -0.01809314 -0.086003944 -0.009437176 -0.062402327
000260 35 ee b3 bd e8 91 2e be 55 e3 be bd 3c de a5 bd
       -0.08785669 -0.17047846 -0.09320704 -0.080990285
000270 2e 94 33 be e4 50 0b be 7f 4d 8c bd b1 6c 53 be
       -0.17536995 -0.13605076 -0.06850719 -0.20646931
000280 40 f4 55 bd 2c 47 df bd 73 d1 b7 bd 5f 0f 11 3e
       -0.052234888 -0.10902247 -0.08975496 0.1416602
000290 f9 27 18 bd 9f cb b8 bd 24 5e 28 be 20 f3 bc bd
       -0.037147496 -0.09023213 -0.16442162 -0.0922606
0002a0 05 28 06 bc f8 7e d8 bd fc 8a 01 3e 92 8c 8f bd
       -0.008188252 -0.10571092 0.12650675 -0.070092335
0002b0 3f ce 23 bd f0 c9 24 3d 67 65 75 bc c2 a0 db bd
       -0.039991613 0.040231645 -0.0149777895 -0.107240215
0002c0 a0 c2 93 bd ad ae 58 bd 6c 6e fc bd e7 b3 11 bd
       -0.07214856 -0.05290096 -0.12325749 -0.03557196
0002d0 94 01 1e be 85 9f 99 bc 2e 3c 5a bd 33 87 b4 3c
       -0.1543029 -0.018752823 -0.053280048 0.022037124
0002e0 0c 9c 10 3e ab 9c 1f 3e 28 e3 2d be 9e b8 52 bd
       0.14122027 0.15587108 -0.16981184 -0.051445596
0002f0 14 07 68 3d 47 10 25 bd 2e 06 52 be ca 8a 5f be
       0.056647375 -0.040298726 -0.2051017 -0.21830288
000300 c9 24 97 bd bb de 12 3e 98 96 a9 3d 65 b3 04 3e
       -0.07380063 0.14342777 0.082806766 0.12959059
000310 c0 33 e6 3d 9f e0 e6 3d 47 1b 17 3e 6a 2e 13 3e
       0.11240339 0.11273312 0.14756499 0.14373174
000320 f9 05 c0 3d 3a 23 f8 3d 66 b6 f9 3d 61 88 c6 3d
       0.09376139 0.12116094 0.12192993 0.09693981
000330 ed c4 ca 3d a8 5e 15 3e 4d 9b e3 3d 5c c2 ee 3d
       0.09900842 0.1458689 0.11113606 0.11658165
000340 14 8f ea 3d 53 a7 00 3e 41 48 d5 3d 37 32 04 bc
       0.11453071 0.12563829 0.10414172 -0.008068613
000350 56 34 fe 3d e7 47 0c 3e 0b 02 f4 3d 15 c3 ff 3d
       0.12412326 0.13699304 0.11914452 0.12488381
000360 9c c6 f8 bc d5 78 11 3e b8 b3 c4 3d 5d fc e8 3d
       -0.030368142 0.1420625 0.09604591 0.113762595
000370 a6 d7 09 3e 4e a8 e9 3d 19 3c 02 3e 7a be 03 3e
       0.1346117 0.11409055 0.12718238 0.1286563
000380 4d 7b f7 3d 5a e1 dd 3c 49 98 02 3e 27 75 b3 3d
       0.12084065 0.027084995 0.12753405 0.087625794
000390 4d 97 9e 3d f4 f0 0c bd 55 f3 06 3e 39 99 29 bd
       0.07743702 -0.03440948 0.13178761 -0.04140589
0003a0 2a 78 04 3e 51 aa 9b bc 36 52 bc 3d 95 13 03 3e
       0.12936464 -0.019002112 0.09195368 0.12800439
0003b0 c0 f7 03 3e 5a af 36 3d 6a d1 f0 3d f2 30 13 3e
       0.12887478 0.044600822 0.117586926 0.1437414
0003c0 34 10 0a bc a6 34 b6 3d d4 fd 10 3e 21 19 f4 3d
       -0.008426715 0.08896761 0.14159328 0.119188555
0003d0 cb 03 8f bd 2c 19 f3 3d 91 1c fd 3d 71 9b f6 3d
       -0.06983145 0.118700355 0.12358964 0.12041367
0003e0 90 11 e1 3d f8 73 d8 3d 3b 2d 08 3e 9e bf e7 3d
       0.10989678 0.10568994 0.13298504 0.11315845
0003f0 4f 15 02 3e 21 ea ed 3d 17 07 c3 bc c6 31 10 bd
       0.12703441 0.11616922 -0.023807092 -0.035203718

encoder.dcrnn_cells.1.gate.bias_pool f4 [2, 128]
000000 eb 7e 8c be 58 91 08 3e e4 bb 38 3d 7e ee 8b 3e
       -0.2744058 0.13336694 0.04510106 0.27330393
000010 2b 6b 00 3e f2 b7 5f 3e 31 07 96 3e 36 6c 62 3e
       0.12540881 0.21847513 0.29302362 0.22111592
000020 18 13 8a 3d a3 59 e0 bd a6 38 0d 3e 52 2a af bd
       0.06741923 -0.10954597 0.13791141 -0.08552994
000030 3d c0 e5 3d 59 d2 28 bc 3a 45 23 be 30 74 2f 3e
       0.11218307 -0.010304057 -0.15944377 0.17134166
000040 8d 05 45 3e 8b 3e f1 3d 36 47 05 be 87 87 63 3d
       0.19240399 0.11779507 -0.13015446 0.05554917
000050 a6 5a 85 3e 74 e1 82 3e 57 14 fe 3d 57 74 93 3c
       0.26045722 0.25562632 0.12406223 0.017999811
000060 00 13 fd bd 6e 50 98 3e 24 d1 04 3d 64 a9 08 bd
       -0.123571396 0.29748863 0.032426015 -0.03336467
000070 64 a5 79 3d 6a 56 7f be 27 72 93 3d 8f 7a 52 3d
       0.060948744 -0.24935308 0.07199507 0.051386412
000080 bd c5 e9 3d ec 56 d4 3d 2e 0a 71 3e d6 54 8c bd
       0.11414669 0.103681415 0.2353904 -0.06852119
000090 02 00 a0 3c 75 da fb 3d d1 26 a5 3d d5 36 fa 3c
       0.019531254 0.12297527 0.08064044 0.030543724
0000a0 ce 04 4b 3c f2 e5 41 be 05 32 43 3e cb 49 50 3e
       0.012391282 -0.18935373 0.1906205 0.2034065
0000b0 3b f0 bd 3d 19 27 0e bd 15 28 85 3e 75 9a 00 be
       0.09274336 -0.034705255 0.26007143 -0.1255892
0000c0 da 7c c7 3d 0e cd 3f be 58 f4 35 3e 44 03 0a bc
       0.097406104 -0.18730566 0.17768991 -0.00842363
0000d0 a0 51 ec bc 94 0d 69 3e 0f 0b 8b 3d 60 de d9 3c
       -0.028847516 0.22759086 0.06789219 0.026595294
0000e0 74 87 b6 bd c2 7b 82 3e 70 dc a8 bc 80 84 08 be
       -0.089125544 0.25485045 -0.020612925 -0.13331795
0000f0 e9 f7 1a bd 5c 4c 60 bc 75 59 b5 bc c9 23 4a 3c
       -0.03783408 -0.0136900805 -0.022137383 0.012337633
000100 37 3a 90 be ee 30 89 be 47 dc 74 3b 1e 9d 9d bd
       -0.28169414 -0.26795143 0.003736274 -0.07695983
000110 f0 af 55 bd 7b 68 ba 3d 47 55 b7 3d de 35 f2 bd
       -0.05216974 0.09101959 0.08951812 -0.118266806
000120 7f fe 8f 3c c6 a2 03 be 67 65 9b be ee c4 1e bc
       0.017577408 -0.12855062 -0.303508 -0.009690506
000130 d4 59 1b be 9d e9 3c bc 8f 6a ed 3d 41 e2 0f be
       -0.15170985 -0.011530307 0.1159259 -0.14051153
000140 82 a7 12 be f7 34 9c bd 45 01 84 3d 01 b4 e0 bc
       -0.14321712 -0.0762729 0.06445555 -0.027429583
000150 94 74 48 be 29 de b5 3c 1e 82 36 be 21 9a 0d bc
       -0.19575721 0.02220066 -0.17823073 -0.008642704
000160 1e af 70 be be 49 5e be f0 a3 1c 3e 05 7b d9 bc
       -0.23504302 -0.21707818 0.15296912 -0.026547918
000170 36 19 fb 3c 32 e1 29 3e f7 fe 73 3d 25 6b 7a 3d
       0.03065167 0.16589811 0.059569325 0.061137337
000180 c5 6e f1 3d 49 c1 17 bd a0 67 95 bd cd ce 0f be
       0.11788706 -0.037049565 -0.072951555 -0.14043732
000190 0c 04 87 be bb e0 fc bd 67 53 b5 3d ec 6a 97 bd
       -0.26370275 -0.123475514 0.08853798 -0.073934406
0001a0 d3 67 b0 3d 96 98 5b bd 33 53 4e be ef 37 5b be
       0.08613553 -0.053612314 -0.20148925 -0.21408056
0001b0 6d 1e 8b 3d a7 b4 d4 3d 4a 9a 1d be 9e 05 1d bd
       0.06792913 0.10386019 -0.15390888 -0.038335435
0001c0 1f 88 59 be ee 18 d5 3d 44 80 75 bd 23 da 42 be
       -0.21243332 0.104051456 -0.059936777 -0.19028525
0001d0 68 7d 4f be dc c1 3c 3d e7 18 c5 bd 27 e8 02 be
       -0.20262682 0.046083316 -0.0962389 -0.12783872
0001e0 34 63 4b 3d bb bf 03 bd a6 2a 32 be d5 16 1c be
       0.049655154 -0.03216527 -0.17399082 -0.15243085
0001f0 2c 80 0a be 59 10 73 be e3 42 31 3d 67 0c 83 be
       -0.13525456 -0.23736705 0.04327668 -0.255954
000200 3e 3a 72 3d ab dd 8d 3e 2d a9 c5 bd 4c 06 c0 3c
       0.059137575 0.27708182 -0.09651408 0.023440503
000210 b1 a0 d2 bd 7e e6 c4 3c 59 ae d1 3c be af 06 3e
       -0.10284556 0.024035688 0.02559583 0.13152978
000220 14 4e c5 3d 2b e1 88 3e a1 0d c6 3b ed 35 77 3e
       0.09634033 0.2673429 0.006044105 0.24141665
000230 2f 18 0c bd 6f 79 0d 3d f2 03 c5 3d a0 77 de 3d
       -0.03420275 0.034539636 0.09619893 0.108626604
000240 4d 8f 99 bb ea 2b 5f bd d7 17 03 3e e9 f5 9c 3e
       -0.0046862722 -0.05448524 0.12802063 0.30656365
000250 aa 78 7f 3e be 61 53 bd a0 c1 57 bd dd 68 c5 3c
       0.24948373 -0.051606886 -0.05267489 0.024097854
000260 e5 a1 43 3e da 1a 46 3d 30 ab 01 3e 51 1d 88 be
       0.19104727 0.04836545 0.12662959 -0.26584867
000270 53 de ff 3d 6b c2 11 be 32 c5 77 bd 80 5b fd 3d
       0.12493577 -0.14234321 -0.060490794 0.12370968
000280 b2 64 5b 3e b0 26 92 3e 27 df 5c 3e 99 7b 8c 3e
       0.21425131 0.2854514 0.21569501 0.27438048
000290 3b 0f a4 3d 52 ac 1c 3e 97 73 cd bc 30 d9 67 3e
       0.080107175 0.1530011 -0.025079532 0.22641444
0002a0 2a 0a 1c 3e 4f 62 52 bc f9 ef a5 3e 29 a1 d8 3d
       0.15238252 -0.012840821 0.32409647 0.10577614
0002b0 2f c4 2a 3d fd e6 8f 3e 75 dd e9 3d 71 0f 74 3e
       0.041691 0.28105918 0.11419193 0.23834015
0002c0 1d a0 4e bd 08 d8 eb 3d 11 12 bc bd 59 08 02 3e
       -0.050445665 0.11515814 -0.091831334 0.12698497
0002d0 07 7e 0c 3e a6 29 76 3d f6 4c 2d 3b a9 98 22 3e
       0.1371995 0.060098313 0.0026443577 0.15878548
0002e0 17 59 39 3e fc ad 91 3e 57 9e 28 3e 47 98 01 be
       0.18100391 0.28453052 0.16466652 -0.12655745
0002f0 c1 5b 8a 3e 87 dd 29 3e 66 5d 39 3e f5 cd 58 3e
       0.27023128 0.16588412 0.18102035 0.21172316
000300 16 c8 ae be 84 1a db 3d 10 43 2a 3d c5 99 48 be
       -0.34137028 0.10698417 0.041567862 -0.19589908
000310 af 44 65 3d c7 a4 36 3c f2 f3 16 bd bc 2e 31 3c
       0.055973705 0.011147684 -0.036853738 0.010814365
000320 35 6d 15 be 5a fc 27 be 02 ec 9e be 07 c4 8e be
       -0.1459244 -0.16404858 -0.31039435 -0.27883932
000330 da 4e 86 be 94 42 78 be 33 73 a8 3d 4b 7c 05 3c
       -0.26232034 -0.24244148 0.082250975 0.0081473095
000340 cc 86 43 be 4a e1 33 be 00 85 1a be 1d 8b af 3d
       -0.1909439 -0.1756641 -0.15089798 0.08571456
000350 b1 47 4a be 9f 6b d3 3d a5 3f 9f 3d f7 a7 96 bb
       -0.1975391 0.103232615 0.07775811 -0.0045976597
000360 76 17 90 be b6 9a 89 3d 1e 1a c8 3c 38 e8 a8 3d
       -0.281429 0.06718962 0.024426516 0.08247417
000370 bf 6c 0a bd db 75 70 3d 01 39 24 be c9 c5 07 3d
       -0.033795115 0.058706146 -0.1603737 0.033147607
000380 88 e5 e9 bd da ab 0f be a9 3e 2b be b3 98 4b be
       -0.11420733 -0.140304 -0.16723122 -0.19882469
000390 ae b2 bb 3d f9 f9 3c be ea 35 56 3d 75 2d 52 be
       0.0916494 -0.18454732 0.05229751 -0.20525153
0003a0 ca 19 5d be e3 0d 88 3d a8 8c 1e 3c a7 b4 80 be
       -0.21591869 0.06643274 0.00967709 -0.25137827
0003b0 02 dc 76 bd 20 14 33 be 92 87 30 be 28 a5 eb bb
       -0.06026841 -0.17488146 -0.17239216 -0.007191319
0003c0 2e 8b 98 be 81 2c 32 be f5 0a 06 bc 8b d2 20 3b
       -0.29793686 -0.1739979 -0.008181323 0.0024539556
0003d0 0e 50 0f be d1 a9 8b be 92 c1 c9 3c f3 fc 89 be
       -0.13995382 -0.27277997 0.024628434 -0.26950797
0003e0 df 1e c6 bd 21 77 b9 bd d0 8a d7 bd 0f e7 95 bd
       -0.09673857 -0.09055925 -0.10524523 -0.073194616
0003f0 35 3c 96 3d d5 ff 92 be 54 0b a1 bd 0c 22 85 be
       0.07335702 -0.2871081 -0.07863489 -0.26002538
