CQ/result/P7_Resullt/DAYS/2dim/5/best_model.pth (torch_old, 603202 bytes, 11 tensors)

node_embeddings f4 [228, 2]
0.5343999 0.09890979 0.6262046 0.015757838 0.3438555 0.17063887 0.2674348 0.15754701
0.31621432 0.14874987 0.42172095 0.010285982 0.38473678 0.68148726 0.5713242 0.008904796
-0.515738 -0.1424815 -0.5999327 0.39510983 0.30433112 0.00408291 0.425369 0.55607575
-0.53283703 -0.09557039 0.29608724 0.37139255 0.27297285 0.1630172 -0.37346774 0.08265422
0.34532592 0.07384861 0.27994415 0.3475841 0.39780638 0.18642971 0.3103561 0.32551146
-0.36059672 0.12964532 0.36584884 0.12354836 0.2829878 0.2401261 0.3688149 -0.012006578
0.33294097 0.16105704 0.19623584 0.42290768 0.1356567 0.45890886 0.31862596 0.114059664
0.30873698 0.43014222 -0.30478084 0.08796168 0.34562227 0.5508252 0.29849422 0.3750587
0.32048762 0.109118365 0.28883836 0.29432836 0.40563142 0.087486036 0.3212039 0.10788556
0.3833428 0.07037124 -0.60968894 0.47070405 0.37831986 0.14239247 0.47015664 0.11659672
0.35389373 0.15399279 0.13058811 0.45476684 0.13588887 0.4178417 0.31776872 0.115408584
0.2689857 0.39367995 0.37864453 0.14454918 0.28461152 0.36710978 0.29364046 0.27894142
0.26427463 0.2731635 0.2628948 0.29265487 0.32540748 0.10189307 0.37689757 -0.010201622
0.61560875 -0.23803812 0.33780512 0.091289565 0.2930637 0.1260155 -0.41241097 0.119801864
0.17528282 0.4782887 0.3181424 0.3605408 0.4784364 0.050320473 0.51618505 0.00039627767
0.5231053 -0.00077219156 0.37466654 0.024828441 0.21826553 0.20407848 0.28464198 0.03831528
0.30817005 0.12495132 0.31326708 0.11914487 0.24074005 0.40364885 0.14070293 0.41831756
0.23581032 0.1886152 0.26040775 0.30693227 0.3265919 0.10425068 0.53756386 0.02805402
0.27250323 0.1608353 0.33431992 0.102064066 0.3114915 0.4576956 0.3873813 0.110786974
0.25077266 0.4054188 0.4033696 0.14668247 0.33167934 0.08832945 0.3390826 0.09675922
0.3482369 0.14942177 0.40463397 0.08492908 0.43337658 0.10941215 0.26300752 0.2742184
0.43974513 0.071071446 0.5007949 0.15530014 0.25375906 0.28182974 -0.52234024 0.23848836
0.34665626 0.07564454 -0.3457842 0.15089898 -0.3359219 0.16439244 0.2745194 0.058798205
0.3540131 0.04327588 -0.35545248 0.12207907 0.46201858 0.17238332 0.4528852 0.11369223
0.4889469 0.11677989 0.32738486 0.09338744 0.33749261 0.09728875 0.37707406 -0.010088247
0.26288715 0.21263725 0.33060193 0.09778305 0.43403268 0.13676333 0.35407785 0.06592626
0.46569204 0.14814493 0.17953311 0.4671225 0.42717332 0.10399024 0.25479478 0.45544288
0.35233882 0.18469608 0.21999563 0.5190181 0.3505857 0.09717078 -0.23876451 0.18060458
-0.64343643 0.08802171 0.48296008 -0.04424184 0.4118433 0.097274296 0.30333948 0.4039485
0.39760464 0.055572346 0.39819053 0.14035918 0.40393272 0.09645151 -0.6725246 0.024868088
0.38518548 0.10795194 0.46867737 0.081558 0.51536644 0.16105136 0.30903012 0.37898362
0.34795222 0.12747835 -0.40320975 0.08164551 0.5552187 0.114917204 0.32411808 0.22334649
00000000: 6fce 083f 3791 ca3d f24e 203f 9516 813c
00000010: d40d b03e f5bb 2e3e 37ed 883e 0154 213e
00000020: d8e6 a13e e351 183e cfeb d73e 8986 283c
00000030: 38fc c43e f375 2e3f 4e42 123f 6ce5 113c
00000040: 6807 04bf ace6 11be 3095 19bf d64b ca3e
00000050: 4ad1 9b3e eec9 853b f7c9 d93e fb5a 0e3f
00000060: 0268 08bf 69ba c3bd bf98 973e 2a27 be3e
00000070: 19c3 8b3e fbed 263e 2a37 bfbe 9e46 a93d
00000080: 8fce b03e f13d 973d d754 8f3e 8bf6 b13e
00000090: 47ad cb3e 6ee7 3e3e ffe6 9e3e 70a9 a63e
000000a0: 22a0 b8be bec1 043e 8a50 bb3e ec06 fd3d
000000b0: c7e3 903e 9ee3 753e 4ed5 bc3e 3db7 44bc
000000c0: 3d77 aa3e 23ec 243e 0cf2 483e 5b87 d83e
000000d0: 97e9 0a3e 1af6 ea3e f122 a33e 1d98 e93d
000000e0: c612 9e3e 9a3b dc3e 3c0c 9cbe 4125 b43d
000000f0: 67f5 b03e e102 0d3f 3cd4 983e b207 c03e
00000100: f416 a43e 7379 df3d 9fe2 933e 35b2 963e
00000110: ecae cf3e e12b b33d d674 a43e 1bf3 dc3d
00000120: 8245 c43e cc1e 903d 9314 1cbf 1f00 f13e
00000130: 24b3 c13e 55cf 113e 5fb8 f03e 43ca ee3d
00000140: 8f31 b53e 49b0 1d3e e4b8 053e 33d7 e83e
00000150: 7426 0b3e 59ef d53e 95b2 a23e 565b ec3d
00000160: 7eb8 893e 6b90 c93e b2dd c13e b304 143e
00000170: 9ab8 913e d0f5 bb3e 0b58 963e 69d1 8e3e
00000180: 014f 873e 16dc 8b3e 269a 863e dcd6 953e
00000190: cf9b a63e 50ad d03d b8f8 c03e b424 27bc
000001a0: 8998 1d3f 44c0 73be cbf4 ac3e 06f6 ba3d
000001b0: 720c 963e 350a 013e 8827 d3be ae5a f53d
000001c0: 577d 333e 42e2 f43e 90e3 a23e ce98 b83e
000001d0: 9ef5 f43e d71c 4e3d b424 043f 7dc3 cf39
000001e0: 3bea 053f e66c 4aba 4bd4 bf3e 0465 cb3c
000001f0: 0081 5f3e f3f9 503e 98bc 913e 7cf0 1c3d
00000200: 77c8 9d3e 7ae6 ff3d 8b64 a03e 3a02 f43d
00000210: 8f84 763e 10ab ce3e 6e14 103e b82d d63e
00000220: 4378 713e 5824 413e 2a54 853e 3a26 9d3e
00000230: 0e37 a73e 6181 d53d c99d 093f 8bd1 e53c
00000240: 8b85 8b3e 02b2 243e fb2b ab3e f706 d13d
00000250: d07b 9f3e 1457 ea3e d756 c63e 48e4 e23d
00000260: 4665 803e 0e93 cf3e 7686 ce3e ee33 163e
00000270: e0d1 a93e 12e6 b43d 3c9c ad3e b329 c63d
00000280: 1b4c b23e 0502 193e 2f2c cf3e 4cef ad3d
00000290: 89e3 dd3e 7a13 e03d eca8 863e 5b66 8c3e
000002a0: 4626 e13e e88d 913d 1834 003f 0007 1f3e
000002b0: b5ec 813e fd4b 903e 17b8 05bf 4b36 743e
000002c0: ee7c b13e 86eb 9a3d a00a b1be 4385 1a3e
000002d0: f5fd abbe 7e56 283e cf8d 8c3e 63d6 703d
000002e0: 3441 b53e 0d42 313d defd b5be 9704 fa3d
000002f0: b38d ec3e 4185 303e 92e0 e73e 79d7 e83d
00000300: 4057 fa3e 4c2a ef3d fd9e a73e ea41 bf3d
00000310: d5cb ac3e 533f c73d da0f c13e 2d49 25bc
00000320: 2599 863e 94bd 593e a844 a93e 7b42 c83d
00000330: 8839 de3e b00b 0c3e b149 b53e 5904 873d
00000340: 306f ee3e 4eb3 173e 87d7 373e ae2a ef3e
00000350: 76b6 da3e d6f8 d43d 7674 823e cf2f e93e
00000360: c165 b43e f820 3d3e 8946 613e 5fde 043f
00000370: f87f b33e 7901 c73d af7e 74be 68f0 383e
00000380: 40b8 24bf ba44 b43d 8b46 f73e ee36 35bd
00000390: 20dd d23e bf37 c73d 504f 9b3e 56d2 ce3e
000003a0: d692 cb3e d49f 633d a1df cb3e 51ba 0f3e
000003b0: 45d0 ce3e 5f88 c53d 922a 2cbf 29b8 cb3c
000003c0: 0837 c53e e815 dd3d 7bf6 ef3e e107 a73d
000003d0: 0eef 033f a6ea 243e 3239 9e3e 240a c23e
000003e0: cb26 b23e af89 023e 8271 cebe c335 a73d
000003f0: d022 0e3f b659 eb3d cef2 a53e f1b4 643e

encoder.dcrnn_cells.0.gate.weights_pool f4 [2, 2, 65, 128]
0.1420669 -0.49277076 0.1207515 -0.34205008 0.14768781 0.18433702 -0.39313298 0.18427894
-1.2050354 0.51683706 -0.14734681 0.19843595 0.2720343 0.14728844 -0.4933816 0.22157536
0.09472524 0.04041757 -1.0883238 -0.16479108 0.23253962 -0.79732406 0.25543994 1.1205677
0.47064158 0.35531518 -0.42490056 -0.54994535 0.15890002 -0.015576308 0.44899625 -0.4526243
-1.0199403 -0.34950352 -1.3270205 0.22756946 0.078917615 0.15873854 0.25185362 0.37932348
0.9833952 -0.40059954 0.31703964 0.106845714 0.750061 0.29977682 1.0256761 -0.25155622
0.9641106 -0.9007499 0.26670808 0.34757534 -0.674787 0.1959129 0.21501054 0.1943848
0.0021831845 0.31216395 -0.8242214 -0.076857194 -0.16017272 0.2981295 -0.6344355 0.08310446
-0.57850677 -0.29211184 -0.5827126 -0.6641602 -0.5335525 -0.5772076 0.32101718 -0.42558497
-0.8761265 -1.7578101 -0.39104912 -0.44800958 -0.431623 -0.5588487 0.309412 -0.4141583
-0.5566357 -0.7813249 -0.849613 -0.53050053 -0.54122627 -1.0208234 -0.37814352 -1.7373227
-0.2228345 -0.2935088 0.08679156 -0.8316482 -0.56819266 -0.541842 -0.32156518 0.16401869
-0.8799767 0.15631205 -0.8841893 -0.4607564 -0.5397919 -0.52744997 -0.53831935 -0.5248966
-1.4523517 0.34310183 -0.38582376 -0.557188 -1.857147 -0.43594393 -1.6216804 -0.6102914
-1.4301656 -0.8003054 -0.43278947 -0.4252388 -0.79028237 -0.69548625 -0.5315902 -0.5159097
-0.5494076 -0.42066985 -0.92538434 -0.7320849 -0.4958866 -0.46737894 -0.835898 -0.64308554
-0.075539745 0.11054716 -0.06069072 -0.09603728 -0.09159453 -0.054826174 0.02052398 -0.08104942
0.0027861306 0.0660919 -0.08858998 -0.08375185 -0.07263631 -0.0643026 0.03355544 -0.037725735
-0.08784844 -0.07111663 -0.014464416 -0.032556802 -0.08646141 0.31275323 -0.096215434 -0.1797038
-0.0692086 -0.11528843 0.090443686 0.40401596 -0.07627374 -0.07722766 -0.06993916 0.013155586
0.028809968 0.0058020535 -0.01754375 -0.09679761 -0.050202217 -0.050886873 -0.08552575 -0.12109039
-0.16965885 0.038922988 -0.122486934 -0.07635324 -0.30889887 -0.10266942 -0.1416297 -0.08735199
-0.16934177 0.045732673 -0.1069166 -0.10644344 0.13236813 -0.1044841 -0.08501941 -0.06770944
-0.06564627 -0.104412004 0.12453927 0.065469585 -0.0860087 -0.11301303 0.2819678 -0.08491014
0.037812945 0.021553393 -0.08340606 -0.0991631 0.024563497 0.0027961598 0.33649853 -0.005385456
0.37418956 0.21121536 -0.1923481 -0.044459388 -0.018052092 -0.028737877 0.22884525 -0.113086015
0.010974425 0.115939155 0.39284348 0.6187384 0.02850153 0.41588068 0.032321375 0.33944732
-0.115362465 -0.0037120131 0.39063206 0.47458696 0.028345462 0.00013902585 -0.115430735 0.30702558
0.42826453 0.36959583 0.36322153 0.0006570064 -0.034545656 -0.06983451 0.03806382 -0.057138894
0.062855646 0.11680188 0.01663475 0.024200952 0.32291374 -0.02908432 0.09954656 -0.03444875
-0.011818238 0.45798537 0.0017867339 0.030407447 0.6170204 -0.07132528 -0.009284516 -0.02951374
0.015031376 0.009833662 0.43501562 0.35563737 -0.18596523 0.018821435 0.53518444 0.023168648
00000000: fc79 113e 734c fcbe 904c f73d 3021 afbe
00000010: 793b 173e d8c2 3c3e ba48 c9be 9eb3 3c3e
00000020: 9a3e 9abf 6f4f 043f 15e2 16be cb32 4b3e
00000030: 1448 8b3e c8d2 163e 839c fcbe a7e4 623e
00000040: 4eff c13d e58c 253d 324e 8bbf febe 28be
00000050: de1e 6e3e 6e1d 4cbf 06c9 823e c36e 8f3f
00000060: eff7 f03e dfeb b53e 918c d9be 38c9 0cbf
00000070: b0b6 223e c533 7fbc d6e2 e53e 5fbe e7be
00000080: 678d 82bf 20f2 b2be cfdb a9bf f807 693e
00000090: 8f9f a13d 5b8c 223e f5f2 803e b036 c23e
000000a0: cabf 7b3f 621b cdbe 0553 a23e edd1 da3d
000000b0: ff03 403f 597c 993e 5b49 833f facb 80be
000000c0: f4cf 763f 8c97 66bf f68d 883e 65f5 b13e
000000d0: d7be 2cbf 649d 483e b92b 5c3e cf0c 473e
000000e0: c213 0f3b f4d3 9f3e 2c00 53bf 4e67 9dbd
000000f0: 5104 24be 6ea4 983e 5d6a 22bf ac32 aa3d
00000100: 0519 14bf af8f 95be a72c 15bf 6706 2abf
00000110: e696 08bf e1c3 13bf 5d5c a43e 46e6 d9be
00000120: d449 60bf ecff e0bf 9737 c8be 8361 e5be
00000130: b1fd dcbe b510 0fbf 406b 9e3e 8f0c d4be
00000140: ad7f 0ebf e904 48bf 3d80 59bf e2ce 07bf
00000150: ce8d 0abf 57aa 82bf 079c c1be 9760 debf
00000160: ba2e 64be c946 96be c6bf b13d e5e6 54bf
00000170: 1375 11bf 28b6 0abf 31a4 a4be 84f4 273e
00000180: 2746 61bf 4410 203e 3b5a 62bf 43e8 ebbe
00000190: cd2f 0abf f606 07bf 4ccf 09bf a05f 06bf
000001a0: a9e6 b9bf 0bab af3e b18a c5be dfa3 0ebf
000001b0: feb6 edbf 0b34 dfbe 3993 cfbf 0f3c 1cbf
000001c0: ab0f b7bf d1e0 4cbf 9596 ddbe e6b8 d9be
000001d0: f24f 4abf 630b 32bf 4c16 08bf a812 04bf
000001e0: faa5 0cbf 0a62 d7be fde5 6cbf ea69 3bbf
000001f0: d9e4 fdbe 4b4c efbe 69fd 55bf 41a1 24bf
00000200: 95b4 9abd 8d66 e23d d596 78bd 32af c4bd
00000210: ea95 bbbd 6991 60bd e821 a83c 3dfd a5bd
00000220: 8497 363b 315b 873d aa6e b5bd 1786 abbd
00000230: 58c2 94bd 15b1 83bd 6e71 093d 4d86 1abd
00000240: e2e9 b3bd 99a5 91bd 28fc 6cbc 485a 05bd
00000250: ae12 b1bd 3121 a03e 990c c5bd 4604 38be
00000260: 3dbd 8dbd 571c ecbd 8a3a b93d 2edb ce3e
00000270: 6835 9cbd 8929 9ebd 433c 8fbd 878a 573c
00000280: e202 ec3c 271f be3b e9b7 8fbc d33d c6bd
00000290: d7a0 4dbd c16e 50bd 2028 afbd 3dfe f7bd
000002a0: 0dbb 2dbe b66d 1f3d 6eda fabd 165f 9cbd
000002b0: fe27 9ebe 5844 d2bd 6007 11be 9ae5 b2bd
000002c0: ee67 2dbe 2f52 3b3d 17f7 dabd 05ff d9bd
000002d0: 838b 073e c3fb d5bd a81e aebd 3fab 8abd
000002e0: 8d71 86bd f6d5 d5bd 720e ff3d eb14 863d
000002f0: 5425 b0bd 6073 e7bd 155e 903e 5ee5 adbd
00000300: bfe1 1a3d be90 b03c ccd0 aabd 0616 cbbd
00000310: 6339 c93c c73f 373b 8949 ac3e 7b78 b0bb
00000320: c695 bf3e d748 583e e6f6 44be 0c1b 36bd
00000330: fbe1 93bc b26b ebbc 6956 6a3e a499 e7bd
00000340: 13ce 333c 8271 ed3d c822 c93e a465 1e3f
00000350: 0a7c e93c 50ee d43e 6b63 043d 0acc ad3e
00000360: 2843 ecbd 3f45 73bb ed00 c83e 10fd f23e
00000370: be34 e83c 78c7 1139 f366 ecbd 7532 9d3e
00000380: 7d45 db3e aa3b bd3e 2cf8 b93e f43a 2c3a
00000390: bf7f 0dbd 6505 8fbd cfe8 1b3d 790a 6abd
000003a0: 76ba 803d d335 ef3d 9945 883c 1341 c63c
000003b0: f354 a53e 3d42 eebc 11df cb3d 221a 0dbd
000003c0: 48a1 41bc 0f7d ea3e d730 ea3a 0a19 f93c
000003d0: 0df5 1d3f fd12 92bd 151e 18bc cdc6 f1bc
000003e0: 2946 763c 5e1d 213c 5eba de3e 1a16 b63e
000003f0: ab6d 3ebe 692f 9a3c d901 093f 2dcc bd3c

encoder.dcrnn_cells.0.gate.bias_pool f4 [2, 128]
0.0135755995 -0.33529237 -0.0041151275 -0.08277075 0.14733358 0.17604744 -0.042820644 -0.06351835
-0.02910991 0.12044264 0.037447385 -0.22516493 -0.052738596 0.04184218 0.32394657 0.14652249
-0.033186335 0.1441067 -0.22842759 -0.12727799 0.048419163 -0.20025885 0.13762838 0.1374994
-0.032716583 0.06317567 -0.024649832 -0.39195374 0.054057665 0.04689605 -0.025214925 0.2136872
0.03771523 0.084216475 0.0083303945 -0.2436396 -0.0095843375 -0.090716824 0.062896185 0.10334264
0.12519184 0.13992399 -0.09590705 -0.022765659 0.07013949 -0.16335854 0.26829013 -0.10623102
-0.09909611 -0.14259742 0.15737851 -0.050876092 -0.09041185 -0.22332552 -0.17117915 0.023513177
-0.080219716 0.120018594 -0.080299534 -0.17839536 -0.0043882807 0.002830342 -0.23301189 -0.085476175
0.22607039 -0.035185587 0.5120156 0.043666963 0.19219244 0.20862363 -0.33577102 0.48990294
-0.4417992 -0.07671288 0.48715627 0.4960665 0.4121412 0.39436504 -0.2971461 0.19729547
0.25887054 0.13385385 -0.25932425 -0.5724248 0.46163946 -0.45130455 0.3483322 -0.006719704
0.44582942 0.35500935 -0.6407867 -0.45064995 0.22503212 0.2156248 0.20909144 -0.2225184
-0.2534576 -0.5448801 -0.4499718 0.1518396 0.42809954 0.39042488 0.17444047 0.23068833
-0.4142942 -0.08269197 0.36269623 0.28288433 0.14245749 0.47494784 0.069094874 -0.07996138
0.33771583 -0.30624363 0.2742756 0.374766 -0.45511314 0.24712048 0.13416426 0.42031017
0.36750272 0.22589111 -0.38495025 -0.5625368 0.21857063 0.25627422 -0.40378252 0.33827296
-0.1430646 0.100811124 0.02837218 0.12059986 -0.057726763 -0.14522752 0.11095594 -0.02439239
0.0023713673 -0.07784114 -0.05377172 0.02279578 -0.0260109 0.15762909 -0.15517429 -0.1412836
-0.17689675 0.070504345 -0.04817519 0.12191599 -0.092163764 0.040874597 0.029902192 0.23683204
-0.15669185 -0.09599027 0.011359512 0.080092 -0.08020484 -0.082836315 -0.0646558 -0.1859668
0.07243478 -0.1973132 0.14602832 0.12730047 0.08545057 0.022116117 0.19522761 -0.31804016
0.06091358 0.0020032534 0.060184184 -0.010238117 0.12886322 -0.043596208 0.1748127 0.238416
0.3362493 0.049509138 -0.09400127 -0.12883271 -0.07637278 -0.2591897 -0.1713788 -0.1267748
0.05865546 0.17084399 0.01779121 0.11999399 -0.0018158118 0.079611406 -0.18115747 0.071667805
0.09121937 -0.06733223 0.41961157 0.3267666 0.26161247 0.11191402 0.17285435 0.14123976
-0.07049401 0.01046238 0.16053225 0.4468802 0.3649146 0.40284997 -0.005572896 0.21066974
0.12310775 0.29864192 -0.15421328 -0.41263005 0.1428802 -0.5406059 0.09869115 -0.35481343
0.4935281 0.28255776 -0.3021907 -0.35390827 0.12264155 0.3737853 0.38785052 -0.2823402
-0.185206 -0.33150324 -0.2177667 0.35686693 0.13627425 0.48345828 0.14259894 0.20570149
0.09992947 -0.08948276 0.014534045 0.13190603 -0.24462241 0.41019455 0.13451824 0.26049718
-0.08061739 -0.50508225 0.19197266 0.16626132 -0.25425488 0.23885718 0.40096304 0.07784344
0.14987583 0.3544743 -0.47357112 -0.24951571 0.5070549 0.043513358 -0.44970462 0.08201675
00000000: 316c 5e3c 71ab abbe 31d8 86bb b683 a9bd
00000010: 9dde 163e c845 343e b364 2fbd e915 82bd
00000020: e877 eebc a1aa f63d 6e62 193d a391 66be
00000030: 6d04 58bd b562 2b3d 53dc a53e fe09 163e
00000040: 65ee 07bd b590 133e ece8 69be 2955 02be
00000050: 2c53 463d a810 4dbe 74ee 0c3e a5cc 0c3e
00000060: d301 06bd 3f62 813d 72ee c9bc 29ae c8be
00000070: 926b 5d3d 1316 403d 888f cebc d1d0 5a3e
00000080: 497b 1a3d b079 ac3d 357c 083c a97c 79be
00000090: a007 1dbc bec9 b9bd b7cf 803d 4ea5 d33d
000000a0: 4a32 003e 3c48 0f3e ea6a c4bd 0c7f babc
000000b0: 4ba5 8f3d 7647 27be 535d 893e a68f d9bd
000000c0: e7f2 cabd 0f05 12be d527 213e 7363 50bd
000000d0: d929 b9bd 72af 64be 9649 2fbe b59e c03c
000000e0: 3c4a a4bd 4fcc f53d 1574 a4bd 46ad 36be
000000f0: 91cb 8fbb 427d 393b ab9a 6ebe 220e afbd
00000100: ff7e 673e c31e 10bd 7413 033f 21dc 323d
00000110: 18ce 443e 6fa1 553e 2eea abbe 8fd4 fa3e
00000120: 8133 e2be a41b 9dbd 8c6c f93e 6efc fd3e
00000130: 2c04 d33e 37ea c93e 8923 98be d307 4a3e
00000140: ae8a 843e fc10 093e 26c6 84be 6f8a 12bf
00000150: 025c ec3e 6411 e7be 9958 b23e f630 dcbb
00000160: c143 e43e c9c3 b53e 990a 24bf 97bb e6be
00000170: d26e 663e bfcc 5c3e 111c 563e dddb 63be
00000180: 32c5 81be 437d 0bbf b462 e6be d77b 1b3e
00000190: dd2f db3e c5e5 c73e 86a0 323e 9039 6c3e
000001a0: 5f1e d4be 685a a9bd 52b3 b93e 37d6 903e
000001b0: 60e0 113e 5d2c f33e 9d81 8d3d cbc2 a3bd
000001c0: 17e9 ac3e f7cb 9cbe da6d 8c3e 54e1 bf3e
000001d0: 9704 e9be 270d 7d3e 5b62 093e e532 d73e
000001e0: 5129 bc3e 0050 673e 3318 c5be 6902 10bf
000001f0: fbd0 5f3e 6036 833e 95bc cebe 1d32 ad3e
00000200: 877f 12be 1076 ce3d c66c e83c 0ffd f63d
00000210: e672 6cbd 86b6 14be de3c e33d 8dd2 c7bc
00000220: f168 1b3b 2d6b 9fbd bc3f 5cbd 37be ba3c
00000230: d014 d5bc 8569 213e 02e6 1ebe a6ac 10be
00000240: 6c24 35be 9564 903d 5953 45bd 17af f93d
00000250: 5bc0 bcbd 1f6c 273d 71f5 f43c 1984 723e
00000260: d473 20be 8c96 c4bd 3f1d 3a3c 4607 a43d
00000270: 6f42 a4bd 16a6 a9bd 436a 84bd 156e 3ebe
00000280: b058 943d 790c 4abe 7388 153e 0e5b 023e
00000290: b500 af3d dc2c b53c bfe9 473e 29d6 a2be
000002a0: 8580 793d 0449 033b b183 763d c6bd 27bc
000002b0: b8f4 033e f091 32bd 1a02 333e 5323 743e
000002c0: de28 ac3e 18ca 4a3d bd83 c0bd b9ec 03be
000002d0: 5569 9cbd 83b4 84be ed7d 2fbe 41d1 01be
000002e0: b540 703d baf1 2e3e dfbe 913c 69bf f53d
000002f0: 8900 eeba 4e0b a33d 5881 39be 92c6 923d
00000300: 39d1 ba3d 7be5 89bd 54d7 d63e f44d a73e
00000310: 12f2 853e 2d33 e53d bb00 313e 28a1 103e
00000320: 2a5f 90bd 676a 2b3c 9162 243e 7bcd e43e
00000330: 16d6 ba3e 5a42 ce3e d79c b6bb cfb9 573e
00000340: eb1f fc3d 98e7 983e 16ea 1dbe 3f44 d3be
00000350: 304f 123e 2665 0abf 961e ca3d 1baa b5be
00000360: b7af fc3e 69ab 903e bdb8 9abe 7733 b5be
00000370: 7e2b fb3d c960 bf3e 5894 c63e e58e 90be
00000380: a4a6 3dbe cbba a9be 3cfe 5ebe 43b7 b63e
00000390: 7a8b 0b3e d887 f73e 7505 123e 69a3 523e
000003a0: d2a7 cc3d bd42 b7bd 3420 6e3c 6012 073e
000003b0: 4c7e 7abe 0505 d23e 26bf 093e e35f 853e
000003c0: bb1a a5bd 124d 01bf 7b94 443e 6840 2a3e
000003d0: b22d 82be fa96 743e 074b cd3e 626c 9f3d
000003e0: 0d79 193e a87d b53e ea77 f2be 0c81 7fbe
000003f0: 5ace 013f 103b 323d af3f e6be 66f8 a73d

encoder.dcrnn_cells.0.update.weights_pool f4 [2, 2, 65, 64]
-0.4787957 -1.3725276 0.2238395 -0.77064943 0.4349246 -0.36535147 -1.0595009 0.3112248
-1.8836676 0.8722907 0.56651956 -0.26716962 -0.3096899 -0.28357542 1.4342375 -0.22357613
-0.45719817 0.62431496 -1.7079413 1.7554806 0.50569236 -1.337907 -0.43125796 1.1492538
-0.291553 0.5280884 -1.2291918 -1.4445796 0.3486516 0.34224063 0.29696876 -1.1207538
-1.5555515 1.2428541 -1.9162139 0.38067213 0.24400568 0.23420309 0.39642638 -0.31227764
0.8271885 1.0429344 -0.3931116 -0.3957776 1.1584203 -0.3277926 -0.80014426 -1.0238476
0.7837072 -1.5113037 0.41001263 -0.3904378 -1.5745806 -0.26928145 0.35300228 -0.27220413
0.4147133 -0.3651567 1.4057459 1.7581953 0.7671148 0.35913354 1.4704509 -0.5921029
0.04926156 -0.10841394 -0.020927522 0.09980644 -0.027853386 0.05060484 -0.07480287 -0.055402894
-0.09692657 -0.06438489 -0.041231263 0.031885162 0.060342107 0.013169293 -0.029053858 0.044600043
0.031396788 -0.050613265 -0.08219534 0.092683695 -0.04530074 -0.06503697 0.062666334 -0.0042247144
0.047825534 -0.049957056 -0.07115113 -0.055329528 -0.031228289 -0.006678776 -0.03850774 -0.06427167
-0.08707542 0.08589388 -0.100475386 -0.05134224 -0.014597796 -0.037068203 -0.05853164 0.037321027
-0.11603558 -0.0012836296 0.039218027 0.028405676 -0.02713088 0.06939554 0.095256165 0.16751923
-0.10827031 -0.090766825 -0.05722637 0.05366678 -0.09521003 0.050446175 -0.036079038 0.047452778
-0.026809106 0.050243232 0.06480048 0.08402552 -0.04596649 -0.05375622 0.055780355 0.04568743
0.04113271 -0.11707 0.17206237 0.09428806 0.0021624758 -0.042158984 0.02006612 0.11087962
-0.027477698 -0.04978976 -0.0773649 -0.07089409 -0.13902977 -0.10994417 -0.23125516 -0.30771047
0.02856176 -0.010998366 -0.07676963 0.43584222 -0.02256511 0.23528662 0.0063029574 0.0042602415
-0.28086096 -0.06465345 0.0022943134 0.34897038 0.09145661 0.037674792 0.29868862 -0.01959164
-0.053434104 0.08275926 -0.10084779 0.06633909 0.17624831 0.17756157 0.078007765 -0.17390576
0.024411451 -0.18700956 -0.020596016 -0.028055249 0.082153246 -0.069476716 -0.013266298 0.11789973
0.034619745 0.02533633 -0.011842601 0.0036763733 -0.12925863 -0.23529232 0.044015795 -0.14611971
0.02073131 -0.08932934 -0.26426145 -0.3981674 -0.07441798 0.061240274 -0.09981022 0.022545122
-0.08903344 0.11335327 0.12339949 -0.12853578 0.0827477 -0.080065295 0.11986044 0.104530476
0.058600865 0.07593107 0.09131291 -0.0863573 -0.10767076 -0.10682223 0.006774923 -0.11747569
-0.08448962 0.076867156 0.0873153 -0.09616918 0.08691255 0.08653693 -0.08247383 0.12687694
-0.11714341 0.07542163 0.092435785 0.08767015 0.10314368 0.07218126 0.11234146 0.14426582
0.09992529 -0.12432294 0.09687365 0.100508235 0.08789969 0.08343843 0.081614114 -0.10115367
0.09147586 -0.055845495 -0.08519946 -0.07161318 0.07303025 -0.08665084 -0.11510275 -0.121494316
0.1062148 0.120045245 0.06664441 -0.060351096 0.11873756 -0.14095631 0.083122596 -0.09305773
0.08878779 -0.078329735 -0.1101615 -0.07758616 0.104330726 0.06564851 -0.096051864 -0.103555046
00000000: b624 f5be fcae afbf 2f36 653e 4849 45bf
00000010: 70ae de3e 590f bbbe ba9d 87bf db58 9f3e
00000020: 051c f1bf 714e 5f3f 6d07 113f 75ca 88be
00000030: ad8f 9ebe cc30 91be 1895 b73f 24f1 64be
00000040: e115 eabe 1bd3 1f3f d29d dabf 97b3 e03f
00000050: 0e75 013f 8940 abbf d8cd dcbe c01a 933f
00000060: 6f46 95be cd30 073f 2856 9dbf fce7 b8bf
00000070: 7682 b23e 2a3a af3e 4a0c 983e dc74 8fbf
00000080: 501c c7bf d815 9f3f 7f46 f5bf 75e7 c23e
00000090: a0dc 793e efd2 6f3e 66f8 ca3e dbe2 9fbe
000000a0: a0c2 533f e07e 853f ec45 c9be 5da3 cabe
000000b0: 1e47 943f 6fd4 a7be 41d6 4cbf 700d 83bf
000000c0: 09a1 483f 6672 c1bf 2ded d13e 77e7 c7be
000000d0: db8b c9bf 42df 89be b7bc b43e 575e 8bbe
000000e0: 4d55 d43e d2f5 babe 7bef b33f 8b0c e13f
000000f0: a361 443f 5ae0 b73e bc37 bc3f 0e94 17bf
00000100: 7dc6 493d 2108 debd 3270 abbc 5267 cc3d
00000110: c92c e4bc 0547 4f3d 3f32 99bd 25ee 62bd
00000120: 7081 c6bd 3adc 83bd 1de2 28bd 049a 023d
00000130: 4929 773d 05c4 573c 5b02 eebc 89ae 363d
00000140: eb99 003d db4f 4fbd 0856 a8bd f3d0 bd3d
00000150: 458d 39bd 1a32 85bd 3557 803d 796f 8abb
00000160: b5e4 433d c59f 4cbd afb7 91bd 37a1 62bd
00000170: 78d2 ffbc a2d9 dabb 4bba 1dbd dea0 83bd
00000180: 9954 b2bd 21e9 af3d 0ac6 cdbd 3e4c 52bd
00000190: 982b 6fbc d4d4 17bd dfbe 6fbd efdd 183d
000001a0: 10a4 edbd 763f a8ba 15a3 203d 05b3 e83c
000001b0: 9441 debc 401f 8e3d aa15 c33d 298a 2b3e
000001c0: d3bc ddbd f5e3 b9bd 3366 6abd b3d1 5b3d
000001d0: 7afd c2bd a6a0 4e3d 9dc7 13bd d85d 423d
000001e0: c59e dbbc d9cb 4d3d 1db6 843d 9215 ac3d
000001f0: 5c47 3cbd 7b2f 5cbd f179 643d be22 3b3d
00000200: c67a 283d 65c2 efbd 1e31 303e 191a c13d
00000210: 53b8 0d3b e6ae 2cbd b461 a43c db14 e33d
00000220: e918 e1bc 59f0 4bbd 7d71 9ebd ec30 91bd
00000230: d25d 0ebe 692a e1bd 27ce 6cbe 3a8c 9dbe
00000240: 5afa e93c 7e32 34bc 6539 9dbd b626 df3e
00000250: 77da b8bc faee 703e 0a89 ce3b 7f99 8b3b
00000260: 02cd 8fbe 0769 84bd 315c 163b 3fac b23e
00000270: 9a4d bb3d e250 1a3d b7ed 983e a67e a0bc
00000280: b8dd 5abd b07d a93d 4989 cebd cadc 873d
00000290: 707a 343e b3d2 353e 89c2 9f3d 5a14 32be
000002a0: 86fa c73c 6f7f 3fbe fab8 a8bc 1fd4 e5bc
000002b0: f63f a83d cf49 8ebd e35a 59bc 6a75 f13d
000002c0: 6fcd 0d3d 238e cf3c 7807 42bc 4fef 703b
000002d0: 605c 04be 78f0 70be e849 343d 68a0 15be
000002e0: b5d4 a93c 4df2 b6bd 474d 87be 99dc cbbe
000002f0: 7468 98bd 15d7 7a3d 4d69 ccbd 8cb0 b83c
00000300: 2a57 b6bd c225 e83d dfb8 fc3d e29e 03be
00000310: a077 a93d 46f9 a3bd 6479 f53d 1314 d63d
00000320: 7607 703d c081 9b3d 4302 bb3d 19dc b0bd
00000330: 7d82 dcbd 9dc5 dabd 2c00 de3b 1897 f0bd
00000340: e508 adbd 876c 9d3d 5dd2 b23d 59f4 c4bd
00000350: 35ff b13d 463a b13d 0ae8 a8bd 07ec 013e
00000360: e2e8 efbd a876 9a3d f94e bd3d 688c b33d
00000370: fe3c d33d c5d3 933d 4813 e63d 6bba 133e
00000380: a1a5 cc3d 079d febd b165 c63d 43d7 cd3d
00000390: c104 b43d c5e1 aa3d 4d25 a73d a829 cfbd
000003a0: b257 bb3d 3fbe 64bd 0e7d aebd eea9 92bd
000003b0: e290 953d ff75 b1bd feba ebbd 03d2 f8bd
000003c0: 2587 d93d 48da f53d dd7c 883d b632 77bd
000003d0: ae2c f33d da56 10be 2e3c aa3d 0d95 bebd
000003e0: 5fd6 b53d 576b a0bd 5a9c e1bd 7ee5 9ebd
000003f0: 59ab d53d ba72 863d d7b6 c4bd ab14 d4bd

encoder.dcrnn_cells.0.update.bias_pool f4 [2, 64]
-0.08079368 0.04656549 0.25953436 -0.28584954 0.039938454 -0.12666719 -0.10143743 0.0196495
-0.19893831 -0.00917799 0.2747667 -0.02124713 -0.03530358 -0.14210518 0.101927154 -0.12218488
-0.04155915 0.15208706 -0.16882078 -0.13772975 0.021017792 0.09787332 0.09438941 0.06887242
-0.2141563 -0.11449662 0.026416233 0.059805464 0.092031024 0.086305425 0.2292295 -0.04434945
-0.12731303 -0.035700344 -0.19252886 0.010457566 0.16223048 0.19848567 0.012529837 -0.07522925
0.15326338 0.1087884 0.12884764 -0.08228619 -0.0021211638 -0.0297229 -0.09926534 -0.28777266
0.066201806 -0.118888944 -0.06179191 0.099284045 -0.05082169 -0.22082008 0.051770218 -0.07744362
0.09391038 0.09509008 -0.019065002 -0.33652022 0.22801368 -0.063289896 -0.08739685 -0.18612927
-0.2255322 0.33866063 0.025271509 -0.2055603 0.17863859 -0.07490508 0.24763109 0.0387312
0.2289542 -0.4875913 0.23274156 -0.2768321 -0.026817944 -0.13994116 -0.21991585 0.3038973
-0.19125178 0.25983226 0.3031933 -0.39075667 0.2532706 0.2169226 -0.14637901 -0.55912226
0.29188982 0.26464325 0.31882757 0.23636043 0.047407854 0.15802172 -0.27194637 0.12336972
0.26323226 -0.21002561 0.22755852 0.08336162 0.0074721645 0.0035829714 0.036788244 0.2737844
-0.5894771 -0.1915404 0.05420675 -0.15513763 -0.5520387 -0.06607255 0.58557016 -0.23275071
-0.5255603 0.23110515 0.2565571 -0.013634176 0.37581107 0.32794762 0.1639115 -0.07745855
0.121402346 0.04882396 -0.23616348 -0.18603377 0.2537636 -0.012112812 -0.22021046 -0.10421427
00000000: 2877 a5bd 75bb 3e3d b0e1 843e df5a 92be
00000010: 8196 233d 0bb5 01be 6dbe cfbd fdf7 a03c
00000020: 7cb6 4bbe 485f 16bc 39ae 8c3e 760e aebc
00000030: 7d9a 10bd 0584 11be 2fbf d03d 113c fabd
00000040: ed39 2abd b6bc 1b3e 5bdf 2cbe 0709 0dbe
00000050: 812d ac3c cf71 c83d 3c4f c13d fc0c 8d3d
00000060: ca4b 5bbe 347d eabd db66 d83c 93f6 743d
00000070: c37a bc3d e6c0 b03d 23bb 6a3e c5a7 35bd
00000080: 595e 02be 863a 12bd 4926 45be 3656 2b3c
00000090: bf1f 263e d43f 4b3e f249 4d3c cb11 9abd
000000a0: 13f1 1c3e 74cc de3d a3f0 033e a985 a8bd
000000b0: 3903 0bbb 707d f3bc a04b cbbd f056 93be
000000c0: d094 873d 0c7c f3bd 8419 7dbd 6f55 cb3d
000000d0: 682a 50bd a91e 62be 020d 543d c39a 9ebd
000000e0: 1654 c03d 96be c23d 352e 9cbc 614c acbe
000000f0: 6b7c 693e 229e 81bd 1ffd b2bd ac98 3ebe
00000100: eaf1 66be ed64 ad3e 3206 cf3c 667e 52be
00000110: 09ed 363e d667 99bd 0193 7d3e 9ba4 1e3d
00000120: f872 6a3e 91a5 f9be ce53 6e3e f0bc 8dbe
00000130: 4eb1 dbbc bc4c 0fbe 9f31 61be 6d98 9b3e
00000140: 82d7 43be bc08 853e 273c 9b3e 4211 c8be
00000150: afac 813e f520 5e3e 61e4 15be a322 0fbf
00000160: 9572 953e 527f 873e 5e3d a33e 7808 723e
00000170: bd2e 423d 72d0 213e 8e3c 8bbe 44a9 fc3d
00000180: 61c6 863e f410 57be 1a05 693e 7fb9 aa3d
00000190: 0fd9 f43b 49d0 6a3b 45af 163d 782d 8c3e
000001a0: f9e7 16bf 2b23 44be e607 5e3d 66dc 1ebe
000001b0: 6952 0dbf 0c51 87bd ede7 153f 3456 6ebe
000001c0: 1f8b 06bf d4a6 6c3e 745b 833e e161 5fbc
000001d0: 4f6a c03e c0e8 a73e 6bd8 273e 97a2 9ebd
000001e0: cba1 f83d a2fb 473d d7d4 71be a37f 3ebe
000001f0: 4ded 813e d174 46bc da7e 61be 4b6e d5bd

encoder.dcrnn_cells.1.gate.weights_pool f4 [2, 2, 128, 128]
0.17236842 -0.08294325 0.1318405 -0.019578246 -0.08971093 -0.090166055 -0.00738338 -0.15678145
0.058475103 -0.09927106 -0.0987606 0.096168205 0.12789606 -0.027959054 -0.048478402 0.028497014
-0.03657935 0.0049003568 -0.18476465 0.05197091 -0.024953421 -0.03532015 -0.041717377 -0.095064566
0.08257316 -0.059708938 0.03583467 -0.044242773 -0.060764205 0.36573043 -0.09159713 -0.019508174
-0.020248622 0.06920903 -0.06622658 0.021438494 -0.037488066 0.13631587 -0.080957755 0.1506394
0.058769327 0.06902225 0.09814375 -0.032699868 -0.019286478 -0.0046166168 0.05469103 -0.04771813
-0.17611529 0.18450606 -0.06739145 -0.03482281 0.13799562 0.00022360502 0.018104486 -0.036539927
-0.08761437 0.07635822 -0.054392606 0.15456513 -0.046365798 -0.025267884 0.0729891 0.17044455
0.39957345 0.17915015 0.45338863 0.11681823 0.06847685 0.117801234 0.20895927 0.05771902
0.38277233 0.22331266 0.116272576 0.24674353 0.42113462 0.108258285 0.3098132 0.061338097
0.08164238 0.13952386 0.17722304 0.5103209 0.17661071 0.2136218 0.16502473 0.08959699
0.4521764 0.19001287 0.33239284 0.1475198 0.20844321 0.16317472 0.18536323 0.12514363
0.16022342 0.4303971 0.077134624 0.19970448 0.107000984 0.39359108 0.10227521 0.45587113
0.4211651 0.39344582 -0.033687066 0.124937624 0.24661165 0.20429252 0.206486 0.117395505
0.45160794 0.48471147 0.16398375 0.14194468 0.34679234 0.08391888 0.06860879 0.36490336
0.2148771 0.14857653 0.19061324 0.9186383 0.030352889 0.10473659 0.32671863 0.36676934
0.05890401 -0.06363816 0.06878052 -0.2730786 -0.21693191 -0.2686582 -0.37696642 -0.7260348
0.22348301 -0.31666645 -0.27298835 -0.15540145 0.20178609 -0.2630644 -0.41564238 -0.28590083
-0.26007047 -0.4041256 -0.5723178 -0.042441268 -0.32993266 -0.71674174 -0.27998388 -0.26686612
-0.05904844 -0.17744713 0.22136733 0.018860478 -0.23427546 0.501491 -0.19138786 -0.4333118
-0.34839734 -0.083451785 -0.26527303 -0.15263495 -0.7578586 0.058678262 -0.31943068 0.06202429
-0.41001427 -0.09403088 -0.20309176 -0.26882693 -0.5457524 0.029073928 -0.5062449 -0.586102
-0.3300728 0.19128832 -0.4294185 -0.26339316 0.048621368 -0.29322422 -0.2837114 -0.40668404
-0.09429251 -0.029186165 -0.24758974 -0.04468141 -0.20742601 -0.2670173 0.29245353 0.26293066
0.27721658 0.44705242 0.31182653 0.67202485 0.7798034 0.65032244 0.45020428 0.81729406
0.23995127 0.60042125 0.8138616 0.5195644 0.32180315 0.7524323 0.52125996 0.6162442
0.7258049 0.6573579 0.4459708 0.2612313 0.5273293 0.3757765 0.71305925 0.636405
0.3112213 0.6134702 0.21875831 0.51894325 0.6485453 0.5463984 0.5236478 0.65767914
0.6482245 0.07985625 0.7736264 0.64437515 0.4455386 0.31117314 0.73985165 0.26497522
0.5599899 0.36687353 0.45456186 0.6720802 0.3877081 0.4213944 0.46053848 0.5932438
0.29308003 0.27996233 0.6743243 0.6500915 0.31360486 0.66857415 0.7029307 0.6046757
0.6202529 0.5835179 0.6441722 0.13972588 0.66983664 0.6928781 0.21563809 0.11784781
00000000: 5981 303e 27de a9bd 3201 073e 8f62 a0bc
00000010: 5dba b7bd fba8 b8bd 48f0 f1bb 518b 20be
00000020: 9783 6f3d a04e cbbd ff42 cabd d6f3 c43d
00000030: 2ff7 023e 630a e5bc 4a91 46bd 9272 e93c
00000040: 3ad4 15bd 2c93 a03b f232 3dbe 73df 543d
00000050: 1e6b ccbc ddab 10bd d7df 2abd 36b1 c2bd
00000060: 1e1c a93d 5c91 74bd 60c7 123d e937 35bd
00000070: e3e3 78bd 0541 bb3e 4797 bbbd 9bcf 9fbc
00000080: 70e0 a5bc 77bd 8d3d cda1 87bd c89f af3c
00000090: 168d 19bd 6396 0b3e 2ecd a5bd 3741 1a3e
000000a0: 1bb8 703d 8a5b 8d3d 97ff c83d 4cf0 05bd
000000b0: adfe 9dbc fd46 97bb b403 603d 1674 43bd
000000c0: 9157 34be 28ef 3c3e 8704 8abd 5da2 0ebd
000000d0: b94e 0d3e 8477 6a39 dc4f 943c e4aa 15bd
000000e0: 2a6f b3bd b361 9c3d c8ca 5ebd 5246 1e3e
000000f0: 10ea 3dbd 98fe cebc 4f7b 953d 0489 2e3e
00000100: e494 cc3e 2373 373e 8e22 e83e 653e ef3d
00000110: 973d 8c3d c641 f13d 6bf9 553e c76a 6c3d
00000120: bcfa c33e 13ac 643e 5120 ee3d 56aa 7c3e
00000130: f59e d73e 85b6 dd3d d69f 9e3e a83d 7b3d
00000140: 1f34 a73d 58df 0e3e f579 353e 64a4 023f
00000150: 70d9 343e acbf 5a3e 3efc 283e a07e b73d
00000160: aa83 e73e bc92 423e 652f aa3e 6e0f 173e
00000170: 2372 553e 4617 273e dccf 3d3e a725 003e
00000180: 9c11 243e 025d dc3e c2f8 9d3d 557f 4c3e
00000190: 5523 db3d c584 c93e aa75 d13d f167 e93e
000001a0: f4a2 d73e bb71 c93e 73fb 09bd 4cdf ff3d
000001b0: c487 7c3e 0f32 513e 1171 533e 0e6d f03d
000001c0: 2839 e73e 1a2c f83e 5beb 273e f259 113e
000001d0: c48e b13e a9dd ab3d c482 8c3d 9dd4 ba3e
000001e0: be08 5c3e 7224 183e 1e30 433e e12b 6b3f
000001f0: 9fa6 f83c 2380 d63d aa47 a73e 31c9 bb3e
00000200: 5545 713d b954 82bd cddc 8c3d f5d0 8bbe
00000210: 6623 5ebe 918d 89be be01 c1be 6bdd 39bf
00000220: bbd8 643e 1b22 a2be 21c5 8bbe 8f21 1fbe
00000230: 03a1 4e3e 61b0 86be 14cf d4be 9861 92be
00000240: f527 85be 8de9 cebe 6b83 12bf e5d6 2dbd
00000250: efec a8be 637c 37bf 0c5a 8fbe ada2 88be
00000260: c7dc 71bd b3b4 35be 1eae 623e 4a81 9a3c
00000270: e8e5 6fbe b761 003f 2efb 43be 0bdb ddbe
00000280: 2361 b2be c5e8 aabd ded1 87be 564c 1cbe
00000290: 0503 42bf 9e58 703d 6b8c a3be 2f0d 7e3d
000002a0: 64ed d1be 4393 c0bd 49f7 4fbe afa3 89be
000002b0: 6eb6 0bbf 722c ee3c 4499 01bf c80a 16bf
000002c0: 4dff a8be 16e1 433e bedc dbbe 78db 86be
000002d0: 3327 473d 7c21 96be 9f42 91be e438 d0be
000002e0: 6e1c c1bd d317 efbc 2a88 7dbe db03 37bd
000002f0: 7c67 54be 7eb6 88be 78bc 953e d99e 863e
00000300: 55ef 8d3e 0ee4 e43e baa7 9f3e d209 2c3f
00000310: 32a1 473f 887b 263f 2d81 e63e 2f3a 513f
00000320: c9b5 753e 35b5 193f 3c59 503f 2c02 053f
00000330: 62c3 a43e 679f 403f 4b71 053f 2ec2 1d3f
00000340: 5ace 393f 9b48 283f 4956 e43e 1cc0 853e
00000350: 0eff 063f c765 c03e 0d8b 363f 70eb 223f
00000360: 6658 9f3e 620c 1d3f 2e02 603e 77d9 043f
00000370: 1107 263f c4e0 0b3f c80d 063f a95d 283f
00000380: 0af2 253f ac8b a33d 610c 463f c5f5 243f
00000390: a31d e43e 1652 9f3e eb66 3d3f d5aa 873e
000003a0: 805b 0f3f d9d6 bb3e 55bc e83e 730d 2c3f
000003b0: ad81 c63e 02c1 d73e b3cb eb3e d3de 173f
000003c0: 960e 963e 3957 8f3e 84a0 2c3f 666c 263f
000003d0: d190 a03e ad27 2b3f 44f3 333f 07cc 1a3f
000003e0: e5c8 1e3f 6e61 153f 78e8 243f 4d14 0f3e
000003f0: 6a7a 2b3f 7660 313f 3bd0 5c3e 315a f13d

encoder.dcrnn_cells.1.gate.bias_pool f4 [2, 128]
-0.115379155 -0.05565854 0.09575746 0.086540684 0.016012693 0.1169902 0.013154369 0.022515781
0.6647332 -0.18091644 0.049077228 -0.08134777 0.56336635 -0.19690526 -0.10637996 -0.009123772
0.042518694 -0.03336042 -0.3729174 0.07865457 0.07753012 0.014976087 -0.056750372 -0.07739621
-0.10454435 0.15147619 0.62827957 0.025765404 -0.022254335 -0.40755844 0.21873534 -0.17564736
-0.06986435 0.1480668 0.14202537 -0.1177947 -0.265988 0.15463528 -0.10770729 0.09228176
-0.19448061 -0.17677133 0.04679774 0.05172748 0.025207479 0.103810966 0.013115189 -0.34985584
-0.09112676 0.0054930463 -0.044846337 -0.15813924 0.17442557 0.05593422 -0.12610161 -0.0025926086
-0.15687647 0.17972165 -0.076899655 0.014156462 -0.1959579 -0.17076448 0.49693745 0.481012
-0.29288718 -0.2764319 -0.045273107 0.18041304 0.20397705 0.3795756 0.062561385 0.0166665
-0.27694854 0.018085234 -0.018337425 -0.18300511 -0.42872047 0.22724943 -0.028615199 0.197244
0.18838425 -0.040491574 0.13958825 -0.20437528 -0.052320756 0.21145876 0.08122078 0.274017
-0.34705746 -0.2097899 0.17293811 -0.14873102 0.14223586 -0.17955148 -0.087981224 0.23815683
0.3457791 -0.23087987 0.21317355 -0.2607874 -0.17891026 -0.08772491 0.3257591 -0.08339838
-0.05648357 -0.1283824 -0.22333018 0.038759515 0.053957984 -0.06973847 -0.09990017 0.08844858
-0.331802 -0.09411435 0.09562275 0.034271877 -0.14179574 0.38474423 0.25392687 -0.21940726
0.1322994 -0.13618915 -0.057773225 -0.5141426 0.21864028 0.011389576 0.08779187 -0.3718255
0.10140878 0.23582467 -0.045850918 -0.06575546 -0.04927426 -0.06416397 -0.0930267 0.055383544
0.300594 0.245158 -0.047910545 0.19689314 0.14317717 0.032209538 0.06874868 0.0382185
-0.013309982 0.0023265793 -0.04385756 0.2856935 0.176307 -0.13108443 -0.1400712 0.024643557
0.28179762 0.065640844 0.2851046 -0.3206237 0.18836696 -0.008870594 -0.13857828 0.027436797
0.1830259 0.274853 0.16558133 0.5208843 0.033219997 0.16916893 -0.06900141 0.25621414
0.08297476 0.08456272 0.5205173 0.024031708 -0.026660461 0.31274933 0.12510987 0.14765209
-0.14181298 0.20982069 -0.13051228 0.0568438 0.1746971 -0.04549783 -0.08078384 0.20414272
0.11736 0.42564937 0.18935032 0.055602647 0.29245484 0.09282529 0.3172974 0.338716
-0.59662676 0.23601535 -0.09337725 0.014744998 0.2510174 0.28619343 0.0478975 0.28653672
-0.58050823 -0.0053982805 -0.053467605 -0.13287573 -0.82277334 -0.055835854 -0.001815218 0.27030686
0.07216851 -0.19281952 -0.094174854 0.1694443 -0.05477138 0.3378922 0.3433247 0.19197696
-0.5389041 0.23429373 -0.24774146 0.11425444 0.10094136 -0.27464584 -0.13093807 0.29920375
0.066272266 -0.03429783 0.06818578 -0.32335344 -0.12945062 -0.36736375 0.30974078 -0.32368338
0.17653206 -0.09854797 0.21269588 0.00029242522 0.030673467 -0.03075069 -0.04554976 0.14669201
-0.7100327 -0.64713925 0.1967806 0.19721745 -0.3865501 -0.007409895 0.23507899 0.01606524
0.109342195 -0.06948646 -1.3273911e-06 0.16938224 0.36392063 -0.076797605 -0.48794615 -0.38504255
00000000: e84b ecbd 36fa 63bd 7d1c c43d 3e3c b13d
00000010: 0d2d 833c 8f98 ef3d 6c85 573c 0473 b83c
00000020: f42b 2a3f 2942 39be 3405 493d a999 a6bd
00000030: c738 103f 88a1 49be bddd d9bd e07b 15bc
00000040: 1528 2e3d f0a4 08bd 08ef bebe a615 a13d
00000050: 1dc8 9e3d 435e 753c 1473 68bd e781 9ebd
00000060: 591b d6bd 931c 1b3e eed6 203f f811 d33c
00000070: b94e b6bc 80ab d0be 28fc 5f3e e7dc 33be
00000080: 0a15 8fbd d39e 173e 196f 113e 593e f1bd
00000090: 942f 88be b658 1e3e a495 dcbd 38fe bc3d
000000a0: ed25 47be 8b03 35be fdae 3f3d 32e0 533d
000000b0: ea7f ce3c d89a d43d 17e1 563c 4e20 b3be
000000c0: aba0 babd 03ff b33b cbb0 37bd 41ef 21be
000000d0: 9e9c 323e 481b 653d c820 01be c1e8 29bb
000000e0: 3aa4 20be f408 383e 917d 9dbd 81f0 673c
000000f0: 30a9 48be e2dc 2ebe 966e fe3e 3447 f63e
00000100: 4ff5 95be 7b88 8dbe 4b70 39bd 32be 383e
00000110: 5cdf 503e bc57 c23e 2f20 803d 2f88 883c
00000120: 33cc 8dbe 7c27 943c 5e38 96bc b165 3bbe
00000130: 4081 dbbe 13b4 683e 6c6a eabc 55fa 493e
00000140: cde7 403e 7eda 25bd 39f0 0e3e c147 51be
00000150: 4a4e 56bd a588 583e 1557 a63d f54b 8c3e
00000160: 84b1 b1be 2ad3 56be b016 313e f24c 18be
00000170: 47a6 113e 58dc 37be 802f b4bd 62df 733e
00000180: f509 b13e c66b 6cbe 2b4a 5a3e ed85 85be
00000190: 4034 37be 1ea9 b3bd e6c9 a63e c5cc aabd
000001a0: 515b 67bd ad76 03be abb0 64be 4cc2 1e3d
000001b0: 0c03 5d3d 0bd3 8ebd 7698 ccbd 8724 b53d
000001c0: f4e1 a9be 06bf c0bd dcd5 c33d ab60 0c3d
000001d0: e732 11be 32fd c43e b402 823e 4cac 60be
000001e0: 7e79 073e 2b75 0bbe 9ea3 6cbd d99e 03bf
000001f0: 3de3 5f3e 589b 3a3c 39cc b33d e95f bebe
00000200: 68af cf3d 067c 713e 2cce 3bbd ccaa 86bd
00000210: ced3 49bd 6668 83bd c884 bebd dbd9 623d
00000220: 75e7 993e b30a 7b3e d93d 44bd 5b9e 493e
00000230: 099d 123e 26ee 033d 1ccc 8c3d 008b 1c3d
00000240: 1c12 5abc 8679 183b fca3 33bd 6b46 923e
00000250: d289 343e ff3a 06be d36e 0fbe 49e1 c93c
00000260: c747 903e b56e 863d 3bf9 913e ca28 a4be
00000270: 45e3 403e f855 11bc 77e7 0dbe 22c3 e03c
00000280: 246b 3b3e 88b9 8c3e 278e 293e ac58 053f
00000290: b111 083d 9f3a 2d3e 9c50 8dbd 802e 833e
000002a0: acee a93d 382f ad3d 9f40 053f 25de c43c
000002b0: 0a67 dabc ae20 a03e cd1c 003e 1c32 173e
000002c0: 6c37 11be 3cdb 563e 03a5 05be 0bd5 683d
000002d0: cce3 323e ef5b 3abd ff71 a5bd ca0a 513e
000002e0: 715a f03d b7ee d93e 0de5 413e 9abf 633d
000002f0: a4bc 953e 301b be3d ce74 a23e 2f6c ad3e
00000300: 88bc 18bf 02ae 713e 923c bfbd 0195 713c
00000310: 5a85 803e f287 923e 2b30 443d f1b4 923e
00000320: 309c 14bf 0fe4 b0bb d900 5bbd 9310 08be
00000330: 46a1 52bf 23b4 64bd 9cec edba a965 8a3e
00000340: 15cd 933d 7b72 45be bfde c0bd ce82 2d3e
00000350: f457 60bd 3500 ad3e 41c8 af3e 9c95 443e
00000360: 9ef5 09bf b2ea 6f3e f0af 7dbe 3bfe e93d
00000370: 58ba ce3d 619e 8cbe a114 06be 3c31 993e
00000380: c1b9 873d e27b 0cbd fca4 8b3d 958e a5be
00000390: b48e 04be 1a17 bcbe 5896 9e3e d4b9 a5be
000003a0: d2c4 343e 85d3 c9bd f3cc 593e a650 9939
000003b0: ec46 fb3c dfe8 fbbc 6392 3abd 6e36 163e
000003c0: b4c4 35bf ebaa 25bf db80 493e 5ff3 493e
000003d0: e5e9 c5be b4ce f2bb 8cb8 703e 409b 833c
000003e0: cdee df3d eb4e 8ebd d028 b2b5 8a72 2d3e
000003f0: ce53 ba3e 1048 9dbd 14d4 f9be 4c24 c5be

encoder.dcrnn_cells.1.update.weights_pool f4 [2, 2, 128, 64]
-0.46174887 -0.12996791 -0.37116525 -0.18798709 0.09440388 -0.15950432 -0.17324567 -0.037493154
0.4683472 0.13124762 0.107133456 -0.3637144 0.49024448 0.16774625 0.34126568 -0.12247081
-0.095245756 -0.3996155 0.6079587 0.4118179 0.25936472 -0.07175338 -0.15812689 0.15880537
0.43907037 0.10820821 -0.57818115 -0.12808509 -0.1035253 -0.20706476 0.18440007 -0.19329378
-0.16823423 0.5332561 0.12831208 0.38891968 0.34710407 -0.4479924 0.19126494 -0.40005445
-0.03541641 0.4260528 -0.31574896 0.1784665 0.106743194 0.29963505 0.13791746 -0.20285377
-0.12400562 -0.47519937 -0.16277617 -0.1587555 -0.38660756 0.14982273 -0.08659788 0.009155853
0.108899415 -0.12054782 0.09678136 0.45765272 -0.08724997 0.17895694 -0.4040125 0.41934597
-0.31087413 -0.74799114 -0.41747507 -0.16071507 0.3179022 -0.18609501 -0.6300327 -0.43349662
0.41076335 0.3273647 0.4055571 -0.74661124 0.37953332 0.20249501 0.5759711 -0.18133627
-0.2841367 -0.2284674 0.05794054 0.38580725 0.35093847 -0.5398134 -0.14777435 0.28351113
0.46956924 0.62436485 -0.3732505 -0.6321507 -0.523593 -0.9298962 0.47274247 -0.14644733
-0.19745804 0.10200711 0.36073324 1.1786578 0.16637857 -0.20911334 0.086383425 -0.5020481
-0.6302063 0.4312507 -0.61178845 0.087563775 0.78354794 0.71614647 0.93987995 -0.21764763
-0.36852658 -0.36666903 -0.328971 -0.2405198 -0.2986015 0.13340524 -0.26387015 0.64936244
0.48006296 -0.38509583 0.55246973 0.36903277 -0.29649937 0.115853086 -0.31992042 0.2955005
0.2685231 0.10042944 0.2648142 0.19303924 -0.083981365 0.15005524 0.084611 0.20699812
-0.4034899 -0.05325692 -0.07091172 0.36309853 -0.34564415 -0.1781243 -0.3040202 0.10573649
0.09301473 0.24915823 -0.112772495 -0.27384603 -0.24385151 0.16096435 0.19549145 -0.12969874
-0.28070515 -0.048128054 0.27853426 0.19914162 0.022051854 0.15041442 -0.22687154 0.20194031
0.22812675 -0.28911364 -0.10501473 -0.3479655 -0.21730286 0.3510627 -0.2380595 0.3579065
0.06148898 -0.31227455 0.20880207 -0.20659192 -0.11645411 -0.3153286 -0.1707403 0.31446862
0.11235063 0.32631916 0.20748815 0.13741349 0.24126123 -0.13575171 0.08340547 -0.022548731
-0.17751877 0.113781475 -0.005778804 -0.42216185 0.09572955 -0.21507503 0.32519707 -0.26606825
-0.44443914 -0.06578493 -0.53150153 -0.1368147 -0.016834583 -0.10166525 -0.16565794 0.13470645
0.56929517 0.030053716 -0.02680614 -0.039963488 0.51563823 0.041221146 0.3132555 -0.094194494
-0.0054638027 -0.40201056 0.5372923 0.28797454 0.119615495 0.43113047 -0.05710191 0.11714701
0.50978416 0.1142753 -0.933836 0.022072654 -0.20449911 -0.07116572 0.22441673 -0.05511767
-0.038047202 0.45603237 0.0731156 0.14923656 0.31547263 -0.27088028 0.09597038 -0.21987511
-0.16911203 0.34645647 -0.86102927 0.07951606 -0.49371418 0.15845127 -0.46207353 -0.08261088
0.098083675 -0.37593257 -0.14314198 -0.15522864 -0.6412819 0.07648692 -0.041503076 0.30556676
-0.18335737 0.005431086 0.119583726 0.44344977 -0.015245635 0.08290103 -0.6499632 0.6341307
00000000: 596a ecbe 4f16 05be 5f09 bebe b07f 40be
00000010: d256 c13d 1a55 23be 5067 31be 6c92 19bd
00000020: 34cb ef3e c765 063e c968 db3d c638 babe
00000030: 5301 fb3e acc5 2b3e 60ba ae3e fad1 fabd
00000040: 3510 c3bd 679a ccbe 2ea3 1b3f ccd9 d23e
00000050: 74cb 843e 70f3 92bd 04ec 21be e09d 223e
00000060: d5cd e03e 449c dd3d ae03 14bf bd28 03be
00000070: 1305 d4bd c908 54be 5fd3 3c3e ceee 45be
00000080: 9845 2cbe 7983 083f 3e64 033e 7b20 c73e
00000090: a0b7 b13e 435f e5be f5da 433e f0d3 ccbe
000000a0: cc10 11bd 9823 da3e d9a9 a1be ecbf 363e
000000b0: 2d9c da3d c469 993e 3c3a 0d3e e6b8 4fbe
000000c0: a9f6 fdbd 554d f3be ccae 26be cd90 22be
000000d0: 6df1 c5be 216b 193e 3b5a b1bd 6e02 163c
000000e0: a806 df3d c7e1 f6bd 4e35 c63d 7551 ea3e
000000f0: 1db0 b2bd 7d40 373e bada cebe 84b4 d63e
00000100: e52a 9fbe 597c 3fbf 4bbf d5be 7e92 24be
00000110: 14c4 a23e b18f 3ebe d349 21bf 45f3 ddbe
00000120: 934f d23e 599c a73e 2ea5 cf3e ea21 3fbf
00000130: 3152 c23e da5a 4f3e d872 133f 37b0 39be
00000140: 5e7a 91be 5cf3 69be 0f53 6d3d 8788 c53e
00000150: 35ae b33e 3631 0abf 2952 17be 5f28 913e
00000160: 616b f03e 60d6 1f3f b11a bfbe a1d4 21bf
00000170: 310a 06bf ad0d 6ebf 4d0b f23e 4af6 15be
00000180: 7132 4abe 1be9 d03d 07b2 b83e 42de 963f
00000190: 255f 2a3e cf21 56be cbe9 b03d 3986 00bf
000001a0: 3355 21bf e4cc dc3e 2b9e 1cbf a354 b33d
000001b0: 9996 483f 6055 373f f99b 703f 05df 5ebe
000001c0: 84af bcbe 0bbc bbbe e36e a8be d34a 76be
000001d0: 4ce2 98be 629b 083e fd19 87be 9e3c 263f
000001e0: d0ca f53e 482b c5be a86e 0d3f ddf1 bc3e
000001f0: c4ce 97be 6244 ed3d 9ccc a3be d74b 973e
00000200: dc7b 893e f3ad cd3d ba95 873e 14ac 453e
00000210: 6cfe abbd 15a8 193e 8848 ad3d 51f7 533e
00000220: 3a96 cebe ee23 5abd 2a3a 91bd 0de8 b93e
00000230: 45f8 b0be 3766 36be 89a8 9bbe 5f8c d83d
00000240: 827e be3d 5623 7f3e 44f5 e6bd 8c35 8cbe
00000250: 36b4 79be d7d3 243e e92e 483e bfcf 04be
00000260: 96b8 8fbe ec21 45bd 0b9c 8e3e c8eb 4b3e
00000270: 17a6 b43c 3d06 1a3e 0351 68be 71c9 4e3e
00000280: 0f9a 693e b406 94be f611 d7bd 8928 b2be
00000290: a484 5ebe 7dbe b33e dfc5 73be 853f b73e
000002a0: dedb 7b3d 73e2 9fbe 36d0 553e d58c 53be
000002b0: 7e7f eebd c072 a1be 8cd6 2ebe 0802 a13e
000002c0: 1618 e63d 4e13 a73e c677 543e 1fb6 0c3e
000002d0: 2f0d 773e 7f02 0bbe 7dd0 aa3d 1eb8 b8bc
000002e0: 7bc7 35be 4306 e93d 1f5c bdbb 9925 d8be
000002f0: db0d c43d a13c 5cbe 3b80 a63e 193a 88be
00000300: 878d e3be 40ba 86bd 7c10 08bf 2719 0cbe
00000310: aee8 89bc df35 d0bd 3ca2 29be 7df0 093e
00000320: 54bd 113f 3633 f63c 8d98 dbbc c1b0 23bd
00000330: de00 043f 81d7 283d 0663 a03e 0be9 c0bd
00000340: b309 b3bb 54d4 cdbe fd8b 093f 6671 933e
00000350: f8f8 f43d 22bd dc3e b1e3 69bd c6ea ef3d
00000360: 3781 023f 2b09 ea3d e00f 6fbf b6d1 b43c
00000370: 3768 51be 55bf 91bd 80cd 653e 11c3 61bd
00000380: 62d7 1bbd 137d e93e a2bd 953d 78d1 183e
00000390: a185 a13e d2b0 8abe 1e8c c43d f126 61be
000003a0: b42b 2dbe be62 b13e 6a6c 5cbf 51d9 a23d
000003b0: 1bc8 fcbe 0d41 223e e794 ecbe e52f a9bd
000003c0: 18e0 c83d 3c7a c0be d093 12be 42f4 1ebe
000003d0: 0d2b 24bf 2da5 9c3d 21ff 29bd 3f73 9c3e
000003e0: 09c2 3bbe 40f7 b13b 50e8 f43d d90b e33e
000003f0: d4c8 79bc 04c8 a93d fd63 26bf 6456 223f

encoder.dcrnn_cells.1.update.bias_pool f4 [2, 64]
0.087861985 0.038308527 0.3141161 -0.05743699 0.42152065 -0.060531594 0.25824425 -0.15357685
-0.21383376 0.0219633 0.15569726 0.12453182 -0.34476882 0.23773795 -0.11939253 0.008116537
-0.14144278 0.12553893 -0.31445187 -0.27820554 0.18332876 0.039922412 -0.012256525 0.0017314161
-0.1642461 -0.019725561 0.2913893 -0.027525377 -0.24752544 -0.5944525 0.0027924653 -0.086565234
-0.10805426 -0.08507083 0.19941844 -0.21306181 -0.20852226 0.08412072 -0.012312479 0.18390317
0.28656366 -0.17063022 0.054376632 0.09157827 -0.099413425 -0.22899927 -0.24136028 0.0006284828
0.3457432 0.34199977 -0.17909393 -0.10511122 0.13104428 -0.06934528 -0.07221451 -0.27239215
0.32066807 -0.054715037 0.17886306 -0.33187136 -0.35163102 -0.06276475 0.11764571 -0.21357724
0.46079463 0.15391575 0.22465761 0.3258164 0.049739406 0.063892186 -0.18264022 0.27756298
-0.1411027 -0.22339699 -0.23613766 0.36776915 -0.19836542 0.4150888 -0.044739928 0.012093106
-0.05811463 0.23572174 -0.33023584 -0.23920532 -0.09172449 0.38352606 0.21819617 -0.17338265
-0.25715113 0.20922895 0.07956371 -0.1396671 -0.37574643 -0.4670623 0.09041327 -0.3001223
0.32604286 -0.46410975 -0.038769715 -0.2214728 -0.38224497 0.303864 0.14541095 0.29016033
0.36092412 -0.36901417 0.19421257 -0.12641776 -0.082113884 -0.3573271 -0.15765828 0.23694398
0.42771783 0.13501453 -0.23623797 0.17465597 0.3525041 -0.18575321 0.06801008 -0.29197043
0.14630078 0.18444279 0.23156998 -0.026501877 0.10029536 -0.31161582 0.20079336 -0.20066336
00000000: fcf0 b33d 67e9 1c3d d3d3 a03e 0d43 6bbd
00000010: 8ed1 d73e faef 77bd 9738 843e 4043 1dbe
00000020: 3df7 5abe 61ec b33c 1a6f 1f3e 8a0a ff3d
00000030: 8a85 b0be 9471 733e 1284 f4bd 39fb 043c
00000040: 60d6 10be 478d 003e d6ff a0be f570 8ebe
00000050: 89ba 3b3e af85 233d 98cf 48bc aff0 e23a
00000060: 2130 28be 8097 a1bc fa30 953e e67c e1bc
00000070: 4f77 7dbe 0a2e 18bf cb01 373b 1d49 b1bd
00000080: 8d4b ddbd 9e39 aebd 5934 4c3e e02c 5abe
00000090: dc86 55be 7c47 ac3d 48ba 49bc 1d51 3c3e
000000a0: 79b8 923e b0b9 2ebe 08ba 5e3d 638d bb3d
000000b0: 4499 cbbd c97e 6abe 2627 77be c4c0 243a
000000c0: 4105 b13e 981a af3e 6664 37be 8d44 d7bd
000000d0: 7930 063e e604 8ebd 33e5 93bd fc76 8bbe
000000e0: 9b2e a43e e01c 60bd e127 373e 0beb a9be
000000f0: fb08 b4be ce8a 80bd 3cf0 f03d feb3 5abe
00000100: 46ed eb3e 179c 1d3e a50c 663e 68d1 a63e
00000110: 8cbb 4b3d e8d9 823d 0a06 3bbe bc1c 8e3e
00000120: 3a7d 10be 2ec2 64be 12ce 71be 3d4c bc3e
00000130: 4e20 4bbe 8586 d43e 3741 37bd 2a22 463c
00000140: 9b09 6ebd 0a61 713e ac14 a9be 3df2 74be
00000150: 0dda bbbd 875d c43e d16e 5f3e 398b 31be
00000160: 50a9 83be 1d40 563e 4cf2 a23d e404 0fbe
00000170: d661 c0be ca22 efbe 982a b93d a1a9 99be
00000180: 17ef a63e cb9f edbe fecc 1ebd c4c9 62be
00000190: 9db5 c3be 1094 9b3e 9ce6 143e e58f 943e
000001a0: 0ccb b83e 6def bcbe a9df 463e a873 01be
000001b0: 532b a8bd 94f3 b6be 2c71 21be 71a1 723e
000001c0: d5fd da3e 4041 0a3e 5ee8 71be 04d9 323e
000001d0: 6b7b b43e 1736 3ebe de48 8b3d 267d 95be
000001e0: dfcf 153e 92de 3c3e ae20 6d3e 771a d9bc
000001f0: a767 cd3d 1c8c 9fbe c69c 4d3e b27a 4dbe
